cv_steps/tabnet_raw_step1_fold2_3/network.pt (torch, 682315 bytes, 56 tensors)

embedder.embeddings.0.weight f4 [3, 1]
0.0530255 -0.16754913 0.084493354
00000000: 4431 593d 0092 2bbe da0a ad3d

embedder.embeddings.1.weight f4 [2, 1]
0.027620094 -0.027620407
00000000: 8943 e23c 3144 e2bc

tabnet.initial_bn.weight f4 [1038]
-0.109577246 0.21069956 0.011897039 0.06968426 0.10434769 0.1487909 0.0148107195 0.045888513
0.04380936 0.1763419 0.32655704 -5.377838e-05 -0.0027254068 0.1360482 0.15376455 0.19217141
0.15406814 0.082771085 0.03811784 0.115457326 0.13177465 0.18130745 0.28880832 0.001233868
0.18472935 0.19866583 0.10633516 0.1514329 -0.008817715 0.1500711 0.19005643 0.2094002
0.24691606 0.09945546 0.1750845 0.15639323 0.18594521 0.09673812 0.20960926 0.10225122
-0.05684675 0.26891685 0.00064189825 0.20075333 0.043285456 -0.00064103684 -0.0008188542 0.027666852
0.11512866 0.25349277 0.18401596 0.0082926275 0.18619208 0.23599644 0.01835152 0.11996441
0.1044587 0.1171371 0.12857397 0.23176406 0.025275217 -7.9895384e-05 0.27509263 -7.9802305e-07
0.27369756 0.15963346 0.00066721294 0.17477895 0.04623912 6.158877e-05 0.2387884 0.062495604
0.16094384 0.018506918 0.03109852 0.00028563355 0.005658924 0.3757924 0.011183957 0.111869834
-9.461446e-07 0.017723689 -0.12822422 -0.00022909255 -0.047950037 0.1262016 0.16880499 0.10070938
0.13331488 0.024730073 0.16574351 0.11593166 0.18210238 0.2899696 0.15422665 0.14889833
0.10257161 -0.0058765127 0.1503735 0.06767684 0.101918966 0.12911713 0.28507185 0.14771843
0.19230269 0.2269083 -0.039790243 0.10309403 0.115989126 0.16152242 0.08971379 0.114954114
0.18028371 0.18897694 0.004878608 2.3648018e-07 0.01680721 -0.0190627 0.16583811 0.1492038
0.19568154 -0.049636506 0.198474 -0.00011370936 0.16413991 0.18970464 0.2392668 0.10408976
0.00040947308 0.08466939 0.15689659 0.106702596 0.26080438 -0.034726206 0.03675133 0.18521166
0.19166058 0.16597147 0.17512712 0.052719228 0.1923776 6.834933e-06 0.120098434 -1.4072845e-06
0.23010333 0.10842014 0.053027738 0.0046501793 0.06093719 0.16055574 0.12321166 0.22299474
-0.0032230907 0.0022866142 0.23260753 0.08249478 -0.0032758233 -2.4699342e-05 0.1972722 0.30579668
0.39102557 0.19867492 -4.0531613e-05 -0.004466433 0.21364863 -2.2918039e-05 0.22015768 -0.06491617
0.21131337 0.18345778 0.083408706 0.1749495 0.13249327 0.000161323 0.034788117 0.19040555
0.15895157 0.44323996 0.079702094 0.1268494 0.3718768 0.082747005 0.21927412 0.21047698
0.006199183 0.21800433 -0.0018454754 0.1197492 0.055159964 -8.669502e-05 0.10883061 0.0407782
0.16540504 0.04630817 0.07049482 0.0016401937 0.0027184654 -0.025933739 -0.00019433236 0.13607839
0.09321995 0.06192036 0.17037213 0.12998599 0.22889452 0.29674846 0.102754556 0.01171728
0.0780727 0.22975789 0.1800552 0.12316837 0.20068261 0.13686067 0.13971151 0.19613656
0.0022948505 0.12959677 0.15257813 0.2085558 0.16525847 0.15402956 0.0259465 0.22373953
0.07837963 2.2493901e-07 -0.0047766534 0.23412485 0.11325837 0.13795805 3.055475e-05 0.13822679
0.053585764 0.22377603 0.00042955214 0.123736665 0.18925177 0.24616535 0.008594979 0.100846514
0.13317773 0.17188816 -0.0015604438 0.18364346 0.14271098 0.0071971994 0.16201451 0.0992938
0.014061867 0.09356899 -0.06934082 -0.02292989 1.9518902e-06 6.29625e-07 0.026084373 0.18630333
00000000: 096a e0bd a0c1 573e cceb 423c 9fb6 8e3d
00000010: 3eb4 d53d a45c 183e a9a8 723c 98f5 3b3d
00000020: 7271 333d f992 343e 7c32 a73e 1990 61b8
00000030: bd9c 32bb 3850 0b3e 7474 1d3e 95c8 443e
00000040: 0ac4 1d3e e383 a93d 7421 1c3d e474 ec3d
00000050: efef 063e a9a8 393e afde 933e bdb9 a13a
00000060: b129 3d3e 0e6f 4b3e 40c6 d93d 3a11 1b3e
00000070: 2d78 10bc 3dac 193e 279e 423e 026d 563e
00000080: 90d7 7c3e 4eaf cb3d 5a49 333e 8c25 203e
00000090: 6c68 3e3e a31e c63d cfa3 563e 1669 d13d
000000a0: 23d8 68bd 78af 893e 1045 283a 4892 4d3e
000000b0: 174c 313d 410b 28ba 60a8 56ba 98a5 e23c
000000c0: 93c8 eb3d cec9 813e ae6e 3c3e cddd 073c
000000d0: 23a9 3e3e 0da9 713e ed55 963c e7af f53d
000000e0: 71ee d53d 93e5 ef3d e5a8 033e 8f53 6d3e
000000f0: f90d cf3c 828d a7b8 f1d8 8c3e ba37 56b5
00000100: 1622 8c3e f476 233e e7e7 2e3a 41f9 323e
00000110: 3b65 3d3d 3829 8138 f284 743e 64fb 7f3d
00000120: 76ce 243e d29b 973c 53c2 fe3c 16c1 9539
00000130: 7f6e b93b dd67 c03e ea3c 373c 031c e53d
00000140: 90fa 7db5 4531 913c 364d 03be 9038 70b9
00000150: 4267 44bd fe3a 013e 37db 2c3e b840 ce3d
00000160: b283 083e b996 ca3c abb8 293e 946d ed3d
00000170: 0c79 3a3e e576 943e 97ed 1d3e ce78 183e
00000180: 1011 d23d c38f c0bb 83fb 193e 289a 8a3d
00000190: e4ba d03d 4837 043e f0f4 913e 8043 173e
000001a0: ffea 443e a65a 683e 18fb 22bd f622 d33d
000001b0: b58b ed3d 2266 253e ddbb b73d 106d eb3d
000001c0: 4b9c 383e 2c83 413e bbdc 9f3b 2deb 7d34
000001d0: 46af 893c 6129 9cbc 77d1 293e e2c8 183e
000001e0: be60 483e a64f 4bbd c53c 4b3e 3f77 eeb8
000001f0: 4b14 283e ef41 423e 5b02 753e 032d d53d
00000200: 8cae d639 2567 ad3d 80a9 203e e486 da3d
00000210: 2788 853e 113d 0ebd 9088 163d 20a8 3d3e
00000220: ac42 443e 6df4 293e 8654 333e 1ef0 573d
00000230: a2fe 443e a157 e536 2bf6 f53d ede1 bcb5
00000240: 35a0 6b3e 610b de3d 9d33 593d 8860 983b
00000250: 4699 793d b968 243e 6556 fc3d bc58 643e
00000260: 7d3a 53bb 05db 153b ab30 6e3e 06f3 a83d
00000270: 32af 56bb 6f31 cfb7 b901 4a3e 6291 9c3e
00000280: 8134 c83e 7071 4b3e 7d00 2ab8 285b 92bb
00000290: b5c6 5a3e 1d40 c0b7 0471 613e c5f2 84bd
000002a0: 8862 583e 5bdc 3b3e 2fd2 aa3d f625 333e
000002b0: 51ac 073e d028 2939 fc7d 0e3d acf9 423e
000002c0: 33c4 223e 59f0 e23e da3a a33d cfe4 013e
000002d0: a366 be3e 4377 a93d 6589 603e 4787 573e
000002e0: 8422 cb3b 873c 5f3e e1e3 f1ba 123f f53d
000002f0: 6aef 613d 09d0 b5b8 95e2 de3d 0b07 273d
00000300: f05f 293e a3ad 3d3d 975f 903d c5fb d63a
00000310: 4828 323b fe72 d4bc b2c5 4bb9 2258 0b3e
00000320: 1aea be3d 34a0 7d3d 0876 2e3e 0c1b 053e
00000330: 5363 6a3e 6aef 973e fb70 d23d d6f9 3f3c
00000340: 94e4 9f3d a745 6b3e 6460 383e b33f fc3d
00000350: be7f 4d3e 3425 0c3e 8910 0f3e 06d8 483e
00000360: 3465 163b 04b5 043e 713d 1c3e a78f 553e
00000370: 8439 293e edb9 1d3e c18d d43c fa1b 653e
00000380: 8085 a03d c486 7134 7985 9cbb 6dbe 6f3e
00000390: 01f4 e73d e044 0d3e ea27 0038 538b 0d3e
000003a0: bf7c 5b3d 8b25 653e 8335 e139 a669 fd3d
000003b0: 37cb 413e c512 7c3e f4d1 0c3c 9e88 ce3d
000003c0: be5f 083e 7303 303e ce87 ccba 080d 3c3e
000003d0: d422 123e 7cd6 eb3b 22e7 253e 8c5a cb3d
000003e0: bf63 663c 19a1 bf3d 8f02 8ebd 77d7 bbbc
000003f0: 38fd 0236 8003 2935 e5ae d53c 4dc6 3e3e

tabnet.initial_bn.bias f4 [1038]
0.00059262436 -0.031031521 0.35528553 -0.00012367875 1.5111975e-05 1.02057775e-05 0.00089204166 6.371399e-05
-0.18687733 7.555003e-05 0.0016796679 -4.9808015e-08 3.844812e-07 0.0015258526 0.00010849263 -0.33423036
-0.00021719193 8.17763e-05 -3.4976056e-06 -2.547531e-05 -0.00019877423 -0.0003260086 0.0015924431 -7.904851e-07
-0.00017048996 2.519129e-05 0.00024026644 -0.00013950725 -1.7582182e-05 -0.00010950196 2.4090352e-05 0.0002965417
-0.0001194663 0.00016161172 0.04495237 1.9448324e-05 -0.007312793 -0.00035635545 0.00019057142 0.39278802
-0.3021607 0.060743976 -2.1736944e-06 0.00016593341 -0.0002478886 -5.663272e-07 -1.4762212e-05 0.00012881002
6.679947e-05 -0.00015000413 0.0013981258 -1.7288744e-06 -0.00092939736 -0.0030318757 -6.808955e-06 -0.000100415484
8.523463e-05 -7.2045135e-05 -0.3764294 0.00016958211 0.30283067 1.1136765e-07 2.7623706e-05 -2.649479e-09
-7.0248716e-05 -0.0015304765 -4.8678153e-06 -6.983367e-05 -0.00014907503 -6.659362e-07 -0.000312441 0.00039366103
1.6420621e-05 2.2552846e-05 1.6781285e-05 -7.474598e-06 8.169119e-05 0.0003109164 -1.16746705e-05 -0.0005940782
-4.0545153e-10 -0.00012364528 -4.6946174e-05 -2.0467867e-06 -4.5224893e-05 -2.013499e-05 9.398131e-06 -0.00020393636
-2.8801816e-05 3.175395e-05 -0.00015381367 -0.00020929653 -0.00021057091 0.00021710596 -4.7526246e-06 7.5483176e-06
0.00025129018 -6.6131074e-06 0.00020718771 2.1135183e-05 -0.000101211146 -0.00053513586 0.27980813 -0.08019191
0.0016948695 0.00341047 2.1181282e-05 -0.0007753886 -6.7919805e-06 -0.0014981361 -9.921559e-05 2.607447e-05
2.8161865e-06 0.19664799 -5.290523e-05 1.9069701e-10 -3.1948566e-05 0.00022922442 4.554977e-05 8.398126e-05
-0.0039881957 0.00015439308 0.0001236703 2.445833e-07 -0.00055480195 7.447924e-05 -0.00031800356 -0.00013303375
1.050869e-06 0.002338309 0.00020137578 0.40828282 0.0007555644 0.00011687966 -7.443428e-05 -1.6792897e-05
7.026686e-05 -0.00047854683 0.0016365766 -4.5985373e-05 0.0008339891 -9.13315e-10 0.00021102079 -3.1365948e-09
0.0008509914 6.301707e-05 -0.4843811 -9.01726e-06 -0.0013682473 -8.715852e-05 0.00016519247 0.006884616
9.68003e-06 2.3855733e-05 0.00070710503 -7.0880655e-05 -0.00037467264 1.8537595e-07 -9.045331e-05 0.027888143
0.063682 0.000119794655 -9.599859e-07 -4.2199703e-05 -3.0778618e-05 -2.6841146e-08 3.6202367e-05 -0.00036516337
0.0001223278 -0.00015562757 6.805084e-05 -0.00018514042 0.0008927861 -1.4872471e-06 0.66427606 -0.0010429727
-0.00047715317 -0.0011532683 4.713397e-06 -0.00030482115 -0.12500519 -7.93537e-05 -0.0005727832 0.0011937039
-2.614121e-05 -0.02560108 -1.5263255e-06 0.00018606686 0.0001036302 -2.1283102e-08 -0.00043280626 0.00015251567
-0.00037097404 -0.00010285133 -0.00015199452 -3.0887543e-06 0.3604554 -1.1177909e-05 2.5681865e-07 0.00016345101
5.6761986e-05 0.00020794591 -0.0002759472 5.2932533e-05 0.00016911772 3.8627197e-05 -5.5696205e-06 2.9076167e-05
-3.2710188e-06 -0.00059137965 -0.0010086407 -0.00025058264 0.0012952876 8.6778644e-05 -0.000380952 -0.0020055515
0.00014403758 0.0005123902 -0.00023502932 -0.0054810937 -0.0011613414 0.0008611466 4.7674464e-05 0.00020856847
-4.1156957e-07 -2.7969566e-10 9.538585e-06 0.00014730457 -0.0014156884 -0.35590446 -1.0679646e-07 -4.6363733e-05
-0.0005173988 -0.0006036185 -3.6711162e-07 -4.4676774e-05 -5.1462634e-05 5.4123925e-06 -0.0026360375 -0.00040298287
4.3228494e-05 -0.00063746225 -3.05508e-06 -0.00042899614 0.00016588323 -1.9250438e-05 -4.736991e-05 0.0012213247
-6.6616684e-07 -4.0660696e-05 -0.00030985035 5.501226e-06 2.0673161e-07 -1.8204607e-09 -8.601472e-06 -0.000437019
00000000: 595a 1b3a d135 febc fce7 b53e c3af 01b9
00000010: 7089 7d37 7b39 2b37 e7d7 693a 309e 8538
00000020: c55c 3fbe 9d70 9e38 4d28 dc3a 7eec 55b3
00000030: b26a ce34 1eff c73a 8a86 e338 3e20 abbe
00000040: 04be 63b9 517f ab38 68b8 6ab6 d0b3 d5b7
00000050: 0d6e 50b9 22ec aab9 86b9 d03a b931 54b5
00000060: 8dc5 32b9 e251 d337 08f0 7b39 b148 12b9
00000070: 737d 93b7 6ba4 e5b8 a315 ca37 2779 9b39
00000080: fb89 fab8 5176 2939 fa1f 383d f524 a337
00000090: 27a0 efbb 38d5 bab9 20d4 4739 831b c93e
000000a0: cfb4 9abe adce 783d c9df 11b6 69fe 2d39
000000b0: 0bf7 81b9 b505 18b5 38ab 77b7 2d11 0739
000000c0: b116 8c38 6d4a 1db9 5141 b73a ac0b e8b5
000000d0: cda2 73ba 6fb2 46bb 7a78 e4b6 2796 d2b8
000000e0: febf b238 f016 97b8 5bbb c0be dad1 3139
000000f0: 9f0c 9b3e 0329 ef33 75b9 e737 2112 36b1
00000100: 7e52 93b8 459a c8ba 3756 a3b6 ab73 92b8
00000110: 0651 1cb9 cac2 32b5 1fcf a3b9 4a64 ce39
00000120: 04bf 8937 de2f bd37 89c5 8c37 4fce fab6
00000130: a051 ab38 7e02 a339 54de 43b7 eabb 1bba
00000140: 3be6 deaf c7a6 01b9 12e8 44b8 875b 09b6
00000150: dcaf 3db8 90e7 a8b7 aaac 1d37 c0d7 55b9
00000160: 6e9b f1b7 8b2f 0538 0b49 21b9 9c76 5bb9
00000170: b3cc 5cb9 f0a6 6339 bc78 9fb6 8e47 fd36
00000180: 99bf 8339 29e6 ddb6 8740 5939 764b b137
00000190: 5241 d4b8 5c48 0cba 0343 8f3e a83b a4bd
000001a0: 6226 de3a 3182 5f3b 75ae b137 7343 4bba
000001b0: abe6 e3b6 1b5d c4ba f711 d0b8 7fba da37
000001c0: b7fd 3c36 175e 493e 8fe6 5db8 70ac 512f
000001d0: 8300 06b8 f65b 7039 b10c 3f38 181f b038
000001e0: 69af 82bb 94e4 2139 7ead 0139 464f 8334
000001f0: 2170 11ba bd31 9c38 b7b9 a6b9 fa7e 0bb9
00000200: 950b 8d35 513e 193b 6628 5339 720a d13e
00000210: 1211 463a 4a1d f538 9a19 9cb8 79de 8cb7
00000220: 3c5c 9338 78e5 fab9 6682 d63a 6be0 40b8
00000230: 10a0 5a3a d40c 7bb0 7645 5d39 8f8b 57b1
00000240: 1115 5f3a 0828 8438 cd00 f8be d648 17b7
00000250: c356 b3ba e0c8 b6b8 8437 2d39 5898 e13b
00000260: 6a67 2237 cc1d c837 045d 393a c3a5 94b8
00000270: b66f c4b9 c10b 4734 c0b1 bdb8 ad75 e43c
00000280: b56b 823d 443a fb38 ddd8 80b5 96ff 30b8
00000290: 4a18 01b8 4e90 e6b2 ffd7 1738 6673 bfb9
000002a0: 1e45 0039 f52f 23b9 84b6 8e38 4122 42b9
000002b0: dc09 6a3a 6c9d c7b5 ff0d 2a3f 5bb4 88ba
000002c0: 6a2a fab9 4329 97ba c627 9e36 67d0 9fb9
000002d0: 5c01 00be b16a a6b8 d426 16ba 0e76 9c3a
000002e0: d249 dbb7 5bb9 d1bc 25dc ccb5 f11a 4339
000002f0: 0a54 d938 09d2 b6b2 46ea e2b9 9dec 1f39
00000300: 4b7f c2b9 e3b1 d7b8 b860 1fb9 6548 4fb6
00000310: 9c8d b83e c188 3bb7 e3e0 8934 0c64 2b39
00000320: b813 6e38 0e0c 5a39 02ad 90b9 e003 5e38
00000330: 3155 3139 a303 2238 ade2 bab6 98e8 f337
00000340: ad83 5bb6 d106 1bba 5e34 84ba a260 83b9
00000350: a4c6 a93a eefc b538 83ba c7b9 926f 03bb
00000360: cb08 1739 ed51 063a 3472 76b9 bf9a b3bb
00000370: 2738 98ba 92be 613a 11f6 4738 2cb3 5a39
00000380: b1f5 dcb4 aac3 99af e907 2037 c575 1a39
00000390: 9f8e b9ba 1c39 b6be fa57 e5b3 ae76 42b8
000003a0: 0ca2 07ba 273c 1eba 7017 c5b4 5263 3bb8
000003b0: 95d9 57b8 199c b536 5fc1 2cbb 7247 d3b9
000003c0: 3e50 3538 5e1b 27ba e005 4db6 e3ea e0b9
000003d0: f1f0 2d39 007c a1b7 0eaf 46b8 db14 a03a
000003e0: a3d2 32b5 178b 2ab8 6973 a2b9 2c97 b836
000003f0: f4f9 5d34 c433 fab0 0a4f 10b7 b31f e5b9

tabnet.initial_bn.running_mean f4 [1038]
0.00021938843 0.00049121754 0.0059565115 -0.0031677524 0.0007554401 0.0057851016 0.0012626199 -0.0006186665
0.007849354 -0.0027853083 -0.020070495 -0.00058119284 -0.0045465515 -0.0017969785 -0.0012486317 0.0076131173
-0.0016083199 0.000979261 -0.0012472788 -0.00483602 0.002417004 0.004784791 -3.1468586e-05 0.002944498
0.0053899665 -0.0001264728 -0.00030808503 -0.00018863047 -0.0018571838 0.0003818993 -0.0009795416 -0.0008101024
-0.00030745435 0.01617846 -0.003704465 -4.515827e-07 0.0031136328 -0.0018144214 -0.0020072553 -0.042039588
0.03084382 0.00228464 -0.0007370577 -0.0011530018 -0.0022493578 -0.001895615 0.0058022924 0.0034701177
0.0052923765 0.0026339816 0.0054624192 -0.002929226 -0.04396657 0.0036402144 -0.0005238081 -0.00094158656
0.0050848927 -0.008439896 -0.004872075 0.004167318 -0.02449695 -0.0070696357 -0.003145012 0.0013348159
-0.014553006 -0.005524923 -0.0020316334 -0.004634027 0.0031969917 -0.061642323 0.004283303 0.004454271
0.0015586998 0.0025220553 -0.019064188 0.0009618492 0.009496439 -0.04691447 0.008276102 -0.0010355435
0.006934691 -0.005888982 0.002137726 -0.0016694226 0.0047832844 -0.0007693617 0.0013886752 0.0030493303
0.009953879 0.0024949363 0.0102243135 -0.00029417363 0.0021320991 0.005263383 0.0024331526 0.0051157568
-0.003530463 0.0054926653 -0.0110726515 0.004973639 -0.010901158 -0.00080695574 0.02051668 0.0013514198
0.0023058238 0.0025432515 0.000676452 0.0037980506 0.0070794756 0.00027572722 0.0017438045 -0.0019599886
-0.0015450502 0.0016965835 -0.0032253135 -0.017520728 -0.0036828325 0.00020907812 0.0044565825 0.00042499456
-0.0011303963 0.0008156745 -0.0045939134 -0.010670925 -0.002862198 0.027013883 -0.0024279265 0.008127666
0.0054525696 0.0034245069 -0.025179258 0.0036219386 0.0059661167 0.03316483 0.0057098614 -5.7565354e-05
0.00442721 0.0025259121 0.005396202 -0.005475952 -0.002826279 0.005458224 0.0002520358 -0.0045804013
0.010519662 -0.0045962567 0.004610058 0.005881904 0.00523889 0.014920817 0.0032649802 0.0014881513
0.0031224373 -0.0050183316 -0.004246243 0.0059953886 -0.0014172131 0.011622349 0.0038599041 0.0023607004
0.029972544 0.004677337 -0.0069206236 -0.0014355419 0.00032764953 0.008466737 0.0062938356 0.0011095053
-0.00013229632 -0.0012809327 -0.0006983494 -0.005924076 0.014248901 0.0015820754 -0.003600682 -0.0029659544
0.004602342 -0.0043812864 0.0018622876 0.0061648465 -0.003865422 0.0007075739 0.00061787176 -0.000363632
0.0022110634 0.00048216473 -0.0019366804 -0.021200275 -0.003613351 -0.00066120696 0.008628654 -0.013147508
-0.00057854125 0.004680385 0.0021056489 -0.0043758354 -0.001313125 -0.018379321 -0.0006924235 0.0059679
-0.0026496658 0.00019930517 0.00054533535 0.016522203 -0.014490432 -0.006407384 -0.0018534745 0.005174432
-0.0019792016 -0.0056349523 0.016405137 -0.002335401 0.0026723503 0.0012477002 0.0029298489 0.00088502653
-0.004990674 0.016214764 -0.002895093 -0.0038435073 0.0015523991 -0.0013852749 0.0039386805 0.00096100365
-0.00039757515 0.006017089 0.0037688506 0.0020560864 0.0071741673 0.0005905699 -0.07133595 0.0044169906
0.0007125929 -0.003904424 -0.0005797979 -0.002196495 0.0010832252 0.0033194222 0.010093164 0.0054500247
-0.0039350926 0.0006697342 0.0011255333 0.005919385 0.0016803232 0.008009722 -2.2929393e-05 0.002252279
0.0028477092 -0.002857303 0.033558764 0.0014929461 -0.005350822 0.0019595951 0.0011540891 -0.0013284717
00000000: a20b 6639 0dc5 003a d72e c33b 119a 4fbb
00000010: ba08 463a f390 bd3b 7e7e a53a 022e 22ba
00000020: 949a 003c b889 36bb e16a a4bc 315b 18ba
00000030: 3dfb 94bb 9888 ebba 21a9 a3ba 7577 f93b
00000040: 43ce d2ba 8c5a 803a bb7b a3ba 7a77 9ebb
00000050: 9966 1e3b bcc9 9c3b 23fd 03b8 7bf8 403b
00000060: 519e b03b c99d 04b9 7986 a1b9 1bcb 45b9
00000070: bf6c f3ba a839 c839 f663 80ba 0d5d 54ba
00000080: d331 a1b9 b188 843c 9cc6 72bb 0e71 f2b4
00000090: 170e 4c3b e1d1 edba 288c 03bb b431 2cbd
000000a0: 2eac fc3c e6b9 153b 1b37 41ba 5220 97ba
000000b0: f669 13bb 4976 f8ba 2821 be3b ea6a 633b
000000c0: ac6b ad3b e19e 2c3b 18fe b23b 42f8 3fbb
000000d0: 4a16 34bd aa90 6e3b 2b50 09ba ced4 76ba
000000e0: 2c9f a63b 7d47 0abc eda5 9fbb ff8d 883b
000000f0: d4ad c8bc 67a8 e7bb 8c1c 4ebb fdf4 ae3a
00000100: bb6f 6ebc 6a0a b5bb 2725 05bb 09d9 97bb
00000110: 9f84 513b a97c 7cbd f35a 8c3b 22f5 913b
00000120: 494d cc3a 1149 253b 802c 9cbc 9b24 7c3a
00000130: f496 1b3c 6329 40bd 7d98 073c 13bb 87ba
00000140: 683c e33b 5df8 c0bb 1719 0c3b 87d0 daba
00000150: 19bd 9c3b fdae 49ba 3504 b63a 46d7 473b
00000160: 9815 233c 1682 233b e183 273c 513b 9ab9
00000170: b0ba 0b3b 7578 ac3b 8775 1f3b 14a2 a73b
00000180: 575f 67bb d1fb b33b 116a 35bc e8f9 a23b
00000190: c59a 32bc e289 53ba 9912 a83c 2022 b13a
000001a0: 4e1d 173b aeac 263b ed53 313a b7e8 783b
000001b0: f2fa e73b 7b8f 9039 5f90 e43a 2773 00bb
000001c0: 4883 caba e55f de3a c85f 53bb a187 8fbc
000001d0: ad5b 71bb fb3b 5b39 8608 923b ced1 de39
000001e0: ce29 94ba fdd2 553a 8a88 96bb 1ad5 2ebc
000001f0: b793 3bbb 384c dd3c d91d 1fbb e729 053c
00000200: 78ab b23b b16d 603b bb44 cebc 0c5e 6d3b
00000210: 6a7f c33b d8d7 073d ca19 bb3b 5472 71b8
00000220: 2112 913b c689 253b a0d2 b03b 9d6f b3bb
00000230: 1839 39bb e7da b23b ac23 8439 3117 96bb
00000240: a95a 2c3c 329c 96bb f80f 973b fdbc c03b
00000250: ffaa ab3b 7176 743c 47f9 553b 120e c33a
00000260: cea1 4c3b d170 a4bb 1124 8bbb f774 c43b
00000270: c8c1 b9ba aa6b 3e3c 72f6 7c3b fbb5 1a3b
00000280: fb88 f53c 5944 993b 66c6 e2bb cb28 bcba
00000290: 60c8 ab39 12b8 0a3c 853c ce3b d26c 913a
000002a0: 06b9 0ab9 f8e4 a7ba 6f11 37ba c01e c2bb
000002b0: 3974 693c a45d cf3a 6bf9 6bbb 7560 42bb
000002c0: 3ecf 963b e590 8fbb 0118 f43a 7b02 ca3b
000002d0: 0553 7dbb 7b7c 393a acf8 213a dca5 beb9
000002e0: 7de7 103b 0ecb fc39 36d8 fdba 33ac adbc
000002f0: f8cd 6cbb d954 2dba 335f 0d3c a568 57bc
00000300: 3fa9 17ba ea5d 993b edfe 093b 2b63 8fbb
00000310: 2a1d acba 3b90 96bc c183 35ba 608e c33b
00000320: 04a6 2dbb 93fc 5039 d6f4 0e3a 9259 873c
00000330: 4769 6dbc 08f5 d1bb 49f0 f2ba 488e a93b
00000340: 7eb5 01bb 68a5 b8bb 1164 863c 870d 19bb
00000350: 9922 2f3b df89 a33a b502 403b 2001 683a
00000360: cf88 a3bb d3d4 843c 9abb 3dbb 5ae3 7bbb
00000370: df79 cb3a 1d92 b5ba 0c10 813b ddeb 7b3a
00000380: a271 d0b9 002b c53b d2fe 763b 68bf 063b
00000390: 4715 eb3b 7ad0 1a3a 9518 92bd 67bc 903b
000003a0: 4dcd 3a3a 5de1 7fbb 94fd 17ba 12f3 0fbb
000003b0: 02fb 8d3a aa8a 593b cc5d 253c 1f96 b23b
000003c0: f3f1 80bb 1a91 2f3a a186 933a 66f7 c13b
000003d0: 4a3e dc3a 363b 033c 7f58 c0b7 f99a 133b
000003e0: a2a0 3a3b 9741 3bbb ea74 093d f5ae c33a
000003f0: f355 afbb 8d6c 003b ce44 973a 1d20 aeba

tabnet.initial_bn.running_var f4 [1038]
0.008132666 0.00087150384 0.99323183 0.97629964 0.9671138 0.9763181 0.9724604 0.979313
0.97339207 0.97708887 1.0799065 0.9729556 0.9701051 0.97553724 0.9757023 0.9904187
0.97946256 0.970934 0.99188656 0.9872677 0.9683087 0.9713 0.9782519 0.97556347
0.9715461 0.97041285 0.9836655 0.9756524 0.96992135 0.9739465 0.97513914 0.9794942
0.98295766 1.0602067 0.9679796 0.98591465 0.9794723 0.9780995 0.9970046 1.2976483
1.2070845 0.9751748 1.0087347 0.9768563 0.9791278 0.9836974 0.9747341 0.97609144
1.0172037 0.9784271 0.9950643 0.9783536 1.321745 0.9755305 0.97571033 0.9843071
0.9760486 0.998833 0.97940904 0.9978673 1.1289545 0.9865089 0.9714931 0.9832786
1.0370884 1.0390109 0.97638726 0.98183525 0.97540325 1.3764702 0.97523874 0.973707
0.9750803 0.97530144 1.1184405 0.9751311 1.0491794 1.3113724 0.96968573 0.980929
0.9769541 0.9730868 0.97480863 0.97887397 0.9801966 0.9764209 0.97502786 0.97234005
1.0195196 0.98118275 0.96989775 0.9770319 0.98629206 1.0198483 0.9737511 0.97560334
0.9716338 0.97768754 1.0119555 1.025173 1.000877 0.9805224 1.0971055 0.9683448
0.98546886 0.97104853 0.9671379 0.97153926 1.003766 0.97445816 0.97149515 0.97487414
0.977912 0.9734321 0.9811039 1.1051626 0.9741515 0.98150516 0.97702706 0.98492056
0.9797099 0.98044777 0.9708649 1.0041467 0.96800363 1.1653544 0.9790219 0.97452956
0.9867055 0.9712687 1.1092767 0.9748099 1.0211802 1.212729 1.0002768 0.99922293
0.97683203 0.97997266 0.97396845 0.969562 0.979734 0.9841259 0.9807832 0.96740305
0.99198395 0.97318405 1.0217488 0.983642 0.99450666 1.0345789 1.0022551 0.96789956
0.9733304 0.9736952 1.0140955 0.965706 0.9721508 1.0077169 0.9789817 0.9810235
1.1404604 0.97086763 0.9893597 0.9812883 0.97601825 1.0298765 1.0049543 0.9782367
0.9781997 0.98221165 0.98392236 0.9806746 1.0373824 0.9808977 0.97224045 0.9797108
0.9757888 0.97558135 0.98520654 0.99385697 1.093045 0.9723287 0.97742116 1.0006647
0.97321856 1.0109041 0.9710949 1.1291842 0.9867799 0.9721582 0.98092663 1.0104184
0.97532517 0.9663927 0.97507566 0.9681315 0.976271 1.0888132 0.9849931 1.0121582
0.97444296 0.974004 0.9729709 1.07099 1.0833751 0.97009796 0.99123687 0.96687686
0.9770714 0.9708908 1.0767901 0.97391576 0.983989 0.9679733 0.97452587 0.988919
0.9721766 1.0020806 0.9845883 0.9829007 0.98499364 0.96858305 0.97403306 0.9753571
0.9715293 0.9748023 0.9749821 0.9769559 1.0282499 0.9808182 1.4652696 0.9802136
0.97764957 1.0024894 0.981427 0.9808846 0.9847757 0.9954868 0.96970826 0.9800391
0.97078794 0.98561734 0.9784835 0.97711635 0.9761225 1.0086662 0.98744434 0.98746914
0.9735365 0.9657994 1.1468545 0.98249257 1.049113 1.0072662 0.97746664 0.9770104
00000000: e03e 053c a275 643a 7144 7e3f c6ee 793f
00000010: c594 773f fcef 793f 2af3 783f 42b4 7a3f
00000020: 3930 793f 7f22 7a3f 603a 8a3f 9e13 793f
00000030: cf58 783f cfbc 793f a0c7 793f 148c 7d3f
00000040: 0fbe 7a3f 218f 783f 47ec 7d3f 93bd 7c3f
00000050: 14e3 773f 1ea7 783f b76e 7a3f 87be 793f
00000060: 3fb7 783f fa6c 783f 81d1 7b3f 5bc4 793f
00000070: c44c 783f 8f54 793f b8a2 793f 22c0 7a3f
00000080: 1da3 7b3f dab4 873f 83cd 773f e764 7c3f
00000090: b2be 7a3f bb64 7a3f b23b 7f3f 5719 a63f
000000a0: bf81 9a3f 0ea5 793f 381e 813f 4113 7a3f
000000b0: 1fa8 7a3f 98d3 7b3f 2d88 793f 21e1 793f
000000c0: bb33 823f 337a 7a3f 89bc 7e3f 6275 7a3f
000000d0: f12e a93f 5ebc 793f 27c8 793f 8dfb 7b3f
000000e0: 52de 793f 85b3 7f3f 8dba 7a3f 3b74 7f3f
000000f0: 9581 903f d98b 7c3f c6b3 783f 25b8 7b3f
00000100: 50bf 843f 4ffe 843f 84f4 793f 8e59 7b3f
00000110: 07b4 793f 2d30 b03f 3fa9 793f dd44 793f
00000120: dd9e 793f 5bad 793f 0f29 8f3f 31a2 793f
00000130: 834b 863f 0ddb a73f 533d 783f 2a1e 7b3f
00000140: aa19 7a3f 371c 793f 0f8d 793f 7c97 7a3f
00000150: 2aee 7a3f b8f6 793f 6d9b 793f 47eb 783f
00000160: 9e7f 823f cb2e 7b3f 384b 783f c31e 7a3f
00000170: a37d 7c3f 648a 823f c147 793f 24c1 793f
00000180: febc 783f bb49 7a3f c287 813f de38 833f
00000190: bd1c 803f 8403 7b3f f46d 8c3f 72e5 773f
000001a0: b047 7c3f a396 783f 5996 773f ccb6 783f
000001b0: 677b 803f 1776 793f e8b3 783f 5a91 793f
000001c0: 7158 7a3f d932 793f a029 7b3f f875 8d3f
000001d0: fe61 793f ec43 7b3f 721e 7a3f c123 7c3f
000001e0: 45ce 7a3f a0fe 7a3f 9a8a 783f e187 803f
000001f0: 16cf 773f 552a 953f 2ea1 7a3f c57a 793f
00000200: bb98 7c3f 11a5 783f c7fc 8d3f 248d 793f
00000210: 08b6 823f b43a 9b3f 1209 803f 13cd 7f3f
00000220: aa11 7a3f 7ddf 7a3f ff55 793f 3735 783f
00000230: d9cf 7a3f adef 7b3f 9c14 7b3f baa7 773f
00000240: a9f2 7d3f 9722 793f aac8 823f f6cf 7b3f
00000250: fd97 7e3f 156d 843f e549 803f 44c8 773f
00000260: 2e2c 793f 1744 793f e2cd 813f 8238 773f
00000270: e0de 783f defc 803f 8b9e 7a3f 5b24 7b3f
00000280: 9bfa 913f c88a 783f ad46 7d3f b635 7b3f
00000290: 55dc 793f fed2 833f 58a2 803f b86d 7a3f
000002a0: 4c6b 7a3f 3972 7b3f 56e2 7b3f 7e0d 7b3f
000002b0: f2c8 843f 1d1c 7b3f c0e4 783f 54ce 7a3f
000002c0: 4bcd 793f b3bf 793f 7f36 7c3f 696d 7e3f
000002d0: e6e8 8b3f 89ea 783f 4638 7a3f c815 803f
000002e0: da24 793f 4e65 813f ad99 783f 1c89 903f
000002f0: 9c9d 7c3f 5cdf 783f 021e 7b3f 6455 813f
00000300: e9ae 793f 8365 773f 8f9e 793f 77d7 773f
00000310: e5ec 793f 3b5e 8b3f 8228 7c3f 668e 813f
00000320: 1875 793f 5358 793f 9f14 793f 3316 893f
00000330: 09ac 8a3f 5758 783f b3c1 7d3f 3e85 773f
00000340: 5a21 7a3f 4d8c 783f 42d4 893f 8b52 793f
00000350: b4e6 7b3f 19cd 773f 877a 793f cc29 7d3f
00000360: 91e0 783f 2d44 803f fb0d 7c3f 619f 7b3f
00000370: 8b28 7c3f 0ff5 773f 3b5a 793f 01b1 793f
00000380: 25b6 783f a58c 793f 6d98 793f c819 7a3f
00000390: b19d 833f e716 7b3f f48d bb3f 47ef 7a3f
000003a0: 3e47 7a3f 9351 803f cd3e 7b3f 411b 7b3f
000003b0: 431a 7c3f 39d8 7e3f cd3e 783f d8e3 7a3f
000003c0: 8f85 783f 6b51 7c3f e57d 7a3f 4c24 7a3f
000003d0: 2ae3 793f f91b 813f 27c9 7c3f c7ca 7c3f
000003e0: b039 793f a13e 773f 21cc 923f a284 7b3f
000003f0: 5649 863f 19ee 803f 413b 7a3f 5b1d 7a3f

tabnet.initial_splitter.shared.shared_layers.0.weight f4 [96, 1038]
-0.067695454 0.056296296 -0.010647903 -0.08719492 -0.104407415 0.009384512 -0.05626008 -0.09558279
-0.072548345 0.0050620395 0.10789364 7.7842815e-05 -4.4587528e-06 0.08939196 -0.020916292 -0.11167276
0.014535462 -0.04964128 0.058701754 0.021637207 0.0086169755 -0.11751782 0.042893652 -0.00096247776
-0.040954724 -0.028800962 -0.041127264 -0.0046337754 0.0002804462 0.17439073 0.17898053 0.26717106
0.09675178 0.106901154 -0.09210059 0.10875227 -0.0818984 0.02278932 -0.08098732 0.13775744
-0.03175614 -0.04867872 -0.0020385953 0.1521867 -0.03474893 0.00018051897 0.00055268855 0.021234592
0.04735289 0.0650366 -0.02004513 -0.001103271 0.08937381 -0.083420604 0.0329755 0.042744942
-0.03131098 -0.10589816 0.10190482 0.072089694 -0.076432705 -4.438737e-05 0.08623073 7.225829e-08
-0.17701125 0.1991057 0.0001951792 -0.062139068 0.11199079 2.965113e-05 0.090815715 -0.004618845
-0.07726863 -0.0055756406 0.00930189 -0.0010081128 -0.0046633813 -0.02556194 0.00048490398 -0.059577607
2.6239268e-06 0.001229244 -0.011384691 -9.4963005e-05 -0.033276193 -0.050141737 -0.063336395 -0.058206502
0.027724907 0.028816532 0.015984228 0.14621964 -0.18129125 -0.096798696 0.04689524 0.043111373
0.081165336 0.005165843 0.012398199 0.024468366 0.020203613 -0.077778004 -0.1633009 -0.014958326
0.06508251 -0.13901448 0.0019529085 -0.010543212 0.026278332 0.10839882 0.025280293 -0.05721648
0.088876836 0.08463281 -0.009893111 -1.2345564e-08 0.009404545 -0.010661863 -0.058650486 -0.071134955
0.16496073 -0.0021527621 0.077555515 -4.264884e-05 0.1440471 0.17434277 -0.08393772 0.09654432
-0.0003052276 0.015881954 -0.1306674 0.012784049 0.0834145 -0.0047091413 -0.0010071192 0.11781319
-0.003279386 0.057575002 0.1188426 -0.034576084 -0.07138248 3.372532e-07 0.011085951 -1.677593e-06
0.16624059 0.07265411 0.009915111 0.0031335196 0.0239195 -0.14256725 -0.08545303 0.0005646633
-0.0009825586 0.000839934 0.11152486 0.117584854 -0.014598948 -4.221523e-05 -0.07937319 0.12962557
-0.0060684676 -0.022751158 5.679779e-05 0.008699083 -0.17821363 1.3772224e-05 0.045643363 0.041579437
0.07313021 0.049451437 -0.044292443 -0.24236792 0.12087051 0.0009648584 -0.11883822 0.13807128
-0.0420358 -0.11122036 -0.023126196 -0.057966985 -0.11014949 -0.13144411 0.07892935 -0.039091043
-0.0060122157 0.042235654 -0.00039925944 0.014059915 0.06927578 -0.00016003741 0.042697232 -0.046114527
0.08023177 -0.09168205 -0.013245569 8.534198e-05 0.07076966 -0.026502088 -6.555533e-06 -0.017497035
-0.038553372 0.022456298 -0.023954175 0.012349457 -0.07598047 -0.16371806 -0.0679795 -0.023705116
0.045820013 -0.09780449 -0.05004161 -0.016686954 0.049821913 0.05670728 -0.07602115 0.19459212
-0.009857801 -0.0061956863 -0.109134816 -0.07237277 0.0019526557 0.10230862 0.0020462861 0.15908676
-0.009165176 1.6937756e-06 -0.011725069 -0.09805474 0.053323936 -0.016147802 -7.2568296e-06 0.05994982
-0.0063388264 0.01249871 0.00021109522 -0.02671444 -0.042383514 -0.00817124 -0.013924316 0.031212391
0.0075464356 -0.29047215 -0.0014519417 -0.05929369 0.10382648 0.038743656 0.02870051 0.026595982
0.018834354 0.016037393 0.04405964 0.022408135 7.772676e-05 1.322503e-07 0.014604801 -0.1303852
00000000: eaa3 8abd f296 663d 8b74 2ebc 4093 b2bd
00000010: 8ed3 d5bd 7fc1 193c f870 66bd e9c0 c3bd
00000020: 3a94 94bd 77df a53b 57f7 dc3d 8b3f a338
00000030: 659c 95b6 2213 b73d a558 abbc b0b4 e4bd
00000040: 2526 6e3c a854 4bbd 4071 703d 8340 b13c
00000050: 372e 0d3c 2fad f0bd 41b1 2f3d ca4e 7cba
00000060: 24c0 27bd ffef ebbc 1075 28bd edd6 97bb
00000070: da08 9339 7c93 323e ac46 373e a5ca 883e
00000080: cc25 c63d feee da3d 3c9f bcbd 83b9 de3d
00000090: 59ba a7bd abb0 ba3c aedc a5bd 4910 0d3e
000000a0: ba12 02bd 5663 47bd f499 05bb d5d6 1b3e
000000b0: e554 0ebd b149 3d39 4de2 103a 2bf4 ad3c
000000c0: 1bf5 413d e931 853d af35 a4bc a29b 90ba
000000d0: 9e09 b73d 6cd8 aabd 5111 073d 5215 2f3d
000000e0: f13f 00bd 22e1 d8bd 79b3 d03d c3a3 933d
000000f0: c088 9cbd 932c 3ab8 bd99 b03d 6a2c 9b33
00000100: 7042 35be 5de2 4b3e 04a9 4c39 8985 7ebd
00000110: 6d5b e53d 51bb f837 97fd b93d ae59 97bb
00000120: 043f 9ebd ddb3 b6bb f466 183c a722 84ba
00000130: 47cf 98bb 4667 d1bc b63a fe39 a607 74bd
00000140: b816 3036 961e a13a db86 3abc e026 c7b8
00000150: 9e4c 08bd 6c61 4dbd 83b6 81bd f169 6ebd
00000160: 581f e33c a610 ec3c 5bf1 823c 9aba 153e
00000170: 6aa4 39be 653e c6bd 3915 403d 8d95 303d
00000180: 033a a63d 3b46 a93b d121 4b3c e271 c83c
00000190: 0c82 a53c 134a 9fbd 5a38 27be c413 75bc
000001a0: fb49 853d d059 0ebe bcf8 ff3a 70bd 2cbc
000001b0: a845 d73c 3300 de3d 9e18 cf3c d45b 6abd
000001c0: 0f05 b63d f753 ad3d b716 22bc 5d18 54b2
000001d0: 8515 1a3c 18af 2ebc 7e3b 70bd 34af 91bd
000001e0: 77eb 283e 5b15 0dbb 6dd5 9e3d d8e1 32b8
000001f0: 1581 133e e986 323e 8ae7 abbd 07b9 c53d
00000200: f406 a0b9 df1a 823c adcd 05be 3074 513c
00000210: 39d5 aa3d 244f 9abb 5001 84ba 0b48 f13d
00000220: f8ea 56bb c4d3 6b3d c063 f33d a79f 0dbd
00000230: fa30 92bd ba0f b534 d9a1 353c a829 e1b5
00000240: f93a 2a3e aecb 943d fd72 223c bc5b 4d3b
00000250: d4f2 c33c 26fd 11be 0002 afbd ea05 143a
00000260: 32c9 80ba 042f 5c3a 2567 e43d 54d0 f03d
00000270: 6d30 6fbc 4210 31b8 698e a2bd 91bc 043e
00000280: ffd9 c6bb a360 babc 2a3a 6e38 9986 0e3c
00000290: a27d 36be 400f 6737 89f4 3a3d 334f 2a3d
000002a0: 4bc5 953d 978d 4a3d fe6b 35bd 4c2f 78be
000002b0: f58a f73d 8dee 7c3a 7461 f3bd 8f62 0d3e
000002c0: bb2d 2cbd 80c7 e3bd 2673 bdbc ca6e 6dbd
000002d0: 0e96 e1bd 4999 06be b6a5 a13d ee1d 20bd
000002e0: 1f02 c5bb 4bff 2c3d b253 d1b9 8f5b 663c
000002f0: 76e0 8d3d b7cf 27b9 4be3 2e3d 96e2 3cbd
00000300: 8e50 a43d ccc3 bbbd f103 59bc a0f9 b238
00000310: afef 903d e81a d9bc 9af7 dbb6 f155 8fbc
00000320: 24ea 1dbd 45f6 b73c 8c3b c4bc 6055 4a3c
00000330: a69b 9bbd b5a5 27be d638 8bbd 3b31 c2bc
00000340: c4ad 3b3d b84d c8bd 6ef8 4cbd 14b3 88bc
00000350: 1012 4c3d e545 683d fab0 9bbd 2843 473e
00000360: 9d82 21bc 2f05 cbbb 1382 dfbd 2d38 94bd
00000370: 41f0 ff3a 2f87 d13d fc1a 063b a4e7 223e
00000380: 8929 16bc b055 e335 811a 40bc ecd0 c8bd
00000390: 336a 5a3d 6548 84bc b17f f3b6 f18d 753d
000003a0: eeb5 cfbb 64c7 4c3c 7159 5d39 3ed8 dabc
000003b0: 569a 2dbd aae0 05bc d022 64bc 21b1 ff3c
000003c0: 1748 f73b c4b8 94be 144f beba f1dd 72bd
000003d0: faa2 d43d abb1 1e3d 551d eb3c d1df d93c
000003e0: 814a 9a3c da60 833c e277 343d 4491 b73c
000003f0: 3d01 a338 b000 0e34 fa48 6f3c b383 05be

tabnet.initial_splitter.shared.shared_layers.1.weight f4 [96, 48]
0.16609335 -0.010578484 0.0016839093 0.03970236 -0.11076058 -0.06477477 0.014498679 -0.07308258
-0.06332953 -0.048715483 0.0028402715 0.03997588 0.032728735 0.00025265143 -0.041414388 -0.03485654
-0.029148396 -0.045836877 -0.0626059 -0.0629223 -0.01258351 -0.04232466 -0.007936571 -0.0570365
-0.01351144 0.0017658167 -0.0062224646 0.014134733 -0.012544783 0.0045347046 0.026158655 -0.0071680862
0.02403802 0.0027549723 0.023079205 9.205973e-05 0.008131232 -0.011378942 -0.011770946 -0.02110801
0.0034083987 -0.012564191 0.0139702 -0.0004642374 0.032146405 -0.003028096 0.007413337 0.0054881964
-0.024940154 0.39509064 -0.0010137608 -0.015334975 -0.004085273 -0.017412016 -0.011819646 -0.060934767
0.0034100146 0.03836751 -0.062700324 -0.045258958 -0.013344097 5.935186e-06 0.029823229 -0.03329878
-0.01661314 0.0039282027 -0.031224329 -0.033094686 0.0042577987 0.016921122 -0.0020039757 -0.02969207
-0.0011838226 -1.1095098e-05 2.3465398e-05 -0.0005403614 -0.00065655675 0.00018311651 -0.00037685886 -4.7769732e-05
-0.00020913988 -0.00072812143 -0.00026727965 0.0008844219 -0.00016608776 0.00027730557 -0.00023236685 -0.0009566481
0.00014087319 0.0018549354 -0.00011961445 -0.0019418147 -2.198943e-05 -0.00096392585 -0.0001269998 7.3562987e-06
0.012460239 -0.006935402 0.00065261597 0.0062759295 -0.023734177 -0.00046885415 -0.014038711 0.008106414
0.0008068869 -0.007629634 0.0087489765 0.006693478 -0.03356149 4.564662e-08 -0.00088508724 -0.005902982
-0.0127754 0.005949168 -0.013726227 -0.0069834404 0.0053157513 -0.0027964634 0.007889132 -0.0001343522
2.164694e-05 -1.4313677e-07 -9.792118e-06 4.0695326e-05 -2.7064476e-05 -0.0001341137 1.7969431e-06 7.5940657e-06
-3.0487348e-05 9.160416e-05 2.8019233e-06 -4.7398058e-05 2.0302397e-05 4.7182098e-06 -2.75664e-07 1.4648373e-06
-3.5798144e-05 -0.0008243056 5.599348e-06 -4.9009934e-05 -5.795762e-07 -5.4966706e-05 -1.2338278e-06 1.5464777e-05
0.01813453 0.0022112073 0.00021859632 0.15666589 -0.023796603 -0.0039621303 -0.07905905 0.07638249
-0.04816624 0.014449036 -0.04546382 -0.005123718 0.07126741 5.859042e-07 0.02351165 -0.09906283
-0.012992541 0.015469981 0.028428745 -0.020164609 -0.05820823 -0.060083304 0.059052575 -0.02392923
-9.608313e-05 -1.9930405e-06 -0.00012864145 0.00017449544 -0.00014433538 -0.0016141132 6.3106027e-06 3.3281583e-05
-0.00051223283 -0.00015184318 0.00023731322 -0.00047427329 0.00017937312 7.015903e-05 0.00013161391 0.00078175124
-0.00017472537 0.001350924 -0.00019453454 2.2130727e-05 -0.00020423325 0.00016776953 4.946646e-06 9.098927e-05
-0.02501017 -0.015943363 -0.0018842961 -0.006496631 0.51579005 -0.07512455 -0.021682147 -0.045813203
0.04517191 -0.032334268 -0.03188645 -0.013567218 0.004474348 -0.0017662977 -0.042579237 0.017857393
0.02359286 -0.03920103 0.01632896 -0.012219216 0.015095559 -0.023416307 0.0029180192 0.014315496
-0.09255012 0.007220744 0.0066145547 -0.044683054 0.0022478292 0.119656906 -0.01863825 0.0050513716
-0.096789695 0.08527801 0.08204021 0.024607928 0.051924203 0.04526428 0.0041763224 0.05358498
0.07324649 0.057246163 -0.051921472 0.0077927248 -0.036216468 -0.00487567 -0.01004332 0.0018968377
-0.032696996 0.0046965447 -0.00046230797 -0.021829432 -0.007875034 0.35294414 -0.012184588 -0.004360276
-0.03611361 -0.01239353 -0.011733456 -0.033376046 -0.008416258 1.8269395e-07 -0.034650195 -0.064248815
00000000: 6014 2a3e 6151 2dbc 9fb6 dc3a f19e 223d
00000010: 71d6 e2bd a2a8 84bd de8b 6d3c 52ac 95bd
00000020: eab2 81bd e389 47bd d923 3a3b c0bd 233d
00000030: 910e 063d 4d76 8439 22a2 29bd bbc5 0ebd
00000040: 9ec8 eebc 73bf 3bbd 8637 80bd 68dd 80bd
00000050: 112b 4ebc 9f5c 2dbd 6408 02bc 1b9f 69bd
00000060: 165f 5dbc fa72 e73a d1e5 cbbb 5e95 673c
00000070: a288 4dbc dc97 943b ad4a d63c 44e2 eabb
00000080: 62eb c43c c48c 343b 9a10 bd3c 3110 c138
00000090: dc38 053c be6e 3abc edda 40bc b5ea acbc
000000a0: 715f 5f3b 09da 4dbc 44e3 643c e464 f3b9
000000b0: f3ab 033d 0573 46bb 94eb f23b 54d6 b33b
000000c0: 4b4f ccbc 5249 ca3e 2be0 84ba 8c3f 7bbc
000000d0: c1dd 85bb a5a3 8ebc 30a7 41bc bc96 79bd
000000e0: 8d7a 5f3b 4027 1d3d 0769 80bd 7561 39bd
000000f0: 33a1 5abc dc26 c736 d84f f43c 4d64 08bd
00000100: 4818 88bc 27b8 803b 2aca ffbc 4b8e 07bd
00000110: 0185 8b3b 2a9e 8a3c 2255 03bb c93c f3bc
00000120: 7f2a 9bba 1525 3ab7 8fd7 c437 0aa7 0dba
00000130: c71c 2cba f702 4039 2495 c5b9 5c5c 48b8
00000140: 8f4c 5bb9 67df 3eba ab21 8cb9 8dd8 673a
00000150: d827 2eb9 5363 9139 80a7 73b9 91c7 7aba
00000160: 5cb7 1339 4e21 f33a 85d9 fab8 7d84 feba
00000170: f175 b8b7 f8af 7cba 402b 05b9 20d6 f636
00000180: 0826 4c3c 5e42 e3bb 5114 2b3a 50a6 cd3b
00000190: 2d6e c2bc 8ad0 f5b9 9f02 66bc c4d0 043c
000001a0: 4385 533a 0202 fabb de57 0f3c f754 db3b
000001b0: c677 09bd fd0c 4433 3305 68ba cd6d c1bb
000001c0: e94f 51bc 3df1 c23b f8e3 60bc 58d5 e4bb
000001d0: c12f ae3b df44 37bb 6b41 013c e5e0 0cb9
000001e0: 7396 b537 23b1 19b4 d448 24b7 46b0 2a38
000001f0: 8508 e3b7 dfa0 0cb9 7f2e f135 87d0 fe36
00000200: 15bf ffb7 9c1b c038 ad08 3c36 47cd 46b8
00000210: 114f aa37 1d51 9e36 f9fe 93b4 6d9b c435
00000220: f725 16b8 3616 58ba 08e2 bb36 0490 4db8
00000230: 2c94 1bb5 0d8c 66b8 009a a5b5 5bba 8137
00000240: de8e 943c e7e9 103b 0137 6539 066d 203e
00000250: 18f1 c2bc c2d4 81bb b6e9 a1bd 6c6e 9c3d
00000260: f749 45bd a6bb 6c3c 4538 3abd dde4 a7bb
00000270: a6f4 913d 0847 1d35 819b c03c 74e1 cabd
00000280: abde 54bc ce75 7d3c 66e3 e83c 4030 a5bc
00000290: c16b 6ebd e919 76bd 1de1 713d 3c07 c4bc
000002a0: 3d80 c9b8 2dc0 05b6 ede3 06b9 c3f8 3639
000002b0: bc58 17b9 a790 d3ba aabf d336 d497 0b38
000002c0: 5d47 06ba 1838 1fb9 48d7 7839 e2a7 f8b9
000002d0: 1b16 3c39 5822 9338 d701 0a39 70ee 4c3a
000002e0: 7c36 37b9 7d11 b13a f8fb 4bb9 60a5 b937
000002f0: 7227 56b9 4aeb 2f39 5efb a536 7ed1 be38
00000300: 21e2 ccbc a89b 82bc 7cfa f6ba b1e1 d4bb
00000310: d10a 043f e6da 99bd c29e b1bc a0a6 3bbd
00000320: 2e06 393d f070 04bd 5e9b 02bd 0949 5ebc
00000330: 8d9d 923b 1e83 e7ba 9167 2ebd ab49 923c
00000340: d045 c13c 4291 20bd 50c4 853c 1b33 48bc
00000350: 5d53 773c 8ed3 bfbc 3d3c 3f3b 8b8b 6a3c
00000360: eb8a bdbd fe9b ec3b e8be d83b 9405 37bd
00000370: 5150 133b ae0e f53d 3eaf 98bc fa85 a53b
00000380: ad39 c6bd 3da6 ae3d b304 a83d 9196 c93c
00000390: 79ae 543d 0a67 393d 88d9 883b ed7b 5b3d
000003a0: 4102 963d f47a 6a3d 9cab 54bd 1d5a ff3b
000003b0: b857 14bd 16c4 9fbb bd8c 24bc 509f f83a
000003c0: 49ed 05bd 79e5 993b ed61 f2b9 a3d3 b2bc
000003d0: 4906 01bc 18b5 b43e dea1 47bc a5e0 8ebb
000003e0: ddeb 13bd 3c0e 4bbc ae3d 40bc 52b5 08bd
000003f0: 58e4 09bc 882a 4434 5ded 0dbd e294 83bd

tabnet.initial_splitter.shared.glu_layers.0.fc.weight f4 [96, 1038]
-0.067695454 0.056296296 -0.010647903 -0.08719492 -0.104407415 0.009384512 -0.05626008 -0.09558279
-0.072548345 0.0050620395 0.10789364 7.7842815e-05 -4.4587528e-06 0.08939196 -0.020916292 -0.11167276
0.014535462 -0.04964128 0.058701754 0.021637207 0.0086169755 -0.11751782 0.042893652 -0.00096247776
-0.040954724 -0.028800962 -0.041127264 -0.0046337754 0.0002804462 0.17439073 0.17898053 0.26717106
0.09675178 0.106901154 -0.09210059 0.10875227 -0.0818984 0.02278932 -0.08098732 0.13775744
-0.03175614 -0.04867872 -0.0020385953 0.1521867 -0.03474893 0.00018051897 0.00055268855 0.021234592
0.04735289 0.0650366 -0.02004513 -0.001103271 0.08937381 -0.083420604 0.0329755 0.042744942
-0.03131098 -0.10589816 0.10190482 0.072089694 -0.076432705 -4.438737e-05 0.08623073 7.225829e-08
-0.17701125 0.1991057 0.0001951792 -0.062139068 0.11199079 2.965113e-05 0.090815715 -0.004618845
-0.07726863 -0.0055756406 0.00930189 -0.0010081128 -0.0046633813 -0.02556194 0.00048490398 -0.059577607
2.6239268e-06 0.001229244 -0.011384691 -9.4963005e-05 -0.033276193 -0.050141737 -0.063336395 -0.058206502
0.027724907 0.028816532 0.015984228 0.14621964 -0.18129125 -0.096798696 0.04689524 0.043111373
0.081165336 0.005165843 0.012398199 0.024468366 0.020203613 -0.077778004 -0.1633009 -0.014958326
0.06508251 -0.13901448 0.0019529085 -0.010543212 0.026278332 0.10839882 0.025280293 -0.05721648
0.088876836 0.08463281 -0.009893111 -1.2345564e-08 0.009404545 -0.010661863 -0.058650486 -0.071134955
0.16496073 -0.0021527621 0.077555515 -4.264884e-05 0.1440471 0.17434277 -0.08393772 0.09654432
-0.0003052276 0.015881954 -0.1306674 0.012784049 0.0834145 -0.0047091413 -0.0010071192 0.11781319
-0.003279386 0.057575002 0.1188426 -0.034576084 -0.07138248 3.372532e-07 0.011085951 -1.677593e-06
0.16624059 0.07265411 0.009915111 0.0031335196 0.0239195 -0.14256725 -0.08545303 0.0005646633
-0.0009825586 0.000839934 0.11152486 0.117584854 -0.014598948 -4.221523e-05 -0.07937319 0.12962557
-0.0060684676 -0.022751158 5.679779e-05 0.008699083 -0.17821363 1.3772224e-05 0.045643363 0.041579437
0.07313021 0.049451437 -0.044292443 -0.24236792 0.12087051 0.0009648584 -0.11883822 0.13807128
-0.0420358 -0.11122036 -0.023126196 -0.057966985 -0.11014949 -0.13144411 0.07892935 -0.039091043
-0.0060122157 0.042235654 -0.00039925944 0.014059915 0.06927578 -0.00016003741 0.042697232 -0.046114527
0.08023177 -0.09168205 -0.013245569 8.534198e-05 0.07076966 -0.026502088 -6.555533e-06 -0.017497035
-0.038553372 0.022456298 -0.023954175 0.012349457 -0.07598047 -0.16371806 -0.0679795 -0.023705116
0.045820013 -0.09780449 -0.05004161 -0.016686954 0.049821913 0.05670728 -0.07602115 0.19459212
-0.009857801 -0.0061956863 -0.109134816 -0.07237277 0.0019526557 0.10230862 0.0020462861 0.15908676
-0.009165176 1.6937756e-06 -0.011725069 -0.09805474 0.053323936 -0.016147802 -7.2568296e-06 0.05994982
-0.0063388264 0.01249871 0.00021109522 -0.02671444 -0.042383514 -0.00817124 -0.013924316 0.031212391
0.0075464356 -0.29047215 -0.0014519417 -0.05929369 0.10382648 0.038743656 0.02870051 0.026595982
0.018834354 0.016037393 0.04405964 0.022408135 7.772676e-05 1.322503e-07 0.014604801 -0.1303852
00000000: eaa3 8abd f296 663d 8b74 2ebc 4093 b2bd
00000010: 8ed3 d5bd 7fc1 193c f870 66bd e9c0 c3bd
00000020: 3a94 94bd 77df a53b 57f7 dc3d 8b3f a338
00000030: 659c 95b6 2213 b73d a558 abbc b0b4 e4bd
00000040: 2526 6e3c a854 4bbd 4071 703d 8340 b13c
00000050: 372e 0d3c 2fad f0bd 41b1 2f3d ca4e 7cba
00000060: 24c0 27bd ffef ebbc 1075 28bd edd6 97bb
00000070: da08 9339 7c93 323e ac46 373e a5ca 883e
00000080: cc25 c63d feee da3d 3c9f bcbd 83b9 de3d
00000090: 59ba a7bd abb0 ba3c aedc a5bd 4910 0d3e
000000a0: ba12 02bd 5663 47bd f499 05bb d5d6 1b3e
000000b0: e554 0ebd b149 3d39 4de2 103a 2bf4 ad3c
000000c0: 1bf5 413d e931 853d af35 a4bc a29b 90ba
000000d0: 9e09 b73d 6cd8 aabd 5111 073d 5215 2f3d
000000e0: f13f 00bd 22e1 d8bd 79b3 d03d c3a3 933d
000000f0: c088 9cbd 932c 3ab8 bd99 b03d 6a2c 9b33
00000100: 7042 35be 5de2 4b3e 04a9 4c39 8985 7ebd
00000110: 6d5b e53d 51bb f837 97fd b93d ae59 97bb
00000120: 043f 9ebd ddb3 b6bb f466 183c a722 84ba
00000130: 47cf 98bb 4667 d1bc b63a fe39 a607 74bd
00000140: b816 3036 961e a13a db86 3abc e026 c7b8
00000150: 9e4c 08bd 6c61 4dbd 83b6 81bd f169 6ebd
00000160: 581f e33c a610 ec3c 5bf1 823c 9aba 153e
00000170: 6aa4 39be 653e c6bd 3915 403d 8d95 303d
00000180: 033a a63d 3b46 a93b d121 4b3c e271 c83c
00000190: 0c82 a53c 134a 9fbd 5a38 27be c413 75bc
000001a0: fb49 853d d059 0ebe bcf8 ff3a 70bd 2cbc
000001b0: a845 d73c 3300 de3d 9e18 cf3c d45b 6abd
000001c0: 0f05 b63d f753 ad3d b716 22bc 5d18 54b2
000001d0: 8515 1a3c 18af 2ebc 7e3b 70bd 34af 91bd
000001e0: 77eb 283e 5b15 0dbb 6dd5 9e3d d8e1 32b8
000001f0: 1581 133e e986 323e 8ae7 abbd 07b9 c53d
00000200: f406 a0b9 df1a 823c adcd 05be 3074 513c
00000210: 39d5 aa3d 244f 9abb 5001 84ba 0b48 f13d
00000220: f8ea 56bb c4d3 6b3d c063 f33d a79f 0dbd
00000230: fa30 92bd ba0f b534 d9a1 353c a829 e1b5
00000240: f93a 2a3e aecb 943d fd72 223c bc5b 4d3b
00000250: d4f2 c33c 26fd 11be 0002 afbd ea05 143a
00000260: 32c9 80ba 042f 5c3a 2567 e43d 54d0 f03d
00000270: 6d30 6fbc 4210 31b8 698e a2bd 91bc 043e
00000280: ffd9 c6bb a360 babc 2a3a 6e38 9986 0e3c
00000290: a27d 36be 400f 6737 89f4 3a3d 334f 2a3d
000002a0: 4bc5 953d 978d 4a3d fe6b 35bd 4c2f 78be
000002b0: f58a f73d 8dee 7c3a 7461 f3bd 8f62 0d3e
000002c0: bb2d 2cbd 80c7 e3bd 2673 bdbc ca6e 6dbd
000002d0: 0e96 e1bd 4999 06be b6a5 a13d ee1d 20bd
000002e0: 1f02 c5bb 4bff 2c3d b253 d1b9 8f5b 663c
000002f0: 76e0 8d3d b7cf 27b9 4be3 2e3d 96e2 3cbd
00000300: 8e50 a43d ccc3 bbbd f103 59bc a0f9 b238
00000310: afef 903d e81a d9bc 9af7 dbb6 f155 8fbc
00000320: 24ea 1dbd 45f6 b73c 8c3b c4bc 6055 4a3c
00000330: a69b 9bbd b5a5 27be d638 8bbd 3b31 c2bc
00000340: c4ad 3b3d b84d c8bd 6ef8 4cbd 14b3 88bc
00000350: 1012 4c3d e545 683d fab0 9bbd 2843 473e
00000360: 9d82 21bc 2f05 cbbb 1382 dfbd 2d38 94bd
00000370: 41f0 ff3a 2f87 d13d fc1a 063b a4e7 223e
00000380: 8929 16bc b055 e335 811a 40bc ecd0 c8bd
00000390: 336a 5a3d 6548 84bc b17f f3b6 f18d 753d
000003a0: eeb5 cfbb 64c7 4c3c 7159 5d39 3ed8 dabc
000003b0: 569a 2dbd aae0 05bc d022 64bc 21b1 ff3c
000003c0: 1748 f73b c4b8 94be 144f beba f1dd 72bd
000003d0: faa2 d43d abb1 1e3d 551d eb3c d1df d93c
000003e0: 814a 9a3c da60 833c e277 343d 4491 b73c
000003f0: 3d01 a338 b000 0e34 fa48 6f3c b383 05be

tabnet.initial_splitter.shared.glu_layers.0.bn.bn.weight f4 [96]
0.56820554 0.022465738 0.00091084617 0.011921912 0.94468164 0.00085002853 0.0031015135 -0.00026032084
-0.0065669 0.0040309303 -0.010016864 -0.008617607 0.0021490862 0.0039668577 -0.0020228445 0.0025742955
0.011583925 -0.008809792 0.013388524 -0.0039485674 0.0070579723 -0.0011048284 0.0013718688 0.6146866
0.4524966 0.02830298 0.42556855 0.38160262 0.45803893 0.5918856 0.47063687 0.13895285
0.56452936 0.34482366 0.53487825 0.4771903 0.4412735 0.38386512 0.41092607 0.35077906
0.39789158 0.41817075 0.4202477 0.3075306 0.46950167 0.24450901 -0.014891119 0.31018618
0.2635537 -0.000850359 -2.6376487e-10 -9.259934e-05 0.38483298 7.2358507e-06 -0.00035879342 -4.558248e-07
2.3528673e-05 8.8770685e-05 8.2500024e-05 -0.000109799155 -9.05773e-05 6.880853e-10 -4.1541483e-05 1.6658899e-07
-4.111669e-05 -0.00012467735 0.00015861505 -2.8330593e-05 2.2411095e-06 -2.1839072e-05 -5.2997126e-07 0.41926008
0.18406157 0.013824759 0.16005883 0.26070902 0.56672984 0.30052727 0.18147497 0.0030803864
0.499778 -0.027044041 0.58513284 0.055220183 0.360397 -0.09158275 0.020522634 -0.11994981
0.026428705 0.38790217 0.44379076 0.20753121 0.10547964 -0.021528315 0.009180824 -0.16026667
00000000: eb75 113f 110a b83c dac5 6e3a 2054 433c
00000010: a8d6 713f 73d4 5e3a c342 4b3b ac7b 88b9
00000020: 262f d7bb e515 843b c61d 24bc dd30 0dbc
00000030: afd7 0c3b 6afc 813b b391 04bb 83b5 283b
00000040: 81ca 3d3c f256 10bc 8a5b 5b3c fc62 81bb
00000050: 9046 e73b e4cf 90ba 47d0 b33a 1a5c 1d3f
00000060: a2ad e73e a7db e73c 1fe4 d93e 6b61 c33e
00000070: 1484 ea3e d185 173f 51f7 f03e a849 0e3e
00000080: ff84 103f ba8c b03e c8ed 083f 4952 f43e
00000090: 9aee e13e f889 c43e e764 d23e 5099 b33e
000000a0: 72b8 cb3e 7a1a d63e b52a d73e a774 9d3e
000000b0: 8662 f03e 9260 7a3e e1f9 73bc b9d0 9e3e
000000c0: 83f0 863e a0ea 5eba 9b01 91af e431 c2b8
000000d0: d408 c53e 7ccb f236 701c bcb9 15b8 f4b4
000000e0: 715f c537 662a ba38 dd03 ad38 f943 e6b8
000000f0: 51f4 bdb8 b323 3d30 d43c 2eb8 a2df 3234
00000100: b674 2cb8 d2bb 02b9 e751 2639 7ca7 edb7
00000110: f865 1636 0d33 b7b7 5943 0eb5 42a9 d63e
00000120: a37a 3c3e 3e81 623c 76e6 233e a77b 853e
00000130: 3515 113f b6de 993e 93d4 393e 4fe0 493b
00000140: e7e2 ff3e 778b ddbc 44cb 153f 8f2e 623d
00000150: f585 b83e bd8f bbbd 151f a83c 3fa8 f5bd
00000160: 0381 d83c 1d9b c63e 8b38 e33e 1083 543e
00000170: b605 d83d 265c b0bc 2b6b 163c f21c 24be

tabnet.initial_splitter.shared.glu_layers.0.bn.bn.bias f4 [96]
-0.057622045 -7.1026057e-06 3.7028653e-12 5.431502e-07 -0.13618968 5.3250314e-08 -2.1658086e-06 1.5387361e-07
3.3971344e-07 -1.01036434e-07 -2.950281e-07 -1.06930564e-07 6.742893e-08 -7.0884305e-11 1.2024961e-07 -3.0369907e-07
-3.2629723e-07 -3.5017007e-07 -2.428946e-07 3.1572276e-07 -6.949862e-07 -2.5069204e-08 6.1077152e-09 -0.026504211
0.010753654 -0.0020490575 -0.0026218244 -0.072484255 -0.044569653 -0.037338924 -0.016027844 -0.036812868
-5.2581454e-05 -0.017298995 0.060929704 -0.043547664 -0.06899673 -0.04613 -0.028735282 -0.014052904
0.0022623015 -0.020106718 0.026961647 0.024807654 0.021039078 0.0009931733 0.0025043886 -0.03567964
0.09603518 0.00014077814 -7.200248e-08 -0.00019355446 0.16564831 -1.1962866e-05 -0.0001863123 -3.233526e-05
-3.0228812e-05 -4.2397784e-05 3.201432e-05 1.8599441e-05 -1.9297646e-05 -1.1864156e-05 -3.3643162e-05 -2.1802758e-05
4.1665528e-05 -2.2912749e-05 3.808731e-05 -4.4635482e-05 -2.53592e-05 -1.1439616e-05 -3.753975e-06 0.099893205
0.08658646 -0.029440908 0.0813262 0.043523584 -0.025421297 0.13379678 0.101383634 0.0007464777
0.07656087 0.049140822 -0.015338094 0.14181843 0.026986826 0.057678528 0.061730046 0.05131845
0.061406355 0.01775562 -0.028954707 -0.0059342175 0.10176014 0.019346595 -0.0431728 0.020846063
00000000: 1805 6cbd eb52 eeb6 7248 822c ffcc 1135
00000010: 4f75 0bbe 57b5 6433 4f58 11b6 7538 2534
00000020: dc61 b634 5ef9 d8b3 5a64 9eb4 b3a1 e5b3
00000030: 72cd 9033 51e0 9bae f61d 0134 150c a3b4
00000040: f32d afb4 02ff bbb4 2e67 82b4 9b80 a934
00000050: 178f 3ab5 c357 d7b2 08dc d131 5c1f d9bc
00000060: 1830 303c 7b49 06bb ead2 2bbb a072 94bd
00000070: ab8e 36bd b3f0 18bd d34c 83bc 17c9 16bd
00000080: e88a 5cb8 9fb6 8dbc 6d91 793d 095f 32bd
00000090: 284e 8dbd d0f2 3cbd 4166 ebbc 273e 66bc
000000a0: 1f43 143b d8b6 a4bc acde dc3c 6c39 cb3c
000000b0: 255a ac3c 5e2d 823a ab20 243b d024 12bd
000000c0: 18ae c43d d89d 1339 c89f 9ab3 e1f4 4ab9
000000d0: b69f 293e 1eb4 48b7 d45c 43b9 b99f 07b8
000000e0: e193 fdb7 46d4 31b8 1d47 0638 ff05 9c37
000000f0: 61e1 a1b7 290c 47b7 121c 0db8 11e5 b6b7
00000100: 05c2 2e38 c134 c0b7 f0bf 1f38 fc36 3bb8
00000110: 78ba d4b7 c7ec 3fb7 cdec 7bb6 cf94 cc3d
00000120: 3e54 b13d 0f2e f1bc 5a8e a63d c945 323d
00000130: 5340 d0bc 0602 093e 39a2 cf3d 45af 433a
00000140: f2cb 9c3d e347 493d a14c 7bbc da38 113e
00000150: 7a13 dd3c 5240 6c3d a5d8 7c3d 4c33 523d
00000160: 3b85 7b3d 3c74 913c 6c32 edbc d373 c2bb
00000170: 9f67 d03d c07c 9e3c f6d5 30bd 5dc5 aa3c
