cv_steps/tabnet_raw_step1_fold4_5/network.pt (torch, 682379 bytes, 56 tensors)

embedder.embeddings.0.weight f4 [3, 1]
000000 50 b7 35 bc 7b 87 c7 3d bf 54 52 bd
       -0.011091068 0.09742638 -0.05135035

embedder.embeddings.1.weight f4 [2, 1]
000000 b4 a6 de bc 4e b4 de 3c
       -0.0271791 0.027185585

tabnet.initial_bn.weight f4 [1038]
000000 f4 5c d1 bd df ee 21 3e 47 da 4b 3c 3c 4f 3b 3d
       -0.102228075 0.15813778 0.012442178 0.04572986
000010 b1 31 3d 3c 28 45 21 3e 67 8d 73 bc a6 d8 a3 3d
       0.011547492 0.15749037 -0.014865256 0.08000307
000020 11 ce cd 3d 66 c4 5a be 14 9a a6 3e b5 7b 56 37
       0.1004907 -0.21363983 0.32539427 1.2784197e-05
000030 22 53 cf 3d 83 1b 41 3e e4 20 10 3e 60 35 14 3e
       0.10123278 0.18858151 0.14075047 0.14473486
000040 19 4b 12 3e 96 69 5a 3e 25 dd 28 3d 11 87 da 35
       0.1428646 0.2132934 0.041226525 1.6281575e-06
000050 c3 af 32 3e 0f 65 7b bb 2c 5c 7d 3e 69 91 e0 3d
       0.1744986 -0.0038359796 0.24742192 0.10965235
000060 0b 51 4c 3e 85 4b 38 3e fb b8 0b 3e 07 7f fd 39
       0.1995279 0.17997558 0.13644783 0.00048350563
000070 e6 93 13 3e ca a9 16 3e 10 8e 21 3e 3e 5c 45 3e
       0.14411888 0.14713207 0.15776849 0.19273469
000080 3d a7 73 3e e0 b7 f2 b9 33 c5 2b 3e c4 31 4b 3e
       0.23794265 -0.00046294834 0.16774444 0.19843203
000090 24 8b 5b 3e 3f 2e 28 3c 0a eb 36 3e b3 c8 1d 3e
       0.21439797 0.010264932 0.17863098 0.15408592
0000a0 4d fd 29 bc 6a a3 1d 3e b1 ed d3 3c 51 d8 32 3e
       -0.010375333 0.15394369 0.025870176 0.1746533
0000b0 0f 0a 2a 3b c1 df 01 3e 2f 91 4b 3d 41 62 63 bc
       0.0025945937 0.12683012 0.049699005 -0.013878406
0000c0 a0 34 9c 3a 95 d6 50 3e d9 7e 64 3e 41 8b 40 bb
       0.0011917539 0.20394357 0.22314014 -0.0029379877
0000d0 92 aa 2b b7 6a dd 73 3e 2a cb 94 3d 69 12 9b 3d
       -1.0232108e-05 0.23814932 0.07265313 0.07571871
0000e0 8b bc ce 3d a0 21 0f 3e 19 ae 0a be c1 6b 51 3e
       0.100945555 0.1397767 -0.13542975 0.20451261
0000f0 e7 dc 14 3e 73 7b bf 3b 3a ca 11 3e de 24 31 b7
       0.14537393 0.0058435737 0.142373 -1.0558606e-05
000100 7c 1b 84 3e f2 f0 1c 3e 0e 05 08 bd dc 1f 50 3e
       0.2580222 0.15326288 -0.033207946 0.20324653
000110 c5 5f 62 3d 5d 6d 0c 3e 4f 29 35 3e fc 22 4a 3e
       0.055267114 0.13713594 0.17691539 0.19739908
000120 8c d4 a2 3d 75 ad 98 3d 8a 59 20 3e 2d ce ce b9
       0.07950696 0.07454959 0.15659156 -0.00039444995
000130 08 3c bc 3c d8 2e 02 3d ae 9f 6b b1 a7 0c f0 3d
       0.022977844 0.031782955 -3.4287768e-09 0.11721163
000140 29 25 b0 3d d4 bc 2f bc 88 cf c7 bd 84 d9 02 3e
       0.08600838 -0.0107261725 -0.0975638 0.12778288
000150 c1 76 be 3d e3 11 1f 3d 10 fe 9e 3d 35 d3 38 3e
       0.09299994 0.038835417 0.07763302 0.18049319
000160 c5 e5 a0 bc f5 fc 8c ba 43 91 fe 3d c0 b6 51 3e
       -0.019640813 -0.0010756539 0.1243005 0.2047987
000170 f7 8f 37 3e 6a 69 64 3e 05 32 32 3e 23 41 bd 3c
       0.17926012 0.22305837 0.17401893 0.023102349
000180 f7 e9 1b 3e e3 d9 fe 3d 21 66 31 3e d9 a9 30 36
       0.1522597 0.12443902 0.17324115 2.6324908e-06
000190 b4 e4 cc 3d 73 55 f5 3d d3 6a 9d 3e 34 79 87 3d
       0.10004559 0.11979189 0.30745563 0.066149145
0001a0 e1 8a 69 3e 3a 04 34 3e 96 59 1d 3e 5b d7 31 3e
       0.22806884 0.17579737 0.15366206 0.17367308
0001b0 d7 53 00 3d ba 47 a0 3d d5 cc 00 3d c4 61 03 3e
       0.031329956 0.07826181 0.031445343 0.12830263
0001c0 13 25 21 3e 38 de db 3d ec b0 2d 3e 12 b0 2d 3e
       0.15736799 0.10735744 0.16962022 0.16961697
0001d0 6a 94 25 3d 33 d9 81 ba 8b f2 51 3e 75 6d 1c 3e
       0.04042474 -0.0009906649 0.20502679 0.1527613
0001e0 fa a0 50 3e cc 9b 2c 3e a2 23 19 3e e0 bd 50 3a
       0.20373908 0.16856307 0.14954999 0.0007962864
0001f0 12 a6 61 3e 82 7f 80 3e 6d 48 50 3e 82 af 36 3e
       0.22036007 0.2509728 0.20340128 0.17840388
000200 5b d9 46 3d 30 73 22 3e 70 e0 27 3e ba 92 57 bd
       0.04854713 0.15864253 0.1639421 -0.052630164
000210 6f c6 4c 3e c4 44 18 3e 84 6a 89 3c 61 28 f9 3d
       0.19997571 0.14869982 0.016774423 0.12165905
000220 01 14 e8 3d b5 22 ea 3d 94 26 2e 3e 42 dc 5f 3e
       0.113319404 0.11432401 0.17006904 0.21861365
000230 f7 7d cf 3d eb ee 5c 3d 52 9d 38 3e 9f d1 55 bb
       0.10131448 0.053938787 0.18028763 -0.0032626165
000240 3b ae 14 3e 33 90 1b 3e fc 7f 3a 3e de b5 00 3c
       0.14519589 0.15191726 0.18212885 0.0078558605
000250 88 df 41 3e b0 fa 8a 3c 5a 04 39 3e 0f 8b 81 3e
       0.18932927 0.01696524 0.18068066 0.25301406
000260 5c cb ab 3d 37 e3 a2 3b d1 93 de 3d 38 00 09 3e
       0.08388397 0.004970934 0.108680375 0.1337899
000270 c2 2a b2 3d cf 40 fb 3c c7 a2 65 3e 84 3a b9 3e
       0.08699562 0.030670552 0.22425376 0.36177456
000280 da 24 9c 3e e0 cd 0f 3e af eb 0d 3e fd 57 a8 ba
       0.30496866 0.14043379 0.13859437 -0.0012843605
000290 c8 2f f8 3d 3f 6e 20 bd da d9 3f 3e 19 47 a8 36
       0.121184886 -0.03916764 0.18735448 5.015067e-06
0002a0 d7 ec 49 3e 85 62 83 3e 61 31 52 3e d5 da 61 3e
       0.19719253 0.25661102 0.20526649 0.22056134
0002b0 c6 cd 1b 3e 39 6b bc 3d a5 41 d1 3d ed 88 85 3e
       0.15215215 0.092001386 0.10217599 0.2608103
0002c0 0c c0 1b 3e 94 83 a6 3e 4c c0 35 3e 10 39 7c bc
       0.15209979 0.3252226 0.17749137 -0.015394464
0002d0 a8 8f b9 3e b0 0e 8f bb da a8 26 3e 18 0c 15 3e
       0.36242414 -0.0043657646 0.1627535 0.14555395
0002e0 5b 44 32 b4 72 76 b6 3d 29 9f 99 3d fa 86 56 3e
       -1.660241e-07 0.089093104 0.075010605 0.20949927
0002f0 ae d9 23 3e 83 8c a7 3d fd 9c 0c 3e 14 82 e8 3d
       0.16001007 0.08181097 0.13731761 0.113529354
000300 8e 8e 87 b5 e0 cd 88 39 e6 53 00 3e 53 f8 a6 bb
       -1.0099773e-06 0.0002609333 0.12532005 -0.0050955205
000310 de 78 08 3e 7e 71 e8 3b a5 c3 16 b5 43 86 e6 3d
       0.13327357 0.0070936074 -5.6164055e-07 0.11256077
000320 e0 6c 05 3e df 3b 73 bb fd 04 d9 3d 31 53 90 3c
       0.13029814 -0.0037114543 0.105966546 0.017617794
000330 9d 32 a2 3e bf eb 95 3e 55 06 e3 3c fa 5b 92 3d
       0.3167924 0.29281422 0.02771298 0.071464494
000340 6d 3c cc 3a dd 80 8e 3e 56 29 75 3e 61 a1 80 3e
       0.0015581973 0.2783269 0.2394155 0.25123122
000350 04 4b 3f 3e 76 75 db 39 cf be 2d 3e f0 bf bf 3d
       0.1868096 0.0004185845 0.16967319 0.09362781
000360 67 79 a9 bb 01 48 3d 3e 85 8f 94 3d e3 ae 13 3e
       -0.005171943 0.18484499 0.07253937 0.14422183
000370 82 09 20 3e 4e 94 0b 3e e2 3c 24 34 b4 b8 76 3e
       0.15628627 0.13630792 1.5295839e-07 0.24093896
000380 0e 28 01 3e 1b 71 01 3e 6b 13 d0 3a e7 ea 2e 3e
       0.12612936 0.12640803 0.0015874928 0.17081796
000390 93 0b dc 3d ca 2f f5 3d 06 1b 3f 2f 10 39 74 3e
       0.10744395 0.11972006 1.738095e-10 0.23849893
0003a0 0f 37 aa b9 c1 2d 79 3e 7a 7a a9 3d 10 10 4a 3e
       -0.0003246595 0.2433386 0.08275314 0.1973269
0003b0 d5 1c 02 3e 67 15 5d 3e e5 67 0e 3d af dc 1c 3e
       0.12706311 0.21590196 0.03476705 0.15318559
0003c0 20 1e 8f 3d 88 2e d6 3d 15 cf d2 3d 39 76 80 3e
       0.06988168 0.10458094 0.10293404 0.25090197
0003d0 51 be 05 3e e5 2b 35 b6 a5 41 1a 3e e6 4a 10 bb
       0.13060881 -2.6996652e-06 0.15064104 -0.00220173
0003e0 70 e0 4b 3d 71 8f 96 3c f1 5f 70 3e c6 ab ac 36
       0.049774587 0.018378945 0.23474099 5.1459965e-06
0003f0 f8 50 a6 38 ad 32 82 b8 2c 23 e5 3d 74 2c 7e 39
       7.9305784e-05 -6.208322e-05 0.11188349 0.00024239888

tabnet.initial_bn.bias f4 [1038]
000000 45 04 b6 b9 18 88 c0 be 24 c0 3d 37 e0 fd 53 b9
       -0.00034716926 -0.3760383 1.1310014e-05 -0.00020217104
000010 3f 37 ca 37 45 67 5e bc 2c 00 61 b7 76 98 6e 38
       2.4106002e-05 -0.013574426 -1.3411085e-05 5.6885612e-05
000020 ae 50 1b 3e 98 76 ef 38 24 05 9b 39 7c d6 e1 32
       0.15167496 0.00011418498 0.00029567734 2.6290984e-08
000030 eb f8 7e 38 6f cc dc b8 bc c7 79 b8 95 a5 9e be
       6.0790142e-05 -0.00010528496 -5.9552243e-05 -0.30985704
000040 a3 90 8d b9 68 b9 cb 38 cc 41 5b b9 06 69 af b1
       -0.00027001378 9.714329e-05 -0.00020909979 -5.10511e-09
000050 53 8b ff b8 d9 3b b9 37 a5 07 88 3e 7d 4f ad 39
       -0.00012185299 2.2081587e-05 0.26568332 0.00033056355
000060 58 b4 eb 39 6d 2d ae 39 1b 2c 40 ba f2 74 50 b6
       0.0004495706 0.0003322171 -0.0007330791 -3.1062486e-06
000070 46 f9 7a b7 f3 e6 28 39 93 ab c9 b8 bb 44 01 bb
       -1.49592e-05 0.00016107764 -9.616385e-05 -0.0019724804
000080 cf c2 52 3a 6a 39 aa 35 b4 77 69 bd 19 fe 8f 39
       0.0008039893 1.2682697e-06 -0.056998923 0.00027464403
000090 08 72 25 bb a0 c4 48 38 1c cf 71 3a 28 52 bb b9
       -0.002524497 4.7866837e-05 0.0009224282 -0.0003572863
0000a0 30 fd 38 b8 c6 81 ac b9 db 37 00 38 9c e3 20 3a
       -4.4104818e-05 -0.00032903085 3.0569598e-05 0.0006137432
0000b0 44 6b ca b9 43 7c bc 38 15 c1 37 38 6e 42 8d b8
       -0.00038608362 8.987684e-05 4.381042e-05 -6.7357774e-05
0000c0 b8 1a 5a 36 ce ca 21 3a 1a c4 87 39 c1 1b 67 38
       3.2500084e-06 0.0006171883 0.00025895314 5.510054e-05
0000d0 d3 bd 65 b2 5f 85 e2 37 e0 26 50 b8 65 ae 40 36
       -1.3372715e-08 2.7003405e-05 -4.962727e-05 2.871174e-06
0000e0 6d 91 69 38 02 3b a4 b8 1f 95 3b b8 31 78 aa b9
       5.5686967e-05 -7.8311205e-05 -4.4723154e-05 -0.00032514476
0000f0 58 4c 97 39 72 90 0a b6 5f 72 ef b8 b9 20 a6 b2
       0.00028857845 -2.064768e-06 -0.00011417711 -1.9339824e-08
000100 2c 0e 0c b9 ea 70 7f 3a 44 6a 89 36 36 8e dd bc
       -0.0001335672 0.00097443035 4.095289e-06 -0.02704535
000110 9c 42 b1 b7 20 f4 21 ba fc 7a d6 b9 30 aa 3e b9
       -2.1131062e-05 -0.000617804 -0.0004090889 -0.00018183212
000120 90 5c 95 b9 d2 db 14 38 e1 8c e5 38 2f 7c eb b5
       -0.0002848846 3.5490673e-05 0.00010945812 -1.7545007e-06
000130 6a 03 9c 37 64 00 5e 3e 6f 05 da ac 2c 7f 43 39
       1.8598239e-05 0.21679837 -6.196536e-12 0.00018644024
000140 03 b3 81 b9 28 1c 80 b9 92 3a 24 b9 25 76 7d 38
       -0.00024738171 -0.0002443504 -0.00015662078 6.042993e-05
000150 62 c6 b4 b8 d6 39 54 37 53 48 b1 38 ac 10 82 39
       -8.6200205e-05 1.2649651e-05 8.453489e-05 0.00024807954
000160 f1 88 4e 3e da 29 be 36 83 f5 0b 3b 1e 40 8e 39
       0.20169427 5.6673134e-06 0.0021356053 0.00027132122
000170 13 c9 ac bd b3 4c 23 ba bc c5 d9 3d 0a 4d e8 3e
       -0.08436789 -0.00062293856 0.10633418 0.45371276
000180 dd 4e 91 b9 50 5e 9a b8 7e e8 00 39 96 a5 d7 b0
       -0.00027715313 -7.360859e-05 0.00012293641 -1.5690371e-09
000190 88 bb 5d 38 11 3e ef 39 e1 4b 8c 3d cb 4c d9 38
       5.2865158e-05 0.00045631875 0.0685041 0.0001036167
0001a0 fa 1e 95 39 be 17 03 ba 38 c3 01 3a bc 17 54 b8
       0.00028442574 -0.0005000791 0.00049500493 -5.0566843e-05
0001b0 ff fa 03 b9 46 82 25 3a cc 58 e6 b8 40 77 a1 39
       -0.00012586637 0.0006313663 -0.00010983794 0.0003079716
0001c0 56 b7 c9 39 fa e8 93 b9 51 05 72 b8 a9 13 a7 39
       0.00038474303 -0.00028211606 -5.7702247e-05 0.0003186737
0001d0 10 1b 27 3a fc 4e 54 35 8d a9 80 38 f3 1a cb 39
       0.0006374577 7.909109e-07 6.135097e-05 0.00038739256
0001e0 d9 2d e6 b8 52 39 04 39 02 35 59 ba ae e3 ef 36
       -0.000109757944 0.00012609854 -0.0008285792 7.1492605e-06
0001f0 72 42 a6 b9 12 24 8e b9 98 d3 d8 38 29 68 54 b9
       -0.00031711493 -0.00027111225 0.00010339095 -0.00020256698
000200 fb 88 01 b7 e8 6b 7f 37 17 29 ae 39 da 65 12 38
       -7.720892e-06 1.5224308e-05 0.0003321848 3.490397e-05
000210 7d 90 88 ba 43 7e 18 39 58 33 b4 b7 0d b5 50 39
       -0.0010419037 0.00014542886 -2.1481581e-05 0.00019903872
000220 08 73 35 b9 19 e6 ad 39 4e 70 fd 36 be b9 c3 39
       -0.00017304358 0.00033168567 7.5530616e-06 0.00037331687
000230 8f e3 0d b9 3d d5 cd b9 ba b1 f8 3d 7d 8d 23 b7
       -0.0001353158 -0.00039259522 0.12143274 -9.7485e-06
000240 29 df 2f be d0 57 f4 38 a3 33 aa b8 3f 86 eb b8
       -0.17174973 0.00011651183 -8.11585e-05 -0.000112306785
000250 9e 28 a6 38 ea 25 71 b7 dc 67 75 39 39 27 94 b9
       7.9230624e-05 -1.4373547e-05 0.00023403711 -0.00028257983
000260 05 80 2f 38 47 a7 40 36 14 16 36 3a e4 a1 c4 b8
       4.184248e-05 2.8707598e-06 0.0006946039 -9.376163e-05
000270 3e fd 8f b9 85 4a c4 39 a8 27 06 b9 7d f2 45 b9
       -0.00027463766 0.00037439555 -0.00012794009 -0.00018877718
000280 41 06 14 3a ee 7a e2 b9 4b f6 16 b8 4c aa c6 39
       0.0005646684 -0.0004319767 -3.5992165e-05 0.00037892384
000290 8a 1d e0 b9 db b1 0a ba af 1c 75 b9 62 47 82 31
       -0.00042746618 -0.0005290785 -0.00023375706 3.7916132e-09
0002a0 47 dc 3e ba 83 19 47 b9 c1 07 9e b9 08 72 05 3a
       -0.00072807487 -0.00018987623 -0.00030141886 0.00050905393
0002b0 49 5c 0f ba fb 84 15 b9 2d c7 d2 3e a4 b7 09 37
       -0.00054687686 -0.00014259286 0.41167584 8.2085935e-06
0002c0 b2 12 f5 39 e3 07 c4 3d 7e a3 6f b9 a6 89 46 36
       0.0004674397 0.09571817 -0.00022853722 2.958442e-06
0002d0 be 40 94 3a a7 08 41 b7 11 3b 48 3a bb f8 f7 39
       0.0011310799 -1.1505711e-05 0.0007638196 0.0004729683
0002e0 d1 1e a5 b4 8b 21 79 39 ad 4b a8 b7 98 cb 60 3a
       -3.0756067e-07 0.00023758986 -2.00624e-05 0.00085752597
0002f0 af 9f 49 39 ee 0c 2b b8 da 04 61 b8 ca aa 23 39
       0.0001922834 -4.078162e-05 -5.36487e-05 0.00015608515
000300 85 c1 20 b0 c1 02 95 31 09 38 83 b8 37 ea 3a 38
       -5.848267e-10 4.336784e-09 -6.257004e-05 4.4563985e-05
000310 d4 19 a8 b7 05 53 28 38 94 82 9b b2 ca c2 54 39
       -2.0039188e-05 4.013164e-05 -1.8103755e-08 0.0002029046
000320 c2 1f 1b b9 43 ec 2b b8 67 6b 00 b9 ff fe b7 b7
       -0.00014793783 -4.0989613e-05 -0.00012247042 -2.1934042e-05
000330 e9 21 99 39 31 bf 9e 39 90 de 93 3e 80 96 b5 38
       0.000292077 0.00030278557 0.2888074 8.6587854e-05
000340 b7 70 26 36 4b 1f 1a bb 53 26 35 b9 03 86 76 38
       2.4801536e-06 -0.0023517187 -0.00017275782 5.877578e-05
000350 22 ea cf b8 05 65 2a b6 3f 82 df b8 23 4f e9 37
       -9.91414e-05 -2.5390775e-06 -0.00010657729 2.7812615e-05
000360 c3 87 cd b8 53 41 2f b9 fe 74 9b 39 9e 26 bb 36
       -9.800449e-05 -0.00016713636 0.0002965107 5.57753e-06
000370 2d de 85 39 bb ab 5d 38 e6 43 4f b5 09 83 12 bd
       0.0002553327 5.2850442e-05 -7.7212314e-07 -0.035769496
000380 b7 b2 2f b9 ff b1 0c 39 3d a4 59 b6 28 17 52 ba
       -0.00016755877 0.00013417749 -3.243112e-06 -0.0008014315
000390 fd f4 8f b8 59 0b 8e 3e e5 43 b4 2b 24 0a 24 be
       -6.864404e-05 0.27743033 1.2808614e-12 -0.16019493
0003a0 ad 79 08 b8 a1 f8 c7 3a 4c 68 b7 37 2b bc 45 b9
       -3.2538246e-05 0.0015256592 2.1863867e-05 -0.00018857482
0003b0 4a a7 d6 b8 59 80 a9 39 70 3d f0 37 3a d5 c3 b8
       -0.00010235475 0.00032329818 2.8638839e-05 -9.338041e-05
0003c0 70 de 32 b5 6b bd f4 36 3b e9 67 b7 e8 b1 16 39
       -6.6633856e-07 7.293818e-06 -1.3822976e-05 0.0001437139
0003d0 a9 f5 52 b8 47 d9 01 32 8a 01 38 b6 a5 e5 3e 36
       -5.029669e-05 7.558191e-09 -2.7419032e-06 2.8445877e-06
0003e0 32 a7 b9 b8 75 e2 20 37 fe 57 98 ba 99 81 a7 b2
       -8.85263e-05 9.589469e-06 -0.0011622903 -1.9500293e-08
0003f0 d3 33 36 32 50 69 86 b4 87 21 0f b9 b9 55 c0 35
       1.0605578e-08 -2.503607e-07 -0.00013650033 1.4330063e-06

tabnet.initial_bn.running_mean f4 [1038]
000000 9a 1c d6 3a 2b a6 62 ba 72 29 30 3b 8a b3 91 3b
       0.0016335428 -0.0008645977 0.0026880172 0.0044464516
000010 3a 22 00 3b 0f 54 a8 ba d0 d9 30 3a fc dc bc ba
       0.001955165 -0.0012842434 0.0006746324 -0.001440912
000020 fa 29 7d bb 45 d0 be b9 1e 24 29 bc c5 1d 87 ba
       -0.0038629756 -0.00036394797 -0.010323552 -0.0010308555
000030 af ca 06 3b 4a 39 db 3a 2c be 07 bb 4b 8e cd 3b
       0.0020567586 0.0016725447 -0.0020712717 0.006273066
000040 4e 01 d6 ba b0 bf 9d b9 46 44 2c bb 01 19 bc b8
       -0.0016327293 -0.00030088192 -0.0026285811 -8.969196e-05
000050 7d 7f fc ba 28 81 df 3a 62 37 b2 bb cf ca bc 3a
       -0.0019264069 0.0017052041 -0.005438731 0.0014403703
000060 28 e8 1d bb b7 37 43 3a be d7 a1 bb a9 45 fe 3a
       -0.0024094675 0.0007446962 -0.0049390486 0.0019399422
000070 85 eb 88 3b f4 34 f1 ba d9 25 90 bb a6 97 b9 b9
       0.0041784667 -0.0018402622 -0.004399043 -0.00035398937
000080 2a 01 0f bb bc bc 31 3c 8c 86 94 3a 6d d7 b4 bb
       -0.0021820762 0.01084822 0.0011331602 -0.005518845
000090 a8 15 4c ba 29 4c 6e 3b 0e 2a bf ba d4 6f 26 bd
       -0.00077852095 0.0036361313 -0.0014584677 -0.04063399
0000a0 8d 97 dd 3c 99 ae 8d 39 13 a8 12 bb 94 b5 03 3b
       0.027049804 0.000270237 -0.0022378012 0.0020097243
0000b0 a3 ae ed 39 78 ad 81 bb 1f e8 54 bb 76 26 69 3b
       0.00045334277 -0.0039574467 -0.0032486988 0.0035575903
0000c0 49 05 29 3c 49 e5 27 3a 53 a5 5d 3b d6 31 2d 3b
       0.0103162015 0.00064047106 0.0033820465 0.002642741
0000d0 36 57 47 bd c8 2e 1c b9 bb 76 0d 3b 7d 0f 07 3a
       -0.048667155 -0.00014894747 0.0021585661 0.0005152149
0000e0 45 4a 29 3b dc 62 49 bb 89 68 27 3b 75 da 11 3a
       0.0025831622 -0.003072909 0.0025544486 0.00055638637
0000f0 ef 96 a3 bc bc 5c 3c 39 22 e6 fd 3a ee 5e ef ba
       -0.019969432 0.00017963623 0.0019370953 -0.0018262544
000100 41 17 30 bc 69 d4 1e bc 56 ee 41 bb 7a fd 24 3b
       -0.010747732 -0.009694197 -0.0029591522 0.0025175498
000110 cd 17 0e 3b 75 af 63 bd 5d 98 f0 3a 67 ca a0 bb
       0.0021681667 -0.05558725 0.0018355955 -0.0049069407
000120 f7 23 04 ba 66 02 44 bb 75 5d b9 bc 60 a9 97 ba
       -0.00050407596 -0.0029908656 -0.022627572 -0.0011570863
000130 a4 f3 1e 3c bb 27 37 bd 3f 5e 07 bb f4 86 c0 ba
       0.009701643 -0.044715624 -0.002065554 -0.0014688657
000140 48 f9 86 bb 17 f2 0c bb 5e a0 7e bb 78 fd ad 3a
       -0.004119072 -0.0021506601 -0.003885291 0.0013274392
000150 84 2b 9d ba 9a fa b7 3a a3 79 3d 38 2a cf 42 3a
       -0.0011991118 0.0014036477 4.5174394e-05 0.00074313825
000160 74 f7 04 3c a6 2a 7f ba c7 06 ce b9 9b c9 22 3b
       0.008115638 -0.0009733833 -0.0003929643 0.0024839405
000170 22 96 eb 3a fa bf 8b 3b 17 68 95 b8 e0 7b 6a b9
       0.001797382 0.0042648287 -7.124262e-05 -0.00022362126
000180 b9 a9 dc ba 86 3c c7 38 52 cb b5 bb 30 ef 9d 3b
       -0.0016835249 9.500333e-05 -0.0055479193 0.004819773
000190 8d 4e f8 bb 59 dd 2f bb 1d 57 7e 3c 61 33 73 3a
       -0.0075777234 -0.0026834814 0.015523699 0.00092773704
0001a0 8a ee fb b8 8f 50 54 ba b5 00 b3 bb a1 44 d3 ba
       -0.00012013044 -0.00080991624 -0.005462731 -0.0016118475
0001b0 5f ef 1d bb 93 b4 ac 3a 3b 75 7b bb 50 d0 fb ba
       -0.0024098975 0.0013176374 -0.0038369435 -0.0019211862
0001c0 f7 20 8a bb b3 35 8a bb 0c 52 b7 ba bd 9e c2 bc
       -0.0042153555 -0.004217827 -0.0013986244 -0.023757333
0001d0 4e 5c 94 bb 0f 7a 83 ba ac 81 c2 3b 28 79 7d 3a
       -0.004527605 -0.0010030883 0.0059358682 0.0009669238
0001e0 62 6b 35 3b 86 d8 44 bb c3 e5 3a 3b 53 5f 9c bb
       0.0027682413 -0.0030036285 0.0028518296 -0.0047721057
0001f0 0c 07 ca ba 54 0c ed 3c 81 32 81 3a bb d1 e7 3a
       -0.0015413477 0.028936543 0.000985697 0.0017686406
000200 23 47 f2 3a 9e e1 c3 39 b3 3d 72 bc 2f c5 14 bb
       0.0018484335 0.00037361396 -0.014785218 -0.0022700538
000210 13 1a bb 3b 26 8e f9 3c 16 07 6a 3b dd bf 98 ba
       0.0057098954 0.03046329 0.003570979 -0.0011653859
000220 69 ab 84 3a 2f 8d 12 bb 0f 23 1f bb ea 0b e2 ba
       0.0010121885 -0.0022361984 -0.002428237 -0.0017245982
000230 de c9 6f ba a6 86 15 3a 17 56 c0 3a 74 9e f8 ba
       -0.0009147207 0.0005703963 0.0014674094 -0.0018968121
000240 37 63 a7 ba 36 a8 21 3b bc c2 06 3b 04 fb fb b9
       -0.0012770657 0.0024666912 0.0020562848 -0.00048061472
000250 14 91 a3 3b 3b 8b af 3b e5 63 91 3b f6 c9 a3 b9
       0.00499166 0.0053571737 0.004436957 -0.00031240255
000260 1a cd 30 bb 44 84 7a bb 34 8c 35 bc 05 e4 d9 3a
       -0.0026977719 -0.003822581 -0.01108079 0.0016623741
000270 30 c3 96 b7 b3 ff 8e 3b 0f 70 68 3b 56 a7 b7 3b
       -1.7972285e-05 0.004363978 0.0035467183 0.005604665
000280 96 6f c7 3c 34 55 27 bb de a1 5c 3a a8 29 c0 ba
       0.0243452 -0.0025532963 0.0008416454 -0.0014660852
000290 1a 02 96 3b d7 32 cf 3b 44 6a dc 3b be 99 3d ba
       0.0045778872 0.0063231993 0.006726535 -0.0007232687
0002a0 37 43 32 3a 54 c6 b1 3a 45 45 78 3b 80 f3 7a 3a
       0.0006800177 0.0013563135 0.0037883085 0.00095730275
0002b0 af 78 c7 3b 31 a2 12 3b 90 d3 04 ba 4f 44 b9 3b
       0.0060873847 0.0022374506 -0.00050669257 0.005653895
0002c0 28 45 0b 3a 52 13 83 3b ef 0a ce bb 6f ed 65 ba
       0.0005312734 0.004000106 -0.0062879245 -0.0008771037
0002d0 af b8 ae bb 9f c7 0e bb 3b 41 96 3b 95 19 91 3b
       -0.0053320746 -0.0021786464 0.004585413 0.0044280984
0002e0 e9 2d 26 3b 95 73 ee bb ae 35 5e b9 66 82 ca bc
       0.0025356954 -0.007276962 -0.00021191567 -0.024720382
0002f0 84 db 62 b9 8c 0a 5a 3a d0 7a b6 bb 43 ee d1 bb
       -0.00021634815 0.00083176116 -0.0055688396 -0.006406577
000300 3a 63 7e ba 7e 9d 64 3a 98 89 83 bb 4d f0 61 3b
       -0.0009704117 0.0008720978 -0.004014205 0.0034475506
000310 51 e6 cc b7 e3 58 8c bc 96 d8 0c bb a3 9d 6f 3b
       -2.4425945e-05 -0.017132228 -0.00214914 0.0036562465
000320 3a 02 90 3a 9c 40 0a bb e8 e9 01 bb b5 34 52 3c
       0.0010986992 -0.002109564 -0.0019823257 0.012829949
000330 24 49 4a bc d2 f8 6a 3b 3e cc 35 bb 47 92 94 bb
       -0.01234654 0.0035853875 -0.0027740146 -0.004534039
000340 05 50 f7 ba b9 11 c5 b9 a9 6f 5a 3c 17 6c b7 37
       -0.0018868452 -0.00037587972 0.013332286 2.1865633e-05
000350 37 1f 8f 3b 2e a5 7a ba 9c b9 30 3b 58 06 92 3b
       0.004367735 -0.0009561357 0.00269661 0.0044563226
000360 d5 a3 c8 bb cd 8d d9 3a 4b e0 da b7 69 fa b9 3a
       -0.006123046 0.0016598046 -2.609207e-05 0.0014189008
000370 05 4a dd ba d9 5a 12 bb 4a cc 92 3b f9 c2 cc 39
       -0.0016883021 -0.0022331981 0.0044799196 0.00039055178
000380 26 26 9b bb 9d 44 56 bb 9e 65 a6 ba c0 2f 69 3a
       -0.0047347723 -0.0032694705 -0.0012695079 0.000889536
000390 16 73 d2 3b 19 65 0a bb b4 1a 8c bd ad f5 6b 3a
       0.0064224107 -0.0021117388 -0.06841031 0.0009001147
0003a0 eb 83 f3 b9 72 e3 98 ba 66 d6 c4 ba 23 27 15 3b
       -0.00046446858 -0.0011664464 -0.0015017509 0.0022758923
0003b0 36 35 22 bb 9b cb 7a 3b 2e 4a 9c 3a bb 44 2f bb
       -0.0024750954 0.003826833 0.0011923963 -0.0026743847
0003c0 c3 c1 ce 39 67 6c 3b 3b 80 3f 3f 3a 44 40 a7 ba
       0.00039435746 0.0028598548 0.0007295534 -0.0012760242
0003d0 6d cc 9c 3a 9f 1f 5e 3b 57 03 7a 3a fb 93 04 3b
       0.0011962779 0.003389336 0.0009537241 0.0020229805
0003e0 38 67 6c bb 66 0b 8e 3b f7 52 c1 3c 21 fd 93 3b
       -0.0036072265 0.004334855 0.023599131 0.0045162593
0003f0 f8 dd 43 bc 24 ba 6a 3b cb f8 a8 bb 02 4f 94 ba
       -0.011954777 0.0035816515 -0.0051566116 -0.001131505

tabnet.initial_bn.running_var f4 [1038]
000000 b2 ca f5 3b cd 60 f4 3a 1f 1f 7c 3f b2 d0 76 3f
       0.00750097 0.0018644572 0.9848499 0.96412194
000010 70 43 78 3f dd 11 79 3f 30 a2 77 3f 3e bc 77 3f
       0.969779 0.9729288 0.96731853 0.9677161
000020 6a aa 77 3f f2 36 77 3f 85 a6 87 3f db 43 79 3f
       0.96744406 0.96568215 1.0597693 0.97369164
000030 e0 92 7a 3f 8e f8 78 3f dc 3c 78 3f 58 05 7e 3f
       0.97880363 0.97254264 0.96967864 0.99226904
000040 ab cd 79 3f ab 04 77 3f 70 08 7b 3f c9 58 7a 3f
       0.9757945 0.964915 0.9805975 0.97791725
000050 12 4e 77 3f b2 8a 77 3f 43 b3 77 3f 85 2b 77 3f
       0.966035 0.9669601 0.96757907 0.9655078
000060 64 46 7a 3f 84 17 76 3f aa 56 79 3f 39 44 77 3f
       0.9776366 0.9612963 0.97397864 0.96588475
000070 19 93 78 3f 37 8e 77 3f 91 4f 78 3f 4f d0 79 3f
       0.97099453 0.9670138 0.9699641 0.9758348
000080 54 8f 79 3f e4 e8 87 3f 26 de 79 3f 26 0a 79 3f
       0.97484326 1.0617948 0.97604597 0.9728111
000090 dd 4b 7b 3f 45 f1 77 3f f3 5e 7c 3f 1a a6 a4 3f
       0.98162633 0.96852523 0.9858238 1.286319
0000a0 0a a1 98 3f 85 85 78 3f 41 e5 7f 3f 64 c5 78 3f
       1.1924145 0.97078735 0.9995919 0.97176194
0000b0 cc 4e 77 3f 58 36 77 3f 31 75 78 3f 0c c9 78 3f
       0.9660461 0.96567297 0.9705382 0.97181773
0000c0 bd 9c 80 3f ff b7 79 3f 69 f4 7d 3f 7e f9 78 3f
       1.0047833 0.9754638 0.99201065 0.97255695
0000d0 94 cd a7 3f 0c ba 77 3f 5c 75 79 3f cd a4 7b 3f
       1.3109612 0.9676826 0.974447 0.9829834
0000e0 b2 6f 7a 3f 5d 49 7e 3f a6 22 79 3f 67 c5 7d 3f
       0.97826684 0.99330693 0.97318494 0.9912934
0000f0 12 4d 91 3f 9e 50 7c 3f 11 a6 78 3f 53 47 7b 3f
       1.1351645 0.9856051 0.971284 0.9815571
000100 48 32 84 3f d8 f0 85 3f e6 8e 77 3f de f5 79 3f
       1.0327845 1.0464125 0.9670242 0.9764079
000110 df 84 78 3f cd dc b0 3f 78 da 78 3f 98 33 77 3f
       0.97077745 1.3817383 0.97208357 0.965631
000120 a5 da 78 3f 12 69 78 3f e8 52 8e 3f 17 97 78 3f
       0.97208625 0.97035325 1.1119051 0.97105545
000130 30 5d 84 3f 73 e4 a6 3f 62 e9 77 3f 0b e9 78 3f
       1.0340939 1.3038467 0.9684049 0.97230595
000140 41 97 78 3f a9 dc 76 3f ad d0 78 3f 57 1b 77 3f
       0.97105795 0.9643045 0.97193414 0.9652609
000150 a1 b7 78 3f 05 05 7b 3f 53 16 79 3f 29 6a 77 3f
       0.97155195 0.98054534 0.9729969 0.9664636
000160 65 25 82 3f f9 b4 78 3f ca 8b 78 3f 08 d7 77 3f
       1.0167662 0.9715114 0.970883 0.96812487
000170 cc 04 7b 3f 6d 58 81 3f dd 24 78 3f e0 c8 79 3f
       0.98054194 1.010511 0.9693125 0.97572136
000180 3a f1 77 3f 15 48 7b 3f 7e 94 81 3f 8e 2a 82 3f
       0.9685246 0.98156863 1.0123441 1.0169237
000190 26 b9 7f 3f 65 58 7a 3f 30 e4 8a 3f 22 3b 77 3f
       0.9989189 0.9779113 1.0850887 0.96574605
0001a0 0d 3d 7d 3f 64 4b 7a 3f 26 f7 76 3f 50 f5 76 3f
       0.9892128 0.97771287 0.9647087 0.9646807
0001b0 94 86 81 3f 8f d1 77 3f e6 88 78 3f d6 18 79 3f
       1.0119195 0.96804136 0.9708389 0.9730352
0001c0 a5 6f 77 3f bc 29 7c 3f 9f 47 78 3f d6 d1 8d 3f
       0.9665473 0.9850118 0.96984285 1.1079662
0001d0 32 98 78 3f 9f 6e 79 3f a6 31 79 3f 01 5f 79 3f
       0.9710723 0.9743442 0.9734138 0.9741059
0001e0 df 6e 78 3f 97 6f 76 3f aa 26 79 3f 3a 43 80 3f
       0.97044176 0.9626402 0.9732462 1.0020516
0001f0 c9 2d 77 3f 62 38 95 3f d1 46 77 3f 8e 17 79 3f
       0.9655424 1.1657832 0.9659243 0.97301567
000200 82 ae 7c 3f 65 38 78 3f 5f df 8c 3f f4 ec 77 3f
       0.9870378 0.9696105 1.1005667 0.96845937
000210 6c 6e 81 3f 8b 5b 9a 3f 01 f3 80 3f 9f 01 7e 3f
       1.0111823 1.2059187 1.0074159 0.99221224
000220 cd 9e 78 3f 29 88 78 3f 30 cc 78 3f 24 e1 78 3f
       0.9711731 0.97082764 0.97186565 0.9721854
000230 fa c4 7b 3f 36 38 7c 3f f3 e2 79 3f 6e ae 77 3f
       0.9834744 0.9852327 0.9761192 0.96750534
000240 6e d2 7b 3f c1 3d 79 3f 4f 94 81 3f 29 ad 7d 3f
       0.98367965 0.97359854 1.0123385 0.99092346
000250 29 ed 7f 3f 03 9d 83 3f 9f c3 7d 3f 93 01 78 3f
       0.9997125 1.0282291 0.9912662 0.968774
000260 07 0d 79 3f 6a 73 76 3f 05 24 82 3f 4a 55 76 3f
       0.97285503 0.9626986 1.0167242 0.9622389
000270 ef f3 78 3f 95 c5 80 3f 2a 63 7a 3f fb 3b 7a 3f
       0.97247213 1.0060297 0.9780756 0.9774777
000280 ae 87 90 3f e3 50 77 3f 18 7a 7d 3f 13 bc 78 3f
       1.1291406 0.966078 0.99014425 0.9716198
000290 2a d2 77 3f c7 15 83 3f af ae 80 3f b1 a5 77 3f
       0.9680506 1.0241021 1.0053309 0.967372
0002a0 2a b3 78 3f 0f 97 78 3f f1 35 79 3f f2 91 7a 3f
       0.9714838 0.971055 0.97347933 0.97878945
0002b0 04 8c 85 3f c9 68 78 3f 43 0c 78 3f 59 ab 77 3f
       1.0433354 0.9703489 0.9689371 0.9674583
0002c0 66 d2 78 3f d2 b9 78 3f a7 f4 78 3f 34 35 7d 3f
       0.9719604 0.9715854 0.9724831 0.98909307
0002d0 dc 84 8a 3f 85 a2 78 3f ca 2b 77 3f fb b8 7c 3f
       1.0821795 0.97122985 0.9655119 0.9871976
0002e0 26 c9 79 3f a1 ff 80 3f 56 16 76 3f 43 5a 8f 3f
       0.97572553 1.0078012 0.9612783 1.1199421
0002f0 2a 93 7a 3f fd 52 78 3f 54 fd 79 3f 08 36 81 3f
       0.97880805 0.9700163 0.97652173 1.0094614
000300 3f 61 77 3f f2 d5 78 3f 04 0f 79 3f c9 ea 78 3f
       0.9663276 0.97201455 0.9728854 0.97233254
000310 bc 54 78 3f 29 9b 8a 3f 68 ab 78 3f ba 20 81 3f
       0.97004294 1.0828601 0.97136545 1.0088112
000320 49 49 7c 3f c3 78 78 3f c3 fc 78 3f c3 bb 88 3f
       0.98549324 0.9705927 0.97260684 1.06823
000330 ee e9 89 3f f1 ac 78 3f 71 9f 7c 3f 89 82 78 3f
       1.0774515 0.9713889 0.9868079 0.9707418
000340 8b be 77 3f 03 2b 78 3f c4 1e 8a 3f 62 1b 77 3f
       0.9677512 0.9694063 1.0790639 0.9652616
000350 60 2f 7b 3f 4a 3d 77 3f bc 85 78 3f 04 82 7c 3f
       0.98119164 0.96577895 0.9707906 0.9863589
000360 11 c4 76 3f 6b 4a 82 3f d4 82 7a 3f 08 cf 7b 3f
       0.96392924 1.017896 0.9785588 0.9836278
000370 11 cd 78 3f 4c 44 78 3f 46 8b 78 3f 25 8f 78 3f
       0.97187907 0.9697921 0.97087514 0.9709342
000380 82 14 78 3f a5 7f 79 3f 73 bd 78 3f 37 34 78 3f
       0.9690629 0.97460395 0.97164077 0.96954674
000390 d7 87 83 3f 39 28 78 3f 3b 79 bb 3f 28 f1 78 3f
       1.027583 0.96936375 1.4646372 0.97242975
0003a0 5d 0d 77 3f 50 cb 80 3f 93 37 7b 3f e0 9b 78 3f
       0.96504766 1.0062046 0.98131675 0.97112846
0003b0 1f a8 7a 3f cf 03 7e 3f bc e9 76 3f 8d 3d 79 3f
       0.9791278 0.9922456 0.964504 0.97359544
0003c0 f3 22 78 3f 1f a9 7b 3f 05 14 77 3f f6 3d 78 3f
       0.9692833 0.98304933 0.9651492 0.96969545
0003d0 6c 6b 77 3f 87 33 81 3f d9 4a 7b 3f 24 ce 7b 3f
       0.9664829 1.009385 0.98161083 0.9836142
0003e0 54 b4 77 3f 91 28 77 3f 6d de 91 3f 4f c3 7a 3f
       0.96759534 0.96546274 1.1396004 0.9795427
0003f0 08 10 86 3f dd f4 80 3f 71 ee 79 3f f7 df 79 3f
       1.0473642 1.0074726 0.9762946 0.9760737

tabnet.initial_splitter.shared.shared_layers.0.weight f4 [96, 1038]
000000 48 92 28 b9 2e ba cc 3d ea 0b a5 37 6f d4 66 37
       -0.00016076223 0.099964485 1.967508e-05 1.3758529e-05
000010 a4 af 9b b6 05 28 50 bc 63 9d 2f b7 29 60 f4 b7
       -4.6398072e-06 -0.012704854 -1.0467457e-05 -2.9131845e-05
000020 30 65 9f bc 8c 17 99 b8 37 0f 92 39 83 67 92 33
       -0.01945743 -7.2999945e-05 0.00027858626 6.8174835e-08
000030 77 54 c2 b8 da 50 53 b6 55 90 27 39 d3 68 b4 3d
       -9.266374e-05 -3.1488512e-06 0.00015980129 0.08809056
000040 7c 41 0f 39 d7 ac 95 b9 d0 62 31 b9 54 d1 0f b1
       0.00013661938 -0.0002854827 -0.00016916846 -2.0928228e-09
000050 71 3a 2f 39 af 02 b1 b7 30 72 99 bc b7 d8 89 b8
       0.00016711072 -2.1101294e-05 -0.018731207 -6.573035e-05
000060 14 31 11 b9 25 45 bd b9 ff 94 de b8 dc f4 ce 35
       -0.0001384656 -0.00036100406 -0.000106135376 1.541946e-06
000070 60 11 72 b9 ee d2 ad b8 5b 89 b5 39 68 18 74 39
       -0.00023085391 -8.2885716e-05 0.00034625348 0.00023278745
000080 01 ae 01 ba 7f 6f e3 b4 96 62 49 bd 41 11 83 38
       -0.0004946888 -4.236317e-07 -0.049166285 6.2497806e-05
000090 0f b8 42 39 d5 d8 52 36 04 34 4d 39 73 e0 fa b8
       0.00018569849 3.1418651e-06 0.00019569701 -0.00011962736
0000a0 1e 6c 8e b7 82 07 1d 39 1c 35 f3 b7 a3 35 6d 39
       -1.6978065e-05 0.00014975484 -2.8992588e-05 0.00022622063
0000b0 d3 d6 4b 37 ff 7e 54 b8 63 80 99 37 6c 9a 4f b8
       1.2149761e-05 -5.0663013e-05 1.8298806e-05 -4.9496462e-05
0000c0 0b a2 b2 38 c7 4c 09 39 aa 7c 49 38 ed ac 07 b6
       8.517884e-05 0.0001309394 4.8038237e-05 -2.0217224e-06
0000d0 3f 80 cd 31 60 70 78 39 0a b5 8a 38 b5 85 57 38
       5.980865e-09 0.00023692986 6.614074e-05 5.138452e-05
0000e0 c1 f7 d2 b8 0e 4a ed b8 54 1d c7 37 f1 37 13 39
       -0.00010059728 -0.000113148344 2.3736306e-05 0.00014039852
0000f0 3d 96 c3 39 10 d4 cd b6 05 ea 3f 39 9e 30 2c b2
       0.00037305235 -6.1341634e-06 0.00018302359 -1.0022772e-08
000100 c4 a3 31 39 7a 06 4a b8 78 a3 f3 b7 dc c4 b4 bc
       0.00016941043 -4.8166585e-05 -2.9043978e-05 -0.022066526
000110 94 d5 09 37 58 fc e1 b9 8b ad 26 b9 9e b7 87 39
       8.215564e-06 -0.00043103355 -0.00015895643 0.00025886012
000120 11 43 a3 38 c5 0a 31 39 15 a8 29 b9 d8 0f dc 34
       7.784938e-05 0.00016884047 -0.00016179711 4.098972e-07
000130 79 88 2d b9 d7 01 79 3d 82 cf 37 2c be bf 47 b9
       -0.00016549406 0.06079277 2.6121054e-12 -0.00019049548
000140 6c e1 f9 b8 df 67 17 b8 19 54 7f 38 d3 6b 24 39
       -0.00011915233 -3.6097943e-05 6.087506e-05 0.00015680426
000150 e4 d2 59 39 5c e0 e2 b7 3e da 16 39 5b d5 a7 36
       0.00020773296 -2.7045775e-05 0.00014386416 5.0018257e-06
000160 02 85 f7 bd 5b b0 0c 36 d1 aa 9e 39 3b c7 82 b9
       -0.12085916 2.0964278e-06 0.00030263377 -0.0002494397
000170 d4 bf c0 bc f7 4c 4e b9 ce fc e0 3c 53 43 d2 3c
       -0.02352897 -0.00019674363 0.027464297 0.025666868
000180 9e 9d a4 39 5c ef 18 b9 ab 84 80 b9 08 88 76 2e
       0.00031397952 -0.00014585018 -0.00024512908 5.6054744e-11
000190 b7 52 c1 b8 51 a4 0b 39 e9 5a ba bb c6 f5 2b 38
       -9.218364e-05 0.00013317286 -0.005687107 4.099847e-05
0001a0 11 9d 77 37 1a 60 e6 39 29 8c a6 b9 2d 4c 4d 38
       1.4758917e-05 0.0004394062 -0.00031766415 4.8946753e-05
0001b0 5f 82 86 b8 2b 00 b6 b8 69 16 be b7 73 ce ca b8
       -6.4139014e-05 -8.6784676e-05 -2.26602e-05 -9.670565e-05
0001c0 ed 78 82 b9 ab fc 85 38 94 71 5d 39 e9 64 c9 b8
       -0.0002488563 6.388997e-05 0.00021118514 -9.603223e-05
0001d0 bd 4f 46 b8 55 a1 04 b3 19 03 45 3a d5 74 f1 b8
       -4.728114e-05 -3.0880376e-08 0.0007515415 -0.00011513537
0001e0 02 da e0 b7 98 b2 7c b7 f9 ce c2 39 71 2c 2a b5
       -2.6804399e-05 -1.5061953e-05 0.0003715677 -6.3394606e-07
0001f0 a4 2e b5 38 95 22 a6 39 79 f0 b7 b9 41 91 9c b9
       8.63944e-05 0.00031687753 -0.00035083646 -0.0002986286
000200 0f 10 96 38 9d fe 58 39 a5 3d ad b9 98 f3 53 b9
       7.1555485e-05 0.00020694216 -0.0003304306 -0.00020213274
000210 90 ea e6 39 3b 24 10 39 73 e6 be 38 e4 7e 1e 38
       0.0004404378 0.00013746407 9.1028305e-05 3.778831e-05
000220 2d 5c 85 39 ef b9 aa 39 26 6c 33 ba f5 27 85 39
       0.00025436413 0.00032563458 -0.00068444235 0.00025397507
000230 2f 21 f6 38 c6 cf 6c b5 2a 5d a8 3d 1f 46 09 36
       0.00011736375 -8.82192e-07 0.08220895 2.0455407e-06
000240 e2 67 01 3d d0 3e dc b9 57 d1 14 39 12 3e a5 b7
       0.03159321 -0.0004200847 0.00014192365 -1.9698437e-05
000250 40 18 dc 39 29 3a 37 b7 b8 f1 a0 37 7f 83 18 b7
       0.00041979738 -1.09211915e-05 1.9186045e-05 -9.090522e-06
000260 3e 5b 8f 38 2f e2 2b 36 f2 58 97 b9 08 14 3d 38
       6.8357665e-05 2.5612642e-06 -0.00028867234 4.5079767e-05
000270 13 d6 06 b9 35 ba 12 38 1f 94 e9 b7 60 87 93 ba
       -0.00012858985 3.498253e-05 -2.7844739e-05 -0.0011255555
000280 9d 3a f9 39 0d 04 c6 b9 49 5e cc b8 79 de 76 b7
       0.0004753665 -0.0003776852 -9.74504e-05 -1.4714541e-05
000290 31 42 e0 b7 48 80 28 3a e1 27 af 39 44 c9 53 b1
       -2.6733704e-05 0.0006427807 0.00033408313 -3.0818947e-09
0002a0 d2 2b 48 b8 2d 1c 2d 39 04 ed 15 b8 81 33 2f 3a
       -4.7724527e-05 0.00016509062 -3.5745106e-05 0.0006683395
0002b0 5c cd 1a b9 ad 23 da b7 03 fd bd 3d ee 95 bb b8
       -0.00014763087 -2.6004238e-05 0.09276774 -8.9447814e-05
0002c0 da c2 74 3a 34 e3 09 3e 99 4c 87 b9 c4 a4 04 38
       0.00093368965 0.13465577 -0.00025806276 3.1624702e-05
0002d0 89 f7 cc b9 cb de 0b 36 fe 9c bb 39 c8 e1 dd 39
       -0.0003909434 2.0842297e-06 0.00035784388 0.00042320625
0002e0 c5 06 72 33 03 9b a2 38 05 9a 64 b8 3e 7f 09 ba
       5.6351173e-08 7.753635e-05 -5.4502878e-05 -0.0005245096
0002f0 4c c7 c1 b9 20 d2 e5 38 d1 aa ba b9 51 83 34 b8
       -0.00036960316 0.0001095871 -0.00035603953 -4.3037642e-05
000300 b9 bb 1f 31 0c 9e 09 b4 22 7c 4f b8 2f f2 5e b7
       2.3244253e-09 -1.2816616e-07 -4.9468254e-05 -1.3288619e-05
000310 84 a4 06 b9 9f 68 62 b6 42 34 81 b3 85 10 9b b8
       -0.00012840523 -3.3737522e-06 -6.016536e-08 -7.394053e-05
000320 4d b3 49 38 61 aa de 36 ca dd 4f 38 4d ba f5 37
       4.808912e-05 6.6359503e-06 4.9559203e-05 2.9293029e-05
000330 87 55 a6 39 6f b4 bb b8 ad e1 77 bc ed e9 cc b7
       0.0003172571 -8.950463e-05 -0.015129489 -2.4427625e-05
000340 2b 87 51 36 84 3b a5 39 4a 04 9c 39 72 32 cd 39
       3.1222105e-06 0.00031515595 0.00029757834 0.00039138232
000350 de 19 d6 b8 a6 c7 f6 34 a4 7f 24 b8 25 a5 29 39
       -0.00010209133 4.5966334e-07 -3.921952e-05 0.00016178617
000360 55 29 35 37 92 4d 81 38 cc 0c 76 37 51 3e b6 b8
       1.0798064e-05 6.165648e-05 1.4665722e-05 -8.6900436e-05
000370 16 e0 a2 38 ae b0 0d b8 a5 98 8b b4 72 68 66 bd
       7.766501e-05 -3.3781565e-05 -2.600183e-07 -0.05625195
000380 db b2 74 39 9e 40 2e 39 13 6c 9f b4 e9 05 7b 39
       0.00023336282 0.00016618005 -2.9694692e-07 0.00023939427
000390 f1 a6 31 39 ac 87 bb 3c fb b7 eb aa 6d 10 f2 bd
       0.00016942226 0.022891842 -4.1872048e-13 -0.11819539
0003a0 cc 56 f0 37 a8 10 82 39 95 60 16 39 77 fe 2c b9
       2.8650647e-05 0.00024807942 0.00014341094 -0.00016497994
0003b0 d1 2e 7a b8 32 b9 eb 38 80 80 e4 b8 3c ad c6 39
       -5.9648246e-05 0.000112401685 -0.00010895822 0.00037894573
0003c0 81 e7 21 39 47 88 86 b8 b9 a8 c6 b9 15 39 6e 38
       0.00015440398 -6.4150016e-05 -0.0003789121 5.6796784e-05
0003d0 3e e5 bb 38 18 60 4e 31 7b 7d f9 38 e0 0f ac b6
       8.9595545e-05 3.0031568e-09 0.00011896618 -5.1278475e-06
0003e0 7b 7b 69 b7 d5 88 c9 34 17 21 96 39 98 c2 92 b0
       -1.3916632e-05 3.7538726e-07 0.00028634883 -1.0678205e-09
0003f0 e1 0e 04 b3 6d 0f 8c b2 4b ff 87 38 25 c7 88 b4
       -3.0747177e-08 -1.630516e-08 6.484854e-05 -2.547687e-07

tabnet.initial_splitter.shared.shared_layers.1.weight f4 [96, 48]
000000 d9 c8 72 3e a0 bc cc bc 5d 73 b7 bc e6 61 f6 bc
       0.2370943 -0.024992287 -0.022393877 -0.030075978
000010 09 b8 cd bd 6b 45 2a bc 7d 34 4e 3c a0 27 03 3d
       -0.100448675 -0.010392527 0.012585756 0.03202021
000020 50 99 05 3d f9 bd 32 bd f8 0c dd 3c bd 5c 39 3d
       0.032616913 -0.043638203 0.026983723 0.045254458
000030 e9 8e 88 bd 27 44 af b8 45 07 82 bc 78 75 6d 3c
       -0.06667883 -8.3573446e-05 -0.015872607 0.014493339
000040 b5 87 00 3d 56 2c 5f bc 4d 39 47 3d 41 e9 31 bc
       0.03137942 -0.01362141 0.04863863 -0.010858835
000050 d9 8c f0 3b 36 ea 5b bd f9 1d 92 bc 24 6b 0a bd
       0.007341009 -0.053690158 -0.017836558 -0.033793584
000060 b8 99 c0 b9 90 0c 02 b8 b8 66 ae b8 b2 25 94 b7
       -0.00036735623 -3.1006115e-05 -8.3160994e-05 -1.7660528e-05
000070 e6 f4 f4 39 f6 8d 6a b8 9b 3b 72 37 f9 b0 73 b9
       0.0004672177 -5.592216e-05 1.4438202e-05 -0.00023240213
000080 48 7c 98 b8 85 c7 b9 39 bc 24 12 b8 ed ed 1e 38
       -7.271074e-05 0.00035434603 -3.4843324e-05 3.789172e-05
000090 55 f6 09 b8 18 3e 71 36 f9 23 b2 b9 93 0d 8a 3a
       -3.289276e-05 3.5947942e-06 -0.00033977607 0.001053261
0000a0 75 a2 b2 38 41 37 5a 36 f1 0d b9 39 93 8d 78 38
       8.5179614e-05 3.2516693e-06 0.00035296337 5.925966e-05
0000b0 6c 49 29 39 e0 ed 50 37 5e fd 73 39 e5 e2 64 b8
       0.00016144448 1.2453151e-05 0.00023268673 -5.4570748e-05
0000c0 9b db 30 bd af 54 ce 3e e4 19 af 3b f0 70 af bc
       -0.043178182 0.40298983 0.0053436626 -0.021416157
0000d0 ee 37 11 3d c2 2d ab bc 61 6e 9b 3c 7f f5 27 bd
       0.03545373 -0.020895842 0.018973531 -0.041005608
0000e0 a9 61 ca bc f5 84 1d bc f5 42 44 bc fb 6a 7b bc
       -0.024704771 -0.009614219 -0.011978854 -0.01534533
0000f0 c5 88 8d 3c 51 6a 9e 39 fd 2b f6 3b 4c d8 a6 bd
       0.01727713 0.0003021532 0.007512568 -0.08146724
000100 4b 11 3e 3d d4 8c 26 3c be 18 d6 bc da 00 4f bd
       0.04640321 0.010165412 -0.026134845 -0.05053792
000110 71 71 d3 bc 22 99 ce 3b 4c bd b1 ba 4c bd 8a 3c
       -0.025810929 0.006304876 -0.0013560443 0.016935967
000120 30 8f a0 bd 65 a6 af bb 20 cc b1 3c 3a 28 90 bd
       -0.07839811 -0.005360412 0.02170378 -0.070389226
000130 c6 db 9a bd 65 9b 68 bc 0c 1a 5b bc 90 e9 a8 bd
       -0.0756145 -0.014197205 -0.013372909 -0.082476735
000140 36 27 1f 3c cf cb 59 3c 0a fa 9d 3d e0 1b c6 bc
       0.009713938 0.013293221 0.07713707 -0.024183214
000150 24 0f 0a bc ec 50 f0 bc bb a7 fd bc b3 af 84 be
       -0.008426461 -0.029335462 -0.03096377 -0.25915298
000160 43 c2 ed 39 41 10 1f 3c b0 b7 2b 3d 51 84 20 bd
       0.000453489 0.009708465 0.041923225 -0.039188687
000170 94 81 40 3b 66 56 40 bc af 7d 29 3d ee 07 a5 bb
       0.002937411 -0.011739349 0.041379627 -0.0050363457
000180 bd 59 d8 bc a4 8c d6 39 4b 08 ab 3c 7a 76 80 3d
       -0.026409978 0.00040922046 0.020877978 0.062725976
000190 86 a6 4d bd d7 d4 ee bc 4d 1e b1 bc 93 19 2a 3c
       -0.050207637 -0.029154224 -0.021620894 0.010382074
0001a0 25 06 94 3b 43 da 21 3c ea df b6 3b c3 e2 14 bd
       0.004517334 0.009878698 0.005580892 -0.03634907
0001b0 db 14 67 3b d8 92 97 38 4a b1 5d 3c 6d 8c 1a bc
       0.0035260234 7.227593e-05 0.013531039 -0.009432894
0001c0 a6 02 08 3d a1 c1 f7 3a 5f da 26 bd 3e 71 f0 bc
       0.03320565 0.001890231 -0.0407356 -0.029350873
0001d0 9e 8c 15 bd 44 bc 92 3c 79 d8 59 3b f9 0d 47 3d
       -0.036511056 0.017912038 0.00332406 0.04859731
0001e0 eb 19 79 37 31 70 fb 36 55 9d 81 b6 dc dc a1 b6
       1.4847591e-05 7.4934437e-06 -3.8628154e-06 -4.8238853e-06
0001f0 49 22 2a b9 2c 32 3b b8 a9 ed 43 37 a3 f0 47 38
       -0.00016225236 -4.4631e-05 1.167824e-05 4.7669408e-05
000200 7a 15 ba b8 4b e2 83 b9 85 da 0c b7 5d 6a c1 37
       -8.8731715e-05 -0.00025154868 -8.395528e-06 2.3056922e-05
000210 7d 0c 85 37 7c db 8a 39 ae 77 3f 39 46 36 87 b9
       1.586065e-05 0.0002648494 0.00018259764 -0.00025789643
000220 41 a1 be b6 80 9c 74 38 2c ac 07 3a 7e 3d 23 39
       -5.6812137e-06 5.8319885e-05 0.0005175497 0.00015567799
000230 3a 3a 8f 38 58 20 56 b7 1d 5d ac 37 91 8b 0a 38
       6.829617e-05 -1.2762925e-05 2.0547357e-05 3.3031745e-05
000240 55 be e9 bb 34 61 97 3c a5 6e 76 3c 45 56 8c 3e
       -0.007133285 0.018478967 0.015041028 0.27409568
000250 b4 f8 3c bc e5 5c d6 bc 22 84 f0 3b 5d b7 8a bd
       -0.011533905 -0.026167342 0.00733997 -0.06773255
000260 c2 5b 0c bb 35 9f ec bc e0 fa 51 bd 52 c0 50 3c
       -0.0021416997 -0.02888451 -0.051264644 0.012741165
000270 cb f2 91 3c 99 aa d9 b8 15 f2 f8 bc 02 69 b3 3b
       0.017815968 -0.000103791426 -0.030388871 0.0054751644
000280 ee f2 0b bb 4a 27 58 bd c4 9b f0 bc 68 11 1d bc
       -0.0021354514 -0.052771844 -0.02937115 -0.0095866695
000290 ee 6f c9 3c 86 9f 4f bd 04 51 e1 bb 65 6a 11 3c
       0.024589505 -0.050689243 -0.006876113 0.008875464
0002a0 4d bc 69 39 a3 f8 e8 38 c9 bc 85 b8 41 ce 71 38
       0.00022290759 0.00011108934 -6.377098e-05 5.7650966e-05
0002b0 71 90 00 ba 86 6d c3 b9 be 00 d9 37 7c a9 bb b8
       -0.0004904336 -0.000372749 2.5868761e-05 -8.948424e-05
0002c0 84 2e 0a 38 b5 57 94 b9 45 9a 14 b9 8c 17 22 b7
       3.2945085e-05 -0.00028294107 -0.0001417185 -9.661435e-06
0002d0 50 51 2b b7 24 72 2a ba c3 4e 0e ba 1d b9 0d ba
       -1.0211326e-05 -0.00065019936 -0.00054286065 -0.0005406307
0002e0 34 fe d0 b7 21 86 5e 39 ea 69 08 3a 2a 02 cf b8
       -2.4913905e-05 0.00021221537 0.00052037707 -9.870932e-05
0002f0 d1 ff 6c b9 10 87 a6 b6 d2 42 dc 38 42 6a f9 37
       -0.00022602013 -4.962909e-06 0.00010502864 2.9732593e-05
000300 5d 81 36 bd 7d 6e 02 3c 9c c4 2c bc df e4 79 bd
       -0.044556964 0.007960913 -0.010544922 -0.061009284
000310 52 aa be 3e b6 39 1e bd 22 b9 d0 3c 2c 4e 56 bd
       0.3723932 -0.038629256 0.025478903 -0.052320644
000320 99 c9 a8 bc 1f 9d f9 bc cc ba 79 bd 61 ed fb ba
       -0.020603942 -0.030470429 -0.06096916 -0.0019220525
000330 31 8f 9d bb 66 3a 14 b9 a7 a2 42 bd bf 85 ea bc
       -0.0048083295 -0.00014136135 -0.0475184 -0.028628228
000340 9f 53 28 3b eb dd a8 3b 17 26 cb 3c c8 31 e8 ba
       0.0025684608 0.005153408 0.024798436 -0.0017715031
000350 2a e9 86 bd 12 15 22 bd d6 04 56 bb 9f f1 9d bc
       -0.06587441 -0.039570875 -0.003265669 -0.019280253
000360 3d c2 95 38 e3 ba b2 37 e5 d3 06 b9 4c e1 df 37
       7.141053e-05 2.130628e-05 -0.00012858173 2.6688584e-05
000370 8e 3f 6c b8 51 ab e5 38 e6 c6 3a b8 a6 cf 86 39
       -5.6325975e-05 0.00010951481 -4.4531094e-05 0.00025713182
000380 1a 52 b9 39 28 d7 84 38 38 29 d0 38 e8 35 ed b7
       0.0003534712 6.3343265e-05 9.9258905e-05 -2.8277704e-05
000390 17 8d 1d b8 91 08 13 bb 5d ec ef b9 b8 3d c6 39
       -3.7563117e-05 -0.0022435526 -0.00045761737 0.00037811487
0003a0 79 cf 24 b9 1b ed 68 ba ef ec 66 ba e5 dc bc b6
       -0.00015717548 -0.0008885429 -0.00088091096 -5.628552e-06
0003b0 48 82 08 ba 73 25 ae b8 27 9b 99 b9 86 6f 34 38
       -0.00052074017 -8.303942e-05 -0.00029298032 4.301921e-05
0003c0 72 d1 43 3c 8b 5e 14 bd 73 23 0a 3c 58 d2 02 3d
       0.011951791 -0.036222976 0.008431303 0.03193888
0003d0 f4 b9 9e bb 4a cf af 3e c6 fd 45 bd 0e d0 96 bd
       -0.0048439447 0.34337837 -0.04833772 -0.07363902
0003e0 55 82 76 bd 65 f5 20 bb c4 94 9b 3c 4a 45 65 bd
       -0.060182888 -0.002456033 0.018991835 -0.055974282
0003f0 d8 cc af 3b 0c 2c 8a b7 b0 d3 f9 bc a8 64 9b bc
       0.0053649954 -1.6471393e-05 -0.030496448 -0.018968895
