cv_steps/tabnet_raw_step1_fold4_6/network.pt (torch, 682379 bytes, 56 tensors)

embedder.embeddings.0.weight f4 [3, 1]
0.018409764 0.1043168 -0.12608929
00000000: 13d0 963c 0ca4 d53d 8d1d 01be

embedder.embeddings.1.weight f4 [2, 1]
-0.048882518 0.04876655
00000000: 0939 48bd 6fbf 473d

tabnet.initial_bn.weight f4 [1038]
-0.04731274 0.2247091 0.070705436 -0.01667465 0.08496897 0.15911011 0.11221947 0.07071906
0.13584812 0.09988672 0.24528001 0.006060104 -0.0011343526 0.1674466 0.09763428 0.16734353
0.14843124 0.12677747 0.05415566 0.15254226 0.053460635 0.15308322 0.21115714 0.1737708
0.19269973 0.17389752 0.13444942 0.08170499 0.082160264 0.12007721 0.11389033 0.2411537
0.23117074 0.0027512438 0.07778967 0.21122132 0.20058674 0.17978595 0.21853659 0.12142253
0.1789514 0.211908 0.11307763 0.07115407 0.011946644 0.013165529 0.09461956 0.07594246
0.072843336 0.21380924 0.24273534 0.05488336 0.10947003 0.2263556 0.032560397 0.15663454
0.15451787 0.09330902 0.09650178 0.15110211 0.093948 1.2352474e-06 0.22547883 0.0043458943
0.28004593 0.14121406 0.12352984 0.2167916 0.10430348 0.0024714093 0.20842037 0.124210835
0.17661655 0.078976095 0.06332338 0.08162047 0.08131987 0.35307106 0.0007137136 0.13623665
0.0808224 0.0002192495 -0.00015825972 -0.00090321805 -0.0039908364 0.10956075 0.17433538 0.1273289
0.15404323 0.14347795 0.17362955 0.08479011 0.13201125 0.13997743 0.18722628 0.15997048
0.09469121 0.07570109 0.20325251 -0.002836 0.11460659 0.13598579 0.27129856 -0.000120583885
0.16297202 0.16136481 0.021985358 0.13866624 0.004503515 0.10115782 0.058196694 0.07802681
0.07169291 0.015470207 0.0781598 0.112916 0.15346505 0.0067753876 0.11135949 0.26475868
0.1491948 0.09503922 0.11487679 1.39321055e-05 0.12957385 0.14002918 0.13250034 0.12115763
-0.0055792886 0.12316662 0.17344294 0.031748258 0.24973328 0.17077766 0.099985264 0.14215268
0.109735996 0.08506661 0.1886871 0.1767753 0.14730664 0.13928144 0.00042127346 0.0006292093
-0.045736924 0.13680837 0.110446885 0.07518917 0.24470031 0.14562252 0.20159873 0.25946012
0.11982142 0.003824224 0.13517675 0.081325084 0.08687733 0.14089628 0.20639375 0.40748698
0.31298348 0.10144833 0.13144162 0.061987568 0.05092421 -0.0002542835 0.19765818 0.06467091
0.15284501 0.19585477 0.034131315 0.14905383 0.0897355 0.09439368 0.08061553 0.16344991
0.13650474 0.34898272 0.18537264 0.088294536 0.29628715 0.12277652 0.03580379 0.20104948
0.12709972 0.15499595 0.004647673 -0.012197173 0.13983451 0.019633284 0.1325134 0.18879694
0.19726005 0.0802469 0.16507196 0.072716475 0.070210055 0.089059375 0.0001699088 0.17563383
0.101751305 0.07747961 0.09545229 0.15897334 0.28633448 0.3189405 0.1014416 0.10195622
0.062944494 0.2914248 0.1609672 0.19229373 0.1891655 0.07292986 0.05959588 0.054128308
0.07613396 0.17225024 0.18733792 0.15831648 0.13456228 0.07554718 0.05665394 0.15787967
0.08867027 0.13586572 0.1825856 0.15567748 0.13468863 0.0033864877 0.04597888 0.11803355
0.066449955 0.096848205 0.11278155 0.16155298 0.1886836 0.12416412 0.000114403585 0.2222285
0.11686423 0.19130594 0.109605595 0.18459411 0.13471149 -5.9863854e-05 0.08768136 0.117325604
0.09139876 -0.04091866 0.16594994 0.13510567 0.1035069 0.031099087 0.111044355 0.007034939
00000000: 01cb 41bd 241a 663e 03ce 903d 4799 88bc
00000010: 3604 ae3d c3ed 223e 52d3 e53d 28d5 903d
00000020: c51b 0b3e 6991 cc3d af2a 7b3e d693 c63b
00000030: 8fae 94ba 1f77 2b3e 7bf4 c73d 1a5c 2b3e
00000040: 5cfe 173e f4d1 013e 53d2 5d3d 0a34 1c3e
00000050: 8af9 5a3d d9c1 1c3e 9439 583e f9f0 313e
00000060: 1453 453e 3112 323e 1cad 093e f254 a73d
00000070: a443 a83d 0aeb f53d 553f e93d fff0 763e
00000080: 06b8 6c3e 364e 343b 3150 9f3d 674a 583e
00000090: 9c66 4d3e cf19 383e 0ec8 5f3e 60ac f83d
000000a0: 093f 373e 69fe 583e 3f95 e73d 3ab9 913d
000000b0: dbbb 433c 3bb4 573c e6c7 c13d b887 9b3d
000000c0: e32e 953d cff0 5a3e 9d8f 783e 60cd 603d
000000d0: d331 e03d c3c9 673e 0d5e 053d ce64 203e
000000e0: ef39 1e3e cd18 bf3d baa2 c53d 83ba 1a3e
000000f0: cf67 c03d c7ca a535 ece3 663e 0168 8e3b
00000100: 2e62 8f3e 6b9a 103e 36fd fc3d 9efe 5d3e
00000110: 109d d53d 5ef7 213b 266c 553e 4062 fe3d
00000120: f8da 343e 38be a13d b0af 813d a228 a73d
00000130: 088b a63d bbc5 b43e 8218 3b3a 9f81 0b3e
00000140: 3786 a53d 57e6 6539 85f2 25b9 f0c5 6cba
00000150: 90c5 82bb 6361 e03d f984 323e 8262 023e
00000160: 82bd 1d3e e2eb 123e f2cb 313e 70a6 ad3d
00000170: f52d 073e 3e56 0f3e 3fb8 3f3e 4dcf 233e
00000180: 77ed c13d 2c09 9b3d 6d21 503e 2fdc 39bb
00000190: dcb6 ea3d dc3f 0b3e a5e7 8a3e fbe1 fcb8
000001a0: 23e2 263e d13c 253e a31a b43c 86fe 0d3e
000001b0: 3992 933b d52b cf3d a85f 6e3d 85cc 9f3d
000001c0: bbd3 923d c076 7d3c 3f12 a03d 8140 e73d
000001d0: f125 1d3e 1204 de3b 7210 e43d 738e 873e
000001e0: 86c6 183e eca3 c23d 8644 eb3d f0bd 6937
000001f0: 02af 043e cf63 0f3e 2bae 073e 7e21 f83d
00000200: 77d2 b6bb c83e fc3d 079b 313e 760a 023d
00000210: 15ba 7f3e 57e0 2e3e 13c5 cc3d 7990 113e
00000220: 44bd e03d 6737 ae3d 3137 413e 9604 353e
00000230: 8dd7 163e cb9f 0e3e 5ede dc39 85f1 243a
00000240: a456 3bbd 7e17 0c3e fa31 e23d c8fc 993d
00000250: b892 7a3e 121e 153e e66f 4e3e f5d7 843e
00000260: ef64 f53d d59f 7a3b c66b 0a3e c48d a63d
00000270: beec b13d 1d47 103e e258 533e 22a2 d03e
00000280: 5f3f a03e 24c4 cf3d a298 063e ade6 7d3d
00000290: e895 503d 5b51 85b9 e866 4a3e 2f72 843d
000002a0: 6783 1c3e 278e 483e 47cd 0b3d 91a1 183e
000002b0: 3fc7 b73d 7951 c13d c119 a53d 6a5f 273e
000002c0: e6c7 0b3e ddad b23e 53d2 3d3e c4d3 b43d
000002d0: f3b2 973e 4272 fb3d ffa6 123d eadf 4d3e
000002e0: 6e26 023e 42b7 1e3e 824b 983b a7d6 47bc
000002f0: c730 0f3e fbd5 a03c 98b1 073e fc53 413e
00000300: 8afe 493e 7d58 a43d a008 293e 60ec 943d
00000310: 4aca 8f3d c364 b63d 8c29 3239 5bd9 333e
00000320: fd62 d03d a1ad 9e3d 7d7c c33d e8c9 223e
00000330: 6f9a 923e 2b4c a33e 9dc0 cf3d 6cce d03d
00000340: 0be9 803d a235 953e 96d4 243e a6e8 443e
00000350: 9ab4 413e 405c 953d cf1a 743d a5b5 5d3d
00000360: 1fec 9b3d 5e62 303e 83d5 3f3e b71d 223e
00000370: b2ca 093e 7bb8 9a3d f60d 683d 35ab 213e
00000380: c298 b53d 6220 0b3e b8f7 3a3e eb69 1f3e
00000390: d1eb 093e d6ef 5d3b 5a54 3c3d 93bb f13d
000003a0: ea16 883d 5a58 c63d 03fa e63d 256e 253e
000003b0: 4636 413e c249 fe3d f5eb ef38 de8f 633e
000003c0: 8356 ef3d b4e5 433e e678 e03d 3d06 3d3e
000003d0: cff1 093e 5316 7bb8 4992 b33d 6848 f03d
000003e0: 462f bb3d 539a 27bd c8ee 293e 2459 0a3e
000003f0: 6dfb d33d 83c3 fe3c 396b e33d 5885 e63b

tabnet.initial_bn.bias f4 [1038]
0.00018704952 -0.023764443 -7.2036004e-05 1.2642187e-07 -0.00017193829 0.00019173103 1.3794141e-05 -0.0010120783
7.157647e-05 -0.000112915724 -0.19375132 9.329474e-06 2.040195e-06 -8.911827e-05 -5.5821976e-05 -0.31612778
-0.007151738 0.0011308929 -0.000184115 -0.009391578 -0.0001317647 -5.8963727e-05 0.00071796885 -0.00011659045
4.7609366e-05 0.00019120552 -0.00015962549 0.5584865 -0.00042758585 0.00016284162 -9.7640805e-05 -0.00048313822
-3.8051265e-05 -1.0863542e-05 -5.294834e-05 -0.0035592846 0.00073159824 0.0067823785 -0.00029089043 0.00025548507
0.00028937228 0.0007041103 0.00022092651 -0.0002063621 2.2954634e-06 3.3803488e-05 0.00018772543 1.9290119e-05
0.00019857254 -0.00010736963 -0.00034366158 7.177333e-05 -1.8926379e-06 0.04684575 0.00022352017 -0.21142578
-0.0003262701 0.00013022288 0.00051558064 -0.22914371 0.0002772853 1.1785595e-09 -0.000188086 -2.8183691e-05
0.09995347 0.000103315135 -0.00015796989 0.00023093933 4.1354946e-05 1.6291146e-06 -0.000690474 -0.0022302724
-0.0002596276 7.703526e-05 0.00021883596 -0.008849588 -0.00020258132 0.00031048458 1.01906274e-07 0.00032963813
6.9041685e-05 -5.3048257e-07 2.4169168e-07 1.8871752e-06 -0.0006333553 0.0013402634 0.00019592984 -2.249818e-05
-0.00020447925 -0.00024720325 0.001079478 -0.10070276 -0.014374089 0.30457893 0.00035678397 -0.0059117177
2.05454e-05 1.29995515e-05 -0.00046868616 4.8304732e-06 0.001986393 0.0001354261 -0.00019169431 3.6331525e-07
-2.8880946e-05 8.2804916e-05 0.00010470731 7.8034886e-05 -0.4307616 5.2796047e-05 6.560581e-05 0.00014036935
-4.498164e-05 0.28765106 -8.991464e-05 -4.3576987e-05 0.0001618124 1.9046687e-06 -0.0010761133 0.14235312
-0.00029212848 0.00011648765 0.00011541362 2.507226e-08 0.0003113722 -0.0003647499 -0.00012757369 0.0001411173
6.660634e-06 -0.00023921453 0.026801158 -1.0490537e-06 -3.3942608e-05 -3.5828096e-05 -0.00023066722 9.3192284e-05
-0.10660801 0.00022061901 0.005499123 0.05908925 -0.00027143946 7.363592e-05 -6.436119e-08 6.190241e-07
0.4172976 0.00014372867 -1.2924447e-05 -9.469666e-05 0.00013875896 2.7717588e-05 0.00023992205 -0.000937875
0.0002649375 4.372858e-06 -4.195015e-05 0.000444926 -0.00017710573 -7.5241846e-06 -0.0002778874 0.0103723835
-0.0031194568 3.157704e-05 -0.00010418572 2.3103097e-05 -0.0001172425 -6.192385e-08 -0.00086106244 5.9636208e-05
-0.0001610573 0.00039149317 -0.00011079739 0.00032489383 -0.00022869783 -4.7821577e-05 0.40061682 -9.749085e-05
-0.00018375693 -0.00020295913 1.6377428e-05 0.0002670553 -0.6670878 -0.00038273475 0.2792808 -0.00033135538
-0.0004253188 -0.000106243635 -3.1748223e-07 1.1126785e-05 -0.00022977284 6.1088365e-05 0.0005507234 -0.00012119424
-0.00015566294 -2.3856437e-05 -0.00016511172 -0.0044089165 -0.4469928 -0.000558295 3.6582233e-07 0.00023074626
0.000107015214 -8.736162e-06 0.0001819375 -1.780582e-05 -0.0023360425 -0.00028600232 -0.012241148 3.3270047e-05
-0.00015882519 -6.918382e-05 -0.00025042155 -0.0002078656 0.0062792404 -3.9738985e-05 -8.740448e-05 -4.3941865e-05
-1.857694e-05 2.6925565e-05 -0.0007475286 0.00060461805 0.0006411133 -0.00030126236 -0.0005037882 -0.0010893112
2.4928047e-05 6.641107e-05 -0.031297877 -0.00048821687 4.3175474e-05 3.182551e-06 -4.9089496e-05 -0.00016708385
-4.2039475e-05 -0.4217707 0.00010112918 -0.00046178253 0.0004267451 8.884888e-05 8.450572e-08 0.00989021
0.00018278457 -0.00024675071 6.635551e-05 -0.00013272205 0.0002796755 6.9074317e-06 0.00016431611 -0.00025980646
0.00017886484 0.00054252 0.0002064067 -0.0011618579 -3.905926e-05 4.8231494e-05 -0.00014800494 -8.96121e-05
00000000: b922 4439 a6ad c2bc 0912 97b8 94be 0734
00000010: 554a 34b9 680b 4939 626d 6737 b6a7 84ba
00000020: 531b 9638 2bcd ecb8 bf66 46be c985 1c37
00000030: 49ea 0836 02e5 bab8 6422 6ab8 80db a1be
00000040: 2059 eabb 783a 943a fe0e 41b9 22df 19bc
00000050: 512a 0ab9 d24f 77b8 1336 3c3a 0582 f4b8
00000060: 2bb0 4738 577e 4839 2461 27b9 f9f8 0e3f
00000070: 9a2d e0b9 77c0 2a39 82c4 ccb8 b74d fdb9
00000080: 3c99 1fb8 8f42 36b7 d914 5eb8 e342 69bb
00000090: bac8 3f3a b73e de3b a782 98b9 a0f2 8539
000000a0: e4b6 9739 0b94 383a 82a8 6739 e862 58b9
000000b0: c30b 1a36 38c8 0d38 29d8 4439 37d1 a137
000000c0: e937 5039 a22b e1b8 7a2d b4b9 0385 9638
000000d0: 8b06 feb5 54e1 3f3d bd60 6a39 0080 58be
000000e0: 3b0f abb9 708c 0839 0828 073a a6a4 6abe
000000f0: 9a60 9139 e0fa a130 f438 45b9 046c ecb7
00000100: 68b4 cc3d e4aa d838 b8a4 25b9 4e28 7239
00000110: 8974 2d38 f4a7 da35 ed00 35ba c329 12bb
00000120: a01e 88b9 fe8d a138 5577 6539 ddfd 10bc
00000130: 026c 54b9 89c8 a239 91d7 da33 48d3 ac39
00000140: 79ca 9038 7c66 0eb5 dac1 8134 d94a fd35
00000150: c107 26ba c7ab af3a 8472 4d39 79ba bcb7
00000160: 7b69 56b9 0f9b 81b9 457d 8d3a 403d cebd
00000170: 4d81 6bbc c5f1 9b3e bc0e bb39 15b7 c1bb
00000180: e958 ac37 a618 5a37 feb9 f5b9 7315 a236
00000190: 252e 023b 2b01 0e39 8d01 49b9 ab0d c334
000001a0: 5c45 f2b7 8da7 ad38 4f96 db38 a9a6 a338
000001b0: c98c dcbe 5371 5d38 da95 8938 1c30 1339
000001c0: abaa 3cb8 0047 933e 8e90 bcb8 6fc6 36b8
000001d0: 2fac 2939 eba3 ff35 5f0c 8dba 04c5 113e
000001e0: d228 99b9 d54a f438 370a f238 7c5e d732
000001f0: ab3f a339 e73b bfb9 4dc5 05b9 e3f8 1339
00000200: 697e df36 a9d5 7ab9 1a8e db3c 36cd 8cb5
00000210: 995d 0eb8 2046 16b8 43df 71b9 3a70 c338
00000220: 4d55 dabd f755 6739 fd31 b43b 9207 723d
00000230: fd4f 8eb9 fc6c 9a38 f036 8ab3 032b 2635
00000240: 08a8 d53e dfb5 1639 14d6 58b7 e297 c6b8
00000250: d37f 1139 1183 e837 9693 7b39 badb 75ba
00000260: 4fe7 8a39 90ba 9236 a1f3 2fb8 f544 e939
00000270: 75b5 39b9 4178 fcb6 6ab1 91b9 eef0 293c
00000280: cd6f 4cbb 9771 0438 487e dab8 86cd c137
00000290: 17e0 f5b8 fffa 84b3 ecb8 61ba e421 7a38
000002a0: 7de1 28b9 5341 cd39 e55b e8b8 8356 aa39
000002b0: 9bce 6fb9 0794 48b8 a61d cd3e 0074 ccb8
000002c0: e0ae 40b9 6dd1 54b9 4262 8937 8e03 8c39
000002d0: 44c6 2abf caa9 c8b9 e5fd 8e3e c4b9 adb9
000002e0: 53fd deb9 1ecf deb8 6d72 aab4 2dad 3a37
000002f0: 2def 70b9 911c 8038 6c5e 103a aa29 feb8
00000300: 7439 23b9 4f1f c8b7 d721 2db9 ac78 90bb
00000310: 3edc e4be 8b5a 12ba 3d66 c434 7af4 7139
00000320: 5b6d e038 8891 12b7 7ac6 3e39 b55d 95b7
00000330: 4a18 19bb 95f2 95b9 198f 48bc 718b 0b38
00000340: 508a 26b9 c816 91b8 034b 83b9 7ff6 59b9
00000350: 16c2 cd3b 69ad 26b8 ec4c b7b8 384e 38b8
00000360: add5 9bb7 36de e137 ccf5 43ba 3b7f 1e3a
00000370: 6310 283a c0f2 9db9 a710 04ba 38c7 8eba
00000380: 931c d137 2c46 8b38 3432 00bd 5cf7 ffb9
00000390: 5017 3538 cf93 5536 72e5 4db8 3b33 2fb9
000003a0: 8b53 30b8 54f2 d7be 5115 d438 671b f2b9
000003b0: c2bc df39 6154 ba38 8379 b533 8c0a 223c
000003c0: dca9 3f39 525e 81b9 5828 8b38 4e2b 0bb9
000003d0: 69a1 9239 63c6 e736 454c 2c39 a236 88b9
000003e0: aa8d 3b39 e737 0e3a e06e 5839 7b49 98ba
000003f0: 90d3 23b8 2c4c 4a38 c631 1bb9 21ee bbb8

tabnet.initial_bn.running_mean f4 [1038]
-0.00079745246 -0.00091807486 0.0067270226 -0.00071179366 -0.00051272183 -0.0019036779 0.001601353 -0.003726597
-0.0017628502 0.0033119738 -0.017281823 -0.0018337782 -0.0025424468 0.0020444833 -0.0025890982 0.00076838705
-0.001644961 0.0013346464 -0.0020402984 -0.0033062268 -0.0032562767 -0.002668813 0.00049255264 0.00273985
0.002376223 0.0005815315 0.004175782 -0.003050006 -0.0042391 -0.0011645571 -0.0024141183 0.00096443295
-0.002315602 0.009468797 0.0006379999 0.00095651846 0.00056696654 0.0061054933 -0.005680195 -0.04194375
0.033343256 -0.00067429437 -0.009618725 -0.004689087 -0.0009808302 0.0055531957 0.0019017833 0.00047016784
0.0071964706 -0.004730134 0.0006029175 -0.0023190514 -0.045835573 0.0011317886 0.0004709604 0.0055189566
-0.0011764754 -0.0019338737 0.0026162667 -0.0011115161 -0.020741768 0.002139116 0.0034370178 0.00084955804
-0.010676862 -0.0044697914 0.0027490098 0.00026073586 2.9592613e-05 -0.057888888 0.0057572913 -0.005421623
0.002994423 -0.0018204969 -0.014633187 -0.0004912601 0.0062051024 -0.047283523 -0.0055859922 0.0031979266
-0.0030093298 -0.0041612084 0.0012277527 -0.0046580546 0.00016188406 0.00031814617 -0.0026640808 0.0024851663
0.0097512705 -0.00024583403 0.0029574942 0.0036266458 0.006963037 0.0036041972 0.0045436146 -0.0029625492
-0.0016612046 0.0020917703 -0.0031145043 0.008344599 -0.003722616 -0.0031958534 0.023984246 0.0052799205
0.00378634 0.0017442656 0.0011104457 0.010027063 0.0039900993 -0.0020900096 -0.0037296358 0.0012003132
-0.0013072762 -0.0015309167 0.0025889566 -0.02089921 0.0019697687 -0.0021523563 0.0039810697 -0.00012210476
-0.001189687 0.0008687224 0.00077685865 -0.005862413 -0.0029427973 0.02757931 -0.003419028 -0.006417809
0.0021347755 -0.0040031094 -0.014576407 0.0016062802 0.0061447727 0.03374412 0.0051752115 -0.0063943295
0.001119884 -0.0003734399 -0.0032844762 0.0027105818 -0.004989553 0.0017549704 0.0044448506 -0.00078993005
-0.00037974375 -0.006647634 0.0040779677 0.00026689906 -3.942078e-05 0.007907392 0.0013649848 -0.002756324
-0.0053690197 -0.0036465141 -0.003658455 -9.310959e-05 -0.006125548 0.0029130816 -0.005372377 0.0016014745
0.022223711 0.0044165584 -0.00690977 -0.0010553052 0.001989228 0.0036533354 0.0076074307 -0.0015785058
-0.0061478317 -0.0024694758 0.0011340074 0.003298156 0.010056704 0.0076932386 0.0021485395 -0.0025745027
0.0050960807 -0.0015781411 0.00024609503 0.0042285873 -0.015385751 0.0026379465 0.0035211414 0.0040752036
0.0020242927 -0.0030393966 -0.0012623647 -0.023019472 -0.01213904 -0.0022240942 -0.0042892457 -0.00055523514
-0.0033727693 0.000880198 0.0014773532 0.0020935042 -0.004644862 -0.01076792 0.00069511787 0.008556198
0.004141174 -0.002354261 0.004486499 0.011585757 -0.020392785 -0.004609971 -0.0068787336 0.0037868586
-0.00041491826 0.0017412103 0.012456227 0.004059584 -0.00074694696 0.0021682375 0.005351602 0.002952362
-0.0011556727 0.007182075 0.0012972804 -0.000317891 0.0016917352 -0.0014133378 0.0018787928 0.0014432679
0.004594349 -0.005878032 0.0026488258 -0.0006966912 0.012798999 0.005016466 -0.062529005 0.00679634
0.0025457835 -0.004187885 0.006945172 0.0042949854 0.0008307372 4.1657884e-05 -0.00030369897 -0.0024447837
-0.002736015 -0.00074164063 -0.0033276496 0.0019597486 0.0021119488 0.005019205 0.0024708502 0.0038239437
-0.0025532595 -0.0029538574 0.021889983 0.0037799862 -0.015484009 0.012031107 0.0013960147 -0.0016477245
00000000: 210c 51ba f6aa 70ba 5b6e dc3b aa97 3aba
00000010: 2e68 06ba d584 f9ba 7ee4 d13a ec39 74bb
00000020: 700f e7ba b30d 593b 9c92 8dbc 635b f0ba
00000030: 2e9f 26bb bdfc 053b dcad 29bb 956d 493a
00000040: bb9b d7ba 4def ae3a 87b6 05bb 48ad 58bb
00000050: 4267 55bb 41e7 2ebb a61e 013a 0e8f 333b
00000060: 68ba 1b3b eb71 183a 00d5 883b 9ce2 47bb
00000070: 26e8 8abb 0da4 98ba 2f36 1ebb 00d2 7c3a
00000080: 5bc1 17bb 0323 1b3c 733f 273a debe 7a3a
00000090: 7ba0 143a 9710 c83b ee20 babb 36cd 2bbd
000000a0: f092 083d 21c3 30ba db97 1dbc eaa6 99bb
000000b0: 338f 80ba 95f7 b53b 4245 f93a dc80 f639
000000c0: 5fd0 eb3b 3dff 9abb 1c0d 1e3a 3afb 17bb
000000d0: 15be 3bbd 8658 943a 3ceb f639 5dd8 b43b
000000e0: f733 9aba 097a fdba ac75 2b3b 4bb0 91ba
000000f0: a4ea a9bc 6930 0c3b 973f 613b e0b4 5e3a
00000100: 01ee 2ebc 5477 92bb bb28 343b 60b3 8839
00000110: a73d f837 e61c 6dbd a9a7 bc3b dfa7 b1bb
00000120: 153e 443b bd9d eeba 09c0 6fbc e8c7 00ba
00000130: 2c54 cb3b 5eac 41bd b30a b7bb 4e94 513b
00000140: 2d38 45bb bf5a 88bb 8bec a03a 98a2 98bb
00000150: 6cbf 2939 dbcc a639 dc97 2ebb 2cde 223b
00000160: cbc3 1f3c 49e3 80b9 85d2 413b 05ad 6d3b
00000170: 302a e43b 6534 6c3b 9ae2 943b 5427 42bb
00000180: c7bc d9ba 1516 093b b61c 4cbb c9b7 083c
00000190: 22f7 73bb 8671 51bb 9c7a c43c 2f03 ad3b
000001a0: 3e24 783b d79f e43a 608c 913a 8d48 243c
000001b0: 61bf 823b 8bf8 08bb e86c 74bb d453 9d3a
000001c0: e958 abba 0aa9 c8ba 7cab 293b d234 abbc
000001d0: 3c17 013b 8c0e 0dbb a273 823b 3f09 00b9
000001e0: 46ef 9bba f9ba 633a 1aa6 4b3a 7c19 c0bb
000001f0: f2db 40bb 01ee e13c c511 60bb 7c4c d2bb
00000200: 97e7 0b3b 842c 83bb e2d1 6ebc d289 d23a
00000210: 175a c93b 4637 0a3d d294 a93b 8687 d1bb
00000220: 12c9 923a 41ca c3b9 5e40 57bb 04a4 313b
00000230: 677f a3bb 0907 e63a 1ca6 913b 4f13 4fba
00000240: 5818 c7b9 65d4 d9bb 79a0 853b 96ee 8b39
00000250: bd57 25b8 028e 013c 4ae9 b23a 71a3 34bb
00000260: 9aee afbb 5bfa 6ebb b1c2 6fbb d543 c3b8
00000270: d2b8 c8bb 66e9 3e3b c40a b0bb 91e8 d13a
00000280: 800e b63c c7b8 903b 5a6b e2bb 2b52 8aba
00000290: b55d 023b cc6c 6f3b c147 f93b dee5 ceba
000002a0: c073 c9bb eed6 21bb f9a2 943a e025 583b
000002b0: e0c4 243c 9017 fc3b 83ce 0c3b fdb8 28bb
000002c0: 06fd a63b a1d9 ceba 5106 8139 f68f 8a3b
000002d0: 8414 7cbc 66e1 2c3b f3c2 663b 4989 853b
000002e0: ffa9 043b 9d30 47bb ee75 a5ba 5593 bcbc
000002f0: d3e2 46bc 1cc2 11bb cd8c 8cbb 338d 11ba
00000300: ae09 5dbb 16bd 663a bfa3 c13a 2c33 093b
00000310: ed33 98bb ee6b 30bc 9238 363a 4c2f 0c3c
00000320: afb2 873b f249 1abb 7b03 933b 30d2 3d3c
00000330: c50e a7bc 3d0f 97bb 0067 e1bb f22c 783b
00000340: 6389 d9b9 5339 e43a 3415 4c3c 4206 853b
00000350: c3ce 43ba fd18 0e3b 7e5c af3b 6a7c 413b
00000360: f179 97ba 9d57 eb3b 8209 aa3a 9caa a6b9
00000370: 37bd dd3a bf3f b9ba d341 f63a 092c bd3a
00000380: 318c 963b 829c c0bb ec97 2d3b 28a2 36ba
00000390: e5b2 513c 2b61 a43b 350f 80bd d5b3 de3b
000003a0: 29d7 263b 873a 89bb 5394 e33b f3bc 8c3b
000003b0: d4c5 593a d0b9 2e38 c939 9fb9 aa38 20bb
000003c0: b74e 33bb a96a 42ba b214 5abb 206f 003b
000003d0: 9f68 0a3b 2578 a43b fded 213b 219b 7a3b
000003e0: 9654 27bb 8195 41bb 9f52 b33c a5b9 773b
000003f0: a4b0 7dbc 1f1e 453c 7bfa b63a 76f8 d7ba

tabnet.initial_bn.running_var f4 [1038]
0.00899269 0.0017708988 0.99451286 0.97314423 0.9637683 0.9730733 0.97676873 0.9722493
0.97020656 0.97420937 1.0780443 0.9728101 0.97216374 0.9783141 0.9680281 0.9860027
0.9796372 0.9614721 0.9829755 0.9785877 0.97590595 0.9814635 0.97329694 0.9721728
0.97100043 0.9626428 0.97850996 0.9699119 0.9660117 0.9681701 0.9723429 0.9796345
0.97799313 1.0603194 0.9739619 0.975912 0.9876153 0.96971077 0.9885152 1.2737827
1.1868187 0.96931124 1.0095365 0.97356606 0.97181076 0.97459745 0.9696719 0.9715228
1.0101804 0.9769495 0.9957767 0.9747385 1.2832799 0.9757597 0.96607953 0.9853674
0.98223007 0.99284685 0.9765346 0.9851692 1.1335392 0.97816914 0.96556383 0.987819
1.0336893 1.0393842 0.97889394 0.98432463 0.969376 1.3693599 0.97225106 0.97188646
0.9715667 0.97532415 1.1143831 0.9740561 1.0528264 1.3135209 0.9743012 0.9710274
0.9750704 0.9700377 0.976841 0.97304714 0.967064 0.97076505 0.9678681 0.97167856
1.0336375 0.9720307 0.9713956 0.96997756 0.9763141 1.0159985 0.974528 0.9726265
0.96699524 0.9830694 1.0085485 1.0227277 1.010788 0.9720148 1.0751697 0.9615772
0.986562 0.97161746 0.97080094 0.9726212 1.0054412 0.97370327 0.9779067 0.97481877
0.9695985 0.98300385 0.9762871 1.1090975 0.97383744 0.98086405 0.97846663 0.97621095
0.9727006 0.969431 0.9721914 1.0068835 0.967181 1.180033 0.97459537 0.9697871
0.98855096 0.9665342 1.1098683 0.97103846 1.0189052 1.2008703 1.0022566 0.9835453
0.97217065 0.9767399 0.9695648 0.97281635 0.982454 0.9820148 0.9721937 0.971572
0.98922366 0.9674451 1.0234199 0.98253655 0.9976268 1.0316141 0.99435675 0.9699932
0.9810527 0.9689192 1.0264018 0.97192216 0.9752605 1.0162793 0.9730628 0.97321457
1.1239637 0.9670091 0.99126154 0.97401285 0.9670877 1.025414 1.0142924 0.9774426
0.97650516 0.9744919 0.9723154 0.9742658 1.0354365 0.97266465 0.97389066 0.968827
0.9662443 0.9747519 0.96722317 0.9905586 1.0845366 0.972686 0.97422194 0.9882284
0.97617686 1.013744 0.9713698 1.1238544 0.97070086 0.9682344 0.9610502 1.0092852
0.97434294 0.96716577 0.97105026 0.9685881 0.9766935 1.0903581 0.98219955 1.0113404
0.9828211 0.9709338 0.97116613 1.0662057 1.08038 0.9725669 0.9866889 0.9645092
0.96996146 0.9638209 1.0729878 0.971938 0.98381144 0.97154063 0.9771222 0.9870254
0.9695462 1.0063573 0.9689675 0.9695567 0.97620285 0.9678147 0.98344743 0.9741877
0.96722806 0.9747756 0.9776019 0.9710617 1.0383974 0.9675597 1.4627528 0.9751429
0.97245127 1.0037287 0.9820158 0.9753047 0.97836274 0.99869394 0.975997 0.97137
0.9741895 0.9708478 0.97170264 0.9717301 0.971152 1.0042983 0.9905835 0.98179734
0.96979207 0.9693326 1.1524222 0.9833263 1.0365169 1.0073503 0.9741375 0.97310054
00000000: 1356 133c 811d e83a 6598 7e3f fb1f 793f
00000010: 85b9 763f 551b 793f 840d 7a3f 55e5 783f
00000020: 755f 783f c965 793f 5bfd 893f 150a 793f
00000030: b9df 783f cb72 7a3f b1d0 773f ac6a 7c3f
00000040: 81c9 7a3f 0923 763f 48a4 7b3f b984 7a3f
00000050: f9d4 793f 3141 7b3f fd29 793f 51e0 783f
00000060: 7c93 783f c26f 763f a17f 7a3f 254c 783f
00000070: 8b4c 773f ffd9 773f 77eb 783f 54c9 7a3f
00000080: c25d 7a3f 8cb8 873f 9155 793f 5ed5 793f
00000090: 5bd4 7c3f f73e 783f 550f 7d3f 500b a33f
000000a0: ade9 973f c824 783f 7e38 813f a03b 793f
000000b0: 97c8 783f 387f 793f 6b3c 783f b8b5 783f
000000c0: 974d 813f 5d19 7a3f 39eb 7e3f 7688 793f
000000d0: 8442 a43f 63cb 793f fd50 773f 0a41 7c3f
000000e0: 6e73 7b3f 362b 7e3f 2cfe 793f 0c34 7c3f
000000f0: d017 913f 4b69 7a3f 312f 773f b5e1 7c3f
00000100: ee4f 843f 8b0a 853f cb98 7a3f b3fc 7b3f
00000110: 0729 783f 2f47 af3f 72e5 783f 8dcd 783f
00000120: 98b8 783f d8ae 793f 1ba4 8e3f be5b 793f
00000130: 04c3 863f 7421 a83f ce6b 793f 4095 783f
00000140: 379e 793f 6454 783f 4012 7a3f 9e19 793f
00000150: 8291 773f 0f84 783f 34c6 773f edbf 783f
00000160: 3c4e 843f 01d7 783f 62ad 783f 7350 783f
00000170: b9ef 793f 3d0c 823f ab7a 793f 0dfe 783f
00000180: 008d 773f 70aa 7b3f 1e18 813f bee8 823f
00000190: 8061 813f f6d5 783f 299f 893f ec29 763f
000001a0: 548f 7c3f ecbb 783f 6986 783f b4fd 783f
000001b0: 4cb2 803f 9e44 793f 1858 7a3f b98d 793f
000001c0: 9b37 783f 24a6 7b3f f4ed 793f e8f6 8d3f
000001d0: 694d 793f e819 7b3f ca7c 7a3f f6e8 793f
000001e0: e802 793f a12c 783f 89e1 783f 8fe1 803f
000001f0: 2d99 773f 520b 973f 157f 793f f843 783f
00000200: ad11 7d3f c96e 773f 2a10 8e3f fa95 783f
00000210: 7c6b 823f 1eb6 993f f249 803f a0c9 7b3f
00000220: 2de0 783f a00b 7a3f 6635 783f 7e0a 793f
00000230: 1b82 7b3f 5265 7b3f b0e1 783f f1b8 783f
00000240: c33d 7d3f 7baa 773f 6cff 823f 8487 7b3f
00000250: 7864 7f3f ee0b 843f 2a8e 7e3f 7951 783f
00000260: 4526 7b3f 170b 783f 2261 833f e4cf 783f
00000270: acaa 793f 7115 823f a51a 793f 9724 793f
00000280: 0bde 8f3f e98d 773f 51c3 7d3f e858 793f
00000290: 0f93 773f c440 833f 55d4 813f ae39 7a3f
000002a0: 3efc 793f 4d78 793f a9e9 783f 7c69 793f
000002b0: 2f89 843f 8d00 793f e650 793f 0c05 783f
000002c0: c95b 773f 5789 793f f09b 773f 4095 7d3f
000002d0: 18d2 8a3f f301 793f 9c66 793f 89fc 7c3f
000002e0: bae6 793f 5dc2 813f b1ab 783f 76da 8f3f
000002f0: da7f 783f 36de 773f 6307 763f 4230 813f
00000300: 8a6e 793f 2d98 773f c096 783f 64f5 773f
00000310: 9608 7a3f db90 8b3f 6e71 7b3f 9a73 813f
00000320: 2a9a 7b3f 1e8f 783f 589e 783f 6e79 883f
00000330: e449 8a3f 25fa 783f a597 7c3f 13ea 763f
00000340: 654f 783f f7bc 763f aa57 893f eed0 783f
00000350: 11db 7b3f e3b6 783f ae24 7a3f b2ad 7c3f
00000360: 2e34 783f 51d0 803f 410e 783f de34 783f
00000370: 6ee8 793f b4c2 773f 36c3 7b3f 5d64 793f
00000380: 429c 773f e58a 793f 1e44 7a3f 8097 783f
00000390: 35ea 843f feb1 773f 7c3b bb3f f7a2 793f
000003a0: 91f2 783f 2f7a 803f 6365 7b3f 92ad 793f
000003b0: fb75 7a3f 68aa 7f3f f0da 793f b4ab 783f
000003c0: 7c64 793f 7b89 783f 81c1 783f 4ec3 783f
000003d0: 6b9d 783f d98c 803f e196 7d3f 1257 7b3f
000003e0: 4b44 783f 2e26 783f 9282 933f 46bb 7b3f
000003f0: 96ac 843f dbf0 803f 1361 793f 1e1d 793f

tabnet.initial_splitter.shared.shared_layers.0.weight f4 [96, 1038]
-7.5812524e-05 0.07989355 0.00018564526 7.0074835e-05 8.657747e-06 -0.0005096608 0.00051674945 0.00029766047
0.0014975104 -3.1896852e-06 -0.008880887 0.000110987436 5.043235e-06 -0.00017204993 0.0012730164 0.01751501
0.0057466226 -0.0006115356 -0.00042495783 -0.009790736 -0.000115055656 0.0022108892 0.0011779994 0.00030658822
-0.0019985544 -0.0004288776 0.00019288994 -0.1412592 -0.000548762 -0.0011525138 0.00095647323 -0.00025267978
0.00050889206 0.00011807628 -4.6720896e-05 0.0067578186 -0.0019105664 0.011158172 -0.0010506677 -5.0866227e-05
0.00033090063 -0.00044816078 0.00023388582 0.00030873975 -2.839864e-05 0.00029241855 -0.00042157902 0.00163148
-0.00017548501 -0.00075911754 -0.0013719336 0.00017338348 0.0006294478 0.027664423 -0.0005282992 -0.058124963
0.00017400723 -0.00056067045 0.0016204865 -0.14678654 0.00035354684 1.1762688e-08 3.5494722e-06 1.8006627e-05
-0.13326928 -0.0004430889 0.0009233788 0.00014998886 -9.4221825e-05 2.8818855e-07 -0.0028858732 0.0001281048
-0.00075539044 -0.0011891553 0.00064691657 -0.0024931973 0.00025939083 0.0011099121 -3.3470337e-07 -0.00093805284
0.00080168445 3.1852198e-06 -5.512904e-07 -4.8184056e-06 -0.0006498203 -6.0666163e-05 -0.0008144914 0.00030351777
-6.900066e-05 -0.0003399859 0.002234114 -0.0042317174 -0.044221923 0.029334618 0.0008426675 -0.0020393757
-0.013742231 -0.00024919998 -0.0015785842 2.5294052e-05 0.0016974293 0.00020993483 -0.0035235432 4.2004494e-06
-0.0010910279 -3.1753265e-05 -0.0001737127 0.00036938998 -0.1743149 0.0006437667 0.00035867988 0.0003833873
0.0002857658 -0.061559338 0.00016293162 -6.811237e-05 0.00035348872 1.4777594e-05 -0.001928195 0.01834631
0.000522039 -4.8221664e-05 9.152909e-05 -2.1310096e-07 0.00019454936 -0.00059114397 -0.0009170975 0.00027007904
6.0059137e-05 -0.0006045623 -0.018697843 0.00015943852 0.0014407771 0.00056438637 0.00049038464 -0.0013558365
-0.15228479 5.081256e-05 -0.00013104334 -0.020125847 0.0017246387 0.00035014894 1.6540938e-06 -6.618842e-06
-0.23939568 0.00047808094 -0.0009188681 -7.076349e-05 -2.7787357e-05 0.00089816516 -0.0005145159 -0.0016430424
0.00039174804 -1.4445816e-05 3.0052623e-05 0.0009753801 -0.00083155226 -0.00031742387 -0.0004736103 -0.008301394
0.09561462 -0.00067793526 -0.00069442485 0.0014074306 -0.0010646363 5.325617e-07 -0.0007423156 0.0013668117
0.0018266642 0.0010212843 8.9909045e-05 0.00012204648 0.0012972712 0.00020251347 -0.09154636 -0.0011830588
-0.0007541845 -0.0030684753 0.00083596044 5.2644544e-05 -0.15591289 -0.0010415985 0.1274557 -0.00022300566
0.0009014792 0.0009795978 -1.4846102e-05 -7.6862154e-05 0.00100184 8.9394656e-05 0.00062744616 -0.00029164486
-9.828158e-06 -0.0005532801 0.000608777 0.00109434 -0.069497585 0.0006488927 1.3747767e-06 0.0003149441
-0.0010383779 -0.00011764214 -2.3841985e-05 -0.00038109958 -0.0032340696 0.00020516357 0.0056620464 0.00024198875
0.0005593267 2.1932872e-05 0.0010330777 0.00048121286 -0.0006900356 7.1835995e-05 0.00019713944 0.00021758674
-0.00013601367 -0.0004709502 -0.0016821685 -0.0022151698 0.00081639335 -0.0009366925 -0.00031132123 -0.00046456687
0.00010949208 2.1432232e-05 -0.013506204 0.0020372868 -0.0004867929 1.0746744e-05 0.0002002764 -0.0013169508
0.00027079962 0.11472494 0.00092652504 -0.0009202314 0.0020455697 0.0004322602 -3.0389338e-06 0.024283657
0.00068192196 -0.00033563538 -0.0003054716 -0.0007304051 0.0011208848 -6.1290245e-07 0.00027083856 -0.0006973379
0.0009594407 -0.00031891593 0.0012620911 -0.00053078163 -0.00023349313 -0.0002834623 -0.00076212257 -0.00020672452
00000000: 8afd 9eb8 3b9f a33d c5a9 4239 24f5 9238
00000010: bd40 1137 c29a 05ba 7876 073a 500f 9c39
00000020: 1c48 c43a 600e 56b6 2481 11bc edc1 e838
00000030: 0f39 a936 4d68 34b9 58db a63a a37b 8f3c
00000040: 2a4e bc3b 764f 20ba e0cc deb9 5369 20bc
00000050: 094a f1b8 91e4 103b 1a67 9a3a 93bd a039
00000060: 2efa 02bb fada e0b9 8042 4a39 40a6 10be
00000070: cbda 0fba f20f 97ba d5bb 7a3a 1b7a 84b9
00000080: 2b67 053a b89f f738 2ef6 43b8 b170 dd3b
00000090: f86b faba c4d0 363c 8fb6 89ba 3259 55b8
000000a0: bb7c ad39 1ff7 eab9 3f3f 7539 59de a139
000000b0: 9d39 eeb7 c14f 9939 6107 ddb9 62d7 d53a
000000c0: 6602 38b9 84ff 46ba 74d2 b3ba 46ce 3539
000000d0: 8701 253a 80a0 e23c 8f7d 0aba 7114 6ebd
000000e0: b675 3639 f5f9 12ba 8166 d43a 364f 16be
000000f0: 415c b939 d914 4a32 7833 6e36 f00c 9737
00000100: be77 08be 634e e8b9 e70e 723a 5446 1d39
00000110: f598 c5b8 55b8 9a34 eb20 3dbb df53 0639
00000120: 6505 46ba 6edd 9bba d695 293a e964 23bb
00000130: d9fe 8739 787a 913a 48b1 b3b4 a9e7 75ba
00000140: 2228 523a a9c1 5536 63fc 13b5 caad a1b6
00000150: b458 2aba cc73 7eb8 9883 55ba 7721 9f39
00000160: 72b4 90b8 2340 b2b9 376a 123b 38aa 8abb
00000170: 0c22 35bd 274f f03c 75e6 5c3a 0ca7 05bb
00000180: 1827 61bc 0ea7 82b9 7fe8 ceba 902e d437
00000190: 477c de3a f421 5c39 3feb 66bb 96f1 8c36
000001a0: d200 8fba cf2e 05b8 a626 36b9 afaa c139
000001b0: 9b7f 32be 74c2 283a 330d bc39 5f01 c939
000001c0: d6d2 9539 a525 7cbd a0d8 2a39 8dd7 8eb8
000001d0: 7454 b939 48ed 7737 7dbb fcba 004b 963c
000001e0: 72d9 083a 9e41 4ab8 4ef3 bf38 bfd0 64b4
000001f0: f2ff 4b39 00f7 1aba 5f69 70ba 6599 8d39
00000200: 02e8 7b38 7d7b 1eba 382c 99bc f42e 2739
00000210: 75d8 bc3a 54f3 133a 288d 003a 53b6 b1ba
00000220: 8bf0 1bbe 921f 5538 ae68 09b9 f6de a4bc
00000230: 460d e23a 3294 b739 3b02 de35 6b17 deb6
00000240: 2424 75be f0a6 fa39 32e0 70ba dc66 94b8
00000250: e518 e9b7 d872 6b3a 94e0 06ba 5b5b d7ba
00000260: 8863 cd39 4f5c 72b7 8419 fc37 a7b0 7f3a
00000270: 87fc 59ba e96b a6b9 e64e f8b9 9202 08bc
00000280: 99d1 c33d 77b7 31ba 100a 36ba 8979 b83a
00000290: 448b 8bba 5df5 0e35 f597 42ba 9726 b33a
000002a0: ae6c ef3a 9ddc 853a 8d8d bc38 34f3 ff38
000002b0: 3309 aa3a cc59 5439 a87c bbbd de10 9bba
000002c0: 77b4 45ba 7918 49bb 5b24 5b3a a6ce 5c38
000002d0: a1a7 1fbe 3f86 88ba bf83 023e a0d6 69b9
000002e0: 3f51 6c3a d965 803a 8613 79b7 0e31 a1b8
000002f0: 2c50 833a 6479 bb38 337b 243a e9e7 98b9
00000300: 9ee3 24b7 000a 11ba 5596 1f3a f56f 8f3a
00000310: c054 8ebd 741a 2a3a f884 b835 151f a539
00000320: 2e1a 88ba a5b6 f6b8 4600 c8b7 52ce c7b9
00000330: aff2 53bb 2d21 5739 b088 b93b 5cbe 7d39
00000340: c89f 123a 7cfc b737 5668 873a 4c4b fc39
00000350: 81e3 34ba a8a6 9638 37b7 4e39 ff27 6439
00000360: e49e 0eb9 dee9 f6b9 357c dcba 622c 11bb
00000370: 3b03 563a 5f8c 75ba d438 a3b9 1c91 f3b9
00000380: 1d9f e538 5ec9 b337 2049 5dbc 0084 053b
00000390: 3d38 ffb9 ea4c 3437 4901 5239 899d acba
000003a0: 1cfa 8d39 e9f4 ea3d 0be2 723a af3b 71ba
000003b0: f70e 063b fba0 e239 7cf0 4bb6 85ee c63c
000003c0: 02c3 323a 38f8 afb9 b427 a0b9 a878 3fba
000003d0: a7ea 923a 5686 24b5 56ff 8d39 8ecd 36ba
000003e0: fa82 7b3a 2c34 a7b9 c06c a53a 2724 0bba
000003f0: d6d5 74b9 aa9d 94b9 2ec9 47ba 31c4 58b9

tabnet.initial_splitter.shared.shared_layers.1.weight f4 [96, 48]
0.3401908 0.07353239 0.028739851 0.05480794 0.037583914 0.0987978 -0.12894686 0.0010048031
0.086597666 -0.040047064 -0.08310237 0.005400715 0.06699032 -0.007799737 -0.07310123 0.01831762
-0.024947653 -0.02311139 -0.0077426955 0.029524868 -0.014818471 -0.05462789 0.021128312 -0.00089250534
0.04172035 0.013865945 -0.0017834376 0.0070486334 -0.0071539287 0.012164238 0.008933342 -0.0041832253
-0.0004361709 -0.00014533418 0.0061177425 -0.014513641 0.0076793963 0.0012503172 0.012864343 0.032101914
0.004476962 0.008643991 0.04073972 0.03253337 -0.0009456419 0.0039523845 -0.016507389 0.0057489634
-0.046797097 0.38181132 0.05014916 -0.02609793 0.000872642 -0.09393211 -0.0639584 -0.0651324
0.026757136 0.031550165 -0.066148765 -0.058775507 -0.028531555 -0.0008969394 0.0041253087 -0.05474307
0.04698096 -0.0014976489 -0.034702793 -0.075737886 -0.06325057 0.009351265 -0.040787414 -0.058282107
-0.019657185 -0.011096876 0.033995908 -0.003997931 0.085520774 0.04884723 -0.030256476 0.0017893157
0.03181956 0.0011578097 0.0052227005 0.0070622377 -0.009798482 0.023288283 0.00676923 0.0501182
0.038169514 -0.024195742 0.03898138 0.028019773 -0.0046781506 -0.023698192 -0.016735097 0.017856084
-0.01263427 -0.009029869 0.20493059 0.020449752 -0.12112744 -0.04547084 -0.090169616 -0.11004614
0.0060889646 -0.030791325 -0.032347593 -0.06102598 -0.0385373 0.017383466 -0.093077414 -0.06261569
-0.13944884 -0.019823309 -0.116179444 -0.03060809 -0.047516663 -0.056080077 -0.0070184018 0.019426325
-0.044157814 0.043926775 0.0039010702 -0.002587875 -0.01925335 0.027160605 -0.009120304 -0.017519552
0.0010960322 -0.00034574806 0.0045559052 -0.015093945 0.013586271 -0.0045031426 0.0016723897 0.0132874595
0.003069301 0.0063197506 0.069679454 -0.008070026 0.0026560812 -0.000765693 0.0018855566 -0.0054110824
-0.03600241 -0.057409782 0.013032001 0.33996776 -0.0152353635 -0.0024842287 -0.015508181 -0.0009969366
0.0016718691 -0.011152116 -0.04427957 -0.054097302 0.0039068987 -0.018015351 -0.030840294 0.0030620927
0.019968634 0.014311731 0.016030276 -0.0008635037 -0.042450346 -0.008166057 -0.080383874 -0.0684483
-0.018296694 0.005412122 0.0135983275 0.0073020537 -0.006048289 -0.0033180637 0.031003853 0.0067776865
-0.0034394362 -0.0037951593 0.016440967 -0.02969964 0.016903158 0.006856218 -0.00026551753 0.0034418586
-0.0033083365 -0.009161179 0.0016144218 -0.03848657 -0.010882218 -0.018946316 0.0046557174 0.005061045
0.01605918 0.016956288 -0.11597896 -0.0081654405 0.17226845 -0.02672006 0.03355867 0.08571356
-0.0054028076 -0.07988426 -0.10198179 0.045948297 0.0697772 -0.021839472 0.09048396 -0.03191168
0.050817028 -0.008218135 0.010307548 0.020781577 -0.027883627 0.06677321 -0.07909244 0.016434515
0.026155522 -0.016586596 -0.005351134 -0.004777799 0.021668512 -0.0070147105 -0.000706926 -0.016318971
0.0030692457 -0.00011689471 -0.0074938964 0.016507043 0.0037120953 0.019585341 -0.0011590879 0.017195802
-0.0066119055 -0.00073458266 0.013967315 0.0018346728 -0.010900113 0.0052138926 -0.010914446 -0.010363257
0.015957048 -0.033486888 0.0045448043 0.034109913 -0.043309912 0.28235185 0.082969986 0.003983948
-0.058231253 0.020627815 -0.122677125 -0.040302847 -0.053364757 0.0020630816 0.054696593 -0.16401249
00000000: 7d2d ae3e 2698 963d d66f eb3c 4a7e 603d
00000010: 97f1 193d 8056 ca3d a50a 04be 99b3 833a
00000020: 1e5a b13d 6408 24bd 9331 aabd 7bf8 b03b
00000030: 3932 893d f094 ffbb 19b6 95bd d50e 963c
00000040: 055f ccbc 1954 bdbc 70b6 fdbb 23de f13c
00000050: 2cc9 72bc 7fc1 5fbd 4815 ad3c 05f7 69ba
00000060: f5e2 2a3d fd2d 633c 3cc2 e9ba 39f8 e63b
00000070: 816b eabb 834c 473c 275d 123c 7013 89bb
00000080: dead e4b9 d964 18b9 5877 c83b 9fca 6dbc
00000090: 72a3 fb3b afe1 a33a f7c4 523c 4c7d 033d
000000a0: 7bb3 923b 879f 0d3c b1de 263d b641 053d
000000b0: f4e4 77ba 0183 813b 813a 87bc cd61 bc3b
000000c0: 50ae 3fbd c67c c33e 3569 4d3d 53cb d5bc
000000d0: 03c2 643a 7a5f c0bd 9ffc 82bd 2364 85bd
000000e0: c831 db3c bf3a 013d 0179 87bd 96be 70bd
000000f0: 02bb e9bc 9620 6bba 992d 873b 453a 60bd
00000100: 1b6f 403d c24c c4ba 8424 0ebd 771c 9bbd
00000110: 8489 81bd 0c36 193c b410 27bd 38b9 6ebd
00000120: 1b08 a1bc accf 35bc 4b3f 0b3d 1301 83bb
00000130: 8425 af3d 0814 483d 6edc f7bc 7987 ea3a
00000140: 3a55 023d a6c1 973a 3023 ab3b 586a e73b
00000150: d089 20bc 12c7 be3c 6bd0 dd3b be48 4d3d
00000160: a357 1c3d 2636 c6bc f1aa 1f3d b989 e53c
00000170: 2c4b 99bb b622 c2bc 0b18 89bc ec46 923c
00000180: f8ff 4ebc 04f2 13bc 53d9 513e 3d86 a73c
00000190: aa11 f8bd a23f 3abd d9aa b8bd df5f e1bd
000001a0: f085 c73b 173e fcbc e97e 04bd 61f6 79bd
000001b0: 4ad9 1dbd c567 8e3c 5f9f bebd a83c 80bd
000001c0: adcb 0ebe 7e64 a2bc 7def edbd d1bd fabc
000001d0: d5a0 42bd 39b4 65bd 9ffa e5bb f523 9f3c
000001e0: d3de 34bd 90ec 333d 19a9 7f3b 5699 29bb
000001f0: 34b9 9dbc eb7f de3c 546d 15bc 2a85 8fbc
00000200: bda8 8f3a 8545 b5b9 b449 953b 984c 77bc
00000210: f398 5e3c 198f 93bb 1634 db3a a5b3 593c
00000220: 5326 493b e915 cf3b 1ab4 8e3d 2438 04bc
00000230: a611 2e3b cab8 48ba c824 f73a 734f b1bb
00000240: 4377 13bd 8526 6bbd 2d84 553c 4110 ae3e
00000250: bf9d 79bc 71ce 22bb 0716 7ebc a4ab 82ba
00000260: 9e22 db3a 5db7 36bc 7f5e 35bd 2295 5dbd
00000270: 7105 803b ee94 93bc c9a4 fcbc 64ad 483b
00000280: 4395 a33c c07b 6a3c ed51 833c c15c 62ba
00000290: 6ae0 2dbd edca 05bc 4da0 a4bd 9f2e 8cbd
000002a0: f3e2 95bc 2b58 b13b 85cb 5e3c 1146 ef3b
000002b0: ba30 c6bb df73 59bb cbfb fd3c 5b17 de3b
000002c0: 2a68 61bb 35b8 78bb 35af 863c a94c f3bc
000002d0: 7e78 8a3c 20aa e03b 2935 8bb9 ce90 613b
000002e0: add0 58bb c518 16bc 029b d33a 18a4 1dbd
000002f0: 554b 32bc 4e35 9bbc fd8e 983b 1fd7 a53b
00000300: 8b8e 833c eae7 8a3c 6186 edbd 57c8 05bc
00000310: 2467 303e 07e4 dabc d174 093d 978a af3d
00000320: 090a b1bb 5c9a a3bd d4db d0bd 4834 3c3d
00000330: 59e7 8e3d b1e8 b2bc a84f b93d d2b5 02bd
00000340: 8425 503d 5ba5 06bc fde0 283c 203e aa3c
00000350: 346c e4bc 65c0 883d 38fb a1bd ada1 863c
00000360: 1b44 d63c 9de0 87bc 9158 afbb 158f 9cbb
00000370: 2a82 b13c a8db e5bb 0051 39ba 5daf 85bc
00000380: 6625 493b 5f25 f5b8 5c8f f5bb c739 873c
00000390: a046 733b 7071 a03c 89ec 97ba 36de 8c3c
000003a0: afa8 d8bb 0291 40ba 2ad7 643c 6779 f03a
000003b0: 6396 32bc 4dd9 aa3b 81d2 32bc a6ca 29bc
000003c0: 5bb8 823c 8c29 09bd 95ec 943b d6b6 0b3d
000003d0: bc65 31bd 6c90 903e 2bec a93d c78b 823b
000003e0: e583 6ebd aafb a83c 253e fbbd 9914 25bd
000003f0: 0195 5abd c434 073b 8909 603d e4f2 27be

tabnet.initial_splitter.shared.glu_layers.0.fc.weight f4 [96, 1038]
-7.5812524e-05 0.07989355 0.00018564526 7.0074835e-05 8.657747e-06 -0.0005096608 0.00051674945 0.00029766047
0.0014975104 -3.1896852e-06 -0.008880887 0.000110987436 5.043235e-06 -0.00017204993 0.0012730164 0.01751501
0.0057466226 -0.0006115356 -0.00042495783 -0.009790736 -0.000115055656 0.0022108892 0.0011779994 0.00030658822
-0.0019985544 -0.0004288776 0.00019288994 -0.1412592 -0.000548762 -0.0011525138 0.00095647323 -0.00025267978
0.00050889206 0.00011807628 -4.6720896e-05 0.0067578186 -0.0019105664 0.011158172 -0.0010506677 -5.0866227e-05
0.00033090063 -0.00044816078 0.00023388582 0.00030873975 -2.839864e-05 0.00029241855 -0.00042157902 0.00163148
-0.00017548501 -0.00075911754 -0.0013719336 0.00017338348 0.0006294478 0.027664423 -0.0005282992 -0.058124963
0.00017400723 -0.00056067045 0.0016204865 -0.14678654 0.00035354684 1.1762688e-08 3.5494722e-06 1.8006627e-05
-0.13326928 -0.0004430889 0.0009233788 0.00014998886 -9.4221825e-05 2.8818855e-07 -0.0028858732 0.0001281048
-0.00075539044 -0.0011891553 0.00064691657 -0.0024931973 0.00025939083 0.0011099121 -3.3470337e-07 -0.00093805284
0.00080168445 3.1852198e-06 -5.512904e-07 -4.8184056e-06 -0.0006498203 -6.0666163e-05 -0.0008144914 0.00030351777
-6.900066e-05 -0.0003399859 0.002234114 -0.0042317174 -0.044221923 0.029334618 0.0008426675 -0.0020393757
-0.013742231 -0.00024919998 -0.0015785842 2.5294052e-05 0.0016974293 0.00020993483 -0.0035235432 4.2004494e-06
-0.0010910279 -3.1753265e-05 -0.0001737127 0.00036938998 -0.1743149 0.0006437667 0.00035867988 0.0003833873
0.0002857658 -0.061559338 0.00016293162 -6.811237e-05 0.00035348872 1.4777594e-05 -0.001928195 0.01834631
0.000522039 -4.8221664e-05 9.152909e-05 -2.1310096e-07 0.00019454936 -0.00059114397 -0.0009170975 0.00027007904
6.0059137e-05 -0.0006045623 -0.018697843 0.00015943852 0.0014407771 0.00056438637 0.00049038464 -0.0013558365
-0.15228479 5.081256e-05 -0.00013104334 -0.020125847 0.0017246387 0.00035014894 1.6540938e-06 -6.618842e-06
-0.23939568 0.00047808094 -0.0009188681 -7.076349e-05 -2.7787357e-05 0.00089816516 -0.0005145159 -0.0016430424
0.00039174804 -1.4445816e-05 3.0052623e-05 0.0009753801 -0.00083155226 -0.00031742387 -0.0004736103 -0.008301394
0.09561462 -0.00067793526 -0.00069442485 0.0014074306 -0.0010646363 5.325617e-07 -0.0007423156 0.0013668117
0.0018266642 0.0010212843 8.9909045e-05 0.00012204648 0.0012972712 0.00020251347 -0.09154636 -0.0011830588
-0.0007541845 -0.0030684753 0.00083596044 5.2644544e-05 -0.15591289 -0.0010415985 0.1274557 -0.00022300566
0.0009014792 0.0009795978 -1.4846102e-05 -7.6862154e-05 0.00100184 8.9394656e-05 0.00062744616 -0.00029164486
-9.828158e-06 -0.0005532801 0.000608777 0.00109434 -0.069497585 0.0006488927 1.3747767e-06 0.0003149441
-0.0010383779 -0.00011764214 -2.3841985e-05 -0.00038109958 -0.0032340696 0.00020516357 0.0056620464 0.00024198875
0.0005593267 2.1932872e-05 0.0010330777 0.00048121286 -0.0006900356 7.1835995e-05 0.00019713944 0.00021758674
-0.00013601367 -0.0004709502 -0.0016821685 -0.0022151698 0.00081639335 -0.0009366925 -0.00031132123 -0.00046456687
0.00010949208 2.1432232e-05 -0.013506204 0.0020372868 -0.0004867929 1.0746744e-05 0.0002002764 -0.0013169508
0.00027079962 0.11472494 0.00092652504 -0.0009202314 0.0020455697 0.0004322602 -3.0389338e-06 0.024283657
0.00068192196 -0.00033563538 -0.0003054716 -0.0007304051 0.0011208848 -6.1290245e-07 0.00027083856 -0.0006973379
0.0009594407 -0.00031891593 0.0012620911 -0.00053078163 -0.00023349313 -0.0002834623 -0.00076212257 -0.00020672452
00000000: 8afd 9eb8 3b9f a33d c5a9 4239 24f5 9238
00000010: bd40 1137 c29a 05ba 7876 073a 500f 9c39
00000020: 1c48 c43a 600e 56b6 2481 11bc edc1 e838
00000030: 0f39 a936 4d68 34b9 58db a63a a37b 8f3c
00000040: 2a4e bc3b 764f 20ba e0cc deb9 5369 20bc
00000050: 094a f1b8 91e4 103b 1a67 9a3a 93bd a039
00000060: 2efa 02bb fada e0b9 8042 4a39 40a6 10be
00000070: cbda 0fba f20f 97ba d5bb 7a3a 1b7a 84b9
00000080: 2b67 053a b89f f738 2ef6 43b8 b170 dd3b
00000090: f86b faba c4d0 363c 8fb6 89ba 3259 55b8
000000a0: bb7c ad39 1ff7 eab9 3f3f 7539 59de a139
000000b0: 9d39 eeb7 c14f 9939 6107 ddb9 62d7 d53a
000000c0: 6602 38b9 84ff 46ba 74d2 b3ba 46ce 3539
000000d0: 8701 253a 80a0 e23c 8f7d 0aba 7114 6ebd
000000e0: b675 3639 f5f9 12ba 8166 d43a 364f 16be
000000f0: 415c b939 d914 4a32 7833 6e36 f00c 9737
00000100: be77 08be 634e e8b9 e70e 723a 5446 1d39
00000110: f598 c5b8 55b8 9a34 eb20 3dbb df53 0639
00000120: 6505 46ba 6edd 9bba d695 293a e964 23bb
00000130: d9fe 8739 787a 913a 48b1 b3b4 a9e7 75ba
00000140: 2228 523a a9c1 5536 63fc 13b5 caad a1b6
00000150: b458 2aba cc73 7eb8 9883 55ba 7721 9f39
00000160: 72b4 90b8 2340 b2b9 376a 123b 38aa 8abb
00000170: 0c22 35bd 274f f03c 75e6 5c3a 0ca7 05bb
00000180: 1827 61bc 0ea7 82b9 7fe8 ceba 902e d437
00000190: 477c de3a f421 5c39 3feb 66bb 96f1 8c36
000001a0: d200 8fba cf2e 05b8 a626 36b9 afaa c139
000001b0: 9b7f 32be 74c2 283a 330d bc39 5f01 c939
000001c0: d6d2 9539 a525 7cbd a0d8 2a39 8dd7 8eb8
000001d0: 7454 b939 48ed 7737 7dbb fcba 004b 963c
000001e0: 72d9 083a 9e41 4ab8 4ef3 bf38 bfd0 64b4
000001f0: f2ff 4b39 00f7 1aba 5f69 70ba 6599 8d39
00000200: 02e8 7b38 7d7b 1eba 382c 99bc f42e 2739
00000210: 75d8 bc3a 54f3 133a 288d 003a 53b6 b1ba
00000220: 8bf0 1bbe 921f 5538 ae68 09b9 f6de a4bc
00000230: 460d e23a 3294 b739 3b02 de35 6b17 deb6
00000240: 2424 75be f0a6 fa39 32e0 70ba dc66 94b8
00000250: e518 e9b7 d872 6b3a 94e0 06ba 5b5b d7ba
00000260: 8863 cd39 4f5c 72b7 8419 fc37 a7b0 7f3a
00000270: 87fc 59ba e96b a6b9 e64e f8b9 9202 08bc
00000280: 99d1 c33d 77b7 31ba 100a 36ba 8979 b83a
00000290: 448b 8bba 5df5 0e35 f597 42ba 9726 b33a
000002a0: ae6c ef3a 9ddc 853a 8d8d bc38 34f3 ff38
000002b0: 3309 aa3a cc59 5439 a87c bbbd de10 9bba
000002c0: 77b4 45ba 7918 49bb 5b24 5b3a a6ce 5c38
000002d0: a1a7 1fbe 3f86 88ba bf83 023e a0d6 69b9
000002e0: 3f51 6c3a d965 803a 8613 79b7 0e31 a1b8
000002f0: 2c50 833a 6479 bb38 337b 243a e9e7 98b9
00000300: 9ee3 24b7 000a 11ba 5596 1f3a f56f 8f3a
00000310: c054 8ebd 741a 2a3a f884 b835 151f a539
00000320: 2e1a 88ba a5b6 f6b8 4600 c8b7 52ce c7b9
00000330: aff2 53bb 2d21 5739 b088 b93b 5cbe 7d39
00000340: c89f 123a 7cfc b737 5668 873a 4c4b fc39
00000350: 81e3 34ba a8a6 9638 37b7 4e39 ff27 6439
00000360: e49e 0eb9 dee9 f6b9 357c dcba 622c 11bb
00000370: 3b03 563a 5f8c 75ba d438 a3b9 1c91 f3b9
00000380: 1d9f e538 5ec9 b337 2049 5dbc 0084 053b
00000390: 3d38 ffb9 ea4c 3437 4901 5239 899d acba
000003a0: 1cfa 8d39 e9f4 ea3d 0be2 723a af3b 71ba
000003b0: f70e 063b fba0 e239 7cf0 4bb6 85ee c63c
000003c0: 02c3 323a 38f8 afb9 b427 a0b9 a878 3fba
000003d0: a7ea 923a 5686 24b5 56ff 8d39 8ecd 36ba
000003e0: fa82 7b3a 2c34 a7b9 c06c a53a 2724 0bba
000003f0: d6d5 74b9 aa9d 94b9 2ec9 47ba 31c4 58b9

tabnet.initial_splitter.shared.glu_layers.0.bn.bn.weight f4 [96]
0.036409948 0.7175523 0.32176638 0.5265772 0.44570526 0.044520773 0.53662115 0.06531537
0.48188114 0.43220556 0.057002556 0.042460755 0.4924873 0.008222127 0.25480545 0.34796196
0.18698592 0.16137284 0.14976515 0.15374509 0.37330824 0.114602394 0.14215441 0.6232986
0.4720054 0.46214205 0.4181137 0.35349354 0.5100227 0.4085578 0.51521313 0.42517632
0.39664704 0.34093028 0.3362156 0.38666704 0.3886259 0.43715954 0.5040599 0.42497727
0.32818446 0.53307104 0.5040444 0.40534288 0.29806015 0.3780986 0.40165862 0.26622486
-6.605529e-05 0.42284897 0.031058608 0.27100363 0.29594824 0.0007037987 0.054691304 0.011494205
-0.015359814 0.28692085 0.03210204 0.0030334578 -0.02982389 0.0014594892 0.06265297 0.0065014046
0.009003554 -0.0045786453 0.0005292257 -0.009611575 0.3522039 0.0078026145 0.008859457 0.23368005
0.2569446 -0.30980358 0.32636046 0.14290361 0.32439542 0.19234328 0.18343315 -0.07874626
0.22127903 0.2923048 0.33399758 -0.0016558974 0.28800303 0.30105227 0.17382127 0.49359763
0.34076968 0.28785202 0.2953252 0.13393237 -0.14411728 -0.02805635 -0.032684468 0.039848465
00000000: 9922 153d 82b1 373f 90be a43e c3cd 063f
00000010: 7b33 e43e 6a5b 363d 0160 093f 11c4 853d
00000020: 20b9 f63e 0c4a dd3e 837b 693d 54eb 2d3d
00000030: 4c27 fc3e 1ab6 063c dc75 823e 1228 b23e
00000040: 3d79 3f3e ec3e 253e 095c 193e 5a6f 1d3e
00000050: 4222 bf3e a9b4 ea3d ed90 113e 7f90 1f3f
00000060: b1aa f13e e29d ec3e 0013 d63e 1bfd b43e
00000070: d990 023f 7d2e d13e 02e5 033f b6b0 d93e
00000080: 5215 cb3e 6a8e ae3e 7324 ac3e 39f9 c53e
00000090: f9f9 c63e 60d3 df3e 120a 013f 9f96 d93e
000000a0: cb07 a83e 5877 083f 0e09 013f 1a89 cf3e
000000b0: 579b 983e 2496 c13e 33a6 cd3e a04e 883e
000000c0: 2a87 8ab8 a97f d83e 9f6e fe3c fdc0 8a3e
000000d0: 8786 973e 227f 383a fd03 603d 3152 3c3c
000000e0: bba7 7bbc 4ae7 923e 6e7d 033d facc 463b
000000f0: 3b51 f4bc 554c bf3a 3350 803d bc09 d53b
00000100: a483 133c 7608 96bb bcbb 0a3a de79 1dbc
00000110: 1254 b43e 13ad ff3b 4227 113c d349 6f3e
00000120: 3e8e 833e 939e 9ebe b818 a73e 5355 123e
00000130: 2817 a63e a3f5 443e e6d5 3b3e b845 a1bd
00000140: f896 623e faa8 953e bb01 ab3e b20a d9ba
00000150: 2275 933e 8623 9a3e 34fe 313e d4b8 fc3e
00000160: 5d79 ae3e 5761 933e dd34 973e 9125 093e
00000170: 7b93 13be 6ed6 e5bc 26e0 05bd 2538 233d

tabnet.initial_splitter.shared.glu_layers.0.bn.bn.bias f4 [96]
-0.00027595946 0.07294632 2.6678115e-05 0.008868947 0.017810183 0.0009822146 0.010934748 0.00027561834
0.002659718 0.002655951 -0.0016396972 0.00046914976 -0.003474517 0.00012890903 0.0008808275 -0.011570711
0.000703458 0.00062686746 -6.0087146e-05 0.0004631024 -0.009725847 -2.0967664e-05 2.4642854e-05 -0.011325687
0.0075446423 0.023234542 -0.020520471 0.019142743 -0.084107384 0.009847292 -0.057289727 -0.010758864
-0.013642262 -0.02354292 0.036328193 -0.040313937 0.003312459 0.003927245 0.004856584 -0.038411856
0.059348118 -0.015756054 0.05305749 0.00017865177 -0.043228302 -0.021430323 0.01600257 0.020624582
-0.0014981743 -0.069929354 0.0036995804 0.042730715 0.014405438 -0.00060971634 0.054490063 -0.0006635052
0.017962629 0.02089031 0.0007875266 0.00046865433 0.045046814 -0.00012960807 -0.002505841 0.035440106
0.008207592 -0.0007934466 -0.001351816 -0.00064023613 -0.066290386 0.00030444076 -0.0012435889 0.063381046
0.04212647 0.03493658 0.0137849515 0.04113556 0.03929727 0.035885017 0.0862402 0.025833245
0.030158905 0.012956133 -0.0039928816 0.042411275 0.045083262 0.0009926416 0.10352453 -0.02242611
-0.007483819 0.09029978 0.070301875 0.030270524 0.011188747 0.06465175 0.054412726 0.001321783
00000000: a7ae 90b9 e164 953d d1ca df37 0f4f 113c
00000010: a9e6 913c a7bd 803a a827 333c de80 9039
00000020: aa4e 2e3b 770f 2e3b 1ceb d6ba 37f8 f539
00000030: b9b4 63bb c12b 0739 55e7 663a 1493 3dbc
00000040: 4468 383a 5d54 243a 1506 7cb8 8dcc f239
00000050: 2959 1fbc b7e3 afb7 20b8 ce37 608f 39bc
00000060: 0c39 f73b 5e56 be3c 8c1a a8bc 3ed1 9c3c
00000070: 7e40 acbd 8956 213c a2a8 6abd f245 30bc
00000080: cb83 5fbc 15dd c0bc dfcc 143d 3a20 25bd
00000090: d715 593b 1eb0 803b fb23 9f3b c055 1dbd
000000a0: 0317 733d d712 81bc d052 593d 7854 3b39
000000b0: 2910 31bd a58e afbc d217 833c e2f4 a83c
000000c0: 635e c4ba 1f37 8fbd a974 723b 6706 2f3d
000000d0: c904 6c3c 5fd5 1fba f930 5f3d 15ef 2dba
000000e0: 5d26 933c 2822 ab3c 0472 4e3a b8b5 f539
000000f0: 0283 383d 67e7 07b9 0939 24bb a529 113d
00000100: 2379 063c 4dff 4fba 6b2f b1ba 85d5 27ba
00000110: 41c3 87bd 599d 9f39 ebff a2ba eccd 813d
00000120: ce8c 2c3d a919 0f3d 47da 613c c37d 283d
00000130: 2df6 203d 2bfc 123d b49e b03d 3ea0 d33c
00000140: cf0f f73c f645 543c b8d6 82bb 72b7 2d3d
00000150: 3aa9 383d 861b 823a ab04 d43d f6b6 b7bc
00000160: d33a f5bb 17ef b83d 6efa 8f3d e4f9 f73c
00000170: 0251 373c 2368 843d e1df 5e3d ae3f ad3a
