cv_steps/tabnet_raw_step1_fold3_1/network.pt (torch, 682379 bytes, 56 tensors)

embedder.embeddings.0.weight f4 [3, 1]
0	0x3cb5af05	0.022178182
1	0xbd3ea37e	-0.046542637
2	0x3cc99f67	0.024612142

embedder.embeddings.1.weight f4 [2, 1]
0	0xbd220a85	-0.039560813
1	0x3d220226	0.03955283

tabnet.initial_bn.weight f4 [1038]
0	0x3d449ad7	0.04799923
1	0x3e186de5	0.14885671
2	0x3c955398	0.018228337
3	0x3df5bc55	0.11998812
4	0x3da2641c	0.079292506
5	0x3dce5988	0.100756705
6	0x3ccdb72e	0.025111761
7	0x3d992b85	0.07479004
8	0xbae9f8c8	-0.0017850632
9	0x387b5e3a	5.993082e-05
10	0x3ea5e55a	0.32401544
11	0x3a9f7f67	0.0012168706
12	0x3ac3e2a4	0.0014944864
13	0x3e597de9	0.21239437
14	0x3e1d877b	0.15383713
15	0x3e2ff8c5	0.17184742
16	0x3dffe11e	0.124941096
17	0x3df148d8	0.11781472
18	0x3e042a08	0.12906659
19	0x3a2c74b5	0.000657867
20	0x3da652e0	0.08121276
21	0x3e4b5a98	0.19858778
22	0x3e78cc17	0.24296604
23	0x3c3e2655	0.011605819
24	0x3e8897f7	0.2667844
25	0x3e1866a4	0.14882904
26	0x3e0d0762	0.13772348
27	0x3e102bd6	0.14079222
28	0xbddbe343	-0.10736706
29	0x3e0d67fe	0.13809201
30	0x3e2e8459	0.17042674
31	0x3e8b0462	0.2715178
32	0x3e5c2402	0.21498111
33	0x3e268d96	0.16264948
34	0x3e2a523f	0.16632937
35	0x3e5baa0e	0.2145159
36	0x3e71f5fe	0.23628995
37	0xbc01be73	-0.007918942
38	0x3e3abfe1	0.18237258
39	0x3c875edb	0.016524723
40	0x3992d6f5	0.00028007446
41	0x3e13e0fb	0.14441292
42	0x3e043361	0.12910224
43	0x3dec718d	0.115450956
44	0x3e1f4a1f	0.15555619
45	0x3cde1d76	0.027113657
46	0x3df53a5b	0.11974021
47	0x3e0d4931	0.13797452
48	0x3dc05fd3	0.09393277
49	0x3df48708	0.11939818
50	0x3e5356a2	0.20638517
51	0xb849a6dd	-4.8077538e-05
52	0x3e1ba3a3	0.15199141
53	0x3e177aa1	0.14792873
54	0x3de28711	0.11060918
55	0xbaf45f74	-0.001864417
56	0x3dffd16d	0.12491117
57	0x3df5a597	0.119944744
58	0x3e109a9d	0.1412148
59	0x3e7cd117	0.24689136
60	0x3d99df5b	0.07513305
61	0xb2577b58	-1.2542692e-08
62	0x3e94f6f7	0.2909467
63	0xbc45350e	-0.012036575
64	0x3e83e08f	0.25757262
65	0x3e3da647	0.18520461
66	0xb8114784	-3.4637298e-05
67	0x3dfccad3	0.12343373
68	0x3d8d9656	0.0691344
69	0x3e0a2877	0.13491999
70	0x3e5a5050	0.213197
71	0x3e3eb781	0.18624689
72	0xbd9e0db2	-0.07717456
73	0x3da6c92a	0.08143838
74	0xbd13f8b2	-0.036125846
75	0x380b599d	3.322364e-05
76	0x3e14a6d4	0.14516765
77	0x3ed7ade7	0.42124864
78	0x32055e2c	7.763031e-09
79	0x3e38b5db	0.18038122
80	0x3dfe9ff1	0.1243285
81	0x3e05f1b3	0.13080482
82	0xb94fbec8	-0.0001981213
83	0x3dbd9f1c	0.09258863
84	0x3da465e7	0.08027249
85	0x391343fa	0.00014044336
86	0x3e17fbe1	0.14842178
87	0x3e49e4f0	0.19716239
88	0x3dc7a250	0.097477555
89	0x3e2c43e1	0.16822769
90	0x3e4c10f6	0.19928345
91	0x3dbbe53e	0.09174584
92	0x3e800f70	0.25011778
93	0x3e7a408a	0.24438682
94	0x3e3c66eb	0.18398635
95	0x3e491e42	0.19640449
96	0x3e63fbe4	0.22264057
97	0x3d849200	0.0647316
98	0x3ded849b	0.11597558
99	0x3dfd6b1c	0.12373945
100	0x3dcf9bf2	0.10137166
101	0x3e2875ab	0.16451137
102	0x3e955472	0.2916599
103	0x3d739c8a	0.05947546
104	0x3e3f8f54	0.18707019
105	0x3e6c8fb9	0.23101701
106	0x3e3547e0	0.177032
107	0x3dd50584	0.10401443
108	0x3d9daf14	0.07699409
109	0x3e432b86	0.19059572
110	0x3db9dae5	0.09074954
111	0x3e1fee4f	0.15618251
112	0x3bda606f	0.006664328
113	0x3d88bb03	0.06676295
114	0x38b79643	8.7541084e-05
115	0x3df4bf9c	0.11950609
116	0x3e088763	0.13332896
117	0x3dc80c35	0.09767953
118	0x3e37e3a8	0.17957938
119	0x3e7a373d	0.24435134
120	0x3e301336	0.17194828
121	0x39893b00	0.00026174635
122	0x3e227981	0.15866663
123	0x3d1787b1	0.03699464
124	0x3e74c6ec	0.23904008
125	0x3e41b963	0.18918376
126	0x3e6a2325	0.22864969
127	0x3e3d8d4b	0.1851093
128	0x3d277e0b	0.04089169
129	0x3de5928d	0.11209593
130	0x3e8eb5d2	0.27873093
131	0x3ddb185d	0.10698006
132	0x3e43f19a	0.19135132
133	0x3e4c17ef	0.19931005
134	0x3d0b4370	0.03399986
135	0x3e106d35	0.14104159
136	0x3e3093fa	0.17243949
137	0x3d6e2325	0.058138985
138	0x3e044314	0.12916213
139	0x3e081bed	0.13291903
140	0x3dc1df82	0.09466459
141	0x3e1fb223	0.15595298
142	0xb70ca254	-8.382445e-06
143	0x3dc8b93d	0.098009564
144	0x3e1a10e1	0.15045501
145	0x3e058ac7	0.1304122
146	0x3d363900	0.044487953
147	0x3d522f62	0.05131472
148	0x3e0e6759	0.13906612
149	0x3df8f59c	0.12156221
150	0x3e4b9628	0.19881499
151	0x3e5338c5	0.20627125
152	0x3d3b75b6	0.045766555
153	0x3e00a62b	0.12563388
154	0x3e436b6c	0.19083947
155	0x3e342f6e	0.17596218
156	0x3d843e08	0.06457144
157	0x3d527556	0.05138143
158	0x3e532f96	0.20623621
159	0x3eb3e15c	0.35132873
160	0x3ea3d4b7	0.31998226
161	0x3e2409a0	0.16019297
162	0x3d85d0da	0.06533976
163	0x3d9d03f4	0.076667696
164	0x3e1317ac	0.14364499
165	0x3a12d57a	0.00056012685
166	0x3e4a9564	0.1978355
167	0xb8d3942c	-0.00010088863
168	0x3e08c4b4	0.13356286
169	0x3e298546	0.16554746
170	0x3de434bd	0.111428715
171	0x3e4ca8df	0.19986294
172	0x3ddc7ba1	0.10765768
173	0xbda41f41	-0.08013774
174	0x3e5ec6b0	0.21755481
175	0x3e296463	0.165422
176	0x3e529045	0.20562847
177	0x3e8ad6e4	0.27117074
178	0x3e1bbdd4	0.15209132
179	0x3de5a449	0.112129755
180	0x3e9d1c54	0.30685675
181	0x3d954a47	0.07289558
182	0x3e26562a	0.16243806
183	0x3e2fce8e	0.17168638
184	0x3dfb02ea	0.12256415
185	0x3e2a5ba6	0.16636524
186	0x3e0fe2c1	0.14051344
187	0x3de2c4ae	0.1107267
188	0x3e36cf9a	0.17852631
189	0x3e0eac81	0.13932993
190	0x3df9478b	0.12171849
191	0x3e024154	0.12720233
192	0x3e12f40f	0.14350913
193	0xba5171d5	-0.00079896796
194	0xba754767	-0.0009356648
195	0x3cd029af	0.025410501
196	0x3e0cfd0e	0.13768408
197	0x3ac5b867	0.0015084863
198	0x3945c2a6	0.00018859896
199	0x3e316908	0.17325222
200	0x3da0583f	0.078293316
201	0x3d1d174b	0.038352292
202	0x3ddc0ce6	0.10744648
203	0x3d91569e	0.07096599
204	0x3e8c9749	0.2745917
205	0x3e89240d	0.26785317
206	0x3d73dc0d	0.05953603
207	0x3ce37f59	0.027770685
208	0xba01c9bc	-0.000495102
209	0x3e6eeed9	0.233333
210	0x3e89e071	0.26929048
211	0x3e3a23fc	0.1817779
212	0x3e63cf63	0.2224708
213	0x3de02a84	0.10945609
214	0x3d5fdfb8	0.054656714
215	0x3e2a1314	0.1660884
216	0x3c5775f2	0.013150679
217	0x3e75c6fa	0.24001685
218	0xbcd83d8e	-0.026396539
219	0x3e4e7574	0.20161992
220	0x3e1099e8	0.1412121
221	0x3e22f0f8	0.15912235
222	0x3cecdc70	0.028913707
223	0x3e919181	0.28431323
224	0x3e099350	0.13435102
225	0x3b260a3b	0.0025335688
226	0x36c5e622	5.8978485e-06
227	0x3dcba631	0.09943808
228	0x3e055cb2	0.13023642
229	0x3db0d7d0	0.08634913
230	0x3db6df0c	0.089292616
231	0x3e0d75c0	0.1381445
232	0x3c428403	0.011872294
233	0x3e300b64	0.17191845
234	0x3e27d0b3	0.16388206
235	0xbc6e55ac	-0.014546793
236	0x3e5166c6	0.20449361
237	0x3d3f18cd	0.04665451
238	0x3764af7a	1.3630715e-05
239	0x3ded9388	0.11600405
240	0xb6c48a26	-5.857338e-06
241	0x3e811ebd	0.25218764
242	0x3d530939	0.051522467
243	0x3e583cbe	0.21116921
244	0x3d2ee8af	0.042702373
245	0x3d3db3b4	0.046313956
246	0x3d94eff9	0.07272334
247	0x3deac443	0.11463215
248	0x3e4aba98	0.19797742
249	0x37521f2b	1.2524232e-05
250	0x3e7b9ee8	0.24572337
251	0x3e1badc7	0.1520301
252	0x3e447a17	0.19187199
253	0xbdad2312	-0.08453955
254	0x3e295bcf	0.16538928
255	0x3b48824f	0.0030595248

tabnet.initial_bn.bias f4 [1038]
0	0xb7c80785	-2.384536e-05
1	0x3672465f	3.6101771e-06
2	0x3e98f8a9	0.29877213
3	0x38b8187e	8.778366e-05
4	0xb7cc1408	-2.4328023e-05
5	0x383a0eb5	4.4359553e-05
6	0xb7d1b3ee	-2.4998528e-05
7	0xb82b900e	-4.090374e-05
8	0x360b6918	2.0773787e-06
9	0xb400174b	-1.1929403e-07
10	0x3ccabc00	0.024747849
11	0xb580d13b	-9.597637e-07
12	0x384434df	4.677928e-05
13	0x3e66b334	0.22529298
14	0xb81ef139	-3.789479e-05
15	0x388d9f75	6.753105e-05
16	0xb88bcf59	-6.666658e-05
17	0xb8963db7	-7.164053e-05
18	0xb902dfb8	-0.00012481108
19	0xb6052e25	-1.9845404e-06
20	0xb8ad3553	-8.259215e-05
21	0xb8754188	-5.8473583e-05
22	0xb8f9bfee	-0.00011908995
23	0x37cd692e	2.4486882e-05
24	0xb988006b	-0.00025940253
25	0xb9183e61	-0.00014519088
26	0xb980c935	-0.00024563973
27	0xb92cbd21	-0.00016473654
28	0xb8d08baa	-9.944227e-05
29	0x39862c7b	0.00025591612
30	0xb9ef7d30	-0.00045678904
31	0xb79f2713	-1.8972472e-05
32	0xb89a920f	-7.370498e-05
33	0xb89effea	-7.581695e-05
34	0x390f54e2	0.00013669164
35	0xb9a76f21	-0.0003193552
36	0x3913110a	0.0001402536
37	0xb7698901	-1.3919781e-05
38	0xba014b30	-0.0004932163
39	0xbe6ac9a0	-0.22928476
40	0xb4d3ae0b	-3.9428446e-07
41	0xb789b05a	-1.6413793e-05
42	0xb90a60fc	-0.00013196835
43	0xb8ffd3ce	-0.00012198799
44	0x390464af	0.00012626009
45	0x37da401a	2.6017475e-05
46	0x3dcd7e1b	0.10033818
47	0xb9ca0fdb	-0.00038540256
48	0x3a022cb9	0.00049657706
49	0x3e8ba5f0	0.27275038
50	0x392e715a	0.0001663616
51	0xb312b225	-3.4155295e-08
52	0xb70dd6cc	-8.454266e-06
53	0xb9819c7b	-0.00024721384
54	0x37217ba6	9.625137e-06
55	0xb6c6dea7	-5.92678e-06
56	0x387d2e3b	6.0362956e-05
57	0xb9455ab4	-0.00018821174
58	0xb946698a	-0.00018922068
59	0x38ddf79c	0.00010584222
60	0x38c97f12	9.6080956e-05
61	0x2c0e5ac7	2.0229805e-12
62	0x3862b5dd	5.4051972e-05
63	0xb6e2a19c	-6.7541387e-06
64	0x3e7f3048	0.24920762
65	0xb87be71d	-6.0058304e-05
66	0xb298f268	-1.7805363e-08
67	0xb8956224	-7.123154e-05
68	0xb80f9610	-3.4233613e-05
69	0x3999baca	0.00029321603
70	0x37a3a344	1.950714e-05
71	0xb8ce4cb5	-9.837133e-05
72	0x39297331	0.00016160008
73	0xb8618035	-5.3763582e-05
74	0x37b8200d	2.1949434e-05
75	0xb252d814	-1.2272739e-08
76	0x380fd849	3.4295288e-05
77	0x38e2a665	0.00010807513
78	0xaccf5ac8	-5.8933726e-12
79	0x3877b9d3	5.906245e-05
80	0x37563c39	1.2769416e-05
81	0xb8c8b653	-9.570704e-05
82	0x33b6b628	8.5081695e-08
83	0x395fc2a3	0.00021339445
84	0x3759263b	1.2943109e-05
85	0x33e09422	1.0457758e-07
86	0x38759e03	5.855971e-05
87	0x383f72c6	4.564484e-05
88	0xb850409f	-4.9651248e-05
89	0x37386b5f	1.0992254e-05
90	0xb954d210	-0.0002029615
91	0x3859266a	5.1772608e-05
92	0x38c6ce11	9.4797586e-05
93	0x3992ab64	0.00027974986
94	0xb8925b70	-6.978854e-05
95	0xb895248c	-7.111681e-05
96	0x3de6e88e	0.11274825
97	0x3788be40	1.6301055e-05
98	0x39a9b129	0.00032366186
99	0x38b6573b	8.694684e-05
100	0x38af722d	8.365917e-05
101	0xba087fa4	-0.0005207008
102	0x38f5ee81	0.00011726935
103	0xb8e25205	-0.00010791797
104	0x39172ad0	0.00014416431
105	0xb8d02320	-9.9247554e-05
106	0x397c97b3	0.00024089105
107	0xb984707a	-0.00025260804
108	0x391fc932	0.00015238373
109	0xb86fec8c	-5.7202342e-05
110	0xb8d275d8	-0.000100355304
111	0xb7cf8099	-2.4736206e-05
112	0x365402a5	3.1592e-06
113	0xb9a91c1d	-0.00032255138
114	0x3383673c	6.118941e-08
115	0xb70ab467	-8.267444e-06
116	0x380dc8c5	3.3804e-05
117	0x3c935931	0.017986866
118	0xb9dbb899	-0.0004190847
119	0xbe30e566	-0.17275009
120	0xb938170f	-0.00017556197
121	0xb598caff	-1.1383962e-06
122	0xb815bd1e	-3.5700497e-05
123	0xb50aa5bc	-5.165018e-07
124	0x3815411c	3.5585006e-05
125	0x392eb0d8	0.00016659813
126	0x3c50096f	0.012697562
127	0x380c2c8f	3.34201e-05
128	0x376812d9	1.3832666e-05
129	0x370d02ab	8.404876e-06
130	0x39880b05	0.00025948152
131	0x3ee6cc67	0.45077822
132	0xbdaadedf	-0.083432905
133	0x393acadf	0.00017813918
134	0x3e0a76f9	0.13521947
135	0xb905e9ba	-0.00012770938
136	0x3e8ec716	0.27886266
137	0x380f46a4	3.4159646e-05
138	0x381d640f	3.7524904e-05
139	0xb8c4f847	-9.3922536e-05
140	0x37c06cf3	2.2938917e-05
141	0xbea07c1f	-0.31344697
142	0xb2dba149	-2.55683e-08
143	0x390dbaab	0.00013516347
144	0x379deefb	1.8827142e-05
145	0xb97240a9	-0.00023103006
146	0x3897c1bb	7.236326e-05
147	0x3805e2b6	3.1920812e-05
148	0xb8bf164c	-9.111743e-05
149	0x38b89434	8.801409e-05
150	0x396f0a7f	0.00022796726
151	0x38c2d9ff	9.291246e-05
152	0xb7fb4395	-2.9953002e-05
153	0x38bcc79a	9.001717e-05
154	0xb910f418	-0.00013823842
155	0x38fb52f9	0.000119840675
156	0xb7bb48b1	-2.2325987e-05
157	0xb8b66375	-8.6969616e-05
158	0x385cd8b6	5.2653915e-05
159	0xb6e3629b	-6.7766064e-06
160	0x3880dcf2	6.14467e-05
161	0xb89740fe	-7.212347e-05
162	0xb87d2850	-6.0357444e-05
163	0xb7a4d66f	-1.9650177e-05
164	0x3797be30	1.8089166e-05
165	0x34363fe6	1.6973317e-07
166	0xb9de65c0	-0.0004241895
167	0x33b88cb0	8.5937586e-08
168	0xb93dcdd7	-0.00018101126
169	0xbe4bccea	-0.19902387
170	0xb5cba8fb	-1.5173858e-06
171	0x387f9af9	6.0941067e-05
172	0x38874c38	6.4514985e-05
173	0x3859255b	5.177162e-05
174	0xbe420b5b	-0.18949644
175	0x3d839a6e	0.064259395
176	0x3e0c7588	0.1371671
177	0x38a2c498	7.7613804e-05
178	0x37fc2c24	3.0061296e-05
179	0x399b40ee	0.0002961228
180	0x3b5f726f	0.0034095307
181	0x3843dc6b	4.6696903e-05
182	0xb9b5a570	-0.0003464627
183	0xb7253b87	-9.848626e-06
184	0xb6f57814	-7.315548e-06
185	0xb9442a5a	-0.00018707794
186	0xb8678510	-5.5198616e-05
187	0xb9344d20	-0.00017194869
188	0xbe00d5b7	-0.12581526
189	0xb7a6d142	-1.9886185e-05
190	0x38fabe56	0.00011956382
191	0xb717415e	-9.015521e-06
192	0x385be0d4	5.2423056e-05
193	0x35280d28	6.260402e-07
194	0xb6a79bbd	-4.995118e-06
195	0xb6b5789f	-5.4082625e-06
196	0xb97faac4	-0.0002438231
197	0xb677889f	-3.6885392e-06
198	0x34ce947a	3.847852e-07
199	0x3e018b25	0.12650736
200	0x39a88924	0.00032145635
201	0xb832379f	-4.249031e-05
202	0x386092ed	5.3542597e-05
203	0x37d53182	2.5414633e-05
204	0x36dba850	6.5463028e-06
205	0x38e0e564	0.0001072388
206	0x38e5fde8	0.00010966865
207	0x36dc3cdd	6.5635963e-06
208	0x36a4c530	4.9105365e-06
209	0xb91d1b5f	-0.00014982883
210	0xbe31751e	-0.17329833
211	0xb90506c9	-0.00012686396
212	0x3928bb1c	0.00016091432
213	0xb805fd57	-3.1945612e-05
214	0x393aa68b	0.00017800384
215	0x39085193	0.0001300036
216	0x37b912d2	2.2062482e-05
217	0x3821ed55	3.8606424e-05
218	0xbecb0420	-0.39651585
219	0xb8e3c448	-0.00010860764
220	0x396a4f0f	0.0002234543
221	0x388f6a50	6.8385736e-05
222	0xb970d14d	-0.00022966154
223	0x395bb24d	0.0002095189
224	0x38262242	3.960939e-05
225	0xb6ddd392	-6.6109433e-06
226	0xb21a85ea	-8.994428e-09
227	0xb78cc07b	-1.6778931e-05
228	0x3850e397	4.9803024e-05
229	0xb7b1becf	-2.1188896e-05
230	0xb91fb11c	-0.000152294
231	0xb7d7d590	-2.5729445e-05
232	0xb7e94a8a	-2.7810474e-05
233	0xba15a6f0	-0.00057087746
234	0x380fee95	3.4316054e-05
235	0xbe772477	-0.24135004
236	0xb8e4e135	-0.00010913835
237	0x3ebe3b4b	0.37154612
238	0xb3fd9d13	-1.1809802e-07
239	0xb83e20ed	-4.5330195e-05
240	0x323ce23f	1.0994483e-08
241	0x399cb962	0.0002989276
242	0x3717ea9b	9.054925e-06
243	0xb96588da	-0.00021890123
244	0x399b3496	0.00029603083
245	0x3e870ec4	0.26378453
246	0x3809425c	3.2725147e-05
247	0x3835aecd	4.331656e-05
248	0xbccfeaf6	-0.025380593
249	0xb53f1dbb	-7.119631e-07
250	0x39a12774	0.00030737708
251	0x394ccab7	0.00019530473
252	0xbeab2232	-0.33424526
253	0xb842a17c	-4.64036e-05
254	0x3956ce9a	0.00020485595
255	0xb624d87f	-2.4563922e-06

tabnet.initial_bn.running_mean f4 [1038]
0	0xba5db625	-0.00084576226
1	0xba1b46d6	-0.0005923336
2	0x3b3849cd	0.002812016
3	0xb9cfe82a	-0.00039655092
4	0xbb29a81c	-0.0025887555
5	0x3b1d7805	0.0024027836
6	0xbb39efa2	-0.0028371592
7	0x3ab42336	0.0013743404
8	0x3b51903b	0.0031976837
9	0x39eb0ae0	0.00044830795
10	0xbc4f3bdf	-0.012648552
11	0x3a906e74	0.0011019246
12	0xbb134686	-0.0022472455
13	0xbaf50caa	-0.0018695791
14	0xb9944287	-0.00028278326
15	0x3b3957ff	0.002828121
16	0xbba1526a	-0.0049231546
17	0x3ad64e72	0.0016350283
18	0xba4f9d8c	-0.00079198997
19	0x392adc9a	0.00016294644
20	0xbb8d3ec8	-0.0043104626
21	0x3c00a8eb	0.007852773
22	0x3987c8d5	0.00025898838
23	0x3ad97fc5	0.0016593864
24	0x3b32f456	0.002730628
25	0x3b918bb4	0.0044417027
26	0xbaea627b	-0.0017882133
27	0x39d33986	0.00040287914
28	0x3a91a36a	0.0011111323
29	0xba825066	-0.0009942173
30	0xbb590e26	-0.0033120005
31	0xbc017303	-0.007900956
32	0xbbcd70b7	-0.00626954
33	0x3c4d9726	0.012548244
34	0xbb2465d1	-0.0025085101
35	0x3aa2a43d	0.0012408566
36	0xbb678871	-0.0035329128
37	0xbab336d8	-0.0013672961
38	0xbc1c81ee	-0.009552462
39	0xbd3842e2	-0.04498566
40	0x3cd85469	0.026407437
41	0xbbc20eca	-0.005922173
42	0x3bbc27f3	0.005742067
43	0x3b14e1dd	0.0022717633
44	0x3bd5d1fb	0.0065252758
45	0x3b7c491b	0.0038495723
46	0xbbaa642c	-0.0051999297
47	0x37b699eb	2.1767764e-05
48	0x3b5ac0a7	0.003337899
49	0x3ae06a18	0.0017121462
50	0x3b9923df	0.0046734656
51	0xb8ad887e	-8.2747065e-05
52	0xbd52f264	-0.051500693
53	0xbb184719	-0.0023235737
54	0xb98069d1	-0.00024492902
55	0xbb3869d1	-0.0028139243
56	0x3bae0588	0.005310718
57	0x3b3902d2	0.002823044
58	0x3a76356f	0.00093921175
59	0x3bacf42a	0.00527813
60	0xbcd1c3e8	-0.02560611
61	0xbb6758eb	-0.0035300802
62	0xbb0ba8ca	-0.0021310323
63	0x3ac10d81	0.0014728756
64	0xbc039fe1	-0.008033724
65	0xbc441e62	-0.011970134
66	0xba41e5f7	-0.0007396633
67	0x3aa8d65b	0.0012881266
68	0x3a206a36	0.0006119342
69	0xbd641644	-0.055685297
70	0x3af236e5	0.0018479495
71	0x3b0b6d91	0.0021275023
72	0x3b026668	0.0019897465
73	0x3ac7e31f	0.0015250182
74	0xbc9a9135	-0.018868068
75	0xbb9352db	-0.004495961
76	0x3c1ab8aa	0.009443441
77	0xbd434bd5	-0.04767974
78	0x3a65a56a	0.00087603054
79	0x3b1a816d	0.002357568
80	0x3b2f204c	0.0026722131
81	0xbaeeac3a	-0.0018209286
82	0x3bd2fdb6	0.006438936
83	0x3ada05f3	0.0016633853
84	0x3bde9b32	0.006793403
85	0x3ab61841	0.0013892726
86	0x3a4a092e	0.00077070564
87	0x3a1f577c	0.0006078405
88	0x3c2c7686	0.010526305
89	0xba71b7f3	-0.0009220831
90	0x3ba8170c	0.0051297005
91	0x3b5e4bc6	0.0033919676
92	0x3a9c7d7f	0.0011939256
93	0x3bb1dd5f	0.005428001
94	0x3b51a802	0.003199101
95	0x3b1d4de3	0.0024002723
96	0xbb9b883e	-0.004746466
97	0x39c40c14	0.00037393032
98	0xbc0ca05f	-0.008583157
99	0x3bd01a1c	0.0063507687
100	0xbc0e8dd7	-0.008700809
101	0x3b09705a	0.0020971508
102	0x3c9686ac	0.018374763
103	0x3b72ef6f	0.0037068983
104	0x3bb7ab0f	0.0056051086
105	0xbb238178	-0.0024948996
106	0x3b5325fc	0.0032218685
107	0x3b36be0b	0.002788427
108	0x3b3a9cd8	0.0028474834
109	0x3aeb42a3	0.0017948936
110	0x3b8f7000	0.004377365
111	0x3b0595d4	0.0020383494
112	0x3b8b4f36	0.004251386
113	0xbb666752	-0.0035156799
114	0x3a1fa513	0.00060899666
115	0xbcb9ff71	-0.022704812
116	0x3b4b2321	0.003099628
117	0xbb10e9bc	-0.0022111973
118	0x3b4fe2d7	0.00317209
119	0x39d4ab1e	0.00040563283
120	0x3b20d163	0.0024538867
121	0x3b8b2531	0.004246377
122	0xbbe3210e	-0.0069314307
123	0xba3580e6	-0.00069238094
124	0xbb8d076d	-0.0043038637
125	0x3cdbe406	0.026842128
126	0xba6d481f	-0.00090515794
127	0xb9c188d5	-0.00036913776
128	0x3b16ce57	0.0023011172
129	0x3b426ed9	0.002966812
130	0xbc734c00	-0.014849663
131	0x3b55610f	0.0032559072
132	0x3bd7a1ec	0.006580582
133	0x3d14878e	0.036262088
134	0x3bbc4ec3	0.005746694
135	0xbaa63a0d	-0.0012682095
136	0xbb03e787	-0.0020127015
137	0xb783f5c3	-1.5730859e-05
138	0x3b2cf5ae	0.0026391554
139	0x3b674771	0.0035290385
140	0x3b2aa520	0.0026038364
141	0x3bb635d9	0.0055606184
142	0x3b84279b	0.0040330417
143	0xbb3b9248	-0.0028621126
144	0x3b8ffc45	0.0043940865
145	0xba7af005	-0.0009572509
146	0x3b9c020b	0.0047609857
147	0x3aa18b44	0.001232483
148	0x3b1c995b	0.0023895118
149	0x3c1ad622	0.009450467
150	0x3b0da587	0.0021613555
151	0x3bc4214d	0.005985415
152	0xbb75214f	-0.0037403887
153	0xbbcf2cf4	-0.0063224975
154	0xbbf01889	-0.0073271436
155	0xbb2f87b1	-0.002678376
156	0x390fa19b	0.00013697745
157	0x3b2af954	0.0026088553
158	0xbb1ab31d	-0.0023605295
159	0xbb8b6a42	-0.0042546103
160	0x3cee84f5	0.029116133
161	0x3b870895	0.004120896
162	0xbb8df97e	-0.0043327203
163	0xbaedf7f2	-0.0018155559
164	0xbb185abf	-0.0023247448
165	0x3bd8a23b	0.0066111363
166	0xbacdc0f7	-0.0015697767
167	0x3b9ae4bd	0.0047269748
168	0xbaa93080	-0.0012908131
169	0xbb4975bd	-0.0030740343
170	0xbb9a769c	-0.0047138464
171	0x3ad27c4d	0.0016058773
172	0x3c451a12	0.012030141
173	0x3b30cdce	0.0026978138
174	0xbadd5277	-0.0016885538
175	0xbb251272	-0.0025187996
176	0x3b0b41dc	0.0021248972
177	0x3ab92049	0.0014124002
178	0x3b8e2141	0.0043374603
179	0x3b5175d4	0.00319611
180	0xbc2b2c5d	-0.010447589
181	0x3a8d8972	0.0010798408
182	0x3ac2988f	0.0014846491
183	0x3af407b0	0.0018618014
184	0xb9cb34ed	-0.0003875861
185	0xbbc4b32d	-0.0060028047
186	0x3a293740	0.0006455071
187	0xbc96981d	-0.01838308
188	0xbbca8e50	-0.0061815158
189	0x3b13a99f	0.0022531522
190	0xbbeb0a14	-0.0071728323
191	0xbbcfc675	-0.0063407966
192	0xb850ec72	-4.981127e-05
193	0x3b02b4c2	0.0019944166
194	0x3a336fc1	0.0006844961
195	0xbb4ddbb3	-0.0031411469
196	0xbad83df5	-0.0016497957
197	0xbc9789df	-0.01849836
198	0x3b27e421	0.0025618153
199	0x3bc70ce1	0.0060745333
200	0xbb7fea9c	-0.003904975
201	0xb9a4563c	-0.00031344767
202	0x3af771d6	0.001887853
203	0x3bc1a9b0	0.005910121
204	0xbc1946ad	-0.009355229
205	0xbb647b33	-0.0034863472
206	0xbbd3fe66	-0.0064695356
207	0xba2d7276	-0.0006616482
208	0xb90419d9	-0.0001259813
209	0x399600be	0.00028610782
210	0x3c5c06b6	0.013429334
211	0xb965fedd	-0.00021934086
212	0x3a96668f	0.0011474657
213	0x3b8390ce	0.004015065
214	0x3ac71dda	0.0015191392
215	0x3b884ef2	0.0041598016
216	0x3b0fe112	0.002195422
217	0x3b7bc503	0.0038416989
218	0xbafcfd77	-0.0019301613
219	0x3ae5dc8c	0.0017537042
220	0x39de2ca6	0.00042376405
221	0xbb59a1d6	-0.0033208034
222	0x3aa55ff5	0.0012617098
223	0x3b4f3d80	0.003162235
224	0x3b2f20b9	0.0026722385
225	0x3af1ba44	0.0018442352
226	0x3b3817cf	0.0028090363
227	0xbc14f6e7	-0.009092069
228	0x3b1d1169	0.0023966676
229	0x3b881b70	0.0041536614
230	0xbd934d47	-0.07192474
231	0xbafd9c88	-0.0019349018
232	0xbb3a4f1f	-0.0028428508
233	0xb9368d04	-0.00017409405
234	0xba9950ba	-0.0011697032
235	0xbaadcdbe	-0.0013260168
236	0xbbc75d28	-0.006084103
237	0x3bae157d	0.00531262
238	0x3a191340	0.0005839355
239	0x39a8d9c6	0.0003220571
240	0x3a838222	0.001003329
241	0xbb267446	-0.0025398894
242	0xbaa20943	-0.0012362379
243	0xbb4141bb	-0.0029488641
244	0xb91076e0	-0.00013777195
245	0x3b8bf36d	0.004270962
246	0xb9e368c7	-0.0004337488
247	0x3a19f76c	0.00058733555
248	0x3b84f599	0.004057598
249	0xbb1fa2d7	-0.0024358535
250	0x3cccd341	0.025003077
251	0xbb566220	-0.0032712296
252	0xbc1a2727	-0.009408749
253	0x3b7385b7	0.0037158558
254	0x3a5fdee5	0.0008539989
255	0xbb170878	-0.002304582

tabnet.initial_bn.running_var f4 [1038]
0	0x3accdf0e	0.001563044
1	0x3a90314f	0.0011001023
2	0x3f7e0a47	0.9923443
3	0x3f773b65	0.96575004
4	0x3f787440	0.97052383
5	0x3f784db6	0.9699358
6	0x3f78643d	0.9702795
7	0x3f765e8d	0.96238023
8	0x3f76e60a	0.9644476
9	0x3f7aa2f5	0.979049
10	0x3f892012	1.0712912
11	0x3f78582c	0.9700954
12	0x3f791ecc	0.9731262
13	0x3f7c4823	0.9854757
14	0x3f78a109	0.9712072
15	0x3f7ebb2f	0.9950437
16	0x3f7a4fab	0.97777814
17	0x3f78b6cc	0.97153926
18	0x3f7c315f	0.98512834
19	0x3f7ab59c	0.97933364
20	0x3f78eac5	0.9723323
21	0x3f7a0f8a	0.9767996
22	0x3f7a07ee	0.9766835
23	0x3f78c86d	0.97180825
24	0x3f797faa	0.97460425
25	0x3f776b33	0.9664795
26	0x3f7a6d70	0.9782324
27	0x3f78b11e	0.9714526
28	0x3f794bd6	0.9738134
29	0x3f79e320	0.9761219
30	0x3f79291b	0.97328347
31	0x3f7a81e9	0.9785448
32	0x3f7ab3e7	0.9793076
33	0x3f86d0ed	1.0532509
34	0x3f7888a7	0.97083515
35	0x3f7ac6aa	0.9795939
36	0x3f7cd3d7	0.9876074
37	0x3f795e7f	0.97409815
38	0x3f7e66e3	0.9937574
39	0x3fa409a5	1.2815443
40	0x3f9814ba	1.1881325
41	0x3f794941	0.973774
42	0x3f8050d2	1.0024664
43	0x3f792e13	0.9733593
44	0x3f787b59	0.97063214
45	0x3f7bee3f	0.9841041
46	0x3f77c222	0.967806
47	0x3f7a2d66	0.9772552
48	0x3f82a7b7	1.0207433
49	0x3f7a957e	0.97884357
50	0x3f7ee710	0.99571323
51	0x3f7aa698	0.9791045
52	0x3fa8a011	1.3173848
53	0x3f7825a7	0.9693245
54	0x3f7a6c93	0.9782192
55	0x3f7a7bc7	0.9784512
56	0x3f7ad608	0.97982836
57	0x3f7efdc1	0.9960595
58	0x3f796b6b	0.9742953
59	0x3f7d49b5	0.98940593
60	0x3f91508c	1.1352706
61	0x3f7c56bd	0.9856985
62	0x3f77d366	0.96806943
63	0x3f7c4b6e	0.98552597
64	0x3f850ae3	1.0393947
65	0x3f866996	1.0500972
66	0x3f79571c	0.97398543
67	0x3f7d0a8f	0.98844236
68	0x3f782ab6	0.9694017
69	0x3fb1b33a	1.3882821
70	0x3f77a35b	0.96733636
71	0x3f79510c	0.9738929
72	0x3f790443	0.9727213
73	0x3f783c5e	0.96967113
74	0x3f8e84f0	1.1134319
75	0x3f77fe08	0.96871996
76	0x3f851644	1.039742
77	0x3fa8b0e8	1.3178988
78	0x3f76dc01	0.9642945
79	0x3f7a0ea0	0.97678566
80	0x3f78dfdd	0.9721659
81	0x3f779eab	0.96726483
82	0x3f78791c	0.970598
83	0x3f79f4b1	0.97638994
84	0x3f77f518	0.9685836
85	0x3f78cd86	0.97188604
86	0x3f78279d	0.96935445
87	0x3f78d161	0.97194487
88	0x3f833075	1.0249163
89	0x3f792c9e	0.97333705
90	0x3f79789e	0.9744967
91	0x3f78cf54	0.9719136
92	0x3f7b1902	0.98085034
93	0x3f81f7ba	1.0153725
94	0x3f7acdfa	0.97970545
95	0x3f7aaf2b	0.97923535
96	0x3f791444	0.9729655
97	0x3f7b1a9e	0.9808749
98	0x3f820731	1.0158445
99	0x3f82925b	1.0200914
100	0x3f80b463	1.005505
101	0x3f7a480d	0.9776619
102	0x3f8ae876	1.0852191
103	0x3f767961	0.9627896
104	0x3f7b957e	0.9827498
105	0x3f793c6b	0.97357816
106	0x3f788ea6	0.97092664
107	0x3f784654	0.9698231
108	0x3f8092a6	1.0044754
109	0x3f792f93	0.9733822
110	0x3f79d2c1	0.9758721
111	0x3f7889c0	0.9708519
112	0x3f79905a	0.9748589
113	0x3f7b6ed0	0.9821596
114	0x3f78ee3d	0.9723852
115	0x3f8ddef4	1.1083665
116	0x3f79e776	0.97618806
117	0x3f79f25f	0.97635454
118	0x3f7be9b2	0.98403466
119	0x3f7b7aca	0.98234236
120	0x3f777ca9	0.9667459
121	0x3f79741c	0.97442794
122	0x3f7841e8	0.96975565
123	0x3f802b78	1.0013266
124	0x3f77a611	0.9673777
125	0x3f950086	1.1640785
126	0x3f78c4cc	0.9717529
127	0x3f794e38	0.9738498
128	0x3f7abf04	0.97947717
129	0x3f770118	0.96486044
130	0x3f8cd256	1.100169
131	0x3f76160e	0.961274
132	0x3f814522	1.0099223
133	0x3f9970bc	1.1987529
134	0x3f80a257	1.0049542
135	0x3f7cfb4d	0.98820955
136	0x3f78388f	0.969613
137	0x3f78fbdf	0.97259325
138	0x3f78c165	0.97170097
139	0x3f794d58	0.9738364
140	0x3f7b3f05	0.98143035
141	0x3f7adaf6	0.9799036
142	0x3f7ac4cb	0.9795653
143	0x3f76ea3e	0.96451175
144	0x3f7c9890	0.9867029
145	0x3f77fbf3	0.9686882
146	0x3f810e00	1.0082397
147	0x3f7afcdb	0.98042077
148	0x3f7e7be0	0.9940777
149	0x3f83b406	1.0289314
150	0x3f7f839c	0.99810195
151	0x3f7a0286	0.976601
152	0x3f791a75	0.97305995
153	0x3f773a37	0.96573204
154	0x3f839a13	1.0281395
155	0x3f7684bd	0.9629629
156	0x3f7ab076	0.9792551
157	0x3f82056d	1.0157906
158	0x3f7abd35	0.97944957
159	0x3f7a8c86	0.9787067
160	0x3f92d1e7	1.1470307
161	0x3f7941d2	0.9736606
162	0x3f7cec0c	0.9879768
163	0x3f79abb8	0.97527647
164	0x3f793c2f	0.9735746
165	0x3f83d7cb	1.030023
166	0x3f8113f7	1.0084218
167	0x3f7959a2	0.97402394
168	0x3f79eae9	0.9762407
169	0x3f7b0cc2	0.9806634
170	0x3f79f939	0.9764591
171	0x3f7bc1d0	0.9834261
172	0x3f84fdbc	1.0389934
173	0x3f79de5b	0.9760491
174	0x3f78b411	0.9714976
175	0x3f79c748	0.97569704
176	0x3f791c0d	0.9730843
177	0x3f7a4a00	0.97769165
178	0x3f7a0f57	0.97679657
179	0x3f7e56b2	0.99351037
180	0x3f8b7751	1.0895787
181	0x3f79a418	0.9751601
182	0x3f791ca0	0.97309303
183	0x3f7cfeb5	0.9882615
184	0x3f7a189a	0.9769379
185	0x3f817fa2	1.0117075
186	0x3f767c03	0.96282977
187	0x3f8fe3e2	1.1241419
188	0x3f7b21dc	0.9809854
189	0x3f79801f	0.9746112
190	0x3f7856c3	0.9700739
191	0x3f812c63	1.0091671
192	0x3f79e1e6	0.9761032
193	0x3f78c7ab	0.9717967
194	0x3f78b122	0.97145283
195	0x3f782452	0.9693042
196	0x3f7a0be0	0.9767437
197	0x3f8c6d90	1.0970936
198	0x3f7923f0	0.9732046
199	0x3f80f156	1.007365
200	0x3f7ada2c	0.97989154
201	0x3f77b16c	0.967551
202	0x3f7a9fda	0.97900164
203	0x3f898753	1.0744423
204	0x3f8a6311	1.0811483
205	0x3f78a8a4	0.97132325
206	0x3f7cf1a6	0.98806226
207	0x3f781164	0.96901536
208	0x3f7a2841	0.9771767
209	0x3f78520a	0.9700018
210	0x3f89b107	1.075715
211	0x3f77a5f4	0.967376
212	0x3f79adb3	0.9753067
213	0x3f77feb5	0.9687303
214	0x3f7a5bb6	0.9779619
215	0x3f7d1400	0.9885864
216	0x3f77e201	0.9682923
217	0x3f81939f	1.0123175
218	0x3f7af03e	0.9802283
219	0x3f7b1310	0.9807596
220	0x3f78d1a7	0.97194904
221	0x3f7844d6	0.96980035
222	0x3f78406d	0.96973306
223	0x3f79fe77	0.9765391
224	0x3f7899b5	0.9710954
225	0x3f7842f3	0.96977156
226	0x3f796cd5	0.9743169
227	0x3f7933ca	0.9734465
228	0x3f851d77	1.0399617
229	0x3f797963	0.97450846
230	0x3fbc83b1	1.4727689
231	0x3f792dc3	0.9733545
232	0x3f79e80e	0.9761971
233	0x3f80c209	1.0059215
234	0x3f7be48a	0.983956
235	0x3f799163	0.9748747
236	0x3f79611c	0.974138
237	0x3f7ec714	0.9952252
238	0x3f7b26e2	0.98106205
239	0x3f77c075	0.9677804
240	0x3f779fbf	0.9672813
241	0x3f7ae682	0.98007977
242	0x3f78b3d9	0.97149426
243	0x3f7b3139	0.9812198
244	0x3f77de90	0.9682398
245	0x3f8099e7	1.0046967
246	0x3f7c2a88	0.985024
247	0x3f7bbb34	0.98332524
248	0x3f774f5c	0.9660547
249	0x3f7a4ce6	0.9777359
250	0x3f9398c6	1.1530998
251	0x3f7b2a46	0.9811138
252	0x3f86d32c	1.0533195
253	0x3f8102e3	1.0079006
254	0x3f79ebc1	0.97625357
255	0x3f788883	0.970833

tabnet.initial_splitter.shared.shared_layers.0.weight f4 [96, 1038]
0	0x3a3023ea	0.0006719219
1	0x3b66f5f3	0.0035241812
2	0x3e1afc11	0.15135218
3	0x399398a9	0.00028151766
4	0x3b4549a5	0.003010371
5	0x3b95240c	0.0045514163
6	0xba468e37	-0.0007574292
7	0xb9f28c5d	-0.00046262416
8	0x3867a9f1	5.5232962e-05
9	0xb59a2ab7	-1.1486326e-06
10	0xbdce1c16	-0.10063951
11	0xb7f7dfc4	-2.9548894e-05
12	0xbbb46cf3	-0.005506152
13	0xbdac7769	-0.08421213
14	0xbb418c47	-0.0029533075
15	0x3b45559c	0.0030110842
16	0xbafdf741	-0.0019376056
17	0xba3ff44d	-0.00073224754
18	0xbb24ecde	-0.0025165598
19	0x3682600b	3.885483e-06
20	0xb9733c0c	-0.00023196655
21	0xbbb00bb7	-0.0053724903
22	0xbbb3c160	-0.0054856986
23	0x38093884	3.271598e-05
24	0xbace4fbb	-0.0015740314
25	0xb98a2280	-0.00026347116
26	0xbb925e2b	-0.004466792
27	0xbab29963	-0.0013626035
28	0xbacc78f9	-0.0015600018
29	0x3b85609c	0.0040703546
30	0xbb6dc807	-0.0036282556
31	0x3b8a885e	0.004227682
32	0x3bfe0909	0.007752542
33	0xb99278a0	-0.00027937163
34	0xbb862ebb	-0.004094926
35	0xbbce9483	-0.006304325
36	0x3b33099c	0.002731896
37	0xb8708216	-5.734161e-05
38	0xbb49f70f	-0.0030817424
39	0xbcaacf4f	-0.020850806
40	0xb7567438	-1.2782453e-05
41	0xbb2dbed4	-0.0026511448
42	0xbb5fef44	-0.0034169713
43	0xbb3d5efa	-0.0028895722
44	0xb99ef391	-0.0003031758
45	0x375c96c4	1.3148125e-05
46	0x3baa8ab7	0.0052045244
47	0xbb453fe1	-0.003009789
48	0x3bd03aa3	0.0063546463
49	0xbe20a45a	-0.15687695
50	0xbb73967c	-0.0037168553
51	0xb5da5143	-1.6265916e-06
52	0x3b5a8f7f	0.003334969
53	0xbb0e01bc	-0.0021668514
54	0x3b0f9ea9	0.0021914637
55	0xb9276708	-0.00015964743
56	0x3a1954fa	0.00058491493
57	0xbb772843	-0.0037713207
58	0xbbdbbb71	-0.0067056944
59	0x3c10758c	0.008817088
60	0xba65da74	-0.0008768209
61	0xaf28f7a7	-1.5367495e-10
62	0x3b264d81	0.0025375786
63	0xb901868d	-0.00012352523
64	0xbe31fadd	-0.17380853
65	0xbb9ca629	-0.00478055
66	0xb5a572e8	-1.23269e-06
67	0xbb1935f5	-0.0023378108
68	0xba2dd267	-0.00066307787
69	0x3aceebcf	0.0015786829
70	0x3bdef947	0.0068046185
71	0xbaaaea67	-0.0013039828
72	0x39c7a4db	0.00038079065
73	0x3a5a0e84	0.0008318203
74	0x3a39fd22	0.00070949097
75	0xb5687808	-8.6601403e-07
76	0x3b7ec672	0.0038875607
77	0x3aa3444b	0.0012456266
78	0x3105e4cb	1.94841e-09
79	0xbaaa1a58	-0.0012977822
80	0xba93f9d2	-0.0011289662
81	0xbb099379	-0.0020992442
82	0xb4985fdb	-2.838195e-07
83	0x3b8a1695	0.004214118
84	0xb891cdf6	-6.952502e-05
85	0xb61bf6df	-2.3240498e-06
86	0x3a9ff897	0.0012204823
87	0x3b706141	0.0036679062
88	0xba73cdd2	-0.0009300384
89	0xb9974e18	-0.0002885915
90	0xb92cb5a7	-0.00016470869
91	0x3af3ae54	0.0018591383
92	0x3b2d2998	0.0026422497
93	0x3b274310	0.002552215
94	0xb91a7609	-0.00014730556
95	0x3a9c744b	0.0011936513
96	0xbd09face	-0.03368645
97	0xb9733cc4	-0.00023196923
98	0x3b66c8ca	0.0035214894
99	0x3ac61c72	0.0015114679
100	0xbb1b153a	-0.0023663775
101	0x3ab77808	0.0013997564
102	0xb966c5d4	-0.00022008206
103	0xbb6b7c4b	-0.0035932239
104	0x3abb019b	0.0014267446
105	0x39052028	0.00012695848
106	0x3b7fa472	0.003900793
107	0xb46a2ee1	-2.1810003e-07
108	0xb9f7da91	-0.00047274356
109	0xbba54d1b	-0.005044592
110	0xbb1740ef	-0.0023079475
111	0x394bda74	0.00019440969
112	0x38897245	6.5539534e-05
113	0xb9cc5625	-0.00038974095
114	0x360bd7ba	2.0838183e-06
115	0x3a74254a	0.0009313418
116	0x3b6e2493	0.0036337718
117	0xb9125fdd	-0.00013959357
118	0xbbb1a3f6	-0.005421157
119	0x3d00ca04	0.031442657
120	0x3b3fe829	0.0029282665
121	0x3735e8da	1.0842656e-05
122	0xbb2f04ce	-0.0026705745
123	0xb9fd3e81	-0.0004830249
124	0x3bbdc378	0.005791124
125	0x3bad913f	0.0052968557
126	0xbbc9fb1b	-0.0061639673
127	0xba7125ec	-0.0009199071
128	0x39a572be	0.00031556742
129	0xb9c9d5a9	-0.00038496897
130	0xbac5e8eb	-0.0015099322
131	0x3d7ffb6f	0.062495645
132	0x3d0c2832	0.03421802
133	0xba3768fb	-0.00069965393
134	0x3de92f48	0.11385971
135	0xbbbf8801	-0.0058450704
136	0xbd8077b4	-0.062728316
137	0x3ae5b029	0.0017523813
138	0x3b06b4c2	0.0020554517
139	0x3a32cf53	0.0006821055
140	0x3b01b284	0.0019790241
141	0xbdead9bc	-0.11467311
142	0xb50e17d7	-5.2933814e-07
143	0x3af08c1d	0.0018352304
144	0x3b4944a3	0.0030711077
145	0xbb66352e	-0.0035126912
146	0x3b2093c2	0.0024502133
147	0x3a03a3ba	0.00050216506
148	0xba8a40c3	-0.0010547865
149	0x3b023b01	0.0019871595
150	0xbb1937a4	-0.0023379112
151	0xbb1849bc	-0.0023237308
152	0xbaad7f6d	-0.0013236828
153	0x3b4c14cb	0.0031140323
154	0xbbea76bb	-0.007155267
155	0x3b35f846	0.002776639
156	0x3ada2877	0.001664414
157	0x3a90b638	0.0011040634
158	0x3b930232	0.0044863457
159	0x3c0b4f4f	0.008502795
160	0x3ae4e2aa	0.0017462571
161	0xbb1b3d25	-0.0023687568
162	0x3b5c4076	0.0033607758
163	0x3a3bc072	0.00071621605
164	0x3a176469	0.0005775155
165	0x36a75598	4.9869523e-06
166	0xbb31e967	-0.0027147175
167	0x3622b503	2.4245244e-06
168	0x3bc4624d	0.0059931637
169	0x3bc4870a	0.005997543
170	0xba627d9a	-0.0008639932
171	0xbb74bb0f	-0.003734294
172	0xb90a1689	-0.000131691
173	0x3a8d7392	0.0010791889
174	0x3d02d48f	0.031940993
175	0xbd525e0d	-0.051359225
176	0xbc1470ad	-0.009060067
177	0x3a915840	0.0011088923
178	0xbab51bad	-0.0013817452
179	0x3b383448	0.0028107334
180	0xbd18c047	-0.037292745
181	0x3ab2441d	0.0013600622
182	0x3b1cf55d	0.002394996
183	0xba755c79	-0.0009359788
184	0xbaa54efc	-0.001261204
185	0x3a2c70ff	0.0006578117
186	0xbb504a0c	-0.0031782417
187	0xbb7339c8	-0.0037113298
188	0xbd897085	-0.067109145
189	0xb9fa3d6c	-0.0004772948
190	0x3b154fdd	0.0022783198
191	0xba5c241c	-0.00083977147
192	0x3b091291	0.0020915607
193	0x370f0a92	8.525925e-06
194	0xb86b0bbd	-5.60393e-05
195	0xb9384139	-0.00017571905
196	0xba078d12	-0.00051708624
197	0xb7b4c280	-2.1548243e-05
198	0xb5c6bbe9	-1.4806839e-06
199	0x3b4974a7	0.0030739696
200	0xb9c29cb9	-0.0003711933
201	0xb9ec743e	-0.00045100035
202	0x3bae780b	0.005324369
203	0xba449d12	-0.0007500212
204	0x3b83fbe8	0.0040278323
205	0x3b805a98	0.0039170496
206	0x3a0c772a	0.0005358333
207	0x3a2e6c47	0.0006653708
208	0x38a9b635	8.092487e-05
209	0x3b4a0a97	0.0030829066
210	0xbcebc48c	-0.028780244
211	0xbbcde143	-0.006282957
212	0x3b5bb19d	0.0033522614
213	0xba9a7a40	-0.0011785701
214	0x3a0a717c	0.0005281193
215	0xbb1df752	-0.0024103713
216	0xb922ed93	-0.00015538027
217	0x3b6a739a	0.003577447
218	0x3d1d1dee	0.03835862
219	0xbb9a5054	-0.004709283
220	0x3b26c4fb	0.0025447
221	0x3b234ba3	0.002491691
222	0xbb263784	-0.002536268
223	0x3b26f274	0.0025474103
224	0xba8820b7	-0.0010385726
225	0xb92ff541	-0.00016780665
226	0xb3c40e35	-9.1295455e-08
227	0x37c91f5d	2.3975672e-05
228	0x3b2b4fff	0.002614021
229	0xbad537ed	-0.0016267278
230	0xbb97cdb1	-0.0046326746
231	0x3b8203ba	0.0039677294
232	0xb800f11a	-3.074212e-05
233	0xbbf46b22	-0.0074590603
234	0x3ae2ed88	0.0017313221
235	0x3d8baca0	0.06820035
236	0xbb607fbd	-0.0034255825
237	0x3d9ecd84	0.07754043
238	0xb6c3dfb4	-5.8374953e-06
239	0xbac89e4a	-0.0015305963
240	0x341541ce	1.3900646e-07
241	0x3af44d1b	0.0018638702
242	0xb8fa9411	-0.000119485085
243	0xbaefc078	-0.0018291613
244	0x3b43535b	0.0029804322
245	0x3b065dc1	0.002050266
246	0x3a97c74d	0.0011579782
247	0xbad6d45f	-0.0016390196
248	0xbcfe0fb4	-0.031013347
249	0x373aa225	1.1124216e-05
250	0x3c1affe5	0.009460424
251	0x3a6c6884	0.00090182596
252	0xbe3e734f	-0.18598674
253	0xba0ee607	-0.0005451147
254	0x3c17968c	0.009252202
255	0xb98543f1	-0.00025418357

tabnet.initial_splitter.shared.shared_layers.1.weight f4 [96, 48]
0	0x3e8d8c6e	0.27646202
1	0xbda2bfdb	-0.0794675
2	0x3c3dde00	0.011588573
3	0x3c7a3600	0.015271664
4	0xbd8ff17a	-0.0702848
5	0xbc1151d0	-0.008869603
6	0xb889b7ce	-6.566905e-05
7	0xbce2154b	-0.027598044
8	0xbc14364f	-0.009046151
9	0x3d0fff79	0.035155747
10	0xbca227d7	-0.019794388
11	0x3ce5a690	0.028033525
12	0xbc439c60	-0.011939138
13	0x38f93217	0.00011882575
14	0x3b8dc094	0.0043259356
15	0xbd725e28	-0.059171826
16	0x3c958178	0.018250212
17	0x3c344052	0.011001663
18	0x3af46507	0.0018645831
19	0xbd063220	-0.032762647
20	0xbd0d9a73	-0.034571122
21	0xbd0ec3bb	-0.034854632
22	0xbbc8c634	-0.0061271433
23	0xbc66249b	-0.014046813
24	0xbadbef84	-0.0016779755
25	0x3a76f979	0.00094213296
26	0xba472bba	-0.00075977633
27	0xb7c8a912	-2.3920587e-05
28	0xbae85d6a	-0.0017728035
29	0x3a9a5746	0.0011775277
30	0x399eba99	0.00030275134
31	0x3a06934b	0.00051336427
32	0x3a2b7d51	0.0006541806
33	0xba35d1ee	-0.0006935884
34	0xb9fde039	-0.0004842298
35	0x398e571f	0.0002714926
36	0x372576a1	9.862387e-06
37	0xb99d5550	-0.00030008936
38	0x3a5fb73f	0.00085340807
39	0xbc215fe0	-0.009849519
40	0x3adf4985	0.001703546
41	0xbbc669e7	-0.006055105
42	0x3ae1beee	0.0017223039
43	0x3a06a0fc	0.0005135683
44	0x3a39edcd	0.0007092625
45	0xba68fc31	-0.0008887677
46	0x3983a3a8	0.000251082
47	0x3a93a7ff	0.0011265277
48	0xbd63fcdc	-0.055661067
49	0x3eb6595c	0.3561505
50	0x3cd06354	0.025437988
51	0x3c8c31aa	0.017113525
52	0xbd4cb43a	-0.049976565
53	0xbd48bb57	-0.049006786
54	0xbd0978f5	-0.03356262
55	0x3c6ab9c5	0.0143265175
56	0xbd457d59	-0.048215244
57	0x3c982c52	0.018575821
58	0xbca5b441	-0.020227553
59	0xbcf929fc	-0.030415528
60	0xbaff48d0	-0.0019476656
61	0x3946ad29	0.00018947259
62	0x3d130343	0.035891782
63	0xbd14fa68	-0.03637162
64	0xbb3c3389	-0.002871724
65	0xbca8c39c	-0.020601086
66	0xbca301ec	-0.019898377
67	0x3c535fb2	0.0129012335
68	0xbc8245fd	-0.015902514
69	0xbd00365a	-0.031301834
70	0xbb13e651	-0.00225677
71	0x3ca92c10	0.020650893
72	0x37ac207b	2.0519123e-05
73	0xba0f0ad8	-0.0005456633
74	0x3933b265	0.00017137227
75	0x3b9a6e80	0.0047128797
76	0xbb2a4ef2	-0.0025986996
77	0xbb069b61	-0.002053939
78	0xb9208e0f	-0.0001531171
79	0x3853d6bc	5.0506307e-05
80	0xb94cdb26	-0.00019536595
81	0xb8bd0420	-9.0129906e-05
82	0x396394f1	0.00021703892
83	0x382ebf2a	4.1662868e-05
84	0x35829381	9.728684e-07
85	0xba6d3211	-0.0009048293
86	0xba8abc61	-0.0010584706
87	0xbc43e6a0	-0.011956841
88	0xba0b9ae7	-0.00053255114
89	0xbb6d5b34	-0.0036217691
90	0x386c95f4	5.640644e-05
91	0x3922f3c9	0.00015540341
92	0xb9169ea1	-0.00014364209
93	0xb8bed6f3	-9.0999434e-05
94	0x39ba040d	0.00035479703
95	0x395b274e	0.0002090011
96	0x3c6f7461	0.014615149
97	0x3c2df400	0.010617256
98	0x3da9a378	0.08283132
99	0x3d4d2ddf	0.050092574
100	0x3c47a1d7	0.012184582
101	0xbd374bae	-0.04474991
102	0xbc648980	-0.013948798
103	0xbc828e82	-0.015937094
104	0xbcdf9076	-0.027290564
105	0xbd5c71b6	-0.05381938
106	0xbcce2005	-0.025161752
107	0xbd1f5098	-0.03889522
108	0xbdabd0b9	-0.0838942
109	0x3a52e7f0	0.00080454256
110	0xbdb073e3	-0.08615854
111	0xbb000fa9	-0.0019540584
112	0xbd49e1b4	-0.049287513
113	0xbc43b8ac	-0.011945885
114	0x3d707702	0.058707245
115	0x3c2ef9e9	0.0106797
116	0xbd10e3ea	-0.035373606
117	0xbc01df1d	-0.0079267295
118	0xbcc99c33	-0.024610614
119	0xbcabd7d0	-0.02097693
120	0x392b546a	0.00016339277
121	0xb960e9af	-0.00021449359
122	0xb97d53cb	-0.00024159176
123	0xb9425f73	-0.0001853684
124	0x3a78640c	0.00094753574
125	0x3a24b0ec	0.0006282467
126	0x3a0ec506	0.0005446229
127	0xb8a8dddb	-8.052188e-05
128	0xba0f35aa	-0.00054630137
129	0xb8b4dbbe	-8.623999e-05
130	0xb8ae4fa9	-8.3118044e-05
131	0x38170499	3.6005487e-05
132	0xb5d056ca	-1.5522467e-06
133	0xb6f43c2f	-7.278773e-06
134	0xba731a63	-0.0009273646
135	0xbc01c916	-0.007921478
136	0xba8be334	-0.001067257
137	0x3c071f2d	0.008247179
138	0xb9913e0f	-0.00027702792
139	0xb7921197	-1.7412747e-05
140	0xb7beffeb	-2.2768936e-05
141	0x39265b30	0.00015864964
142	0x3a142c18	0.00056523224
143	0x397bfdb4	0.00024031737
144	0x3c8d9333	0.017282104
145	0xba05d6af	-0.0005105538
146	0x3d060576	0.03272005
147	0x3e360a4f	0.1777737
148	0x3cb876ca	0.02251758
149	0xbc53da41	-0.012930454
150	0xbd880a49	-0.06642587
151	0xb98584c9	-0.0002546667
152	0x3c32a2ae	0.010903044
153	0xbc0eb4b3	-0.008710074
154	0x3b2616f8	0.002534328
155	0x3cde8d9e	0.027167138
156	0xbb61f368	-0.0034477357
157	0x3a08695d	0.00052036886
158	0xbd03e8ff	-0.032204624
159	0xbaadc81d	-0.0013258491
160	0x3cc050bf	0.023476003
161	0xbd8dae5c	-0.06918022
162	0xbca2dd25	-0.01988084
163	0xba41f107	-0.00073982816
164	0xbdfb1680	-0.12260151
165	0xbd716e44	-0.058943048
166	0x3c9f939c	0.019479565
167	0xba83a798	-0.0010044454
168	0x395bcc56	0.00020961589
169	0xba338fdb	-0.0006849744
170	0xb95ab1f5	-0.00020856394
171	0xba20132f	-0.0006106374
172	0x3b21c915	0.0024686505
173	0x39877c3c	0.00025841768
174	0x3743e16a	1.1675389e-05
175	0xb9990769	-0.00029187955
176	0xb991cff5	-0.00027811495
177	0x391fced8	0.00015240477
178	0x396c6c3f	0.00022547039
179	0xb914ed97	-0.00014202889
180	0xb72e5a45	-1.0392226e-05
181	0x372327bb	9.724808e-06
182	0xba823c47	-0.0009936177
183	0x3a8f50c8	0.0010934109
184	0x390b6967	0.00013295338
185	0x3b341152	0.0027476144
186	0x38eddf50	0.00011342636
187	0x37cdd1b0	2.4535548e-05
188	0xb8f7c56a	-0.00011814649
189	0x3907d296	0.00012953053
190	0x3a02cc3e	0.0004989541
191	0x397c2d6b	0.00024049512
192	0xbd70b4ec	-0.05876629
193	0xbd928396	-0.07154004
194	0x3c135fa6	0.008994972
195	0xbbfbebc8	-0.0076880194
196	0x3ea99fed	0.33129826
197	0xbbbe2e5e	-0.0058038672
198	0xbc4b85d6	-0.012422046
199	0x3cb9f486	0.022699606
200	0xbb4c8a87	-0.0031210498
201	0xbce099c1	-0.027417066
202	0xbd413168	-0.047166258
203	0xbd048a22	-0.032358296
204	0xbd594570	-0.053044736
205	0xb9389537	-0.00017603194
206	0xbcef107b	-0.029182663
207	0xbd697673	-0.056997728
208	0xbb1f9dc1	-0.0024355503
209	0xbc864239	-0.016389
210	0xbd6048d2	-0.054756947
211	0xbd45dcae	-0.04830616
212	0xbd33ef82	-0.043929584
213	0xbd6982d1	-0.057009522
214	0xbbd720b3	-0.0065651773
215	0x3caa7216	0.020806354
216	0x3b238c3d	0.0024955415
217	0xbb3a37e4	-0.002841466
218	0xbaa680a1	-0.0012703129
219	0x3abcbc66	0.0014399409
220	0x3ae36814	0.0017349743
221	0x38e82292	0.00011069061
222	0xb9f540d2	-0.00046778336
223	0xbadebdb1	-0.0016993788
224	0xb89c8673	-7.463703e-05
225	0x3a836fd4	0.0010027834
226	0x3b0d1940	0.0021529943
227	0x3a846d11	0.0010103305
228	0xb910fa85	-0.00013826236
229	0x3a5a29bb	0.00083222584
230	0xbb3fe205	-0.0029279005
231	0x3a3169b9	0.0006767768
232	0x3af00a43	0.0018313605
233	0x3a18cc19	0.0005828753
234	0x3a99bf9c	0.0011730078
235	0xba21b108	-0.00061680423
236	0xbaa0543b	-0.0012232134
237	0x3b61db29	0.0034462905
238	0x39917b39	0.00027748363
239	0xbb08c95f	-0.002087198
240	0x3ab99828	0.0014159726
241	0x3b2b6629	0.0026153421
242	0xbbfad721	-0.00765504
243	0xbcc7d4d5	-0.024393478
244	0x3cfcd9f1	0.030865641
245	0x3ecc66c3	0.3992215
246	0xbd3dd964	-0.046349898
247	0xbcf97534	-0.030451395
248	0xbd86c77b	-0.06581017
249	0x3c80aaa9	0.015706377
250	0xbcbcab18	-0.023030803
251	0xbcff1670	-0.031138629
252	0xbc72952f	-0.014806076
253	0x3a9386b4	0.0011255355
254	0x3d057301	0.03258038
255	0xbc1c6d8a	-0.0095476005

tabnet.initial_splitter.shared.glu_layers.0.fc.weight f4 [96, 1038]
0	0x3a3023ea	0.0006719219
1	0x3b66f5f3	0.0035241812
2	0x3e1afc11	0.15135218
3	0x399398a9	0.00028151766
4	0x3b4549a5	0.003010371
5	0x3b95240c	0.0045514163
6	0xba468e37	-0.0007574292
7	0xb9f28c5d	-0.00046262416
8	0x3867a9f1	5.5232962e-05
9	0xb59a2ab7	-1.1486326e-06
10	0xbdce1c16	-0.10063951
11	0xb7f7dfc4	-2.9548894e-05
12	0xbbb46cf3	-0.005506152
13	0xbdac7769	-0.08421213
14	0xbb418c47	-0.0029533075
15	0x3b45559c	0.0030110842
16	0xbafdf741	-0.0019376056
17	0xba3ff44d	-0.00073224754
18	0xbb24ecde	-0.0025165598
19	0x3682600b	3.885483e-06
20	0xb9733c0c	-0.00023196655
21	0xbbb00bb7	-0.0053724903
22	0xbbb3c160	-0.0054856986
23	0x38093884	3.271598e-05
24	0xbace4fbb	-0.0015740314
25	0xb98a2280	-0.00026347116
26	0xbb925e2b	-0.004466792
27	0xbab29963	-0.0013626035
28	0xbacc78f9	-0.0015600018
29	0x3b85609c	0.0040703546
30	0xbb6dc807	-0.0036282556
31	0x3b8a885e	0.004227682
32	0x3bfe0909	0.007752542
33	0xb99278a0	-0.00027937163
34	0xbb862ebb	-0.004094926
35	0xbbce9483	-0.006304325
36	0x3b33099c	0.002731896
37	0xb8708216	-5.734161e-05
38	0xbb49f70f	-0.0030817424
39	0xbcaacf4f	-0.020850806
40	0xb7567438	-1.2782453e-05
41	0xbb2dbed4	-0.0026511448
42	0xbb5fef44	-0.0034169713
43	0xbb3d5efa	-0.0028895722
44	0xb99ef391	-0.0003031758
45	0x375c96c4	1.3148125e-05
46	0x3baa8ab7	0.0052045244
47	0xbb453fe1	-0.003009789
48	0x3bd03aa3	0.0063546463
49	0xbe20a45a	-0.15687695
50	0xbb73967c	-0.0037168553
51	0xb5da5143	-1.6265916e-06
52	0x3b5a8f7f	0.003334969
53	0xbb0e01bc	-0.0021668514
54	0x3b0f9ea9	0.0021914637
55	0xb9276708	-0.00015964743
56	0x3a1954fa	0.00058491493
57	0xbb772843	-0.0037713207
58	0xbbdbbb71	-0.0067056944
59	0x3c10758c	0.008817088
60	0xba65da74	-0.0008768209
61	0xaf28f7a7	-1.5367495e-10
62	0x3b264d81	0.0025375786
63	0xb901868d	-0.00012352523
64	0xbe31fadd	-0.17380853
65	0xbb9ca629	-0.00478055
66	0xb5a572e8	-1.23269e-06
67	0xbb1935f5	-0.0023378108
68	0xba2dd267	-0.00066307787
69	0x3aceebcf	0.0015786829
70	0x3bdef947	0.0068046185
71	0xbaaaea67	-0.0013039828
72	0x39c7a4db	0.00038079065
73	0x3a5a0e84	0.0008318203
74	0x3a39fd22	0.00070949097
75	0xb5687808	-8.6601403e-07
76	0x3b7ec672	0.0038875607
77	0x3aa3444b	0.0012456266
78	0x3105e4cb	1.94841e-09
79	0xbaaa1a58	-0.0012977822
80	0xba93f9d2	-0.0011289662
81	0xbb099379	-0.0020992442
82	0xb4985fdb	-2.838195e-07
83	0x3b8a1695	0.004214118
84	0xb891cdf6	-6.952502e-05
85	0xb61bf6df	-2.3240498e-06
86	0x3a9ff897	0.0012204823
87	0x3b706141	0.0036679062
88	0xba73cdd2	-0.0009300384
89	0xb9974e18	-0.0002885915
90	0xb92cb5a7	-0.00016470869
91	0x3af3ae54	0.0018591383
92	0x3b2d2998	0.0026422497
93	0x3b274310	0.002552215
94	0xb91a7609	-0.00014730556
95	0x3a9c744b	0.0011936513
96	0xbd09face	-0.03368645
97	0xb9733cc4	-0.00023196923
98	0x3b66c8ca	0.0035214894
99	0x3ac61c72	0.0015114679
100	0xbb1b153a	-0.0023663775
101	0x3ab77808	0.0013997564
102	0xb966c5d4	-0.00022008206
103	0xbb6b7c4b	-0.0035932239
104	0x3abb019b	0.0014267446
105	0x39052028	0.00012695848
106	0x3b7fa472	0.003900793
107	0xb46a2ee1	-2.1810003e-07
108	0xb9f7da91	-0.00047274356
109	0xbba54d1b	-0.005044592
110	0xbb1740ef	-0.0023079475
111	0x394bda74	0.00019440969
112	0x38897245	6.5539534e-05
113	0xb9cc5625	-0.00038974095
114	0x360bd7ba	2.0838183e-06
115	0x3a74254a	0.0009313418
116	0x3b6e2493	0.0036337718
117	0xb9125fdd	-0.00013959357
118	0xbbb1a3f6	-0.005421157
119	0x3d00ca04	0.031442657
120	0x3b3fe829	0.0029282665
121	0x3735e8da	1.0842656e-05
122	0xbb2f04ce	-0.0026705745
123	0xb9fd3e81	-0.0004830249
124	0x3bbdc378	0.005791124
125	0x3bad913f	0.0052968557
126	0xbbc9fb1b	-0.0061639673
127	0xba7125ec	-0.0009199071
128	0x39a572be	0.00031556742
129	0xb9c9d5a9	-0.00038496897
130	0xbac5e8eb	-0.0015099322
131	0x3d7ffb6f	0.062495645
132	0x3d0c2832	0.03421802
133	0xba3768fb	-0.00069965393
134	0x3de92f48	0.11385971
135	0xbbbf8801	-0.0058450704
136	0xbd8077b4	-0.062728316
137	0x3ae5b029	0.0017523813
138	0x3b06b4c2	0.0020554517
139	0x3a32cf53	0.0006821055
140	0x3b01b284	0.0019790241
141	0xbdead9bc	-0.11467311
142	0xb50e17d7	-5.2933814e-07
143	0x3af08c1d	0.0018352304
144	0x3b4944a3	0.0030711077
145	0xbb66352e	-0.0035126912
146	0x3b2093c2	0.0024502133
147	0x3a03a3ba	0.00050216506
148	0xba8a40c3	-0.0010547865
149	0x3b023b01	0.0019871595
150	0xbb1937a4	-0.0023379112
151	0xbb1849bc	-0.0023237308
152	0xbaad7f6d	-0.0013236828
153	0x3b4c14cb	0.0031140323
154	0xbbea76bb	-0.007155267
155	0x3b35f846	0.002776639
156	0x3ada2877	0.001664414
157	0x3a90b638	0.0011040634
158	0x3b930232	0.0044863457
159	0x3c0b4f4f	0.008502795
160	0x3ae4e2aa	0.0017462571
161	0xbb1b3d25	-0.0023687568
162	0x3b5c4076	0.0033607758
163	0x3a3bc072	0.00071621605
164	0x3a176469	0.0005775155
165	0x36a75598	4.9869523e-06
166	0xbb31e967	-0.0027147175
167	0x3622b503	2.4245244e-06
168	0x3bc4624d	0.0059931637
169	0x3bc4870a	0.005997543
170	0xba627d9a	-0.0008639932
171	0xbb74bb0f	-0.003734294
172	0xb90a1689	-0.000131691
173	0x3a8d7392	0.0010791889
174	0x3d02d48f	0.031940993
175	0xbd525e0d	-0.051359225
176	0xbc1470ad	-0.009060067
177	0x3a915840	0.0011088923
178	0xbab51bad	-0.0013817452
179	0x3b383448	0.0028107334
180	0xbd18c047	-0.037292745
181	0x3ab2441d	0.0013600622
182	0x3b1cf55d	0.002394996
183	0xba755c79	-0.0009359788
184	0xbaa54efc	-0.001261204
185	0x3a2c70ff	0.0006578117
186	0xbb504a0c	-0.0031782417
187	0xbb7339c8	-0.0037113298
188	0xbd897085	-0.067109145
189	0xb9fa3d6c	-0.0004772948
190	0x3b154fdd	0.0022783198
191	0xba5c241c	-0.00083977147
192	0x3b091291	0.0020915607
193	0x370f0a92	8.525925e-06
194	0xb86b0bbd	-5.60393e-05
195	0xb9384139	-0.00017571905
196	0xba078d12	-0.00051708624
197	0xb7b4c280	-2.1548243e-05
198	0xb5c6bbe9	-1.4806839e-06
199	0x3b4974a7	0.0030739696
200	0xb9c29cb9	-0.0003711933
201	0xb9ec743e	-0.00045100035
202	0x3bae780b	0.005324369
203	0xba449d12	-0.0007500212
204	0x3b83fbe8	0.0040278323
205	0x3b805a98	0.0039170496
206	0x3a0c772a	0.0005358333
207	0x3a2e6c47	0.0006653708
208	0x38a9b635	8.092487e-05
209	0x3b4a0a97	0.0030829066
210	0xbcebc48c	-0.028780244
211	0xbbcde143	-0.006282957
212	0x3b5bb19d	0.0033522614
213	0xba9a7a40	-0.0011785701
214	0x3a0a717c	0.0005281193
215	0xbb1df752	-0.0024103713
216	0xb922ed93	-0.00015538027
217	0x3b6a739a	0.003577447
218	0x3d1d1dee	0.03835862
219	0xbb9a5054	-0.004709283
220	0x3b26c4fb	0.0025447
221	0x3b234ba3	0.002491691
222	0xbb263784	-0.002536268
223	0x3b26f274	0.0025474103
224	0xba8820b7	-0.0010385726
225	0xb92ff541	-0.00016780665
226	0xb3c40e35	-9.1295455e-08
227	0x37c91f5d	2.3975672e-05
228	0x3b2b4fff	0.002614021
229	0xbad537ed	-0.0016267278
230	0xbb97cdb1	-0.0046326746
231	0x3b8203ba	0.0039677294
232	0xb800f11a	-3.074212e-05
233	0xbbf46b22	-0.0074590603
234	0x3ae2ed88	0.0017313221
235	0x3d8baca0	0.06820035
236	0xbb607fbd	-0.0034255825
237	0x3d9ecd84	0.07754043
238	0xb6c3dfb4	-5.8374953e-06
239	0xbac89e4a	-0.0015305963
240	0x341541ce	1.3900646e-07
241	0x3af44d1b	0.0018638702
242	0xb8fa9411	-0.000119485085
243	0xbaefc078	-0.0018291613
244	0x3b43535b	0.0029804322
245	0x3b065dc1	0.002050266
246	0x3a97c74d	0.0011579782
247	0xbad6d45f	-0.0016390196
248	0xbcfe0fb4	-0.031013347
249	0x373aa225	1.1124216e-05
250	0x3c1affe5	0.009460424
251	0x3a6c6884	0.00090182596
252	0xbe3e734f	-0.18598674
253	0xba0ee607	-0.0005451147
254	0x3c17968c	0.009252202
255	0xb98543f1	-0.00025418357
