cv_steps/tabnet_raw_step1_fold4_0/network.pt (torch, 682379 bytes, 56 tensors)

embedder.embeddings.0.weight f4 [3, 1]
00000000: 529d 4fbd 67e7 bb3d 07a3 f7bc
-0.05068714 0.09174996 -0.030229105

embedder.embeddings.1.weight f4 [2, 1]
00000000: f9d7 e1bc 12d1 e13c
-0.027568804 0.027565513

tabnet.initial_bn.weight f4 [1038]
00000000: a979 3a3d 721b 1c3e 1953 773d eb1e f13d
00000010: 1759 1d3d cdfa ba3d a5ab 413e 0ae2 d03d
00000020: 2c2b c33d 4346 d4b7 a2d8 8e3e 6bd0 d23a
00000030: 87c3 953b 3c77 633e 52b5 1b3e 4d5e 293d
00000040: 1b98 0c3e 1a8f b03d f7f3 9a3d 5f94 8e3d
00000050: 9277 113e 6a38 c33d 85b3 8c3e d3d5 993d
00000060: 542b 1b3e e081 ba3d 99c0 973d 8416 0e3e
00000070: 7a24 e23d f016 233e b3db 453e effc 223e
00000080: 8c5a 5c3e 4fbe 9b3d 2958 013e e1d3 853e
00000090: c41c 6e3e 26af de3d cdf0 2f3e 9e7c 523e
000000a0: 343a 513d c88a 333e e053 2a3d 7e45 bc3d
000000b0: 5bb4 563d 42ab 9b3d 6acf a63c 86b2 373e
000000c0: 0131 b13d 680c 323e b866 733e 796e 863d
000000d0: 5ea8 ef3d c207 593e aa19 7a3c 00f8 a83c
000000e0: 3047 193e b8e6 9f3d ba86 1ebb d528 483e
000000f0: 8f08 693e 4a9b d03a 8adf 783e d369 33bb
00000100: eecb 263e 5584 2d3e 6dc2 3cb8 856f 3e3e
00000110: ef55 923d f94f 143e 42cd 193e aef5 073e
00000120: d129 a33c 322f ab3d 329f 003e c18f 1a3e
00000130: 20e8 0d3b 8990 9c3e d1a8 fd3a 44fb e33d
00000140: a7de 8d3d 6803 ab3b f94c 4839 f19c a33c
00000150: a9e8 ce3b 1311 ed3b 7974 d53d f3c0 183e
00000160: f4af 293e 8d4c c03d 3ce8 fe3d 3b57 9c3d
00000170: d8c5 2b3e 9665 903e a330 f83d 20ac 133e
00000180: c67f 263e a652 013e 5264 cf3d f591 9f3c
00000190: 06a6 ad3d 08b3 2a3e 95e2 8d3d 63b6 223c
000001a0: a944 523e 80f8 413e 5c72 dc3c c17f c93d
000001b0: f6bc f23d 5961 073e 287f 873d 0167 163e
000001c0: 309a 163e 2d92 8c3d 2d8f c23b 632a 113e
000001d0: 4bc0 103e 67bd f63d 8d5f 1c3e 221d 583e
000001e0: 2019 b63d 7a84 0dbc d201 423e 93cc 963b
000001f0: d59c 0c3e 877b 443e b732 473e 046f 3d3e
00000200: 00e8 c03c df2d df3d e55b 153e 72de 0fbd
00000210: 7fba 043e 5f15 383e a6d0 ef3b 53d7 0a3e
00000220: 3eab 113e 5762 893d 2c42 873d a51f 0a3e
00000230: d18b e63d 92ee 053e 7adc 153e 20db ab3c
00000240: 078a f23d 4735 203e 4f37 633e a6c6 2f3e
00000250: d6e7 2b3e 0a10 a53d 8c9b 083e 5dc7 3d3e
00000260: f2f6 633d 9a16 9e3d c9c4 0d3e 9037 f33d
00000270: 8afb 043e c9e1 873d 5568 4a3e 6206 863e
00000280: 9c36 923e 8914 d63d e97f a83d 04db f83d
00000290: 63c8 423e fc87 8ebb 992b dd3d 1106 9e38
000002a0: 968a 333e 6378 ea3d 7138 1a3e 67e2 563e
000002b0: 078e a03d 4733 c93d dcbf 793d 1c10 553e
000002c0: aaeb 2c3e 783a 613e a2a5 133e 603d 8f3d
000002d0: f2d1 a63e dbda 663d c048 f43d cef0 2e3e
000002e0: 90ee 843d fe07 d33d 8f18 2b3e 4607 e83d
000002f0: 6956 fa3d e5a8 f83d 28c7 e53d 1e10 953d
00000300: dc39 9f3d 1c76 763c 1d97 f636 ab4a eb3d
00000310: e2bd de3d 4ee5 893c f9a6 8d3b ee5b 123e
00000320: 1982 1d3e cf53 8e3d ff88 c43d a38b c33d
00000330: aeb7 563e 8083 473e ea95 2abb 5d1c 0b3e
00000340: 9210 1c3e ac11 413e e42a 703e baa5 303e
00000350: 9c8b 883d e321 c13d 9a46 1b3e 937c 2c3e
00000360: 6e33 46ba c2cf 403d b56d 913d cd82 653e
00000370: dfae 1b3e a905 bf3d 7390 6c3d 421c 503e
00000380: 3ace dc3d ee51 163d 7fcd a93d 7859 4a3d
00000390: 4a4a 0a3e e1f4 b63d 9eff 2f3e 09e0 1a3e
000003a0: 6ed2 693d 67be 603e 604d a43d 54c1 d73d
000003b0: 616b 843d 7716 6a3e 49ad d33d 9664 d63d
000003c0: 6c99 ad3c a6bd 4b3e 92c1 a13d 088d 163e
000003d0: f217 083d db30 ca3c 99eb 1e3e e8c0 9b3d
000003e0: 0014 3f3e 5f0c d83c cdff 4f3e da13 973d
000003f0: eecd 703d c5f2 ab3c 8cb9 283d 57fa e63d
0.04552618 0.15244845 0.060381982 0.11773475 0.03841504 0.09129868 0.18913133 0.101993635
0.09529719 -2.5305088e-05 0.27899653 0.0016083842 0.004570428 0.22213453 0.15205887 0.041349698
0.13729899 0.086210445 0.07566064 0.06961893 0.14205769 0.095322445 0.27480713 0.07511487
0.15153247 0.09106803 0.07409782 0.13875777 0.110421136 0.15926719 0.1932209 0.15916799
0.21518916 0.07604658 0.12631287 0.26138213 0.2325316 0.10873251 0.17181702 0.2055535
0.051080897 0.1753341 0.041583896 0.09192942 0.052418094 0.07601024 0.020362575 0.17939195
0.08651925 0.17387545 0.23769653 0.0656404 0.11702035 0.21194366 0.015264908 0.020626068
0.14968562 0.07807678 -0.002418919 0.19546826 0.22757171 0.001591542 0.24304023 -0.0027376309
0.1628873 0.16945012 -4.5003766e-05 0.18597229 0.07145297 0.14483632 0.15019706 0.13277313
0.0199174 0.08358611 0.12560728 0.150939 0.002165325 0.30579022 0.0019352679 0.111319095
0.06927233 0.005218912 0.00019102161 0.019972296 0.0063143563 0.0072347014 0.10422606 0.14917354
0.16571027 0.09389601 0.12446639 0.076338254 0.1677469 0.28202504 0.12118652 0.14421129
0.16259679 0.12629184 0.101265565 0.019478777 0.08478932 0.16669858 0.06927983 0.00993118
0.20534004 0.18942451 0.02691 0.0983882 0.11852448 0.13220729 0.0661605 0.1468773
0.14707255 0.06863818 0.005937478 0.14176326 0.14135854 0.120478444 0.15270825 0.21104863
0.08891511 -0.008637542 0.18946007 0.004602024 0.13731702 0.19187747 0.1945294 0.1849938
0.023548126 0.10897421 0.14585836 -0.03512425 0.12961768 0.17976902 0.007318574 0.13558702
0.1422548 0.0670821 0.06604418 0.13488634 0.112571366 0.13079289 0.14634886 0.02097851
0.11842733 0.15645324 0.22189067 0.17165622 0.16787657 0.080597 0.13340586 0.18533082
0.055655427 0.07719155 0.13844599 0.11875832 0.1298658 0.06634862 0.19766362 0.26176745
0.2855729 0.104531355 0.08227522 0.12151149 0.19021754 -0.0043497067 0.10799331 7.535157e-05
0.17533335 0.11448743 0.15060593 0.20984803 0.078395896 0.098242335 0.060973987 0.20806926
0.16886774 0.2199496 0.14418653 0.06994128 0.3258205 0.05636106 0.119279385 0.17084047
0.06490815 0.10304259 0.16708587 0.11329512 0.12223513 0.12141589 0.11219627 0.07278465
0.07774708 0.015042808 7.348963e-06 0.11488851 0.10876061 0.016832974 0.004322883 0.14292881
0.1538166 0.06949579 0.095964424 0.09548118 0.20968506 0.19483757 -0.0026029297 0.13585038
0.15240696 0.18854398 0.23453861 0.1725072 0.066672534 0.094302915 0.15163651 0.16844396
-0.0007560764 0.047073133 0.07101003 0.22413178 0.15203427 0.093272515 0.057754945 0.2032328
0.10781522 0.036699228 0.082911484 0.04940173 0.13504902 0.08933426 0.17187354 0.15124525
0.057085447 0.21947633 0.080225706 0.10534921 0.064657934 0.22860132 0.10335786 0.10468404
0.021191321 0.19896564 0.07898249 0.14702237 0.03322596 0.0246815 0.15519561 0.07605153
0.18659973 0.026373086 0.20312424 0.07376833 0.05879014 0.020989785 0.041192576 0.11278217

tabnet.initial_bn.bias f4 [1038]
00000000: afb2 1a3f 2307 e2b7 2870 bbb7 11e6 65b7
00000010: 393b 8f3e 8585 a83e 2c44 86b7 0ff2 81b9
00000020: 8b74 2a3b 5326 5135 35f3 3db8 371a 1236
00000030: 076c a436 00e9 30b8 d7f9 e437 1454 bbba
00000040: 76aa d23a 62fe 2ab7 fcb2 87b8 d53a 7039
00000050: 515c ceb5 6865 1238 d2c1 c137 14f1 62b6
00000060: 3140 72b8 465e 59b8 79ca 58b7 e9b4 e03d
00000070: 45ae 8dba 7d51 04bb dd2f 123b fa07 313a
00000080: f7ee afb7 f0b1 0eb5 014a a6b7 bd56 b438
00000090: 91f5 c737 255b e03a 2aae 0c39 a61d 14b8
000000a0: 9059 1737 9c77 cd3a 92c0 0737 e526 87b8
000000b0: ab5d ac3a 4083 e735 26e6 2bb5 c884 0738
000000c0: d074 ad36 533f c138 e0f7 afb8 0294 48ba
000000d0: 2f43 5335 6008 85ba ac86 4336 2efa 78b8
000000e0: f29c 82b8 aea1 9237 511c 6cb7 a04e 5eb8
000000f0: d4b6 3ebc 5d72 ee33 1fdb 0c39 f620 b7b6
00000100: 0333 05b7 4d29 37b8 1ec6 82b3 d8f7 3bb5
00000110: fb63 0eb8 ab9f f737 7344 fab7 d822 85ba
00000120: 0ca9 1638 e583 afba dc08 6ebe 7fbd 12b8
00000130: 212d 9134 487b e538 fd1e d9b5 1969 6438
00000140: 3ed9 e137 64ec 0137 9685 1db4 b82f 68b8
00000150: e282 0fb7 17a4 a336 72df fd35 9a38 deb7
00000160: b6e6 a7b7 a4a9 9eb8 7252 4eb7 96bf 83bb
00000170: c9d2 3b39 ea79 81b8 dda8 7c38 9445 26b8
00000180: cb96 0b3a 275e 5d38 f9f3 23b8 12df 1db8
00000190: 9d16 a037 8ecd 5635 3097 7c3e ba1b b9b7
000001a0: 5554 0eb9 6101 9cb9 0ff1 c4b9 6d5c 9d36
000001b0: 80b4 1d38 dbd8 ddb6 65db b2b7 3965 5db8
000001c0: 4f68 2538 2ac8 3c38 ea31 aab6 a2a7 edb7
000001d0: 8077 023a a2d6 0e38 1242 da39 ef3e 3938
000001e0: bb83 a937 a334 7b35 56d1 5b37 f3ba 32b4
000001f0: cfd3 5638 0ff0 74b8 a571 2e38 7e25 923c
00000200: 0157 0a37 aa6a e637 0469 cfba bf10 a63e
00000210: 7780 fb3c 6b2f d3b8 04a9 85b5 0a93 a8b4
00000220: 118c c538 c2c4 3538 71ab 3db7 1dbe 87ba
00000230: 55d6 e73a 2150 b7b7 3eab a7ba bd52 0338
00000240: b999 d4b8 3144 8bb7 da5b 5ebc 3127 8638
00000250: 0ffb e3b7 9676 0a38 c4a7 73b9 ff29 8538
00000260: 7309 4437 459c 8db6 ce9e 7f37 63a1 5537
00000270: 36ec 8c38 a5ac bab8 2e72 45b8 ed61 d03c
00000280: 1ddf 0139 9eb8 1838 4b58 2b38 3976 4eb7
00000290: 00a2 a0b9 b7d1 bf3e d744 3736 af9e f533
000002a0: 8272 5837 e9a8 f638 6f0e 79bc ca85 8ebc
000002b0: 027b d438 71a1 9bb8 5f40 baba 8f59 65bc
000002c0: ec11 6ebb 6e18 11b7 2e86 5d38 2501 93b8
000002d0: 95b8 21b9 f24f a03e 776b e438 aa82 26b9
000002e0: dd3c 77b7 e4b3 72be 812d 2536 8c84 73b7
000002f0: 3e62 36b7 d340 3c38 a29e d037 db7a ef36
00000300: 906f 82b9 cb40 a5b4 e7d7 5cb7 4365 0e38
00000310: 1acc 65b5 665d 2537 b14d 2f39 1a0f 2638
00000320: a314 69b8 a8ee 34ba 8154 5b38 97ac 1834
00000330: 28f8 fbb7 aac5 8bb7 b065 8836 67d3 fab7
00000340: 9260 2439 0203 19b8 b2dc a0bd a673 3138
00000350: 012c c8be d3a1 12b8 d5f8 c637 598e 1738
00000360: 206b 3135 d067 c437 1c1c b6b8 08be acb8
00000370: 9646 9137 f067 0f37 adff 3638 379b 1eb8
00000380: b8d3 ca39 6d80 0fb7 d432 d5b7 4918 6db8
00000390: 37dd 5eb7 d1e9 0338 5f68 12b8 e906 9d3b
000003a0: 8122 23b7 e433 ad38 d967 2239 0e5c 54b8
000003b0: c56d 18b7 5f76 88bb 21ee 513b ad6d 06b8
000003c0: 96f0 93b6 3261 bbb8 8754 36b8 27c3 3ab8
000003d0: d656 ecb6 c5fd b23e 3d59 ca34 5a59 5939
000003e0: 3829 d638 f689 04b7 c809 26ba b562 6b37
000003f0: f452 69b7 8ae5 1ab9 b0d2 92b7 c6f7 6eb8
0.604289 -2.6944623e-05 -2.2344364e-05 -1.370303e-05 0.2797487 0.32914367 -1.600579e-05 -0.00024785145
0.0026009406 7.7914336e-07 -4.5287616e-05 2.1770954e-06 4.900157e-06 -4.2178668e-05 2.7296059e-05 -0.0014292025
0.001607253 -1.0192018e-05 -6.47064e-05 0.000229101 -1.5375064e-06 3.4903554e-05 2.3097647e-05 -3.381695e-06
-5.775708e-05 -5.182463e-05 -1.2921745e-05 0.10972006 -0.0010809383 -0.0020190172 0.002230636 0.0006753203
-2.0972902e-05 -5.3158055e-07 -1.9823203e-05 8.599225e-05 2.3837e-05 0.0017117007 0.00013416322 -3.5313562e-05
9.021154e-06 0.0015675905 8.091463e-06 -6.444546e-05 0.0013150474 1.724904e-06 -6.4037374e-07 3.231017e-05
5.1694005e-06 9.214752e-05 -8.3908206e-05 -0.00076514494 7.870139e-07 -0.0010149591 2.9135654e-06 -5.9360806e-05
-6.2281164e-05 1.7479844e-05 -1.4073289e-05 -5.300215e-05 -0.011640269 1.1103541e-07 0.0001343307 -5.457662e-06
-7.939295e-06 -4.3669064e-05 -6.089634e-08 -7.002359e-07 -3.3948552e-05 2.9519046e-05 -2.9834197e-05 -0.0010157479
3.5920224e-05 -0.0013390748 -0.23245567 -3.4985595e-05 2.704119e-07 0.00010942534 -1.6176779e-06 5.4457316e-05
2.6923251e-05 7.744038e-06 -1.4670363e-07 -5.5357552e-05 -8.553938e-06 4.876881e-06 1.8915e-06 -2.649082e-05
-2.0015385e-05 -7.565625e-05 -1.2297753e-05 -0.0040206416 0.00017912233 -6.1739076e-05 6.0238748e-05 -3.9642284e-05
0.0005324899 5.2778192e-05 -3.9089446e-05 -3.7639467e-05 1.9084016e-05 8.0020334e-07 0.24667048 -2.206663e-05
-0.00013573591 -0.00029755666 -0.00037563636 4.6897244e-06 3.759982e-05 -6.6115585e-06 -2.1321417e-05 -5.2784777e-05
3.943621e-05 4.500911e-05 -5.0722056e-06 -2.8330662e-05 0.00049769133 3.405533e-05 0.00041629426 4.416605e-05
2.0207712e-05 9.3581383e-07 1.3102157e-05 -1.6645554e-07 5.1218838e-05 -5.8397705e-05 4.1590672e-05 0.017840143
8.245698e-06 2.7467806e-05 -0.0015824144 0.3243465 0.030700905 -0.00010070096 -9.958462e-07 -3.1399424e-07
9.4197814e-05 4.3337008e-05 -1.1305195e-05 -0.0010356341 0.0017687777 -2.1852613e-05 -0.0012792123 3.130989e-05
-0.00010137581 -1.6601845e-05 -0.013571704 6.396918e-05 -2.7177417e-05 3.3012206e-05 -0.00023236783 6.3497566e-05
1.168471e-05 -4.2203196e-06 1.5236159e-05 1.2733365e-05 6.719718e-05 -8.901329e-05 -4.70748e-05 0.02543732
0.00012385515 3.6411562e-05 4.0851806e-05 -1.2306083e-05 -0.00030638278 0.37464687 2.7309195e-06 1.1437566e-07
1.2901264e-05 0.00011761656 -0.015201195 -0.01739778 0.0001013186 -7.421047e-05 -0.0014209858 -0.013998403
-0.00363266 -8.6483615e-06 5.281547e-05 -7.0097194e-05 -0.00015422919 0.31310993 0.00010891904 -0.0001587967
-1.4736518e-05 -0.23701435 2.4613403e-06 -1.451479e-05 -1.0870919e-05 4.4883065e-05 2.4869401e-05 7.1370573e-06
-0.00024878653 -3.0780788e-07 -1.31632905e-05 3.3949746e-05 -8.5606155e-07 9.856512e-06 0.00016718243 3.959155e-05
-5.557075e-05 -0.00069020176 5.229237e-05 1.4218891e-07 -3.0037088e-05 -1.6662136e-05 4.064954e-06 -2.9900764e-05
0.00015676234 -3.6480844e-05 -0.07854594 4.2307795e-05 -0.39096072 -3.4959823e-05 2.371931e-05 3.6133777e-05
6.6093526e-07 2.3413362e-05 -8.683672e-05 -8.236995e-05 1.7318216e-05 8.547664e-06 4.3630298e-05 -3.781469e-05
0.00038686185 -8.553366e-06 -2.5415247e-05 -5.652782e-05 -1.3283737e-05 3.1450592e-05 -3.4906316e-05 0.0047920835
-9.723591e-06 8.258948e-05 0.0001548821 -5.063047e-05 -9.085464e-06 -0.0041645016 0.0032032805 -3.2050233e-05
-4.4089493e-06 -8.934959e-05 -4.3470904e-05 -4.4527605e-05 -7.043457e-06 0.34959236 3.769036e-07 0.00020728019
0.00010211993 -7.899935e-06 -0.0006333855 1.40300735e-05 -1.3907196e-05 -0.00014772094 -1.7502665e-05 -5.697438e-05

tabnet.initial_bn.running_mean f4 [1038]
00000000: 2539 8139 2e25 2dba 2de0 0a3b 1c69 613b
00000010: 6c28 ee39 fea6 5abb 221a 81bb c801 e4b9
00000020: e49d 8cbb ad1e f7ba 3b9a 24bc 1676 ccba
00000030: 72ce 313b c51d 463b 9124 39bb 1098 543b
00000040: e8c8 1bbb 4ccc 64ba 3c9a 00bc 4a14 4839
00000050: 9043 39bb 3ee3 883b 958b 58bb bb0b 0bbb
00000060: 1c93 8f3b a6af a3b9 ca1e 68bb 0822 e13a
00000070: 073e 9cbb 976e d3ba 9f74 2439 c102 b1bb
00000080: 4e43 0dbb e010 873c 0724 9abb b296 933b
00000090: f304 5a3b 4e72 873a 7957 44bb faa2 34bd
000000a0: 668e ff3c 0221 813b 2ae4 f8bb 99a7 1138
000000b0: 1512 40bb 39e2 1339 8015 a6ba dd6d b33a
000000c0: 61aa 053c 4015 0dba dccb 983b 5c6b 853b
000000d0: 4a9d 47bd aacc 813b 78b3 20bb a3ba e43b
000000e0: 0a0c 813a f531 cebb b88d 3f3b d5d6 a73b
000000f0: c10a bebc 034f b5bb d332 da38 8f1e 23bb
00000100: dc35 15bc 264d 89bc 306b 68bb 6b10 a43b
00000110: 0e5d f13a 319d 78bd e503 ef3a 5464 e2ba
00000120: b626 1a39 ace3 faba b2e3 a0bc e088 883a
00000130: 851c 813c 427c 45bd db89 86ba 7087 fcba
00000140: ecd6 83bb 8664 a13a be28 eebb 9096 f93a
00000150: c9e4 81bb 5a12 333b b1e7 f73a 104c 9d3a
00000160: d506 133c 3b17 883b 7fa6 483b 8a13 e3ba
00000170: 109d 6a3a f729 fc3b 6593 653a d585 b9bb
00000180: a1dd cebb e81a 9a3b 4442 a0bb 91dc 943b
00000190: 5ddb 3dbb a9d8 3c3b 4055 753c 77f4 a0bb
000001a0: a7b3 353b 1b5c 8d3b 0d1b bbba b53e 283b
000001b0: 8ab2 e53b 78d3 3c3b 69b6 583b 951a a3bb
000001c0: 0da3 b9bb c932 a13b b647 333a a3d3 96bc
000001d0: 7b27 cf39 86d2 3e3b bf2a ea3b a26a 88bb
000001e0: ca0f 213b 2524 aebb c37c 52b8 df45 fabb
000001f0: 55f2 df3a 0041 d13c 5797 d93a caba cf3a
00000200: 7db0 9b3b cf40 4abb e78d 80bc ff36 6039
00000210: 767c f93b c063 103d 941b 0c3c 31da 19ba
00000220: a6fa 9ebb 0225 5f3b b5d0 45bb 2e66 4abb
00000230: 65fe 593b 3710 293b 83e3 043a 1e2b 6a3b
00000240: da68 7f3b 5b97 0b3c 1839 4c3c 14e1 e33a
00000250: 9d8b e53b 4232 303c af94 8b39 22d9 bcb9
00000260: 12fc 1b3b fbca f43a 9fdd 1fbc dbd1 c5bb
00000270: 1708 95bb 47ab 783b 0c46 b43a dcd0 713b
00000280: fddf bc3c 3c88 6dbb a78c 36bb d8f1 3fb9
00000290: cbc9 aa3a abb6 103c 3dc2 f93b 8377 8fbb
000002a0: d81b b1ba 06e9 9f3b da58 7d3b c946 90ba
000002b0: 3ac8 a23b 1006 7a3b 13f9 a1ba 3f23 b93b
000002c0: 0523 033c 5aa6 6cba e452 6ebb cdd3 0f3b
000002d0: c2d3 20bc b466 8839 4d84 823a 62b3 b63b
000002e0: 9b09 ae3b fbd6 11bc 3d07 a73b 3a21 bebc
000002f0: e317 00bb d94a 423b e5e0 a63a 8b05 efbb
00000300: 6717 c0ba fb65 c53a 0c8c 273a 9be9 c53b
00000310: 17a2 963a 1080 9abc 157f bfbb 93a5 ce3b
00000320: c22d cf3b 0f7a 94bb 9b67 033b 2fd8 5a3c
00000330: 900e 4abc efd4 923b e517 67bb 8d6a 4d3b
00000340: cf7c da3a bef1 3b3b 1570 a33c ca8c 3cb9
00000350: 6304 ad3b 1dd3 6b3b 4509 1eba a2d5 a03b
00000360: 1855 1dba 1655 d83b a092 56ba eb09 8839
00000370: 4b78 b03a 8a75 2a3b 9fad b63b ed95 d0bb
00000380: 9c02 453a 2766 9dba 9c96 95ba b5ea c13a
00000390: fa0d 493c 5275 a13a aeb2 85bd 4ced 183b
000003a0: ff95 2e3a 65c0 bd3a d271 e139 f9d4 a83b
000003b0: c654 1abb 43aa bd3a 88a3 56bb 1f13 6bbb
000003c0: 87b8 e83a a79f 443b 6fe2 623b fa95 c8bb
000003d0: 2074 573b 2f8f b13b dc01 3e3b b0e9 ccba
000003e0: 0450 11bb fcfa b13a 8b98 b43c 855e c63b
000003f0: 92e5 1cbc b649 9b3b 5425 453a ee41 0ebb
0.00024647373 -0.00066049665 0.0021190748 0.0034394925 0.00045425014 -0.0033363695 -0.003939883 -0.00043488876
-0.004291283 -0.0018853747 -0.010046537 -0.0015599157 0.0027131108 0.0030230146 -0.0028250555 0.003243927
-0.0023770873 -0.00087279524 -0.007849272 0.00019081045 -0.002826903 0.00417748 -0.0033042182 -0.0021216709
0.0043815505 -0.0003122065 -0.0035418742 0.001717628 -0.0047681364 -0.0016130981 0.00015683704 -0.0054019396
-0.002155501 0.016487539 -0.004704002 0.0045040483 0.003326711 0.0010333748 -0.0029959364 -0.04410074
0.03119583 0.0039407024 -0.0075955587 3.472678e-05 -0.0029307653 0.00014103287 -0.0012671202 0.0013689358
0.008158297 -0.00053818896 0.004662974 0.004071636 -0.048733987 0.0039611654 -0.0024521034 0.0069802566
0.0009845507 -0.0062925764 0.0029228758 0.0051220455 -0.023198487 -0.0055331006 0.00010404517 -0.002489004
-0.009107079 -0.01676042 -0.003546428 0.00500684 0.0018414573 -0.060696784 0.0018235414 -0.0017272332
0.00014701005 -0.0019141338 -0.019639824 0.0010416768 0.01576067 -0.048214205 -0.0010264473 -0.0019266438
-0.0040234234 0.0012313284 -0.0072680404 0.0019042064 -0.003964041 0.002732417 0.0018913654 0.0012000818
0.008973797 0.00415316 0.0030616818 -0.0017324549 0.0008949796 0.0076954323 0.000875762 -0.005661706
-0.0063130413 0.0047029145 -0.004890712 0.004542895 -0.0028969862 0.0028815663 0.014973938 -0.004911955
0.002772549 0.0043139583 -0.001427503 0.0025672142 0.007009809 0.0028812569 0.003306771 -0.004977534
-0.005665189 0.004919384 0.0006838994 -0.018411463 0.00039511532 0.002911718 0.007146209 -0.0041631022
0.0024576061 -0.0053143674 -5.0184095e-05 -0.007637724 0.001708577 0.02554369 0.0016600889 0.0015848514
0.0047512637 -0.0030861383 -0.015692664 0.00021382792 0.007613714 0.03525138 0.008551497 -0.0005869
-0.004851657 0.0034049158 -0.0030184214 -0.0030883658 0.0033263203 0.0025797018 0.0005069302 0.0035731266
0.0038972409 0.008519973 0.012464784 0.0017385804 0.0070051686 0.01075417 0.00026622924 -0.0003601993
0.0023801369 0.0018676216 -0.009757428 -0.0060369796 -0.0045480835 0.0037943886 0.0013753786 0.0036898172
0.023056025 -0.0036244532 -0.0027854831 -0.00018305273 0.001303011 0.008832614 0.007622032 -0.0043782606
-0.0013512326 0.0048800735 0.0038657696 -0.0011007424 0.0049677165 0.0038150586 -0.0012357555 0.0056499536
0.008003955 -0.0009027474 -0.0036365325 0.0021946311 -0.009816112 0.0002601646 0.0009957642 0.0055755833
0.0053112037 -0.008901353 0.0050972984 -0.023209203 -0.0019545488 0.0029646663 0.0012731819 -0.007294362
-0.0014655412 0.00150603 0.0006391413 0.006039811 0.0011492398 -0.018859893 -0.005844007 0.006306359
0.0063225934 -0.004531152 0.0020050767 0.013357206 -0.0123325735 0.00448095 -0.0035262045 0.0031344027
0.0016669276 0.0028678025 0.019950906 -0.00017981525 0.005280064 0.0035983988 -0.0006028603 0.0049082795
-0.00060017547 0.00660194 -0.0008185301 0.0002594733 0.0013463584 0.002601 0.0055748965 -0.006365529
0.00075153424 -0.0012008593 -0.0011412683 0.001479468 0.012271399 0.0012318289 -0.06528221 0.00233348
0.00066599244 0.0014476894 0.00043000147 0.0051523414 -0.0023549064 0.0014470298 -0.003275128 -0.0035869551
0.0017755189 0.0030002387 0.0034619828 -0.006121394 0.0032875612 0.00541868 0.0028992807 -0.0015633609
-0.0022172937 0.0013578827 0.022045394 0.006053748 -0.009576218 0.0047390116 0.0007520516 -0.0021706778

tabnet.initial_bn.running_var f4 [1038]
00000000: b832 f83b 3161 673a 17b9 7c3f f299 793f
00000010: 7db3 773f 5b1e 7a3f 8a84 773f 1ec0 783f
00000020: bd79 783f 25b2 783f 663a 8a3f 334d 793f
00000030: 3238 793f c6a5 7a3f 179a 793f 431d 7f3f
00000040: 9e04 7a3f a7c3 753f 6a8c 7a3f 2df3 793f
00000050: 740c 793f 80a9 783f c6cc 793f 7b38 783f
00000060: cd4b 7a3f 3ecb 783f 0d75 7c3f 33ab 763f
00000070: 8b3f 793f b89a 783f a1b2 783f e449 793f
00000080: a321 7b3f 1253 883f bca9 773f bb9e 7c3f
00000090: 9dae 7d3f 817d 7a3f a1f4 7f3f d853 a33f
000000a0: cd5e 993f 71e1 773f bd30 803f 23a4 793f
000000b0: 1d08 7a3f fef2 773f ab88 783f 9f1c 783f
000000c0: 76b0 813f 434e 7b3f e4af 7f3f 9679 783f
000000d0: 01fc a63f 8313 7a3f 53b4 7a3f 0b58 7b3f
000000e0: 8274 793f b1be 7e3f f00e 7a3f 7d02 7e3f
000000f0: bce6 8f3f f8a3 7b3f bbb9 783f 0af5 7c3f
00000100: 55c8 833f bbbb 843f 34e2 783f 8925 7a3f
00000110: 4b9e 773f 670f b23f 1900 783f 65c3 793f
00000120: 5d6c 793f 21f5 793f c1ea 8d3f b86b 7b3f
00000130: 5903 863f f384 a83f 55d5 783f c6e4 793f
00000140: 5198 793f 9281 793f 969c 783f f485 793f
00000150: 86ce 783f 2d5c 7a3f b800 783f 54ad 793f
00000160: 5413 833f ba35 7a3f 8fd3 793f 930d 7a3f
00000170: dc59 7b3f 2333 823f a0d8 773f 4499 7c3f
00000180: c4be 763f cdf9 793f 9212 823f fad4 823f
00000190: 7c92 803f ff05 793f e41d 8b3f 0451 783f
000001a0: 330d 7d3f 3c41 793f 7a4a 753f b711 793f
000001b0: ef1f 813f 98a4 7a3f 6749 783f 7505 793f
000001c0: 07e9 793f f640 7b3f 47fc 7a3f fbca 8d3f
000001d0: 2a03 7a3f b525 7a3f 594f 7d3f aabf 7a3f
000001e0: 6b8d 783f 152d 783f b0e6 773f 6f8f 803f
000001f0: f557 783f 78c6 953f 9e9c 783f fc1a 7a3f
00000200: 248c 7b3f a1e0 773f 200c 8e3f c343 783f
00000210: 8527 823f 8627 9a3f 031b 813f f7ba 7e3f
00000220: 06fa 783f e754 793f 87ae 7a3f 7ba6 793f
00000230: ddbb 7c3f ec17 7b3f 89f4 793f 0c3e 783f
00000240: 9488 7e3f ce9b 7a3f b261 813f 384b 7b3f
00000250: 7b38 7f3f ddec 843f d41a 7e3f 7178 773f
00000260: 4790 793f c2e1 743f 2f06 823f dbc9 773f
00000270: 2aa1 7a3f 4862 823f c3db 7b3f 6717 7a3f
00000280: 1643 913f b3d2 793f de8b 7e3f 487a 793f
00000290: 5181 7b3f 98ba 833f 11d1 803f 1b32 783f
000002a0: 53de 793f 0043 793f 558b 783f 7436 7c3f
000002b0: 3154 853f a9b3 7a3f 6a76 7b3f 93a5 793f
000002c0: 3c4b 783f 6b2e 7a3f 074d 783f 3c56 7e3f
000002d0: e87a 8b3f 90cb 793f 8f52 783f fa8f 7d3f
000002e0: 644d 783f d2c6 803f 2aee 773f 8077 903f
000002f0: 983a 7c3f 7eab 783f 6a38 783f 431f 803f
00000300: 3c0c 793f 7506 783f fa88 773f 0ed6 783f
00000310: 89dc 783f 1980 8a3f 7fa5 793f db1e 813f
00000320: 90e0 793f 4ad8 773f 220a 793f ca12 893f
00000330: 9214 8b3f c241 793f 9a00 7d3f 259c 763f
00000340: 64aa 793f 5b33 783f c12f 8a3f c071 793f
00000350: bbaf 7c3f 9abc 773f ab1d 793f 3a49 7c3f
00000360: c0b5 793f 6fff 803f 923c 783f bc07 793f
00000370: beb9 793f 84cc 783f 946a 7a3f c7c8 7a3f
00000380: a93e 793f 194d 793f 1220 7a3f adab 793f
00000390: dcd1 843f 32cd 763f 037d bc3f 7aea 793f
000003a0: 162d 783f bc75 803f 3a79 7b3f 0ac6 793f
000003b0: eb4e 7b3f 3298 7d3f b1ad 773f 3636 783f
000003c0: ca91 793f 9a98 793f c8c3 783f 82ce 793f
000003d0: ee12 773f d3b7 803f 5b75 7a3f fe5b 7d3f
000003e0: 7e72 793f fa3b 7b3f f897 913f 4f88 7b3f
000003f0: 8e0c 863f 6b57 813f 4fc5 7a3f 2255 7a3f
0.0075744055 0.00088264333 0.98719925 0.97500527 0.9675825 0.9770257 0.96686614 0.9716815
0.9706076 0.97146827 1.0799072 0.9738342 0.9735137 0.979092 0.9750075 0.99654025
0.97663295 0.96001667 0.97870505 0.9763668 0.97284627 0.97133636 0.97578084 0.9696118
0.9777191 0.9718512 0.98616105 0.9635498 0.97362584 0.9711108 0.97147566 0.97378373
0.980982 1.0650351 0.9674337 0.98679703 0.99094564 0.97847754 0.9998265 1.2759962
1.1982056 0.9682837 1.0014874 0.9751608 0.9766863 0.9685515 0.9708354 0.9691867
1.0131977 0.9816629 0.9987776 0.97060525 1.3045655 0.9768602 0.979314 0.9818122
0.974434 0.9950972 0.9767904 0.99222547 1.124229 0.9829707 0.971584 0.988114
1.0295511 1.0369791 0.9722016 0.97713524 0.9672591 1.391095 0.9687515 0.97563773
0.97430974 0.9763966 1.1087266 0.9821124 1.0469772 1.3165573 0.9720052 0.97614706
0.9749804 0.97463334 0.9711393 0.9747002 0.9719013 0.977969 0.96876097 0.975301
1.0240273 0.9773823 0.9758844 0.9767696 0.9818399 1.0171856 0.9681492 0.98671365
0.96384835 0.9764679 1.0161917 1.0221245 1.0044703 0.97274774 1.0868497 0.9699862
0.98848265 0.97365165 0.9581677 0.97292656 1.008787 0.979074 0.96987003 0.9727395
0.97621197 0.98146 0.98041195 1.107757 0.9766108 0.97713786 0.989492 0.97948706
0.97090787 0.9694379 0.96836376 1.0043772 0.9700921 1.1701193 0.9711398 0.97697425
0.9826071 0.9682713 1.109745 0.96978396 1.016831 1.2043312 1.0086368 0.99504036
0.97256505 0.97395176 0.9792256 0.97519654 0.98724157 0.98083377 0.97638756 0.96969676
0.9942715 0.9789399 1.0107939 0.9816165 0.9969556 1.0384785 0.99259686 0.96668154
0.97485775 0.9565698 1.0158137 0.9679238 0.97902167 1.0186243 0.98382205 0.9769196
1.1348598 0.97587126 0.9943217 0.9745221 0.98244196 1.0291319 1.0063802 0.96951455
0.97604865 0.9736786 0.97087604 0.9852059 1.0416318 0.9793039 0.9822756 0.9751827
0.969898 0.9772708 0.96992534 0.99350333 1.0896883 0.97576237 0.97000974 0.99047816
0.9699309 1.0060675 0.96847785 1.1286469 0.98526907 0.97136676 0.9696108 1.000954
0.97284293 0.9688485 0.96693385 0.9720162 0.9721151 1.0820342 0.9751815 1.0087541
0.9760828 0.96814406 0.97281086 1.0708859 1.0865653 0.97365963 0.9882904 0.9633201
0.9752562 0.9695336 1.0795823 0.97439194 0.98705643 0.9677216 0.97310895 0.98549235
0.97542953 1.0077952 0.9696742 0.97277427 0.97549045 0.97187066 0.97818875 0.9796261
0.97361237 0.97383267 0.97705185 0.9752758 1.0376544 0.96406853 1.472565 0.9762341
0.96943796 1.003593 0.9823185 0.9756781 0.98167294 0.99060357 0.9674941 0.9695772
0.9748808 0.97498477 0.9717374 0.9758073 0.9651326 1.0056099 0.9783532 0.98968494
0.97440326 0.9813839 1.1374502 0.98254865 1.0472581 1.0104803 0.9795732 0.9778615

tabnet.initial_splitter.shared.shared_layers.0.weight f4 [96, 1038]
00000000: 69e4 50bd 2740 1839 db5b 43bb 53b0 953a
00000010: 62a5 0c3e eb1e 4bbe 9759 2b3c ba05 303c
00000020: 99a0 1c3c a886 a1b7 f40b 6dbc fecd e438
00000030: bc57 1139 0ea1 53bc 1659 2e3b cf9e 4f3c
00000040: 9e41 d2bb ca3e 473b d991 53bb f03a aabb
00000050: e09b 85ba 8904 783b e27c a9bb cdec 033b
00000060: 34a5 903b 6919 263c e669 83bb b03b 8fbc
00000070: 1664 043c 5285 173c 92c8 1e3c 70ac 403c
00000080: 27c8 ba39 e5ae 2cbb 028d 823c 14d8 49bc
00000090: d17d 80bc b30b bf3a af80 333c 4a0a 0d3c
000000a0: e1a2 7cbb 4bed dc3b 7eda 3d3a 4f73 cc3b
000000b0: 953d 363b 041e d6bb 5145 2eba 285a 29bc
000000c0: d7f7 c2bb aa24 a73b 9b57 543c 64fe 913b
000000d0: cb9a e8bb 6be4 343b 9f4a 61bb 6efe 04bb
000000e0: 2c19 8436 296b 403b ccfa b639 bbfd 11bc
000000f0: 6678 f0bc dade f737 38d0 223c 33a1 3eba
00000100: bedb b0ba ee61 d4ba b12c 52b7 15f9 9bbb
00000110: b68e 42bb 2669 03ba 9fc4 74bc 21a3 293c
00000120: ae64 87ba 2f2d 9d3a 3f15 33bb 4aa7 1bbc
00000130: 083d c9b9 ac16 3c3b f5e8 8cb9 87e6 883b
00000140: 80da 29bc d418 20ba 7ae9 b136 0500 d1bb
00000150: 0b02 513a 7f07 b33a 3cc5 c9ba 9a23 213c
00000160: b852 92bb 22d0 c73a 4198 7b3c 0059 0cbb
00000170: dc46 4dbb 1947 103c e005 cd3b cdb3 ad3b
00000180: 4f76 d5bb 6fc8 913b 113c 2db9 8812 0e3b
00000190: 439b 9fbc 657e 193c 6559 183e 29ce a0b8
000001a0: 433d 893b 5385 91bb bae2 113b dc97 89bb
000001b0: fda0 173b aa68 133b cffd 1e3a b6a7 23bb
000001c0: 4166 e93b 382a f63b affe bbb9 447c 40bc
000001d0: 3244 103c 07d5 0f3c ee82 b63c 3b9d 2d3c
000001e0: 4f4d d6bb a8ae 263a 8b90 773b a304 61ba
000001f0: 1278 78bb e972 2abc bf2b 5f3c 49d8 473c
00000200: a6e5 403b cbbc 923b dee7 bebb cd84 593d
00000210: 1afa 43bc 674f b7bb e7af 143a b6fb 1bbc
00000220: d2bd 3eba db4a 75bb ca62 85ba ccac dfba
00000230: 74be a03b f6c2 363a 0559 793b 1985 183b
00000240: a2b4 96bb f403 e7bb 20c3 c43c a3d7 9ebc
00000250: 06ba 943c ed00 25ba c0be 35bc fede 953c
00000260: 4c5d 39ba 0b1a 34bb 4dfa 613b 2399 ecba
00000270: ee4b 2ebb 7a0e 4cbb b991 ff3b dc16 1f3e
00000280: 4a45 843b 82b2 343a 4af8 41bb cf60 763b
00000290: 9c1f 9e3a 4189 35bd 59b4 743b 4901 a737
000002a0: 9e7c e6bc 64c5 0abc 6b5c ff3c 10e7 9f37
000002b0: 035e 083c 5ecd 2c3c 2caa 4d3c a2fb 9bbb
000002c0: d3a1 d5bb 4b75 8ebc 16c7 4d3b 1da6 0e3c
000002d0: 7cff 7a3c b737 a43d cf1c cabb 4221 393c
000002e0: 823d ee3b 3bff 5c3d 0bb9 833b 94f7 063c
000002f0: 83a0 d2bc d00d c7bb 8455 ee3b 7b54 dd3b
00000300: 11de 63bb f4b4 daba 857e c039 ce9b 8fbb
00000310: 265b c7b9 967b f639 3a0f d8b9 b8bf 683c
00000320: 02ac 17bc 33dd 123b 8a51 203c 10ce 573c
00000330: 8d34 893c 66a6 e23b 9043 d3b9 3715 713c
00000340: fdd2 b7bc 9a5f 003c 5988 02bd da62 a33b
00000350: 3249 8dbe d188 613b 8c05 c4bb dadc 273b
00000360: e1a6 b0b7 c64d fa3a ee64 333a e9fa d63b
00000370: 9210 ecbb 42d9 74bb 9cfd 853b ab4b 0d3c
00000380: fd66 89bb 71c5 85ba b0ad ddba d0b8 4dba
00000390: cd14 5abb 795b 0dba b5c3 913c d1ee eb3c
000003a0: 9b19 d0bb 9408 6bba cd81 37bc c6bb 863b
000003b0: 78e7 d9bb c080 d0bb e660 9d3b 1cfc b0bc
000003c0: a8c2 0a3b 44a0 e23b ed36 953c 6599 99ba
000003d0: 7229 1dbb 21ee f6bd 539b fd3b 9e41 3a3b
000003e0: 69f4 cabb e82f 9cba d9e3 bd3b 3a1d 60b9
000003f0: a4bb 753a 583f 4bb6 08bc a5b9 1fd0 d5bb
-0.05099908 0.00014519748 -0.0029809389 0.0011420347 0.13734964 -0.19836013 0.010458372 0.010743553
0.009559774 -1.92554e-05 -0.014468182 0.00010910256 0.00013860961 -0.012916816 0.0026603392 0.01267214
-0.0064165136 0.0030402415 -0.0032282977 -0.005195014 -0.0010193549 0.00378445 -0.005172358 0.0020130158
0.004414225 0.010137894 -0.004010427 -0.017484516 0.008080503 0.009248095 0.009691374 0.011759862
0.0003562581 -0.0026349362 0.015936378 -0.012319583 -0.015684994 0.001457563 0.0109559735 0.00860841
-0.0038549232 0.0067421547 0.00072423357 0.006239332 0.0027807702 -0.00653434 -0.0006647902 -0.010336436
-0.005949955 0.0051008062 0.01296034 0.0044553746 -0.007098531 0.0027601968 -0.0034376753 -0.0020293253
3.936837e-06 0.0029360747 0.00034900603 -0.008910592 -0.029354285 2.9548468e-05 0.0099373385 -0.00072719454
-0.0013493223 -0.0016203502 -1.2527381e-05 -0.0047599175 -0.0029687113 -0.0005012922 -0.014939456 0.010353834
-0.0010329688 0.0011991615 -0.0027325896 -0.009500334 -0.0003838318 0.0028700037 -0.00026876447 0.0041778716
-0.010367036 -0.00061072153 5.3021913e-06 -0.006378176 0.0007973022 0.001365885 -0.0015393863 0.009835148
-0.0044654272 0.0015244524 0.015356124 -0.0021415353 -0.0031322753 0.0088060135 0.006256804 0.005300975
-0.0065143476 0.0044489424 -0.00016520942 0.0021678526 -0.019483214 0.009368514 0.14877851 -7.667795e-05
0.004188211 -0.0044409423 0.0022260384 -0.0041990113 0.0023136728 0.0022492805 0.0006065042 -0.002497179
0.0071227853 0.007512357 -0.00035857173 -0.011748377 0.0088053215 0.008778817 0.022279229 0.010596569
-0.0065399776 0.0006358423 0.0037775363 -0.000858376 -0.0037913364 -0.010403373 0.01362127 0.0121975625
0.0029433756 0.0044780723 -0.0058259806 0.053105164 -0.011961484 -0.0055941823 0.00056719634 -0.009520462
-0.000727621 -0.003742865 -0.0010176536 -0.0017065047 0.0049055163 0.00069718005 0.0038047445 0.0023272692
-0.00459917 -0.007050032 0.024018824 -0.019389933 0.01815511 -0.00062943884 -0.011092842 0.018294808
-0.0007071092 -0.0027481343 0.0034481466 -0.0018051009 -0.002659555 -0.0031136558 0.007799354 0.15536064
0.00403658 0.0006893055 -0.0029597455 0.0037594324 0.0012063864 -0.04432035 0.003733894 1.990855e-05
-0.028135594 -0.008469913 0.031171998 1.9061874e-05 0.008323195 0.01054701 0.012552779 -0.0047602216
-0.006519535 -0.017389914 0.0031399182 0.008706597 0.015319701 0.08018439 -0.006167985 0.011299433
0.007270516 0.053954344 0.0040198616 0.008237738 -0.025711304 -0.0060746446 0.007273378 0.0067544556
-0.0034769813 -0.0016686008 0.00036715358 -0.004382587 -0.0003802415 0.00047012855 -0.00041210075 0.014205866
-0.009257318 0.0022409677 0.009785065 0.013171688 0.016748691 0.006916809 -0.00040295394 0.014714531
-0.022439474 0.007835293 -0.031868313 0.0049861493 -0.27594906 0.0034413824 -0.0059821066 0.0025613816
-2.1058544e-05 0.0019096665 0.0006843348 0.0065606725 -0.007204124 -0.003736094 0.0040890705 0.008623998
-0.0041931854 -0.0010205937 -0.0016912725 -0.00078476686 -0.0033276558 -0.00053923536 0.017793516 0.0288004
-0.0063507087 -0.0008965817 -0.0112003805 0.00411174 -0.0066499077 -0.0063630044 0.004802811 -0.02160459
0.0021173153 0.006916078 0.018214667 -0.0011718689 -0.0023981002 -0.12057138 0.0077394634 0.0028420459
-0.0061936867 -0.0011916133 0.005794984 -0.00021373192 0.0009373969 -3.0286228e-06 -0.00031611347 -0.006525054

tabnet.initial_splitter.shared.shared_layers.1.weight f4 [96, 48]
00000000: 72bc ad3e 338e cabc df57 113b faaf b5bc
00000010: c06f afbd 8984 c63c 1435 b73c 3a29 06bd
00000020: d5db 67bd 0867 2cbd 77c3 0fbc ce57 f73b
00000030: 9f2f 86bc 6955 76bc 33aa 533d df67 f33b
00000040: 0f62 8c3d 7fd8 de3c 482c bf3c bb41 20bd
00000050: bbda 973c 93b5 413d 02ed f7bc 57d2 48bd
00000060: ce68 eb39 7352 acbc 9530 443d 7ecf b73c
00000070: 34b1 1bbd 9f60 f13c 985c a23c 16cd 00bb
00000080: 27c0 873b a51e b73c 37e9 f23b 53e3 b63c
00000090: 5934 98bb 69bc e8bb 5504 37bb 58a9 7e3b
000000a0: f80b 0b39 d0d6 803c 62f7 153d 6862 6a3c
000000b0: 3d71 813b e1e3 683c 25ff 493b c78e 4d3c
000000c0: ad68 a4bd 2e26 a73e c7ef a03d 8bb8 7a3c
000000d0: 68f6 03bd 271c babd c295 91bd 8742 853c
000000e0: 70e1 7abc fa92 a23b d75d bfbd a9b4 0ebd
000000f0: dcac 52bc 9420 e5bc f114 7dbd 4463 21bb
00000100: 1cf9 3cbd 10a9 95bd 90a2 b93d eff4 8fbc
00000110: afff 863d be63 9a3d ae91 403d 3a1d 6bbd
00000120: 1bbb 653c 08ab d3bb 23e2 33bb c6ef 89bc
00000130: 343e a33a 0a45 8fbc 35ba 3d3c 498a 323b
00000140: c1b6 623a 4a97 3639 d7dd 383c 705e ee3b
00000150: 2411 90bb 1bb1 9c3c 8a72 4ebb 2ead 45bc
00000160: 8ef3 2fbb 7b2d 34bc a780 e8bb 316d 9d3b
00000170: 66d7 01bd 4646 c7bb 0695 923b a1f9 7abb
00000180: 85c4 0fbd 3384 fcbb 7ee0 633e 54c4 40bb
00000190: 51e0 3dbc 7e7b 56bd 5871 cdbd 56ce fabc
000001a0: 1f58 4fbd b3a6 8b3d 9fb2 0fbd b82f 0fbd
000001b0: e7d5 3c3d 5696 edbb e327 c53d 6161 84bd
000001c0: a573 57bd d9b3 2bbd cb4b f7bd 122c d13c
000001d0: e048 7ebd 2d08 b43d 5a81 5e3d f655 f8bc
000001e0: d5ec 4a3d 013d 14bc 3502 693d 61c6 9f3c
000001f0: 9c97 c23c 41db cebc 0c8b d93c 1972 4c3b
00000200: 5662 a5bc a202 5fbc 69a9 193c ec80 953d
00000210: 992a b8bc eb10 943b e1d3 88ba 2a1a 8fbc
00000220: 0d35 4bbb 64dc 653c c835 ae3c 025e 25bc
00000230: cb39 4b3d 3a71 0fbc 2c20 fb3a dc31 fbbc
00000240: 27ca cbbc f456 07bb 719a 88bc c0e8 013e
00000250: e5da 103b 7c38 18bd 6e29 b9bd 20f5 69bd
00000260: 269f 9a3c e01b 4c3d cf4e 9dbd 97d0 8cbd
00000270: 0da8 16bd a993 393d f272 46bd bb85 a0bc
00000280: 2753 b93d 572d 8ebd 5661 be3c c099 e83b
00000290: da40 77bd bcdb 4f3c bbfa 783c 678c f5bc
000002a0: 9a05 bf3b 455b 49bc 6a77 f7ba c1bd 4b3c
000002b0: af31 213c 1021 dfbc 05ed 15bc e2ad be3a
000002c0: 2abe 3cbc 6e34 d4bb 78ca ec3c 34ee 2ebc
000002d0: 0db0 43ba a5f9 713c 363b 6bbc 0465 90bb
000002e0: ce77 cdba f985 c03c 8967 c73a 88c4 433c
000002f0: 4646 ea3c 26d5 13bb c9e7 673a 6520 d8bb
00000300: 20c3 edbd 5dc2 093d fe77 c33c 93f8 3b3d
00000310: 9bb7 913e bb88 f3bc ed84 bcbb 993c 8cbd
00000320: 7736 603d c745 06bd 05b1 cd3c 04a9 94bd
00000330: 9add 4a3d 2473 81bd 1afa 9d3d dbb2 283d
00000340: c51c 123d 0f28 58bd fb47 9e3c 2fcf a8bd
00000350: ecbf 98bd 3679 40bc d29a 6abd 92f1 91b9
00000360: e7f3 363b 1bcc 883a 6635 56bd 7610 abbc
00000370: fcaa 333b 52ee 56bc a0dd 10bc 4cf0 ec39
00000380: ba9e 2fbc 0773 6fbc ab90 94bb ec1b 223c
00000390: 8546 7b3b 42cc aebb 9872 e4bb d5c3 02bc
000003a0: 5079 3e3b d102 c6bc 3fef ccbc 099d c7bb
000003b0: 7a34 2f3a 60d8 fabb 4de8 a639 90b4 503c
000003c0: 6d1f 963d a3fe bc3b c6d8 683c 5967 013d
000003d0: 896c c03d 960a c13e de9f 6e3d 6043 fd3c
000003e0: fce4 893c 0429 cb3d 1ce0 77bc 2e6b 533d
000003f0: 0da1 653d 5163 9e3d bda4 7b3d 4b23 953d
0.33932835 -0.024726009 0.002217762 -0.022178639 -0.085662365 0.02423312 0.022364177 -0.03275416
-0.056606133 -0.042090446 -0.00877463 0.007548309 -0.01638013 -0.015035012 0.051675986 0.007428154
0.06854641 0.027202843 0.023336545 -0.039125185 0.018536916 0.047292303 -0.030264381 -0.04902872
0.00044900778 -0.021035409 0.047897894 0.022437807 -0.03801079 0.029465018 0.019819543 -0.001965349
0.0041427794 0.02235348 0.0074130553 0.022325194 -0.004644912 -0.0071025384 -0.0027926166 0.003885826
0.00013260532 0.01572743 0.036612876 0.014305688 0.0039502666 0.014214487 0.0030822244 0.012546248
-0.08027778 0.32646316 0.07858234 0.015302788 -0.032217413 -0.09087401 -0.07108642 0.016267074
-0.015312538 0.0049613686 -0.093440704 -0.03484026 -0.012858596 -0.027969636 -0.06178755 -0.0024625817
-0.046136007 -0.07307637 0.090642095 -0.017572848 0.065917365 0.075385556 0.04701393 -0.05740092
0.01402166 -0.0064595975 -0.002744802 -0.016837966 0.0012454451 -0.017488975 0.01158004 0.002724307
0.0008648448 0.00017413232 0.0112833595 0.0072744414 -0.0043965746 0.01912742 -0.0031501376 -0.012065215
-0.002684805 -0.0109971715 -0.0070954147 0.0048042764 -0.03169956 -0.0060813753 0.0044733314 -0.0038295763
-0.035099525 -0.007706189 0.22253606 -0.0029413896 -0.011589126 -0.052363865 -0.10031384 -0.030615967
-0.05062115 0.06818905 -0.035082456 -0.034957618 0.04610243 -0.0072505875 0.096267484 -0.06463886
-0.05260052 -0.041919563 -0.12075003 0.02553371 -0.062081218 0.08790622 0.054322578 -0.030314427
0.049542267 -0.009047748 0.05688687 0.019503774 0.023753934 -0.025251033 0.02655556 0.0031195937
-0.020188492 -0.013611468 0.009378769 0.072999805 -0.02248125 0.0045186183 -0.0010439121 -0.01746853
-0.0031006963 0.014029596 0.02126588 -0.010093214 0.049615663 -0.008755023 0.0019159368 -0.030663423
-0.024876667 -0.0020651193 -0.016675206 0.12686443 0.0022103128 -0.037163243 -0.09041105 -0.057118535
0.018874716 0.04983127 -0.07681047 -0.06875723 -0.03678136 0.045306835 -0.048449464 -0.019595018
0.09049063 -0.06942242 0.023239773 0.0070984066 -0.06036458 0.012686666 0.015196498 -0.029974176
0.005829525 -0.012289827 -0.0018880193 0.012435378 0.009838506 -0.027237445 -0.009150748 0.0014547671
-0.011519948 -0.0064759767 0.028905138 -0.010676909 -0.0007464893 0.014768993 -0.014357379 -0.0044065733
-0.0015675963 0.023501383 0.0015213351 0.011948712 0.028597962 -0.0022557466 0.00088464894 -0.0065956586
-0.11609483 0.033632625 0.023860928 0.045891356 0.28460392 -0.029728284 -0.0057531507 -0.068474956
0.05473944 -0.03278139 0.025108824 -0.072588 0.049527742 -0.063207895 0.07713719 0.041186195
0.035671968 -0.052772578 0.019321432 -0.08242642 -0.07458481 -0.011747649 -0.057276554 -0.0002783654
0.0027916373 0.0010436805 -0.05229702 -0.020881873 0.0027415147 -0.013118343 -0.008841902 0.00045192463
-0.010718996 -0.014614827 -0.0045338473 0.009894352 0.0038341593 -0.005334408 -0.0069716685 -0.00798126
0.0029064007 -0.024171265 -0.025016425 -0.006091718 0.000668354 -0.0076551884 0.00031835065 0.012738362
0.07330213 0.0057676597 0.014211839 0.0315927 0.093957014 0.3770339 0.05825793 0.030915916
0.016832821 0.099199325 -0.015129115 0.051615886 0.056061793 0.07733787 0.061436404 0.07282122

tabnet.initial_splitter.shared.glu_layers.0.fc.weight f4 [96, 1038]
00000000: 69e4 50bd 2740 1839 db5b 43bb 53b0 953a
00000010: 62a5 0c3e eb1e 4bbe 9759 2b3c ba05 303c
00000020: 99a0 1c3c a886 a1b7 f40b 6dbc fecd e438
00000030: bc57 1139 0ea1 53bc 1659 2e3b cf9e 4f3c
00000040: 9e41 d2bb ca3e 473b d991 53bb f03a aabb
00000050: e09b 85ba 8904 783b e27c a9bb cdec 033b
00000060: 34a5 903b 6919 263c e669 83bb b03b 8fbc
00000070: 1664 043c 5285 173c 92c8 1e3c 70ac 403c
00000080: 27c8 ba39 e5ae 2cbb 028d 823c 14d8 49bc
00000090: d17d 80bc b30b bf3a af80 333c 4a0a 0d3c
000000a0: e1a2 7cbb 4bed dc3b 7eda 3d3a 4f73 cc3b
000000b0: 953d 363b 041e d6bb 5145 2eba 285a 29bc
000000c0: d7f7 c2bb aa24 a73b 9b57 543c 64fe 913b
000000d0: cb9a e8bb 6be4 343b 9f4a 61bb 6efe 04bb
000000e0: 2c19 8436 296b 403b ccfa b639 bbfd 11bc
000000f0: 6678 f0bc dade f737 38d0 223c 33a1 3eba
00000100: bedb b0ba ee61 d4ba b12c 52b7 15f9 9bbb
00000110: b68e 42bb 2669 03ba 9fc4 74bc 21a3 293c
00000120: ae64 87ba 2f2d 9d3a 3f15 33bb 4aa7 1bbc
00000130: 083d c9b9 ac16 3c3b f5e8 8cb9 87e6 883b
00000140: 80da 29bc d418 20ba 7ae9 b136 0500 d1bb
00000150: 0b02 513a 7f07 b33a 3cc5 c9ba 9a23 213c
00000160: b852 92bb 22d0 c73a 4198 7b3c 0059 0cbb
00000170: dc46 4dbb 1947 103c e005 cd3b cdb3 ad3b
00000180: 4f76 d5bb 6fc8 913b 113c 2db9 8812 0e3b
00000190: 439b 9fbc 657e 193c 6559 183e 29ce a0b8
000001a0: 433d 893b 5385 91bb bae2 113b dc97 89bb
000001b0: fda0 173b aa68 133b cffd 1e3a b6a7 23bb
000001c0: 4166 e93b 382a f63b affe bbb9 447c 40bc
000001d0: 3244 103c 07d5 0f3c ee82 b63c 3b9d 2d3c
000001e0: 4f4d d6bb a8ae 263a 8b90 773b a304 61ba
000001f0: 1278 78bb e972 2abc bf2b 5f3c 49d8 473c
00000200: a6e5 403b cbbc 923b dee7 bebb cd84 593d
00000210: 1afa 43bc 674f b7bb e7af 143a b6fb 1bbc
00000220: d2bd 3eba db4a 75bb ca62 85ba ccac dfba
00000230: 74be a03b f6c2 363a 0559 793b 1985 183b
00000240: a2b4 96bb f403 e7bb 20c3 c43c a3d7 9ebc
00000250: 06ba 943c ed00 25ba c0be 35bc fede 953c
00000260: 4c5d 39ba 0b1a 34bb 4dfa 613b 2399 ecba
00000270: ee4b 2ebb 7a0e 4cbb b991 ff3b dc16 1f3e
00000280: 4a45 843b 82b2 343a 4af8 41bb cf60 763b
00000290: 9c1f 9e3a 4189 35bd 59b4 743b 4901 a737
000002a0: 9e7c e6bc 64c5 0abc 6b5c ff3c 10e7 9f37
000002b0: 035e 083c 5ecd 2c3c 2caa 4d3c a2fb 9bbb
000002c0: d3a1 d5bb 4b75 8ebc 16c7 4d3b 1da6 0e3c
000002d0: 7cff 7a3c b737 a43d cf1c cabb 4221 393c
000002e0: 823d ee3b 3bff 5c3d 0bb9 833b 94f7 063c
000002f0: 83a0 d2bc d00d c7bb 8455 ee3b 7b54 dd3b
00000300: 11de 63bb f4b4 daba 857e c039 ce9b 8fbb
00000310: 265b c7b9 967b f639 3a0f d8b9 b8bf 683c
00000320: 02ac 17bc 33dd 123b 8a51 203c 10ce 573c
00000330: 8d34 893c 66a6 e23b 9043 d3b9 3715 713c
00000340: fdd2 b7bc 9a5f 003c 5988 02bd da62 a33b
00000350: 3249 8dbe d188 613b 8c05 c4bb dadc 273b
00000360: e1a6 b0b7 c64d fa3a ee64 333a e9fa d63b
00000370: 9210 ecbb 42d9 74bb 9cfd 853b ab4b 0d3c
00000380: fd66 89bb 71c5 85ba b0ad ddba d0b8 4dba
00000390: cd14 5abb 795b 0dba b5c3 913c d1ee eb3c
000003a0: 9b19 d0bb 9408 6bba cd81 37bc c6bb 863b
000003b0: 78e7 d9bb c080 d0bb e660 9d3b 1cfc b0bc
000003c0: a8c2 0a3b 44a0 e23b ed36 953c 6599 99ba
000003d0: 7229 1dbb 21ee f6bd 539b fd3b 9e41 3a3b
000003e0: 69f4 cabb e82f 9cba d9e3 bd3b 3a1d 60b9
000003f0: a4bb 753a 583f 4bb6 08bc a5b9 1fd0 d5bb
-0.05099908 0.00014519748 -0.0029809389 0.0011420347 0.13734964 -0.19836013 0.010458372 0.010743553
0.009559774 -1.92554e-05 -0.014468182 0.00010910256 0.00013860961 -0.012916816 0.0026603392 0.01267214
-0.0064165136 0.0030402415 -0.0032282977 -0.005195014 -0.0010193549 0.00378445 -0.005172358 0.0020130158
0.004414225 0.010137894 -0.004010427 -0.017484516 0.008080503 0.009248095 0.009691374 0.011759862
0.0003562581 -0.0026349362 0.015936378 -0.012319583 -0.015684994 0.001457563 0.0109559735 0.00860841
-0.0038549232 0.0067421547 0.00072423357 0.006239332 0.0027807702 -0.00653434 -0.0006647902 -0.010336436
-0.005949955 0.0051008062 0.01296034 0.0044553746 -0.007098531 0.0027601968 -0.0034376753 -0.0020293253
3.936837e-06 0.0029360747 0.00034900603 -0.008910592 -0.029354285 2.9548468e-05 0.0099373385 -0.00072719454
-0.0013493223 -0.0016203502 -1.2527381e-05 -0.0047599175 -0.0029687113 -0.0005012922 -0.014939456 0.010353834
-0.0010329688 0.0011991615 -0.0027325896 -0.009500334 -0.0003838318 0.0028700037 -0.00026876447 0.0041778716
-0.010367036 -0.00061072153 5.3021913e-06 -0.006378176 0.0007973022 0.001365885 -0.0015393863 0.009835148
-0.0044654272 0.0015244524 0.015356124 -0.0021415353 -0.0031322753 0.0088060135 0.006256804 0.005300975
-0.0065143476 0.0044489424 -0.00016520942 0.0021678526 -0.019483214 0.009368514 0.14877851 -7.667795e-05
0.004188211 -0.0044409423 0.0022260384 -0.0041990113 0.0023136728 0.0022492805 0.0006065042 -0.002497179
0.0071227853 0.007512357 -0.00035857173 -0.011748377 0.0088053215 0.008778817 0.022279229 0.010596569
-0.0065399776 0.0006358423 0.0037775363 -0.000858376 -0.0037913364 -0.010403373 0.01362127 0.0121975625
0.0029433756 0.0044780723 -0.0058259806 0.053105164 -0.011961484 -0.0055941823 0.00056719634 -0.009520462
-0.000727621 -0.003742865 -0.0010176536 -0.0017065047 0.0049055163 0.00069718005 0.0038047445 0.0023272692
-0.00459917 -0.007050032 0.024018824 -0.019389933 0.01815511 -0.00062943884 -0.011092842 0.018294808
-0.0007071092 -0.0027481343 0.0034481466 -0.0018051009 -0.002659555 -0.0031136558 0.007799354 0.15536064
0.00403658 0.0006893055 -0.0029597455 0.0037594324 0.0012063864 -0.04432035 0.003733894 1.990855e-05
-0.028135594 -0.008469913 0.031171998 1.9061874e-05 0.008323195 0.01054701 0.012552779 -0.0047602216
-0.006519535 -0.017389914 0.0031399182 0.008706597 0.015319701 0.08018439 -0.006167985 0.011299433
0.007270516 0.053954344 0.0040198616 0.008237738 -0.025711304 -0.0060746446 0.007273378 0.0067544556
-0.0034769813 -0.0016686008 0.00036715358 -0.004382587 -0.0003802415 0.00047012855 -0.00041210075 0.014205866
-0.009257318 0.0022409677 0.009785065 0.013171688 0.016748691 0.006916809 -0.00040295394 0.014714531
-0.022439474 0.007835293 -0.031868313 0.0049861493 -0.27594906 0.0034413824 -0.0059821066 0.0025613816
-2.1058544e-05 0.0019096665 0.0006843348 0.0065606725 -0.007204124 -0.003736094 0.0040890705 0.008623998
-0.0041931854 -0.0010205937 -0.0016912725 -0.00078476686 -0.0033276558 -0.00053923536 0.017793516 0.0288004
-0.0063507087 -0.0008965817 -0.0112003805 0.00411174 -0.0066499077 -0.0063630044 0.004802811 -0.02160459
0.0021173153 0.006916078 0.018214667 -0.0011718689 -0.0023981002 -0.12057138 0.0077394634 0.0028420459
-0.0061936867 -0.0011916133 0.005794984 -0.00021373192 0.0009373969 -3.0286228e-06 -0.00031611347 -0.006525054

tabnet.initial_splitter.shared.glu_layers.0.bn.bn.weight f4 [96]
00000000: 5c49 393e 2542 093f 48c8 953e b71f 2c3e
00000010: 1251 443f f722 613d da6a fa3e 20e4 f93e
00000020: 6ccf 3a3e 8bc2 0d3e 480c c73d 08c5 2e3f
00000030: 0090 103f a8a1 303e 864b 083f 0111 fd3e
00000040: c251 b53d cfe7 d43e f309 ae3e 3874 ee3e
00000050: 5249 063f 1603 3b3f 058a ed3e 8897 a53e
00000060: a673 f03e 387e bc3e 6704 1f3f 7c43 113f
00000070: 5f42 cb3e fb7b 0c3f da14 d33e 9d5a d53e
00000080: 5661 ec3e 44fc 893e 5052 da3e ae3a ec3e
00000090: ac64 0f3f 007f 093f d620 e63e 5baa 2b3f
000000a0: 2a20 923e 4386 113f 4d49 f03e ac46 073f
000000b0: 2418 203f 4adc d93e c049 263d b318 e63e
000000c0: 0560 083d 7d53 9b3d 16e6 933d b0ac ae3c
000000d0: 44e3 813e dfbe ef3b 45f5 c23c 2b0c 1e3d
000000e0: f36a 203d 2b0f 1f3d 0ec6 5a3c 955b d53d
000000f0: 9c4b 763e 701a c73c 0fcf 083e 2c39 983e
00000100: 8164 4d3c a441 7e3e 90e5 fd3d ef7f 3a3e
00000110: 7aea 52bc 3290 5c3e 0940 d73d 3ccc 343e
00000120: 4310 743e 3876 2f3e c3cc 063f 3d85 393e
00000130: 65ce cb3d f79b ae3e caa8 3e3e 6220 573e
00000140: f294 6e3e 2e5b 273e d950 c23d a583 1bbe
00000150: c01e 0a3f 2bb1 b43e 8221 c23e fee9 b03c
00000160: 150f 623e e53e 913e 6a90 193e f198 8f3e
00000170: 3a8c 923e 502f 893e ca1a 6f3b d2b8 d33d
0.1809439 0.53616554 0.29254365 0.16808973 0.76686203 0.054964986 0.48909646 0.48806858
0.18243188 0.13843744 0.09719139 0.68269396 0.56469727 0.17249167 0.5324024 0.49427035
0.08853485 0.41583106 0.33991966 0.46573043 0.5245563 0.73051584 0.46394363 0.32342172
0.46963233 0.36815047 0.6211609 0.567436 0.39699075 0.5487668 0.41226846 0.41670695
0.4616801 0.26950276 0.42640924 0.4613852 0.5601299 0.5370941 0.44946927 0.67056817
0.28540164 0.5684549 0.46930924 0.5284221 0.62536836 0.4255088 0.040597677 0.4494072
0.033294696 0.075842835 0.0722162 0.021322578 0.25368702 0.007316455 0.023798594 0.038585823
0.039164495 0.038832825 0.013352884 0.104178585 0.2405228 0.024304599 0.13360237 0.2973112
0.012536169 0.24829727 0.12397301 0.18212865 -0.012873286 0.21539381 0.105102606 0.17656034
0.23834328 0.1713494 0.5265619 0.18117233 0.09951476 0.34103367 0.18619075 0.21008447
0.23299006 0.16343376 0.09488077 -0.15186937 0.5395317 0.35291418 0.3791619 0.021595951
0.22076066 0.28368297 0.14996496 0.28046373 0.2862261 0.2679391 0.0036484473 0.10337986

tabnet.initial_splitter.shared.glu_layers.0.bn.bn.bias f4 [96]
00000000: 23a8 17ba 7b99 043c 8bd8 0d3c e071 5b3b
00000010: 9854 57bd 8a38 80bb b0e8 d3bb 9207 7e3a
00000020: 5844 8f3b 9286 82bb eec9 f53b 1ec6 12bd
00000030: 78c4 df3a cf34 403b 2d77 30bc f5f3 64bc
00000040: 38e7 b1bb 20a0 2cbd 41fd 4cbc 6d51 c93b
00000050: 8d27 93bb c425 b43a 6e8a c53b 1baa 103c
00000060: 4fcd 2d3d 422e afbc 7b22 2dbd 6961 c23c
00000070: 111f 1b3d 20c2 febc 8a54 343c fa32 abbc
00000080: a248 5bbd bfa2 0bbd ae50 1b3d f496 db3b
00000090: c7e5 613e 0c7f 2c3b a374 053d aa54 e3bc
000000a0: 7e27 28bd e609 89bc c61b a9bc d655 2cbe
000000b0: 2782 a43c 15f6 8f3c 1c95 ae3b 3c61 04bc
000000c0: c813 3bbc 5526 ca3c 4f43 a8ba bbea e73b
000000d0: 8194 ac3c 07d9 fbbb ae39 a03a 5ef3 553c
000000e0: a857 8dba 2ac9 d13a eb77 27bc fb0b 7e3d
000000f0: ead5 6d3d dd9d 1fbc 99ca 383d e553 253d
00000100: 47ae 4fbb 2972 b8bc 2a8d b5ba 8016 85bb
00000110: e030 743d 3945 0a3e ec29 343d 02e5 b0bb
00000120: 2537 ff3c cedb c23c 6aa1 54bd c760 523d
00000130: 2dfe 443d 95be 8e3d 7f4e 113d 0c3f 2c3d
00000140: 629f 1b3d 495c 2c3a 401e b63c 9bd5 a83d
00000150: 2368 d1bc de01 9d3d bb3f e83c 65ba 6a3d
00000160: 5e87 09bc 3d20 8b3c 2db9 553d ae06 093d
00000170: ef76 813d 7263 de3c 8327 38bc b1a6 a33d
-0.0005785247 0.008093233 0.008657585 0.0033484623 -0.05257091 -0.00391299 -0.0064669475 0.0009690459
0.004372161 -0.003983327 0.0075008785 -0.03583347 0.0017072102 0.0029328351 -0.010770601 -0.0139741795
-0.0054291748 -0.042144895 -0.012511552 0.00614374 -0.004490799 0.0013744165 0.006028465 0.008829619
0.042432126 -0.021384362 -0.04226921 0.02372809 0.037871424 -0.031098425 0.011006484 -0.020898331
-0.053536065 -0.034090754 0.03791874 0.0067013446 0.2206031 0.0026320843 0.032581937 -0.027750332
-0.041053288 -0.016728353 -0.020643126 -0.16829619 0.020081593 0.017573396 0.005327834 -0.008079823
-0.01141829 0.024676481 -0.0012837442 0.0070775426 0.021066906 -0.007685784 0.0012224221 0.013058512
-0.001078357 0.0016005386 -0.010221462 0.062023144 0.058065332 -0.009742227 0.045115087 0.04036321
-0.003168957 -0.022515373 -0.0013851274 -0.00406152 0.059616923 0.13502969 0.043985292 -0.0053983936
0.031154225 0.023786452 -0.05191175 0.051361825 0.048093963 0.069699444 0.03547525 0.042052314
0.037993796 0.0006575031 0.022231221 0.08243867 -0.025562352 0.07666372 0.028350702 0.057306666
-0.00839409 0.016983146 0.05217855 0.033453636 0.06321513 0.027147029 -0.011239889 0.07990778
