cv_steps/tabnet_raw_step1_fold0_6/network.pt (torch, 682315 bytes, 56 tensors)

embedder.embeddings.0.weight f4 [3, 1]
0	0xbdd153d3	-0.10221066
1	0xbccd248a	-0.025041837
2	0x3e02e629	0.12783112

embedder.embeddings.1.weight f4 [2, 1]
0	0x3c40bb98	0.011763476
1	0xbc459437	-0.012059263

tabnet.initial_bn.weight f4 [1038]
0	0xbe2570c1	-0.16156293
1	0xbc338d39	-0.010958963
2	0x3e04f45c	0.1298384
3	0x3e1e37e9	0.15451016
4	0x3dce4e93	0.100735806
5	0xb96fc22a	-0.00022865148
6	0xb97caed7	-0.00024097726
7	0x3ca7804c	0.020446919
8	0x3def5eb9	0.11687989
9	0xb9eac704	-0.00044780236
10	0x3ea2f961	0.31830886
11	0x34141451	1.3790965e-07
12	0x3c09e1a1	0.0084156105
13	0x3de2233c	0.11041877
14	0x3d4cb024	0.04997267
15	0x3e0ea8ee	0.13931629
16	0x3dc95efd	0.09832571
17	0x3e43f51b	0.19136469
18	0xb8d83ed6	-0.00010311387
19	0x364b6c9e	3.031258e-06
20	0x3de3eb06	0.111288115
21	0x3db052e8	0.08609563
22	0x3e5c51ee	0.21515629
23	0x3da8e6ac	0.08247122
24	0x3e3d69b0	0.18497348
25	0x3e2e2476	0.17006096
26	0x3c26c33c	0.010178383
27	0x3dcf6302	0.10126306
28	0x3e02dbcf	0.12779163
29	0x3e2bdb4c	0.16782874
30	0x3e042084	0.12903029
31	0x3e3ea88b	0.18618982
32	0x3e61f5e0	0.2206645
33	0xba36cac7	-0.0006972965
34	0x3d3535bb	0.044240694
35	0x3e652de7	0.22380792
36	0x3e57c60d	0.21071644
37	0xb801375d	-3.0807558e-05
38	0x3e313a91	0.17307498
39	0x3e2c9f41	0.16857626
40	0x3e0685e8	0.13137019
41	0x3e3c6503	0.18397908
42	0x3e2f5728	0.17123091
43	0x3e168a0a	0.14701095
44	0x3d5f32ce	0.05449181
45	0xbc16d411	-0.009205834
46	0x3db9eea7	0.090787224
47	0x3e26d0c2	0.16290572
48	0xbcbaec4d	-0.022817755
49	0x3e55f5f4	0.20894605
50	0x3e53c271	0.20679642
51	0xb7e44ebd	-2.7216383e-05
52	0x3e2d011b	0.16894953
53	0x3e1d9a36	0.15390858
54	0xbb802edf	-0.0039118375
55	0x3cbb4b99	0.022863196
56	0x3d9620c3	0.073304676
57	0x3643b2cd	2.916134e-06
58	0x3e17dc89	0.14830221
59	0x3e235443	0.15950112
60	0x3e02b8cd	0.12765808
61	0x3df90522	0.12159182
62	0x3e11884d	0.14212151
63	0x34b87021	3.4354255e-07
64	0x3e015125	0.1262861
65	0x3e6a5655	0.22884496
66	0x349f7a8a	2.9705217e-07
67	0x3e04c0af	0.12964128
68	0xbcdafa71	-0.026730748
69	0x3e05584e	0.13021967
70	0x3e3c01eb	0.18360107
71	0x3c9f729c	0.01946383
72	0x3d90846b	0.07056507
73	0x3cfeb6ee	0.031093087
74	0x3a8e9e36	0.0010880891
75	0x3b901661	0.004397199
76	0xb8c9ece7	-9.6285534e-05
77	0x3ebc70aa	0.36804706
78	0xb5ad83e3	-1.2927889e-06
79	0x3e4f786b	0.2026078
80	0x3e17e4c1	0.14833356
81	0x3ca6f8e4	0.020382352
82	0x34fb389f	4.679359e-07
83	0x3e20303d	0.15643401
84	0xbd199858	-0.037498802
85	0x39687e52	0.00022172302
86	0x3c9c83d1	0.019105824
87	0x3e1ac084	0.15112501
88	0x3e1cf564	0.15327984
89	0x3cb65e50	0.022261769
90	0x3e2913c8	0.16511452
91	0x3de7d7ee	0.11320482
92	0x3e34a306	0.17640314
93	0x3e7496f4	0.23885709
94	0x3d9d7531	0.07688368
95	0x3dd74b0d	0.10512362
96	0x3db1e73a	0.08686681
97	0x3e6bc77f	0.2302532
98	0x3e12516e	0.14288875
99	0x3cf046cc	0.029330634
100	0x3db7f04e	0.08981381
101	0x3dfef9fb	0.12450024
102	0x3e739881	0.23788644
103	0x3bc3a9d1	0.0059711714
104	0x3e2272e1	0.15864135
105	0x3e823a0e	0.25434917
106	0xbd537379	-0.051623795
107	0x3dfec343	0.12439587
108	0x3d0b8320	0.034060597
109	0x3e48e9e7	0.19620477
110	0x3e0c088b	0.13675134
111	0x3df2b954	0.11851755
112	0x3da060b4	0.07830945
113	0xb3ac070e	-8.0106574e-08
114	0x3b327ac2	0.0027233814
115	0x3d269b28	0.040675312
116	0x3e244bcf	0.16044544
117	0x3d88db1a	0.06682415
118	0x3e190a11	0.14945246
119	0x3e55f29a	0.20893326
120	0x3e63e1ad	0.22254057
121	0x3d84ed9d	0.06490634
122	0x3e24e446	0.16102704
123	0xb9731600	-0.00023182482
124	0x3e84684f	0.2586083
125	0x3e21aca3	0.15788512
126	0x3e20c424	0.15699822
127	0x3e552a5b	0.20816939
128	0x373bb7c6	1.1188857e-05
129	0x3e1c3f62	0.15258554
130	0x3e58c732	0.21169737
131	0x3dcce5c9	0.100047655
132	0x3e81a1d9	0.25318792
133	0x3e0e72d7	0.13910995
134	0x3c18276a	0.009286741
135	0x3e370f66	0.17876968
136	0x3e1fe9df	0.15616558
137	0x3da10bdd	0.07863591
138	0x3e18ec28	0.14933836
139	0x3d37f146	0.04490783
140	0x3dd81100	0.105501175
141	0x3da51d7d	0.08062265
142	0x3d093cb7	0.033505168
143	0x3d74185e	0.05959355
144	0x3e1b1b0f	0.15147041
145	0x3e32c74a	0.17458835
146	0x3e529529	0.20564713
147	0x3e0ab478	0.13545406
148	0x3e02f4db	0.12788717
149	0x3e2d8cab	0.16948192
150	0x3e076937	0.1322373
151	0x3e54e6ae	0.20791122
152	0x3c4877ac	0.012235563
153	0x3e148325	0.14503153
154	0x3b630499	0.0034640192
155	0x3e64a747	0.22329436
156	0x3e1213fe	0.14265439
157	0x3db5fea1	0.08886457
158	0x3e64f459	0.22358836
159	0x3e6673d6	0.22505125
160	0x3ea0c735	0.31401983
161	0x3dfe4382	0.1241522
162	0x3e348a14	0.17630798
163	0x3dca0b8e	0.09865485
164	0x3e02ca2a	0.12772432
165	0x3cd43451	0.025903853
166	0x3e66be0a	0.22533432
167	0x31aeeb0d	5.0907887e-09
168	0x3e3c5dea	0.183952
169	0x3e77fc20	0.24217272
170	0x3d75758f	0.059926566
171	0x3e2cbcca	0.16868892
172	0x3de58f38	0.112089574
173	0x3e082359	0.13294734
174	0x3dc84f0c	0.09780702
175	0x3e83ad88	0.2571833
176	0x3e145808	0.14486706
177	0x3e951baf	0.29122683
178	0x3d92272b	0.07136377
179	0x3e127143	0.14301018
180	0x3ea741c2	0.32667357
181	0x3bd1d677	0.00640374
182	0x3e256a5d	0.16153856
183	0x3e3100fc	0.17285532
184	0xbd92f610	-0.07175839
185	0x3e2cfeef	0.16894124
186	0x3dd8daeb	0.1058863
187	0x3d645adb	0.05575071
188	0x3d2d588e	0.04232078
189	0x3e21f294	0.15815192
190	0x3df8ebb1	0.121543296
191	0x3e3f2473	0.18666248
192	0x3e1c72a5	0.15278108
193	0x3d692341	0.056918386
194	0x3e37757b	0.17915909
195	0x3dbdb881	0.09263707
196	0x3e2ec1d8	0.17066133
197	0x3b8f9153	0.0043813377
198	0xbcb62d83	-0.022238499
199	0x3da58e67	0.08083802
200	0x3de60004	0.11230472
201	0x3de0bc3b	0.10973402
202	0x3ab727d9	0.0013973668
203	0x3e201919	0.15634574
204	0x3e886193	0.26636943
205	0x3e878185	0.26466003
206	0x3d467d75	0.04845949
207	0x3df77d2a	0.1208442
208	0x3e0064fe	0.12538525
209	0x3e8a5ffc	0.27026355
210	0x3d8f1fe1	0.06988502
211	0x3e3a83c0	0.18214321
212	0x3e45cb95	0.19315942
213	0x3e30997c	0.1724605
214	0x3dbed495	0.093178906
215	0x3df9bcc0	0.12194204
216	0x371d714b	9.384307e-06
217	0x3e008290	0.12549806
218	0x3e322000	0.1739502
219	0x3e6554a4	0.22395569
220	0x3e44b98e	0.19211408
221	0x3e42e434	0.19032365
222	0x3d9f65e9	0.0778311
223	0x3e8f3970	0.2797351
224	0x3dd23f32	0.1026596
225	0x3d3fe826	0.046852253
226	0x3d8dc79b	0.06922837
227	0x3e031296	0.12800059
228	0x3e0b7f52	0.13622788
229	0xbab3f76e	-0.0013730356
230	0x3962f8ab	0.00021645676
231	0x3e315766	0.17318496
232	0xb2765d2c	-1.4340269e-08
233	0x3e19f998	0.15036619
234	0x391a9dbb	0.00014745344
235	0x3df1e908	0.11812025
236	0x3de6a5b1	0.11262072
237	0x3e438e3d	0.19097228
238	0x3aaf815c	0.0013389993
239	0x3e39bded	0.18138857
240	0x39a6e88f	0.00031835257
241	0x3da7f0db	0.082002364
242	0x3d93f60d	0.07224665
243	0x3e675c10	0.22593713
244	0x3de81dcb	0.113338076
245	0x36180b31	2.265628e-06
246	0x3d934ad5	0.071920075
247	0x3d9d5dcc	0.07683906
248	0x3dccb8b6	0.09996168
249	0x3d63b346	0.05559089
250	0x3e791eb2	0.24328116
251	0x3dda190e	0.1064931
252	0x3d375fdd	0.044769157
253	0x3cc2505e	0.023719963
254	0x3e152989	0.14566626
255	0x3d434857	0.04767641

tabnet.initial_bn.bias f4 [1038]
0	0xb8947e4f	-7.080717e-05
1	0xbebed008	-0.3726809
2	0xb83d06f8	-4.50676e-05
3	0xb816075b	-3.5769637e-05
4	0xb9b7eae2	-0.0003507948
5	0xb05ba517	-7.990634e-10
6	0xb5c11125	-1.438461e-06
7	0x3792636f	1.7450859e-05
8	0x3776a7a1	1.4701772e-05
9	0x33196fc5	3.5724742e-08
10	0xb7d76858	-2.5678586e-05
11	0xafe91b6b	-4.2401935e-10
12	0x380cf0be	3.360281e-05
13	0x36ca0840	6.0210295e-06
14	0xb9201144	-0.00015265221
15	0xb83bd739	-4.4784716e-05
16	0xb7334193	-1.0684499e-05
17	0x3722b76b	9.698658e-06
18	0xb2915a93	-1.692141e-08
19	0xb17db926	-3.692159e-09
20	0x37df77c3	2.663944e-05
21	0xb96ebdaa	-0.00022768104
22	0xb91718e4	-0.00014409755
23	0x380e2835	3.3892884e-05
24	0xb5144d9a	-5.524722e-07
25	0x371e66dd	9.441484e-06
26	0x3744b680	1.1725002e-05
27	0x38e30354	0.000108248234
28	0x3985b221	0.00025500453
29	0x394134b1	0.00018425543
30	0xb85b7ff1	-5.2332824e-05
31	0xb790f7e5	-1.7281573e-05
32	0x377d03a1	1.508082e-05
33	0xb4434d8b	-1.8189e-07
34	0xb6a28e08	-4.844511e-06
35	0xb9fb9bd4	-0.00047990552
36	0xb893dd75	-7.050756e-05
37	0x34cb4b0d	3.7866303e-07
38	0xbe120a38	-0.1426171
39	0x38d9dadb	0.00010388131
40	0x39162b5f	0.00014321272
41	0x37da2a40	2.60073e-05
42	0xb8b1ca57	-8.4777064e-05
43	0xb85b5cd5	-5.2300125e-05
44	0x387d98b5	6.046212e-05
45	0x372a61a0	1.015552e-05
46	0x382ce6df	4.122301e-05
47	0x3957511c	0.00020534213
48	0x37cf461c	2.470897e-05
49	0xb88409ee	-6.2961e-05
50	0xb937abc0	-0.00017516222
51	0x31fd188d	7.36606e-09
52	0xb9090e29	-0.00013070613
53	0x381f1c19	3.7934722e-05
54	0x36e7396c	6.8910213e-06
55	0xbeb8cfd9	-0.36096075
56	0x36c6e221	5.9271847e-06
57	0xb0ebb24e	-1.7149178e-09
58	0xb7249563	-9.809944e-06
59	0xb5d99d42	-1.6213528e-06
60	0x3a7dd648	0.00096831145
61	0x36fa7401	7.4640852e-06
62	0x37e215b1	2.69514e-05
63	0xb19d8a5e	-4.585032e-09
64	0x369dca72	4.7025324e-06
65	0xb8af90e8	-8.371641e-05
66	0xaeaee89f	-7.953926e-11
67	0x3906cb52	0.00012854979
68	0x386451e3	5.44357e-05
69	0x382005ea	3.815248e-05
70	0x395c526e	0.00021011542
71	0x39acf315	0.00032987507
72	0xb71794ba	-9.0349295e-06
73	0x3ec4590b	0.38349184
74	0xb5a7a273	-1.2489749e-06
75	0x37ee73b2	2.8425686e-05
76	0x35786bfa	9.2544326e-07
77	0xb94354ee	-0.00018628288
78	0xaff1d11e	-4.398623e-10
79	0x36ab252f	5.100526e-06
80	0x396bf88e	0.0002250394
81	0x3870758c	5.7329933e-05
82	0x2ed7217e	9.7830175e-11
83	0x39047498	0.00012631936
84	0xb814858c	-3.5410325e-05
85	0x3367b657	5.3949716e-08
86	0xb7419d37	-1.1540301e-05
87	0xb8b345a4	-8.548357e-05
88	0xbaa0bd4e	-0.0012263448
89	0xb578f228	-9.2739583e-07
90	0x389984aa	7.320319e-05
91	0x36fc01b2	7.5103826e-06
92	0xb84c31af	-4.868366e-05
93	0x38991a44	7.300501e-05
94	0xb8fbcbcc	-0.00012006573
95	0xb8a8e1c7	-8.0529186e-05
96	0x388e75c5	6.793024e-05
97	0x3d2e372e	0.042533092
98	0xb7836fc1	-1.5668456e-05
99	0x3764a14e	1.3627416e-05
100	0x3823f3f1	3.9089417e-05
101	0xb76ec8df	-1.4232674e-05
102	0xbdf7fabf	-0.12108373
103	0xbee5256a	-0.44755107
104	0xb8cc15a8	-9.731512e-05
105	0x385e0563	5.293394e-05
106	0x388a3f73	6.592171e-05
107	0xbe43c234	-0.19117051
108	0x33ee1a54	1.1087528e-07
109	0x38e43592	0.000108818655
110	0xb98420a3	-0.00025201318
111	0xb82e8c90	-4.161574e-05
112	0x3868a3c0	5.5465614e-05
113	0xaf018312	-1.1779047e-10
114	0xb5b8daeb	-1.3772782e-06
115	0xb7bba81c	-2.237042e-05
116	0xb8e0bd2f	-0.000107163905
117	0x362c5c13	2.5683592e-06
118	0x375d2ccd	1.31830575e-05
119	0x387eb348	6.0725288e-05
120	0x39998399	0.00029280482
121	0xb59f8132	-1.1884024e-06
122	0x341b2b5b	1.4451273e-07
123	0x34c02eeb	3.5796924e-07
124	0x3958363d	0.0002061957
125	0xbe9bcd03	-0.3042985
126	0xb94fc737	-0.00019815272
127	0xb8c10321	-9.20354e-05
128	0x30b40dae	1.3100612e-09
129	0x393a5333	0.00017769336
130	0xb924fbb9	-0.00015734033
131	0xb6779c5a	-3.6896877e-06
132	0x3975d47b	0.00023444176
133	0x37c9bf8b	2.4050261e-05
134	0x393a7a32	0.00017783864
135	0xb992d026	-0.00028002373
136	0xb7c491b9	-2.3432878e-05
137	0xb91f3ea9	-0.00015186764
138	0x37830732	1.5619768e-05
139	0x38387dc6	4.3986154e-05
140	0xb85939b6	-5.179058e-05
141	0xb8cf0372	-9.871171e-05
142	0xb7c56f59	-2.353608e-05
143	0x38904450	6.879179e-05
144	0xb80459cf	-3.1554893e-05
145	0xb9002548	-0.0001222092
146	0xb883b961	-6.281096e-05
147	0x38c63b2c	9.452397e-05
148	0x3747c3a0	1.1906872e-05
149	0xbd77352c	-0.060353443
150	0xb99f875c	-0.00030427694
151	0x38f9a02d	0.0001190308
152	0xb5e0e87a	-1.675696e-06
153	0xb9488817	-0.00019124184
154	0xb6898ed1	-4.099544e-06
155	0xb8ded653	-0.00010625706
156	0x39419fa5	0.00018465387
157	0xb6e8cb9f	-6.9378434e-06
158	0x3938a0a7	0.00017607455
159	0x3e053296	0.13007578
160	0x3d623d3c	0.05523418
161	0x3874b969	5.834681e-05
162	0xb835316c	-4.319979e-05
163	0x382215e9	3.8644215e-05
164	0x3780a5fc	1.5336082e-05
165	0xb6a8a78a	-5.0262943e-06
166	0xbe7d9a89	-0.24765982
167	0xad3a9b2d	-1.0607332e-11
168	0x39778fe1	0.00023609355
169	0x3a0fb4ab	0.0005481939
170	0x38ab75d9	8.175866e-05
171	0xb88fe5c8	-6.8615715e-05
172	0xb892d008	-7.000571e-05
173	0x38a1dc6d	7.718136e-05
174	0x37122fec	8.713436e-06
175	0xb95d25fe	-0.00021090356
176	0xb88c2ab2	-6.683673e-05
177	0xb961e9e4	-0.00021544803
178	0xb8b97f93	-8.84525e-05
179	0xb8e4c433	-0.00010908432
180	0xb8ff87fe	-0.00012184678
181	0x36f09894	7.17032e-06
182	0xb941229e	-0.0001841881
183	0x389a7344	7.364762e-05
184	0x3751e495	1.2510592e-05
185	0x39051008	0.0001268984
186	0xb40f670a	-1.3355398e-07
187	0x37f89e79	2.9637698e-05
188	0x388dcad4	6.7611836e-05
189	0x37eb871c	2.8077098e-05
190	0xb8dbb1b8	-0.000104758365
191	0xbdfbbbb8	-0.12291664
192	0xb747f802	-1.1919068e-05
193	0xb7a0665f	-1.9121157e-05
194	0x39c1b1c5	0.00036944277
195	0x37189640	9.094889e-06
196	0x3de9a5f4	0.11408606
197	0xb73d60d3	-1.12878215e-05
198	0x35fe8aab	1.8964832e-06
199	0x38cdd0d0	9.814056e-05
200	0xb829ec80	-4.0512998e-05
201	0x3866c893	5.5023072e-05
202	0x36d1007b	6.2287413e-06
203	0x3e78e7dc	0.24307197
204	0x3c68eee4	0.014217112
205	0xb98b55fa	-0.00026576204
206	0xb949e99c	-0.0001925588
207	0xb9276b41	-0.00015966316
208	0x36c91727	5.992962e-06
209	0x395cbaa0	0.00021050358
210	0x37be8619	2.271221e-05
211	0xb6a886f2	-5.0225e-06
212	0xb92d3275	-0.00016517362
213	0xbd11bffe	-0.03558349
214	0x36d9f62a	6.495761e-06
215	0xb88fd6c7	-6.858777e-05
216	0xb1e6014e	-6.6940293e-09
217	0x3822cc5b	3.881413e-05
218	0xb8d80ded	-0.000103022765
219	0xba11b546	-0.0005558323
220	0x39db6bd0	0.00041851262
221	0x3e570645	0.20998485
222	0x37ac9b51	2.0576323e-05
223	0x39a9c721	0.00032382554
224	0xb7c432c6	-2.3388664e-05
225	0xb6c9ae85	-6.0105835e-06
226	0x380d8a72	3.3745957e-05
227	0x398b9ef1	0.00026630567
228	0x36acdc26	5.151628e-06
229	0x37b1f718	2.1215106e-05
230	0x328277c9	1.5188464e-08
231	0xbda01bbd	-0.07817791
232	0xad6072df	-1.2758432e-11
233	0xb94ea073	-0.00019705463
234	0xb54595f8	-7.360645e-07
235	0x39213e3a	0.00015377338
236	0xb60a10b9	-2.0573336e-06
237	0x3e7c2ae7	0.24625741
238	0xb452123f	-1.9564412e-07
239	0x37e22c54	2.6961941e-05
240	0xb45364be	-1.9687556e-07
241	0x3816f946	3.599494e-05
242	0xb8c26730	-9.269861e-05
243	0xb80f94e5	-3.4232526e-05
244	0x389dfdc4	7.533611e-05
245	0xb072c8ec	-8.8324614e-10
246	0xb8c17804	-9.225312e-05
247	0x36d54eac	6.3570533e-06
248	0x36d31f63	6.291944e-06
249	0x3a13287c	0.00056136376
250	0xb7e35e3f	-2.7104395e-05
251	0xbe89791c	-0.26850212
252	0x37d2ea21	2.5142976e-05
253	0xbeb478ee	-0.35248512
254	0xb7fdb8f6	-3.024608e-05
255	0xb82254a5	-3.870264e-05

tabnet.initial_bn.running_mean f4 [1038]
0	0x382f74cb	4.1832023e-05
1	0x37df4dd5	2.6619915e-05
2	0x3b60ba5c	0.0034290766
3	0xbb6c0317	-0.0036012584
4	0x3b3c46a2	0.0028728624
5	0x3ab9104c	0.0014119237
6	0xbb58c252	-0.0033074808
7	0xbb010fd3	-0.001969327
8	0x3b9e8919	0.0048381207
9	0xbb8779f8	-0.004134413
10	0xbc3a14c9	-0.011357495
11	0xba8ed795	-0.0010897989
12	0x3a0ffb49	0.00054924615
13	0x3b2a2dee	0.0025967318
14	0x3b6e72ce	0.0036384347
15	0x3bab3584	0.0052248854
16	0xbb605e7a	-0.0034236
17	0xba9eb075	-0.0012107032
18	0xb9ec887e	-0.00045115122
19	0xbb7395a4	-0.003716805
20	0x3a66cbbd	0.0008804163
21	0x3b603376	0.003421036
22	0x3b213843	0.0024600185
23	0xbba9d014	-0.0051822755
24	0x3b536ae1	0.003225975
25	0x3b5169df	0.0031953973
26	0xba1ff4eb	-0.0006101864
27	0x3b98aca5	0.0046592527
28	0xb9b92de9	-0.00035320155
29	0x3b6bcf38	0.0035981666
30	0x3a8c7c53	0.0010718204
31	0xba8b1b11	-0.0010612925
32	0xba95e657	-0.0011436444
33	0x3c2ae44d	0.010430408
34	0xbbc6b7f2	-0.0060644085
35	0xbba6190e	-0.0050689047
36	0x3bc3055b	0.005951566
37	0xbb4be6ec	-0.0031112982
38	0xbaaae09a	-0.0013036907
39	0xbd239527	-0.039937165
40	0x3cef6aa2	0.029225651
41	0x3b9c5866	0.00477128
42	0xbb15b259	-0.00228419
43	0xbb528e6a	-0.0032128342
44	0xbb086181	-0.002081007
45	0x3accdcf8	0.0015629819
46	0x3b423996	0.0029636375
47	0x3b3cfff3	0.002883908
48	0x3bef9338	0.007311251
49	0x3b809d15	0.0039249756
50	0x3bce9229	0.0063040447
51	0x3b123d56	0.002231439
52	0xbd42f957	-0.04760107
53	0xbb0a7714	-0.0021128105
54	0xbb39028d	-0.002823028
55	0x3b1a8476	0.0023577488
56	0x3b43abcd	0.002985704
57	0xbc03cfff	-0.008045196
58	0xbb5ba1b4	-0.003351313
59	0x3b582a00	0.0032984018
60	0xbcbde234	-0.023179151
61	0xbc107125	-0.008816038
62	0xbbbb33d9	-0.005712968
63	0xbbbc9c4a	-0.005755936
64	0xbc1e6b57	-0.0096691465
65	0xbc421df5	-0.011847963
66	0xbafb5980	-0.0019176453
67	0xb957fa61	-0.00020597271
68	0xbabc2321	-0.0014353731
69	0xbd634a7f	-0.055490967
70	0x3b8313d8	0.0040001683
71	0x3ac217f4	0.0014808164
72	0xbbc1c607	-0.0059134993
73	0xba0e28e6	-0.00054229645
74	0xbca0fff5	-0.0196533
75	0xba853b86	-0.0010164834
76	0x3bafbc1a	0.0053629996
77	0xbd4314da	-0.047627307
78	0x3ba815b9	0.0051295427
79	0x39f4e064	0.0004670649
80	0x3bbe2a54	0.0058033857
81	0x3a911c36	0.001107103
82	0xbb3f1784	-0.0029158304
83	0x3a40581a	0.0007337347
84	0xbb07704e	-0.0020666304
85	0x3b92fdce	0.0044858223
86	0x3b918078	0.0044403635
87	0xbae94e08	-0.0017799744
88	0x3c1c5a65	0.009543036
89	0x390dfaa9	0.00013540186
90	0xbae581e5	-0.0017510025
91	0xbb291291	-0.002579842
92	0x3af41029	0.0018620539
93	0x3ba23607	0.004950288
94	0xbaaabf4a	-0.0013026979
95	0x3b2651b8	0.0025378298
96	0x3b94b86a	0.0045385854
97	0x3b0457c8	0.0020193923
98	0xbbc9e73b	-0.006161598
99	0x3aba830e	0.0014229731
100	0xbc06eaf9	-0.008234733
101	0x3b97b013	0.004629144
102	0x3c6af20a	0.014339933
103	0x3b6449d4	0.0034834044
104	0xbb79e28b	-0.0038129415
105	0xbb2f7987	-0.0026775317
106	0x3ab619b7	0.0013893162
107	0xb99bc8ec	-0.00029713602
108	0x3b8f10be	0.0043660095
109	0xba5fbac0	-0.0008534603
110	0x3bcd3cf8	0.0062633716
111	0xbb8b5bd7	-0.0042528915
112	0xbac4b2bc	-0.001500688
113	0x3b06a5cf	0.0020545607
114	0x398858bd	0.00026006057
115	0xbc6e780a	-0.014554987
116	0xbbbbbf5c	-0.005729599
117	0x3ba1b51d	0.0049349205
118	0xbaabecbb	-0.0013116816
119	0xbac1b747	-0.0014779352
120	0x3bd856c5	0.0066021406
121	0xbaa23154	-0.001237432
122	0xbb9e23e7	-0.0048260572
123	0xbb9937f0	-0.0046758577
124	0x3b383f90	0.0028114058
125	0x3cc84c22	0.024450365
126	0xbb555bf1	-0.0032556022
127	0x3b5ad7e0	0.0033392832
128	0x3ae584e2	0.0017510916
129	0xbac08c90	-0.0014690328
130	0xbcade7ba	-0.02122866
131	0xba8c85d5	-0.0010721037
132	0x3ada76c2	0.0016667473
133	0x3d055058	0.032547325
134	0x3b217ba3	0.0024640344
135	0x3b61a008	0.0034427661
136	0xbb031148	-0.0019999314
137	0x3b69663c	0.0035613915
138	0xb7aaf356	-2.0378891e-05
139	0xbb5904a3	-0.0033114336
140	0xbb60aea4	-0.0034283781
141	0x3b8b8b12	0.004258522
142	0xbb3e8d47	-0.0029075907
143	0x3b0206ea	0.0019840547
144	0x3be297d8	0.006915074
145	0x3ba942ad	0.005165419
146	0x3c0c8bec	0.008578282
147	0xb7276f2a	-9.979858e-06
148	0x3c0094fc	0.007848021
149	0x3c44277e	0.011972306
150	0x3b2d750e	0.0026467475
151	0x3a8c82d1	0.0010720139
152	0xbb566beb	-0.0032718133
153	0xbb3f2ec3	-0.002917216
154	0xbc4067f5	-0.011743535
155	0x3a9e2c7a	0.0012067698
156	0xbad86879	-0.0016510627
157	0x3c067f05	0.008208995
158	0x3baa84aa	0.005203803
159	0x3c276f22	0.010219367
160	0x3cb77be2	0.02239794
161	0x3b1a69e9	0.0023561663
162	0x39ce8d57	0.00039396688
163	0x3b942480	0.0045209527
164	0x3ab568a9	0.0013840395
165	0x3c3d4be9	0.011553743
166	0x3c054cc1	0.008135975
167	0xbb02cf80	-0.0019960105
168	0x3abf7e31	0.0014609752
169	0xbb5f7463	-0.0034096471
170	0x3b03d473	0.0020115643
171	0xbbb6fff2	-0.0055847103
172	0x3c23b5a5	0.009992038
173	0xbb2c4177	-0.0026284137
174	0xbb8f2d06	-0.004369381
175	0xbaa31aaa	-0.001244386
176	0x3a309b8b	0.0006737045
177	0xbb91ebc2	-0.0044531533
178	0xbae6708b	-0.0017581148
179	0x3b616b69	0.0034396297
180	0x3b3b519d	0.002858258
181	0xbb7909f7	-0.0038000324
182	0xba9925bb	-0.0011684218
183	0xb9eb52f3	-0.00044884495
184	0x3b01beed	0.0019797639
185	0xbaebc110	-0.0017986614
186	0xbb75a40d	-0.0037481815
187	0xbc8f3f8c	-0.017486356
188	0x3b1bfd0d	0.0023801953
189	0x3b4face7	0.0031688751
190	0x3b00ff7d	0.0019683533
191	0xbbab59f1	-0.0052292277
192	0x3a2a72d8	0.00065020984
193	0xbb1d6ef6	-0.0024022437
194	0xba20472c	-0.0006114121
195	0xbb5c6dc0	-0.0033634752
196	0x3b0fc3af	0.0021936705
197	0xbcd094a4	-0.025461502
198	0xbbe401da	-0.0069582285
199	0x3c045c8c	0.0080787055
200	0x3b29d799	0.002591586
201	0x3ba0a951	0.0049029966
202	0xbb8e7c97	-0.0043483484
203	0x3c865c27	0.016401364
204	0xbc31a647	-0.010842866
205	0xba7d733b	-0.0009668355
206	0x3bd49394	0.0064873192
207	0xba43146e	-0.0007441704
208	0x3bc24559	0.005928677
209	0xbaad6bb4	-0.001323095
210	0x3c0466bd	0.008081135
211	0xbac908fb	-0.0015337759
212	0xba911999	-0.0011070251
213	0x3ba24ef3	0.004953259
214	0xbaa8bc05	-0.0012873417
215	0x3b34443b	0.002750649
216	0xba4f39de	-0.0007905046
217	0x3c16bc1a	0.00920012
218	0xb9ce532d	-0.00039353353
219	0xbaeff58c	-0.0018307432
220	0xbb370fa1	-0.00279329
221	0x3b8c743e	0.004286318
222	0xbb5f45a3	-0.0034068606
223	0xbb3a72d5	-0.0028449793
224	0xbbdc7493	-0.006727764
225	0x39cb2d10	0.0003875275
226	0x3bcb9882	0.0062132487
227	0xbb662f99	-0.0035123585
228	0x3bac2a11	0.005254038
229	0xbacd4d9b	-0.0015663387
230	0xbd8f8a51	-0.07008804
231	0x3b062d90	0.0020473935
232	0x3a6acf70	0.0008957302
233	0xbbdf9355	-0.0068229833
234	0xbb0987a2	-0.0020985384
235	0x3aee64bb	0.0018187979
236	0xba7d69cb	-0.00096669485
237	0x3b8105b7	0.003937449
238	0x3b03b783	0.0020098395
239	0x3ab2ee3e	0.0013651324
240	0xbba79c5f	-0.0051150764
241	0xbbba2c84	-0.005681576
242	0x3bafff52	0.0053710127
243	0x3a1066a3	0.0005508458
244	0xbb5576f1	-0.0032572115
245	0x3c02854c	0.007966351
246	0x3b048e3a	0.0020226375
247	0xbb82dbca	-0.003993486
248	0xbbe1b4d9	-0.006888014
249	0x39247723	0.0001568464
250	0x3cdcec88	0.026968256
251	0x3af70309	0.0018845509
252	0xbbc2f790	-0.005949922
253	0x3ae4da15	0.0017460013
254	0x3aa9bf0e	0.0012950615
255	0x3a66b548	0.0008800817

tabnet.initial_bn.running_var f4 [1038]
0	0x3bf58c8b	0.0074935607
1	0x39daedb2	0.00041757297
2	0x3f7ce55f	0.9878749
3	0x3f7920de	0.97315776
4	0x3f797d29	0.97456604
5	0x3f78955e	0.97102916
6	0x3f785a79	0.9701305
7	0x3f78fb72	0.97258675
8	0x3f77121b	0.96512
9	0x3f78ebec	0.9723499
10	0x3f897246	1.0737998
11	0x3f7865b2	0.97030175
12	0x3f795b07	0.9740452
13	0x3f7a40de	0.9775523
14	0x3f783037	0.9694857
15	0x3f7de7f8	0.9918208
16	0x3f79ff78	0.9765544
17	0x3f7871a4	0.970484
18	0x3f7bc5b3	0.9834854
19	0x3f792634	0.9732392
20	0x3f778ae7	0.96696323
21	0x3f75dc25	0.9603904
22	0x3f780769	0.96886307
23	0x3f787550	0.97054005
24	0x3f78d441	0.97198874
25	0x3f76a7bd	0.963497
26	0x3f7aabf9	0.9791866
27	0x3f778a11	0.9669505
28	0x3f786af8	0.9703822
29	0x3f779cf5	0.9672387
30	0x3f79462f	0.97372717
31	0x3f7a0169	0.976584
32	0x3f7a7d7a	0.9784771
33	0x3f875973	1.0574173
34	0x3f771b11	0.96525675
35	0x3f799c90	0.9750452
36	0x3f7c1ee6	0.9848465
37	0x3f787826	0.9705833
38	0x3f7de8a2	0.99183095
39	0x3fa4ebbe	1.2884443
40	0x3f97bf27	1.185521
41	0x3f78a8d0	0.9713259
42	0x3f7f2feb	0.9968249
43	0x3f7a4412	0.9776012
44	0x3f7850bc	0.9699819
45	0x3f79444f	0.97369856
46	0x3f7884fb	0.9707791
47	0x3f7693ff	0.96319574
48	0x3f818759	1.011943
49	0x3f7a719f	0.9782962
50	0x3f7fb586	0.9988636
51	0x3f793473	0.97345656
52	0x3fab7249	1.3394252
53	0x3f779afb	0.96720856
54	0x3f78089c	0.96888137
55	0x3f7ab455	0.97931415
56	0x3f79ab2a	0.975268
57	0x3f7b477d	0.9815596
58	0x3f78c7e8	0.9718003
59	0x3f7df45d	0.99200994
60	0x3f9196aa	1.1374104
61	0x3f7bb1e5	0.9831832
62	0x3f7660eb	0.96241635
63	0x3f7b01f0	0.9804983
64	0x3f83d7db	1.0300249
65	0x3f857563	1.0426449
66	0x3f7621bc	0.96145225
67	0x3f7a19c8	0.9769559
68	0x3f772579	0.96541554
69	0x3fb0cf09	1.3813182
70	0x3f789120	0.97096443
71	0x3f7840d0	0.96973896
72	0x3f78b091	0.9714442
73	0x3f772aa1	0.9654942
74	0x3f8e89ff	1.1135863
75	0x3f790df5	0.9728692
76	0x3f8585da	1.0431473
77	0x3fa70083	1.3047031
78	0x3f77cd76	0.96797884
79	0x3f7a0917	0.9767012
80	0x3f76fca3	0.96479243
81	0x3f770033	0.9648468
82	0x3f768d01	0.96308905
83	0x3f782b5d	0.9694117
84	0x3f79843b	0.9746739
85	0x3f7a2e80	0.97727203
86	0x3f77996d	0.96718484
87	0x3f7843c9	0.9697843
88	0x3f827ca7	1.0194291
89	0x3f7a0cd5	0.9767583
90	0x3f79acd8	0.97529364
91	0x3f780da8	0.9689584
92	0x3f799eca	0.9750792
93	0x3f80f43d	1.0074536
94	0x3f777bff	0.9667358
95	0x3f7965a5	0.9742072
96	0x3f786afa	0.97038233
97	0x3f78c887	0.9718098
98	0x3f820b2f	1.0159663
99	0x3f8325f7	1.0245961
100	0x3f809249	1.0044643
101	0x3f77752f	0.9666318
102	0x3f8ae8fe	1.0852354
103	0x3f78d321	0.9719716
104	0x3f7d03ce	0.9883393
105	0x3f794848	0.9737592
106	0x3f76e8b1	0.9644881
107	0x3f767606	0.9627384
108	0x3f7f65cd	0.9976471
109	0x3f796951	0.97426325
110	0x3f79693a	0.9742619
111	0x3f77bb8b	0.9677054
112	0x3f763192	0.9616939
113	0x3f79f435	0.97638255
114	0x3f783186	0.96950567
115	0x3f8f38ee	1.1189249
116	0x3f79d3d7	0.97588867
117	0x3f7932d3	0.97343177
118	0x3f7ae062	0.9799863
119	0x3f7a5541	0.9778634
120	0x3f75bb9a	0.9598938
121	0x3f76406b	0.96192044
122	0x3f77f88b	0.9686362
123	0x3f8061bd	1.0029827
124	0x3f76dbf2	0.9642936
125	0x3f968999	1.1760741
126	0x3f75e263	0.96048564
127	0x3f778815	0.9669202
128	0x3f7bb655	0.9832509
129	0x3f787dbc	0.97066855
130	0x3f8dd643	1.1081012
131	0x3f784e8b	0.9699485
132	0x3f822f03	1.0170597
133	0x3f9a329b	1.2046694
134	0x3f80ce88	1.0063028
135	0x3f7d55ac	0.9895885
136	0x3f791b4d	0.9730728
137	0x3f7696d5	0.963239
138	0x3f781fe2	0.9692365
139	0x3f7789a1	0.9669438
140	0x3f7b50b2	0.98170006
141	0x3f7acf27	0.9797234
142	0x3f7a70c1	0.978283
143	0x3f764da5	0.96212226
144	0x3f7cad6b	0.98702115
145	0x3f761d25	0.9613822
146	0x3f7f9e7f	0.9985122
147	0x3f79e6c8	0.9761777
148	0x3f7eea2d	0.99576074
149	0x3f831c89	1.0243083
150	0x3f7ec85a	0.9952446
151	0x3f78be22	0.9716512
152	0x3f7579bc	0.95888877
153	0x3f788abb	0.97086686
154	0x3f8092f3	1.0044845
155	0x3f77a3e7	0.9673447
156	0x3f78e750	0.97227955
157	0x3f813532	1.0094359
158	0x3f788e24	0.9709189
159	0x3f79fdb5	0.9765275
160	0x3f912176	1.1338336
161	0x3f781956	0.9691366
162	0x3f7e1039	0.99243504
163	0x3f7acd12	0.9796916
164	0x3f792159	0.9731651
165	0x3f835cb4	1.0262666
166	0x3f801499	1.0006286
167	0x3f75c2e4	0.96000504
168	0x3f79c5ca	0.9756743
169	0x3f7b4576	0.98152864
170	0x3f7a150d	0.9768837
171	0x3f79301b	0.9733903
172	0x3f847c0b	1.0350355
173	0x3f78e88a	0.97229826
174	0x3f78875f	0.9708156
175	0x3f781d85	0.96920043
176	0x3f780322	0.9687978
177	0x3f786a92	0.97037613
178	0x3f779484	0.9671099
179	0x3f7a33b0	0.9773512
180	0x3f8b16cf	1.0866336
181	0x3f76a704	0.96348596
182	0x3f77184d	0.96521455
183	0x3f7d6f69	0.98998123
184	0x3f799697	0.97495407
185	0x3f8233ce	1.017206
186	0x3f767e7d	0.96286756
187	0x3f8fa4cf	1.122217
188	0x3f7b7237	0.98221153
189	0x3f78dfb5	0.9721635
190	0x3f778976	0.96694124
191	0x3f801fed	1.0009743
192	0x3f796e24	0.97433686
193	0x3f790665	0.9727538
194	0x3f794410	0.9736948
195	0x3f774f84	0.96605706
196	0x3f792f76	0.97338045
197	0x3f8bd765	1.0925108
198	0x3f782f7d	0.9694746
199	0x3f809f53	1.0048622
200	0x3f7bd451	0.98370844
201	0x3f771645	0.96518356
202	0x3f78b81e	0.9715594
203	0x3f880393	1.0626091
204	0x3f891d53	1.0712074
205	0x3f767c4e	0.96283424
206	0x3f7e3ffa	0.9931637
207	0x3f7852a5	0.97001106
208	0x3f78ecfe	0.9723662
209	0x3f787d03	0.9706575
210	0x3f89c6e6	1.0763824
211	0x3f79cd49	0.97578865
212	0x3f7b0479	0.980537
213	0x3f796186	0.97414434
214	0x3f78e3c1	0.97222525
215	0x3f7d8878	0.9903636
216	0x3f784be9	0.9699083
217	0x3f81edd2	1.0150702
218	0x3f798bc9	0.9747892
219	0x3f79bdbb	0.9755513
220	0x3f796ee0	0.97434807
221	0x3f78ea1d	0.9723223
222	0x3f7aaea2	0.9792272
223	0x3f78c211	0.9717112
224	0x3f7963f0	0.9741812
225	0x3f780b87	0.9689259
226	0x3f7848bb	0.9698598
227	0x3f78f2fc	0.97245765
228	0x3f8458ea	1.0339634
229	0x3f778974	0.9669411
230	0x3fbb01a7	1.4609879
231	0x3f7a570d	0.9778908
232	0x3f79da9f	0.97599214
233	0x3f80bc8e	1.0057542
234	0x3f7d61a3	0.98977107
235	0x3f76d4af	0.9641828
236	0x3f7afefc	0.98045325
237	0x3f7d53a1	0.9895573
238	0x3f7810cd	0.96900636
239	0x3f783f64	0.96971726
240	0x3f77189c	0.96521926
241	0x3f79c034	0.97558904
242	0x3f794176	0.9736551
243	0x3f790591	0.9727412
244	0x3f789b69	0.9711214
245	0x3f8043c5	1.0020682
246	0x3f7a0a22	0.9767171
247	0x3f7c2933	0.98500365
248	0x3f7645e6	0.96200407
249	0x3f76da86	0.9642719
250	0x3f932016	1.1494167
251	0x3f7c5735	0.9857057
252	0x3f86a0db	1.0517839
253	0x3f816450	1.0108738
254	0x3f764e1e	0.9621295
255	0x3f7814cc	0.96906734

tabnet.initial_splitter.shared.shared_layers.0.weight f4 [96, 1038]
0	0xb93d6b81	-0.00018064493
1	0xbdd40e58	-0.10354298
2	0xb8b2e1da	-8.5297695e-05
3	0xb9ba678e	-0.0003555384
4	0x3a14dd7d	0.0005678756
5	0xb5664ff7	-8.579804e-07
6	0x369ff1db	4.766725e-06
7	0xb717961b	-9.0352505e-06
8	0xb97680ca	-0.00023508366
9	0x35174000	5.6345016e-07
10	0xba249fec	-0.0006279934
11	0x2fbd491f	3.4430855e-10
12	0x38dbe5ba	0.00010485524
13	0xb9be35a1	-0.0003627958
14	0xb997b74e	-0.00028937537
15	0x3a83e8cb	0.0010063885
16	0x38cd90e1	9.8021475e-05
17	0xb946aab6	-0.00018946346
18	0xb4a360b2	-3.043147e-07
19	0xb0c1d5e2	-1.4103387e-09
20	0xb97dfd81	-0.00024222398
21	0x3834f989	4.3147742e-05
22	0x38644f69	5.4433393e-05
23	0xb99bda2c	-0.00029726455
24	0xba4eafb1	-0.00078844564
25	0xb8f0b8c6	-0.000114785085
26	0xb7d17dbc	-2.4973291e-05
27	0xb91fa318	-0.00015224179
28	0xba2b07f4	-0.00065243174
29	0xba1fee0f	-0.0006100842
30	0xba314fb7	-0.00067638926
31	0x3926e092	0.00015914653
32	0xba551236	-0.0008128019
33	0x35bee4d8	1.4222705e-06
34	0xb996f987	-0.00028796142
35	0x388fd053	6.857575e-05
36	0x3a5aabd5	0.0008341645
37	0xb37c177a	-5.8694674e-08
38	0x3d01bd32	0.03167457
39	0xba8f6eb0	-0.0010943022
40	0xb927bdf5	-0.00015997126
41	0x3a9c5af0	0.0011928957
42	0x39ffe3aa	0.00048807013
43	0xb96388dd	-0.00021699393
44	0xb998a421	-0.00029113985
45	0xb70383ae	-7.8388675e-06
46	0xb8050c7e	-3.1721305e-05
47	0x3a62a58a	0.0008645883
48	0xb63209e1	-2.6529817e-06
49	0x3a4116a8	0.0007365742
50	0x3aa3916e	0.0012479255
51	0xb31cb1e4	-3.648337e-08
52	0xb90f3d94	-0.00013660482
53	0xba2341bf	-0.00062277535
54	0xb70936e0	-8.178613e-06
55	0x3d9320d4	0.07183996
56	0x3a070282	0.0005150215
57	0x319c2cca	4.5452895e-09
58	0x3a81cc25	0.0009902759
59	0x390f6e33	0.00013678595
60	0x39e8ed73	0.00044427402
61	0xba1c86d8	-0.0005971021
62	0xb98ac496	-0.0002646788
63	0xb20b023d	-8.091374e-09
64	0x39f7360f	0.00047151788
65	0xba9f1aa2	-0.0012138675
66	0x2fa74e7f	3.0432898e-10
67	0xb90d8340	-0.00013495702
68	0x38d09393	9.945701e-05
69	0xb9ecede9	-0.00045190685
70	0xb81aaf8d	-3.6879956e-05
71	0x39c7b977	0.0003809442
72	0xba014476	-0.0004931161
73	0xbd7f95b2	-0.06239862
74	0xb750ec74	-1.245282e-05
75	0xb8170a8e	-3.6011035e-05
76	0x3540e8fb	7.1864605e-07
77	0x3ac96fa3	0.0015368353
78	0x31e54ce8	6.6735204e-09
79	0xba2191de	-0.00061633985
80	0xba6e1ee8	-0.0009083585
81	0xb8c420e5	-9.3521354e-05
82	0x2f916baa	2.6451846e-10
83	0xb966550b	-0.0002196619
84	0x3985bb3a	0.00025507231
85	0x35564f6a	7.9836775e-07
86	0x383e6c47	4.540037e-05
87	0x39adba15	0.00033135773
88	0xbb026914	-0.0019899057
89	0xb882d92f	-6.239337e-05
90	0xb91b1cb9	-0.00014792652
91	0xb9b761b4	-0.00034977274
92	0x39af8305	0.00033476218
93	0x3987e261	0.00025917872
94	0xb918df2f	-0.00014578992
95	0x39a65cb5	0.0003173106
96	0x38b8d94a	8.814277e-05
97	0xbdd6546f	-0.10465323
98	0xb8ba6bdb	-8.889261e-05
99	0x38c51273	9.3971285e-05
100	0xb92ec316	-0.00016666608
101	0x38f57f73	0.0001170625
102	0xbdb466f0	-0.08808696
103	0xbd41062a	-0.04712502
104	0xb8840e5d	-6.296926e-05
105	0xb989f1f6	-0.0002631095
106	0xba0fbcf7	-0.0005483175
107	0x3c460f4e	0.01208861
108	0x3912ebb1	0.00014011447
109	0xba0744bf	-0.0005160085
110	0xb9ab1a46	-0.00032635237
111	0xb910a588	-0.00013794575
112	0xb973a847	-0.00023236974
113	0x2f8e3aef	2.5871524e-10
114	0x37117ebf	8.672184e-06
115	0x31df7445	6.5033725e-09
116	0x3a59ed91	0.0008313293
117	0xb891544d	-6.929841e-05
118	0xb8abc970	-8.191436e-05
119	0xba2152db	-0.0006154009
120	0x391840f9	0.00014520054
121	0xb99be845	-0.00029736958
122	0xb982c4ef	-0.0002494226
123	0xb461dcaa	-2.1035035e-07
124	0xbaa048a4	-0.001222868
125	0x3d740dc7	0.05958345
126	0x3a8856a1	0.0010401794
127	0xba0f8d42	-0.0005476066
128	0xb20de6d5	-8.259765e-09
129	0xb77e24fd	-1.5148192e-05
130	0x390a4276	0.00013185464
131	0xb9bf7a62	-0.0003652154
132	0xb8bc025e	-8.9649795e-05
133	0x398a8cbf	0.00026426275
134	0xb69756e0	-4.5102643e-06
135	0x3a8d9d22	0.0010804276
136	0xb91786b5	-0.00014450664
137	0x3a3f80e4	0.0007305278
138	0x39ada4d3	0.00033119935
139	0xb8b0d4a3	-8.431941e-05
140	0x3a0b0a7b	0.0005303991
141	0x39b55834	0.00034588727
142	0x392ab5c6	0.00016280179
143	0xb99c0581	-0.0002975874
144	0x3975ed1c	0.00023453351
145	0x39883280	0.00025977567
146	0x39c944f3	0.0003838908
147	0xb93eb39c	-0.00018186722
148	0x39f2eae8	0.00046332856
149	0xbc534937	-0.012895874
150	0x3a1097c2	0.0005515778
151	0xba3a1932	-0.00070990913
152	0xb814e95f	-3.5503293e-05
153	0xb9ecd897	-0.000451748
154	0x35e42e7f	1.7000856e-06
155	0x3a899921	0.0010497906
156	0xba490e80	-0.0007669702
157	0x395f957f	0.00021322629
158	0xba1dba4f	-0.0006016837
159	0xbd3038e8	-0.04302302
160	0x3b9f124f	0.0048544775
161	0xb9cce8d8	-0.00039083394
162	0xb71e9db2	-9.45425e-06
163	0xb95e3e62	-0.00021194809
164	0x399b8b8b	0.0002966787
165	0x3832612e	4.2529013e-05
166	0xbc4c9166	-0.012485838
167	0xadf468f4	-2.7786197e-11
168	0xbac05ddc	-0.001467641
169	0x377ca859	1.5059567e-05
170	0x39c2f24e	0.00037183095
171	0x3aa3108a	0.0012440842
172	0x39ed05af	0.00045208397
173	0x39d8b9a3	0.0004133704
174	0xb77c90b5	-1.5054063e-05
175	0x3ae8fdbd	0.0017775815
176	0xb6da8e6d	-6.513487e-06
177	0x3a0ee70f	0.00054513005
178	0x39606e14	0.00021403312
179	0x3a63ef64	0.0008695035
180	0x39f8ddee	0.00047467597
181	0xb97c5b9f	-0.00024066724
182	0xba05dbbd	-0.0005106291
183	0xb9c046f2	-0.00036673952
184	0xb9a1d387	-0.00030865913
185	0x39c57d1a	0.00037667976
186	0x38da103c	0.00010398074
187	0xb98f9b6c	-0.00027390884
188	0xb94948e6	-0.0001919601
189	0xb9c1d96c	-0.0003697382
190	0x39ece852	0.0004518652
191	0x3d454d0f	0.048169192
192	0xb9b8ffb0	-0.00035285717
193	0x38ce74cc	9.8446006e-05
194	0xb88827ea	-6.49242e-05
195	0xb9c28751	-0.00037103382
196	0xbd07bfc0	-0.03314185
197	0x3719838a	9.150137e-06
198	0xb83f4a62	-4.5607223e-05
199	0x39ba440a	0.00035527378
200	0x3995d602	0.00028578943
201	0xb9a95d45	-0.00032303683
202	0x34f5b75e	4.5768223e-07
203	0x3cc0ace2	0.023519937
204	0x3d4cddcc	0.05001621
205	0x3ab5a494	0.0013858252
206	0xb72e4365	-1.03869e-05
207	0x3953d443	0.00020201602
208	0xb87d6ed9	-6.0423135e-05
209	0xb7c9765a	-2.4016179e-05
210	0x3985c515	0.00025514574
211	0xbab353ad	-0.0013681554
212	0x3a08b393	0.0005214747
213	0xbbc0a904	-0.005879523
214	0xb9fd983c	-0.00048369344
215	0x3a11578a	0.00055443554
216	0x329115fe	1.6890223e-08
217	0x3882a2ba	6.229193e-05
218	0xb9bff8cb	-0.00036615724
219	0x3a85506f	0.0010171066
220	0xba8a4879	-0.0010550163
221	0x3dac70bd	0.084199406
222	0x391f2cd9	0.00015180129
223	0xbb1f1370	-0.002427306
224	0x3a09a060	0.0005250033
225	0x387d4dc6	6.0392333e-05
226	0x39aba7ba	0.00032740628
227	0xba3c019a	-0.00071718695
228	0x3a467c99	0.0007571667
229	0xb6b59cb0	-5.412461e-06
230	0xb535504d	-6.754461e-07
231	0xbdd66b45	-0.10469679
232	0x2f11a9e9	1.3248037e-10
233	0xb9641afc	-0.00021753827
234	0x35bdf37e	1.4152463e-06
235	0xba0fd1b5	-0.0005486266
236	0x3a5dda97	0.00084630534
237	0xbbb004ea	-0.0053716796
238	0xb5e6d461	-1.7198146e-06
239	0xb9f36b58	-0.0004642855
240	0x361db5a7	2.3500559e-06
241	0x39f67d9b	0.0004701436
242	0xb4eb6901	-4.384856e-07
243	0x39bfa9c7	0.00036556853
244	0xb8f9a7a4	-0.00011904471
245	0xb2062c4f	-7.809901e-09
246	0x39dd9089	0.00042260092
247	0xb801a943	-3.0913634e-05
248	0x3832c799	4.2624397e-05
249	0xba7a8914	-0.00095571694
250	0x388987c2	6.557956e-05
251	0x3c5d6710	0.013513342
252	0xb8c7efad	-9.5337025e-05
253	0x3dba8e83	0.09109213
254	0xb96ed026	-0.0002277499
255	0x39d7996f	0.00041122313

tabnet.initial_splitter.shared.shared_layers.1.weight f4 [96, 48]
0	0x3e51cf8f	0.20489334
1	0xbd09e0e5	-0.03366174
2	0x3c9d4673	0.019198632
3	0x3c5dfceb	0.01354907
4	0xbb901baf	-0.0043978314
5	0x3cc8b533	0.024500465
6	0x3ca182e7	0.01971574
7	0xbbda3d97	-0.006660174
8	0xbcc97c96	-0.02459554
9	0xbbd9d3e5	-0.0066475742
10	0xbc8e6d77	-0.017386181
11	0xbbf25599	-0.007395458
12	0x3bca3aa5	0.0061715418
13	0xbb9509af	-0.0045482735
14	0xbd2948b5	-0.041329104
15	0xbbaf74d8	-0.005354505
16	0x3bd2013d	0.006408839
17	0x3d1b5aee	0.037928514
18	0xbe1e1a48	-0.15439713
19	0xbd2609da	-0.04053674
20	0xbe169ea2	-0.14708951
21	0xbc8b20e2	-0.016983453
22	0xbcf2c8d7	-0.029636784
23	0xbdbc7415	-0.092018284
24	0x3a73bafb	0.00092975766
25	0xbae93f12	-0.0017795286
26	0x3974ffc0	0.00023364928
27	0xb9bb4814	-0.00035721122
28	0xba9c7b87	-0.001193867
29	0x36874296	4.031065e-06
30	0x39f9c55f	0.00047640034
31	0xb9bffa0a	-0.00036616653
32	0x39ee2b14	0.00045426993
33	0xb821879d	-3.851169e-05
34	0xb927823a	-0.00015974874
35	0xb934c67c	-0.00017240079
36	0xb9f4287b	-0.00046569467
37	0xbb37c351	-0.0028040002
38	0xba0d48f8	-0.00053895963
39	0xbaa56ecf	-0.0012621525
40	0x3b76cfe4	0.0037660534
41	0x3a2b371f	0.0006531346
42	0x35fb167e	1.8707503e-06
43	0x3a06d895	0.00051439676
44	0x38af29a2	8.352405e-05
45	0x3922337e	0.00015468706
46	0xb95ec74b	-0.00021245812
47	0x3a8b9693	0.0010649733
48	0xbd1352c2	-0.035967596
49	0x3eb97fdb	0.36230358
50	0xbc038187	-0.008026487
51	0x3c8908de	0.016727861
52	0xbcea1763	-0.028575605
53	0xbd3c92c5	-0.046038408
54	0xbd362879	-0.04447219
55	0xbdceef86	-0.10104279
56	0xbae179c9	-0.0017202433
57	0xbccccd93	-0.02500037
58	0xbdaecaa1	-0.08534742
59	0x3cd1812e	0.025574293
60	0x3c95cef4	0.01828716
61	0xbbb94968	-0.0056545027
62	0xbc56504c	-0.013080668
63	0xbdbc80bf	-0.09204244
64	0x3c3700cc	0.011169624
65	0xbd3d76e9	-0.04625598
66	0xbd087a5e	-0.033319823
67	0xbd55eb7f	-0.05222654
68	0xbcf486d5	-0.02984945
69	0xbc4cec8c	-0.012507569
70	0xbc815fa9	-0.015792685
71	0xbcd445b9	-0.025912153
72	0xbadbcfd7	-0.0016770315
73	0xba9b82dc	-0.0011864561
74	0xbc22430c	-0.0099036805
75	0x3b138610	0.0022510327
76	0xbd0795cd	-0.033101846
77	0xbb9606a0	-0.0045784265
78	0xbc0fce06	-0.008777147
79	0x3c1cd1b7	0.009571484
80	0x3c284931	0.010271356
81	0x3c3f9301	0.011692763
82	0xbad9fd39	-0.0016631252
83	0xbcbe030b	-0.02319481
84	0x38ba4e1b	8.8837194e-05
85	0x3c0965d7	0.008386097
86	0x3d0a9416	0.033832632
87	0x3a8167b6	0.0009872827
88	0xbc50b2cb	-0.01273794
89	0xba84ef17	-0.0010142055
90	0xbc27d0f1	-0.010242687
91	0x39c4e52c	0.0003755478
92	0x3ba1600a	0.004924779
93	0x3bc9a169	0.006153275
94	0x3a071e02	0.0005154313
95	0xbc85d660	-0.016337574
96	0x3c3cf02b	0.01153187
97	0x3c88fbb4	0.016721584
98	0x3e9c2f45	0.30504814
99	0xbbc55af6	-0.0060228063
100	0x3caa6afc	0.020802967
101	0xbcddb872	-0.02706549
102	0x3bb9678b	0.0056580952
103	0x3cc7b7b9	0.024379598
104	0x3b8a5bab	0.0042223535
105	0x3c3c53c0	0.011494577
106	0xbc2c8aba	-0.010531122
107	0x3d2c89b6	0.04212352
108	0xbd565346	-0.05232551
109	0x38322e63	4.2481708e-05
110	0x3c77c49a	0.015122557
111	0xbcaaa30d	-0.020829702
112	0x3b3a4ce8	0.0028427187
113	0x3bf0bfd0	0.0073470846
114	0xbcf0dc4d	-0.029401923
115	0xbba719c7	-0.0050995084
116	0xba8f7ec8	-0.0010947818
117	0xbca141e5	-0.019684741
118	0xbcb82868	-0.022480205
119	0x3cf48c6b	0.029852113
120	0x38b85a52	8.790627e-05
121	0xba9f4894	-0.0012152367
122	0xb8b90e82	-8.82419e-05
123	0xba0b8ae9	-0.00053231284
124	0xb98ab3bf	-0.00026455332
125	0xb973cbd8	-0.00023250224
126	0x3a03a7f2	0.0005022279
127	0x37d56321	2.543774e-05
128	0xba00c668	-0.00049123773
129	0x394734ff	0.00018997861
130	0xba1aad89	-0.00059004925
131	0xba5e5ccd	-0.00084824563
132	0xb993aabb	-0.0002816523
133	0x3bf9b12c	0.0076199975
134	0xba348da6	-0.00068875623
135	0xba5b386b	-0.0008362594
136	0x3b781721	0.0037855583
137	0x39723969	0.00023100305
138	0x39271b1b	0.00015936459
139	0xb8eeff5a	-0.00011396287
140	0x39379ad8	0.00017509924
141	0x38ac664d	8.220654e-05
142	0x39d3d03c	0.00040400203
143	0xbb0a407a	-0.002109556
144	0x3d1c5d89	0.03817514
145	0x3c3a8c00	0.011385918
146	0xbd106ff6	-0.035263024
147	0x3d0e87a7	0.034797337
148	0xbd1255ee	-0.03572648
149	0xb9884dbb	-0.00025997855
150	0xbd878f9b	-0.066191874
151	0x3ab98dc6	0.0014156632
152	0xbcea5d28	-0.028608873
153	0xbd2000c1	-0.03906322
154	0xbcc5fc08	-0.02416803
155	0x3cf25cc0	0.029585242
156	0xbcb10b81	-0.02161193
157	0xbaeacdcd	-0.0017914117
158	0x3cb1b1d6	0.021691244
159	0x3c376e3e	0.011195717
160	0x3c81d1d6	0.015847128
161	0xbc3c8f95	-0.011508842
162	0x3cdb60c6	0.026779544
163	0xbb8d4a69	-0.004311849
164	0xbdc65349	-0.09683854
165	0xbcf74a5d	-0.030186826
166	0xbc98bc5b	-0.018644502
167	0x3d80abf8	0.062828004
168	0x3a15bd84	0.0005712139
169	0xb834a822	-4.307193e-05
170	0xb93c898d	-0.00017980319
171	0xb9660e7f	-0.0002193991
172	0xb874fac6	-5.8407684e-05
173	0x3981183f	0.00024622862
174	0x39805a09	0.00024481144
175	0x379c0ab7	1.8601639e-05
176	0xb9de431a	-0.00042393134
177	0x390dc20c	0.00013519096
178	0xb79324cc	-1.75409e-05
179	0xb6a6731c	-4.960586e-06
180	0xb83c6460	-4.4916174e-05
181	0xbb92d4df	-0.0044809426
182	0x34255607	1.5398119e-07
183	0x38b620b2	8.684526e-05
184	0x3a8679d6	0.0010259699
185	0x3888aac4	6.516793e-05
186	0x378327ae	1.5634894e-05
187	0x395440ca	0.00020242031
188	0xb8779058	-5.902382e-05
189	0xb935b735	-0.00017329755
190	0xb869b458	-5.5719487e-05
191	0x3aa88580	0.0012857169
192	0x3cd57f10	0.026061565
193	0xbdc786b5	-0.0974249
194	0x3c51a2a5	0.012795125
195	0xbc996da1	-0.018729033
196	0x3ea3220c	0.31861913
197	0x3d4d70eb	0.050156515
198	0xbcf90f92	-0.030402932
199	0xbdc94808	-0.09828192
200	0xbdbb72e7	-0.09152775
201	0xbbb8521e	-0.0056250235
202	0xbdbc1a81	-0.09184743
203	0xbd21e8cb	-0.03952865
204	0x3d432e07	0.047651317
205	0x3a785fe0	0.00094747357
206	0x3cb42047	0.021988047
207	0xbd296679	-0.04135749
208	0xbc3880e3	-0.011261198
209	0xba902bfb	-0.0010999435
210	0xbcaa680e	-0.02080157
211	0xbce31842	-0.027721528
212	0xbcfe1f60	-0.03102082
213	0x3b199ad0	0.0023438223
214	0x3b8f57eb	0.0043744943
215	0x3d2dba9e	0.0424143
216	0xbc81990a	-0.015820045
217	0x3cb0ac7c	0.021566622
218	0xba095bf1	-0.00052398356
219	0xbc6cfa58	-0.0144639835
220	0x3b45ba51	0.0030170868
221	0xbabf7fca	-0.0014610228
222	0xbb92af44	-0.0044764597
223	0xbc17694c	-0.009241413
224	0xbc7c68a0	-0.015405804
225	0xba448922	-0.0007497241
226	0x3b3c6906	0.0028749122
227	0x3c25d145	0.0101206945
228	0xbbe146f3	-0.006874913
229	0xbb9b2bba	-0.004735437
230	0xbbefd2c1	-0.007318825
231	0x3c947be5	0.018125484
232	0x3acc203b	0.001557357
233	0x39e1c950	0.00043065334
234	0x3b32bf81	0.002727479
235	0x3b6dba08	0.0036274213
236	0xbaa15c22	-0.0012310783
237	0xbb9aebb0	-0.004727803
238	0x3bddcaa7	0.006768543
239	0xbc784899	-0.015154027
240	0x3c3f4914	0.011675138
241	0x3c62a84f	0.013834073
242	0xbce101e5	-0.027466724
243	0x3a7eb473	0.000971622
244	0x3c990a6e	0.018681731
245	0x3eb88226	0.36036795
246	0xbd26550b	-0.040608447
247	0xbc8a8d82	-0.01691318
248	0xb9967d5f	-0.00028703638
249	0xbd34c207	-0.04413035
250	0xbdfff715	-0.12498299
251	0xbc9fb691	-0.019496234
252	0xbda5ead0	-0.081014276
253	0x3a762efd	0.0009391157
254	0xbb784ea3	-0.0037888668
255	0xbd2485e8	-0.040166765

tabnet.initial_splitter.shared.glu_layers.0.fc.weight f4 [96, 1038]
0	0xb93d6b81	-0.00018064493
1	0xbdd40e58	-0.10354298
2	0xb8b2e1da	-8.5297695e-05
3	0xb9ba678e	-0.0003555384
4	0x3a14dd7d	0.0005678756
5	0xb5664ff7	-8.579804e-07
6	0x369ff1db	4.766725e-06
7	0xb717961b	-9.0352505e-06
8	0xb97680ca	-0.00023508366
9	0x35174000	5.6345016e-07
10	0xba249fec	-0.0006279934
11	0x2fbd491f	3.4430855e-10
12	0x38dbe5ba	0.00010485524
13	0xb9be35a1	-0.0003627958
14	0xb997b74e	-0.00028937537
15	0x3a83e8cb	0.0010063885
16	0x38cd90e1	9.8021475e-05
17	0xb946aab6	-0.00018946346
18	0xb4a360b2	-3.043147e-07
19	0xb0c1d5e2	-1.4103387e-09
20	0xb97dfd81	-0.00024222398
21	0x3834f989	4.3147742e-05
22	0x38644f69	5.4433393e-05
23	0xb99bda2c	-0.00029726455
24	0xba4eafb1	-0.00078844564
25	0xb8f0b8c6	-0.000114785085
26	0xb7d17dbc	-2.4973291e-05
27	0xb91fa318	-0.00015224179
28	0xba2b07f4	-0.00065243174
29	0xba1fee0f	-0.0006100842
30	0xba314fb7	-0.00067638926
31	0x3926e092	0.00015914653
32	0xba551236	-0.0008128019
33	0x35bee4d8	1.4222705e-06
34	0xb996f987	-0.00028796142
35	0x388fd053	6.857575e-05
36	0x3a5aabd5	0.0008341645
37	0xb37c177a	-5.8694674e-08
38	0x3d01bd32	0.03167457
39	0xba8f6eb0	-0.0010943022
40	0xb927bdf5	-0.00015997126
41	0x3a9c5af0	0.0011928957
42	0x39ffe3aa	0.00048807013
43	0xb96388dd	-0.00021699393
44	0xb998a421	-0.00029113985
45	0xb70383ae	-7.8388675e-06
46	0xb8050c7e	-3.1721305e-05
47	0x3a62a58a	0.0008645883
48	0xb63209e1	-2.6529817e-06
49	0x3a4116a8	0.0007365742
50	0x3aa3916e	0.0012479255
51	0xb31cb1e4	-3.648337e-08
52	0xb90f3d94	-0.00013660482
53	0xba2341bf	-0.00062277535
54	0xb70936e0	-8.178613e-06
55	0x3d9320d4	0.07183996
56	0x3a070282	0.0005150215
57	0x319c2cca	4.5452895e-09
58	0x3a81cc25	0.0009902759
59	0x390f6e33	0.00013678595
60	0x39e8ed73	0.00044427402
61	0xba1c86d8	-0.0005971021
62	0xb98ac496	-0.0002646788
63	0xb20b023d	-8.091374e-09
64	0x39f7360f	0.00047151788
65	0xba9f1aa2	-0.0012138675
66	0x2fa74e7f	3.0432898e-10
67	0xb90d8340	-0.00013495702
68	0x38d09393	9.945701e-05
69	0xb9ecede9	-0.00045190685
70	0xb81aaf8d	-3.6879956e-05
71	0x39c7b977	0.0003809442
72	0xba014476	-0.0004931161
73	0xbd7f95b2	-0.06239862
74	0xb750ec74	-1.245282e-05
75	0xb8170a8e	-3.6011035e-05
76	0x3540e8fb	7.1864605e-07
77	0x3ac96fa3	0.0015368353
78	0x31e54ce8	6.6735204e-09
79	0xba2191de	-0.00061633985
80	0xba6e1ee8	-0.0009083585
81	0xb8c420e5	-9.3521354e-05
82	0x2f916baa	2.6451846e-10
83	0xb966550b	-0.0002196619
84	0x3985bb3a	0.00025507231
85	0x35564f6a	7.9836775e-07
86	0x383e6c47	4.540037e-05
87	0x39adba15	0.00033135773
88	0xbb026914	-0.0019899057
89	0xb882d92f	-6.239337e-05
90	0xb91b1cb9	-0.00014792652
91	0xb9b761b4	-0.00034977274
92	0x39af8305	0.00033476218
93	0x3987e261	0.00025917872
94	0xb918df2f	-0.00014578992
95	0x39a65cb5	0.0003173106
96	0x38b8d94a	8.814277e-05
97	0xbdd6546f	-0.10465323
98	0xb8ba6bdb	-8.889261e-05
99	0x38c51273	9.3971285e-05
100	0xb92ec316	-0.00016666608
101	0x38f57f73	0.0001170625
102	0xbdb466f0	-0.08808696
103	0xbd41062a	-0.04712502
104	0xb8840e5d	-6.296926e-05
105	0xb989f1f6	-0.0002631095
106	0xba0fbcf7	-0.0005483175
107	0x3c460f4e	0.01208861
108	0x3912ebb1	0.00014011447
109	0xba0744bf	-0.0005160085
110	0xb9ab1a46	-0.00032635237
111	0xb910a588	-0.00013794575
112	0xb973a847	-0.00023236974
113	0x2f8e3aef	2.5871524e-10
114	0x37117ebf	8.672184e-06
115	0x31df7445	6.5033725e-09
116	0x3a59ed91	0.0008313293
117	0xb891544d	-6.929841e-05
118	0xb8abc970	-8.191436e-05
119	0xba2152db	-0.0006154009
120	0x391840f9	0.00014520054
121	0xb99be845	-0.00029736958
122	0xb982c4ef	-0.0002494226
123	0xb461dcaa	-2.1035035e-07
124	0xbaa048a4	-0.001222868
125	0x3d740dc7	0.05958345
126	0x3a8856a1	0.0010401794
127	0xba0f8d42	-0.0005476066
128	0xb20de6d5	-8.259765e-09
129	0xb77e24fd	-1.5148192e-05
130	0x390a4276	0.00013185464
131	0xb9bf7a62	-0.0003652154
132	0xb8bc025e	-8.9649795e-05
133	0x398a8cbf	0.00026426275
134	0xb69756e0	-4.5102643e-06
135	0x3a8d9d22	0.0010804276
136	0xb91786b5	-0.00014450664
137	0x3a3f80e4	0.0007305278
138	0x39ada4d3	0.00033119935
139	0xb8b0d4a3	-8.431941e-05
140	0x3a0b0a7b	0.0005303991
141	0x39b55834	0.00034588727
142	0x392ab5c6	0.00016280179
143	0xb99c0581	-0.0002975874
144	0x3975ed1c	0.00023453351
145	0x39883280	0.00025977567
146	0x39c944f3	0.0003838908
147	0xb93eb39c	-0.00018186722
148	0x39f2eae8	0.00046332856
149	0xbc534937	-0.012895874
150	0x3a1097c2	0.0005515778
151	0xba3a1932	-0.00070990913
152	0xb814e95f	-3.5503293e-05
153	0xb9ecd897	-0.000451748
154	0x35e42e7f	1.7000856e-06
155	0x3a899921	0.0010497906
156	0xba490e80	-0.0007669702
157	0x395f957f	0.00021322629
158	0xba1dba4f	-0.0006016837
159	0xbd3038e8	-0.04302302
160	0x3b9f124f	0.0048544775
161	0xb9cce8d8	-0.00039083394
162	0xb71e9db2	-9.45425e-06
163	0xb95e3e62	-0.00021194809
164	0x399b8b8b	0.0002966787
165	0x3832612e	4.2529013e-05
166	0xbc4c9166	-0.012485838
167	0xadf468f4	-2.7786197e-11
168	0xbac05ddc	-0.001467641
169	0x377ca859	1.5059567e-05
170	0x39c2f24e	0.00037183095
171	0x3aa3108a	0.0012440842
172	0x39ed05af	0.00045208397
173	0x39d8b9a3	0.0004133704
174	0xb77c90b5	-1.5054063e-05
175	0x3ae8fdbd	0.0017775815
176	0xb6da8e6d	-6.513487e-06
177	0x3a0ee70f	0.00054513005
178	0x39606e14	0.00021403312
179	0x3a63ef64	0.0008695035
180	0x39f8ddee	0.00047467597
181	0xb97c5b9f	-0.00024066724
182	0xba05dbbd	-0.0005106291
183	0xb9c046f2	-0.00036673952
184	0xb9a1d387	-0.00030865913
185	0x39c57d1a	0.00037667976
186	0x38da103c	0.00010398074
187	0xb98f9b6c	-0.00027390884
188	0xb94948e6	-0.0001919601
189	0xb9c1d96c	-0.0003697382
190	0x39ece852	0.0004518652
191	0x3d454d0f	0.048169192
192	0xb9b8ffb0	-0.00035285717
193	0x38ce74cc	9.8446006e-05
194	0xb88827ea	-6.49242e-05
195	0xb9c28751	-0.00037103382
196	0xbd07bfc0	-0.03314185
197	0x3719838a	9.150137e-06
198	0xb83f4a62	-4.5607223e-05
199	0x39ba440a	0.00035527378
200	0x3995d602	0.00028578943
201	0xb9a95d45	-0.00032303683
202	0x34f5b75e	4.5768223e-07
203	0x3cc0ace2	0.023519937
204	0x3d4cddcc	0.05001621
205	0x3ab5a494	0.0013858252
206	0xb72e4365	-1.03869e-05
207	0x3953d443	0.00020201602
208	0xb87d6ed9	-6.0423135e-05
209	0xb7c9765a	-2.4016179e-05
210	0x3985c515	0.00025514574
211	0xbab353ad	-0.0013681554
212	0x3a08b393	0.0005214747
213	0xbbc0a904	-0.005879523
214	0xb9fd983c	-0.00048369344
215	0x3a11578a	0.00055443554
216	0x329115fe	1.6890223e-08
217	0x3882a2ba	6.229193e-05
218	0xb9bff8cb	-0.00036615724
219	0x3a85506f	0.0010171066
220	0xba8a4879	-0.0010550163
221	0x3dac70bd	0.084199406
222	0x391f2cd9	0.00015180129
223	0xbb1f1370	-0.002427306
224	0x3a09a060	0.0005250033
225	0x387d4dc6	6.0392333e-05
226	0x39aba7ba	0.00032740628
227	0xba3c019a	-0.00071718695
228	0x3a467c99	0.0007571667
229	0xb6b59cb0	-5.412461e-06
230	0xb535504d	-6.754461e-07
231	0xbdd66b45	-0.10469679
232	0x2f11a9e9	1.3248037e-10
233	0xb9641afc	-0.00021753827
234	0x35bdf37e	1.4152463e-06
235	0xba0fd1b5	-0.0005486266
236	0x3a5dda97	0.00084630534
237	0xbbb004ea	-0.0053716796
238	0xb5e6d461	-1.7198146e-06
239	0xb9f36b58	-0.0004642855
240	0x361db5a7	2.3500559e-06
241	0x39f67d9b	0.0004701436
242	0xb4eb6901	-4.384856e-07
243	0x39bfa9c7	0.00036556853
244	0xb8f9a7a4	-0.00011904471
245	0xb2062c4f	-7.809901e-09
246	0x39dd9089	0.00042260092
247	0xb801a943	-3.0913634e-05
248	0x3832c799	4.2624397e-05
249	0xba7a8914	-0.00095571694
250	0x388987c2	6.557956e-05
251	0x3c5d6710	0.013513342
252	0xb8c7efad	-9.5337025e-05
253	0x3dba8e83	0.09109213
254	0xb96ed026	-0.0002277499
255	0x39d7996f	0.00041122313
