cv_steps/tabnet_raw_step1_fold2_1/network.pt (torch, 682379 bytes, 56 tensors)

embedder.embeddings.0.weight f4 [3, 1]
0.04835207 0.059230007 -0.11937956
00000000: d20c 463d 2a9b 723d 457d f4bd

embedder.embeddings.1.weight f4 [2, 1]
-0.024067529 0.024188694
00000000: 4429 c5bc 5e27 c63c

tabnet.initial_bn.weight f4 [1038]
0.12814488 -0.18475574 0.0795701 0.132411 0.04273671 0.22356178 0.016777936 0.10986718
0.065546654 0.03497252 0.30718026 0.011884881 0.00010678135 0.23220868 0.071641244 0.14742991
0.15915212 0.12258977 0.1025476 0.061062913 0.105729386 0.16752858 0.21014975 0.100042515
0.15191828 0.17195803 0.09775586 0.12657201 0.18804868 0.1273939 0.20286135 0.22051957
0.22114825 0.07656152 0.1475893 0.08735972 0.24483909 0.112983264 0.19094457 0.09255464
0.12262219 0.2352592 0.1534719 0.16259176 0.028654892 0.106298245 0.10073568 0.08570475
0.06101541 0.23780909 0.2617332 0.03847554 0.07423979 0.1357846 0.08996624 -0.033967856
0.03565583 0.13781089 0.14713381 0.14116363 0.19165456 -9.43543e-06 0.22391622 0.07095831
0.17876235 0.22437246 5.0627717e-05 0.0976538 0.0020087904 0.041983917 0.18467368 0.2109897
0.03924724 0.1125333 0.034905363 0.107554466 0.044529147 0.35283774 -9.754403e-05 0.05663374
0.14472884 0.007376474 2.9670891e-06 0.18556863 0.05314389 0.12715508 0.09956517 0.1759972
0.18866514 0.04401111 0.19326854 0.004778428 0.1126696 0.23432556 0.14691906 0.06709437
0.04220362 0.115745634 0.147948 -9.472377e-06 0.1317404 0.1616529 0.18650335 0.10399158
0.14631929 0.22716784 0.15119252 0.18313606 0.05598206 0.100962065 0.051868066 0.16793258
0.10928296 0.09799072 0.17126687 0.21776909 0.14244309 0.0011406967 0.10839761 0.22939056
0.109234944 0.032442886 0.15290023 0.008002588 0.18716443 0.1322218 0.14588502 0.14780366
-0.022343153 0.1669723 0.2330572 0.13751678 0.19636491 0.25102678 0.12994894 0.1874354
0.092003964 0.18124434 0.1341264 0.15297408 0.1953038 0.049159076 0.15337507 1.5388456e-05
0.115927294 0.21625172 0.11486728 0.092884675 0.13770093 0.14766826 0.18921189 0.22032118
0.054352622 0.057563484 0.15026079 0.03690545 0.052498106 0.05527145 0.17450197 0.34994996
0.30958802 0.10680178 0.17750739 0.12684502 0.14602496 -2.9498522e-06 0.19961108 0.002310099
0.14218774 0.2762513 0.14529973 0.17709607 0.15814103 0.12909482 0.07210788 0.18146892
0.1322445 0.27397427 0.1487818 6.297199e-05 0.2333738 0.006543822 0.123999126 0.19906028
0.18924826 0.2215588 -0.038889877 0.094730206 0.056048743 0.011755092 0.12422958 0.059785623
0.15361485 0.07842457 0.19089873 0.11844698 0.16193064 0.019289715 0.00012200894 0.13439545
0.1274505 0.09341335 0.15172425 0.015627002 0.25010327 0.19755135 0.020611374 -0.0017224222
0.09527274 0.27699628 0.21626736 0.14755902 0.23966719 0.07501756 0.01956067 0.017713482
0.0025859447 0.124636106 0.031654716 0.16814464 0.17986935 0.13434519 0.1413572 0.09408782
0.11915316 0.049126804 0.011124647 0.1162351 0.025425032 0.06734089 0.07530253 0.091328815
0.18544376 0.18165092 0.14135131 0.18493386 0.18306297 0.23176603 0.026154982 0.2157858
0.070483536 0.16597202 0.1438248 0.09360218 0.14567177 0.045627538 0.13543606 0.0084353015
0.124834545 0.036747463 0.19466695 0.1469675 0.012467947 0.074320816 0.12627883 0.03035973
00000000: 6938 033e 9c30 3dbe a6f5 a23d c096 073e
00000010: b00c 2f3d 61ed 643e e271 893c 0b02 e13d
00000020: 533d 863d 583f 0f3d bb46 9d3e ceb8 423c
00000030: cdef df38 1dc8 6d3e a5b8 923d def7 163e
00000040: c6f8 223e 5810 fb3d 7a04 d23d 1b1d 7a3d
00000050: a688 d83d 9d8c 2b3e 7f31 573e 17e3 cc3d
00000060: 7790 1b3e c415 303e 3934 c83d 189c 013e
00000070: d58f 403e 8c73 023e e3ba 4f3e e2cf 613e
00000080: b074 623e 49cc 9c3d a621 173e a7e9 b23d
00000090: 19b7 7a3e c563 e73d f986 433e 498d bd3d
000000a0: 5821 fb3d cae7 703e bd27 1d3e 747e 263e
000000b0: aabd ea3c e5b2 d93d 824e ce3d f985 af3d
000000c0: 4beb 793d 3a84 733e e501 863e 8798 1d3d
000000d0: 080b 983d 1e0b 0b3e 3840 b83d e121 0bbd
000000e0: d90b 123d 4c1e 0d3e 3faa 163e 338d 103e
000000f0: 1841 443e dd4c 1eb7 4b4a 653e 9752 913d
00000100: 7a0d 373e e5c1 653e 1959 5438 b7fe c73d
00000110: e9a5 033b 54f7 2b3d 191b 3d3e af0d 583e
00000120: b7c1 203d dc77 e63d edf8 0e3d 8445 dc3d
00000130: 3264 363d 26a7 b43e 8d90 ccb8 c8f8 673d
00000140: cc33 143e 59b6 f13b 341e 4736 b405 3e3e
00000150: 68ad 593d f134 023e d3e8 cb3d 9c38 343e
00000160: 6f31 413e fe44 343d 30e8 453e 5c94 9c3b
00000170: 52bf e63d 0af3 6f3e f371 163e c668 893d
00000180: b4dd 2c3d 0c0c ed3d ae7f 173e 8deb 1eb7
00000190: f5e6 063e 5688 253e bcfa 3e3e 8af9 d43d
000001a0: b9d4 153e b09e 683e 36d2 1a3e 0588 3b3e
000001b0: 724d 653d 33c5 ce3d 9c73 543d 85f6 2b3e
000001c0: bfcf df3d 5caf c83d 9560 2f3e dcfe 5e3e
000001d0: 9adc 113e 6e83 953a 91ff dd3d 5ce5 6a3e
000001e0: 92b6 df3d d5e2 043d e191 1c3e 491d 033c
000001f0: 08a8 3f3e 2765 073e e262 153e d859 173e
00000200: fd08 b7bc c9fa 2a3e 8ca6 6e3e 33d1 0c3e
00000210: e213 493e 9586 803e 5611 053e 11ef 3f3e
00000220: 936c bc3d 1e98 393e 6e58 093e 3da5 1c3e
00000230: b8fd 473e 075b 493d 5b0e 1d3e 7516 8137
00000240: 4a6b ed3d 1771 5d3e 893f eb3d 523a be3d
00000250: 7901 0d3e 5936 173e c3c0 413e e09b 613e
00000260: dba0 5e3d b0c7 6b3d f7dd 193e 2b2a 173d
00000270: 4108 573d 5164 623d a5b0 323e a42c b33e
00000280: 5282 9e3e e4ba da3d 7fc4 353e a9e3 013e
00000290: 9187 153e 13f6 45b6 d966 4c3e 0865 173b
000002a0: aa99 113e cf70 8d3e 74c9 143e ac58 353e
000002b0: b9ef 213e 6f31 043e 4cad 933d fdd2 393e
000002c0: 1a6b 073e 5b46 8c3e 425a 183e d40f 8438
000002d0: 8bf9 6e3e 8f6d d63b 41f3 fd3d 75d6 4b3e
000002e0: 4cca 413e 4fe0 623e fe4a 1fbd e901 c23d
000002f0: 5e93 653d 6e98 403c 146c fe3d c5e1 743d
00000300: 364d 1d3e 109d a03d f57a 433e 5594 f23d
00000310: 25d1 253e 7705 9e3c 0ddf ff38 f69e 093e
00000320: 6282 023e 804f bf3d 9a5d 1b3e 3304 803c
00000330: 890d 803e e74a 4a3e 2fd9 a83c e6c2 e1ba
00000340: 5b1e c33d 75d2 8d3e 3175 5d3e b619 173e
00000350: 516b 753e cea2 993d b33d a03c dd1b 913c
00000360: f478 293b 3741 ff3d 60a8 013d 1c2e 2c3e
00000370: ac2f 383e c991 093e f1bf 103e 1db1 c03d
00000380: 9206 f43d 3039 493d 2744 363c ab0c ee3d
00000390: 2848 d03c 05ea 893d 3638 9a3d 9a0a bb3d
000003a0: f8e4 3d3e b302 3a3e 66be 103e 4d5f 3d3e
000003b0: dc74 3b3e 1354 6d3e f942 d63c f4f6 5c3e
000003c0: ac59 903d 92f4 293e cf46 133e 80b2 bf3d
000003d0: fb2a 153e f1e3 3a3d c0af 0a3e 3834 0a3c
000003e0: 41a9 ff3d 8284 163d c656 473e a67e 163e
000003f0: 5c46 4c3c 8335 983d 3d4f 013e f8b4 f83c

tabnet.initial_bn.bias f4 [1038]
-1.8574041e-06 -0.0001947561 2.5626268e-05 5.83982e-05 1.8095091e-06 -8.468288e-06 -0.3556629 -0.000102614606
5.504009e-05 -1.22422425e-05 0.00042144684 -7.630899e-06 4.7584837e-08 0.1514282 -3.4821935e-06 -0.00040615254
-0.078861535 -0.0007770176 5.8402097e-06 -5.1131836e-05 -1.9035602e-05 0.038254276 -3.080361e-05 7.100038e-05
1.854369e-05 -0.00014575275 0.00032247475 3.0973057e-05 -7.377053e-05 -0.00010119936 0.16193397 0.00043742484
0.00030855153 0.4109252 2.9367675e-05 0.00010982772 -0.00012981985 -0.0116227055 0.00025387385 0.000100214
-5.320783e-05 5.9490492e-05 -0.02737011 6.884734e-05 -4.352352e-06 -2.5428972e-05 0.0007760404 -7.351759e-05
2.3505898e-05 -3.0082132e-05 1.4142407e-05 -4.0588406e-05 5.6924905e-06 -0.00017848126 -6.331207e-05 -0.22651416
0.000260612 -0.0092796385 5.1566898e-05 2.5796098e-05 0.0002410727 5.1215037e-09 -8.8570805e-06 1.8697072e-05
-0.00024621532 0.00011811685 2.154165e-09 -0.00025614383 -1.2726274e-06 -2.2728935e-05 0.00013144795 4.6746354e-05
3.8518956e-05 2.9581002e-05 2.5250894e-05 -2.9394809e-05 8.510204e-06 -0.00011667687 3.7388368e-06 8.2363615e-05
-0.00019408828 -1.6940992e-06 -2.8796057e-09 -0.0001611933 1.1526437e-05 -8.855002e-05 5.2580763e-05 -0.00012712144
6.536719e-05 2.4096831e-05 -0.00016658418 7.518642e-07 -3.7930324e-05 -0.18730985 -0.00015763887 -0.00010513904
1.8022076e-05 -9.487994e-05 0.24972337 -4.71727e-09 0.00016735644 -8.505073e-05 0.3596619 -0.12393591
0.00011981191 -0.00018920071 -0.012066612 5.0312385e-05 -5.9793515e-06 -7.768019e-05 -0.0002782901 0.0001387593
-0.0002686846 2.0932692e-05 -0.10025916 0.01972839 0.27548018 -1.4327685e-06 0.00017215573 -1.2674565e-05
2.2999686e-05 -2.5356935e-06 0.0118097365 5.888894e-06 0.00071618345 8.4650135e-05 -0.0005107995 -0.000109771674
0.43224856 -0.00015729497 -0.00064525835 -9.265817e-05 0.0002804844 -0.1383637 2.0004101e-05 -0.0001743624
2.8558492e-05 0.00019218805 -8.849266e-05 0.00015637871 -0.000107475455 4.3280586e-05 4.8930174e-06 7.1067156e-08
-2.5770058e-05 -0.00010199104 0.00019404151 2.6297308e-05 3.7993327e-06 -0.00012796777 0.041742224 -4.2752585e-05
-2.0377824e-05 -7.1709685e-05 -1.7682265e-05 -2.3129822e-05 0.00013799973 1.1908924e-05 -1.4430292e-05 -0.00015544311
0.00017920611 0.000121159916 -5.1454368e-05 -0.004348323 -6.509558e-05 5.4676534e-09 0.0003308079 1.3445551e-06
8.0045866e-05 -1.3861193e-05 -0.057266064 -0.0002024715 5.2683285e-05 -7.9574565e-05 -0.36516127 -3.487405e-05
0.00011760323 2.7853717e-05 -3.2733453e-05 -9.2799246e-07 -0.0071752975 -5.8132614e-06 9.989156e-05 -5.955261e-05
9.722372e-05 5.5054315e-05 -1.8417413e-05 -4.5093988e-05 -0.2746529 -6.9898124e-06 -5.0018192e-05 8.916321e-05
-3.4780794e-06 0.00013097802 -2.951045e-05 1.7474022e-05 0.0038034327 2.0712983e-05 -2.0838984e-07 0.015364425
7.3361305e-05 -0.0001215685 -0.097685814 -2.5826663e-05 0.000121880796 7.1490766e-05 -7.0248156e-05 -4.542095e-06
-2.4369092e-05 -0.010844001 -0.0036107267 0.00017670778 -0.00012989221 2.7178367e-05 3.403998e-05 7.676071e-06
1.5425322e-06 1.4492352e-05 -0.28873098 -0.0007614273 -3.9770195e-05 0.0001518945 0.018443413 6.946279e-05
6.1890656e-05 -9.812792e-05 1.6017942e-06 6.7941684e-05 3.1738196e-05 0.00013408004 0.000103566774 0.0002549379
-0.13766651 -1.2542999e-05 7.5452794e-05 6.7691406e-05 -0.00020932862 5.477243e-05 -6.444649e-06 0.04031364
-4.609034e-05 -0.0002844171 0.0002663996 0.00016071291 2.0016758e-05 9.497396e-06 -0.00010068717 1.5552796e-05
8.635683e-05 1.9180803e-07 -0.00023516352 -0.1251106 1.1811432e-07 -2.5291058e-06 -0.38084704 -1.889657e-05
00000000: eb4b f9b5 7137 4cb9 fef7 d637 97f0 7438
00000010: 42de f235 0513 0eb7 7319 b6be cc32 d7b8
00000020: d9da 6638 0864 4db7 a3f5 dc39 7606 00b7
00000030: 1560 4c33 fe0f 1b3e a1af 69b6 dff0 d4b9
00000040: 2882 a1bd c5b0 4bba 05f7 c336 6476 56b8
00000050: a5ae 9fb7 84b0 1c3d 2033 01b8 0ae6 9438
00000060: 458e 9b37 35d5 18b9 d411 a939 11e9 0138
00000070: 40b5 9ab8 fe3a d4b8 05d2 253e 2b56 e539
00000080: 16c5 a139 ca64 d23e 9a5a f637 4f53 e638
00000090: 4020 08b9 296d 3ebc 5f1a 8539 fb29 d238
000000a0: 792b 5fb8 6e85 7938 4837 e0bc 2262 9038
000000b0: 6b0a 92b6 4d50 d5b7 316f 4b3a 752d 9ab8
000000c0: 882e c537 e358 fcb7 2d45 6d37 783d 2ab8
000000d0: 1f02 bf36 b326 3bb9 69c6 84b8 54f3 67be
000000e0: c0a2 8839 a009 18bc 8949 5838 b364 d837
000000f0: 76c8 7c39 39f9 af31 df98 14b7 a8d7 9c37
00000100: 7616 81b9 80b5 f738 7908 1431 0b4b 86b9
00000110: 25cf aab5 04aa beb7 4ad5 0939 8411 4438
00000120: 6a8f 2138 b824 f837 e2d1 d337 df94 f6b7
00000130: 0cc7 0e37 6bb0 f4b8 bae8 7a36 a1ba ac38
00000140: 2d84 4bb9 ce60 e3b5 8fe2 45b1 ff05 29b9
00000150: ac61 4137 eeb3 b9b8 2a8a 5c38 e74b 05b9
00000160: be15 8938 8d23 ca37 1aad 2eb9 b7d3 4935
00000170: 6017 1fb8 27ce 3fbe dd4b 25b9 187e dcb8
00000180: 1d2e 9737 48fa c6b8 7cb7 7f3e 8c15 a2b1
00000190: 677c 2f39 435d b2b8 9b25 b83e 1cd2 fdbd
000001a0: 8843 fb38 2e64 46b9 0ab3 45bc 8306 5338
000001b0: 3da2 c8b6 3ce8 a2b8 77e7 91b9 ea7f 1139
000001c0: 3dde 8cb9 9d98 af37 ad54 cdbd 6f9d a13c
000001d0: bd0b 8d3e 8d4d c0b5 b484 3439 d8a4 54b7
000001e0: 73ef c037 e22a 2ab6 a07d 413c 3799 c536
000001f0: 42be 3b3a 3286 b138 2de7 05ba 3835 e6b8
00000200: af4f dd3e 8cef 24b9 8e26 29ba 7a51 c2b8
00000210: fb0d 9339 37af 0dbe 7bce a737 0dd5 36b9
00000220: e590 ef37 1686 4939 2395 b9b8 97f9 2339
00000230: 7264 e1b8 2d88 3538 b32e a436 959d 9833
00000240: c72c d8b7 06e4 d5b8 9f77 4b39 0a99 dc37
00000250: 0af8 7e36 162f 06b9 e5f9 2a3d 3d51 33b8
00000260: 0bf1 aab7 d862 96b8 6054 94b7 ea06 c2b7
00000270: 05b4 1039 70cc 4737 a219 72b7 71fe 22b9
00000280: 46e9 3b39 3c17 fe38 b5d0 57b8 617c 8ebb
00000290: ec83 88b8 fddd bb31 4970 ad39 9076 b435
000002a0: 4cde a738 5f8d 68b7 d28f 6abd 884e 54b9
000002b0: 3ff8 5c38 45e1 a6b8 6bf6 babe ba45 12b8
000002c0: c1a1 f638 67a7 e937 474b 09b8 281b 79b5
000002d0: c21e ebbb 890f c3b6 df7c d138 21c8 79b8
000002e0: 96e4 cb38 1fea 6638 187f 9ab7 4d23 3db8
000002f0: 4e9f 8cbe 088a eab6 a0ca 51b8 22fd ba38
00000300: f368 69b6 2557 0939 358d f7b7 2d95 9237
00000310: 0343 793b cbc0 ad37 c3c1 5fb4 12bb 7b3c
00000320: 8dd9 9938 97f2 feb8 800f c8bd 56a6 d8b7
00000330: 419a ff38 50ed 9538 3152 93b8 4d68 98b6
00000340: 3a6c ccb7 09ab 31bc f1a1 6cbb a24a 3939
00000350: ad33 08b9 19fd e337 26c6 0e38 79c8 0037
00000360: 0109 cf35 2e24 7337 8cd4 93be 859a 47ba
00000370: ecce 26b8 df45 1f39 a416 973c 8dac 9138
00000380: 4bcb 8138 07ca cdb8 3bfd d635 ea7b 8e38
00000390: a11e 0538 d697 0c39 fd31 d938 30a9 8539
000003a0: 73f8 0cbe c56f 52b7 693c 9e38 8cf5 8d38
000003b0: 397f 5bb9 73bb 6538 1d3f d8b6 ea1f 253d
000003c0: 2051 41b8 d11d 95b9 8dab 8b39 0b85 2839
000003d0: a9e9 a737 0157 1f37 0328 d3b8 6077 8237
000003e0: 781a b538 caf3 4d34 3a96 76b9 fe1c 00be
000003f0: 09a6 fd33 b5b9 29b6 62fe c2be 1384 9eb7

tabnet.initial_bn.running_mean f4 [1038]
-0.0005927947 -0.00078096666 0.0006449493 0.010291892 -0.0039281105 0.00041549318 0.0014836853 -0.00026392096
-0.0039265305 0.0026512307 -0.01352785 0.002588474 -0.0010243078 0.0022133484 7.1865616e-05 -0.0006055737
-0.004415865 -0.00090424024 -0.0046464046 -0.0030165187 0.0035470643 -0.0042765345 -0.00513433 0.0026476628
-0.0013691677 -0.0059410417 -0.003240154 8.8351435e-06 -0.0010591422 -0.003932407 0.0018045132 0.0028862727
0.0028144945 0.011723364 0.0017756063 0.002501602 0.002915355 -0.0028596302 0.0017656396 -0.04165774
0.031186758 0.0015807484 -0.010661207 -0.008903758 -0.00030523902 -0.0005973841 -0.00041022562 -0.004227632
0.007329162 0.005759478 0.0005911526 0.003273802 -0.047306772 0.0051995637 0.001518528 0.00689253
0.0023292499 -0.0063499133 -0.0024277077 0.005083825 -0.02134121 0.0033293625 0.0028593023 -0.0024262015
-0.0057502035 -0.009327386 -0.0010775895 -0.0025325809 0.0027515728 -0.053356208 0.003309194 -0.001317776
-0.003052527 0.000605652 -0.022100277 0.0006992873 0.009549973 -0.0475087 -0.002771957 -0.0066152574
-0.0033780364 0.0016886139 -0.00637276 -0.00069703173 -6.69918e-05 -0.0014512643 0.0057946993 0.003224475
0.016413517 -0.0002094594 -0.0011193241 0.0022826453 0.00082563784 0.0018032476 0.002189737 -0.0068123597
-0.0027879325 0.005181477 -0.0021650307 0.007950772 -0.001401516 -0.0005077794 0.018504823 -0.0038175457
0.008829557 0.011916782 -0.0026809783 0.00013205237 0.0056212978 -0.0036543775 -0.00069541734 0.002259009
-0.0058890106 0.0029119581 -0.00075744325 -0.018788207 -0.0005249141 0.0045756595 0.006987321 -0.0015053157
0.0004970714 -0.0026604799 -0.00032373134 -0.006577769 0.0037265616 0.024495155 0.0011389438 0.0042526475
0.003752617 -0.0029475372 -0.016483892 0.00035166234 0.0020148985 0.033127084 0.0038533432 -0.0050914874
-0.00106471 -0.00038622503 0.00034316338 -0.0021883585 -0.0034171618 -0.0017737693 -0.002783111 0.0031071026
0.0015722078 -0.002275174 0.006666785 -0.002287321 0.0038389338 0.0017823558 -0.00081320823 -0.0026788097
-0.003923483 0.0032670344 -0.00574617 0.00048357926 -0.0006344841 0.009569368 0.0014527712 0.005284064
0.021015627 0.0024204198 -0.003883791 -0.0036498546 -0.00038821707 0.0055183438 0.01061087 -0.0038154456
-0.0020908944 0.0020817723 0.0052779675 -0.0014167492 0.009369304 0.0039531407 0.0029135398 0.002079164
-5.0244387e-05 -0.0016199908 -0.0011328086 0.0012579667 -0.011832835 -0.00026659813 0.0017946509 0.0014775378
0.0013498564 -0.0071214247 -0.0033908067 -0.02288548 -0.0012150832 -0.0005254765 0.0021831389 -0.005136309
0.0005101868 -0.004775188 0.0007507613 0.0016234396 -0.0004963184 -0.012121362 -0.0043499493 0.006153916
0.011036323 -0.00026803804 8.771854e-05 0.014440966 -0.018909829 0.0032217356 -0.005299114 0.0013833496
0.00044603064 0.00074086495 0.01567439 -0.00022732832 -0.00018144726 -0.0010462767 -0.0024716523 0.0042693163
-0.0032861975 0.0026854337 0.00029257836 -0.0057595614 0.0026004198 0.001516516 0.0004953382 -0.0010063068
-0.0022570945 -0.0037584912 -0.0019138218 0.0038476752 0.006376638 0.0050259414 -0.060906377 0.004850401
0.0042595314 -0.0043386677 0.0028280334 0.0034342664 -0.0022175342 -0.0051881163 -0.0009776287 0.0027748584
-0.0024714286 0.0023883916 0.006201852 0.0027168544 -0.0021699902 0.008209084 0.006826293 0.00510707
-0.0035414645 -0.0002883273 0.018695092 0.009077134 -0.008504326 0.012479665 -0.0016513935 -0.0010898877
00000000: c765 1bba c9b9 4cba d111 293a 539f 283c
00000010: 61b7 80bb 8dd6 d939 3878 c23a df5e 8ab9
00000020: 20aa 80bb 45c0 2d3b eaa3 5dbc 63a3 293b
00000030: 1142 86ba d30d 113b 8fb6 9638 5dbf 1eba
00000040: f6b2 90bb 890a 6dba de40 98bb c9b0 45bb
00000050: dd75 683b 2c22 8cbb e23d a8bb 6984 2d3b
00000060: a575 b3ba 12ad c2bb c358 54bb a73a 1437
00000070: ead2 8aba 6cdb 80bb 6a85 ec3a 9f27 3d3b
00000080: 6273 383b 5a13 403c 76bb e83a ebf1 233b
00000090: 8a0f 3f3b a268 3bbb 096d e73a 4ea1 2abd
000000a0: 5f7b ff3c 1d31 cf3a 58ac 2ebc 11e1 11bc
000000b0: 7d08 a0b9 c599 1cba 8d13 d7b9 f387 8abb
000000c0: 7829 f03b 01ba bc3b 94f7 1a3a 498d 563b
000000d0: bfc4 41bd 1a61 aa3b 5809 c73a bbda e13b
000000e0: 54a6 183b ef12 d0bb 2d1a 1fbb 3796 a63b
000000f0: c3d3 aebc 6f31 5a3b 2263 3b3b e800 1fbb
00000100: 346c bcbb e4d1 18bc e73d 8dba a8f9 25bb
00000110: bb53 343b 0a8c 5abd 10df 583b 3ab9 acba
00000120: e80c 48bb 9ec4 1e3a a40b b5bc 6050 373a
00000130: 7d77 1c3c 7c98 42bd b9a9 35bb cdc4 d8bb
00000140: 0c62 5dbb 7b54 dd3a 96d2 d0bb 02b9 36ba
00000150: f37d 8cb8 5938 beba 76e1 bd3b b751 533b
00000160: a475 863c 54a2 5bb9 49b6 92ba 6f98 153b
00000170: 9e6f 583a f35a ec3a b181 0f3b 373a dfbb
00000180: bfb5 36bb 61c9 a93b 30e3 0dbb f443 023c
00000190: 13b3 b7ba 801c 05ba 6d97 973c ca2f 7abb
000001a0: d9a9 103c 9b3e 433c 5ab3 2fbb 8a77 0a39
000001b0: dd32 b83b 487e 6fbb ab4c 36ba e20b 143b
000001c0: 9af8 c0bb 8dd6 3e3b 288f 46ba bae9 99bc
000001d0: 649a 09ba 6aef 953b e6f5 e43b 034e c5ba
000001e0: e64d 023a 725b 2ebb 7cba a9b9 538a d7bb
000001f0: 5439 743b 10aa c83c 9d48 953a cb59 8b3b
00000200: 77ee 753b 782b 41bb 3a09 87bc 525f b839
00000210: 630c 043b 44b0 073d 5f88 7c3b 7ed6 a6bb
00000220: bd8d 8bba 3f7e cab9 9cea b339 906a 0fbb
00000230: 76f2 5fbb d27d e8ba db64 36bb 88a0 4b3b
00000240: 8a12 ce3a 161b 15bb 0c75 da3b e1e6 15bb
00000250: 9f96 7b3b f09d e93a 7b2d 55ba f88e 2fbb
00000260: 9090 80bb be1b 563b 5e4a bcbb e988 fd39
00000270: 8253 26ba d7c8 1c3c ea6a be3a f125 ad3b
00000280: f728 ac3c e89f 1e3b 3387 7ebb 6632 6fbb
00000290: 9d89 cbb9 39d3 b43b 37d9 2d3c 8e0c 7abb
000002a0: 6307 09bb 586e 083b cdf2 ac3b 37b2 b9ba
000002b0: b681 193c 5989 813b 16f1 3e3b 9542 083b
000002c0: 80bd 52b8 df55 d4ba c07a 94ba 5ce2 a43a
000002d0: 82de 41bc 32c6 8bb9 7e3a eb3a f1a9 c13a
000002e0: aaed b03a d75a e9bb 4c38 5ebb 557a bbbc
000002f0: 6d43 9fba 22c0 09ba fe12 0f3b 7c4e a8bb
00000300: 0ebe 053a 2e79 9cbb bdce 443a 98c9 d43a
00000310: 5d1b 02ba ad98 46bc 058a 8ebb caa6 c93b
00000320: b2d1 343c 7587 8cb9 88f5 b738 cd99 6c3c
00000330: c9e8 9abc c123 533b 31a4 adbb 8351 b53a
00000340: 38d9 e939 9b36 423a 9467 803c fb5e 6eb9
00000350: e142 3eb9 3823 89ba 72fb 21bb 9fe5 8b3b
00000360: 3f5d 57bb 1afe 2f3b 3465 9939 b4ba bcbb
00000370: ce6b 2a3b d5c5 c63a 95d9 013a 0ee6 83ba
00000380: c3eb 13bb 0551 76bb 34d9 faba 4729 7c3b
00000390: 1ef3 d03b a7b0 a43b f778 79bd 1df0 9e3b
000003a0: 8a93 8b3b 622b 8ebb 8756 393b 6e11 613b
000003b0: 0d54 11bb 1301 aabb c723 80ba 66da 353b
000003c0: b1f7 21bb 9086 1c3b e838 cb3b 410d 323b
000003d0: 6536 0ebb 657f 063c 19af df3b 3559 a73b
000003e0: ea17 68bb a32a 97b9 7326 993c 42b8 143c
000003f0: bb55 0bbc 8277 4c3c 9273 d8ba 90da 8eba

tabnet.initial_bn.running_var f4 [1038]
0.0074082143 0.0016297285 0.99036306 0.971499 0.96644276 0.9703227 0.97406644 0.97300076
0.9788646 0.97203785 1.0763216 0.9717942 0.97055316 0.9783772 0.97890264 0.9869664
0.97941464 0.9695527 0.9791776 0.9827653 0.9761632 0.9737323 0.9730552 0.9771617
0.97743154 0.96913373 0.98077714 0.9699502 0.9756269 0.9658346 0.9731612 0.97826236
0.97498345 1.0630611 0.97039294 0.9788685 0.9824617 0.96988606 0.99334747 1.2743341
1.1979538 0.9746323 1.0016774 0.9776633 0.98091555 0.98075706 0.9773197 0.96822906
1.0103725 0.97019535 0.9950861 0.97075206 1.3030875 0.9679549 0.97287554 0.9834745
0.9821361 0.99215955 0.97947323 0.9999192 1.1340632 0.9913958 0.96668005 0.9830129
1.0383801 1.0288002 0.97635233 0.9782845 0.9697517 1.3799088 0.9787459 0.971772
0.9697438 0.971872 1.1084203 0.9765613 1.051566 1.3181543 0.9784479 0.9735899
0.9729302 0.9713272 0.9829003 0.9756414 0.9739093 0.98232496 0.9736999 0.97457224
1.0241292 0.9780191 0.9724398 0.97342646 0.9796508 1.0104555 0.9710663 0.98159796
0.9685694 0.9740036 1.0056089 1.0263238 1.0058872 0.9669959 1.0830634 0.97017646
0.9849901 0.9731162 0.96261376 0.9720885 1.0112904 0.9789206 0.97922397 0.972268
0.96734196 0.9785558 0.97266966 1.1105232 0.97216815 0.9766596 0.9838215 0.98164415
0.97759664 0.97778845 0.972047 1.0079646 0.97341835 1.1665534 0.9677356 0.96801263
0.98927003 0.97294 1.1051621 0.9694617 1.0118228 1.199367 1.0072569 0.99395406
0.9703352 0.97205776 0.98198766 0.9797721 0.9820354 0.9816902 0.97359484 0.9753872
0.9944848 0.97838813 1.0112715 0.9798133 0.9985846 1.0432419 0.98962516 0.9695421
0.9781209 0.9782834 1.0151632 0.9737829 0.97276545 0.99881715 0.9799128 0.97581685
1.143746 0.9720561 0.9900292 0.98253477 0.9717093 1.0142962 1.0018551 0.9747489
0.9804592 0.96616864 0.97593325 0.97410065 1.0435202 0.97603023 0.96632063 0.9713924
0.97034746 0.972323 0.9713846 0.98741585 1.0913482 0.97310436 0.97507876 0.9926316
0.97211325 1.0047914 0.9812254 1.1160837 0.9772608 0.9782295 0.9763901 1.0092486
0.97492534 0.97036713 0.9671006 0.9700809 0.9764007 1.0858588 0.9771212 1.0092216
0.9738813 0.9669304 0.97215956 1.0633993 1.0730294 0.97607374 0.9977733 0.9659471
0.9677015 0.97107124 1.0791845 0.9762218 0.98564905 0.97731 0.97112596 0.9871455
0.9738465 1.011293 0.9735819 0.9730815 0.9751121 0.9756343 0.9780553 0.98102015
0.96986526 0.9699678 0.97077334 0.96884423 1.0309141 0.9768621 1.4613465 0.97611576
0.96744484 1.0034926 0.9841615 0.977556 0.98484415 0.9963625 0.97433305 0.9705961
0.9693631 0.9783315 0.97960293 0.9752044 0.9709803 0.99842083 0.9804617 0.983022
0.97147226 0.96933913 1.1540058 0.9812532 1.0455239 1.0118477 0.97771204 0.97636026
00000000: 9bc0 f23b 9d9c d53a 6f88 7d3f 29b4 783f
00000010: cb68 773f 1267 783f 6b5c 793f 9416 793f
00000020: df96 7a3f 79d7 783f e8c4 893f 81c7 783f
00000030: 2c76 783f ee76 7a3f 5d99 7a3f d4a9 7c3f
00000040: ebba 7a3f 9b34 783f 62ab 7a3f 8296 7b3f
00000050: d5e5 793f 8546 793f 251a 793f 4527 7a3f
00000060: f438 7a3f 2619 783f 3614 7b3f a84e 783f
00000070: afc2 793f f040 773f 1821 793f 676f 7a3f
00000080: 8498 793f 6312 883f ac6b 783f 2097 7a3f
00000090: 9c82 7b3f 744a 783f 054c 7e3f 611d a33f
000000a0: 8d56 993f 8181 793f f736 803f 2448 7a3f
000000b0: 481d 7b3f e512 7b3f a031 7a3f dcdd 773f
000000c0: e353 813f b95e 783f f6bd 7e3f 3583 783f
000000d0: 92cb a63f e4cb 773f 5f0e 793f fcc4 7b3f
000000e0: 456d 7b3f 2bfe 7d3f c2be 7a3f b4fa 7f3f
000000f0: fc28 913f 1dcc 7d3f 5878 773f bca6 7b3f
00000100: a4e9 843f baaf 833f 3af2 793f da70 7a3f
00000110: a641 783f daa0 b03f 178f 7a3f 0dc6 783f
00000120: 2141 783f 9acc 783f b7e0 8d3f ecff 793f
00000130: b799 863f 48b9 a83f 907b 7a3f 303d 793f
00000140: f411 793f e6a8 783f 5b9f 7b3f a3c3 793f
00000150: 1f52 793f a679 7b3f 6644 793f 917d 793f
00000160: aa16 833f 765f 7a3f d1f1 783f 7a32 793f
00000170: 65ca 7a3f 9b56 813f cd97 783f 014a 7b3f
00000180: 2af4 773f 4d58 793f cbb7 803f 945e 833f
00000190: e9c0 803f 0b8d 773f d2a1 8a3f 7c5d 783f
000001a0: 5028 7c3f 251e 793f db6d 763f cbda 783f
000001b0: f771 813f 8a9a 7a3f 6cae 7a3f 8ee6 783f
000001c0: b9a3 773f a282 7a3f e100 793f a025 8e3f
000001d0: 03e0 783f 5d06 7a3f badb 7b3f 084d 7b3f
000001e0: c643 7a3f 5850 7a3f 12d8 783f fc04 813f
000001f0: f231 793f 9f51 953f 85bd 773f adcf 773f
00000200: cd40 7d3f 9912 793f f475 8d3f a42e 783f
00000210: 6983 813f dc84 993f cbed 803f c673 7e3f
00000220: e367 783f c7d8 783f 8b63 7b3f 58d2 7a3f
00000230: ac66 7b3f 0d50 7b3f 833d 793f fab2 793f
00000240: 8e96 7e3f a577 7a3f 5871 813f 0bd5 7a3f
00000250: 3ea3 7f3f f388 853f 1358 7d3f e933 783f
00000260: 2266 7a3f c870 7a3f def0 813f d649 793f
00000270: 2807 793f 7bb2 7f3f 91db 7a3f 22cf 793f
00000280: 4566 923f abd8 783f 8e72 7d3f 6687 7b3f
00000290: f1c1 783f 75d4 813f ca3c 803f 2589 793f
000002a0: 60ff 7a3f d456 773f c3d6 793f a95e 793f
000002b0: 1292 853f 1edd 793f ca60 773f 2cad 783f
000002c0: b168 783f 29ea 783f a9ac 783f 49c7 7c3f
000002d0: 4cb1 8b3f 5e1d 793f c39e 793f 1b1d 7e3f
000002e0: 6adc 783f 019d 803f 9631 7b3f d5db 8e3f
000002f0: c42d 7a3f 406d 7a3f b4f4 793f 0f2f 813f
00000300: b594 793f fb69 783f e893 773f 3957 783f
00000310: 65f5 793f 6cfd 8a3f 9d24 7a3f 2c2e 813f
00000320: 4950 793f c088 773f 73df 783f 781d 883f
00000330: 0759 893f f8df 793f 126e 7f3f 4f48 773f
00000340: 49bb 773f 2098 783f b822 8a3f ace9 793f
00000350: 7f53 7c3f fd30 7a3f b69b 783f 91b5 7c3f
00000360: 014e 793f 0d72 813f aa3c 793f df1b 793f
00000370: f2a0 793f 2bc3 793f d561 7a3f 2324 7b3f
00000380: 1749 783f cf4f 783f 9a84 783f 2d06 783f
00000390: fef4 833f a213 7a3f 670d bb3f b9e2 793f
000003a0: 77aa 773f 7272 803f 02f2 7b3f 1c41 7a3f
000003b0: bf1e 7c3f 9d11 7f3f e46d 793f fc78 783f
000003c0: 2e28 783f ef73 7a3f 42c7 7a3f ffa6 793f
000003d0: 2a92 783f 8298 7f3f 8aff 7a3f 54a7 7b3f
000003e0: 68b2 783f 9c26 783f 76b6 933f 6933 7b3f
000003f0: bad3 853f 3a84 813f 564b 7a3f bff2 793f

tabnet.initial_splitter.shared.shared_layers.0.weight f4 [96, 1038]
-0.0026720914 0.012874692 0.0047939466 0.013237924 -0.00030361646 -0.023891877 0.00863469 0.017992357
-0.014236409 0.00068463833 -0.031973183 0.0017106064 -3.4473065e-05 -0.033238053 -0.0027712046 -0.03798184
-0.0053577586 0.0034111605 0.02075475 0.0057619917 0.018812073 0.044873375 0.04362912 0.015480714
0.069426015 0.033238042 -0.058570232 0.0062456564 -0.015178255 0.008285445 0.013669757 0.012008295
0.021649636 -0.019312503 -0.0008318017 -0.01683298 0.090025336 -0.010286728 -0.051569365 0.010136189
0.0012479626 -0.01803786 -0.0043612956 0.029855803 0.004521822 0.0004944131 -0.034540646 -0.015498569
0.0083069075 0.02172353 0.041676946 -0.004990904 0.011837281 -0.010360662 0.007938017 0.07093509
-0.004840739 0.008461141 0.006165538 -0.0076390025 0.02053982 4.3689365e-06 0.009467981 0.00044463685
0.050624635 0.033478357 -0.0001792961 0.028704891 4.076817e-05 0.0043212497 -0.036985666 -0.017607115
-0.0026091363 -0.019714728 0.00312444 -0.015112315 -0.00066103 0.043527447 -7.3169416e-05 0.004854741
-0.0064243893 -0.002468899 1.3812485e-06 0.029990043 -0.007831293 -0.035913575 0.010716391 0.010996139
-0.008399968 0.006698757 0.020214891 0.0012894728 -0.0032586292 -0.01012018 -0.00013591957 0.006883089
-0.015429324 -0.0045926664 0.051345117 3.1921067e-07 -0.013472732 0.00766096 -0.03334972 0.027905352
0.0071515394 -0.03777257 -0.032997858 0.008509037 0.0017415287 0.010632463 0.021566553 0.022134634
-0.0030794789 -0.029636005 0.04489863 -0.013189965 0.013119433 -4.3172284e-05 -0.08490323 -0.013657147
-0.0129594 0.009083222 -0.0024084267 0.00036504827 0.0138729215 -0.071979254 0.03771391 0.035109155
-0.021765182 0.0019090668 0.044825267 -0.012167463 -0.033588383 -0.015716108 -0.017749358 0.020468537
0.0044934074 0.010964192 0.012534181 0.048182 -0.019368492 0.0012439279 -0.0012073847 1.6100978e-05
-0.0028670535 0.036212493 -0.02671124 -0.0033114068 -0.016642729 -0.04860441 -0.020250155 -0.02931465
-0.007413426 -0.02545748 0.009057013 0.012745712 0.0015375349 -0.003974732 -0.009731418 0.0761801
0.052005246 -0.010679094 0.04211796 -0.006542555 -0.0006345882 5.38453e-06 -0.149455 0.00020241327
-0.027952146 -0.024908654 -0.062318202 -0.017301507 -0.07750818 -0.012394872 0.109531865 0.09880457
-0.012903812 0.07644434 -0.02762024 -6.42104e-05 -0.014000364 -0.0020292867 -0.016600074 -0.05469253
-0.024259007 0.005559396 0.008268788 0.033118498 0.08985694 0.011307835 0.013207924 0.011884233
0.026216276 0.0072181863 -0.022372479 0.02107129 0.015544923 -0.005394222 3.342856e-05 -0.047156475
-0.017513806 0.006296238 0.008500988 0.0006925573 -0.060018748 0.05597768 -0.0038763748 0.000218213
0.0033670715 -0.031563457 -0.016641835 -0.0415471 -0.0007922861 -0.015908899 -0.023764342 0.0005416763
0.0005214205 -0.03601412 0.06462119 0.09134934 0.011019404 -0.0038573428 -0.010816082 -0.014620179
0.0054873484 0.0034066334 0.0013431417 -0.034063425 -0.007124579 -0.00073345326 -0.004869128 -0.0084742615
0.025674779 0.034809057 -0.01732741 -0.014659232 -0.0079644695 -0.023373984 -0.002173368 0.051201873
0.006885773 -0.0072627165 -0.02339905 0.021855269 -0.031170044 -0.00028159306 -0.014888264 -0.0039362716
0.012280774 -0.0031519628 -0.059360094 0.010802683 0.001871961 -0.002718726 -0.03524466 -0.001695986
00000000: 411e 2fbb 5ff0 523c 8a16 9d3b e1e3 583c
00000010: b62e 9fb9 e6b8 c3bc 8478 0d3c b564 933c
00000020: d43f 69bc 4d79 333a 50f6 02bd 6d36 e03a
00000030: 2c97 10b8 a024 08bd 199d 35bb d992 1bbd
00000040: 2390 afbb c78d 5f3b de05 aa3c 17cf bc3b
00000050: c71b 9a3c 25cd 373d 73b4 323d d2a2 7d3c
00000060: 3a2f 8e3d 9d24 083d 57e7 6fbd 5da8 cc3b
00000070: 37ae 78bc adbf 073c 1ef7 5f3c 71be 443c
00000080: 945a b13c 4135 9ebc 440d 5aba 51e5 89bc
00000090: 345f b83d aa89 28bc 663a 53bd 4212 263c
000000a0: ad92 a33a 22c4 93bc 33e9 8ebb 2894 f43c
000000b0: cb2b 943b 809b 013a 7e7a 0dbd b6ed 7dbc
000000c0: b219 083c 8bf5 b13c 72b5 2a3d bd8a a3bb
000000d0: 28f1 413c c4bf 29bc 750e 023c 6b46 913d
000000e0: 109f 9ebb 99a0 0a3c 4808 ca3b 9950 fabb
000000f0: 2043 a83c e198 9236 971f 1b3c 261e e939
00000100: c75b 4f3d 9a20 093d 6e01 3cb9 8526 eb3c
00000110: 7dfe 2a38 4599 8d3b 487e 17bd cc3c 90bc
00000120: 0bfe 2abb c880 a1bc 68c3 4c3b a599 77bc
00000130: f948 2dba d649 323d 8872 99b8 8514 9f3b
00000140: af83 d2bb 40cd 21bb 5663 b935 aead f53c
00000150: d34e 00bc 1d1a 13bd cd93 2f3c 2629 343c
00000160: 05a0 09bc 3f81 db3b b399 a53c 8703 a93a
00000170: ba8e 55bb 1dcf 25bc a285 0eb9 898b e13b
00000180: 46cb 7cbc 147e 96bb 424f 523d fb5f ab34
00000190: bcbc 5cbc ca08 fb3b b799 08bd c499 e43c
000001a0: 7657 ea3b 69b7 1abd c328 07bd 7d69 0b3c
000001b0: 0244 e43a c833 2e3c 57ac b03c b153 b53c
000001c0: 15d1 49bb 35c7 f2bc a0e7 373d b91a 58bc
000001d0: e4f2 563c e313 35b8 bfe1 adbd 3ac2 5fbc
000001e0: aa53 54bc cbd1 143c b2d6 1dbb f363 bf39
000001f0: 404b 633c dc69 93bd e779 1a3d 9ece 0f3d
00000200: e54c b2bc a739 fa3a b39a 373d 0a5a 47bc
00000210: f993 09bd 11bf 80bc 1a67 91bc a2ad a73c
00000220: 6f3d 933b 28a3 333c 2a5c 4d3c 7d5a 453d
00000230: acaa 9ebc 4b0b a33a 1c41 9eba 9610 8737
00000240: 2de5 3bbb 8d53 143d 88d1 dabc 3004 59bb
00000250: 5556 88bc 6b15 47bd a7e3 a5bc 4725 f0bc
00000260: 53ec f2bb 358c d0bc de63 143c 64d3 503c
00000270: 1c87 c93a 783e 82bb 8770 1fbc 5004 9c3d
00000280: 7403 553d 5ef7 2ebc e283 2c3d ee62 d6bb
00000290: 7e5a 26ba c3ac b436 bb0a 19be e63e 5439
000002a0: e6fb e4bc 3c0d ccbc 5f41 7fbd e4bb 8dbc
000002b0: 9cbc 9ebd dc13 4bbc 3e52 e03d 0d5a ca3d
000002c0: 836a 53bc da8e 9c3d d743 e2bc b2a8 86b8
000002d0: c861 65bc c8fd 04bb e1fc 87bc 4605 60bd
000002e0: d3ba c6bc 982b b63b d079 073c 43a7 073d
000002f0: ea06 b83d 7f44 393c 0c66 583c 16b6 423c
00000300: 84c3 d63c 8986 ec3b 7d46 b7bc b39d ac3c
00000310: 22b0 7e3c 04c2 b0bb a535 0c38 2627 41bd
00000320: 1d79 8fbc ac50 ce3b ba47 0b3c bc8c 353a
00000330: 38d6 75bd da48 653d c70a 7ebb 1bd0 6439
00000340: 16aa 5c3b af48 01bd 7554 88bc 4b2d 2abd
00000350: 6cb1 4fba 6153 82bc 70ad c2bc 48ff 0d3a
00000360: f0af 083a 8b83 13bd 1d58 843d 5d15 bb3d
00000370: bb8a 343c 79cb 7cbb f035 31bc 7a89 6fbc
00000380: 37cf b33b d341 5f3b 5b0c b03a 1786 0bbd
00000390: 4d75 e9bb 3745 40ba 358d 9fbb a1d7 0abc
000003a0: ea53 d23c f193 0e3d 36f2 8dbc 472d 70bc
000003b0: 687d 02bc cc7a bfbc 106f 0ebb 0eb9 513d
000003c0: 0da2 e13b 15fc edbb 5daf bfbc d209 b33c
000003d0: 5258 ffbc c8a2 93b9 e8ed 73bc d7fb 80bb
000003e0: 4d35 493c 2991 4ebb 9223 73bd bdfd 303c
000003f0: 975c f53a a72c 32bb b45c 10bd d94b deba

tabnet.initial_splitter.shared.shared_layers.1.weight f4 [96, 48]
0.24023236 -0.0683424 -0.0071185934 0.0028793833 0.00824086 -0.083051905 0.01775441 0.03802955
0.080488965 -0.06491672 -0.0921518 -0.07834147 0.036665928 0.09802533 -0.0059311464 -0.023294596
-0.045383465 -0.035990693 -0.024570834 -0.05525047 0.040204372 -0.058460776 0.009852642 -0.028843341
-0.0035337694 -0.006844729 0.007899528 -0.0031183348 0.0025132648 0.022893352 -0.025388975 -0.013716105
0.0051863496 0.000116469535 0.0022769794 -0.007152129 0.00022467996 -0.0019684518 -0.021679288 0.0011091911
0.010707372 -0.03484143 -0.011976642 0.0020414977 0.0035311722 -0.011374013 -0.0003949723 -0.0009985084
-0.015511978 0.40250227 -0.03522506 -0.022835493 0.020109532 0.009654092 -0.032710314 0.013645547
-0.015797962 -0.024672413 -0.14955758 -0.017040454 -0.03878701 -0.045751914 -0.04028896 -0.02931184
-0.02908942 0.017364446 0.007868329 -0.058099885 -0.12580049 0.0021586088 -0.013921178 -0.047727663
-0.0034549618 -0.0099811945 0.008441834 -0.006337526 -0.018061273 -0.01273282 0.008354638 -0.0052471193
0.005151654 -0.0058628693 -0.0036348815 0.010121101 -0.0011634957 0.0024196585 -0.016273677 0.009910078
0.007077457 -0.061337437 0.013925865 0.00556791 0.008632694 -0.0022216095 0.004947758 0.0025473177
-0.027088545 0.058456387 0.24972947 0.048794497 -0.022196604 0.029530324 0.024930665 -0.0587184
-0.021179695 0.037719045 -0.010479222 -0.02993647 0.027813131 -0.036269348 0.025161311 -0.056925338
0.02877195 0.0014884034 -0.02698561 0.0073389807 0.0055484655 0.015637044 0.07199243 0.058610864
0.0040888865 -0.022922074 -0.017907128 0.0019177896 0.0012858335 0.006640287 -0.008589752 0.00592453
0.016802402 0.0054866346 0.016063541 -0.013806883 -0.009439457 -0.0073739463 -0.019450584 -0.0014428482
-0.009122956 -0.0030306478 -0.0090687955 5.1134666e-05 0.0035835668 0.0023060176 -0.0050567235 -0.037721463
0.0035501858 -0.016416596 -0.015946928 0.16444346 0.026218975 0.028246667 -0.085664906 0.03164683
-0.060178634 0.007885991 -0.043327354 0.00820316 0.07076213 0.031565163 -0.17228708 -0.07889949
0.024666404 -0.02311781 0.0003157394 0.0549867 0.020862991 -0.0015090404 0.03386822 0.022085933
-0.00012690831 -0.0047395383 0.0018619874 -0.001459201 0.012862522 -0.0069227926 -0.00474424 0.003923895
-0.000625394 -0.0033745565 0.005860523 -0.0008530273 -0.002808833 -0.0038172062 -0.022280192 -0.0059628626
-0.0013270315 0.050004438 -0.0048049376 -0.0018879833 -0.004876044 0.001823771 0.0045074723 -0.012189717
0.046961043 -0.03130375 -0.043984715 0.015466322 0.2698079 -0.03597163 0.008048752 -0.04280011
-0.08515876 -0.054082714 -0.08415433 -0.0028359964 -0.016833635 -0.057182822 -0.053901553 -0.034048513
-0.024410918 -0.053936057 0.13124582 -0.013516556 -0.08932597 -0.069963254 0.029447813 -0.01759212
-0.019237438 -0.024889782 -0.025176277 -0.0023319158 0.008706781 -0.029845396 -0.00248895 -0.008773298
0.023051731 -0.011797535 0.007142615 0.0016720499 -0.023449874 -0.02327939 -0.0031903912 0.009847098
0.011304463 -0.0061099855 0.022437919 0.00072548253 0.032502126 -0.0020619738 0.020811778 -0.014590165
0.004972454 0.0018509116 -0.037155204 0.044621035 0.0029996482 0.3965976 0.016529176 0.0028960134
-0.002119566 -0.04300595 -0.054922126 -0.0946726 0.015708445 0.012740732 -0.011101098 0.012770494
00000000: 79ff 753e 1af7 8bbd 1743 e9bb 09b4 3c3b
00000010: ac04 073c 1e17 aabd b271 913c e0c4 1b3d
00000020: 66d7 a43d 0ff3 84bd 15ba bcbd 7e71 a0bd
00000030: 032f 163d 81c1 c83d 105a c2bb 4fd4 bebc
00000040: 03e4 39bd fa6a 13bd c648 c9bc 514e 62bd
00000050: 57ad 243d 9174 6fbd fa6c 213c df48 ecbc
00000060: d096 67bb c049 e0bb 066d 013c fa5c 4cbb
00000070: 96b5 243b d78a bb3c 8afc cfbc 84b9 60bc
00000080: 41f2 a93b 1b41 f438 6039 153b 685c eabb
00000090: 1198 6b39 2401 01bb c398 b1bc 4762 913a
000000a0: f96d 2f3c e3b5 0ebd ad39 44bc a6ca 053b
000000b0: 3d6b 673b 115a 3abc 4914 cfb9 62e0 82ba
000000c0: f425 7ebc c714 ce3e 2748 10bd 8011 bbbc
000000d0: bfbc a43c 322c 1e3c 40fb 05bd 9391 5f3c
000000e0: ba6a 81bc cd1d cabc 9f25 19be 6c98 8bbc
000000f0: 21df 1ebd 5c66 3bbd 0906 25bd 621f f0bc
00000100: ef4c eebc e23f 8e3c 2aea 003c 25fa 6dbd
00000110: d8d1 00be 7277 0d3b a715 64bc 157e 43bd
00000120: a46c 62bb 2a88 23bc 9e4f 0a3c 05ab cfbb
00000130: 3cf5 93bc 519d 50bc e4e1 083c 07f0 abbb
00000140: 35cf a83b 501d c0bb 3137 6ebb f9d2 253c
00000150: 7080 98ba 2293 1e3b 6050 85bc e15d 223c
00000160: 03ea e73b f73c 7bbd 5029 643c 0473 b63b
00000170: 2570 0d3c 6c98 11bb cd20 a23b e6f0 263b
00000180: cce8 ddbc f76f 6f3d 15b9 7f3e bddc 473d
00000190: a7d5 b5bc 94e9 f13c 653b cc3c b482 70bd
000001a0: 0a81 adbc 497f 1a3d 0bb1 2bbc 543d f5bc
000001b0: 5dd8 e33c 2b8f 14bd 181f ce3c 8b2a 69bd
000001c0: 27b3 eb3c 8816 c33a ed10 ddbc d57b f03b
000001d0: e7cf b53b 4219 803c c470 933d f211 703d
000001e0: 11fc 853b 13c7 bbbc f8b1 92bc 575e fb3a
000001f0: 6a89 a83a c496 d93b 08bc 0cbc 8f22 c23b
00000200: 31a5 893c 3ac9 b33b b097 833c 4436 62bc
00000210: f4a7 1abc 25a1 f1bb d556 9fbc f41d bdba
00000220: 7378 15bc d59d 46bb 4995 14bc 6e79 5638
00000230: 46da 6a3b 8e20 173b dfb2 a5bb d281 1abd
00000240: 3caa 683b 197c 86bc 22a3 82bc de63 283e
00000250: 2dc9 d63c 8e65 e73c 1571 afbd 1ba0 013d
00000260: df7d 76bd 3e34 013c 0678 31bd 8c66 063c
00000270: bceb 903d 794a 013d 066c 30be 0e96 a1bd
00000280: 3311 ca3c 9061 bdbc d389 a539 bc39 613d
00000290: dde8 aa3c feca c5ba 67b9 0a3d 8fed b43c
000002a0: b112 05b9 214e 9bbb ee0d f43a a942 bfba
000002b0: 54bd 523c 98d8 e2bb 9275 9bbb 0494 803b
000002c0: 7bf1 23ba aa27 5dbb a109 c03b b19d 5fba
000002d0: 6614 38bb 182a 7abb f384 b6bc 1e64 c3bb
000002e0: caef adba 74d1 4c3d bd72 9dbb 3576 f7ba
000002f0: 39c7 9fbb 9a0b ef3a 6bb3 933b 61b7 47bc
00000300: 395a 403d 5c38 00bd 5129 34bd 7566 7d3c
00000310: 4324 8a3e fd56 13bd eade 033c 2b4f 2fbd
00000320: b767 aebd d685 5dbd 1b59 acbd 20dc 39bb
00000330: b1e6 89bc 8938 6abd e0c7 5cbd 7476 0bbd
00000340: 68f9 c7bc 0eec 5cbd 4e65 063e 8b74 5dbc
00000350: 89f0 b6bd e548 8fbd 8a3c f13c 5a1d 90bc
00000360: d597 9dbc a8e5 cbbc 7b3e cebc 0ed3 18bb
00000370: e3a6 0e3c 557e f4bc a71d 23bb e1bd 0fbc
00000380: fcd6 bc3c 734a 41bc 990c ea3b af28 db3a
00000390: f319 c0bc 6bb4 bebc e215 51bb b955 213c
000003a0: 5b36 393c 4636 c8bb bacf b73c 4f2e 3e3a
000003b0: f320 053d 2e22 07bb 767d aa3c 960b 6fbc
000003c0: f8ef a23b 4a9a f23a 0e30 18bd 8cc4 363d
000003d0: bf95 443b d70e cb3e 3268 873c 0bcb 3d3b
000003e0: 6be8 0abb 0227 30bd 06f6 60bd b5e3 c1bd
000003f0: ffae 803c 81be 503c 61e1 35bc 563b 513c

tabnet.initial_splitter.shared.glu_layers.0.fc.weight f4 [96, 1038]
-0.0026720914 0.012874692 0.0047939466 0.013237924 -0.00030361646 -0.023891877 0.00863469 0.017992357
-0.014236409 0.00068463833 -0.031973183 0.0017106064 -3.4473065e-05 -0.033238053 -0.0027712046 -0.03798184
-0.0053577586 0.0034111605 0.02075475 0.0057619917 0.018812073 0.044873375 0.04362912 0.015480714
0.069426015 0.033238042 -0.058570232 0.0062456564 -0.015178255 0.008285445 0.013669757 0.012008295
0.021649636 -0.019312503 -0.0008318017 -0.01683298 0.090025336 -0.010286728 -0.051569365 0.010136189
0.0012479626 -0.01803786 -0.0043612956 0.029855803 0.004521822 0.0004944131 -0.034540646 -0.015498569
0.0083069075 0.02172353 0.041676946 -0.004990904 0.011837281 -0.010360662 0.007938017 0.07093509
-0.004840739 0.008461141 0.006165538 -0.0076390025 0.02053982 4.3689365e-06 0.009467981 0.00044463685
0.050624635 0.033478357 -0.0001792961 0.028704891 4.076817e-05 0.0043212497 -0.036985666 -0.017607115
-0.0026091363 -0.019714728 0.00312444 -0.015112315 -0.00066103 0.043527447 -7.3169416e-05 0.004854741
-0.0064243893 -0.002468899 1.3812485e-06 0.029990043 -0.007831293 -0.035913575 0.010716391 0.010996139
-0.008399968 0.006698757 0.020214891 0.0012894728 -0.0032586292 -0.01012018 -0.00013591957 0.006883089
-0.015429324 -0.0045926664 0.051345117 3.1921067e-07 -0.013472732 0.00766096 -0.03334972 0.027905352
0.0071515394 -0.03777257 -0.032997858 0.008509037 0.0017415287 0.010632463 0.021566553 0.022134634
-0.0030794789 -0.029636005 0.04489863 -0.013189965 0.013119433 -4.3172284e-05 -0.08490323 -0.013657147
-0.0129594 0.009083222 -0.0024084267 0.00036504827 0.0138729215 -0.071979254 0.03771391 0.035109155
-0.021765182 0.0019090668 0.044825267 -0.012167463 -0.033588383 -0.015716108 -0.017749358 0.020468537
0.0044934074 0.010964192 0.012534181 0.048182 -0.019368492 0.0012439279 -0.0012073847 1.6100978e-05
-0.0028670535 0.036212493 -0.02671124 -0.0033114068 -0.016642729 -0.04860441 -0.020250155 -0.02931465
-0.007413426 -0.02545748 0.009057013 0.012745712 0.0015375349 -0.003974732 -0.009731418 0.0761801
0.052005246 -0.010679094 0.04211796 -0.006542555 -0.0006345882 5.38453e-06 -0.149455 0.00020241327
-0.027952146 -0.024908654 -0.062318202 -0.017301507 -0.07750818 -0.012394872 0.109531865 0.09880457
-0.012903812 0.07644434 -0.02762024 -6.42104e-05 -0.014000364 -0.0020292867 -0.016600074 -0.05469253
-0.024259007 0.005559396 0.008268788 0.033118498 0.08985694 0.011307835 0.013207924 0.011884233
0.026216276 0.0072181863 -0.022372479 0.02107129 0.015544923 -0.005394222 3.342856e-05 -0.047156475
-0.017513806 0.006296238 0.008500988 0.0006925573 -0.060018748 0.05597768 -0.0038763748 0.000218213
0.0033670715 -0.031563457 -0.016641835 -0.0415471 -0.0007922861 -0.015908899 -0.023764342 0.0005416763
0.0005214205 -0.03601412 0.06462119 0.09134934 0.011019404 -0.0038573428 -0.010816082 -0.014620179
0.0054873484 0.0034066334 0.0013431417 -0.034063425 -0.007124579 -0.00073345326 -0.004869128 -0.0084742615
0.025674779 0.034809057 -0.01732741 -0.014659232 -0.0079644695 -0.023373984 -0.002173368 0.051201873
0.006885773 -0.0072627165 -0.02339905 0.021855269 -0.031170044 -0.00028159306 -0.014888264 -0.0039362716
0.012280774 -0.0031519628 -0.059360094 0.010802683 0.001871961 -0.002718726 -0.03524466 -0.001695986
00000000: 411e 2fbb 5ff0 523c 8a16 9d3b e1e3 583c
00000010: b62e 9fb9 e6b8 c3bc 8478 0d3c b564 933c
00000020: d43f 69bc 4d79 333a 50f6 02bd 6d36 e03a
00000030: 2c97 10b8 a024 08bd 199d 35bb d992 1bbd
00000040: 2390 afbb c78d 5f3b de05 aa3c 17cf bc3b
00000050: c71b 9a3c 25cd 373d 73b4 323d d2a2 7d3c
00000060: 3a2f 8e3d 9d24 083d 57e7 6fbd 5da8 cc3b
00000070: 37ae 78bc adbf 073c 1ef7 5f3c 71be 443c
00000080: 945a b13c 4135 9ebc 440d 5aba 51e5 89bc
00000090: 345f b83d aa89 28bc 663a 53bd 4212 263c
000000a0: ad92 a33a 22c4 93bc 33e9 8ebb 2894 f43c
000000b0: cb2b 943b 809b 013a 7e7a 0dbd b6ed 7dbc
000000c0: b219 083c 8bf5 b13c 72b5 2a3d bd8a a3bb
000000d0: 28f1 413c c4bf 29bc 750e 023c 6b46 913d
000000e0: 109f 9ebb 99a0 0a3c 4808 ca3b 9950 fabb
000000f0: 2043 a83c e198 9236 971f 1b3c 261e e939
00000100: c75b 4f3d 9a20 093d 6e01 3cb9 8526 eb3c
00000110: 7dfe 2a38 4599 8d3b 487e 17bd cc3c 90bc
00000120: 0bfe 2abb c880 a1bc 68c3 4c3b a599 77bc
00000130: f948 2dba d649 323d 8872 99b8 8514 9f3b
00000140: af83 d2bb 40cd 21bb 5663 b935 aead f53c
00000150: d34e 00bc 1d1a 13bd cd93 2f3c 2629 343c
00000160: 05a0 09bc 3f81 db3b b399 a53c 8703 a93a
00000170: ba8e 55bb 1dcf 25bc a285 0eb9 898b e13b
00000180: 46cb 7cbc 147e 96bb 424f 523d fb5f ab34
00000190: bcbc 5cbc ca08 fb3b b799 08bd c499 e43c
000001a0: 7657 ea3b 69b7 1abd c328 07bd 7d69 0b3c
000001b0: 0244 e43a c833 2e3c 57ac b03c b153 b53c
000001c0: 15d1 49bb 35c7 f2bc a0e7 373d b91a 58bc
000001d0: e4f2 563c e313 35b8 bfe1 adbd 3ac2 5fbc
000001e0: aa53 54bc cbd1 143c b2d6 1dbb f363 bf39
000001f0: 404b 633c dc69 93bd e779 1a3d 9ece 0f3d
00000200: e54c b2bc a739 fa3a b39a 373d 0a5a 47bc
00000210: f993 09bd 11bf 80bc 1a67 91bc a2ad a73c
00000220: 6f3d 933b 28a3 333c 2a5c 4d3c 7d5a 453d
00000230: acaa 9ebc 4b0b a33a 1c41 9eba 9610 8737
00000240: 2de5 3bbb 8d53 143d 88d1 dabc 3004 59bb
00000250: 5556 88bc 6b15 47bd a7e3 a5bc 4725 f0bc
00000260: 53ec f2bb 358c d0bc de63 143c 64d3 503c
00000270: 1c87 c93a 783e 82bb 8770 1fbc 5004 9c3d
00000280: 7403 553d 5ef7 2ebc e283 2c3d ee62 d6bb
00000290: 7e5a 26ba c3ac b436 bb0a 19be e63e 5439
000002a0: e6fb e4bc 3c0d ccbc 5f41 7fbd e4bb 8dbc
000002b0: 9cbc 9ebd dc13 4bbc 3e52 e03d 0d5a ca3d
000002c0: 836a 53bc da8e 9c3d d743 e2bc b2a8 86b8
000002d0: c861 65bc c8fd 04bb e1fc 87bc 4605 60bd
000002e0: d3ba c6bc 982b b63b d079 073c 43a7 073d
000002f0: ea06 b83d 7f44 393c 0c66 583c 16b6 423c
00000300: 84c3 d63c 8986 ec3b 7d46 b7bc b39d ac3c
00000310: 22b0 7e3c 04c2 b0bb a535 0c38 2627 41bd
00000320: 1d79 8fbc ac50 ce3b ba47 0b3c bc8c 353a
00000330: 38d6 75bd da48 653d c70a 7ebb 1bd0 6439
00000340: 16aa 5c3b af48 01bd 7554 88bc 4b2d 2abd
00000350: 6cb1 4fba 6153 82bc 70ad c2bc 48ff 0d3a
00000360: f0af 083a 8b83 13bd 1d58 843d 5d15 bb3d
00000370: bb8a 343c 79cb 7cbb f035 31bc 7a89 6fbc
00000380: 37cf b33b d341 5f3b 5b0c b03a 1786 0bbd
00000390: 4d75 e9bb 3745 40ba 358d 9fbb a1d7 0abc
000003a0: ea53 d23c f193 0e3d 36f2 8dbc 472d 70bc
000003b0: 687d 02bc cc7a bfbc 106f 0ebb 0eb9 513d
000003c0: 0da2 e13b 15fc edbb 5daf bfbc d209 b33c
000003d0: 5258 ffbc c8a2 93b9 e8ed 73bc d7fb 80bb
000003e0: 4d35 493c 2991 4ebb 9223 73bd bdfd 303c
000003f0: 975c f53a a72c 32bb b45c 10bd d94b deba

tabnet.initial_splitter.shared.glu_layers.0.bn.bn.weight f4 [96]
0.39452422 0.4206751 0.4206681 0.14847925 0.34024224 0.041951828 0.029379189 0.3561029
0.20080681 0.18499637 0.05101587 0.4661026 0.37901914 0.6639644 0.48526877 0.15808153
0.049787503 0.55921906 0.57086337 0.049679957 0.0759552 0.0404445 0.4887574 0.093261406
0.5199206 0.3702658 0.39862618 0.08487395 0.07536264 0.40470257 0.44958627 0.4524384
0.4402384 0.3504813 0.44743374 0.4405969 0.3910108 0.48984045 0.41433015 0.42437458
0.35682568 0.40846887 0.41777357 -0.02919963 0.44082865 0.46350104 0.30592906 0.41492522
0.003434886 0.088352606 0.13622518 0.01233083 0.08359308 -0.0009734984 0.0010472747 0.011429567
0.049526617 -0.0024783981 0.002678576 0.11385286 0.22989677 0.2675579 0.08414854 0.0038591754
-0.0020622213 0.17638418 0.30421418 -0.006011956 0.0006043007 -0.0014304721 0.067297086 0.00054553634
0.4092369 0.25967285 -0.06271014 -0.024509642 0.06052916 0.020843636 0.14684168 0.209644
0.31780386 0.19752327 0.38951626 0.43247604 0.009043932 0.2641339 0.409418 0.43254295
-0.09981825 0.26965147 0.28057107 0.025315449 0.1798797 0.12807402 0.07760245 0.24901406
00000000: 14ff c93e ba62 d73e cf61 d73e f20a 183e
00000010: 3b34 ae3e aed5 2b3d a0ac f03c 1f53 b63e
00000020: 4da0 4d3e b06f 3d3e 04f6 503d 00a5 ee3e
00000030: cc0e c23e 92f9 293f 2675 f83e 20e0 213e
00000040: fbed 4b3d fb28 0f3f 1a24 123f 367d 4b3d
00000050: 668e 9b3d 22a9 253d 693e fa3e d6ff be3d
00000060: 8419 053f 7b93 bd3e bb18 cc3e 65d2 ad3d
00000070: ba57 9a3d 2d35 cf3e 2c30 e63e 02a6 e73e
00000080: ed66 e13e 4972 b33e 0916 e53e eb95 e13e
00000090: 9132 c83e 5ecc fa3e 1523 d43e a047 d93e
000000a0: dbb1 b63e d522 d13e 6be6 d53e 1034 efbc
000000b0: 4bb4 e13e 0250 ed3e bca2 9c3e 1471 d43e
000000c0: d31b 613b 36f2 b43d 9d7e 0b3e 4007 4a3c
000000d0: d932 ab3d 5f32 7fba b544 893a 1443 3b3c
000000e0: 6cdc 4a3d 9f6c 22bb 0c8b 2f3b b02b e93d
000000f0: 0f6a 6b3e 59fd 883e 1256 ac3d 38ea 7c3b
00000100: 5526 07bb 0e9e 343e f6c1 9b3e f1ff c4bb
00000110: ef69 1e3a ae7e bbba 0ed3 893d 5302 0f3a
00000120: 8087 d13e d7f3 843e 2d6e 80bd 72c8 c8bc
00000130: 6ded 773d 46c0 aa3c aa5d 163e ebac 563e
00000140: 30b7 a23e 8a43 4a3e ad6e c73e 806d dd3e
00000150: 002d 143c 8f3c 873e 3c9f d13e 4576 dd3e
00000160: 836d ccbd c20f 8a3e 03a7 8f3e 5862 cf3c
00000170: 6232 383e d625 033e 09ee 9e3d 8bfd 7e3e

tabnet.initial_splitter.shared.glu_layers.0.bn.bn.bias f4 [96]
0.026647804 0.0009504097 -0.011228433 -0.00022766416 0.002364963 -4.1231342e-05 3.1781958e-05 -0.0015946734
0.00036682005 0.0029447072 0.00025869338 0.0012565636 -0.033405174 0.028687403 -0.011672126 0.00048297475
0.0002826633 -0.024457652 0.037985764 -0.00017382555 1.2073716e-05 -5.389345e-05 0.021156881 0.00093946
-0.14446118 0.049950235 -0.05094727 -0.002124563 -0.029579783 0.00022176417 0.0061642923 -0.0035892674
0.024013445 0.002041576 -0.0002411069 0.09139557 -0.022416167 0.07679449 -0.131512 0.033600412
-0.0399786 -0.060236033 0.04352436 0.004064051 -0.015227839 -0.11062535 0.004978307 0.011352383
0.034669902 0.019715695 0.052558515 0.0017855194 0.029643442 0.00055546383 -0.0011011402 0.010680444
0.0059663774 0.011480171 0.0006665283 0.05584426 0.033415724 0.16106366 0.012939913 0.00706449
-0.0014449811 0.10536141 0.06022731 0.00093163847 0.0011222226 -0.00052891026 0.070994765 0.000221421
0.03168379 0.040273484 0.03932816 -0.026658908 -0.044864144 0.051064514 0.089058764 0.06015107
0.03420756 0.032832537 0.0149607565 0.0033522132 0.06488857 0.07455392 0.0029230127 -0.010781648
0.040012322 0.037692852 0.030047186 -0.03202367 0.057634823 0.021467803 0.030526659 0.05897947
00000000: 7f4c da3c ea24 793a 76f7 37bc 22b9 6eb9
00000010: 7ffd 1a3b d1ef 2cb8 9e4d 0538 5c04 d1ba
00000020: c151 c039 fdfb 403b 3da1 8739 47b3 a43a
00000030: ddd3 08bd d801 eb3c 723c 3fbc c637 fd39
00000040: 6d32 9439 6a5b c8bc f696 1b3d f144 36b9
00000050: 3790 4a37 a70b 62b8 3251 ad3c 1846 763a
00000060: a2ed 13be 9e98 4c3d 16ae 50bd 413c 0bbb
00000070: 4d51 f2bc 5e89 6839 d5fd c93b ea39 6bbb
00000080: d8b7 c43c f6cb 053b a4d1 7cb9 9a2d bb3d
00000090: 1ca2 b7bc 6e46 9d3d 15ab 06be 96a0 093d
000000a0: 9ac0 23bd 0fba 76bd 9946 323d bb2b 853b
000000b0: 307e 79bc 8b8f e2bd 1121 a33b 58ff 393c
000000c0: 0702 0e3d cf82 a13c 9947 573d 1708 ea3a
000000d0: ced6 f23c 8c9c 113a 2254 90ba 07fd 2e3c
000000e0: 9a81 c33b 5417 3c3c f5b9 2e3a f3bc 643d
000000f0: edde 083d dfed 243e ee01 543c 3d7d e73b
00000100: 8565 bdba b9c7 d73d e9b0 763d 3339 743a
00000110: 8b17 933a 91a6 0aba b465 913d 3f2d 6839
00000120: ddc6 013d cff5 243d 9116 213d c863 dabc
00000130: 77c3 37bd 0629 513d 7164 b63d f860 763d
00000140: 3a1d 0c3d 697b 063d f61d 753c ceb0 5b3b
00000150: 4ce4 843d baaf 983d 0490 3f3b 82a5 30bc
00000160: f6e3 233d d263 1a3d 8425 f63c 402b 03bd
00000170: 7e12 6c3d 3fdd af3c 0b13 fa3c 7594 713d
