cv_steps/tabnet_raw_step1_fold3_0/network.pt (torch, 682379 bytes, 56 tensors)

embedder.embeddings.0.weight f4 [3, 1]
00000000: 9b76 153c 9a64 c5bd bb43 9c3d
0.009122516 -0.09638329 0.07630106

embedder.embeddings.1.weight f4 [2, 1]
00000000: 53d3 41be edcf 413e
-0.1892827 0.18926974

tabnet.initial_bn.weight f4 [1038]
00000000: 859c b63d a26b d4bd 8592 86b9 bb5e 1b3e
00000010: 7f02 153d 2b18 263e 6a9f 8e36 6014 ac3d
00000020: e245 163d 1329 62b8 e8cd 943e 7ec5 bfb8
00000030: ca89 8fbb 3c65 213e 07ec 813d e3df 863d
00000040: 110c e93d 0ab0 c73d dffe 8e3d 73e9 4638
00000050: 145c c53d e4c4 ee3d db4c 7c3e d4bb c23c
00000060: b807 173e b17f 533e 320e 263e 96af 123e
00000070: 4401 ae3d a036 073e 9744 503e 25ae 543e
00000080: 2636 273e 0349 b2b7 b420 cb3b 10c6 213e
00000090: adc7 443e 06f0 e43d fec2 323e 10dc b439
000000a0: 3d88 e23b 1fc7 793e 852a 073e 0307 863e
000000b0: d5d9 7d36 194e 023d 4e3f 7e3d 46e9 f43d
000000c0: d824 e53c 2eea 793e e9f1 803e 2d9a 6f3d
000000d0: b322 303e 290d 4d3e 992d f738 88c1 25bc
000000e0: 998d 073e 85a5 0f3e 53c2 db3d 9c8f 143e
000000f0: d3d4 0a3e 6439 43b8 24bd 373e 0412 3d3e
00000100: f2e5 5d3e 295a 233e efc7 62b9 989a 5d3e
00000110: d6b2 6c3d 9ca9 7d3d e6a1 3e3e 977f f73d
00000120: 75df a5bb 0c26 b33c ddb0 f93d 5a73 793b
00000130: c7b8 103d 1ee9 ca3e 9f31 0038 931b fb3d
00000140: 3839 063e a2cf a3b7 5684 6035 ae30 003e
00000150: 81df 9fb9 ad43 da3d b432 d83d c57d d33d
00000160: 0ee9 af3c f9f3 073e d88f 1d3e 0692 c13d
00000170: cf9d 023e 8c92 6e3e b761 313e c854 4f3d
00000180: 765b 2a3d 21f0 5a3d c5e3 393e 68de 563b
00000190: 18ed 593d 573c 3c3e d794 fd3d 7385 093d
000001a0: a4aa 543e 48b6 5a3e b861 7a3d 2309 4a3e
000001b0: e3df 753d 6e21 513e 326a 703c 7f56 173e
000001c0: 60ac 283e ca1b 103e 9377 af3b b853 0c3e
000001d0: 94b1 ea3d 01dd 8a3c 0af8 243e 421a 8a3e
000001e0: e15d 223e f5eb 213d 236a 043e b9fb 06bc
000001f0: 1a47 173e e103 473e ab8e 503e c520 ea3d
00000200: 9c65 3b3d 72bd 1b3e 7d5d 413e b6a5 ed3d
00000210: 67af 843e a4a2 353e 4568 2c35 4502 1b3e
00000220: 2fcd 023e c1e3 513d 9754 213e 5963 173e
00000230: e042 243d dfce ce3d 163d 053b 58aa 163c
00000240: afd0 8f3d 5490 3e3e a955 553e eeb2 19b9
00000250: d736 a43d cd49 e33d 7276 f23d 2fcb 6f3e
00000260: e30a bfb8 1fbc d23d 3fa4 383e 6fc1 023e
00000270: af79 ab3d c77f 213d c4bd 823e 27fb ad3e
00000280: 2157 aa3e 646b 403d b726 f83d c1c4 f83d
00000290: 1793 b93d 4439 7538 9e0f 773e f542 b9b9
000002a0: 3532 4a3e d652 2a3e c1a3 133e b68d 263e
000002b0: 2b30 bd3d 692d d73d cbe1 2a3e 4abc 1b3e
000002c0: 2f8b 9c3d 3800 a13e dc68 0f3e ffb6 bb3d
000002d0: 48e7 8f3e 361c db3d af7e 2c3e 0020 063e
000002e0: 3956 12b9 2f14 193e a6c7 1836 4480 b13d
000002f0: dd41 3b3e 16ae 393e c4ae 103e f087 a93d
00000300: d75d 363e ae77 c53d 3c01 273e 57a9 32bc
00000310: d668 ca3d 33da 283e 92bb 0e39 30a6 b83d
00000320: 1297 873d af82 c439 f021 81bc f446 1f3e
00000330: 6e62 673e 38ea 273e 10e0 20bd f60b 623d
00000340: 3688 5b3d b5ff 763e 35f6 443e 835b 413e
00000350: 605e 053e c7fb 6b3e f7f5 cf3d 89f0 183e
00000360: 7dec fb3a 1ede 0b3e 3ffd 303d c013 a53e
00000370: d3d9 063e 7b2b 873d d92a 723c cb1b 983e
00000380: 8dee 263e 1839 8b3d c54f ae3c 95ed 313d
00000390: 75df 913d 949f c23d 7ee3 d53d 2fd3 193e
000003a0: ef19 113d 7e3d 183e 3a02 a3b9 b5b5 553e
000003b0: 5f49 e23d 7fc9 2e3e 442d ad3b 010c 88bb
000003c0: f589 903d e790 0e3e bf91 fb3d 8ea5 693e
000003d0: 7051 e73d 1772 1836 67f3 103e 9222 a63a
000003e0: e764 fc3c 9a2d 82bc 6bb3 463e 30bb 3ab7
000003f0: 6bbb d53c 64a4 63bc da06 953d 2246 1c3e
0.089165725 -0.10372092 -0.00025667637 0.15172856 0.036379334 0.16220157 4.250488e-06 0.08402324
0.03668774 -5.3920852e-05 0.29063344 -9.1443755e-05 -0.0043804394 0.15761274 0.06343847 0.06585672
0.113792546 0.09750374 0.069822066 4.7424295e-05 0.09636703 0.11658648 0.24638693 0.023771204
0.14749038 0.20654179 0.16216353 0.14324793 0.08496335 0.13204432 0.20338665 0.20769556
0.1632925 -2.1253252e-05 0.006198967 0.15798211 0.19216795 0.11178593 0.17457196 0.00034496235
0.0069132135 0.24392365 0.13199814 0.26177225 3.7826733e-06 0.03181276 0.06207209 0.11958556
0.02797167 0.24405739 0.25184563 0.058496643 0.17200737 0.20024551 0.00011786371 -0.010116942
0.13237609 0.14027984 0.10730424 0.14507908 0.13557748 -4.6545072e-05 0.17943245 0.18463904
0.21669748 0.15952362 -0.0002162752 0.21641004 0.05778774 0.06192933 0.18616447 0.12084883
-0.0050620385 0.021868728 0.12191937 0.003806314 0.035332467 0.3963098 3.056379e-05 0.12261119
0.13107765 -1.95278e-05 8.3639077e-07 0.1251857 -0.00030493367 0.106574394 0.10556546 0.10326723
0.021473434 0.13276662 0.15386903 0.0945168 0.12755512 0.2329809 0.17322432 0.050617963
0.04159113 0.05345166 0.18153293 0.0032786373 0.053204626 0.18382393 0.123819046 0.033574533
0.20768219 0.21358597 0.061128348 0.19730048 0.06002797 0.20422909 0.014673756 0.1477909
0.16472006 0.140731 0.0053548305 0.13703811 0.114596516 0.016951086 0.16110244 0.26973158
0.15856124 0.039531667 0.12931113 -0.008238726 0.14773217 0.19435073 0.20366924 0.114320315
0.0457512 0.15208986 0.18883319 0.116038725 0.2591507 0.17737824 6.4226725e-07 0.15137585
0.12773584 0.051242594 0.15754925 0.14783992 0.04010284 0.10098051 0.00203306 0.009195887
0.07022225 0.18609744 0.20833458 -0.00014657874 0.08018272 0.11098061 0.11838998 0.23417352
-9.1096175e-05 0.102897875 0.18031405 0.12769102 0.08372819 0.0394285 0.25535405 0.33980677
0.332696 0.046977416 0.12116759 0.12146903 0.09061258 5.8465885e-05 0.24127051 -0.00035335837
0.19745715 0.16633162 0.14417936 0.16264996 0.09237703 0.10506708 0.16687696 0.15208545
0.07643735 0.3144548 0.14004844 0.09165763 0.2810614 0.1069874 0.16845201 0.13098145
-0.00013955765 0.14949106 2.2765976e-06 0.08667043 0.18286844 0.18132815 0.14129168 0.08277881
0.17809235 0.09641968 0.16309065 -0.010904632 0.09883277 0.16489486 0.0001361205 0.09016073
0.06620611 0.000374814 -0.015763253 0.1555441 0.22596142 0.16397941 -0.039276183 0.055187188
0.053596698 0.24120982 0.19234546 0.18882565 0.13024282 0.23045264 0.10154336 0.14935507
0.0019220259 0.1365895 0.043210264 0.3224163 0.13169031 0.0660009 0.0147807235 0.29708704
0.16301937 0.06797999 0.021278271 0.043439467 0.07122699 0.09503093 0.10443781 0.15021966
0.035425123 0.14867207 -0.00031091442 0.20870097 0.11049151 0.17069052 0.005284937 -0.0041518216
0.07057563 0.13922463 0.12283658 0.2281706 0.1129483 2.2716174e-06 0.1415535 0.0012675098
0.030809833 -0.015890885 0.1940438 -1.1130047e-05 0.026090344 -0.013894174 0.072766975 0.15261129

tabnet.initial_bn.bias f4 [1038]
00000000: ec95 0e3a 0601 d4b7 5ef9 28b6 03e1 8139
00000010: 5e1d b6bc 621f 73b9 9353 9331 eda5 c339
00000020: 3b79 8b38 08bf 8ab3 1845 c139 b8b3 f133
00000030: 3380 0038 8df8 fb3b 1e3b 0c38 44e1 cc37
00000040: f8db 75b9 c627 5fba 96a7 00bd b9d0 3bb5
00000050: eea4 543a 3817 4eb7 a8c8 7cba 31ef be37
00000060: c25a 8c3a 8578 a739 c0b7 773c c67a 1cbb
00000070: 6391 af39 4d3a 0d3b 299b 23ba 7b15 90ba
00000080: 702f 5339 4334 aeb4 7809 97b6 5098 5dba
00000090: 0893 91bd 50ea 9438 eddc 8139 8aa9 af3e
000000a0: b17f 05b8 306d 21ba d68c 953b ed04 17ba
000000b0: d6d8 ff31 1d7e dbb7 8517 203c 8f58 cc38
000000c0: b2ce ff37 1ad5 d4b8 77a2 303a 0d57 d9b4
000000d0: 4ffa 1e3c a97c d7b9 468e 1ab3 0a04 9cbe
000000e0: 5a70 e6b8 2d3e cc39 1404 7838 97a0 29b9
000000f0: 933d 58b9 519b 99b1 e96e fa38 7baf d1bc
00000100: 30b0 25ba 663c b93a f19d c6b4 61c4 333a
00000110: 11d9 9038 8e14 3dba 89ce 7d38 3da1 e938
00000120: e69d d3b6 0674 a83e 18e6 af3a 5d93 abb5
00000130: f7aa 3fb7 c454 b93d 92a0 cc32 96ce 4bbb
00000140: 486c abb8 7726 ce31 c29e 0832 6b65 473c
00000150: 26ee 0cb6 3d8b a4b9 f0a7 cc38 d77a 2639
00000160: 99da aab7 0fe0 75b9 d135 01b8 23c3 5cb9
00000170: 3809 0f3a 13d3 7cba 985f 9939 561f a3b6
00000180: 72d0 28bc b75b b03b 99cf 28bc eecd c5b7
00000190: ee06 e2b8 ac5e 1b37 7208 d93e 7541 ddb8
000001a0: 42f8 d2bb bdac d839 3d23 eab9 f519 8638
000001b0: c0e1 8aba 6cb8 40ba 007d a9b6 f896 d638
000001c0: c4b6 3737 85cf 7a3a cffc 04b8 fbaa 84bc
000001d0: 6a77 0a38 e678 16be a2eb 4739 ba3c 2438
000001e0: 45a0 5db9 5687 2fba 69d2 9db9 3448 77b8
000001f0: 6760 77b9 7455 dd38 5774 a8b9 d189 7239
00000200: c5ea 38b9 bb7f 54b9 3c33 2c39 b17c 46b8
00000210: e98d 11b8 4530 a63d d0d7 b330 2d87 8d39
00000220: 9d87 9039 381b a539 6515 7f3a 49b3 d2b9
00000230: bb59 d8b8 f109 0938 ab1b ab36 66c5 f8b7
00000240: af31 bcba bc3a 8138 b091 30b9 946b e0b4
00000250: 4b2f b439 6921 b839 62e9 0db9 f71e d7b9
00000260: 95e1 a235 898e 5a38 4967 93b7 6876 fe38
00000270: 1298 1cb9 3e8f 3c39 128b 6b3d fdaa b5ba
00000280: 0371 f338 85e8 3f38 6256 6238 c6ec cd38
00000290: 5274 2d39 7a4e 2bb5 f51a b239 6aa0 df35
000002a0: 1524 3a38 2f33 89b9 2d2e 15b9 ef17 5439
000002b0: 9bf2 1639 c305 47b9 35d2 953e 8a81 6bbe
000002c0: 0322 2539 d96a 6039 2509 1f38 e603 f438
000002d0: 1005 813a 0e1b 93b7 7116 043b 2087 e8b9
000002e0: 51d7 f7b4 3dcd 07ba 0486 65b2 e7e8 243a
000002f0: 5519 c2b9 b052 ecb9 356b 31ba ff2e ad38
00000300: 8743 4a3a 42e5 903b c265 d538 fe4e dc38
00000310: 91b1 7e37 5262 bb38 94a8 5f36 bf63 85bb
00000320: 0a78 7b39 38b5 1636 28db a339 d3fe 6ebe
00000330: e3f5 99ba 55e8 1239 0b00 2b38 ce67 81b8
00000340: d09c 5e38 756c f8b8 6b7e 27b8 bed4 b5b9
00000350: 8b9e 77ba 1cdf 93bd 4bd5 f8b8 775f cab9
00000360: 0a88 b136 870b f6b8 50fa bfbe e289 1e3a
00000370: 647e 213a 773a 05b8 e3fb c7b8 ff2a 5e39
00000380: 0153 f0b8 594b 3639 208a 80b7 ce2e 5bb8
00000390: 16ee 32b9 93dd 8c3c 633d 9bb8 7fda 58b7
000003a0: 32d1 e0b8 89c1 dbbe f5d8 92b7 b3e0 00b9
000003b0: f16e e4b9 17d0 84b9 aced 0eb7 c550 8c3e
000003c0: 9161 c239 2b85 2b37 71d6 5e39 0e3d 26ba
000003d0: 13d6 e1b7 a5c3 41ae b362 4639 7b7d 963e
000003e0: d634 94be 3a72 28b9 bda6 09b9 7a94 27b3
000003f0: 1f5c 3aba 4aa7 f5bd 10e6 b738 e76d 3a38
0.000543921 -2.5272846e-05 -2.5179102e-06 0.00024772444 -0.0222308 -0.00023185977 4.2877644e-09 0.00037316923
6.6506174e-05 -6.460874e-08 0.00036863307 1.1255128e-07 3.0636973e-05 0.0076895417 3.343366e-05 2.4423593e-05
-0.00023446965 -0.00085127016 -0.031409822 -6.996666e-07 0.00081117346 -1.2283963e-05 -0.0009642937 2.2761147e-05
0.00107082 0.00031942516 0.015119493 -0.002387689 0.00033486923 0.0021549643 -0.0006241077 -0.001099273
0.000201402 -3.244805e-07 -4.501253e-06 -0.0008453177 -0.07108122 7.100834e-05 0.000247694 0.34309036
-3.1828593e-05 -0.0006157933 0.004563908 -0.0005760927 7.446128e-09 -2.616556e-05 0.0097712325 9.743973e-05
3.0494619e-05 -0.00010148641 0.00067380763 -4.0482738e-07 0.009703233 -0.00041100875 -3.5985316e-08 -0.30471832
-0.00010988182 0.00038956237 5.9131606e-05 -0.0001617692 -0.00020622303 -4.4705435e-09 0.000119415876 -0.02559637
-0.00063205045 0.001413238 -3.6995291e-07 0.0006857571 6.906887e-05 -0.0007212841 6.051225e-05 0.00011140339
-6.306672e-06 0.3290102 0.0013420014 -1.2783381e-06 -1.1424293e-05 0.09049371 2.3821745e-08 -0.0031098477
-8.174084e-05 5.999762e-09 7.952339e-09 0.012170176 -2.1000246e-06 -0.00031384258 9.758759e-05 0.00015876755
-2.0367372e-05 -0.00023448489 -3.0806117e-05 -0.00021053529 0.0005456391 -0.00096444896 0.00029253657 -4.8614265e-06
-0.0103036035 0.005382027 -0.010303401 -2.3580124e-05 -0.000107778105 9.260762e-06 0.42389256 -0.000105502935
-0.006438286 0.0004132743 -0.00044658213 6.394453e-05 -0.0010595843 -0.00073517 -5.0511444e-06 0.00010232435
1.0950203e-05 0.0009567666 -3.17067e-05 -0.016194811 3.3012977e-05 -0.14694557 0.00019065899 3.9157203e-05
-0.00021135907 -0.0006695887 -0.0003010214 -5.8956633e-05 -0.00023591668 0.00010554018 -0.00032130137 0.00023130259
-0.00017635066 -0.00020265479 0.00016422285 -4.7323007e-05 -3.4702858e-05 0.081146754 1.3085302e-09 0.0002699433
0.0002756686 0.00031491532 0.0009730666 -0.000401879 -0.00010316396 3.2672604e-05 5.099418e-06 -2.9655825e-05
-0.0014358069 6.1621395e-05 -0.00016838941 -4.1801525e-07 0.0003436751 0.00035120107 -0.0001353375 -0.00041031066
1.2135594e-06 5.2107996e-05 -1.7571861e-05 0.00012133719 -0.0001493397 0.00017982439 0.057505675 -0.0013860163
0.00011608193 4.57545e-05 5.396305e-05 9.819264e-05 0.00016541898 -6.381666e-07 0.0003397089 1.6661481e-06
4.437946e-05 -0.0002616881 -0.00014226949 0.00020226811 0.00014395492 -0.00018980265 0.29261938 -0.22998634
0.00015748297 0.00021402109 3.791707e-05 0.00011635553 0.0009843428 -1.7536364e-05 0.0020154978 -0.00044351164
-4.6163998e-07 -0.0005180424 -1.3360026e-08 0.00062908087 -0.00037021437 -0.00045075035 -0.0006767989 8.2580365e-05
0.0007715751 0.004421861 0.00010175585 0.00010505131 1.5180923e-05 8.9351684e-05 3.3327715e-06 -0.0040707286
0.00023981943 2.2457225e-06 0.00031253067 -0.23339395 -0.0011746254 0.00014010195 4.0769617e-05 -6.1705345e-05
5.3074968e-05 -0.00011845763 -3.993364e-05 -0.00034681516 -0.0009445927 -0.07220289 -0.000118652904 -0.0003859957
5.290848e-06 -0.00011732341 -0.3749566 0.0006047768 0.0006160496 -3.176412e-05 -9.535977e-05 0.00021187587
-0.000114595525 0.00017384942 -1.5323109e-05 -5.225726e-05 -0.00017064097 0.017195499 -7.40241e-05 -1.2925476e-05
-0.00010720118 -0.42921093 -1.7505585e-05 -0.00012290738 -0.00043570207 -0.0002533204 -8.519197e-06 0.27405372
0.00037075256 1.02234e-05 0.00021251455 -0.00063414953 -2.6921776e-05 -4.4056887e-11 0.0001891952 0.2939261
-0.2894656 -0.00016064281 -0.00013127453 -3.9017756e-08 -0.0007109064 -0.119947985 8.7689725e-05 4.444821e-05

tabnet.initial_bn.running_mean f4 [1038]
00000000: 17aa e63a 1af1 34bb 2c9d 823b 5770 d6bb
00000010: 3dc3 7a39 a5cd d83b 530a 0cba 29d8 243b
00000020: fc0a d6ba 6cfb 39bb 3a46 1fbc f601 92ba
00000030: a6fb 94bb 2912 983b 8255 c53a 9f36 773b
00000040: bc06 833a ec7c 9b3b 2fbb 65bb 4906 94bb
00000050: bbf3 b93a 1b72 b13b 5808 343b 0dc0 6db9
00000060: a812 e83a 7ce3 59ba f0da f738 8a50 c73b
00000070: d773 99bb fa78 92ba 9b56 deba 7f16 4c3b
00000080: b77e e8ba d982 543c 648f bfba 1687 843a
00000090: e79b cfb8 2e21 47bb f075 34bc 08af 3cbd
000000a0: ed35 093d dc57 4e3b 4b59 82bb 8b7b 4ebb
000000b0: 9df9 a43a a35b 5dba fcb3 8aba 52d8 adba
000000c0: 9283 f03b ad98 a6ba fa6a 343b 8202 0ebb
000000d0: e7d8 51bd 5e66 9039 b91d 77bb d853 ec3a
000000e0: 263a b83b 0340 67ba d517 0cbb e320 20b9
000000f0: 17c9 d8bc b100 40bb d6f4 05bb 87b0 95bb
00000100: cf81 29bc a209 3dbc 4291 b1ba 068a 7c3b
00000110: cc6c 3a3b e475 66bd 45c0 59ba 5fa3 ceba
00000120: 114e c7bb 3033 9cbb d8ec a4bc 249a 7fba
00000130: 03c4 5f3c b4a3 48bd 6046 223a 3138 0f3b
00000140: 8f7b 2e3b a08d f7bb e495 b7ba 1fdb dc3a
00000150: a946 51ba 63e3 6f3b c2cd 23bb a63a 123b
00000160: f494 233c 76b8 2bbb da92 c03a 73e6 5dbb
00000170: 329b ce3a 5097 213c a651 af3b 26a0 15ba
00000180: d1d3 86bb 94dc 383b 980e 3bbc c059 c73b
00000190: 24a8 f7bb 43a4 4cbb a632 8b3c 7e14 78ba
000001a0: d3bb da3b 3878 e8ba 9c94 9eba b33e b23a
000001b0: 436f f63b b686 d9ba 7ba1 8dba 40b9 aeb9
000001c0: 271d 6eb8 7703 fd3b 74d0 5ebb b9e1 d5bc
000001d0: b0b1 0fbb 31ba 67bb c2b6 7ebb 9692 963b
000001e0: bd50 8c39 f9e9 94ba 5a54 88ba 0417 cfbb
000001f0: 3c67 43ba 854a 003d 0848 193b db39 04ba
00000200: baae 603b 9e95 813a aecc 87bc dd1c 40ba
00000210: 156f ab3b 37b2 113d 74f8 0c3c 8bf3 163a
00000220: 6014 08bb 9948 3aba e0e4 99ba 9fc9 62ba
00000230: 5e8a 73bb 12eb 943b f610 cd3b 6f5d 18bb
00000240: 276e 883b e5a5 a9bb 988c c23b f9f4 dd3a
00000250: e829 6b3b b230 413c 9a2c b43b 62f5 78bb
00000260: edd3 71bb 56b6 d0bb 4f03 4dbc e5db daba
00000270: 1d70 b6ba 4254 4c3c f09a 27ba 8eac caba
00000280: 5bee df3c 48aa 863b 750c 1bbc 2738 123b
00000290: c977 e63a 7ffe 673c a99e bb3b 5d82 bc3a
000002a0: ea55 c238 2259 063a 0ad3 493b cd81 b1ba
000002b0: 8ee9 073c 0079 c63a 5b46 c1bb 1369 403b
000002c0: 6d58 3fbb 317b 293a 72e2 d738 a225 cf3b
000002d0: 8473 c3bb cb09 68bb 598f faba 63b4 043c
000002e0: 521b 533b a329 e3bb 7674 d1b9 61ea 9ebc
000002f0: 7a31 e7bb b619 823a 7e97 203b aca3 afbb
00000300: 2fa0 95ba b825 5a3a c0e4 a93b bdda 73bb
00000310: 9813 ebba a2e0 9cbc e359 4cbb 18d9 fa3b
00000320: c6fa 0f3b a9f7 9ebb e79f ae3a 2740 5f3c
00000330: 1333 2abc 37ae 7aba e1a6 96ba c01e 9ebb
00000340: 9f9f c2bb ec41 bb3a ca92 613c a0fc c8bb
00000350: b2b9 6d3b 3a03 fa39 abc7 b3bb 30b9 d93b
00000360: 2c1b 75bb dd64 3d3c 47c5 9b3a b5df 763a
00000370: b32d 063b 4c5f 75bb 6424 6d3b 888f 113b
00000380: 3953 c83b c9ee 28bb 0a97 2d3b 512d de3a
00000390: 514d 213c 8655 d63b bad6 8dbd 5957 8a3b
000003a0: 157b 80b9 64b2 cfba 761e c93b 055d df3a
000003b0: caaf 27bc 92f5 f13a 61b1 7f3b e418 133b
000003c0: 44b7 b4bb af17 9ebb 97e9 42bb adf7 113b
000003d0: eb89 a7b9 58d9 383c 56b3 513b 3de5 a43b
000003e0: 2b53 ef3a a913 9d3a 9c03 ef3c 5103 d13a
000003f0: 29d0 73bc 554b 233c a227 be3a de2c e7ba
0.0017598298 -0.0027609528 0.0039860215 -0.0065441537 0.0002391459 0.0066163116 -0.00053421146 0.0025153256
-0.0016330178 -0.002837862 -0.009721333 -0.00111395 -0.0045466004 0.0046408367 0.001505539 0.0037721766
0.0009996514 0.0047451165 -0.0035054197 -0.004517351 0.0014187017 0.0054152138 0.0027470794 -0.00022673626
0.0017705755 -0.0008311791 0.00011818658 0.006082599 -0.0046829986 -0.001117497 -0.0016963066 0.0031141338
-0.0017737959 0.01297065 -0.0014614877 0.001011106 -9.899568e-05 -0.0030384767 -0.011014447 -0.04606536
0.033498693 0.0031485474 -0.0039779297 -0.0031506743 0.0012586598 -0.0008444136 -0.0010582204 -0.0013263321
0.007339903 -0.0012710296 0.0027529583 -0.0021668975 -0.051232245 0.0002754209 -0.0037706925 0.0018030358
0.005622166 -0.0008821489 -0.002137651 -0.0001527104 -0.026463075 -0.0029297287 -0.0020440123 -0.004568163
-0.01034589 -0.011537941 -0.0013547319 0.0038534417 0.0028446196 -0.056264773 -0.00083065435 -0.0015765241
-0.0060823043 -0.004766844 -0.020132467 -0.0009750447 0.013657573 -0.048984244 0.0006190296 0.002185356
0.002662394 -0.007554725 -0.0014006463 0.0016849971 -0.00079832465 0.003660404 -0.0024994467 0.002231279
0.009984244 -0.0026202477 0.0014692203 -0.0033859282 0.0015762805 0.009862736 0.0053503094 -0.0005707763
-0.004114606 0.0028207647 -0.011417054 0.006083697 -0.0075578857 -0.0031225837 0.016991924 -0.0009463503
0.0066752224 -0.0017736023 -0.0012098732 0.0013599008 0.0075205876 -0.0016595933 -0.0010805571 -0.00033325888
-5.6770772e-05 0.0077213603 -0.003399876 -0.02610861 -0.0021925978 -0.0035358781 -0.0038866256 0.004595111
0.00026763036 -0.0011361233 -0.0010401115 -0.0063198823 -0.0007454043 0.031321067 0.0023388881 -0.00050440215
0.0034283833 0.0009886508 -0.016577091 -0.000732852 0.005231748 0.03557035 0.008604158 0.00057583366
-0.0020764098 -0.0007106155 -0.0011741184 -0.00086512597 -0.003716133 0.004544624 0.0062581254 -0.002324905
0.004163522 -0.005177247 0.0059371702 0.001693397 0.0035883132 0.011791395 0.005498481 -0.0037988056
-0.00369 -0.0063693924 -0.012512996 -0.0016697614 -0.001391891 0.0124712605 -0.0006393632 -0.0015462802
0.027335336 0.0041096546 -0.009463419 0.0022311301 0.0017583306 0.014159798 0.005725701 0.0014382113
9.2666436e-05 0.0005124976 0.0030795955 -0.0013542712 0.00829543 0.0015142262 -0.0058982796 0.0029359504
-0.0029196993 0.00064651953 0.000102941776 0.006321625 -0.0059646983 -0.0035406228 -0.0019116207 0.008099648
0.003221233 -0.0069324537 -0.00039950357 -0.01939887 -0.0070554586 0.0009925875 0.002450436 -0.0053600874
-0.0011415536 0.00083216606 0.00518474 -0.0037209236 -0.0017934917 -0.019150082 -0.0031181506 0.007655274
0.002196954 -0.0048513007 0.0013322801 0.013626135 -0.010388154 -0.0009562703 -0.0011493826 -0.004825443
-0.0059394385 0.0014286614 0.013767907 -0.006133631 0.0036274013 0.0004768612 -0.0054864488 0.0066443905
-0.003740023 0.011559692 0.0011884355 0.000941749 0.0020474016 -0.0037440835 0.003618502 0.0022210795
0.0061134365 -0.0025777093 0.0026487731 0.0016950761 0.009845094 0.006540957 -0.069257215 0.0042218384
-0.00024505766 -0.0015846011 0.0061376644 0.0017041272 -0.0102347825 0.0018460026 0.0039015638 0.0022445256
-0.005515011 -0.0048246006 -0.0029741281 0.002227287 -0.0003195548 0.011282288 0.0031997762 0.00503221
0.0018259039 0.0011984009 0.029176526 0.0015946423 -0.014881172 0.009966691 0.0014507661 -0.0017637273

tabnet.initial_bn.running_var f4 [1038]
00000000: 2714 053c 54b1 f23c 95a2 7c3f 548e 783f
00000010: 2e16 783f 84c4 773f 6a96 793f 4b3e 793f
00000020: 46e9 773f e568 783f 906f 893f 7540 793f
00000030: c010 793f 3ebf 783f 47cc 7a3f 5c34 7e3f
00000040: 954c 7b3f 0e94 773f fc43 7d3f 182c 793f
00000050: e88b 783f 9f20 783f 0225 7a3f c522 783f
00000060: 24db 783f ac58 773f a25b 7b3f 2dc2 773f
00000070: 4d9a 793f 939d 793f 56ff 773f d0cc 7b3f
00000080: 7c3a 7b3f a59e 873f 4190 783f 5160 7a3f
00000090: 53aa 7a3f 2eba 763f f6ee 7b3f 24a9 a43f
000000a0: b842 973f 8c3e 793f 3794 803f 83c1 7a3f
000000b0: 73c5 783f bd44 7a3f b89e 783f 4053 773f
000000c0: f492 813f 647c 783f 20a6 7e3f 9652 793f
000000d0: 18b9 a83f 7a3a 773f b5a6 783f b592 7c3f
000000e0: 2906 7b3f 7dab 7c3f 63e2 793f 8253 7d3f
000000f0: e303 923f 043e 7d3f 57b8 783f 9abe 783f
00000100: 2e97 833f d14c 863f d888 783f 78ca 7a3f
00000110: 896b 783f 6c35 b13f 56cb 7a3f 3f19 783f
00000120: b9e9 783f efd6 773f da52 8e3f 6eea 773f
00000130: f805 853f c138 a83f 5ac3 773f eeaa 783f
00000140: 0326 793f ab5d 763f d717 783f 3cdb 783f
00000150: 86e4 783f 03e2 783f 4ee6 793f 8a64 783f
00000160: f1a5 833f 534b 793f 394b 7a3f 200e 773f
00000170: 1148 793f 5bfc 803f c498 783f 9bac 7a3f
00000180: e0c3 793f 5a5a 7b3f 03c7 813f 4137 823f
00000190: adc3 7f3f e56d 7a3f 461f 8b3f fe46 763f
000001a0: ba58 7c3f 505c 7a3f eff6 783f 28ae 793f
000001b0: df61 7f3f 67e3 783f 0e61 783f 8d67 783f
000001c0: c378 783f 8784 7a3f 09c8 773f 3ece 8e3f
000001d0: fa85 793f 04d6 773f 867c 793f d5e4 7b3f
000001e0: 2104 783f 5eeb 763f 5fbd 773f 6c23 803f
000001f0: 4b2d 773f a978 943f 2d9f 783f 9509 793f
00000200: 3cd7 7b3f 5414 783f 64a3 8c3f ed47 793f
00000210: a067 813f ff87 993f 000a 803f 75b3 7c3f
00000220: 0fb6 793f cdd1 783f 0360 783f cd67 793f
00000230: 4dce 7b3f 2a88 7a3f 7681 783f 23af 773f
00000240: f99b 7d3f ed03 793f 1e81 813f 4109 7b3f
00000250: f26b 7f3f 5573 833f c7af 7f3f df6e 793f
00000260: 6005 793f fdaf 763f 4f18 833f 42a2 793f
00000270: bc10 783f 299c 803f e5d4 783f 93b6 7b3f
00000280: 6b68 923f 76b6 783f 7649 7c3f ac04 7b3f
00000290: 9965 773f 6304 833f 5f4e 813f 5519 783f
000002a0: 3fce 793f b040 7a3f 926b 793f d040 7b3f
000002b0: 6c05 853f 3653 783f edc0 783f d8f3 783f
000002c0: 18eb 793f b3d2 7a3f ff1b 783f 13c1 7c3f
000002d0: 2089 8a3f 52d2 793f 85c0 773f 1f89 7e3f
000002e0: e276 7b3f 2ae5 813f 4ed1 753f eea9 903f
000002f0: 8f76 7b3f 9535 793f 3589 783f c69e 813f
00000300: 8496 793f 4ed3 773f 52ac 773f 6f38 783f
00000310: 67c1 7a3f 27c9 8b3f 8393 7a3f 56de 813f
00000320: af4c 7b3f 491d 783f 64da 773f 0ca7 873f
00000330: 5eda 883f 73a6 793f c47b 7d3f 747d 793f
00000340: 180e 783f be22 7a3f f9af 893f 869e 793f
00000350: bf30 7b3f 0bac 783f 8d9e 783f 0107 7e3f
00000360: 890f 793f 2786 813f f5df 793f 3901 7a3f
00000370: 3ebd 783f 064b 773f bd3b 7a3f aeb3 783f
00000380: 14d5 763f 869f 773f ea4e 7a3f d4c0 783f
00000390: b7e7 843f 9688 793f 6310 bc3f 91df 793f
000003a0: 38be 783f 1f5f 803f 3156 7c3f 4137 783f
000003b0: 370b 793f 04d7 7c3f 10a4 773f e4f1 783f
000003c0: 6ab6 763f 7d6d 793f 6f4e 793f ff3a 7b3f
000003d0: e793 773f 1f36 803f b97b 7a3f e05e 7c3f
000003e0: 98a0 763f 0616 773f 7522 943f d8f5 7b3f
000003f0: 6254 873f f144 7f3f a982 783f e278 793f
0.0081224805 0.029625572 0.9868558 0.97092175 0.96908844 0.96784234 0.9749514 0.97360677
0.9684032 0.97035056 1.0737171 0.9736398 0.97291183 0.9716681 0.9796795 0.99298644
0.9816373 0.9671029 0.9893186 0.97332907 0.9708848 0.96924776 0.9771272 0.96928054
0.9720938 0.9661968 0.98186696 0.96780664 0.9750107 0.97506064 0.96873987 0.98359394
0.98136115 1.059529 0.97095114 0.9780322 0.97916144 0.9637784 0.984115 1.2864118
1.1817236 0.97361064 1.0045232 0.97951525 0.97176284 0.97761136 0.97117186 0.96611404
1.0122972 0.97064805 0.99472237 0.9739164 1.3181486 0.96573603 0.97129375 0.9866136
0.98056275 0.9869917 0.97611064 0.9895555 1.1407436 0.98922753 0.9715628 0.97165835
1.0280511 1.0492193 0.97083807 0.9796519 0.97039086 1.3844428 0.97966516 0.9691352
0.9723163 0.9681234 1.1119034 0.96842086 1.0392447 1.314232 0.9678246 0.9713582
0.97323626 0.96236676 0.96911377 0.97209525 0.972237 0.97219867 0.9761704 0.9702841
1.0285016 0.9738056 0.9777103 0.9650593 0.9737559 1.0077013 0.971081 0.97919625
0.97564507 0.9818474 1.0138859 1.0173112 0.9990795 0.97823936 1.0868919 0.96202075
0.98572886 0.9779711 0.9725179 0.97531366 0.99758714 0.9722199 0.97023094 0.97033006
0.9705927 0.9785847 0.96789604 1.115669 0.97470057 0.96810937 0.9745563 0.98396045
0.968813 0.9645289 0.9677333 1.001081 0.96553487 1.1599323 0.9711788 0.97280246
0.98375297 0.9690602 1.0987363 0.97375375 1.0109749 1.1994628 1.0003052 0.9871133
0.97543424 0.9719513 0.970215 0.9742401 0.98361665 0.9786402 0.9707254 0.9675161
0.9906612 0.97271615 1.0117528 0.98060995 0.99774086 1.0269572 0.9987759 0.974348
0.97273827 0.96362287 1.0241793 0.9751321 0.96900535 1.0047656 0.9719985 0.9832546
1.1438116 0.97153413 0.9854959 0.98054004 0.966394 1.0235714 1.0102042 0.96913654
0.9758033 0.97754955 0.97429764 0.9814577 1.039228 0.9700197 0.9716938 0.97247076
0.9762435 0.9797775 0.9691772 0.9873211 1.0823097 0.9758655 0.96778136 0.9942798
0.98228276 1.014806 0.960225 1.1301858 0.9822778 0.97347385 0.9708436 1.0126579
0.97495294 0.968068 0.96747315 0.9696111 0.9795136 1.0920762 0.97881335 1.0145977
0.98163885 0.96919686 0.9681761 1.0597854 1.069164 0.97519606 0.99016976 0.9745705
0.96896505 0.9770926 1.0756828 0.9750751 0.98121256 0.97137517 0.9711693 0.9922944
0.9728933 1.0119065 0.97607356 0.97658116 0.9716376 0.9659885 0.97747403 0.9714917
0.9641888 0.9672779 0.97776663 0.9716923 1.0383214 0.9747404 1.4692501 0.9760676
0.9716525 1.0029029 0.9856902 0.9695931 0.9728274 0.9876559 0.96734715 0.97244096
0.9637209 0.9743269 0.97385305 0.98136896 0.96710056 1.0016516 0.97845036 0.9858227
0.96338797 0.9651798 1.1573015 0.98422 1.0572627 0.9971457 0.9707437 0.9745008

tabnet.initial_splitter.shared.shared_layers.0.weight f4 [96, 1038]
00000000: c921 e23c 3f0e 43bc 061e 0639 aa96 903a
00000010: e7f1 3d3c 2553 013c e93c b3b5 eefc 233c
00000020: 5ff1 bdbb b36e cd36 2d5e d2bc 1283 25b7
00000030: 00d0 bbb9 bd7a 6dbd 2b31 a0bc cf21 823a
00000040: 7ea3 153d 3f5d 7c3c afc3 c2bb 980c 4eb8
00000050: ce7c 693d 6fc9 f2ba e830 89bd 90c7 36bc
00000060: b776 3a3c d282 f0ba 1968 86bd 255e 75bd
00000070: fd4c 2dbb 7195 063c 0e09 d9bd 7671 123c
00000080: 702b 80bc ac24 2838 d641 f3b9 9bd4 c4bc
00000090: a419 0a3b 4b22 53bc 1163 c23c 52aa c6bd
000000a0: 55f6 b739 4dea 82bc ef80 e4bb b5b4 b6bc
000000b0: 35ff c9b4 26d4 57bb d07a 8e3c 862d 433c
000000c0: f714 1d3d 99b1 faba 6859 543b 2631 d03a
000000d0: 53f2 13bd 77f8 64bd 7054 efb7 9f31 9b3e
000000e0: 24b6 0abc 71a6 183d f238 fcbc e837 2b3c
000000f0: 5c17 f63b e07b 24b7 e9f2 3bbc 203a 10bd
00000100: dad6 ba3c 97ad b7bb fded e0b7 998a 58bd
00000110: 61e2 7e3b f2bc 5ebc e7d5 2a3c cbb8 f6bb
00000120: 5216 3439 ef22 933d 02f2 e5bc 6eeb 09bb
00000130: 0c82 373b 17b0 173e 9585 68b4 d5b9 87bc
00000140: 602d d23c 88c0 95b5 f11e bd33 c134 8dbc
00000150: dbe8 1839 8b5f 46ba 3792 593d c76f 793c
00000160: b4b0 a93b 6b86 893b 8bcf 863c f978 c43c
00000170: 0adf 7e3c 4fb9 013d 80a7 a2bb ede4 0ebd
00000180: c596 87bc 74d4 a2bb 42ff 82bc d86b e439
00000190: aa3b 953c 8923 133c b697 683d 26b2 29bc
000001a0: f541 9d3c 1325 d03c c9a4 f1bc df91 613d
000001b0: d24b ae3b 9006 f73c 84e5 613a af0f 47bd
000001c0: f8dc 1c3c aa5b f33c 8de0 7dbb 6675 363d
000001d0: 22ce f43b 8d2a 88bd d6f8 4ebd 8e95 36bd
000001e0: c969 993c d7cc 16bc 1fce 3bbd c584 24bb
000001f0: 9b68 b5bb 28f2 a13d 335c 4c3d 12eb 593c
00000200: 1c22 a63c 5854 3ebc 7879 8fbc f5d8 d83c
00000210: 9b10 5a3c 0ca9 083e 6483 e434 36d1 023c
00000220: a5f3 05bd 82bd 103c 3d65 55bd 88d9 d13c
00000230: 5df2 79ba 1e7a 253d 6443 8b3a ed64 9cb9
00000240: 8214 9cba f577 8aba 0f58 fbbc 8b62 65b7
00000250: 4ca8 233d 4295 2e3a 9f3b 8b3c ffe2 5abd
00000260: 876d 86b7 4454 7bbc 3d27 0f3c ecbb 85bc
00000270: 93ac 61bc 9874 253c 49e4 983d 1f9d 2c3d
00000280: eccd 9dbd 097c d93b 43b3 51bc 22fb 0a3d
00000290: 87d9 843c 6af1 81b8 ba90 c7bc a7b4 85b9
000002a0: 1494 43bc b7ab 20bd 1505 623c a309 35bc
000002b0: 3faa 8bbd aa5a cbbb ac55 aebc 0b08 88bd
000002c0: ea8e fa3c 9cce c03d 5363 92bb 514d 6f3d
000002d0: 235b 383e 092b 1bbb e17a 40ba eac5 03bd
000002e0: 0ad2 96b8 650a 68bd c35a 23b6 afe6 853c
000002f0: 5d22 b93c 7794 293d 3ea1 75bc 6735 abbc
00000300: a6a1 873c 6e71 e73b cce9 acbc 0fa2 a8b9
00000310: 9226 e3bc 5a8e 34bb eb27 1139 b8b4 ffbb
00000320: b162 e63c 57c0 2638 a873 09bc 5197 88bc
00000330: bf5c df3b a201 b0bc 8535 4039 4f46 063c
00000340: 3ad6 99b9 c5d2 fc3d 09c1 30bd ed11 713b
00000350: 721d 2abc 73b1 26bd 2037 3e3c 2804 c43c
00000360: 41d3 86b9 e305 3f3c e793 28bd 67fd 033d
00000370: 2fad 453c 779a 09bc 44b9 7c3c c4d0 96bc
00000380: d54f 633d 4845 923c 3180 3e3c 25bb 81b9
00000390: 8066 86bc 1882 e53b b211 b4bc d2fe 17bd
000003a0: e813 933b 62fc 86bc a4e5 46ba 42c9 9dbd
000003b0: 8900 313c 2b08 25bd 5d0e 1db9 acf7 f13d
000003c0: f3c1 6a3c 469c 94bc 5971 4b3b 107c 543c
000003d0: 879b 6cbc 4d47 97b3 e3ed 013d 15e0 d3bd
000003e0: caa2 593d d744 b4bb cb67 34bc ea0d ae34
000003f0: aa9c 04bc deb4 a6bb e003 173d 51e9 d93c
0.027604 -0.011905252 0.0001279042 0.001103123 0.011593319 0.007893358 -1.3354266e-06 0.010009034
-0.005796596 6.122363e-06 -0.025679672 -9.865284e-06 -0.00035822392 -0.05797838 -0.019554695 0.0009928289
0.03653287 0.015403091 -0.0059437375 -4.9125956e-05 0.05700379 -0.0018523167 -0.06698781 -0.011155978
0.011380843 -0.0018349534 -0.06562824 -0.059904236 -0.0026443594 0.008214341 -0.1059743 0.008938184
-0.015645713 4.0088475e-05 -0.00046397623 -0.02402716 0.0021072412 -0.012886594 0.02372888 -0.09700455
0.00035088012 -0.015980864 -0.006973378 -0.022302965 -3.7624855e-07 -0.0032932847 0.017392546 0.011912709
0.03835007 -0.0019126415 0.0032401923 0.0015883788 -0.03611977 -0.055901017 -2.853034e-05 0.30311295
-0.008466277 0.037268106 -0.030788872 0.010450341 0.007510109 -9.804004e-06 -0.0114714885 -0.035211682
0.022807527 -0.0056054103 -2.6813703e-05 -0.052866552 0.0038892257 -0.013594853 0.010426975 -0.0075293533
0.00017174453 0.071843974 -0.0280695 -0.0021044868 0.0028001098 0.14813267 -2.165528e-07 -0.016568104
0.025656402 -1.1157399e-06 8.8066265e-08 -0.01723707 0.00014582595 -0.00075673376 0.053117957 0.015224404
0.0051785354 0.004196932 0.016456386 0.023983466 0.015556106 0.031670865 -0.004963815 -0.03488629
-0.016551385 -0.004969174 -0.015990857 0.000435679 0.018216927 0.00898064 0.056785308 -0.010357415
0.01919649 0.025408303 -0.029497521 0.055070754 0.005319097 0.030154496 0.00086172693 -0.04859894
0.009574167 0.029706795 -0.003873858 0.044545554 0.007470862 -0.06648741 -0.050530277 -0.04457622
0.0187272 -0.009204111 -0.04585087 -0.002510355 -0.0055361516 0.07907516 0.049892616 0.013300674
0.020279936 -0.011616789 -0.017513976 0.02647064 0.013309623 0.13345736 4.256391e-07 0.00798445
-0.03270306 0.008834245 -0.0520985 0.025616422 -0.0009534711 0.040399663 0.0010624942 -0.00029829834
-0.0011907967 -0.0010564314 -0.030681638 -1.36724075e-05 0.039955422 0.00066598144 0.016996203 -0.053439137
-1.6025047e-05 -0.015339915 0.0087373825 -0.01632496 -0.013774055 0.010098599 0.07465417 0.04214203
-0.07705292 0.0066371006 -0.012799087 0.033930905 0.016217006 -6.196166e-05 -0.024361003 -0.00025502333
-0.01193716 -0.03922626 0.013795157 -0.011049661 -0.06819581 -0.0062058764 -0.021281086 -0.06642159
0.030585725 0.094144076 -0.004467407 0.058423344 0.18003516 -0.0023676774 -0.0007342529 -0.032171167
-7.19168e-05 -0.056650538 -2.4341723e-06 0.01634535 0.022599394 0.041401353 -0.014992056 -0.020899488
0.016556572 0.0070630824 -0.021107577 -0.000321642 -0.027728353 -0.0027550668 0.00013843148 -0.007803526
0.028123232 3.9756615e-05 -0.008389391 -0.016673716 0.006816476 -0.021485154 0.00018330484 0.008195474
-0.00029342045 0.123448886 -0.043152843 0.0036784366 -0.010382997 -0.040696573 0.0116098225 0.023927763
-0.00025715868 0.011659118 -0.041156676 0.032224085 0.012065216 -0.008398644 0.01542503 -0.018410094
0.055496056 0.017855301 0.011627243 -0.0002474423 -0.016406298 0.007004034 -0.021981094 -0.03710825
0.004488457 -0.016477767 -0.00075873197 -0.077044025 0.01080335 -0.040290993 -0.00014978038 0.11814818
0.014328468 -0.018140923 0.0031042902 0.012969032 -0.0144413775 -7.044455e-08 0.031721007 -0.10345475
0.053133763 -0.0055013704 -0.011011074 3.242015e-07 -0.008093992 -0.005087479 0.03686893 0.026600512

tabnet.initial_splitter.shared.shared_layers.1.weight f4 [96, 48]
00000000: 13cf bd3e 2ba7 3e3b e39e eabb 2a62 a3bb
00000010: ab9b 44bd 4403 e0bc 316f bfbd 7626 193c
00000020: 8201 113c 5655 02bd 2db0 36bd e3bf 343d
00000030: 155f 09bc 5163 be3c ee4b 943c ccdb 02bd
00000040: 8b91 b4bc b7ea 93bd bf40 413c 054d f7bb
00000050: aaf6 513d 430e a7bd 9a6b 1c3d e136 1a3c
00000060: bc5a eeba 9cef 62bc d19a cabc 1999 213c
00000070: 3f76 bb3c a250 9d3a 2cab 0cba 6dc6 d33a
00000080: 7a64 a93a 0081 95ba 27d6 51bb 38df 3d3c
00000090: 8925 9a3b c8c6 5f3c 69fa c03b 6b93 c63c
000000a0: 0f80 c3bb f126 333c c07d 41bc 315c 5cbb
000000b0: f334 15bc 47e4 17ba 9186 01bb 4d6d 68bb
000000c0: 4b75 1d3d 2c18 c63e 48fb 053b 031c 023d
000000d0: d548 853c 907c 1bbd 649e 85bd 1124 02bd
000000e0: b3d8 48bb 3f1b 5cbd 82b0 75bd 3a2f 463d
000000f0: d436 d33c 0a4f ca3c 3dd8 6f3c 1408 a73d
00000100: e2d0 1fbd a1c3 1bbd 8222 43bc 2328 66bc
00000110: 6730 68bd 5477 503a 7759 64bd c035 71bd
00000120: 682f 4a3c d957 69bc edf0 013c cec4 ec3a
00000130: e06a acbb 6afd 343b 4da8 31bc 1c9c a7ba
00000140: 95bb 1a3b c585 3c3c 2be1 243a 08f3 663b
00000150: 2504 df3c 13bb 1739 e01c 60bc 5de1 6e3c
00000160: 676e 143c 93ba 803c f446 8abb 7843 073c
00000170: d61d 893a 3f94 ca3b 614b 103b 4990 ec3c
00000180: e4b9 80bd 7026 80bd 5156 183e 9b1b 47bd
00000190: 8121 0ebe d0e5 323c 0b11 9bbd ba95 c0bd
000001a0: bff0 d3bd 7755 593d 83f5 9dbd 24a7 4a3d
000001b0: 7821 fc3c a864 d4bc 730f a43b 85b4 1f3c
000001c0: de9c 24bd 1c46 e0bb 43d8 33be 24e3 333d
000001d0: e6ae e0bd 0b82 0dbd 9b59 cebd 6778 1dbc
000001e0: 0dcd a83a bd78 2f3b 61bd a6b9 a3a0 dd3a
000001f0: 0e96 9dbb 2230 e83a 8072 b83a fb34 b13b
00000200: 2fab 8d3b b4f5 0dbb 1dd7 26b8 7906 06ba
00000210: b6b6 923b ac18 7e3c 2806 c23b d524 37bb
00000220: 9166 84bb 6ece 96bb 572d d5bb d49d aab8
00000230: 1eed 65b9 c4a7 b5b9 fdcf b1ba 4d7e 84b9
00000240: 6014 54bc 64f7 7f3d d0eb 59bc 9bee 643e
00000250: 7846 0abd bdd0 243d 8df5 dc3c 735e 7abd
00000260: 6bd7 ac3d 545b 003d f17e 953d 1752 1dbd
00000270: cbc3 963c 49d9 0abd dff8 8cbd 460c 633b
00000280: 9c3f 6cbc 9e36 75bd 2c02 6f3b de68 1bbd
00000290: 8761 553d 8f3e 95bd 1542 e9bd e784 edbc
000002a0: 4f95 26bc 1c17 90bb 5393 95bb 534f dbbb
000002b0: 7c3a 0e3c b13d bd3b fddc 543b b72b fbbb
000002c0: 6c87 d13a 6cb5 453c dbac 7f3b ce5d c038
000002d0: 3531 573b 00d9 873c 6a06 e1ba 2aed 573c
000002e0: 1d4b 7237 0c92 84b9 6340 d9bb 3ad5 283b
000002f0: 1846 863b 7905 803b b5c3 d339 1341 343b
00000300: 35b6 babd db75 3abd 5f4a 36bd d101 08bd
00000310: 9949 9e3e 54f2 a5bd dcd8 7639 2b7f 7fbb
00000320: e908 c6bd 6d6f 053d 6694 ebbd 9fd9 633c
00000330: 3181 8ebd 4baa f43c baa6 133d ac61 03bd
00000340: 426a 8b3d 79f0 aabd 65b1 a93c 6136 a8bd
00000350: b6fc 093e a0db d13c 9ec5 78bc 493e 88bb
00000360: 7f37 4fb9 7a1b a23a af37 2c3b 0dd7 e239
00000370: ce46 863c ddc9 3d3a 35ad 19bc 3819 c6bb
00000380: fe65 05bc 6146 093b eba4 c93a dbec 29bc
00000390: 2b86 06ba 8831 863b c1db 4938 b5bc d3bb
000003a0: ce12 333b f580 cb3a d084 a63b be2d a33a
000003b0: 850e f339 5688 133b d1b2 933a 1df0 83bb
000003c0: 563c b1bb af19 953c 2226 8cbb 73c8 29bb
000003d0: a5f9 3c3b 3c5e c03e 8358 743d 24c6 0c3d
000003e0: d684 83bd e22b 583d b521 92bd 8021 9f3b
000003f0: f98a cebd fcba f9bb e8b5 6f3c 2578 94bb
0.37072048 0.002909134 -0.007160054 -0.0049860673 -0.04800002 -0.027345307 -0.0934738 0.009347549
0.008850457 -0.031819664 -0.044601608 0.04412831 -0.008384486 0.023240717 0.018102612 -0.031947896
-0.022042057 -0.07222503 0.011795222 -0.0075470232 0.051260628 -0.08157017 0.038188554 0.009412498
-0.0018185 -0.013851073 -0.024732025 0.0098631615 0.022883533 0.001200218 -0.0005366083 0.0016157158
0.0012923621 -0.0011406243 -0.0032018514 0.011588864 0.0047041816 0.013658233 0.005889226 0.024240216
-0.0059661935 0.010934577 -0.011809766 -0.0033624286 -0.009106862 -0.0005794209 -0.0019764046 -0.003546554
0.038441937 0.38690317 0.0020443965 0.031764995 0.01627008 -0.03796059 -0.06524351 -0.031772677
-0.003064674 -0.05373692 -0.059982784 0.048384883 0.02578298 0.024695892 0.014638958 0.08155838
-0.039017566 -0.038028363 -0.011910083 -0.014047655 -0.056686785 0.00079523516 -0.055749383 -0.05888915
0.012340404 -0.014242136 0.007930976 0.0018064023 -0.005261764 0.0027616867 -0.010843349 -0.0012787613
0.0023610343 0.0115065025 0.0006289656 0.0035240073 0.027223656 0.00014470173 -0.013678759 0.014580098
0.009059525 0.015713966 -0.004219884 0.008255832 0.0010461162 0.006182223 0.0022017586 0.028877394
-0.06285456 -0.06257331 0.14876677 -0.04861031 -0.13879968 0.010919049 -0.0757161 -0.09403558
-0.10348653 0.05306002 -0.07712843 0.049475804 0.030777678 -0.025926903 0.0050067245 0.009747629
-0.040188663 -0.006844295 -0.17562966 0.04391779 -0.10970859 -0.034547847 -0.10075685 -0.009611226
0.0012878493 0.0026774846 -0.00031803086 0.0016908835 -0.0048091477 0.001771454 0.001407221 0.005407927
0.004323385 -0.0021661343 -3.9777824e-05 -0.0005112659 0.0044773472 0.015508812 0.005921144 -0.0027945538
-0.004040547 -0.004602245 -0.006505649 -8.1356295e-05 -0.00021927475 -0.00034648005 -0.0013566014 -0.00025271103
-0.012944311 0.06249179 -0.013300851 0.22356646 -0.03375861 0.04023813 0.026972556 -0.06112523
0.08439525 0.031337097 0.07299603 -0.038408365 0.018403908 -0.033898626 -0.06883406 0.0034644767
-0.0144194625 -0.05986654 0.00364698 -0.037941806 0.052094962 -0.07287323 -0.11389557 -0.028994037
-0.010167434 -0.004397286 -0.0045646816 -0.006692806 0.008680936 0.0057751765 0.0032480352 -0.0076651233
0.0015985793 0.01206718 0.0039012942 9.172746e-05 0.0032835726 0.016582966 -0.0017168049 0.013179103
1.4441813e-05 -0.00025285815 -0.00662999 0.0025761859 0.0040977113 0.0039069024 0.0004039087 0.0027504608
-0.091167845 -0.045522552 -0.04450452 -0.033204857 0.30915526 -0.08102861 0.00023541175 -0.003898571
-0.09669668 0.032576967 -0.11502914 0.013906865 -0.06958235 0.029866358 0.036047675 -0.03207557
0.068073764 -0.08346648 0.020714471 -0.08213497 0.13475308 0.02561742 -0.015183834 -0.0041578156
-0.00019761732 0.0012367808 0.0026278307 0.00043266304 0.016391184 0.0007239858 -0.009379675 -0.006045487
-0.008141993 0.002094649 0.0015384232 -0.010371412 -0.0005131687 0.00409526 4.8126796e-05 -0.0064617046
0.002732444 0.0015526103 0.0050817505 0.0012449545 0.0004635939 0.0022511682 0.0011268501 -0.0040264265
-0.005408804 0.018200723 -0.0042770067 -0.002590683 0.0028835323 0.37571895 0.059654724 0.03436865
-0.06421821 0.052776225 -0.07135335 0.0048562884 -0.10085101 -0.007621167 0.014630772 -0.004530924

tabnet.initial_splitter.shared.glu_layers.0.fc.weight f4 [96, 1038]
00000000: c921 e23c 3f0e 43bc 061e 0639 aa96 903a
00000010: e7f1 3d3c 2553 013c e93c b3b5 eefc 233c
00000020: 5ff1 bdbb b36e cd36 2d5e d2bc 1283 25b7
00000030: 00d0 bbb9 bd7a 6dbd 2b31 a0bc cf21 823a
00000040: 7ea3 153d 3f5d 7c3c afc3 c2bb 980c 4eb8
00000050: ce7c 693d 6fc9 f2ba e830 89bd 90c7 36bc
00000060: b776 3a3c d282 f0ba 1968 86bd 255e 75bd
00000070: fd4c 2dbb 7195 063c 0e09 d9bd 7671 123c
00000080: 702b 80bc ac24 2838 d641 f3b9 9bd4 c4bc
00000090: a419 0a3b 4b22 53bc 1163 c23c 52aa c6bd
000000a0: 55f6 b739 4dea 82bc ef80 e4bb b5b4 b6bc
000000b0: 35ff c9b4 26d4 57bb d07a 8e3c 862d 433c
000000c0: f714 1d3d 99b1 faba 6859 543b 2631 d03a
000000d0: 53f2 13bd 77f8 64bd 7054 efb7 9f31 9b3e
000000e0: 24b6 0abc 71a6 183d f238 fcbc e837 2b3c
000000f0: 5c17 f63b e07b 24b7 e9f2 3bbc 203a 10bd
00000100: dad6 ba3c 97ad b7bb fded e0b7 998a 58bd
00000110: 61e2 7e3b f2bc 5ebc e7d5 2a3c cbb8 f6bb
00000120: 5216 3439 ef22 933d 02f2 e5bc 6eeb 09bb
00000130: 0c82 373b 17b0 173e 9585 68b4 d5b9 87bc
00000140: 602d d23c 88c0 95b5 f11e bd33 c134 8dbc
00000150: dbe8 1839 8b5f 46ba 3792 593d c76f 793c
00000160: b4b0 a93b 6b86 893b 8bcf 863c f978 c43c
00000170: 0adf 7e3c 4fb9 013d 80a7 a2bb ede4 0ebd
00000180: c596 87bc 74d4 a2bb 42ff 82bc d86b e439
00000190: aa3b 953c 8923 133c b697 683d 26b2 29bc
000001a0: f541 9d3c 1325 d03c c9a4 f1bc df91 613d
000001b0: d24b ae3b 9006 f73c 84e5 613a af0f 47bd
000001c0: f8dc 1c3c aa5b f33c 8de0 7dbb 6675 363d
000001d0: 22ce f43b 8d2a 88bd d6f8 4ebd 8e95 36bd
000001e0: c969 993c d7cc 16bc 1fce 3bbd c584 24bb
000001f0: 9b68 b5bb 28f2 a13d 335c 4c3d 12eb 593c
00000200: 1c22 a63c 5854 3ebc 7879 8fbc f5d8 d83c
00000210: 9b10 5a3c 0ca9 083e 6483 e434 36d1 023c
00000220: a5f3 05bd 82bd 103c 3d65 55bd 88d9 d13c
00000230: 5df2 79ba 1e7a 253d 6443 8b3a ed64 9cb9
00000240: 8214 9cba f577 8aba 0f58 fbbc 8b62 65b7
00000250: 4ca8 233d 4295 2e3a 9f3b 8b3c ffe2 5abd
00000260: 876d 86b7 4454 7bbc 3d27 0f3c ecbb 85bc
00000270: 93ac 61bc 9874 253c 49e4 983d 1f9d 2c3d
00000280: eccd 9dbd 097c d93b 43b3 51bc 22fb 0a3d
00000290: 87d9 843c 6af1 81b8 ba90 c7bc a7b4 85b9
000002a0: 1494 43bc b7ab 20bd 1505 623c a309 35bc
000002b0: 3faa 8bbd aa5a cbbb ac55 aebc 0b08 88bd
000002c0: ea8e fa3c 9cce c03d 5363 92bb 514d 6f3d
000002d0: 235b 383e 092b 1bbb e17a 40ba eac5 03bd
000002e0: 0ad2 96b8 650a 68bd c35a 23b6 afe6 853c
000002f0: 5d22 b93c 7794 293d 3ea1 75bc 6735 abbc
00000300: a6a1 873c 6e71 e73b cce9 acbc 0fa2 a8b9
00000310: 9226 e3bc 5a8e 34bb eb27 1139 b8b4 ffbb
00000320: b162 e63c 57c0 2638 a873 09bc 5197 88bc
00000330: bf5c df3b a201 b0bc 8535 4039 4f46 063c
00000340: 3ad6 99b9 c5d2 fc3d 09c1 30bd ed11 713b
00000350: 721d 2abc 73b1 26bd 2037 3e3c 2804 c43c
00000360: 41d3 86b9 e305 3f3c e793 28bd 67fd 033d
00000370: 2fad 453c 779a 09bc 44b9 7c3c c4d0 96bc
00000380: d54f 633d 4845 923c 3180 3e3c 25bb 81b9
00000390: 8066 86bc 1882 e53b b211 b4bc d2fe 17bd
000003a0: e813 933b 62fc 86bc a4e5 46ba 42c9 9dbd
000003b0: 8900 313c 2b08 25bd 5d0e 1db9 acf7 f13d
000003c0: f3c1 6a3c 469c 94bc 5971 4b3b 107c 543c
000003d0: 879b 6cbc 4d47 97b3 e3ed 013d 15e0 d3bd
000003e0: caa2 593d d744 b4bb cb67 34bc ea0d ae34
000003f0: aa9c 04bc deb4 a6bb e003 173d 51e9 d93c
0.027604 -0.011905252 0.0001279042 0.001103123 0.011593319 0.007893358 -1.3354266e-06 0.010009034
-0.005796596 6.122363e-06 -0.025679672 -9.865284e-06 -0.00035822392 -0.05797838 -0.019554695 0.0009928289
0.03653287 0.015403091 -0.0059437375 -4.9125956e-05 0.05700379 -0.0018523167 -0.06698781 -0.011155978
0.011380843 -0.0018349534 -0.06562824 -0.059904236 -0.0026443594 0.008214341 -0.1059743 0.008938184
-0.015645713 4.0088475e-05 -0.00046397623 -0.02402716 0.0021072412 -0.012886594 0.02372888 -0.09700455
0.00035088012 -0.015980864 -0.006973378 -0.022302965 -3.7624855e-07 -0.0032932847 0.017392546 0.011912709
0.03835007 -0.0019126415 0.0032401923 0.0015883788 -0.03611977 -0.055901017 -2.853034e-05 0.30311295
-0.008466277 0.037268106 -0.030788872 0.010450341 0.007510109 -9.804004e-06 -0.0114714885 -0.035211682
0.022807527 -0.0056054103 -2.6813703e-05 -0.052866552 0.0038892257 -0.013594853 0.010426975 -0.0075293533
0.00017174453 0.071843974 -0.0280695 -0.0021044868 0.0028001098 0.14813267 -2.165528e-07 -0.016568104
0.025656402 -1.1157399e-06 8.8066265e-08 -0.01723707 0.00014582595 -0.00075673376 0.053117957 0.015224404
0.0051785354 0.004196932 0.016456386 0.023983466 0.015556106 0.031670865 -0.004963815 -0.03488629
-0.016551385 -0.004969174 -0.015990857 0.000435679 0.018216927 0.00898064 0.056785308 -0.010357415
0.01919649 0.025408303 -0.029497521 0.055070754 0.005319097 0.030154496 0.00086172693 -0.04859894
0.009574167 0.029706795 -0.003873858 0.044545554 0.007470862 -0.06648741 -0.050530277 -0.04457622
0.0187272 -0.009204111 -0.04585087 -0.002510355 -0.0055361516 0.07907516 0.049892616 0.013300674
0.020279936 -0.011616789 -0.017513976 0.02647064 0.013309623 0.13345736 4.256391e-07 0.00798445
-0.03270306 0.008834245 -0.0520985 0.025616422 -0.0009534711 0.040399663 0.0010624942 -0.00029829834
-0.0011907967 -0.0010564314 -0.030681638 -1.36724075e-05 0.039955422 0.00066598144 0.016996203 -0.053439137
-1.6025047e-05 -0.015339915 0.0087373825 -0.01632496 -0.013774055 0.010098599 0.07465417 0.04214203
-0.07705292 0.0066371006 -0.012799087 0.033930905 0.016217006 -6.196166e-05 -0.024361003 -0.00025502333
-0.01193716 -0.03922626 0.013795157 -0.011049661 -0.06819581 -0.0062058764 -0.021281086 -0.06642159
0.030585725 0.094144076 -0.004467407 0.058423344 0.18003516 -0.0023676774 -0.0007342529 -0.032171167
-7.19168e-05 -0.056650538 -2.4341723e-06 0.01634535 0.022599394 0.041401353 -0.014992056 -0.020899488
0.016556572 0.0070630824 -0.021107577 -0.000321642 -0.027728353 -0.0027550668 0.00013843148 -0.007803526
0.028123232 3.9756615e-05 -0.008389391 -0.016673716 0.006816476 -0.021485154 0.00018330484 0.008195474
-0.00029342045 0.123448886 -0.043152843 0.0036784366 -0.010382997 -0.040696573 0.0116098225 0.023927763
-0.00025715868 0.011659118 -0.041156676 0.032224085 0.012065216 -0.008398644 0.01542503 -0.018410094
0.055496056 0.017855301 0.011627243 -0.0002474423 -0.016406298 0.007004034 -0.021981094 -0.03710825
0.004488457 -0.016477767 -0.00075873197 -0.077044025 0.01080335 -0.040290993 -0.00014978038 0.11814818
0.014328468 -0.018140923 0.0031042902 0.012969032 -0.0144413775 -7.044455e-08 0.031721007 -0.10345475
0.053133763 -0.0055013704 -0.011011074 3.242015e-07 -0.008093992 -0.005087479 0.03686893 0.026600512

tabnet.initial_splitter.shared.glu_layers.0.bn.bn.weight f4 [96]
00000000: 4437 8e3e fe6c 083f 4365 a4b9 cdcb 7d3a
00000010: 1710 c13c 0b3c 1a3c 9b63 2f3e ebf9 a83c
00000020: b5f1 473d 052b f33e c8e1 c23d 697c d93e
00000030: 995e 133d 9f5e b33e 74a3 513d 019c bd3e
00000040: b0ba 693e 1cae 123e c252 023f 5c14 033e
00000050: cfee 403c dacf f73d af0c f33e b72b 0a3e
00000060: 9bfa db3e e02d e93e c2f8 dc3e fee2 2d3e
00000070: 80a8 db3e 047f b63e c9b2 c63e 0509 c93d
00000080: e41c c63e b1bc b33e 67b9 853e 4a61 ec3e
00000090: f41a 123f 68ac 023f 2913 073f 8efb 3a3f
000000a0: 3019 093f f08e c23e 7e7f ac3e 7ed8 353b
000000b0: 9266 ce3e 19ae 433c 2dee 143e e1b7 063f
000000c0: c54f 423d 7386 ff3d 7caa 2738 8d8c 023a
000000d0: 36c3 10ba 087f a239 6bf6 6e3d c641 5739
000000e0: 8374 a3ba 84df 7e3e 248c c13c ffab 5e3e
000000f0: a821 3c3a a327 ca3d 5da8 a43b 0cce 3abc
00000100: b4ae 18bd 6ce5 423d 892e 2c3e 91d4 3a3c
00000110: 5f3a 5539 e19f 9e3c 87a8 c03d 8b56 063c
00000120: 5d07 f63d 45dc 893e 3510 b73e 0a58 ce3c
00000130: 6b62 d63e 2538 a3bd 123e a53e 7bdf 073d
00000140: 3fb8 943e e8b2 4f3e 708e 233e aa32 b13e
00000150: 3744 d53e d51d 043f ee94 243f 435c 4f3c
00000160: 7a0d 033e dca4 653e 85c4 0d3e a02f d93b
00000170: 6487 143e 989a 793d 893c 373d ecdc ef3e
0.2777654 0.5329131 -0.00031355963 0.0009681553 0.023567243 0.009413729 0.1712784 0.020626983
0.048814494 0.4749376 0.095157206 0.4247773 0.035978887 0.35033128 0.05118127 0.37033084
0.22825122 0.1432423 0.5090753 0.12800735 0.011775686 0.121001914 0.47470614 0.13493238
0.42964634 0.45542812 0.43158537 0.16981122 0.42901993 0.3564378 0.38808277 0.098161735
0.38693917 0.35104898 0.26118013 0.46167976 0.5707238 0.5104432 0.5276361 0.7304009
0.5355406 0.37999678 0.3369102 0.0027747448 0.4031263 0.011943364 0.14543982 0.52624327
0.047439355 0.12476816 3.997468e-05 0.000498005 -0.0005522253 0.00030993694 0.05834047 0.000205285
-0.0012470636 0.24889952 0.023626395 0.21745299 0.0007176646 0.09870841 0.0050249533 -0.0114016645
-0.037275985 0.047582075 0.16814627 0.011403219 0.00020335008 0.019363346 0.09407144 0.008199344
0.12013123 0.26925865 0.35754552 0.025188465 0.41871962 -0.07969693 0.32273918 0.033172112
0.2904682 0.20283091 0.15972304 0.34608966 0.41653606 0.5160802 0.6428975 0.012656274
0.1279811 0.2242617 0.13844498 0.006627992 0.14504772 0.060938448 0.044735465 0.46848238

tabnet.initial_splitter.shared.glu_layers.0.bn.bn.bias f4 [96]
00000000: c720 49ba f2d1 aebc fdac 9db8 9894 b637
00000010: 0c83 0eb7 97f2 1b35 2861 8e38 5e4d 16b7
00000020: b022 2fb8 7a68 28bc da07 b339 123f f23b
00000030: 6ad2 2438 dc5c 46bb bdb5 5939 9845 2939
00000040: 3ea4 fe39 c4bf 8dba b168 25bd b9dc 4439
00000050: 52a3 b2b4 6a7c e739 beb8 ac38 0d48 a239
00000060: 7d56 0cbd 00e7 593d 879e 39bc 4770 25bc
00000070: ca07 b0bd 90fe ecbc 3644 a2bc 9ba3 423c
00000080: b706 c73c f956 1cbd 5596 223c 27c2 743d
00000090: 9357 33bd 522d 843e bd16 c2bc 89e3 adbd
000000a0: b7d4 5c3c d78a 113d bda1 dcbc 8629 af3a
000000b0: dab7 b13b 135f 92bc 8259 8fba 7b9d 40be
000000c0: b806 cc3c 23cd 093e 6e83 6eb8 146c 9ab9
000000d0: dcd8 bf38 a95d f8b6 54c1 de3b 5008 d338
000000e0: 7620 cfb8 d0fb 343d eb7c 6d3a 5d23 5e3d
000000f0: a819 f1b7 9d9d e43c 0d9c 573a 6390 823d
00000100: acba c23b 53a9 343a b7aa a43d 4d96 5c3b
00000110: 14b7 0f35 edae 8539 c60d c53d 0c72 15b9
00000120: 6078 973d 76ff 873d c8fd 343d 5a47 eaba
00000130: b178 cfbc 2cbe ed3c 8ff2 8b3c 4440 7cbc
00000140: 52cb ad3c da40 133d 34ec ed3b 263f 503d
00000150: f32d 253d 6460 4f3d b49a e33b e19a 2e3e
00000160: 83df 083e 4628 353d 3cfc 293d 0c85 bbbc
00000170: b742 973d 1bec b6bc d313 a7bb c705 823d
-0.00076724257 -0.021340344 -7.518565e-05 2.1765285e-05 -8.494371e-06 5.8095014e-07 6.7891844e-05 -8.95871e-06
-4.1755557e-05 -0.010278815 0.0003414739 0.0073927725 3.929661e-05 -0.003026775 0.00020762435 0.00016143022
0.00048569025 -0.0010814597 -0.040383045 0.00018774242 -3.3273915e-07 0.0004415245 8.23601e-05 0.0003095273
-0.03426217 0.053198814 -0.0113293 -0.01009757 -0.08595236 -0.028929979 -0.019807916 0.011879827
0.024295194 -0.03816888 0.009923537 0.05975547 -0.04378469 0.25815827 -0.023692483 -0.084906645
0.01347845 0.0355328 -0.026932592 0.0013363815 0.005423528 -0.0178676 -0.001093671 -0.18810074
0.024905547 0.1345716 -5.6866025e-05 -0.00029453693 9.147983e-05 -7.4018794e-06 0.006797949 0.00010062812
-9.8765755e-05 0.04418546 0.0009059447 0.054232944 -2.8741386e-05 0.027907187 0.00082248525 0.06375196
0.005942663 0.00068916864 0.08040374 0.0033658922 5.3538065e-07 0.00025498067 0.09621768 -0.00014252233
0.073960066 0.06640522 0.044187337 -0.0017874048 -0.025326105 0.029021345 0.017083434 -0.0153961815
0.021215115 0.03595052 0.0072608236 0.050841473 0.040327024 0.050629035 0.0069459323 0.17051269
0.13366513 0.04422786 0.041500315 -0.02289059 0.07385772 -0.02232938 -0.005098799 0.06348758
