cv_steps/tabnet_raw_step1_fold0_1/network.pt (torch, 682379 bytes, 56 tensors)

embedder.embeddings.0.weight f4 [3, 1]
00000000: 6331 5c3d 9985 f2bc 650f 13bc
0.053758036 -0.02960472 -0.008975838

embedder.embeddings.1.weight f4 [2, 1]
00000000: 149c cfbc aa98 cf3c
-0.025342979 0.02534135

tabnet.initial_bn.weight f4 [1038]
00000000: 81be 86bd a0cb 193e eb21 9a3d ed07 1f3e
00000010: 545e 943d 06f5 c53d feef 4c3d 1fd4 9b37
00000020: e682 023b 41ac ef34 e6b9 993e b27e 1bb6
00000030: 86bf 8cbc 1f0d 123e e08f 103d 728a 8a3d
00000040: 1268 b73d fd2d d23d 4555 adbc 1e0e d0bb
00000050: 3859 673d bd8f cf3d 5e27 6c3e cc52 a939
00000060: befa 3b3e 84d0 323e e8bb e13d ffb2 1c3e
00000070: 53f2 b83b f257 593e 66df 6f3e 8cc7 413e
00000080: 9fc1 133e 954f d43d e32d adb5 eceb 503e
00000090: b598 133e 000b a93d c309 2b3e 42cf 1d3e
000000a0: 304c fcb7 252e 343e a4b3 003d 8f1b f63d
000000b0: 725e 013b 2f5f f33b 102d 603c aa2f 093e
000000c0: f7cf 053e 5b11 5c3e c782 8e3e 2d12 f23d
000000d0: f814 2b3e 1b23 403e b4b6 beb5 2cf1 f73d
000000e0: 16ce f13d b405 42ba 1678 e83d d340 a13d
000000f0: 0d8f 343d 704a 2f31 6bec 553e 0995 40b5
00000100: 5836 893e dcc5 4e3e 69fe 13b8 bee6 1d3e
00000110: 976e 063e 3ec9 cfb7 32ea 193e 7f8b 8c3d
00000120: 28c0 11bd ddea 993c 232d 1cb6 c082 54ba
00000130: 2ab5 54bc 6e51 af3e 74d9 a2bc 1cf0 0f3e
00000140: d3f0 263e a196 30b9 b29f 34bc 9708 173e
00000150: 52e8 3dbd 3b83 353d 351e 2a3e 4005 8d3d
00000160: 4508 223e 628a 3d3e 932e 093e a05c 3c3d
00000170: 955f 403e d9df 913e bda3 f43d f00a 313e
00000180: df44 1d3e dcdd 1f3e 2a8e ee3d e307 76b8
00000190: 3467 b93d 490a cd3d 71f6 7f3e f834 9fb9
000001a0: 73a4 473e 86a3 4e3e 57cf 223e 06e0 f53d
000001b0: 2ec5 023e 242e 133e 08b9 003e 95c8 9b3d
000001c0: bbba 4b3e 7b0f 003e 94ff 23b8 a320 d23d
000001d0: 6fc0 0b3d 5917 223c 6c93 ab3d ba39 763e
000001e0: a76d 003e 7a4a 7936 2bfd 303e 3de6 2fb5
000001f0: 39af f73d 2db7 a93d d9b7 143e 534c 1a3e
00000200: 83d3 25ba 1108 ee3d 5147 fd3d 9d19 033e
00000210: 5a14 703e ce48 423e 1f72 d4ba db22 443e
00000220: 5013 093e c0e3 d139 fde3 08b5 c6e1 d83d
00000230: c5a7 183d f627 093d 0e1b 093c ebb8 62bb
00000240: de27 5d3e 7689 0a3e d579 153e c186 5f3d
00000250: 7342 ab3d dbcf 8d3d 075a 303e 6c1f 7a3e
00000260: 108d 823d cdec c53c c5d2 1f3e 32eb a83d
00000270: f462 6b37 4024 3e38 12b2 243e 164e c23e
00000280: 9af0 c73e a54a 263e 968f 023e 815a b83d
00000290: ff7a 253e af42 c237 eaea 683e bd4b 35b9
000002a0: 9cbf 363e a769 893e c0a9 aa3b f864 513e
000002b0: 6ba4 083e 1f31 f53d 9c1f 633d ff6a a13e
000002c0: 72ac bc3d b465 bb3e 7517 073e db7e edbb
000002d0: 9d64 8a3e 4ee3 223c 779a 2a3e d5b2 1b3e
000002e0: b67b 893c 60b6 513e 398e 363a 3180 483e
000002f0: f9d8 c83d 406a 203e 412f 703d 6e65 a23c
00000300: 0f6b 2c3e c5f4 77b9 b0e3 073e 0311 033d
00000310: 1002 aa3d 9995 df3d 2a1a 8a3a a07c ff3d
00000320: 9fe4 8e3d e95d 773c bf8b 033e e3cb c43d
00000330: 408d 793e 0840 753e 47f3 eb3d 78f7 bf3d
00000340: a606 9d3c 928a 283e 9508 e43d c2c4 e63d
00000350: 724c 523e 741e d43d 9da0 173e 3b0f 1c3e
00000360: 6ec3 8a3d 0e36 ed3d 9a9d ff38 6b96 343e
00000370: 3030 123e c4ab c73d 7127 213d df72 903e
00000380: a2be b63d 4548 a93c e550 c63d 7784 233e
00000390: d2d3 9bbc 018b ef3d 48ef c43d b8c2 073e
000003a0: 0544 a33d 6d50 063e ef75 1d3d 6548 483e
000003b0: 7b67 d83d d14b 393e 666d 873d ac87 b73d
000003c0: 2d47 b33d 711e 6e3e 881c 823b 7e42 353e
000003d0: 7a45 a83d 7246 d237 c127 413e d9db 223d
000003e0: 0cc3 943d 0675 d73d 92f4 473e fc36 a6bc
000003f0: eedb 403d 4404 843d 01a0 fa3c 204a f93d
-0.065793045 0.15019083 0.075260006 0.15530367 0.07244554 0.09665875 0.050033562 1.8576216e-05
0.0019914447 4.464255e-07 0.30024642 -2.3170546e-06 -0.01718117 0.14262818 0.03529346 0.067646876
0.08955397 0.10262678 -0.021158824 -0.006349339 0.05648157 0.10134838 0.23061892 0.0003229588
0.1835737 0.17462355 0.110221684 0.15302657 0.0056441217 0.21224955 0.23425063 0.18923777
0.1442933 0.103667416 -1.2902859e-06 0.20402497 0.14413722 0.08254051 0.16702943 0.15411094
-3.0076219e-05 0.17595728 0.03142132 0.12016975 0.0019740132 0.0074271183 0.013682619 0.13397089
0.13067614 0.21490996 0.2783415 0.11819873 0.16707218 0.18763392 -1.4209277e-06 0.12106547
0.11806886 -0.00074013625 0.113510296 0.07873692 0.044081736 2.5508164e-09 0.20890968 -7.174245e-07
0.26799273 0.20192665 -3.528447e-05 0.15420052 0.13128124 -2.4770034e-05 0.15030745 0.06862544
-0.035583645 0.01878875 -2.3272084e-06 -0.00081066415 -0.012982646 0.34241813 -0.01987908 0.14056438
0.16302805 -0.00016840782 -0.011024402 0.1474937 -0.046364136 0.044314604 0.16613086 0.06885767
0.15823467 0.1850982 0.13396673 0.04598677 0.18786462 0.28491095 0.11945293 0.17289329
0.15358303 0.15611976 0.116482094 -5.8658316e-05 0.090528876 0.10011727 0.24996354 -0.00030366308
0.19496326 0.20179567 0.15899406 0.1200562 0.1277053 0.1437307 0.12570584 0.07606617
0.19895451 0.12505905 -3.9100254e-05 0.10260131 0.034119066 0.009893262 0.08377728 0.24045458
0.12541829 3.7147242e-06 0.17284076 -6.552762e-07 0.12093968 0.08286891 0.14523257 0.15068178
-0.0006325768 0.11622632 0.12367118 0.1280274 0.23445264 0.18973085 -0.0016208327 0.19153921
0.13386273 0.00040033273 -5.0995715e-07 0.10589938 0.037269372 0.033485375 0.008368267 -0.0034595083
0.2159724 0.13529 0.14597256 0.05457187 0.083622836 0.06924411 0.17221843 0.24426049
0.06374562 0.024160767 0.15607746 0.08247985 1.4030131e-05 4.533329e-05 0.16083553 0.379502
0.39050752 0.16239412 0.12750086 0.09001637 0.161602 2.3157654e-05 0.22745863 -0.0001728972
0.1784653 0.2683842 0.005208224 0.20448673 0.1334397 0.1197226 0.055450067 0.31526944
0.09212579 0.3660103 0.13192542 -0.0072477884 0.27029887 0.009941889 0.16660486 0.15204938
0.016782623 0.20479727 0.0006963942 0.19580151 0.09807009 0.15665531 0.058638815 0.019823756
0.16837715 -0.0002364694 0.1327045 0.031998646 0.08301175 0.10917205 0.0010536362 0.12474942
0.069772 0.0150980735 0.12846278 0.09609201 0.24370289 0.23950207 0.11521011 0.09373373
0.01916821 0.1645911 0.111344494 0.11267997 0.20536974 0.10357371 0.14807363 0.15240185
0.067755565 0.11582576 0.00012188703 0.17635505 0.14276195 0.097495586 0.039344255 0.2821264
0.08923079 0.020664344 0.09683398 0.159685 -0.019021902 0.11696435 0.09615952 0.13257873
0.07971958 0.13116618 0.03844255 0.19558866 0.10566612 0.18095328 0.06612663 0.08961424
0.0875381 0.232538 0.0039706863 0.17701146 0.082163766 2.5066754e-05 0.18862821 0.039760444
0.07263765 0.10520367 0.1952689 -0.02028989 0.04708474 0.06446126 0.030593874 0.12172341

tabnet.initial_bn.bias f4 [1038]
00000000: 1134 4237 22a3 bf38 aa48 10b7 9af5 25b8
00000010: 42be 9838 713d 2e38 88d9 8137 86c0 89b4
00000020: 7cab 82b6 21f3 6930 3e31 033d 3ca6 3fb1
00000030: 1823 84b7 586e 0db9 85c9 4537 6a9e 97b6
00000040: 6ad8 a238 d086 8fb8 f0d0 9538 f8cc 1e38
00000050: 29c9 8db6 a1f6 1d39 6e2c d939 38c8 e034
00000060: da32 e537 083f 0139 a0f2 68b7 cfc8 63b6
00000070: 1eab f9b7 74c8 8436 d0d1 cab8 6565 1f3a
00000080: d971 3637 3639 3ab9 1785 bab0 36f2 ea3d
00000090: c075 0639 826b 68b8 fd29 0039 c416 69b8
000000a0: d7b5 0db4 2551 07b7 bfca 3838 e6c5 9039
000000b0: b2b5 4536 b0c3 c437 1985 7a38 6c5a f738
000000c0: f073 23b7 f333 deb7 7f5d bf37 d6d5 c838
000000d0: 4301 3a38 cac9 7138 dac9 59b1 5ca9 e535
000000e0: 5c01 0aba 26a9 1eb6 d332 2938 0dca cdb9
000000f0: f513 0739 701b 522d 6174 2239 634d deb0
00000100: bf6c cbb8 570e 9439 0025 2034 a34e 0e38
00000110: a277 23b9 f8ce ae33 8747 71ba d771 8038
00000120: 9995 90be 86fe 5f37 bb91 4934 ee0e a835
00000130: a7eb d4b8 9ae2 9138 b6de 4ab7 ebd0 ab38
00000140: ec69 61b8 1885 ad34 028a 543a 5c7b 9f38
00000150: 8d88 a838 beab a4b8 0b53 963b bf3d 87be
00000160: d326 58b8 4b70 d7b7 092e 4b39 c0fc 7639
00000170: 7c88 8338 eadc 53bd 8ab2 c738 d09b 5a37
00000180: bd95 953c 45f3 3137 994f 2337 f397 6933
00000190: a599 d237 da5c 5e3a 9f23 c3be a833 07b6
000001a0: e8c3 9739 6f4c 5339 431c 1039 56e0 66ba
000001b0: 3344 26b8 e97e 3339 d060 6139 052c d23a
000001c0: 3772 d7ba 5235 c4b8 784f 4632 4a9d 0839
000001d0: 8efd 72b9 faf2 2a37 429a 3a3a 4237 c8b9
000001e0: 4299 fe38 d758 1f32 014e 5bb8 3226 e0af
000001f0: d2f6 c9b8 b48a 98b9 0a2a ddbe cbf5 833d
00000200: 9451 1f35 8a3f ca38 836b ff39 2022 8cb7
00000210: 7aed 8db9 3a73 7239 d2e5 17b4 6e6d 4c38
00000220: ac8c c4b8 d18d 0d37 38af 86b3 0ce6 4bb9
00000230: 52a8 9238 3ffc af38 7fb3 0d37 9745 5b37
00000240: a8e8 993c 04e9 1239 f420 37bd ab10 c837
00000250: 3b97 b239 5cd6 7eb9 9d37 bb38 3637 acb9
00000260: 12da b939 f338 7ab7 eb54 04b7 67e7 6e39
00000270: 4a09 3cb3 dd2d de37 eb8e cc38 5c59 ac39
00000280: ab40 97bd 9712 31ba 0188 ac39 aa7a c139
00000290: 07d4 64b9 56e2 2034 3017 5bb8 1480 54b4
000002a0: 8a3c 68bb 8a9f fd38 6b21 86b9 0f88 5bba
000002b0: f5d9 0bb9 61a9 4cb9 3b7f d2bd 7246 2f39
000002c0: 49b0 e437 dd37 873a fa3c 6bb9 76d2 8db9
000002d0: 2915 24be 3678 0636 f7a7 0ab9 32f4 a5b8
000002e0: aae1 0cb9 1ca1 c3b7 37af 08b5 99d8 043a
000002f0: 4201 1d3a 1fa2 0937 9833 6a39 e011 91be
00000300: 52fa 94b6 9a15 1d37 0457 27ba 0f34 5d37
00000310: ae8f debe 65df 6838 0f9e 30b3 b808 8ab9
00000320: 103d b9b8 aba8 0238 867b 94b8 eeac 7db9
00000330: ef04 56ba 4eb7 1539 23a9 ffb7 11ed 0d3a
00000340: b0af 50be 9a93 27ba d1a9 c53e 60c4 fbb8
00000350: 5cc2 67ba a0d4 9538 1934 ffb8 fba6 edb9
00000360: a5bf a0b8 61e6 fbb8 91db 38b4 4c2c 023b
00000370: 4b72 fb39 7ecc 53bc f645 11b7 9f1d 983c
00000380: 01b1 8b38 eb64 793e 4fe5 91b7 cdee ccb9
00000390: 8e5a e236 13f5 88b8 b9e9 e038 92ac 00ba
000003a0: 0e86 dab7 f092 d537 0b02 2fb8 f9b8 a338
000003b0: 56eb 02b8 0802 fcb8 27db b738 87cf 08b9
000003c0: 3856 0339 ccc0 e83c b792 d236 d0a2 e63e
000003d0: a5ef a3be 9e15 5533 8c39 eb38 0f90 5138
000003e0: 4393 bf36 5067 5939 a8c5 4b38 4a11 9037
000003f0: 268e 8438 f6d5 cdb7 c7fd b0b8 6d99 81b8
1.1575424e-05 9.1379756e-05 -8.599987e-06 -3.95678e-05 7.283363e-05 4.1542055e-05 1.5479294e-05 -2.5658318e-07
-3.8942653e-06 8.5110413e-10 0.032029383 -2.7888651e-09 -1.5751968e-05 -0.00013487914 1.1789035e-05 -4.5185925e-06
7.765072e-05 -6.843882e-05 7.143791e-05 3.7861028e-05 -4.2255456e-06 0.00015064563 0.00041422568 4.186893e-07
2.7322607e-05 0.0001232588 -1.3884768e-05 -3.3942522e-06 -2.9762796e-05 3.9572424e-06 -9.671191e-05 0.00060804776
1.0874553e-05 -0.00017759655 -1.3571108e-09 0.11471979 0.00012823101 -5.5413235e-05 0.00012222673 -5.557273e-05
-1.3197801e-07 -8.06552e-06 4.405784e-05 0.00027613266 2.9461048e-06 2.3456145e-05 5.97286e-05 0.0001179472
-9.742551e-06 -2.6488653e-05 2.2812512e-05 9.576573e-05 4.434703e-05 5.764681e-05 -3.1692395e-09 1.711112e-06
-0.0005264485 -2.3642292e-06 4.0340074e-05 -0.00039251187 0.00012882038 1.194321e-11 0.00015492878 -1.617462e-09
-9.70005e-05 0.00028239444 1.4914622e-07 3.3928674e-05 -0.00015589458 8.140154e-08 -0.0009204079 6.12472e-05
-0.28239134 1.3351097e-05 1.87726e-07 1.252132e-06 -0.000101528414 6.9563466e-05 -1.2091992e-05 8.1928294e-05
-5.3742828e-05 3.23206e-07 0.0008107723 7.604688e-05 8.036299e-05 -7.852119e-05 0.004587536 -0.26414296
-5.153457e-05 -2.5682288e-05 0.00019376738 0.00023554545 6.271989e-05 -0.051724352 9.522315e-05 1.30300905e-05
0.018259877 1.0606663e-05 9.73409e-06 5.4387737e-08 2.5105497e-05 0.0008482464 -0.38113114 -2.0146636e-06
0.00028946926 0.00020151002 0.00013743438 -0.00088072324 -3.9641e-05 0.00017118048 0.00021493738 0.0016034847
-0.0016437237 -9.35594e-05 1.1543186e-08 0.00013028565 -0.00023173375 1.0189362e-05 0.0007118323 -0.00038188143
0.0001214021 9.275218e-09 -5.2286316e-05 -4.0772502e-10 -9.630401e-05 -0.0002909504 -0.43196136 0.06443366
5.935083e-07 9.643946e-05 0.00048717493 -1.6705191e-05 -0.0002707055 0.00023121844 -1.4146579e-07 4.8739304e-05
-9.3722105e-05 8.437274e-06 -6.271733e-08 -0.00019445288 6.9931746e-05 8.391635e-05 8.446047e-06 1.306962e-05
0.018787697 0.0001401045 -0.04470916 2.384962e-05 0.0003406348 -0.00024303183 8.927214e-05 -0.00032847532
0.00035448425 -1.4914421e-05 -7.887585e-06 0.00022783653 -4.378061e-08 2.6485819e-05 9.7540986e-05 0.00032872974
-0.07385381 -0.0006754784 0.00032907727 0.0003690322 -0.00021822761 1.4983502e-07 -5.2235264e-05 -1.9790633e-07
-0.0035436475 0.000120936966 -0.0002558337 -0.00083744613 -0.00013337268 -0.00019518055 -0.102781735 0.00016715543
2.7261807e-05 0.0010316331 -0.00022434062 -0.0002705042 -0.16023697 2.0037528e-06 -0.00013223277 -7.913298e-05
-0.00013435507 -2.3320834e-05 -5.091892e-07 0.0005067676 0.0005989262 8.203583e-06 0.00022335199 -0.2833395
-4.439885e-06 9.362959e-06 -0.0006383511 1.3184747e-05 -0.43468994 5.5521163e-05 -4.1121947e-08 -0.00026327907
-8.832861e-05 3.11515e-05 -7.080198e-05 -0.00024192382 -0.00081641873 0.00014278034 -3.047713e-05 0.0005414049
-0.2037952 -0.0006392539 0.38606122 -0.000120051904 -0.00088409125 7.144478e-05 -0.000121690515 -0.00045328573
-7.665091e-05 -0.00012011524 -1.7216213e-07 0.0019862829 0.00047959606 -0.012927173 -8.6589625e-06 0.018568812
6.661006e-05 0.24354903 -1.7392127e-05 -0.00039087833 6.745867e-06 -6.530634e-05 0.000107246866 -0.00049085275
-2.605005e-05 2.5460002e-05 -4.1725154e-05 7.8068995e-05 -3.121359e-05 -0.00012016675 8.76694e-05 -0.0001304728
0.00012525253 0.028412245 6.2755676e-06 0.4504609 -0.32018772 4.9612588e-08 0.00011216392 4.9963648e-05
5.709387e-06 0.0002073322 4.8583053e-05 1.7174189e-05 6.320728e-05 -2.4537538e-05 -8.439604e-05 -6.179777e-05

tabnet.initial_bn.running_mean f4 [1038]
00000000: bcdd 7c3b 9d51 04ba 456b 913b 124e dbbb
00000010: 90c1 aa3b a44c f1b9 1680 0bbb 7798 0dbb
00000020: 67cf 1c3b 8d0d abba 9e47 7cbc 1ee6 383a
00000030: 8ad2 2abb f0e9 d0ba ec9a 023b 41bd 723b
00000040: e037 88b9 501d 21bb 707b 07bb 6e43 93bb
00000050: bf70 943a 93e6 193b b5e4 4b3b e2df 82bb
00000060: f2b5 ee3a f83e aa3a fb72 df39 4987 853b
00000070: 4b01 1abb ec37 75bb c92b ceb9 0bb0 69ba
00000080: 1715 a1bb 73f7 063c ad86 2a3b 0e54 94bb
00000090: e718 07bb 6176 63bb 3347 58bb e2f5 26bd
000000a0: 2b6b 023d aa4c adba e8da 43bb e591 883b
000000b0: 048e 58bb 1c76 bd38 3e74 be3b 6b4d 19bb
000000c0: 27e6 0d3c 7920 71bb ffcb 63b9 c0e6 7fba
000000d0: aa19 41bd 7961 b4b9 de82 6f39 e054 213b
000000e0: 7ddb 0a3b 5e7f dfbb 9490 203b 601c 1fba
000000f0: 9fac aebc 9f78 83bb 7872 a13a 466e 50bb
00000100: 8897 4bbc d217 0bbc a6c0 4bbb 7161 653b
00000110: 7829 8eba 2ddf 65bd 63a0 dd3a 658b 153b
00000120: 5208 6cba 5de2 453a 9771 93bc 6858 7e3b
00000130: de89 313c a97e 36bd 805e cd3a 2aea af3a
00000140: e530 ca3b c183 06bb a919 5ebb d3ce 81ba
00000150: 3cdb 883b aa61 213b c122 1cbb 2381 8b3a
00000160: c7bc a83b 0fe5 4d3b f899 823b 73c9 88ba
00000170: d80a ea3b 8868 0c3c 7083 0dba 7032 f63b
00000180: 3b98 f0b9 9776 9cba f533 e5bb 8178 f43b
00000190: 9eba b0bb 663d 113a 1844 823c 0cc6 8e3a
000001a0: dc3a 6aba 10bb c2ba 894a 9ab8 4ce3 8f3b
000001b0: cca1 e93b 1ce8 8d39 ae13 7abb ae93 adbb
000001c0: aef8 b0b9 3962 afba 0c60 f3ba dd3d a0bc
000001d0: 3a36 c7ba fbe1 ccb8 721f 7b3a 6772 be3a
000001e0: 5422 633a d3d5 59bb 1384 63ba 1a93 35bc
000001f0: 414e 603b 6746 053d 106f 803b 61a0 9fbb
00000200: 7583 583b 5430 fa39 47a0 b3bc 3f64 ceba
00000210: 63d7 c03b 9638 e83c 9c53 0e3c d35d b93b
00000220: f2ed 633b 830e a83b 6a60 ecba 5778 a5bb
00000230: 28a2 ae3a 8d26 723b 72dc 513b 27b1 73bb
00000240: cf19 d83b 5197 9e3a cbc5 8f3b 05df ab3b
00000250: 64af 053c 9c83 333c 2187 0f3c 4a50 fcba
00000260: 93e5 d1ba 1c39 823a cebf 03bc 4675 21bb
00000270: 543c 29bb 7f4b a63b 5ce6 4ebb 30c6 26bb
00000280: 5c5a 933c 79f7 27bb 8d79 99bb e66b 69ba
00000290: 41d4 543a aca3 2e3c a63e af3b 684d f2ba
000002a0: 53bb e53a d06a 1c3b 7e89 e33a e716 6fba
000002b0: b7ab d13b b915 9bbb 6946 22bb 2878 a638
000002c0: 3779 ec3a f4d5 3e3b a20e 9bbb cd72 bd3b
000002d0: 5ee0 0fbc 62a1 c5bb ce43 993a 6657 a53b
000002e0: c939 54bb 7cb2 7739 ee29 c43a e1b5 b3bc
000002f0: 809c e7ba 5b9f 7cba 3882 543b f26e 9eb9
00000300: 627f d93b c85e 333b f516 433b ea8c aa3b
00000310: 9196 d73a 586f 96bc 783a bbba a9e2 9d3b
00000320: 09b4 a8ba 5010 0bbb ab5a 2c3b ee7a 893c
00000330: 8c01 25bc 4d37 82bb c9c3 6cbb 57c8 5c3b
00000340: 03b2 1abb 9377 19bb f90b 523c 7cb7 01bb
00000350: 81a5 a03b e123 c9b7 cb7d e1ba cb22 f23b
00000360: 2a3b 17bb 4857 a03b 3bcf 2939 8169 9fba
00000370: 9e69 d7bb cb97 26bb c433 7f3b 4ed1 103b
00000380: ff04 873b 70af b33b 05d2 f139 f6bc ad3b
00000390: 760b 473c b3e1 8ebb 5d31 8fbd b2d1 893b
000003a0: 4a49 9bb9 62a0 38ba eef1 ba3a dfd8 f6ba
000003b0: 5e10 803b d858 593b ce3a 653b 7d18 8b3b
000003c0: 9860 30bb a409 2cbb 3a77 a6b9 0bbc 763a
000003d0: 1915 e6ba 3ff4 063c 31c5 e03a ae47 2a39
000003e0: 8462 8dba 2f19 d23b 8531 c53c b117 7a35
000003f0: 555e 8ebc 1e2b 743b 89dc c23a b6de 2d3b
0.0038584312 -0.0005047562 0.0044378364 -0.0066926563 0.0052110627 -0.00046024204 -0.0021286062 -0.0021605769
0.0023927332 -0.0013050303 -0.015397934 0.0007053333 -0.0026065432 -0.001593886 0.0019928766 0.0037039074
-0.00025981572 -0.0024584122 -0.002067294 -0.004494122 0.0011325105 0.002348338 0.0031111662 -0.003993974
0.0018212183 0.0012988737 0.00042619542 0.004074965 -0.0023499306 -0.0037417365 -0.00039324004 -0.0008914477
-0.004915844 0.008237707 0.0026020214 -0.0045266217 -0.0020614208 -0.003470801 -0.0033001422 -0.040761836
0.031840485 -0.00132217 -0.0029885117 0.0041677826 -0.0033043632 9.034222e-05 0.005812197 -0.0023392092
0.00866083 -0.0036793037 -0.00021724401 -0.00097618625 -0.047143616 -0.00034404898 0.00022841568 0.002461724
0.0021187954 -0.0068206033 0.0024500238 -0.0006069597 -0.021322547 -0.004012182 0.001231744 -0.003180401
-0.012426265 -0.008489566 -0.003109017 0.0035000707 -0.0010846099 -0.05612104 0.0016908761 0.0022818681
-0.00090039254 0.00075486844 -0.0179985 0.0038810018 0.010836093 -0.044554386 0.0015668422 0.0013421227
0.0061703795 -0.0020525309 -0.0033889806 -0.0009903557 0.0041765254 0.0024624863 -0.0023824426 0.0010643344
0.005149457 0.0031417047 0.0039856397 -0.0010436013 0.007142406 0.008569844 -0.0005398309 0.007513337
-0.00045889788 -0.0011937198 -0.006994719 0.0074606542 -0.0053933403 0.000554046 0.01590161 0.0010892763
-0.00089351623 -0.0014856774 -7.3571755e-05 0.0043911096 0.0071298834 0.0002706655 -0.0038158703 -0.005297146
-0.00033754617 -0.0013380713 -0.0018568053 -0.019560749 -0.0015198656 -9.76957e-05 0.0009579576 0.0014529944
0.0008664478 -0.0033239021 -0.00086790434 -0.011082435 0.003422633 0.032537844 0.0039194897 -0.0048714136
0.003303734 0.00047719723 -0.021927012 -0.0015746428 0.005885051 0.028347295 0.008686926 0.0056569367
0.0034779278 0.005128683 -0.0018034105 -0.005049746 0.0013323473 0.0036949248 0.0032022265 -0.0037184448
0.0065948735 0.0012099539 0.0043875924 0.005245092 0.008159492 0.010956671 0.008760245 -0.0019250002
-0.0016013853 0.0009935233 -0.008041335 -0.002463655 -0.0025823312 0.005074918 -0.003157041 -0.0025447719
0.017987423 -0.0025629683 -0.0046836794 -0.0008904323 0.00081187865 0.01065914 0.0053480444 -0.0018486204
0.001752714 0.0023867376 0.0017359701 -0.0009120539 0.006398644 -0.004732814 -0.0024761206 7.937878e-05
0.0018041496 0.0029119225 -0.004731969 0.0057815076 -0.008781521 -0.006031201 0.0011693181 0.005045819
-0.0032383075 0.00023622246 0.0014966109 -0.021937313 -0.0017670542 -0.0009636783 0.003242625 -0.0003021877
0.0066374997 0.0027369726 0.0029768322 0.0052047865 0.001644807 -0.01836364 -0.0014284393 0.0048182798
-0.0012871037 -0.002121944 0.002629916 0.01678225 -0.01007117 -0.0039738775 -0.003612744 0.0033688748
-0.0023604638 -0.002341722 0.012820237 -0.0019793203 0.004902542 -2.3977775e-05 -0.0017203627 0.0073894016
-0.0023076036 0.0048932172 0.00016194295 -0.001216218 -0.00657387 -0.0025420066 0.0038940767 0.0022097412
0.0041204686 0.0054835603 0.0004612358 0.005302067 0.012148729 -0.0043604015 -0.06991837 0.004205906
-0.00029618508 -0.0007042942 0.0014262774 -0.0018832943 0.003908201 0.0033164527 0.0034977677 0.0042448626
-0.0026913043 -0.0026250863 -0.00031750818 0.0009412176 -0.0017553895 0.008236944 0.0017148611 0.00016239166
-0.0010786806 0.0064116935 0.024071464 9.3166733e-07 -0.017378965 0.0037257145 0.001486675 0.002653045

tabnet.initial_bn.running_var f4 [1038]
00000000: e1ea d73b cbec 423a 4110 7d3f 89f7 793f
00000010: 3f90 783f a0f5 793f 6975 7a3f 677b 7b3f
00000020: ec11 783f ad8e 793f 3b50 8a3f e0aa 793f
00000030: 80e8 793f 69e5 783f e3bc 7b3f e6ac 7d3f
00000040: 44f2 7a3f c92e 793f 0a83 7c3f 758b 7a3f
00000050: c537 773f 9472 783f 8483 783f a731 783f
00000060: b2fe 783f fefe 753f a00e 7c3f 7d9b 763f
00000070: ca8a 773f f8cb 783f 153e 783f dd77 783f
00000080: f525 7b3f 6e94 863f cb3d 793f 5875 793f
00000090: 29d1 7a3f 2bdb 783f 9456 7d3f 665b a13f
000000a0: 5bd1 973f 93cb 773f 3230 803f b6f7 793f
000000b0: e66c 793f ffec 793f b28f 783f 9692 773f
000000c0: f748 813f 04f5 783f 3b43 803f 7c81 783f
000000d0: 51ac a83f 22fa 793f 91d7 783f b644 7d3f
000000e0: baca 783f ad01 7d3f 9350 7a3f c9fc 7c3f
000000f0: 2441 903f b8cc 7c3f 4524 783f 9fdf 7b3f
00000100: 67bb 843f 67f0 853f da26 793f d427 7a3f
00000110: 6b43 793f 288b b03f 2d86 783f 0d64 773f
00000120: a876 7a3f ed09 773f 25a3 8d3f 36b7 763f
00000130: 3d2a 853f 407b a83f 8b34 793f 4a73 773f
00000140: deec 793f b1d0 783f 58de 773f 6e8c 793f
00000150: cc75 783f 6efc 793f 330f 783f 4abf 773f
00000160: e3e2 823f aad0 783f 1655 783f e3e6 783f
00000170: fdd2 7a3f d35c 813f f3ae 783f 6151 783f
00000180: 5589 773f 2184 7b3f 67df 813f f77e 823f
00000190: 2f17 813f 6a9a 773f 6ebf 8a3f 3870 773f
000001a0: e1f8 7d3f c4fb 783f e15e 783f 6383 773f
000001b0: 6bd4 803f 06a8 773f c6cb 773f 6765 783f
000001c0: a3d2 763f 855c 783f 25ad 783f 0ca3 8f3f
000001d0: 9a2f 793f 7682 793f c7bb 793f e1f3 7a3f
000001e0: d2b8 783f 4d01 793f a768 773f a325 803f
000001f0: ef4a 773f bf17 953f 6fe5 753f e5c9 783f
00000200: 204b 7c3f f6f0 773f 1a00 8e3f e965 783f
00000210: 563a 823f c7b6 9a3f bc32 803f 7467 7e3f
00000220: 6564 783f b34b 793f 7a6c 783f d961 773f
00000230: d7a1 7c3f 33c9 7a3f 8347 793f 057b 783f
00000240: a6e6 7d3f 272f 793f 86c9 813f 984f 7a3f
00000250: f9db 7d3f a5b0 833f c351 7e3f 4056 773f
00000260: d8fc 783f e5fe 773f 7f15 823f 9e56 783f
00000270: afd8 793f 73e0 7f3f b44f 773f 4921 793f
00000280: 5cea 903f e010 773f 36cf 7d3f 5ec3 773f
00000290: e44c 7a3f 0421 833f c69c 803f 4bd3 773f
000002a0: 4956 793f 3917 793f 678b 7b3f bbb7 783f
000002b0: 28e3 853f 274f 793f 435a 793f fdfc 793f
000002c0: 2f7a 783f 493e 7a3f cb9d 783f db7e 7d3f
000002d0: dfa5 893f aaea 783f f151 773f 85d8 7c3f
000002e0: 3c48 793f 438b 813f 8548 783f 8fe1 903f
000002f0: e969 7c3f 78b6 773f be31 773f fcba 803f
00000300: a5db 793f 1d0c 7a3f c41a 783f eb03 793f
00000310: a7fc 773f 8e26 8c3f 8f81 793f 71b3 803f
00000320: 3070 793f 0ed9 783f 4b9b 793f a647 873f
00000330: a353 893f 5c8c 793f a58f 7c3f a7f4 783f
00000340: 85c5 783f 582e 783f 66ab 8a3f 1ca3 793f
00000350: f997 7b3f b57d 783f bdbd 773f dbf2 7b3f
00000360: 290d 783f e414 813f f441 793f 8242 793f
00000370: e853 7a3f a322 793f 47e4 7a3f 9070 783f
00000380: 286d 773f d594 773f 3b6f 793f 8af3 773f
00000390: 7221 843f 38b4 783f 1a19 bb3f 669f 7a3f
000003a0: b039 773f 2e52 803f b57d 7b3f b1e5 783f
000003b0: 4b2d 7a3f 4c02 7d3f f037 773f f488 783f
000003c0: 050b 793f b903 7b3f bd0e 783f e87f 793f
000003d0: b7bc 783f 9303 813f 5bad 7a3f 339c 7c3f
000003e0: 819b 783f 1a7a 753f b9ff 923f f62f 7c3f
000003f0: dd4b 863f 4d75 803f 7d1e 7a3f b781 793f
0.006589279 0.00074357976 0.98852926 0.97643334 0.970951 0.9764042 0.97835404 0.9823517
0.96902347 0.9748333 1.0805734 0.9752636 0.9762039 0.9722505 0.98335093 0.9909195
0.9802592 0.97337013 0.9863745 0.97869045 0.9656947 0.9704983 0.97075677 0.96950763
0.97263634 0.9609221 0.98459816 0.96331006 0.9669615 0.9718623 0.9696973 0.97057897
0.9810479 1.0514047 0.97359914 0.9744468 0.97975403 0.97209424 0.9896023 1.2606018
1.1860765 0.96795005 1.0014708 0.976436 0.9743179 0.9762725 0.9709426 0.9670805
1.0100392 0.97248864 1.0020517 0.9707258 1.3177587 0.976473 0.9720393 0.9893297
0.97184336 0.9883068 0.97779197 0.9882322 1.1269879 0.98749876 0.9693034 0.98388094
1.0369691 1.046399 0.9732491 0.9771702 0.97368497 1.3792467 0.97079736 0.9663704
0.97837305 0.9649952 1.1065413 0.9637331 1.0403515 1.3162613 0.973458 0.9666029
0.97627056 0.9719344 0.96823645 0.97479904 0.97054744 0.976508 0.9689819 0.9677626
1.022549 0.97193396 0.9700483 0.97227305 0.9797819 1.0106453 0.9714195 0.96999174
0.9669393 0.9824849 1.0146302 1.0194997 1.00852 0.9671999 1.083967 0.9665561
0.99207884 0.97259164 0.97019774 0.96684855 1.0064825 0.9674076 0.9679531 0.9702973
0.96415156 0.97016174 0.971392 1.1221633 0.9733826 0.9746469 0.9755215 0.9802838
0.97157013 0.9726761 0.9664406 1.0011486 0.96598715 1.1647872 0.9605321 0.97183067
0.9855213 0.9685205 1.1093781 0.970305 1.0174053 1.2087029 1.0015483 0.99376607
0.9702819 0.9738113 0.9704052 0.9663368 0.9868445 0.97963256 0.97374743 0.9706271
0.99180067 0.97337574 1.0139625 0.977777 0.99163777 1.0288283 0.9934351 0.9661598
0.9726081 0.96873313 1.016281 0.9700717 0.9759626 0.9995186 0.9660599 0.97316414
1.1321521 0.96510124 0.99144304 0.9678248 0.97773576 1.024445 1.0047843 0.9680678
0.97397286 0.9730106 0.98259586 0.9715535 1.0459948 0.973864 0.97403353 0.97651654
0.9706144 0.9775129 0.9711577 0.9902169 1.0753745 0.9723307 0.9660941 0.9876788
0.97375846 1.0120624 0.96985656 1.1318835 0.98599106 0.967628 0.96560276 1.0057063
0.97600776 0.97674733 0.9691584 0.97271603 0.9686989 1.0949266 0.97463316 1.0054761
0.9743681 0.972062 0.97502583 1.056874 1.0728649 0.97479796 0.98656684 0.9724831
0.9717639 0.96945715 1.0833557 0.9751451 0.98278767 0.97066814 0.9677389 0.98417443
0.9689508 1.00845 0.9736626 0.9736711 0.9778428 0.97318476 0.98004574 0.97046757
0.96650934 0.96711475 0.9743535 0.96855986 1.0322707 0.9714999 1.4617035 0.9789947
0.965724 1.0025079 0.9823869 0.9722548 0.9772536 0.9883163 0.9656973 0.97083974
0.9728244 0.98052555 0.9689749 0.97460794 0.97162956 1.0079216 0.9792077 0.9867584
0.9711228 0.9588944 1.148429 0.9851068 1.0491902 1.0035797 0.9770277 0.97463554

tabnet.initial_splitter.shared.shared_layers.0.weight f4 [96, 1038]
00000000: afee b2b8 48f7 5eb9 34ec 1cb9 9a9d be39
00000010: 44b7 7bb9 dc48 9bb8 1fd9 96b8 2780 0d34
00000020: 326a 6cb6 e2aa acaf 010b 533b 8912 9fb0
00000030: eff8 95b7 90d8 df39 9e17 7cb8 11b9 27b9
00000040: 90e2 9538 bb26 193a 3119 fb36 c92c 6e37
00000050: 1d92 b337 4427 a239 4de8 1d3a f1ce a6b5
00000060: 6b0c 38b9 24bd 8ab6 565e d1b6 1b50 b8b6
00000070: 7b36 9eb8 0d76 4fba fa2d 293a 9d05 ecb9
00000080: 80e9 02ba 5dcc df39 3e68 5431 adf0 283a
00000090: 4a0d a7b9 a40a dab7 7d94 08b9 c990 5139
000000a0: b692 3834 95e2 e6b9 d1a3 0b39 c900 1538
000000b0: fc25 d0b5 fb73 eb37 5f95 b4b8 d5be 7939
000000c0: 8074 9539 e443 34ba 880b fcb8 0f29 8bb9
000000d0: b2fc 4637 3b94 d8b8 f5c4 98b1 e2a0 0738
000000e0: 6d7b 70b9 bbd3 5e36 047e d5b9 4492 c538
000000f0: 5e87 9138 e887 67ad e578 b2b9 e40c c831
00000100: 257a 6439 1918 ba39 ec6a a732 8de4 143a
00000110: 2139 4ab9 2784 8331 553a 5139 c7ad 9bb9
00000120: afa8 fcbd d3b2 a7b7 be1c d4b3 03af 8d33
00000130: 2a7f f237 74ad 9eba e18e 3937 aadd 443a
00000140: 248f a0b8 6e05 5235 0eab 7738 94b1 20b8
00000150: 46f7 8738 def8 7db8 7695 14b9 8faa c13c
00000160: 1960 fb39 4fe1 5138 bd9a 0eb9 7fbe 5039
00000170: 3e86 57b9 7a5f 52bc e22c 4538 dc57 e537
00000180: b2fc eb39 edbd 91b8 bb1f 2b39 7079 da33
00000190: 9478 1139 5d34 83b9 b0b2 c23c cd06 ff34
000001a0: a134 d239 ed99 c239 9feb 3eb9 cde6 f838
000001b0: 285f d4b8 e2ff 9ab8 517d bfb9 37aa cdb9
000001c0: 461c 1d3a 4f04 8cb8 ee91 88b4 bc6e cdb9
000001d0: 5798 33b9 e678 5bb7 5166 b0b9 6670 c9b8
000001e0: 55ea c5b9 3d9d deb2 8d8f f438 1437 84b0
000001f0: 871d 1c38 24b0 f3b8 f90a debc a719 9dbc
00000200: d965 3bb6 601e 8bb8 c032 533a e913 1e39
00000210: 7ee1 3838 6990 8839 6831 b1b5 4bf8 07b9
00000220: 3063 9839 2b1d 8034 b1f8 2432 dfc2 6938
00000230: bbcf e5b8 f72c a3b8 ae10 7b37 3344 31b8
00000240: a129 26bd 6a9d ba39 550e 89bc d9dc 5eb9
00000250: a537 b7b9 4c4c 4e39 b884 03ba 9926 f6b9
00000260: b8c5 e437 78bc 9538 2697 2d3a 6009 b5b8
00000270: daec 05b3 63f3 98b6 cc30 36ba 9c30 a2ba
00000280: 8dfd 88bd 44c9 923a 727f 96b9 9e30 e9b8
00000290: 374d deb8 a966 42b3 74a6 1839 4040 2935
000002a0: 4e75 7238 939a 4dba 11d5 8a36 554c 3d3a
000002b0: 7443 12b9 ad54 343a f27c 2f3d 7e8f 0fb9
000002c0: 39e4 44b9 6f55 273a 569b e439 b7a8 29b8
000002d0: 29de 613d 330b 4bb7 f6a5 1639 5cdf 0f3a
000002e0: c6b4 4fb8 2139 d8b9 8ba2 f735 f29c aeb8
000002f0: 4115 fab9 93a0 a938 acbc aeb8 61b3 fb37
00000300: ba98 eeb8 5222 52b7 0c8b 8238 d03e d5b8
00000310: 803b 88bc 4ba0 c038 dd2e 87b5 cf4d 96b7
00000320: ca93 c438 67cb b8b8 5311 ae36 0f54 7b39
00000330: d263 1b3a cef5 89b9 7431 ddb8 2930 2eb9
00000340: 92a5 0fbd cf7e 2f3a d334 21bd 1575 1939
00000350: 68ce 99b9 9c48 f5b8 46b7 9038 8c8d d7b8
00000360: d0c8 f8b8 21fc d338 53ea 8eb2 b566 fc3a
00000370: 1fad b039 8120 073b ecde 5db9 c294 843c
00000380: 43e0 b0b9 5165 4dbb 76f7 7b38 74f0 4eb8
00000390: 1c71 bc36 f137 4d39 9e3a fe37 635b 123a
000003a0: 0bad 5cb7 b673 d139 26fb 7737 1d7a 8cb9
000003b0: 82ce 6db8 224b c1b8 24a2 d7b8 4614 f439
000003c0: 858e b2b9 688c dbbb 43cd 8eb6 7c14 f23c
000003d0: 7d44 f2bc 03cf dfb3 9f5b 1839 3fc5 38b8
000003e0: da3d dfb8 c6b9 41b8 7295 e5b9 7f19 ba37
000003f0: 01e5 8a39 2175 e938 7ff0 9c38 a22b 2138
-8.53216e-05 -0.00021263689 -0.00014965312 0.00036357046 -0.00024005497 -7.404547e-05 -7.192999e-05 1.317827e-07
-3.5228554e-06 -3.1408037e-10 0.0032202604 -1.1574041e-09 -1.7878103e-05 0.00042695226 -6.0103477e-05 -0.00015995304
7.147074e-05 0.0005842258 7.4833156e-06 1.4196333e-05 2.1406502e-05 0.00030928303 0.000602369 -1.2428192e-06
-0.00017552233 -4.1347394e-06 -6.2396675e-06 -5.492953e-06 -7.544175e-05 -0.0007914014 0.00064536894 -0.0004501761
-0.00049939007 0.00042686137 3.0909315e-09 0.0006444555 -0.00031862623 -2.599258e-05 -0.00013025287 0.0001998573
1.7189709e-07 -0.00044037835 0.000133171 3.55251e-05 -1.5508263e-06 2.806819e-05 -8.6108914e-05 0.00023817581
0.00028506294 -0.00068765716 -0.00012018444 -0.00026542737 1.1860555e-05 -0.00010327293 -4.4461737e-09 3.2336342e-05
-0.00022934163 3.3203821e-06 -0.00040720415 9.420936e-05 6.939353e-05 -1.3161007e-11 -0.0003404088 5.8222316e-09
0.00021789277 0.0003549464 1.9489981e-08 0.00056798087 -0.00019285503 3.8276258e-09 0.00019953524 -0.00029693378
-0.12336861 -1.9991223e-05 -9.8772475e-08 6.5976586e-08 2.8907863e-05 -0.0012106136 1.1060126e-05 0.0007509837
-7.6560566e-05 7.8239e-07 5.9048696e-05 -3.8312355e-05 6.48336e-05 -6.0551676e-05 -0.00014170058 0.023640899
0.0004794605 5.0039318e-05 -0.0001359982 0.00019907391 -0.00020554007 -0.012840146 4.701026e-05 2.733984e-05
0.00045010966 -6.949515e-05 0.00016319651 1.01735054e-07 0.00013873196 -0.0002502528 0.023766845 4.75024e-07
0.00040093533 0.00037117247 -0.00018207588 0.000118685515 -0.00010126672 -7.390954e-05 -0.00036523727 -0.00039227467
0.0005993288 -6.676523e-05 -2.5438152e-07 -0.0003918315 -0.00017127521 -1.3081566e-05 -0.00033645568 -9.605363e-05
-0.0003774936 -2.5915705e-08 0.00011661565 -9.619918e-10 3.7220798e-05 -0.00011619952 -0.027104842 -0.019177271
-2.7924455e-06 -6.633694e-05 0.00080565736 0.00015075471 4.4079025e-05 0.00026047535 -1.3201907e-06 -0.000129671
0.000290656 2.386308e-07 9.602602e-09 5.5733017e-05 -0.00010958264 -7.780821e-05 1.4964649e-05 -4.2263604e-05
-0.040567044 0.00035593967 -0.016730467 -0.00021253842 -0.00034945938 0.00019674114 -0.000501703 -0.00046949534
2.7271788e-05 7.139979e-05 0.0006621949 -8.632499e-05 -3.118189e-08 -4.558287e-06 -0.00069500203 -0.0012374106
-0.06688986 0.0011198898 -0.00028705184 -0.000111193614 -0.00010600167 -4.5262514e-08 0.00014557858 6.30509e-07
5.7806545e-05 -0.0007843163 4.1375247e-06 0.0007221152 -0.00013948773 0.0006879073 0.042843767 -0.00013690998
-0.00018777036 0.0006383275 0.00043603283 -4.0449868e-05 0.05514351 -1.210235e-05 0.0001436694 0.00054883
-4.9521004e-05 -0.00041241295 1.845024e-06 -8.3262e-05 -0.0004769955 8.088457e-05 -8.3321094e-05 3.0005061e-05
-0.00011377172 -1.2524966e-05 6.2247826e-05 -0.00010168331 -0.016629934 9.18513e-05 -1.0071923e-06 -1.7917626e-05
9.373536e-05 -8.81169e-05 5.187621e-06 0.0002396854 0.0005927655 -0.00026313815 -0.000105473126 -0.00016611874
-0.03507001 0.0006694616 -0.039357018 0.00014634833 -0.0002933622 -0.00011696035 6.9005924e-05 -0.00010278364
-0.00011862966 0.00010108227 -1.6637534e-08 0.0019256683 0.0003369832 0.002061874 -0.00021159247 0.016184215
-0.00033736424 -0.0031340907 6.007353e-05 -4.9338167e-05 5.6160043e-06 0.00019571163 3.0306455e-05 0.00055830757
-1.3153312e-05 0.00039949798 1.4780822e-05 -0.00026793862 -5.669753e-05 -9.216952e-05 -0.000102822 0.00046554412
-0.0003405699 -0.0067000873 -4.2558254e-06 0.029550783 -0.029573673 -1.0421902e-07 0.00014529981 -4.405272e-05
-0.000106449894 -4.61878e-05 -0.0004378963 2.21848e-05 0.00026492032 0.00011132123 7.4834556e-05 3.8426027e-05

tabnet.initial_splitter.shared.shared_layers.1.weight f4 [96, 48]
00000000: 6a24 8f3d 79fc 51bc 4295 00bd 8117 b3bc
00000010: 5ed8 1c3d 669f 57bc fea7 41bc e2b1 e4ba
00000020: 624c fa3c 4ed7 82bc 451e 76bb 3db1 443d
00000030: bc78 853d cefd b437 ff06 943c 9893 debc
00000040: 9b2d 0d3c 7062 873c 30f3 843d de66 a1bc
00000050: f923 353d 7440 9a3d 7b79 a73b d5b0 ebbd
00000060: 11e9 8139 f1a8 aab9 97a4 8539 04a5 5639
00000070: a185 88b9 3917 3639 ed8b ea37 8209 42b9
00000080: 2998 95b8 e750 2fb9 2a67 50b6 6960 e6ba
00000090: dff6 a339 e9fe 3439 32d3 df38 2b88 4039
000000a0: 5feb 19b8 26da 14ba 00e0 f237 43c5 85b8
000000b0: bfaf 183a 7aa5 9439 e7eb 10b9 775c 033a
000000c0: cc1b bbba 9fcd cb3e a29f 17bc bcf7 aebc
000000d0: 65da 07bd 1263 0a3b d21c 44bc 25d9 04bd
000000e0: 7c61 d53b 17b4 783d 1db2 8a3b 4c27 323c
000000f0: 5fd9 00bd 0a93 3d38 6ba9 00bd 184e 5f3c
00000100: 83f2 90bb 9c2d cdbc 5307 143d 5798 f9bb
00000110: 7384 92bc 5e2b a93d 64c6 61bc 91c8 e13c
00000120: 9a28 8cb8 7620 c339 35bd bc39 5901 72b9
00000130: c4f5 8f3a 4fa0 75b7 0cf6 9539 fd8f c9b8
00000140: 48c4 a339 470c 1338 513e 2739 ab50 39ba
00000150: 382b f637 83ee f039 731e e2b9 c98b 1cba
00000160: 4336 0e38 cdd1 e33b b7ca 5438 0c4d 98b8
00000170: 6034 9c3a bc2f 9bb8 d4c4 8d38 e77c ebb8
00000180: 9900 073c 8c42 23b7 cd2e 9f3e cf1a d13c
00000190: 752e 49bd ff46 4b3d ce49 4c3c 31af 94bc
000001a0: 9fd9 cab9 6931 7e3b 6b02 533c ccec fbbc
000001b0: b7b2 133a a077 5737 991d 203d 8cce 95bd
000001c0: 675f 3c3d 5d3f 713d 56ec 713d fe48 04bd
000001d0: d1a5 cbbc aee8 96bd 64b0 0d3d b9b6 27bc
000001e0: 3569 003b 62dc 8f3a acc7 a0ba b875 de39
000001f0: 629b d639 d30c 853a 4475 d239 0083 c839
00000200: 3839 1bbb f184 8f3a b9c8 06ba 7077 08bb
00000210: 67a9 16b9 ac8c ef3a d027 0039 2ed8 e7b9
00000220: d431 9d39 5b6a e13b d1b2 9c39 385b c7b8
00000230: a351 75b9 fa24 83b9 aa93 f5b9 ca51 5d3a
00000240: cce5 d8bc c276 f33b 0d7d 853d 0e4e ff3d
00000250: 1673 6f3d dd00 ea3a 6ab9 353c 46a9 b4bd
00000260: 1beb 36bd 3e71 4b3d 831e 42bd 8068 ccbd
00000270: e058 d7bd 3544 a6b7 eab8 42bc cc52 d03c
00000280: 6733 51bc 7683 4dbd 8433 97bd 1903 97bd
00000290: eddc 20bd 01d3 16bc f1bf 973d 8917 cf3c
000002a0: 7af9 6db8 19c9 2b39 702a 2ab9 dae6 4639
000002b0: 0d04 1f3a 99db 0db6 70dc 0d39 8a53 ecb6
000002c0: 734f e0b8 ab20 8638 e19f a7b8 e9c0 f93a
000002d0: b524 40b7 5ea1 feba b968 003a 9e1c 8139
000002e0: 61a1 9937 a2e1 b3bb 5c86 6b37 d4f9 20b7
000002f0: f69b 7d37 9b4c 96b8 a1ef c938 fa17 efb9
00000300: 1925 0a3d e770 05bd 0dff 61bd 9eb6 c53b
00000310: 4946 9f3e 3323 7fbc ab76 a9bc 66a0 82bc
00000320: d771 9ebb 2992 80bc 18f9 abbc 0548 50bd
00000330: 9bb1 5fbc 33b0 02b9 e514 2cbb e34b 08bd
00000340: cf43 bc3a da9f 253c 118b 1f3d 56ab 12bd
00000350: 5382 b0bc 2f02 3fbd 9dd3 4e3c e7ae ebbc
00000360: 69ec 94bb b770 c5b9 b4d0 0cb9 5bce da3a
00000370: ff7e b0b9 7e64 b9ba 26e3 21bb 6e08 0ebb
00000380: 9f34 9a3a 7440 43ba d5c3 dc3a 23f4 ba3a
00000390: ebca bbb9 292b 843b 86f4 5539 36c3 f53a
000003a0: 646e 883a fddb 513c 1beb 2339 e535 64ba
000003b0: 0271 bb39 9d20 ea3a 11d3 623a a397 98ba
000003c0: c995 01bc 7ae8 33bd ee45 893d 11b1 a43c
000003d0: ed84 b8bd e613 a43e 22e0 ddbd 037c 57bd
000003e0: 2bcf ddbb e57d 0ebc 2044 a3bc 700d 1c3c
000003f0: afa1 29bd 2c09 56b8 0260 663c f58d 68bd
0.06989367 -0.012816542 -0.031392343 -0.021861793 0.03829228 -0.013160562 -0.011819838 -0.0017448033
0.030554 -0.015971806 -0.0037554663 0.04802059 0.06517169 2.157586e-05 0.018069742 -0.027169988
0.00861683 0.01652643 0.06491697 -0.019702371 0.04422376 0.07531825 0.005110917 -0.115083374
0.00024778445 -0.00032550798 0.00025490366 0.00020470103 -0.00026039503 0.00017365524 2.7960132e-05 -0.00018504824
-7.133216e-05 -0.00016719439 -3.1054465e-06 -0.001757634 0.00031273716 0.00017261099 0.00010672807 0.00018361273
-3.669725e-05 -0.00056782586 2.8952956e-05 -6.378677e-05 0.0005824528 0.0002835205 -0.0001382079 0.0005011032
-0.0014275252 0.39805314 -0.009254368 -0.021358363 -0.03316726 0.002111618 -0.011969762 -0.032433648
0.006511865 0.060718622 0.0042326585 0.010873627 -0.0314573 4.5198052e-05 -0.03141157 0.013629459
-0.004423441 -0.025046162 0.036139797 -0.0076170373 -0.017885422 0.08260225 -0.01378021 0.027561458
-6.683283e-05 0.00037217484 0.00035999125 -0.0002307942 0.0010983278 -1.4640463e-05 0.00028602814 -9.611247e-05
0.00031236024 3.5058965e-05 0.00015949576 -0.00070692104 2.934561e-05 0.00045954072 -0.00043128766 -0.00059717573
3.3905973e-05 0.0069525004 5.073353e-05 -7.262276e-05 0.0011917464 -7.399867e-05 6.760066e-05 -0.00011228938
0.008239889 -9.731051e-06 0.31090394 0.025525479 -0.04911657 0.049628254 0.012468768 -0.018149944
-0.00038690583 0.0038786775 0.012878994 -0.030752562 0.00056342356 1.2842851e-05 0.039090727 -0.07314786
0.04598942 0.05889832 0.05906328 -0.032296173 -0.02485934 -0.07368599 0.034592047 -0.010236436
0.0019593958 0.0010975713 -0.0012266538 0.00042430847 0.0004093303 0.0010150917 0.0004014169 0.00038244575
-0.0023685228 0.0010949654 -0.00051416043 -0.0020823143 -0.00014368222 0.0018276176 0.00012221863 -0.0004422082
0.00029982498 0.0068791336 0.00029887867 -9.50605e-05 -0.00023395433 -0.00025013817 -0.0004684006 0.00084426685
-0.026476763 0.0074299285 0.06517992 0.124660596 0.058459364 0.001785304 0.011091569 -0.08821349
-0.044657808 0.049668543 -0.04739238 -0.09980869 -0.105149984 -1.9820503e-05 -0.011884907 0.025430106
-0.012768603 -0.0501742 -0.07382873 -0.07373638 -0.03927319 -0.009205581 0.07409657 0.025279777
-5.6737546e-05 0.00016382746 -0.00016228273 0.0001896875 0.0006065972 -2.113846e-06 0.00013528927 -7.0430733e-06
-0.00010695951 6.395703e-05 -7.99296e-05 0.0019054684 -1.1452638e-05 -0.0019426753 0.00048984174 0.0002462612
1.831417e-05 -0.005489544 1.40383745e-05 -9.594911e-06 1.5116288e-05 -7.166826e-05 9.629061e-05 -0.00045603496
0.033726785 -0.032578375 -0.055174876 0.0060337326 0.3110831 -0.015572357 -0.020686468 -0.015945625
-0.004835348 -0.015694695 -0.0209928 -0.050849933 -0.013653184 -0.00012463405 -0.0026257571 -0.033275496
0.001436347 0.010108912 0.038950983 -0.03580793 -0.021546518 -0.04663294 0.012623695 -0.028769923
-0.004544784 -0.00037658747 -0.00013429188 0.0016693579 -0.00033663955 -0.0014144329 -0.0024702041 -0.0021672505
0.001176495 -0.0007448264 0.001684303 0.0014263432 -0.00035818605 0.0040334654 0.00020404355 0.0018750194
0.0010408876 0.012808797 0.00015632475 -0.00087055407 0.00035751617 0.0017862503 0.0008652667 -0.0011641871
-0.007909247 -0.04392288 0.06702791 0.020103963 -0.090097286 0.3204643 -0.108337656 -0.0526085
-0.006769081 -0.008697008 -0.019929945 0.009524688 -0.04141396 -5.1030118e-05 0.014060976 -0.056776006

tabnet.initial_splitter.shared.glu_layers.0.fc.weight f4 [96, 1038]
00000000: afee b2b8 48f7 5eb9 34ec 1cb9 9a9d be39
00000010: 44b7 7bb9 dc48 9bb8 1fd9 96b8 2780 0d34
00000020: 326a 6cb6 e2aa acaf 010b 533b 8912 9fb0
00000030: eff8 95b7 90d8 df39 9e17 7cb8 11b9 27b9
00000040: 90e2 9538 bb26 193a 3119 fb36 c92c 6e37
00000050: 1d92 b337 4427 a239 4de8 1d3a f1ce a6b5
00000060: 6b0c 38b9 24bd 8ab6 565e d1b6 1b50 b8b6
00000070: 7b36 9eb8 0d76 4fba fa2d 293a 9d05 ecb9
00000080: 80e9 02ba 5dcc df39 3e68 5431 adf0 283a
00000090: 4a0d a7b9 a40a dab7 7d94 08b9 c990 5139
000000a0: b692 3834 95e2 e6b9 d1a3 0b39 c900 1538
000000b0: fc25 d0b5 fb73 eb37 5f95 b4b8 d5be 7939
000000c0: 8074 9539 e443 34ba 880b fcb8 0f29 8bb9
000000d0: b2fc 4637 3b94 d8b8 f5c4 98b1 e2a0 0738
000000e0: 6d7b 70b9 bbd3 5e36 047e d5b9 4492 c538
000000f0: 5e87 9138 e887 67ad e578 b2b9 e40c c831
00000100: 257a 6439 1918 ba39 ec6a a732 8de4 143a
00000110: 2139 4ab9 2784 8331 553a 5139 c7ad 9bb9
00000120: afa8 fcbd d3b2 a7b7 be1c d4b3 03af 8d33
00000130: 2a7f f237 74ad 9eba e18e 3937 aadd 443a
00000140: 248f a0b8 6e05 5235 0eab 7738 94b1 20b8
00000150: 46f7 8738 def8 7db8 7695 14b9 8faa c13c
00000160: 1960 fb39 4fe1 5138 bd9a 0eb9 7fbe 5039
00000170: 3e86 57b9 7a5f 52bc e22c 4538 dc57 e537
00000180: b2fc eb39 edbd 91b8 bb1f 2b39 7079 da33
00000190: 9478 1139 5d34 83b9 b0b2 c23c cd06 ff34
000001a0: a134 d239 ed99 c239 9feb 3eb9 cde6 f838
000001b0: 285f d4b8 e2ff 9ab8 517d bfb9 37aa cdb9
000001c0: 461c 1d3a 4f04 8cb8 ee91 88b4 bc6e cdb9
000001d0: 5798 33b9 e678 5bb7 5166 b0b9 6670 c9b8
000001e0: 55ea c5b9 3d9d deb2 8d8f f438 1437 84b0
000001f0: 871d 1c38 24b0 f3b8 f90a debc a719 9dbc
00000200: d965 3bb6 601e 8bb8 c032 533a e913 1e39
00000210: 7ee1 3838 6990 8839 6831 b1b5 4bf8 07b9
00000220: 3063 9839 2b1d 8034 b1f8 2432 dfc2 6938
00000230: bbcf e5b8 f72c a3b8 ae10 7b37 3344 31b8
00000240: a129 26bd 6a9d ba39 550e 89bc d9dc 5eb9
00000250: a537 b7b9 4c4c 4e39 b884 03ba 9926 f6b9
00000260: b8c5 e437 78bc 9538 2697 2d3a 6009 b5b8
00000270: daec 05b3 63f3 98b6 cc30 36ba 9c30 a2ba
00000280: 8dfd 88bd 44c9 923a 727f 96b9 9e30 e9b8
00000290: 374d deb8 a966 42b3 74a6 1839 4040 2935
000002a0: 4e75 7238 939a 4dba 11d5 8a36 554c 3d3a
000002b0: 7443 12b9 ad54 343a f27c 2f3d 7e8f 0fb9
000002c0: 39e4 44b9 6f55 273a 569b e439 b7a8 29b8
000002d0: 29de 613d 330b 4bb7 f6a5 1639 5cdf 0f3a
000002e0: c6b4 4fb8 2139 d8b9 8ba2 f735 f29c aeb8
000002f0: 4115 fab9 93a0 a938 acbc aeb8 61b3 fb37
00000300: ba98 eeb8 5222 52b7 0c8b 8238 d03e d5b8
00000310: 803b 88bc 4ba0 c038 dd2e 87b5 cf4d 96b7
00000320: ca93 c438 67cb b8b8 5311 ae36 0f54 7b39
00000330: d263 1b3a cef5 89b9 7431 ddb8 2930 2eb9
00000340: 92a5 0fbd cf7e 2f3a d334 21bd 1575 1939
00000350: 68ce 99b9 9c48 f5b8 46b7 9038 8c8d d7b8
00000360: d0c8 f8b8 21fc d338 53ea 8eb2 b566 fc3a
00000370: 1fad b039 8120 073b ecde 5db9 c294 843c
00000380: 43e0 b0b9 5165 4dbb 76f7 7b38 74f0 4eb8
00000390: 1c71 bc36 f137 4d39 9e3a fe37 635b 123a
000003a0: 0bad 5cb7 b673 d139 26fb 7737 1d7a 8cb9
000003b0: 82ce 6db8 224b c1b8 24a2 d7b8 4614 f439
000003c0: 858e b2b9 688c dbbb 43cd 8eb6 7c14 f23c
000003d0: 7d44 f2bc 03cf dfb3 9f5b 1839 3fc5 38b8
000003e0: da3d dfb8 c6b9 41b8 7295 e5b9 7f19 ba37
000003f0: 01e5 8a39 2175 e938 7ff0 9c38 a22b 2138
-8.53216e-05 -0.00021263689 -0.00014965312 0.00036357046 -0.00024005497 -7.404547e-05 -7.192999e-05 1.317827e-07
-3.5228554e-06 -3.1408037e-10 0.0032202604 -1.1574041e-09 -1.7878103e-05 0.00042695226 -6.0103477e-05 -0.00015995304
7.147074e-05 0.0005842258 7.4833156e-06 1.4196333e-05 2.1406502e-05 0.00030928303 0.000602369 -1.2428192e-06
-0.00017552233 -4.1347394e-06 -6.2396675e-06 -5.492953e-06 -7.544175e-05 -0.0007914014 0.00064536894 -0.0004501761
-0.00049939007 0.00042686137 3.0909315e-09 0.0006444555 -0.00031862623 -2.599258e-05 -0.00013025287 0.0001998573
1.7189709e-07 -0.00044037835 0.000133171 3.55251e-05 -1.5508263e-06 2.806819e-05 -8.6108914e-05 0.00023817581
0.00028506294 -0.00068765716 -0.00012018444 -0.00026542737 1.1860555e-05 -0.00010327293 -4.4461737e-09 3.2336342e-05
-0.00022934163 3.3203821e-06 -0.00040720415 9.420936e-05 6.939353e-05 -1.3161007e-11 -0.0003404088 5.8222316e-09
0.00021789277 0.0003549464 1.9489981e-08 0.00056798087 -0.00019285503 3.8276258e-09 0.00019953524 -0.00029693378
-0.12336861 -1.9991223e-05 -9.8772475e-08 6.5976586e-08 2.8907863e-05 -0.0012106136 1.1060126e-05 0.0007509837
-7.6560566e-05 7.8239e-07 5.9048696e-05 -3.8312355e-05 6.48336e-05 -6.0551676e-05 -0.00014170058 0.023640899
0.0004794605 5.0039318e-05 -0.0001359982 0.00019907391 -0.00020554007 -0.012840146 4.701026e-05 2.733984e-05
0.00045010966 -6.949515e-05 0.00016319651 1.01735054e-07 0.00013873196 -0.0002502528 0.023766845 4.75024e-07
0.00040093533 0.00037117247 -0.00018207588 0.000118685515 -0.00010126672 -7.390954e-05 -0.00036523727 -0.00039227467
0.0005993288 -6.676523e-05 -2.5438152e-07 -0.0003918315 -0.00017127521 -1.3081566e-05 -0.00033645568 -9.605363e-05
-0.0003774936 -2.5915705e-08 0.00011661565 -9.619918e-10 3.7220798e-05 -0.00011619952 -0.027104842 -0.019177271
-2.7924455e-06 -6.633694e-05 0.00080565736 0.00015075471 4.4079025e-05 0.00026047535 -1.3201907e-06 -0.000129671
0.000290656 2.386308e-07 9.602602e-09 5.5733017e-05 -0.00010958264 -7.780821e-05 1.4964649e-05 -4.2263604e-05
-0.040567044 0.00035593967 -0.016730467 -0.00021253842 -0.00034945938 0.00019674114 -0.000501703 -0.00046949534
2.7271788e-05 7.139979e-05 0.0006621949 -8.632499e-05 -3.118189e-08 -4.558287e-06 -0.00069500203 -0.0012374106
-0.06688986 0.0011198898 -0.00028705184 -0.000111193614 -0.00010600167 -4.5262514e-08 0.00014557858 6.30509e-07
5.7806545e-05 -0.0007843163 4.1375247e-06 0.0007221152 -0.00013948773 0.0006879073 0.042843767 -0.00013690998
-0.00018777036 0.0006383275 0.00043603283 -4.0449868e-05 0.05514351 -1.210235e-05 0.0001436694 0.00054883
-4.9521004e-05 -0.00041241295 1.845024e-06 -8.3262e-05 -0.0004769955 8.088457e-05 -8.3321094e-05 3.0005061e-05
-0.00011377172 -1.2524966e-05 6.2247826e-05 -0.00010168331 -0.016629934 9.18513e-05 -1.0071923e-06 -1.7917626e-05
9.373536e-05 -8.81169e-05 5.187621e-06 0.0002396854 0.0005927655 -0.00026313815 -0.000105473126 -0.00016611874
-0.03507001 0.0006694616 -0.039357018 0.00014634833 -0.0002933622 -0.00011696035 6.9005924e-05 -0.00010278364
-0.00011862966 0.00010108227 -1.6637534e-08 0.0019256683 0.0003369832 0.002061874 -0.00021159247 0.016184215
-0.00033736424 -0.0031340907 6.007353e-05 -4.9338167e-05 5.6160043e-06 0.00019571163 3.0306455e-05 0.00055830757
-1.3153312e-05 0.00039949798 1.4780822e-05 -0.00026793862 -5.669753e-05 -9.216952e-05 -0.000102822 0.00046554412
-0.0003405699 -0.0067000873 -4.2558254e-06 0.029550783 -0.029573673 -1.0421902e-07 0.00014529981 -4.405272e-05
-0.000106449894 -4.61878e-05 -0.0004378963 2.21848e-05 0.00026492032 0.00011132123 7.4834556e-05 3.8426027e-05

tabnet.initial_splitter.shared.glu_layers.0.bn.bn.weight f4 [96]
00000000: e5da bc3c a836 c53b 6a8a 7d3d 0036 bcba
00000010: 844f e53d 754e 253c 4180 88bc c1f6 033d
00000020: 9e84 3c39 f682 ab3d 7c2d f03b 7517 503d
00000030: 9e7c e9bb 7282 8b3d 7c7b f23c ca53 923a
00000040: df9d a63b b3fb 5e3f 89b5 253e 368b 71ba
00000050: 4b5d 063c 385c f63b 3e2f 223e 6196 fd3c
00000060: fb36 da3e db6c b03e a8c1 f23e dd14 973e
00000070: 2361 b63e 33f9 163e 75b5 ba3e 312c 5e3e
00000080: e764 c43e 2712 d33e 212e be3e a4c9 e83e
00000090: ba59 ee3e 7264 ef3e 8cf1 b03e 4628 f43e
000000a0: 945b f73e ea2e d73e 69e9 c93e dc27 c93e
000000b0: 653e da3e eb7d ce3e fdd0 023f 62fc c83e
000000c0: 8af7 533a f7b5 10b7 d7c7 c93b 9c6c 1ab6
000000d0: 43be ef39 5a46 2eb9 26e6 3b3a 608a 8c3a
000000e0: a5b2 c3b5 7a8d fabb 3db2 b338 f917 1139
000000f0: edd5 31b8 2bc8 e5b8 f4c6 c738 2623 b538
00000100: 1f33 68b8 b16c ce3e a77b 7a3b 9b7a 17b8
00000110: c143 fb38 1d6c cf37 849f 983b 5ed1 89ba
00000120: b46d 40be 0b3f d23d a39f 913e e69c dbbd
00000130: 0909 fbbd 098c e8bd 925d 3f3e 2000 fdbd
00000140: c2c6 82ba 2ccf 893e 8883 2c3e 40be fd3b
00000150: b3b6 c93e 788a ad3e 0b86 433d 7ec8 c63e
00000160: 74d2 f93e ed26 be3e 490a 3a3e 430f 2ebe
00000170: 53d3 78bd 64ce 873e c198 313e 0a9e a03d
0.023053596 0.0060184784 0.06189958 -0.0014359355 0.11196807 0.010089506 -0.016662719 0.032217745
0.00017978481 0.08374588 0.007329641 0.05080362 -0.007125451 0.0681199 0.029599898 0.0011163887
0.0050847377 0.8710281 0.16182531 -0.00092141645 0.008200954 0.0075183176 0.15838334 0.030955495
0.42620072 0.3445805 0.47413373 0.29508105 0.35620984 0.147435 0.36466566 0.21696545
0.38358232 0.41224787 0.3714457 0.4546634 0.4655283 0.4675632 0.34559286 0.47686976
0.48312056 0.4202798 0.3943589 0.39288223 0.42625728 0.40330443 0.5110014 0.39255053
0.00080858974 -8.625436e-06 0.006157856 -2.3011007e-06 0.00045727388 -0.00016620141 0.00071677787 0.0010722391
-1.4580625e-06 -0.00764626 8.5685846e-05 0.00013837208 -4.2399322e-05 -0.00010956855 9.526117e-05 8.6372995e-05
-5.536072e-05 0.403173 0.0038220675 -3.611539e-05 0.00011981233 2.4726667e-05 0.0046576876 -0.0010514667
-0.18791848 0.10265931 0.28442106 -0.107232854 -0.12257583 -0.113548346 0.18688038 -0.123535395
-0.0009977447 0.26915872 0.1684705 0.007743627 0.393972 0.33894706 0.047735255 0.38824838
0.48793375 0.37139073 0.18167986 -0.1699801 -0.06074841 0.2652465 0.17343427 0.078426436
