cv_steps/tabnet_raw_step1_fold2_5/network.pt (torch, 682315 bytes, 56 tensors)

embedder.embeddings.0.weight f4 [3, 1]
000000 c8 4c 80 bc 47 e4 10 3e 2e 99 ab bd
       -0.015661612 0.14149581 -0.08378826

embedder.embeddings.1.weight f4 [2, 1]
000000 b0 d8 39 3c 84 27 3b bc
       0.011343166 -0.0114229955

tabnet.initial_bn.weight f4 [1038]
000000 fc 5a 3d 3e d5 a5 0c be 90 8e 34 b9 50 53 9e 3d
       0.18491739 -0.13735135 -0.00017219246 0.07730734
000010 07 01 a1 bd f6 b5 db 3d b4 3b 9c 39 83 b9 e8 3c
       -0.07861524 0.10728066 0.0002979912 0.028408771
000020 7c 25 a0 3d a0 1b f2 37 c5 0b 9f 3e 46 2e 1d bb
       0.078196496 2.8861512e-05 0.31063667 -0.002398388
000030 0c 34 25 bc 7f 8c 1c 3e be 90 32 3e 0a f3 1b 3e
       -0.01008321 0.1528797 0.17438027 0.15229431
000040 42 de 4e 3e 45 15 eb 3d 0a 59 13 bc f0 53 8e b5
       0.20201972 0.11478666 -0.008993397 -1.0604253e-06
000050 d1 71 a5 3d 71 f1 84 3d d9 2d a2 3e 8d 9b d6 3b
       0.080783494 0.06491364 0.31675604 0.006549305
000060 8a a4 9a 3d d5 22 7f 3d a9 3c bc 3d 8f 62 09 3e
       0.075509146 0.062289078 0.091912575 0.13416503
000070 c6 4f 03 3e 12 0b 74 3e 2a 23 6e 3e 8a a9 21 3e
       0.128234 0.23832348 0.23255602 0.1578733
000080 ca bb 25 3e cf f7 d3 3b 63 94 9e 3c e7 3d 1c 3e
       0.16184917 0.00646875 0.019357866 0.15257989
000090 66 b1 75 3e cb 47 69 3d c5 c9 60 3e 51 44 10 3e
       0.23993453 0.056953233 0.21951969 0.1408856
0000a0 1c 8d 57 3d ae 7d 45 3e 3f 66 17 ba b1 80 2c 3e
       0.052624807 0.19286224 -0.0005775429 0.16845967
0000b0 56 68 02 3c 09 62 9f b9 f6 81 ac 3d 63 44 df 3d
       0.007959446 -0.00030399885 0.084232256 0.109017156
0000c0 b0 04 b2 3d 19 62 6d 3e 07 8d 06 3e 98 a6 33 3d
       0.086923 0.23181953 0.13139735 0.043860048
0000d0 ab ed bd 3b 7f b9 32 3e c8 cf 9c 3b be ea f9 3c
       0.0057961545 0.17453574 0.0047855116 0.030507442
0000e0 44 e6 39 3e e1 9e f4 3d a8 aa e4 3d 3c ee 01 3e
       0.18154246 0.11944366 0.111653626 0.12688535
0000f0 18 5c 0a 3e 3c 53 b9 38 35 68 13 3e ab 25 00 36
       0.13511693 8.836991e-05 0.1439522 1.9095412e-06
000100 ab 17 6d 3e 55 6c 2d 3e 3b fe 5f 3c 5c f4 0a 3e
       0.2315356 0.16935857 0.013671453 0.13569778
000110 3b 3a a1 3b 45 e3 18 3e bd 49 5e 3e 9f 98 36 3e
       0.0049202717 0.14930446 0.21707816 0.17831658
000120 52 41 6e 3d a2 63 b1 3d d3 31 63 3d 8f 2a 57 3a
       0.058167763 0.086615816 0.055467438 0.0008207941
000130 a1 c7 15 bd 9d 79 aa 3e a8 b5 5d 39 07 65 45 3e
       -0.036567334 0.3329591 0.00021143875 0.1927682
000140 41 58 fe 3d e0 58 f5 3c 03 c2 4c 34 dc 3f b5 3c
       0.12419177 0.029949605 1.9069562e-07 0.022125177
000150 27 70 0d ba 8c a2 54 bc c5 77 d4 3d d9 2b 0a 3e
       -0.0005395435 -0.012978207 0.10374407 0.13493289
000160 69 63 d5 3d f2 b4 82 bc cd 36 03 3e e1 04 b7 3d
       0.104193516 -0.015955422 0.12813874 0.089364775
000170 8c 3b 4b 3e 56 73 5f 3e 69 b1 04 3e aa 4c 1a 3e
       0.19846934 0.21821341 0.12958302 0.15068308
000180 a2 b0 11 3e 7e a2 f9 3d 6e eb 14 3e 2a 14 ec 39
       0.14227536 0.12189196 0.14542934 0.0004502845
000190 30 59 e6 3d 67 04 1a 3e 86 41 8b 3e 6a 71 92 3d
       0.1124748 0.15040742 0.27198428 0.07150538
0001a0 c8 49 6d 3e c1 5a 67 3e 9a 45 10 3e d5 9d f4 3d
       0.23172677 0.22593214 0.14089051 0.119441666
0001b0 2f 07 ea 3c 11 c4 03 3e 64 d4 98 3b 16 0b 49 3d
       0.028567879 0.12867762 0.004663991 0.049082838
0001c0 65 27 23 ba 0a 23 38 3d 17 75 92 3c b4 7b d7 3d
       -0.0006223827 0.04495529 0.017878098 0.105216414
0001d0 86 85 37 3e 57 15 dc 37 13 9f 4f 3e 42 e2 39 3e
       0.17922029 2.623598e-05 0.20275526 0.18152717
0001e0 04 70 10 3e 49 e6 ab 37 31 d3 05 3e 33 2c 30 bc
       0.1410523 2.0492023e-05 0.13068844 -0.010752725
0001f0 bc 1f 50 3e 13 2c 85 3e 2b d2 f4 3d 30 7f e4 3d
       0.20324606 0.26010188 0.11954149 0.111570716
000200 c4 be 0d 3b c4 98 1b 3e 05 0e 25 3e e0 d7 1d 3e
       0.0021628598 0.15194994 0.1611863 0.15414381
000210 75 40 2a 3e 33 75 4d 3e 29 5a d1 3d 4a bd 29 3e
       0.16626151 0.20064239 0.10222275 0.16576114
000220 41 b7 28 3e 13 24 fe 3d ba 59 bc 3d a1 28 d8 3d
       0.16476156 0.12409224 0.091968015 0.10554624
000230 06 d0 a9 3d 27 8b c0 3d e5 8f 2a 3e f8 48 eb 3d
       0.082916304 0.09401541 0.16656454 0.11488527
000240 de 12 fc 3d 23 f9 0a bd 8e d8 00 3e 51 0f 83 3d
       0.12308286 -0.033929 0.12582609 0.06399406
000250 cf 77 4f 3e 42 25 02 3e a0 f5 fd 3b 2d 29 4e 3e
       0.20260547 0.12709525 0.007750228 0.20132895
000260 f0 4f 92 bb 3f 83 c0 3d c9 45 06 3e 3f d3 8a 3d
       -0.0044650957 0.09400033 0.13112558 0.06778573
000270 ab ad 66 3d 17 3d b3 39 64 c4 43 3e 5d 99 ab 3e
       0.056317966 0.00034187056 0.19117886 0.33515444
000280 8e a3 b8 3e d6 6f c1 3d d8 57 c0 3d a2 a5 5d 3c
       0.36062282 0.09445159 0.09391755 0.0135282595
000290 02 12 4f 3e 10 6a ed 39 58 6e 86 3e 24 4b b3 3b
       0.20221713 0.00045283185 0.2625606 0.005471604
0002a0 cd 79 28 3e 53 46 80 3e ee 2c 2e 3e 22 ec 8b 3e
       0.16452713 0.25053653 0.17009327 0.27328593
0002b0 8a f7 58 3e 44 01 49 3a b0 8a 0c 3e 4f 41 1f 3e
       0.21188179 0.000766773 0.1372478 0.15552257
0002c0 a8 66 00 3d 7d 04 a3 3e 87 5d 08 3e 4e 26 a7 3b
       0.0313479 0.31839362 0.13316928 0.005101002
0002d0 f5 e5 94 3e be 8c 6a 3d 36 81 29 3e 29 69 ab 3d
       0.29081693 0.05726313 0.16553196 0.08369667
0002e0 e7 7d cb 3d b2 1e 18 3e 8c a9 89 3c d8 44 12 3e
       0.09936123 0.1485546 0.016804479 0.14284074
0002f0 c2 97 02 3e d9 40 83 3c 9b 0e 94 3d 51 4e 65 3d
       0.12753204 0.016022133 0.07229348 0.05598289
000300 42 6e 63 3e 77 4c 4d 3c 1d c9 55 3e 33 f2 c1 3d
       0.22210029 0.012530438 0.208775 0.09470024
000310 24 d7 d2 3d b1 f6 eb bb d0 e0 e4 b4 e5 5d 4e 3e
       0.10294941 -0.0072010388 -4.2631882e-07 0.20153005
000320 e2 a2 15 3e ee 4b 8f 3a 2a 67 96 b8 b1 a3 07 3a
       0.14612916 0.0010932663 -7.171773e-05 0.0005174233
000330 86 02 8a 3e 8a 73 67 3e 70 0f 9e 3d 90 c9 23 3e
       0.2695505 0.22602668 0.07717788 0.15994859
000340 ab 8b bd b8 9f 6e a2 3e 74 54 5b bd 4e 11 08 3e
       -9.0382375e-05 0.31725022 -0.053547338 0.13287851
000350 bb 6a 4c 3e 47 64 c2 3d c2 9a a1 3d 24 5e 76 3d
       0.1996259 0.09491783 0.07890846 0.060148373
000360 37 36 de 3b 0d 86 1f 3e f2 2d d2 3d ed eb 9c 3e
       0.0067813653 0.1557848 0.102626696 0.30648747
000370 80 2e d6 3d 55 a8 98 3d 2c f1 e3 3a ee 28 6e 3e
       0.10458088 0.07453982 0.00173906 0.23257801
000380 c5 93 e1 3d b3 d9 75 bc 4a d3 68 3b 87 d9 03 3d
       0.11014513 -0.015005517 0.0035526329 0.032189872
000390 76 b4 8d 3d 57 0e 63 b8 e4 32 31 3c 55 c1 fa 3d
       0.06919186 -5.4134372e-05 0.010815356 0.122439064
0003a0 8e b2 b5 3d 35 c7 3f 3e 5a 7d d8 3d 22 7a 2b 3e
       0.08871947 0.18728335 0.10570784 0.16745809
0003b0 87 9c b5 3d 6f 5b 82 3e fa 59 a9 b8 69 f5 71 3e
       0.08867746 0.25460383 -8.0753074e-05 0.23628773
0003c0 e1 26 3f b8 e6 7b 82 3d c8 c2 5d 3d 95 2d 61 3e
       -4.5574157e-05 0.06371288 0.054140836 0.21990044
0003d0 9c 9d b9 3d 32 a8 83 3d 66 42 ee 3d 22 fa a3 39
       0.09063265 0.06428565 0.11633758 0.00031276146
0003e0 67 b4 a6 3d 1c 2c fd 3a 43 18 44 3e b5 34 e6 38
       0.08139878 0.0019315514 0.1914988 0.00010977072
0003f0 14 db 9b b8 b9 2c 15 3a 05 4b c2 3c bf aa c8 3c
       -7.4317824e-05 0.0005690563 0.023717413 0.02449548

tabnet.initial_bn.bias f4 [1038]
000000 82 11 35 39 c0 c6 6d b9 73 02 25 35 b2 f4 b7 38
       0.00017268027 -0.00022676121 6.1470854e-07 8.771698e-05
000010 7e b7 69 39 4d 8b d1 b8 70 1f ee b3 c8 3f 1b 38
       0.00022288968 -9.9918434e-05 -1.1088457e-07 3.701428e-05
000020 7c e8 f8 38 e9 1f d7 b2 11 d3 c9 39 99 e5 5e b5
       0.00011868865 -2.5043805e-08 0.00038494964 -8.3035553e-07
000030 c4 00 6b 36 c7 97 6c ba ab 55 87 39 23 17 1f b9
       3.5018174e-06 -0.0009025302 0.00025813034 -0.00015172041
000040 32 f6 36 39 99 e0 ed b8 68 69 6c b4 36 ce 23 33
       0.00017448587 -0.00011342875 -2.201756e-07 3.8138943e-08
000050 f6 c7 38 ba 68 2d 80 39 4d 3b 99 39 21 62 6e 38
       -0.00070488395 0.00024447893 0.00029226617 5.683501e-05
000060 52 80 b8 be 7a 8d c8 b9 86 ae d9 37 dc 44 17 3b
       -0.360354 -0.0003825238 2.5949685e-05 0.0023081815
000070 6c 2e ba 3e db b4 4c ba 4e e9 f9 39 da 1f fa be
       0.36363542 -0.0007808932 0.00047666806 -0.48852426
000080 a7 62 93 ba 03 44 1d b7 91 07 b3 37 62 42 27 ba
       -0.0011244611 -9.373764e-06 2.1341986e-05 -0.0006380436
000090 d1 7a 3d ba 7d ab 5f 38 3c 98 48 b9 56 23 5f 39
       -0.0007228079 5.3327054e-05 -0.00019130198 0.00021280101
0000a0 5b f5 a5 38 23 a3 46 39 e9 88 fc 36 02 ba e7 39
       7.913514e-05 0.00018943525 7.5261237e-06 0.0004419834
0000b0 d6 29 27 b8 64 17 f3 38 56 d7 18 b9 81 f7 bd 39
       -3.9854865e-05 0.000115915 -0.00014576068 0.00036233294
0000c0 a6 d1 e6 38 6c 9d bb 37 e9 9f d9 b7 b3 72 0d b7
       0.00011006305 2.2365442e-05 -2.594288e-05 -8.43096e-06
0000d0 9a 45 14 b4 d9 21 02 b9 bd c2 ac 38 12 07 0a bc
       -1.3808895e-07 -0.00012410375 8.237872e-05 -0.008424537
0000e0 1e 9e 4f b9 8d ac ca bb c0 76 aa b8 17 1a 3e 38
       -0.00019799962 -0.0061851204 -8.1283506e-05 4.5323828e-05
0000f0 02 9c 74 39 9a 49 9b 34 cf f2 02 bb 1b e1 f8 32
       0.00023327771 2.8924552e-07 -0.001998115 2.8973366e-08
000100 8b 42 1c ba 43 44 9e 38 07 46 9c b8 9e 5b ac b9
       -0.00059608434 7.546742e-05 -7.451703e-05 -0.00032874657
000110 7a 8b 1d b9 82 ba 35 ba 2d cb 82 b9 ba 23 f4 b9
       -0.00015024646 -0.0006932394 -0.0002494691 -0.00046565925
000120 59 1d 82 37 5f 56 89 39 89 02 91 be bc 86 48 b6
       1.5510874e-05 0.00026195028 -0.28322247 -2.9880748e-06
000130 6e e5 b5 37 08 9b 3b ba 72 29 51 34 60 6d 94 b9
       2.1683718e-05 -0.00071565853 1.947972e-07 -0.0002831025
000140 52 7a cd 38 3c 50 ec 38 7c 8c ab b0 90 8f 9c 38
       9.797946e-05 0.00011268302 -1.2481816e-09 7.4654e-05
000150 e3 97 22 36 ee ae 9a be 5b 6e 18 ba 4b f7 22 b9
       2.422829e-06 -0.30211586 -0.0005814784 -0.00015541648
000160 ea ea 61 b4 86 dd a8 b7 90 30 b2 b9 3d 46 66 b9
       -2.1040219e-07 -2.0130316e-05 -0.00033986988 -0.00021960675
000170 64 8d 2a ba 95 d6 a3 b9 49 28 6c 3b cc f2 b9 b7
       -0.0006506054 -0.0003124966 0.0036034754 -2.216678e-05
000180 fe 20 c9 ba 9b 3e 1c b9 94 72 cd 38 9f 4f 8d b3
       -0.0015344915 -0.00014900642 9.7965036e-05 -6.580307e-08
000190 9f f0 20 38 c7 0b 93 ba 47 d1 b8 ba 4a 0d 92 b9
       3.837107e-05 -0.001121872 -0.0014100455 -0.0002785719
0001a0 1d 01 fc 36 10 55 7c b9 6b c4 b7 b7 c7 84 87 b9
       7.510315e-06 -0.00024064281 -2.1906764e-05 -0.00025848133
0001b0 6c ef 8d b9 5d f9 26 b8 51 61 5b ba 2c e3 42 38
       -0.00027072 -3.980972e-05 -0.0008368688 4.6464775e-05
0001c0 1b bc 1b b3 ae 75 06 39 15 7c 9a b8 91 0d 81 3b
       -3.625983e-08 0.00012823075 -7.366404e-05 0.003938385
0001d0 86 1e 91 b8 0b 15 4d b7 74 a1 46 b9 44 c1 22 ba
       -6.919824e-05 -1.2223852e-05 -0.00018942897 -0.00062086084
0001e0 3d cc e2 37 3b 2f 22 b3 5a da bc ba 0b 17 6a 35
       2.7036405e-05 -3.776152e-08 -0.0014408336 8.7205325e-07
0001f0 58 29 b3 b9 a1 28 3f b9 3b c8 74 3a b7 c0 86 b6
       -0.00034172344 -0.00018230315 0.0009337698 -4.015946e-06
000200 ab 14 16 36 ca e3 61 39 c5 44 01 b9 ba 4f e3 38
       2.2363772e-06 0.0002154253 -0.00012328017 0.00010839054
000210 57 39 d5 3a 94 d9 18 38 e9 bb 08 3a 8d 6b 13 3a
       0.0016267699 3.644226e-05 0.0005215989 0.00056236313
000220 df 98 ee 3e f2 9f b8 38 fe 94 12 3a 26 66 83 39
       0.46601006 8.803596e-05 0.00055916596 0.00025062374
000230 23 1d aa 3a b9 ce e3 b9 dd 93 5d b9 c0 39 82 37
       0.0012978654 -0.00043450834 -0.00021131286 1.55241e-05
000240 32 6d b0 b9 ec 5b 35 b8 30 16 69 b8 88 a8 91 b8
       -0.00033650693 -4.323937e-05 -5.5572193e-05 -6.94553e-05
000250 cc fc 87 b9 c4 a6 37 b9 e3 33 74 b9 95 39 3b 3a
       -0.00025937555 -0.00017514365 -0.00023288983 0.0007142064
000260 33 69 b1 be e5 b4 4c 3a 83 69 95 3a 58 9f 0e 39
       -0.34650573 0.0007808938 0.0011399243 0.00013601535
000270 a3 8f 37 39 73 08 08 38 d7 4f af 39 8a d1 d7 b9
       0.00017505749 3.2432796e-05 0.00033438086 -0.00041164114
000280 2a 47 23 39 30 7d 31 b9 60 08 35 b8 4b cb 57 b6
       0.00015571402 -0.00016926671 -4.3161563e-05 -3.2155829e-06
000290 2d 46 01 ba b5 6a f3 35 41 10 65 3e ef 49 54 37
       -0.00049314165 1.8135967e-06 0.22369482 1.2653399e-05
0002a0 20 df 0b 3b b1 45 f7 b8 2f 9a a9 b9 87 e1 9b b9
       0.002134271 -0.00011790859 -0.00032349068 -0.00029731935
0002b0 80 ad 93 b9 95 3d e0 b5 26 b2 97 3e 6b d4 ce 38
       -0.00028167292 -1.6707223e-06 0.29628104 9.8624114e-05
0002c0 ba 9b a8 be 79 75 da b9 e2 be 25 b9 28 bf 8a b8
       -0.3293131 -0.00041667724 -0.00015806736 -6.6159584e-05
0002d0 c1 b7 51 3d 9b 92 89 b8 f4 32 31 b9 0a 8b b6 3a
       0.051200632 -6.5599765e-05 -0.00016899017 0.0013926935
0002e0 bf f4 e7 39 25 8c 37 bc 7a d1 83 b9 67 28 43 b9
       0.00044242103 -0.011202847 -0.0002514234 -0.000186117
0002f0 51 5c 75 b9 44 b0 0a b9 e7 11 87 b8 d1 f6 0b b8
       -0.00023399411 -0.0001322637 -6.440636e-05 -3.337005e-05
000300 2f 20 1e 3a 9d ca 30 b8 64 ba 7e be d1 b5 e0 38
       0.00060320174 -4.215037e-05 -0.2487579 0.00010715018
000310 41 26 30 be 8a cb 86 b7 c1 67 eb 33 0c 65 e1 38
       -0.17202093 -1.6068825e-05 1.0961913e-07 0.000107476575
000320 e0 50 87 b9 96 a3 33 b5 ab 2a 48 b4 3c 5d b6 b7
       -0.00025809463 -6.6920745e-07 -1.8641974e-07 -2.1739506e-05
000330 41 aa 0c 3b 68 b0 19 b8 5d fb 20 b9 bf 68 8a ba
       0.0021463784 -3.6642334e-05 -0.00015352429 -0.0010559781
000340 8e e9 f1 b3 81 60 46 3a b7 80 a5 3e 77 ba 2e 3a
       -1.12649204e-07 0.0007567481 0.32324764 0.00066653587
000350 d3 5d 31 bc b9 32 2f b8 3d 68 f2 b7 b8 51 c4 37
       -0.010825592 -4.177049e-05 -2.8897188e-05 2.3403074e-05
000360 7a 03 b3 38 87 54 03 b7 86 48 99 39 f1 76 fc ba
       8.536033e-05 -7.827889e-06 0.00029236468 -0.0019261522
000370 06 ef c1 3a 8d bf 78 b9 79 18 3a 39 fc 58 09 3c
       0.0014795966 -0.00023722481 0.00017747459 0.008383032
000380 f5 9f eb b8 57 4d 0b ba 3d 14 8d b5 8e 76 b8 3e
       -0.000112354675 -0.0005313954 -1.0511209e-06 0.3602795
000390 c2 54 d9 b7 d2 aa 8d b5 8a eb 2f b7 29 ac 9d b9
       -2.5907884e-05 -1.0555034e-06 -1.0485654e-05 -0.00030073643
0003a0 83 7f 8d 38 2a 6e 60 3a d9 18 4b 36 3c d9 20 b9
       6.747155e-05 0.00085613376 3.026382e-06 -0.00015339715
0003b0 db 08 a2 38 64 26 08 bc b9 2f 96 33 3a 2d ee bc
       7.7264114e-05 -0.008309934 6.9936e-08 -0.0290743
0003c0 43 a7 b2 32 e8 e9 0d b9 19 b9 f9 b7 f1 b6 9f b8
       2.0797989e-08 -0.00013533945 -2.9769306e-05 -7.615786e-05
0003d0 5b 5c a6 38 1b 72 9b be 11 56 6b 38 9c 94 6e 35
       7.9326994e-05 -0.30360493 5.610852e-05 8.8878164e-07
0003e0 ac 5d 15 39 12 88 d9 37 a1 6d 7a b9 74 5d 8f b5
       0.00014244643 2.5931779e-05 -0.00023882698 -1.0681529e-06
0003f0 f3 12 ce b3 5b 4e be b5 63 02 64 b7 30 ab 9e b9
       -9.5960694e-08 -1.4178908e-06 -1.3590415e-05 -0.00030263653

tabnet.initial_bn.running_mean f4 [1038]
000000 ee 7f e6 ba 27 5b 2a 3a 28 19 36 39 0d eb 54 bb
       -0.0017585733 0.0006498568 0.00017366244 -0.0032488734
000010 f9 0c 03 bb 6d 9c e2 3a 53 15 b6 39 37 ae d1 3b
       -0.0019996746 0.001728905 0.00034729633 0.006398942
000020 55 b3 06 3a 10 8b 40 bb 18 b4 96 bc cd d2 73 3b
       0.0005138417 -0.0029379763 -0.018396422 0.0037204504
000030 dd f7 90 bb 1f 11 36 bb 44 c3 88 bb 71 5b 0a 3c
       -0.004424079 -0.00277812 -0.004173668 0.008444653
000040 92 fd 12 bb 6a 5f 76 ba 6e f0 2d 3a 52 9a 8c bb
       -0.0022428972 -0.0009398373 0.0006635253 -0.0042908574
000050 61 1e 77 3b 41 ab 16 3a 8f a3 01 39 62 9b 85 bb
       0.0037707316 0.0005747565 0.00012363329 -0.004077361
000060 8c 8c 04 b8 0a ae c7 3a c0 29 9c bb 9e c5 d0 3a
       -3.1602147e-05 0.0015234363 -0.004765719 0.0015928035
000070 c2 ce 36 bb d8 e7 f0 bb 3d f7 5a bb 0c a0 99 37
       -0.0027894233 -0.0073518567 -0.0033411526 1.8313549e-05
000080 09 b1 be ba 8d 68 23 3c fc 7e 05 bb be d2 1d 3b
       -0.001454861 0.009973657 -0.0020369878 0.002408191
000090 01 52 13 3b 57 9a bf ba 75 7a a0 bb 30 53 2c bd
       0.0022479298 -0.001461814 -0.0048974105 -0.04207152
0000a0 1b 56 fc 3c 9f 6d 4d 3b 27 74 ab bb 28 ce a9 bb
       0.030802777 0.0031345857 -0.0052323523 -0.0051820464
0000b0 d0 53 c5 ba 0c 5f 94 bb 57 de 10 3b 5e c3 37 3b
       -0.0015054885 -0.004527932 0.002210518 0.0028040032
0000c0 d1 de 95 3b 20 c9 f8 3a 10 33 91 3b e5 d4 b8 ba
       0.004573681 0.0018980838 0.004431136 -0.0014101533
0000d0 0f 5c 4e bd 43 0e 9f 3b c6 73 35 3a 28 1e e6 3a
       -0.050380763 0.004853995 0.00069218536 0.0017556595
0000e0 dc 9d b4 3b b8 0b aa bb da e5 1c bb e2 79 16 3b
       0.0055119824 -0.0051893853 -0.0023940713 0.0022960831
0000f0 9b 47 ca bc 35 49 e4 bb 03 91 8d 38 89 67 2e bb
       -0.024692347 -0.006966735 6.7504145e-05 -0.0026612005
000100 bc 66 63 bc c5 30 63 bc d7 80 18 bb 14 dd c4 ba
       -0.013879474 -0.013866608 -0.0023270154 -0.00150195
000110 33 3b 66 3b 93 47 75 bd 19 96 10 3b c1 7e 64 3b
       0.00351305 -0.05988271 0.0022062121 0.003486559
000120 b3 ec 86 ba 01 0c ba 3b 1f bf b1 bc 17 bb da ba
       -0.001029393 0.0056777005 -0.021697579 -0.0016687837
000130 6d d3 3c 3c 6a 31 36 bd ad a4 90 3b 8f f1 b0 bb
       0.011525017 -0.04448072 0.004414162 -0.00539989
000140 12 38 d5 3b 61 fb 38 bb c2 23 85 bb de 7f 72 ba
       0.0065069282 -0.0028226005 -0.0040631006 -0.0009250621
000150 2f d9 c1 3a ab 95 2a ba 75 7a 10 bb 2a 09 1e ba
       0.0014789457 -0.00065072876 -0.0022045646 -0.0006028587
000160 c3 c1 4e 3c 34 44 d7 39 e3 b0 c2 3b bb 56 b7 38
       0.012619439 0.0004105881 0.0059414967 8.742275e-05
000170 7e 33 96 3a d0 97 2d 3b 6b b5 9b bb f2 43 1b 3b
       0.0011459438 0.0026488192 -0.0047518513 0.0023691622
000180 07 1d 84 3a f5 f4 bf 3b 15 37 18 bb 4d 8e 6a 3c
       0.0010079452 0.0058580586 -0.002322619 0.014316154
000190 ce c1 a7 bb 2e 22 8a 3b 19 c3 5a 3c b0 86 29 bc
       -0.005119539 0.0042155003 0.013352179 -0.010347053
0001a0 b6 59 6b 3b e6 43 82 3b 30 18 d1 3a 02 2f 18 3b
       0.0035911626 0.0039753793 0.0015952643 0.0023221378
0001b0 85 b7 59 3c 4f 73 e9 b8 17 2a 97 3b ff 31 e5 bb
       0.013288383 -0.00011131784 0.004613172 -0.0069944854
0001c0 c9 63 88 3b ec 2a 7c 3b a6 ff 95 ba 47 b8 91 bc
       0.004162286 0.0038477732 -0.0011443987 -0.017788066
0001d0 0e b2 2b 3b 6e 3d 10 bb 9e af ab 3b d3 24 66 bb
       0.0026198658 -0.0022009271 0.005239441 -0.0035117164
0001e0 59 7c 15 3b 02 e3 28 ba 32 b4 d7 ba 1d 21 7c bb
       0.0022809713 -0.0006442518 -0.0016456901 -0.0038471885
0001f0 46 0b 19 ba da 99 e1 3c f1 7e 62 3a c4 6c 32 bb
       -0.00058381667 0.027539182 0.00086401316 -0.0027225474
000200 61 d9 b7 3b ed 07 85 3b 4b c0 93 bc bd 2d 70 b9
       0.0056106304 0.0040597827 -0.018036028 -0.00022905222
000210 16 33 d3 3b b1 93 03 3d c2 ba 0c 3c 6b 00 d9 39
       0.006445299 0.03212327 0.008589448 0.00041389777
000220 31 c6 11 39 ac fa 30 39 9c 2e 38 3b 7b b4 61 bb
       0.0001390211 0.0001687805 0.0028103953 -0.003443985
000230 29 f6 bb 3b 0f 71 80 3b ab d6 ed ba 00 19 36 bb
       0.0057361317 0.0039197276 -0.0018145641 -0.0027785897
000240 80 3f b4 3b b9 12 8a bb 8a 9c 0d 3c 34 f4 63 3b
       0.005500734 -0.0042136577 0.008643279 0.0034783008
000250 18 7d 87 3a f8 e5 48 3c 55 f8 11 3a 49 80 8f 39
       0.0010336963 0.01226186 0.00055683154 0.00027370665
000260 a1 b8 6e 3b 15 28 01 bb e8 c2 ae bb f3 3a 80 bb
       0.0036425965 -0.0019707729 -0.005333293 -0.0039132773
000270 2f 05 a2 bb 87 5a f9 3b 2f 23 3e 3a b7 42 a4 3a
       -0.0049444656 0.0076096687 0.00072531676 0.001253209
000280 ed 16 b7 3c 2c 2a c0 3b 34 3e a8 bb a8 de cc b9
       0.022349799 0.0058644023 -0.0051343683 -0.00039075804
000290 8e 96 8a 3b f1 9e 6f 3c 49 12 17 3c 96 5a a9 ba
       0.0042293733 0.014625297 0.009220668 -0.0012920673
0002a0 76 a6 2d b8 11 91 b5 3a 01 30 96 39 cf 8b ab bb
       -4.1401443e-05 0.0013852437 0.00028645995 -0.0052351723
0002b0 4e 27 ed 3b 0c b8 e5 b9 f4 96 95 ba dd fb 19 bb
       0.0072373515 -0.0004381541 -0.0011412785 -0.002349607
0002c0 06 11 43 3b a7 e4 e7 bb a8 a6 79 ba 07 c7 c5 3b
       0.0029764785 -0.007076818 -0.000952343 0.006035689
0002d0 6f 45 d1 bb 13 af 89 39 37 20 69 39 67 16 6d 3a
       -0.006386451 0.00026261117 0.00022232613 0.0009044171
0002e0 67 dc 12 bb d8 f7 50 bb f7 d6 32 3b 7a 73 ad bc
       -0.0022409202 -0.0031886008 0.0027288774 -0.021173228
0002f0 09 93 92 3b 3f b6 59 ba 6d 46 b8 3b 7b bc 9d ba
       0.0044730944 -0.000830505 0.00562363 -0.0012034321
000300 43 8a e3 36 fe eb 6b b9 15 26 06 3c bb 14 03 3b
       6.781223e-06 -0.0002249926 0.00818779 0.002000137
000310 38 07 70 3a 23 90 9d bc 13 6c 64 bb 73 b5 a1 3b
       0.0009156349 -0.019233769 -0.0034854456 0.0049349605
000320 37 de be 39 ea 93 04 b9 c2 9a cb 3a 2f 1a 8e 3c
       0.00036405187 -0.00012643603 0.0015533792 0.01734647
000330 6c 1c b1 bc cd 4d 18 bb 6b e4 9f 3a 5f 0e a0 ba
       -0.021619998 -0.0023239732 0.0012198811 -0.0012211314
000340 2b 7c 27 bb d0 26 17 ba 66 9e 99 3c d4 3f 71 ba
       -0.0025556188 -0.00057659764 0.018752288 -0.00092029315
000350 e5 e2 c4 3b e2 00 1b bb b7 64 57 bb ea 4a fe 3b
       0.0060084932 -0.002365165 -0.0032866427 0.0077603953
000360 16 9c 01 bb 65 97 c3 3b e0 f4 0b bb 63 28 17 bb
       -0.0019776872 0.0059689754 -0.0021355674 -0.0023064844
000370 cc 31 98 bb 2c 24 17 b9 e5 d3 b4 3b eb 2f 11 bb
       -0.004644608 -0.00014413957 0.005518424 -0.0022153805
000380 62 12 13 3b 89 24 b3 3b 87 02 84 b8 ca f8 93 3b
       0.0022441377 0.005467002 -6.294721e-05 0.004515742
000390 14 a1 5e 3c f4 af 9f bb b4 40 90 bd 6d a3 f9 ba
       0.013588209 -0.00487327 -0.07043591 -0.0019045897
0003a0 54 3f af 3b 55 3d 3c bb ae f9 a3 3b a3 55 f9 3a
       0.0053481255 -0.002872308 0.0050041294 0.0019022714
0003b0 0d 7f 28 3b 70 67 f6 3a 2c 05 05 bb 65 a7 57 ba
       0.0025710494 0.0018799137 -0.0020297272 -0.0008226543
0003c0 98 51 41 3b 0a 69 12 bb a2 97 3e 3a 08 f6 2c 3a
       0.0029498097 -0.002234044 0.000727052 0.0006597941
0003d0 34 60 b9 ba a9 0d a8 3b 83 1e 03 3c 3b 55 ae 3b
       -0.0014143051 0.0051285815 0.00800288 0.005320219
0003e0 ac 74 1d 3b 87 e3 19 bb 25 ad d8 3c d4 08 49 39
       0.002402584 -0.0023481564 0.02644975 0.00019172142
0003f0 be eb 7d bc e2 be 8d 3b a8 2a 3a 3b d8 8b 89 3b
       -0.0154981 0.0043257335 0.0028406773 0.004197579

tabnet.initial_bn.running_var f4 [1038]
000000 51 b3 37 3c 2d 2e ee 3a da 1a 7d 3f 86 f0 77 3f
       0.011212186 0.001817172 0.988691 0.96851385
000010 e7 7e 77 3f e3 bf 79 3f f5 2e 7b 3f 06 7f 79 3f
       0.9667801 0.9755842 0.98118526 0.9745945
000020 ea c0 77 3f a2 0f 7a 3f 32 f8 89 3f b0 7b 78 3f
       0.9677874 0.97680104 1.0778868 0.9706373
000030 09 b3 78 3f ac 7c 7b 3f 50 b9 7a 3f 59 70 7e 3f
       0.97148186 0.9823711 0.97939014 0.9939018
000040 ec 0d 7b 3f 5d 33 76 3f 74 81 7c 3f a7 55 7a 3f
       0.9806812 0.96172124 0.9863503 0.97786945
000050 a4 ea 77 3f 07 a2 79 3f c7 38 7a 3f 9a e7 7a 3f
       0.9684241 0.9751286 0.97742885 0.98009646
000060 bb 07 79 3f c1 5f 78 3f f5 d2 7b 3f 9d 50 78 3f
       0.9727742 0.9702111 0.9836877 0.96998006
000070 49 6f 78 3f 49 bc 77 3f d2 b1 79 3f 9c 3c 7a 3f
       0.9704481 0.96771675 0.9753696 0.9774873
000080 54 98 7c 3f b8 a8 87 3f af df 77 3f 1c 44 7a 3f
       0.98669934 1.0598364 0.9682569 0.97760177
000090 d2 92 7b 3f 4e 03 79 3f 3d 7e 7e 3f c7 ad a4 3f
       0.98270905 0.9727067 0.99411374 1.2865533
0000a0 e9 25 99 3f 25 32 79 3f 65 70 80 3f 09 9e 7a 3f
       1.1964694 0.9734214 1.00343 0.9789739
0000b0 6b e4 79 3f 25 ac 7a 3f fa 87 7a 3f 19 86 79 3f
       0.97614163 0.9791892 0.97863734 0.9747024
0000c0 0e 09 82 3f 1d c8 78 3f db a8 7f 3f 58 ff 7a 3f
       1.0159013 0.9718035 0.9986703 0.98045874
0000d0 d5 3f aa 3f fd 68 78 3f 6e 19 79 3f ab 20 7c 3f
       1.330073 0.970352 0.9730443 0.9848735
0000e0 7d 7c 7b 3f 8e ec 7d 3f dc dc 7a 3f 2a a0 7e 3f
       0.9823683 0.9918908 0.97993255 0.9946314
0000f0 e3 a0 92 3f d5 a7 7b 3f 7d 11 78 3f f3 14 7b 3f
       1.1455349 0.98302966 0.96901685 0.9807884
000100 00 b7 84 3f bb d5 84 3f 88 bb 79 3f d9 74 7b 3f
       1.0368347 1.0377725 0.97551775 0.9822517
000110 f7 f7 77 3f a7 07 b1 3f b1 bd 79 3f a4 4b 77 3f
       0.9686274 1.383046 0.9755507 0.96599793
000120 51 9f 78 3f d1 49 78 3f 68 c2 8d 3f 13 8b 7a 3f
       0.971181 0.96987635 1.1074953 0.9786846
000130 5f 9e 85 3f 80 83 a9 3f 77 4d 79 3f 0c 4e 78 3f
       1.0438956 1.3243256 0.97383827 0.9699409
000140 51 94 78 3f 81 25 7a 3f a4 26 79 3f 88 2b 7b 3f
       0.9710131 0.97713476 0.97324586 0.981133
000150 61 f6 7a 3f 3c da 7b 3f 97 1b 7a 3f 52 56 78 3f
       0.98032194 0.98379874 0.9769835 0.97006714
000160 8b bb 82 3f cb 10 7a 3f 6d 18 7a 3f 4a 8a 79 3f
       1.0213484 0.97681874 0.9769352 0.9747664
000170 63 d4 7a 3f 54 2c 81 3f 11 c0 7b 3f f9 5f 79 3f
       0.97980326 1.0091653 0.98339945 0.9741207
000180 46 b8 78 3f 0e 6c 79 3f 24 9a 81 3f 8c ed 82 3f
       0.9715618 0.97430503 1.0125165 1.0228744
000190 00 10 80 3f 5f e5 77 3f 2a fe 8b 3f 12 36 79 3f
       1.0004883 0.9683437 1.093694 0.9734813
0001a0 5e 6d 7c 3f dc 36 79 3f 1d 15 79 3f 2a 46 78 3f
       0.9860438 0.97349334 0.9729784 0.9698206
0001b0 69 ea 7f 3f 51 84 7a 3f 0b 71 77 3f c0 ee 78 3f
       0.99967057 0.9785815 0.96656865 0.97239304
0001c0 da 4c 79 3f 8c 2c 7a 3f ee 5c 78 3f 75 78 8f 3f
       0.9738289 0.97724223 0.970168 1.1208636
0001d0 28 26 7a 3f b5 06 7a 3f 85 e9 7a 3f e0 44 7c 3f
       0.9771447 0.97666484 0.9801257 0.98542595
0001e0 fa 96 78 3f 89 41 79 3f 1e 93 77 3f e5 d3 80 3f
       0.9710537 0.97365624 0.9670886 1.0064665
0001f0 43 67 77 3f ed 91 95 3f b5 3a 77 3f cd 2d 79 3f
       0.9664194 1.1685158 0.96573955 0.9733551
000200 db c2 7c 3f b1 77 79 3f f6 83 8c 3f 91 9b 78 3f
       0.98734826 0.9744826 1.0977771 0.97112375
000210 18 d8 80 3f b0 01 98 3f a5 e7 7f 3f e6 3b 7d 3f
       1.0065947 1.1875515 0.99962837 0.9891952
000220 f3 c9 78 3f 74 fa 79 3f db 94 77 3f 23 b1 77 3f
       0.9718315 0.97647786 0.9671151 0.96754664
000230 e7 8b 7c 3f 20 fb 79 3f 42 67 7a 3f 03 3a 79 3f
       0.98650974 0.9764881 0.9781381 0.97354144
000240 c9 2d 7e 3f 00 a7 7a 3f fe 9c 81 3f 0f 93 79 3f
       0.9928861 0.9791107 1.0126035 0.9749002
000250 6e 65 7e 3f 81 d8 83 3f da 14 7d 3f 90 c2 78 3f
       0.9937352 1.0300447 0.9885994 0.9717188
000260 2a 8f 79 3f 4b 60 78 3f e3 77 81 3f 83 d4 78 3f
       0.97484076 0.9702193 1.0114712 0.9719927
000270 ff f3 79 3f 40 f8 80 3f 6c 3c 79 3f c9 b1 79 3f
       0.97637933 1.007576 0.9735782 0.97536904
000280 a5 57 92 3f ff 24 78 3f 22 6b 7c 3f 13 6a 78 3f
       1.1432997 0.9693145 0.9860097 0.97036856
000290 ec 40 78 3f ad 99 82 3f 36 60 80 3f 71 02 79 3f
       0.9697406 1.0203148 1.0029361 0.9726935
0002a0 03 10 7a 3f 37 d6 78 3f 25 c8 7a 3f e5 70 7a 3f
       0.9768068 0.97201866 0.97961646 0.97828513
0002b0 17 b6 84 3f 0e f6 7a 3f e1 70 7a 3f 4f 7b 79 3f
       1.036807 0.980317 0.9782849 0.9745378
0002c0 50 e2 78 3f 2d c1 79 3f 4c 21 78 3f 4e d3 7c 3f
       0.97220325 0.9756039 0.96925807 0.98759925
0002d0 c5 51 8b 3f 6b 15 78 3f b7 6a 77 3f 2d 0b 7d 3f
       1.0884329 0.9690768 0.9664721 0.9884518
0002e0 bd b3 79 3f c8 48 81 3f 23 3b 79 3f f4 21 90 3f
       0.97539884 1.0100336 0.9735586 1.1260362
0002f0 1f 5a 7d 3f 62 6b 79 3f 76 aa 77 3f b0 92 81 3f
       0.9896564 0.9742948 0.9674448 1.012289
000300 64 30 79 3f 17 22 78 3f aa 0b 77 3f 3a 5f 79 3f
       0.97339463 0.96927017 0.9650217 0.9741093
000310 f1 91 79 3f 32 02 8c 3f 09 01 7b 3f 7d 28 82 3f
       0.97488314 1.093817 0.98048455 1.0168606
000320 b1 fd 79 3f fb 21 79 3f 5c f1 79 3f fd 03 88 3f
       0.9765273 0.97317475 0.9763391 1.0626217
000330 9b fb 89 3f 12 8f 79 3f 37 f8 7b 3f 49 ce 76 3f
       1.0779909 0.9748393 0.9842562 0.96408516
000340 25 ad 77 3f 5d 63 78 3f 29 3e 89 3f 0e 98 7a 3f
       0.9674857 0.97026616 1.0722095 0.9788827
000350 6a b6 7a 3f 8d 6a 78 3f 8c 2d 7a 3f bb 93 7c 3f
       0.9793459 0.97037584 0.9772575 0.9866292
000360 c4 ea 7a 3f f8 01 81 3f 15 85 79 3f 6d fd 7a 3f
       0.98014474 1.0078726 0.9746869 0.9804295
000370 8d c7 77 3f c5 e5 78 3f 52 5b 7a 3f 0c d3 79 3f
       0.96788865 0.972256 0.97795594 0.97587657
000380 ce c1 77 3f 42 01 79 3f 03 60 78 3f 48 66 7a 3f
       0.967801 0.97267544 0.970215 0.9781232
000390 11 6e 84 3f 63 67 79 3f 91 06 bd 3f 35 78 7c 3f
       1.034609 0.9742338 1.4767629 0.9862092
0003a0 28 65 79 3f 3d 2a 7f 3f 38 52 7a 3f 69 de 77 3f
       0.9741998 0.99673826 0.97781706 0.96823746
0003b0 27 fe 7a 3f ef c9 7c 3f 32 ed 78 3f 86 c0 76 3f
       0.98044056 0.98745626 0.9723693 0.9638752
0003c0 0e 87 78 3f c8 bd 7b 3f e1 af 79 3f 62 5e 7a 3f
       0.9708108 0.9833646 0.97533995 0.97800267
0003d0 7b cd 79 3f 09 46 81 3f 39 61 7c 3f b1 96 7d 3f
       0.97579163 1.0099498 0.9858585 0.9905806
0003e0 45 40 79 3f 6a 47 79 3f 72 a2 93 3f 48 f4 7c 3f
       0.9736369 0.97374594 1.1533949 0.98810244
0003f0 10 a6 88 3f 19 33 81 3f 89 e9 77 3f 9a cf 77 3f
       1.0675678 1.0093719 0.9684072 0.9680115

tabnet.initial_splitter.shared.shared_layers.0.weight f4 [96, 1038]
000000 87 93 9a bb 20 b9 e5 3b f1 27 d1 37 ec 4b 3c 3c
       -0.0047172937 0.007010594 2.493334e-05 0.011492711
000010 aa b4 0c 3c ac 39 a0 3b d6 14 e7 b6 1d 44 67 3a
       0.008587996 0.0048896875 -6.886762e-06 0.00088221004
000020 0b da 7c ba f2 86 9a 35 2f a1 64 bb 5e d2 7a b8
       -0.0009645528 1.1513168e-06 -0.0034886112 -5.9800564e-05
000030 cb 94 83 39 69 89 35 3c 1e 94 9d bc 48 ea 19 3c
       0.00025097126 0.011080124 -0.019235667 0.009394236
000040 fa 07 e3 bb bb 54 01 bb 34 e9 39 39 01 b1 0a 35
       -0.006928441 -0.0019734341 0.0001772985 5.166658e-07
000050 d6 0d 66 3b ee d4 24 bb c3 65 bc bb c3 c3 38 bb
       0.0035103462 -0.002515133 -0.0057494356 -0.0028192855
000060 a3 22 a9 3d 1b 80 6b 3b f5 41 bc ba a5 2b 78 bb
       0.082585596 0.003593451 -0.0014362918 -0.003786781
000070 69 34 70 3d 72 dc 0b bc 7d fd bc bb 05 c4 5c be
       0.058643732 -0.008536445 -0.005767523 -0.2155915
000080 a8 bf 5a bc aa 1a d8 b8 03 16 61 b9 cc 55 b1 bc
       -0.0133513585 -0.00010304649 -0.00021465872 -0.021647356
000090 e9 b2 99 bc 6b db d0 3b 2b 44 b9 3b 43 cd d6 bb
       -0.018762069 0.006373813 0.005653878 -0.006555231
0000a0 3a bb a5 3a 9c 02 7e 3c b8 f0 50 b8 af ce 7b 3c
       0.0012644299 0.015503552 -4.981525e-05 0.015369101
0000b0 a5 bb 75 b9 b3 58 9e b9 6f d7 5b 3a 21 68 bf 3b
       -0.00023434924 -0.00030202194 0.0008386289 0.0058412706
0000c0 5a c7 2a 3c e5 24 b4 3c 23 04 b5 3c 27 00 e2 3a
       0.010423506 0.021990249 0.0220967 0.0017242477
0000d0 d3 d9 03 ba d0 aa 57 bb b3 f6 bc bb e0 95 1a 3b
       -0.0005029712 -0.0032908209 -0.0057667135 0.0023587868
0000e0 60 e9 3c 3d c2 cd 03 bb 30 04 8a bb 4d 78 e1 3b
       0.046121 -0.0020111655 -0.004211925 0.006880796
0000f0 e6 5a 95 bc 1a fb e5 b3 46 35 82 bb 15 7b 19 b5
       -0.01823182 -1.07093186e-07 -0.003973636 -5.717605e-07
000100 6b eb ad ba 05 33 88 ba 74 79 5c 3b b8 62 64 3b
       -0.0013269013 -0.0010391182 0.0033641728 0.003484888
000110 50 67 fb ba cd 40 2c bc 3f cc 04 bb 6a 93 9c 3c
       -0.001918057 -0.010513497 -0.0020263342 0.019113261
000120 bc bf ad ba 8a d0 d5 bc 28 67 88 3d fa 3c ea b7
       -0.0013255994 -0.026100416 0.066603005 -2.7923368e-05
000130 6d 14 c2 3a a0 75 49 3c b5 54 d3 b5 92 35 57 bc
       0.0014807113 0.01229611 -1.5745378e-06 -0.013135331
000140 94 e7 cc 3b 35 74 57 bb 3c 78 74 30 97 99 a3 b9
       0.006253192 -0.0032875661 8.8937546e-10 -0.00031204216
000150 de 5e 04 b8 cd 0e a5 bd 0b e0 12 3c 55 25 00 3c
       -3.1559604e-05 -0.08059464 0.008964549 0.007821401
000160 7c 4c ea 3b 64 91 d3 3b 4f 6a 71 b9 04 1c df bb
       0.007150231 0.006456541 -0.00023023154 -0.0068087596
000170 ef 39 8a 3b ea c8 9f bb ae d2 34 3b a1 2f b8 3b
       0.004218332 -0.0048762457 0.0027591395 0.005620912
000180 b6 9b 73 3c 3a 09 1d bb b0 28 ac bc 31 87 e4 37
       0.014868667 -0.0023961798 -0.021015495 2.7242671e-05
000190 ea 2e f6 bb f7 bf 4f bc 6e 41 6f bd 08 b8 7f 3b
       -0.007512917 -0.012680045 -0.058412008 0.0039019603
0001a0 fc fb fc bb 13 1d 11 ba a4 30 28 3c a9 d3 0a 3c
       -0.0077204686 -0.00055356434 0.010265503 0.008473315
0001b0 b2 2e 4e 3c 4f 38 9d bc f5 9b 0b 3b 18 78 03 3b
       0.012584375 -0.01919189 0.0021302674 0.0020060595
0001c0 c0 5e 75 b8 f9 dc 16 3b e3 d4 ed 39 99 e2 43 3b
       -5.8500795e-05 0.0023019894 0.00045362776 0.0029889701
0001d0 2a af 96 ba d2 1a dd 35 b6 0c b7 3c 58 7a c8 bb
       -0.0011496295 1.6473589e-06 0.022344928 -0.0061181
0001e0 7b eb 22 3b 04 5a f9 b5 79 53 0e 3c 06 8b a5 3a
       0.0024859596 -1.8578144e-06 0.008686894 0.0012629933
0001f0 49 9a f2 bc 68 53 56 3d 90 f4 a5 3b ba 3d 05 bb
       -0.029614585 0.052325636 0.0050645545 -0.0020330981
000200 c8 69 a1 39 82 e9 3a bb 0a 22 11 bb 40 b4 08 ba
       0.00030787126 -0.002852053 -0.0022145533 -0.00052148476
000210 95 2b ba ba 25 bc e7 3b 84 2d 89 3c 40 1c 59 bc
       -0.0014203662 0.007071989 0.016745336 -0.013251364
000220 44 1f 19 bc f3 35 ec 3b b4 e4 e5 3b cb 01 00 bc
       -0.009345833 0.0072085797 0.007015789 -0.0078129275
000230 ac ae a2 3b 92 ec 84 3a 57 d7 0e 3c 0b 05 4b bb
       0.00496467 0.0010141304 0.008718333 -0.0030978348
000240 9d 6b ba 3b 34 ae ee 3a 39 bd 82 3c d1 1d aa 39
       0.005689098 0.0018209876 0.015959369 0.00032447142
000250 e6 e4 e2 3b c9 2b f6 3b 72 05 8a bb c8 5e 39 3d
       0.0069242595 0.007512544 -0.004212075 0.045256406
000260 a2 ce 8f bd 34 c7 b3 3c 16 21 bc bc d8 81 85 3b
       -0.07021834 0.021945573 -0.022964995 0.0040743165
000270 33 18 b5 bb 69 c8 ca b4 9d c1 31 3b 6a be 19 3b
       -0.0055265664 -3.777125e-07 0.002712346 0.0023459443
000280 de 50 be bb 22 ee f3 bb 2c 7d 66 bb 97 ed b9 38
       -0.00580798 -0.007444159 -0.0035169823 8.865742e-05
000290 09 fc 8a bc c8 b8 f3 37 ff 8e 26 3d db 7b 89 b8
       -0.016965883 2.9053903e-05 0.040663715 -6.555739e-05
0002a0 49 e9 c1 3c ab f8 96 3c 2d c9 ae 3b b3 62 50 3c
       0.02367081 0.018429121 0.0053340406 0.012718844
0002b0 97 be 8a 3c 97 01 c4 38 0c b0 13 be a3 ac 05 bc
       0.016936583 9.3463044e-05 -0.14422625 -0.008158836
0002c0 c4 c9 c9 bd bf 2a 4e bc 05 be 8d 3b cf d4 8e 39
       -0.09852937 -0.012583434 0.0043256306 0.00027242905
0002d0 af 51 82 bd 9b b6 a8 ba 66 bf e9 bb f1 95 06 3c
       -0.06363236 -0.0012871803 -0.007133412 0.00821446
0002e0 7c dc b0 3a 40 e2 23 bc 75 40 cb bb ed d9 06 bb
       0.0013493444 -0.010002673 -0.0062027522 -0.0020576671
0002f0 b4 3e 85 bb e6 0d 43 bb 70 36 15 bc f2 05 9b 39
       -0.0040663127 -0.0029762923 -0.009107217 0.00029568333
000300 21 ca 8b bc 33 c0 02 3a c1 e4 82 3c 78 b3 92 3b
       -0.017064156 0.00049877464 0.015978219 0.0044769607
000310 28 ae 08 3e 97 c1 92 ba de 52 1d b2 85 cf ac 3b
       0.13347685 -0.001119661 -9.157445e-09 0.0052737617
000320 70 a4 09 bc 6e 65 c2 38 eb ef 9e b5 5f e3 93 b9
       -0.008401021 9.2695336e-05 -1.1841743e-06 -0.0002820743
000330 3b 28 fb bb 29 5b 81 3c 78 18 28 bc 4e 2b c9 bb
       -0.007664708 0.015790539 -0.01025974 -0.0061391955
000340 73 a5 77 36 99 8d 94 3c 73 65 22 3e ea ea 9c 3c
       3.6902172e-06 0.018133925 0.15859012 0.019154985
000350 dc 59 ef 3c 39 50 73 bb a8 0e f2 3b a8 0c 28 bb
       0.029217653 -0.0037126674 0.007387001 -0.002564231
000360 13 36 1f 39 90 8f 5e bc 59 7c 6a ba f0 bf aa bc
       0.00015183566 -0.013584033 -0.0008944921 -0.020843476
000370 90 2e 53 bb 2f 85 ae 3b 97 fe 36 bb 43 b5 d8 3c
       -0.0032223798 0.0053259353 -0.0027922743 0.02645362
000380 02 b5 0b bc d6 96 a3 b9 68 b6 75 ba 3e d9 8c 3e
       -0.008527042 -0.00031202164 -0.0009373189 0.27509493
000390 32 53 ad 3b d9 4a 4c b6 2b fc 05 bb a0 ed 68 3c
       0.0052894587 -3.0441936e-06 -0.0020444493 0.01421681
0003a0 da d1 15 ba 14 b3 a3 bc 8e 5d 41 3c c4 5d 81 b9
       -0.0005715169 -0.019982852 0.01180209 -0.00024674658
0003b0 5d 43 a8 3a a7 c1 1a 3e 41 96 b1 37 bc f1 8d 3c
       0.0012837459 0.15112935 2.1170012e-05 0.017327182
0003c0 61 90 2c 36 79 74 08 3c ac 4e 91 bb c0 49 54 3b
       2.5714037e-06 0.0083285505 -0.0044344272 0.0032392591
0003d0 fa b8 5c 3a 5f 1f d2 3d 4d f6 9e 3b bb c0 c6 b8
       0.00084198976 0.1025989 0.0048511387 -9.4772746e-05
0003e0 d3 58 bb 3b b7 8f f1 b9 59 a0 bf 3b bf 00 bd 38
       0.005717376 -0.00046074178 0.0058479724 9.012361e-05
0003f0 af 4e 0e 36 d6 74 cd b7 6e a4 0b bb a2 44 68 39
       2.1205449e-06 -2.449231e-05 -0.0021307725 0.00022150812

tabnet.initial_splitter.shared.shared_layers.1.weight f4 [96, 48]
000000 9a 03 8a 3e 1b 24 8d b9 bc f2 07 3d 88 65 be 3c
       0.26955873 -0.00026920516 0.033190474 0.023241773
000010 19 a1 5d bd c6 ae 6a 3d 0f a8 8f 3d 07 3e 85 3d
       -0.054108713 0.057295583 0.070144765 0.065059714
000020 50 ad 84 bc b5 70 5e 3d 78 41 1f bd da 66 63 bd
       -0.016195923 0.054306705 -0.038880795 -0.05551801
000030 15 de ad bd 91 ea b3 bc ef 3e e5 3c a7 7c 89 3c
       -0.084896244 -0.021962436 0.02798411 0.016783072
000040 63 4c a2 3d 69 e1 0e 3d b0 d1 94 bd 13 ac 44 bb
       0.07924726 0.034882937 -0.07266557 -0.003000979
000050 78 f1 66 bd 4c f1 4f 3d 3e ff 95 bd c4 9a fa 3c
       -0.056382626 0.050767228 -0.07324074 0.030591376
000060 bf 31 0b 3c f7 6a 09 3c 00 5e 8c bb 60 64 3b bb
       0.008495747 0.008387319 -0.0042836666 -0.0028593764
000070 46 fa 2a bb d0 2f a9 bb 52 b7 75 3c e6 6d a5 bc
       -0.0026089116 -0.0051631704 0.01499732 -0.020194005
000080 80 c7 8b 3a b6 b4 89 bc 78 77 3b bb 86 35 63 3c
       0.0010664314 -0.016809803 -0.0028605144 0.013867741
000090 8a 0a ea bc 0f 0e 7e 3a a6 a4 d9 3b f2 b1 11 3c
       -0.028569479 0.0009691426 0.006641942 0.008892523
0000a0 68 13 0d 3c 0b 1d b0 bc 6e f8 f6 bb 11 7e 4b 3c
       0.008610584 -0.021498224 -0.0075369393 0.012420193
0000b0 9b e6 e7 bb 0c 0c 86 3b 79 21 d0 bb 64 3f 8e bb
       -0.007077051 0.0040907916 -0.0063516465 -0.004341053
0000c0 52 d9 de bc f0 38 cf 3e 5e d2 1e bd e1 df 3e 3c
       -0.027203236 0.40473127 -0.03877484 0.011650057
0000d0 08 22 cf bd 15 dc 78 bd 6a 72 a5 bd 42 84 08 bd
       -0.10113913 -0.06075676 -0.080784634 -0.033329256
0000e0 15 a6 57 bd d8 c8 24 bd 77 98 98 bd 5c 11 93 bd
       -0.052648623 -0.040230602 -0.07450955 -0.071810454
0000f0 d1 59 6a bd 13 81 4b bb 10 e0 05 3c 95 4c 02 3c
       -0.05721456 -0.0031052276 0.008171096 0.007952829
000100 fa 10 e2 bc 6e 43 89 bd f5 b1 b6 3d e8 53 e3 bd
       -0.027595986 -0.06702314 0.08920661 -0.11099988
000110 46 f1 34 3c 88 15 9e bd 3a 4a 9a 3c c4 15 67 3b
       0.011043852 -0.077189505 0.018834222 0.0035260776
000120 ad 98 f7 3b 87 c4 7b bb 7e d0 04 39 51 ca 8a 3a
       0.007556042 -0.00384167 0.0001266617 0.001058886
000130 c2 70 3f ba 29 64 02 bb c9 5c 6c 3b 5a 38 db bb
       -0.0007302874 -0.0019896126 0.0036066046 -0.0066900672
000140 2a 0b 05 ba 84 d4 f4 3b c3 12 8b 3a c5 a3 4d 3c
       -0.0005075211 0.007471623 0.001061045 0.012551253
000150 e2 11 94 3a 06 56 91 3b ef 91 9a bc 37 66 8a 3b
       0.0011296833 0.0044353036 -0.018868415 0.0042236107
000160 ce 9c 06 bc f0 18 32 bc 19 21 5d ba 88 19 24 bb
       -0.008216096 -0.010870203 -0.0008435413 -0.0025039632
000170 9f b0 4a 39 78 4b 0e ba bb 89 d6 b8 48 94 a5 bb
       0.00019330018 -0.0005428116 -0.000102299695 -0.005053077
000180 95 4c 10 3d 6e 0f 49 bd 78 56 08 3e ef 05 b1 bc
       0.035229284 -0.04908698 0.13314235 -0.021609275
000190 03 7b 4f bd 88 b6 0c be e4 3f d3 bc fb 05 27 bd
       -0.050654422 -0.13741505 -0.025787301 -0.040777188
0001a0 b5 ce 7a bd ef bc 66 bc ec 51 75 bd 45 6f 31 bb
       -0.061232287 -0.014083131 -0.05989258 -0.0027074378
0001b0 bc 38 0c 3d 66 5e e3 3c fe 6d eb bc b0 dd 61 bd
       0.034233794 0.027754974 -0.028738972 -0.05514306
0001c0 94 96 11 be 22 32 dd bc 42 df 3e bd fa 07 79 3d
       -0.14217597 -0.027001444 -0.046599634 0.060798623
0001d0 86 09 a2 bd 8a 0b 87 3c 16 20 8c bd f7 74 a4 bc
       -0.07911973 0.016484994 -0.068420574 -0.020075304
0001e0 79 0f 75 ba af 67 12 39 09 ae 3a b7 c6 24 f9 39
       -0.0009348314 0.0001396227 -1.1126985e-05 0.0004752038
0001f0 56 43 f7 3b dc 19 27 3b 56 8e 9a bb 13 f2 0f bb
       0.007545869 0.002549759 -0.004716675 -0.0021964356
000200 44 7d 56 bb 28 bb ab 3b 8e 19 50 3a 58 68 57 3c
       -0.0032728473 0.0052408166 0.0007938378 0.013147436
000210 70 d4 33 39 3a e9 0a bc 00 2d dc 3a fa b6 29 3b
       0.0001714991 -0.008478457 0.0016798079 0.0025896416
000220 30 e8 1f bc ed 67 17 3d 1b 98 f2 ba 48 c6 1e bb
       -0.009759948 0.036964346 -0.0018508466 -0.0024227072
000230 41 78 d0 39 58 14 76 b9 b8 95 f7 39 f3 e0 5a 3b
       0.00039762448 -0.00023467967 0.0004722306 0.003339824
000240 7d 62 29 bb 5a 7e 96 bd 38 44 d1 3b 3c 63 67 3c
       -0.0025846057 -0.073483184 0.006386306 0.01412278
000250 1f b6 b2 bc ab 73 0a bd 99 8b 50 bd ad 78 ef bc
       -0.021815358 -0.033801716 -0.05091438 -0.029232347
000260 43 a9 58 bd 48 21 80 bd b7 83 b5 bd 16 f7 99 bd
       -0.052895796 -0.06256348 -0.08863013 -0.07517831
000270 53 84 a7 bd eb f9 d6 bb a6 7c d2 bb e9 01 e8 bc
       -0.08179536 -0.0065605543 -0.0064235507 -0.028321223
000280 cf 71 84 bd 3c d2 b0 bd e7 41 98 bc 9a c3 7a bd
       -0.0646702 -0.08633849 -0.018586112 -0.061221696
000290 5f 48 01 3b 99 b6 b2 bc 9e 37 51 3d d0 95 73 bd
       0.0019726974 -0.021815585 0.05107843 -0.059469044
0002a0 57 36 1f 3c 76 a8 bb 3a 71 ae 24 3b 95 1d 8e 3b
       0.0097175455 0.0014317173 0.002512839 0.0043370225
0002b0 8e 03 24 3b c3 51 70 bc e9 93 33 bc c2 97 81 3c
       0.0025026533 -0.014667931 -0.0109605575 0.015819434
0002c0 ef 85 79 3a d9 d3 7e 3b 95 80 1d 3c 71 43 37 bc
       0.0009518554 0.0038883595 0.009613176 -0.011185513
0002d0 3e 66 0a 3d 50 73 87 bc 4d 64 a5 bb 4f b5 6b bc
       0.033788912 -0.016534477 -0.005047357 -0.014386489
0002e0 c5 5b 72 bc 41 ec cb 3b bb e2 37 3c 85 3a af bc
       -0.014792387 0.006223232 0.01122349 -0.021390209
0002f0 0c fa 01 3c 6d 3e 7d bb 5a ee e3 3b 93 f8 46 bc
       0.007933151 -0.0038641945 0.006955904 -0.012144226
000300 20 28 89 bd 6d 00 af bd 82 e1 85 bc 64 96 02 3c
       -0.06697106 -0.08545003 -0.016342882 0.007970426
000310 f7 5c 87 3e ba 85 7c bd 6d a0 df bc 35 9d 76 bd
       0.26438114 -0.06165097 -0.027298177 -0.060208518
000320 98 6c 84 bd 62 bd e6 bc 28 61 10 be bf 3f a9 ba
       -0.06466025 -0.028166477 -0.14099562 -0.0012912675
000330 5b a4 dd bd 68 97 99 bb a5 69 a6 bd 36 26 a5 bd
       -0.10822364 -0.0046872385 -0.08125619 -0.08063929
000340 e7 65 22 3c dc 2d 9f bd 8e 3a 1d bc 6b 4c 02 bd
       0.009911991 -0.07772419 -0.00959648 -0.03181116
000350 9f 1e 7a 3c 41 44 91 bb 83 9a 6c 3c 02 d5 0e be
       0.01526609 -0.0044331853 0.014441135 -0.13948444
000360 8d 8b 77 3a 6a 73 c7 3a 7a 65 01 3a 95 2a 34 3b
       0.0009443097 0.0015216891 0.00049360807 0.0027491201
000370 c4 a1 15 3b b9 15 3e bb fa a8 92 bb ca a2 c8 bb
       0.0022832016 -0.0029004647 -0.00447571 -0.0061229216
000380 a7 5f 12 bb a4 99 5c bb 89 9f 01 3b 84 e4 10 bb
       -0.0022334845 -0.0033660913 0.0019778928 -0.0022108862
000390 67 7c ee 3a 3f 7b 83 bc 6e e7 a5 3b 1d 46 4d bc
       0.0018195034 -0.01604998 0.005062989 -0.012528923
0003a0 93 61 1c bc c4 b0 6b 3c 94 df c3 39 4f c9 48 bb
       -0.009544748 0.014385406 0.00037359877 -0.0030637567
0003b0 0f 57 73 3a d9 dd f5 3a 06 86 03 ba b6 c2 67 bc
       0.0009282687 0.0018758132 -0.00050172245 -0.014145544
0003c0 b7 1c 7f 3c 92 e1 f2 bb a0 0a 5a bd 54 cb 84 3c
       0.015570811 -0.007412144 -0.05323279 0.016210236
0003d0 72 9e 38 bd 89 e7 b5 3e cd d9 2f bd 7f 45 45 3d
       -0.04507298 0.3552821 -0.04293232 0.04816198
0003e0 d4 dc d7 3b 8c ca 7c 3d de b4 2c bd 01 57 80 3c
       0.006587604 0.0617166 -0.042164676 0.015666487
0003f0 17 d7 09 bd c7 96 be 3b 77 e3 40 3d 30 3f 97 bd
       -0.03365239 0.005816314 0.047091927 -0.07385099
