cv_steps/tabnet_raw_step1_fold3_5/network.pt (torch, 682379 bytes, 56 tensors)

embedder.embeddings.0.weight f4 [3, 1]
000000 8c a9 77 bc 2d b9 2c 3d cc 0b 49 bd
       -0.015116107 0.042168785 -0.049083516

embedder.embeddings.1.weight f4 [2, 1]
000000 e7 7a e1 3c 0b 2e e2 bc
       0.027524425 -0.027609846

tabnet.initial_bn.weight f4 [1038]
000000 b6 a6 95 bd a1 5c 3e be 0f 32 41 3b 78 55 8d bb
       -0.07307188 -0.18590023 0.00294793 -0.004313167
000010 8b 08 a7 3d 84 40 73 3d fe 39 6b 35 82 d8 5e 3d
       0.08155926 0.0593877 8.762871e-07 0.054405697
000020 bd 89 17 3e ba 95 76 3d 9b 9e ac 3e b5 53 29 39
       0.14798637 0.060201384 0.33714756 0.00016148279
000030 bc db e7 39 d6 b8 2c 3e 5e 54 00 3e 52 b6 3d 3e
       0.00044223468 0.16867384 0.12532184 0.18526581
000040 da 1f de 3d d2 25 83 3d 18 26 bc 38 c8 7a ea 3c
       0.10845919 0.06403698 8.971634e-05 0.028623
000050 ea 35 0c 3e f4 be b8 3d f8 1f 44 3e 3d 87 58 3d
       0.13692442 0.090207964 0.1915282 0.05286335
000060 4d 8b 55 3e 4c 4b 31 3e 70 e9 bb 3d b4 1f 20 3e
       0.2085392 0.1731388 0.09175384 0.15637094
000070 13 a5 88 3d 58 4f 39 3e 23 35 1d 3e e9 1a 8f 3e
       0.066721104 0.18096673 0.15352301 0.27950218
000080 b3 53 46 3e 5a ee c6 3d 00 58 02 3e cb e1 be 3c
       0.19367866 0.09713431 0.12728882 0.023301026
000090 53 4a 26 3e 37 e2 5c b8 24 a6 4b 3e 42 52 e5 3d
       0.1623929 -5.2662766e-05 0.19887596 0.1119733
0000a0 28 c9 72 3d 97 ad 4e 3e f9 7e 46 3e 31 fd 40 3e
       0.05927387 0.20183407 0.19384374 0.18846585
0000b0 2e 9b 24 bb 8f 98 13 3c 7e ec 51 3d 7d 09 21 3e
       -0.0025116908 0.009008541 0.051250927 0.15726276
0000c0 69 7f 2f 3e 9c 9b 5b 3e 22 a1 84 3e ef b8 ff 38
       0.17138447 0.21446079 0.25904185 0.00012193794
0000d0 f3 8b 10 3e c7 ab da 3d d7 37 24 38 4f cd 00 3e
       0.14115886 0.10677295 3.9152652e-05 0.12578319
0000e0 be 7c f6 3d f2 6e 9d 37 fe 3e 18 3e 29 e5 0e 3e
       0.120355114 1.8767521e-05 0.1486778 0.13954605
0000f0 05 a0 90 3c a7 c2 b6 35 31 b1 58 3e 5d a0 8f b6
       0.017654428 1.3616708e-06 0.21161343 -4.280401e-06
000100 56 1f 58 3e 77 81 0e 3e 64 7e 84 3b 35 11 0c 3e
       0.21105704 0.13916574 0.0040433872 0.13678439
000110 9c 97 fd 3b 08 d9 2e 3e 5d 36 12 3e 8b 86 0b 3e
       0.0077390205 0.17074978 0.1427855 0.13625543
000120 4a 9f 17 3e f3 b7 2e 3d 72 9f 33 b8 fd 60 29 bd
       0.14806858 0.042655896 -4.282542e-05 -0.04135226
000130 4c d7 fb 3d 7f aa cd 3e 22 31 b0 b9 a8 a8 21 3e
       0.12296924 0.4016914 -0.00033605943 0.15786994
000140 11 98 e4 3d ce 2d 30 bb 2e 78 da ba 4f 2c 0b 3e
       0.11161817 -0.002688277 -0.0016667896 0.13591121
000150 3c 0a 1b 3d 61 92 e8 3d 45 95 c5 3c 9f 64 8a 3e
       0.037851557 0.113560446 0.024119029 0.27029893
000160 31 70 43 3e c8 b7 28 3d 9d 04 19 3e 26 f9 19 3e
       0.19085766 0.041190892 0.14943166 0.15036449
000170 de 34 51 3e 12 f3 49 3e 38 82 76 3d 98 98 3c 3e
       0.20430323 0.1972163 0.06018278 0.18417585
000180 b0 46 bd 3d d0 9d a5 3d c1 a7 75 3e f2 11 ae bd
       0.09241998 0.08086741 0.23989774 -0.084995165
000190 8c 8c 6f 3e 1a 60 1d 3e d0 b7 9d 3e cb 34 08 3e
       0.23393458 0.15368691 0.308043 0.13301389
0001a0 1d e8 7d 3e f1 a5 5a 3e 12 6b c7 3c 2d 15 2b 3e
       0.24795575 0.21352364 0.024343047 0.16707297
0001b0 46 3f 17 3e 70 11 e2 3d a0 32 8a 3d 41 04 ee 3d
       0.1477023 0.11038482 0.06747937 0.11621905
0001c0 08 29 e5 bc 9c 9e f3 3d c8 10 29 3d 5b cc 0b 3e
       -0.027973667 0.11895487 0.04127577 0.13652174
0001d0 23 0b de 3d 2e b2 e1 b8 63 24 37 3e 50 85 54 3e
       0.10841968 -0.000107620246 0.17884974 0.2075398
0001e0 4f 8c 4a 3e ff 74 50 3d 75 8c 14 3e 6e 5b 26 b9
       0.19780086 0.050892826 0.14506705 -0.00015865054
0001f0 94 99 e4 3d 68 da 2e 3e 9a dc 03 3e 1d c3 34 3e
       0.11162105 0.17075503 0.12877122 0.17652555
000200 99 be 91 3a 1e 85 ee 3c 5b 4a 69 3e 8a 14 f6 bd
       0.0011119425 0.02911621 0.2278227 -0.12015636
000210 d6 11 57 3e 57 8b 4a 3e 64 17 55 3e 46 d0 0c 3e
       0.21002898 0.19779716 0.20809704 0.13751325
000220 9a ad 2d 3e e1 ca f9 3d 8e 7a 0f 3e 4b 09 b6 3d
       0.16960755 0.12196899 0.14011595 0.08888491
000230 14 ab b3 bc b7 be f4 3d c0 8e 6a b6 41 5a 07 3e
       -0.021932162 0.119504385 -3.4951809e-06 0.13218023
000240 b6 b7 e7 3d 68 e4 40 3c a5 f9 24 3e 82 18 ad bb
       0.11314337 0.011773206 0.16110857 -0.0052824626
000250 74 68 19 3e fa 79 34 3e ac 90 c5 3c df e5 28 3e
       0.14981252 0.17624655 0.024116836 0.16493939
000260 cc 39 6e 3d c4 84 c0 bc d6 fc b7 3d a9 c7 c8 3d
       0.05816059 -0.023500808 0.089837715 0.09803707
000270 5d a1 a6 3d ee 78 04 3c a4 9e 5c 3e 44 fa b6 3e
       0.08136246 0.0080854725 0.21544892 0.35737813
000280 cf 31 b6 3e 40 43 1c 3e 10 31 8d 3d 82 bf 14 3e
       0.35584876 0.15260029 0.068941236 0.1452618
000290 d6 1e 12 3e 8e cd c4 3d 28 ee 36 3e 3f 89 a3 bd
       0.14269575 0.09609519 0.17864287 -0.07985162
0002a0 4a 1e 2b 3e c8 4c 5d 3e 33 0b 74 3d e0 88 3e 3e
       0.16710773 0.21611321 0.059580993 0.18606901
0002b0 0b da d0 3d 55 b9 8c b9 f3 a9 b0 3d d5 30 22 3e
       0.101978384 -0.00026840964 0.08626165 0.1583894
0002c0 f0 b7 0c 3e 09 fa ba 3e f1 8b 31 3d ea 18 0f 3c
       0.13742042 0.36518887 0.04334635 0.008733967
0002d0 94 34 79 3e b8 3c ec 3d eb 08 c3 3d 79 84 0e 3e
       0.24336463 0.11535019 0.09523185 0.13917722
0002e0 d4 2a bf 3d d8 b4 3f 3e 03 06 63 3d 34 e0 0e 3c
       0.09334341 0.1872133 0.055425655 0.008720446
0002f0 36 9a 7b 3d ee 7d e8 3d 60 37 97 3b bb fd 30 3e
       0.061426364 0.11352144 0.0046147555 0.1728429
000300 2f 90 0c 3e a1 5e e6 38 b3 42 0e 3e d5 9e cc 3d
       0.13726877 0.00010984881 0.13892631 0.09991232
000310 a0 98 0f ba 3f 2a a0 3c ac a5 74 38 e4 41 c5 3d
       -0.000547776 0.019551395 5.8328427e-05 0.09631708
000320 b3 76 22 3e b1 98 00 3d 4e 13 9c 3d 9d fa 9c 3d
       0.15865593 0.031395618 0.076208696 0.07664988
000330 ed 76 42 3e 17 2f 6c 3e d4 57 33 3d 82 ec 05 bd
       0.18990679 0.23064838 0.04378493 -0.032696255
000340 5d 27 a1 3d 40 7f 78 3e ed 48 6f 3e ee 78 2f 3e
       0.07868836 0.24267292 0.23367663 0.17135975
000350 00 de 1d 3e ce 16 00 3e 9b 6c f5 3c 29 df 04 3e
       0.15416718 0.125087 0.029959014 0.12975754
000360 e0 51 af ba cc b2 27 3e 5a c1 fa 3d e7 7f 76 3e
       -0.0013375841 0.163768 0.1224391 0.24072228
000370 15 06 18 3e 54 b0 13 3e a9 1d a6 bc 19 68 3c 3e
       0.1484607 0.14422733 -0.020277815 0.18399085
000380 ba 79 19 3e f5 c7 b8 3d e9 19 55 bc 05 f2 53 3d
       0.14987841 0.09022514 -0.013006666 0.05174448
000390 06 a7 0f 3e 81 81 16 3e ca df b2 3b 9c 15 f5 3d
       0.14028558 0.1469784 0.0054588066 0.11967012
0003a0 86 a3 d2 3a 37 54 71 3e c2 a7 4a ba 8f b2 41 3e
       0.0016070462 0.23567282 -0.00077306863 0.18915771
0003b0 02 9d 2f 3e 37 60 58 3d 98 34 c5 b4 31 11 64 3e
       0.17149737 0.052826133 -3.6732376e-07 0.22272183
0003c0 da 13 06 3e 6a 52 42 3e 61 80 0e 3e cb d6 5a 3e
       0.1309351 0.18976751 0.1391616 0.21371
0003d0 c8 63 3f ba b3 a1 21 bb 3f 70 ca 3d 70 46 17 3e
       -0.00073009403 -0.002466303 0.098846905 0.14772964
0003e0 4d b2 a9 3d 08 12 26 bd 30 7e 59 3e f4 5d 03 3e
       0.08285961 -0.04054454 0.21239543 0.12828809
0003f0 87 d9 8b 3c 92 a5 b0 3d 4a 02 94 b8 ef 90 1c b9
       0.017071499 0.0862533 -7.057616e-05 -0.00014931311

tabnet.initial_bn.bias f4 [1038]
000000 13 25 04 39 e8 99 bb 37 fa 4b 16 b6 76 2e c8 b6
       0.00012602312 2.2363805e-05 -2.2395966e-06 -5.9658732e-06
000010 e7 5b 44 b9 6d 57 98 37 10 c9 05 34 77 d0 ef b7
       -0.00018726253 1.8160523e-05 1.2459736e-07 -2.8588094e-05
000020 74 ae c8 b8 58 a8 ad 38 00 b8 18 39 15 03 cd b7
       -9.5692376e-05 8.280639e-05 0.00014564395 -2.443934e-05
000030 e7 16 33 b5 a1 5b dd b9 6d 99 74 39 7b b4 99 38
       -6.6716024e-07 -0.00042220674 0.00023326809 7.3292256e-05
000040 60 60 d5 37 2e 6a bd b7 a8 fa 91 34 1c 8d 19 b7
       2.5436457e-05 -2.258e-05 2.719073e-07 -9.152365e-06
000050 13 7e f9 b8 d9 bd 7a b8 7b 81 20 39 f2 14 6e 37
       -0.000118967284 -5.9781454e-05 0.00015307024 1.4190782e-05
000060 5b 05 8e b9 dc 2e d1 38 ff aa a8 38 29 2a 21 38
       -0.0002708834 9.974625e-05 8.042715e-05 3.8424656e-05
000070 21 03 96 38 fc 3e 9f b8 e4 e6 45 b8 b7 d3 2d b9
       7.15314e-05 -7.5934426e-05 -4.7183494e-05 -0.00016577436
000080 4b 9d 8a 39 fd 3d 7c b6 14 c7 ab ba 40 ec 81 3e
       0.00026438604 -3.7587008e-06 -0.0013105595 0.25375557
000090 ec 5e a2 b7 91 aa 05 b4 37 7a 5d 39 f2 c2 75 3a
       -1.9356106e-05 -1.2448642e-07 0.00021121731 0.00093750574
0000a0 9a 10 e3 3e 6b 5a 56 b9 20 bf a9 b7 d7 ae 6f 36
       0.44348603 -0.00020442314 -2.023537e-05 3.5715545e-06
0000b0 c4 5a f5 b5 4f 16 a7 36 ca b3 8a 37 d4 16 2b ba
       -1.8280339e-06 4.979585e-06 1.6534603e-05 -0.0006526534
0000c0 a7 24 b8 b7 58 e9 30 38 fd 9c b6 b9 64 06 3c 35
       -2.1951577e-05 4.217899e-05 -0.0003483071 7.004476e-07
0000d0 4e da 90 39 c3 de 0c 36 7b 4d 2e 33 53 96 8d be
       0.0002762847 2.099129e-06 4.0583e-08 -0.2765375
0000e0 39 ee e2 36 28 0d b2 33 53 90 13 be ca 9b 2c 38
       6.7630576e-06 8.291164e-08 -0.14410524 4.1153085e-05
0000f0 b5 f8 9b be 03 e4 e3 31 e3 98 b7 37 9d f4 bb b1
       -0.30463186 6.6324914e-09 2.1886493e-05 -5.4702256e-09
000100 a6 72 4c ba 23 8d 28 b9 a9 02 bf 35 82 0e 9b b9
       -0.00077990664 -0.00016074306 1.4231383e-06 -0.00029574713
000110 60 6f 70 36 07 d0 22 39 e8 ad 8d b9 12 c7 34 b8
       3.5827616e-06 0.0001552702 -0.00027023186 -4.3100743e-05
000120 ee 45 9f 3d 75 10 a0 37 f5 ed db 32 b4 98 73 b8
       0.0777701 1.908115e-05 2.5603166e-08 -5.807793e-05
000130 d3 51 c4 39 28 a8 35 be 97 f9 61 34 77 c1 2b b8
       0.00037444997 -0.17739928 2.1045558e-07 -4.0949755e-05
000140 d3 ed a3 b8 f3 cc aa 36 aa 93 9b 36 07 41 dd 39
       -7.816744e-05 5.090254e-06 4.6365503e-06 0.00042200854
000150 dd 0f a3 b8 83 da 79 b8 8f 9b f4 b7 88 20 fa b9
       -7.7754004e-05 -5.956973e-05 -2.9159504e-05 -0.00047707953
000160 87 d0 08 b9 f0 31 2b 39 ab fc 5a b7 7d 4e 54 39
       -0.00013047653 0.00016326434 -1.3052641e-05 0.00020247135
000170 4e 28 78 bb d1 73 05 b9 0c 9d 07 ba a3 62 ab b9
       -0.003786582 -0.00012727013 -0.0005173243 -0.00032689152
000180 6f 79 46 b9 b0 ab a7 b8 cb ff 2d 3c 37 9a dc b7
       -0.00018927989 -7.99516e-05 0.010620068 -2.6297856e-05
000190 23 c9 f4 38 07 b5 cc 39 13 ea 54 39 4d 13 a9 b7
       0.00011672291 0.00039044788 0.00020305095 -2.0155358e-05
0001a0 95 4b 0e 3e 3a 58 69 b9 05 89 04 b7 33 0f 24 39
       0.1389602 -0.00022253479 -7.8997155e-06 0.00015645921
0001b0 e9 8c 5d b8 72 63 28 39 90 5f a1 b7 24 1d ee b8
       -5.282174e-05 0.00016058775 -1.9237195e-05 -0.00011354152
0001c0 c6 a3 dc 39 30 ed c8 38 ab fc 3b b7 d9 d9 c4 38
       0.0004208369 9.580923e-05 -1.1204897e-05 9.3865856e-05
0001d0 f4 77 83 b8 55 e7 06 b6 33 e9 9f 3a e3 66 ed 38
       -6.26891e-05 -2.010221e-06 0.0012200236 0.00011320205
0001e0 9e 7f ec 39 05 d9 f0 39 fa a4 35 b9 53 db 34 b2
       0.0004510851 0.0004593806 -0.00017322964 -1.05272475e-08
0001f0 ce 23 a8 39 46 fc e1 3d 84 61 af be b6 8d 23 39
       0.00032070134 0.110344455 -0.34254086 0.00015597683
000200 97 03 24 b8 32 e0 2d 3f 3f 92 ff 39 ff 3e bb b9
       -3.910399e-05 0.6792022 0.00048746352 -0.00035714355
000210 c1 aa bc 39 ca b4 1c 3a 43 e7 d8 3d 96 b2 4d b9
       0.00035985376 0.00059778674 0.10590985 -0.00019616852
000220 1f d1 1c 3a 8d 3b 1a b8 4a e7 1f b9 57 75 2f 39
       0.0005982089 -3.6771922e-05 -0.00015249584 0.00016733013
000230 ef e9 a8 38 52 78 bb b8 93 b9 e5 31 ed 85 36 bc
       8.054438e-05 -8.939266e-05 6.6858745e-09 -0.011140329
000240 69 bc 98 38 02 35 99 b7 ab e2 1d b9 16 ab 41 34
       7.283019e-05 -1.8263705e-05 -0.00015057127 1.8036766e-07
000250 68 2a b1 b9 86 8d 91 b8 31 e0 a3 be 32 b7 1f b9
       -0.00033791666 -6.9404996e-05 -0.32006982 -0.00015231667
000260 69 89 87 38 50 2d 95 38 e0 48 25 38 1f d3 43 b8
       6.462896e-05 7.113314e-05 3.9406936e-05 -4.6688245e-05
000270 0b 25 4b 3a 2c 3d f6 b5 19 df 00 3a b5 11 61 38
       0.0007749355 -1.8346232e-06 0.00049160566 5.366067e-05
000280 06 0c fe bc f3 2b 98 b8 cc 6a 97 38 d2 a3 9f 37
       -0.031011593 -7.256111e-05 7.2201336e-05 1.9030562e-05
000290 8d 93 28 3b a0 f5 0a 38 a6 84 ab b8 dd 00 be be
       0.0025722713 3.313052e-05 -8.178623e-05 -0.37110034
0002a0 78 03 23 ba 82 64 25 37 01 66 f1 35 52 ca 50 35
       -0.00062184734 9.858168e-06 1.7985586e-06 7.7780453e-07
0002b0 54 16 be b8 b1 94 98 b4 22 ed 15 b8 c2 50 fb ba
       -9.064065e-05 -2.8420394e-07 -3.5745215e-05 -0.0019173848
0002c0 3c 0e 52 b9 2f cd f0 3c ef e3 16 b9 3b 3b bf b7
       -0.00020032463 0.029394714 -0.00014390027 -2.2796556e-05
0002d0 80 10 f4 3e 78 10 9f 36 47 77 21 b9 79 3e 2c 39
       0.47668839 4.7404865e-06 -0.00015398591 0.00016426471
0002e0 4d aa e3 37 63 1f ce b8 84 61 46 39 c7 37 0a 39
       2.7139811e-05 -9.828692e-05 0.00018919079 0.00013181484
0002f0 49 28 57 39 58 d6 f6 b7 d0 3b 5c 37 4c d4 95 38
       0.00020519005 -2.9425297e-05 1.3126948e-05 7.144417e-05
000300 25 7f e1 ba ee 2f 5c b3 95 6b 26 ba 10 78 dd 39
       -0.001720403 -5.1266333e-08 -0.00063484284 0.00042241858
000310 9a b7 41 b6 d3 ce 03 39 8c 66 15 34 fb 0a 61 38
       -2.8866111e-06 0.00012570182 1.3914013e-07 5.3654407e-05
000320 69 ab 20 b8 e9 90 cf 36 42 11 5c 38 64 90 02 b8
       -3.830661e-05 6.1859505e-06 5.246816e-05 -3.112889e-05
000330 af 35 06 bb a6 a7 8c b9 d5 6a c7 b7 28 70 2a 39
       -0.0020478775 -0.0002682779 -2.3772396e-05 0.00016254245
000340 8a d7 e6 37 09 35 b3 39 49 2e cb b9 ec 92 87 39
       2.7518505e-05 0.00034181055 -0.00038753662 0.00025858672
000350 12 07 54 ba 77 12 db 37 db 2a 5b 37 ba c8 31 38
       -0.0008088212 2.6115433e-05 1.3063395e-05 4.238703e-05
000360 2a b6 02 b8 b8 9f 1c 39 47 1a c8 37 b3 22 16 3e
       -3.116407e-05 0.00014936819 2.3854094e-05 0.14661674
000370 c8 91 58 39 61 ed da be 7e 3d 89 b6 fa b0 3c ba
       0.00020653673 -0.4275923 -4.090077e-06 -0.00071980024
000380 40 11 a7 38 74 a9 8c b8 61 77 1b 39 c4 13 1c 39
       7.9663936e-05 -6.707283e-05 0.00014826424 0.00014884683
000390 98 f8 1e b9 00 2b 97 b9 70 a6 a5 b6 5b fe 49 3c
       -0.00015160663 -0.00028833002 -4.936759e-06 0.0123287095
0003a0 3c eb eb 35 bf 74 00 39 5f 30 86 b8 64 55 9d b9
       1.7577327e-06 0.00012250523 -6.398628e-05 -0.00030008995
0003b0 a5 3c 87 3a c5 60 a7 3e 71 67 49 31 77 40 5c b8
       0.0010317756 0.32691017 2.930815e-09 -5.2512125e-05
0003c0 a6 4d 57 39 31 17 f7 37 55 85 1b 39 d9 14 a2 3a
       0.00020532924 2.9455494e-05 0.00014831622 0.0012365832
0003d0 43 b5 b1 3e 89 96 1d b7 ef ec 7c b8 85 09 88 b8
       0.34708604 -9.392978e-06 -6.0302144e-05 -6.4867585e-05
0003e0 52 65 cc 38 0d a8 b2 37 50 32 5c 37 de 50 3a b9
       9.7463504e-05 2.1297508e-05 1.3124736e-05 -0.00017768468
0003f0 88 db 41 38 4c 43 71 be 43 e5 b2 32 45 17 64 b3
       4.621924e-05 -0.23560828 2.0826183e-08 -5.310655e-08

tabnet.initial_bn.running_mean f4 [1038]
000000 06 6d 1c 39 67 64 cd 3a 5b c3 ac b7 cb 97 af 37
       0.00014917934 0.0015670181 -2.0594967e-05 2.093231e-05
000010 52 71 d2 bb 94 96 e2 3a 2c 94 b3 b9 5d 05 85 3b
       -0.0064222002 0.0017287307 -0.00034251937 0.0040594772
000020 f0 ed f8 3b f3 07 5c 3b fa 13 53 bc 2d f7 ef ba
       0.0075967237 0.0033574074 -0.012883181 -0.0018307917
000030 40 e9 a0 bb 99 4a 67 3b d3 9c 88 3a 97 9e 8a bb
       -0.004910618 0.0035292266 0.0010422714 -0.004230331
000040 6c c1 58 bb 0d b5 c0 3a 5a 6b 76 bb 73 ee eb b9
       -0.0033074273 0.0014702395 -0.0037600608 -0.0004500035
000050 02 36 64 bb a2 22 7c 3b 88 75 0b 3b b8 5b f2 3b
       -0.003482223 0.0038472791 0.002127977 0.0073961876
000060 7e cd 16 3a 0f 7d 8f 3a 56 fe 8f 3b db 67 56 ba
       0.00057526666 0.0010947305 0.004394333 -0.0008178928
000070 69 bf 58 bb 79 06 a1 3b f0 f0 bc 3b 7b f1 96 b9
       -0.0033073074 0.0049141017 0.0057660267 -0.00028790146
000080 8a db 5b bb ab d0 47 3c 66 02 93 3a 5e 69 7a 3b
       -0.0033547604 0.012195746 0.0011215925 0.0038209776
000090 1f 96 c4 3a 13 27 b9 3a 07 30 00 bb bc 14 13 bd
       0.0014998353 0.0014126025 -0.0019559877 -0.035908446
0000a0 c4 dd b9 3c 04 24 88 bb 40 4e b5 3a 0a 86 70 3a
       0.022688754 -0.004154684 0.0013832524 0.0009175247
0000b0 ff 09 93 3b ee b5 b0 3b 20 70 06 3b 1d 84 a3 3a
       0.0044872756 0.0053927815 0.002051361 0.0012475286
0000c0 78 06 72 3a f6 55 49 bb 0c 82 df 3a ff 0b 82 bb
       0.00092325313 -0.0030721403 0.0017052307 -0.003968715
0000d0 77 ff 28 bd 0f 92 85 bb cf e7 90 bb d5 c2 32 bb
       -0.041259255 -0.0040762494 -0.004422165 -0.0027276773
0000e0 14 36 63 3b fc 6d fc b9 e7 77 50 ba 09 3e 4c 3b
       0.0034669684 -0.0004814713 -0.0007952437 0.0031164906
0000f0 ed a1 a2 bc 99 58 7f 3b 9d ed e3 ba 84 d3 c0 3b
       -0.019852603 0.003896272 -0.001738954 0.0058845896
000100 80 2e 25 bc 13 44 bf bb e4 7e d2 3b 5a 96 36 3b
       -0.010081887 -0.0058369725 0.006423818 0.0027860613
000110 56 b2 18 bc 82 a0 5a bd cf dd f7 ba a1 7e 01 bb
       -0.009319862 -0.05337573 -0.0018910709 -0.0019759315
000120 84 84 aa 3a 46 cf 83 39 20 a4 62 bc 2c 2e 8e ba
       0.0013009463 0.00025140698 -0.013833076 -0.00108475
000130 77 26 12 3c c4 f9 36 bd 3f 77 49 3b 5b 64 8e 3b
       0.008920304 -0.04467179 0.0030741242 0.0043454594
000140 eb ab 67 3b 86 bc 8c 38 99 f5 f2 3b 8d 6d c5 ba
       0.0035350274 6.7108354e-05 0.0074145314 -0.0015062556
000150 be c7 da b9 58 e0 ff 3a 75 11 bd ba 05 88 e6 ba
       -0.0004172902 0.0019521816 -0.0014424758 -0.0017588144
000160 1a 64 39 3b 19 35 c3 ba f0 7d 70 3b 8d 76 6f ba
       0.0028288425 -0.0014893144 0.0036696158 -0.0009134792
000170 e6 a3 3f bb c6 2a de 3b c0 94 f7 3b 20 61 5b 3b
       -0.0029241978 0.0067800013 0.007555574 0.003347464
000180 38 3c 84 bb 07 32 3a bb 6d 7c 35 bc 28 43 00 3c
       -0.004035499 -0.0028411166 -0.011077029 0.007828511
000190 4d c3 b6 ba fd ee 5a bb 68 29 84 3c 89 d7 60 3b
       -0.0013943702 -0.0033406608 0.016133025 0.0034308156
0001a0 28 2d 80 3b 3c 9f cc ba 2d 44 26 ba a3 32 2f bb
       0.003911633 -0.001561142 -0.00063425564 -0.0026733063
0001b0 7d f2 65 3b e9 7a 2d 39 52 51 fb 36 8f 11 8f 3b
       0.0035087161 0.00016544353 7.48985e-06 0.004366107
0001c0 4a ee 34 3b 61 9b c8 3a 4b df b5 38 54 9e 90 bc
       0.0027607852 0.0015305096 8.672344e-05 -0.017653622
0001d0 52 4c 2f 3b 1d 49 33 bb a5 88 62 bb 24 f0 71 b8
       0.0026748371 -0.0027356811 -0.003456631 -5.7682526e-05
0001e0 68 68 d0 bb 1f 58 47 3b 4f f5 09 3b b1 b1 a0 bb
       -0.0063601024 0.0030417514 0.0021050756 -0.004903995
0001f0 97 ab d8 ba c5 b6 f1 3c 7c 1e d8 3a 9f 33 cc 3b
       -0.001653063 0.029506097 0.0016488577 0.0062317397
000200 f3 73 70 3a c1 62 20 bb 75 97 89 bc 07 9d e6 ba
       0.0009172551 -0.0024472924 -0.016795853 -0.0017594405
000210 de 10 e0 3b f2 ae d5 3c c2 8c 47 3b 27 57 31 ba
       0.006837948 0.026084397 0.0030448888 -0.0006765001
000220 7b c3 63 bb 4e 8b 46 bb 0f a8 a3 3b d0 70 51 3a
       -0.0034753967 -0.0030295434 0.0049943994 0.00079895277
000230 81 5f 19 bb cb 94 8e 3b 5d 47 19 3b bf 02 90 bb
       -0.0023402872 0.0043512336 0.0023388483 -0.0043948586
000240 ed de 52 3b 07 d1 d0 3a 98 85 98 3b ef 27 16 3b
       0.003217633 0.0015931436 0.0046545975 0.0022911986
000250 59 fa d1 39 24 3e 0a 3c 4f c7 ba 3a 31 d0 03 bb
       0.0004005011 0.008437667 0.0014250072 -0.0020113105
000260 23 d9 f7 3a 5f bd 07 bb c7 5b 9a bb e8 5f 5c bb
       0.0018909316 -0.002071224 -0.0047106477 -0.00336265
000270 65 6d 20 bb 60 ee 40 3b fa 10 c2 38 46 97 13 ba
       -0.0024479267 0.0029438958 9.253803e-05 -0.00056301465
000280 4c ef d2 3c 4c 78 7e 3b 48 c4 e4 ba 7f ad 0f 3a
       0.025748871 0.0038829027 -0.0017453516 0.000548087
000290 94 5f b4 bb d6 2b 79 3b be 68 c0 b9 26 00 ab 3b
       -0.005504558 0.0038020513 -0.00036699133 0.0052185236
0002a0 0d 95 4a 3a 1f 3e 60 bb bb 68 ec 3a 9e 4e 77 3b
       0.0007727899 -0.0034216715 0.0018036583 0.0037736068
0002b0 e8 66 40 3c ad 95 d0 3a 2c ef 39 3b 42 42 f5 bb
       0.011743285 0.0015913747 0.0028371317 -0.007484705
0002c0 12 88 3e bb 69 b1 75 3b 3c 7f a9 3a b2 19 07 b9
       -0.0029072803 0.0037489778 0.0012931596 -0.00012884176
0002d0 6d 50 11 bc cc fa 60 3b 72 63 1f 3b 1d 14 98 3b
       -0.008869273 0.0034329174 0.0024320749 0.0046410696
0002e0 b0 3f d9 ba 07 05 31 bb 90 e8 95 ba f8 e9 8c bc
       -0.0016574766 -0.0027011053 -0.0011437107 -0.017201409
0002f0 79 33 c0 bb d2 86 59 bb a8 6a 34 bb 31 bf ad bb
       -0.005865511 -0.0033191931 -0.0027529392 -0.005302333
000300 5c 17 2e 3b 9d 78 dc ba 9a c5 21 3b c7 6e bf bb
       0.0026564216 -0.0016820614 0.002468443 -0.005842063
000310 a0 8f 8b bb 6b c7 86 bc 8f d4 7b 3b 21 d1 c4 3b
       -0.004259065 -0.016452512 0.0038426255 0.0060063754
000320 0a 8a a8 3a 68 93 b4 3a bc 81 76 ba 2d 60 35 3c
       0.0012858522 0.0013776841 -0.0009403487 0.011070293
000330 35 97 4d bc ac c3 a0 ba 69 a3 85 bb 3c c8 41 b9
       -0.012548258 -0.0012265346 -0.004078318 -0.00018480507
000340 e9 7d 5e 39 d3 66 96 bb 42 98 4e 3c cc aa 23 3b
       0.00021218475 -0.0045898943 0.012609543 0.002497363
000350 31 87 7c b6 05 49 d3 b9 e3 10 b1 39 6d 32 52 bb
       -3.7629618e-06 -0.0004029946 0.00033772652 -0.0032073513
000360 d6 8f 6c 3b 9f 10 a5 3b 85 75 1e 3a 25 6d 03 3b
       0.0036096475 0.005037382 0.00060447335 0.002005407
000370 50 15 86 3a 86 1b e7 3a e5 6b 76 bb bf ed 0a 3c
       0.001022974 0.0017632104 -0.0037600931 0.008479535
000380 a7 05 99 ba 8d de a4 3b 4a ff 8f 3a ea 87 ef bb
       -0.0011674658 0.005031413 0.0010986116 -0.0073099034
000390 6a e6 f5 3b 82 9e 4d 3b b8 53 8e bd f5 bb cb 3b
       0.007504274 0.0031374996 -0.06949562 0.0062174746
0003a0 de 14 8c bb 3a db 1a bb 68 9f 8a 3b 59 63 fe bb
       -0.0042749485 -0.0023629204 0.0042304285 -0.007763308
0003b0 dd 80 5b bb 73 3b 2c bb 0f c1 1e 3b ab 1e 7f 3b
       -0.0033493557 -0.0026280552 0.0024223959 0.0038928192
0003c0 c9 82 bd ba c0 9f 93 bb 84 e2 18 bb f0 27 fe 3a
       -0.0014458533 -0.0045051277 -0.0023328373 0.0019390564
0003d0 de c6 46 bb d7 de 16 3c b4 64 cf b9 aa 62 0f 39
       -0.0030330936 0.009208403 -0.00039557146 0.00013674298
0003e0 a3 f6 f4 3b 94 c1 bb bb 1a c7 c2 3c fa 6e fd ba
       0.0074756905 -0.0057298634 0.02377658 -0.0019335442
0003f0 78 a2 0e bc dd 08 ef 3b e7 ee 1c 3a 27 b2 fd b8
       -0.008705728 0.0072947578 0.0005986527 -0.000120971636

tabnet.initial_bn.running_var f4 [1038]
000000 cc 72 af 3b 44 a7 76 3c 52 ac 7c 3f 6b f0 79 3f
       0.005354261 0.015054528 0.9870044 0.97632474
000010 14 ca 77 3f 64 f5 78 3f dc 0e 7a 3f 8a 66 79 3f
       0.9679272 0.97249436 0.97678924 0.9742209
000020 93 62 79 3f 6b 5b 79 3f 20 1c 89 3f ce 48 78 3f
       0.9741604 0.9740512 1.0711708 0.9698609
000030 22 b4 77 3f 26 53 7c 3f 43 85 7a 3f 91 cf 7c 3f
       0.96759236 0.98564374 0.9785959 0.9875422
000040 f2 56 79 3f 53 6e 78 3f 0a 45 7c 3f 47 87 7b 3f
       0.97398293 0.9704334 0.98542845 0.9825329
000050 70 97 78 3f da 4a 78 3f a3 24 79 3f 08 12 78 3f
       0.97106075 0.96989214 0.9732153 0.96902514
000060 ab cf 77 3f 7b a3 77 3f 90 9e 7a 3f ae 85 77 3f
       0.9680125 0.96733826 0.978982 0.96688354
000070 3a 32 79 3f 0f 39 78 3f 7e a0 78 3f 8b 1a 7a 3f
       0.97342265 0.96962065 0.9711989 0.9769675
000080 35 9e 79 3f 06 20 87 3f ca 41 77 3f 63 86 7a 3f
       0.9750703 1.0556648 0.9658476 0.9786131
000090 eb 86 7b 3f a2 d0 77 3f 4c 9e 7f 3f 49 ee a2 3f
       0.98252743 0.96802723 0.99850917 1.2728969
0000a0 13 7b 97 3f 33 f4 77 3f 2b 99 80 3f 0e 48 7a 3f
       1.1834434 0.96856993 1.0046743 0.97766197
0000b0 6e 84 7a 3f 62 25 7b 3f 16 30 78 3f be 7f 77 3f
       0.9785832 0.98103917 0.96948373 0.96679294
0000c0 16 67 82 3f 18 f3 79 3f 63 4e 7d 3f 87 21 79 3f
       1.0187709 0.97636557 0.98947734 0.97316784
0000d0 6b 8c a8 3f 02 49 79 3f 68 db 78 3f 02 4b 7c 3f
       1.3167852 0.97377026 0.9720979 0.9855195
0000e0 28 f8 78 3f ae 59 7e 3f 6d b9 7a 3f 1e 15 7c 3f
       0.97253656 0.9935559 0.9793919 0.9846972
0000f0 27 c5 8d 3f 5a be 7a 3f 47 f9 76 3f 7f c3 7c 3f
       1.1075791 0.97946703 0.9647412 0.98735803
000100 b0 9a 83 3f da 91 84 3f 9e 0a 79 3f 5a c7 79 3f
       1.0281582 1.035701 0.97281826 0.9756981
000110 98 dc 79 3f 19 b6 b0 3f a4 63 77 3f 68 f3 78 3f
       0.97602224 1.3805572 0.96636415 0.9724641
000120 56 d3 78 3f 2b 53 77 3f 6f 8c 8e 3f 7b ed 76 3f
       0.97197473 0.9661128 1.1136607 0.96456116
000130 ef 0e 85 3f fc f5 a8 3f 7a 51 78 3f 0e 91 79 3f
       1.0395182 1.3200068 0.96999323 0.9748696
000140 1d a1 79 3f 97 82 79 3f 38 f3 7a 3f 33 60 78 3f
       0.97511464 0.9746489 0.9802737 0.9702179
000150 18 b4 77 3f 6a 7f 78 3f 4d 86 76 3f 89 d8 79 3f
       0.96759176 0.9706942 0.96298677 0.9759603
000160 21 b3 83 3f 26 8e 79 3f 4b af 78 3f f9 fd 77 3f
       1.0289041 0.97482526 0.97142476 0.96871907
000170 a9 c2 7a 3f 0e 00 81 3f cc e1 76 3f 01 29 78 3f
       0.9795328 1.0078142 0.9643829 0.96937567
000180 f0 a2 76 3f d6 4d 7a 3f 8d 80 81 3f 26 e5 81 3f
       0.9634237 0.9777502 1.0117356 1.0148056
000190 18 d9 80 3f d0 ca 78 3f c6 75 8b 3f 31 fe 75 3f
       1.0066252 0.9718447 1.0895317 0.9609099
0001a0 4f 10 7c 3f f0 29 79 3f c8 66 77 3f fd 73 79 3f
       0.98462385 0.97329617 0.96641207 0.9744261
0001b0 09 7b 80 3f e4 5f 78 3f dc 39 7a 3f f1 e4 78 3f
       1.0037547 0.9702132 0.97744536 0.97224337
0001c0 ce f2 7a 3f b2 81 7a 3f 16 ee 78 3f f6 21 8e 3f
       0.9802674 0.9785415 0.9723829 1.1104114
0001d0 46 a3 77 3f 12 a3 79 3f 44 80 7a 3f 43 41 7a 3f
       0.9673351 0.9751445 0.9785197 0.9775583
0001e0 48 79 78 3f a4 e2 78 3f 91 ea 77 3f 88 fc 7f 3f
       0.9706006 0.97220826 0.96842295 0.9999471
0001f0 96 62 78 3f 1d 94 95 3f 01 c2 78 3f ba 2a 78 3f
       0.9702543 1.1685826 0.97171026 0.96940196
000200 21 93 7a 3f 05 9a 77 3f c3 64 8d 3f ac 4b 77 3f
       0.9788075 0.9671939 1.1046375 0.9659984
000210 bb 87 81 3f cb 20 9a 3f 2c 51 81 3f 1d 6e 7f 3f
       1.0119547 1.2041258 1.0102897 0.99777395
000220 55 56 77 3f 26 8f 78 3f 27 73 79 3f e8 70 77 3f
       0.9661611 0.9709343 0.97441334 0.96656656
000230 c2 fe 7a 3f 20 01 7c 3f a4 d0 78 3f f4 ae 77 3f
       0.9804498 0.98439217 0.9719336 0.9675133
000240 1d 6f 7c 3f 58 3c 79 3f 7c a7 80 3f 47 17 7a 3f
       0.98607045 0.973577 1.0051112 0.9769177
000250 fd c6 7f 3f 67 f1 83 3f f2 e3 7e 3f e0 82 78 3f
       0.9991301 1.0308045 0.99566567 0.970747
000260 06 f1 79 3f ee 60 77 3f d3 54 82 3f 88 2e 79 3f
       0.976334 0.9663228 1.0182136 0.97336626
000270 44 fd 78 3f 9e 14 81 3f 9c 23 78 3f 74 2c 79 3f
       0.9726145 1.0084417 0.96929336 0.97333455
000280 fc bf 90 3f 9b 73 78 3f 9d 4e 7e 3f a9 c9 7b 3f
       1.1308589 0.970514 0.99338704 0.98354584
000290 f0 24 78 3f 52 66 82 3f a0 47 81 3f 29 02 7a 3f
       0.9693136 1.0187476 1.0099983 0.97659546
0002a0 fa 64 7a 3f 7f 3a 7a 3f d1 82 78 3f 11 83 78 3f
       0.9781033 0.9774551 0.9707461 0.9707499
0002b0 f9 76 84 3f b7 12 79 3f 44 90 77 3f 0a 31 7b 3f
       1.0348808 0.9729418 0.96704507 0.981217
0002c0 7f a5 77 3f bd 64 79 3f 94 d0 79 3f c2 a2 7d 3f
       0.967369 0.9741934 0.9758389 0.99076474
0002d0 be 17 8a 3f 5b 0a 77 3f 67 e7 78 3f fa ac 7e 3f
       1.0788496 0.96500176 0.9722809 0.9948269
0002e0 99 89 78 3f 43 2b 81 3f 63 20 78 3f 75 f2 8e 3f
       0.9708496 1.0091327 0.9692442 1.1167742
0002f0 4e d3 79 3f 63 f3 77 3f 42 84 79 3f e0 50 80 3f
       0.9758805 0.96855754 0.97467434 1.0024681
000300 08 c0 79 3f 99 53 7a 3f 1a cd 76 3f 73 81 78 3f
       0.9755864 0.9778381 0.9640671 0.97072524
000310 b6 33 7a 3f 0a 76 8b 3f 9d 25 79 3f d2 a2 80 3f
       0.97735155 1.0895398 0.9732302 1.0049689
000320 61 0f 79 3f 69 11 78 3f 94 da 77 3f 3d 5a 87 3f
       0.9728909 0.96901566 0.968179 1.0574414
000330 79 62 88 3f d6 19 79 3f 21 54 7e 3f e6 33 77 3f
       1.0655051 0.9730505 0.9934712 0.96563566
000340 6d 3e 79 3f 28 60 78 3f 8f 87 8a 3f 9d 60 79 3f
       0.9736088 0.9702172 1.0822619 0.97413045
000350 ba 4d 7b 3f 6e c5 77 3f ae e1 77 3f 92 8a 7d 3f
       0.98165476 0.9678563 0.96828735 0.99039567
000360 70 65 78 3f b3 18 81 3f 76 2b 79 3f 7c 4c 78 3f
       0.9702978 1.0085663 0.9733194 0.96991706
000370 76 36 79 3f df ea 78 3f 79 dc 79 3f f7 7d 78 3f
       0.97348726 0.97233385 0.9760204 0.9706721
000380 d8 20 78 3f ba 57 77 3f 13 5b 79 3f 35 8c 77 3f
       0.96925116 0.96618235 0.97404593 0.96698314
000390 eb d1 84 3f 9f c9 79 3f 70 c8 b8 3f 87 d6 77 3f
       1.0376562 0.97573274 1.4436169 0.9681172
0003a0 3e 5a 78 3f 3e 67 80 3f 03 15 7c 3f fd 24 79 3f
       0.970127 1.0031507 0.9846956 0.97322065
0003b0 34 bb 7b 3f 0e 1a 7e 3f f9 a3 79 3f 21 32 79 3f
       0.98332524 0.99258506 0.9751583 0.97342116
0003c0 e8 f2 77 3f 23 d4 7a 3f d3 47 79 3f 47 79 78 3f
       0.9685502 0.97979945 0.9737522 0.97060055
0003d0 4d 88 78 3f 34 27 7f 3f 4f 4d 7d 3f 03 7f 7b 3f
       0.9708298 0.99669194 0.9894609 0.9824068
0003e0 ad 36 78 3f c5 ff 77 3f 8c da 92 3f d2 7a 7a 3f
       0.9695843 0.9687465 1.1472945 0.9784366
0003f0 1e 96 84 3f ff 54 80 3f ff cf 78 3f eb 90 79 3f
       1.0358312 1.0025939 0.97192377 0.9748675

tabnet.initial_splitter.shared.shared_layers.0.weight f4 [96, 1038]
000000 4c eb 33 3a 16 52 65 3b b4 3e 5d b8 2c e2 4d 38
       0.000686337 0.0034991554 -5.2748903e-05 4.9086448e-05
000010 87 27 35 39 43 14 3a 3b b6 09 44 b5 17 93 2e 3a
       0.0001727623 0.0028393425 -7.302982e-07 0.00066594913
000020 7d fe 18 3a 44 9d 1d bb 8c 9a 5b 3b fe 44 12 ba
       0.00058362616 -0.0024050036 0.0033508865 -0.00055797386
000030 3c de 35 b7 19 33 54 3b 0f 79 b2 ba 6d 82 25 3c
       -1.0840184e-05 0.003237909 -0.00136164 0.010101897
000040 b4 df 99 bb a4 68 30 3a 41 cf 84 b7 b3 27 3b 3a
       -0.004695857 0.000672946 -1.5832136e-05 0.00071393995
000050 43 39 b1 b7 26 e9 4f 3b 95 6e 0c bc 3b c3 5d 3a
       -2.1126709e-05 0.003172466 -0.008571287 0.00084595726
000060 e1 c8 24 bc f9 da 96 bb 90 9d 74 ba c2 a8 6e bb
       -0.010057659 -0.0046037403 -0.000933134 -0.0036416505
000070 dc 48 06 bc fb 55 52 3a 2b 7d ae bb 36 97 45 39
       -0.008196082 0.00080236763 -0.00532498 0.00018843714
000080 09 b2 74 3b af c7 88 3a 5b cf cf ba 35 6e c5 bd
       0.0037337563 0.0010435487 -0.0015854643 -0.09640161
000090 9d e8 17 bb 64 77 a8 35 a8 0f 99 bb 8e 9a 0f bb
       -0.002317942 1.2551723e-06 -0.004671056 -0.002191219
0000a0 e4 0b da 3d e3 dc 23 3c 03 04 dc ba e9 d4 c9 bb
       0.10646799 0.010001394 -0.0016785864 -0.006159414
0000b0 b2 b1 17 b9 d0 88 76 b9 ee 7b fa 39 79 6e 21 bb
       -0.00014466679 -0.00023511355 0.0004777605 -0.0024632497
0000c0 95 17 b8 3b 35 53 83 3b 27 fa 2c 3c b3 63 2c 37
       0.0056180456 0.004007722 0.010557688 1.0275212e-05
0000d0 64 c0 d5 bb 5f 68 63 ba 87 31 ae 33 35 3d 68 3d
       -0.006523179 -0.00086749153 8.1115154e-08 0.056698997
0000e0 1f 9b 3a ba 75 7b 4f 35 38 a0 39 3d bf 4a 6a 3a
       -0.0007118452 7.729316e-07 0.045318812 0.00089375296
0000f0 f5 16 7f 3c dc 54 57 33 8e 03 47 3b c4 19 40 34
       0.015569438 5.0135768e-08 0.003036711 1.7890767e-07
000100 83 f3 87 ba 78 25 21 bb ca 5c 13 b9 a8 93 a3 3b
       -0.0010372255 -0.0024588984 -0.00014053579 0.004991967
000110 94 39 4d 38 23 22 eb bb 22 60 34 ba 53 9c 65 3b
       4.8929433e-05 -0.0071757003 -0.000688078 0.0035035803
000120 8c 91 13 bd 83 56 91 3a 71 4f a0 36 79 3b 3e 3b
       -0.036027476 0.0011088405 4.77762e-06 0.0029027148
000130 20 02 35 3b 5a 5b 8b 3d e7 fc 4a 36 a4 32 37 3b
       0.0027619675 0.06804533 3.0247554e-06 0.0027953768
000140 30 5d 84 3b dd c5 ce 38 85 b1 73 b8 0d c4 0b bb
       0.004039429 9.8597004e-05 -5.8101043e-05 -0.0021326572
000150 3d 12 3c 3b e3 ae 82 3b 50 1d eb 38 22 c2 19 3b
       0.0028697394 0.0039881333 0.00011211133 0.002346166
000160 89 de e1 3b 84 70 11 bb c9 57 81 3b e1 00 15 bb
       0.0068929833 -0.0022192309 0.0039472324 -0.002273612
000170 a4 95 99 3a a8 0b 0a 3b 2c c0 2b 3b 9d 6e 9c ba
       0.001171757 0.0021064077 0.0026207073 -0.0011934821
000180 18 9d 7d 3b 8c e5 1a 3b 46 6f 8b bc 48 6d 41 ba
       0.0038698371 0.0023635356 -0.017020833 -0.000737865
000190 67 95 f5 bb b0 52 84 bb c8 ff f8 3b 29 e5 47 bb
       -0.007494617 -0.0040381774 0.007598851 -0.003050158
0001a0 37 58 07 bd 5b f5 07 3b 80 d6 03 3a e1 41 15 3a
       -0.033043113 0.0020745608 0.00050292164 0.00056937156
0001b0 a5 15 ea 3b 14 92 a3 bb 98 2d f7 3a fe fa eb ba
       0.0071436935 -0.004991779 0.0018858192 -0.0018003879
0001c0 0a 14 05 3a 10 8c 25 3b 65 c1 87 39 ad e5 8a bb
       0.00050765334 0.0025260486 0.00025893297 -0.0042388053
0001d0 82 c1 83 bb 9a 3a 37 37 93 9b a8 3b f4 28 0b bb
       -0.0040208707 1.0921294e-05 0.005145499 -0.0021234127
0001e0 0d e2 bd 3b a3 a6 03 ba cf cd 88 b7 11 4d 2b b5
       0.0057947696 -0.0005022084 -1.63083e-05 -6.381461e-07
0001f0 30 44 97 3a 01 26 86 bd 16 a5 8c bd c9 96 88 bb
       0.0011540707 -0.065502174 -0.06867425 -0.0041683656
000200 d0 ee 88 39 5c 56 45 3e ee 55 99 bb a7 a4 8f ba
       0.0002611787 0.19271225 -0.004679433 -0.0010959104
000210 97 15 c2 b9 75 a4 df 3b a0 4a f5 3d b2 2a 12 bc
       -0.0003701865 0.0068250247 0.11977124 -0.008921312
000220 0d 4b c9 bb fe b3 26 3b 8d 3d c6 ba f2 0e 6e bb
       -0.00614298 0.0025436874 -0.0015124545 -0.0036324826
000230 77 87 29 3b e2 4c 9f 3b 2f 36 94 b4 11 34 84 3b
       0.0025868097 0.00486146 -2.7606572e-07 0.004034527
000240 a3 ac 2f 3b 79 da 1f b9 bd 23 d8 3b a8 36 63 b7
       0.002680578 -0.00015244809 0.006596057 -1.354298e-05
000250 e1 b1 bb 3b 27 63 2a 3b 58 bf 7b 3d 12 b8 a8 3b
       0.005727992 0.002599904 0.061461776 0.005148896
000260 23 9a 08 bb 2d 7c b7 ba 52 20 fe b9 aa 28 69 bb
       -0.0020843826 -0.0013998799 -0.00048470736 -0.0035577216
000270 d5 1b 27 ba 08 0e f9 ba 33 27 90 bb 6d e2 71 3a
       -0.0006374692 -0.0019001374 -0.004399204 0.00092271605
000280 1a 3e 2b 3d 5d 28 0f ba 62 bd b3 bb ef 64 44 39
       0.04180727 -0.00054610317 -0.0054852227 0.00018729617
000290 06 cb 28 ba 33 5b 9e 3b 44 65 20 b9 c6 62 00 be
       -0.0006438944 0.004832649 -0.00015296513 -0.12537679
0002a0 3d 00 95 3b 3c bb 08 3b b5 eb 95 39 17 1e 12 3b
       0.0045471475 0.0020863554 0.0002859511 0.0022295767
0002b0 6d 1c 8c 3b e6 5d 14 37 44 69 3c bb ca c2 78 bb
       0.0042758496 8.84335e-06 -0.0028749267 -0.00379579
0002c0 a4 bf 4a 3b 3b 4c 84 bd 1e c8 8f ba ea 59 47 ba
       0.003093698 -0.06459852 -0.0010969674 -0.0007604646
0002d0 b8 45 1c bd 26 fc 06 39 9d 78 1b ba d4 03 f0 3a
       -0.038152426 0.00012873168 -0.00059307535 0.0018311688
0002e0 a4 8c 9f 3a 4d bc d8 bb a9 5e 1e b9 48 b3 25 ba
       0.0012172651 -0.006614244 -0.00015103318 -0.00063209655
0002f0 0c b6 b5 ba b2 c4 58 3a 7c ba 2f b9 b8 72 8d b9
       -0.0013863458 0.0008269056 -0.00016758771 -0.00026979088
000300 29 df fa bb 1e 17 06 37 d2 29 09 3c 6f 4b 02 bb
       -0.0076559973 7.992405e-06 0.008371787 -0.0019881388
000310 06 c9 7a 34 35 74 cc b9 a0 94 73 b5 b4 92 46 3b
       2.3356196e-07 -0.00038996493 -9.074083e-07 0.0030299844
000320 ae 92 3a 3b 28 3f 65 37 ea 15 00 ba 11 97 96 3a
       0.0028468776 1.3664168e-05 -0.0004886078 0.0011489113
000330 98 7f 20 3b 00 9c e7 ba 04 87 54 ba 90 8b f1 b8
       0.0024490114 -0.0017670393 -0.0008107277 -0.00011517771
000340 a1 7b c6 3a a4 e9 18 3c 95 65 03 3b 4b fd 36 3b
       0.0015143045 0.009333048 0.0020049561 0.002792197
000350 5b 40 bf ba d6 07 18 bb 41 3e ce 3a 83 74 fe 3b
       -0.0014591323 -0.002319803 0.0015735106 0.007765354
000360 60 47 91 3a 06 a0 4f 3b 9e bf 94 ba 18 eb 9d bd
       0.0011083893 0.0031681075 -0.001134861 -0.07710856
000370 3d fd 29 bb 61 b1 9c 3d b9 6a 8a ba 15 19 98 3b
       -0.0025938295 0.0765102 -0.001056037 0.004641662
000380 f9 fc 62 bb 7a 3d 90 bb 7c 2b a8 b9 56 fa 87 ba
       -0.0034635647 -0.00440186 -0.00032075855 -0.0010374289
000390 80 d8 33 3b 0e 22 e7 3b 6f cc 1f b7 63 fe 1b 3a
       0.0027442276 0.00705362 -9.524737e-06 0.00059506873
0003a0 33 fa 8c b7 49 70 a2 bb d9 81 d8 3a 09 ed db 3b
       -1.6805809e-05 -0.004957233 0.001651819 0.0067116064
0003b0 a7 30 45 bb ee 6d 3c 3c ce c5 04 32 10 2a b8 bb
       -0.0030088814 0.011500819 7.728387e-09 -0.0056202486
0003c0 ad db 1e ba b4 3d 8b b9 2d 8f b9 ba ed ee c4 bb
       -0.0006059956 -0.00026558118 -0.001415705 -0.0060099275
0003d0 18 8c f5 3d c5 fd ff 37 ae f5 3f 3b 07 70 3d ba
       0.119896114 3.051654e-05 0.0029290724 -0.0007226471
0003e0 e6 d4 90 3b 1e f3 67 ba 8d bb f1 3b 4e d5 e0 3b
       0.0044199107 -0.0008848178 0.007377094 0.0068613654
0003f0 2f 7f 89 b9 13 1d b0 bc 2c f8 01 b5 65 36 8f b5
       -0.00026225435 -0.021498239 -4.841738e-07 -1.0670161e-06

tabnet.initial_splitter.shared.shared_layers.1.weight f4 [96, 48]
000000 1d d6 8e 3e e4 f7 ae 3c fa 04 d0 3c d5 5f 4b bd
       0.2789773 0.021358438 0.025392998 -0.04965194
000010 ee 14 5d bc 25 02 29 3d 1a 6a 5a 3c ff 38 c9 bd
       -0.01349376 0.04126181 0.013330961 -0.09825324
000020 79 7f 5d 3c 56 76 4a bc 92 6a 9a bc 22 0e 0f bd
       0.013519161 -0.012357315 -0.018849645 -0.034925587
000030 7b 62 e2 bb cf af 11 39 76 5c 40 bd f1 85 a1 3c
       -0.0069087124 0.00013893771 -0.046963178 0.019717189
000040 b4 36 ce bc 50 76 f4 bb ba 70 24 bd 08 c0 63 bc
       -0.025172569 -0.007460393 -0.040146567 -0.013900764
000050 60 cc 58 3d b1 da 07 bd 92 bf d6 bc f0 7c 38 bb
       0.052929282 -0.033167545 -0.026214395 -0.002815064
000060 a2 23 0d 3a cb ad 72 bb 21 09 f3 3a 3d 81 f5 38
       0.0005384033 -0.0037029858 0.0018542149 0.00011706583
000070 a7 e5 22 ba dd 37 b9 b9 84 11 98 ba 68 12 f1 38
       -0.00062140304 -0.0003532757 -0.00116019 0.00011495204
000080 34 24 21 3b f7 eb 0d 39 aa f5 b1 b9 34 fa 3a 3a
       0.002458823 0.00013534712 -0.00033943105 0.000713262
000090 ec 03 bf ba 16 65 0d bb d6 dd f1 ba d3 fd 9d 3b
       -0.0014573312 -0.0021575144 -0.0018452953 0.004821518
0000a0 75 2e 3f 3a 8c b8 84 bc 1e 60 0a 3c ce f2 3c 3b
       0.00072929944 -0.01620128 0.008445768 0.0028831246
0000b0 1b 7e 4b 3a ef cb e8 39 63 a0 3a 3b 41 4a 8e 3a
       0.00077626266 0.0004440243 0.0028476946 0.001085587
0000c0 9b ea 57 3d 85 b5 cc 3e 86 a8 1e bd c5 04 1c 3d
       0.05271397 0.39982238 -0.038734935 0.038090486
0000d0 1e 98 e8 bb 5f d8 49 3d 61 a6 ce bb b5 3d 54 3d
       -0.007098212 0.049278613 -0.006306455 0.05181666
0000e0 cd 7c 68 bd bc 61 94 3d fe 5c 78 bd c2 7f 4a 3b
       -0.056759644 0.07245204 -0.06063556 0.0030898903
0000f0 63 66 5e b9 0d 4e 7a bb 99 0b b4 3c af a7 81 bd
       -0.00021209712 -0.0038193495 0.021978186 -0.06330811
000100 8e 88 f8 3c 07 c8 02 bc 83 d6 97 bc 9d 4b 04 3d
       0.030338552 -0.007982261 -0.018534904 0.032298673
000110 f0 15 e6 bc 7f 96 53 bd 24 94 ca 3a 59 c2 c5 bd
       -0.028086632 -0.051657196 0.0015455526 -0.096562095
000120 c2 d8 12 3b b7 8e 16 3d a1 44 fc bc 1a 46 79 3b
       0.002240703 0.036757197 -0.030794444 0.0038036169
000130 b5 07 ff 3c f9 6e 76 bc 2c f0 02 3c c9 e2 2a bb
       0.031131605 -0.015041106 0.007991832 -0.0026075116
000140 a8 9c 03 3c bd 97 17 bd 3e 6a 45 3c 0d 96 38 3c
       0.008032955 -0.037009943 0.012049256 0.011266244
000150 cf 28 b0 b9 a9 95 0e 3c 30 06 8f 3b 42 3f 0f bd
       -0.0003359974 0.008702674 0.0043647513 -0.034972437
000160 e4 80 04 bc 00 7e 80 bb c8 81 aa bd 52 a1 13 bd
       -0.008087371 -0.0039212704 -0.08325535 -0.03604252
000170 37 57 57 bc 67 cd 6a bc 9f e4 9b bc 7d 20 93 bc
       -0.013143352 -0.014331198 -0.019029913 -0.017959828
000180 d7 5c 18 3d 5f 4e c4 bd 15 d0 b1 3d 28 e8 78 bc
       0.037197914 -0.095852606 0.086822666 -0.015192069
000190 ae cc 0f 3c b5 fe 72 3c a4 29 7a 3d b2 fc 47 3d
       0.008776827 0.014831235 0.061074868 0.048824973
0001a0 ea 8a 05 bd 89 12 0e bd 8f 5f 9c bd 73 ac 1d 3c
       -0.032603182 -0.034685645 -0.07635414 0.009623635
0001b0 c5 43 90 bc d3 0b f4 39 e7 df 3a 3b 28 4c c7 3c
       -0.01761044 0.00046548116 0.0028514804 0.024328306
0001c0 17 60 1c 3d 4e a3 95 3c 15 22 b4 3d fa a3 1c bd
       0.038177576 0.018266346 0.08795563 -0.038242318
0001d0 41 36 e0 bc 9b c5 b8 3c 8d 21 c5 bd c5 a0 86 3d
       -0.02736962 0.022555163 -0.0962554 0.06573633
0001e0 bc fc 26 3a c6 bf 11 bb 32 48 44 3a 0b 72 b7 ba
       0.0006370058 -0.002223955 0.00074875646 -0.001399578
0001f0 21 b8 29 ba 17 5b 22 39 47 f9 32 39 a6 a2 84 38
       -0.0006474276 0.00015483458 0.00017068266 6.324546e-05
000200 7f d2 31 39 3a 7f c7 b8 75 1c 13 bb 28 0c 09 bb
       0.00016958451 -9.512757e-05 -0.0022447382 -0.0020911787
000210 fc 5f 42 3a ae 6b 1d b9 ec e2 f8 38 dc 24 4f 3b
       0.00074148155 -0.000150128 0.00011867829 0.0031607663
000220 09 f2 e2 ba 42 fd 05 bc 67 19 fc 3b 68 33 54 3a
       -0.0017314564 -0.008178057 0.007693458 0.00080948183
000230 d2 98 69 3b 3a fa 85 b8 a3 a4 9b b9 8f 71 f2 3a
       0.0035644067 -6.3885425e-05 -0.00029686568 0.0018496978
000240 c7 3b 00 bd cd fe 2b bc 6b d4 0a bc ab 70 31 3e
       -0.031307008 -0.010497761 -0.008473496 0.17328136
000250 84 e9 55 bc df 90 30 39 c1 f5 cb 3c 5d e8 0a bd
       -0.013056163 0.00016838637 0.024897458 -0.033913005
000260 e8 bb 10 bc d3 e2 63 3c 88 1e bd bc 7e aa 8c bb
       -0.008833863 0.01390906 -0.023085847 -0.004292785
000270 ec 82 2e bd 5c 99 80 b7 1e 42 df 3d 7e 07 70 3d
       -0.042605326 -1.5330203e-05 0.10901283 0.058600895
000280 ad 37 d8 bb 26 fb 10 bd 07 fe 90 bc 82 38 d7 3a
       -0.006598434 -0.035395764 -0.017699255 0.0016420039
000290 9d a5 57 bc 30 4a ec bd ad e0 c6 3c 11 3c af 3c
       -0.013162044 -0.11537588 0.024277056 0.021390947
0002a0 eb b7 90 3a 4e f9 28 b9 68 65 dd 37 96 12 da ba
       0.001104114 -0.00016114602 2.6392474e-05 -0.0016637619
0002b0 db c7 91 39 11 4c fa b7 30 7e 06 b8 72 58 2b b8
       0.0002780546 -2.9837744e-05 -3.206561e-05 -4.0851948e-05
0002c0 37 21 15 3b d2 d8 22 bb 8a c6 c1 b9 7f 68 2c ba
       0.0022755393 -0.0024848473 -0.00036959752 -0.00065768504
0002d0 97 27 0a 37 4d b7 2b 39 9c d9 67 3a c0 37 38 ba
       8.234659e-06 0.00016376116 0.0008844377 -0.00070273504
0002e0 53 1c c5 b7 37 7b d0 bb ff 6b 34 bb c8 6d 83 b9
       -2.349742e-05 -0.0063623446 -0.002753019 -0.0002506806
0002f0 3a f1 2e 39 aa 78 14 ba 05 a3 bd b6 ab 59 a0 b8
       0.00016683797 -0.00056637323 -5.651617e-06 -7.6460965e-05
000300 ac 78 8f bd 07 65 7d 3c a4 b9 04 bd a5 95 e5 bc
       -0.07005438 0.015465981 -0.032403603 -0.028025458
000310 62 a4 0b 3e 00 42 13 bc 88 23 ce 3c 7b 4d f7 3c
       0.13636926 -0.008987904 0.025163427 0.030188313
000320 46 dc fa bb 0a a3 28 3c 26 eb ca bd b7 db 3c bb
       -0.007655653 0.010292778 -0.09908132 -0.0028817484
000330 83 58 ed bc 03 74 65 bc 19 d6 c9 bb eb a4 bf bd
       -0.02897287 -0.01400471 -0.0061595556 -0.093576275
000340 f1 c0 30 3d f9 d3 86 bc 3b de e2 bc 15 07 57 bc
       0.043152753 -0.016458498 -0.027693858 -0.013124247
000350 22 4b c8 3c 44 1d f8 bc 8d 40 02 bd a8 41 e3 3c
       0.024449889 -0.030287392 -0.03179984 0.027741268
000360 ff 78 ee 3c bb 41 12 3e 99 6a 62 bd 0f 0a 3c 3c
       0.02911043 0.14282887 -0.05527744 0.0114770075
000370 d6 2a e3 3c 44 fd 13 bd 9e 47 39 3c e3 52 24 bc
       0.027730387 -0.036130205 0.011308579 -0.010029527
000380 e5 c0 2a 3d 7d 9d bc bd 14 38 96 3c 89 25 97 3d
       0.041687865 -0.09209726 0.018337287 0.07380206
000390 1e 73 45 bc 38 74 5c 3d d4 5c 2b 3c 90 03 45 bd
       -0.012051372 0.053821772 0.010459144 -0.0480991
0003a0 a6 92 a7 bb 53 20 07 bd ff 7c 1e be 2e 10 86 bd
       -0.0051139174 -0.03298981 -0.1547737 -0.06546055
0003b0 bf 4d 07 3d 42 89 4c bd fa 90 13 bd c8 8f 0a bd
       0.03303313 -0.049935587 -0.036026932 -0.033828527
0003c0 c2 82 1f 3d 2a 5e 11 bd 67 fd 29 bc 67 6c 9b bc
       0.03894306 -0.035490192 -0.010375357 -0.018972589
0003d0 c1 59 d0 bb 20 48 c5 3e 67 42 61 bc ce 84 10 3d
       -0.0063583557 0.3853159 -0.013748742 0.035282902
0003e0 4b 58 2f bd 92 f1 a1 bc a9 38 cc bc f8 d5 37 bd
       -0.042808812 -0.01976851 -0.024929361 -0.04488179
0003f0 d1 ce 33 bd b5 23 1a ba 41 e7 ce 3b 18 b6 dc bd
       -0.043898407 -0.00058799546 0.0063141887 -0.10776919
