cv_steps/tabnet_raw_step1_fold0_5/network.pt (torch, 682315 bytes, 56 tensors)

embedder.embeddings.0.weight f4 [3, 1]
00000000: 2f52 4abc 1b9a 1d3e ab2e 0bbe
-0.012348696 0.15390818 -0.13592021

embedder.embeddings.1.weight f4 [2, 1]
00000000: 4ec2 f43c 5cb1 f4bc
0.029877808 -0.029869728

tabnet.initial_bn.weight f4 [1038]
00000000: 9bc8 183e 9b8f 193e f987 393c dd29 963c
00000010: 6577 ef3d 062b 083e 3ea2 3d3d ca9a b83c
00000020: ebad 19bb 2421 793d 27fa a63e afa6 29b9
00000030: d40a 1fb9 4203 9f3d 29b7 3f3e b399 153e
00000040: 2add b63d 2418 0a3e 2391 8f3d 10c7 133e
00000050: 254c e43c 4cc4 4e3d 6012 663e 9390 de3c
00000060: 8af1 4e3e 0dad 143e 4d17 ec3d 6b6e 053e
00000070: eeb6 a73d f62c 283e cc9b 033e a6ea fd3d
00000080: 76e9 633e e80c 103e dd76 d03d 39cb 143e
00000090: d354 893e f586 ad3d 74f5 683e f843 113e
000000a0: 032f b03d d267 243e 7f4c cc3d 30d9 dd3d
000000b0: eceb 1fbb e12d a63d b965 63b9 bd8c 4c3d
000000c0: df26 f5bd fb9f 4f3e e817 703e a044 703d
000000d0: e5f8 893d 4b80 353e abc9 aa3d c0ac a43d
000000e0: c4e9 cfbd 64e2 b63b b44a a93d c9c4 0c3e
000000f0: f6ae cd3d bf30 e436 f41b 533e eb7a c33d
00000100: 1696 0e3d 2775 073e 79cd 6738 0177 223e
00000110: 48cf 943d 9203 563d fa39 1e3e 0e70 1d3e
00000120: 0d81 b03d b348 2a3e 2879 293d 0abe 6d3b
00000130: 91dd 343d ba6f b93e 4db8 723b c509 3ebc
00000140: c97a c43b 91bd 9ab7 0f75 c53c ea1b eb3d
00000150: c642 14b6 a36f 3f3d 4176 853d 1f04 ca3d
00000160: 0d7a 65bc 47df 8e3d 8722 453e aa1b 483d
00000170: dd34 3b3e 4bf5 133e 2c28 773e daa6 c13d
00000180: ef0a 033e 0c2f a53d b862 013e 10a2 c43d
00000190: c680 9f3d e932 ff3d 44b7 8d3e 98b4 6e3a
000001a0: fec9 573e 773f 793e e67f bbbd 04ae f13d
000001b0: 0816 bf3d d255 033e 9084 dd3d 470f 263e
000001c0: 7c17 0a3e 7bea d43d 9ded 993c fe50 823d
000001d0: 66e0 d03c a976 553d 2b46 663e 4685 4e3e
000001e0: e19f f93d 301b 373e 4c8d 4d3e e82e b73c
000001f0: 1549 213e 2afd 493e b1ac 273e a655 0a3e
00000200: 2892 313d aa48 0c3d 18cd 4f3e bb7c 483e
00000210: 28a8 4f3e bb50 7e3d aca1 5b3d 04c1 2a3e
00000220: 9984 013e 5f21 083e 6f67 953d ba97 eb3d
00000230: 33e4 6d3d e9b4 a7b8 d40c 823d 07de 2b3d
00000240: edfb 093e f6e6 c73d e5e9 ea3d d5df 6e3d
00000250: a4e0 f93c 1d49 2a3e ece2 073e 6bb7 2b3e
00000260: 60c2 813d 3d6a be3d 1587 003e 8e44 1a3c
00000270: 9b5c a53d fb32 263d 51ca 6c3e ff36 dd3e
00000280: 5682 8c3e 879c 4c3e 1b6f 313d 74c3 f4bb
00000290: 7950 8e3d f6e9 25b7 301b 293e a055 5fba
000002a0: 4ab8 4a3e 5146 523e d27e 043e eba3 2f3e
000002b0: 7236 3a3e 5c81 c93d 83bf 9e3c 9470 4f3e
000002c0: 7f21 c73d 0e71 9b3e 2c55 1e3e 1881 673c
000002d0: a53d b03e 9cda 093d fa65 073e 3ca4 2d3e
000002e0: f157 ae3d 08c9 433e da52 1c3d d54e d83d
000002f0: b5ca 1fbc f0a1 f43d 9c2e 4e3d e3e5 0b3e
00000300: 8b34 1f3e 456f a83d 3aa5 1a3e 08ba 1e3d
00000310: 29d6 623d 0c3b 063c dd1b 393c 6ba6 723e
00000320: 2288 743c e922 0f3c 38f0 8cbd a8c2 b33c
00000330: 5921 923e 6672 8f3e b816 4f3d ccce b63d
00000340: b8f7 0d3e 664c 3b3e c73e 1a3e b252 2a3e
00000350: ed59 223e e91c 93ba 3982 413e 00e0 083e
00000360: 1de7 023e 9ea5 803e 4b03 b53d a0fb 733e
00000370: fde9 243e 2d80 7c3d 1fd3 2bba 718d 403e
00000380: 5256 363e 60e1 5a39 ead8 0c3e 8c69 3e3e
00000390: 163c 033e bc9b e83d db46 b03d 1036 253d
000003a0: e59f d83d 2272 163e 355f 293d c988 383e
000003b0: 52c5 443e 9636 973d cfec d23d b08e 193e
000003c0: 22b9 223b 3d7c fe3d 7778 b53d b95d 843e
000003d0: eabf 0a3e b4a3 583d b1c7 1f3e 75c3 833d
000003e0: d618 523e 8465 80bd dda1 0f3e ec1a a839
000003f0: d17e 55bc 0002 963d 8d31 033e f577 c83b
0.14920275 0.14996187 0.011323922 0.018330509 0.116926946 0.13297662 0.046297304 0.022534747
-0.002344961 0.06082262 0.32612726 -0.0001617919 -0.00015167455 0.07764293 0.18722214 0.14609413
0.089289024 0.13485771 0.070101045 0.14431405 0.02786834 0.050480172 0.22467947 0.027168548
0.20209327 0.14519139 0.11527882 0.13030402 0.08189188 0.16423401 0.128524 0.12398271
0.22257027 0.14067423 0.10178921 0.14530648 0.26822528 0.08473007 0.22749883 0.14186084
0.08602717 0.1605523 0.09975528 0.10832441 -0.0024402095 0.081142195 -0.00021686302 0.049938906
-0.11970305 0.20275871 0.2344662 0.058659196 0.06736926 0.17724721 0.08339246 0.08040762
-0.10152009 0.005581187 0.082662016 0.13746943 0.10043137 6.8006043e-06 0.20616132 0.09544929
0.0348111 0.13228284 5.5266053e-05 0.15865709 0.07266098 0.0522495 0.15451804 0.15374777
0.086183645 0.16629295 0.04137531 0.0036276602 0.044156615 0.36218053 0.0037036121 -0.011599009
0.0059960824 -1.8446504e-05 0.02410367 0.114799336 -2.2092586e-06 0.046737324 0.06516696 0.09864067
-0.01400615 0.069761805 0.19251452 0.048854508 0.18281884 0.1444904 0.24136418 0.094556525
0.1279714 0.08065614 0.12635314 0.096012235 0.077882335 0.12460882 0.27678883 0.000910589
0.21073148 0.24340616 -0.09155254 0.11800769 0.09330374 0.12825707 0.108163 0.16216765
0.13485521 0.10396286 0.01879006 0.06363104 0.025497627 0.052115116 0.22487704 0.20168027
0.121886976 0.17881465 0.20073432 0.022361234 0.15750535 0.1972548 0.1637447 0.13509235
0.043352276 0.034248985 0.20293081 0.19578831 0.2027899 0.06208871 0.05362098 0.16675192
0.12648238 0.1329398 0.07295119 0.11503549 0.058078956 -7.996878e-05 0.06350103 0.04195979
0.13475008 0.09760849 0.11470393 0.05831893 0.030502625 0.16629453 0.13270158 0.16769187
0.06335902 0.09297607 0.1255153 0.009415759 0.08074304 0.040575963 0.23124053 0.4320602
0.27443188 0.19981585 0.04331885 -0.007469589 0.06948943 -9.88924e-06 0.16514277 -0.0008519534
0.19796863 0.20534636 0.12939003 0.17152373 0.18184832 0.098391265 0.01937843 0.20257789
0.09723186 0.3035969 0.15462178 0.014129899 0.3442203 0.033655748 0.13222495 0.16957182
0.08512867 0.19119656 0.03816495 0.10561911 -0.009752919 0.119449496 0.05033742 0.13661914
0.15547387 0.08224348 0.15102091 0.038751632 0.05538002 0.008192789 0.011298147 0.23696296
0.014925035 0.008736351 -0.068817556 0.021943405 0.28541067 0.28016967 0.050558776 0.08926162
0.13864028 0.18290862 0.1506301 0.16633108 0.15854616 -0.0011223826 0.18897332 0.13366699
0.12783475 0.25126356 0.08838519 0.23826456 0.16104884 0.061645675 -0.0006554592 0.18803956
0.17806366 0.00020874059 0.13754621 0.1859495 0.1281589 0.11357829 0.086072646 0.04033476
0.105773725 0.14691976 0.041350562 0.1802093 0.19215897 0.07383458 0.10299074 0.14995837
0.0024829586 0.1242604 0.088608675 0.25852755 0.13549772 0.052890494 0.1560352 0.06433765
0.20517287 -0.062693626 0.1402659 0.00032063515 -0.013030724 0.073246 0.12811871 0.0061178156

tabnet.initial_bn.bias f4 [1038]
00000000: ae7f 643e 5ce4 1e3a f305 fa35 f909 31b8
00000010: a139 74ba a17f 41b9 6a4b d4b5 cc85 8837
00000020: 498b acb7 095e ae39 9a99 fc38 1447 1d35
00000030: d724 70b4 b050 4638 311d 5339 55fd d737
00000040: 7948 3439 f8ff 8039 1e7f 2039 6313 2038
00000050: 7fe2 25b8 dc28 7a38 cedc d939 1f7d c7b7
00000060: 6652 9b3a 1d34 f8b8 7f5f 3cb8 73d9 0337
00000070: 2b8d ac38 0cbf 5eb8 cd1f 87b9 baef d139
00000080: df3f 3f3a ffbf 9cb8 d8ac 4539 0bf1 c039
00000090: 6a4e 873a b1bb 21b8 ea17 c939 5400 4c39
000000a0: ba3a b037 2f23 3c39 ad80 23b8 956e 4d37
000000b0: b95a 73b5 23fa d3b8 602c 4736 533a b939
000000c0: 8893 db37 b45d bab8 4925 b638 761d 7b38
000000d0: c0b7 b2b8 2e4b 36b9 07b2 3438 a13a 3a39
000000e0: 5f95 ae38 cef0 6636 6ab5 1335 ee14 b5b6
000000f0: d184 c2b8 3030 0532 3752 1f3a a7ba c138
00000100: a3a2 d73e f998 d139 c393 bbb4 b2a1 de3e
00000110: 3d9c 0fb9 5f14 0535 879a fa39 8fc0 00b9
00000120: cc3a f239 36d0 833e 177f d839 5a5c 3037
00000130: e920 88b8 6722 9739 d73f b137 782f 87b9
00000140: 297b 1eb6 102e 9cb3 4398 d1b6 02a4 7239
00000150: aab0 4ab1 3f40 33b8 e5b3 ab3e 303c 8738
00000160: 6f03 5ab8 fe7b 7138 d255 8eb9 2161 4139
00000170: d199 043e a515 ceb7 e0d9 0f3d 910b 95b9
00000180: 5291 1cb9 14bf 09b9 385a 2e39 a105 b4b9
00000190: 081c cfb8 ec7d e2b7 c462 75b9 31da 24b6
000001a0: d83a a139 c8ad 9039 6ff1 0939 8e18 17b9
000001b0: 6d64 0cb9 1415 c937 f02b 8b39 64d2 bc38
000001c0: 308c 8b37 ecf3 d1b9 ba95 ce37 f7b1 6b39
000001d0: e49e d5be a3a5 3e38 b9d1 77bd f613 02bb
000001e0: 649e 7bb7 f3ca 8b38 408c f839 c1b2 3a38
000001f0: e1d7 74b9 9745 2cb9 068c cd39 9309 29b8
00000200: 09b6 a939 772c 1ab8 da33 723a b0fc 65b9
00000210: 834b 9439 458a 81b9 fb2a 53b5 a3e2 5bb8
00000220: ccd2 1339 ffba 7fb8 59e4 ebbc d298 6039
00000230: 5e42 9238 dfa7 4335 c196 3b38 5acc 3039
00000240: b577 9cb9 99fc bdb7 2647 30b9 5532 1fb8
00000250: 094e 8a38 2bf3 bfb9 8387 0a37 69a7 25b9
00000260: 3489 1038 c51a bf39 5229 9139 a351 98bb
00000270: 4f87 30b9 95f4 ab39 a187 6eba 47a0 ef36
00000280: 03d8 0639 cc3c d7b7 062d 2f39 6981 a0b7
00000290: 1a94 dbb8 c127 c7b1 afe6 adb8 ba4a bf31
000002a0: e1c8 a3b9 ace0 f4b9 524d 00b9 c497 d239
000002b0: b3a9 feb8 2048 4238 4699 d436 dcdb 4f39
000002c0: 5512 01b9 5165 abb6 187b eab8 0a02 79b9
000002d0: 6b1f c1bd 7226 2a38 5f52 f336 bdbe e139
000002e0: 8e58 e2b7 6d35 023a 9960 2f39 caa3 30b7
000002f0: 1681 e136 50ce fb38 9870 81b7 ed8d 1d39
00000300: d250 6238 bc46 6938 232e 8cb9 1d9a 6538
00000310: 1c6b 96b9 d7ab e537 47b2 ceb8 846c edb8
00000320: 1b34 8db8 a61b 1c38 fd72 31ba c1ed bb3e
00000330: dee3 2e39 71ec 863a 91ca c7b9 5f8c 9138
00000340: 58e7 21ba 542d 74b9 90ff d33c 2516 a3b8
00000350: 6c18 0fb9 e98f 4235 b6db 1db9 036c 07ba
00000360: 7d8b 15b5 120e f73d 359b 8038 1cd1 ee39
00000370: 7c9a 7fb8 74a7 b3b8 9ad8 3537 50c9 5fb8
00000380: 3096 31b8 a3ad 1a35 d696 913d ce42 17ba
00000390: 3ca5 15ba 9269 3b3a 5ca6 5839 06c6 c6b6
000003a0: f409 aa37 cbdb dfb7 2f1c 0537 c616 00b8
000003b0: 4e08 e3b8 eb7e d5b9 b942 dcb9 c7a9 19b9
000003c0: 77dc 2536 41ca 8db8 c436 11b8 0e2a eb38
000003d0: be93 8d39 2f79 d5be 5f97 4eb9 c732 4238
000003e0: 982f ce3b 8111 a338 a2b9 2fb7 0df5 8534
000003f0: 5583 85b6 01de 7138 ec09 3bb5 35ef 2337
0.22314331 0.000606125 1.8628183e-06 -4.2209376e-05 -0.00093164487 -0.0001845346 -1.5817179e-06 1.6274767e-05
-2.0568858e-05 0.00033257928 0.00012044907 5.859049e-07 -2.2365144e-07 4.7282025e-05 0.00020133403 2.5747964e-05
0.00017193136 0.00024604774 0.00015306144 3.8165028e-05 -3.9550006e-05 5.9642698e-05 0.00041553978 -2.3780913e-05
0.0011850118 -0.000118352684 -4.491163e-05 7.858837e-06 8.227894e-05 -5.310685e-05 -0.000257729 0.00040042197
0.00072955893 -7.474422e-05 0.00018851773 0.00036800685 0.0010323052 -3.8560192e-05 0.00038355525 0.00019455078
2.1008182e-05 0.00017942184 -3.8982067e-05 1.2244699e-05 -9.0656573e-07 -0.000101078556 2.967914e-06 0.00035329405
2.6175534e-05 -8.886625e-05 8.685381e-05 5.98705e-05 -8.5219275e-05 -0.00017384879 4.3081145e-05 0.00017760183
8.324789e-05 3.4412838e-06 5.502576e-07 -5.396657e-06 -9.27538e-05 7.7525755e-09 0.00060776196 9.237724e-05
0.4211627 0.0003997756 -3.4938975e-07 0.4348274 -0.00013695746 4.9576005e-07 0.00047798848 -0.00012278765
0.00046201644 0.2574479 0.0004129342 1.051192e-05 -6.491115e-05 0.00028826596 2.1129772e-05 -0.00025784574
-2.3615523e-06 -7.272695e-08 -6.246411e-06 0.00023140016 -2.949529e-09 -4.273676e-05 0.33535686 6.4485124e-05
-5.1978448e-05 5.7574354e-05 -0.00027148292 0.00018442098 0.12949301 -2.4567193e-05 0.03511989 -0.00028428112
-0.00014931455 -0.0001313652 0.00016627542 -0.0003433647 -9.8757504e-05 -2.6999936e-05 -0.00023401814 -2.4564908e-06
0.00030752155 0.00027595297 0.00013155279 -0.0001440963 -0.00013388852 2.3970882e-05 0.00026544882 9.003727e-05
1.6635371e-05 -0.00040045322 2.4626836e-05 0.00022477644 -0.41722786 4.545379e-05 -0.06050274 -0.0019848323
-1.4997644e-05 6.665839e-05 0.0004740674 4.4512333e-05 -0.00023350074 -0.00016429122 0.00039204973 -4.0301657e-05
0.0003236982 -3.6757872e-05 0.0009239294 -0.00021933275 0.0002828502 -0.00024707816 -7.866617e-07 -5.242474e-05
0.0001409754 -6.097089e-05 -0.028795408 0.00021419235 6.974184e-05 7.2887445e-07 4.4724675e-05 0.00016860795
-0.00029843827 -2.264818e-05 -0.00016811173 -3.795543e-05 6.594888e-05 -0.00036611533 8.256992e-06 -0.00015797991
3.4460056e-05 0.00036450304 0.0002768734 -0.0046484037 -0.00016835074 0.0003279789 -0.000909919 7.141414e-06
0.00012859706 -2.5658308e-05 0.00016706073 -1.9133748e-05 -0.0001047032 -5.7961818e-09 -8.292251e-05 5.567327e-09
-0.0003123945 -0.000467067 -0.00012235835 0.00040167395 -0.00012143273 4.6320376e-05 6.3359357e-06 0.00019822962
-0.00012309228 -5.107992e-06 -0.000111809175 -0.0002374725 -0.094298206 4.0566963e-05 7.2515536e-06 0.00043057455
-2.6982536e-05 0.00049670675 0.00016725286 -1.0528553e-05 6.72055e-06 0.000120070414 -1.5430429e-05 0.00015025558
5.395787e-05 5.5617405e-05 -0.00026737255 5.4741384e-05 -0.00028690032 2.7378946e-05 -9.856052e-05 -0.00011321253
-6.733109e-05 3.7219048e-05 -0.0006769149 0.3670483 0.0001667882 0.0010293854 -0.00038107162 6.940285e-05
-0.00061761355 -0.0002328654 0.025878698 -7.7765704e-05 -0.0001364664 7.248005e-07 -0.00015054535 -0.00051659363
-5.570981e-07 0.120632306 6.132425e-05 0.00045550696 -6.0940612e-05 -8.566576e-05 1.0838872e-05 -5.335483e-05
-4.233996e-05 5.7622145e-07 0.07108848 -0.00057701475 -0.0005708521 0.0007149215 0.00020661339 -5.923913e-06
2.0270214e-05 -2.668602e-05 7.93398e-06 -3.0538788e-05 -0.0001082575 -0.00040721087 -0.00042011382 -0.00014654464
2.4715243e-06 -6.761077e-05 -3.46217e-05 0.000112135065 0.00027003692 -0.41694018 -0.00019702081 4.6300494e-05
0.0062922947 7.775706e-05 -1.0474034e-05 2.4951478e-07 -3.978998e-06 5.7665635e-05 -6.9677367e-07 9.771252e-06

tabnet.initial_bn.running_mean f4 [1038]
00000000: 4dde 0dba 892d 263a a8bc a73b 959a 033b
00000010: 938d af3b c7ea 113b aa49 1cbb b735 9aba
00000020: fbd7 9ebb 051f 51bb cfa5 75bc cbcc 7c3b
00000030: 4846 883b 1b3d 2bba a9bf 803b 4ac9 893b
00000040: 8ec9 643b 6114 5dba 33fd 8d3a 793f 16bb
00000050: 2cc1 bbba 8e4e 12ba 5d1f 8e3a 7773 8cbb
00000060: 86c0 383b 4f2b a5bb 99df 62bb 24ab eb3a
00000070: 0335 62bb a19a afb9 4164 ec3a 168d 6f3a
00000080: adc3 1f3a ff73 0c3c 4c43 f2bb bdf2 c4b9
00000090: d078 8d3b 448d 2fbb ae72 e1bb 842f 41bd
000000a0: 9c33 143d 1ff2 603b df70 42bc 082e 67ba
000000b0: f9f4 baba 7b2a 1c3b e82f 9d3b e13c 9bbb
000000c0: c5c5 813b 8c53 4c3b 0360 9e3b d2ba 5b3b
000000d0: b270 4fbd 5e63 f6b9 81b7 aa3a 9123 b83b
000000e0: fb5e 263a 743d dbbb 0035 d3ba 9e2a 783b
000000f0: 3b03 b8bc b7f0 c1bb 9ab3 863a bad3 b4bb
00000100: eefd 003a ee09 34bc 6385 21bb 7660 663b
00000110: 2419 2b3b 8daf 4dbd 92ee 053b aef1 053b
00000120: cad0 9cbb ccb0 14bb c8ad 8dbc 2a0d 1bb9
00000130: 8a5e 313c 622d 41bd dd87 e1ba b1ae 273b
00000140: d50e 6dbb 4733 4c3b 92a9 e8ba 9053 bf3b
00000150: b096 1fbb f08f 8d3a f67e a23b e509 c6b8
00000160: e875 053c 977b dc3b f493 c53b 4e02 a23b
00000170: 0cd5 d43b 9d63 0b3c a4fe 38bb c01e 61bb
00000180: 7bdf 0fbb 6205 07ba 9444 d1bb b224 b139
00000190: ce45 dcbb c47e 2f3b a71d 8c3c 788d d63a
000001a0: 750a 333b 11e3 1a3b f9d4 563b 1caa 583b
000001b0: 3514 153c 1379 9cb9 b93a f43a 408b 5aba
000001c0: 97c5 62bb 6544 1ebb 2967 d838 2973 8dbc
000001d0: ed8a 8a3a 466f c03b 1f6c 48bb d1b7 c739
000001e0: cdc5 743a 6ab4 c6bb 83e5 bebb 02af 92bb
000001f0: 89bf 0f3b a353 b73c c7a2 683b 7ec2 cd39
00000200: 143b c3ba a297 14bb 066b 8bbc aa8b 85ba
00000210: 5b91 bf3b 198e 0a3d 91df 9c3b 2254 513b
00000220: a802 a7ba b427 0d3c cfee 6ebb 69c9 073b
00000230: b5f7 24ba 1359 6f3b e4cf 45ba 7186 473b
00000240: 7469 6a3b 3d89 c7b9 ca0d 063c f038 3f3b
00000250: 907b fc3b c4f0 183c 3d63 b93b 8ad1 b9ba
00000260: 48a5 e3bb 19ea d53a 9adb 76bc f949 4e3b
00000270: 196a 9e3b 0cf6 3c3b 1c2f 84ba 4afd c23b
00000280: 94bd b43c c0a7 b0bb aef2 01bc 1db5 b7bb
00000290: 0fe7 653a 46f3 9b3b 9b49 e33b 22c2 b6bb
000002a0: b735 daba 0500 963b 479f f639 bd41 703a
000002b0: 6e1b 3f3c 6494 b7ba 2235 5fb9 c7ee cb3b
000002c0: 3017 0a3b dad0 ebba 9cc3 7eba 2838 f13a
000002d0: b959 1abc 35cc efbb 47ad eeba 720f bb3a
000002e0: 00e2 fe3a 216b c9bb c542 f23a 2049 babc
000002f0: c9dd f4bb 5833 053c 5f49 25bb acdd d9ba
00000300: 409b 02bb 460e ac39 b290 bbbb 9370 bc38
00000310: 72d8 ae3b d792 66bc 77dd 8bbb 7ddc 3f3b
00000320: 723e 3b3a 7aeb 72bb b56f a73a e393 6b3c
00000330: c8f0 1cbc 8a44 073b fc88 e6bb b666 c239
00000340: 7122 b63b df72 f23a 866b 2c3c 4c40 11bb
00000350: 1622 c839 26cd f539 654a 5eb9 b202 7f3a
00000360: e7b4 683b 9582 473c 1abe 5039 eba8 933b
00000370: 1736 54b8 9ca0 9439 3976 dfba 306d 9dbb
00000380: 5d03 bf3b 300f 90bb 6dfe d33a f92a 453b
00000390: fe24 ab3b 8aad e439 07ba 80bd 6832 bc3a
000003a0: 1213 9ebb b56b 90bb b23b aa3a 0c23 bc3b
000003b0: e1d2 e239 d2ec 003c 7fad 863a ce2a 553a
000003c0: fc12 9bbb da0f a33a aad0 133b 56ac a6b9
000003d0: 01d8 5d3b 3d2d 803b 2f68 6cba 175a cab9
000003e0: c48a 8ab9 70b8 293b 17b7 983c 9ca1 083b
000003f0: 32f2 0abc b3c5 ae3b 15f2 8d3b e193 803a
-0.00054118485 0.0006339183 0.005118925 0.0020081152 0.005357453 0.0022265182 -0.0023847618 -0.0011765276
-0.004847524 -0.0031909358 -0.014993145 0.0038574215 0.004158769 -0.0006532238 0.0039290977 0.0042049037
0.0034910175 -0.00084335177 0.0010832906 -0.0022926016 -0.0014324537 -0.00055811636 0.0010843087 -0.0042862254
0.0028190925 -0.005040563 -0.0034618138 0.0017980081 -0.003451646 -0.0003349381 0.0018035249 0.000913815
0.00060945266 0.0085725775 -0.0073932763 -0.00037564887 0.0043173805 -0.0026787082 -0.006880126 -0.047164455
0.03618203 0.0034324003 -0.011867731 -0.000881881 -0.0014263681 0.0023829031 0.0047969706 -0.004737482
0.0039603435 0.0031177728 0.004833223 0.0033528102 -0.050644584 -0.0004699481 0.0013024659 0.005619474
0.00063465507 -0.0066906754 -0.0016113818 0.0037867199 -0.022462478 -0.005918588 0.0010276914 -0.005518404
0.0004920651 -0.010988696 -0.0024646155 0.003515271 0.0026107514 -0.050216246 0.0020436388 0.0020438242
-0.004785632 -0.0022688387 -0.01729478 -0.00014786856 0.0108257625 -0.04716242 -0.0017206628 0.0025586302
-0.003617217 0.0031158493 -0.0017750731 0.005838819 -0.0024351291 0.0010800343 0.0049589826 -9.443219e-05
0.008145787 0.0067286002 0.0060296003 0.0049441224 0.0064951237 0.008507636 -0.002822795 -0.0034350604
-0.0021953273 -0.00051506434 -0.006386349 0.0003378741 -0.0067221886 0.002677844 0.017103983 0.0016369065
0.0027319465 0.0023633877 0.003278075 0.0033060377 0.009099056 -0.00029844846 0.0018633223 -0.000833679
-0.0034602636 -0.0024149653 0.00010318898 -0.017266827 0.0010569968 0.00587264 -0.0030582023 0.00038093192
0.0009337336 -0.0060639875 -0.0058257 -0.004476429 0.0021934232 0.022378748 0.0035497413 0.00039245555
-0.0014894926 -0.0022673388 -0.017018806 -0.0010188718 0.005846185 0.03382692 0.0047873934 0.0031941016
-0.001274188 0.008615423 -0.003645826 0.0020719415 -0.0006293015 0.0036521598 -0.0007545932 0.0030445124
0.0035768421 -0.00038058488 0.0081819985 0.0029178225 0.0077051595 0.009334747 0.005657582 -0.0014176827
-0.0069471933 0.0016320377 -0.0150670055 0.0031477197 0.004834425 0.0028833179 -0.001008484 0.0059506046
0.022063054 -0.005391091 -0.0079313945 -0.005606307 0.0008770087 0.004759225 0.0069362647 -0.0055773417
-0.0016648088 0.004577639 0.00047039447 0.0009165069 0.011664255 -0.0014006016 -0.00021286731 0.006223533
0.002107095 -0.001799132 -0.0009718479 0.0018403577 -0.009420806 -0.0073180445 -0.00182096 0.0014271571
0.0019446015 -0.006146804 0.0018483034 -0.022739947 -0.007472728 0.008129917 -0.0025220735 -0.001662185
-0.0019928962 0.0003281703 -0.005724036 8.985507e-05 0.005335861 -0.014073095 -0.004268344 0.0029275708
0.0007142789 -0.0037066624 0.001277438 0.014378521 -0.009578891 0.0020640218 -0.007035373 0.0003707909
0.005558305 0.0018497369 0.010523682 -0.0022163568 0.0003817237 0.0004688289 -0.00021199284 0.00097278797
0.0035508217 0.012177129 0.00019907244 0.0045062206 -5.0595114e-05 0.00028348423 -0.0017048783 -0.004804276
0.0058292584 -0.0043963417 0.0016173847 0.0030085428 0.0052229157 0.00043616846 -0.06285482 0.0014358284
-0.0048240507 -0.004407371 0.0012987761 0.0057414826 0.00043263196 0.007868962 0.0010275095 0.00081316836
-0.0047324877 0.0012440637 0.0022554793 -0.00031790388 0.0033850672 0.003911643 -0.000901821 -0.00038595565
-0.000264248 0.0025897287 0.018641992 0.002084828 -0.008480595 0.005333626 0.004331837 0.0009809696

tabnet.initial_bn.running_var f4 [1038]
00000000: dbc8 653c 24ac 893a c45b 7d3f e454 793f
00000010: 5492 773f 5708 793f 9ab6 783f 8c2a 783f
00000020: ff64 783f f937 793f 064a 8a3f 380a 7b3f
00000030: 852b 793f d2cc 793f 9580 783f f082 7d3f
00000040: 962b 7b3f 03f9 793f 87e3 7a3f 7eaa 7b3f
00000050: 2242 793f b5eb 783f 86bf 793f d7d0 793f
00000060: e1aa 783f 9c34 773f ab46 7b3f 8955 793f
00000070: d046 793f eb10 793f 9b76 773f 8fa4 7a3f
00000080: a528 793f b1c1 863f d8f9 783f 5dda 7b3f
00000090: a855 7b3f d226 793f dcd3 7e3f 0bff a23f
000000a0: 142c 963f b596 783f 2408 803f 2361 793f
000000b0: a722 7a3f e191 7a3f 1bb7 773f bbcc 773f
000000c0: ca51 813f 1b1a 7a3f bd5b 7e3f ab30 783f
000000d0: 1a9e a73f d19c 773f c573 793f 3a7a 7a3f
000000e0: e0b5 7b3f 6428 7e3f 7af3 7a3f fd16 7d3f
000000f0: a784 913f 1e7c 7d3f 92c3 783f d26b 7a3f
00000100: 5c94 843f 38ab 853f 60a4 783f df7d 793f
00000110: 4d5d 783f b61f b03f 17a5 793f adad 793f
00000120: f16c 793f c264 7b3f bbc7 8e3f a3ba 793f
00000130: aeb3 853f 4964 a73f b57d 783f ffb7 793f
00000140: 2c50 793f a813 783f d80d 783f 9d7e 783f
00000150: 7596 773f 09ac 793f f408 793f 0f51 793f
00000160: 17b4 833f d219 7b3f 2e39 773f 7d6c 793f
00000170: 2163 7a3f 0b5c 813f 17b9 793f 4c71 7b3f
00000180: a80d 793f 08fe 7a3f 800c 813f 01c1 813f
00000190: 347b 803f d1db 783f 89eb 893f 2509 783f
000001a0: 3db9 7c3f 9555 793f 2c27 783f 12e8 783f
000001b0: bae4 803f d56c 7a3f ba49 783f 8443 773f
000001c0: d18e 773f b74d 7a3f bb8a 7a3f ab67 8e3f
000001d0: 2374 7a3f faed 783f 6b4d 7b3f f177 7b3f
000001e0: fae5 783f 210d 7a3f a464 793f db4c 813f
000001f0: e2e7 773f 5758 953f 232e 783f c97f 793f
00000200: 7cb1 7b3f 06ac 763f eedf 8d3f a0a8 773f
00000210: f3a9 813f 16c0 9b3f 20b2 7f3f 9473 7c3f
00000220: c026 7a3f 149e 773f 0a85 7a3f 156c 7a3f
00000230: 8bb4 7a3f bb9e 7a3f cc05 793f 770c 783f
00000240: 2c74 7d3f 2c09 763f 9a08 813f 14ea 7a3f
00000250: 95fb 7d3f 9692 833f 9224 803f 7595 793f
00000260: 3ca8 773f 0994 793f 2d0e 833f b1ac 773f
00000270: d679 793f d190 813f 40ee 7a3f 2e35 7b3f
00000280: 0880 933f 5a89 793f 515f 7d3f 4f79 7a3f
00000290: 5941 7a3f 13b7 823f ae8a 813f 685b 783f
000002a0: bd64 7a3f 5b73 7a3f 404e 7a3f c102 7a3f
000002b0: 34d2 853f 0abd 793f b31e 793f a875 793f
000002c0: 7866 773f fd04 793f 8670 783f 3baa 7b3f
000002d0: 92ef 8b3f fd2c 793f 5e5c 793f d69a 7c3f
000002e0: cdbf 783f d36c 813f aadb 783f a019 913f
000002f0: 67f7 793f 36dc 773f 30e3 763f 8ab9 803f
00000300: 80a4 793f bf2a 783f 4294 793f 3cf0 773f
00000310: 1a9b 7a3f c93f 8b3f 914b 7a3f e7b0 803f
00000320: 80b8 7c3f 5708 783f c334 793f 4f70 883f
00000330: 85d5 893f b46c 783f cf56 7b3f d846 793f
00000340: 395a 793f 7ea3 783f cea4 893f 5165 783f
00000350: c744 7c3f 3d09 7a3f 8fee 763f 1459 7c3f
00000360: c588 783f ef1f 813f ea69 783f 7f02 793f
00000370: dd84 7a3f 4687 783f 7bc6 793f c1c4 7a3f
00000380: b329 793f 9bd6 773f 6401 7a3f cdec 793f
00000390: 428a 833f 1c5b 773f 072c bb3f 38de 793f
000003a0: 1f60 7a3f b4ee 7f3f c1f2 7a3f b624 783f
000003b0: fcb9 783f 3a12 7d3f e327 793f 8be4 793f
000003c0: a232 793f e5eb 793f 8e3a 783f 5dd8 7b3f
000003d0: 1760 793f 79d0 803f 9669 7c3f 449b 7a3f
000003e0: 86a3 773f 6e82 783f e308 923f 56e2 7c3f
000003f0: 50c2 863f b11b 813f de24 7a3f 01e3 7a3f
0.014024938 0.0010503572 0.9896815 0.9739516 0.96707654 0.9727835 0.9715363 0.9693992
0.9702911 0.9735103 1.080384 0.9806247 0.9733203 0.97578156 0.970712 0.9902792
0.9811338 0.97645587 0.9800343 0.98307025 0.97366536 0.9723466 0.97557867 0.9758429
0.9713574 0.9656465 0.98154706 0.9739614 0.97373676 0.9729144 0.9666535 0.97907346
0.97327644 1.052786 0.9725623 0.9838007 0.98177576 0.9732486 0.9954202 1.2734083
1.1732202 0.9710496 1.0002484 0.97413844 0.97709125 0.97878844 0.9676377 0.9679677
1.0103085 0.97696084 0.9935873 0.9694926 1.3095124 0.9672366 0.97442275 0.9784275
0.98324394 0.9928038 0.98027766 0.988632 1.1368607 0.9901751 0.97173417 0.9782077
1.0357776 1.0442877 0.97125816 0.9745769 0.97017366 1.3759677 0.9751753 0.97530633
0.97431856 0.9820062 1.1154703 0.9755041 1.0445459 1.307748 0.97066814 0.9754638
0.9738796 0.96904993 0.96896124 0.97068197 0.96713954 0.9752813 0.97279286 0.9738931
1.0289334 0.98086274 0.96571624 0.97431165 0.9780751 1.0106214 0.9754805 0.9821975
0.9728646 0.9804387 1.008194 1.0137025 1.0037599 0.97210413 1.0775005 0.96888953
0.9872015 0.9739621 0.9693477 0.9722911 1.0069802 0.97822315 0.969875 0.96587396
0.96702296 0.97774833 0.97867936 1.1125387 0.9783346 0.97238123 0.98165005 0.9822989
0.97225916 0.97676283 0.9741919 1.010158 0.968382 1.1667584 0.969454 0.9746061
0.98317695 0.96356237 1.1083963 0.96741676 1.0129989 1.2167995 0.9988117 0.9861386
0.9771538 0.96725583 0.9785925 0.9782117 0.97931737 0.97898453 0.9727447 0.9689402
0.9900539 0.96107745 1.008075 0.98013425 0.9921201 1.027911 1.001116 0.9749368
0.9674108 0.9749151 1.0238701 0.9674788 0.9745153 1.012232 0.9801979 0.9812802
1.1523447 0.97475207 0.98973566 0.9784135 0.9775596 1.021212 1.0120447 0.97014475
0.97809964 0.9783227 0.9777565 0.9766045 1.0454774 0.97554076 0.9731247 0.97445154
0.9664073 0.97273237 0.970467 0.98306626 1.0932486 0.9733427 0.97406566 0.9867376
0.97167665 1.0111336 0.9721018 1.1335945 0.9764313 0.9682039 0.9644041 1.0056622
0.9751663 0.96940225 0.9749185 0.96850944 0.97892916 1.0878841 0.97771555 1.0053986
0.98719025 0.96887726 0.97346133 1.0659274 1.0768286 0.9704087 0.98179334 0.97373724
0.97403294 0.9712447 1.0753419 0.97029597 0.98542446 0.97670346 0.9645776 0.9857342
0.97083694 1.008787 0.9703661 0.97269434 0.97858983 0.9708141 0.9756848 0.9795647
0.9732925 0.96811837 0.9765837 0.97626954 1.0276568 0.96623397 1.4622811 0.97604704
0.9780292 0.9997361 0.98026663 0.96931016 0.9715879 0.98855937 0.9732649 0.97614354
0.97342885 0.9762557 0.9696435 0.9837702 0.97412246 1.0063621 0.9859861 0.97893167
0.9673389 0.9707402 1.1408962 0.9878286 1.052805 1.0086576 0.97712505 0.9800263

tabnet.initial_splitter.shared.shared_layers.0.weight f4 [96, 1038]
00000000: dd41 eabc a5ea 6f3c d283 a3b8 838a b4b9
00000010: 182b 4a3b eb0d b53b b6ba b03a d9a1 4bba
00000020: 709a b239 a227 0bbc 9c0e 55bc c723 ccb6
00000030: f02d 5b36 af43 4b3b b86d 2b3a 4d87 183c
00000040: b8de c2bc d6d1 243c 2aa2 833b fd47 12bc
00000050: bcfa 83bb 11ba 863b da3a 383b 10cf 6db9
00000060: 476d 0dbd f7ca 143b 607b 113c 570a 4dbb
00000070: 03b8 11bc 404b 88b8 ca34 713b 55ab c43b
00000080: cbcb d1bc 71f8 3d3b 1e5f aabb e1db 6abb
00000090: 34fe 0cbd af7e d839 511d 9b3c cc86 41bc
000000a0: 0a14 ee3a 3ee9 ad3b 3f17 2d3c 5559 0ebc
000000b0: 4da0 5f37 66f9 ac3b 1184 53ba 7136 dfbb
000000c0: f44c 40bb 6ed7 b9ba 1e63 6cbb c164 3439
000000d0: 18f4 8ebb 7bce 1d3c ca47 bf3b 6d20 51bc
000000e0: 9982 ddbb 44c5 0ab9 08e0 70b9 4be6 a93a
000000f0: 1d8a 153b 03e9 f0b4 3d29 73bc 3ede bfbb
00000100: 7d04 9ebc 919b 09bc f294 f936 aef7 df3d
00000110: 4e6b 6a3c c292 d0bb 09b8 6b3b a91d 263b
00000120: 594f c4bb f73a 9f3c 30a7 3dba 617e 3b38
00000130: 27f2 b63a ce22 7abc 0c96 0037 f90e ec3a
00000140: 7642 2e39 5b25 3036 c44d 103b 3c08 c33a
00000150: 8f7b 5ab5 35ae 5ab9 ba3b 99bd 3a87 d6bb
00000160: eb0a 503b 68d4 4cbc d149 b83c 4ab2 39bb
00000170: 10de 7dbc a321 4b3c 0c8f 87bd d1f2 873c
00000180: 62e5 fd3b 1b98 dc3b ae3f 2fbc 258c da3b
00000190: e020 e5bb 631c 073b 56af ee3c bbf6 8db7
000001a0: efcb 1f3c 5937 c53c e868 0ebc aff1 6639
000001b0: 4936 c13b 6a67 053c 82ff 86bb c81c a2bc
000001c0: e49e a33b 558d f23b 795f 6e39 8bd8 6abc
000001d0: ca83 b63d 014d 5139 78a0 af3c 3a3c a83b
000001e0: 294a dfbb c5d3 a6bb d315 4cbc 02e8 58bb
000001f0: cf38 24bc b69f 563b 33d2 c3bb ce42 9bbc
00000200: bfa7 e13b 6455 ddba 5153 1b3c 67a9 433c
00000210: 0132 de3b 1cbc d93b 92b5 a8ba 38a3 d3bb
00000220: 374b 6ebc 3194 073c 5e2b bdbb 456b b5bb
00000230: f94f 3dbb 719f c235 2a44 173b 0cdd bdbc
00000240: 7b16 8c3c 91a6 4ebc 17ca 7e3c 34c2 ad3b
00000250: 0088 50bb acf7 9c3c 0424 8fba f819 8a3c
00000260: 3ba2 c9bb 4e7b b8bb 4726 7eb9 61ae aeb7
00000270: 011f 513c 1f25 0f3c 7aa5 53bc b133 833a
00000280: 036e 88ba cbf7 9d3c 73b2 e8bb eb79 8039
00000290: 95bc 97b9 cbf6 e734 2757 0a3c 321a bfb8
000002a0: 2df2 af3c 3f95 753c 3801 e23b bd94 6cbc
000002b0: 2a45 543c b4f8 fe3b 1acd b6b9 54a5 adbc
000002c0: 0a54 ac3b dca4 b33a 8fb7 713c af17 e53b
000002d0: 527b 8bbd edfc e238 326a e73b dc1c 893b
000002e0: 73d0 ec3b 60a8 4ebc 25b2 bfbb af48 563b
000002f0: c20f bfba 8174 343b e8a3 38bb b2fc 8e3a
00000300: a9c6 b0bc 1ebf 353a 020d 573c 297c 0bbb
00000310: 0dbc a0bb 8a64 26bb acf2 933a b79d ee3c
00000320: cee9 5b3b 380c 543a feb1 763c 5979 31be
00000330: 2584 973b 39e7 42bc 770e d83b ee84 c1ba
00000340: 5875 613c baa4 1a3c e857 7f39 696c aa3c
00000350: add3 b03c aad9 90b8 8465 0a3c 2e8e 963c
00000360: 2d0f 41ba 256c 0abd 6594 3abc 53af 0cbd
00000370: daf9 2e3c e0fe 00bc 5f78 c036 54a6 473c
00000380: 47f4 23ba 03d5 d1b6 858c f13a 2485 bcbb
00000390: c1a5 c6bb 89be 81bb d059 06bd 3f6f d53a
000003a0: da22 473a c2e8 1d3c bca0 2a3a 3e68 7c3c
000003b0: d16e 73bc 036a b33b b88d 9e3c 8eb1 b339
000003c0: ed48 76ba fe48 ea3b 7b33 89bb 04b1 a9bc
000003d0: 6a53 4dbc afc9 2cbb b106 1d3b 906d 48bb
000003e0: 342d 543b f1b2 933a 06df 84bb bd5c ee37
000003f0: 4f10 5c38 c98c 923b 45b8 333c 53c3 beba
-0.02859586 0.014643346 -7.796999e-05 -0.00034435475 0.003084844 0.005525341 0.0013483379 -0.00077679526
0.0003406587 -0.008493336 -0.013003971 -6.083839e-06 3.2660282e-06 0.0031015684 0.00065394817 0.009309602
-0.023787841 0.010059794 0.004017134 -0.008928296 -0.0040276926 0.0041115363 0.002811125 -0.00022679218
-0.034528043 0.0022703984 0.008879513 -0.003128668 -0.0088939695 -6.499002e-05 0.0036805146 0.0060018697
-0.025609871 0.0028987194 -0.005199327 -0.0035836624 -0.034422114 0.00041293117 0.018934878 -0.011811923
0.0018163931 0.0053073457 0.010564624 -0.008688291 1.3329159e-05 0.005278754 -0.00080686907 -0.00681191
-0.0029342743 -0.0014178583 -0.003606982 0.00017203671 -0.0043625943 0.009631748 0.0058374153 -0.012764079
-0.006759953 -0.00013234193 -0.00022971642 0.0012962309 0.0022817918 -4.4873022e-07 -0.014841375 -0.0058553508
-0.01928925 -0.008398906 7.438118e-06 0.10935913 0.01430781 -0.006365151 0.0035967848 0.0025347269
-0.0059909043 0.019437296 -0.0007234691 4.4701974e-05 0.0013957665 -0.015267087 7.66433e-06 0.0018009833
0.00016618692 2.6247787e-06 0.0022019008 0.0014879773 -8.139113e-07 -0.00020854997 -0.07482095 -0.006546882
0.003174479 -0.0125018135 0.022496136 -0.0028335028 -0.015494838 0.012398156 -0.06619081 0.016595276
0.007748292 0.0067319996 -0.010696335 0.0066695386 -0.0069924444 0.0020616285 0.029136341 -1.6923403e-05
0.009753211 0.024074243 -0.008692004 0.00022024543 0.005896364 0.008142332 -0.0041198144 -0.019789115
0.0049933065 0.007402102 0.00022733015 -0.014333854 0.089118555 0.0001996048 0.021438822 0.0051341327
-0.0068142605 -0.005091163 -0.012456375 -0.0033097272 -0.01002331 0.0032749004 -0.0059759854 -0.018952753
0.006886452 -0.001688641 0.009480313 0.011942244 0.0067808633 0.006644739 -0.0012871495 -0.006458666
-0.0145443 0.008275078 -0.005772992 -0.005536469 -0.0028886779 1.450053e-06 0.00230814 -0.023176692
0.017100563 -0.012612955 0.015551112 0.005302692 -0.0031819344 0.019161068 -0.0010920768 0.016858086
-0.0061533726 -0.0056299334 -0.00024237587 -2.0823618e-05 0.01276374 0.008736878 -0.012917871 0.0010009912
-0.0010408763 0.019283196 -0.007101351 0.00024504898 -0.0002894147 4.3206668e-07 0.00844363 -9.112469e-05
0.021477783 0.014989196 0.006897118 -0.014439759 0.012955943 0.0077811126 -0.00034866558 -0.021196999
0.0052590417 0.0013705748 0.014753236 0.0069913487 -0.06810631 0.00010823631 0.00706222 0.0041843485
0.0072269975 -0.012613386 -0.005850094 0.0032697131 -0.001457684 0.0027535262 -0.0028173868 0.0010909049
-0.021579104 0.0006933081 0.01312566 -0.0021283722 -0.00490523 -0.0025389516 0.0011287532 0.029127939
0.0033556107 0.0008088979 0.015057085 -0.17331447 0.004623907 -0.011895948 0.006593521 -0.0014764348
0.013760887 0.009438688 0.00024351443 0.020803647 0.02158531 -6.906998e-05 0.008447055 0.018378343
-0.0007364627 -0.03379454 -0.011387919 -0.03434689 0.010679686 -0.007873267 5.736059e-06 0.012185652
-0.00062543567 -6.253483e-06 0.0018428719 -0.0057531763 -0.00606224 -0.003959481 -0.032800496 0.0016283764
0.0007596441 0.009638013 0.00065089366 0.015405713 -0.014857964 0.005475284 0.019354686 0.0003427383
-0.0009395022 0.0071498146 -0.004187045 -0.02071429 -0.0125320945 -0.002636533 0.0023960287 -0.0030582882
0.0032375576 0.0011268539 -0.004054907 2.8414996e-05 5.2467276e-05 0.0044723493 0.010969226 -0.0014554061

tabnet.initial_splitter.shared.shared_layers.1.weight f4 [96, 48]
00000000: e55f 6a3e ce97 30bd 22ba c5bd 45f3 65bd
00000010: da06 0abe 636f 9abc 6721 28bd be12 4ebb
00000020: 95b7 92bc a071 84bd 5a73 46bd f48f b43c
00000030: c613 3ebd 98eb 7ebb 8bac fbbc 5117 803b
00000040: 024e 9a3c f028 13bd 575f 20bd 0003 5abd
00000050: 440f 483d abfc 8cbd e28c ba3c 4746 83bc
00000060: 2f7c 72bb 9e9d a1ba 44aa a13b 87b9 4abc
00000070: 77e3 0f3c d65f 0e3c de88 b13b 25ed 13bb
00000080: 3cd7 c3bb cf5b 04bc b763 3dbc b5c1 2c3d
00000090: 4b17 ccba 9019 52bc c429 4e3a 0622 6d3b
000000a0: 854b 533a 99aa 5339 aefd 803c a456 dfbb
000000b0: ac3f bb3a 4f6d 623c d447 eebb e338 e73a
000000c0: 4d76 e1bc 4bd0 e03e 662c 043d 07d0 ecbc
000000d0: a61c 11bd 03dd 99bc 4807 37bd e4e3 76bd
000000e0: 979e ba3b 6812 dbbc b35d 173d 4457 a6bc
000000f0: 92c0 2e3d 2f6d e1ba 2891 c7bc 0503 92bc
00000100: cd2c 0d3c 9646 093c c16b 2cbd cece 35bd
00000110: c37f 91bc 8437 95b9 cd25 2a3b 58d1 79bd
00000120: 308a 39bc 8e7f ac3b 3871 f5bc 247f 00bc
00000130: 0274 94bd 89a5 16bd 6336 6a3b 8f93 473d
00000140: da7b 88bc 6bff 253a 174f 473c 2a80 7d3a
00000150: 9948 153c 7cbd 04bc 64ff 9bbb 47c8 01bb
00000160: 9d20 523c 357a f5bb 8c37 18bd 6a67 6c3d
00000170: abbb 24bc 3819 51bc 15c8 d2b9 6a6b bcba
00000180: d7a7 49bd ec01 fd3c 440e 613e 8c6c 493d
00000190: 157c 30be 6749 8abc d86f 09bb bca4 3b3c
000001a0: 88ac 5f3c 069b 3fbd e6ac 923c 7791 32bc
000001b0: 3df0 f5bc 5b77 1e3b f58f ad3b 373c 06bb
000001c0: e78c 8e3c c4b4 57bc 4450 77bd 5d5c 293d
000001d0: 9d67 39bd dc53 3cbd 7bc0 84bc 1c3f 063c
000001e0: 154a f23b 0898 dd3a 3b34 6c3b ae1f b43a
000001f0: 520c d73b 7de6 ca3a 2189 b9bb 09ab 633b
00000200: db18 c8b9 99b3 06bc 8bf6 a5bb ef24 153c
00000210: 1ebf 243b e93d 00bd 4673 feb9 ff03 753b
00000220: 0b06 9239 00b5 49b9 f439 553c 4f91 57bb
00000230: 86b7 c638 fea0 b93b 694c eabb e2f0 313a
00000240: 9c1a aebd f061 65bc 12d8 783d 88ee f63d
00000250: 8e52 743d 0332 cc3c c2be 98bd 773a c1bb
00000260: 09fb 10bc cfdf febc 4341 d43b 9108 fdbb
00000270: bdd1 89bd 788b 273b 74da 09bd 83e8 153d
00000280: 8030 23bd 4aa2 5b3c 4ab5 9abd a61d 94bb
00000290: 0c2b a6bc 10a6 2ebe 5d2b 42bd f279 063d
000002a0: 8ada 103c 828c f037 58a4 98b9 9861 08bc
000002b0: 90f8 243a 231d a639 8823 e2ba 450b 163b
000002c0: b604 683a 8a54 65b9 4d60 223b c4e3 983b
000002d0: a374 8f38 bc13 a6bc 0923 673a 4cd0 65bb
000002e0: 623b bcb9 3f00 59bc ecd4 9637 f50d 20ba
000002f0: e756 d4b7 bf3d 2cba 0608 0839 2a0c 4fbc
00000300: b98e 0ebd c6e2 0cbc 1ff9 9fbd 18d6 a93c
00000310: 2c48 9c3e f2f2 4abd 19be 9cbc 1032 a9bc
00000320: 476b 4d3d ac35 6d3c 567b d1bc 12eb c0bc
00000330: a1e3 693c ca26 70bb 94ea a73d 7747 573c
00000340: 3121 a13c 1685 73bb 5f11 2c3d 8870 ebbc
00000350: 5665 a8bc 0b35 60bc c587 14bd bc81 24ba
00000360: 6848 24b9 14e3 daba aae9 9ebb 74f4 6e3b
00000370: 4456 84bb ce4c 11ba 7d44 893b 5608 5ebb
00000380: e767 f039 5e00 233b 9774 0c3b d7ec 18bc
00000390: 18f4 45bb 2fa8 a13c 515a e8b9 1427 f5ba
000003a0: 6deb 3637 1bd9 ca3b 1ee6 9938 1c1a 273b
000003b0: 60f8 13ba 18ef 183b c895 813b 9d90 0a3c
000003c0: 947d 1abd 6635 89bd 7aba 3b3d 8262 bb3c
000003d0: a630 e1bc 588b c93e 4409 a73c 5833 3ebc
000003e0: 7f8a 55bd 0a2c 74bb d800 44bc d0e3 4ebd
000003f0: e031 29bd 2b12 8e3b 23dc 3e3d ae4a 15bd
0.22888143 -0.043113522 -0.09654643 -0.056140203 -0.13479176 -0.018851941 -0.04104748 -0.0031444277
-0.017909804 -0.06466985 -0.04844985 0.022041298 -0.046405576 -0.003889775 -0.030721923 0.0039090295
0.018836025 -0.035927713 -0.039153423 -0.053225517 0.048842683 -0.0688413 0.022772256 -0.016024722
-0.0037000289 -0.0012330299 0.0049336273 -0.012373335 0.008782259 0.008689841 0.005417927 -0.002257177
-0.0059765857 -0.0080785295 -0.011559418 0.04217692 -0.0015570907 -0.012823477 0.00078645 0.003618361
0.00080602645 0.0002018608 0.015745964 -0.0068157483 0.0014285943 0.0138200065 -0.007271746 0.0017640855
-0.02752223 0.43908915 0.032268904 -0.028907789 -0.035427712 -0.018782144 -0.04468468 -0.060275927
0.005695175 -0.026742175 0.036954593 -0.020305283 0.042664118 -0.0017198677 -0.024361208 -0.017823705
0.008616638 0.008378645 -0.04209495 -0.044386677 -0.017761117 -0.00028460857 0.0025962472 -0.06099066
-0.01132445 0.005264229 -0.029961213 -0.007842813 -0.07248689 -0.03677896 0.0035737983 0.048724707
-0.01666062 0.0006332311 0.012164853 0.0009670282 0.009111547 -0.008101817 -0.0047606695 -0.0019803212
0.012825158 -0.007491375 -0.03716235 0.05771581 -0.010054509 -0.01276236 -0.00040203394 -0.0014375274
-0.04923233 0.030884705 0.21978098 0.049175784 -0.17234834 -0.016880704 -0.0020971205 0.01145285
0.0136519745 -0.0467787 0.01790471 -0.010898939 -0.030021781 0.0024180028 0.005296702 -0.0020482668
0.017401172 -0.0131656565 -0.06037928 0.04134785 -0.04526483 -0.045978412 -0.016205063 0.008193757
0.007394085 0.0016906271 0.0036041874 0.0013742351 0.006562748 0.0015480068 -0.005662099 0.0034739396
-0.0003816549 -0.00822153 -0.0050647906 0.009103044 0.0025138329 -0.031309042 -0.0004853254 0.0037386415
0.00027851792 -0.00019236282 0.013014305 -0.0032893007 9.47556e-05 0.0056649437 -0.007150222 0.00067879085
-0.08501169 -0.014000401 0.060752936 0.12057215 0.059649043 0.024926191 -0.07458259 -0.005896862
-0.008848914 -0.03111258 0.0064775064 -0.0077219685 -0.067294575 0.0025565308 -0.0336556 0.036598694
-0.039841175 0.013405392 -0.075541094 -0.004520136 -0.020284198 -0.17055535 -0.047404636 0.03283114
0.008841166 2.8675659e-05 -0.00029114145 -0.008324049 0.0006293142 0.00031683696 -0.0017253021 0.00228949
0.00088507996 -0.00021870635 0.0024776638 0.0046658237 6.840497e-05 -0.020273082 0.00088171713 -0.0035066782
-0.00035902398 -0.013244688 1.7980543e-05 -0.00061055954 -2.5312836e-05 -0.000657048 0.0001297296 -0.0126371775
-0.03480408 -0.008598989 -0.07811188 0.02073197 0.30523813 -0.049548097 -0.019133614 -0.020653754
0.050151136 0.014478128 -0.025571506 -0.02354959 0.014275462 -0.0036644214 0.08199039 0.013139597
0.019669147 -0.0037158183 0.042008754 -0.028740183 -0.020556133 -0.013684521 -0.036262292 -0.00062754354
-0.00015667232 -0.0016699755 -0.0048496323 0.0036461623 -0.004038604 -0.0005542756 0.0041890726 -0.003387948
0.0004585378 0.0024872045 0.0021431798 -0.009333811 -0.0030205306 0.019733516 -0.0004431778 -0.0018703663
1.090286e-05 0.006190432 7.338471e-05 0.002549774 -0.0005644616 0.002333587 0.003954623 0.00845733
-0.037717417 -0.06699638 0.045832135 0.02287412 -0.027489018 0.39364123 0.02039016 -0.011608921
-0.052134033 -0.0037257695 -0.011963092 -0.050510228 -0.04130733 0.004335662 0.046596657 -0.036448173

tabnet.initial_splitter.shared.glu_layers.0.fc.weight f4 [96, 1038]
00000000: dd41 eabc a5ea 6f3c d283 a3b8 838a b4b9
00000010: 182b 4a3b eb0d b53b b6ba b03a d9a1 4bba
00000020: 709a b239 a227 0bbc 9c0e 55bc c723 ccb6
00000030: f02d 5b36 af43 4b3b b86d 2b3a 4d87 183c
00000040: b8de c2bc d6d1 243c 2aa2 833b fd47 12bc
00000050: bcfa 83bb 11ba 863b da3a 383b 10cf 6db9
00000060: 476d 0dbd f7ca 143b 607b 113c 570a 4dbb
00000070: 03b8 11bc 404b 88b8 ca34 713b 55ab c43b
00000080: cbcb d1bc 71f8 3d3b 1e5f aabb e1db 6abb
00000090: 34fe 0cbd af7e d839 511d 9b3c cc86 41bc
000000a0: 0a14 ee3a 3ee9 ad3b 3f17 2d3c 5559 0ebc
000000b0: 4da0 5f37 66f9 ac3b 1184 53ba 7136 dfbb
000000c0: f44c 40bb 6ed7 b9ba 1e63 6cbb c164 3439
000000d0: 18f4 8ebb 7bce 1d3c ca47 bf3b 6d20 51bc
000000e0: 9982 ddbb 44c5 0ab9 08e0 70b9 4be6 a93a
000000f0: 1d8a 153b 03e9 f0b4 3d29 73bc 3ede bfbb
00000100: 7d04 9ebc 919b 09bc f294 f936 aef7 df3d
00000110: 4e6b 6a3c c292 d0bb 09b8 6b3b a91d 263b
00000120: 594f c4bb f73a 9f3c 30a7 3dba 617e 3b38
00000130: 27f2 b63a ce22 7abc 0c96 0037 f90e ec3a
00000140: 7642 2e39 5b25 3036 c44d 103b 3c08 c33a
00000150: 8f7b 5ab5 35ae 5ab9 ba3b 99bd 3a87 d6bb
00000160: eb0a 503b 68d4 4cbc d149 b83c 4ab2 39bb
00000170: 10de 7dbc a321 4b3c 0c8f 87bd d1f2 873c
00000180: 62e5 fd3b 1b98 dc3b ae3f 2fbc 258c da3b
00000190: e020 e5bb 631c 073b 56af ee3c bbf6 8db7
000001a0: efcb 1f3c 5937 c53c e868 0ebc aff1 6639
000001b0: 4936 c13b 6a67 053c 82ff 86bb c81c a2bc
000001c0: e49e a33b 558d f23b 795f 6e39 8bd8 6abc
000001d0: ca83 b63d 014d 5139 78a0 af3c 3a3c a83b
000001e0: 294a dfbb c5d3 a6bb d315 4cbc 02e8 58bb
000001f0: cf38 24bc b69f 563b 33d2 c3bb ce42 9bbc
00000200: bfa7 e13b 6455 ddba 5153 1b3c 67a9 433c
00000210: 0132 de3b 1cbc d93b 92b5 a8ba 38a3 d3bb
00000220: 374b 6ebc 3194 073c 5e2b bdbb 456b b5bb
00000230: f94f 3dbb 719f c235 2a44 173b 0cdd bdbc
00000240: 7b16 8c3c 91a6 4ebc 17ca 7e3c 34c2 ad3b
00000250: 0088 50bb acf7 9c3c 0424 8fba f819 8a3c
00000260: 3ba2 c9bb 4e7b b8bb 4726 7eb9 61ae aeb7
00000270: 011f 513c 1f25 0f3c 7aa5 53bc b133 833a
00000280: 036e 88ba cbf7 9d3c 73b2 e8bb eb79 8039
00000290: 95bc 97b9 cbf6 e734 2757 0a3c 321a bfb8
000002a0: 2df2 af3c 3f95 753c 3801 e23b bd94 6cbc
000002b0: 2a45 543c b4f8 fe3b 1acd b6b9 54a5 adbc
000002c0: 0a54 ac3b dca4 b33a 8fb7 713c af17 e53b
000002d0: 527b 8bbd edfc e238 326a e73b dc1c 893b
000002e0: 73d0 ec3b 60a8 4ebc 25b2 bfbb af48 563b
000002f0: c20f bfba 8174 343b e8a3 38bb b2fc 8e3a
00000300: a9c6 b0bc 1ebf 353a 020d 573c 297c 0bbb
00000310: 0dbc a0bb 8a64 26bb acf2 933a b79d ee3c
00000320: cee9 5b3b 380c 543a feb1 763c 5979 31be
00000330: 2584 973b 39e7 42bc 770e d83b ee84 c1ba
00000340: 5875 613c baa4 1a3c e857 7f39 696c aa3c
00000350: add3 b03c aad9 90b8 8465 0a3c 2e8e 963c
00000360: 2d0f 41ba 256c 0abd 6594 3abc 53af 0cbd
00000370: daf9 2e3c e0fe 00bc 5f78 c036 54a6 473c
00000380: 47f4 23ba 03d5 d1b6 858c f13a 2485 bcbb
00000390: c1a5 c6bb 89be 81bb d059 06bd 3f6f d53a
000003a0: da22 473a c2e8 1d3c bca0 2a3a 3e68 7c3c
000003b0: d16e 73bc 036a b33b b88d 9e3c 8eb1 b339
000003c0: ed48 76ba fe48 ea3b 7b33 89bb 04b1 a9bc
000003d0: 6a53 4dbc afc9 2cbb b106 1d3b 906d 48bb
000003e0: 342d 543b f1b2 933a 06df 84bb bd5c ee37
000003f0: 4f10 5c38 c98c 923b 45b8 333c 53c3 beba
-0.02859586 0.014643346 -7.796999e-05 -0.00034435475 0.003084844 0.005525341 0.0013483379 -0.00077679526
0.0003406587 -0.008493336 -0.013003971 -6.083839e-06 3.2660282e-06 0.0031015684 0.00065394817 0.009309602
-0.023787841 0.010059794 0.004017134 -0.008928296 -0.0040276926 0.0041115363 0.002811125 -0.00022679218
-0.034528043 0.0022703984 0.008879513 -0.003128668 -0.0088939695 -6.499002e-05 0.0036805146 0.0060018697
-0.025609871 0.0028987194 -0.005199327 -0.0035836624 -0.034422114 0.00041293117 0.018934878 -0.011811923
0.0018163931 0.0053073457 0.010564624 -0.008688291 1.3329159e-05 0.005278754 -0.00080686907 -0.00681191
-0.0029342743 -0.0014178583 -0.003606982 0.00017203671 -0.0043625943 0.009631748 0.0058374153 -0.012764079
-0.006759953 -0.00013234193 -0.00022971642 0.0012962309 0.0022817918 -4.4873022e-07 -0.014841375 -0.0058553508
-0.01928925 -0.008398906 7.438118e-06 0.10935913 0.01430781 -0.006365151 0.0035967848 0.0025347269
-0.0059909043 0.019437296 -0.0007234691 4.4701974e-05 0.0013957665 -0.015267087 7.66433e-06 0.0018009833
0.00016618692 2.6247787e-06 0.0022019008 0.0014879773 -8.139113e-07 -0.00020854997 -0.07482095 -0.006546882
0.003174479 -0.0125018135 0.022496136 -0.0028335028 -0.015494838 0.012398156 -0.06619081 0.016595276
0.007748292 0.0067319996 -0.010696335 0.0066695386 -0.0069924444 0.0020616285 0.029136341 -1.6923403e-05
0.009753211 0.024074243 -0.008692004 0.00022024543 0.005896364 0.008142332 -0.0041198144 -0.019789115
0.0049933065 0.007402102 0.00022733015 -0.014333854 0.089118555 0.0001996048 0.021438822 0.0051341327
-0.0068142605 -0.005091163 -0.012456375 -0.0033097272 -0.01002331 0.0032749004 -0.0059759854 -0.018952753
0.006886452 -0.001688641 0.009480313 0.011942244 0.0067808633 0.006644739 -0.0012871495 -0.006458666
-0.0145443 0.008275078 -0.005772992 -0.005536469 -0.0028886779 1.450053e-06 0.00230814 -0.023176692
0.017100563 -0.012612955 0.015551112 0.005302692 -0.0031819344 0.019161068 -0.0010920768 0.016858086
-0.0061533726 -0.0056299334 -0.00024237587 -2.0823618e-05 0.01276374 0.008736878 -0.012917871 0.0010009912
-0.0010408763 0.019283196 -0.007101351 0.00024504898 -0.0002894147 4.3206668e-07 0.00844363 -9.112469e-05
0.021477783 0.014989196 0.006897118 -0.014439759 0.012955943 0.0077811126 -0.00034866558 -0.021196999
0.0052590417 0.0013705748 0.014753236 0.0069913487 -0.06810631 0.00010823631 0.00706222 0.0041843485
0.0072269975 -0.012613386 -0.005850094 0.0032697131 -0.001457684 0.0027535262 -0.0028173868 0.0010909049
-0.021579104 0.0006933081 0.01312566 -0.0021283722 -0.00490523 -0.0025389516 0.0011287532 0.029127939
0.0033556107 0.0008088979 0.015057085 -0.17331447 0.004623907 -0.011895948 0.006593521 -0.0014764348
0.013760887 0.009438688 0.00024351443 0.020803647 0.02158531 -6.906998e-05 0.008447055 0.018378343
-0.0007364627 -0.03379454 -0.011387919 -0.03434689 0.010679686 -0.007873267 5.736059e-06 0.012185652
-0.00062543567 -6.253483e-06 0.0018428719 -0.0057531763 -0.00606224 -0.003959481 -0.032800496 0.0016283764
0.0007596441 0.009638013 0.00065089366 0.015405713 -0.014857964 0.005475284 0.019354686 0.0003427383
-0.0009395022 0.0071498146 -0.004187045 -0.02071429 -0.0125320945 -0.002636533 0.0023960287 -0.0030582882
0.0032375576 0.0011268539 -0.004054907 2.8414996e-05 5.2467276e-05 0.0044723493 0.010969226 -0.0014554061

tabnet.initial_splitter.shared.glu_layers.0.bn.bn.weight f4 [96]
00000000: 0e5b 813e 32b7 fe3e 9be2 d73d 1bf9 513b
00000010: 36b7 0e3e 5bea 923c 08b1 e93e aba7 f73e
00000020: 70b2 1e3c 6530 c53d 3e4c 573e 3bf9 963e
00000030: b200 063e ea6a 5d3d 7e54 d83d b49c 7fbb
00000040: efd3 953c 5be1 aa3a 6ede 31bc 191d 1a3e
00000050: 5040 fa3c 0aac f33c 7163 833e 52ab 8a3e
00000060: 1dc0 e13e 7cbe 813e 9746 a43e ae97 113d
00000070: 6dab 043f 315a e83e b3ce ce3e f558 da3e
00000080: 2b0c 0d3f 715a c43e b329 cb3e 6a82 d33e
00000090: 6f1a ef3e 0741 353f ab0d 56bb 70e6 083f
000000a0: 297c 43bd 0d16 153f a187 dd3e 4525 e63e
000000b0: 9347 8b3c 323e cf3e fce2 d53e e221 bc3e
000000c0: 2a68 863d 0092 e73e 6dc1 72bb 79cb 9938
000000d0: 9f1e 5fbc aa3e ce39 4d12 f03d 93c6 883e
000000e0: 02a5 ad3a 0830 d1bb 3987 483d 3c34 543d
000000f0: 6905 84b9 67db 883b f5a4 a93b 43c2 d638
00000100: e5bd cdba d5e1 a938 96df 9038 26de d3bb
00000110: 19e0 d53a 9599 be39 ba27 de3c ac52 9d3d
00000120: 0641 6d3e b6c9 913d 3e99 6e3e 94cc edbc
00000130: 8275 033f a92d 503e 0d22 1a3e 9e5f 13bd
00000140: 5909 ed3e 018e d13d db9b 3abc b5d4 1c3d
00000150: 93ef e13e fe52 903e 7b4c 4c3b aae6 3c3e
00000160: 902f 913c eeb1 3f3e 14e8 533d 8828 013f
00000170: 0c86 f0ba ca32 c4bd db67 be3e 9f83 cb3d
0.25264782 0.49749142 0.105412684 0.0032039348 0.13937077 0.017934015 0.45642877 0.48370108
0.0096860975 0.09628371 0.21025178 0.29487023 0.13086203 0.05405704 0.105629906 -0.0039003314
0.018289534 0.0013037132 -0.010856254 0.15050162 0.030548245 0.02974512 0.25661805 0.27083832
0.44091883 0.2534064 0.32085106 0.035545044 0.51824075 0.4538131 0.40392074 0.42645994
0.5509669 0.3835025 0.3968025 0.41310436 0.46699855 0.7080235 -0.0032661955 0.5347662
-0.04772583 0.5823677 0.4326754 0.4495031 0.017001903 0.4047714 0.41774738 0.367446
0.065628365 0.45228577 -0.003704156 7.333508e-05 -0.0136181405 0.0003933807 0.117222406 0.26714
0.0013248029 -0.0063838996 0.048957083 0.051807627 -0.00025181033 0.0041765454 0.005177135 0.00010240499
-0.0015696852 8.1006125e-05 6.908101e-05 -0.006465691 0.0016317397 0.00036354052 0.027118552 0.07681784
0.23169336 0.071185514 0.23300645 -0.029028215 0.5135118 0.20329918 0.15052052 -0.03597986
0.46296194 0.10232163 -0.011389698 0.03828879 0.44128093 0.28188318 0.0031173516 0.18447366
0.017722875 0.18720219 0.051735 0.5045247 -0.0018350496 -0.0958 0.3718861 0.09937214

tabnet.initial_splitter.shared.glu_layers.0.bn.bn.bias f4 [96]
00000000: 7ad4 5e3b 8135 a83d 552f 17b8 6827 39b6
00000010: f3aa 3f3a 4d07 f035 5dab 7dbb 7497 863c
00000020: bef4 f8b7 0989 f9b8 0c1e 55ba 14a1 bfba
00000030: 8c0b d538 fa25 3438 d9ef 0139 7be2 a935
00000040: a805 61b7 096e f835 2db8 dab6 beec c0b7
00000050: 0cf6 2f3a 9b75 2837 33f1 943a 164a 933b
00000060: f5bb 7dbc ee3e 273c f8aa 173d 1c7a fc39
00000070: 4c5b 8a3d a68a a7bc dc63 e3bc 7149 bb3c
00000080: 67d8 173e 3473 83bc 0085 f2bc 6fdf 70bd
00000090: 59c8 eb3c da25 303e 2922 34ba 1aa6 bc3d
000000a0: de38 48bb bf60 fabd 1970 d03c 261d 8bbe
000000b0: bd9b 43ba adcc af3c ad37 96bc 1736 d03c
000000c0: f5fd c23b 7bba 01bd d6d7 74ba c701 c0b8
000000d0: 5b21 483b 7bd0 a838 7055 8a3d 04f1 d63c
000000e0: 1cce 90b9 2ec1 343a 68a8 283c 7e52 953c
000000f0: 8059 83bb 32fa d539 8660 043a 48bc d0b7
00000100: f46a cb38 ea41 54b8 cf05 8337 a901 8c3b
00000110: c7d4 12b8 a1ed ccb9 5aee ab3c 109c 433c
00000120: e96b 323d dea1 ad3b d8bb 5b3b 902b 41bc
00000130: e1e0 be3b 3af0 b33d cf69 453d 49ee c73d
00000140: 91c7 003d 6c92 863d 8903 393d df84 d93d
00000150: d02e 0c3d b925 3f3e 500b 5fbc 0779 fc3d
00000160: c324 d0bc f994 233e 043a a03d 079b 663c
00000170: e542 41bc d47e 813d b015 d33c bacd 283d
0.0034001158 0.0821333 -3.6045287e-05 -2.7590086e-06 0.0007311545 1.7883518e-06 -0.0038706877 0.01642964
-2.967787e-05 -0.0001189877 -0.00081297825 -0.0014620149 0.00010158782 4.2950713e-05 0.00012391749 1.2657396e-06
-1.3412362e-05 1.8509464e-06 -6.518347e-06 -2.2998425e-05 0.0006712384 1.00409625e-05 0.0011363387 0.0044949157
-0.015486707 0.010207875 0.037028283 0.00048156164 0.06755695 -0.020451855 -0.027757578 0.022862168
0.14828645 -0.016046144 -0.029604435 -0.058806833 0.028782057 0.17201939 -0.00068715453 0.09211369
-0.0030551474 -0.12225484 0.025444077 -0.27170676 -0.00074618665 0.021459902 -0.018337095 0.025416417
0.005950684 -0.031671982 -0.00093400234 -9.1556045e-05 0.003053746 8.049697e-05 0.06754577 0.026237972
-0.00027619384 0.0006895241 0.010294057 0.018227812 -0.004008472 0.00040812936 0.00050497835 -2.4883208e-05
9.699716e-05 -5.0606126e-05 1.5619122e-05 0.004272659 -3.5007277e-05 -0.0003908696 0.020987678 0.011939064
0.043559942 0.005298837 0.0033528712 -0.011790171 0.0058251475 0.08786054 0.04819661 0.09762246
0.03144032 0.065708965 0.045169387 0.10621046 0.03422433 0.18666734 -0.013613537 0.12327772
-0.025408154 0.15974797 0.078235656 0.014075047 -0.011795734 0.06323019 0.025767177 0.04121182
