cv_steps/tabnet_raw_step1_fold3_2/network.pt (torch, 682315 bytes, 56 tensors)

embedder.embeddings.0.weight f4 [3, 1]
0	0x3d9f6742	0.07783367
1	0x3daf4e38	0.08559841
2	0xbe2c9d93	-0.16856985

embedder.embeddings.1.weight f4 [2, 1]
0	0xbcc27902	-0.023739342
1	0x3cc29ce7	0.023756457

tabnet.initial_bn.weight f4 [1038]
0	0x3aab9ff1	0.0013093931
1	0x3e360833	0.17776565
2	0xbb1472b3	-0.0022651374
3	0x3e34c585	0.17653473
4	0x3e05f2e7	0.13080941
5	0x3db6aa3f	0.089191906
6	0x37ae99ae	2.0813979e-05
7	0x3d8e68dd	0.06953595
8	0x3a30373f	0.00067220995
9	0x3aa8e885	0.0012886679
10	0x3e97f456	0.296786
11	0x3d86a55a	0.06574507
12	0xbae88c07	-0.0017741927
13	0x3e852d36	0.26011056
14	0x3dc2bf98	0.095092
15	0x3e0c8089	0.13720907
16	0x3e3085fa	0.17238608
17	0x3def372e	0.116804466
18	0xbbb33e66	-0.005470085
19	0x39f222eb	0.00046183853
20	0x3dbc747a	0.09201904
21	0x3e31d3b4	0.17365915
22	0x3e939138	0.2882173
23	0x3e0f1356	0.1397222
24	0x3e8b4b34	0.27205813
25	0x3e69a533	0.22816925
26	0x3dbcac9e	0.092126116
27	0x3e5caf19	0.2155117
28	0x3e2f4c62	0.17118981
29	0x3e3fa45e	0.18715045
30	0x3ca40a5b	0.02002447
31	0x3e86198f	0.26191375
32	0x3e4e43bb	0.20143025
33	0x3e005b2e	0.12534782
34	0x370d1d92	8.41114e-06
35	0x3e3aab3a	0.1822938
36	0x3e3d2ecb	0.18474881
37	0xb729fab6	-1.0131558e-05
38	0x3e1cda32	0.1531761
39	0x3e564977	0.20926462
40	0xb933db20	-0.000171524
41	0x3e417913	0.18893842
42	0x3e062d46	0.13103208
43	0x3e05f453	0.13081484
44	0xbbccd922	-0.00625147
45	0x3d64d9b4	0.05587168
46	0xb8153dc9	-3.558191e-05
47	0x3e24e5ec	0.16103333
48	0x3e14bf2f	0.14526056
49	0x3e88f31b	0.26747975
50	0x3e507e9e	0.203608
51	0x3e004858	0.12527597
52	0x3e4e821c	0.2016682
53	0x3e4ef29f	0.2020974
54	0x3c8dc5bf	0.017306207
55	0x3e05eb20	0.13077974
56	0x3e327c2f	0.17430185
57	0x37a6911f	1.985632e-05
58	0x3d455256	0.048174225
59	0x3e5e70fc	0.21722788
60	0x3e28a762	0.16470101
61	0xbba3a712	-0.0049942816
62	0x3e872524	0.26395524
63	0xb517a014	-5.648483e-07
64	0x3e899e5e	0.26878637
65	0x3e401f2d	0.18761893
66	0x3b030f4d	0.0019998134
67	0x3df88a78	0.12135786
68	0x3da421c1	0.080142505
69	0x3cb746b7	0.022372587
70	0x3e5e6684	0.21718794
71	0x3e44dda4	0.19225174
72	0xba0dc18e	-0.0005407565
73	0x3e3b128a	0.18268791
74	0x3e425c66	0.1898056
75	0x3680c36e	3.8374483e-06
76	0x3db77fdf	0.08959936
77	0x3eac9e80	0.33714676
78	0xbb9dc4a9	-0.0048147035
79	0x3e296733	0.16543274
80	0x3d3225a2	0.04349292
81	0x3c20edf8	0.009822361
82	0xba8944a1	-0.0010472724
83	0x3d551bdd	0.052028526
84	0x3ab5b5fb	0.0013863439
85	0xbde230be	-0.11044453
86	0x3dc787ef	0.09742724
87	0x3e086ede	0.13323542
88	0x3d9ee5b3	0.077586554
89	0x3d97af54	0.07406488
90	0x3e461ea8	0.19347632
91	0x3e1cc739	0.15310372
92	0x3e439f53	0.19103746
93	0x3e6ef341	0.23334982
94	0x3e0b1273	0.13581257
95	0x3da2a624	0.07941845
96	0x3dbf324f	0.093357675
97	0x3df1285f	0.11775278
98	0x3dd715ff	0.10502242
99	0xbcc06b8a	-0.023488779
100	0x3e06732e	0.13129875
101	0x3e1e2f59	0.15447749
102	0x3eb3b2b2	0.3509727
103	0x3d89175e	0.0669391
104	0x3e5f864c	0.21828574
105	0x3e709936	0.23495945
106	0x3de651da	0.11246081
107	0x3e20b27b	0.15693085
108	0x3e18285f	0.1485915
109	0x3c864590	0.016390592
110	0x3e0eb985	0.13937958
111	0x3e2ece9e	0.17071006
112	0x3d83920a	0.06424339
113	0x3e1cfeef	0.15331624
114	0xb8f9bd00	-0.00011908449
115	0x3abbc27a	0.0014324926
116	0x3dad5c94	0.084649235
117	0x3a1fa978	0.00060906215
118	0x3de19a05	0.11015705
119	0x3e7e40f3	0.24829464
120	0x3de3dc3e	0.11125992
121	0x3d3141f2	0.04327578
122	0x3e32281a	0.1739811
123	0xbe02fa5e	-0.1279082
124	0x3e0b3086	0.13592729
125	0x3e49ae23	0.19695334
126	0x3e53ed38	0.2069596
127	0x3dd282fb	0.10278889
128	0xbb9c0908	-0.004761819
129	0x3d7a4586	0.06110146
130	0x3e40c96f	0.18826841
131	0xb9268d66	-0.00015883669
132	0x3e71b4d2	0.23604134
133	0x3e10d70f	0.14144538
134	0x3d58b73e	0.05290913
135	0x3e45ccba	0.19316378
136	0x3e06c995	0.13162835
137	0x3d70e9ad	0.0588166
138	0x3e4c964e	0.19979212
139	0x3dbac2fb	0.09119221
140	0x3e01c745	0.12673672
141	0x3d50d006	0.050979637
142	0x3609b10d	2.0517648e-06
143	0x3d46d2bf	0.048540827
144	0x3e0927d2	0.13394096
145	0x3dc01501	0.09379006
146	0x3e24eebc	0.16106695
147	0x34b1bad1	3.3104746e-07
148	0x3da5badf	0.080922835
149	0x3e63e5cb	0.22255628
150	0x3e1c78ce	0.15280458
151	0x3e4740f2	0.19458368
152	0x3e323493	0.17402868
153	0xbdd180d2	-0.10229649
154	0x3e31925c	0.17340988
155	0x3dbb3730	0.091413856
156	0x3da6da0b	0.08147057
157	0xbbec5e46	-0.0072133867
158	0x3e04d7ab	0.12972896
159	0x3e8d802e	0.27636856
160	0x3e9f636f	0.3113055
161	0x3e09a8f2	0.13443354
162	0x3dd14aa9	0.102193184
163	0x3c4cfbc7	0.0125112
164	0x3df8befd	0.12145803
165	0x3c10cb32	0.008837508
166	0x3b8ab4b4	0.0042329673
167	0xb9fb37fe	-0.00047916168
168	0x3e66894d	0.22513314
169	0x3e11ccdf	0.14238308
170	0x3e1dd04b	0.15411489
171	0x3e508742	0.20364097
172	0xbd89ec01	-0.06734467
173	0x3cb3bf26	0.021941733
174	0x3d5e5a4c	0.054285333
175	0x3e4fb531	0.20283963
176	0x3e03878d	0.12844677
177	0x3e991ffd	0.29907218
178	0x3e481ddc	0.1954264
179	0xbb255829	-0.002522955
180	0x3ea7eaae	0.32796234
181	0x38276245	3.9907423e-05
182	0x3e04905c	0.12945694
183	0x3e07ab92	0.13249043
184	0x3c93a6a4	0.018023796
185	0x3e487f12	0.19579723
186	0x3d9f0e98	0.077664554
187	0x3e2f04f2	0.1709173
188	0x3d97712d	0.073946334
189	0x3e118d08	0.14213955
190	0x3d0d3288	0.03447202
191	0x3e56f914	0.20993453
192	0x3dbbad34	0.09163895
193	0x3dc9b402	0.09848787
194	0x3db94325	0.0904601
195	0xbd70d24e	-0.058794312
196	0x3d35fba9	0.044429455
197	0x3dea96b9	0.11454529
198	0xbc7608ec	-0.015016776
199	0x3dfc7c73	0.12328424
200	0x3e350365	0.17677076
201	0x3e520514	0.2050975
202	0x3a625417	0.0008633746
203	0x3dd49ca0	0.10381436
204	0x3ea6f5a0	0.32609272
205	0x3e81f5a8	0.25382733
206	0xbceae51f	-0.028673707
207	0xbbd2cadc	-0.006432874
208	0x3e0144e4	0.12623936
209	0x3e921b63	0.2853652
210	0x3e4d8a68	0.20072329
211	0x3e0ba757	0.13638054
212	0x3e7a3536	0.24434361
213	0x3e347664	0.17623287
214	0x3e01c8b9	0.12674226
215	0x3e144a39	0.14481439
216	0x36fbf115	7.5084486e-06
217	0x3e5a51f6	0.21320328
218	0x3dd98388	0.10620791
219	0x3e6d78e2	0.23190644
220	0x3e337e8a	0.1752874
221	0x3e2eadc7	0.17058478
222	0x3bda0769	0.0066537154
223	0x3e727c27	0.23680173
224	0x3e19c932	0.15018156
225	0x3cbd8796	0.023135941
226	0x3da65893	0.08122363
227	0x34596bfd	2.0248986e-07
228	0xbd12e167	-0.03585949
229	0x37a3cdaf	1.9526893e-05
230	0xb7974e74	-1.8037135e-05
231	0x3e0a3264	0.13495785
232	0x3db0412a	0.08606179
233	0x3e376016	0.17907748
234	0x3d6d4418	0.057926267
235	0x3e8a1c6d	0.26974812
236	0x3e0792a6	0.13239536
237	0x3e4fc364	0.2028938
238	0x3ac2a934	0.0014851452
239	0x3e3c3ffd	0.18383785
240	0x3e11a792	0.14224079
241	0x3df96d92	0.12179102
242	0xb730356a	-1.0502854e-05
243	0x3e70d6b7	0.23519407
244	0x3dce95e7	0.10087185
245	0x3c7a7495	0.015286584
246	0x3e17eecb	0.14837186
247	0x3b52b593	0.0032151684
248	0x3dd5414b	0.10412844
249	0xba9e82ae	-0.0012093389
250	0x3b0e9921	0.0021758752
251	0x3e421b08	0.18955624
252	0x37e94a3c	2.7810333e-05
253	0xb3159da0	-3.4835125e-08
254	0xb619a2df	-2.289358e-06
255	0xb9e7737d	-0.000441458

tabnet.initial_bn.bias f4 [1038]
0	0x39d85fd7	0.00041270137
1	0x39e25935	0.00043172544
2	0x3e57f8e9	0.21091045
3	0xb9e09333	-0.0004283428
4	0xbd171b91	-0.036891524
5	0xba7ca914	-0.0009638232
6	0x356ce2ec	8.8247066e-07
7	0xb929a56f	-0.00016178725
8	0xb6befe93	-5.6920776e-06
9	0xb6165dd1	-2.240635e-06
10	0x39351107	0.00017267848
11	0xb9ac1f22	-0.00032829592
12	0x35c754a9	1.4851295e-06
13	0x3a91b942	0.0011117833
14	0x39238158	0.00015593076
15	0x39e81811	0.0004426842
16	0x3d961e93	0.0733005
17	0xba0c15d5	-0.00053438294
18	0x37f84f3b	2.9600798e-05
19	0x32acb2d6	2.010476e-08
20	0x37be71c0	2.2702734e-05
21	0xbab6b7fc	-0.001394033
22	0xbb0fa44b	-0.0021917995
23	0xb9134698	-0.0001404531
24	0x3a07a414	0.0005174291
25	0xb9e6843b	-0.00043967538
26	0xb9cd1797	-0.00039118223
27	0x39da678f	0.00041657357
28	0x36f8cc49	7.414758e-06
29	0xb9805edb	-0.00024484735
30	0x3ea1aabe	0.31575578
31	0xb89f6e80	-7.602293e-05
32	0x398d03e6	0.0002689652
33	0x38cc6a16	9.747238e-05
34	0x35281b3f	6.2624525e-07
35	0xb9c60e5c	-0.00037776201
36	0xb9927459	-0.00027933976
37	0xb387c7f7	-6.322801e-08
38	0x3a038629	0.0005017245
39	0x39bc236e	0.00035884551
40	0xb4b03435	-3.282054e-07
41	0x39688c6c	0.00022177555
42	0xbe9ea40a	-0.30984527
43	0xb72f135d	-1.0435321e-05
44	0x3882c48e	6.235494e-05
45	0xb897e485	-7.242806e-05
46	0xb53b5fe3	-6.980246e-07
47	0xbe1c604c	-0.1527111
48	0xb5435251	-7.2762947e-07
49	0x39b6d0ac	0.00034869218
50	0x399f89ac	0.00030429417
51	0x390ff15d	0.00013727458
52	0xb9a293cb	-0.00031009162
53	0x3aaffa70	0.0013426077
54	0x38ff7249	0.00012180635
55	0xba651d1f	-0.0008739996
56	0xb97b7373	-0.00023980234
57	0xb4a5c64c	-3.0877925e-07
58	0xbaa067c2	-0.0012237953
59	0x380b7483	3.3248692e-05
60	0x38a0b34c	7.662791e-05
61	0x380bfebe	3.337743e-05
62	0x39cef1aa	0.00039471436
63	0xb22cc49f	-1.0056424e-08
64	0xba490ee6	-0.00076697615
65	0xba78fca1	-0.0009498094
66	0x3692db6c	4.376683e-06
67	0xba152225	-0.0005688987
68	0x3911d4b2	0.00013907513
69	0xb8cdb9c8	-9.809766e-05
70	0x3ad72477	0.0016414066
71	0xba363072	-0.0006949968
72	0x36494af3	2.999496e-06
73	0x386d6160	5.659589e-05
74	0xba7a4399	-0.0009546816
75	0x32593e03	1.2645162e-08
76	0xba1162e3	-0.00055460463
77	0xbc003703	-0.007825616
78	0xb50791aa	-5.050339e-07
79	0xb9aded31	-0.00033173853
80	0x37c65237	2.3641724e-05
81	0x373318c6	1.0674999e-05
82	0x3665da60	3.425077e-06
83	0x39b6e427	0.00034883732
84	0x36266e45	2.4800113e-06
85	0x391d7629	0.00015016705
86	0xb76301f2	-1.3530707e-05
87	0x3a024402	0.00049692404
88	0xb92501b3	-0.00015736259
89	0x37c67176	2.3656274e-05
90	0x3deda2b2	0.11603297
91	0x3819e4d8	3.669117e-05
92	0xba7c5d2f	-0.00096269225
93	0xba30d7c2	-0.00067460176
94	0x38122980	3.4847762e-05
95	0x3967a88f	0.0002209267
96	0xb7a9ab8c	-2.0226253e-05
97	0x38b0d73d	8.432425e-05
98	0x39fdd77c	0.0004841647
99	0xb93fda14	-0.0001829642
100	0x3858d4d8	5.169664e-05
101	0xb93da4a5	-0.0001808578
102	0x39012437	0.0001231589
103	0xb8d8c556	-0.00010336439
104	0x3a2b6ff6	0.0006539816
105	0x3ac24cc0	0.0014823899
106	0xb836a3ad	-4.3544616e-05
107	0x3983bdcf	0.00025127686
108	0xb92dcdff	-0.00016575305
109	0xb88cd836	-6.715993e-05
110	0x3a5d1885	0.00084341347
111	0x392cf330	0.00016493793
112	0xba971b53	-0.0011528529
113	0x39b8d4b7	0.000352537
114	0xb7e60693	-2.7421198e-05
115	0xb553743b	-7.8772763e-07
116	0x399ba048	0.00029683323
117	0xb9b3f9ef	-0.00034327756
118	0x38b9567b	8.837596e-05
119	0xb81de6f0	-3.7646794e-05
120	0x39a0503f	0.00030577366
121	0x374b82da	1.2130209e-05
122	0x39b928ec	0.0003531644
123	0xb8aabf5d	-8.141876e-05
124	0x3a3c4031	0.0007181196
125	0x39f8e440	0.00047472306
126	0xb9d6ac7e	-0.00040945777
127	0x39a2b090	0.00031030597
128	0x395e2db4	0.00021188596
129	0x38d2d4a6	0.00010053189
130	0x3da5aea8	0.08089954
131	0x3473e8d3	2.271584e-07
132	0x3a98c843	0.0011656362
133	0x38b28474	8.512373e-05
134	0xb88b6d3b	-6.648382e-05
135	0x383f8ba4	4.5668e-05
136	0x3999c864	0.00029331737
137	0xb9ffb987	-0.0004877562
138	0x3a20adf6	0.0006129438
139	0x3b6c3e67	0.0036047937
140	0xb9de592b	-0.00042409575
141	0xb7d09195	-2.4863324e-05
142	0xb1079f49	-1.9735629e-09
143	0x38d80e69	0.00010302367
144	0x3a104519	0.00055034604
145	0xb9885757	-0.00026005015
146	0x3b3d998c	0.0028930632
147	0xb1b00d3d	-5.123779e-09
148	0x384d8aab	4.9004953e-05
149	0x389a71e1	7.364504e-05
150	0x3a33bca9	0.00068564207
151	0x3965a18b	0.00021899321
152	0xbe15a204	-0.14612585
153	0xb83e38ed	-4.5352546e-05
154	0xb9f6736f	-0.0004700678
155	0xb99152b9	-0.00027718188
156	0x39b2f878	0.0003413593
157	0xb73ed05a	-1.1373393e-05
158	0x3a0c8aab	0.00053612393
159	0xbce1f217	-0.027581258
160	0xb8f6a66c	-0.000117611926
161	0xb977044b	-0.00023557355
162	0xb8fdc481	-0.00012100582
163	0xb80875bd	-3.253458e-05
164	0x38d14b6a	9.9799436e-05
165	0xb9296221	-0.00016153652
166	0xbeb08d65	-0.34482875
167	0x3518ed0c	5.696936e-07
168	0x3ae2f5e1	0.0017315709
169	0x3a6e78fc	0.00090970076
170	0x385902ff	5.1739622e-05
171	0xb8edb078	-0.000113339105
172	0xb975d220	-0.00023443298
173	0x3e822f4d	0.25426713
174	0xbeafeecd	-0.34361878
175	0xba9097f0	-0.0011031609
176	0x39d205ea	0.00040058728
177	0xb9f45648	-0.0004660359
178	0x3abff633	0.0014645517
179	0x3757aab8	1.2854747e-05
180	0xb7faff92	-2.9921332e-05
181	0x3333742a	4.1782336e-08
182	0x3935a7e6	0.00017324052
183	0x373b93a7	1.1180447e-05
184	0x37df5a89	2.662583e-05
185	0xba39138e	-0.0007060104
186	0x3a97d71c	0.0011584493
187	0xb9cda7c5	-0.00039225645
188	0xb98b9974	-0.00026626477
189	0xb85b0acc	-5.2223724e-05
190	0x3ed0d262	0.4078551
191	0xb7fd7947	-3.0216424e-05
192	0xb8b6b162	-8.7114764e-05
193	0x37dc4979	2.6260257e-05
194	0xb86058c3	-5.3488428e-05
195	0xb91bbbf8	-0.00014851976
196	0xbe73be86	-0.23803148
197	0x38d27e9f	0.00010037165
198	0x38e9f434	0.00011155792
199	0xb9b48c55	-0.0003443683
200	0x3b641157	0.0034800374
201	0x3c1f7f70	0.009734973
202	0xb8194cbf	-3.6549518e-05
203	0x387bf776	6.007353e-05
204	0x3e4aa428	0.19789183
205	0xb8d6d833	-0.000102445854
206	0xb6b5002d	-5.394241e-06
207	0x3911e745	0.00013914432
208	0xb7d1fb19	-2.5031668e-05
209	0x3a7ad290	0.00095681194
210	0x3e932190	0.28736544
211	0xb89506ce	-7.106141e-05
212	0x3a3d10f5	0.00072123046
213	0xb9cfced6	-0.00039636221
214	0x39ffee2e	0.00048814848
215	0x38b5d524	8.670453e-05
216	0x3490c9fb	2.696905e-07
217	0x3ab45fca	0.0013761458
218	0xb8795921	-5.9449234e-05
219	0xba69a028	-0.000891211
220	0xb9fc2ffb	-0.00048100934
221	0xb8419811	-4.615641e-05
222	0xb7398d22	-1.1059719e-05
223	0x3995f8e4	0.00028604933
224	0x38b521b8	8.637033e-05
225	0x37d135ad	2.4939736e-05
226	0xba0b2d45	-0.0005309175
227	0xaf95db42	-2.7258734e-10
228	0xb9a09f77	-0.0003063639
229	0xbe9b7e5e	-0.30369848
230	0xb46ddb4c	-2.2152125e-07
231	0xb9a3c201	-0.00031234327
232	0xbd0a02a7	-0.033693936
233	0xbb3d7910	-0.002891127
234	0x398ac550	0.0002646842
235	0xb921edaa	-0.00015442693
236	0x37e9c378	2.7866787e-05
237	0x3a893f11	0.0010471066
238	0x37455ed3	1.1764193e-05
239	0x390f0635	0.00013639855
240	0xb9d04bb7	-0.00039729264
241	0x38b43734	8.593351e-05
242	0xb4e049ec	-4.1777037e-07
243	0xba01f518	-0.0004957481
244	0x39cb9a59	0.00038834175
245	0xb5d3e9ea	-1.5788803e-06
246	0x3a625453	0.0008633781
247	0x3e8bc267	0.27296755
248	0x38a44d34	7.8345096e-05
249	0xb78975b8	-1.638649e-05
250	0x3654541c	3.163942e-06
251	0x39d6fdf2	0.00041006465
252	0x32c54140	2.296349e-08
253	0xae08a555	-3.1069664e-11
254	0xb2b2d349	-2.0818009e-08
255	0x34f8e4e4	4.636014e-07

tabnet.initial_bn.running_mean f4 [1038]
0	0x38ce28e6	9.8304634e-05
1	0xba6ba1c1	-0.0008988642
2	0x3bb08718	0.005387198
3	0xbb7c4170	-0.0038491152
4	0x3a690ab8	0.0008889842
5	0x3a96c686	0.0011503256
6	0x3a514ee9	0.0007984476
7	0x3abdce04	0.0014480953
8	0xb9b6649b	-0.00034788702
9	0xbb6e0188	-0.003631683
10	0xbc630f37	-0.013858608
11	0xbb500bc5	-0.0031745296
12	0xbb17d5c8	-0.0023168195
13	0xb947db39	-0.00019059786
14	0xbb53bff7	-0.0032310465
15	0x3b9f81e5	0.0048677796
16	0xbaf520c7	-0.0018701785
17	0x3bdd64e8	0.0067564137
18	0xbb6a41a9	-0.0035744703
19	0xbac273d6	-0.0014835547
20	0x3b3e8005	0.0029068005
21	0xbb6314cb	-0.0034649845
22	0x3aff80d8	0.0019493354
23	0xbb5b058a	-0.003342005
24	0x3982121d	0.00024809028
25	0xbb004575	-0.001957265
26	0xbad5dea9	-0.0016316968
27	0xbb0e5c9d	-0.0021722682
28	0xba8d4165	-0.0010776935
29	0xba27b5b3	-0.000639762
30	0xbb8cbf85	-0.004295292
31	0x3b79ac10	0.0038096942
32	0xba7a75a9	-0.0009554276
33	0x3c4372d8	0.011929236
34	0xbb931c3f	-0.004489451
35	0x3b6da937	0.003626419
36	0xbb0a1d77	-0.0021074691
37	0x3b997562	0.0046831826
38	0xbb9845a1	-0.0046469723
39	0xbd345276	-0.044023953
40	0x3d1884e3	0.037236106
41	0xbacc8713	-0.001560422
42	0xbbd91bc4	-0.0066256244
43	0xbafbd7dc	-0.0019214111
44	0xbb77445f	-0.0037729961
45	0xbbc0f315	-0.0058883526
46	0x3c0d328a	0.0086180065
47	0xbad8f1d8	-0.0016551567
48	0x3c1bdb83	0.009512785
49	0x3afd5281	0.0019326956
50	0x3be01706	0.006838682
51	0xbb5c5ce5	-0.0033624705
52	0xbd3f528c	-0.046709582
53	0x3a862c26	0.0010236546
54	0xbbd3557a	-0.0064493986
55	0x3baf0785	0.0053414726
56	0x3c210d39	0.009829813
57	0xbbf99eba	-0.0076177986
58	0x3b44136c	0.0029918803
59	0x3bbc1373	0.005739623
60	0xbcdc10e9	-0.026863532
61	0xba2010e2	-0.00061060314
62	0xbb5454d3	-0.0032399192
63	0xbb83a597	-0.0040175426
64	0xbc53b37a	-0.0129212085
65	0xbc3a13d1	-0.011357264
66	0xbba54664	-0.0050437916
67	0x3b574531	0.0032847638
68	0x3b5a1fb3	0.0033283054
69	0xbd65ba7b	-0.056086045
70	0x38e69ff8	0.00010997051
71	0x3bb7a47e	0.005604326
72	0xbc363043	-0.011119905
73	0xbad46efc	-0.0016207392
74	0xbcbe45bf	-0.023226617
75	0xba02e01d	-0.0004992502
76	0x3bfe0d06	0.0077530174
77	0xbd3a057e	-0.045415394
78	0xbb728831	-0.0037007446
79	0xba5aeaab	-0.00083510083
80	0x3b80d3af	0.0039314847
81	0x3a7159f1	0.0009206823
82	0xbbaa379e	-0.0051946184
83	0xb8eeb43c	-0.000113822956
84	0xba4daf85	-0.0007846284
85	0x3bce2317	0.006290804
86	0x3bb0586d	0.005381635
87	0x3baf718b	0.0053541115
88	0x3c8e50d8	0.017372534
89	0xbab2f9eb	-0.0013654804
90	0x3b043940	0.0020175725
91	0xbb42c1c8	-0.0029717553
92	0xba2b7c5d	-0.0006541664
93	0x3bc94ce6	0.0061432
94	0xbad6dae3	-0.0016392138
95	0xba3828ab	-0.0007025103
96	0xb9162a74	-0.0001432093
97	0x3c013528	0.007886209
98	0xbc07ee70	-0.008296594
99	0x3be088c3	0.006852241
100	0xbc271946	-0.010198897
101	0xba7b0d37	-0.00095768593
102	0x3c9bdfa2	0.019027535
103	0xbb09b994	-0.0021015154
104	0x3aff386e	0.0019471773
105	0xb92b0fc0	-0.00016313698
106	0x3a46f93d	0.000759024
107	0x3bdc9c35	0.0067324885
108	0x3bbb0901	0.0057078605
109	0xba76c48d	-0.00094134436
110	0xbb0d1ebf	-0.0021533219
111	0xbb4afe67	-0.003097439
112	0xbb2099e0	-0.002450578
113	0xb99dbb3d	-0.00030084877
114	0xbb586827	-0.0033021064
115	0xbca53b1a	-0.020169783
116	0xba963f46	-0.0011462949
117	0x3a342141	0.00068714103
118	0x3b825dc9	0.003978465
119	0x3b3aece1	0.0028522538
120	0x3ac8333f	0.0015274062
121	0xba741aeb	-0.00093118724
122	0x3a7adba1	0.00095694704
123	0xbc07b7aa	-0.008283535
124	0xbbc2682e	-0.0059328293
125	0x3cf50e56	0.029914062
126	0xba9c2573	-0.0011913016
127	0xba3fe704	-0.0007320496
128	0x3bcd1cc2	0.0062595317
129	0xba88c6be	-0.0010435206
130	0xbc8d32e6	-0.017236184
131	0xb906d477	-0.00012858385
132	0x3b4cacd6	0.0031230948
133	0x3cf3e7f6	0.029773694
134	0x3b9e0343	0.004822166
135	0xb99d5482	-0.00030008337
136	0xbb870767	-0.0041207555
137	0x3a08b4f8	0.0005214955
138	0xbbb64db2	-0.005563461
139	0x3b331fc6	0.002733217
140	0xbb428e58	-0.0029686894
141	0x3b29936a	0.002587522
142	0x3b6c501e	0.0036058496
143	0xbac3b27b	-0.0014930511
144	0x3ba782a8	0.005112011
145	0x3b82e862	0.0039949873
146	0x3c1ee55b	0.009698237
147	0x3b07022b	0.0020600657
148	0x3bd80e37	0.0065934914
149	0x3c0c2258	0.00855311
150	0x3b2c183d	0.0026259564
151	0xba1a902b	-0.00058961165
152	0xbb8bffac	-0.004272422
153	0x3b846005	0.0040397667
154	0xbc340acc	-0.010988902
155	0xbb42d7b3	-0.0029730618
156	0xbb898aa5	-0.004197436
157	0x3c32d92d	0.010916037
158	0x3a1e9fcc	0.0006051033
159	0x3ab5b87a	0.0013864182
160	0x3cbbe395	0.022935668
161	0x39e5f091	0.0004385752
162	0xbc027314	-0.007962007
163	0xbabe190d	-0.0014503315
164	0x3ab682cc	0.0013924479
165	0x3c407e87	0.0117489165
166	0x3bd01202	0.006349803
167	0xbb888927	-0.0041667405
168	0xbad26981	-0.0016053171
169	0xb8b37eca	-8.5590014e-05
170	0xbaa71874	-0.0012748376
171	0x3bd6bab3	0.006553018
172	0x3b904973	0.004403287
173	0x3b6254b9	0.0034535362
174	0xbc45fd69	-0.0120843435
175	0x3bb1f164	0.0054303873
176	0x3a42429c	0.0007410438
177	0xba93b4aa	-0.0011269052
178	0xbb4a3721	-0.0030855613
179	0x3b183fd3	0.0023231402
180	0xbc0cd8bc	-0.008596595
181	0xbb025541	-0.001988724
182	0x3a9949fc	0.0011695023
183	0xb9da09d0	-0.0004158751
184	0x3b01ac44	0.0019786516
185	0xbb8025dc	-0.003910763
186	0x394783f6	0.00019027278
187	0xbcc462ca	-0.023972888
188	0xbb376130	-0.0027981512
189	0x3bdb236a	0.0066875713
190	0x3a2a1de2	0.0006489438
191	0xbbd1ac4c	-0.006398713
192	0x3b1d38f2	0.002399024
193	0x3b584efc	0.0033006063
194	0x3b5f4914	0.0034070658
195	0xba86d4ea	-0.0010286842
196	0xbc020638	-0.007936053
197	0xbc72774b	-0.0147989495
198	0xbc0661d2	-0.008202033
199	0x3bcb41af	0.0062028985
200	0xba0e6d97	-0.00054332
201	0xb9ade6f2	-0.000331692
202	0xbba1ea3d	-0.0049412535
203	0x3c69ce0b	0.014270316
204	0xbc32cb33	-0.010912704
205	0xbb345252	-0.0027514887
206	0xbac277db	-0.0014836745
207	0xba5e4756	-0.0008479258
208	0xbbcbc5f4	-0.006218666
209	0xba13054f	-0.0005608396
210	0x3c737476	0.014859309
211	0xb9508670	-0.00019886508
212	0x3a42ac80	0.0007426217
213	0x3b26b358	0.0025436487
214	0xbbd46fb8	-0.0064830445
215	0x3bf9ccbe	0.007623284
216	0xba4240c9	-0.00074101664
217	0x3c05903b	0.008152063
218	0xbb99fac6	-0.004699084
219	0x3a96bc09	0.0011500131
220	0xba9fd10f	-0.0012193042
221	0xba68b7de	-0.0008877496
222	0x3bb0fea5	0.0054014497
223	0xbb64a416	-0.0034887842
224	0x3b470381	0.0030367079
225	0x39fca880	0.00048190728
226	0x3b92d756	0.0044812365
227	0x3b4a9edd	0.0030917444
228	0x3c1b8eb7	0.009494475
229	0xbb5f8cba	-0.003411098
230	0xbd8527a1	-0.06501699
231	0x3ab81d37	0.0014046793
232	0x3ba75490	0.005106516
233	0xbc07df88	-0.00829304
234	0x3b1ce03f	0.0023937372
235	0x3c0d1192	0.008610146
236	0xbabc455f	-0.0014363936
237	0x3c2dd070	0.010608777
238	0xba377804	-0.000699878
239	0x3b0279b9	0.0019908978
240	0x3b5dbab3	0.0033833205
241	0x39b08026	0.00033664814
242	0xbb172c2e	-0.0023067105
243	0xbb2742bf	-0.0025521962
244	0x3b1e1086	0.0024118735
245	0x3c1aafe8	0.009441353
246	0x3b9a72f2	0.0047134096
247	0x3a5cf389	0.00084286236
248	0xbad6d630	-0.0016390737
249	0xba1261db	-0.00055840396
250	0x3cda8ea1	0.026679339
251	0x3bad9196	0.005296896
252	0xbc6329c0	-0.013864934
253	0x3c23297f	0.009958624
254	0xba892bbe	-0.0010465307
255	0x3bf748e0	0.007546529

tabnet.initial_bn.running_var f4 [1038]
0	0x3ba7321a	0.005102408
1	0x3ad74284	0.0016423021
2	0x3f7c5c93	0.9857876
3	0x3f7a17bf	0.97692484
4	0x3f785574	0.9700539
5	0x3f78b787	0.9715504
6	0x3f7a1a2f	0.97696203
7	0x3f792f0d	0.9733742
8	0x3f77c94a	0.9679152
9	0x3f7ac1ad	0.97951776
10	0x3f88e661	1.0695306
11	0x3f790fe3	0.97289866
12	0x3f79746c	0.9744327
13	0x3f792115	0.97316104
14	0x3f780967	0.96889347
15	0x3f7d7479	0.9900585
16	0x3f795387	0.9739308
17	0x3f77efd8	0.9685035
18	0x3f7c2886	0.98499334
19	0x3f7bff91	0.9843684
20	0x3f79a826	0.975222
21	0x3f7b76e9	0.9822832
22	0x3f795e5a	0.97409594
23	0x3f79e371	0.97612673
24	0x3f7a4a84	0.9776995
25	0x3f788d41	0.97090536
26	0x3f7947ba	0.9737507
27	0x3f79c7e7	0.9757065
28	0x3f793d91	0.9735957
29	0x3f7870af	0.9704694
30	0x3f78c8a3	0.9718115
31	0x3f79a461	0.9751645
32	0x3f7a784d	0.97839814
33	0x3f877d0f	1.058504
34	0x3f780f5b	0.9689843
35	0x3f79ffca	0.9765593
36	0x3f7af0f2	0.98023903
37	0x3f795de2	0.9740888
38	0x3f7e537c	0.9934614
39	0x3fa54720	1.2912331
40	0x3f97a38e	1.1846788
41	0x3f7aa59d	0.97908956
42	0x3f80c64a	1.0060513
43	0x3f78a44b	0.9712569
44	0x3f78ed11	0.97236735
45	0x3f7b308f	0.9812097
46	0x3f76e145	0.96437484
47	0x3f7848a5	0.96985847
48	0x3f80fbe8	1.0076876
49	0x3f79c12b	0.97560376
50	0x3f809569	1.0045596
51	0x3f7a12b6	0.976848
52	0x3fa9fec8	1.3280878
53	0x3f7bf2bc	0.9841726
54	0x3f78d4b6	0.9719957
55	0x3f7cf34c	0.9880874
56	0x3f7af80b	0.98034734
57	0x3f7f1994	0.99648404
58	0x3f78ed35	0.9723695
59	0x3f7df84c	0.99206996
60	0x3f8ff0f0	1.1245403
61	0x3f7e786b	0.99402493
62	0x3f7903d1	0.9727145
63	0x3f7c16d3	0.98472327
64	0x3f8444d6	1.0333507
65	0x3f861ab2	1.0476897
66	0x3f79c7ab	0.97570294
67	0x3f7ae866	0.9801086
68	0x3f7901b9	0.97268254
69	0x3fb10fae	1.383291
70	0x3f79b4d2	0.97541535
71	0x3f792ebb	0.9733693
72	0x3f772dbc	0.9655416
73	0x3f77a98b	0.9674308
74	0x3f8f1a5d	1.117992
75	0x3f797d8f	0.9745721
76	0x3f860c9a	1.0472596
77	0x3fa799db	1.3093828
78	0x3f78e6ed	0.97227365
79	0x3f7a190b	0.9769446
80	0x3f797932	0.97450554
81	0x3f779d92	0.9672481
82	0x3f79c471	0.9756537
83	0x3f7a9a0f	0.97891325
84	0x3f7b08aa	0.98060095
85	0x3f7992ec	0.9748981
86	0x3f77eb5a	0.96843493
87	0x3f794453	0.9736988
88	0x3f83ad9d	1.0287358
89	0x3f7a64a0	0.9780979
90	0x3f798c46	0.97479665
91	0x3f76ff6a	0.9648348
92	0x3f7cc7e5	0.98742515
93	0x3f825157	1.0181073
94	0x3f79d79a	0.97594607
95	0x3f79d694	0.97593045
96	0x3f77ce11	0.9679881
97	0x3f78a7f6	0.9713129
98	0x3f7ff1c1	0.9997826
99	0x3f82a8b4	1.0207734
100	0x3f7ef55a	0.99593127
101	0x3f79ad22	0.97529805
102	0x3f8af85e	1.0857046
103	0x3f78cd50	0.9718828
104	0x3f7ce293	0.98783225
105	0x3f7aef30	0.9802122
106	0x3f78d462	0.9719907
107	0x3f77b74f	0.9676408
108	0x3f80447b	1.0020899
109	0x3f7afb39	0.98039585
110	0x3f78f3dc	0.972471
111	0x3f796f06	0.97435033
112	0x3f7b5372	0.981742
113	0x3f7c108b	0.9846274
114	0x3f7aed43	0.9801828
115	0x3f8d78c2	1.1052477
116	0x3f78b0ff	0.97145075
117	0x3f77b49c	0.96759963
118	0x3f79fd2b	0.9765193
119	0x3f7aac75	0.979194
120	0x3f77b33b	0.9675786
121	0x3f78637f	0.9702682
122	0x3f779e01	0.9672547
123	0x3f814634	1.0099549
124	0x3f785b3a	0.970142
125	0x3f95c892	1.1701834
126	0x3f79fa56	0.9764761
127	0x3f782511	0.9693156
128	0x3f7ba1e3	0.98293895
129	0x3f75b2ff	0.9597625
130	0x3f8d471b	1.1037325
131	0x3f76ad8e	0.96358573
132	0x3f81009e	1.0078313
133	0x3f99aa6c	1.2005134
134	0x3f8074d5	1.0035654
135	0x3f7e1f4d	0.9926651
136	0x3f7742f9	0.9658657
137	0x3f7830e1	0.96949583
138	0x3f78ea76	0.9723276
139	0x3f78573d	0.97008115
140	0x3f7bfa15	0.9842847
141	0x3f7ab366	0.9792999
142	0x3f78c9fd	0.9718321
143	0x3f789c38	0.9711337
144	0x3f7c7a2f	0.9862394
145	0x3f77fd8f	0.96871275
146	0x3f81968a	1.0124066
147	0x3f7b1cde	0.9809092
148	0x3f809b7d	1.0047451
149	0x3f839bc9	1.0281917
150	0x3f7d5944	0.98964334
151	0x3f78dbac	0.9721019
152	0x3f7aa6ff	0.97911066
153	0x3f79bdbd	0.9755514
154	0x3f82d5a2	1.0221446
155	0x3f77c724	0.9678824
156	0x3f7a0664	0.97666
157	0x3f8088a0	1.0041695
158	0x3f7a08aa	0.9766947
159	0x3f79e602	0.9761659
160	0x3f924047	1.1425866
161	0x3f797c5f	0.974554
162	0x3f7dbd31	0.9911681
163	0x3f790b7e	0.9728316
164	0x3f7929ba	0.97329295
165	0x3f831a9d	1.0242497
166	0x3f813cda	1.0096695
167	0x3f7a2837	0.97717613
168	0x3f793843	0.97351474
169	0x3f7978ac	0.97449756
170	0x3f7b39c7	0.98135036
171	0x3f7aec26	0.98016584
172	0x3f84c4f5	1.0372607
173	0x3f79d219	0.9758621
174	0x3f7a049e	0.97663295
175	0x3f79f4ef	0.97639364
176	0x3f7a9a6e	0.9789189
177	0x3f7ab602	0.9793397
178	0x3f792dcf	0.97335523
179	0x3f7d2f77	0.9890055
180	0x3f8bf6fd	1.093475
181	0x3f79e796	0.97619
182	0x3f78ce55	0.9718984
183	0x3f7d9198	0.99050283
184	0x3f779668	0.96713877
185	0x3f8210a5	1.016133
186	0x3f793d35	0.9735902
187	0x3f901906	1.1257637
188	0x3f7cc98e	0.9874505
189	0x3f779196	0.9670652
190	0x3f78ca26	0.97183454
191	0x3f8085ea	1.0040867
192	0x3f7906f6	0.97276247
193	0x3f791d88	0.97310686
194	0x3f77d836	0.96814287
195	0x3f79087c	0.9727857
196	0x3f794052	0.9736377
197	0x3f8b0ccf	1.0863284
198	0x3f7a4232	0.97757256
199	0x3f82527c	1.0181422
200	0x3f7a9e8e	0.97898185
201	0x3f79b444	0.9754069
202	0x3f778d26	0.9669975
203	0x3f87df29	1.0614978
204	0x3f898129	1.0742542
205	0x3f781b9b	0.9691712
206	0x3f7b238f	0.98101133
207	0x3f76d9e4	0.96426225
208	0x3f79510f	0.9738931
209	0x3f792190	0.9731684
210	0x3f881bee	1.0633523
211	0x3f791f90	0.97313786
212	0x3f7bc390	0.9834528
213	0x3f77a348	0.9673352
214	0x3f775112	0.9660808
215	0x3f7ca689	0.9869161
216	0x3f794613	0.9737255
217	0x3f814121	1.0098001
218	0x3f7a3a22	0.97744954
219	0x3f7ae059	0.9799858
220	0x3f79b6b4	0.9754441
221	0x3f790e70	0.97287655
222	0x3f7a8437	0.97857994
223	0x3f7a42bc	0.9775808
224	0x3f79238c	0.97319865
225	0x3f791ec1	0.9731255
226	0x3f7ac790	0.9796076
227	0x3f77d0cc	0.96802974
228	0x3f83e614	1.0304589
229	0x3f78a416	0.97125375
230	0x3fbad3d5	1.4595896
231	0x3f7a2a74	0.9772103
232	0x3f7a130a	0.976853
233	0x3f8053e3	1.00256
234	0x3f7ab041	0.9792519
235	0x3f77e282	0.9683
236	0x3f792ce0	0.973341
237	0x3f7baea3	0.9831335
238	0x3f774cc6	0.9660152
239	0x3f77e5ac	0.96834826
240	0x3f7951c8	0.97390413
241	0x3f787a01	0.97061163
242	0x3f76eced	0.9645527
243	0x3f7b6763	0.9820463
244	0x3f780330	0.96879864
245	0x3f8098bb	1.004661
246	0x3f7bfe30	0.98434734
247	0x3f7e048b	0.9922568
248	0x3f76e661	0.9644528
249	0x3f79cc53	0.975774
250	0x3f92a775	1.1457354
251	0x3f7c8775	0.9864419
252	0x3f863474	1.0484757
253	0x3f823d8c	1.0175033
254	0x3f78b7bd	0.9715536
255	0x3f7b55b8	0.9817767

tabnet.initial_splitter.shared.shared_layers.0.weight f4 [96, 1038]
0	0xb92697eb	-0.00015887588
1	0x3a34638c	0.0006881289
2	0x3dbd466c	0.092419475
3	0xb9134551	-0.00014044835
4	0x3cdaea3c	0.02672302
5	0xb8a87551	-8.032716e-05
6	0x33af858a	8.173363e-08
7	0x38b41304	8.586611e-05
8	0xb6d83d43	-6.4444334e-06
9	0xb51e1b5c	-5.88994e-07
10	0x3981071a	0.00024610088
11	0x387c567f	6.0162038e-05
12	0x34c1570b	3.6012383e-07
13	0xb9b1ac2f	-0.00033888358
14	0x3875bd38	5.8588776e-05
15	0x3a1e9234	0.00060490076
16	0xbc631096	-0.013858935
17	0xb99adca9	-0.00029537574
18	0x377d24ca	1.5088541e-05
19	0x356a1702	8.7205274e-07
20	0xb8d8d1dd	-0.00010338773
21	0x359f9442	1.1889572e-06
22	0x39925863	0.00027913143
23	0x39f59b34	0.00046845677
24	0xba22c6a3	-0.0006209409
25	0xb843ac0b	-4.665185e-05
26	0xb998526e	-0.00029053114
27	0xb99aa5d0	-0.0002949671
28	0xb9a4ce2f	-0.00031434136
29	0x393a22eb	0.0001775135
30	0x3bf4d970	0.0074722096
31	0x39e33a08	0.0004334005
32	0xb89bb231	-7.424167e-05
33	0x38ece8e5	0.00011296737
34	0x338f36fe	6.6689594e-08
35	0x389f2849	7.5892145e-05
36	0xb8a03a71	-7.64028e-05
37	0xb25af85f	-1.2745743e-08
38	0x38c517ca	9.398123e-05
39	0xb984eaa7	-0.00025351832
40	0x329828d6	1.7713699e-08
41	0xb9b9ca07	-0.00035436472
42	0x3da2d23c	0.07950255
43	0x373c7077	1.12318585e-05
44	0x37dbc842	2.6200087e-05
45	0xb912cd24	-0.00014000066
46	0x3449a784	1.8780526e-07
47	0x3c5baedf	0.013408392
48	0x39effa4e	0.00045772124
49	0x38a1a4ba	7.707761e-05
50	0x3a36caf7	0.0006972993
51	0x39378eb6	0.00017505404
52	0x3a111736	0.000553477
53	0xba0f0c26	-0.00054568273
54	0xb78fd369	-1.7145374e-05
55	0xb9154431	-0.0001423515
56	0xb8b15d98	-8.457451e-05
57	0x33aabe96	7.950909e-08
58	0x38522e15	5.011082e-05
59	0xb99d2d7b	-0.0002997926
60	0x398b2bef	0.0002654488
61	0x36b1945a	5.2922815e-06
62	0xba628801	-0.0008641482
63	0xb2332209	-1.042691e-08
64	0x3b3b7ec3	0.0028609491
65	0x3990c3ae	0.00027611613
66	0xb65f754c	-3.3297865e-06
67	0xb937bbd8	-0.00017522217
68	0xb8a5c5c5	-7.9046506e-05
69	0xb6c1a0db	-5.7705743e-06
70	0xba34e6ac	-0.0006900828
71	0xb96e74ff	-0.00022741033
72	0xb525948f	-6.168347e-07
73	0x39c62927	0.00037796164
74	0xb9dce543	-0.00042132483
75	0x30db1f37	1.5943219e-09
76	0xb90f12cd	-0.00013644547
77	0x37e1a46c	2.6898655e-05
78	0x374e7b03	1.2307198e-05
79	0x391bfa45	0.00014875185
80	0x38af9df9	8.374075e-05
81	0x37d9dacb	2.59703e-05
82	0x36963273	4.4762214e-06
83	0xb802799a	-3.1107666e-05
84	0x35722b49	9.0215013e-07
85	0x381eb3b1	3.7837486e-05
86	0x37c3666b	2.3293504e-05
87	0x39b689c6	0.00034816394
88	0x385275c0	5.0177565e-05
89	0xb89dfae8	-7.533078e-05
90	0xbd2e4e1d	-0.042554963
91	0xb9035c92	-0.00012527619
92	0xb98e988d	-0.0002719801
93	0xb88b0df2	-6.630634e-05
94	0x394589c1	0.00018838701
95	0x393a472a	0.00017764853
96	0x38cbf1b2	9.7248136e-05
97	0x377bf7eb	1.5018489e-05
98	0xb9cbdc51	-0.00038883326
99	0x39ba1e6e	0.00035499356
100	0xb9917061	-0.00027740284
101	0x38a4f492	7.865684e-05
102	0x3a725c90	0.000924536
103	0x39c9e054	0.00038504845
104	0xb7c0b055	-2.2970295e-05
105	0xb7a46060	-1.9595202e-05
106	0xb90ca9bb	-0.0001341467
107	0xb7a31f61	-1.9445726e-05
108	0xb8b3aa32	-8.5670865e-05
109	0x37d3c905	2.5246767e-05
110	0xb847533b	-4.752281e-05
111	0x394e091f	0.00019649089
112	0x39a2038d	0.00030901693
113	0xb80772d4	-3.229345e-05
114	0x3759019f	1.2934585e-05
115	0x366d6513	3.5374585e-06
116	0x38a5ce98	7.906294e-05
117	0xb90281ca	-0.00012446116
118	0x3999cd29	0.0002933529
119	0xb960c4bb	-0.00021435592
120	0xb9930f8f	-0.00028049617
121	0xb857394a	-5.131335e-05
122	0xb8c8091e	-9.5384414e-05
123	0x38f17608	0.000115137605
124	0xb8b345a3	-8.548356e-05
125	0x3a010db4	0.00049230014
126	0xba053c5e	-0.0005082543
127	0xb9a36211	-0.00031162848
128	0xb88a59dc	-6.5970904e-05
129	0x37007d14	7.658517e-06
130	0x3dadbc18	0.08483142
131	0x34ded482	4.1505342e-07
132	0x383b6f6c	4.4688044e-05
133	0xb905de98	-0.00012766791
134	0x38a3d92e	7.8128985e-05
135	0x39f2495e	0.000462125
136	0xb9fa4360	-0.00047733914
137	0xb8e854eb	-0.00011078439
138	0x3987c2a6	0.0002589423
139	0xb9966d52	-0.0002869168
140	0xb8aaa5b4	-8.137096e-05
141	0x387440c6	5.823446e-05
142	0xb14ec9a6	-3.009157e-09
143	0xb8c03942	-9.1659385e-05
144	0x39a9fd70	0.00032423018
145	0xb8e092c1	-0.000107084874
146	0xb9ad3cd7	-0.0003304246
147	0xb100c147	-1.8736317e-09
148	0xb95739ef	-0.0002052558
149	0x3899ed83	7.3398485e-05
150	0x39cdcef8	0.0003925485
151	0x39e70852	0.00044065953
152	0xbd59a40e	-0.05313497
153	0xb7ae5654	-2.0782616e-05
154	0xb9412939	-0.00018421271
155	0x37b31ad7	2.1350961e-05
156	0xb9192e86	-0.00014608548
157	0x36cbd489	6.074614e-06
158	0x378cb6c1	1.6774402e-05
159	0x3e2336a0	0.15938807
160	0x39b7ab57	0.00035032138
161	0xb98c4d9b	-0.000267607
162	0x39fc1ef7	0.00048088256
163	0x379239e8	1.7431521e-05
164	0xb6c15051	-5.7611983e-06
165	0x38b23b19	8.498709e-05
166	0x3dbe35e2	0.09287621
167	0x35102059	5.369125e-07
168	0x39c84942	0.00038201554
169	0xb9b863a9	-0.00035169467
170	0xba759c20	-0.0009369273
171	0x39ae7574	0.00033275376
172	0x3917f99f	0.00014493473
173	0xbdb5cf30	-0.088774085
174	0xbe215897	-0.1575645
175	0xb9d42a65	-0.00040467377
176	0xb9c1da12	-0.00036974304
177	0x397a517a	0.0002387221
178	0x39b89992	0.00035209634
179	0x368b458c	4.150619e-06
180	0x396842f4	0.00022150186
181	0x336af03c	5.4700863e-08
182	0x399699ad	0.00028724727
183	0xb9a46438	-0.00031355186
184	0xb868a391	-5.5465443e-05
185	0xb9343ed5	-0.00017189544
186	0xb92c0b38	-0.00016407378
187	0xb9ab4c5c	-0.00032672554
188	0xb84b3ace	-4.8453738e-05
189	0xb8d50794	-0.00010158043
190	0x3c4affb2	0.012390064
191	0xb9617fd1	-0.00021505287
192	0xb7a113d4	-1.9201929e-05
193	0x39942df9	0.00028263012
194	0xb8a8121b	-8.014237e-05
195	0xb8dfe9fd	-0.00010677052
196	0x3d60115c	0.054704055
197	0xb95c0d3e	-0.00020985768
198	0x379f62ee	1.9000345e-05
199	0x3797518b	1.8038574e-05
200	0xb9c33e7f	-0.00037239862
201	0x3c5a24a3	0.013314399
202	0x3660903e	3.346256e-06
203	0xb78401f8	-1.5736543e-05
204	0xbd8238d6	-0.06358497
205	0xb933001f	-0.00017070815
206	0x38a5c9dc	7.905412e-05
207	0x37f99e80	2.975692e-05
208	0xb67e8208	-3.7924638e-06
209	0xbad14427	-0.0015965746
210	0x3d94747c	0.0724878
211	0x3a83e8ae	0.0010063851
212	0xba0dbdc1	-0.00054069987
213	0x3a6fba46	0.00091448834
214	0xb853d9f6	-5.0509312e-05
215	0xb9c9686f	-0.00038415517
216	0x33412bad	4.4976037e-08
217	0x3a001a38	0.00048867194
218	0xb984dde1	-0.00025342315
219	0xb9ab069d	-0.0003262059
220	0xb88b0fcd	-6.6309796e-05
221	0xb9ed8077	-0.00045299876
222	0x3784ed74	1.5846199e-05
223	0xba110e22	-0.0005533417
224	0xb947e51d	-0.0001906347
225	0xb77dec32	-1.5134969e-05
226	0xb934260e	-0.00017180314
227	0x2f2d3be2	1.5755533e-10
228	0xb947a2c4	-0.00019038754
229	0xbc5163dc	-0.012780156
230	0x3307b74b	3.159884e-08
231	0xb7b40066	-2.1457858e-05
232	0xbc7322a4	-0.014839802
233	0x3990c1ad	0.0002761012
234	0x3867098f	5.5083594e-05
235	0xb9f057d1	-0.00045841796
236	0x38122fbf	3.485358e-05
237	0x37a408f7	1.9554498e-05
238	0x3663dca5	3.3954068e-06
239	0x39be25a1	0.0003626766
240	0xb8e61069	-0.00010970311
241	0x383d945d	4.5199286e-05
242	0xb4cff012	-3.873143e-07
243	0x3808cc4c	3.2615193e-05
244	0x38e8b228	0.00011095806
245	0xb7c5c34a	-2.3575169e-05
246	0x39d12804	0.000398934
247	0x3d5ca007	0.05386355
248	0x390ed246	0.00013620508
249	0x36b6a0d6	5.4427464e-06
250	0xb552ca1b	-7.85252e-07
251	0x398060a6	0.0002448607
252	0xb2b63be3	-2.1214822e-08
253	0x2cf073e0	6.834075e-12
254	0x3326c9e0	3.883349e-08
255	0x340fb7a4	1.3384721e-07

tabnet.initial_splitter.shared.shared_layers.1.weight f4 [96, 48]
0	0x3e8a619c	0.27027595
1	0xbcdfe128	-0.027329043
2	0xbc29274d	-0.010324311
3	0x39b470d4	0.0003441634
4	0xbd10d97b	-0.035363656
5	0xbc3faa24	-0.0116982795
6	0x3d1b7602	0.037954338
7	0x3d5b14c5	0.053486604
8	0x3aca826d	0.0015450247
9	0x3d1feb26	0.039042614
10	0xbc007036	-0.007839253
11	0x3bf1ec05	0.007382872
12	0xbcfd5f0a	-0.030929107
13	0x31f01482	6.987251e-09
14	0xbcadc8b3	-0.021213865
15	0xbd23a9e6	-0.03995695
16	0x3d24a34a	0.040194787
17	0x3d177be1	0.036983375
18	0x3bf39fc9	0.0074348194
19	0xbb375e15	-0.0027979661
20	0xba0c5009	-0.00053525023
21	0x3c5959db	0.013266052
22	0x3a832dc9	0.0010008152
23	0x3c38cc32	0.011279153
24	0xb8861736	-6.393941e-05
25	0x38d9c09a	0.00010383241
26	0xb7c60f18	-2.3610468e-05
27	0x3a508ba2	0.0007955377
28	0xb993f821	-0.00028222895
29	0xb844fcfc	-4.696565e-05
30	0xb9ad70af	-0.00033081087
31	0x36048cde	1.9751528e-06
32	0xb7bdbe45	-2.2619157e-05
33	0xb84ab8a7	-4.8332524e-05
34	0xb7d1acb8	-2.499517e-05
35	0xb8f8f25a	-0.00011870703
36	0xb7a94aeb	-2.0181256e-05
37	0x3909b8bc	0.00013134157
38	0xb7dd517a	-2.6383193e-05
39	0xb89f3ad1	-7.592666e-05
40	0x39ee3e28	0.00045441207
41	0x38fabf26	0.00011956533
42	0x365d0d60	3.2939352e-06
43	0xb755e432	-1.274892e-05
44	0x37c1ea83	2.3116596e-05
45	0x398bc223	0.0002665679
46	0xb82007ba	-3.815417e-05
47	0xb8b41e20	-8.58868e-05
48	0xbd1f5521	-0.038899545
49	0x3ec68936	0.3877656
50	0xbb08af8c	-0.0020856587
51	0x3ab77aac	0.0013998351
52	0xbd476a21	-0.048685197
53	0xbc6f5380	-0.01460731
54	0x3c9c0f3a	0.01905023
55	0x3c010f45	0.007877176
56	0xbc103a3b	-0.008802946
57	0x3d0eaeff	0.034834858
58	0xbcfc38dd	-0.030788833
59	0xbd838a29	-0.06422836
60	0xbb16a470	-0.0022986196
61	0xb4d8b030	-4.0361329e-07
62	0x3cb63ee4	0.022246785
63	0xbd17534a	-0.036944665
64	0x3c404b9d	0.011736778
65	0x3c52e36d	0.012871605
66	0xbc77df70	-0.015128955
67	0xbc8d9640	-0.017283559
68	0xbd3dc282	-0.046328075
69	0xbce069ea	-0.027394254
70	0xba0e0d3c	-0.0005418842
71	0xbc4d9728	-0.0125482455
72	0x3c31fc43	0.010863367
73	0xbc1aa1d1	-0.009437994
74	0xbbaeda16	-0.0053360565
75	0xbb2b350b	-0.0026124145
76	0x3c479f09	0.012183913
77	0xbb4e144a	-0.0031445199
78	0x3be97bc8	0.0071253516
79	0x3b9d50f7	0.0048009115
80	0xbc164347	-0.009171314
81	0x3c2905e2	0.010316344
82	0x39b4b55f	0.00034467407
83	0x3bb30edd	0.0054644183
84	0x3b0d6b1b	0.0021578732
85	0xbc1f0dd5	-0.009707888
86	0x3ab35b57	0.0013683838
87	0xbb6779a1	-0.00353203
88	0x3be3b6c6	0.0069492785
89	0xbc4e8b32	-0.012606429
90	0x3a4a4498	0.000771591
91	0xbba77d8e	-0.005111403
92	0xbbbc3921	-0.005744115
93	0x3b23f11e	0.0025015543
94	0xbc49d1be	-0.012318073
95	0x3b0f1e71	0.0021838213
96	0xbc3867e5	-0.011255239
97	0xbcded243	-0.02719987
98	0x3c73cd20	0.014880449
99	0xbb1b58ad	-0.0023703978
100	0x3cbf6e55	0.02336804
101	0xb9835bf2	-0.00025054772
102	0xbd06c04e	-0.03289824
103	0xbcc3b5c6	-0.023890387
104	0x3c9d2ed2	0.019187365
105	0x3c8cc1c9	0.017182248
106	0x3d09434b	0.03351144
107	0x3ac313e2	0.0014883245
108	0xbcd8f9d1	-0.02648631
109	0xb2c747b1	-2.319925e-08
110	0xbd5c2235	-0.05374356
111	0x3c897368	0.016778663
112	0x3d1ea182	0.038728245
113	0xbcecfde3	-0.028929656
114	0x3be569ef	0.0070011537
115	0x3ce718be	0.02821004
116	0x3c9ea2d7	0.019364757
117	0x3d2451e6	0.040117167
118	0xba60c427	-0.0008574151
119	0x3d1bcb11	0.038035456
120	0x3892efa3	7.006458e-05
121	0x37e828c5	2.767554e-05
122	0x3757ac70	1.2855147e-05
123	0xb895355a	-7.114811e-05
124	0x38b370a1	8.556364e-05
125	0xb67ee0e8	-3.7979862e-06
126	0x37ffbbf6	3.0485895e-05
127	0x35a97fe1	1.2628699e-06
128	0x37cc5328	2.4357418e-05
129	0x37ad5187	2.0661171e-05
130	0x3722a96b	9.695398e-06
131	0x37dee4b5	2.6570962e-05
132	0x3806ae6b	3.211053e-05
133	0x38241e2b	3.9128743e-05
134	0xba0a1c08	-0.0005268459
135	0xb62a1ecf	-2.5349907e-06
136	0x3934eb82	0.00017253871
137	0xb7f3d51e	-2.9067098e-05
138	0xb842010b	-4.6254176e-05
139	0x3600cc3f	1.9192373e-06
140	0x36abea90	5.123504e-06
141	0xb80ae4fb	-3.311502e-05
142	0xb54c642d	-7.6141697e-07
143	0xb839c954	-4.429494e-05
144	0x3be4af51	0.006978907
145	0xbb2fb5c4	-0.0026811222
146	0xbb952e59	-0.004552644
147	0x3b81e2bd	0.003963797
148	0x3b2102bc	0.002456828
149	0xbc266828	-0.010156669
150	0x3bc7bdb3	0.006095612
151	0xbb54b589	-0.0032456836
152	0xbbe6c82c	-0.0070429053
153	0xbc1a6432	-0.0094233025
154	0xba94c766	-0.0011350929
155	0x3c3add11	0.011405245
156	0xbbb93a77	-0.0056527215
157	0x334205df	4.5174485e-08
158	0x3caddde8	0.021223977
159	0xbdad0141	-0.08447505
160	0x38d9630a	0.00010365814
161	0xbc6dd0aa	-0.014515081
162	0x3cb09a13	0.021557843
163	0xbbb4286e	-0.0054979837
164	0xbcbd8244	-0.023133405
165	0x3b2d2773	0.0026421219
166	0x3ad40649	0.001617619
167	0xbc360ecb	-0.011111925
168	0x33a80a72	7.8250096e-08
169	0xb84f7e58	-4.9470313e-05
170	0xb858fb44	-5.1732422e-05
171	0x3918c15b	0.0001456788
172	0xb8ccea64	-9.771137e-05
173	0xb728bad2	-1.0057078e-05
174	0x3955b5d9	0.00020381006
175	0xb7ac59af	-2.054576e-05
176	0xb83b363c	-4.4634784e-05
177	0xb83850ac	-4.394415e-05
178	0xb6ff47d2	-7.607953e-06
179	0xb749a36e	-1.2018585e-05
180	0xb8dcc890	-0.00010527775
181	0x389b322d	7.400322e-05
182	0x3a3f3ddf	0.0007295291
183	0xb7d0c822	-2.4888726e-05
184	0xb8dcca80	-0.00010528136
185	0x3846eb98	4.7426292e-05
186	0x37a24aae	1.934668e-05
187	0x38ca30b5	9.641183e-05
188	0x37bffb6a	2.2886048e-05
189	0x3871f711	5.7688976e-05
190	0x3750b3c4	1.2439621e-05
191	0xb811ddb4	-3.477717e-05
192	0xbc801756	-0.015636127
193	0x3c7faeac	0.01560561
194	0x3bd09bb0	0.0063662156
195	0x3b1822a3	0.0023214004
196	0x3e8b7adb	0.2724217
197	0xbd6f3ed5	-0.05840953
198	0xbc979cab	-0.018507322
199	0xbcd014d6	-0.02540056
200	0x3cad05a5	0.021120856
201	0xbd31719e	-0.043321244
202	0xbc0185fc	-0.0079054795
203	0xbd84ab22	-0.064779535
204	0xbce8d2b0	-0.028420776
205	0xb2026143	-7.589111e-09
206	0xbc7478ef	-0.014921411
207	0xbd2c1dad	-0.04202049
208	0xbc3e41df	-0.011612385
209	0xbd0b67d6	-0.034034573
210	0xbcb765c3	-0.022387391
211	0xbc345103	-0.011005643
212	0xbc3fd8bf	-0.011709391
213	0xbd5e5745	-0.054282445
214	0x3a3d9259	0.00072315853
215	0x3c1d8e66	0.00961647
216	0xb89e6fd0	-7.554854e-05
217	0x37eaa09d	2.7969765e-05
218	0x387642d2	5.87132e-05
219	0x39d890b1	0.00041306534
220	0x392916c7	0.00016125581
221	0xb90aeb73	-0.00013248417
222	0xb9ce4ea3	-0.0003934997
223	0x3736ec4b	1.0903062e-05
224	0xb7ecf3ca	-2.8246915e-05
225	0xb6268bc2	-2.4817277e-06
226	0x370d4508	8.4203275e-06
227	0xb9058eff	-0.00012737139
228	0x36f8327e	7.396854e-06
229	0xb9af862e	-0.00033478573
230	0x39f3d5a8	0.00046507758
231	0xb92dfd02	-0.00016592818
232	0xb9dcd14b	-0.00042117605
233	0x388ba00c	6.6578476e-05
234	0xb8b1674c	-8.459258e-05
235	0xb9a4a2e5	-0.00031401883
236	0xb9110174	-0.00013828819
237	0x38190e13	3.649115e-05
238	0xb7b87686	-2.1989701e-05
239	0x38e7b904	0.000110494
240	0x3ba0daae	0.004908881
241	0xbcad9a91	-0.021191867
242	0xbb399454	-0.002831717
243	0x3af748ff	0.0018866359
244	0xbd8467fe	-0.064651474
245	0x3ea778f0	0.32709455
246	0xbc4b6cd8	-0.012416087
247	0x3c6f9ff3	0.014625537
248	0xbcb88a90	-0.02252701
249	0xbd0198ec	-0.03163998
250	0xbcaece92	-0.021338735
251	0xbd7cbe58	-0.061704963
252	0xbc8ec5e6	-0.01742835
253	0x32598c3d	1.2662949e-08
254	0xbcebab84	-0.028768308
255	0xbcadf055	-0.021232763

tabnet.initial_splitter.shared.glu_layers.0.fc.weight f4 [96, 1038]
0	0xb92697eb	-0.00015887588
1	0x3a34638c	0.0006881289
2	0x3dbd466c	0.092419475
3	0xb9134551	-0.00014044835
4	0x3cdaea3c	0.02672302
5	0xb8a87551	-8.032716e-05
6	0x33af858a	8.173363e-08
7	0x38b41304	8.586611e-05
8	0xb6d83d43	-6.4444334e-06
9	0xb51e1b5c	-5.88994e-07
10	0x3981071a	0.00024610088
11	0x387c567f	6.0162038e-05
12	0x34c1570b	3.6012383e-07
13	0xb9b1ac2f	-0.00033888358
14	0x3875bd38	5.8588776e-05
15	0x3a1e9234	0.00060490076
16	0xbc631096	-0.013858935
17	0xb99adca9	-0.00029537574
18	0x377d24ca	1.5088541e-05
19	0x356a1702	8.7205274e-07
20	0xb8d8d1dd	-0.00010338773
21	0x359f9442	1.1889572e-06
22	0x39925863	0.00027913143
23	0x39f59b34	0.00046845677
24	0xba22c6a3	-0.0006209409
25	0xb843ac0b	-4.665185e-05
26	0xb998526e	-0.00029053114
27	0xb99aa5d0	-0.0002949671
28	0xb9a4ce2f	-0.00031434136
29	0x393a22eb	0.0001775135
30	0x3bf4d970	0.0074722096
31	0x39e33a08	0.0004334005
32	0xb89bb231	-7.424167e-05
33	0x38ece8e5	0.00011296737
34	0x338f36fe	6.6689594e-08
35	0x389f2849	7.5892145e-05
36	0xb8a03a71	-7.64028e-05
37	0xb25af85f	-1.2745743e-08
38	0x38c517ca	9.398123e-05
39	0xb984eaa7	-0.00025351832
40	0x329828d6	1.7713699e-08
41	0xb9b9ca07	-0.00035436472
42	0x3da2d23c	0.07950255
43	0x373c7077	1.12318585e-05
44	0x37dbc842	2.6200087e-05
45	0xb912cd24	-0.00014000066
46	0x3449a784	1.8780526e-07
47	0x3c5baedf	0.013408392
48	0x39effa4e	0.00045772124
49	0x38a1a4ba	7.707761e-05
50	0x3a36caf7	0.0006972993
51	0x39378eb6	0.00017505404
52	0x3a111736	0.000553477
53	0xba0f0c26	-0.00054568273
54	0xb78fd369	-1.7145374e-05
55	0xb9154431	-0.0001423515
56	0xb8b15d98	-8.457451e-05
57	0x33aabe96	7.950909e-08
58	0x38522e15	5.011082e-05
59	0xb99d2d7b	-0.0002997926
60	0x398b2bef	0.0002654488
61	0x36b1945a	5.2922815e-06
62	0xba628801	-0.0008641482
63	0xb2332209	-1.042691e-08
64	0x3b3b7ec3	0.0028609491
65	0x3990c3ae	0.00027611613
66	0xb65f754c	-3.3297865e-06
67	0xb937bbd8	-0.00017522217
68	0xb8a5c5c5	-7.9046506e-05
69	0xb6c1a0db	-5.7705743e-06
70	0xba34e6ac	-0.0006900828
71	0xb96e74ff	-0.00022741033
72	0xb525948f	-6.168347e-07
73	0x39c62927	0.00037796164
74	0xb9dce543	-0.00042132483
75	0x30db1f37	1.5943219e-09
76	0xb90f12cd	-0.00013644547
77	0x37e1a46c	2.6898655e-05
78	0x374e7b03	1.2307198e-05
79	0x391bfa45	0.00014875185
80	0x38af9df9	8.374075e-05
81	0x37d9dacb	2.59703e-05
82	0x36963273	4.4762214e-06
83	0xb802799a	-3.1107666e-05
84	0x35722b49	9.0215013e-07
85	0x381eb3b1	3.7837486e-05
86	0x37c3666b	2.3293504e-05
87	0x39b689c6	0.00034816394
88	0x385275c0	5.0177565e-05
89	0xb89dfae8	-7.533078e-05
90	0xbd2e4e1d	-0.042554963
91	0xb9035c92	-0.00012527619
92	0xb98e988d	-0.0002719801
93	0xb88b0df2	-6.630634e-05
94	0x394589c1	0.00018838701
95	0x393a472a	0.00017764853
96	0x38cbf1b2	9.7248136e-05
97	0x377bf7eb	1.5018489e-05
98	0xb9cbdc51	-0.00038883326
99	0x39ba1e6e	0.00035499356
100	0xb9917061	-0.00027740284
101	0x38a4f492	7.865684e-05
102	0x3a725c90	0.000924536
103	0x39c9e054	0.00038504845
104	0xb7c0b055	-2.2970295e-05
105	0xb7a46060	-1.9595202e-05
106	0xb90ca9bb	-0.0001341467
107	0xb7a31f61	-1.9445726e-05
108	0xb8b3aa32	-8.5670865e-05
109	0x37d3c905	2.5246767e-05
110	0xb847533b	-4.752281e-05
111	0x394e091f	0.00019649089
112	0x39a2038d	0.00030901693
113	0xb80772d4	-3.229345e-05
114	0x3759019f	1.2934585e-05
115	0x366d6513	3.5374585e-06
116	0x38a5ce98	7.906294e-05
117	0xb90281ca	-0.00012446116
118	0x3999cd29	0.0002933529
119	0xb960c4bb	-0.00021435592
120	0xb9930f8f	-0.00028049617
121	0xb857394a	-5.131335e-05
122	0xb8c8091e	-9.5384414e-05
123	0x38f17608	0.000115137605
124	0xb8b345a3	-8.548356e-05
125	0x3a010db4	0.00049230014
126	0xba053c5e	-0.0005082543
127	0xb9a36211	-0.00031162848
128	0xb88a59dc	-6.5970904e-05
129	0x37007d14	7.658517e-06
130	0x3dadbc18	0.08483142
131	0x34ded482	4.1505342e-07
132	0x383b6f6c	4.4688044e-05
133	0xb905de98	-0.00012766791
134	0x38a3d92e	7.8128985e-05
135	0x39f2495e	0.000462125
136	0xb9fa4360	-0.00047733914
137	0xb8e854eb	-0.00011078439
138	0x3987c2a6	0.0002589423
139	0xb9966d52	-0.0002869168
140	0xb8aaa5b4	-8.137096e-05
141	0x387440c6	5.823446e-05
142	0xb14ec9a6	-3.009157e-09
143	0xb8c03942	-9.1659385e-05
144	0x39a9fd70	0.00032423018
145	0xb8e092c1	-0.000107084874
146	0xb9ad3cd7	-0.0003304246
147	0xb100c147	-1.8736317e-09
148	0xb95739ef	-0.0002052558
149	0x3899ed83	7.3398485e-05
150	0x39cdcef8	0.0003925485
151	0x39e70852	0.00044065953
152	0xbd59a40e	-0.05313497
153	0xb7ae5654	-2.0782616e-05
154	0xb9412939	-0.00018421271
155	0x37b31ad7	2.1350961e-05
156	0xb9192e86	-0.00014608548
157	0x36cbd489	6.074614e-06
158	0x378cb6c1	1.6774402e-05
159	0x3e2336a0	0.15938807
160	0x39b7ab57	0.00035032138
161	0xb98c4d9b	-0.000267607
162	0x39fc1ef7	0.00048088256
163	0x379239e8	1.7431521e-05
164	0xb6c15051	-5.7611983e-06
165	0x38b23b19	8.498709e-05
166	0x3dbe35e2	0.09287621
167	0x35102059	5.369125e-07
168	0x39c84942	0.00038201554
169	0xb9b863a9	-0.00035169467
170	0xba759c20	-0.0009369273
171	0x39ae7574	0.00033275376
172	0x3917f99f	0.00014493473
173	0xbdb5cf30	-0.088774085
174	0xbe215897	-0.1575645
175	0xb9d42a65	-0.00040467377
176	0xb9c1da12	-0.00036974304
177	0x397a517a	0.0002387221
178	0x39b89992	0.00035209634
179	0x368b458c	4.150619e-06
180	0x396842f4	0.00022150186
181	0x336af03c	5.4700863e-08
182	0x399699ad	0.00028724727
183	0xb9a46438	-0.00031355186
184	0xb868a391	-5.5465443e-05
185	0xb9343ed5	-0.00017189544
186	0xb92c0b38	-0.00016407378
187	0xb9ab4c5c	-0.00032672554
188	0xb84b3ace	-4.8453738e-05
189	0xb8d50794	-0.00010158043
190	0x3c4affb2	0.012390064
191	0xb9617fd1	-0.00021505287
192	0xb7a113d4	-1.9201929e-05
193	0x39942df9	0.00028263012
194	0xb8a8121b	-8.014237e-05
195	0xb8dfe9fd	-0.00010677052
196	0x3d60115c	0.054704055
197	0xb95c0d3e	-0.00020985768
198	0x379f62ee	1.9000345e-05
199	0x3797518b	1.8038574e-05
200	0xb9c33e7f	-0.00037239862
201	0x3c5a24a3	0.013314399
202	0x3660903e	3.346256e-06
203	0xb78401f8	-1.5736543e-05
204	0xbd8238d6	-0.06358497
205	0xb933001f	-0.00017070815
206	0x38a5c9dc	7.905412e-05
207	0x37f99e80	2.975692e-05
208	0xb67e8208	-3.7924638e-06
209	0xbad14427	-0.0015965746
210	0x3d94747c	0.0724878
211	0x3a83e8ae	0.0010063851
212	0xba0dbdc1	-0.00054069987
213	0x3a6fba46	0.00091448834
214	0xb853d9f6	-5.0509312e-05
215	0xb9c9686f	-0.00038415517
216	0x33412bad	4.4976037e-08
217	0x3a001a38	0.00048867194
218	0xb984dde1	-0.00025342315
219	0xb9ab069d	-0.0003262059
220	0xb88b0fcd	-6.6309796e-05
221	0xb9ed8077	-0.00045299876
222	0x3784ed74	1.5846199e-05
223	0xba110e22	-0.0005533417
224	0xb947e51d	-0.0001906347
225	0xb77dec32	-1.5134969e-05
226	0xb934260e	-0.00017180314
227	0x2f2d3be2	1.5755533e-10
228	0xb947a2c4	-0.00019038754
229	0xbc5163dc	-0.012780156
230	0x3307b74b	3.159884e-08
231	0xb7b40066	-2.1457858e-05
232	0xbc7322a4	-0.014839802
233	0x3990c1ad	0.0002761012
234	0x3867098f	5.5083594e-05
235	0xb9f057d1	-0.00045841796
236	0x38122fbf	3.485358e-05
237	0x37a408f7	1.9554498e-05
238	0x3663dca5	3.3954068e-06
239	0x39be25a1	0.0003626766
240	0xb8e61069	-0.00010970311
241	0x383d945d	4.5199286e-05
242	0xb4cff012	-3.873143e-07
243	0x3808cc4c	3.2615193e-05
244	0x38e8b228	0.00011095806
245	0xb7c5c34a	-2.3575169e-05
246	0x39d12804	0.000398934
247	0x3d5ca007	0.05386355
248	0x390ed246	0.00013620508
249	0x36b6a0d6	5.4427464e-06
250	0xb552ca1b	-7.85252e-07
251	0x398060a6	0.0002448607
252	0xb2b63be3	-2.1214822e-08
253	0x2cf073e0	6.834075e-12
254	0x3326c9e0	3.883349e-08
255	0x340fb7a4	1.3384721e-07
