cv_steps/tabnet_raw_step1_fold1_2/network.pt (torch, 682379 bytes, 56 tensors)

embedder.embeddings.0.weight f4 [3, 1]
-0.020126227 0.19405167 -0.14861293
00000000: c2df a4bc 7bb5 463e fd2d 18be

embedder.embeddings.1.weight f4 [2, 1]
0.04396736 -0.043964174
00000000: 1e17 343d c713 34bd

tabnet.initial_bn.weight f4 [1038]
0.036057685 0.17375402 -0.03046544 -0.005200548 -0.009417134 0.14967458 0.0014190424 -0.0007885923
0.0012747198 -4.8808048e-05 0.31061602 0.04966869 0.013975875 0.18440756 0.102220334 0.051597614
0.18260929 0.066841386 0.008170126 -0.00016456303 0.052982505 0.13696107 0.20799777 -0.016472222
0.20557205 0.18184796 0.12567079 0.087578 0.17740807 0.18638705 0.21246284 0.18201083
0.2454265 0.07183171 0.11609408 0.168171 0.24332573 -0.0007172644 0.23785792 0.17673418
-0.0007269315 0.17035246 0.18240212 0.17098169 0.0017516677 0.019452378 0.13047338 0.08230237
0.09297337 0.16939566 0.22679959 -0.00036390286 0.23181808 0.23957367 0.0025190609 0.12263652
0.11379934 0.090257324 0.13135791 0.1210348 0.10922307 0.00014939047 0.17919953 0.012147595
0.18555056 0.19501415 -0.05321083 0.22024672 0.08088568 0.0763067 0.07367235 0.17849581
-0.00046703347 0.0013657283 -0.0012353834 0.025614 0.07705374 0.394477 -0.017964443 0.16399749
0.047326017 -0.031045895 -1.8477913e-06 0.19242273 0.12442918 -0.01727285 0.12907602 0.11961355
0.1945459 0.15343124 0.1238635 -0.05826238 0.19632727 0.28394797 0.09064962 0.13125734
0.16696611 0.09271748 0.0715151 6.921372e-05 0.17075336 0.13554265 0.29122832 0.010929506
0.2120764 0.20715168 -0.02748527 0.22538449 -0.009627164 0.15918796 0.038025677 0.10928002
-0.0026220307 0.10358532 1.8440727e-07 0.097174816 0.12127831 0.07426647 0.25311843 0.19640727
0.14814502 0.010067862 0.18928815 -5.3834607e-05 0.2559596 0.20006879 0.17267095 0.15495995
0.1140133 0.17119208 0.23828627 0.15330808 0.20351468 0.16474998 0.18765256 0.25391617
0.24052244 0.1057078 0.15159117 0.18749703 0.026753545 0.09349065 -0.014392739 0.13899836
0.17595798 0.12375831 0.09450212 0.038294356 0.1179165 0.017765466 0.16800821 0.2114628
0.082551 9.169407e-05 0.07698675 0.09678786 -0.005399027 0.16797592 0.1926792 0.42955133
0.33232987 0.1350824 0.16821511 0.16796333 0.1324427 -2.4809804e-08 0.25283733 -0.00092872395
0.1530229 0.26787785 0.22076112 0.15835343 -0.028383952 0.02530479 0.04335093 0.22827148
0.13811077 0.30191904 0.11855917 0.017150082 0.36399168 0.15275185 0.2171817 0.16085108
0.033834137 0.07666327 0.074926846 0.09503919 0.15076102 0.16164881 0.07770066 0.08075309
0.07381391 0.115733646 0.08281124 0.11009133 0.1255422 0.0044832244 0.018132597 0.1780817
0.07332374 0.03889566 0.106717624 0.07738948 0.31582344 0.22303046 0.10342205 0.12307667
1.1216972e-05 0.22861353 0.21672444 0.1940374 0.1832689 0.10397674 -0.0010295431 0.16164534
-2.5354384e-05 0.15030336 0.19285569 0.21533887 0.14229743 0.17616682 0.16421363 0.2544799
0.14095213 0.06819538 -0.00011083945 0.110555686 0.1636007 0.14695217 0.09249981 0.17103727
0.10330303 0.24263886 0.16677345 0.08146372 0.17408183 0.2352588 0.05277853 0.16160531
0.0006613139 0.1536779 0.07447567 0.15230669 0.0005289663 2.6655894e-06 0.041668322 -0.0017037225
0.18238401 -0.005157396 0.18927513 0.04742711 -0.012499673 6.5379616e-05 0.061853487 0.10367795
00000000: 39b1 133d 93ec 313e a992 f9bc 5c69 aabb
00000010: 534a 1abc 4b44 193e 29ff b93a 89b9 4eba
00000020: 8014 a73a 3eb7 4cb8 1009 9f3e 6571 4b3d
00000030: 12fb 643c 56d5 3c3e e558 d13d 0558 533d
00000040: eefd 3a3e 23e4 883d fedb 053c 8d8e 2cb9
00000050: 2f04 593d 863f 0c3e 5efd 543e c1f0 86bc
00000060: 7b81 523e 5a36 3a3e d8af 003e 185c b33d
00000070: 76aa 353e 3fdc 3e3e dc8f 593e 0c61 3a3e
00000080: 1651 7b3e 811c 933d bcc2 ed3d 0535 2c3e
00000090: 612a 793e cd06 3cba 0791 733e cef9 343e
000000a0: 8c8f 3eba e070 2e3e 9fc7 3a3e d315 2f3e
000000b0: 3798 e53a 985a 9f3c d09a 053e 258e a83d
000000c0: d268 be3d 0e76 2d3e 273e 683e 37ca beb9
000000d0: b861 6d3e cd52 753e d416 253b db28 fb3d
000000e0: a10f e93d d5d8 b83d b082 063e 18e1 f73d
000000f0: 58b0 df3d b3a5 1c39 1580 373e b506 473c
00000100: f700 3e3e cab1 473e 99f3 59bd 5b88 613e
00000110: 64a7 a53d b046 9c3d 87e1 963d 9bc7 363e
00000120: 2cdc f4b9 3d02 b33a 97ec a1ba 74d4 d13c
00000130: 5ace 9d3d e4f8 c93e 2b2a 93bc f5ee 273e
00000140: edd8 413d f653 febc a001 f8b5 770a 453e
00000150: bad4 fe3d cb7f 8dbc 812c 043e f3f7 f43d
00000160: 0a37 473e 141d 1d3e 26ac fd3d 89a4 6ebd
00000170: 040a 493e a161 913e 82a6 b93d 5368 063e
00000180: 2af9 2a3e aae2 bd3d 8276 923d d526 9138
00000190: f8d9 2e3e b1cb 0a3e e11b 953e ac11 333c
000001a0: 8e2a 593e 921f 543e ca28 e1bc 31cb 663e
000001b0: 41bb 1dbc 2b02 233e d0c0 1b3d 34ce df3d
000001c0: 60d6 2bbb 8a24 d43d 7c01 4634 9703 c73d
000001d0: c360 f83d 0519 983d bd98 813e fd1e 493e
000001e0: 54b3 173e adf3 243c c1d4 413e 78cc 61b8
000001f0: 230d 833e d5de 4c3e a7d0 303e d2ad 1e3e
00000200: ce7f e93d fa4c 2f3e 5101 743e cbfc 1c3e
00000210: 2766 503e 38b4 283e fe27 403e 4d01 823e
00000220: 844b 763e 557d d83d b73a 1b3e 39ff 3f3e
00000230: 402a db3c 0778 bf3d 86cf 6bbc 9655 0e3e
00000240: 542e 343e ff74 fd3d 548a c13d 8bda 1c3d
00000250: 357e f13d e288 913c 580a 2c3e b489 583e
00000260: 8010 a93d e14b c038 3bab 9d3d b738 c63d
00000270: 52ea b0bb e101 2c3e b24d 453e 27ee db3e
00000280: 2427 aa3e 0a53 0a3e 9540 2c3e 94fe 2b3e
00000290: 0f9f 073e 561d d5b2 e573 813e 9c75 73ba
000002a0: 09b2 1c3e 4927 893e 340f 623e 6727 223e
000002b0: 7685 e8bc fe4b cf3c bf90 313d 00c0 693e
000002c0: e96c 0d3e 2295 9a3e 26cf f23d 547e 8c3c
000002d0: 1e5d ba3e fb6a 1c3e e164 5e3e 25b6 243e
000002e0: aa95 0a3d a201 9d3d 3f73 993d e8a3 c23d
000002f0: 1961 1a3e 4487 253e 8621 9f3d e061 a53d
00000300: bf2b 973d c305 ed3d f098 a93d 9077 e13d
00000310: 228e 003e 03e8 923b d08a 943c 0d5b 363e
00000320: c22a 963d 0e51 1f3d c58e da3d 607e 9e3d
00000330: 9cb3 a13e 1962 643e f1ce d33d 9f0f fc3d
00000340: 8730 3c37 aa19 6a3e 03ed 5d3e bdb1 463e
00000350: d8aa 3b3e c2f1 d43d bcf1 86ba 5b86 253e
00000360: 20b0 d4b7 20e9 193e f67b 453e cb81 5c3e
00000370: 6bb6 113e 1365 343e 9e27 283e 304b 823e
00000380: c155 103e 05aa 8b3d 7a72 e8b8 056b e23d
00000390: f186 273e a17a 163e 8a70 bd3d 6524 2f3e
000003a0: 8a90 d33d 5276 783e a9c6 2a3e 73d6 a63d
000003b0: 8242 323e afe7 703e 4d2e 583d dd7b 253e
000003c0: 065c 2d3a bd5d 1d3e b386 983d 49f6 1b3e
000003d0: 54aa 0a3a 7ae2 3236 67ac 2a3d 714f dfba
000003e0: e0c2 3a3e 60ff a8bb 57d1 413e ee42 423d
000003f0: 6ecb 4cbc 6a1c 8938 155a 7d3d 1b55 d43d

tabnet.initial_bn.bias f4 [1038]
0.0005942857 -0.00012910378 5.0335682e-05 -1.7679313e-05 1.03946195e-05 -0.00023753016 -2.0885425e-06 -2.2960747e-05
-2.6143189e-06 -1.15211215e-07 5.177447e-05 -0.00016472579 -1.1438113e-05 -0.00023902247 0.0005845222 -0.00012851504
-0.00016969962 -3.0780895e-05 1.3704353e-05 6.369847e-07 0.3506872 0.00016110373 0.0006572617 4.875946e-06
0.0009903528 -0.00027717976 0.0001170428 0.00021514468 -0.001297914 -0.0006504236 0.0016309099 0.00012852247
7.294545e-05 -0.00016851161 8.777879e-05 0.00044460146 -0.0020644323 5.839389e-06 -0.0003090204 0.00016570729
4.1482963e-07 -0.00029305863 -3.560558e-06 0.00024004169 -1.5226706e-06 -4.2645784e-06 0.00010032599 0.00070562056
-0.00046503602 -0.0004404223 -0.0007504059 3.4364236e-06 9.1575326e-05 -0.00029164925 3.125477e-06 -0.19931777
-0.00012698412 -4.778874e-05 7.389896e-05 -5.5782155e-05 -3.76451e-05 1.0852875e-06 -0.003040113 9.201039e-06
-1.1936952e-05 0.0051531 -7.6128963e-06 -0.0012096547 -0.00046795816 0.000175411 0.00083777227 -0.0007210087
-5.0660183e-06 7.139132e-07 2.0955458e-06 1.8848734e-05 -0.0003082734 0.00031469093 7.695794e-06 0.0017620414
2.9154944e-05 0.00014349131 -2.5365242e-08 0.00019070628 -1.6794773e-05 -9.454324e-05 0.0014830373 -0.00017139205
-1.3040972e-05 0.046827473 -0.00018061374 4.1057306e-06 -0.00015377771 0.0051274975 -0.00037480204 -0.055270232
0.000110574045 -3.9356102e-05 6.131099e-05 2.8969106e-07 -3.5908623e-05 0.00018036224 0.00014335194 -0.6652188
6.447045e-05 -0.0002737868 0.0014804843 9.775783e-06 -0.34506506 6.653019e-05 4.822048e-05 -1.2846011e-05
-4.0230825e-06 -4.936465e-05 1.1798442e-09 0.00011336894 0.001425916 -2.1551765e-05 -0.03548068 -1.4155614e-06
-0.0002998346 -0.00017641456 0.00015517265 2.3427292e-08 0.0006611458 -0.00020365432 -7.609577e-05 -0.0002963689
-2.8080129e-05 6.7128436e-05 0.0011845827 0.00017656994 -0.00022842352 -7.8113466e-05 -0.000490963 0.00041637244
0.24682273 -0.00039256134 -6.4091386e-05 -0.027655859 -5.875546e-06 0.00016968562 0.00021457934 6.958525e-05
0.00042092553 7.065671e-05 -0.00023002122 5.1898187e-06 2.7036562e-05 0.28679416 0.00013663895 -0.00024941485
0.00011695748 -4.141078e-07 -3.4012387e-06 5.3421463e-05 -9.3070375e-06 -9.0061185e-05 -0.00045907134 -0.0002800102
-0.0005251237 -0.3418 1.6218779e-05 0.00029646957 -5.3936285e-05 -1.058186e-11 -0.00062372896 4.445846e-07
-0.0010824507 0.000107445194 -0.00016478692 -0.43336493 -0.00013539962 -0.00010378213 0.39382243 0.017198889
-0.0006192985 1.6656732e-05 -0.0001037773 3.353755e-05 -1.8311273e-05 -2.849641e-05 -0.00010977354 -0.0006974224
-0.002970642 1.6074924e-06 0.00035829577 8.933206e-08 -0.00015358356 -6.189846e-05 -0.00013035495 -0.00010512804
-0.00016677035 0.000119280834 -0.00020570226 -1.367213e-05 0.00028050892 2.4692545e-05 -1.9322458e-06 -0.0002789324
-7.4363685e-05 0.00015013538 -0.0009457899 -9.7319105e-05 2.5524338e-05 0.00027159436 -0.00022121186 0.00047816202
4.427023e-08 -0.00014426405 -0.00015077488 0.000105549814 0.0001657409 0.0009863811 -3.3018005e-05 6.7023655e-05
4.0373294e-08 -0.0005047746 0.00015469178 -0.02702564 0.0005661983 5.3708867e-05 -0.00021621627 -0.00036763764
-7.973736e-05 0.00012267765 2.0191884e-07 -8.4511536e-05 5.3189822e-05 0.00013121951 0.00012452378 -7.5879325e-05
3.3561282e-05 1.9089814e-05 -0.016467147 3.8320773e-06 6.719088e-05 7.968467e-05 -4.86666e-05 -0.00014311603
2.2186248e-06 7.913705e-06 9.099418e-07 -1.656308e-05 2.5343488e-07 -5.0662596e-10 0.27494198 3.441138e-05
0.00020533375 1.8961578e-05 -0.00046179956 -3.9323197e-05 -0.00036112248 -1.5802237e-06 6.506245e-05 0.00025116224
00000000: d7c9 1b3a 0860 07b9 871f 5338 094e 94b7
00000010: 8d64 2e37 8411 79b9 e328 0cb6 d49b c0b7
00000020: a871 2fb6 096a f7b3 6a28 5938 3eba 2cb9
00000030: 52e6 3fb7 1ba2 7ab9 9f3a 193a fec1 06b9
00000040: 65f1 31b9 bc1a 01b8 bfeb 6537 41fd 2a35
00000050: 468d b33e f4ed 2839 164c 2c3a 0f9c a336
00000060: bace 813a 7052 91b9 e074 f538 7698 6139
00000070: c41e aaba 3081 2aba 41c4 d53a fdc3 0639
00000080: 4afa 9838 7eb2 30b9 e115 b838 6619 e939
00000090: 6d4b 07bb f8ef c336 0404 a2b9 b6c1 2d39
000000a0: c0b5 de34 aaa5 99b9 ecf1 6eb6 b3b3 7b39
000000b0: 905e ccb5 7318 8fb6 1b66 d238 65f9 383a
000000c0: 14d0 f3b9 7be8 e6b9 e3b6 44ba 4f9d 6636
000000d0: 210c c038 80e8 98b9 49bf 5136 f519 4cbe
000000e0: 0a27 05b9 c570 48b8 34fa 9a38 a2f7 69b8
000000f0: 1ee5 1db8 32aa 9135 a23c 47bb 295e 1a37
00000100: d244 48b7 56db a83b 4872 ffb6 478d 9eba
00000110: 4858 f5b9 88ee 3739 f29d 5b3a 1302 3dba
00000120: c4fc a9b6 bea3 3f35 34a1 0c36 591d 9e37
00000130: c19f a1b9 1afd a439 2f1d 0137 4cf4 e63a
00000140: c491 f437 2876 1639 c2e2 d9b2 54f8 4739
00000150: 80e2 8cb7 8445 c6b8 7962 c23a b4b7 33b9
00000160: 8cca 5ab7 2ace 3f3d 2263 3db9 f5c3 8936
00000170: 643f 21b9 9104 a83b 1481 c4b9 0a63 62bd
00000180: fde3 e738 4b12 25b8 1694 8038 d686 9b34
00000190: 979c 16b8 9f1f 3d39 be50 1639 c74b 2abf
000001a0: 4f34 8738 0b8b 8fb9 cf0c c23a ab02 2437
000001b0: 5eac b0be 2086 8b38 5940 4a38 3285 57b7
000001c0: 04fe 86b6 e40c 4fb8 1428 a230 7cc0 ed38
000001d0: cde5 ba3a 10ca b4b7 3154 11bd 52fe bdb5
000001e0: 1e33 9db9 ecfb 38b9 d7b5 2239 293d c932
000001f0: be50 2d3a 0a8c 55b9 9b95 9fb8 f661 9bb9
00000200: 9e8d ebb7 4ec7 8c38 0044 9b3a a225 3939
00000210: f984 6fb9 d9d0 a3b8 f8b3 00ba 904c da39
00000220: 19bf 7c3e b1d0 cdb9 cd68 86b8 8a8e e2bc
00000230: 8e26 c5b6 a3ed 3139 b400 6139 4cee 9138
00000240: abaf dc39 882d 9438 da31 71b9 3424 ae36
00000250: 93cc e237 afd6 923e bd46 0f39 e5c3 82b9
00000260: 1247 f538 8b52 deb4 d640 64b6 dc10 6038
00000270: 6c25 1cb7 3bdf bcb8 83af f0b9 55ce 92b9
00000280: 74a8 09ba 6900 afbe 900d 8837 796f 9b39
00000290: a539 62b8 7628 3aad be81 23ba 3eaf ee34
000002a0: 05e1 8dba 3354 e138 a7ca 2cb9 02e2 ddbe
000002b0: 0ffa 0db9 9ba5 d9b8 18a3 c93e afe4 8c3c
000002c0: 6b58 22ba 0fba 8b37 04a3 d9b8 acaa 0c38
000002d0: 299b 99b7 930b efb7 3836 e6b8 3ad3 36ba
000002e0: 1aaf 42bb 05c1 d735 a5d9 bb39 d2d6 bf33
000002f0: 460b 21b9 7ccf 81b8 e4af 08b9 3078 dcb8
00000300: 13df 2eb9 6926 fa38 c8b1 57b9 5a61 65b7
00000310: 4511 9339 d622 cf37 bbab 01b6 ac3d 92b9
00000320: b3f3 9bb8 a96d 1d39 e3ee 77ba cc17 ccb8
00000330: 191d d637 c764 8e39 1bf5 67b9 d2b1 fa39
00000340: a223 3e33 9645 17b9 5319 1eb9 a05a dd38
00000350: bcca 2d39 7549 813a d07c 0ab8 0d8f 8c38
00000360: e866 2d33 da52 04ba c234 2239 e064 ddbc
00000370: ed6c 143a 7545 6138 1db8 62b9 7dbf c0b9
00000380: ab38 a7b8 08a3 0039 07cf 5834 c93b b1b8
00000390: 2318 5f38 f897 0939 9992 0239 6721 9fb8
000003a0: 27c4 0c38 1023 a037 1ce6 86bc 4b95 8036
000003b0: d4e8 8c38 621c a738 5d1f 4cb8 6b11 16b9
000003c0: afe3 1436 1bc5 0437 b942 7435 f2f0 8ab7
000003d0: d30f 8834 a242 0bb0 32c5 8c3e f054 1038
000003e0: dc4e 5739 ae0f 9f37 b01d f2b9 f6ee 24b8
000003f0: 0a55 bdb9 1318 d4b5 2372 8838 6dae 8339

tabnet.initial_bn.running_mean f4 [1038]
-0.0012625512 0.00065781764 0.00070388854 -0.002804751 0.00605849 -0.0006401316 -0.00056365656 0.0013098826
0.003937918 -0.0038946033 -0.0074344343 0.0027150377 -0.0030317602 -0.0026370015 0.002645244 0.005156259
-0.0021660137 -0.0068125883 -0.0017449047 0.0015027927 -0.0035425785 7.576059e-05 0.0052268673 0.003720225
-0.0027173932 -0.0038737634 -0.002709016 0.0053819492 -0.0037147978 -0.00326505 0.005608025 0.0026530363
-0.0017362782 0.017651144 -0.0017697063 0.0033633008 0.0030709556 0.0015940727 -0.0026309888 -0.04163858
0.028677208 -0.00011727241 -0.009782308 -0.0023452058 0.00085358025 -0.0037411512 0.0018917691 -0.003573341
0.005452158 -0.0053519993 0.006395939 0.005038886 -0.044123534 0.0022190656 -0.0010238093 0.00013833404
0.0027598867 -0.0049061566 0.0012795033 0.0054871677 -0.018962452 -0.0035677596 -0.0057926974 -0.0021271673
-0.0032066242 -0.0077696815 0.00033368662 -0.00018443025 -0.002907894 -0.060921155 -0.008297856 -0.0020934455
-0.0020510776 0.0025888374 -0.019331086 0.001857951 0.014249456 -0.047557525 0.0048668543 -0.0016779458
0.00070414075 0.0019116572 0.0035304874 0.0028666256 0.0036509542 -0.0016452732 -0.002024541 0.0010958704
0.010977383 -0.004421674 0.0027695599 -0.0026533785 -0.0018016326 0.0084128585 -0.0034099382 -0.0023205758
0.0016462012 0.0013185033 -0.0017291874 0.0095570255 0.00030474146 0.004220643 0.015746994 -0.0027153385
-0.001657162 0.00121664 -8.270717e-05 -0.008729727 0.01124725 0.004296335 0.0018279222 0.001893571
0.005362718 0.004115557 0.0017577251 -0.017105678 -0.00257317 0.00034807358 -0.0016884098 -0.0006775567
-0.001289742 -0.0036036007 -0.00022043636 -0.0055051805 -0.0001757436 0.030519107 0.0008431174 -0.00019827507
0.004890859 -0.0016217042 -0.016383184 0.0020244345 0.0006656166 0.030477677 0.0072206766 0.0027327333
-0.0011154339 -0.0012193866 0.0029848802 -0.00029863633 -0.0012608275 0.004179929 0.00011280053 0.0038352204
0.008423703 -0.002264094 0.0084478725 -0.0011252831 0.002734304 0.006862719 0.0026832393 -0.004103095
-0.0019973281 -0.0028782282 -0.008727557 -0.0042088744 0.007248893 0.006537553 0.00040765613 -0.0009478978
0.019592963 0.0032544038 0.0008599683 -0.0028986111 0.0013558221 0.008705665 0.0069741975 0.001175947
0.0017434639 -0.0007237277 -0.0041810754 -0.00040529793 0.016738145 0.00047629792 0.00036631123 0.0003961918
-0.002195278 -0.0031116402 -0.0012370705 0.007859156 -0.011050303 -0.0034891209 0.0006406157 0.0013860837
-0.0021549414 -0.0065680924 -0.00093458657 -0.01958634 -0.0021449467 0.004358695 -0.0015833925 -0.0028040435
0.00045244195 -0.0032843528 0.00039069814 -0.006443322 -0.0022786115 -0.021252135 -0.0043039857 0.007715047
0.0049686427 0.0025039602 -0.00043657576 0.013832799 -0.01737506 -0.0037194923 0.0027655098 -0.005733678
0.001870835 0.0010227715 0.015355592 -0.004528326 0.004984 0.00063035643 -0.0008794332 0.0041457606
-0.0016817981 0.013819068 -0.0020746735 0.0034822265 0.0023455615 -0.00097284047 0.0023076714 0.000305998
-0.0015377868 0.00073115196 -0.003397891 0.0034758977 0.008528388 0.0026926775 -0.06893685 0.0030175915
0.0038468833 -0.003794123 0.0004365105 -0.0035299943 -0.0020060681 -0.0026432807 0.007943366 0.0033280847
-0.0035412249 -0.0038033032 0.004435587 -0.0040868856 0.0036309198 0.0054201283 0.0057614073 0.003967008
-0.0007534183 -1.1758051e-05 0.024343614 0.0061944597 -0.012401237 0.011682917 -0.00032004592 -0.0028788517
00000000: 307c a5ba 6571 2c3a 2985 383a eacf 37bb
00000010: 4c86 c63b 81ce 27ba 5ac2 13ba 5eb0 ab3a
00000020: a709 813b 9a3c 7fbb 8e9c f3bb c6ee 313b
00000030: 7fb0 46bb 8bd1 2cbb d45b 2d3b d6f5 a83b
00000040: aef3 0dbb 223c dfbb 49b5 e4ba 5bf9 c43a
00000050: 9b2a 68bb a8e1 9e38 2446 ab3b 05cf 733b
00000060: 4b16 32bb f7de 7dbb bf89 31bb 105b b03b
00000070: f773 73bb 73fa 55bb 86c3 b73b 90de 2d3b
00000080: d493 e3ba 2299 903c 7df5 e7ba d36a 5c3b
00000090: 1642 493b 34f0 d03a ab6c 2cbb 378d 2abd
000000a0: 77ec ea3c 25f0 f5b8 f945 20bc 06b2 19bb
000000b0: cdc2 5f3a 1a2e 75bb 3df5 f73a b72e 6abb
000000c0: 04a8 b23b d35f afbb 0695 d13b 3d1d a53b
000000d0: e1ba 34bd be6d 113b 5731 86ba c30d 1139
000000e0: 37df 343b d3c3 a0bb 02b5 a73a b3cd b33b
000000f0: 2557 9bbc 13d1 69bb abd0 bdbb f267 0bbb
00000100: 3a26 52bb d098 febb a9f2 ae39 9e63 41b9
00000110: 5e92 3ebb 7688 79bd bbf3 07bc 3032 09bb
00000120: 5f6b 06bb 7ca9 293b 3a5c 9ebc 7e86 f33a
00000130: 8d76 693c aecb 42bd 227a 9f3b 85ee dbba
00000140: 1696 383a 9290 fa3a c05f 673b ffdd 3b3b
00000150: d944 6f3b 35a6 d7ba 29ae 04bb 4fa3 8f3a
00000160: 7bda 333c b1e3 90bb 8181 353b 4ee4 2dbb
00000170: c224 ecba 16d6 093c 4579 5fbb cd14 18bb
00000180: 59c5 d73a a1d1 ac3a e7a5 e2ba 1295 1c3c
00000190: b5c5 9f39 524d 8a3b d7ff 803c d2f3 31bb
000001a0: 2135 d9ba aa77 9f3a 1373 adb8 2107 0fbc
000001b0: 6346 383c 45c8 8c3b e496 ef3a b331 f83a
000001c0: bdb9 af3b cbdb 863b 7863 e63a 3521 8cbc
000001d0: a1a2 28bb a57d b639 a24d ddba 0f9e 31ba
000001e0: 8f0c a9ba 632a 6cbb ef24 67b9 cd64 b4bb
000001f0: d047 38b9 3503 fa3c a704 5d3a 0fe8 4fb9
00000200: 8043 a03b 5d8f d4ba 0736 86bc 60ac 043b
00000210: c67c 2e3a 52ac f93c 6d9b ec3b a817 333b
00000220: c033 92ba d3d3 9fba fb9d 433b 4a92 9cb9
00000230: 5a42 a5ba c9f7 883b 538f ec38 5258 7b3b
00000240: 9203 0a3c 3261 14bb f268 0a3c 3c7e 93ba
00000250: 0232 333b a9e0 e03b 49d9 2f3b 4173 86bb
00000260: 9be5 02bb a8a0 3cbb 07fe 0ebc 99ea 89bb
00000270: 1f88 ed3b f838 d63b aeba d539 587c 78ba
00000280: 6c81 a03c d647 553b 7f6f 613a a0f6 3dbb
00000290: d7b5 b13a 35a2 0e3c cf87 e43b 3c22 9a3a
000002a0: f184 e43a 8bb8 3dba 6701 89bb 2b7e d4b9
000002b0: 6f1e 893c a0b7 f939 760d c039 f7b7 cf39
000002c0: a7de 0fbb a9ec 4bbb 3325 a2ba b0c3 003c
000002d0: 540c 35bc bca9 64bb feee 273a 40ad b53a
000002e0: eb39 0dbb 2739 d7bb 0bff 74ba 8873 a0bc
000002f0: 3c92 0cbb 62d3 8e3b d689 cfba 0bc4 37bb
00000300: bb35 ed39 4c3e 57bb 9ed6 cc39 8122 d3bb
00000310: c254 15bb f518 aebc 7308 8dbb 81ce fc3b
00000320: ffcf a23b 7b19 243b 35e4 e4b9 f7a2 623c
00000330: 2456 8ebc bac2 73bb 8e3d 353b 94e1 bbbb
00000340: ce36 f53a 840e 863a 0596 7b3c 5a62 94bb
00000350: d350 a33b 813e 253a c389 66ba 29d9 873b
00000360: c86f dcba 5f69 623c 3ff7 07bb 1136 643b
00000370: feb7 193b 3806 7fba 4d3c 173b 5b6e a039
00000380: 908f c9ba c7aa 3f3a 27af 5ebb e3cb 633b
00000390: a7ba 0b3c a277 303b c32e 8dbd c9c2 453b
000003a0: fe1b 7c3b d2a6 78bb 73db e439 7a57 67bb
000003b0: 3d78 03bb e43a 2dbb e424 023c ff1b 5a3b
000003c0: e513 68bb d740 79bb 6758 913b 48eb 85bb
000003d0: baf4 6d3b 559b b13b 30ca bc3b adfd 813b
000003e0: 0c81 45ba 7244 45b7 426c c73c e5fa ca3b
000003f0: 8f2e 4bbc b569 3f3c d6cb a7b9 1eab 3cbb

tabnet.initial_bn.running_var f4 [1038]
0.011014194 0.0020253658 0.98998296 0.96798223 0.96690696 0.9720153 0.967833 0.9712235
0.9663388 0.9712842 1.0849783 0.97337574 0.97244483 0.97740996 0.9753969 0.9892518
0.98195267 0.9693579 0.9850823 0.9788228 0.9666052 0.968194 0.97277147 0.9661002
0.9743355 0.9606832 0.9847662 0.972097 0.968242 0.9675977 0.96760964 0.979577
0.97761136 1.0619793 0.96862864 0.98129827 0.97957015 0.964769 0.9924852 1.2788042
1.2045372 0.9700143 1.0038637 0.97706836 0.9619137 0.9748353 0.97073907 0.96454173
1.0153918 0.96887505 0.989261 0.9752197 1.334202 0.96848905 0.96630025 0.9809186
0.97121286 0.9872066 0.98091024 0.987526 1.135868 0.9778697 0.9635432 0.9727193
1.0331495 1.0452554 0.96592283 0.9770535 0.97351813 1.3891475 0.9738959 0.961019
0.968554 0.97199965 1.1208715 0.9740272 1.0363201 1.3130921 0.969454 0.9655078
0.9740544 0.96632874 0.97786766 0.973794 0.96879905 0.97661203 0.9734507 0.9688304
1.0212215 0.96958655 0.9693042 0.9794394 0.9736772 1.0053006 0.9726732 0.9785649
0.97158223 0.9828125 1.0116267 1.0075954 1.0077957 0.9749202 1.0891579 0.968992
0.98668516 0.9719633 0.97162515 0.97141707 1.0089303 0.9784599 0.9701964 0.9689805
0.9779961 0.97911423 0.97245044 1.1109972 0.97447 0.97253054 0.9819988 0.9816589
0.9609686 0.9725979 0.97638 1.0055311 0.9623469 1.1710066 0.9702375 0.97251225
0.98679346 0.9738556 1.1050763 0.971153 1.0107194 1.2041897 1.004376 0.9812906
0.9715956 0.9720688 0.97457117 0.971429 0.97786075 0.98520786 0.97384626 0.9683282
0.9918724 0.97236884 1.0023178 0.98134786 0.9935954 1.0334507 0.9950362 0.9658271
0.97609967 0.96123266 1.0221791 0.9694205 0.9621682 1.0102873 0.97278035 0.9744185
1.1482161 0.96457577 0.99116755 0.9713969 0.9703685 1.0262338 1.0092537 0.9720689
0.9677297 0.9756834 0.97325295 0.9714627 1.0396023 0.97685367 0.977321 0.97540194
0.9712468 0.970146 0.9688262 0.9821902 1.0764997 0.96673334 0.9676607 0.986968
0.96989757 1.0077839 0.96112937 1.1443367 0.98345226 0.9724365 0.9644346 1.0062958
0.97374743 0.97024876 0.96831954 0.9724162 0.9741678 1.0903566 0.9760247 1.0091643
0.9799362 0.9719541 0.9661964 1.0557196 1.0842971 0.97506213 0.98448896 0.9602953
0.9701257 0.9673852 1.0835696 0.9670019 0.9802664 0.96315646 0.97574246 0.98447025
0.96529114 1.0002248 0.98117995 0.9725784 0.97565943 0.9697069 0.97685385 0.9774641
0.9723218 0.9693551 0.96645653 0.96730757 1.0226396 0.9733869 1.470658 0.9699012
0.96435064 1.008512 0.9772917 0.98134565 0.98405963 0.99100685 0.9672014 0.97429967
0.96980655 0.9815909 0.9733706 0.9758523 0.96893317 1.0175529 0.9876022 0.9902364
0.97171855 0.9674328 1.1392902 0.982078 1.0563337 1.0039158 0.9714512 0.9707991
00000000: e174 343c 00bc 043b 866f 7d3f afcd 773f
00000010: 3787 773f ffd5 783f e7c3 773f 1aa2 783f
00000020: fb61 773f 15a6 783f 92e0 8a3f 272f 793f
00000030: 25f2 783f 8a37 7a3f 9cb3 793f 9b3f 7d3f
00000040: 4061 7b3f d727 783f 5b2e 7c3f 2294 7a3f
00000050: 7073 773f 90db 773f 8d07 793f 5852 773f
00000060: 0d6e 793f 56ef 753f a319 7c3f 59db 783f
00000070: b5de 773f 7cb4 773f 44b5 773f 8fc5 7a3f
00000080: bd44 7a3f f0ee 873f 0cf8 773f 5d36 7b3f
00000090: 1cc5 7a3f 1afb 763f 8313 7e3f dbaf a33f
000000a0: 462e 9a3f db52 783f 9b7e 803f 2721 7a3f
000000b0: fa3f 763f ce8e 793f 5b82 783f 35ec 763f
000000c0: 5cf8 813f 3208 783f 3540 7d3f 00a8 793f
000000d0: 22c7 aa3f e6ee 773f 745f 773f 7b1d 7b3f
000000e0: 68a1 783f 92b9 7c3f ef1c 7b3f 81ce 7c3f
000000f0: 1f64 913f ab55 7a3f c4aa 763f 2204 793f
00000100: 3e3e 843f eeca 853f b846 773f 2e20 7a3f
00000110: 7c38 793f 96cf b13f 3e51 793f 5705 763f
00000120: 28f3 773f f8d4 783f b878 8f3f d959 793f
00000130: 23a6 843f 6713 a83f 232e 783f 852b 773f
00000140: a15b 793f 5261 773f 8955 7a3f 904a 793f
00000150: 3703 783f 3f03 7a3f 1134 793f 4505 783f
00000160: 63b7 823f d336 783f 5224 783f 8abc 7a3f
00000170: e942 793f b1ad 803f 1c01 793f 3b83 7a3f
00000180: 9db9 783f 9a99 7b3f fc7c 813f e3f8 803f
00000190: 73ff 803f 5f94 793f 8769 8b3f dc0f 783f
000001a0: 6697 7c3f 96d2 783f 6dbc 783f caae 783f
000001b0: a124 813f 597c 7a3f cb5e 783f 1b0f 783f
000001c0: f45d 7a3f 3ba7 7a3f 83f2 783f 2835 8e3f
000001d0: de76 793f c3f7 783f 4664 7b3f ff4d 7b3f
000001e0: 0a02 763f 2dfc 783f 0af4 793f 3eb5 803f
000001f0: 5e5c 763f 8be3 953f 7c61 783f 90f6 783f
00000200: 7f9e 7c3f 9a4e 793f 2473 8d3f 7c9d 783f
00000210: 415f 813f e322 9a3f 658f 803f dc35 7b3f
00000220: 7dba 783f 80d9 783f 7f7d 793f 92af 783f
00000230: 1555 7a3f 9536 7c3f fd4d 793f 5be4 773f
00000240: 59eb 7d3f 2aed 783f f34b 803f 9d39 7b3f
00000250: 455c 7e3f 1d48 843f b1ba 7e3f 7240 773f
00000260: abe1 793f 5813 763f c4d6 823f f12b 783f
00000270: a850 763f 1851 813f 2208 793f 7e73 793f
00000280: bff8 923f 70ee 763f 28bd 7d3f 78ad 783f
00000290: 126a 783f a15b 833f 3a2f 813f 82d9 783f
000002a0: 22bd 773f 63c6 793f 1b27 793f c8b1 783f
000002b0: b011 853f 1513 7a3f b631 7a3f f1b3 793f
000002c0: a1a3 783f 7d5b 783f fe04 783f d170 7b3f
000002d0: beca 893f d67b 773f 9db8 773f efa9 7c3f
000002e0: 354b 783f 10ff 803f 930c 763f a079 923f
000002f0: 87c3 7b3f 99f1 783f 30e5 763f 4dce 803f
00000300: 8347 793f 3962 783f cae3 773f 45f0 783f
00000310: 1063 793f ce90 8b3f c1dc 793f 4c2c 813f
00000320: 19dd 7a3f fcd1 783f a658 773f d221 873f
00000330: 3fca 8a3f ac9d 793f 7807 7c3f ead5 753f
00000340: 285a 783f 8ea6 773f 69b2 8a3f 708d 773f
00000350: bdf2 7a3f 6c91 763f 42ca 793f 3e06 7c3f
00000360: 521d 773f 5e07 803f 9c2e 7b3f e6fa 783f
00000370: d1c4 793f b63e 783f 1813 7a3f 163b 7a3f
00000380: 15ea 783f a827 783f b269 773f 78a1 773f
00000390: dbe5 823f e22f 793f 853e bc3f 724b 783f
000003a0: afdf 763f ec16 813f ca2f 7a3f 7839 7b3f
000003b0: 55eb 7b3f a0b2 7d3f 839a 773f b46b 793f
000003c0: 3e45 783f 8b49 7b3f d12e 793f 75d1 793f
000003d0: 010c 783f 2c3f 823f 7fd3 7c3f 2280 7d3f
000003e0: 8cc2 783f ada9 773f 43d4 913f 7769 7b3f
000003f0: f135 873f 5080 803f 07b1 783f 4a86 783f

tabnet.initial_splitter.shared.shared_layers.0.weight f4 [96, 1038]
-6.589223e-05 1.8769812e-05 4.5751644e-06 1.4627709e-05 -3.1409817e-07 -6.0061277e-05 -7.1804365e-08 -5.0186686e-06
4.0796463e-06 1.1540636e-08 -2.5662022e-05 2.798806e-05 5.7896177e-06 5.4562726e-05 9.281634e-06 -2.619283e-05
-7.923647e-05 -3.1066782e-05 5.4564607e-06 1.188422e-06 -0.08406644 2.3112887e-05 9.823112e-05 2.7729888e-05
-0.00016953408 -4.8777525e-05 -0.00014052083 4.517389e-05 -8.86813e-05 -3.7665024e-05 9.459671e-05 9.5826144e-05
-0.00023254781 6.844961e-05 -7.8259065e-05 0.00014551454 -0.00022091455 -1.7927418e-07 -3.6760466e-05 -3.4865374e-05
-3.859128e-09 -7.166669e-05 -9.079709e-05 2.2265425e-05 -2.0667499e-06 1.0297327e-05 0.00021903666 -1.8395323e-05
4.6592508e-05 -3.0604213e-05 -0.00012519308 -5.236722e-07 8.794833e-05 1.8196155e-05 -1.1264585e-06 -0.006931719
0.000212267 3.3702634e-06 4.5304118e-05 8.022253e-05 -6.325127e-05 7.624363e-08 0.00028223294 3.67574e-06
4.9581922e-05 -0.002028915 -3.595961e-05 0.00018006847 -7.935127e-05 -0.0002294708 1.3295658e-05 1.5960863e-05
-4.5034864e-07 4.3529647e-07 7.936057e-07 -2.1547456e-05 -4.608766e-05 -0.00011542961 4.401873e-06 -0.00013865506
7.4255745e-06 -6.926445e-05 1.1231496e-09 0.0002397985 2.737272e-06 -8.792181e-06 -1.2759439e-06 1.4132726e-05
6.515463e-05 0.011977173 -4.503588e-05 -1.702719e-05 3.6761223e-05 0.016239751 -0.00010080635 0.077558435
8.348728e-05 5.637423e-05 -7.142326e-05 -4.8937803e-08 3.152839e-05 8.9027766e-05 1.2787507e-05 0.08081117
0.00013953022 0.00015125515 -0.00016538796 9.297736e-05 0.0767397 -3.7259975e-05 2.4817818e-06 5.4809356e-05
1.0927722e-06 -3.087133e-05 2.5405913e-10 -0.00011290589 -0.00025842732 5.058217e-05 -0.12875248 -0.00010230122
0.00015607613 2.435889e-05 0.00038982226 -2.988758e-08 0.00023488594 0.00021120318 1.9247971e-05 -5.1064144e-05
-7.6223994e-05 7.446683e-05 0.00011942691 -2.2228605e-05 0.00016485753 2.3207145e-05 6.0315517e-05 0.00022480286
0.002190564 1.5471294e-05 -0.00036275762 0.018551951 1.5562914e-06 8.91321e-05 3.0888598e-06 0.00013139083
0.00014392765 -0.00010132721 1.8599249e-05 3.850844e-06 5.5303928e-05 -0.14675365 0.00013633363 -2.925086e-05
-6.7041605e-05 -5.5084342e-08 -0.00010490446 2.6231693e-05 1.4078067e-05 -0.00013763529 -8.1873404e-05 -0.00035722973
-0.00019596405 -0.116904415 1.0307465e-05 -1.5254722e-06 0.00013553113 3.5901497e-12 0.00014956905 2.4817352e-08
6.040722e-06 -3.1878415e-05 -4.0594146e-06 -0.18542093 -1.8204807e-06 -4.9959913e-06 0.09451322 0.0044192276
8.895893e-05 -7.4073076e-05 -0.00014488098 -3.3924432e-06 -9.971434e-05 -5.281962e-05 4.132693e-05 8.744532e-05
-0.002719608 -5.0862222e-06 -2.8022554e-05 -0.0001530401 6.5314576e-05 1.5576217e-05 -7.511838e-05 -4.9200073e-05
5.5723467e-06 -1.5489508e-05 -2.310116e-05 -8.45888e-06 -0.00012121572 -2.29193e-06 3.6642185e-05 -0.00019710818
5.251246e-05 1.2575699e-05 4.154989e-05 3.2622545e-05 1.7826018e-05 -5.454722e-05 1.8901595e-05 2.4421766e-05
-2.8716356e-08 0.00039954777 5.3840336e-05 -1.7339087e-05 8.682702e-05 -3.6305042e-05 1.5491427e-06 4.5181278e-07
-1.5608259e-09 4.812645e-05 0.00015128848 0.054444313 1.2338192e-05 9.133919e-05 1.4003396e-05 -6.9810885e-05
-1.9168443e-05 -7.9273166e-05 -3.012737e-06 6.0442588e-05 3.8241782e-05 -0.00010106014 -0.00010320796 6.701812e-05
9.384447e-05 -2.531329e-05 0.019806078 -2.6226591e-05 0.00014015581 0.000115149895 -4.6592493e-05 7.9283476e-05
3.2587917e-07 0.0001936134 2.1945707e-05 -0.00021661533 6.038932e-07 -1.5670694e-09 0.03562533 2.4527908e-06
-3.1319196e-05 1.3087378e-06 1.841452e-05 -2.2453454e-05 -2.6655512e-06 6.649786e-07 1.8108292e-05 -2.3865656e-05
00000000: 9f2f 8ab8 dd73 9d37 5d84 9936 8869 7537
00000010: 53a1 a8b4 4eea 7bb8 de32 9ab3 0966 a8b6
00000020: e5e3 8836 4144 4632 c644 d7b7 e7c7 ea37
00000030: 7044 c236 48da 6438 51b8 1b37 adb8 dbb7
00000040: c22b a6b8 b44d 02b8 a416 b736 de81 9f35
00000050: 072b acbd 8ce2 c137 6e01 ce38 7b9d e837
00000060: f5c4 31b9 7896 4cb8 c658 13b9 1879 3d38
00000070: 69fa b9b8 83fa 1db8 3962 c638 45f6 c838
00000080: 14d8 73b9 9b8c 8f38 041f a4b8 4395 1839
00000090: 4ca5 67b9 837e 40b4 402f 1ab8 693c 12b8
000000a0: 4099 84b1 c34b 96b8 516a beb8 a3c6 ba37
000000b0: 7eb2 0ab6 afc2 2c37 35ad 6539 a84f 9ab7
000000c0: 536c 4338 065d 00b8 4346 03b9 7b92 0cb5
000000d0: e670 b838 f2a3 9837 d230 97b5 7923 e3bb
000000e0: fd93 5e39 af2c 6236 ed04 3e38 253d a838
000000f0: c4a5 84b8 61bb a333 aaf8 9339 bbac 7636
00000100: 2ff6 4f38 8cf7 04bb 56d3 16b8 c3d0 3c39
00000110: 6469 a6b8 199e 70b9 6b10 5f37 b1e3 8537
00000120: 72c7 f1b4 b1b2 e934 2b08 5535 cfc0 b4b7
00000130: 404e 41b8 cd12 f2b8 cdb3 9336 ef63 11b9
00000140: 3329 f936 1242 91b8 505d 9a30 6b72 7b39
00000150: fab1 3736 2182 13b7 1941 abb5 991b 6d37
00000160: a0a3 8838 e83b 443c e8e4 3cb8 9dd5 8eb7
00000170: 1030 1a38 3a09 853c ff67 d3b8 f5d6 9e3d
00000180: e415 af38 5e73 6c38 12c9 95b8 af2f 52b3
00000190: 5a3d 0438 6bb4 ba38 ed89 5637 5480 a53d
000001a0: dc4e 1239 3f9a 1e39 fe6b 2db9 d7fc c238
000001b0: b429 9d3d 9847 1cb8 b08c 2636 19e3 6538
000001c0: 5eab 9235 d77b 01b8 a5ab 8b2f e3c7 ecb8
000001d0: 877d 87b9 3128 5438 b1d7 03be 8d8a d6b8
000001e0: 5ea8 2339 5156 cc37 0f61 cc39 be5d 00b3
000001f0: b74b 7639 6c76 5d39 b476 a137 b52d 56b8
00000200: 72da 9fb8 132b 9c38 d674 fa38 9177 bab7
00000210: 9bdd 2c39 f7ac c237 4bfb 7c38 0fb9 6b39
00000220: 918f 0f3b 5ac8 8137 8130 beb9 43fa 973c
00000230: c4e1 d035 6fec ba38 354a 4f36 f5c5 0939
00000240: 49eb 1639 a27f d4b8 9505 9c37 8036 8136
00000250: 24f6 6738 9746 16be c8f4 0e39 be5f f5b7
00000260: b098 8cb8 e095 6cb3 2700 dcb8 220c dc37
00000270: d630 6c37 3152 10b9 73b3 abb8 904a bbb9
00000280: b37b 4db9 956b efbd 3aee 2c37 d3be ccb5
00000290: 5c1d 0e39 63a2 7c2c a3d5 1c39 ef2d d532
000002a0: 68b1 ca36 30b5 05b8 1b36 88b6 fcde 3dbe
000002b0: 3e57 f4b5 3da3 a7b6 2690 c13d 2bcf 903b
000002c0: 768f ba38 ae57 9bb8 31eb 17b9 bba9 63b6
000002d0: bb1d d1b8 a38a 5db8 7456 2d38 d962 b738
000002e0: 733b 32bb 51aa aab6 fa11 ebb7 6479 20b9
000002f0: 7ff9 8838 aca9 8237 e088 9db8 2d5c 4eb8
00000300: 18fa ba36 77ef 81b7 5dc9 c1b7 9dea 0db7
00000310: 3235 feb8 0fcf 19b6 3fb0 1938 d3ae 4eb9
00000320: d340 5c38 37fc 5237 db45 2e38 31d4 0838
00000330: 1589 9537 a2c9 64b8 de8e 9e37 58dd cc37
00000340: efab f6b2 657a d139 9fd2 6138 6873 91b7
00000350: e716 b638 3e46 18b8 23ec cf35 ad90 f234
00000360: ae84 d6b0 62db 4938 31a3 1e39 0001 5f3d
00000370: 2200 4f37 5b8d bf38 21f0 6a37 6f67 92b8
00000380: ebcb a0b7 753f a6b8 6d2e 4ab6 bc83 7d38
00000390: cd65 2038 40f0 d3b8 5a71 d8b8 148c 8c38
000003a0: 5ece c438 e057 d4b7 5b40 a23c 2d01 dcb7
000003b0: caf6 1239 a17c f138 4f6c 43b8 fe44 a638
000003c0: 7ef4 ae34 b404 4b39 0c18 b837 3c23 63b9
000003d0: 3a1b 2235 5a60 d7b0 deeb 113d a09a 2436
000003e0: bb5c 03b8 e3a7 af35 e178 9a37 6d5a bcb7
000003f0: d2e1 32b6 fb80 3235 43e7 9737 1b33 c8b7

tabnet.initial_splitter.shared.shared_layers.1.weight f4 [96, 48]
0.25814635 -0.0016867254 -0.020346925 0.032568134 -0.01526607 0.022828443 -0.028749278 -0.07590076
0.035709336 -0.045337122 -0.021260675 0.009219772 0.012618336 -1.2317423e-06 0.009327265 0.011191552
0.028982855 0.012247564 -0.11011618 0.009948105 0.019105598 0.024421412 -0.031857606 -0.027492722
0.000102417805 -0.00014949424 -0.00063091714 3.9473434e-05 0.0002479028 6.2069903e-06 9.283485e-05 0.00013162632
0.000102042766 4.667996e-05 -3.745606e-05 1.1168192e-05 -6.773279e-05 3.0450556e-05 -0.0002213991 0.00016197885
-3.9257648e-05 -0.0003725038 7.4258264e-06 2.0581829e-05 9.0185655e-05 -4.2861746e-05 -0.00013841168 0.0026616198
-0.045993656 0.29754594 -0.01063544 -0.046180077 -0.0089408085 -0.028247366 -0.051443446 0.009356234
-0.08524995 0.0019168128 -0.06149701 0.019150194 -0.028827347 -9.5300074e-08 0.0024393739 0.015188516
-0.019400576 -0.001351785 -0.06767005 -0.055319164 -0.013084895 -0.05541354 -0.06621361 0.0073701744
7.5935327e-06 7.3056194e-06 0.00017858972 -0.00010368013 -0.00045281195 9.254185e-06 4.4782904e-05 -0.00018267774
3.268351e-05 1.3895208e-05 4.6184447e-05 -2.270243e-05 -0.00019267722 5.327615e-05 7.956122e-05 -8.36682e-05
0.00014297958 0.0005130927 -2.2945718e-05 -3.481763e-06 1.9369934e-05 -2.9624713e-05 -0.00016045212 0.0005291473
0.012491066 -0.04676775 0.3175985 -0.10736671 0.012870208 -0.012110529 0.01241344 -0.027101912
0.020631406 0.007807757 0.0060456824 -0.0013626677 0.040482923 -1.7649546e-06 -0.019563727 -0.047901656
0.03736417 0.02490137 -0.014707059 -0.005938134 0.006411131 -0.013158215 -0.018150888 0.017074743
7.454514e-05 -0.00017807662 -0.00073381094 -5.92969e-05 0.001091449 3.1711268e-05 -7.4973154e-06 -0.00017070248
7.254706e-05 -8.304009e-05 -0.00025784422 1.4289156e-05 -6.3017437e-06 0.00030914447 0.00020795882 0.00017998327
4.760504e-05 0.00038168218 0.00017298813 3.0130741e-05 3.7671358e-05 -1.1381498e-05 7.1290786e-05 0.0015677918
0.009109406 -0.021622162 -0.13731892 0.19896644 -0.044955287 0.027626624 -0.065472186 0.0152651705
-0.008452995 -0.016605204 -0.08787723 -0.020267872 -0.013812861 -5.73391e-07 0.0022787629 -0.06532543
-0.04880533 -0.04462342 -0.01373292 -0.008799627 -0.042424325 -0.07567995 0.030553138 0.024651345
1.0483822e-05 6.347614e-05 0.0001453448 0.00010206718 -0.00087131624 9.2434175e-06 -6.621299e-05 5.2392752e-05
7.906403e-08 3.6076212e-06 0.00011353314 1.8293866e-05 -0.00019444288 0.00033960675 -8.7523746e-05 -8.2623475e-05
-0.00013628416 -0.0006982995 -2.925353e-06 4.35496e-06 2.0074665e-05 -5.382715e-05 -8.832675e-05 -0.0012471565
0.0055281427 -0.025077267 -0.0020749855 0.00570005 0.28273907 -0.03423487 0.04366258 -0.100023955
0.025103448 -0.02934371 -0.059317105 -0.05519688 -0.027880503 1.1668163e-06 -0.017085254 0.0070314766
0.01427868 -0.047112845 -0.060314693 0.0014047658 -0.0733914 0.0061097974 0.018749801 0.0053900667
3.093893e-05 8.811164e-06 -0.00060082384 2.6761974e-05 0.0017326669 7.6713484e-05 -0.00031202642 3.3156797e-05
3.8476595e-05 -8.5660795e-05 -0.00010733527 1.835182e-05 0.0007540506 -0.0006947105 0.00026426837 -7.9598685e-05
0.00014126787 -0.00087138824 -0.00012610764 -1.6093843e-06 0.00017060552 -1.110846e-05 -0.00014308056 -0.0020478733
-0.008070457 -0.065228015 0.021000704 0.017171137 -0.011058665 0.32671288 -0.038838327 0.030115142
-0.022727963 -0.011102992 -0.054983675 -0.013183259 -0.07952276 1.7033418e-06 -0.02985746 -0.04010569
00000000: c22b 843e 1d15 ddba 98ae a6bc 2a66 053d
00000010: 8a1e 7abc b702 bb3c 9b83 ebbc dc71 9bbd
00000020: f443 123d 6bb3 39bd de2a aebc 870e 173c
00000030: 23bd 4e3c 5852 a5b5 63d1 183c c55c 373c
00000040: 746d ed3c 02aa 483c 9784 e1bd 60fd 223c
00000050: 5883 9c3c 6a0f c83c 1f7d 02bd 6b38 e1bc
00000060: 24c9 d638 8ec1 1cb9 2264 25ba 4790 2538
00000070: f3f8 8139 a445 d036 55b0 c238 2c05 0a39
00000080: cbff d538 3aca 4338 231a 1db8 055f 3b37
00000090: c40b 8eb8 1270 ff37 5e27 68b9 ded8 2939
000000a0: 94a8 24b8 9d4c c3b9 5d2b f936 24a7 ac37
000000b0: 0e22 bd38 73c6 33b8 9a22 11b9 926e 2e3b
000000c0: d863 3cbd f157 983e 4540 2ebc 5227 3dbd
000000d0: 787c 12bc 0567 e7bc 5db6 52bd e44a 193c
000000e0: 8797 aebd 913d fb3a 4ae4 7bbd dee0 9c3c
000000f0: 5427 ecbc c5a7 ccb3 e7dd 1f3b 41d9 783c
00000100: f5ed 9ebc 612e b1ba 9896 8abd 5996 62bd
00000110: 0762 56bc 4ff9 62bd 009b 87bd 8181 f13b
00000120: f3cb fe36 cb22 f536 d043 3b39 d96e d9b8
00000130: 6467 edb9 6c42 1b37 47d5 3b38 2f8d 3fb9
00000140: a715 0938 771f 6937 2cb6 4138 1971 beb7
00000150: 6609 4ab9 d574 5f38 1bda a638 0677 afb8
00000160: caec 1539 1181 063a 8e7b c0b7 3ca8 69b6
00000170: 9e7c a237 9682 f8b7 0a3f 28b9 79b6 0a3a
00000180: 54a7 4c3c 8a8f 3fbd 459c a23e 14e3 dbbd
00000190: 91dd 523c 3d6b 46bc be61 4b3c d404 debc
000001a0: 3203 a93c 36d8 ff3b dc1a c63b 8a9b b2ba
000001b0: 6cd1 253d 61e3 ecb5 1c44 a0bc 8734 44bd
000001c0: 2c0b 193d f5fd cb3c e0f5 70bc ae94 c2bb
000001d0: 7714 d23b 8e95 57bc 2cb1 94bc 55e0 8b3c
000001e0: 1e55 9c38 14ba 3ab9 385d 40ba 90b5 78b8
000001f0: f40e 8f3a b701 0538 7391 fbb6 99fe 32b9
00000200: 6824 9838 cf25 aeb8 442f 87b9 75bb 6f37
00000210: 9173 d3b6 ab14 a239 850f 5a39 e4b9 3c39
00000220: 86ab 4738 841c c839 2664 3539 46c1 fc37
00000230: 5001 1e38 29f3 3eb7 f381 9538 5d7e cd3a
00000240: 9e3f 153c f620 b1bc 559d 0cbe dcbd 4b3e
00000250: 0923 38bd 3b51 e23c 4816 86bd c41a 7a3c
00000260: 6e7e 0abc a307 88bc faf8 b3bd cf08 a6bc
00000270: 574f 62bc 21eb 19b5 4c57 153b 57c9 85bd
00000280: 19e8 47bd 0cc7 36bd 0b00 61bc 502c 10bc
00000290: 21c5 2dbd 17fe 9abd 934a fa3c 9ef1 c93c
000002a0: ace3 2f37 7e1e 8538 b367 1839 e60c d638
000002b0: 0b69 64ba 2d14 1b37 d4db 8ab8 4ac0 5b38
000002c0: e9c9 a933 761a 7236 a418 ee38 c775 9937
000002d0: 5de3 4bb9 3f0d b239 f48c b7b8 2446 adb8
000002e0: 80e7 0eb9 160e 37ba 2f51 44b6 d220 9236
000002f0: 0466 a837 76c4 61b8 103c b9b8 a177 a3ba
00000300: 6c25 b53b d76e cdbc 7bfc 07bb 7cc7 ba3b
00000310: 2dc3 903e dd39 0cbd 89d7 323d 5cd9 ccbd
00000320: bfa5 cd3c 3862 f0bc 7ef6 72bd 2016 62bd
00000330: a765 e4bc 819b 9c35 60f6 8bbc 4d68 e63b
00000340: 20f1 693c 66f9 40bd 8a0c 77bd 1e20 b83a
00000350: 3b4e 96bd b234 c83b 2f99 993c 289f b03b
00000360: 6cc4 0138 a9d3 1337 9b80 1dba e77e e037
00000370: a71a e33a 3de1 a038 7a97 a3b9 d711 0b38
00000380: ee61 2138 caa4 b3b8 2f19 e1b8 3cf2 9937
00000390: 7bab 453a 3c1d 36ba 808d 8a39 38ee a6b8
000003a0: 4e21 1439 e06d 64ba c33b 04b9 0602 d8b5
000003b0: 92e4 3239 795e 3ab7 e507 16b9 9d35 06bb
000003c0: f339 04bc 4496 85bd ab09 ac3c 7caa 8c3c
000003d0: 672f 35bc e946 a73e f014 1fbd 08b4 f63c
000003e0: fe2f babc 53e9 35bc 9036 61bd 99fe 57bc
000003f0: d4dc a2bd 619e e435 a297 f4bc dd45 24bd

tabnet.initial_splitter.shared.glu_layers.0.fc.weight f4 [96, 1038]
-6.589223e-05 1.8769812e-05 4.5751644e-06 1.4627709e-05 -3.1409817e-07 -6.0061277e-05 -7.1804365e-08 -5.0186686e-06
4.0796463e-06 1.1540636e-08 -2.5662022e-05 2.798806e-05 5.7896177e-06 5.4562726e-05 9.281634e-06 -2.619283e-05
-7.923647e-05 -3.1066782e-05 5.4564607e-06 1.188422e-06 -0.08406644 2.3112887e-05 9.823112e-05 2.7729888e-05
-0.00016953408 -4.8777525e-05 -0.00014052083 4.517389e-05 -8.86813e-05 -3.7665024e-05 9.459671e-05 9.5826144e-05
-0.00023254781 6.844961e-05 -7.8259065e-05 0.00014551454 -0.00022091455 -1.7927418e-07 -3.6760466e-05 -3.4865374e-05
-3.859128e-09 -7.166669e-05 -9.079709e-05 2.2265425e-05 -2.0667499e-06 1.0297327e-05 0.00021903666 -1.8395323e-05
4.6592508e-05 -3.0604213e-05 -0.00012519308 -5.236722e-07 8.794833e-05 1.8196155e-05 -1.1264585e-06 -0.006931719
0.000212267 3.3702634e-06 4.5304118e-05 8.022253e-05 -6.325127e-05 7.624363e-08 0.00028223294 3.67574e-06
4.9581922e-05 -0.002028915 -3.595961e-05 0.00018006847 -7.935127e-05 -0.0002294708 1.3295658e-05 1.5960863e-05
-4.5034864e-07 4.3529647e-07 7.936057e-07 -2.1547456e-05 -4.608766e-05 -0.00011542961 4.401873e-06 -0.00013865506
7.4255745e-06 -6.926445e-05 1.1231496e-09 0.0002397985 2.737272e-06 -8.792181e-06 -1.2759439e-06 1.4132726e-05
6.515463e-05 0.011977173 -4.503588e-05 -1.702719e-05 3.6761223e-05 0.016239751 -0.00010080635 0.077558435
8.348728e-05 5.637423e-05 -7.142326e-05 -4.8937803e-08 3.152839e-05 8.9027766e-05 1.2787507e-05 0.08081117
0.00013953022 0.00015125515 -0.00016538796 9.297736e-05 0.0767397 -3.7259975e-05 2.4817818e-06 5.4809356e-05
1.0927722e-06 -3.087133e-05 2.5405913e-10 -0.00011290589 -0.00025842732 5.058217e-05 -0.12875248 -0.00010230122
0.00015607613 2.435889e-05 0.00038982226 -2.988758e-08 0.00023488594 0.00021120318 1.9247971e-05 -5.1064144e-05
-7.6223994e-05 7.446683e-05 0.00011942691 -2.2228605e-05 0.00016485753 2.3207145e-05 6.0315517e-05 0.00022480286
0.002190564 1.5471294e-05 -0.00036275762 0.018551951 1.5562914e-06 8.91321e-05 3.0888598e-06 0.00013139083
0.00014392765 -0.00010132721 1.8599249e-05 3.850844e-06 5.5303928e-05 -0.14675365 0.00013633363 -2.925086e-05
-6.7041605e-05 -5.5084342e-08 -0.00010490446 2.6231693e-05 1.4078067e-05 -0.00013763529 -8.1873404e-05 -0.00035722973
-0.00019596405 -0.116904415 1.0307465e-05 -1.5254722e-06 0.00013553113 3.5901497e-12 0.00014956905 2.4817352e-08
6.040722e-06 -3.1878415e-05 -4.0594146e-06 -0.18542093 -1.8204807e-06 -4.9959913e-06 0.09451322 0.0044192276
8.895893e-05 -7.4073076e-05 -0.00014488098 -3.3924432e-06 -9.971434e-05 -5.281962e-05 4.132693e-05 8.744532e-05
-0.002719608 -5.0862222e-06 -2.8022554e-05 -0.0001530401 6.5314576e-05 1.5576217e-05 -7.511838e-05 -4.9200073e-05
5.5723467e-06 -1.5489508e-05 -2.310116e-05 -8.45888e-06 -0.00012121572 -2.29193e-06 3.6642185e-05 -0.00019710818
5.251246e-05 1.2575699e-05 4.154989e-05 3.2622545e-05 1.7826018e-05 -5.454722e-05 1.8901595e-05 2.4421766e-05
-2.8716356e-08 0.00039954777 5.3840336e-05 -1.7339087e-05 8.682702e-05 -3.6305042e-05 1.5491427e-06 4.5181278e-07
-1.5608259e-09 4.812645e-05 0.00015128848 0.054444313 1.2338192e-05 9.133919e-05 1.4003396e-05 -6.9810885e-05
-1.9168443e-05 -7.9273166e-05 -3.012737e-06 6.0442588e-05 3.8241782e-05 -0.00010106014 -0.00010320796 6.701812e-05
9.384447e-05 -2.531329e-05 0.019806078 -2.6226591e-05 0.00014015581 0.000115149895 -4.6592493e-05 7.9283476e-05
3.2587917e-07 0.0001936134 2.1945707e-05 -0.00021661533 6.038932e-07 -1.5670694e-09 0.03562533 2.4527908e-06
-3.1319196e-05 1.3087378e-06 1.841452e-05 -2.2453454e-05 -2.6655512e-06 6.649786e-07 1.8108292e-05 -2.3865656e-05
00000000: 9f2f 8ab8 dd73 9d37 5d84 9936 8869 7537
00000010: 53a1 a8b4 4eea 7bb8 de32 9ab3 0966 a8b6
00000020: e5e3 8836 4144 4632 c644 d7b7 e7c7 ea37
00000030: 7044 c236 48da 6438 51b8 1b37 adb8 dbb7
00000040: c22b a6b8 b44d 02b8 a416 b736 de81 9f35
00000050: 072b acbd 8ce2 c137 6e01 ce38 7b9d e837
00000060: f5c4 31b9 7896 4cb8 c658 13b9 1879 3d38
00000070: 69fa b9b8 83fa 1db8 3962 c638 45f6 c838
00000080: 14d8 73b9 9b8c 8f38 041f a4b8 4395 1839
00000090: 4ca5 67b9 837e 40b4 402f 1ab8 693c 12b8
000000a0: 4099 84b1 c34b 96b8 516a beb8 a3c6 ba37
000000b0: 7eb2 0ab6 afc2 2c37 35ad 6539 a84f 9ab7
000000c0: 536c 4338 065d 00b8 4346 03b9 7b92 0cb5
000000d0: e670 b838 f2a3 9837 d230 97b5 7923 e3bb
000000e0: fd93 5e39 af2c 6236 ed04 3e38 253d a838
000000f0: c4a5 84b8 61bb a333 aaf8 9339 bbac 7636
00000100: 2ff6 4f38 8cf7 04bb 56d3 16b8 c3d0 3c39
00000110: 6469 a6b8 199e 70b9 6b10 5f37 b1e3 8537
00000120: 72c7 f1b4 b1b2 e934 2b08 5535 cfc0 b4b7
00000130: 404e 41b8 cd12 f2b8 cdb3 9336 ef63 11b9
00000140: 3329 f936 1242 91b8 505d 9a30 6b72 7b39
00000150: fab1 3736 2182 13b7 1941 abb5 991b 6d37
00000160: a0a3 8838 e83b 443c e8e4 3cb8 9dd5 8eb7
00000170: 1030 1a38 3a09 853c ff67 d3b8 f5d6 9e3d
00000180: e415 af38 5e73 6c38 12c9 95b8 af2f 52b3
00000190: 5a3d 0438 6bb4 ba38 ed89 5637 5480 a53d
000001a0: dc4e 1239 3f9a 1e39 fe6b 2db9 d7fc c238
000001b0: b429 9d3d 9847 1cb8 b08c 2636 19e3 6538
000001c0: 5eab 9235 d77b 01b8 a5ab 8b2f e3c7 ecb8
000001d0: 877d 87b9 3128 5438 b1d7 03be 8d8a d6b8
000001e0: 5ea8 2339 5156 cc37 0f61 cc39 be5d 00b3
000001f0: b74b 7639 6c76 5d39 b476 a137 b52d 56b8
00000200: 72da 9fb8 132b 9c38 d674 fa38 9177 bab7
00000210: 9bdd 2c39 f7ac c237 4bfb 7c38 0fb9 6b39
00000220: 918f 0f3b 5ac8 8137 8130 beb9 43fa 973c
00000230: c4e1 d035 6fec ba38 354a 4f36 f5c5 0939
00000240: 49eb 1639 a27f d4b8 9505 9c37 8036 8136
00000250: 24f6 6738 9746 16be c8f4 0e39 be5f f5b7
00000260: b098 8cb8 e095 6cb3 2700 dcb8 220c dc37
00000270: d630 6c37 3152 10b9 73b3 abb8 904a bbb9
00000280: b37b 4db9 956b efbd 3aee 2c37 d3be ccb5
00000290: 5c1d 0e39 63a2 7c2c a3d5 1c39 ef2d d532
000002a0: 68b1 ca36 30b5 05b8 1b36 88b6 fcde 3dbe
000002b0: 3e57 f4b5 3da3 a7b6 2690 c13d 2bcf 903b
000002c0: 768f ba38 ae57 9bb8 31eb 17b9 bba9 63b6
000002d0: bb1d d1b8 a38a 5db8 7456 2d38 d962 b738
000002e0: 733b 32bb 51aa aab6 fa11 ebb7 6479 20b9
000002f0: 7ff9 8838 aca9 8237 e088 9db8 2d5c 4eb8
00000300: 18fa ba36 77ef 81b7 5dc9 c1b7 9dea 0db7
00000310: 3235 feb8 0fcf 19b6 3fb0 1938 d3ae 4eb9
00000320: d340 5c38 37fc 5237 db45 2e38 31d4 0838
00000330: 1589 9537 a2c9 64b8 de8e 9e37 58dd cc37
00000340: efab f6b2 657a d139 9fd2 6138 6873 91b7
00000350: e716 b638 3e46 18b8 23ec cf35 ad90 f234
00000360: ae84 d6b0 62db 4938 31a3 1e39 0001 5f3d
00000370: 2200 4f37 5b8d bf38 21f0 6a37 6f67 92b8
00000380: ebcb a0b7 753f a6b8 6d2e 4ab6 bc83 7d38
00000390: cd65 2038 40f0 d3b8 5a71 d8b8 148c 8c38
000003a0: 5ece c438 e057 d4b7 5b40 a23c 2d01 dcb7
000003b0: caf6 1239 a17c f138 4f6c 43b8 fe44 a638
000003c0: 7ef4 ae34 b404 4b39 0c18 b837 3c23 63b9
000003d0: 3a1b 2235 5a60 d7b0 deeb 113d a09a 2436
000003e0: bb5c 03b8 e3a7 af35 e178 9a37 6d5a bcb7
000003f0: d2e1 32b6 fb80 3235 43e7 9737 1b33 c8b7

tabnet.initial_splitter.shared.glu_layers.0.bn.bn.weight f4 [96]
0.0024220638 -0.003944401 0.00064838445 0.0012125333 0.0047844797 0.027175074 0.0500802 0.04723756
0.3009252 0.6007136 0.49958178 0.005270486 0.32881266 0.007149247 -0.003011922 -5.0138773e-05
-0.0017238196 0.002881562 0.029338887 0.0010210519 0.0030597434 0.0027911596 0.010091633 0.0010089998
0.51971996 0.3836846 0.3739924 0.4698717 0.36089796 0.42887205 0.5723028 0.40926126
0.47738096 0.32680595 0.43505007 0.04662722 0.43425086 0.39940715 0.44735074 0.4774401
0.5813301 0.41055056 0.35814106 0.0395196 0.37839454 0.46691135 0.46663395 0.3397737
4.207192e-06 -1.3078969e-05 -1.7434813e-06 -2.6814882e-06 6.028045e-06 -8.558117e-05 0.00021925288 0.00063224114
-0.033894446 0.36949247 0.10730339 -9.180532e-05 0.06459145 7.079484e-05 7.865098e-06 6.043899e-05
-6.7284714e-06 1.9099596e-05 -0.00027892707 1.8683233e-05 8.30745e-05 -6.849948e-06 -1.7462688e-05 2.9286114e-06
0.23255764 0.057353158 0.23264638 0.3493377 0.06989711 0.45611966 0.44162333 0.24710874
0.41898766 -0.15505323 0.4643435 -0.006353891 0.19596271 0.1248422 -0.30841574 0.38250518
0.046517573 0.38716668 0.009699226 -0.014441989 0.24077657 0.21097712 0.18838942 -0.08966423
00000000: 7dbb 1e3b 0940 81bb 58f8 293a deed 9e3a
00000010: 20c7 9c3b 439e de3c e520 4d3d 2c7c 413d
00000020: de12 9a3e 5ec8 193f 2fc9 ff3e 0bb4 ac3b
00000030: 225a a83e 3b44 ea3b aa63 45bb 194c 52b8
00000040: caf1 e1ba 97d8 3c3b 1b58 f03c d1d4 853a
00000050: fa85 483b e3eb 363b 6057 253c 6a40 843a
00000060: 5e0c 053f 4f72 c43e ef7b bf3e 0693 f03e
00000070: 9ec7 b83e 1e95 db3e 7082 123f b18a d13e
00000080: 476b f43e 1c53 a73e e2be de3e 2ffc 3e3d
00000090: 2156 de3e 187f cc3e 280b e53e 0773 f43e
000000a0: 0dd2 143f af33 d23e 445e b73e 4edf 213d
000000b0: eebc c13e 010f ef3e a5ea ee3e d2f6 ad3e
000000c0: 812b 8d36 be6d 5bb7 9001 eab5 9ef3 33b6
000000d0: 8344 ca36 0a7a b3b8 3fe7 6539 fcbc 253a
000000e0: e7d4 0abd 1e2e bd3e e1c1 db3d 9b87 c0b8
000000f0: 8648 843d b177 9438 57f4 0337 df7f 7d38
00000100: 21c5 e1b6 1238 a037 f53c 92b9 f0b9 9c37
00000110: 4838 ae38 9bd8 e5b6 d67c 92b7 2989 4436
00000120: 9723 6e3e 25eb 6a3d da3a 6e3e 64dc b23e
00000130: 3726 8f3d 8488 e93e 741c e23e 130a 7d3e
00000140: 8d85 d63e 46c6 1ebe 6ebe ed3e 4d34 d0bb
00000150: 73aa 483e 44ad ff3d abe8 9dbe b8d7 c33e
00000160: 3689 3e3d b63a c63e 81e9 1e3c 189e 6cbc
00000170: 228e 763e 630a 583e 28e9 403e e1a1 b7bd
