cv_steps/tabnet_raw_step1_fold4_2/network.pt (torch, 682315 bytes, 56 tensors)

embedder.embeddings.0.weight f4 [3, 1]
0.0062014577 0.06326616 -0.07031025
00000000: 9935 cb3b b091 813d d2fe 8fbd

embedder.embeddings.1.weight f4 [2, 1]
0.24929838 -0.24931556
00000000: 1348 7f3e 944c 7fbe

tabnet.initial_bn.weight f4 [1038]
-0.076977365 0.18765463 0.0017440865 0.04514724 0.071717314 0.13665059 -9.497601e-05 0.019717976
0.14973743 0.0006216194 0.24989226 0.033098813 -0.0007058536 0.0470376 0.031586077 0.21398918
0.1672551 0.057910837 -0.000106736145 0.22299798 0.069396004 0.14709064 0.26036027 -0.063101634
0.20903842 0.18263999 0.18649088 0.16505773 0.07131491 0.14039956 0.16354261 0.2280953
0.2179267 0.118529074 0.111615054 0.21232972 0.22785194 0.00038241563 0.24195682 0.1690747
0.10607441 0.14232552 -0.016976932 0.13858825 3.177046e-05 0.09900255 0.004095049 0.14982872
0.13204958 0.21514882 0.19510815 -2.4798942e-06 0.23636125 0.021429945 5.300118e-05 0.13687848
0.06419448 0.015597931 0.13766451 0.28731874 0.084346674 -1.4630407e-07 0.28525692 2.5317677e-06
0.21431486 0.23083483 0.044144727 0.13890938 0.13654031 0.12447684 0.14555515 0.1818958
0.08361587 0.15192913 0.01126354 -0.00091368274 0.058017246 0.41359907 2.8434501e-06 0.09460547
0.058432814 -0.0019966613 -4.7403005e-06 0.16057038 -0.0024928288 0.08703934 0.13325775 0.16188577
0.09601398 1.5914216e-07 0.23732635 0.14677614 0.2026482 0.24201459 0.2142231 0.098603606
0.072168946 0.023681944 0.17893864 -0.0019166616 0.2014556 0.055825274 0.013288429 0.16577642
0.17127247 0.14593872 0.071024954 0.15384927 0.072996944 0.105773486 0.16743506 0.13432346
-8.5600754e-05 0.18338895 0.052389 0.09271692 -0.053884365 0.0014122115 0.1423042 0.22398
0.14197883 0.16064025 0.13209009 -0.006742647 0.13800532 0.1688484 0.13578549 0.1961587
0.05434598 0.1622376 0.18126115 0.01207471 0.16441749 0.20306695 0.1428128 0.2345694
0.22767778 0.0001534645 0.07914638 0.115309194 0.13140383 0.14568357 0.010307519 0.0040319995
0.13413823 0.15936656 0.21042567 0.12601429 0.23730618 0.13757789 0.15001358 0.2262933
0.023542738 -0.021235527 0.14157796 0.08814929 0.15750256 0.084475644 0.24651624 0.3892696
0.31565952 0.1033216 0.1604724 0.05126977 0.17242466 -0.00019207188 0.22292547 0.13845384
0.12344627 0.23413101 0.13194847 0.21712458 0.1222858 0.0075611854 0.16546637 0.18352434
0.2335071 0.3879093 0.17007732 0.09018939 0.31084985 -0.00048012316 0.14243095 0.16927591
0.015257626 0.19420469 0.055670314 0.13178174 0.088693604 0.13776653 0.047828417 0.21680193
0.1969568 0.033774287 0.07981485 0.12705155 0.11770046 0.010798753 0.015138901 0.11730128
0.16580394 -0.033433903 0.002601352 -0.01360287 0.33473718 0.20176326 0.019476874 -0.0018978368
0.17008579 0.17424595 0.20789862 0.1832955 0.13295555 0.13108134 0.15139234 0.10084206
0.023524603 0.21802466 0.14238198 0.18754764 0.13280082 0.13429923 0.041820634 -0.005410795
0.11344429 4.4827e-08 0.15892272 0.14987528 0.12168853 0.04353295 4.0041105e-05 0.0022275934
0.026556341 0.21685787 0.043275718 0.22302283 0.13948387 -0.008620058 0.020101458 0.21688683
1.3742211e-05 0.13607125 0.06472803 0.16517934 0.16750494 0.00013267886 0.15757364 0.10986633
0.13567816 0.083398305 0.24185866 0.12916967 3.0584702e-05 0.07204643 0.1899122 0.078125075
00000000: 4fa6 9dbd 8928 403e d599 e43a 50ec 383d
00000010: 87e0 923d 22ee 0b3e db2d c7b8 9887 a13c
00000020: c554 193e 2cf4 223a c2e3 7f3e 9f92 073d
00000030: 0909 39ba 80aa 403d 6760 013d fb1f 5b3e
00000040: ec44 2b3e ea33 6d3d 88d7 dfb8 9559 643e
00000050: 7e1f 8e3d ee9e 163e f14d 853e 6e3b 81bd
00000060: 2b0e 563e fa05 3b3e 77f7 3e3e e504 293e
00000070: 8d0d 923d e7c4 0f3e b777 273e d091 693e
00000080: 2d28 5f3e 5fbf f23d 6f96 e43d f66c 593e
00000090: 0552 693e f57e c839 87c3 773e eb21 2d3e
000000a0: 8a3d d93d c8bd 113e 3513 8bbc 14ea 0d3e
000000b0: 4641 0538 d9c1 ca3d c32f 863b b36c 193e
000000c0: 0138 073e f94f 5c3e 6eca 473e 426c 26b6
000000d0: af08 723e da8d af3c 954d 5e38 df29 0c3e
000000e0: 6578 833d 778e 7f3c edf7 0c3e 711b 933e
000000f0: f3bd ac3d c217 1db4 320d 923e 70e7 2936
00000100: 5b75 5b3e f75f 6c3e 1ad1 343d 433e 0e3e
00000110: 39d1 0b3e b7ed fe3d 690c 153e e542 3a3e
00000120: cc3e ab3d 4f93 1b3e b68a 383c 3684 6fba
00000130: 7ea3 6d3d 42c3 d33e 1ad2 3e36 83c0 c13d
00000140: 3f57 6f3d 6bda 02bb df0e 9fb6 906c 243e
00000150: ba5e 23bb ae41 b23d b874 083e 62c5 253e
00000160: faa2 c43d aae0 2a34 ae05 733e 7c4c 163e
00000170: 0283 4f3e acd2 773e 4d5d 5b3e b0f0 c93d
00000180: 50cd 933d a300 c23c b13b 373e 7e38 fbba
00000190: 604a 4e3e 0ba9 643d b6b7 593c 4bc1 293e
000001a0: 0d62 2f3e f670 153e 8875 913d aa8a 1d3e
000001b0: 6c7f 953d c59f d83d 1974 2b3e 178c 093e
000001c0: 8e84 b3b8 50ca 3b3e d995 563d 5ee2 bd3d
000001d0: dab5 5cbd f419 b93a 31b8 113e 035b 653e
000001e0: e662 113e e17e 243e a042 073e 6cf1 dcbb
000001f0: 4451 0d3e 98e6 2c3e 5a0b 0b3e d4dd 483e
00000200: e499 5e3d 9d21 263e 869c 393e 01d5 453c
00000210: 0f5d 283e c8f0 4f3e 853d 123e f632 703e
00000220: 5d24 693e 50eb 2039 7f17 a23d 3a27 ec3d
00000230: ba8e 063e 132e 153e dee0 283c dd1e 843b
00000240: 885b 093e fd30 233e d479 573e e409 013e
00000250: 6400 733e 38e1 0c3e 299d 193e 6eb9 673e
00000260: b3dc c03c 21f6 adbc d0f9 103e 9d87 b43d
00000270: 5a48 213e 9101 ad3d c16e 7c3e 584e c73e
00000280: 209e a13e 469a d33d e052 243e 4000 523d
00000290: 1790 303e e766 49b9 9346 643e d8c6 0d3e
000002a0: 66d1 fc3d 0ac0 6f3e 801d 073e e855 5e3e
000002b0: fa70 fa3d d2c3 f73b 0470 293e ceed 3b3e
000002c0: 7c1c 6f3e 0c9c c63e c028 2e3e 37b5 b83d
000002d0: b627 9f3e 0ab9 fbb9 6bd9 113e aa56 2d3e
000002e0: 1ffb 793c 98dd 463e 8e06 643d cbf1 063e
000002f0: fea4 b53d ab12 0d3e bbe7 433d 5301 5e3e
00000300: 0baf 493e e856 0a3d f875 a33d cd19 023e
00000310: f00c f13d 41ed 303c 2709 783c a73b f03d
00000320: 82c8 293e fdf1 08bd 727b 2a3b 92de 5ebc
00000330: ac62 ab3e 079b 4e3e f78d 9f3c d6c0 f8ba
00000340: f82a 2e3e 886d 323e 60e3 543e d1b1 3b3e
00000350: 8025 083e 303a 063e 9806 1b3e 4886 ce3d
00000360: abb6 c03c db41 5f3e 95cc 113e 7d0c 403e
00000370: f0fc 073e bd85 093e 1d4c 2b3d 0a4d b1bb
00000380: 7b55 e83d cf87 4033 a3bc 223e e878 193e
00000390: d637 f93d 9b4f 323d cff1 2738 d1fc 113b
000003a0: af8c d93c fd0f 5e3e e141 313d 1960 643e
000003b0: dcd4 0e3e 253b 0dbc d0ab a43c 9517 5e3e
000003c0: 598e 6637 4356 0b3e 2190 843d c624 293e
000003d0: 6a86 2b3e b61f 0b39 fc5a 213e 9901 e13d
000003e0: 37ef 0a3e bbcc aa3d cca9 773e 0e45 043e
000003f0: 1348 0038 148d 933d 5878 423e 0a00 a03d

tabnet.initial_bn.bias f4 [1038]
3.9564897e-05 0.00063063274 4.915561e-07 1.4240076e-05 9.606984e-05 -4.9623795e-05 4.1949413e-09 3.9595732e-05
-7.129463e-05 -1.8396516e-07 -0.00012170552 -1.5964852e-05 4.2521705e-07 -4.40627e-06 0.00026031336 0.009951222
-0.00013047508 -1.0296823e-05 2.0674119e-07 0.15867142 -0.00011080893 -0.00038264788 -0.0002722569 -5.223582e-05
6.419652e-05 -0.000526948 -0.00025998443 -0.00017393383 2.658016e-05 1.6385204e-05 7.9159334e-05 -4.4230303e-05
0.0001899879 -0.00015390509 -0.0001012553 -3.259397e-05 6.628369e-05 -1.3865201e-06 -0.00022526932 0.00011489079
-3.2570486e-05 -0.00031462839 0.28168482 -0.00020957984 5.4995194e-08 0.00013523959 -4.7971906e-05 -6.56905e-05
0.0005616213 -0.00018596857 -0.0018068176 -3.5786356e-09 0.24036898 -0.27991134 1.16142054e-07 0.34231487
-5.544914e-05 1.0171812e-05 0.00010048748 -0.13495657 -4.6170944e-06 -4.9225024e-10 -0.00013274743 1.6417747e-11
0.00011019785 -7.056606e-05 -0.26603115 -0.0002418658 0.00043200873 -0.00015519017 0.00022986594 0.00025524682
-1.7489945e-05 -0.13735844 2.185933e-06 1.1528953e-06 5.8206224e-05 0.0004294156 -2.3783944e-10 4.0141946e-05
0.00019184123 -4.882562e-07 -3.77836e-10 -0.00015355657 7.1064056e-07 3.117714e-05 0.32374412 -2.4915546e-05
-7.066999e-05 6.6929734e-12 -0.045486737 -3.0771567e-05 0.00024625237 -7.584362e-05 0.023700764 6.0031685e-05
0.000150591 2.2544273e-05 0.00014132743 6.526854e-06 -1.53716e-07 4.8166396e-05 0.23755126 -5.998218e-05
9.925836e-05 0.00023447972 -0.00014397244 -4.4270826e-05 -0.3960571 0.0005948813 -7.102138e-05 -8.349916e-05
-7.6024795e-09 0.0013303078 -6.531969e-05 0.0004132244 -7.310676e-06 5.181745e-07 -6.423472e-05 0.017645935
0.00036681592 3.3608354e-05 6.815438e-05 -2.742345e-06 9.34126e-05 -4.2287335e-05 -0.0001636284 -3.3178314e-06
-0.004240605 0.000104106744 -0.00016020727 1.3144117e-05 0.0001993909 0.00011477149 -7.16837e-05 0.07262
0.038210887 -3.7165155e-08 6.849622e-06 4.855301e-06 -6.229963e-05 -0.00015373307 8.811392e-06 3.5173855e-06
0.00010622611 -2.8530155e-06 -6.57291e-05 0.00016577009 -0.00022624069 -4.432885e-05 -3.8825143e-05 5.4399712e-05
-3.7649388e-05 -1.5675372e-05 -0.00031147955 7.177453e-05 4.388947e-05 1.84141e-05 -0.00013620862 0.0003145618
4.833208e-05 2.002505e-05 6.116399e-05 -4.7703154e-05 -0.07282575 3.6166537e-07 -0.0002870603 -0.0006413197
0.00011666294 -0.000114399874 -4.195857e-05 -0.0009363587 -4.959568e-05 -2.7464052e-06 -0.17475641 -8.388379e-05
4.1452993e-05 -0.0002979563 -0.22489658 0.0106195165 0.06874084 -7.5233415e-06 -0.00016311964 -2.0342946e-05
-6.032879e-06 -0.00020230585 0.00012409022 -0.00022665446 -3.729479e-05 0.00012468897 -0.000113650814 0.14700603
-0.0001787946 -3.304873e-05 1.8926079e-05 1.856234e-05 6.3163876e-05 -4.1818177e-05 -2.6043672e-06 -0.00015386872
-4.2774907e-05 -0.00015841328 -5.665428e-06 0.27571744 1.3808317e-05 -0.00016031225 -9.2751216e-05 -0.00012387914
4.657994e-06 2.5688541e-05 -0.1421804 0.00011385655 -2.1584303e-05 -1.9137433e-05 4.628156e-05 1.7564253e-05
1.2721241e-05 -0.17255667 1.5910144e-05 -0.000116828225 -2.390721e-05 -0.00012665664 2.8314249e-05 0.3025859
0.000438901 -4.8898676e-07 -7.5885764e-05 0.00030230646 4.4477027e-05 -0.28120935 1.2188383e-07 -5.8741048e-06
-3.917686e-06 -1.8382209e-06 -6.704026e-05 -0.0001438291 -0.00027224922 0.3245688 -0.3697044 0.000103188446
1.460047e-08 -2.1314485e-05 4.319535e-05 7.801249e-05 -3.9785784e-05 2.5522309e-06 3.3773667e-05 0.00012799812
7.7176446e-05 -0.000104935774 4.9238683e-05 0.22486149 3.0253364e-08 0.0005021532 -4.2664353e-05 -4.678515e-05
00000000: 7cf2 2538 0c51 253a 7af3 0335 a9e8 6e37
00000010: 1a79 c938 2523 50b8 1823 9031 9813 2638
00000020: 0384 95b8 f587 45b4 273c ffb8 42ec 85b7
00000030: 6349 e434 92d9 93b6 ab7a 8839 730a 233c
00000040: 23d0 08b9 85c0 2cb7 96fc 5d34 c37a 223e
00000050: 1762 e8b8 219e c8b9 b4bd 8eb9 c917 5bb8
00000060: 3fa1 8638 e222 0aba 854e 88b9 0262 36b9
00000070: 75f8 de37 f572 8937 5802 a638 ed83 39b8
00000080: 7d37 4739 9561 21b9 0659 d4b8 82b5 08b8
00000090: c901 8b38 7818 bab5 4636 6cb9 86f1 f038
000000a0: 4b9c 08b8 b5f4 a4b9 fe38 903e a9c2 5bb9
000000b0: db33 6c33 1acf 0d39 7135 49b8 52c3 89b8
000000c0: c439 133a 8f00 43b9 bdd2 ecba 06ec 75b1
000000d0: 4923 763e 8a50 8fbe c569 f933 e543 af3e
000000e0: 1092 68b8 9aa7 2a37 cebc d238 0e32 0abe
000000f0: 8aec 9ab6 084f 07b0 1e32 0bb9 7b69 902d
00000100: 051a e738 ddfc 93b8 3c35 88be 5b9d 7db9
00000110: 3b7f e239 8bba 22b9 2b08 7139 a6d2 8539
00000120: 5fb7 92b7 b1a7 0cbe 0bb2 1236 2ebd 9a35
00000130: 7522 7438 3023 e139 edc0 82af 165e 2838
00000140: fd28 4939 b610 03b5 b1b7 cfaf 0704 21b9
00000150: d9c2 3e35 33c4 0238 cac1 a53e ba01 d1b7
00000160: a934 94b8 f27c eb2c 4d50 3abd b810 01b8
00000170: 6f1b 8139 3c0e 9fb8 1b28 c23c 88ca 7b38
00000180: f7e7 1d39 751d bd37 4b31 1439 4001 db36
00000190: 220d 25b4 4606 4a38 a340 733e 6095 7bb8
000001a0: ed28 d038 acde 7539 4ff7 16b9 70af 39b8
000001b0: ffc7 cabe cff1 1b3a 50f1 94b8 451c afb8
000001c0: 0f9c 02b2 b95d ae3a 3efc 88b8 0aa6 d839
000001d0: 3b4e f5b6 ae18 0b35 c1b5 86b8 358e 903c
000001e0: 3351 c039 b2f6 0c38 1bee 8e38 2109 38b6
000001f0: 82e6 c338 ae5d 31b8 aa93 2bb9 e9a7 5eb6
00000200: c6f4 8abb e253 da38 50fd 27b9 8d85 5c37
00000210: 9613 5139 79b1 f038 e554 96b8 cbb9 943d
00000220: 0583 1c3d 859f 1fb3 ced5 e536 b8ea a236
00000230: dca6 82b8 6833 21b9 a4d4 1337 390c 6c36
00000240: b5c5 de38 6f76 3fb6 0bd8 89b8 92d2 2d39
00000250: 063b 6db9 beed 39b8 2ed8 22b8 3f2b 6438
00000260: b9e9 1db8 9b7e 83b7 144e a3b9 a885 9638
00000270: f615 3838 fb77 9a37 39d3 0eb9 c5eb a439
00000280: 2db8 4a38 78fb a737 2b45 8038 df14 48b8
00000290: ab25 95bd e92a c234 9580 96b9 3d1e 28ba
000002a0: f0a8 f438 f7e9 efb8 acfc 2fb8 f875 75ba
000002b0: f504 50b8 e24e 38b6 58f3 32be c4ea afb8
000002c0: d0dd 2d38 0537 9cb9 4a4b 66be 7bfd 2d3c
000002d0: ffc7 8c3d 0371 fcb6 180b 2bb9 25a6 aab7
000002e0: 096e cab6 1022 54b9 371e 0239 18aa 6db9
000002f0: fa6c 1cb8 f1be 0239 d157 eeb8 c088 163e
00000300: cf7a 3bb9 ce9d 0ab8 72c3 9e37 52b6 9b37
00000310: d976 8438 ed65 2fb8 b0c6 2eb6 d257 21b9
00000320: 3569 33b8 be1b 26b9 a819 beb6 d62a 8d3e
00000330: 45aa 6737 7e19 28b9 6e83 c2b8 8ee5 01b9
00000340: dd4b 9c36 b97d d737 bd97 11be 45c6 ee38
00000350: f00f b5b7 5389 a0b7 721e 4238 f256 9337
00000360: 506d 5537 b2b2 30be c676 8537 ad01 f5b8
00000370: 588c c8b7 22cf 04b9 6384 ed37 8aec 9a3e
00000380: 4c1c e639 ea42 03b5 dc24 9fb8 e37e 9e39
00000390: d88c 3a38 acfa 8fbe 2cdf 0234 2d1a c5b6
000003a0: ab74 83b6 cab8 f6b5 f797 8cb8 d4d0 16b9
000003b0: acbc 8eb9 e22d a63e e549 bdbe e066 d838
000003c0: 8cd5 7a32 82cc b2b7 a72c 3538 a39a a338
000003d0: a9df 26b8 fe46 2b36 33a8 0d38 3c37 0639
000003e0: cad9 a138 f710 dcb8 a285 4e38 1742 663e
000003f0: edef 0133 eea2 033a 80f2 32b8 2c3b 44b8

tabnet.initial_bn.running_mean f4 [1038]
-6.7085355e-05 0.006974917 0.0025631068 0.0038563835 0.0028158212 -0.001845257 0.00024367169 -0.003251725
-0.002379017 0.0015739119 -0.014134953 -0.004316779 0.001962625 0.009094056 0.0018447902 0.004096299
-0.0043253424 -0.001057941 -0.005173141 -0.004580328 -0.00093787484 0.004362969 -0.0074598296 0.0013957359
-0.00087852933 0.002954236 -0.0003021712 -0.0010272042 -0.0012519722 -0.004992091 -0.0014377565 -0.0013290988
-0.0024850671 0.015611969 0.0031897542 -0.00078688114 -0.0017258772 0.0018199735 -0.0033627467 -0.04257647
0.025260923 -7.5476564e-05 -0.005409336 -0.000551986 0.0011925985 0.004005101 -0.0033687009 0.0048279716
0.0050745006 -0.0017741215 0.0034561686 -0.0030523627 -0.048392545 -0.0012513517 0.006189864 0.00047255552
0.0012508959 -0.0011699372 -0.0017610359 -0.001894726 -0.020965436 0.0033737225 0.00039253873 -0.0026706266
-0.010811217 -0.010419606 -0.0003068767 0.004159965 0.0027879626 -0.052310288 0.004329604 -0.0026708252
0.0023924068 -0.0018592889 -0.0144680785 0.0017038052 0.016971288 -0.047079537 -0.0043488266 0.0011974613
-0.004113546 -0.0012702793 -0.00038947954 0.0026861432 0.0009840733 0.0038033077 -0.0015243262 4.133764e-05
0.0054292777 0.0017470215 0.00030563623 0.004425534 0.0056755454 0.0024383748 0.0026063109 -0.0021753937
-0.0038764374 0.0005231569 -0.0072885286 0.003255227 -0.005414743 0.0011678161 0.014070441 0.0025407914
0.0033396147 -6.271229e-05 0.0028594814 -0.00017706899 0.0041061426 0.0010350248 -0.00031102056 0.0026125645
0.0024659855 0.0015934103 0.0018406197 -0.022491895 -0.002937432 0.0018556645 0.008329061 0.0042572157
-0.00062032475 0.0033438664 -0.0011495848 -0.0038919721 -0.0054657473 0.026810287 0.0036889021 -0.0014330928
0.003995789 -0.002726668 -0.015850885 -0.00035763148 0.0073041506 0.031837232 0.007828057 0.002489228
0.0024191404 0.004702783 0.00097517297 0.00069072447 0.0010746026 -0.00021163705 0.00069660606 -0.004428887
-0.0031917053 -0.000620049 0.008544184 0.0031933652 0.0047056554 0.011528812 0.0014199226 0.00169452
-0.00088133453 0.00037967405 -0.0034683703 0.00031633236 -0.0012008847 0.005433541 -0.0046231337 -0.0031932432
0.0210685 -0.0047345497 -0.0090853 0.0010758972 -0.0030280417 0.010543006 0.004391455 9.947498e-05
-0.0035007852 -0.0028309824 0.0013189445 0.001992795 0.0028778783 0.0028173986 0.0029253787 0.0026430592
0.0051660994 0.0025946796 0.0005187438 0.0032461574 -0.014022316 0.0026423587 0.00093806675 0.006788467
0.003324414 -0.009865278 -0.0029236276 -0.017754117 -0.0014925721 -0.0044393516 -0.00035342647 0.0018792878
-0.0013946531 0.0028340553 -0.0012368046 0.0026672545 0.003874224 -0.016616609 0.0007761889 0.011144093
0.006994503 0.00042898784 -0.0003765285 0.010571002 -0.0167303 0.0013361692 -0.011180902 0.003770884
-0.00049785693 -0.00020343809 0.014241111 0.0032937396 0.0022829575 -0.0014214234 0.000985009 -0.0020374937
-0.0037626915 0.0028945385 0.0029512024 -7.4186726e-05 0.002082169 -0.0032639925 0.004410482 0.0004020889
0.006917438 0.0008894348 -0.001858146 -0.0011850771 0.0071161515 0.0041925376 -0.06432748 -0.00061453844
-0.00392924 0.0032729802 0.003909447 -0.0020453578 -0.002361107 0.0035766074 -0.0018168589 -0.0025745134
0.0011102697 -0.0064221793 0.0035873111 0.0011762017 0.0012458396 0.006338446 -0.0014129761 0.005677363
-0.0020467415 -0.00434929 0.020001037 0.0037275439 -0.015714938 0.006496049 0.0019735056 -0.0043688724
00000000: 2db0 8cb8 d88d e43b ccf9 273b 61bb 7c3b
00000010: a489 383b 8ddc f1ba 1f82 7f39 e51a 55bb
00000020: 48e9 1bbb b84b ce3a 4a96 67bc c473 8dbb
00000030: 629f 003b 3cff 143c e3cc f13a 3f3a 863b
00000040: 9abb 8dbb 9caa 8aba 7483 a9bb 9316 96bb
00000050: b7db 75ba 3df7 8e3b 9671 f4bb 20f1 b63a
00000060: 1b4d 66ba db9b 413b bb6c 9eb9 41a3 86ba
00000070: 3719 a4ba b294 a3bb 1a73 bcba 2835 aeba
00000080: 82dc 22bb 58c9 7f3c 320b 513b b346 4eba
00000090: d436 e2ba 2d8c ee3a 8761 5cbb aa64 2ebd
000000a0: ffef ce3c 2c49 9eb8 cd40 b1bb 27b3 10ba
000000b0: f750 9c3a 393d 833b 6cc5 5cbb f633 9e3b
000000c0: ff47 a63b a489 e8ba e380 623b 260a 48bb
000000d0: 4337 46bd 6504 a4ba 58d4 ca3b 54c1 f739
000000e0: 1af5 a33a 9458 99ba 8fd2 e6ba 7458 f8ba
000000f0: b5bf abbc ac19 5d3b a8cd cd39 ae05 2fbb
00000100: 8821 31bc ffb6 2abc 4be4 a0b9 5150 883b
00000110: 40b6 363b 5043 56bd 5adf 8d3b 0309 2fbb
00000120: edc9 1c3b 62b3 f3ba 850b 6dbc 3752 df3a
00000130: 5f07 8b3c 79d6 40bd 9a80 8ebb 22f4 9c3a
00000140: edca 86bb 807f a6ba 0f33 ccb9 010a 303b
00000150: 05fc 803a ea40 793b e6cb c7ba f461 2d38
00000160: 15e8 b13b 50fc e43a cd3d a039 1204 913b
00000170: edf9 b93b 24cd 1f3b a4ce 2a3b 0d91 0ebb
00000180: d40b 7ebb 7724 093a 9cd4 eebb a655 553b
00000190: 286e b1bb 6811 993a b587 663c 6883 263b
000001a0: 70dd 5a3b 6884 83b8 2366 3b3b 98ab 39b9
000001b0: d28c 863b aba9 873a 7910 a3b9 8f37 2b3b
000001c0: 5f9c 213b fad9 d03a f340 f13a ec40 b8bc
000001d0: ee81 40bb c539 f33a 9d76 083c 1d80 8b3b
000001e0: 4a9d 22ba c524 5b3b aaad 96ba 7510 7fbb
000001f0: 031a b3bb 3fa1 db3c 82c1 713b 9dd6 bbba
00000200: 1cef 823b e6b1 32bb b7d9 81bc 7c80 bbb9
00000210: a857 ef3b c267 023d 4041 003c 5122 233b
00000220: 718a 1e3b ce19 9a3b c0a2 7f3a bc11 353a
00000230: aed9 8c3a e3ea 5db9 719c 363a 3220 91bb
00000240: ee2b 51bb c98a 22ba e8fc 0b3c c747 513b
00000250: e631 9a3b 58e3 3c3c b21c ba3a a81a de3a
00000260: 5c09 67ba fd0e c739 994d 63bb 69d9 a539
00000270: 0167 9dba d80b b23b a87d 97bb bb45 51bb
00000280: d997 ac3c 4824 9bbb 83da 14bc 1f05 8d3a
00000290: 1c72 46bb 92bc 2c3c 32e6 8f3b 399d d038
000002a0: 6e6d 65bb 0188 39bb 6fe0 ac3a 8d99 023b
000002b0: c99a 3c3b 1ba4 383b b6b7 3f3b 2d37 2d3b
000002c0: 6248 a93b 800b 2a3b 4ffc 073a 7cbd 543b
000002d0: dbbd 65bc 6c2b 2d3b 98e8 753a ca71 de3b
000002e0: 69de 593b faa1 21bc 559a 3fbb 1571 91bc
000002f0: 69a2 c3ba fb77 91bb 194c b9b9 6f52 f63a
00000300: cbcc b6ba 8fbb 393b 471c a2ba 1bcd 2e3b
00000310: b1e6 7d3b 8e1f 88bc 2879 4b3a b795 363c
00000320: 2532 e53b c6e9 e039 cd68 c5b9 ff31 2d3c
00000330: fb0d 89bc 6622 af3a 1a30 37bc ef20 773b
00000340: 9d82 02ba ff51 55b9 8d53 693c c8db 573b
00000350: ac9d 153b 0e4f baba 6b1b 813a 7987 05bb
00000360: 7d97 76bb 4cb2 3d3b f668 413b b294 9bb8
00000370: 0075 083b b5e8 55bb ce85 903b 75cf d239
00000380: adab e23b f628 693a 098d f3ba 9754 9bba
00000390: 9b2e e93b 8e61 893b 20be 83bd fa18 21ba
000003a0: dbc0 80bb 7f7f 563b d21a 803b 690b 06bb
000003b0: cdbc 1abb 8465 6a3b ab23 eeba 2bb9 28bb
000003c0: 7886 913a 2571 d2bb 1819 6b3b c82a 9a3a
000003d0: 714b a33a bdb2 cf3b 9c33 b9ba 2c09 ba3b
000003e0: a022 06bb 7d84 8ebb 37d9 a33c cf49 743b
000003f0: 9dbc 80bc cfdc d43b ee55 013b c228 8fbb

tabnet.initial_bn.running_var f4 [1038]
0.0028741914 0.104152195 0.9950971 0.97234875 0.96917766 0.97333485 0.9669102 0.9739472
0.97779495 0.9734374 1.0790195 0.9705496 0.9751517 0.98030835 0.9811601 0.9906858
0.9871945 0.9704494 0.9795928 0.98182154 0.97425854 0.97012943 0.979356 0.9714498
0.97539836 0.96826077 0.9794277 0.96892977 0.9762545 0.97687244 0.97213435 0.9750121
0.977353 1.0601646 0.9774707 0.9811703 0.9903776 0.97359073 0.993147 1.2810038
1.1828153 0.97056675 1.0027087 0.97812545 0.9797607 0.9765304 0.97196805 0.9702434
1.0056288 0.97450256 0.9976148 0.9715405 1.3025864 0.97063714 0.9768287 0.9878402
0.9901542 0.99433833 0.97583735 0.9953088 1.1229347 0.98531395 0.96977574 0.98909414
1.0357138 1.0346518 0.967732 0.9831196 0.9752438 1.3866642 0.9708329 0.97590613
0.97673047 0.9735019 1.1115603 0.97096556 1.0417781 1.3205404 0.9693673 0.9761729
0.97219354 0.9781168 0.9710287 0.9761885 0.9725986 0.97396207 0.97297627 0.98059124
1.0274156 0.98209023 0.9707906 0.9675875 0.98049515 1.0117059 0.97373694 0.9761085
0.97544247 0.97692525 1.0106977 1.026788 1.0025436 0.9689455 1.0731398 0.96692103
0.99055296 0.9760095 0.9697644 0.9720234 1.0091069 0.9750102 0.97760594 0.97117585
0.9699934 0.9801736 0.9778577 1.126204 0.971922 0.97874457 0.9797415 0.9818372
0.9803215 0.9659756 0.9734329 1.011455 0.9728513 1.1844107 0.9695453 0.97226274
0.98601735 0.9719228 1.1125082 0.97635335 1.022183 1.2026836 1.0059881 0.9981555
0.9809832 0.97210455 0.9738158 0.9745281 0.9846212 0.9787347 0.9737008 0.9766333
0.9917443 0.97554266 1.0213588 0.98177826 0.9959191 1.0385479 0.99459636 0.96902835
0.97338986 0.96521384 1.0207828 0.97392154 0.9811328 1.0162841 0.9773824 0.97791344
1.1330664 0.9776746 0.99014735 0.98338324 0.9718976 1.0227015 1.0121132 0.9707404
0.9796266 0.97787553 0.977985 0.97881997 1.0341396 0.9740622 0.96971136 0.9707155
0.97205484 0.97415984 0.9760729 0.9970782 1.0862479 0.9710619 0.97459906 0.9952445
0.97734964 1.0058483 0.96925294 1.1122665 0.97870475 0.9745858 0.9710571 1.0138898
0.9732544 0.9734731 0.9794735 0.9735158 0.9868317 1.0960666 0.97506684 1.0178318
0.9837648 0.9782428 0.9769107 1.0787565 1.0785577 0.9756009 0.9935766 0.9709378
0.9715285 0.971011 1.0774844 0.9748632 0.9837074 0.9765388 0.97620165 0.9963819
0.97711223 1.013645 0.97365516 0.9750658 0.97986877 0.97194725 0.97109556 0.97756857
0.96993905 0.9661556 0.9797246 0.97755855 1.0363427 0.9712174 1.4748005 0.9787727
0.9761913 0.99689966 0.9889829 0.9705749 0.9832518 1.0007963 0.97204196 0.9686805
0.97246313 0.9820795 0.9679483 0.97158116 0.97322786 1.0089021 0.98894244 0.981217
0.97101516 0.96780133 1.1475326 0.9863709 1.046069 1.0111601 0.9735745 0.9764008
00000000: ee5c 3c3b bf4d d53d afbe 7e3f d9eb 783f
00000010: 071c 783f 792c 793f 6d87 773f 9b54 793f
00000020: c550 7a3f 3233 793f 501d 8a3f f075 783f
00000030: 8ba3 793f 7df5 7a3f 4f2d 7b3f 969d 7d3f
00000040: c7b8 7c3f 5f6f 783f 98c6 7a3f a858 7b3f
00000050: 0269 793f 675a 783f 13b7 7a3f efb0 783f
00000060: b5b3 793f f0df 773f c6bb 7a3f c80b 783f
00000070: d1eb 793f 5014 7a3f ccdd 783f 659a 793f
00000080: ce33 7a3f 79b3 873f 853b 7a3f fa2d 7b3f
00000090: 6389 7d3f 3e3d 793f e23e 7e3f eff7 a33f
000000a0: 7e66 973f 1077 783f c258 803f 6e66 7a3f
000000b0: 99d1 7a3f e5fd 793f e6d2 783f df61 783f
000000c0: 72b8 803f 0079 793f af63 7f3f e1b6 783f
000000d0: 27bb a63f ad7b 783f 7211 7a3f 18e3 7c3f
000000e0: bf7a 7d3f f58c 7e3f 7ad0 793f 8fcc 7e3f
000000f0: 53bc 8f3f 893d 7c3f 3943 783f 4635 7d3f
00000100: 4592 843f 786f 843f 49bd 773f baad 7b3f
00000110: 94a9 793f 367e b13f 8188 783f fcd4 793f
00000120: 020b 7a3f 6c37 793f 9c47 8e3f 3391 783f
00000130: fc58 853f 7807 a93f 7528 783f 78e6 793f
00000140: ade1 783f dd65 7a3f 5695 783f 7de7 793f
00000150: 39fc 783f 9455 793f f914 793f 0708 7b3f
00000160: 5b82 833f 446a 7b3f bc85 783f d0b3 773f
00000170: bb01 7b3f 947f 813f d346 793f 3fe2 793f
00000180: 99b6 793f c617 7a3f 8b5e 813f ca6d 833f
00000190: 5953 803f d00c 783f a55c 893f 2388 773f
000001a0: e194 7d3f c2db 793f 7b42 783f 87d6 783f
000001b0: 6a2a 813f 459a 793f 6244 7a3f fb9e 783f
000001c0: 7d51 783f a8ec 7a3f e254 7a3f 7427 903f
000001d0: e1cf 783f 018f 7a3f 57d0 7a3f af59 7b3f
000001e0: 5af6 7a3f 2d4a 773f e632 793f 5c77 813f
000001f0: c80c 793f c59a 973f 1f34 783f 36e6 783f
00000200: a26b 7c3f efcf 783f ab66 8e3f 4bf2 793f
00000210: e4d6 823f 89f1 993f 38c4 803f 1e87 7f3f
00000220: b721 7b3f d8db 783f fe4b 793f ac7a 793f
00000230: 2310 7c3f 5b8e 7a3f 7544 793f a404 7a3f
00000240: f4e2 7d3f 2abd 793f e3bb 823f d255 7b3f
00000250: 8ef4 7e3f 23ef 843f de9d 7e3f 3e12 783f
00000260: 1430 793f 4118 773f 03a9 823f ec52 793f
00000270: 852b 7b3f 9915 823f bc35 7a3f 8958 7a3f
00000280: 5208 913f e248 7a3f 4c7a 7d3f 01bf 7b3f
00000290: 48ce 783f e2e7 823f ed8c 813f 7182 783f
000002a0: cfc8 7a3f 0d56 7a3f 3a5d 7a3f f293 7a3f
000002b0: b05e 843f 245c 793f 013f 783f d080 783f
000002c0: 96d8 783f 8a62 793f eadf 793f 8440 7f3f
000002d0: 2c0a 8b3f 8397 783f 537f 793f 58c8 7e3f
000002e0: 9633 7a3f a3bf 803f f620 783f c05e 8e3f
000002f0: 658c 7a3f 747e 793f 3397 783f 24c7 813f
00000300: 3327 793f 8835 793f c6be 7a3f 5538 793f
00000310: 01a1 7c3f e94b 8c3f fb9d 793f 5048 823f
00000320: 03d8 7b3f 1f6e 7a3f d216 7a3f b114 8a3f
00000330: 2e0e 8a3f fbc0 793f 095b 7e3f 618f 783f
00000340: 17b6 783f 2d94 783f 02eb 893f a290 793f
00000350: 40d4 7b3f 72fe 793f 5ae8 793f e212 7f3f
00000360: 0724 7a3f 1fbf 813f 7741 793f ea9d 793f
00000370: aed8 7a3f 89d1 783f b899 783f ef41 7a3f
00000380: ed4d 783f f955 773f 3bcf 7a3f 4741 7a3f
00000390: e1a6 843f b4a1 783f 43c6 bc3f d990 7a3f
000003a0: ace7 793f d134 7f3f fc2d 7d3f 9977 783f
000003b0: 64b6 7b3f 181a 803f bed7 783f 72fb 773f
000003c0: 58f3 783f 9069 7b3f 76cb 773f 8bb9 783f
000003d0: 7625 793f b423 813f 552b 7d3f 0a31 7b3f
000003e0: 7394 783f d4c1 773f 59e2 923f ce82 7c3f
000003f0: 97e5 853f b26d 813f 2e3c 793f 67f5 793f

tabnet.initial_splitter.shared.shared_layers.0.weight f4 [96, 1038]
-3.757858e-05 -7.934817e-05 -1.265168e-07 2.2591606e-05 5.3718053e-05 -0.00012368246 4.5884565e-08 3.5800633e-05
8.760281e-05 2.3799318e-07 4.9704275e-05 -7.845163e-06 1.023826e-06 -3.677552e-05 -2.1150974e-05 -0.029661473
-0.0004915821 -9.653794e-05 1.789668e-07 -0.0025252225 -5.029308e-05 -0.019899828 0.00015844773 1.908064e-05
-0.00010880045 -0.00018467322 0.00013820658 5.833242e-05 -7.065765e-05 0.00011882473 3.6943864e-05 5.801312e-05
-0.000109988876 5.2838048e-05 -5.8623323e-06 9.3122035e-05 -6.3740925e-05 6.6115547e-07 -5.3097025e-05 -1.9357733e-05
-1.5850073e-05 6.0923405e-05 -0.12033896 -0.00023085177 -1.9437948e-07 8.1869424e-05 4.29229e-06 -3.586751e-05
-0.00023219734 -7.5265205e-05 0.0017156262 4.581149e-10 -0.07664854 -0.12586625 -6.19189e-08 0.16296254
-1.8871797e-05 -9.34507e-06 -0.0003831147 -0.018664883 8.775397e-05 -6.281395e-10 -0.0004167645 -5.0038764e-08
0.00016746412 5.195732e-05 -0.0030797976 3.356738e-05 -3.965996e-05 -2.6333466e-05 3.910721e-05 -2.6681155e-05
-3.0720003e-05 0.076508306 -5.358984e-06 -1.2676727e-06 1.4602085e-05 -1.0055941e-05 1.662464e-10 0.00054348115
-2.3965129e-05 8.4772955e-07 -8.2712465e-10 -2.0626661e-05 4.390896e-07 7.33123e-05 0.01578572 8.168108e-07
6.227189e-05 -8.648981e-11 0.007689829 5.6515895e-05 -0.00015442091 -0.00014773289 -0.03195849 -0.00017453263
0.00024433772 1.5695441e-05 -7.817488e-05 -3.858425e-06 0.00029524646 1.542887e-05 -0.013782559 1.3310219e-05
-0.00016578022 -1.0117292e-05 -0.0011195604 1.3987407e-05 0.05072796 -4.984169e-05 0.00013340673 4.6663947e-05
2.8966669e-08 0.0007028976 7.37319e-05 0.00017028273 -5.1453044e-05 4.0254864e-07 0.00017341554 -0.00057983
-3.915932e-05 -2.2936305e-05 -0.00014370275 6.41712e-06 -2.312683e-05 6.644969e-05 -0.00011563117 -0.00031686958
0.0028650686 -8.842571e-05 0.00018906294 -2.1848191e-05 -0.00022098169 0.0003613622 -0.000101984035 0.050159123
-0.038656686 -8.939124e-08 -6.3813415e-05 -5.627941e-05 4.043382e-06 -0.000118824486 1.2291545e-07 4.825212e-06
-5.404369e-05 -0.00018594471 -0.0004729891 -1.8858984e-05 -0.00021511776 -0.00010143685 -9.8593664e-05 -6.3069883e-06
2.4857281e-05 9.227146e-05 -0.00013630778 -0.00017145593 -0.00014479047 8.707258e-06 0.00047887285 -1.4606396e-05
0.0001563638 4.6745692e-05 9.079115e-05 0.00029417148 -0.013597103 7.156019e-08 0.000415425 0.003114407
-6.2009836e-05 -0.0003087814 -0.00016081866 -0.0007929153 6.507525e-05 1.0708845e-05 -0.05457151 -7.1987975e-05
-6.113653e-05 -0.00031615022 0.026245369 0.016562644 0.021596735 3.9857105e-06 2.014398e-05 -0.00026143785
-1.8498517e-05 -0.00015609473 8.692015e-05 8.503153e-05 -2.4305564e-06 -1.6515476e-05 -3.8577877e-05 0.012682767
-0.0003069807 -1.3624717e-06 -6.466892e-05 -0.00030961007 0.0011831347 -6.00324e-06 -2.0761856e-06 0.0002313572
0.000101589954 -9.118888e-05 3.6702422e-06 -0.06368984 -0.00013831731 -9.9251854e-05 -5.0237777e-05 -3.861996e-05
9.258509e-06 -2.0939564e-05 0.027910324 2.0972608e-05 -0.00021088333 0.00060853036 0.000122018864 -4.7354293e-05
-4.0464574e-06 0.023944598 -3.6165172e-06 8.431939e-05 3.052355e-05 -0.00017906388 1.6340674e-07 -0.008692006
-0.00016368953 -1.22534e-06 7.886234e-06 -5.8066107e-05 0.00010776307 -0.04489496 -2.4585864e-07 1.2863483e-06
-9.841847e-06 -0.00027301974 4.0999446e-05 0.00030366547 0.000100434874 -0.017159928 -0.0290237 -0.00028091494
1.8502732e-08 -0.00048412572 4.0030493e-05 -8.904939e-05 7.4729585e-05 -9.269148e-07 0.0003838473 -2.1987544e-05
-0.00015412469 4.1838503e-05 0.00019743598 0.03710623 1.9883029e-08 0.00092205 -2.8577128e-05 0.00010177509
00000000: b19d 1db8 b967 a6b8 acd8 07b4 1b83 bd37
00000010: 524f 6138 c2b0 01b9 9d12 4533 a328 1638
00000020: 67b7 b738 118b 7f34 8f79 5038 b89e 03b7
00000030: 656a 8935 6a3f 1ab8 5f6d b1b7 9efc f2bc
00000040: 84dd 00ba 6974 cab8 052a 4034 347e 25bb
00000050: c9f1 52b8 f704 a3bc fd24 2639 5d0f a037
00000060: cc2b e4b8 d7a4 41b9 8ceb 1039 f6a9 7438
00000070: 092e 94b8 8b31 f938 2cf4 1a38 1d53 7338
00000080: d4a9 e6b8 6c9e 5d38 0db5 c4b6 834a c338
00000090: a6ac 85b8 427a 3135 7fb4 5eb8 6a62 a2b7
000000a0: c6f5 84b7 0288 7f38 4674 f6bd cd10 72b9
000000b0: a0b6 50b4 50b1 ab38 7e06 9036 7270 16b8
000000c0: 007a 73b9 b3d7 9db8 ddde e03a f1d9 fb2f
000000d0: e9f9 9cbd 15e3 00be 46f8 84b3 a7df 263e
000000e0: e04e 9eb7 c5c8 1cb7 c9dc c8b9 19e7 98bc
000000f0: 8e08 b838 63a9 2cb0 2f81 dab9 34ea 56b3
00000100: 4f99 2f39 bfec 5938 6ed6 49bb b3ca 0c38
00000110: 8f58 26b8 b0e6 dcb7 0c07 2438 58d1 dfb7
00000120: 5ad9 00b8 63b0 9c3d 52d1 b3b6 e724 aab5
00000130: 7afb 7437 f0b5 28b7 34ca 362f 6778 0e3a
00000140: b908 c9b7 888f 6335 b95b 63b0 6b07 adb7
00000150: 04bc eb34 3ebf 9938 0e51 813c d042 5b35
00000160: f797 8238 6f31 beae f6fa fb3b 7b0b 6d38
00000170: 0cec 21b9 bfe8 1ab9 e8e6 02bd bf02 37b9
00000180: 741a 8039 b4a9 8337 d2f1 a3b8 9e77 81b6
00000190: 4fcb 9a39 3f6d 8137 3ed0 61bc f54e 5f37
000001a0: 4ad5 2db9 70bd 29b7 37be 92ba 75ab 6a37
000001b0: 1fc8 4f3d 1b0d 51b8 19e3 0b39 08b9 4338
000001c0: 61d2 f832 a942 383a 83a0 9a38 ec8d 3239
000001d0: 49cf 57b8 dd1d d834 e1d6 3539 bcff 17ba
000001e0: 003f 24b8 5767 c0b7 eaae 16b9 a452 d736
000001f0: 7d00 c2b7 e85a 8b38 037f f2b8 8421 a6b9
00000200: e0c3 3b3b 3171 b9b8 323f 4639 a246 b7b7
00000210: 52b7 67b9 3775 bd39 43e0 d5b8 a773 4d3d
00000220: 7956 1ebd 5bf7 bfb3 91d3 85b8 8e0d 6cb8
00000230: 63ac 8736 6931 f9b8 befa 0334 41e8 a136
00000240: f8ac 62b8 27fa 42b9 86fb f7b9 5c33 9eb7
00000250: 3c91 61b9 7fba d4b8 12c4 ceb8 9ea0 d3b6
00000260: 9b84 d037 dd81 c138 d7ed 0eb9 dac8 33b9
00000270: e5d2 17b9 6315 1237 3a11 fb39 fe0d 75b7
00000280: 97f5 2339 ce10 4438 2167 be38 073b 9a39
00000290: 62c6 5ebc a1ac 9933 66cd d939 141b 4c3b
000002a0: 470b 82b8 f0e3 a1b9 6ea1 28b9 a5db 4fba
000002b0: 0279 8838 24aa 3337 6086 5fbd 40f8 96b8
000002c0: 6d36 80b8 f7c0 a5b9 8700 d73c 62ae 873c
000002d0: a3eb b03c febc 8536 defa a837 9811 89b9
000002e0: 432d 9bb7 5cad 23b9 e648 b638 f452 b238
000002f0: a41c 23b6 b78a 8ab7 aece 21b8 61cb 4f3c
00000300: 41f2 a0b9 2cde b6b5 dd9e 87b8 2953 a2b9
00000310: 6a13 9b3a 706f c9b6 9954 0bb6 7a98 7239
00000320: b10c d538 a83c bfb8 484e 7636 d26f 82bd
00000330: 4509 11b9 6f25 d0b8 67b6 52b8 defb 21b8
00000340: fe54 1b37 5fa7 afb7 31a4 e43c 55ee af37
00000350: 9020 5db9 c885 1f3a 61e4 ff38 499e 46b8
00000360: cec6 87b6 7627 c43c 4bb3 72b6 a1d4 b038
00000370: 6a06 0038 18c3 3bb9 e774 2f34 ea68 0ebc
00000380: 13a4 2bb9 5d76 a4b5 1e4f 0437 028c 73b8
00000390: dcfe e138 c7e3 37bd 8efe 83b4 97a6 ac35
000003a0: 691e 25b7 1724 8fb9 d2f6 2b38 4a35 9f39
000003b0: 90a0 d238 fa92 8cbc 1cc3 edbc c447 93b9
000003c0: f0ef 9e32 41d2 fdb9 6ae6 2738 07c0 bab8
000003d0: 24b8 9c38 1ad1 78b5 1d3f c939 e471 b8b7
000003e0: 889c 21b9 c07b 2f38 d106 4f39 b4fc 173d
000003f0: 3ecb aa32 bab5 713a eab8 efb7 1670 d538

tabnet.initial_splitter.shared.shared_layers.1.weight f4 [96, 48]
0.24621904 -0.027622813 0.020758936 -0.004828423 0.033432756 -0.034383062 -0.0601892 0.019845761
-0.006249978 -0.049259268 -0.020059561 -0.053041074 0.033981368 -9.576643e-05 -0.059221264 -0.06736667
-0.038580146 -0.012671393 -0.01686932 0.0031589796 -0.01614184 -0.008993577 0.050486017 -0.023467626
0.0005529992 0.00055914 0.00086672505 -0.0083652 0.00014137106 -1.5053869e-05 0.00052697986 -7.5673066e-05
-0.00012731133 -0.0004786808 -3.865461e-05 0.0003211971 1.5611538e-05 0.0032886225 0.004691563 -0.00073338486
0.00017903115 -0.0013842924 0.00079400616 6.456098e-05 4.8047463e-05 5.816275e-05 4.2460448e-05 -7.2071607e-06
-0.028005509 0.35299063 -0.010170962 -0.0059522293 -0.023424188 -0.06018545 -0.12631795 -0.03173835
-0.10445499 -0.017228052 -0.066955276 -0.06580962 0.015819315 -6.528217e-05 -0.037603132 -0.009710762
-0.018451955 -0.07926534 -0.030491695 -0.08435907 -0.065934785 -0.051182203 -0.047280423 -0.09312967
0.00053559785 -0.0005543253 0.0018065415 -0.0070649427 0.00039854005 0.00052385754 -0.003152788 -0.0002295921
-0.000114956754 0.00044463188 2.7176204e-05 0.00014484614 0.0001359173 0.0011707329 0.002682217 0.00013289468
0.00027416568 0.00043233667 -0.00014797518 4.51057e-06 -3.5522444e-05 -0.000589272 -0.00059752236 -5.2881594e-05
0.026240895 -0.012795032 0.014783937 -0.005967867 -0.0046146433 -0.06271797 -0.0021816052 -0.0020335612
0.010631236 -0.023449643 -0.03252218 -0.053148456 -0.02869859 -6.949289e-05 -0.008579535 -0.000976816
-0.008071041 0.015180895 0.005216491 -0.014545862 0.010451014 0.004134491 0.025752319 0.025376413
0.00074077037 -4.3661064e-05 0.0007199055 -0.0006639966 0.0007104855 1.4540403e-06 0.0016981987 -0.001500959
0.0009596171 0.00023510528 0.0013592782 -0.0003877805 0.0011755928 -0.0003720025 -0.0018806756 -0.0013605176
-0.00021801596 -0.0005603116 -0.0019070366 0.00048675176 0.00047643867 0.001025127 -0.00010394193 0.00047891415
-0.0096762385 -0.01563076 -0.0033467195 0.12632295 0.01416774 -0.007972725 -0.008732786 -0.057119384
-0.036274362 0.030417863 0.014045964 -0.008204578 -0.062428195 0.00011322447 -0.036005724 -0.055030014
-0.09040827 -0.032682654 -0.014940263 -0.028285101 0.00024950394 0.04355578 -0.047401093 -0.031098941
0.00031377855 0.0006932368 -0.0003655165 0.00012249903 0.00015135133 7.530718e-05 -0.0033251 6.116209e-05
0.0005827605 8.516225e-05 -0.0003297544 -0.0005825759 -8.527577e-05 -0.0020863188 -0.0012909814 -0.0011285461
-0.00013276027 -0.0034328934 -0.0014965181 -4.7688638e-05 1.0161658e-05 0.00026288655 9.1997055e-05 -2.0572143e-05
0.024268067 0.0010977362 0.0063180164 0.025549896 0.22492811 -0.014608908 0.022976352 -0.063062035
-0.0088057015 -0.006698021 -0.036016203 0.025498271 -0.014831669 -0.0007919418 -0.00225482 -0.06883658
0.03254466 -0.06350954 -0.024827247 -0.03535943 0.054256923 -0.10689143 0.012084324 -0.020566715
0.044178687 -0.031919297 -0.034755427 0.076772355 -0.04263684 0.057044975 0.018332127 -0.094667695
-0.06903 0.026140733 0.019652877 -0.017569395 0.044975523 -0.12421341 0.023257384 0.0025627632
0.016475756 -0.15590389 0.002260508 0.015907237 -0.060475096 0.025199953 -0.065552555 0.03915181
0.01691961 0.016982144 -0.01044322 -0.00679453 0.02588298 0.3650836 -0.038808934 0.056020208
-0.010243317 0.04353663 -0.05629647 -0.031209832 0.000808768 5.3173975e-05 -0.015042663 -0.030355588
00000000: d820 7c3e 3d49 e2bc a50e aa3c bf37 9ebb
00000010: c9f0 083d 41d5 0cbd f388 76bd 9493 a23c
00000020: 9ecc ccbb 16c4 49bd f353 a4bc 9941 59bd
00000030: 0c30 0b3d 36d6 c8b8 ff91 72bd 89f7 89bd
00000040: 3706 1ebd ad9b 4fbc 8731 8abc e206 4f3b
00000050: e43b 84bc cc59 13bc 6dca 4e3d 2e3f c0bc
00000060: 26f7 103a 4093 123a ef34 633a 310e 09bc
00000070: 013d 1439 e08f 7cb7 0525 0a3a abb2 9eb8
00000080: e07e 05b9 73f7 fab9 1221 22b8 5866 a839
00000090: 86f5 8237 ee85 573b afbb 993b a040 40ba
000000a0: 4fba 3b39 2571 b5ba da24 503a ea64 8738
000000b0: 9286 4938 c7f3 7338 8f17 3238 0ad5 f1b6
000000c0: cf6b e5bc 30bb b43e 1ba4 26bc eb0a c3bb
000000d0: 15e4 bfbc 0585 76bd 7e59 01be 1200 02bd
000000e0: 7fec d5bd d821 8dbc d91f 89bd 32c7 86bd
000000f0: 8297 813c 19e8 88b8 be05 1abd e319 1fbc
00000100: 8e28 97bc de55 a2bd b8c9 f9bc 73c4 acbd
00000110: d108 87bd 6ea4 51bd 1ea9 41bd c5ba bebd
00000120: 5d67 0c3a 2450 11ba 79c9 ec3a 0981 e7bb
00000130: 24f3 d039 7c53 093a 019f 4ebb a9be 70b9
00000140: f014 f1b8 7b1d e939 74f8 e337 d7e1 1739
00000150: 0685 0e39 4773 993a 22c8 2f3b a559 0b39
00000160: e5bd 8f39 3fab e239 c929 1bb9 8059 9736
00000170: effd 14b8 6079 1aba 0ca3 1cba 2ecd 5db8
00000180: 25f7 d63c 41a2 51bc 5338 723c 198e c3bb
00000190: 6f36 97bb 4772 80bd 43f9 0ebb 7f45 05bb
000001a0: a32e 2e3c 7719 c0bc fa35 05bd 32b2 59bd
000001b0: 4e19 ebbc b6bc 91b8 2e91 0cbc 8208 80ba
000001c0: 663c 04bc 4ab9 783c 19ef aa3b c451 6ebc
000001d0: bb3a 2b3c a07a 873b 87f6 d23c 32e2 cf3c
000001e0: 4230 423a b620 37b8 0ab8 3c3a 0f10 2eba
000001f0: e03f 3a3a 7228 c335 1896 de3a d4bb c4ba
00000200: d08e 7b3a 9886 7639 cf29 b23a 054f cbb9
00000210: 5916 9a3a 5509 c3b9 0081 f6ba 6553 b2ba
00000220: 379b 64b9 e0e1 12ba 88f5 f9ba b732 ff39
00000230: 84ca f939 8e5d 863a 66fb d9b8 c516 fb39
00000240: 1689 1ebc 140c 80bc a354 5bbb ce5a 013e
00000250: cf1f 683c 08a0 02bc f613 0fbc 04f6 69bd
00000260: 6d94 14bd e22e f93c 0b21 663c 7f6c 06bc
00000270: b5b4 7fbd ed72 ed38 bd7a 13bd 2767 61bd
00000280: f927 b9bd 3fde 05bd 01c8 74bc 28b6 e7bc
00000290: dacf 8239 8c67 323d a627 42bd 35c3 febc
000002a0: a582 a439 56ba 353a cba2 bfb9 1573 0039
000002b0: 10b4 1e39 3cee 9d38 ece9 59bb 2644 8038
000002c0: 65c4 183a 2399 b238 e3e2 acb9 02b8 18ba
000002d0: 15d6 b2b8 9fba 08bb 2636 a9ba b9eb 93ba
000002e0: 9035 0bb9 65fa 60bb d126 c4ba 4905 48b8
000002f0: fd7b 2a37 09d4 8939 8bee c038 5792 acb7
00000300: d3cd c63c eae1 8f3a 5d07 cf3b 044e d13c
00000310: 8e53 663e 345a 6fbc e738 bc3c ab26 81bd
00000320: ca45 10bc 137b dbbb ba85 13bd c0e1 d03c
00000330: 8700 73bc 519a 4fba 9ac5 13bb 31fa 8cbd
00000340: 8d4d 053d 4a11 82bd 8362 cbbc 0dd5 10bd
00000350: 823c 5e3d e5e9 dabd 54fd 453c 877b a8bc
00000360: b6f4 343d cfbd 02bd b55b 0ebd d33a 9d3d
00000370: f8a3 2ebd fea7 693d 422d 963c 23e1 c1bd
00000380: 9a5f 8dbd 1725 d63c 12ff a03c b1ed 8fbc
00000390: 4138 383d 9a63 febd 4586 be3c 08f4 273b
000003a0: 2af8 863c 45a5 1fbe 0825 143b e54f 823c
000003b0: bcb4 77bd 2270 ce3c 6b40 86bd a65d 203d
000003c0: fe9a 8a3c 231e 8b3c 0a1a 2bbc a6a4 debb
000003d0: 8b08 d43c 3dec ba3e 1ef6 1ebd 7275 653d
000003e0: 96d3 27bc 7753 323d 2197 66bd c3ab ffbc
000003f0: 8003 543a 1f07 5f38 8075 76bc 48ac f8bc

tabnet.initial_splitter.shared.glu_layers.0.fc.weight f4 [96, 1038]
-3.757858e-05 -7.934817e-05 -1.265168e-07 2.2591606e-05 5.3718053e-05 -0.00012368246 4.5884565e-08 3.5800633e-05
8.760281e-05 2.3799318e-07 4.9704275e-05 -7.845163e-06 1.023826e-06 -3.677552e-05 -2.1150974e-05 -0.029661473
-0.0004915821 -9.653794e-05 1.789668e-07 -0.0025252225 -5.029308e-05 -0.019899828 0.00015844773 1.908064e-05
-0.00010880045 -0.00018467322 0.00013820658 5.833242e-05 -7.065765e-05 0.00011882473 3.6943864e-05 5.801312e-05
-0.000109988876 5.2838048e-05 -5.8623323e-06 9.3122035e-05 -6.3740925e-05 6.6115547e-07 -5.3097025e-05 -1.9357733e-05
-1.5850073e-05 6.0923405e-05 -0.12033896 -0.00023085177 -1.9437948e-07 8.1869424e-05 4.29229e-06 -3.586751e-05
-0.00023219734 -7.5265205e-05 0.0017156262 4.581149e-10 -0.07664854 -0.12586625 -6.19189e-08 0.16296254
-1.8871797e-05 -9.34507e-06 -0.0003831147 -0.018664883 8.775397e-05 -6.281395e-10 -0.0004167645 -5.0038764e-08
0.00016746412 5.195732e-05 -0.0030797976 3.356738e-05 -3.965996e-05 -2.6333466e-05 3.910721e-05 -2.6681155e-05
-3.0720003e-05 0.076508306 -5.358984e-06 -1.2676727e-06 1.4602085e-05 -1.0055941e-05 1.662464e-10 0.00054348115
-2.3965129e-05 8.4772955e-07 -8.2712465e-10 -2.0626661e-05 4.390896e-07 7.33123e-05 0.01578572 8.168108e-07
6.227189e-05 -8.648981e-11 0.007689829 5.6515895e-05 -0.00015442091 -0.00014773289 -0.03195849 -0.00017453263
0.00024433772 1.5695441e-05 -7.817488e-05 -3.858425e-06 0.00029524646 1.542887e-05 -0.013782559 1.3310219e-05
-0.00016578022 -1.0117292e-05 -0.0011195604 1.3987407e-05 0.05072796 -4.984169e-05 0.00013340673 4.6663947e-05
2.8966669e-08 0.0007028976 7.37319e-05 0.00017028273 -5.1453044e-05 4.0254864e-07 0.00017341554 -0.00057983
-3.915932e-05 -2.2936305e-05 -0.00014370275 6.41712e-06 -2.312683e-05 6.644969e-05 -0.00011563117 -0.00031686958
0.0028650686 -8.842571e-05 0.00018906294 -2.1848191e-05 -0.00022098169 0.0003613622 -0.000101984035 0.050159123
-0.038656686 -8.939124e-08 -6.3813415e-05 -5.627941e-05 4.043382e-06 -0.000118824486 1.2291545e-07 4.825212e-06
-5.404369e-05 -0.00018594471 -0.0004729891 -1.8858984e-05 -0.00021511776 -0.00010143685 -9.8593664e-05 -6.3069883e-06
2.4857281e-05 9.227146e-05 -0.00013630778 -0.00017145593 -0.00014479047 8.707258e-06 0.00047887285 -1.4606396e-05
0.0001563638 4.6745692e-05 9.079115e-05 0.00029417148 -0.013597103 7.156019e-08 0.000415425 0.003114407
-6.2009836e-05 -0.0003087814 -0.00016081866 -0.0007929153 6.507525e-05 1.0708845e-05 -0.05457151 -7.1987975e-05
-6.113653e-05 -0.00031615022 0.026245369 0.016562644 0.021596735 3.9857105e-06 2.014398e-05 -0.00026143785
-1.8498517e-05 -0.00015609473 8.692015e-05 8.503153e-05 -2.4305564e-06 -1.6515476e-05 -3.8577877e-05 0.012682767
-0.0003069807 -1.3624717e-06 -6.466892e-05 -0.00030961007 0.0011831347 -6.00324e-06 -2.0761856e-06 0.0002313572
0.000101589954 -9.118888e-05 3.6702422e-06 -0.06368984 -0.00013831731 -9.9251854e-05 -5.0237777e-05 -3.861996e-05
9.258509e-06 -2.0939564e-05 0.027910324 2.0972608e-05 -0.00021088333 0.00060853036 0.000122018864 -4.7354293e-05
-4.0464574e-06 0.023944598 -3.6165172e-06 8.431939e-05 3.052355e-05 -0.00017906388 1.6340674e-07 -0.008692006
-0.00016368953 -1.22534e-06 7.886234e-06 -5.8066107e-05 0.00010776307 -0.04489496 -2.4585864e-07 1.2863483e-06
-9.841847e-06 -0.00027301974 4.0999446e-05 0.00030366547 0.000100434874 -0.017159928 -0.0290237 -0.00028091494
1.8502732e-08 -0.00048412572 4.0030493e-05 -8.904939e-05 7.4729585e-05 -9.269148e-07 0.0003838473 -2.1987544e-05
-0.00015412469 4.1838503e-05 0.00019743598 0.03710623 1.9883029e-08 0.00092205 -2.8577128e-05 0.00010177509
00000000: b19d 1db8 b967 a6b8 acd8 07b4 1b83 bd37
00000010: 524f 6138 c2b0 01b9 9d12 4533 a328 1638
00000020: 67b7 b738 118b 7f34 8f79 5038 b89e 03b7
00000030: 656a 8935 6a3f 1ab8 5f6d b1b7 9efc f2bc
00000040: 84dd 00ba 6974 cab8 052a 4034 347e 25bb
00000050: c9f1 52b8 f704 a3bc fd24 2639 5d0f a037
00000060: cc2b e4b8 d7a4 41b9 8ceb 1039 f6a9 7438
00000070: 092e 94b8 8b31 f938 2cf4 1a38 1d53 7338
00000080: d4a9 e6b8 6c9e 5d38 0db5 c4b6 834a c338
00000090: a6ac 85b8 427a 3135 7fb4 5eb8 6a62 a2b7
000000a0: c6f5 84b7 0288 7f38 4674 f6bd cd10 72b9
000000b0: a0b6 50b4 50b1 ab38 7e06 9036 7270 16b8
000000c0: 007a 73b9 b3d7 9db8 ddde e03a f1d9 fb2f
000000d0: e9f9 9cbd 15e3 00be 46f8 84b3 a7df 263e
000000e0: e04e 9eb7 c5c8 1cb7 c9dc c8b9 19e7 98bc
000000f0: 8e08 b838 63a9 2cb0 2f81 dab9 34ea 56b3
00000100: 4f99 2f39 bfec 5938 6ed6 49bb b3ca 0c38
00000110: 8f58 26b8 b0e6 dcb7 0c07 2438 58d1 dfb7
00000120: 5ad9 00b8 63b0 9c3d 52d1 b3b6 e724 aab5
00000130: 7afb 7437 f0b5 28b7 34ca 362f 6778 0e3a
00000140: b908 c9b7 888f 6335 b95b 63b0 6b07 adb7
00000150: 04bc eb34 3ebf 9938 0e51 813c d042 5b35
00000160: f797 8238 6f31 beae f6fa fb3b 7b0b 6d38
00000170: 0cec 21b9 bfe8 1ab9 e8e6 02bd bf02 37b9
00000180: 741a 8039 b4a9 8337 d2f1 a3b8 9e77 81b6
00000190: 4fcb 9a39 3f6d 8137 3ed0 61bc f54e 5f37
000001a0: 4ad5 2db9 70bd 29b7 37be 92ba 75ab 6a37
000001b0: 1fc8 4f3d 1b0d 51b8 19e3 0b39 08b9 4338
000001c0: 61d2 f832 a942 383a 83a0 9a38 ec8d 3239
000001d0: 49cf 57b8 dd1d d834 e1d6 3539 bcff 17ba
000001e0: 003f 24b8 5767 c0b7 eaae 16b9 a452 d736
000001f0: 7d00 c2b7 e85a 8b38 037f f2b8 8421 a6b9
00000200: e0c3 3b3b 3171 b9b8 323f 4639 a246 b7b7
00000210: 52b7 67b9 3775 bd39 43e0 d5b8 a773 4d3d
00000220: 7956 1ebd 5bf7 bfb3 91d3 85b8 8e0d 6cb8
00000230: 63ac 8736 6931 f9b8 befa 0334 41e8 a136
00000240: f8ac 62b8 27fa 42b9 86fb f7b9 5c33 9eb7
00000250: 3c91 61b9 7fba d4b8 12c4 ceb8 9ea0 d3b6
00000260: 9b84 d037 dd81 c138 d7ed 0eb9 dac8 33b9
00000270: e5d2 17b9 6315 1237 3a11 fb39 fe0d 75b7
00000280: 97f5 2339 ce10 4438 2167 be38 073b 9a39
00000290: 62c6 5ebc a1ac 9933 66cd d939 141b 4c3b
000002a0: 470b 82b8 f0e3 a1b9 6ea1 28b9 a5db 4fba
000002b0: 0279 8838 24aa 3337 6086 5fbd 40f8 96b8
000002c0: 6d36 80b8 f7c0 a5b9 8700 d73c 62ae 873c
000002d0: a3eb b03c febc 8536 defa a837 9811 89b9
000002e0: 432d 9bb7 5cad 23b9 e648 b638 f452 b238
000002f0: a41c 23b6 b78a 8ab7 aece 21b8 61cb 4f3c
00000300: 41f2 a0b9 2cde b6b5 dd9e 87b8 2953 a2b9
00000310: 6a13 9b3a 706f c9b6 9954 0bb6 7a98 7239
00000320: b10c d538 a83c bfb8 484e 7636 d26f 82bd
00000330: 4509 11b9 6f25 d0b8 67b6 52b8 defb 21b8
00000340: fe54 1b37 5fa7 afb7 31a4 e43c 55ee af37
00000350: 9020 5db9 c885 1f3a 61e4 ff38 499e 46b8
00000360: cec6 87b6 7627 c43c 4bb3 72b6 a1d4 b038
00000370: 6a06 0038 18c3 3bb9 e774 2f34 ea68 0ebc
00000380: 13a4 2bb9 5d76 a4b5 1e4f 0437 028c 73b8
00000390: dcfe e138 c7e3 37bd 8efe 83b4 97a6 ac35
000003a0: 691e 25b7 1724 8fb9 d2f6 2b38 4a35 9f39
000003b0: 90a0 d238 fa92 8cbc 1cc3 edbc c447 93b9
000003c0: f0ef 9e32 41d2 fdb9 6ae6 2738 07c0 bab8
000003d0: 24b8 9c38 1ad1 78b5 1d3f c939 e471 b8b7
000003e0: 889c 21b9 c07b 2f38 d106 4f39 b4fc 173d
000003f0: 3ecb aa32 bab5 713a eab8 efb7 1670 d538

tabnet.initial_splitter.shared.glu_layers.0.bn.bn.weight f4 [96]
0.002927664 0.004250122 0.028955813 0.04047247 0.6371755 0.0005585686 0.10870567 0.19991924
0.04940491 0.0048152725 0.0076721986 0.020161554 0.07735439 0.015049924 0.062102567 0.03074716
-0.0018539784 0.33164266 0.054229964 0.25456998 0.22716741 -0.0077001643 0.005146147 0.07849486
0.45234698 0.49008957 0.4372874 0.5023908 0.49312502 0.4745198 0.45631653 0.47278515
0.44070607 0.31131083 0.43944934 0.4543726 0.44225997 0.5303427 0.44493157 0.39470953
0.34469035 0.5307006 0.5503251 0.44498843 0.40431187 0.4242921 0.38513336 0.25346404
4.8740485e-06 4.578296e-06 9.497264e-05 0.0006263671 0.4238851 1.591741e-05 0.01140749 0.0051192883
0.0008870652 1.0834216e-05 -2.6111888e-05 0.00034961515 -0.007653675 9.880985e-08 -0.0003937563 -0.0006295507
-5.6694284e-07 0.12551068 0.0028213118 -0.0026690706 5.608982e-05 -0.0001025485 -1.551522e-05 0.0004086587
0.2019641 0.27473858 0.18608166 0.5756565 0.1473975 0.1332326 -0.108190335 0.24941291
-0.02776402 -0.27312422 0.13572404 0.3488448 0.17157324 0.31268406 0.31916836 0.23078494
0.05097833 0.29536042 0.079258665 0.42512932 0.3176723 0.30586517 0.18669485 -0.19083013
00000000: 0dde 3f3b 9b44 8b3b be34 ed3c 76c6 253d
00000010: ef1d 233f e76c 123a 14a1 de3d a1b7 4c3e
00000020: ce5c 4a3d 6fc9 9d3b 1167 fb3b d829 a53c
00000030: fa6b 9e3d f593 763c 435f 7e3d 78e1 fb3c
00000040: 3101 f3ba 11cd a93e 3d20 5e3d ff56 823e
00000050: 939e 683e a951 fcbb 03a1 a83b eac1 a03d
00000060: 069a e73e 05ed fa3e 22e4 df3e af9c 003f
00000070: e27a fc3e 42f4 f23e 52a2 e93e e510 f23e
00000080: 3aa4 e13e 2264 9f3e 81ff e03e 87a3 e83e
00000090: e66f e23e 8ac4 073f 12ce e33e 5e17 ca3e
000000a0: 417b b03e ffdb 073f 1be2 0c3f 86d5 e33e
000000b0: f701 cf3e d03c d93e 3330 c53e 0ac6 813e
000000c0: c28b a336 439f 9936 0c2c c738 c932 243a
000000d0: 7807 d93e 6186 8537 7be6 3a3c b4bf a73b
000000e0: f089 683a 9ac4 3537 da0a dbb7 8d4c b739
000000f0: aecb fabb 4a31 d433 1371 ceb9 6f08 25ba
00000100: 0430 18b5 df85 003e c2e5 383b 93eb 2ebb
00000110: fc41 6b38 4f0f d7b8 ae26 82b7 3e41 d639
00000120: adcf 4e3e 89aa 8c3e 318c 3e3e 395e 133f
00000130: 5fef 163e 206e 083e e592 ddbd 1966 7f3e
00000140: 5f71 e3bc f0d6 8bbe 3efb 0a3e c99b b23e
00000150: e5b0 2f3e 2018 a03e 096a a33e e352 6c3e
00000160: a7ce 503d 7b39 973e 5e52 a23d 8daa d93e
00000170: f2a5 a23e 5c9a 9c3e ef2c 3f3e f968 43be
