cv_steps/tabnet_raw_step1_fold3_3/network.pt (torch, 682379 bytes, 56 tensors)

embedder.embeddings.0.weight f4 [3, 1]
00000000: 501c b633 d56f 7ab6 0e30 8a35
8.4801854e-08 -3.7317998e-06 1.0295787e-06

embedder.embeddings.1.weight f4 [2, 1]
00000000: 526d 37bd 6e77 373d
-0.04478199 0.04479163

tabnet.initial_bn.weight f4 [1038]
00000000: a398 cfb8 67a5 0abe af89 06bd f322 273d
00000010: e4d6 423e 9921 aebb 929a c13c c326 6b3d
00000020: 9abb 323b 00bd 4a3a c19e 973e 387e 3fb8
00000030: c9f3 753d 3b99 3e3e 8f6b 1b3e 9ee7 d33d
00000040: 13e4 223e c937 1d3e 9a1a 3f3e 445e 683d
00000050: 81ba 033d 2c58 153e f1f4 4f3e 82dd 243e
00000060: 590d 6a3e 269f 133e 9a63 1f3e ca19 3a3e
00000070: d58c c63d f5cc d33d 6c55 1f3e a02d 83bc
00000080: 0d28 2f3e 3b50 fabb 861f 01bd e90d 5a3e
00000090: b116 593e 5583 4b3e 650b c93c f751 3d3e
000000a0: 8f7b be39 1791 373e cd0b 223d 5f00 2a3e
000000b0: d0b6 1fbd d78a 133a 3f21 063e 55cd b83d
000000c0: 7d52 243d 7131 6b3e b978 573e 3b0f 673d
000000d0: d160 fd3d 6670 1f3e e88a 703d 3100 d9bb
000000e0: 3f32 223e a4eb 833d 9efe c53d 5716 6d3e
000000f0: 0bb8 183e fc07 fe3a 6f59 9c3e 126a e43b
00000100: a144 823e eb06 863d 157f eb3b f745 433e
00000110: 3cc1 b83d 0588 913c a451 8d3e aa2e f63d
00000120: c760 3a3e 1f3f b03d 2dab c93d a5af 7e36
00000130: 0946 8abd 279e c53e 3483 9c2c 8644 7c3d
00000140: 6a70 cc3d 39b4 14bd 52fd c23c 003e 213e
00000150: f4b1 b33d 87f3 29ba 58e8 023d 2a7d 0e3e
00000160: 5582 2a3e 5a5d b13d 68ca 013e 1f2a 0e3d
00000170: 5e60 7a3e 3487 773e 598b 493e e1d0 703d
00000180: ae5f 453e 95a3 9e3d e7f0 1d3e 83b9 003d
00000190: 2d64 173e 8f9a 123e ab9c a23e 38a4 22bd
000001a0: 0156 453e 1fda 4f3e fca7 103e 6e75 003e
000001b0: 876c 143e c268 e33d 66be c33c 58da 5d3e
000001c0: 7633 e93d 40d2 cb3d 1424 153e f897 91bb
000001d0: 8265 e53d 43eb d63c 131d 183e 8ba4 8e3e
000001e0: 0898 293e 47de 33bd 12dc 3e3e 643f 90bd
000001f0: cca8 283e 9457 273e d970 323e 9522 083e
00000200: 9a8b c13d ac9a 343e 7e45 4b3e f3dc 573e
00000210: 1664 1f3e 1e0b 3d3e fa55 633a f25b 0d3e
00000220: 53ba f83d 83e4 b83d 9462 2b3e 9d95 1b3e
00000230: 1fa0 043e 689a 9b3d 4b09 2035 433e 5c3c
00000240: eb51 4f3e cbbb e03d efd4 073e 3e54 20be
00000250: f70c 5f3e c04f 593e 1c00 4f3e 7081 743e
00000260: 6341 ad3b 9e29 0f3e bded 393e 4638 9b3d
00000270: 35ac 083e a52c 0d3b 9553 833e bb5b b63e
00000280: 90e0 c13e dc13 be3d 7959 2e3e 3997 9fbd
00000290: aeb7 403e db31 bb3d 3c63 483e 963e df37
000002a0: 037b 873e b158 4c3e a67e 25bd e6d1 983e
000002b0: 5996 f83d 7a90 df3c b964 393e 3e70 8a3e
000002c0: 24fc 103e e929 ad3e f047 a03d 61b9 ca3b
000002d0: d621 413d 6ba3 bc39 b269 143e 0ae0 4b3e
000002e0: 7e10 8e3c 5044 1f3e e91e 71b9 fcd6 c13d
000002f0: 7da4 8538 e551 343e 97e3 1b3e 9535 333e
00000300: 6fcc ca3d d8fc 563c 959f 1e3e 2811 2eb8
00000310: 936b ee3d 326e bf3d 6b14 c03c cd29 333e
00000320: 0143 1b3e 1efa ae3c 278b ff3b 5238 113e
00000330: 09b2 a03e 14ae a63e f22b 173b 9fd5 173e
00000340: d0a7 04be fd28 553e 1c45 813e f417 253e
00000350: d672 7c3e 4129 313e 0a8d e53d 34b4 073e
00000360: b20c 443a 91f9 6e3c 318d 2c3e d2e1 7b3e
00000370: e843 263e 296a 5b3d a628 903d 465f 413e
00000380: 84d7 ff3d 89e6 703d 8679 9d3d c17b f93d
00000390: 499e b33c 2497 343d 4d1d 88bb ca9e b53d
000003a0: cfb3 bab8 acf7 823e f69d 963d ce6a 3c3e
000003b0: 9c6d 493e 470a 553e cec7 d3bc d353 303e
000003c0: 3028 783d 479f 083e 9405 273e 9660 993e
000003d0: 69ee 493e 8d49 a33d a0a6 c43d 5285 8336
000003e0: 42f1 443c e077 e83d c537 883e 5469 373e
000003f0: 294b 253e 3d20 123d 896b c03b d5ed b4bc
-9.89896e-05 -0.13539658 -0.03284615 0.040804815 0.19027287 -0.0053140637 0.023633275 0.057410013
0.0027272464 0.00077338517 0.29613307 -4.56555e-05 0.060046945 0.1861314 0.15177749 0.10346912
0.15907316 0.15353312 0.18662491 0.056730524 0.032160286 0.14584416 0.20308281 0.16100124
0.22856654 0.14416179 0.15565339 0.181739 0.0969483 0.10341827 0.1555993 -0.016012967
0.17105122 -0.0076389587 -0.031524204 0.21294369 0.21200062 0.19874318 0.024541566 0.18488298
0.00036331682 0.17926441 0.039562035 0.16601704 -0.038992703 0.0005628294 0.1309862 0.09023539
0.04011773 0.22968079 0.21042146 0.05641101 0.12371982 0.1557022 0.05872622 -0.0066223373
0.1583948 0.06441429 0.09667705 0.23153053 0.14913957 0.0019381042 0.30536982 0.0069706524
0.25442985 0.06544288 0.00718678 0.19069658 0.090212315 0.017765054 0.2760135 0.12020619
0.1820098 0.086057894 0.09847102 3.7951188e-06 -0.067516394 0.38597223 4.448353e-12 0.061588787
0.09982379 -0.036304686 0.023802433 0.15746307 0.08774176 -0.0006483127 0.03195986 0.13914934
0.1665128 0.086603835 0.12674868 0.03470814 0.24450824 0.2417267 0.19682063 0.058792952
0.1927478 0.077460445 0.15423928 0.031426918 0.14784308 0.14316772 0.31760153 -0.039707392
0.19271089 0.2029805 0.14126581 0.12544796 0.14494525 0.11103965 0.0238945 0.21665323
0.113867685 0.099522114 0.14564544 -0.004443165 0.11201002 0.026235228 0.14854841 0.2785991
0.16561902 -0.043913152 0.18638638 -0.07043341 0.16470641 0.16342002 0.1742586 0.13294442
0.09450455 0.17637128 0.19850728 0.21080379 0.15565524 0.18461272 0.00086721743 0.13804606
0.121449135 0.0902796 0.16736823 0.15193792 0.12951706 0.0759781 5.961817e-07 0.013442579
0.20246093 0.10973319 0.13264821 -0.15657136 0.2178229 0.21221828 0.20214885 0.23877501
0.0052873357 0.1398072 0.18157096 0.07579093 0.13346942 0.0021541503 0.25649706 0.3561686
0.3786664 0.092811316 0.17026319 -0.07792515 0.18820068 0.091403686 0.19569105 2.6612815e-05
0.26461038 0.19955708 -0.040403984 0.2984764 0.121380515 0.027290571 0.18104829 0.2703876
0.14158684 0.33821037 0.07826221 0.0061866497 0.04715141 0.0003597991 0.14493445 0.19909683
0.017341848 0.15553403 -0.00022995066 0.09464833 6.3725725e-05 0.17609365 0.15223537 0.17500909
0.09902274 0.013121806 0.15490563 -4.150081e-05 0.11641612 0.0934719 0.023447236 0.17496414
0.15162279 0.0213595 0.0077985707 0.1418164 0.3138583 0.32554686 0.0023066965 0.14827584
-0.1295464 0.20816417 0.2524804 0.16122419 0.24653181 0.17300893 0.11208542 0.13252336
0.00074786984 0.014585868 0.16850735 0.24597862 0.16236842 0.05356804 0.07039003 0.18884
0.12492278 0.058813605 0.076891944 0.12181807 0.021926062 0.04408945 -0.0041538836 0.08868177
-8.902663e-05 0.25579584 0.073543474 0.18400118 0.19670719 0.20804702 -0.02585211 0.17219476
0.0605852 0.1334201 0.16310722 0.29956502 0.19719853 0.07973013 0.09602094 3.9196248e-06
0.012020411 0.11350989 0.2660505 0.17911273 0.16141953 0.035675276 0.005872194 -0.022086063

tabnet.initial_bn.bias f4 [1038]
00000000: 8f13 8e30 9c8d 2fb8 9923 3db6 3038 47b8
00000010: 13c6 c2ba 8c3a e13e 27d1 c1b7 8352 6f38
00000020: 45c1 6536 84cf e335 8084 cf38 6eb3 d6b1
00000030: 70b5 54b4 8857 2cb9 f7a7 3a39 47c2 73be
00000040: c28d a0b8 dd35 e737 d7d6 4d3a ff99 f337
00000050: bf1a ba3e e28b 8538 fbc4 b439 6fcb c337
00000060: ed20 113e dd88 c43d c27a 9338 d418 af38
00000070: cfcb b635 0205 39b9 367f 1e39 e812 3ebf
00000080: ff28 e33a 07ce 6b3e 5c09 a1be 4c5e 26b9
00000090: 4d66 0139 6224 a3bd 1353 74be 85ba f738
000000a0: 631d bb35 de05 28b8 ec10 afb7 febe a839
000000b0: 1ca4 0eb8 550e 9a35 1223 a3b8 db7e 4538
000000c0: 4919 be37 0ac3 c7b9 df2e 18b8 41ec c435
000000d0: 6548 973e 3f3e 3eb9 a97b e137 9216 8dbe
000000e0: acdc 51b9 956b 0039 c1cb be3e 2b2a 83b8
000000f0: ef35 af38 d233 4435 76c7 4a36 6cce 82b8
00000100: 0021 2039 c4ce 9239 cb6e 2837 96c1 65b9
00000110: 6e23 b1be c34b 0637 6cab 32ba 71fd fbb8
00000120: 5695 c838 0353 2e38 d13f 5338 5201 59b2
00000130: 43e2 2739 8f65 253a 6c77 d0a6 d471 cd38
00000140: 97db 0eb8 1cc9 da35 e20e beb5 5b81 46b7
00000150: 3b8a e7be b170 deb5 621d 8a37 778f 01ba
00000160: 36a3 43b9 8252 8939 ec1b 13b9 ad99 f937
00000170: 9d30 0aba e50c 2cba 2cdd 81b7 e784 1f38
00000180: 99b0 2239 8269 95b8 d9bf b437 d6d1 9c37
00000190: 70ac e236 0a2f 3bb9 af81 18b8 ae2c 27b7
000001a0: 8394 59b9 96b6 47b9 9a4f 70b8 7d83 b2b8
000001b0: 967c edb8 0bbc dc38 0681 69b9 e901 1237
000001c0: d389 0e39 1931 f3be c438 6e37 7e43 f438
000001d0: e4dc 84b7 bef7 b9b8 f858 55b9 7f55 2e38
000001e0: c677 1bba 471c 9d37 a368 b4b7 1c94 8138
000001f0: 7cbe 4a38 35c4 dbb8 8ac8 6dbe 4ffc 8b39
00000200: 904b d1b7 fd6b 1439 511d 3fb9 6134 41b9
00000210: 3ec5 9938 e1ff e1b8 31a6 5a33 6122 8138
00000220: 82f5 aa38 b219 20b9 15db 07b8 88bc 793a
00000230: 50e9 9cb8 22c9 10b9 367e 6530 fa09 a537
00000240: dae7 65b8 0deb 193a ee5a c8be b5ab 8837
00000250: f37b 41b9 4174 8cb8 eb41 c8b8 a83c 61b7
00000260: ce26 4bb6 7633 02b8 9403 6339 fdf7 3b38
00000270: e410 2636 fe3e 21b6 086f 9b39 46bc 94bc
00000280: b3e1 d7b8 d2ce 3439 3b43 3c3a 9f9d 0eb9
00000290: 8b87 eeb8 46c6 6c38 37e0 91b9 fb62 dcb3
000002a0: c0aa 97b8 5cb2 77ba 1e50 e0b7 777d c3bd
000002b0: 3958 4ab9 d718 1c37 62c8 09be ffa0 b339
000002c0: ca39 9cb8 6b76 7f3e c1fe 94be b81b a7b8
000002d0: c1b8 933e db43 8734 70a9 e237 0def 45b9
000002e0: cd3d 8138 0c29 5938 7b2a 0e35 f505 c339
000002f0: 78d6 b033 6e0d adb8 72af 1339 2273 5e39
00000300: 14f9 0a39 4c0e 3e37 8adb c7b5 a49d 2734
00000310: 18bf 6ab8 ae8d 1b39 6fa3 1ab8 62f4 54b8
00000320: 39e5 5b3e 3524 0fb7 186e e936 6561 52b7
00000330: a467 62b9 d6e8 0a39 e834 5ab7 9fd8 f2b8
00000340: d120 e437 d7d7 2ab9 1e78 ceb8 0122 c8b8
00000350: 8c95 7e37 955a bb35 94d4 a6b8 d41d 9db8
00000360: 3a1a 9635 6cf8 9ab7 2c5f f4b8 7aa9 0cb9
00000370: b499 70b8 1590 8e37 6bcc a03e 50c2 c435
00000380: a314 1e37 8365 c6b9 d778 c236 4363 4cb8
00000390: 2cb6 0e37 6f03 42b9 e697 b336 1ab5 84b8
000003a0: 8e5f 3132 0749 cd38 aa6a 2eb9 4b8f 03b9
000003b0: 5fcc deb9 9921 06b9 b046 7ab5 6dd9 9138
000003c0: 7e4c 4239 cefe 12b9 94e2 0539 ad07 1337
000003d0: 2a7e dcb8 c65f 3a3e 3eae 2637 0032 9831
000003e0: 7146 5ab8 3392 7fb8 e67a ef3c 8aa4 a1b7
000003f0: e53c c439 416a bdb8 1d8c 86b5 5fbc 9b36
1.0337419e-09 -4.1855135e-05 -2.8183915e-06 -4.7497626e-05 -0.0014860056 0.4398998 -2.3104787e-05 5.7058885e-05
3.4236157e-06 1.6973213e-06 9.895209e-05 -6.2486185e-09 -1.9810045e-07 -0.00016435806 0.00017800914 -0.2380458
-7.655799e-05 2.7562428e-05 0.0007852143 2.9039567e-05 0.3634853 6.3679894e-05 0.00034479037 2.3340543e-05
0.14172716 0.09596417 7.032372e-05 8.349275e-05 1.3619373e-06 -0.0001764484 0.00015115444 -0.742476
0.0017330943 0.23027812 -0.31452453 -0.00015866122 0.00012340509 -0.07965924 -0.23859815 0.0001181262
1.3941138e-06 -4.0059786e-05 -2.0869506e-05 0.00032185757 -3.4008277e-05 1.1478065e-06 -7.778978e-05 4.7086603e-05
2.266154e-05 -0.00038101553 -3.6283276e-05 1.4671897e-06 0.2954742 -0.00018143 2.6879674e-05 -0.27556282
-0.00020014 0.00012247109 0.37264827 -6.254421e-05 8.354696e-05 7.30911e-07 3.0216447e-06 -6.237332e-05
0.00015271083 0.00028001342 1.0039376e-05 -0.00021911258 -0.34597343 8.004662e-06 -0.0006815705 -0.0001201582
9.564559e-05 4.1562143e-05 5.0365754e-05 -1.2631363e-08 0.0001601065 0.0006309384 -1.4465269e-15 9.796364e-05
-3.4059947e-05 1.6300796e-06 -1.4160435e-06 -1.1831838e-05 -0.4522265 -1.6573086e-06 1.6464564e-05 -0.00049423374
-0.0001865745 0.0002619215 -0.00014029414 2.9754674e-05 -0.0005271526 -0.0006563201 -1.548099e-05 3.803233e-05
0.00015515312 -7.124526e-05 2.1547008e-05 1.8694362e-05 6.755399e-06 -0.00017851233 -3.63604e-05 -9.9643785e-06
-0.00020750058 -0.00019046137 -5.7294594e-05 -8.512193e-05 -0.000113242466 0.00010525443 -0.00022268677 8.702723e-06
0.00013593519 -0.47498396 1.4199122e-05 0.00011647398 -1.5838486e-05 -8.867633e-05 -0.00020346406 4.1564457e-05
-0.00059306284 1.8729026e-05 -2.1506397e-05 6.178787e-05 4.8337955e-05 -0.0001047928 -0.23221031 0.0002670013
-2.4949928e-05 0.00014154609 -0.000182261 -0.00018425427 7.332348e-05 -0.00010776497 5.090823e-08 6.157603e-05
8.151961e-05 -0.00015268361 -3.2390544e-05 0.00095266895 -7.4821175e-05 -0.00013807838 8.348907e-10 1.9674178e-05
-5.4813783e-05 0.0005871512 -0.39131874 1.629242e-05 -0.00018452089 -6.697374e-05 -9.549021e-05 -1.3425168e-05
-3.0271945e-06 -3.1042342e-05 0.0002164974 4.481523e-05 2.474576e-06 -2.4027536e-06 0.00029646629 -0.018156182
-0.00010294039 0.00017243184 0.0007181649 -0.00013600894 -0.00011373971 5.645144e-05 -0.00027823608 -1.0262553e-07
-7.232046e-05 -0.000944888 -2.6740188e-05 -0.09545415 -0.00019297087 9.304108e-06 -0.13455346 0.00034261492
-7.449424e-05 0.24947517 -0.29100612 -7.9683436e-05 0.28851894 2.519508e-07 2.70202e-05 -0.00018876437
6.1627106e-05 5.177506e-05 5.296094e-07 0.00037197737 8.23465e-08 -8.251784e-05 0.00014084371 0.0002121446
0.00013253494 1.1328211e-05 -1.489055e-06 1.5610436e-07 -5.5967917e-05 0.00014834732 -3.686867e-05 -5.0772338e-05
0.2147416 -8.531894e-06 6.9567577e-06 -1.2539652e-05 -0.00021591649 0.00013247444 -1.3006131e-05 -0.00011579808
2.7195e-05 -0.0001629287 -9.845219e-05 -9.543077e-05 1.5174399e-05 1.3958949e-06 -7.9550926e-05 -7.491899e-05
1.1183504e-06 -1.8473911e-05 -0.00011652554 -0.00013414575 -5.7363606e-05 1.6994813e-05 0.3140596 1.465969e-06
9.422339e-06 -0.00037841135 5.795718e-06 -4.8729835e-05 8.506275e-06 -0.00018502561 5.352299e-06 -6.327983e-05
1.0324483e-08 9.788764e-05 -0.00016633669 -0.00012546514 -0.00042495408 -0.00012791752 -9.323512e-07 6.9546375e-05
0.00018529777 -0.00014018567 0.00012768275 8.76367e-06 -0.000105139174 0.18200597 9.93494e-06 4.4294666e-09
-5.2040854e-05 -6.0932896e-05 0.029233407 -1.9269315e-05 0.00037429403 -9.0320136e-05 -1.0024556e-06 4.6412893e-06

tabnet.initial_bn.running_mean f4 [1038]
00000000: ae05 00b7 4ef2 13bb 76af e53b c245 b63a
00000010: 9f39 85bb f10e f73a a527 faba cb2f 94bb
00000020: 7746 adbb dba8 443b 27f9 8fbc d99e 263a
00000030: 4ad0 c7b9 0b08 773b 0f54 2c3b 1af6 1d3b
00000040: a8cc 8d3a 04b5 93ba 6d32 c3bb 004d baba
00000050: d1e8 d3ba 245f 8cbb bb5f 8abb caac 2cbb
00000060: dea4 a2ba 2a0a 8bbb 4f92 0c3a a191 783b
00000070: a0b6 4939 2ada 92bb 21a5 0abb 0522 68ba
00000080: 78e1 fdba 80a5 133c 1c57 bbb9 8499 2fbb
00000090: 2190 263b e383 5738 5a38 8fbb 7cf2 2ebd
000000a0: 20d4 db3c 126f f8ba 1b8b eebb 69db 1ab9
000000b0: 5127 84b8 9cb2 3cba 87f8 473b ce6c 75ba
000000c0: 9291 e23b 1c34 3dba e7ac 513b 6a65 283b
000000d0: 1fe3 50bd 22f2 9bbb f737 9339 52c8 993b
000000e0: 7611 033b 14a2 9ebb e762 9a3b cac0 5d3b
000000f0: aa1e a0bc abea 22bb 754e bb3b e61f 54bb
00000100: 2b3f ecbb 79aa 09bc 810d b238 3aee 9d3b
00000110: e1c5 61ba f31c 4ebd 8554 013a 2f36 033b
00000120: f21a 03bb cc27 aabb 096a 9cbc 931e c43b
00000130: 6dba 973b 1394 2dbd 767b 0dbb 484a cd3a
00000140: 1f1b feb9 b959 473b 9bc3 1dbb db7d 0d3b
00000150: 8fb0 9bba 1cc4 383a 98c5 943a dec3 55bb
00000160: abcd f33b 34a5 593a 2455 9e3a 5d4d 263b
00000170: ad30 ab3b 10ee be39 be0e 04bb 2bfd a5ba
00000180: 3a5d 96ba 3250 29bb 65e8 67bb 762a 043c
00000190: eafa 52bb 2147 f5ba e44c a43c 399d bdbb
000001a0: d9f6 8e3b add7 233a 1887 ef3a b4bc af3b
000001b0: 65d2 b93b 6fdf 6aba 6718 38bb 34db 253b
000001c0: d553 1dbb 8834 4fbb 433e 8b3b 0b63 84bc
000001d0: 7923 333b aa47 713a 0f8f 6e3b 4620 c73b
000001e0: 45c4 6a3b 5af1 8bbb dc2d 0c3c bd4e 5abb
000001f0: c76c fdba ad1f e23c 40a1 26ba f274 0b3b
00000200: d3bf a839 d579 d8ba 0f19 b5bc 3daa 23ba
00000210: 7743 063c 2d23 0a3d 077e d73b e7cf 1cbb
00000220: 8fa0 9fbb a33c a13a 2a8e 3e3a 9ab5 663b
00000230: e2ad 0ab7 165c 723a 4bad 8a3b 4970 4f3a
00000240: c1ab 0a3a 8b78 803b c52c 0b3c 15fa 483b
00000250: 580b 5b3b 24fb 9a3b bf7a f93b b0aa baba
00000260: 7312 fdba f63f 9d3b 8173 21bc 3d83 d7ba
00000270: 2004 2cba bff2 093b 5ca6 eb3a 5020 823b
00000280: ab6f ad3c 4d95 c739 7cef 38ba 6d8e 63bb
00000290: e0e4 99ba a00c 8f3b 127a 7d3b 41e7 a1ba
000002a0: a358 81ba 362a 233b cce8 b63a 00f8 b03b
000002b0: dedf 2b3c cc49 503a 2326 533b 7b54 793b
000002c0: 3f30 f3ba c491 02b9 acee 423a c770 cb3a
000002d0: 33c0 8dbb e6df ebba 82f9 873a 3129 923b
000002e0: 7275 fb3a 9b6b 09bc f12a cbba cbb5 c6bc
000002f0: b1d5 aebb 0355 6d3b c16e 21ba 8e0c 49bb
00000300: 1d29 003b 522a 28bb 22a3 5d3b cde8 0d3a
00000310: 6c09 0ebb e34b 50bc 958f abbb 3675 f83b
00000320: f435 9839 c5fb 0bbb e31d 29bb ee8e 7f3c
00000330: d08d 92bc 6bd7 2e3a 37d1 41bc 866f 14bc
00000340: bd60 1abb 5e6f 983b c625 223c 314e 7f3a
00000350: 9bd5 013b b8de 31bb a780 7f3b a5f9 5a3b
00000360: 5c4c ce3b 0f7c a23b ad60 d53a d0c9 e83b
00000370: ae51 80bb 9f0d 98ba ee0e ca3a ab23 91ba
00000380: 2ea8 0939 f815 8bbb c8b9 1aba ed08 28bb
00000390: 7309 383c 7000 97ba 8919 82bd 1a55 893b
000003a0: 7257 44bb a087 9cbb ed99 743b 786a 9c3b
000003b0: 985c 85bb 5c5c 003c f295 ffba 715d efba
000003c0: a4f0 05bb 6fba 58bb 83c7 f03a 3f33 c7ba
000003d0: 1025 d63a ff67 0a3b 072a 4c3b 4ed5 873b
000003e0: d0e6 77ba 93f1 e039 375c b73c 55b9 323b
000003f0: a619 59bc a43e 193c 1555 f6bb f62e 64ba
-7.630717e-06 -0.0022574845 0.007009442 0.0013906287 -0.004065707 0.0018849057 -0.0019085301 -0.004522299
-0.005287941 0.0030007872 -0.01757486 0.00063560676 -0.00038111425 0.0037694003 0.002629522 0.0024102987
0.0010818439 -0.0011269157 -0.005956939 -0.0014213622 -0.0016167407 -0.0042838026 -0.0042228377 -0.0026348107
-0.0012408753 -0.004243155 0.0005362378 0.0037928598 0.00019236887 -0.0044815736 -0.0021155553 -0.0008855167
-0.0019369563 0.009011626 -0.0003573232 -0.0026794383 0.0025415497 5.1382824e-05 -0.0043707313 -0.04271172
0.026834548 -0.0018954 -0.0072797663 -0.00014768321 -6.301574e-05 -0.0007198246 0.0030513124 -0.00093622215
0.006914326 -0.0007217543 0.0031993927 0.0025695213 -0.05099785 -0.004759089 0.00028079722 0.0046930695
0.0019999421 -0.0048410986 0.004711497 0.0033836835 -0.019545872 -0.0024859111 0.00571614 -0.0032367646
-0.0072096786 -0.00840246 8.490217e-05 0.0048196586 -0.0008612555 -0.050320577 0.0004933554 0.002002131
-0.0020005074 -0.0051927324 -0.01909353 0.00598509 0.004630378 -0.042377543 -0.002158848 0.0015662396
-0.00048466862 0.003041847 -0.0024072889 0.0021589908 -0.001187818 0.00070482655 0.0011350391 -0.0032617967
0.007440289 0.000830251 0.0012079817 0.0025375702 0.0052243085 0.00036416994 -0.0020150389 -0.0012663951
-0.0011471875 -0.0025835154 -0.003538632 0.008066764 -0.0032193013 -0.0018713215 0.020056196 -0.0057865647
0.0043629226 0.0006250095 0.0018274514 0.0053630713 0.005670833 -0.0008959686 -0.0028090717 0.0025307657
-0.0024006267 -0.0031617004 0.0042493655 -0.016160509 0.0027334376 0.0009204099 0.0036401188 0.0060768453
0.0035822552 -0.0042707147 0.008555856 -0.0033311092 -0.0019334786 0.027602995 -0.00063564256 0.0021279422
0.00032186377 -0.0016515801 -0.022106675 -0.0006243324 0.008194796 0.033724952 0.006576303 -0.002392763
-0.004871435 0.0012301396 0.0007269109 0.0035203458 -8.265926e-06 0.0009245289 0.004232084 0.0007913155
0.00052898756 0.00392062 0.008494561 0.0030666639 0.003342351 0.0047296453 0.0076135094 -0.0014241543
-0.0019307866 0.0047988845 -0.009854198 -0.001644231 -0.0006561894 0.002104923 0.0017978656 0.003971137
0.021171411 0.00038067476 -0.0007054729 -0.0034722344 -0.0011741184 0.0043655187 0.0038677496 -0.0012352244
-0.0009868335 0.0024896986 0.0013954877 0.0054006577 0.010490386 0.0007945567 0.0032218776 0.003804474
-0.0018553807 -0.00012452068 0.00074360776 0.0015521281 -0.0043258904 -0.0017995804 0.0010374042 0.004460477
0.0019184782 -0.008387472 -0.0015500468 -0.024256608 -0.0053355326 0.0036214 -0.0006158166 -0.003067765
0.0019555755 -0.002565999 0.0033819159 0.0005413413 -0.0021673096 -0.012713405 -0.005235622 0.007582332
0.00029031897 -0.0021359783 -0.0025805167 0.015598042 -0.017889887 0.0006669673 -0.011829666 -0.009059792
-0.0023556196 0.004651948 0.009896701 0.00097391295 0.0019811157 -0.0027140807 0.0038986595 0.003341296
0.006295724 0.0049586366 0.0016279422 0.007104136 -0.003915987 -0.0011600739 0.0015415826 -0.0011073252
0.0001312799 -0.0042445622 -0.00059023174 -0.0025640086 0.011232722 -0.0011520516 -0.06352527 0.004191053
-0.0029959348 -0.00477691 0.0037323192 0.0047734343 -0.004069876 0.00783452 -0.0019499643 -0.0018262101
-0.0020437622 -0.0033070107 0.0018370006 -0.0015197768 0.001633795 0.0021119115 0.003115298 0.004145301
-0.0009456696 0.00042904596 0.022382839 0.002727111 -0.013250744 0.009353314 -0.007517467 -0.00087045075

tabnet.initial_bn.running_var f4 [1038]
00000000: 2530 9637 5180 8b3c 1683 7c3f 0d01 7a3f
00000010: 5e8a 783f b0c4 783f d55f 793f cd38 763f
00000020: 4eec 793f 1d18 793f f5ef 883f 9fef 783f
00000030: c66c 793f a872 793f f196 783f e8b8 7e3f
00000040: 13a7 7a3f 77da 763f d26e 7b3f b6d9 7a3f
00000050: 7068 773f f0ed 7a3f b14e 783f 7585 783f
00000060: ff75 793f f509 773f b096 7a3f bed2 773f
00000070: 3c7e 793f a744 783f 845f 783f b3d8 7a3f
00000080: 666b 7a3f c1f7 863f 0767 793f 7c0d 7b3f
00000090: 6875 7d3f f795 773f 3881 7e3f 8de4 a43f
000000a0: c28d 973f 3226 793f 3449 803f 5419 7a3f
000000b0: 7ada 7a3f a858 7a3f 45ac 783f a2ac 783f
000000c0: ff2f 813f 811f 793f 3e6e 7f3f 629d 783f
000000d0: 9302 a93f 2509 7b3f 432d 783f f994 7d3f
000000e0: be9e 7a3f 4a08 7f3f 7cad 793f 9817 7f3f
000000f0: 5c37 913f d60e 7d3f a6f2 793f b9bc 7b3f
00000100: 7715 833f 7109 863f 5939 793f a7ba 783f
00000110: f5de 783f 0464 b03f 3cb0 783f 3fa8 793f
00000120: aa54 783f ebde 783f 9b33 903f 086d 793f
00000130: 6ffd 853f f6e4 a63f 6236 783f db7b 793f
00000140: 7cda 773f 40e4 773f 987d 793f 6cb1 783f
00000150: 1b88 773f ed63 7a3f 7f65 793f dfa2 783f
00000160: 21ac 833f e2da 7a3f dd3d 7a3f 9ac8 753f
00000170: 573c 793f 66d6 803f 5fc2 793f 473b 783f
00000180: 2422 783f 07c3 7a3f 768e 813f 4654 813f
00000190: 60fc 803f 4698 783f e021 8a3f 466a 753f
000001a0: db9a 7a3f 3f12 793f e929 773f 4df7 783f
000001b0: b204 813f 3fb5 793f 7e7c 783f be54 793f
000001c0: 6af3 783f dfa8 7b3f 834d 793f 0442 8c3f
000001d0: 92ae 793f 944e 7a3f 2183 7b3f 14f7 7a3f
000001e0: c044 783f eef6 773f efb2 773f 8ba9 803f
000001f0: 3f3d 763f ea99 953f bd45 773f c192 7a3f
00000200: 220a 7d3f 0412 773f 5089 8d3f 71cc 763f
00000210: c417 813f 67dd 9a3f 40d2 7f3f 2879 7d3f
00000220: f9aa 773f edc1 783f 6d8c 7a3f a76b 793f
00000230: bf1e 7a3f 2661 7b3f 41c3 783f 68d7 773f
00000240: e612 7d3f 73c7 793f 289a 813f 2ce5 7a3f
00000250: 2a55 803f 8962 843f 494c 7e3f c263 763f
00000260: e042 7a3f 419f 773f 97df 823f 9f20 773f
00000270: d76b 7a3f 06c9 803f eaf3 783f 8599 7b3f
00000280: 1340 923f 9b29 7a3f 9de3 7e3f 9793 793f
00000290: 8774 773f 77f4 823f e6a1 813f 3b12 793f
000002a0: ecac 7a3f 06d0 783f 1285 793f d2e9 793f
000002b0: f9c3 843f ab71 783f 457e 793f 6a5d 783f
000002c0: 9f27 783f e92c 793f dbab 763f 3169 7e3f
000002d0: b843 8b3f 3e2c 783f 7c43 793f 336b 7b3f
000002e0: 1c13 7a3f 5800 803f df53 793f 51a8 903f
000002f0: c381 793f 6ffe 783f 2b62 783f 8413 803f
00000300: 9ab1 793f 0a59 7a3f 1029 793f e01b 783f
00000310: b4de 7a3f 5071 8a3f 5e73 793f 578c 803f
00000320: 09f5 793f fff0 783f c475 793f f131 883f
00000330: 71f4 883f 6ff3 773f 02b3 7d3f 4bc6 783f
00000340: e57c 773f 04dc 783f f7f8 893f 50b4 783f
00000350: c718 7c3f b7c9 793f e56e 783f a3cb 7a3f
00000360: 9c99 793f 4275 813f 4956 7b3f 9da1 7a3f
00000370: 26f1 783f e21a 7a3f 0c00 7a3f eb35 783f
00000380: 85ef 773f c1b3 783f aec2 7a3f 82d5 783f
00000390: ed3b 843f 3b03 783f 8567 b93f 30a2 793f
000003a0: a7c5 793f 9e05 7f3f 12f9 7b3f 9d45 763f
000003b0: 242b 7b3f a6d5 7c3f 6d5f 793f 80e1 783f
000003c0: 5be0 793f b455 7a3f e973 783f 2051 7a3f
000003d0: 6b89 783f 54db 803f 4636 7b3f 4af2 7a3f
000003e0: 76cc 763f 6920 7a3f 2f01 933f 5774 7c3f
000003f0: 6243 853f da7a 813f 3ee1 793f e202 773f
1.7903812e-05 0.01702896 0.9863752 0.97657853 0.9708613 0.9717512 0.97411853 0.9618042
0.976262 0.9730242 1.0698229 0.9724063 0.974316 0.97440577 0.9710532 0.99500895
0.97911185 0.964271 0.98215973 0.9798845 0.96643734 0.98019314 0.96995074 0.9707864
0.9744567 0.9649957 0.9788618 0.9680594 0.97458243 0.96979755 0.97020745 0.97986907
0.97820127 1.0544358 0.9742283 0.9806745 0.9900727 0.96713203 0.9941592 1.2882248
1.1840136 0.97323906 1.002234 0.976949 0.9798962 0.9779153 0.9713786 0.97138417
1.0092772 0.97313696 0.9977759 0.9711515 1.320391 0.9806083 0.96944064 0.9905544
0.9789847 0.99622023 0.9753034 0.99645376 1.1345019 0.9885076 0.9763588 0.9833484
1.0240926 1.0471631 0.9735313 0.9715981 0.97215205 1.3780522 0.9714391 0.9752235
0.9700419 0.97215146 1.1265749 0.97431993 1.0467967 1.3038623 0.9695798 0.97454613
0.96817756 0.96832657 0.97457266 0.97145724 0.96692055 0.97808725 0.97420496 0.9712352
1.0286905 0.9799024 0.97750646 0.9600922 0.97357696 1.0065429 0.9756221 0.9696545
0.96927094 0.9795384 1.0121601 1.0103843 1.0077019 0.9710735 1.0791588 0.95865285
0.9789254 0.97293466 0.96548325 0.9725235 1.0079558 0.97542185 0.9706496 0.9739493
0.9724642 0.9830455 0.973839 1.0957646 0.97532 0.9777615 0.9824696 0.9803326
0.96979904 0.9686116 0.96757406 1.005174 0.96187204 1.1687596 0.9659079 0.9788018
0.98843586 0.96511865 1.105753 0.964057 1.0085378 1.2098817 0.9993019 0.99012995
0.9674526 0.9717091 0.9787052 0.9742989 0.97703165 0.9819511 0.97172934 0.9681306
0.9885696 0.9756996 1.012517 0.9800594 1.002599 1.034257 0.9933515 0.9624597
0.97758293 0.9672738 1.0224484 0.9653415 0.978208 1.0061347 0.97247183 0.9828113
1.1425804 0.97719735 0.9956606 0.9749083 0.9666218 1.0230855 1.0127532 0.9729344
0.9792011 0.9719242 0.97468674 0.97622406 1.0372306 0.97048444 0.97458297 0.9701754
0.96935457 0.9733415 0.9635598 0.9937926 1.0880041 0.9694251 0.973686 0.9821045
0.9768541 1.0000105 0.973936 1.1301366 0.97463626 0.97263235 0.9702479 1.0005956
0.97536623 0.9779211 0.9732828 0.96917534 0.9799607 1.081583 0.9744166 1.0042828
0.9763952 0.9724273 0.9744532 1.0640241 1.0699598 0.96855825 0.9910127 0.9717757
0.9667495 0.9721072 1.0779103 0.97150135 0.9847531 0.9757342 0.9704421 0.97966975
0.97500014 1.0113909 0.98178536 0.9790285 0.97242963 0.9769727 0.9765632 0.9695727
0.9684985 0.9714928 0.9795331 0.9720079 1.0330788 0.9687993 1.4484717 0.97513103
0.9756722 0.99617946 0.98426926 0.9619997 0.981127 0.987635 0.97411233 0.97219086
0.97607964 0.9778702 0.97051865 0.97780037 0.97084683 1.0066934 0.9812969 0.98025954
0.9640573 0.97705704 1.1484736 0.9861502 1.0411189 1.0115616 0.9760932 0.96488774

tabnet.initial_splitter.shared.shared_layers.0.weight f4 [96, 1038]
00000000: 1d6f b630 1f67 7439 3911 b4b8 0f7d 4eb8
00000010: 539f aa38 52b2 23bd 2d4c 5eb7 18f9 22b8
00000020: d234 9fb5 e4e4 bf36 d70e c2b9 870c 8c32
00000030: 7114 8b38 3fbb 2f38 67c2 1eba 1a2a d03d
00000040: b129 9e39 1680 20b8 64f3 003b ad6d d0b7
00000050: e7da 96bd 3c50 99b9 18ab a2b8 91f2 64ba
00000060: afd7 0cbe 5465 293c c9fe a339 100a 6d38
00000070: 2fb6 d1b8 7d20 e536 4d3e 6238 61cd 073d
00000080: 05e0 0ab9 c051 e53c 82ad 0e3d eb95 123a
00000090: 89aa 81b9 1302 3e3d bba3 2ebe 6aed 7d38
000000a0: 199e d733 3997 bdb8 2333 1ab8 96bc 8c39
000000b0: 4883 7bb7 fdf0 a6b5 5a62 9eb8 de1d 73b8
000000c0: fe95 3a38 2346 81b9 5ba7 84b9 877b 2438
000000d0: 1134 78bd a674 6bb7 68e9 0eb8 a09c 68bd
000000e0: e189 41b8 b028 c9b7 3b35 aebd 7bd7 aa37
000000f0: f5b1 6f38 549d a5b3 92ba 3a39 82c2 27b7
00000100: a403 98b9 c7a0 5c38 9148 0b37 f158 96b9
00000110: 743a f63d 8d73 b638 0208 eb39 3f19 ef38
00000120: 4187 c738 9675 8238 27e5 2e39 832d 32b2
00000130: 850f f7b7 7af9 d3b9 7d86 8e29 6f6b 06b7
00000140: d1e2 9f38 dea9 1238 0e5a 52b8 d347 f0b9
00000150: 518f ca3d cab4 d535 0466 21b7 be59 ebb9
00000160: 7305 1238 f1aa 27b9 0b1e 2439 ba15 b8b8
00000170: e500 0339 7b03 0fba 9b81 9c37 6aed 4636
00000180: e945 b539 3268 8b39 999e 8a39 7d1d 61b8
00000190: 993f ba37 b0f6 64b8 2efb 8bb9 d331 0837
000001a0: fd34 dbb9 cae4 6038 10cf e638 a0d6 01b8
000001b0: 96aa 9eb7 f3d8 e5b8 7d80 dc38 9bd5 fdb8
000001c0: 0f46 4838 030f 153e fa92 bc39 1be8 e139
000001d0: 2a6e e439 0d4e 62b9 657a af39 2160 da39
000001e0: d59c 94b7 467a 85b7 2a03 7438 4f85 48b7
000001f0: 9cc4 22b9 d4c6 1cb8 5255 24be 3af4 cfb9
00000200: 840f 7a38 780a b639 ee68 0fb9 9b8b b1b9
00000210: 2e63 c638 2283 4fb6 3903 64b3 7405 f738
00000220: fb2e f838 fe94 dd37 0972 e938 9415 1e3a
00000230: 3227 7539 41a4 35b8 1239 3e2f a42e fdb6
00000240: 28f0 9238 e566 07ba 75b8 e53c ca34 1a39
00000250: 111e 023a 6cb3 a539 d013 213a 5508 fb38
00000260: 371e 44b7 a899 f739 6a84 9ab8 7dbc 7fb8
00000270: 6743 a937 0bb1 1eb7 77fe 5cb9 e015 0fbd
00000280: 333b bb39 d468 2db9 b0da 313a 27f4 9ab8
00000290: e7e9 43b9 f9aa c538 aaa6 adb9 980e 2032
000002a0: 14e3 ba39 8865 81b9 2c00 0e39 cd97 9b3d
000002b0: c42e 4739 584b 4d38 9db5 0c3d bbcd b9b8
000002c0: 55ad 24b9 809d d73d d79f ba3d 621d 2139
000002d0: f6db 95bd 3c82 58b4 2f44 9ab8 b2d9 aa39
000002e0: f1ca 3ab8 7473 3739 572d 2136 cac8 ab39
000002f0: 929c 3bb2 55ec 2d39 aee7 cb37 2931 ae37
00000300: 8f28 8bb9 67b8 1ab7 c73a 1eb9 f167 9633
00000310: e967 a638 1a7b 4d38 e5c2 a7b7 5e35 1539
00000320: 28b3 b53b 5191 22b8 7978 abb7 fc1e 8b38
00000330: 48b3 d539 105e 59ba a092 1236 677e ac38
00000340: 1ab0 7ab8 7a53 db39 fb49 1938 f02d 7c38
00000350: 3293 ef39 2072 aeb9 d7c7 8e39 08b8 00b9
00000360: 99a9 4936 e02f a5b7 51f5 4ab9 8f3f 72b9
00000370: 908a ef38 94d6 a7b7 d753 753d 92a9 163a
00000380: e582 4739 eb77 8138 4989 9838 9729 9135
00000390: b289 ebb7 0d0e d7b8 2ba1 96b6 6c59 8439
000003a0: b8ec 4db3 994a 4239 191b dfb7 0060 be39
000003b0: 4139 3eb9 7f16 a838 9750 50b7 bea9 29b9
000003c0: 2d35 3439 44ae adb9 24dd 78b9 d9ce 4d36
000003d0: e7ff c1b7 277f 873c ae1a cdb6 3cf6 77b2
000003e0: 9a74 69b8 110d afb8 fdf0 2cbd 4de0 8db9
000003f0: c0d5 c937 e115 a7b8 5745 6ab5 23c6 b7b7
1.3273823e-09 0.00023308069 -8.586277e-05 -4.9230697e-05 8.135908e-05 -0.03996498 -1.3249967e-05 -3.8855796e-05
-1.1861796e-06 5.71889e-06 -0.0003701362 1.6303842e-08 6.631844e-05 4.1897638e-05 -0.000605619 0.1016428
0.0003016717 -3.8266262e-05 0.0019676322 -2.4846604e-05 -0.07365971 -0.00029242213 -7.756631e-05 -0.0008733655
-0.13754152 0.0103391 0.00031279612 5.6514575e-05 -9.999831e-05 6.828514e-06 5.394062e-05 0.03315485
-0.0001324416 0.027993083 0.03483344 0.00055917975 -0.00024731856 0.046388697 -0.17054646 6.054101e-05
1.00404755e-07 -9.04039e-05 -3.6764086e-05 0.00026843388 -1.4991332e-05 -1.2438101e-06 -7.5523465e-05 -5.796353e-05
4.4485547e-05 -0.00024657053 -0.00025301691 3.921569e-05 -0.06059653 -1.4034251e-05 -3.4072815e-05 -0.056789994
-4.6143196e-05 -2.3980014e-05 -0.08506247 2.036592e-05 5.7147776e-05 -7.712029e-08 0.00017807845 -9.999263e-06
-0.00028994412 5.2601823e-05 8.301941e-06 -0.00028676496 0.12022868 8.699959e-05 0.0004482866 0.000114011105
9.5142525e-05 6.220785e-05 0.00016679299 -1.0371312e-08 -2.9451921e-05 -0.0004043093 6.329397e-14 -8.012036e-06
7.623959e-05 3.4967314e-05 -5.015177e-05 -0.0004582988 0.09890617 1.5922353e-06 -9.6201e-06 -0.00044889556
3.4814188e-05 -0.00015990042 0.0001565145 -8.7778506e-05 0.00012493467 -0.0005455536 1.8657001e-05 2.9642492e-06
0.00034575097 0.00026589778 0.00026439576 -5.3671643e-05 2.2202543e-05 -5.458918e-05 -0.0002669929 8.117832e-06
-0.00041810414 5.3618838e-05 0.00011005823 -3.095588e-05 -1.8914503e-05 -0.00010959981 0.0001051435 -0.00012103767
4.7748963e-05 0.14556508 0.0003596766 0.00043088276 0.00043569627 -0.00021582116 0.00033469792 0.00041651822
-1.7716005e-05 -1.5911774e-05 5.817708e-05 -1.1951967e-05 -0.00015522767 -3.737847e-05 -0.16048172 -0.0003966408
5.9619095e-05 0.00034721545 -0.00013676632 -0.00033864085 9.4598494e-05 -3.0921733e-06 -5.3088318e-08 0.000117788935
0.00011834312 2.6414633e-05 0.000111315465 0.0006030437 0.00023379622 -4.3306736e-05 1.7300675e-10 -7.5454172e-06
7.006555e-05 -0.0005165174 0.028042058 0.0001470625 0.00049635867 0.00031604932 0.0006144615 0.000119701646
-1.1689545e-05 0.00047225994 -7.367956e-05 -6.097228e-05 2.0177757e-05 -9.458755e-06 -0.0002107563 -0.03493297
0.00035711526 -0.00016537617 0.0006784601 -7.388769e-05 -0.00018683785 9.425538e-05 -0.00033121306 9.316544e-09
0.0003564587 -0.00024680444 0.0001354224 0.07597313 0.0001899554 4.8945978e-05 0.034352887 -8.859808e-05
-0.0001570483 0.105280876 0.09112518 0.00015365102 -0.07317345 -2.0163947e-07 -7.3559924e-05 0.00032587122
-4.453486e-05 0.0001749525 2.401726e-06 0.0003276526 -1.0920433e-08 0.00016586606 2.430737e-05 2.0765308e-05
-0.00026542365 -9.22205e-06 -0.0001508995 7.003826e-08 7.9348516e-05 4.8990456e-05 -1.9998706e-05 0.00014229628
0.0055450387 -3.8759146e-05 -2.0440888e-05 6.633808e-05 0.000407601 -0.00082919095 2.1841042e-06 8.2251434e-05
-5.9768652e-05 0.0004183313 3.6546942e-05 6.0124265e-05 0.000456953 -0.00033272896 0.00027233243 -0.00012275588
3.0050053e-06 -1.9691826e-05 -0.00019355609 -0.00023102596 0.00011422217 -2.0007872e-05 0.05989441 0.0005747314
0.00019026881 6.173536e-05 7.273496e-05 1.0815446e-06 -2.8078302e-05 -0.00010254616 -4.489111e-06 0.00025243626
-4.7945576e-08 0.00018529072 -2.659629e-05 0.0003631115 -0.00018141141 8.0150545e-05 -1.241653e-05 -0.0001618033
0.00017185947 -0.0003312697 -0.00023733504 3.0667782e-06 -2.3126557e-05 0.016540123 -6.112582e-06 -1.44332795e-08
-5.5660123e-05 -8.347084e-05 -0.04222201 -0.00027060733 2.4060602e-05 -7.967256e-05 -8.7272696e-07 -2.1907565e-05

tabnet.initial_splitter.shared.shared_layers.1.weight f4 [96, 48]
00000000: f2e9 8c3e 93eb ff39 9616 d5bc 3d98 deb8
00000010: 86a0 073c bc08 d63c fad2 17bc 7f73 43bb
00000020: a2c6 3dbc 70f6 b9bc 5176 c73c 257b 573c
00000030: 07d0 d8bc 41c3 f42e 741d 953d 8d8c abbb
00000040: c060 74bc 278c bbbc 8bcd cfbb a14f 87bb
00000050: cbeb 303b 7340 51bd 88dd 063c 789e c0bc
00000060: af75 2cb7 3c89 8839 b80b 5539 bda4 87b8
00000070: d7e2 a635 d9b6 4f36 3acf 04b9 8dc9 8cb9
00000080: f8b1 0538 cf24 0239 b97f 9bb8 7b52 1839
00000090: 253c 05b9 4c07 a3b6 436d c6b7 d259 e9b8
000000a0: 9f97 de33 08a0 43b7 5983 1239 4960 10b9
000000b0: b44b e037 1782 2fb8 c607 873a 5e58 5cb8
000000c0: b171 1c3c 11f5 bb3e bbab f13b f0bb 70b8
000000d0: 1659 02bd 31ed a83a f5cc 2dbd 3547 96bb
000000e0: ba8d 46bc 9820 28bd ddcd 32bd 38c8 313c
000000f0: b2ff 38bc 0487 e92f 79b3 8f3b c1e1 bb3c
00000100: ef94 86bc 4cab f8bc 21e8 843b 5b17 ecbc
00000110: 4d6e 24bd 65ba 493c 955e 25bb 2111 6ebc
00000120: bd97 e538 62fc 9539 8fad 5bb6 6b5d a1b8
00000130: 8b6c 61b9 3c93 ce37 c2f0 b338 e61c d3b8
00000140: 0362 05b9 60d8 a6b8 2d67 6e38 036d c6b9
00000150: 60da 8539 2807 c8b6 fd46 d7b8 12e9 cdb8
00000160: c280 b438 338e fd38 5586 94b9 2d17 c4b8
00000170: 2770 57b9 ce32 58b8 f031 a4b9 2f31 4db8
00000180: 5bce b7bc 7c88 38bd 226b 573e c360 1b3a
00000190: 97af 09bd 4cee f5bc bbb3 d7bc fb5f a83c
000001a0: 4439 c5bc 3af7 77bd 4904 07bd 75a5 6dbc
000001b0: 6275 f7bc f0c8 d02e 5d3d 953c c34e 78bd
000001c0: b2bc 64bd 3efe 5ebd c526 cebc 8c44 b8bd
000001d0: 3a51 48bd 7ea3 8cbb 48ca 40bc 17a7 27bd
000001e0: 5b49 edb7 d8fa 85b9 8c62 4ab9 6bb6 5535
000001f0: a47b a737 1546 0f37 1095 1fb9 a5de 48b9
00000200: 7f8e c438 e00a 0138 b0ce 44b7 af1a 7b39
00000210: 2835 0db8 fc9c e037 c1fa a038 e016 4b34
00000220: f01e 1db8 b237 8a38 df0c 6db9 5b91 c935
00000230: b2a7 6338 0495 8e38 9999 b438 fb16 2737
00000240: bf9d 66bc 0c5f 37bc 4574 953c 0d9f bd39
00000250: ff2b 253c 4b84 9abc 1d20 0ebc 8172 dcbc
00000260: 7ddd d3bb 51b5 b5bb 8190 fabb 15fc 60bc
00000270: 43a1 8ebb 6337 b12f 5e94 663c 5dbd 07bc
00000280: 9e68 b6bc fc8e b93a 50d1 b03c 8f69 2cbc
00000290: 150c b4ba 79b7 4b3b 19a2 d1ba d4a4 643c
000002a0: 74bf 1336 633e e9b7 5ce3 59b7 75da fd36
000002b0: 5327 16b6 c911 9035 4c2c 0538 6702 3ab6
000002c0: 7be7 aa37 f254 9fb7 40f4 0737 e124 8736
000002d0: 7cd6 3c38 b7bc a236 337c 4ab5 dd85 a537
000002e0: a60d 4136 bb37 5d37 6207 08b8 1c6b ad36
000002f0: e48e 2e37 f063 4eb6 3253 b8b7 f323 d4b5
00000300: 9890 0abc ee05 48ba 59c1 563c a2b5 dc39
00000310: f3f3 893e df5a 73bc 459b aabc bacf b8bc
00000320: 4e6d 22bb 1335 7dbc 9495 103b 60aa 0c3c
00000330: 51be a2bc 2456 d2b6 c906 113d 3ba0 22bd
00000340: 805a 24bc 0b4d 91bc 334c ddbc 2581 d43b
00000350: 1d2e b0bc 8496 223b c3e6 953c 685a 11bd
00000360: 1318 e83c d953 1b3d 2e03 27bb 12fa 3c3d
00000370: 25aa 95bd 03e4 06bd 463d c13d 10f1 d93c
00000380: 47fc 4e3d b1ca ffbd 7295 04bc f0fb 94bd
00000390: 52ce 523e 937a c6bd 144c cfbd 07e3 d13d
000003a0: 6b9d ba3d 28ce d4bc fe85 d93d 2630 ba3d
000003b0: e869 8a3c 912c 6b3b 4401 97be 3afb 16bd
000003c0: d6f8 433d f649 d43c 2d49 3cbc 5cff a6b9
000003d0: 89ed 64bd 657a bc3e d0a6 26bc 6f3a 27bc
000003e0: c602 dabc 5b7f efbc 7c16 2dbc bd30 9f3c
000003f0: e58b 6cbc 8ee5 862d 465d bf3c 4e3a c2bc
0.27522236 0.00048812907 -0.026011746 -0.000106141415 0.008278018 0.026127212 -0.009266609 -0.002982348
-0.011583002 -0.022700518 0.02434841 0.013151919 -0.026466383 1.11305194e-10 0.07281008 -0.005235261
-0.014915645 -0.022893978 -0.0063416413 -0.0041293656 0.0026996012 -0.051086854 0.008231528 -0.023513064
-1.0279399e-05 0.0002604219 0.00020317629 -6.4679865e-05 1.2433983e-06 3.0951835e-06 -0.00012665699 -0.00026853048
3.1875417e-05 0.00012411478 -7.414766e-05 0.00014526576 -0.00012706274 -4.858628e-06 -2.3654318e-05 -0.00011127036
1.036526e-07 -1.1660166e-05 0.00013972576 -0.00013768779 2.6738133e-05 -4.1844407e-05 0.0010301999 -5.2534386e-05
0.0095485905 0.36710408 0.007375208 -5.739549e-05 -0.03182324 0.0012888071 -0.04243179 -0.0045861253
-0.012118751 -0.04104671 -0.043653358 0.0108509585 -0.011291431 4.2478387e-10 0.0043854085 0.022934796
-0.016428439 -0.030355118 0.0040559922 -0.02881973 -0.040144254 0.012312506 -0.0025233377 -0.014530451
0.000109478344 0.00028607534 -3.2734567e-06 -7.694479e-05 -0.00021498108 2.4625675e-05 8.58023e-05 -0.00010066647
-0.0001272038 -7.9558e-05 5.683971e-05 -0.00037846723 0.0002553044 -5.9612976e-06 -0.000102652215 -9.8185745e-05
8.607052e-05 0.00012090467 -0.00028328845 -9.350325e-05 -0.00020545778 -5.154573e-05 -0.00031317724 -4.8921615e-05
-0.022437265 -0.045052037 0.21036962 0.00059271994 -0.03361472 -0.030020855 -0.02633082 0.02055358
-0.024075158 -0.060538508 -0.03296307 -0.01450478 -0.03020734 9.4944386e-11 0.018217737 -0.060621988
-0.055844016 -0.054441683 -0.025164971 -0.08997449 -0.04890559 -0.0042919507 -0.011766978 -0.040930834
-2.828676e-05 -0.0002555463 -0.00019300933 7.9614136e-07 1.9965526e-05 8.539781e-06 -0.00015218952 -0.00019156428
9.37255e-05 3.0766125e-05 -1.1730634e-05 0.00023947166 -3.3666525e-05 2.6775982e-05 7.676101e-05 1.891417e-07
-3.746053e-05 6.590727e-05 -0.00022606876 1.5017971e-06 5.4277196e-05 6.798844e-05 8.611679e-05 9.959326e-06
-0.014075696 -0.011192095 0.018243918 0.0003616739 0.01008129 -0.01886191 -0.008674649 -0.026910068
-0.0064656124 -0.0055452962 -0.0076466207 -0.013731976 -0.00435272 3.2235467e-10 0.014073459 -0.008284894
-0.022266682 0.0014156993 0.021584183 -0.010523214 -0.0013736511 0.00310847 -0.0015993743 0.013955314
2.2016147e-06 -2.7804816e-05 -1.2987144e-05 7.5654193e-06 -2.2374631e-06 1.0734012e-06 3.1750926e-05 -2.7717558e-06
2.037337e-05 -1.8993833e-05 8.103496e-06 4.027607e-06 4.5022447e-05 4.8499455e-06 -7.54316e-07 1.9731868e-05
2.8767186e-06 1.3185602e-05 -3.2431803e-05 5.168271e-06 1.04044775e-05 -3.0754563e-06 -2.197325e-05 -1.5805693e-06
-0.008457325 -0.0007630278 0.013107621 0.00042096997 0.2694393 -0.014853208 -0.020825991 -0.02255999
-0.002478439 -0.015454548 0.0022061812 0.008585542 -0.01986614 -6.268516e-06 0.03540686 -0.03970359
-0.0100313425 -0.017736932 -0.027013874 0.006485122 -0.021506364 0.0024808953 0.018298512 -0.03548661
0.028331792 0.03792176 -0.0025484073 0.046136923 -0.07307843 -0.032932293 0.09435515 0.026604205
0.05053356 -0.12489832 -0.008092271 -0.07274616 0.20586517 -0.09691348 -0.101219326 0.1024838
0.09112056 -0.02597721 0.1062126 0.09091215 0.016896203 0.0035884718 -0.29493153 -0.036860682
0.04784473 0.025914174 -0.011492056 -0.00031852245 -0.055890594 0.3681213 -0.010171607 -0.010206803
-0.02661265 -0.029235533 -0.010564443 0.01943242 -0.01443765 1.5335979e-11 0.023359906 -0.023709442

tabnet.initial_splitter.shared.glu_layers.0.fc.weight f4 [96, 1038]
00000000: 1d6f b630 1f67 7439 3911 b4b8 0f7d 4eb8
00000010: 539f aa38 52b2 23bd 2d4c 5eb7 18f9 22b8
00000020: d234 9fb5 e4e4 bf36 d70e c2b9 870c 8c32
00000030: 7114 8b38 3fbb 2f38 67c2 1eba 1a2a d03d
00000040: b129 9e39 1680 20b8 64f3 003b ad6d d0b7
00000050: e7da 96bd 3c50 99b9 18ab a2b8 91f2 64ba
00000060: afd7 0cbe 5465 293c c9fe a339 100a 6d38
00000070: 2fb6 d1b8 7d20 e536 4d3e 6238 61cd 073d
00000080: 05e0 0ab9 c051 e53c 82ad 0e3d eb95 123a
00000090: 89aa 81b9 1302 3e3d bba3 2ebe 6aed 7d38
000000a0: 199e d733 3997 bdb8 2333 1ab8 96bc 8c39
000000b0: 4883 7bb7 fdf0 a6b5 5a62 9eb8 de1d 73b8
000000c0: fe95 3a38 2346 81b9 5ba7 84b9 877b 2438
000000d0: 1134 78bd a674 6bb7 68e9 0eb8 a09c 68bd
000000e0: e189 41b8 b028 c9b7 3b35 aebd 7bd7 aa37
000000f0: f5b1 6f38 549d a5b3 92ba 3a39 82c2 27b7
00000100: a403 98b9 c7a0 5c38 9148 0b37 f158 96b9
00000110: 743a f63d 8d73 b638 0208 eb39 3f19 ef38
00000120: 4187 c738 9675 8238 27e5 2e39 832d 32b2
00000130: 850f f7b7 7af9 d3b9 7d86 8e29 6f6b 06b7
00000140: d1e2 9f38 dea9 1238 0e5a 52b8 d347 f0b9
00000150: 518f ca3d cab4 d535 0466 21b7 be59 ebb9
00000160: 7305 1238 f1aa 27b9 0b1e 2439 ba15 b8b8
00000170: e500 0339 7b03 0fba 9b81 9c37 6aed 4636
00000180: e945 b539 3268 8b39 999e 8a39 7d1d 61b8
00000190: 993f ba37 b0f6 64b8 2efb 8bb9 d331 0837
000001a0: fd34 dbb9 cae4 6038 10cf e638 a0d6 01b8
000001b0: 96aa 9eb7 f3d8 e5b8 7d80 dc38 9bd5 fdb8
000001c0: 0f46 4838 030f 153e fa92 bc39 1be8 e139
000001d0: 2a6e e439 0d4e 62b9 657a af39 2160 da39
000001e0: d59c 94b7 467a 85b7 2a03 7438 4f85 48b7
000001f0: 9cc4 22b9 d4c6 1cb8 5255 24be 3af4 cfb9
00000200: 840f 7a38 780a b639 ee68 0fb9 9b8b b1b9
00000210: 2e63 c638 2283 4fb6 3903 64b3 7405 f738
00000220: fb2e f838 fe94 dd37 0972 e938 9415 1e3a
00000230: 3227 7539 41a4 35b8 1239 3e2f a42e fdb6
00000240: 28f0 9238 e566 07ba 75b8 e53c ca34 1a39
00000250: 111e 023a 6cb3 a539 d013 213a 5508 fb38
00000260: 371e 44b7 a899 f739 6a84 9ab8 7dbc 7fb8
00000270: 6743 a937 0bb1 1eb7 77fe 5cb9 e015 0fbd
00000280: 333b bb39 d468 2db9 b0da 313a 27f4 9ab8
00000290: e7e9 43b9 f9aa c538 aaa6 adb9 980e 2032
000002a0: 14e3 ba39 8865 81b9 2c00 0e39 cd97 9b3d
000002b0: c42e 4739 584b 4d38 9db5 0c3d bbcd b9b8
000002c0: 55ad 24b9 809d d73d d79f ba3d 621d 2139
000002d0: f6db 95bd 3c82 58b4 2f44 9ab8 b2d9 aa39
000002e0: f1ca 3ab8 7473 3739 572d 2136 cac8 ab39
000002f0: 929c 3bb2 55ec 2d39 aee7 cb37 2931 ae37
00000300: 8f28 8bb9 67b8 1ab7 c73a 1eb9 f167 9633
00000310: e967 a638 1a7b 4d38 e5c2 a7b7 5e35 1539
00000320: 28b3 b53b 5191 22b8 7978 abb7 fc1e 8b38
00000330: 48b3 d539 105e 59ba a092 1236 677e ac38
00000340: 1ab0 7ab8 7a53 db39 fb49 1938 f02d 7c38
00000350: 3293 ef39 2072 aeb9 d7c7 8e39 08b8 00b9
00000360: 99a9 4936 e02f a5b7 51f5 4ab9 8f3f 72b9
00000370: 908a ef38 94d6 a7b7 d753 753d 92a9 163a
00000380: e582 4739 eb77 8138 4989 9838 9729 9135
00000390: b289 ebb7 0d0e d7b8 2ba1 96b6 6c59 8439
000003a0: b8ec 4db3 994a 4239 191b dfb7 0060 be39
000003b0: 4139 3eb9 7f16 a838 9750 50b7 bea9 29b9
000003c0: 2d35 3439 44ae adb9 24dd 78b9 d9ce 4d36
000003d0: e7ff c1b7 277f 873c ae1a cdb6 3cf6 77b2
000003e0: 9a74 69b8 110d afb8 fdf0 2cbd 4de0 8db9
000003f0: c0d5 c937 e115 a7b8 5745 6ab5 23c6 b7b7
1.3273823e-09 0.00023308069 -8.586277e-05 -4.9230697e-05 8.135908e-05 -0.03996498 -1.3249967e-05 -3.8855796e-05
-1.1861796e-06 5.71889e-06 -0.0003701362 1.6303842e-08 6.631844e-05 4.1897638e-05 -0.000605619 0.1016428
0.0003016717 -3.8266262e-05 0.0019676322 -2.4846604e-05 -0.07365971 -0.00029242213 -7.756631e-05 -0.0008733655
-0.13754152 0.0103391 0.00031279612 5.6514575e-05 -9.999831e-05 6.828514e-06 5.394062e-05 0.03315485
-0.0001324416 0.027993083 0.03483344 0.00055917975 -0.00024731856 0.046388697 -0.17054646 6.054101e-05
1.00404755e-07 -9.04039e-05 -3.6764086e-05 0.00026843388 -1.4991332e-05 -1.2438101e-06 -7.5523465e-05 -5.796353e-05
4.4485547e-05 -0.00024657053 -0.00025301691 3.921569e-05 -0.06059653 -1.4034251e-05 -3.4072815e-05 -0.056789994
-4.6143196e-05 -2.3980014e-05 -0.08506247 2.036592e-05 5.7147776e-05 -7.712029e-08 0.00017807845 -9.999263e-06
-0.00028994412 5.2601823e-05 8.301941e-06 -0.00028676496 0.12022868 8.699959e-05 0.0004482866 0.000114011105
9.5142525e-05 6.220785e-05 0.00016679299 -1.0371312e-08 -2.9451921e-05 -0.0004043093 6.329397e-14 -8.012036e-06
7.623959e-05 3.4967314e-05 -5.015177e-05 -0.0004582988 0.09890617 1.5922353e-06 -9.6201e-06 -0.00044889556
3.4814188e-05 -0.00015990042 0.0001565145 -8.7778506e-05 0.00012493467 -0.0005455536 1.8657001e-05 2.9642492e-06
0.00034575097 0.00026589778 0.00026439576 -5.3671643e-05 2.2202543e-05 -5.458918e-05 -0.0002669929 8.117832e-06
-0.00041810414 5.3618838e-05 0.00011005823 -3.095588e-05 -1.8914503e-05 -0.00010959981 0.0001051435 -0.00012103767
4.7748963e-05 0.14556508 0.0003596766 0.00043088276 0.00043569627 -0.00021582116 0.00033469792 0.00041651822
-1.7716005e-05 -1.5911774e-05 5.817708e-05 -1.1951967e-05 -0.00015522767 -3.737847e-05 -0.16048172 -0.0003966408
5.9619095e-05 0.00034721545 -0.00013676632 -0.00033864085 9.4598494e-05 -3.0921733e-06 -5.3088318e-08 0.000117788935
0.00011834312 2.6414633e-05 0.000111315465 0.0006030437 0.00023379622 -4.3306736e-05 1.7300675e-10 -7.5454172e-06
7.006555e-05 -0.0005165174 0.028042058 0.0001470625 0.00049635867 0.00031604932 0.0006144615 0.000119701646
-1.1689545e-05 0.00047225994 -7.367956e-05 -6.097228e-05 2.0177757e-05 -9.458755e-06 -0.0002107563 -0.03493297
0.00035711526 -0.00016537617 0.0006784601 -7.388769e-05 -0.00018683785 9.425538e-05 -0.00033121306 9.316544e-09
0.0003564587 -0.00024680444 0.0001354224 0.07597313 0.0001899554 4.8945978e-05 0.034352887 -8.859808e-05
-0.0001570483 0.105280876 0.09112518 0.00015365102 -0.07317345 -2.0163947e-07 -7.3559924e-05 0.00032587122
-4.453486e-05 0.0001749525 2.401726e-06 0.0003276526 -1.0920433e-08 0.00016586606 2.430737e-05 2.0765308e-05
-0.00026542365 -9.22205e-06 -0.0001508995 7.003826e-08 7.9348516e-05 4.8990456e-05 -1.9998706e-05 0.00014229628
0.0055450387 -3.8759146e-05 -2.0440888e-05 6.633808e-05 0.000407601 -0.00082919095 2.1841042e-06 8.2251434e-05
-5.9768652e-05 0.0004183313 3.6546942e-05 6.0124265e-05 0.000456953 -0.00033272896 0.00027233243 -0.00012275588
3.0050053e-06 -1.9691826e-05 -0.00019355609 -0.00023102596 0.00011422217 -2.0007872e-05 0.05989441 0.0005747314
0.00019026881 6.173536e-05 7.273496e-05 1.0815446e-06 -2.8078302e-05 -0.00010254616 -4.489111e-06 0.00025243626
-4.7945576e-08 0.00018529072 -2.659629e-05 0.0003631115 -0.00018141141 8.0150545e-05 -1.241653e-05 -0.0001618033
0.00017185947 -0.0003312697 -0.00023733504 3.0667782e-06 -2.3126557e-05 0.016540123 -6.112582e-06 -1.44332795e-08
-5.5660123e-05 -8.347084e-05 -0.04222201 -0.00027060733 2.4060602e-05 -7.967256e-05 -8.7272696e-07 -2.1907565e-05

tabnet.initial_splitter.shared.glu_layers.0.bn.bn.weight f4 [96]
00000000: 6abe 2aba f5c5 9bb9 e619 afba b9ae 27b9
00000010: 0e0f 223f caa4 933a 17e6 833e 78d0 f5b9
00000020: c1d8 583a 2c28 763c 5ffc 153b a6a5 953b
00000030: 5cd3 3e3b 3385 4f3a abb4 713a a1bb 9a3a
00000040: 7032 72bb e06d 1eb9 bcd0 2abb 02f6 3c3c
00000050: ec2d c23b 1a0f ff3c 6e8f 113e 4a3c 51bb
00000060: 4c8f 023f 4e45 e13e 25e1 833e d922 e23e
00000070: e8b7 fe3e 4a92 033f abf9 ae3e ecd9 cd3e
00000080: 80c9 e83e e2ae 013f a84a 013f a826 9f3e
00000090: c968 e33e b865 e13e a14c cf3e 9cf1 f43e
000000a0: 697d 023f 19a9 093f fa5a 063f 009d f93e
000000b0: a1cc 003f a48a c83e 9f3f 1d3f b423 c23e
000000c0: 0215 9735 5e4a 83b4 07e5 bd35 8852 29b0
000000d0: 74b9 c33e ea50 f635 cd30 a13d f09f 4b37
000000e0: defc a034 4595 20b8 f667 9db5 694d 9db7
000000f0: 73ea c8b5 f5cc f027 ae85 b434 fa63 5636
00000100: 8899 7d36 ed35 1836 b1f9 6bb5 31c1 2bb7
00000110: 06a7 7c38 e00f 1a3a fb24 8f3b da8a 6137
00000120: f791 803e 339b 99bc 987e 61bd a827 3cbe
00000130: b679 c93d 41b1 8e3d d8f5 c23c d57f 343e
00000140: d92c 5e3e 4bcf 9e3e bd97 103f 6fe8 683d
00000150: 8de0 a2bc 53da 233e ad8a a3bd 7ad5 923e
00000160: a452 c93e 8bd6 233e 9c1d 113f fff9 e53c
00000170: 40ff d03e 5b58 4bbe da72 573e 4c8b 8fbe
-0.0006513359 -0.00029711393 -0.0013359159 -0.0001599145 0.6330422 0.0011264321 0.25761482 -0.00046885363
0.0008272045 0.015024226 0.002288602 0.004566866 0.002911768 0.00079162716 0.0009220342 0.0011805185
-0.0036956333 -0.00015108986 -0.0026064357 0.011533262 0.0059258845 0.03113513 0.1421487 -0.0031926804
0.50999904 0.43998188 0.2575771 0.44167212 0.49749684 0.51395094 0.34174857 0.40205324
0.45466232 0.50657475 0.5050454 0.3108418 0.44415882 0.44022918 0.4048815 0.47840583
0.5097261 0.5377365 0.5248257 0.48752594 0.5031224 0.39168274 0.61425203 0.37917864
1.1256491e-06 -2.445476e-07 1.4148253e-06 -6.1599126e-10 0.38227427 1.8351977e-06 0.07870636 1.2136981e-05
2.9986307e-07 -3.828599e-05 -1.1727668e-06 -1.8751905e-05 -1.4969395e-06 6.6835596e-15 3.3624877e-07 3.194668e-06
3.7789305e-06 2.2681154e-06 -8.790767e-07 -1.0237375e-05 6.0237035e-05 0.00058769993 0.004368422 1.3443374e-05
0.25111362 -0.018750763 -0.05505237 -0.18374503 0.09837668 0.06967402 0.023798868 0.17626889
0.21696796 0.31017527 0.56481534 0.05686229 -0.019882465 0.16001253 -0.07985435 0.28678495
0.39320862 0.1599981 0.56685805 0.028073309 0.4081974 -0.19857924 0.21039906 -0.28035963
