cv_steps/tabnet_raw_step1_fold4_3/network.pt (torch, 682379 bytes, 56 tensors)

embedder.embeddings.0.weight f4 [3, 1]
00000000: b058 f53d 839a 3f3c 1fc0 11be
0.119798064 0.011694553 -0.14233445

embedder.embeddings.1.weight f4 [2, 1]
00000000: a6ab e33c b8aa e3bc
0.02779181 -0.027791366

tabnet.initial_bn.weight f4 [1038]
00000000: 9cb1 2e3d 3a56 5d3e 6928 ae3c 994d 1e3e
00000010: 7a01 293e 9224 243e 74c6 003b cce5 e5b8
00000020: 47b1 343e e970 623e 82da 833e d8f0 053c
00000030: 8b8e 9638 c86c dd3d 4238 283e 4cf1 9d3d
00000040: 63a5 f03d 35e5 313e 858a ef3d 4e02 413d
00000050: 3324 1e3e 65b0 e53d c65d 613e b978 023d
00000060: 1808 823e 79fa d83d 7838 5b3c a292 103d
00000070: 1a00 ff3d 6e81 413e 4128 e83d ecd4 94b8
00000080: 1164 6e3e ccf8 1dbc 1bd7 323e b778 2f3e
00000090: c0a4 f93d 6c87 193d 8302 913e ed3a 393e
000000a0: 1d0c 053e 023d 3f3e 1918 db3d a566 7c3d
000000b0: ee42 c53d de76 00bb 8429 d43d d48b b13c
000000c0: 5fc0 f73c 214d 443e d6c6 533e 8330 ae3d
000000d0: 1df3 e43d 5611 f53d 6301 1e3d 1291 863d
000000e0: 2376 db3d 9cfc 2b3d f48e 0e3e adc8 453e
000000f0: 6687 b63d e401 af3c 1018 3d3e 0883 013e
00000100: 5b29 c83b 330b 133e 94fb 443e 1ed4 db3d
00000110: e4f7 fe3d e7fa f23c 11d4 323e 86a0 af3d
00000120: d26e 2b3e 375c 143e 28f2 c93a 7e67 3139
00000130: c45d 463e 350e b83e 825a 2e3d ba25 bd3d
00000140: bb88 363e 56d2 c83c 4edd 0eb7 fc9b 2d3e
00000150: 5339 9bbd 2c80 9c3d 2993 4c3e 626b fe3d
00000160: 02ac ea3d 5a45 343d 3ba5 143e 4225 943d
00000170: d81e 313e 50b8 e73d 791b 133e 58fd 103e
00000180: 75ec 2c3e bb57 963d ea4d f83d e83a ad3b
00000190: 5e9f 193e 59d8 893d 92a6 3d3e 2d45 343e
000001a0: 73ca 3f3e 3f98 1f3e 6642 033e 8e87 003e
000001b0: 90f3 533d c125 f53d e0df 8f3d 48fb 213e
000001c0: 8480 ed3d 5d38 2b3d 08cf cc3d 3709 353e
000001d0: 6d16 2b3d 6649 1a3a 57b4 8c3d 484d 913e
000001e0: 00aa 243e 5181 6039 b159 af3d e9e7 02b8
000001f0: 193a 153e e418 b93d 4aa8 8bbc b794 4a3e
00000200: 5d72 13bb e7d9 ce3d a237 5a3e ad8e 0f3e
00000210: d83c 3c3e 18e9 193e daa9 1c3d e3a3 b53d
00000220: f4b0 a23d 3fc0 2d3d 16e3 063e e240 4e3e
00000230: d790 0c3e 743f 873d 2632 163e 0841 393a
00000240: 663a 113e 647b b93d 1458 553e f524 9e3d
00000250: 6173 963d b995 0d3e 85cc 173e c3c8 1d3e
00000260: 717a 8a3d 6b2e 5bbb 743d 3c3e 1198 dd3d
00000270: 5cd0 d13d 7539 e03d b4d0 573e 20ef ae3e
00000280: 71f9 893e beee 1b3e 90a1 163e 26e0 d43d
00000290: c20a 0b3e dff4 ec3d 227d 5e3e 874d a53c
000002a0: b1df 833c 5d85 653e 67a0 0a3e ec72 4c3e
000002b0: 4e1d 5d3e 612e f43d 12dd e43d 037c 3d3e
000002c0: 7829 073e 3498 9e3e aa8e 1f3e 42b4 813d
000002d0: 93ea b03e edf7 123e 9ea9 2e3e db1f 603e
000002e0: 6fe2 b0bd 7639 df3d ff43 813b 229c b93d
000002f0: e928 1c3e 5923 473e ddb0 073e 6555 2f3e
00000300: 436b 0b3e 4745 b53d ca54 d83d 1601 ce3d
00000310: da6f 9a3d 3e4f 213c 8663 ab34 d431 3b3e
00000320: 8cc2 04bc dfb5 fa3a 41e7 5c3d b4fa 2f3e
00000330: bccb 7e3e c083 5f3e 786f c73d 1a31 143e
00000340: a36d df3d 93be 983e 098b 7b3e 71f0 8a3d
00000350: e9c7 143e 1f30 003e 93f3 513d 25ef 1a3e
00000360: 776b 923d e0d4 f83d 446f 813d e9fc 5f3e
00000370: 3e6b 003e a56d 9c3d 6bf6 0d3e 5f2f 113e
00000380: 3e0e 6f3e f7c0 503d 62fd 883d 1478 143e
00000390: 25ea a03d d8fa 3d3d b244 0c3e 4271 0d3e
000003a0: 937a 62bd 552e 7e3e 75ad 1d3d 5e9c 2a3e
000003b0: 6bde 0d3e e745 ba3d 7f09 d13a 3a27 ea3d
000003c0: 9956 7e3d 5f0f 073e 1777 0e3e 3c7b 2b3e
000003d0: 762f 3e3d d3b4 3839 4360 ba3d 374c db3d
000003e0: 4a1f b43d 0b91 8a3d 5571 1c3e 84a3 073c
000003f0: 4910 f139 6c8f f73a fe2b 493c c7fb 323c
0.04264985 0.21614924 0.021259503 0.15459289 0.1650447 0.16029575 0.0019649537 -0.00010962374
0.17645751 0.22113384 0.25752646 0.008175097 7.179108e-05 0.10811764 0.1642771 0.07712039
0.11750295 0.17372592 0.116963424 0.04712134 0.15443496 0.11215285 0.22008428 0.03185341
0.253968 0.10594649 0.013380162 0.03529609 0.12451191 0.1889703 0.11335803 -7.09685e-05
0.2328036 -0.009641837 0.17464869 0.17135893 0.12189627 0.037482664 0.2832223 0.18088885
0.12992902 0.18675616 0.10697956 0.061621327 0.096319064 -0.00196021 0.10359481 0.02167312
0.030243097 0.19170047 0.20681319 0.085053466 0.11179183 0.11966197 0.03857554 0.06570639
0.10715892 0.041988954 0.1392172 0.19314833 0.08912544 0.021363206 0.1846621 0.1264764
0.0061084456 0.14359741 0.19236594 0.107338175 0.12449625 0.029660655 0.1746371 0.08575539
0.16741493 0.14488302 0.0015407251 0.00016918589 0.19371706 0.3594834 0.042566784 0.092357114
0.17825596 0.024514358 -8.515386e-06 0.16954035 -0.07579293 0.07641634 0.19978012 0.124228254
0.11458589 0.04401145 0.14516155 0.07233669 0.17296922 0.11314452 0.14365949 0.14159143
0.16887076 0.07340952 0.12124236 0.005286563 0.150022 0.06730718 0.18520573 0.17604513
0.18729572 0.15585421 0.12818298 0.1255171 0.05174595 0.119700916 0.07025123 0.15818512
0.11596778 0.0418018 0.100004256 0.17679296 0.041769434 0.0005885571 0.068703346 0.28379273
0.16080475 0.00021410479 0.08562029 -3.12104e-05 0.14572944 0.09037951 -0.01704802 0.19783293
-0.0022498586 0.10100155 0.21310285 0.1401927 0.18382585 0.15030324 0.03824792 0.088691495
0.079439074 0.04241967 0.13172564 0.20141938 0.13727127 0.066038996 0.14667568 0.00070668804
0.14182433 0.09056738 0.2083438 0.07721893 0.073462255 0.13826646 0.14824112 0.15408616
0.06761635 -0.0033444415 0.18382818 0.1082002 0.102448195 0.10948459 0.21075708 0.34166813
0.2694812 0.15227792 0.14710069 0.103943154 0.13578323 0.11570143 0.21727422 0.02017857
0.016097875 0.22414155 0.13537751 0.19965714 0.2159321 0.119229086 0.11174978 0.18504338
0.13199413 0.30975497 0.15581766 0.063332096 0.34553966 0.14352389 0.17056891 0.21887152
-0.08636939 0.10899632 0.0039448733 0.09062983 0.15249981 0.19447078 0.13251062 0.17122419
0.13615136 0.08851104 0.10563047 0.10058801 0.07540865 0.009845553 3.1923645e-07 0.18280727
-0.008103024 0.0019127688 0.05393148 0.1718548 0.24882406 0.21827602 0.09738058 0.14471856
0.109095834 0.29832897 0.24564756 0.06784142 0.14529385 0.12518357 0.05125768 0.15130289
0.071494035 0.12149978 0.0632005 0.21873821 0.1254091 0.076381005 0.13863532 0.14178227
0.23345277 0.050965276 0.06688954 0.14498931 0.078571595 0.0463818 0.1369808 0.13812736
-0.055292677 0.24822362 0.0384955 0.16661212 0.13854377 0.09095364 0.0015948265 0.11433263
0.062094305 0.13189457 0.13912617 0.16746229 0.04643198 0.0001761497 0.09100392 0.10707896
0.087950304 0.06765946 0.15277608 0.008278731 0.00045979235 0.0018887348 0.012278555 0.010924286

tabnet.initial_bn.bias f4 [1038]
00000000: e4d1 cfb7 72d5 78be 0a10 e236 7589 153a
00000010: 815c 27ba 8b8d 1dbb cc7c 1eb7 56fa 39b6
00000020: 2936 05be b229 413e 476e 3bba e39c 8cb8
00000030: b6b4 3f35 810f d639 2654 4db9 6b2e a337
00000040: ae8b 97b9 c607 9d3e 9a59 473a b1f5 50b8
00000050: 4ad7 c9ba f5c7 ddb8 f6e9 033b 79a4 6438
00000060: 1ca8 943a 31d3 6d39 b464 0d38 fb4a 8cb8
00000070: 163f 43b9 e15d 34ba 3594 bab8 d08c abb6
00000080: 4d98 8ab9 9809 53b7 ec6e 2239 8946 d4ba
00000090: c80c 1f39 defd 8237 483f 7c3a 6b88 05ba
000000a0: e660 c837 50c7 c3bd d103 43b9 dce9 7eb9
000000b0: 8c43 32ba cb08 40b6 ed48 2a37 57ea 3ab7
000000c0: 1665 cdb8 f457 853a a0c1 9ab9 d3a5 f938
000000d0: ea6d e339 75f5 2cb9 e0cf 2d39 45d6 d339
000000e0: 2962 3e3b b49a 8f38 009f c2b9 a54b 5339
000000f0: 35b9 4a3a 8d37 b5b8 8430 313a 4a63 ed3b
00000100: eb01 babe b212 2abc 89c1 8cb9 e1f4 d037
00000110: f5dd f6b8 9d65 9d37 c7f2 5f39 8fe9 feb9
00000120: 582a 9ab9 d758 7dba 817b 0a35 e5a3 2fb5
00000130: 28ff c8b9 9044 463a 12bd 10ba f02f 7cb8
00000140: a7a3 6b3b f19b 33ba 030a 4cb5 4b1c 3aba
00000150: 9450 b239 fbe2 58ba 03ef b533 47e0 6d37
00000160: 5953 d239 0c8f cb38 ec1f cbb9 560e a038
00000170: 83df 55b9 06df a139 1321 8639 a5a0 85b8
00000180: 578e aa3b 6831 3abe f3ff 8039 accf cfb6
00000190: 6636 e1b9 b6d7 b339 3aff 303a cec4 5a39
000001a0: 1e5f 87ba 4dd0 1a39 1243 2cb8 74dd 9438
000001b0: f3bf 8b37 0bca 6739 5dbe 3eb9 5384 e738
000001c0: 0d90 bf39 bba6 2f39 df00 93b9 b6cd 613e
000001d0: 86c1 c9be 3fe2 9735 a4bf fdb8 c6ec d9b6
000001e0: eee4 cf3e 0495 9133 72cb dbb9 1685 68b2
000001f0: b4b5 e8b9 680a 21b9 22d0 a83e 89d8 82b8
00000200: 72bc c136 c609 5439 0fd7 243d 8fac 8238
00000210: 988e 2eba 775c 063a 28c4 30b8 db5e 3f39
00000220: 06e6 e3b8 4aa1 92b8 5381 dab9 00b2 efb8
00000230: 9252 a6b9 5185 13b9 aa87 bfbb cc31 e6b4
00000240: 7488 75b9 51b9 7139 09ca 09bc c8df 0139
00000250: 177e 5db8 e7c6 91b9 5784 48b9 f935 b6b9
00000260: 5247 0639 63b8 e335 c47f 9138 7d75 9aba
00000270: d475 653a e2cb 18ba 7e78 4dbb acad 2a3a
00000280: df46 b9b9 db26 02ba d75d 88b9 1242 eb38
00000290: 1e56 c639 2271 17be c55e c4b9 74ec 4bb7
000002a0: 64ff c8b9 944a 7d39 0673 6c39 1b4d cc39
000002b0: 8d5d fb38 8df3 e0b6 2cc6 bfb9 2ab6 1dba
000002c0: 8e47 f9b8 92c0 1cbc 2e70 9239 1194 d838
000002d0: a1c2 103a 847a ba38 bf1b afbb a298 a639
000002e0: 54c2 6f39 41f1 d8b9 f794 7cb8 19e6 70b9
000002f0: 6225 0cb9 08be f5b8 3253 133a ed59 1fbb
00000300: 7f7c b5bc 3b4b d5ba 5ff5 32b9 6618 6ab9
00000310: 7d61 8839 5928 a037 f95d bd33 4121 97bc
00000320: 5f74 d1be c5b8 e0b7 6aad 6838 99e7 81b9
00000330: a460 aa39 445f ba38 8a7e bab7 99f4 b5b9
00000340: 7352 b038 4cd9 88ba 327f 22bd b8ec 23b8
00000350: 3db1 12b5 0595 6fb9 8464 d0b8 66c6 63b9
00000360: 2364 7837 d208 6d39 6106 713c 6b0f 993a
00000370: 5021 8ab9 6cd6 6d39 c69b 5538 69cd 30b9
00000380: 6365 8fb9 aa38 e238 6ff0 be38 d869 ccb8
00000390: 07b3 bb38 d257 cfb8 ddcd 543c bd6f 4b39
000003a0: 5b28 e3b9 25f0 bc3a 8108 6db9 7546 a6b9
000003b0: f61a 1bba 6d14 66b9 0b03 c7b7 fd89 b0ba
000003c0: 4d98 7eb9 ab19 593a 5a06 a1b8 6a0a c139
000003d0: 77a7 60b9 0dd7 2eb5 4ba5 a6b9 fe22 6c38
000003e0: a56e 57b9 3919 a9ba 76c1 81b7 b631 e636
000003f0: ec2b 9833 b30f 4bb5 f8b2 2339 ce59 d537
-2.477406e-05 -0.24300173 6.737192e-06 0.00057043816 -0.00063843286 -0.0024040665 -9.44659e-06 -2.7712863e-06
-0.13008942 0.18863562 -0.00071499165 -6.704943e-05 7.1416014e-07 0.00040828812 -0.00019581671 1.945273e-05
-0.00028905034 0.30669993 0.0007604599 -4.9819882e-05 -0.0015399244 -0.00010575346 0.0020128465 5.4512613e-05
0.0011341604 0.00022680756 3.3710807e-05 -6.6896864e-05 -0.0001862015 -0.0006880444 -8.896777e-05 -5.11259e-06
-0.00026434884 -1.2578814e-05 0.00015490846 -0.0016195338 0.00015168183 1.5615424e-05 0.0009622467 -0.0005093875
2.388698e-05 -0.095595 -0.00018598071 -0.00024310447 -0.00068002264 -2.8615348e-06 1.0149769e-05 -1.1141025e-05
-9.7939905e-05 0.0010173307 -0.0002951743 0.000119041324 0.00043378706 -0.00016494638 0.00016576005 0.000404047
0.0029050207 6.847587e-05 -0.00037121028 0.00020150708 0.00077332865 -8.6411e-05 0.00067592436 0.007244502
-0.36329588 -0.010380434 -0.00026847076 2.4909563e-05 -0.00011771537 1.8763176e-05 0.00021357379 -0.0004862067
-0.00029404717 -0.0009664422 5.158873e-07 -6.543108e-07 -0.0003833708 0.0007563317 -0.0005521338 -6.0126127e-05
0.0035955699 -0.0006851545 -7.601049e-07 -0.0007099553 0.0003401084 -0.0008273569 8.471945e-08 1.4178519e-05
0.0004011642 9.706439e-05 -0.0003874296 7.632065e-05 -0.00020396528 0.00030874478 0.00025583114 -6.3718566e-05
0.0052049565 -0.1818291 0.0002460476 -6.193257e-06 -0.00042955874 0.00034302258 0.0006751899 0.00020863416
-0.001032803 0.00014764183 -4.107046e-05 7.098439e-05 1.6659475e-05 0.00022105144 -0.00018190728 0.00011039586
0.00036537685 0.00016751412 -0.00028038674 0.22051129 -0.3940546 1.1316223e-06 -0.00012099676 -6.494668e-06
0.40604347 6.7791945e-08 -0.00041922514 -1.3534438e-08 -0.00044385868 -0.00015358033 0.32971293 -6.239216e-05
5.773786e-06 0.00020221536 0.04024416 6.2310246e-05 -0.00066588214 0.00051254727 -4.2144355e-05 0.00018250516
-0.00010867049 -6.991865e-05 -0.00041676554 -0.00011429563 -0.00031723507 -0.00014068677 -0.00584503 -4.287707e-07
-0.00023415854 0.00023052587 -0.008409985 0.00012385764 -5.2807936e-05 -0.0002780475 -0.00019122787 -0.00034753958
0.00012805805 1.6966482e-06 6.937937e-05 -0.0011784282 0.00087532145 -0.0005828721 -0.0031352337 0.00065108645
-0.00035338753 -0.00049648964 -0.00026009858 0.0001121798 0.00037829665 -0.1478925 -0.00037454642 -1.2154796e-05
-0.00038337253 0.00024155743 0.00022549563 0.0003896736 0.00011986038 -6.7040733e-06 -0.00036578008 -0.0006016219
-0.00011886573 -0.009567397 0.0002793087 0.00010327262 0.0005522166 8.8919915e-05 -0.0053438838 0.00031775708
0.00022865209 -0.0004137848 -6.0220216e-05 -0.00022973902 -0.00013365367 -0.000117179065 0.0005620002 -0.0024315075
-0.02215409 -0.0016273031 -0.0001706681 -0.00022325068 0.00026012576 1.9092275e-05 8.818092e-08 -0.018448474
-0.40909097 -2.678892e-05 5.5474615e-05 -0.0002477735 0.0003249693 8.886916e-05 -2.2231852e-05 -0.0003470525
8.407691e-05 -0.0010440736 -0.039672084 -3.908269e-05 -5.4647154e-07 -0.0002284833 -9.9369354e-05 -0.00021722316
1.4805267e-05 0.00022605367 0.0147109935 0.0011677569 -0.0002634623 0.0002268196 5.0928233e-05 -0.00016861189
-0.00027350624 0.00010787074 9.10469e-05 -9.747193e-05 8.950201e-05 -9.886887e-05 0.012988535 0.00019401214
-0.0004332688 0.001441483 -0.00022605249 -0.00031714482 -0.0005916798 -0.00021942118 -2.3724066e-05 -0.0013468858
-0.00024280064 0.0008281718 -7.678261e-05 0.00036819588 -0.0002142469 -6.513299e-07 -0.0003178514 5.6299374e-05
-0.00020545216 -0.0012901194 -1.5468086e-05 6.8603213e-06 7.086041e-08 -7.564624e-07 0.00015611562 2.5433397e-05

tabnet.initial_bn.running_mean f4 [1038]
00000000: e16f 86ba aa81 103a dd57 b03a 0e61 103b
00000010: c916 583b dcf3 1dba ac67 1838 baf3 50bb
00000020: 3f7d cd3b 41dc 9eba 5860 74bc a517 3c3a
00000030: e728 c3ba 8739 843a b52e d0b9 b8ff 2e3b
00000040: 29c2 82bb 0000 9db9 b2ef 56b8 bc49 c7b9
00000050: 632e cc39 f391 5b3b 9e2a 3039 9287 1cba
00000060: f122 0cbb 2e8d 05ba 2867 2dbb 7223 4d38
00000070: c457 b73a 4dc9 843b f482 eeb9 39b2 03bb
00000080: 1fd6 1dbc 6302 533c 5890 75ba e1de a23b
00000090: 0f09 11bb a658 5e3a a725 e9ba d964 33bd
000000a0: 97cc 083d 229a 12bb 6bbc efba a0ec 97b9
000000b0: 170c 563b 91e4 fc39 40ca d0ba fb58 b5bb
000000c0: bcaa 863b 5234 b8ba 0853 a53b a23d 753b
000000d0: 847b 4abd add9 ae3b e8ab 35bb 6c16 5b39
000000e0: 6847 3c3b 616a 08bb d04f 60b9 873c 343b
000000f0: 1785 a3bc 59db b4b9 cd8c f6ba 0179 d6ba
00000100: a4aa 2dbc 5bbb 8fbc 5c40 c23a 3169 b33a
00000110: 36d2 2abb 7903 5fbd 0495 9ebb 5d78 44bb
00000120: 34a4 93bb ef4c f73a 46e8 86bc 8a47 eeb9
00000130: 37f8 893c 2e73 3bbd a516 70bb 3a34 053b
00000140: c490 043a 5801 91ba 94c8 d639 fc2b f4ba
00000150: dd4b 4c3a a6ce 203b 056c 05ba 3c00 d83a
00000160: 8bbd 223c 60a5 7bb9 6352 253a d609 49ba
00000170: 05c2 d03a ca09 f63b c0a9 573b 5b91 a5b9
00000180: 65f3 f9ba bb69 183b 0f00 3bbc 00cd 083c
00000190: 6f2f 92bb 6243 783a 1af6 8e3c f657 883b
000001a0: 307f ca39 1400 8a3b affc b63a d566 16ba
000001b0: f171 cf3b 40ae 6b3b d604 d13a 398f 99bb
000001c0: 20ae b03b 871a 8eba ae40 21bc bde2 a9bc
000001d0: 3ae6 c8ba d9c7 dd3a d50c 793b 8873 c8bb
000001e0: bac8 93ba d324 baba e025 8abb 80b1 6abb
000001f0: 837e 61ba 199b d63c dbb4 87b8 7830 c5ba
00000200: 4c13 aa3b a886 6ebb a32c 87bc 1bce 1aba
00000210: 0161 763b 0d0d 013d 7fc0 bf3b 8a5e 80b8
00000220: 0905 14bb 7232 c7ba 9403 5d3b 0688 e7b9
00000230: 89f5 27bb a02e 103b 5b32 fa3a aea7 8a38
00000240: 9b5c 963b bfd5 063b e35a f73b 1089 cc3a
00000250: 38b2 2b3b 9249 563c c074 563b 9fa6 693b
00000260: 7a01 27ba 9e1d cb3a 7961 10bc c728 83bb
00000270: 862d a3b9 3c9b 983b 0659 69bb cd23 c33a
00000280: e988 bd3c ea6f 59bb 0732 1abb f8ab cdba
00000290: 8604 8bba 66d6 1c3c a196 703a c288 4939
000002a0: 928f dc39 5034 323b 958a 473b 8db6 503a
000002b0: 1107 0f3c bd53 4ab9 fbfa 163b f007 b1ba
000002c0: e819 22bb 626b 8eba 93af 94bb 2041 843b
000002d0: 8998 53bc f18c 2cba dca4 c739 506f af39
000002e0: 28fe ce3a f252 d9bb e785 1dbb 6128 b9bc
000002f0: 44d8 73bb dd11 2c3a 54bc 80bb 01e9 beba
00000300: 6708 233a 6c4f 903b 3e05 e739 adea 2a3a
00000310: 3ff0 583a 832b a5bc a1fc 41bb 8e39 083c
00000320: 1a96 aa3b c535 f5ba 8e70 953a ae58 2e3c
00000330: 0a63 40bc d769 cfba 50b1 af3a 09a9 0abb
00000340: 0b7c 273a e80c 0bbc 20ae a73c e067 72ba
00000350: 5779 2c3b 79d0 fa3a bf0e 30ba 8b03 373b
00000360: db16 003a a868 633b a462 7ebb f535 61bb
00000370: 5384 86bb 83e8 f1b8 d145 743b 6f8a 2b3b
00000380: 821e 463a 6638 253a 7ea2 8fba ace2 2d3b
00000390: 3805 033c ac58 47bb a649 94bd b06c 93ba
000003a0: 3381 483b f41e 44bb 561f 033c f81c 19bb
000003b0: a2fb 92bb 31b5 cb3b 60ec 5abb 980f a7ba
000003c0: c64a be3a f534 98ba 0ac3 0c3b 2bf6 8cbb
000003d0: fc34 5c3b 0ef5 cd3b 78d5 e43a 50c2 bbb9
000003e0: eeab 8c3a b1f8 3e3b b84c c93c 92c8 90b9
000003f0: b002 5abc b34e 103c 55cf 043b d1ab fa37
-0.0010256731 0.00055124855 0.001345392 0.0022030505 0.0032972565 -0.00060254126 3.6336176e-05 -0.0031883554
0.006271034 -0.0012120084 -0.014915548 0.0007175154 -0.0014889509 0.0010087945 -0.0003970765 0.0026702713
-0.003990431 -0.00029945374 -5.124481e-05 -0.00038011174 0.00038944473 0.003350374 0.00016800544 -0.0005971129
-0.0021383131 -0.0005094585 -0.002645919 4.890882e-05 0.0013987948 0.0040523172 -0.00045492465 -0.0020095243
-0.00963357 0.012878987 -0.0009367517 0.004970417 -0.0022130643 0.00084818376 -0.001778771 -0.043797348
0.033398237 -0.0022369702 -0.0018290406 -0.00028977264 0.0032661015 0.0004823548 -0.0015929416 -0.005534289
0.0041097086 -0.0014053679 0.0050452985 0.003742077 -0.0494342 0.0053360076 -0.0027720872 0.0002089382
0.0028729085 -0.002081536 -0.00021392037 0.0027501897 -0.019960923 -0.00034495702 -0.0018810272 -0.0016362966
-0.010599766 -0.017545393 0.0014820206 0.0013687966 -0.0026065237 -0.05444667 -0.0048395414 -0.0029978969
-0.0045056585 0.0018867532 -0.016468178 -0.00045448198 0.01684199 -0.04576414 -0.003663459 0.002032532
0.0005056972 -0.0011063023 0.00040966703 -0.0018628831 0.0007793287 0.0024537235 -0.00050896435 0.0016479562
0.009932886 -0.00023998832 0.0006306527 -0.0007669007 0.0015926963 0.007508491 0.0032907575 -0.0003157955
-0.001906973 0.002325638 -0.011413588 0.008349657 -0.004461221 0.000947049 0.017451335 0.0041608764
0.00038623204 0.004211435 0.0013960804 -0.0005737369 0.0063307215 0.0035962015 0.0015946876 -0.004686263
0.005391851 -0.0010841646 -0.009842081 -0.020738 -0.0015327402 0.0016920521 0.0038002033 -0.006117288
-0.0011275031 -0.0014201648 -0.004215941 -0.0035811365 -0.00086019206 0.026197003 -6.4709886e-05 -0.0015044352
0.0051902886 -0.003639618 -0.016500777 -0.0005905346 0.003759444 0.031506587 0.0058518047 -6.121125e-05
-0.002258601 -0.0015197529 0.0033724057 -0.000441611 -0.0025628528 0.0022000447 0.0019088493 6.6115856e-05
0.004588676 0.002057418 0.0075486763 0.0015604813 0.0026198756 0.013079064 0.0032723397 0.0035652292
-0.00063707645 0.0015496498 -0.008812302 -0.004002664 -0.000311237 0.0046571773 -0.003560604 0.0014887989
0.023136573 -0.0033178278 -0.0023528354 -0.001569151 -0.0010606206 0.009572601 0.0009177719 0.000192198
0.00042068638 0.0027191825 0.0030447592 0.00079617725 0.008729712 -0.00019295416 0.002303778 -0.0013506394
-0.002473468 -0.0010865743 -0.0045375316 0.004036084 -0.012914785 -0.0006582281 0.00038079068 0.00033461535
0.0015792297 -0.0066322023 -0.002403611 -0.022602262 -0.0037207762 0.0006563941 -0.0039287005 -0.001456529
0.00062192086 0.004403999 0.0004406366 0.0006519955 0.00082755456 -0.02016235 -0.0029600041 0.008314503
0.005205882 -0.0018708041 0.0011401342 0.01064126 -0.011742363 -0.0015824389 0.0013404284 -0.0021157882
0.0006389028 -0.008486964 0.020468771 -0.0009247046 0.0026317441 0.0019135616 -0.00067160645 0.0027925696
0.0004886218 0.003469983 -0.0038816119 -0.0034364436 -0.0041051297 -0.00011535084 0.003727306 0.0026175042
0.00075576466 0.00063026545 -0.0010958461 0.0026532812 0.00799685 -0.0030417843 -0.0724061 -0.0011247601
0.0030594587 -0.0029925676 0.008003077 -0.0023363214 -0.0044855634 0.006216668 -0.003340505 -0.0012745736
0.0014518134 -0.0011612462 0.0021478557 -0.0043018064 0.0033600917 0.0062853163 0.0017458638 -0.00035812194
0.0010732391 0.002913993 0.024572715 -0.00027615257 -0.013306305 0.008807826 0.002026518 2.988233e-05

tabnet.initial_bn.running_var f4 [1038]
00000000: 7cf5 1e3c 2840 4d3a 9af5 7d3f e7ae 783f
00000010: 862b 793f 9ca5 7a3f 4e4d 793f adf6 773f
00000020: 3960 773f bce1 783f e3a7 8b3f cc31 7a3f
00000030: 320b 7a3f 91d6 7a3f f5b3 7a3f 5296 7e3f
00000040: dd40 7b3f 2231 793f a3e9 7c3f dfac 7a3f
00000050: 7af6 793f 017b 793f aad2 783f c6be 783f
00000060: d232 793f f49e 783f 3580 7a3f 00cc 783f
00000070: c212 7a3f 9a9b 793f 5869 793f a090 7a3f
00000080: 61b3 793f f14d 883f 0cb2 783f ca09 7a3f
00000090: eb92 7a3f 939f 7a3f c8e6 7d3f e518 a53f
000000a0: 4b56 9a3f 9f10 793f dc16 803f 82fb 7a3f
000000b0: 8414 793f 0893 7b3f c2cd 783f 3af7 773f
000000c0: f8af 813f c7d4 793f 8312 7f3f 8c4f 7a3f
000000d0: 10a7 a93f 520d 783f 3267 7b3f f362 7b3f
000000e0: a0d3 7e3f e13a 7e3f c275 783f 4f81 7c3f
000000f0: 16a3 923f fe14 7c3f f5cc 773f a776 7d3f
00000100: 61c8 853f 40c2 843f a6f5 783f dbe4 7b3f
00000110: 2a0e 7a3f fee3 b23f 36af 793f 3428 773f
00000120: cfe4 783f 8545 793f ed55 8f3f 5037 793f
00000130: f182 853f 9921 aa3f 9192 793f 4a69 793f
00000140: f2c2 793f fced 773f 6fa8 793f 4d58 793f
00000150: d81e 783f fa91 7a3f 7ed9 773f b627 793f
00000160: a26f 833f 7473 793f ce14 793f 9b9c 793f
00000170: ef84 7a3f a469 813f 4193 793f 91f0 783f
00000180: 667e 793f 62f4 793f e7a7 813f ec93 833f
00000190: 5414 803f c956 783f 3415 8b3f e1fb 783f
000001a0: 02d1 7e3f de15 793f 44c0 783f 008f 773f
000001b0: e1c2 813f 496b 7b3f d1ee 793f d125 783f
000001c0: 3ca4 783f 7da9 7b3f 4a6d 763f 8148 8f3f
000001d0: fd91 783f 64ce 793f d3f1 7b3f c7b0 7a3f
000001e0: e3e2 783f f446 783f 3786 793f 2ac5 813f
000001f0: be5b 7a3f 551e 973f 83f6 763f 39b7 793f
00000200: 29be 7c3f d750 783f 8f6e 8e3f da22 793f
00000210: a342 813f 6076 9b3f 51de 813f f368 7d3f
00000220: 09c4 7a3f 09ac 783f 9d85 783f 3710 7b3f
00000230: 2fba 7b3f 8952 7c3f 3d6e 7a3f 29a8 773f
00000240: 9e09 7f3f 157e 793f a70e 813f 5617 7b3f
00000250: 1f1c 7f3f 2aa7 833f 34c3 7c3f 5500 7a3f
00000260: 7073 793f 1140 793f eab8 823f dc2b 793f
00000270: 3a2e 7a3f 8ff4 813f a452 7a3f c849 7a3f
00000280: fdee 933f 0ef6 773f c7b7 7e3f a65a 7a3f
00000290: 009c 793f 094a 833f 4229 823f 8061 793f
000002a0: 0a76 7a3f 8426 7a3f a649 7a3f 917b 7b3f
000002b0: 7f52 853f 63b7 7a3f e5f7 783f dcec 793f
000002c0: e5e2 793f 8001 7a3f 8c75 783f e04b 7d3f
000002d0: ca40 8b3f 85b9 793f 0934 783f 39e1 7d3f
000002e0: 79e1 783f 77c6 813f e6ac 783f 7f5e 903f
000002f0: 0a57 7b3f 0465 783f 8b94 783f b62d 813f
00000300: fb7d 783f e3c9 773f 94f6 773f 9173 7a3f
00000310: c2bd 783f 66c1 8c3f c8d5 793f 616e 823f
00000320: bc1c 7c3f ad93 783f 8c96 793f eee4 873f
00000330: 698c 893f 19f0 793f 0731 7b3f 15b9 763f
00000340: fbeb 793f dc63 793f 5d3f 893f ba75 793f
00000350: 9336 7c3f 6dc5 793f 2ffb 783f 04f7 7e3f
00000360: 42f3 773f b7a1 823f 078b 783f 07ef 773f
00000370: 1823 793f 19c1 763f e570 7c3f 2c6f 7a3f
00000380: b0e7 783f 53fd 793f e295 793f a51d 7a3f
00000390: 0f1e 853f 2cee 763f f9c4 bc3f cb58 7a3f
000003a0: 43de 783f b4e3 803f 23c5 7b3f 14e8 773f
000003b0: 13ae 7a3f 6103 7e3f 8ccc 7a3f 001a 7a3f
000003c0: 4e4f 783f 8819 7a3f a10f 783f 4c0d 793f
000003d0: a382 783f 67f6 813f cbfe 7e3f 9bda 7d3f
000003e0: 06c5 783f f17c 793f fb4c 943f 054a 7d3f
000003f0: 30a5 873f 47c0 803f 4dbf 783f 5118 793f
0.009702083 0.00078296894 0.99202883 0.9714188 0.97332036 0.9790895 0.9738358 0.9686077
0.966312 0.97219443 1.091061 0.97732234 0.9767333 0.9798365 0.9793084 0.9944812
0.9814585 0.97340596 0.98794 0.9792003 0.9764172 0.97453314 0.9719645 0.971661
0.9734317 0.97117543 0.9785188 0.9718628 0.9768487 0.97503054 0.97426367 0.9787693
0.97539335 1.0648786 0.9714668 0.97671187 0.9788043 0.9789974 0.9918027 1.2898222
1.2057585 0.97290987 1.0006976 0.9804002 0.9729693 0.98271227 0.9718896 0.9686161
1.0131826 0.975903 0.9963762 0.9777763 1.3254108 0.96895325 0.9820434 0.9819786
0.99541664 0.9930859 0.97054684 0.9863481 1.145602 0.9846953 0.96797115 0.99009174
1.0451776 1.037178 0.9724983 0.9839608 0.9767786 1.3975828 0.97532976 0.9654572
0.97224134 0.97371703 1.1198097 0.97350025 1.0430585 1.3291503 0.9748927 0.97426283
0.9756309 0.9684751 0.97522634 0.9740036 0.96922064 0.9787899 0.9681624 0.9732622
1.0268443 0.9744179 0.9729737 0.97504586 0.9785909 1.0110364 0.97490317 0.97242075
0.97458494 0.97638524 1.0129365 1.0279517 1.0006204 0.97007424 1.0865846 0.97259337
0.9953767 0.9729899 0.97168374 0.96702576 1.0137597 0.9821058 0.9763003 0.96932703
0.971256 0.98305494 0.9626051 1.1194001 0.9709776 0.9758055 0.9841587 0.9792599
0.972212 0.96983266 0.9747042 1.0138295 0.9779624 1.1806132 0.964699 0.975452
0.9872766 0.9699835 1.112749 0.97318804 1.0098461 1.21455 1.014597 0.98988265
0.97955376 0.97137505 0.9707888 0.98071617 0.9833097 0.9856344 0.9782446 0.9674097
0.9962405 0.9745801 1.0082597 0.9808248 0.99652284 1.028539 0.98735356 0.97656757
0.9744177 0.9736338 1.0212681 0.9733255 0.97726786 1.0152758 0.9778235 0.9776883
1.1557308 0.96859825 0.9949917 0.9779457 0.9750366 1.0256969 1.0168841 0.974144
0.97836363 0.9771502 0.9776863 0.9823542 1.0415801 0.97936076 0.9725326 0.97627044
0.9761184 0.9765854 0.9705436 0.989439 1.0879147 0.97548705 0.969544 0.9917179
0.97219044 1.0138692 0.9713882 1.1278838 0.98179686 0.9702914 0.9710166 1.0092075
0.9706723 0.9679243 0.96860623 0.9783259 0.9716455 1.099652 0.9759183 1.0189935
0.98481345 0.97100335 0.9749534 1.0616739 1.0745975 0.97631985 0.98121685 0.9637616
0.976257 0.97418 1.0722462 0.9744526 0.98520774 0.9756687 0.97258276 0.99595666
0.96855557 1.0205601 0.9708714 0.968491 0.97319174 0.96388394 0.98609763 0.97825885
0.9722853 0.9765217 0.9749433 0.97701484 1.0399798 0.9645717 1.4747611 0.9779174
0.97214144 1.006949 0.9834768 0.968385 0.97921866 0.99223906 0.97968364 0.9769592
0.9699601 0.9769521 0.9689885 0.97285914 0.97074336 1.0153321 0.99607533 0.9916169
0.97175634 0.9745627 1.1585993 0.9894107 1.0597286 1.0058678 0.971669 0.9730273

tabnet.initial_splitter.shared.shared_layers.0.weight f4 [96, 1038]
00000000: 28c7 77bb 5a46 3bbe c835 0f3c 9a3f e03d
00000010: 0959 8e3b 7eee e8ba eb47 5b3a c87c 5138
00000020: bc1b d7bd 615a 1a3d 4579 bbbc b5d6 00bc
00000030: f4fd 3039 3df2 8cbd e702 793d 49fe 9e3c
00000040: 20bd a03b bed4 4a3d c7fe 5839 5959 23bc
00000050: fe97 ce3b 2c2b 03bd 1d8b 9dbd 2f4f 913a
00000060: b29a 323e 09fd ff3c 79a7 ed3b 04b6 45bd
00000070: 14b4 373c 2a8b 0dbe c456 6bbd fb2b a6b9
00000080: c0da 01bd 7878 7fbb f972 b8bb a2d5 8f3c
00000090: b1a9 edbc 2976 8b3c 9bed 5dbd 6b0a 3fbd
000000a0: 8de2 373d 908a b4bd d47d 7fbd 9e47 eebc
000000b0: ff56 80bd 7f71 b138 b6c7 b63d 599c 98bc
000000c0: edb5 b23c 7292 943d e225 953d b299 bd3d
000000d0: 89c2 8b3c a77a 3cbe bca0 dabc 718b 803c
000000e0: 5af2 e13b f56d b93c 58e3 1c3c c0b3 1e3d
000000f0: 7c0a 723d 1cdd 25bc 5b25 9e3d ef78 8cbd
00000100: af7c ac3d a8c4 f5bc d963 20be 6c7e a5bd
00000110: 9ace 17ba 1012 113c 97ae 09bc 1308 fc3c
00000120: 6692 583d e7cb 563c 7df5 4bba cce4 bdb8
00000130: 9cb5 f0bd 8b13 80bd d936 39bd 18fa ac3c
00000140: 9858 a8bc a15a 8dbc 456e d1b6 3053 aebd
00000150: e49a 4d3b e837 ee3c 515f f8bc 3d71 843d
00000160: a96d 0f3e 76bd 69bc a12f 5abc 0dd7 12bc
00000170: b38a 24bb d2ca e6bc c8ee 5b3c 1159 953c
00000180: 44f5 b13d 1dd8 edbc 4049 9e3d d24a 373b
00000190: 39fd 843c 18ea ac3c ecde 293e a711 2e3e
000001a0: 26a9 253e 582e a43d 7406 c2bd e51d 8d3e
000001b0: b006 d13c ce76 af3c e06b 08bc be42 83bb
000001c0: c4e8 d13b 837e 513d a8e7 4dbd 4359 8dbd
000001d0: e24c 283c ec63 ee35 09b6 933c 0835 d93d
000001e0: aa1b 31bc 6016 dc37 262f ddbc f1b8 0237
000001f0: 8438 91bd 5222 ccba 8760 7c3d 80e9 883c
00000200: a963 23bb d2e3 ea3b b36c 01bc ce87 42bc
00000210: 6d70 893c 50b2 bb3c c0bd bebb 8ace 543b
00000220: b2d9 3abc c851 27bc 7ee8 13be e357 e73c
00000230: 5b8b 073d cbd3 80bc 7130 543d 07c0 7339
00000240: 6c34 513d c1c2 abbb 1a12 b0b9 5048 813d
00000250: 4706 54bc 1a51 843c 0815 983c c00b 90bb
00000260: 3589 47bd a06b 85ba a75d 8fbd c52e 943c
00000270: 316a b1bd afe2 59bd 080a 813d 5d2e bd3d
00000280: 3304 4d3d 5441 03bb b21a 9fbc d9ba a33c
00000290: 3b0c 943d fb34 f43d 8f64 bcbd a358 25bd
000002a0: dcf5 97bc 4747 92bd 75d7 debd 106c febc
000002b0: 2263 303d 20b5 93bd 83aa b0bc 8767 d1bd
000002c0: ee09 93bd 04e9 073e b297 efbc 2c5a a83c
000002d0: 144e b43d 4e14 9c3d 3735 d33b 27fa e33d
000002e0: 001d ac3c 43f4 f1bd 8188 7fbb cb47 18bd
000002f0: b6c4 febc 6acb 99bd 3cc0 5abd 7d6a 293d
00000300: ee91 bc3c 8f78 8abb cb66 6d3d 4d16 76bc
00000310: 7530 a6bc 23ed 7fbb 6960 0f37 afd3 02bd
00000320: 26fc fa3d 81fe 673a b86e ff3a c16e 4dbc
00000330: 2907 dd3d 3901 f1ba db57 fdbc 44d3 7dbd
00000340: 44cb e4bc 3c44 623e 1587 6ebe 44ac 063d
00000350: 07d7 9f3d a411 93bd 1383 d6bb 221d 4d3c
00000360: ed9d 7fbd cb7c 30bd e663 18bd a3a4 c23d
00000370: 477c 0a3b bfd8 933d c900 a4bd b76e e93a
00000380: 54c5 323c 47c0 adbb 9c05 633d 36ba 2f3d
00000390: 44d0 fd3c 626d 33bd 789b b13c 2f14 103d
000003a0: 426c 303b 3f99 f23b 08ff b3bc f90b 3dbd
000003b0: acb7 8ebd 9611 afbc 1fa1 1ebb cc29 a73d
000003c0: e57a 703d f65d 4cbd 64c4 d43c 8a8c 873d
000003d0: 0e28 153d 45a3 d839 4c9d 953d bda9 be3c
000003e0: 9b29 0fbd 65cf ab3c 1038 cf3d 90ba 0bba
000003f0: 3f96 df39 e25e a13b d653 2abc 8578 0cbc
-0.0037807915 -0.18288556 0.00874085 0.10949631 0.00434411 -0.0017771272 0.00083649036 4.9945695e-05
-0.10503337 0.03768385 -0.022884974 -0.00786369 0.00016879273 -0.06882141 0.060793784 0.019408362
0.004905358 0.049519293 0.00020694277 -0.009970033 0.00630474 -0.032023594 -0.076925494 0.0011086221
0.17441824 0.031248586 0.0072526303 -0.048269287 0.011212368 -0.13822618 -0.057455793 -0.00031694755
-0.031702757 -0.0038981717 -0.00562894 0.017557923 -0.02901158 0.017024117 -0.054181676 -0.046640795
0.04489379 -0.08815491 -0.06237586 -0.029086884 -0.06266593 8.461158e-05 0.089248106 -0.01862924
0.021815265 0.07254495 0.07282616 0.09257831 0.017060535 -0.18406163 -0.026687972 0.01569149
0.0068953456 0.02263544 0.009575687 0.03874564 0.05909203 -0.010123517 0.07721969 -0.06859004
0.08422219 -0.030001 -0.15663089 -0.08080754 -0.0005790979 0.008854404 -0.008403442 0.030765569
0.05287399 0.013110138 -0.0007780416 -9.054839e-05 -0.11753389 -0.062537275 -0.045218322 0.021115348
-0.020550057 -0.01725513 -6.2415224e-06 -0.085119605 0.003137284 0.029079393 -0.030318888 0.06466911
0.14006676 -0.014266362 -0.01331702 -0.008962405 -0.0025107085 -0.028172884 0.013423629 0.018230947
0.08689359 -0.029033715 0.07728815 0.002796818 0.016234027 0.021107718 0.16588944 0.16998921
0.16177806 0.08016652 -0.09473887 0.2756187 0.025515884 0.021418955 -0.008326501 -0.004005759
0.0064059217 0.05114604 -0.050269753 -0.06901791 0.010272237 1.7761463e-06 0.018031137 0.10605818
-0.010809818 2.6236463e-05 -0.027000021 7.791664e-06 -0.070908576 -0.0015574193 0.061615493 0.016712904
-0.0024931228 0.0071682716 -0.007899451 -0.011873199 0.016777242 0.022912174 -0.00582096 0.003247174
-0.011404442 -0.010212369 -0.14444157 0.02824015 0.033091884 -0.01572599 0.05180401 0.00023245822
0.051075384 -0.0052417223 -0.00033582823 0.06312621 -0.01294095 0.016151953 0.018564716 -0.004395932
-0.048714835 -0.001017917 -0.07000285 0.018088708 -0.086628325 -0.053194698 0.063007414 0.09237359
0.050052833 -0.0020027952 -0.019421909 0.019986557 0.07228895 0.11924168 -0.091988675 -0.040367734
-0.018549852 -0.07142501 -0.10880939 -0.031057388 0.04306329 -0.07212281 -0.021565681 -0.102248244
-0.07179628 0.13272482 -0.029247139 0.02055081 0.08803955 0.0762106 0.0064455527 0.11131697
0.021009922 -0.11814167 -0.0038991275 -0.037177842 -0.031099658 -0.07509501 -0.053405985 0.04136132
0.023018803 -0.0042257975 0.05795936 -0.015019965 -0.020286778 -0.0039051257 8.545911e-06 -0.03194016
0.12255125 0.0008849875 0.0019487953 -0.012538613 0.10792381 -0.0018387205 -0.030925682 -0.061969057
-0.027928956 0.22096342 -0.23293717 0.03287913 0.07804685 -0.07181099 -0.006546387 0.012519153
-0.06240647 -0.04308776 -0.037204646 0.09504058 0.0021131204 0.072190754 -0.08007962 0.0017809485
0.0109113045 -0.0053024623 0.05542527 0.042902194 0.030983098 -0.043805487 0.021680579 0.0351755
0.0026919995 0.0074035223 -0.021972194 -0.046153996 -0.069686264 -0.02137069 -0.0024204922 0.08162269
0.05871095 -0.049894296 0.025972553 0.066186026 0.036415152 0.00041320376 0.073053926 0.023274297
-0.034951787 0.020972917 0.10118115 -0.0005330229 0.00042645817 0.004924641 -0.010395965 -0.008573656

tabnet.initial_splitter.shared.shared_layers.1.weight f4 [96, 48]
00000000: 4105 b23e fa1f 1d3e f8f5 9fbc d687 833d
00000010: 091b 55bc fb9b bfbc a5cb 51bd 8aeb b4bd
00000020: c63a 393d 4711 85bc 0558 b63c f95a 403d
00000030: b465 533d 9e38 ae3c 633e 993a 4485 c8bc
00000040: 212e a13d 7abd 14bd 2e1e 893c daa1 0fbc
00000050: a7d2 a13d acef e03c 31c0 a43d f5f4 103d
00000060: 0227 debc 5712 85bd a3d8 91bc c6d9 48bd
00000070: 416c 0cbd ef95 733c cd40 0c3c a93a a9bc
00000080: 79b2 0d3c 9a43 82bc 2bed 83bb 7979 353d
00000090: 73b3 f93c e26a 1abd b8bd acbc 20bf f7bc
000000a0: d0ae 1bbd 4d15 6c3b 6bcc 03bd d27d 3c3d
000000b0: 3d5c 0abd 93dd 9d3c 7f33 58bd a5fe 9cbc
000000c0: 95ba 443c 9580 c13e eea8 7839 0282 503d
000000d0: 6db6 c63c e780 3cbe 6f19 c0bc 0ba6 613d
000000e0: 85dd 0a3d 4490 87bd 6bc7 aebd 6419 98bd
000000f0: 62fc 49bd af46 8b3c dc7b 5dbd b7f5 4e3d
00000100: 9d00 08bd f67d c3bc 091f 88bd cbdd 91bc
00000110: ffe2 36bd 5c9c a7bc 4c17 2cbd 54cf db3c
00000120: 772f 2dbb d4b3 703b bf9f 96bb 31ad 293b
00000130: 0530 593c fada 7c3c 5c7d 2ebc 6ae0 383c
00000140: 5ed6 02bc 6745 fdbb 9e3b 3abb caf4 7abb
00000150: 61eb 023c 0e4f d2ba 897b cabc 2057 1f3d
00000160: 574b 423c 7547 7e3c 19c4 143c 6064 ddbc
00000170: 1878 bbbc ffc3 dfba 19ad 8d39 8472 e93c
00000180: e16a 7cbd 0c2c 18bd 6ecb b63d ca23 f5bb
00000190: af43 253d b0fb 87bd 4d92 04bc 2656 22be
000001a0: 2e22 ae3b aa29 30bc 5d70 88bc 5d80 83bd
000001b0: 7722 97bc 19b7 1dbb 3e86 79bd ad4c 4fbd
000001c0: 9b13 db3c 8192 74bb cd0b 07bb aa2b 99bd
000001d0: 00df e83b 2acf ccbc 7ece 50bc 7e4c 5cbc
000001e0: 312f bfba ea44 253c b6c5 dcba 2a7a 2dbb
000001f0: 4e59 d23a 8300 0c3b 598a 2ebc 2a30 883b
00000200: a6c7 213c 0c29 503c 553e 0939 5155 ffbc
00000210: 6b35 0f3c b384 8b3b a453 8b3c 4f14 2abb
00000220: 83b1 d93c 87d4 ae3c e640 0e3a f61b 14bc
00000230: fbc5 5abc fab1 80bb 85f5 c83a a938 43ba
00000240: b9f7 8a3c f199 a3bd 32fe 9cbc 58d0 583e
00000250: d4d4 dbbc e9ca d6bc 5a6b c0bd 28ad b7bc
00000260: 2cba 95bc a8e2 503d f078 933c 4016 183d
00000270: ae1e 8bbd 7fd8 a43c 429a da3b 355e 4abd
00000280: 47d4 e3bd 86a7 37bd 8a9f d43a 0a9b b3bd
00000290: d9f9 86bd b19c c0bd f9bc 33bb 6a84 603c
000002a0: 8d25 c03b aa3d 64bc b530 163b 3550 e13c
000002b0: 8969 9c3c ddd3 da3c 39ce d73a c3af 0aba
000002c0: bda3 f3ba 855c f5bb 481d d03b 156e 583d
000002d0: 77aa 44bc 1e4c 893c 4d34 e13c a588 d53b
000002e0: d599 69bd e1a6 cfbc 80e3 6d3c 8530 f0bb
000002f0: 1fc1 75bc f34f ca3c bdad 58bc e866 203d
00000300: 65cc 87bd 6a30 943d ea6b 553d 6006 9b3c
00000310: 29d3 a13e 3979 fa3c add8 3cbb 4ca3 9cbc
00000320: b8b0 73bd ec6d 60bd 2b91 0fbe ea72 a33d
00000330: 90e9 06bc bf47 2dbb 8760 9abd e660 7bbd
00000340: 44a8 893d bbba 503d 6046 7d3c cd01 8cbc
00000350: fbbb b0bd bad0 663c 93cc a93c 7c56 2f3d
00000360: 8778 43bc ed0d 6f3c 2d04 e53a fb1a 35bc
00000370: a615 06bc 6281 e5bb 7e63 04bc 0468 a83b
00000380: 9862 353c 0977 cf3b b153 66bb 3794 ddbd
00000390: d52d 6e3c 3983 88bc addc 73bd df15 edbc
000003a0: 6fc8 f23d 961c a03d 6ed6 c0bb 97cc 18bd
000003b0: 7928 77bc b7fa 573c 9e30 90bb 5358 9fbc
000003c0: 7991 4f3d 63af 8d3d b731 bfbc 3667 ee3c
000003d0: 198d 653c faf8 cf3e 348f 04bd 5312 593b
000003e0: abf4 c8bd 5347 04bd 3dd5 633c 901b 12bd
000003f0: ae1c 3c3b cb88 42bc d654 c8bb 4e1e a43d
0.34769633 0.1534423 -0.019526467 0.06422393 -0.013006934 -0.023389807 -0.0512196 -0.08833988
0.045222066 -0.01624359 0.022258768 0.04696176 0.051610664 0.021267232 0.0011691566 -0.024477609
0.078701265 -0.03631351 0.016738024 -0.008766616 0.07901507 0.027458034 0.0804447 0.03538986
-0.02711821 -0.06497639 -0.017803496 -0.04903581 -0.034282926 0.01486729 0.008560372 -0.020657854
0.008648508 -0.015901376 -0.0040260754 0.0443053 0.030481076 -0.037699588 -0.021086559 -0.030242503
-0.03800851 0.0036023438 -0.03217737 0.04601843 -0.03377937 0.019270694 -0.052783486 -0.019164393
0.012007375 0.37793413 0.00023714054 0.050905235 0.02425691 -0.18408547 -0.023449628 0.05508999
0.033902664 -0.06619313 -0.0853413 -0.07426718 -0.049312957 0.017001478 -0.0540732 0.0505273
-0.03320371 -0.023863774 -0.066465445 -0.017805954 -0.044650074 -0.0204603 -0.042014405 0.02683226
-0.0026425996 0.003672828 -0.00459668 0.0025890584 0.013256078 0.015433067 -0.010650005 0.011283973
-0.007985679 -0.0077292207 -0.0028416882 -0.0038292878 0.007990689 -0.0016045289 -0.02471711 0.03890145
0.011858783 0.015519966 0.009079956 -0.027025402 -0.022884414 -0.0017071961 0.00027022584 0.028496988
-0.061625365 -0.03715138 0.0892552 -0.007481073 0.04034775 -0.066398025 -0.008091521 -0.15853176
0.005314133 -0.010752121 -0.016655141 -0.06420968 -0.018449051 -0.0024065434 -0.06091904 -0.050610233
0.026742747 -0.0037318768 -0.00206064 -0.074790314 0.007106662 -0.025001127 -0.012744544 -0.0134459715
-0.0014586208 0.010087231 -0.001684359 -0.002647052 0.0016048343 0.002136261 -0.010653102 0.004156132
0.00987426 0.012705099 0.00013088559 -0.031168612 0.008740763 0.0042577623 0.017007656 -0.0025952046
0.026573902 0.021341575 0.0005426541 -0.0090398695 -0.013352866 -0.0039274665 0.001533196 -0.00074471027
0.016963826 -0.07988346 -0.019164179 0.21173227 -0.026834883 -0.026219802 -0.09395476 -0.022421435
-0.01827725 0.050997406 0.018002003 0.037130594 -0.06792961 0.020122765 0.006671221 -0.04940625
-0.11124473 -0.044837497 0.0016221863 -0.08769806 -0.065906234 -0.094048865 -0.002742587 0.013703445
0.0058638514 -0.0139307175 0.0022917215 0.027504066 0.019093292 0.026712352 0.0016464657 -0.0005290473
-0.0018588227 -0.007487836 0.006351147 0.052839357 -0.012003533 0.016759928 0.02749076 0.0065165334
-0.05703147 -0.025348129 0.014519572 -0.0073300027 -0.014999657 0.024696326 -0.013225016 0.03916064
-0.06630782 0.07235797 0.052104868 0.018923938 0.31606415 0.030575382 -0.0028815672 -0.019120835
-0.059494704 -0.05479233 -0.14020221 0.079809025 -0.008234397 -0.002644047 -0.075379424 -0.061371706
0.06721547 0.05095933 0.015458673 -0.017090702 -0.086296044 0.01408785 0.020727431 0.042807087
-0.011930591 0.0145907225 0.0017472558 -0.011053796 -0.008183872 -0.007003949 -0.008080361 0.0051393528
0.01107087 0.006331329 -0.0035145099 -0.10819285 0.014537294 -0.016664134 -0.059536625 -0.028941093
0.11854636 0.07817952 -0.005884937 -0.037304487 -0.015085333 0.013182334 -0.004400327 -0.019451296
0.050675843 0.06918218 -0.023339136 0.02910195 0.014010691 0.40619642 -0.03236313 0.0033122494
-0.09812292 -0.032294583 0.01390582 -0.035670817 0.0028703618 -0.011873434 -0.006113629 0.08013593

tabnet.initial_splitter.shared.glu_layers.0.fc.weight f4 [96, 1038]
00000000: 28c7 77bb 5a46 3bbe c835 0f3c 9a3f e03d
00000010: 0959 8e3b 7eee e8ba eb47 5b3a c87c 5138
00000020: bc1b d7bd 615a 1a3d 4579 bbbc b5d6 00bc
00000030: f4fd 3039 3df2 8cbd e702 793d 49fe 9e3c
00000040: 20bd a03b bed4 4a3d c7fe 5839 5959 23bc
00000050: fe97 ce3b 2c2b 03bd 1d8b 9dbd 2f4f 913a
00000060: b29a 323e 09fd ff3c 79a7 ed3b 04b6 45bd
00000070: 14b4 373c 2a8b 0dbe c456 6bbd fb2b a6b9
00000080: c0da 01bd 7878 7fbb f972 b8bb a2d5 8f3c
00000090: b1a9 edbc 2976 8b3c 9bed 5dbd 6b0a 3fbd
000000a0: 8de2 373d 908a b4bd d47d 7fbd 9e47 eebc
000000b0: ff56 80bd 7f71 b138 b6c7 b63d 599c 98bc
000000c0: edb5 b23c 7292 943d e225 953d b299 bd3d
000000d0: 89c2 8b3c a77a 3cbe bca0 dabc 718b 803c
000000e0: 5af2 e13b f56d b93c 58e3 1c3c c0b3 1e3d
000000f0: 7c0a 723d 1cdd 25bc 5b25 9e3d ef78 8cbd
00000100: af7c ac3d a8c4 f5bc d963 20be 6c7e a5bd
00000110: 9ace 17ba 1012 113c 97ae 09bc 1308 fc3c
00000120: 6692 583d e7cb 563c 7df5 4bba cce4 bdb8
00000130: 9cb5 f0bd 8b13 80bd d936 39bd 18fa ac3c
00000140: 9858 a8bc a15a 8dbc 456e d1b6 3053 aebd
00000150: e49a 4d3b e837 ee3c 515f f8bc 3d71 843d
00000160: a96d 0f3e 76bd 69bc a12f 5abc 0dd7 12bc
00000170: b38a 24bb d2ca e6bc c8ee 5b3c 1159 953c
00000180: 44f5 b13d 1dd8 edbc 4049 9e3d d24a 373b
00000190: 39fd 843c 18ea ac3c ecde 293e a711 2e3e
000001a0: 26a9 253e 582e a43d 7406 c2bd e51d 8d3e
000001b0: b006 d13c ce76 af3c e06b 08bc be42 83bb
000001c0: c4e8 d13b 837e 513d a8e7 4dbd 4359 8dbd
000001d0: e24c 283c ec63 ee35 09b6 933c 0835 d93d
000001e0: aa1b 31bc 6016 dc37 262f ddbc f1b8 0237
000001f0: 8438 91bd 5222 ccba 8760 7c3d 80e9 883c
00000200: a963 23bb d2e3 ea3b b36c 01bc ce87 42bc
00000210: 6d70 893c 50b2 bb3c c0bd bebb 8ace 543b
00000220: b2d9 3abc c851 27bc 7ee8 13be e357 e73c
00000230: 5b8b 073d cbd3 80bc 7130 543d 07c0 7339
00000240: 6c34 513d c1c2 abbb 1a12 b0b9 5048 813d
00000250: 4706 54bc 1a51 843c 0815 983c c00b 90bb
00000260: 3589 47bd a06b 85ba a75d 8fbd c52e 943c
00000270: 316a b1bd afe2 59bd 080a 813d 5d2e bd3d
00000280: 3304 4d3d 5441 03bb b21a 9fbc d9ba a33c
00000290: 3b0c 943d fb34 f43d 8f64 bcbd a358 25bd
000002a0: dcf5 97bc 4747 92bd 75d7 debd 106c febc
000002b0: 2263 303d 20b5 93bd 83aa b0bc 8767 d1bd
000002c0: ee09 93bd 04e9 073e b297 efbc 2c5a a83c
000002d0: 144e b43d 4e14 9c3d 3735 d33b 27fa e33d
000002e0: 001d ac3c 43f4 f1bd 8188 7fbb cb47 18bd
000002f0: b6c4 febc 6acb 99bd 3cc0 5abd 7d6a 293d
00000300: ee91 bc3c 8f78 8abb cb66 6d3d 4d16 76bc
00000310: 7530 a6bc 23ed 7fbb 6960 0f37 afd3 02bd
00000320: 26fc fa3d 81fe 673a b86e ff3a c16e 4dbc
00000330: 2907 dd3d 3901 f1ba db57 fdbc 44d3 7dbd
00000340: 44cb e4bc 3c44 623e 1587 6ebe 44ac 063d
00000350: 07d7 9f3d a411 93bd 1383 d6bb 221d 4d3c
00000360: ed9d 7fbd cb7c 30bd e663 18bd a3a4 c23d
00000370: 477c 0a3b bfd8 933d c900 a4bd b76e e93a
00000380: 54c5 323c 47c0 adbb 9c05 633d 36ba 2f3d
00000390: 44d0 fd3c 626d 33bd 789b b13c 2f14 103d
000003a0: 426c 303b 3f99 f23b 08ff b3bc f90b 3dbd
000003b0: acb7 8ebd 9611 afbc 1fa1 1ebb cc29 a73d
000003c0: e57a 703d f65d 4cbd 64c4 d43c 8a8c 873d
000003d0: 0e28 153d 45a3 d839 4c9d 953d bda9 be3c
000003e0: 9b29 0fbd 65cf ab3c 1038 cf3d 90ba 0bba
000003f0: 3f96 df39 e25e a13b d653 2abc 8578 0cbc
-0.0037807915 -0.18288556 0.00874085 0.10949631 0.00434411 -0.0017771272 0.00083649036 4.9945695e-05
-0.10503337 0.03768385 -0.022884974 -0.00786369 0.00016879273 -0.06882141 0.060793784 0.019408362
0.004905358 0.049519293 0.00020694277 -0.009970033 0.00630474 -0.032023594 -0.076925494 0.0011086221
0.17441824 0.031248586 0.0072526303 -0.048269287 0.011212368 -0.13822618 -0.057455793 -0.00031694755
-0.031702757 -0.0038981717 -0.00562894 0.017557923 -0.02901158 0.017024117 -0.054181676 -0.046640795
0.04489379 -0.08815491 -0.06237586 -0.029086884 -0.06266593 8.461158e-05 0.089248106 -0.01862924
0.021815265 0.07254495 0.07282616 0.09257831 0.017060535 -0.18406163 -0.026687972 0.01569149
0.0068953456 0.02263544 0.009575687 0.03874564 0.05909203 -0.010123517 0.07721969 -0.06859004
0.08422219 -0.030001 -0.15663089 -0.08080754 -0.0005790979 0.008854404 -0.008403442 0.030765569
0.05287399 0.013110138 -0.0007780416 -9.054839e-05 -0.11753389 -0.062537275 -0.045218322 0.021115348
-0.020550057 -0.01725513 -6.2415224e-06 -0.085119605 0.003137284 0.029079393 -0.030318888 0.06466911
0.14006676 -0.014266362 -0.01331702 -0.008962405 -0.0025107085 -0.028172884 0.013423629 0.018230947
0.08689359 -0.029033715 0.07728815 0.002796818 0.016234027 0.021107718 0.16588944 0.16998921
0.16177806 0.08016652 -0.09473887 0.2756187 0.025515884 0.021418955 -0.008326501 -0.004005759
0.0064059217 0.05114604 -0.050269753 -0.06901791 0.010272237 1.7761463e-06 0.018031137 0.10605818
-0.010809818 2.6236463e-05 -0.027000021 7.791664e-06 -0.070908576 -0.0015574193 0.061615493 0.016712904
-0.0024931228 0.0071682716 -0.007899451 -0.011873199 0.016777242 0.022912174 -0.00582096 0.003247174
-0.011404442 -0.010212369 -0.14444157 0.02824015 0.033091884 -0.01572599 0.05180401 0.00023245822
0.051075384 -0.0052417223 -0.00033582823 0.06312621 -0.01294095 0.016151953 0.018564716 -0.004395932
-0.048714835 -0.001017917 -0.07000285 0.018088708 -0.086628325 -0.053194698 0.063007414 0.09237359
0.050052833 -0.0020027952 -0.019421909 0.019986557 0.07228895 0.11924168 -0.091988675 -0.040367734
-0.018549852 -0.07142501 -0.10880939 -0.031057388 0.04306329 -0.07212281 -0.021565681 -0.102248244
-0.07179628 0.13272482 -0.029247139 0.02055081 0.08803955 0.0762106 0.0064455527 0.11131697
0.021009922 -0.11814167 -0.0038991275 -0.037177842 -0.031099658 -0.07509501 -0.053405985 0.04136132
0.023018803 -0.0042257975 0.05795936 -0.015019965 -0.020286778 -0.0039051257 8.545911e-06 -0.03194016
0.12255125 0.0008849875 0.0019487953 -0.012538613 0.10792381 -0.0018387205 -0.030925682 -0.061969057
-0.027928956 0.22096342 -0.23293717 0.03287913 0.07804685 -0.07181099 -0.006546387 0.012519153
-0.06240647 -0.04308776 -0.037204646 0.09504058 0.0021131204 0.072190754 -0.08007962 0.0017809485
0.0109113045 -0.0053024623 0.05542527 0.042902194 0.030983098 -0.043805487 0.021680579 0.0351755
0.0026919995 0.0074035223 -0.021972194 -0.046153996 -0.069686264 -0.02137069 -0.0024204922 0.08162269
0.05871095 -0.049894296 0.025972553 0.066186026 0.036415152 0.00041320376 0.073053926 0.023274297
-0.034951787 0.020972917 0.10118115 -0.0005330229 0.00042645817 0.004924641 -0.010395965 -0.008573656

tabnet.initial_splitter.shared.glu_layers.0.bn.bn.weight f4 [96]
00000000: 48f6 0a3f 51b6 b23e 1e90 3b3e 503f 043e
00000010: aa96 023f 5b09 7d3e c7ce c73e 81f7 443d
00000020: b03a 9a3e 0cbc dc3e 95a4 b23e 631b b53d
00000030: cbb4 9e3c 99b3 713e 90d9 0a3e 6ead 533e
00000040: cbe2 053e b66b 0a3f 36f6 023f 0155 073d
00000050: 6819 f33e 1af9 ba3e 2df3 eb3d 8681 0b3e
00000060: 9247 173f 417c e23e c1d4 083e 2674 f83e
00000070: 4951 e53e dfae f03e 5115 163f ed6b 073f
00000080: 176b e33e 7a43 de3e 519a 083e 89dd 483f
00000090: f76e 1a3f 6bcf 073f 77fc 0f3f bfa3 123f
000000a0: e246 323f 620e 253f 5713 f63e 906a 0f3f
000000b0: 17c9 073f b351 dc3e ab4b bf3e da35 933c
000000c0: cd1e 813e 5a3f 273e 3b6b 91b9 0061 153c
000000d0: 287e 2e3e f815 733d 8b85 073e 7835 993b
000000e0: 34b5 db3c 1dd9 6f3e 452b 343e 721a 24bb
000000f0: bcba 6e39 87b4 8e3d 9249 523c 7ad6 003e
00000100: 734a 4a3c 19f7 db3e 01ba bdbd 3404 dc3b
00000110: 5959 9c3e 897b 583e 0915 dc3c 4a03 a53c
00000120: 6e69 b53e 10f4 773e 7b6f 2b3d abf5 3abe
00000130: 2ec5 81b9 d61a 813e 0c22 b43e 58fb 303b
00000140: a972 143e ee8f 353e ae46 e53d 2058 4e3e
00000150: 9520 cb3e 5416 293f 37c5 d23e f81e 343f
00000160: 4686 803e 4da6 553e ceca 813e 60b7 8e3e
00000170: 5d04 d03e 6988 c23d c78c a3bd 8f23 a1bb
0.54282045 0.3490472 0.18316695 0.12914777 0.51011145 0.247106 0.39024946 0.0480876
0.301229 0.43112218 0.3489119 0.08843114 0.019373318 0.23603667 0.13559556 0.20671627
0.13074796 0.54070604 0.5115694 0.03304005 0.4748032 0.36518174 0.115209915 0.13623628
0.5909358 0.44235423 0.13362409 0.48526114 0.44788578 0.47008416 0.58626276 0.52899057
0.4441764 0.43410856 0.13340117 0.78463036 0.6032557 0.5305087 0.56244606 0.57281107
0.6963941 0.6447507 0.4806163 0.56021976 0.53041214 0.43031082 0.37362418 0.017970014
0.25218812 0.1633276 -0.00027736448 0.009117365 0.17040312 0.059347123 0.13234536 0.0046755634
0.026819803 0.23422666 0.17594631 -0.0025040177 0.00022767013 0.069680266 0.012834923 0.12581816
0.012346852 0.42961958 -0.09263993 0.0067143682 0.30536917 0.21140875 0.0268655 0.02014317
0.35432 0.24214196 0.041854363 -0.18257777 -0.00024751708 0.25215787 0.35182226 0.0027005281
0.14496864 0.17730686 0.11195122 0.20150805 0.39673296 0.66049695 0.41166088 0.70359755
0.25102443 0.2086422 0.2535004 0.2787428 0.4062833 0.094986744 -0.079858355 -0.004917569

tabnet.initial_splitter.shared.glu_layers.0.bn.bn.bias f4 [96]
00000000: bf9b 2fbd dc7b 743c e55c ce39 527e 0ab9
00000010: 8201 1cbb b180 77ba 9b50 fab9 721e af39
00000020: 5d45 633b 0eea 503c 3c09 66bb 0a13 0dba
00000030: 506a 6a3a e3fe 00bb 2d94 883a d24a d1bb
00000040: 1187 863b 8b82 293d b557 e33b 1397 a73a
00000050: ba7c bdbc 5028 953d 4246 9eba fc6d afb9
00000060: f033 36bd 61bf 153b 5801 a0bb e1cb debc
00000070: 5842 abbc b14d 083c c362 9abc 9fe5 b13b
00000080: 7ee8 4d3c bf6c 98bc dcc3 eabb 2e44 9bbb
00000090: 69a5 f03d f8c8 4abe 4366 233c 8185 dabe
000000a0: cc55 333c 6d1d aa3d 8e37 2ebe 5e31 173d
000000b0: 2bcd 80bd ce2e eebc 2aec e33c 75a2 c9ba
000000c0: d184 d13d 9514 c9bc bfc9 903b 81aa 2e3b
000000d0: c236 8a3d 95e0 933c 1435 963c 91e4 7ebb
000000e0: 168d 403c 5cd2 99bc 1926 d33c 503c 81bb
000000f0: 3a1f e9ba 011e 1ebc 9d78 7d3b 172f 80bc
00000100: b53d 0b3b 754b ef3c 2d00 883d e085 8f38
00000110: 944d a9bc 110d c4bb d4dd 953b db41 c6b7
00000120: aed3 6b3d 2c35 af3c 100f 8abc 0edf 55bd
00000130: 585f cb3d 3102 ac3c 72db 7a3d 583e 65bb
00000140: 496e a23d 5c67 7f3d 4ead 98bc 6f2e 353b
00000150: 51d1 873d 1cf5 65bd 0c71 203d 3e6f 40be
00000160: 3b1a 3c3d 4a51 f33d 523e 0e3d 2ad8 cf3d
00000170: 4d20 2a3c 6f98 773d c83b ad3c d13f 3bbc
-0.04287314 0.0149221085 0.00039360594 -0.00013207764 -0.002380461 -0.0009441479 -0.00047743772 0.00033401285
0.0034678795 0.0127511155 -0.003510072 -0.000538156 0.00089422334 -0.0019683174 0.0010420136 -0.006387093
0.0041054566 0.04138426 0.0069379457 0.0012786112 -0.023130763 0.072830796 -0.0012075382 -0.00033460546
-0.044483125 0.0022849666 -0.0048829727 -0.027196826 -0.020905659 0.008319304 -0.018845921 0.0054289843
0.0125676375 -0.018606542 -0.0071644615 -0.0047383523 0.117502995 -0.19803226 0.009973112 -0.4267998
0.010945749 0.08306394 -0.1701338 0.036912315 -0.06289133 -0.029075053 0.027822573 -0.0015383499
0.10230411 -0.024545947 0.0044185813 0.0026651921 0.067487255 0.018051425 0.018335856 -0.003889356
0.0117523875 -0.018777065 0.025775002 -0.0039439574 -0.0017785795 -0.009650708 0.0038676627 -0.015647454
0.0021246497 0.029210785 0.066406585 6.8437075e-05 -0.020666875 -0.005983003 0.004573563 -2.3634106e-05
0.05757492 0.021387659 -0.016852885 -0.052214675 0.09930295 0.020997139 0.061244436 -0.0034979787
0.079311915 0.06235443 -0.018637326 0.0027646085 0.06631721 -0.056141958 0.03917031 -0.18792436
0.045923453 0.11880739 0.034727402 0.10148652 0.010383678 0.060448106 0.02114667 -0.011428789
