cv_steps/tabnet_raw_step1_fold1_0/network.pt (torch, 682379 bytes, 56 tensors)

embedder.embeddings.0.weight f4 [3, 1]
0	0xbd84f6b7	-0.064923696
1	0xbd8499d5	-0.06474654
2	0x3e1a92fc	0.15095133

embedder.embeddings.1.weight f4 [2, 1]
0	0x3d012791	0.031531874
1	0xbd01211c	-0.031525716

tabnet.initial_bn.weight f4 [1038]
0	0x3df15dc9	0.11785466
1	0x3e1e5acb	0.15464322
2	0x3d15407b	0.036438446
3	0x3e47d332	0.19514158
4	0x3ccdbe30	0.025115103
5	0x3dbaf3b7	0.09128516
6	0x3aff8ca3	0.0019496869
7	0xbd25e85c	-0.0405048
8	0x3da979ff	0.08275222
9	0x3cae687c	0.021290056
10	0x3e8e51be	0.2779674
11	0xb71bbea9	-9.2831115e-06
12	0xb66d55ff	-3.5365808e-06
13	0xbe07f3cb	-0.13276593
14	0x3e02d5be	0.12776849
15	0x3dcce2b0	0.10004175
16	0x3e32f61b	0.17476694
17	0x3d9f3351	0.0777346
18	0x344e9b72	1.9241796e-07
19	0x3dacf22c	0.08444628
20	0xbbb63b2e	-0.005561254
21	0x3cdab498	0.026697442
22	0x3e46fe40	0.19432926
23	0xbcca3a47	-0.024685992
24	0x3e3f68a3	0.1869226
25	0x3dbaa06b	0.091126285
26	0x3e317f26	0.1733366
27	0x3db26270	0.08710182
28	0x3e3cf495	0.18452676
29	0x3e2e8379	0.1704234
30	0x3e35cc26	0.17753658
31	0x3e2d7b03	0.16941456
32	0x3e084987	0.13309298
33	0x3d966d42	0.07345058
34	0xbb8ffd44	-0.0043942053
35	0x3e4399c8	0.19101632
36	0x3e3ebd70	0.18626952
37	0x3b9b36ef	0.004736773
38	0x3d3ffbe7	0.046871092
39	0x3c9b2a04	0.018940933
40	0xb778287d	-1.4791379e-05
41	0x3e210337	0.15723883
42	0x3e0851cd	0.13312455
43	0x3de94bb3	0.113913916
44	0x3dffc0cb	0.12487944
45	0x3d9bccc7	0.076074176
46	0x3d668383	0.056277763
47	0x3e1a5fd0	0.15075612
48	0xbe171a57	-0.14756142
49	0x3e6307cd	0.22170945
50	0x3e55630e	0.20838568
51	0x3929684b	0.00016155948
52	0x3e25fabb	0.16208927
53	0x3e7f4d07	0.24931727
54	0x3de7e323	0.1132262
55	0x3e3db75c	0.18526977
56	0x3de40314	0.111333996
57	0x38c0607b	9.173244e-05
58	0x3e4c9a38	0.19980705
59	0x3e4014ed	0.18757983
60	0x3d3773d2	0.04478819
61	0xb6c162ff	-5.763373e-06
62	0x3e5abcbf	0.21361063
63	0x3cd2f94d	0.025753642
64	0x3e9f610f	0.31128737
65	0x3e1dac7f	0.15397833
66	0x357d5b78	9.438295e-07
67	0x3e2474b6	0.16060147
68	0xbd972668	-0.07380372
69	0x3dfa7ce1	0.1223085
70	0x3e09b2dc	0.13447136
71	0x3e15baf5	0.146221
72	0xbc600633	-0.013673353
73	0x3e21d9e5	0.15805776
74	0x39bb1df2	0.0003568973
75	0x385ba09e	5.2363255e-05
76	0xbbad36e4	-0.0052860845
77	0x3ea7f243	0.3280202
78	0x3326f017	3.8868247e-08
79	0x3dbfb7f9	0.09361262
80	0x3c141022	0.0090370495
81	0x3db78002	0.089599624
82	0xbd493a7c	-0.04912804
83	0x3e1d39c1	0.15354063
84	0xbd442505	-0.047886867
85	0xb8d50592	-0.00010157669
86	0x3ccdad38	0.025107011
87	0x3e496d9f	0.19670723
88	0x3dd40c81	0.103539474
89	0xbb993330	-0.0046752915
90	0x3dd86696	0.10566442
91	0x3e2b78c5	0.16745289
92	0x3e62d49b	0.22151415
93	0x3e5b76e8	0.21432078
94	0x3dbf5943	0.09343197
95	0x3e0f7f6a	0.14013448
96	0x3e4255b0	0.18978
97	0x3e1956f3	0.14974575
98	0x3e19fbfb	0.15037529
99	0x3e0ac3d7	0.1355127
100	0x3a897bf8	0.0010489216
101	0x3e0d933b	0.13825695
102	0x3e63229e	0.22181174
103	0xbc78bba4	-0.015181456
104	0x3e50b806	0.203827
105	0x3e0ba00b	0.1363527
106	0x3d9711b5	0.07376424
107	0x3e3c0c34	0.1836403
108	0x3e10d96d	0.14145441
109	0x3e1fe40d	0.15614338
110	0x3d80a73f	0.062819
111	0x3da40605	0.08008961
112	0x3de3d340	0.11124277
113	0x3d013896	0.031548105
114	0x38655ac6	5.4682394e-05
115	0x3de5e04e	0.11224423
116	0x3db2882e	0.087173805
117	0x369cfc1a	4.678511e-06
118	0x3e240fc9	0.16021647
119	0x3e59dc19	0.21275367
120	0x3e07a39d	0.13246007
121	0x35cabe2c	1.510552e-06
122	0x3dff466a	0.12464602
123	0x3d4c233e	0.049838297
124	0x3e76faa1	0.24119045
125	0x3e6622c5	0.22474201
126	0x3e136566	0.14394149
127	0x3e0a2410	0.13490319
128	0xbc0e432b	-0.008683006
129	0x38a9437d	8.071119e-05
130	0x3e330d8c	0.17485636
131	0x3e19c130	0.15015101
132	0x3e4081df	0.18799542
133	0x3dadd8a5	0.08488587
134	0x3d8630d2	0.065522805
135	0x3dd190ed	0.102327205
136	0x3dabee0e	0.08395015
137	0x3db683fd	0.089118935
138	0x3e05a6e4	0.13051945
139	0x3e637b62	0.22215036
140	0x3da3ec6a	0.08004077
141	0x3e1b9c05	0.15196235
142	0x3d74b74f	0.05974513
143	0x3c4261f7	0.011864177
144	0x3e1d1904	0.15341574
145	0x3b6bdcbc	0.0035989722
146	0x3e5c0433	0.21485977
147	0x3e008657	0.12551247
148	0x3e0ae1e8	0.13562739
149	0x3e50987e	0.20370671
150	0x3e23ccbf	0.15996073
151	0x3e0bc1f3	0.13648205
152	0x3ba20fdf	0.0049457396
153	0xbc97ef62	-0.018546764
154	0x3dd24bc9	0.10268361
155	0x3e1528af	0.14566301
156	0x3da608fc	0.081071824
157	0xbd86c463	-0.065804265
158	0x3e28c662	0.16481927
159	0x3ebf5423	0.3736888
160	0x3ea2aad1	0.31770948
161	0x3da2e85f	0.079544775
162	0x3e59bfdc	0.21264595
163	0x3dbdb0ec	0.09262261
164	0x3e3b1f3b	0.18273632
165	0x3c9a4d90	0.018835813
166	0x3e3b8d81	0.18315698
167	0x37d8805c	2.5808979e-05
168	0x3e5b283f	0.21402071
169	0x3e2a6291	0.16639163
170	0x3d8ff048	0.07028252
171	0x3e5eb8b6	0.21750149
172	0x3e0b4957	0.13602196
173	0x3d232773	0.039832544
174	0x3deae123	0.11468723
175	0x3e7f29bb	0.24918263
176	0x3de6324d	0.11240063
177	0x3ecf6098	0.40503383
178	0x3d9131df	0.0708959
179	0x3dbc4855	0.09193484
180	0x3eb27369	0.34853676
181	0xb68347c3	-3.9124584e-06
182	0xbbfdf6fa	-0.007750389
183	0x3e2ea732	0.17055967
184	0x3c1e0d3f	0.009646713
185	0x3e695bad	0.22788878
186	0x369e74e2	4.722374e-06
187	0x3de3667e	0.11103533
188	0x3e425c39	0.18980493
189	0x3e3d2ece	0.18474886
190	0x3e421a22	0.18955281
191	0x3e06f154	0.13177997
192	0x3e2a0ade	0.16605708
193	0x3e02f9e2	0.12790635
194	0x3e207661	0.15670158
195	0xbb84c053	-0.004051247
196	0x3c36275e	0.011117784
197	0xbcd97153	-0.026543295
198	0x3c8de220	0.017319739
199	0x3e2d649b	0.16932909
200	0xbd9ea887	-0.07746988
201	0x34083ec3	1.268882e-07
202	0x3d9830f2	0.074312106
203	0x3e0ccc3a	0.13749781
204	0x3e97faab	0.29683432
205	0x3e813beb	0.25241026
206	0x3e3aef87	0.18255435
207	0xbd5dff1a	-0.054198362
208	0x36e46f49	6.807885e-06
209	0x3e74d504	0.23909384
210	0x3e541683	0.20711713
211	0x3e0e7dab	0.13915126
212	0x3cd756ae	0.02628645
213	0x3e16d06f	0.14727949
214	0x3dc34e85	0.09536461
215	0x3e2f2591	0.17104174
216	0x3e15ad4c	0.14616889
217	0x3e50458f	0.20339034
218	0x3e32bf9b	0.17455904
219	0x3e5572c3	0.2084456
220	0x3dafe127	0.08587866
221	0x3e284cc2	0.16435531
222	0x3dd510e6	0.10403614
223	0x3e78fed8	0.24315965
224	0x3e279123	0.16363959
225	0x3d99b18b	0.07504567
226	0x3d184c78	0.0371823
227	0x3dfb0b94	0.12258068
228	0x3e05664a	0.13027301
229	0x3c1fb58f	0.009747877
230	0xb759e42e	-1.2987335e-05
231	0x3dbff328	0.0937255
232	0x3e1b07fc	0.15139765
233	0x3e8179a3	0.25288114
234	0x3ddc8f58	0.10769528
235	0x3dea8fa1	0.11453176
236	0x3e3b83f1	0.1831205
237	0x3e432dd3	0.1906045
238	0xbc8755d6	-0.016520422
239	0x3e22df11	0.15905406
240	0x3bd76849	0.006573711
241	0x3db0b16c	0.086275905
242	0x3e0e510d	0.13898106
243	0x3e5ead6f	0.21745847
244	0x3e22b553	0.15889482
245	0xb4b873d7	-3.4356955e-07
246	0x3e2f03a4	0.17091233
247	0x3db472fe	0.088109955
248	0xbd14b6dc	-0.0363072
249	0x3e14c7a7	0.14529286
250	0x3e581aec	0.2110402
251	0x39029b04	0.00012455514
252	0x3537924c	6.83857e-07
253	0x3d04e5ce	0.03244572
254	0x3e05b177	0.13055979
255	0x3df6fb79	0.12059683

tabnet.initial_bn.bias f4 [1038]
0	0x3a0d4a16	0.0005389763
1	0x37e07806	2.6758771e-05
2	0xb8132e99	-3.509093e-05
3	0x39c7c5a0	0.0003810348
4	0xb983b094	-0.00025117828
5	0xb95e1ac5	-0.00021181542
6	0x37c10246	2.3008452e-05
7	0x3951cb93	0.0002000763
8	0xb963ec31	-0.00021736395
9	0xbe873646	-0.26408595
10	0x39d9551c	0.00041452877
11	0xb25fe45d	-1.3032232e-08
12	0x3388b1be	6.3653246e-08
13	0x3a16b1f6	0.0005748564
14	0x37bb11ec	2.2300483e-05
15	0x39c945fc	0.0003838985
16	0xb9e252bd	-0.00043167724
17	0xb9d2dbf4	-0.000402182
18	0xb0b11199	-1.2883447e-09
19	0x3a354423	0.0006914755
20	0xb79cb810	-1.868236e-05
21	0x3a0428b8	0.0005041468
22	0x395f6b0a	0.00021306812
23	0x3974cdbf	0.000233463
24	0x3e72847b	0.2368335
25	0xbeec7d62	-0.4618941
26	0xb96b031d	-0.00022412506
27	0x38a4d0d6	7.859028e-05
28	0xba1d617a	-0.00060036
29	0xb98f18c7	-0.00027293546
30	0xbe465419	-0.19368018
31	0x39e4c385	0.00043633222
32	0xba234f6e	-0.00062297925
33	0xb98fb608	-0.0002741071
34	0xb9d0055d	-0.00039676848
35	0x37feb579	3.0363664e-05
36	0x388bfe54	6.675409e-05
37	0x380114fa	3.0775533e-05
38	0xbea391ff	-0.31947324
39	0x36c077c4	5.7359885e-06
40	0xb33f073d	-4.4477236e-08
41	0xba172815	-0.00057661656
42	0x393f04bc	0.00018216943
43	0x3a6edbab	0.00091117126
44	0x38c18865	9.2283626e-05
45	0xba4a1978	-0.00077094836
46	0xb9b4b62e	-0.0003446801
47	0x386c2e8e	5.6310142e-05
48	0x393cb058	0.0001799477
49	0xb922f5c0	-0.00015541073
50	0xb9926228	-0.00027920422
51	0xb3a0af51	-7.4824705e-08
52	0xb9a5d840	-0.0003163237
53	0xb9982985	-0.00029022634
54	0x398bfa5c	0.00026698678
55	0x3d536940	0.051614046
56	0xb9bb1135	-0.0003568024
57	0xb55397c0	-7.882445e-07
58	0xb903c835	-0.00012567716
59	0x370f8729	8.554934e-06
60	0x395e9e52	0.00021230549
61	0xb07dbd84	-9.231018e-10
62	0xba565b10	-0.00081770215
63	0x39834cda	0.00025043526
64	0xbe75abd8	-0.23991334
65	0x37afd08f	2.0958743e-05
66	0x338765bd	6.3049335e-08
67	0xb90b6224	-0.00013292633
68	0x3a0c3aee	0.00053493574
69	0xb980dcfa	-0.00024578703
70	0xb9e798f3	-0.0004417371
71	0x381be423	3.716735e-05
72	0x3eb9bbfb	0.3627623
73	0x39215d41	0.00015388896
74	0x354bf0e2	7.5973924e-07
75	0xb4e7c2df	-4.316889e-07
76	0xb848f32e	-4.7910195e-05
77	0x3a945b64	0.001131874
78	0xae1d27f7	-3.5733163e-11
79	0xb9cc68a1	-0.00038987867
80	0x39e9b143	0.00044573293
81	0x38e054b1	0.00010696927
82	0x37abe150	2.0489708e-05
83	0x39e17465	0.00043002065
84	0x39034f53	0.00012522684
85	0xb02e1754	-6.333398e-10
86	0x38018119	3.087623e-05
87	0xb8b0fb0d	-8.439096e-05
88	0xba99eac6	-0.0011742942
89	0xb68f6da7	-4.2744973e-06
90	0xb93ab5f4	-0.00017806125
91	0xb9a5147b	-0.00031486512
92	0xba053374	-0.00050812145
93	0x38c68d04	9.467642e-05
94	0xb66bc800	-3.5134144e-06
95	0x39b5bca3	0.00034663556
96	0xb91c835b	-0.00014926253
97	0x371f0dc9	9.480348e-06
98	0x38da615d	0.000104131854
99	0xb85353f4	-5.0384508e-05
100	0x369793d9	4.5173624e-06
101	0xb9333a7b	-0.00017092556
102	0x3d880d01	0.06643105
103	0x377b3c06	1.4974741e-05
104	0x3a254fa4	0.0006306118
105	0xb9f9baac	-0.00047632062
106	0x3a019b20	0.0004944075
107	0x3ace2d1b	0.0015729995
108	0x399892ac	0.00029100978
109	0xb8bf7d4f	-9.13093e-05
110	0x36d2c7e3	6.2817576e-06
111	0xb976a89c	-0.000235232
112	0x38bd6e80	9.0328045e-05
113	0xb920347e	-0.00015278344
114	0xb4285ff2	-1.5681124e-07
115	0xb9c9b466	-0.00038472115
116	0x393e861d	0.00018169773
117	0x335d5e78	5.154149e-08
118	0x3b2b6859	0.0026154725
119	0xba88c019	-0.0010433226
120	0x3ed64107	0.41846487
121	0xb3607d31	-5.2267925e-08
122	0x3a549eee	0.00081108406
123	0xbe2fe77e	-0.17178151
124	0x38da5499	0.000104108076
125	0x38d520b9	0.000101627265
126	0x3978bdb2	0.0002372179
127	0x39133ea0	0.00014042342
128	0xb6cdfdc1	-6.139017e-06
129	0x350e491d	5.3005516e-07
130	0xb9234cd6	-0.00015573515
131	0x3da18bab	0.07887968
132	0x3a039dbb	0.0005020757
133	0xba2bb872	-0.0006550617
134	0xb77a902c	-1.4934729e-05
135	0x3a04b411	0.00050622324
136	0xb944d6f3	-0.00018772091
137	0xb8922c6c	-6.970097e-05
138	0x3996488d	0.00028664284
139	0x3a97e6a1	0.0011589119
140	0xb998fd50	-0.00029180432
141	0x3a118e6d	0.0005552534
142	0x381b848f	3.7078335e-05
143	0xb81c5447	-3.7271788e-05
144	0x388651ac	6.4048305e-05
145	0xb730f97a	-1.0548503e-05
146	0x3a1a27ae	0.00058805465
147	0x370be635	8.338645e-06
148	0x39ca1507	0.0003854411
149	0x3c68f1eb	0.014217834
150	0x39d4cad0	0.00040586898
151	0xb9625d1b	-0.00021587724
152	0x3639364a	2.7598749e-06
153	0xb6a1af5a	-4.8185875e-06
154	0xb91fc257	-0.00015235819
155	0xba9dde06	-0.0012044318
156	0x39d4e2c9	0.0004060476
157	0xb9ab228d	-0.00032641404
158	0xba14fb64	-0.0005683212
159	0xb9382598	-0.00017561612
160	0xb93ade8f	-0.00017821252
161	0x399807b2	0.00028997433
162	0xb954988f	-0.00020274728
163	0xb92d3662	-0.00016518825
164	0xbd4037b0	-0.046928108
165	0x37e9ffb3	2.7894834e-05
166	0xbad07cdb	-0.001590635
167	0xb286b100	-1.5680143e-08
168	0x3a00787b	0.00049007655
169	0xbecddb9f	-0.4020662
170	0x38a27846	7.747165e-05
171	0x393ca8e7	0.00017991998
172	0x3912a4be	0.00013985016
173	0x38559f3e	5.0931463e-05
174	0x3eec4c70	0.46152067
175	0x3e32a79e	0.17446753
176	0xb9d9ee5c	-0.00041567057
177	0x3bc543f9	0.006020066
178	0x396a3d97	0.00022338923
179	0x398c9a5d	0.0002681789
180	0xbb319d93	-0.0027101978
181	0x330e6f7e	3.3163353e-08
182	0x3e8ccc9d	0.27499858
183	0x3950af14	0.00019901647
184	0x36d4529c	6.3277093e-06
185	0x38992e66	7.304251e-05
186	0xb206205b	-7.807183e-09
187	0x397039ea	0.00022909758
188	0x39e77c72	0.00044152472
189	0xba279e62	-0.00063941453
190	0x3a19690d	0.00058521406
191	0x3a0a6ee5	0.0005280807
192	0x38e7fa43	0.00011061553
193	0xb8645637	-5.443973e-05
194	0xb81e294e	-3.7708603e-05
195	0x37b905a0	2.2056338e-05
196	0xbe9a8b0d	-0.30184212
197	0x3864827a	5.448095e-05
198	0xb91ea274	-0.00015128573
199	0x3a41353e	0.00073702994
200	0xb9b5e9c4	-0.0003469718
201	0x2d4dd0b9	1.1699247e-11
202	0x375690ff	1.27891535e-05
203	0xb84b0893	-4.8406957e-05
204	0x3def4fa0	0.11685109
205	0x3a2a24af	0.00064904516
206	0x39314214	0.00016904651
207	0x39a1453e	0.00030759902
208	0xb2834893	-1.528341e-08
209	0x39d2dd74	0.00040219317
210	0xb8bbfaae	-8.9635476e-05
211	0xb8d013d7	-9.921908e-05
212	0x3f21e6ef	0.63243
213	0xb9e3a16b	-0.0004341708
214	0x393ca779	0.00017991466
215	0x39a38a4b	0.0003119282
216	0xb9a8689b	-0.00032121394
217	0xba0d6382	-0.0005393551
218	0x39f0cbec	0.000459283
219	0x39ac8f0f	0.00032912983
220	0xb9db2a7f	-0.00041802597
221	0x39e09df9	0.00042842308
222	0x3a1cff34	0.0005988956
223	0xb9e04ad0	-0.0004278035
224	0xb9342550	-0.00017180038
225	0x3ea0af4e	0.31383747
226	0xb9026069	-0.00012433682
227	0xb8217968	-3.849846e-05
228	0xb9d82f08	-0.00041233771
229	0xb8ad446e	-8.262029e-05
230	0xb34b8f01	-4.7394682e-08
231	0xb913c0cf	-0.00014090839
232	0xb89f57dd	-7.5980766e-05
233	0x3a0d0839	0.00053799484
234	0x3783babd	1.5703374e-05
235	0xb8f6b812	-0.0001176448
236	0x388fb5dd	6.852646e-05
237	0xb90b7ba3	-0.00013302131
238	0xb873bd26	-5.8111873e-05
239	0x39fbf1bd	0.0004805456
240	0x37a1ce09	1.9288638e-05
241	0xba876b74	-0.0010331706
242	0x39098b95	0.00013117336
243	0x3a43a4f8	0.0007463242
244	0xb8b4b7a0	-8.617272e-05
245	0x2fdfef4a	4.073349e-10
246	0x3a040fad	0.0005037736
247	0x394752c8	0.00019008957
248	0xb8e6b558	-0.000110010325
249	0xb7a28577	-1.9374054e-05
250	0x38734e70	5.8008765e-05
251	0x3467ecdb	2.1599719e-07
252	0xb1eb757d	-6.852757e-09
253	0xb89d6d52	-7.506706e-05
254	0x39ace635	0.00032977914
255	0xb99cf50f	-0.00029937222

tabnet.initial_bn.running_mean f4 [1038]
0	0x3bce1a51	0.0062897583
1	0x397be8ec	0.00024023996
2	0xbb7176af	-0.0036844423
3	0xba0bb14e	-0.00053288497
4	0xbb255edf	-0.002523355
5	0xbb87c70e	-0.004143602
6	0x3ae242d3	0.0017262347
7	0xbbb24f34	-0.0054415707
8	0x3994853d	0.0002832803
9	0x3ab33183	0.0013671372
10	0xbc9be11b	-0.019028237
11	0x3ad5996a	0.0016296331
12	0xbb49d4cc	-0.0030797003
13	0xbb369046	-0.002785699
14	0xbb15d7ed	-0.0022864297
15	0x3b82bcdb	0.0039897985
16	0xbbbe5326	-0.005808252
17	0xbb1df0c1	-0.00240998
18	0x3b6d490b	0.0036206867
19	0xbb875f48	-0.0041312315
20	0x3b30b615	0.0026963998
21	0xbc033c9a	-0.008010054
22	0x39f228ab	0.00046188137
23	0xbadee8eb	-0.0017006671
24	0xbb13ca81	-0.0022551122
25	0x3b3c3559	0.002871832
26	0xbb800697	-0.0039070356
27	0xbc1e7c35	-0.009673168
28	0x3a336e9c	0.000684479
29	0xbb8bd327	-0.0042671147
30	0xbb85050a	-0.0040594386
31	0xbb0c073e	-0.0021366621
32	0xbb55fe96	-0.0032652966
33	0x3c5ff898	0.013670109
34	0x3a59830f	0.00082974223
35	0x3b32798d	0.0027233094
36	0xbabc5380	-0.0014368147
37	0xbb027268	-0.0019904617
38	0xbb99b4b6	-0.004690732
39	0xbd2a03a9	-0.041507397
40	0x3cefa5e2	0.029253904
41	0xbb719584	-0.00368628
42	0xbb8ac40b	-0.004234796
43	0xb9e1c45b	-0.0004306164
44	0x3aa710b6	0.0012746069
45	0x3a5201b2	0.0008011117
46	0x3a0eeed2	0.0005452457
47	0x3ac0caad	0.001470884
48	0x3bce6b5b	0.006299419
49	0xbb53f163	-0.0032339923
50	0x3ae199ec	0.001721201
51	0xbb016da8	-0.0019749198
52	0xbd38880b	-0.045051616
53	0xbaf9eedd	-0.0019068379
54	0x3bc48b0d	0.0059980215
55	0xba89e2ae	-0.0010519826
56	0x3af483a9	0.001865496
57	0x3aee26a0	0.001816947
58	0x3a17b04b	0.00057864626
59	0x39f968bb	0.0004757101
60	0xbca9aca4	-0.020712204
61	0xbb1103c2	-0.0022127484
62	0x3b7528b4	0.0037408294
63	0x3a8539e6	0.001016435
64	0xbc043de0	-0.008071393
65	0xbb98b67d	-0.004660426
66	0x3b14a20b	0.0022679593
67	0x3aa2fc16	0.0012434747
68	0x3ac7975e	0.0015227606
69	0xbd525513	-0.051350664
70	0xb9ed68a6	-0.00045282132
71	0x3bb85cc5	0.0056262934
72	0xba722bd4	-0.0009238098
73	0x3b74da8f	0.0037361716
74	0xbc946538	-0.018114671
75	0x3a8c2466	0.0010692
76	0x3be08eb6	0.00685295
77	0xbd2fe3c0	-0.04294181
78	0xba377f9a	-0.000699991
79	0xb9654c67	-0.00021867604
80	0x3b07a00f	0.0020694768
81	0x3adf2eed	0.0017027535
82	0xb936d725	-0.0001743702
83	0x3b454a23	0.0030104003
84	0x396c936e	0.00022561636
85	0x3b1671b9	0.0022955968
86	0xbbab8cb4	-0.005235279
87	0xbab8f168	-0.0014110031
88	0x3bea9cf0	0.0071598217
89	0xb939b114	-0.00017708942
90	0x39d86533	0.0004127413
91	0x3a939cff	0.0011261998
92	0x3bbdf933	0.005797529
93	0x3ab81168	0.0014043273
94	0xbb56f36d	-0.0032798902
95	0x3a825c8d	0.0009945795
96	0xb9983fa5	-0.00029039118
97	0xbad5d8b6	-0.0016315195
98	0xbb6d6187	-0.003622146
99	0x3c2843f1	0.010270105
100	0xbc2e54c3	-0.010640326
101	0x3b31ccb5	0.0027130072
102	0x3c6ea99e	0.014566807
103	0x3b3e1dc0	0.0029009432
104	0x3af6a5a4	0.0018817675
105	0x3ae836d0	0.0017716531
106	0x3b18e2b0	0.0023328476
107	0x3b28d03a	0.0025758878
108	0x3a6c4947	0.0009013605
109	0x3ae1de93	0.001723247
110	0xba092f2d	-0.0005233165
111	0x3b4dc683	0.003139884
112	0xbad3446c	-0.0016118414
113	0xbaff8f83	-0.0019497726
114	0xb9efec89	-0.00045761865
115	0xbc863369	-0.016381936
116	0x3bac3940	0.005255848
117	0xba759f04	-0.00093697035
118	0x3a316f53	0.0006768603
119	0x3b40e46a	0.002943302
120	0x399677b1	0.00028699407
121	0xba55c0f8	-0.000815406
122	0xbb2ff578	-0.0026849192
123	0xbbb83bfe	-0.005622386
124	0xbb109361	-0.00220605
125	0x3cc44851	0.023960264
126	0xbb041da3	-0.0020159266
127	0xba9074c6	-0.0011021129
128	0xbab6429d	-0.001390535
129	0xbb6d835f	-0.0036241633
130	0xbc69ca9d	-0.014269498
131	0x3b75196f	0.0037399193
132	0x3bf77015	0.007551203
133	0x3cfed0a3	0.031105345
134	0x3ae20990	0.0017245281
135	0xbb0800e8	-0.0020752493
136	0x3a82f275	0.0009990471
137	0xba0a06fb	-0.00052653224
138	0xba92197f	-0.0011146514
139	0x3b33eabe	0.002745315
140	0xbacad68a	-0.0015475315
141	0x3a1cce88	0.0005981703
142	0xbb60378e	-0.00342128
143	0x3b01e39a	0.00198195
144	0xb8a167d5	-7.6964185e-05
145	0x3b0ab38c	0.0021164147
146	0x3b10e2f6	0.0022107936
147	0x3b6a80a2	0.0035782238
148	0x3ba8404f	0.0051346193
149	0x3c46f567	0.012143469
150	0x3bd3ae8b	0.006460016
151	0xba8abcd2	-0.0010584837
152	0xba8ca0e5	-0.0010729103
153	0xbb826ddd	-0.003980382
154	0xbb1f09bb	-0.0024267274
155	0xbac848a0	-0.0015280433
156	0xbb3a1223	-0.0028392158
157	0xb9cd7358	-0.00039186585
158	0xbb85c67f	-0.0040825005
159	0xbabd9b9c	-0.0014465931
160	0x3c91fe00	0.017821312
161	0x39c362c0	0.00037266873
162	0xbbc81576	-0.006106074
163	0xbae654ab	-0.001757284
164	0x3b3a4c7d	0.0028426938
165	0x3bc4c719	0.0060051796
166	0x3bdfd985	0.0068313503
167	0xba335162	-0.0006840435
168	0xbb3b13bd	-0.00285457
169	0x3a2f2cce	0.00066823966
170	0x3aabcf26	0.0013108
171	0x3ad6ffaa	0.0016403098
172	0x3c3e4945	0.0116141485
173	0x3afd1703	0.0019309226
174	0x3a90767f	0.0011021643
175	0xbb9c3c92	-0.0047679627
176	0x3b152510	0.0022757687
177	0x3becfeee	0.0072325384
178	0x3a300c01	0.0006715656
179	0x3b7d8fdb	0.003869048
180	0xbc243f8e	-0.010024918
181	0xbafc2a8c	-0.0019238754
182	0x3b828866	0.003983545
183	0xbb891e02	-0.0041844854
184	0x3ac1b5ef	0.0014778952
185	0xbba036fd	-0.0048893676
186	0xbb0d1ee0	-0.0021533296
187	0xbcd544ca	-0.026033778
188	0xbb11a66b	-0.0022224437
189	0xbb91e5fc	-0.004452465
190	0xbb27485f	-0.0025525314
191	0xbb3bf9b4	-0.002868277
192	0x3b2302d2	0.0024873507
193	0x3abbf057	0.0014338595
194	0xbb1a8c2d	-0.0023582086
195	0xbb22fed3	-0.0024871125
196	0xbad6e2ef	-0.0016394536
197	0xbc88cc30	-0.016698927
198	0x3b82d3e9	0.003992547
199	0x3bc52187	0.0060159597
200	0xb9d58ffe	-0.00040733808
201	0xb9b8aaee	-0.00035222567
202	0xba80d7a0	-0.0009829886
203	0x3c43df63	0.011955115
204	0xbc7f291e	-0.015573768
205	0xba92daa8	-0.0011204081
206	0xbad2196b	-0.0016029304
207	0x3a4fe492	0.0007930483
208	0x3ab15a8a	0.0013531011
209	0xb9524bc9	-0.00020055393
210	0x3c3dc883	0.01158345
211	0x39778f23	0.00023609078
212	0x3b4701fb	0.003036617
213	0xbb2fc57b	-0.0026820588
214	0xba6d6454	-0.00090557826
215	0xb906f234	-0.00012869464
216	0x3aae78b1	0.0013311115
217	0x3b3f32d7	0.002917459
218	0x3bb8c4da	0.005638701
219	0x3b0e3deb	0.0021704386
220	0x3a45793c	0.0007533019
221	0xbb1b4969	-0.002369488
222	0x3b05c627	0.0020412297
223	0xbac1a465	-0.0014773725
224	0xb9f6c60d	-0.00047068336
225	0xbb70cc78	-0.0036742967
226	0x38983f17	7.259676e-05
227	0xb91cc0eb	-0.00014949187
228	0x3bcc0f76	0.006227429
229	0xbb4bc27d	-0.0031091266
230	0xbd8a71bc	-0.06759974
231	0xbaf10826	-0.0018389269
232	0x39d01fcd	0.00039696545
233	0xbb55d7b1	-0.0032629783
234	0x3b3854f5	0.002812681
235	0xbb047181	-0.0020209255
236	0x3b8b2454	0.004246274
237	0x39ce4afc	0.0003934725
238	0xbb8bea9b	-0.0042699105
239	0xbb43ffc6	-0.0029907092
240	0xbb209a0b	-0.002450588
241	0xbad44183	-0.001619384
242	0x3b02cb1c	0.0019957488
243	0xbb1a2351	-0.0023519585
244	0xb9a37f5e	-0.0003118468
245	0x3b8d0538	0.0043036006
246	0xb90f3f4c	-0.00013661123
247	0xbb360ec2	-0.0027779792
248	0xbb17c263	-0.0023156635
249	0xbb47ea7d	-0.0030504756
250	0x3cb460cf	0.022018818
251	0x3ac69c14	0.0015152716
252	0xbc44412e	-0.011978431
253	0x3beff48f	0.007322855
254	0xbb479b2a	-0.0030457475
255	0x3b98806f	0.0046539824

tabnet.initial_bn.running_var f4 [1038]
0	0x3bcd41bc	0.0062639397
1	0x3a1173a2	0.00055485417
2	0x3f7e071a	0.99229586
3	0x3f78fd63	0.9726164
4	0x3f78f255	0.9724477
5	0x3f79368d	0.9734886
6	0x3f79838f	0.9746637
7	0x3f789d7b	0.97115296
8	0x3f772ed6	0.9655584
9	0x3f786455	0.97028095
10	0x3f89749a	1.0738709
11	0x3f7992e5	0.9748977
12	0x3f7905cc	0.9727447
13	0x3f7b08c5	0.98060256
14	0x3f788c9b	0.97089547
15	0x3f7d0639	0.9883762
16	0x3f790941	0.97279745
17	0x3f77a149	0.96730477
18	0x3f7de075	0.9917062
19	0x3f7c7bd7	0.98626465
20	0x3f785413	0.9700329
21	0x3f787992	0.970605
22	0x3f79ff44	0.9765513
23	0x3f76f4f6	0.9646753
24	0x3f771595	0.96517307
25	0x3f76e30e	0.9644021
26	0x3f79c5c6	0.97567403
27	0x3f77facc	0.9686706
28	0x3f79290e	0.9732827
29	0x3f77265d	0.9654291
30	0x3f787746	0.97056997
31	0x3f79153a	0.97298014
32	0x3f77ea80	0.96842194
33	0x3f85e973	1.0461868
34	0x3f7874c2	0.9705316
35	0x3f78fec6	0.97263753
36	0x3f7a3093	0.9773037
37	0x3f7952f3	0.97392195
38	0x3f7d358b	0.98909825
39	0x3fa228ad	1.2668663
40	0x3f9841e6	1.1895111
41	0x3f7835f3	0.9695732
42	0x3f7efa62	0.99600804
43	0x3f7948a6	0.9737648
44	0x3f796776	0.97423494
45	0x3f7956fc	0.9739835
46	0x3f79a3f2	0.97515786
47	0x3f7942dd	0.9736765
48	0x3f81a937	1.0129765
49	0x3f785b37	0.9701418
50	0x3f7e358a	0.99300444
51	0x3f79468a	0.9737326
52	0x3fa75165	1.3071715
53	0x3f795da5	0.97408515
54	0x3f79b49c	0.97541213
55	0x3f7a91db	0.9787881
56	0x3f798ab1	0.9747725
57	0x3f7cd57d	0.9876326
58	0x3f79b0f9	0.97535664
59	0x3f7d10a8	0.9885354
60	0x3f907d07	1.1288155
61	0x3f7a205c	0.97705626
62	0x3f751ebb	0.95750016
63	0x3f7bd365	0.9836944
64	0x3f83c430	1.0294247
65	0x3f84ac40	1.0365067
66	0x3f7765af	0.9663953
67	0x3f7b109d	0.98072225
68	0x3f77159e	0.9651736
69	0x3faf61c1	1.3701707
70	0x3f774b57	0.96599334
71	0x3f77fc2a	0.96869147
72	0x3f79176f	0.9730138
73	0x3f78c921	0.971819
74	0x3f8fd491	1.1236745
75	0x3f77ef7e	0.9684981
76	0x3f85274b	1.0402616
77	0x3fa764fb	1.3077692
78	0x3f79a850	0.9752245
79	0x3f781389	0.9690481
80	0x3f7762d4	0.96635175
81	0x3f774375	0.96587306
82	0x3f77c8ee	0.9679097
83	0x3f78c811	0.9718028
84	0x3f78165b	0.9690911
85	0x3f782cec	0.96943545
86	0x3f78bbc0	0.97161484
87	0x3f77e41f	0.9683246
88	0x3f81eac6	1.0149772
89	0x3f78a322	0.9712392
90	0x3f7713a9	0.96514374
91	0x3f787d22	0.9706594
92	0x3f790011	0.97265726
93	0x3f81973b	1.0124277
94	0x3f78f5ba	0.9724995
95	0x3f770a0a	0.96499693
96	0x3f76ee0d	0.96456987
97	0x3f79fb71	0.97649294
98	0x3f80be53	1.0058082
99	0x3f8289c4	1.0198293
100	0x3f809ba2	1.0047495
101	0x3f77ad8c	0.96749187
102	0x3f8a383f	1.0798415
103	0x3f77d0ee	0.96803176
104	0x3f7cd915	0.9876874
105	0x3f787ee9	0.9706865
106	0x3f786b92	0.9703914
107	0x3f76d1d2	0.9641391
108	0x3f802b3a	1.0013192
109	0x3f78749f	0.9705295
110	0x3f79028d	0.9726952
111	0x3f78f788	0.972527
112	0x3f7653fd	0.96221906
113	0x3f7aa9eb	0.97915524
114	0x3f788c5c	0.9708917
115	0x3f8e1cca	1.1102536
116	0x3f78c1be	0.9717063
117	0x3f7a09c0	0.9767113
118	0x3f79b0a9	0.97535187
119	0x3f7860a4	0.9702246
120	0x3f78441d	0.9697893
121	0x3f772e09	0.9655462
122	0x3f78c81b	0.97180337
123	0x3f80cae9	1.0061923
124	0x3f782dbf	0.96944803
125	0x3f95f5c5	1.1715628
126	0x3f7737f4	0.9656975
127	0x3f77bb7c	0.96770453
128	0x3f7b6974	0.98207784
129	0x3f776510	0.96638584
130	0x3f8e340b	1.1109632
131	0x3f77f13f	0.9685249
132	0x3f8101ac	1.0078635
133	0x3f9a5021	1.2055703
134	0x3f80ad06	1.0052803
135	0x3f7c3fb3	0.985347
136	0x3f78f13b	0.9724309
137	0x3f780ee5	0.9689773
138	0x3f795b64	0.97405076
139	0x3f77eb6f	0.9684362
140	0x3f7b40db	0.98145837
141	0x3f7ac8dd	0.97962743
142	0x3f7a982b	0.9788844
143	0x3f77c282	0.9678117
144	0x3f7d1d83	0.98873156
145	0x3f78c7f0	0.9718008
146	0x3f813153	1.0093178
147	0x3f7a9133	0.97877806
148	0x3f7e84da	0.99421465
149	0x3f83fcf2	1.0311568
150	0x3f7cc67f	0.9874038
151	0x3f784eee	0.9699544
152	0x3f78b5f2	0.97152627
153	0x3f794cbe	0.97382724
154	0x3f81cbf1	1.0140363
155	0x3f754d7f	0.95821375
156	0x3f7aa79d	0.9791201
157	0x3f811720	1.0085182
158	0x3f78bcd3	0.9716312
159	0x3f7a8688	0.9786153
160	0x3f8f43ff	1.1192626
161	0x3f769c0b	0.9633185
162	0x3f7e4e4c	0.9933822
163	0x3f79cfa0	0.97582436
164	0x3f7845b5	0.96981364
165	0x3f81f808	1.0153818
166	0x3f802d69	1.0013858
167	0x3f796cbe	0.9743155
168	0x3f7959c3	0.9740259
169	0x3f772e24	0.9655478
170	0x3f7aa9a2	0.9791509
171	0x3f77651d	0.9663866
172	0x3f85560c	1.0416884
173	0x3f78e56f	0.9722509
174	0x3f7753ae	0.9661206
175	0x3f79401b	0.9736344
176	0x3f77f961	0.96864897
177	0x3f78a266	0.971228
178	0x3f78f986	0.9725574
179	0x3f7afd13	0.9804241
180	0x3f8c41a6	1.0957534
181	0x3f776487	0.9663777
182	0x3f783925	0.96962196
183	0x3f7c8e71	0.9865485
184	0x3f77f9d8	0.96865606
185	0x3f80434c	1.0020537
186	0x3f78c44d	0.9717453
187	0x3f8f410b	1.1191725
188	0x3f7b2d5e	0.981161
189	0x3f76b61a	0.96371615
190	0x3f7859d9	0.97012097
191	0x3f80ee89	1.0072795
192	0x3f791f93	0.97313803
193	0x3f79c19e	0.9756106
194	0x3f78627b	0.9702527
195	0x3f775efe	0.9662932
196	0x3f791e0a	0.9731146
197	0x3f8a9d71	1.0829297
198	0x3f797635	0.97445995
199	0x3f80b52a	1.0055287
200	0x3f7a87ac	0.9786327
201	0x3f772191	0.96535593
202	0x3f78fffd	0.9726561
203	0x3f889c7c	1.0672755
204	0x3f89e6f2	1.0773604
205	0x3f76d034	0.9641144
206	0x3f7e2514	0.99275327
207	0x3f76cfcb	0.96410817
208	0x3f7953c6	0.97393453
209	0x3f777fab	0.9667918
210	0x3f890211	1.0703756
211	0x3f787fe1	0.9707013
212	0x3f79fa1d	0.9764727
213	0x3f780140	0.9687691
214	0x3f77d6fd	0.9681242
215	0x3f7ca9c8	0.98696566
216	0x3f784ba2	0.96990407
217	0x3f814eff	1.0102233
218	0x3f79be8d	0.9755638
219	0x3f78db87	0.9720997
220	0x3f7a1112	0.976823
221	0x3f78c5ab	0.9717662
222	0x3f78b49e	0.971506
223	0x3f78296c	0.96938205
224	0x3f770801	0.9649659
225	0x3f782446	0.9693035
226	0x3f785c80	0.97016144
227	0x3f78e0ce	0.97218025
228	0x3f832621	1.0246011
229	0x3f7985ea	0.9746996
230	0x3fb99698	1.4499083
231	0x3f7b7a30	0.9823332
232	0x3f7995a8	0.9749398
233	0x3f7f12da	0.9963814
234	0x3f7b0309	0.98051506
235	0x3f792868	0.9732728
236	0x3f796cec	0.97431827
237	0x3f7efdd1	0.99606043
238	0x3f78dc07	0.97210735
239	0x3f78437e	0.96977985
240	0x3f7983d5	0.97466785
241	0x3f7b8560	0.9825039
242	0x3f768b43	0.96306247
243	0x3f77e07b	0.96826905
244	0x3f785211	0.97000223
245	0x3f80bd29	1.0057727
246	0x3f7df695	0.9920438
247	0x3f7c67a3	0.9859564
248	0x3f77e5d7	0.9683508
249	0x3f7974bb	0.9744374
250	0x3f9322a0	1.1494942
251	0x3f7c010b	0.9843909
252	0x3f856283	1.0420688
253	0x3f809a1a	1.0047028
254	0x3f794cdc	0.97382903
255	0x3f778a94	0.9669583

tabnet.initial_splitter.shared.shared_layers.0.weight f4 [96, 1038]
0	0xba0abf53	-0.0005292792
1	0xb98f1c46	-0.0002729615
2	0xb96a7625	-0.00022359991
3	0x3a73e858	0.0009304336
4	0x3a00b7fd	0.0004910229
5	0x3a10aa3b	0.00055185304
6	0xb649141f	-2.9963046e-06
7	0xb9254a47	-0.00015763297
8	0xba4d7f2f	-0.0007839081
9	0x3d97c283	0.07410147
10	0x36f9d21c	7.445238e-06
11	0xb404bfce	-1.2363236e-07
12	0x33e359e4	1.0586862e-07
13	0xb8a5cc57	-7.9058744e-05
14	0x3a00b0f3	0.000490918
15	0xba186dc0	-0.0005814694
16	0xb991f07c	-0.0002783573
17	0x398b3268	0.00026549702
18	0x2e54aa78	4.8354626e-11
19	0xba315190	-0.0006764168
20	0x36724ca9	3.6105432e-06
21	0xb8e0e0f0	-0.0001072305
22	0xba204600	-0.00061139464
23	0xb975c296	-0.0002343751
24	0xbcfe2d9e	-0.031027611
25	0x3d636bfc	0.055522904
26	0xb940a1cd	-0.00018370822
27	0x3987cc57	0.00025901452
28	0x39644337	0.00021768814
29	0xba6343f5	-0.0008669489
30	0x3d9e28a9	0.07722599
31	0xba77299a	-0.00094285014
32	0x3a63ac63	0.00086850504
33	0xb84c1750	-4.86591e-05
34	0xba1e3160	-0.0006034579
35	0x39d985cd	0.00041489155
36	0x3a5bcd51	0.00083847815
37	0xb8154eee	-3.5597877e-05
38	0x3e28597f	0.1644039
39	0x3720a944	9.576153e-06
40	0xb3717ad6	-5.6223904e-08
41	0x38c91865	9.588971e-05
42	0xb9bb4a2a	-0.00035722676
43	0xb9e93320	-0.00044479314
44	0xb9a03fd9	-0.00030565148
45	0xb9806944	-0.00024492492
46	0xb84191fe	-4.615075e-05
47	0x3a0bf79d	0.00053393265
48	0xb9b57181	-0.00034607577
49	0xba62d283	-0.00086525845
50	0x3a0e967b	0.00054392935
51	0x3511da48	5.433435e-07
52	0xb9c1b7d2	-0.00036948785
53	0xba254ec1	-0.0006305986
54	0x38f29bf3	0.00011568507
55	0xbded7eda	-0.11596461
56	0xb976140a	-0.00023467853
57	0xb527ca47	-6.25067e-07
58	0xb9bbb16f	-0.00035799618
59	0xb95c396e	-0.00021002229
60	0x37f7fdd2	2.9562889e-05
61	0xb298e0c9	-1.779735e-08
62	0xba46825a	-0.00075725245
63	0x38af7c31	8.367783e-05
64	0x3d4203a5	0.047366757
65	0x39d1cb25	0.0004001494
66	0x33ff1f2f	1.1880035e-07
67	0x37b5076a	2.1580334e-05
68	0x3a1705e5	0.0005761071
69	0x3a134967	0.0005618543
70	0x39a868b4	0.00032121467
71	0xb9e99a3e	-0.00044556143
72	0xbd580573	-0.05273957
73	0xb954db13	-0.00020299507
74	0xb59afc6e	-1.1547361e-06
75	0xb3c01eff	-8.946335e-08
76	0xb90be54d	-0.00013341494
77	0x3b10ada0	0.0022076145
78	0x2faaf831	3.109917e-10
79	0xb92f5d58	-0.00016724074
80	0xb9be5bbe	-0.00036307977
81	0x393965ff	0.00017680971
82	0x394abf6d	0.00019335533
83	0x3ae85428	0.0017725276
84	0x3a6bd01d	0.000899555
85	0xb5b535a0	-1.3501158e-06
86	0x382057ff	3.8228925e-05
87	0xba0fbaf3	-0.00054828747
88	0xba081014	-0.0005190384
89	0xb734d7dd	-1.0779096e-05
90	0xb99288df	-0.00027949267
91	0x3a45e156	0.0007548531
92	0xbaa97242	-0.0012927728
93	0xba5fd8aa	-0.00085390604
94	0xba2f89bb	-0.00066962437
95	0xb9b4ea9d	-0.00034507076
96	0x39ebed4e	0.000449995
97	0xb99d76e3	-0.0003003395
98	0xb9986367	-0.0002906576
99	0xba0771b7	-0.0005166786
100	0xb6eb8f77	-7.0202473e-06
101	0xb8ed530c	-0.00011316509
102	0xbd855548	-0.06510407
103	0x381b3b6a	3.7010213e-05
104	0xbaf38268	-0.0018578293
105	0xb8c22f10	-9.259407e-05
106	0xb99834a7	-0.00029030928
107	0xb7120789	-8.704033e-06
108	0xba12cfd3	-0.0005600426
109	0xb9b663c8	-0.00034788088
110	0xb76cf480	-1.4123623e-05
111	0xb91b2980	-0.00014797412
112	0xb95c04f5	-0.00020982682
113	0x39131be0	0.00014029397
114	0xb432e9b7	-1.6662567e-07
115	0x39355733	0.0001729399
116	0xb9d0e67c	-0.00039844576
117	0x340c3ab5	1.3059874e-07
118	0xb6e64711	-6.8628074e-06
119	0x3a4c90ff	0.00078035885
120	0xbd8eddd6	-0.069759056
121	0x334558bc	4.594834e-08
122	0xb900c937	-0.0001228199
123	0xbca8d10e	-0.020607498
124	0xb9930943	-0.00028044925
125	0xba93ab51	-0.0011266266
126	0x39fd301a	0.0004829176
127	0x39e16098	0.00042987312
128	0xb687b6de	-4.044602e-06
129	0x34a395dd	3.0470156e-07
130	0x3aca55a7	0.0015436903
131	0xbd9f726d	-0.07785497
132	0x39e1b876	0.00043052778
133	0x399192d7	0.0002776596
134	0xb8b4e537	-8.6257634e-05
135	0x3a1520ba	0.00056887756
136	0x3988b465	0.00026074346
137	0xb8b88594	-8.7986846e-05
138	0xba9a2552	-0.001176039
139	0xb88048c1	-6.117067e-05
140	0xb94e9ac8	-0.00019703351
141	0x398a284b	0.00026351432
142	0xb985d10d	-0.00025523492
143	0xb7113081	-8.653967e-06
144	0xba9cc5c5	-0.0011960795
145	0x374b1ea8	1.2106881e-05
146	0xb9780106	-0.00023651504
147	0x3984593a	0.0002524348
148	0xb70f863b	-8.554717e-06
149	0x3c42daec	0.011893015
150	0xba442d03	-0.0007483514
151	0xb9545783	-0.00020250496
152	0xb7b0d094	-2.1077962e-05
153	0x371c76be	9.325971e-06
154	0x39958266	0.0002851665
155	0x3a36b85a	0.00069702195
156	0x3a14bfbd	0.0005674323
157	0xb99f4c99	-0.00030383913
158	0xb9810d5c	-0.0002461475
159	0xba9f985b	-0.0012176143
160	0xb9b0aaaa	-0.0003369649
161	0xb927381d	-0.00015947265
162	0x3a30a336	0.00067381875
163	0xb97686f8	-0.00023510668
164	0x3c3f6618	0.011682056
165	0xb82ed502	-4.168321e-05
166	0x3837f9f0	4.3863372e-05
167	0x340ee491	1.3307933e-07
168	0x390a313d	0.00013179048
169	0x3c9a7ce1	0.018858375
170	0x398ebb56	0.00027223927
171	0x3a397426	0.00070744974
172	0xb90cfec6	-0.00013446351
173	0xb90f576f	-0.00013670114
174	0x3dd321c8	0.10309178
175	0xba4cc10e	-0.000781075
176	0x38af9d35	8.373932e-05
177	0xbd7ba04a	-0.06143216
178	0xb84e0a12	-4.9123606e-05
179	0x39121aad	0.00013933583
180	0xbd182a71	-0.03714985
181	0xb37d62d4	-5.8996037e-08
182	0x3d9cf51f	0.07663941
183	0xba76935a	-0.00094061124
184	0xb777aeed	-1.4763075e-05
185	0x399a0141	0.00029374103
186	0xb13d7f19	-2.7575366e-09
187	0xb8a31ed8	-7.778191e-05
188	0xb9c6fd70	-0.0003795433
189	0x3a2316d0	0.0006221356
190	0xb9561201	-0.00020415337
191	0x39913cc6	0.00027701835
192	0x39c8b77e	0.00038283685
193	0x39c35744	0.00037258316
194	0xba87bca1	-0.0010355898
195	0x38ae4d4b	8.3113635e-05
196	0xbe5cc93c	-0.2156114
197	0xb6dcf08e	-6.584515e-06
198	0x3896fed6	7.200024e-05
199	0xba2230cc	-0.0006187081
200	0xb9394cac	-0.00017671537
201	0x2f06da8c	1.2264872e-10
202	0xb835a388	-4.3306063e-05
203	0xbab4f2e5	-0.0013805298
204	0x3cba00cf	0.022705464
205	0x3b12aa24	0.0022379244
206	0xba8b6b54	-0.0010636845
207	0x387289b4	5.7825542e-05
208	0xb3257753	-3.852558e-08
209	0x3afd2351	0.0019312893
210	0x393870b2	0.0001758959
211	0xba0c8c4a	-0.0005361481
212	0x3c8723ae	0.016496506
213	0xb95c982d	-0.00021037525
214	0x38f6baf3	0.00011765016
215	0x39e360e1	0.00043368994
216	0x3954a4f7	0.0002027935
217	0xba7fda32	-0.00097599917
218	0x385fcf4b	5.33604e-05
219	0xba55c639	-0.00081548427
220	0x39f6d8be	0.00047082262
221	0xbab1d225	-0.0013566656
222	0x3938ae10	0.00017612451
223	0xba5dbe61	-0.00084588496
224	0x3ab45615	0.0013758565
225	0x3d7aa0ce	0.06118851
226	0xb91208dd	-0.00013926947
227	0xb982678e	-0.00024872686
228	0xb9c77272	-0.00038041506
229	0x39a3da3e	0.00031252386
230	0xb3cfde2d	-9.679602e-08
231	0x3839ddbd	4.4313947e-05
232	0xb964604d	-0.00021779649
233	0x3a8f82f9	0.0010949067
234	0xb80648b2	-3.2015792e-05
235	0x399eab8c	0.0003026392
236	0x384f9af1	4.9496946e-05
237	0xbaaebd74	-0.0013331608
238	0xba8eb5d8	-0.0010887934
239	0x3a1bb55e	0.00059398066
240	0x379f273e	1.897255e-05
241	0x3a8fe337	0.001097775
242	0xba004865	-0.00048936
243	0x3a0c3334	0.0005348206
244	0xba99934e	-0.0011716874
245	0xb083bb26	-9.584695e-10
246	0xba0b6e17	-0.0005318834
247	0xb9d415dc	-0.00040452078
248	0x37e03d9f	2.6731575e-05
249	0xb98217b8	-0.00024813204
250	0xbadb0f94	-0.0016713017
251	0x337a5eb7	5.8293804e-08
252	0xb054be15	-7.7395274e-10
253	0x380db30d	3.3783774e-05
254	0xb9da9864	-0.0004169374
255	0x39ca1a86	0.00038548204

tabnet.initial_splitter.shared.shared_layers.1.weight f4 [96, 48]
0	0x3e96189d	0.29315653
1	0x3be89415	0.007097731
2	0xbd56193e	-0.052270167
3	0x3be3e132	0.0069543356
4	0xbce4dd6a	-0.02793761
5	0xbd35dfd6	-0.04440292
6	0x3c280e6b	0.010257344
7	0x3c9890ae	0.018623676
8	0xbc1d273a	-0.009591872
9	0x3d1a27e3	0.037635695
10	0xbd3a957d	-0.04555272
11	0xbd013748	-0.03154686
12	0xbbfc667c	-0.007702647
13	0x3b51c193	0.0032006248
14	0xbd1757e4	-0.036949053
15	0xbcd3323e	-0.025780793
16	0x3c3dae41	0.01157719
17	0x3c8748ed	0.016514266
18	0xba6924ee	-0.00088937476
19	0x3c4f72af	0.01266162
20	0xbcc2ca44	-0.023778088
21	0xbda1bbe7	-0.07897168
22	0x3d2aeaf5	0.04172798
23	0xbd0fcb49	-0.035105977
24	0xb92dff10	-0.00016593584
25	0x3a8419c0	0.0010078475
26	0x36cbb047	6.070393e-06
27	0xbafca37e	-0.0019274799
28	0xb9787243	-0.00023693689
29	0x3901ecfe	0.00012390685
30	0xb8cb92f2	-9.707165e-05
31	0xb921220e	-0.00015366843
32	0xb9069209	-0.00012833638
33	0x39c97b26	0.0003842946
34	0x3913d715	0.00014099137
35	0x3933c401	0.00017143787
36	0x38977214	7.22149e-05
37	0x3a188883	0.00058186817
38	0x38d9a274	0.000103776256
39	0xbadc9c10	-0.0016831178
40	0x39e404d2	0.0004349114
41	0xb9eda64a	-0.00045328058
42	0xb66a89f3	-3.4949014e-06
43	0xb8c1fad0	-9.2496746e-05
44	0xb9137742	-0.0001406344
45	0x3608e15e	2.039676e-06
46	0xb8f22d2a	-0.00011547872
47	0x398cd832	0.0002686396
48	0x3d06aef5	0.032881696
49	0x3ee798ad	0.4523367
50	0xbb27fd9f	-0.0025633348
51	0xbb320262	-0.0027162065
52	0xbb6b4dd0	-0.0035904534
53	0xba768522	-0.00094039936
54	0xbd32712b	-0.043564957
55	0xbcae35fd	-0.021265978
56	0x3b1e9d29	0.0024202561
57	0x3d12c31b	0.0358306
58	0xbd3017b4	-0.042991355
59	0x3d36290d	0.044472743
60	0x3ca6becc	0.02035465
61	0x3a0cf3bf	0.0005376897
62	0x3d030631	0.031988326
63	0x3bb16e36	0.0054147495
64	0xbcedc785	-0.029025802
65	0x3b1e6007	0.0024166123
66	0x3c393dd6	0.011306247
67	0x3c6df980	0.0145248175
68	0xbc3bf37b	-0.0114716245
69	0xbc4a6d08	-0.012355097
70	0xbc9628f3	-0.018330073
71	0xbd401e8c	-0.04690413
72	0x37862418	1.5990852e-05
73	0x3ac7c293	0.0015240483
74	0xb99dd0da	-0.0003010098
75	0x3c1881f7	0.00930833
76	0xb9134907	-0.00014046217
77	0xb8a2b5e5	-7.7586425e-05
78	0xb7a158b3	-1.9234e-05
79	0xb8daee31	-0.00010439417
80	0x3a65f25f	0.0008771773
81	0x397880a2	0.00023699043
82	0x370abf8c	8.270039e-06
83	0xb81aafe0	-3.6880258e-05
84	0xb7429730	-1.1598502e-05
85	0x3a2e00db	0.0006637701
86	0xb87a0127	-5.9605718e-05
87	0xbb657660	-0.0035013184
88	0x3aa6e0d8	0.0012731804
89	0x3a754de9	0.0009357618
90	0x37d22049	2.5048985e-05
91	0xb724290c	-9.784719e-06
92	0xb9a10f81	-0.00030719864
93	0x3539a390	6.9155885e-07
94	0xb84af64b	-4.838993e-05
95	0x392168f5	0.00015393256
96	0xbd5a38e4	-0.05327691
97	0xbcbe6cb6	-0.023245197
98	0x3e273c82	0.16331676
99	0xbd2cee3a	-0.042219378
100	0xbd3b52df	-0.04573333
101	0xbd23c239	-0.039980147
102	0x3bd2a3fe	0.006428241
103	0xbbe398bf	-0.006945699
104	0x3cf8d15d	0.03037327
105	0x3c787bb7	0.015166215
106	0xbcf7289b	-0.03017073
107	0xbc2f0c16	-0.010684034
108	0x3c97b618	0.018519446
109	0xbbbb497b	-0.0057155467
110	0x3d2bd0f6	0.041947328
111	0xbcd27c84	-0.02569414
112	0xb95c4519	-0.00021006576
113	0x3ccfde06	0.025374424
114	0xbe11b5d5	-0.1422952
115	0xbc84c1de	-0.016205724
116	0x3d4b2770	0.049598157
117	0xbd6fa237	-0.05850431
118	0x3cd2ab35	0.025716403
119	0x3d37d0c2	0.04487682
120	0x38cb7487	9.701499e-05
121	0x395d6923	0.00021115369
122	0x38d3cd92	0.000100995545
123	0xba838aa8	-0.001003583
124	0x378dd85f	1.6909265e-05
125	0x37cbae2e	2.4280595e-05
126	0x379284ff	1.7466487e-05
127	0xb8402529	-4.5810975e-05
128	0x3a4027ab	0.000733013
129	0x38e9e545	0.000111530106
130	0x37b7f7dc	2.1930719e-05
131	0x384827f8	4.772094e-05
132	0x3891694a	6.9337504e-05
133	0xb9d0dd42	-0.00039837701
134	0x379ada56	1.8459901e-05
135	0x3ae73942	0.0017640966
136	0x3a77c3ef	0.00094514986
137	0xbb1dc25b	-0.0024072144
138	0xb790a518	-1.7243015e-05
139	0xb8cb3477	-9.689567e-05
140	0x396a198d	0.00022325497
141	0x35b457c9	1.3436594e-06
142	0xb74a7bcb	-1.2068961e-05
143	0xb99091fa	-0.0002757458
144	0xbbdf8f12	-0.006822475
145	0xbb0cdd6e	-0.0021494287
146	0xbd8a29ed	-0.06746278
147	0x3d4948bb	0.049141627
148	0x3c702673	0.0146576045
149	0x3c6747f3	0.014116275
150	0xbcc63494	-0.024194993
151	0x3d995f77	0.074889116
152	0x3c31c517	0.010850213
153	0x3c13891e	0.009004859
154	0x3c8aae41	0.016928794
155	0xbcd9cab7	-0.02658592
156	0xbc382e4c	-0.011241507
157	0x3b23e0a1	0.0025005715
158	0xbd238fb4	-0.039931968
159	0x3d2c039b	0.041995626
160	0xbcf95e80	-0.030440569
161	0xbb99b973	-0.0046912967
162	0x3c04228a	0.008064875
163	0x3d344a58	0.044016212
164	0xbd9031a5	-0.07040719
165	0x3bc14450	0.005898036
166	0xbc8fb71f	-0.017543374
167	0xbd9e7fec	-0.07739243
168	0x36ab729f	5.109541e-06
169	0x3a255172	0.0006306387
170	0xb6f01e4b	-7.156084e-06
171	0xbb4d71d8	-0.0031348374
172	0x389af1dc	7.388342e-05
173	0xb8360358	-4.3395296e-05
174	0xb7630b18	-1.3532837e-05
175	0x38469831	4.7348618e-05
176	0xb9232786	-0.00015559615
177	0x398c815a	0.00026799255
178	0x37500f18	1.240128e-05
179	0x39212a2a	0.00015369864
180	0x38cc43ce	9.7401076e-05
181	0x39affd53	0.00033567342
182	0x386db790	5.667616e-05
183	0x3a2d95d4	0.00066217524
184	0x39f4d1f6	0.0004669574
185	0x39f71374	0.00047126005
186	0x3713e4e1	8.815173e-06
187	0xb8b723be	-8.7327775e-05
188	0xb9dcf150	-0.00042141462
189	0x34fb2b50	4.6783907e-07
190	0xb6a89684	-5.0243125e-06
191	0xb99764cf	-0.00028876073
192	0xbb97dc18	-0.0046343915
193	0xbd21c7aa	-0.039497055
194	0xbc3fad18	-0.011698984
195	0x3b893c1d	0.0041880743
196	0x3e7fe5b5	0.2498997
197	0xbd694e19	-0.056959245
198	0x3ce18288	0.027528062
199	0xbd279ed6	-0.040922962
200	0xba805744	-0.0009791632
201	0x3d65efad	0.056136776
202	0xbd7f3fc2	-0.062316664
203	0x3d35e699	0.04440937
204	0x3dd9fb74	0.10643664
205	0xb8c408aa	-9.347622e-05
206	0xbd9843b8	-0.07434791
207	0x3d410d2c	0.047131702
208	0xbca13544	-0.01967872
209	0x3c9616e2	0.018321458
210	0x3d873598	0.06602019
211	0x3cfde672	0.030993674
212	0x3d154cb6	0.03645011
213	0xbd64af33	-0.055831145
214	0x3d0f0c27	0.0349237
215	0xbae33371	-0.0017334056
216	0xb88906eb	-6.533958e-05
217	0xba0ea8b4	-0.0005442009
218	0xb917a6d9	-0.00014462638
219	0x3ad2d851	0.0016086196
220	0xb89f3516	-7.591599e-05
221	0xb7e027a5	-2.6721342e-05
222	0xb7fc5956	-3.0082341e-05
223	0x39196d65	0.0001463197
224	0xbad55b2b	-0.001627778
225	0xb90d9fa0	-0.00013506273
226	0xb7dc4b70	-2.6261172e-05
227	0x396b3376	0.00022430517
228	0x38db266a	0.00010449889
229	0xb9d54420	-0.00040677283
230	0x38939c26	7.038591e-05
231	0xba11a1ac	-0.0005555402
232	0xb94d7d7c	-0.0001959707
233	0x3b177b85	0.0023114395
234	0xb7a64bc0	-1.9824016e-05
235	0xb8f32f6c	-0.00011595976
236	0x3a144371	0.00056558015
237	0x3511cf6c	5.431855e-07
238	0xb797d206	-1.8098403e-05
239	0x3a1c4fca	0.0005962817
240	0xbcfeb21d	-0.03109079
241	0xbd2ab22d	-0.041673828
242	0xbceac269	-0.028657155
243	0x3b3ce299	0.0028821586
244	0xbd066595	-0.03281172
245	0x3ea64b84	0.3247949
246	0xbc94d883	-0.018169647
247	0xbbe2c837	-0.00692084
248	0xbc347906	-0.011015182
249	0xbc83ef12	-0.016105209
250	0xbd9b1ec6	-0.07574229
251	0xbc3dae87	-0.011577255
252	0xbd0b5123	-0.034012925
253	0xbb1475aa	-0.002265314
254	0xbbd1b02c	-0.006399175
255	0xbdc78a03	-0.097431205

tabnet.initial_splitter.shared.glu_layers.0.fc.weight f4 [96, 1038]
0	0xba0abf53	-0.0005292792
1	0xb98f1c46	-0.0002729615
2	0xb96a7625	-0.00022359991
3	0x3a73e858	0.0009304336
4	0x3a00b7fd	0.0004910229
5	0x3a10aa3b	0.00055185304
6	0xb649141f	-2.9963046e-06
7	0xb9254a47	-0.00015763297
8	0xba4d7f2f	-0.0007839081
9	0x3d97c283	0.07410147
10	0x36f9d21c	7.445238e-06
11	0xb404bfce	-1.2363236e-07
12	0x33e359e4	1.0586862e-07
13	0xb8a5cc57	-7.9058744e-05
14	0x3a00b0f3	0.000490918
15	0xba186dc0	-0.0005814694
16	0xb991f07c	-0.0002783573
17	0x398b3268	0.00026549702
18	0x2e54aa78	4.8354626e-11
19	0xba315190	-0.0006764168
20	0x36724ca9	3.6105432e-06
21	0xb8e0e0f0	-0.0001072305
22	0xba204600	-0.00061139464
23	0xb975c296	-0.0002343751
24	0xbcfe2d9e	-0.031027611
25	0x3d636bfc	0.055522904
26	0xb940a1cd	-0.00018370822
27	0x3987cc57	0.00025901452
28	0x39644337	0.00021768814
29	0xba6343f5	-0.0008669489
30	0x3d9e28a9	0.07722599
31	0xba77299a	-0.00094285014
32	0x3a63ac63	0.00086850504
33	0xb84c1750	-4.86591e-05
34	0xba1e3160	-0.0006034579
35	0x39d985cd	0.00041489155
36	0x3a5bcd51	0.00083847815
37	0xb8154eee	-3.5597877e-05
38	0x3e28597f	0.1644039
39	0x3720a944	9.576153e-06
40	0xb3717ad6	-5.6223904e-08
41	0x38c91865	9.588971e-05
42	0xb9bb4a2a	-0.00035722676
43	0xb9e93320	-0.00044479314
44	0xb9a03fd9	-0.00030565148
45	0xb9806944	-0.00024492492
46	0xb84191fe	-4.615075e-05
47	0x3a0bf79d	0.00053393265
48	0xb9b57181	-0.00034607577
49	0xba62d283	-0.00086525845
50	0x3a0e967b	0.00054392935
51	0x3511da48	5.433435e-07
52	0xb9c1b7d2	-0.00036948785
53	0xba254ec1	-0.0006305986
54	0x38f29bf3	0.00011568507
55	0xbded7eda	-0.11596461
56	0xb976140a	-0.00023467853
57	0xb527ca47	-6.25067e-07
58	0xb9bbb16f	-0.00035799618
59	0xb95c396e	-0.00021002229
60	0x37f7fdd2	2.9562889e-05
61	0xb298e0c9	-1.779735e-08
62	0xba46825a	-0.00075725245
63	0x38af7c31	8.367783e-05
64	0x3d4203a5	0.047366757
65	0x39d1cb25	0.0004001494
66	0x33ff1f2f	1.1880035e-07
67	0x37b5076a	2.1580334e-05
68	0x3a1705e5	0.0005761071
69	0x3a134967	0.0005618543
70	0x39a868b4	0.00032121467
71	0xb9e99a3e	-0.00044556143
72	0xbd580573	-0.05273957
73	0xb954db13	-0.00020299507
74	0xb59afc6e	-1.1547361e-06
75	0xb3c01eff	-8.946335e-08
76	0xb90be54d	-0.00013341494
77	0x3b10ada0	0.0022076145
78	0x2faaf831	3.109917e-10
79	0xb92f5d58	-0.00016724074
80	0xb9be5bbe	-0.00036307977
81	0x393965ff	0.00017680971
82	0x394abf6d	0.00019335533
83	0x3ae85428	0.0017725276
84	0x3a6bd01d	0.000899555
85	0xb5b535a0	-1.3501158e-06
86	0x382057ff	3.8228925e-05
87	0xba0fbaf3	-0.00054828747
88	0xba081014	-0.0005190384
89	0xb734d7dd	-1.0779096e-05
90	0xb99288df	-0.00027949267
91	0x3a45e156	0.0007548531
92	0xbaa97242	-0.0012927728
93	0xba5fd8aa	-0.00085390604
94	0xba2f89bb	-0.00066962437
95	0xb9b4ea9d	-0.00034507076
96	0x39ebed4e	0.000449995
97	0xb99d76e3	-0.0003003395
98	0xb9986367	-0.0002906576
99	0xba0771b7	-0.0005166786
100	0xb6eb8f77	-7.0202473e-06
101	0xb8ed530c	-0.00011316509
102	0xbd855548	-0.06510407
103	0x381b3b6a	3.7010213e-05
104	0xbaf38268	-0.0018578293
105	0xb8c22f10	-9.259407e-05
106	0xb99834a7	-0.00029030928
107	0xb7120789	-8.704033e-06
108	0xba12cfd3	-0.0005600426
109	0xb9b663c8	-0.00034788088
110	0xb76cf480	-1.4123623e-05
111	0xb91b2980	-0.00014797412
112	0xb95c04f5	-0.00020982682
113	0x39131be0	0.00014029397
114	0xb432e9b7	-1.6662567e-07
115	0x39355733	0.0001729399
116	0xb9d0e67c	-0.00039844576
117	0x340c3ab5	1.3059874e-07
118	0xb6e64711	-6.8628074e-06
119	0x3a4c90ff	0.00078035885
120	0xbd8eddd6	-0.069759056
121	0x334558bc	4.594834e-08
122	0xb900c937	-0.0001228199
123	0xbca8d10e	-0.020607498
124	0xb9930943	-0.00028044925
125	0xba93ab51	-0.0011266266
126	0x39fd301a	0.0004829176
127	0x39e16098	0.00042987312
128	0xb687b6de	-4.044602e-06
129	0x34a395dd	3.0470156e-07
130	0x3aca55a7	0.0015436903
131	0xbd9f726d	-0.07785497
132	0x39e1b876	0.00043052778
133	0x399192d7	0.0002776596
134	0xb8b4e537	-8.6257634e-05
135	0x3a1520ba	0.00056887756
136	0x3988b465	0.00026074346
137	0xb8b88594	-8.7986846e-05
138	0xba9a2552	-0.001176039
139	0xb88048c1	-6.117067e-05
140	0xb94e9ac8	-0.00019703351
141	0x398a284b	0.00026351432
142	0xb985d10d	-0.00025523492
143	0xb7113081	-8.653967e-06
144	0xba9cc5c5	-0.0011960795
145	0x374b1ea8	1.2106881e-05
146	0xb9780106	-0.00023651504
147	0x3984593a	0.0002524348
148	0xb70f863b	-8.554717e-06
149	0x3c42daec	0.011893015
150	0xba442d03	-0.0007483514
151	0xb9545783	-0.00020250496
152	0xb7b0d094	-2.1077962e-05
153	0x371c76be	9.325971e-06
154	0x39958266	0.0002851665
155	0x3a36b85a	0.00069702195
156	0x3a14bfbd	0.0005674323
157	0xb99f4c99	-0.00030383913
158	0xb9810d5c	-0.0002461475
159	0xba9f985b	-0.0012176143
160	0xb9b0aaaa	-0.0003369649
161	0xb927381d	-0.00015947265
162	0x3a30a336	0.00067381875
163	0xb97686f8	-0.00023510668
164	0x3c3f6618	0.011682056
165	0xb82ed502	-4.168321e-05
166	0x3837f9f0	4.3863372e-05
167	0x340ee491	1.3307933e-07
168	0x390a313d	0.00013179048
169	0x3c9a7ce1	0.018858375
170	0x398ebb56	0.00027223927
171	0x3a397426	0.00070744974
172	0xb90cfec6	-0.00013446351
173	0xb90f576f	-0.00013670114
174	0x3dd321c8	0.10309178
175	0xba4cc10e	-0.000781075
176	0x38af9d35	8.373932e-05
177	0xbd7ba04a	-0.06143216
178	0xb84e0a12	-4.9123606e-05
179	0x39121aad	0.00013933583
180	0xbd182a71	-0.03714985
181	0xb37d62d4	-5.8996037e-08
182	0x3d9cf51f	0.07663941
183	0xba76935a	-0.00094061124
184	0xb777aeed	-1.4763075e-05
185	0x399a0141	0.00029374103
186	0xb13d7f19	-2.7575366e-09
187	0xb8a31ed8	-7.778191e-05
188	0xb9c6fd70	-0.0003795433
189	0x3a2316d0	0.0006221356
190	0xb9561201	-0.00020415337
191	0x39913cc6	0.00027701835
192	0x39c8b77e	0.00038283685
193	0x39c35744	0.00037258316
194	0xba87bca1	-0.0010355898
195	0x38ae4d4b	8.3113635e-05
196	0xbe5cc93c	-0.2156114
197	0xb6dcf08e	-6.584515e-06
198	0x3896fed6	7.200024e-05
199	0xba2230cc	-0.0006187081
200	0xb9394cac	-0.00017671537
201	0x2f06da8c	1.2264872e-10
202	0xb835a388	-4.3306063e-05
203	0xbab4f2e5	-0.0013805298
204	0x3cba00cf	0.022705464
205	0x3b12aa24	0.0022379244
206	0xba8b6b54	-0.0010636845
207	0x387289b4	5.7825542e-05
208	0xb3257753	-3.852558e-08
209	0x3afd2351	0.0019312893
210	0x393870b2	0.0001758959
211	0xba0c8c4a	-0.0005361481
212	0x3c8723ae	0.016496506
213	0xb95c982d	-0.00021037525
214	0x38f6baf3	0.00011765016
215	0x39e360e1	0.00043368994
216	0x3954a4f7	0.0002027935
217	0xba7fda32	-0.00097599917
218	0x385fcf4b	5.33604e-05
219	0xba55c639	-0.00081548427
220	0x39f6d8be	0.00047082262
221	0xbab1d225	-0.0013566656
222	0x3938ae10	0.00017612451
223	0xba5dbe61	-0.00084588496
224	0x3ab45615	0.0013758565
225	0x3d7aa0ce	0.06118851
226	0xb91208dd	-0.00013926947
227	0xb982678e	-0.00024872686
228	0xb9c77272	-0.00038041506
229	0x39a3da3e	0.00031252386
230	0xb3cfde2d	-9.679602e-08
231	0x3839ddbd	4.4313947e-05
232	0xb964604d	-0.00021779649
233	0x3a8f82f9	0.0010949067
234	0xb80648b2	-3.2015792e-05
235	0x399eab8c	0.0003026392
236	0x384f9af1	4.9496946e-05
237	0xbaaebd74	-0.0013331608
238	0xba8eb5d8	-0.0010887934
239	0x3a1bb55e	0.00059398066
240	0x379f273e	1.897255e-05
241	0x3a8fe337	0.001097775
242	0xba004865	-0.00048936
243	0x3a0c3334	0.0005348206
244	0xba99934e	-0.0011716874
245	0xb083bb26	-9.584695e-10
246	0xba0b6e17	-0.0005318834
247	0xb9d415dc	-0.00040452078
248	0x37e03d9f	2.6731575e-05
249	0xb98217b8	-0.00024813204
250	0xbadb0f94	-0.0016713017
251	0x337a5eb7	5.8293804e-08
252	0xb054be15	-7.7395274e-10
253	0x380db30d	3.3783774e-05
254	0xb9da9864	-0.0004169374
255	0x39ca1a86	0.00038548204
