cv_steps/tabnet_raw_step1_fold3_4/network.pt (torch, 682379 bytes, 56 tensors)

embedder.embeddings.0.weight f4 [3, 1]
0	0xbd94ea22	-0.0727122
1	0x3cd5a70e	0.026080634
2	0x3d467c68	0.048458487

embedder.embeddings.1.weight f4 [2, 1]
0	0xbd024277	-0.031801667
1	0x3d023ba4	0.03179516

tabnet.initial_bn.weight f4 [1038]
0	0x3d5640b3	0.052307796
1	0xbe2fe9e5	-0.17179067
2	0xbbb6d356	-0.0055793924
3	0x3d9ed97a	0.07756324
4	0x3da6c7a6	0.08143549
5	0x3c97d3fc	0.0185337
6	0xbb490dcf	-0.0030678397
7	0x3d8c0201	0.0683632
8	0x3ddcd412	0.10782637
9	0x3b7d75e3	0.0038675002
10	0x3ea594a7	0.32339975
11	0x3e221053	0.1582654
12	0xbd38485d	-0.044990886
13	0x3e082608	0.13295758
14	0x3e1caf11	0.15301158
15	0x3cd62ce7	0.026144458
16	0x3e042131	0.12903287
17	0x3e29390b	0.16525666
18	0x3bb9ecab	0.005673965
19	0xb830192c	-4.1985113e-05
20	0x3e22adb1	0.1588657
21	0x3dd5aec4	0.104337245
22	0x3e693cd9	0.22777118
23	0x3b91aae1	0.004445419
24	0x3e536210	0.20642877
25	0x3d4e102c	0.05030839
26	0x3cc98ea4	0.02460415
27	0x3dfb20db	0.12262126
28	0x3e1dfd5e	0.15428683
29	0x3e22965e	0.15877673
30	0x3e4b6bd5	0.19865353
31	0x3e3ac557	0.18239342
32	0x3e44cb9e	0.19218299
33	0x3da61be2	0.08110787
34	0x3daad453	0.08341279
35	0x3dddffd1	0.10839809
36	0x3e25a5da	0.16176549
37	0x3e536c27	0.20646726
38	0x3e1f437d	0.15553088
39	0x3e4dcca7	0.200976
40	0x3d45cd41	0.04829145
41	0x3d708d38	0.058728427
42	0x3cab381f	0.020900784
43	0x3da5df80	0.0809927
44	0x3b882cc1	0.0041557257
45	0x3d8ffef6	0.07031052
46	0x3d3cdff9	0.046112034
47	0xbd840965	-0.06447104
48	0x3e0e6bd8	0.13908327
49	0x3e38f9e5	0.18064077
50	0x3e7e11a1	0.24811412
51	0x3e3759b4	0.17905313
52	0x3e3f7856	0.18698248
53	0x3e8b71eb	0.2723535
54	0x3ddc28ae	0.107499465
55	0x3e128450	0.14308286
56	0x3dbe1468	0.09281236
57	0x3daacd1e	0.08339904
58	0x3d6e5976	0.058190785
59	0x3e543cb8	0.20726287
60	0x3e65211a	0.22375908
61	0x338e219d	6.6185045e-08
62	0x3e895a65	0.26826778
63	0x3693d07f	4.4052135e-06
64	0x3e3851d9	0.17999972
65	0x3e24f788	0.1611005
66	0x3adc86ce	0.0016824843
67	0x3dbd8d52	0.0925547
68	0x3be64281	0.007026971
69	0x3d336999	0.043801878
70	0x3e6d2903	0.23160176
71	0x3e051fe5	0.13000448
72	0x3dedb747	0.11607223
73	0x3dd1e09d	0.1024792
74	0x39dfc7ae	0.00042682647
75	0xba5a295f	-0.0008322205
76	0x3dded53b	0.10880514
77	0x3ee26650	0.44218683
78	0x359fa3e8	1.1894126e-06
79	0x3e22240f	0.15834068
80	0x3e324b0a	0.17411438
81	0xb55314e6	-7.8634037e-07
82	0xbc2c125a	-0.010502422
83	0x3df0e5ac	0.117625564
84	0x3e11c966	0.14236984
85	0x3e60bdc4	0.2194739
86	0x3e7abb77	0.24485575
87	0x3e07a85e	0.1324782
88	0x3e1b077d	0.15139575
89	0x3dce5d80	0.100764275
90	0x3e20eb9a	0.15714875
91	0x3d05768c	0.03258376
92	0x3e355522	0.17708257
93	0x3e489502	0.19588092
94	0x3e24293e	0.16031358
95	0x3da5cb59	0.08095426
96	0x3e0a2178	0.1348933
97	0x3dcab810	0.098983884
98	0x3ddfa7cb	0.10920676
99	0xbcb46e02	-0.022025112
100	0x3dace288	0.08441645
101	0x3e025888	0.12729084
102	0x3e8aab36	0.2708375
103	0xbcb93a4a	-0.022610802
104	0x3e224c16	0.15849337
105	0x3e352493	0.17689733
106	0x3d3d8c68	0.04627648
107	0x3e272e12	0.16326168
108	0x3e04f398	0.12983549
109	0x3d107489	0.035267387
110	0x3e078d0f	0.13237403
111	0xbc601dd5	-0.0136789875
112	0xbbdf94ae	-0.006823144
113	0x3e1d8dda	0.15386143
114	0x3635405b	2.7008562e-06
115	0x3cbf9a1b	0.023388913
116	0xbd76aa70	-0.060221136
117	0x3d413de9	0.047178183
118	0x3dfc5422	0.123207346
119	0x3e4d5dd2	0.20055321
120	0x3e433274	0.19062215
121	0x3aec8cf0	0.0018047374
122	0x3e25af95	0.1618026
123	0xb7f86e53	-2.9615278e-05
124	0x3e319ece	0.17345735
125	0x3e5fd508	0.21858609
126	0x3e63ed8a	0.22258583
127	0x3e3aa320	0.1822629
128	0x3b277100	0.002554953
129	0x3dd1c14d	0.10241947
130	0x3dd63074	0.104584605
131	0x3d801eca	0.062558725
132	0x3e585527	0.21126233
133	0x3e365bb9	0.17808427
134	0x3d386940	0.04502225
135	0x3db7b0c0	0.08969259
136	0x3e3f6f6e	0.18694851
137	0x3dda3209	0.10654075
138	0x3e1dce66	0.15410766
139	0x3e3982ca	0.18116298
140	0x3deba720	0.11506486
141	0x3d2e81f4	0.0426044
142	0x3dcb349c	0.09922144
143	0xb7c6f4b5	-2.371739e-05
144	0x3e14ad86	0.14519319
145	0x3e49651a	0.19667473
146	0x3e895cc7	0.26828596
147	0x3beef36f	0.007292203
148	0x3e17a5a0	0.14809275
149	0x3e490b1e	0.19633147
150	0x3e5f8cca	0.2183105
151	0x3e43fc92	0.19139317
152	0x357258e3	9.028137e-07
153	0x3e0d5d10	0.13805032
154	0x3e3d7413	0.1850131
155	0x3e0d6b41	0.13810445
156	0xbd9eb974	-0.07750216
157	0x3a4cd448	0.0007813615
158	0x3e084674	0.13308126
159	0x3ec8610e	0.39136547
160	0x3ea00d64	0.31260216
161	0xbd4dc62e	-0.050237827
162	0x3e40fbbf	0.18846034
163	0x3d13c7c2	0.036079176
164	0x3e1815f2	0.14852121
165	0x3abf82ed	0.0014611162
166	0x3e2c6997	0.16837154
167	0xbb48a992	-0.003061865
168	0x3e478660	0.19484854
169	0x3e7e0d91	0.24809863
170	0x3d7c5c5f	0.06161153
171	0x3e7eb85f	0.2487502
172	0x3d98fb7e	0.07469843
173	0x3e5a0906	0.21292505
174	0x3d2bb598	0.04192123
175	0x3dce28d0	0.10066378
176	0x3dbe2073	0.09283533
177	0x3e9fbc55	0.31198373
178	0x3e00552c	0.1253249
179	0x39fe1d38	0.00048468425
180	0x3ea73b75	0.3266255
181	0x3dd8aaf3	0.10579481
182	0x3e15ff1e	0.146481
183	0x3e65831a	0.22413293
184	0x3cbef8af	0.023311941
185	0x3e2c59f8	0.16831195
186	0x3db97132	0.090547934
187	0x3d78ba97	0.06072482
188	0x3d9f7d3b	0.07787558
189	0x3e071d2a	0.13194719
190	0x3d89b778	0.06724447
191	0x3d99daf4	0.07512465
192	0x3e18b751	0.1491368
193	0x3de6a551	0.11262
194	0x3dbca201	0.09210587
195	0x3cd3a133	0.025833702
196	0x3e0eb04c	0.1393444
197	0x3ae25032	0.0017266332
198	0xba628e12	-0.0008642386
199	0x3dd82bc3	0.10555222
200	0x3e2a7ebe	0.16649911
201	0x3d00ddd9	0.03146157
202	0x3ddbb20c	0.10727319
203	0x3d14cb47	0.036326673
204	0x3e6cdfd2	0.23132256
205	0x3e7888a5	0.24270876
206	0x3dbed24c	0.09317455
207	0x3db6e4fd	0.08930395
208	0x3e21c274	0.15796834
209	0x3e60fbb8	0.21971023
210	0x3e0ba570	0.13637328
211	0x3e3b767c	0.18306917
212	0x3e63db79	0.22251691
213	0x3d4b4e85	0.04963543
214	0x3c355fe0	0.011070222
215	0x3d84b6c1	0.0648017
216	0x3dfdc7aa	0.123915985
217	0x3e11e753	0.142484
218	0x3e1f218a	0.15540138
219	0x3e6662ce	0.22498628
220	0x3e4efbee	0.20213291
221	0x3e2207ba	0.1582326
222	0x3d29dda2	0.04147113
223	0x3e268b97	0.16264187
224	0x3e4a0bc7	0.19731055
225	0x3c545c29	0.012961426
226	0x3a0c0083	0.00053406524
227	0x3ddfd5e3	0.109294675
228	0x3e4b9dc6	0.19884405
229	0x3deb3ffc	0.114868134
230	0x3c8175a4	0.015803166
231	0x3d558b40	0.052134752
232	0x3d6ee50d	0.05832391
233	0x3e64f071	0.22357346
234	0x3dc9da0e	0.09856044
235	0x3e5a8423	0.21339469
236	0x3c094478	0.008378141
237	0x3e26ee3e	0.1630182
238	0x3983f460	0.0002516834
239	0x3e12cea5	0.14336641
240	0x3de18abf	0.11012792
241	0x3e02308c	0.12713832
242	0x3da3b94a	0.079943255
243	0x3e5d081d	0.21585126
244	0x3ddd2e19	0.10799808
245	0x3dd2ae70	0.102871776
246	0x3e2f22ac	0.1710307
247	0x3915eccc	0.00014297961
248	0x3e06dffb	0.1317138
249	0x3d5ac66f	0.053411897
250	0x3e614306	0.21998224
251	0x3e44a53c	0.19203657
252	0x3e2c4b14	0.16825515
253	0x3d9892f2	0.074499026
254	0x3e365f45	0.1780978
255	0xbadbe031	-0.0016775188

tabnet.initial_bn.bias f4 [1038]
0	0xb8188aaf	-3.6368783e-05
1	0xb8171226	-3.6018107e-05
2	0xb6fd1655	-7.5425874e-06
3	0x389d9295	7.5136464e-05
4	0x37506c82	1.242303e-05
5	0x3ee36115	0.44410005
6	0x35cefe21	1.5422157e-06
7	0x38cc86c8	9.752583e-05
8	0x375171ba	1.248385e-05
9	0x33f76807	1.1520756e-07
10	0xb8909800	-6.894767e-05
11	0x3b004c26	0.0019576638
12	0xb79e5dc4	-1.887873e-05
13	0xb8bce0ce	-9.006412e-05
14	0xb8eb341b	-0.000112153786
15	0xb7156704	-8.905077e-06
16	0xb84ae9ad	-4.837818e-05
17	0x3958a199	0.00020659565
18	0xbe687208	-0.2269975
19	0xb328027f	-3.911782e-08
20	0x395ec381	0.000212444
21	0x3a0270b1	0.0004975899
22	0xb759bb32	-1.2977793e-05
23	0x36403e32	2.8646432e-06
24	0xb9429a96	-0.0001855887
25	0xb843fd2d	-4.672741e-05
26	0xb7ecfd84	-2.8251445e-05
27	0x391e6518	0.00015105715
28	0x39615f76	0.00021493234
29	0xb8660ee5	-5.4850145e-05
30	0xb6d8b86b	-6.4587707e-06
31	0xb8778f4d	-5.902285e-05
32	0xb881bb08	-6.1860366e-05
33	0x38cf3fe7	9.882432e-05
34	0x37e8c120	2.7746486e-05
35	0x38fb7291	0.00011989952
36	0xb967e977	-0.00022116849
37	0x39596c0a	0.0002073498
38	0x3986183b	0.00025576525
39	0x3e8a1a9b	0.26973423
40	0x37068c5b	8.019701e-06
41	0x385997e6	5.1878298e-05
42	0x36020e80	1.937995e-06
43	0xb869b4fd	-5.5720087e-05
44	0x3608da58	2.0392672e-06
45	0xb814a9ec	-3.54442e-05
46	0xb87070f4	-5.7325655e-05
47	0xb8a6aa1f	-7.947184e-05
48	0x38ae8945	8.322535e-05
49	0x39a49e20	0.0003139833
50	0x39659923	0.0002189619
51	0x381ba803	3.7111353e-05
52	0xb8e1f12c	-0.00010773758
53	0x3a07cbe7	0.0005180225
54	0xb7fdef75	-3.0271456e-05
55	0x37d78c38	2.5695292e-05
56	0xb8c2e3bb	-9.293059e-05
57	0x380813af	3.244326e-05
58	0x38c5a3c9	9.4241994e-05
59	0x3990c33d	0.00027611284
60	0x3dc6e9e6	0.09712581
61	0x2f567fb0	1.950855e-10
62	0x3927921b	0.0001598079
63	0xb18aaf11	-4.0362313e-09
64	0x3ec4b076	0.3841588
65	0x38454c20	4.7039357e-05
66	0x35f0a64e	1.7929794e-06
67	0x38dc7320	0.00010511861
68	0x36886bbd	4.0656582e-06
69	0xb75c5afe	-1.3134208e-05
70	0x397f5b50	0.00024352712
71	0x38ab2fe3	8.162835e-05
72	0x38cc2056	9.733501e-05
73	0x3eae8e3f	0.340929
74	0x33a1636e	7.515233e-08
75	0xb71f43d0	-9.492927e-06
76	0x3726b5e4	9.936721e-06
77	0xb9a0155a	-0.00030533486
78	0x306a30af	8.519789e-10
79	0xb8f9c50b	-0.00011909947
80	0x390042e3	0.00012231948
81	0xaecbce61	-9.2680315e-11
82	0x39df30cd	0.00042570234
83	0xb9360eda	-0.00017362405
84	0x36f35063	7.2513226e-06
85	0xbe160a21	-0.14652301
86	0xba3a34d0	-0.00071032066
87	0x38dcb84d	0.00010524746
88	0xb82a9300	-4.0668063e-05
89	0xb90fa8bc	-0.00013700401
90	0x38c93b5a	9.595482e-05
91	0xb7ac6b1a	-2.055387e-05
92	0xb7dc8e8e	-2.6292426e-05
93	0xb833aa4c	-4.2835527e-05
94	0xb890573a	-6.882702e-05
95	0x38b56e3e	8.651287e-05
96	0xba7865a4	-0.0009475595
97	0xb74d0689	-1.2220474e-05
98	0x38d7b571	0.00010285795
99	0x38eec529	0.00011385448
100	0xb8164373	-3.5825604e-05
101	0x3a8be3dc	0.0010672766
102	0xb93498df	-0.00017223087
103	0x37fa2100	2.981769e-05
104	0xb86d7bd4	-5.6620527e-05
105	0x384cbaa3	4.881121e-05
106	0x3930633e	0.00016821639
107	0x393c30fd	0.00017947327
108	0xb8f60911	-0.00011731883
109	0x37341c68	1.073545e-05
110	0xb7bb67ff	-2.2340564e-05
111	0xb74822f8	-1.1929071e-05
112	0xb9088b61	-0.00013021893
113	0xb648f369	-2.9944006e-06
114	0xb38d0f1f	-6.568575e-08
115	0xbef14188	-0.4712031
116	0xbeca633d	-0.39528838
117	0x364e470c	3.0737747e-06
118	0xb88bd707	-6.6680885e-05
119	0x396d7c9d	0.00022648503
120	0x39c0d0d2	0.00036776677
121	0x34b1d862	3.3126258e-07
122	0xb98e2cf6	-0.0002711785
123	0xb1c8bc37	-5.8421636e-09
124	0xb9757902	-0.000234101
125	0xbe4e1153	-0.20123796
126	0x3cccdb8e	0.025007036
127	0x3882b798	6.23308e-05
128	0x358586e5	9.948532e-07
129	0xbec260af	-0.3796439
130	0xb978cc58	-0.00023727247
131	0x379ed216	1.8932897e-05
132	0xb9041a31	-0.00012598258
133	0xba3295a3	-0.0006812459
134	0x38118192	3.4691366e-05
135	0x3737456a	1.0923812e-05
136	0xbd05fd93	-0.03271253
137	0xb7c323ab	-2.326242e-05
138	0xb91a159a	-0.00014694632
139	0xb8f86a6a	-0.00011845383
140	0xb88dbbce	-6.758385e-05
141	0x37db9795	2.617742e-05
142	0x38c07692	9.177359e-05
143	0xb2f9a5a5	-2.9062742e-08
144	0x35e9adbc	1.7410416e-06
145	0x3a263d18	0.0006341501
146	0x3cd4b21f	0.025963841
147	0xb80a0603	-3.2907363e-05
148	0xb9a0992c	-0.000306317
149	0xba6ec05a	-0.0009107642
150	0xba161935	-0.0005725802
151	0xba2f30e4	-0.00066830055
152	0xb2070ba0	-7.860677e-09
153	0x385327a4	5.034324e-05
154	0xb872a798	-5.785338e-05
155	0xb9c9ae8d	-0.00038467758
156	0x3858e0fa	5.170794e-05
157	0x3402b277	1.2172119e-07
158	0xb8cef695	-9.868775e-05
159	0xb89b873f	-7.4161675e-05
160	0xb7add3ff	-2.0721925e-05
161	0xb7b7458e	-2.1847689e-05
162	0xb9ab06b3	-0.00032620653
163	0xb8b1eae3	-8.483769e-05
164	0x38950263	7.105318e-05
165	0xb62811ad	-2.504424e-06
166	0x38f72389	0.00011784497
167	0xb4cf3ca7	-3.8600885e-07
168	0x3919ef2e	0.00014680318
169	0x3a15fca7	0.0005721547
170	0x383b3512	4.46337e-05
171	0xbe51d2c8	-0.20490563
172	0xb9752c28	-0.0002338147
173	0x3984e070	0.0002534422
174	0xb7fcfab1	-3.0157478e-05
175	0x3ec071c3	0.37586793
176	0x39d3f39f	0.00040426568
177	0xb91e9b72	-0.00015125962
178	0x3893a5ed	7.040412e-05
179	0x3655a31f	3.1834422e-06
180	0xbeef2f84	-0.4671594
181	0x39b87318	0.00035180966
182	0x38708e77	5.735314e-05
183	0x38dc2bb0	0.00010498555
184	0xb8ffd326	-0.00012198677
185	0xb84e07a3	-4.912134e-05
186	0x38221bae	3.864959e-05
187	0x3848b1a2	4.784915e-05
188	0xb8899687	-6.560707e-05
189	0x38df8d58	0.00010659796
190	0x380314f3	3.1252344e-05
191	0x37f26fdd	2.8900738e-05
192	0xb91c7909	-0.00014922408
193	0xb6a6095f	-4.9482765e-06
194	0x38791fe1	5.9395916e-05
195	0xb713b1d5	-8.8032875e-06
196	0x37bf6ab8	2.281867e-05
197	0xb6d0b122	-6.219504e-06
198	0xb547b3e8	-7.4395075e-07
199	0xbabd5b7f	-0.0014446824
200	0x3e54c29b	0.20777361
201	0xb772d829	-1.4474653e-05
202	0x389db7af	7.520557e-05
203	0xb6edf067	-7.091137e-06
204	0x38c9ceb6	9.62293e-05
205	0xb9e1bb8b	-0.00043055075
206	0x389f8a2f	7.6074495e-05
207	0xb90d8655	-0.0001349685
208	0xb9129447	-0.00013978883
209	0x3889dd3d	6.573878e-05
210	0x3e360607	0.17775737
211	0xb93a37fe	-0.00017759201
212	0x39129ca3	0.00013981997
213	0xb751f852	-1.2515187e-05
214	0xb6c350dc	-5.820866e-06
215	0xb89da646	-7.517314e-05
216	0xb7906f79	-1.7218046e-05
217	0xb95e93cd	-0.0002122663
218	0xb98ce05a	-0.00026870036
219	0xb8e0f80a	-0.00010727353
220	0xb8d0b7f5	-9.9524776e-05
221	0x399c3e94	0.00029801263
222	0xb6c3b9b2	-5.8330706e-06
223	0xb91ad76f	-0.0001476684
224	0xb8aa5437	-8.121918e-05
225	0xb787a271	-1.6168897e-05
226	0x34676e55	2.155369e-07
227	0x38dd030f	0.00010538671
228	0xb9f4dc0e	-0.0004670326
229	0x36487425	2.9869927e-06
230	0xb813bbd9	-3.5222478e-05
231	0x379ed302	1.8933326e-05
232	0x383f8f02	4.5671135e-05
233	0xba3c82cf	-0.0007191123
234	0xb7d8971a	-2.5819569e-05
235	0x3958b10b	0.00020665319
236	0x3ec7d106	0.3902666
237	0xbbacc486	-0.005272451
238	0x34812f5a	2.4062575e-07
239	0xb81bf016	-3.7178477e-05
240	0xb794c6c7	-1.7735538e-05
241	0xb8c9b55b	-9.618207e-05
242	0x36eb9ad8	7.021572e-06
243	0x397d3ff9	0.00024151792
244	0x355bd512	8.1893916e-07
245	0xbe6dcb0d	-0.23221989
246	0x382fd5ee	4.192249e-05
247	0xb5579475	-8.0309775e-07
248	0x3903e207	0.00012577335
249	0x38dabb50	0.0001042994
250	0x3a111698	0.0005534678
251	0x3d532b8d	0.051555205
252	0x381aaaef	3.6875655e-05
253	0xb8f0576f	-0.000114603776
254	0x37c95aea	2.4003402e-05
255	0x3719ced9	9.167671e-06

tabnet.initial_bn.running_mean f4 [1038]
0	0xbae6b551	-0.0017601644
1	0xba061ee9	-0.00051163003
2	0x3b9e0c3a	0.004823235
3	0x3ac877de	0.0015294512
4	0xbb76b196	-0.003764247
5	0x3aa62425	0.0012675567
6	0xbb170868	-0.0023045782
7	0xbbc85757	-0.0061139273
8	0x39062b79	0.0001279543
9	0xbacf1492	-0.0015798977
10	0xbc2f0303	-0.01068187
11	0x3a4edccf	0.00078911794
12	0x3a1829f1	0.00058045896
13	0x39ae226a	0.00033213507
14	0x39ca8ebc	0.00038634788
15	0x3b8b6457	0.004253905
16	0xbb0c2ce0	-0.0021389052
17	0x3a4c96df	0.0007804464
18	0x3a945bdb	0.0011318879
19	0x3b6ae16b	0.0035839926
20	0xbaae45dc	-0.0013295966
21	0xbb813eed	-0.003944269
22	0xbb3fc4d3	-0.0029261603
23	0x3b874157	0.004127662
24	0x3b0a7517	0.002112692
25	0x38728d05	5.782863e-05
26	0xbadfaf37	-0.0017065768
27	0xbc0ec42f	-0.008713766
28	0x3bad7fbe	0.005294769
29	0x3c1824ae	0.009286089
30	0x3b26ff20	0.0025481656
31	0xbaae516a	-0.001329941
32	0xbb7af561	-0.003829323
33	0x3c26c024	0.010177646
34	0xbb42569d	-0.0029653676
35	0x3a66e9bb	0.0008808632
36	0xbb9d3ff4	-0.0047988836
37	0x3bece687	0.0072296294
38	0x3a91d7fe	0.0011126993
39	0xbd2fe7a2	-0.04294551
40	0x3d009cd2	0.031399556
41	0x3a39986f	0.00070799043
42	0xbb300194	-0.002685641
43	0xbb4e6ffd	-0.0031499856
44	0x37e0f039	2.6814743e-05
45	0xbac9ba33	-0.0015390575
46	0xba10429b	-0.0005503089
47	0xbb582a54	-0.0032984214
48	0x3bd5a9fb	0.0065205074
49	0x3b1674f8	0.0022957902
50	0x3b91dee1	0.004451618
51	0x3b9a2fc1	0.0047053997
52	0xbd367fc4	-0.04455544
53	0x3b5145a7	0.0031932385
54	0xbba395eb	-0.004992237
55	0x3b55fa84	0.003265054
56	0xba156cc2	-0.0005700105
57	0xbb20b077	-0.0024519244
58	0x3b6424f9	0.0034812076
59	0x3b165af4	0.0022942396
60	0xbcc1f70f	-0.023677377
61	0xbb77f762	-0.003783666
62	0x3a62d088	0.00086522894
63	0xbb295b3d	-0.0025841736
64	0xbbe6a8e7	-0.0070391777
65	0xbc38b179	-0.0112727815
66	0xbb89614b	-0.0041925064
67	0x3826c626	3.9762024e-05
68	0xbb2b7577	-0.0026162544
69	0xbd5c6f4a	-0.05381707
70	0xbb889796	-0.004168461
71	0x3b852a2f	0.0040638666
72	0xbb017700	-0.0019754767
73	0x39d835d7	0.00041238844
74	0xbcaa132d	-0.020761097
75	0x3b3d3128	0.002886841
76	0x3be036a1	0.00684245
77	0xbd2ab131	-0.04167289
78	0xbb42250f	-0.002962414
79	0x3b85dc5a	0.004085106
80	0x3b90eee2	0.0044230083
81	0x3b08d027	0.0020876022
82	0xbbb3031b	-0.0054630167
83	0x3bd07b72	0.006362372
84	0x3b1309d6	0.0022436283
85	0x3ae6cc36	0.0017608467
86	0x39ee2d8d	0.00045428835
87	0xba351495	-0.0006907669
88	0x3bb7c78e	0.0056085056
89	0xbadbdd23	-0.0016774278
90	0xbaec8f84	-0.0018048142
91	0xbb35ae32	-0.0027722237
92	0x3ba4c5f4	0.0050284807
93	0x3bd67ad2	0.006545403
94	0x3a60fa5d	0.0008582229
95	0xb9df0a33	-0.00042541474
96	0x3afc0792	0.001922833
97	0x3b14a73f	0.0022682694
98	0xbb992410	-0.0046734884
99	0x3bf79e63	0.007556723
100	0xba02122e	-0.00049618154
101	0xb9ef52a2	-0.000456472
102	0x3c853cb9	0.016264306
103	0xbb0a102b	-0.0021066766
104	0x3b5ae811	0.0033402483
105	0x39599a26	0.00020752157
106	0x3c02c8c0	0.007982433
107	0xb9071b8e	-0.00012884868
108	0x3bec9115	0.0072194436
109	0x3be4a0aa	0.0069771605
110	0x3bb5cf8f	0.0055484246
111	0x3b3ec9e1	0.0029112028
112	0xba98bd2c	-0.0011653057
113	0x395f9735	0.00021323266
114	0xbb337823	-0.002738484
115	0xbcac6d57	-0.021048231
116	0xbacf27e9	-0.0015804741
117	0x3b38b4d2	0.002818395
118	0x3ba94f13	0.005166897
119	0x3ba79804	0.005114557
120	0x3bc1ffcd	0.0059203864
121	0x3a1237ed	0.00055777916
122	0x3a8c3c92	0.0010699204
123	0xbb37b373	-0.0028030544
124	0x3a3a9d87	0.00071188103
125	0x3cc43bb9	0.02395426
126	0x3b339c18	0.0027406272
127	0xbbb2ae3d	-0.0054528997
128	0x3b273a00	0.0025516748
129	0xbb335595	-0.0027364243
130	0xbc79c88c	-0.015245568
131	0x3a9c0809	0.001190425
132	0x3a6559ea	0.0008749055
133	0x3d070d27	0.032971527
134	0x3b3fd803	0.002927304
135	0x3b10bf6e	0.0022086757
136	0xbb3a9e2c	-0.0028475625
137	0xb9006cb5	-0.00012247528
138	0xbb3a45f1	-0.0028423036
139	0x3a864911	0.0010245164
140	0xbbcfbf43	-0.006339939
141	0x3b1aa21d	0.0023595162
142	0x3ad14bd8	0.0015968038
143	0x3a849f59	0.001011829
144	0xbacfce49	-0.0015854324
145	0xba5ea542	-0.0008493253
146	0x3be99dce	0.0071294075
147	0xba6b7f3c	-0.0008983498
148	0x3bfb9a46	0.007678303
149	0x3b5263c0	0.0032102913
150	0x3b5eb15b	0.0033980224
151	0x3be55d7e	0.0069996705
152	0xb9bf349f	-0.00036469565
153	0x3b1d73aa	0.002402524
154	0xbc1934d8	-0.009350978
155	0xb902a523	-0.00012459284
156	0xbb85d8dc	-0.0040846895
157	0x3ba50ee1	0.005037174
158	0xbc18cb0b	-0.009325753
159	0xbb465791	-0.0030264596
160	0x3c9f5688	0.019450441
161	0xbb78bdda	-0.0037954957
162	0xbbe199ad	-0.0068847747
163	0xbb8d87fe	-0.00431919
164	0x3b69ebd0	0.0035693534
165	0x3baff4cc	0.0053697582
166	0x3bd582ea	0.0065158503
167	0xbb9c6c7f	-0.004773676
168	0xbb6bf485	-0.00360039
169	0x3aac05eb	0.0013124322
170	0xbb74a179	-0.003732769
171	0xba42a527	-0.00074251223
172	0x3bf3e3d1	0.0074429293
173	0xba32f4b0	-0.00068266224
174	0xbb845902	-0.004038931
175	0x3b8cf8fe	0.004302143
176	0x3b48cff7	0.0030641535
177	0x3a3b96c6	0.0007155951
178	0x3b82c0a4	0.0039902497
179	0x39d25ab0	0.0004012189
180	0xbc7626f2	-0.015023934
181	0x3aa33492	0.001245158
182	0x3ae91f6e	0.0017785856
183	0xb8ae6247	-8.315272e-05
184	0xbb2036a5	-0.0024446633
185	0xbb3b358a	-0.0028565847
186	0xbb64e51c	-0.00349266
187	0xbcaa9a0a	-0.020825405
188	0xb9caf0c2	-0.0003870782
189	0x3a99d902	0.0011737647
190	0xbb2ac452	-0.0026056957
191	0xba4a6568	-0.0007720799
192	0xbba122af	-0.0049174647
193	0x3a2db9a0	0.00066270865
194	0x3a13ff45	0.0005645643
195	0x3aafe175	0.0013418632
196	0x39f5d236	0.0004688666
197	0xbc8ad8aa	-0.016949017
198	0xbbdcdd64	-0.006740259
199	0x3c045950	0.008077934
200	0xbac39e99	-0.0014924585
201	0x3b18f8a4	0.002334156
202	0x3aed9ed3	0.0018128998
203	0x3c1f8a49	0.00973756
204	0xbc5b1549	-0.013371774
205	0x3b00eac0	0.0019671172
206	0xbbfdf9b5	-0.0077507147
207	0x3b90dbc0	0.0044207275
208	0xbb823d45	-0.003974589
209	0x3a5de1cb	0.0008464127
210	0x3c757d7e	0.014983533
211	0x3b868e02	0.004106284
212	0x3a497a35	0.0007685752
213	0x3b216fef	0.0024633368
214	0x3b105973	0.0022025972
215	0x3ade9df3	0.0016984328
216	0x3a850726	0.0010149225
217	0x3bf595a8	0.007494647
218	0xbba9cef7	-0.005182143
219	0x3b064660	0.0020488724
220	0x3b4d7d7a	0.0031355307
221	0xbb57cf18	-0.0032929834
222	0x3ab5756c	0.0013844199
223	0xbb05e99c	-0.0020433431
224	0xbbfa231d	-0.0076335804
225	0xba209954	-0.00061263633
226	0xbb77413e	-0.0037728096
227	0xb8e62538	-0.00010974187
228	0x3c31b86d	0.010847193
229	0xba5ef922	-0.00085057516
230	0xbd874498	-0.0660488
231	0xb9b59e1b	-0.00034640808
232	0x3b85843b	0.004074601
233	0x3a8afda2	0.0010604153
234	0x3b8c9fa8	0.0042914934
235	0x3c0044fb	0.007828946
236	0xba9b6dac	-0.0011858246
237	0x3bfce3ec	0.0077176
238	0xbad14d97	-0.0015968558
239	0xbaced4bc	-0.0015779953
240	0x3a213450	0.0006149458
241	0xbb90dae6	-0.004420626
242	0xbaa775e2	-0.0012776221
243	0xba800560	-0.0009767227
244	0x3a2501cf	0.000629452
245	0x3a84eb42	0.0010140913
246	0xb98ea8f8	-0.00027210242
247	0x3ad2c0fb	0.0016079241
248	0xbae8b79a	-0.0017754913
249	0xbab69312	-0.0013929328
250	0x3cb48734	0.022037126
251	0x3bbb1fae	0.0057105636
252	0xbc32ac74	-0.010905374
253	0x3c04fdae	0.008117123
254	0xba6593f6	-0.00087577046
255	0x3b367a9d	0.002784408

tabnet.initial_bn.running_var f4 [1038]
0	0x3b84fe28	0.004058618
1	0x3a476638	0.00076064793
2	0x3f7cd8d6	0.98768365
3	0x3f790b67	0.97283024
4	0x3f78baf6	0.9716028
5	0x3f7959e0	0.97402763
6	0x3f785ed7	0.97019714
7	0x3f78b89c	0.9715669
8	0x3f77d9f0	0.9681692
9	0x3f7852ab	0.9700114
10	0x3f88cece	1.0688112
11	0x3f79109f	0.97290987
12	0x3f790577	0.97273964
13	0x3f788afd	0.9708708
14	0x3f774528	0.965899
15	0x3f7f3e24	0.99704194
16	0x3f7bd9d1	0.98379236
17	0x3f7740fb	0.9658353
18	0x3f7b67d1	0.98205286
19	0x3f7c19e2	0.98476994
20	0x3f79d1d2	0.97585785
21	0x3f787bb4	0.97063756
22	0x3f7938d7	0.97352356
23	0x3f778449	0.96686226
24	0x3f79e284	0.9761126
25	0x3f77d7d1	0.96813685
26	0x3f79e9dc	0.97622466
27	0x3f7823ff	0.96929926
28	0x3f7969be	0.97426975
29	0x3f796f56	0.9743551
30	0x3f780ed0	0.968976
31	0x3f7a3806	0.97741735
32	0x3f79688d	0.97425157
33	0x3f8727ff	1.0559081
34	0x3f785753	0.97008246
35	0x3f794b19	0.97380215
36	0x3f79fa44	0.976475
37	0x3f787548	0.97053957
38	0x3f7d0697	0.9883818
39	0x3fa450e4	1.2837186
40	0x3f9880d1	1.1914312
41	0x3f780bfa	0.96893275
42	0x3f8068ec	1.003202
43	0x3f77ab8f	0.9674615
44	0x3f78e2d7	0.9722113
45	0x3f79a8ef	0.975234
46	0x3f790e20	0.9728718
47	0x3f75f5c1	0.96078116
48	0x3f81bd3b	1.0135874
49	0x3f7a1fc8	0.97704744
50	0x3f7f401a	0.99707186
51	0x3f78e0e3	0.9721815
52	0x3fa69c2c	1.301641
53	0x3f793b7b	0.97356385
54	0x3f78a142	0.9712106
55	0x3f7b2a5c	0.9811151
56	0x3f7b79e4	0.98232865
57	0x3f7bdc88	0.9838338
58	0x3f7b18b0	0.98084545
59	0x3f7b6db6	0.9821428
60	0x3f9040fa	1.1269829
61	0x3f7cb6e3	0.98716563
62	0x3f783417	0.9695448
63	0x3f7ae4d2	0.980054
64	0x3f84f8a1	1.0388376
65	0x3f840e41	1.031685
66	0x3f773716	0.9656843
67	0x3f7a013a	0.9765812
68	0x3f789ad0	0.97111225
69	0x3fb0a5fd	1.3800656
70	0x3f785c4f	0.9701585
71	0x3f7766f5	0.96641475
72	0x3f78a64b	0.9712874
73	0x3f78026a	0.96878684
74	0x3f8bdb72	1.0926344
75	0x3f78d332	0.9719726
76	0x3f84fb49	1.0389186
77	0x3fa7a647	1.3097619
78	0x3f78b271	0.9714728
79	0x3f7849e8	0.9698777
80	0x3f79c036	0.97558916
81	0x3f770f21	0.9650746
82	0x3f778b78	0.9669719
83	0x3f7803b6	0.9688066
84	0x3f794a2d	0.9737881
85	0x3f7a5928	0.9779229
86	0x3f781f74	0.96922994
87	0x3f7828f0	0.96937466
88	0x3f838315	1.0274378
89	0x3f7a9ffc	0.97900367
90	0x3f78c335	0.9717286
91	0x3f76f0ca	0.96461165
92	0x3f79f061	0.97632414
93	0x3f808805	1.004151
94	0x3f791c81	0.9730912
95	0x3f7a6516	0.97810495
96	0x3f78aadb	0.97135705
97	0x3f7c080b	0.9844977
98	0x3f81f326	1.0152328
99	0x3f81f393	1.0152458
100	0x3f805260	1.0025139
101	0x3f79f235	0.97635204
102	0x3f89f696	1.0778377
103	0x3f783529	0.96956116
104	0x3f7d0876	0.98841035
105	0x3f79d3c0	0.9758873
106	0x3f772c4d	0.9655197
107	0x3f7904a5	0.9727271
108	0x3f812164	1.0088315
109	0x3f7ab6b3	0.97935027
110	0x3f790e47	0.9728741
111	0x3f779eaa	0.9672648
112	0x3f7a668b	0.9781272
113	0x3f7c14a6	0.98469007
114	0x3f77ef00	0.9684906
115	0x3f8e034c	1.1094756
116	0x3f777e4a	0.96677077
117	0x3f7954b1	0.97394854
118	0x3f7ca03c	0.98682
119	0x3f7af423	0.98028773
120	0x3f77a636	0.9673799
121	0x3f776fef	0.9665517
122	0x3f775425	0.9661277
123	0x3f81215d	1.0088307
124	0x3f768245	0.96292526
125	0x3f95eeda	1.1713517
126	0x3f78570d	0.9700783
127	0x3f7834f3	0.96955794
128	0x3f7d8bc4	0.9904139
129	0x3f77900a	0.9670416
130	0x3f8d6413	1.1046165
131	0x3f78ac0b	0.97137517
132	0x3f815733	1.0104736
133	0x3f98b97a	1.1931603
134	0x3f8080c4	1.0039296
135	0x3f7d7a26	0.9901451
136	0x3f77895f	0.96693987
137	0x3f78c40b	0.9717414
138	0x3f78b1a1	0.9714604
139	0x3f78b71d	0.9715441
140	0x3f7beaad	0.9840496
141	0x3f7b9170	0.98268795
142	0x3f794241	0.9736672
143	0x3f7753cf	0.96612257
144	0x3f7f4f50	0.99730396
145	0x3f799646	0.97494924
146	0x3f816dd3	1.0111641
147	0x3f7b37c8	0.9813199
148	0x3f7dc644	0.99130654
149	0x3f845b20	1.0340309
150	0x3f7be7e6	0.98400724
151	0x3f77bec5	0.96775466
152	0x3f7bd825	0.98376685
153	0x3f78fde9	0.97262436
154	0x3f81921f	1.0122718
155	0x3f791d22	0.9731008
156	0x3f790be9	0.972838
157	0x3f811d4c	1.0087066
158	0x3f78ac17	0.9713759
159	0x3f79878a	0.9747244
160	0x3f9296d5	1.145228
161	0x3f78cd49	0.9718824
162	0x3f7cfb17	0.9882063
163	0x3f7bf203	0.98416156
164	0x3f76a615	0.9634717
165	0x3f83292e	1.0246942
166	0x3f80c062	1.005871
167	0x3f766705	0.96250945
168	0x3f790b4a	0.9728285
169	0x3f77cd52	0.9679767
170	0x3f7971b0	0.974391
171	0x3f7a43e1	0.97759825
172	0x3f858138	1.043006
173	0x3f78c068	0.9716859
174	0x3f7a19f0	0.9769583
175	0x3f774f8f	0.9660577
176	0x3f78e4f8	0.9722438
177	0x3f7a4188	0.9775624
178	0x3f777fa1	0.9667912
179	0x3f7b568d	0.9817894
180	0x3f8a5bc1	1.0809251
181	0x3f78f826	0.97253644
182	0x3f7783a9	0.9668527
183	0x3f7c65c0	0.9859276
184	0x3f79b5de	0.9754313
185	0x3f813c85	1.0096594
186	0x3f78c832	0.97180474
187	0x3f8f29d3	1.1184639
188	0x3f7ab88a	0.97937834
189	0x3f77d53a	0.9680973
190	0x3f778928	0.9669366
191	0x3f811f4a	1.0087674
192	0x3f7a07bc	0.9766805
193	0x3f79ba80	0.975502
194	0x3f7922ca	0.9731871
195	0x3f77d1ec	0.9680469
196	0x3f78dff9	0.97216755
197	0x3f8aa921	1.0832864
198	0x3f789be7	0.9711289
199	0x3f8093ba	1.0045083
200	0x3f7b66e0	0.9820385
201	0x3f7942fb	0.9736783
202	0x3f791a01	0.97305304
203	0x3f87fe9a	1.0624573
204	0x3f89a792	1.0754263
205	0x3f78902c	0.9709499
206	0x3f7b4e91	0.9816676
207	0x3f783ef2	0.96971047
208	0x3f778d0f	0.96699613
209	0x3f779461	0.96710783
210	0x3f8ab78d	1.0837265
211	0x3f768db5	0.9630998
212	0x3f7a4ac9	0.97770363
213	0x3f781860	0.96912193
214	0x3f781147	0.96901363
215	0x3f7d0f89	0.9885183
216	0x3f77d4a3	0.9680883
217	0x3f808602	1.0040896
218	0x3f7974d8	0.97443914
219	0x3f783d80	0.9696884
220	0x3f79c008	0.9755864
221	0x3f77e485	0.9683307
222	0x3f7a0c61	0.9767514
223	0x3f76ed78	0.964561
224	0x3f769fcb	0.96337575
225	0x3f792c8d	0.97333604
226	0x3f7a1fb1	0.9770461
227	0x3f76f1cf	0.9646272
228	0x3f851956	1.0398357
229	0x3f786858	0.97034216
230	0x3fb9970c	1.4499221
231	0x3f7a8b06	0.9786838
232	0x3f786be8	0.9703965
233	0x3f7dba39	0.9911228
234	0x3f7bf1e0	0.98415947
235	0x3f782b36	0.96940935
236	0x3f7a26af	0.97715276
237	0x3f7d162f	0.98861974
238	0x3f79741d	0.974428
239	0x3f786db1	0.97042376
240	0x3f7982b7	0.9746508
241	0x3f79cbd3	0.97576636
242	0x3f777d2f	0.9667539
243	0x3f78f552	0.9724933
244	0x3f7a5f08	0.97801256
245	0x3f80ae9e	1.0053289
246	0x3f7d82e2	0.99027836
247	0x3f7ec0e5	0.99513084
248	0x3f78a54d	0.9712723
249	0x3f790fa0	0.97289467
250	0x3f925e2f	1.1434993
251	0x3f7c0669	0.9844728
252	0x3f85e392	1.0460074
253	0x3f8151de	1.0103109
254	0x3f7a576a	0.97789633
255	0x3f79215d	0.97316533

tabnet.initial_splitter.shared.shared_layers.0.weight f4 [96, 1038]
0	0x3b7664e3	0.0037596754
1	0x3c0e8343	0.008698287
2	0x3944abba	0.0001875599
3	0x3aba00a8	0.0014190869
4	0xbb8374ca	-0.004011725
5	0xbdf3fe56	-0.11913745
6	0xb89cda81	-7.479359e-05
7	0xb92d71e1	-0.00016540989
8	0xbba80736	-0.0051278127
9	0x38ed78f7	0.00011323572
10	0x3baaf6c5	0.0052174055
11	0x3ac0105f	0.0014653316
12	0x3a8c92c4	0.0010724892
13	0x3c1cbc53	0.009566384
14	0x3bd1af68	0.006399084
15	0xb96db455	-0.0002266926
16	0x3c171670	0.009221658
17	0x3b510818	0.0031895693
18	0x3d50b190	0.050950587
19	0x36d62b11	6.3827106e-06
20	0xbc1284f5	-0.008942832
21	0xba8805a0	-0.0010377653
22	0x3b415b74	0.0029503973
23	0xba1d3a10	-0.00059977267
24	0xba5fadc1	-0.0008532666
25	0x397b37ee	0.00023958061
26	0x3ad085ed	0.0015909054
27	0x3b17988b	0.0023131694
28	0x3bcec6a7	0.0063103023
29	0x3b33a66f	0.0027412435
30	0x3c19d388	0.009388812
31	0x3aaccbfc	0.0013183351
32	0x3c81ba1c	0.015835814
33	0xbb66b263	-0.0035201542
34	0xbb9a09c0	-0.0047008693
35	0xbb1881ff	-0.0023270843
36	0x3c502340	0.012703717
37	0x3b2f7822	0.0026774486
38	0xbb0a16b2	-0.0021070656
39	0x3df687b3	0.12037601
40	0xbb1514fe	-0.0022748108
41	0xb9f9f18f	-0.00047672956
42	0xba96832c	-0.0011483184
43	0xba8343e7	-0.0010014743
44	0x38dbebf2	0.00010486682
45	0xbae53b49	-0.0017488982
46	0x3acc5759	0.0015589996
47	0xbbd89b96	-0.006610344
48	0xbc2d38c0	-0.010572612
49	0x3b8e9ad2	0.004351952
50	0xb9a75d0f	-0.00031922056
51	0xbb41c8cc	-0.0029569147
52	0x3a49a614	0.0007692289
53	0xbbb60d73	-0.0055558025
54	0x3b6172e4	0.0034400756
55	0xbb2fef02	-0.002684534
56	0x3ae0c366	0.0017148077
57	0xbbde8079	-0.0067902175
58	0xbb5354ac	-0.0032246513
59	0x3b71a46b	0.0036871682
60	0x3ca3c9f6	0.019993763
61	0xb1803e50	-3.7323744e-09
62	0x3be8803b	0.0070953644
63	0xb31beae6	-3.630239e-08
64	0x3d06f20c	0.032945678
65	0x3a8536e3	0.0010163452
66	0x37aaeddb	2.037634e-05
67	0xbaec39d7	-0.0018022609
68	0xb8054fb8	-3.1783915e-05
69	0x3bb408a4	0.005494194
70	0x3b9b89e4	0.0047466625
71	0xbb4764de	-0.0030425112
72	0xb985764a	-0.0002545587
73	0xbdbd7d28	-0.09252387
74	0xb7592b71	-1.2944322e-05
75	0xb73783f7	-1.0938375e-05
76	0xbafa76d8	-0.0019108905
77	0x3cabd8fd	0.020977492
78	0xb2af7bbf	-2.0428955e-08
79	0x3b9f6ed8	0.0048655085
80	0x39e200d3	0.00043106693
81	0x32d2355f	2.4471488e-08
82	0xbbb666c2	-0.005566449
83	0x3b8670a3	0.004102783
84	0xbb41aaf8	-0.0029551368
85	0xbe10c3e8	-0.14137232
86	0x3bbadb42	0.005702407
87	0xbbd8f8a1	-0.0066214358
88	0xbacb32fd	-0.0015502867
89	0x3c480e4f	0.012210443
90	0xbc828054	-0.015930332
91	0x3ac9c80e	0.0015394704
92	0xba9b6c64	-0.0011857864
93	0x3b381b29	0.002809236
94	0xbc34421a	-0.011002088
95	0xba321573	-0.00067933573
96	0x3a9418e6	0.0011298924
97	0xbc163248	-0.009167261
98	0x3bcee0d8	0.0063134246
99	0x3a9bb225	0.0011878653
100	0x3ba98486	0.0051732687
101	0xb8d71cb8	-0.00010257348
102	0xbc141dca	-0.009040305
103	0x3acd4234	0.0015659989
104	0xbbfb412c	-0.007667681
105	0xba2f194c	-0.000667949
106	0xbb1b2d8e	-0.0023678276
107	0xbb5fb461	-0.0034134614
108	0xbc4308f4	-0.01190399
109	0x3a4a3951	0.0007714229
110	0x3b29aa33	0.00258888
111	0xb9936012	-0.00028109603
112	0xbbedb803	-0.007254602
113	0xbb88dbac	-0.0041765776
114	0xb676fa0b	-3.68024e-06
115	0xbd95e741	-0.07319499
116	0xbd691dde	-0.05691325
117	0xb781c626	-1.5470268e-05
118	0x3bb697be	0.0055722883
119	0xb9221310	-0.00015456625
120	0x3c15e88f	0.009149685
121	0x385a416f	5.203619e-05
122	0xbb738e88	-0.0037163813
123	0x32c3f7db	2.28137e-08
124	0x3c007d11	0.007842318
125	0x3dd59089	0.104279585
126	0xbe34c703	-0.17654042
127	0x3bfe37c7	0.007758114
128	0xb9375ac3	-0.00017486051
129	0xbda6281e	-0.081131205
130	0x3b89caf2	0.004205101
131	0x3a9fdb2b	0.0012196054
132	0xbb2d0b1a	-0.0026404322
133	0xbc509f3f	-0.01273328
134	0xbb28ec15	-0.0025775481
135	0x3b201131	0.002442431
136	0xbe561bd9	-0.2090906
137	0xb9445fe6	-0.00018727742
138	0xbbcf60f6	-0.0063286973
139	0xbb2d3c38	-0.0026433598
140	0x3af452b8	0.0018640375
141	0xbb718f4e	-0.0036859098
142	0xbbb08f3e	-0.0053881695
143	0x35493774	7.495903e-07
144	0xbc2910cb	-0.010318945
145	0x3c1d1b25	0.009588991
146	0xbd52470b	-0.051337283
147	0xba837be1	-0.0010031426
148	0xbb152583	-0.0022757954
149	0xbc388b42	-0.01126367
150	0xbbf46c07	-0.007459167
151	0x3b8ce9e4	0.004300343
152	0xb420d255	-1.497768e-07
153	0x3bae03af	0.0053104977
154	0x3b419b91	0.0029542188
155	0x3b903d21	0.0044018184
156	0xba42a841	-0.00074255845
157	0xb852dffb	-5.02765e-05
158	0x3c10eb47	0.008845157
159	0x3ca7a8b5	0.020466188
160	0xbb7af293	-0.0038291558
161	0xba2789dc	-0.0006391087
162	0x3bf8ff1c	0.007598771
163	0xbb4567c9	-0.0030121675
164	0x3b9de1f1	0.004818194
165	0xb90d58da	-0.00013479908
166	0x3b986fd9	0.004652005
167	0x3833dc46	4.288207e-05
168	0xbbf73a5b	-0.0075447983
169	0x3bf8bd7d	0.007590948
170	0xbb275026	-0.002552995
171	0x3ddde5ea	0.10834868
172	0xbbc0c890	-0.005883284
173	0xbb8ea9c4	-0.0043537337
174	0x3ab95ca8	0.0014141994
175	0x3d9ed15d	0.077547766
176	0x3b2e55c8	0.0026601423
177	0x3c0c0275	0.008545508
178	0xba291ceb	-0.00064511475
179	0x38389563	4.4008146e-05
180	0x3da0b952	0.07847847
181	0xbb89c287	-0.0042040977
182	0xbbb58304	-0.0055393
183	0xbbcab66c	-0.006186297
184	0xbab65a8f	-0.0013912487
185	0x3c07de76	0.008292785
186	0x3bd594cb	0.0065179816
187	0xba5d2536	-0.0008436026
188	0x3a47f985	0.0007628429
189	0xb9bbadb9	-0.00035796853
190	0x3b2324cc	0.0024893759
191	0x3b75319e	0.0037413607
192	0x3b0b1f41	0.0021228346
193	0xbc0445d0	-0.008073285
194	0xbb599aee	-0.0033203918
195	0xba893a97	-0.0010469732
196	0x3c01c7db	0.007921184
197	0xb8d46557	-0.00010127824
198	0xb7c2d162	-2.3224104e-05
199	0xbc792c08	-0.015208252
200	0xbd9324c3	-0.07184746
201	0xb9dfbc14	-0.00042674004
202	0xbaf07005	-0.0018343931
203	0xb9e933ab	-0.0004447972
204	0xbaea1a4c	-0.001786062
205	0x3cb8f7b6	0.022579055
206	0xbbdd0c7f	-0.0067458744
207	0xbb1ec7d5	-0.0024227996
208	0x3bcac62e	0.0061881756
209	0xba5ed0db	-0.000849975
210	0xbd2d083b	-0.042244177
211	0x3c0a1eb1	0.008430169
212	0xb6628d44	-3.3758852e-06
213	0x398e2e62	0.00027118908
214	0x3747613b	1.18839625e-05
215	0xbbadf1d6	-0.00530837
216	0x3b9ca160	0.0047799796
217	0xbb4b0a3a	-0.0030981437
218	0x3c1a2b95	0.009409805
219	0x3c05d615	0.008168717
220	0x3c07b290	0.008282319
221	0xbbddec49	-0.006772552
222	0xba9daa59	-0.0012028917
223	0xbc2f22ba	-0.010689432
224	0x3a93e3f8	0.001128315
225	0xb940ccfe	-0.00018386912
226	0x38381ea0	4.389754e-05
227	0xbaaba03a	-0.0013094016
228	0xbc87405d	-0.016510183
229	0x3bb73dc6	0.0055920808
230	0x3a9f3628	0.0012146877
231	0xb9f616ce	-0.00046937767
232	0xbabb4b40	-0.0014289394
233	0x3b966e36	0.004590775
234	0xbb5f0de5	-0.0034035381
235	0xbb36f696	-0.0027917973
236	0x3afd0d78	0.0019306382
237	0x3a6ce9f5	0.0009037548
238	0xb7fb6bca	-2.9971725e-05
239	0x3b86437d	0.0040974007
240	0x3aff0e06	0.0019459135
241	0x3b80c1b5	0.0039293417
242	0x3a9ceb3d	0.0011971962
243	0x3c316466	0.0108271595
244	0xbab8698f	-0.0014069545
245	0x3c41dd1f	0.0118325045
246	0xbc620d7d	-0.013797161
247	0xb72dafb4	-1.0352513e-05
248	0xbb965176	-0.0045873476
249	0x3b6c3634	0.003604305
250	0xbc4fd872	-0.012685882
251	0x3dd973f8	0.106178224
252	0x3bc3755c	0.005964918
253	0xba144826	-0.0005656503
254	0xbc602719	-0.013681197
255	0x3954a944	0.00020280952

tabnet.initial_splitter.shared.shared_layers.1.weight f4 [96, 48]
0	0x3e8eefd7	0.27917358
1	0x3d0fc555	0.0351003
2	0xbd1a9e97	-0.0377489
3	0x3c5f9201	0.01364565
4	0xbd363044	-0.044479623
5	0xbd71ce87	-0.05903485
6	0x3ccb2cb2	0.024801586
7	0x3d03577b	0.03206585
8	0xbb9377f7	-0.004500385
9	0xbd41e81c	-0.047340497
10	0x3c5f808a	0.013641486
11	0xbda0574f	-0.07829153
12	0xbcd058bf	-0.025432942
13	0xb9080a8d	-0.00012973901
14	0xbd3c5d1c	-0.045987234
15	0xbd4ed1c9	-0.050493035
16	0x3ca7097d	0.020390267
17	0xbc9ef790	-0.019405156
18	0xbd0f5d2e	-0.035000972
19	0xbd31830a	-0.04333786
20	0xbdab8e20	-0.083767176
21	0xbd3f5240	-0.0467093
22	0x3c92f721	0.017940106
23	0x3cf6a5a4	0.03010828
24	0xbaa6c308	-0.0012722919
25	0xbb73cf10	-0.0037202276
26	0x38ff1b9a	0.00012164489
27	0xbbc26f71	-0.005933695
28	0xbbbc35c1	-0.0057437127
29	0x3a50f674	0.00079712947
30	0xb844c993	-4.6917772e-05
31	0x3a789c1a	0.000948371
32	0xbacd54a6	-0.0015665486
33	0x39aa20ba	0.0003244931
34	0xbafea6e1	-0.0019428396
35	0xbbccab8a	-0.006246035
36	0x3a56eb23	0.000819849
37	0x3b91e866	0.004452753
38	0x3c052cb1	0.008128331
39	0x3b09d8c6	0.0021033748
40	0x3a155ca8	0.0005697706
41	0x3bc6ce7e	0.0060670963
42	0x3a6408cf	0.00086988223
43	0xb9d8b5e0	-0.00041334238
44	0xba60643e	-0.0008559859
45	0x3b1e53ee	0.0024158913
46	0xb91add6b	-0.00014769069
47	0xbacbfec9	-0.0015563603
48	0xbd032be2	-0.03202427
49	0x3eb2c51b	0.34916005
50	0x3cb6af0f	0.022300271
51	0xbc167300	-0.009182692
52	0x3d1b7582	0.03795386
53	0xbcb1fd72	-0.021727297
54	0xbbbc2525	-0.0057417327
55	0xbc3a31a7	-0.011364377
56	0xbde6950d	-0.11258898
57	0x3c8f3590	0.017481595
58	0xbce38c8b	-0.027776977
59	0x3c8eab17	0.017415566
60	0xbb467641	-0.0030282887
61	0xb9688691	-0.00022175374
62	0xbc85b28a	-0.016320486
63	0xbd160cd9	-0.036633346
64	0xbd53fec4	-0.051756635
65	0xbd50014e	-0.050782494
66	0x3c8877ab	0.016658625
67	0xbd820ef8	-0.06350511
68	0x3ccd2824	0.025043555
69	0xbd8b623f	-0.06805848
70	0xbbb65c36	-0.0055651916
71	0xbe0f886c	-0.14016885
72	0xbb501f2a	-0.0031756856
73	0xbb0a709b	-0.0021124247
74	0x3a354948	0.0006915522
75	0xbbc9fd6b	-0.006164243
76	0xba94b11f	-0.001134429
77	0xb98aaaf1	-0.00026448772
78	0xb9495a9e	-0.00019202611
79	0x3b8402c1	0.0040286486
80	0xbb0c315e	-0.002139173
81	0x38c21231	9.254029e-05
82	0xb96ef7d6	-0.00022789775
83	0xbbdf3603	-0.0068118586
84	0x3b71d734	0.0036901953
85	0x3b326676	0.0027221716
86	0xb7cb2e1c	-2.4220957e-05
87	0x3b59db83	0.0033242411
88	0x39ba5e38	0.00035546883
89	0x3b000ced	0.0019538954
90	0x3b278548	0.002556162
91	0x3b0160e7	0.0019741596
92	0xbab1f92b	-0.0013578286
93	0xb9f999d9	-0.00047607606
94	0xbb887c54	-0.0041652117
95	0x39d76493	0.0004108293
96	0xbc525efe	-0.012840031
97	0x3c979366	0.018502902
98	0x3e677712	0.22604015
99	0xbc93d38b	-0.018045207
100	0x3d9055a9	0.070475884
101	0xbcda3cdb	-0.026640346
102	0xbdaec05f	-0.085327856
103	0xbd32229f	-0.04349005
104	0xbcb8b5e1	-0.022547664
105	0xbb985b88	-0.0046495833
106	0x3ce98b34	0.02850876
107	0xbde2ebe2	-0.11080147
108	0x3d0780f5	0.033081967
109	0x398dad9b	0.00027022962
110	0xbd557cdd	-0.052121032
111	0xbbbe4e20	-0.005807653
112	0x3d099941	0.03359342
113	0xbd490558	-0.04907736
114	0xbda6cf32	-0.08144988
115	0x3cf6e84a	0.030140061
116	0xbd7565d6	-0.05991157
117	0x3d16b300	0.0367918
118	0xbb649237	-0.003487719
119	0xba496851	-0.0007683086
120	0xb9ce4c55	-0.00039348254
121	0xbad942ab	-0.0016575655
122	0x3a1a1da5	0.0005879051
123	0xbbdb4cdc	-0.006692512
124	0xbb865e3d	-0.0041005895
125	0x3aa56b71	0.0012620521
126	0x3b7d6e2b	0.0038670402
127	0xb9b7b14a	-0.0003503657
128	0xbafea5e4	-0.0019428101
129	0x3a388e70	0.0007040268
130	0xb9986c57	-0.0002907242
131	0x3ba2776b	0.0049580834
132	0x39c1f2d9	0.00036992764
133	0xba307001	-0.0006730557
134	0xbb1a9e1e	-0.002359278
135	0xb9e724dc	-0.00044087216
136	0x3af4e65b	0.0018684374
137	0xbb3fddad	-0.0029276416
138	0xb9a416b5	-0.00031297436
139	0x396da52e	0.00022663616
140	0xba91c592	-0.0011121503
141	0xb9a22f65	-0.0003093436
142	0xb769f45a	-1.3944775e-05
143	0xb9441f26	-0.0001870362
144	0xbb035364	-0.0020038718
145	0xbd8c3ed4	-0.06847921
146	0xbd855b48	-0.06511551
147	0x3d6c80dd	0.05774008
148	0xbd5badba	-0.053632475
149	0x3c352150	0.011055306
150	0x3db0ce26	0.0863307
151	0xbd3aca3b	-0.04560302
152	0xbd06a35b	-0.03287063
153	0xbc800604	-0.015627868
154	0xbd803899	-0.06260795
155	0xbc954a0d	-0.018223787
156	0xbdb51e08	-0.08843619
157	0x39653142	0.00021857492
158	0xbe1203d8	-0.14259279
159	0x3d631b39	0.055445883
160	0x3c3f6f09	0.011684188
161	0x3c8c1e10	0.017104179
162	0x3c87da07	0.016583456
163	0xb939765a	-0.00017687064
164	0x3c487470	0.012234792
165	0xbd2d6644	-0.042333856
166	0x3bcdf6b0	0.006285511
167	0xbd726ce2	-0.05918587
168	0xbb5287f8	-0.00321245
169	0x3986d46e	0.00025716744
170	0x3994a64d	0.00028352664
171	0xbb526192	-0.0032101613
172	0x3b7ae8fa	0.0038285838
173	0x3a87aa5f	0.0010350457
174	0xba7b22ae	-0.0009580058
175	0xb9715a56	-0.00023017204
176	0x3799c365	1.8330009e-05
177	0x3931fd03	0.0001697429
178	0xb986d059	-0.00025713703
179	0x3af56c4f	0.0018724295
180	0x3a40e7e6	0.00073587743
181	0x3b158b5d	0.0022818663
182	0x3a178431	0.0005779891
183	0x3acd3d57	0.001565854
184	0xb92d637a	-0.00016535624
185	0x3a9ed849	0.0012118901
186	0x3879824b	5.948757e-05
187	0xb9a850e4	-0.00032103725
188	0x36f9bcfd	7.4427794e-06
189	0x38bafa89	8.915837e-05
190	0x3801812f	3.087631e-05
191	0x38dca970	0.00010521978
192	0xbdf1ea29	-0.11812241
193	0xbc7eab4a	-0.015543768
194	0x3d1b9512	0.03798396
195	0xbc618654	-0.0137649365
196	0x3e77dd4c	0.24205512
197	0xbc9c2008	-0.019058242
198	0xbc2d6d31	-0.010585115
199	0xbd47d4c0	-0.04878688
200	0xbdd78534	-0.10523453
201	0xbb8885ff	-0.004166364
202	0xbd8e482f	-0.06947362
203	0xbc5f5271	-0.013630495
204	0xbd97ec62	-0.07418133
205	0xb9988d1d	-0.00029096837
206	0xbcb1baad	-0.02169546
207	0x3a2dd3a9	0.0006630966
208	0xbd019ed3	-0.031645607
209	0xbc74d1cb	-0.014942597
210	0x3bbf01e8	0.0058290847
211	0xbd53d332	-0.051715083
212	0xbd88e212	-0.066837445
213	0xbe170a84	-0.14750105
214	0xbd2f2a86	-0.042765163
215	0x3cd013f3	0.025400138
216	0x3b813923	0.003943579
217	0x3a85e49d	0.0010215227
218	0xb992a3ca	-0.00027969322
219	0xbbd724e6	-0.006565678
220	0xba6c2775	-0.0009008565
221	0xba86356b	-0.0010239308
222	0xbad91704	-0.0016562645
223	0x39386968	0.00017586874
224	0x39dab49a	0.0004171476
225	0xb8882bc8	-6.49314e-05
226	0x3a405af9	0.0007337775
227	0xbabe53a4	-0.0014520776
228	0xba38171c	-0.00070224865
229	0xbb835b0c	-0.0040086564
230	0x394f86c2	0.0001979126
231	0xb983ecb0	-0.00025162613
232	0x3a3f5c66	0.000729984
233	0xbb0fcc65	-0.0021941897
234	0xb99334bb	-0.00028077312
235	0xba10a88b	-0.0005518279
236	0x387f0769	6.080364e-05
237	0xba8da061	-0.0010805243
238	0x391d05ab	0.00014974798
239	0xb91ab38c	-0.00014753471
240	0x3c263173	0.010143626
241	0xbc306508	-0.010766275
242	0x3c1d07cb	0.0095843775
243	0x3c6c63f9	0.014428132
244	0x3c9bbc2a	0.019010622
245	0x3ed2b585	0.41154113
246	0x3d8eee5a	0.06979056
247	0x3d0d4bae	0.034496002
248	0xbb0a9275	-0.0021144424
249	0xbce9814e	-0.02850404
250	0xbc6d6d7e	-0.014491437
251	0xbd0966a0	-0.033545136
252	0x3d28be5f	0.041197177
253	0x39e8bbe8	0.0004439049
254	0x3b838eaf	0.004014812
255	0x3cb88f48	0.02252926

tabnet.initial_splitter.shared.glu_layers.0.fc.weight f4 [96, 1038]
0	0x3b7664e3	0.0037596754
1	0x3c0e8343	0.008698287
2	0x3944abba	0.0001875599
3	0x3aba00a8	0.0014190869
4	0xbb8374ca	-0.004011725
5	0xbdf3fe56	-0.11913745
6	0xb89cda81	-7.479359e-05
7	0xb92d71e1	-0.00016540989
8	0xbba80736	-0.0051278127
9	0x38ed78f7	0.00011323572
10	0x3baaf6c5	0.0052174055
11	0x3ac0105f	0.0014653316
12	0x3a8c92c4	0.0010724892
13	0x3c1cbc53	0.009566384
14	0x3bd1af68	0.006399084
15	0xb96db455	-0.0002266926
16	0x3c171670	0.009221658
17	0x3b510818	0.0031895693
18	0x3d50b190	0.050950587
19	0x36d62b11	6.3827106e-06
20	0xbc1284f5	-0.008942832
21	0xba8805a0	-0.0010377653
22	0x3b415b74	0.0029503973
23	0xba1d3a10	-0.00059977267
24	0xba5fadc1	-0.0008532666
25	0x397b37ee	0.00023958061
26	0x3ad085ed	0.0015909054
27	0x3b17988b	0.0023131694
28	0x3bcec6a7	0.0063103023
29	0x3b33a66f	0.0027412435
30	0x3c19d388	0.009388812
31	0x3aaccbfc	0.0013183351
32	0x3c81ba1c	0.015835814
33	0xbb66b263	-0.0035201542
34	0xbb9a09c0	-0.0047008693
35	0xbb1881ff	-0.0023270843
36	0x3c502340	0.012703717
37	0x3b2f7822	0.0026774486
38	0xbb0a16b2	-0.0021070656
39	0x3df687b3	0.12037601
40	0xbb1514fe	-0.0022748108
41	0xb9f9f18f	-0.00047672956
42	0xba96832c	-0.0011483184
43	0xba8343e7	-0.0010014743
44	0x38dbebf2	0.00010486682
45	0xbae53b49	-0.0017488982
46	0x3acc5759	0.0015589996
47	0xbbd89b96	-0.006610344
48	0xbc2d38c0	-0.010572612
49	0x3b8e9ad2	0.004351952
50	0xb9a75d0f	-0.00031922056
51	0xbb41c8cc	-0.0029569147
52	0x3a49a614	0.0007692289
53	0xbbb60d73	-0.0055558025
54	0x3b6172e4	0.0034400756
55	0xbb2fef02	-0.002684534
56	0x3ae0c366	0.0017148077
57	0xbbde8079	-0.0067902175
58	0xbb5354ac	-0.0032246513
59	0x3b71a46b	0.0036871682
60	0x3ca3c9f6	0.019993763
61	0xb1803e50	-3.7323744e-09
62	0x3be8803b	0.0070953644
63	0xb31beae6	-3.630239e-08
64	0x3d06f20c	0.032945678
65	0x3a8536e3	0.0010163452
66	0x37aaeddb	2.037634e-05
67	0xbaec39d7	-0.0018022609
68	0xb8054fb8	-3.1783915e-05
69	0x3bb408a4	0.005494194
70	0x3b9b89e4	0.0047466625
71	0xbb4764de	-0.0030425112
72	0xb985764a	-0.0002545587
73	0xbdbd7d28	-0.09252387
74	0xb7592b71	-1.2944322e-05
75	0xb73783f7	-1.0938375e-05
76	0xbafa76d8	-0.0019108905
77	0x3cabd8fd	0.020977492
78	0xb2af7bbf	-2.0428955e-08
79	0x3b9f6ed8	0.0048655085
80	0x39e200d3	0.00043106693
81	0x32d2355f	2.4471488e-08
82	0xbbb666c2	-0.005566449
83	0x3b8670a3	0.004102783
84	0xbb41aaf8	-0.0029551368
85	0xbe10c3e8	-0.14137232
86	0x3bbadb42	0.005702407
87	0xbbd8f8a1	-0.0066214358
88	0xbacb32fd	-0.0015502867
89	0x3c480e4f	0.012210443
90	0xbc828054	-0.015930332
91	0x3ac9c80e	0.0015394704
92	0xba9b6c64	-0.0011857864
93	0x3b381b29	0.002809236
94	0xbc34421a	-0.011002088
95	0xba321573	-0.00067933573
96	0x3a9418e6	0.0011298924
97	0xbc163248	-0.009167261
98	0x3bcee0d8	0.0063134246
99	0x3a9bb225	0.0011878653
100	0x3ba98486	0.0051732687
101	0xb8d71cb8	-0.00010257348
102	0xbc141dca	-0.009040305
103	0x3acd4234	0.0015659989
104	0xbbfb412c	-0.007667681
105	0xba2f194c	-0.000667949
106	0xbb1b2d8e	-0.0023678276
107	0xbb5fb461	-0.0034134614
108	0xbc4308f4	-0.01190399
109	0x3a4a3951	0.0007714229
110	0x3b29aa33	0.00258888
111	0xb9936012	-0.00028109603
112	0xbbedb803	-0.007254602
113	0xbb88dbac	-0.0041765776
114	0xb676fa0b	-3.68024e-06
115	0xbd95e741	-0.07319499
116	0xbd691dde	-0.05691325
117	0xb781c626	-1.5470268e-05
118	0x3bb697be	0.0055722883
119	0xb9221310	-0.00015456625
120	0x3c15e88f	0.009149685
121	0x385a416f	5.203619e-05
122	0xbb738e88	-0.0037163813
123	0x32c3f7db	2.28137e-08
124	0x3c007d11	0.007842318
125	0x3dd59089	0.104279585
126	0xbe34c703	-0.17654042
127	0x3bfe37c7	0.007758114
128	0xb9375ac3	-0.00017486051
129	0xbda6281e	-0.081131205
130	0x3b89caf2	0.004205101
131	0x3a9fdb2b	0.0012196054
132	0xbb2d0b1a	-0.0026404322
133	0xbc509f3f	-0.01273328
134	0xbb28ec15	-0.0025775481
135	0x3b201131	0.002442431
136	0xbe561bd9	-0.2090906
137	0xb9445fe6	-0.00018727742
138	0xbbcf60f6	-0.0063286973
139	0xbb2d3c38	-0.0026433598
140	0x3af452b8	0.0018640375
141	0xbb718f4e	-0.0036859098
142	0xbbb08f3e	-0.0053881695
143	0x35493774	7.495903e-07
144	0xbc2910cb	-0.010318945
145	0x3c1d1b25	0.009588991
146	0xbd52470b	-0.051337283
147	0xba837be1	-0.0010031426
148	0xbb152583	-0.0022757954
149	0xbc388b42	-0.01126367
150	0xbbf46c07	-0.007459167
151	0x3b8ce9e4	0.004300343
152	0xb420d255	-1.497768e-07
153	0x3bae03af	0.0053104977
154	0x3b419b91	0.0029542188
155	0x3b903d21	0.0044018184
156	0xba42a841	-0.00074255845
157	0xb852dffb	-5.02765e-05
158	0x3c10eb47	0.008845157
159	0x3ca7a8b5	0.020466188
160	0xbb7af293	-0.0038291558
161	0xba2789dc	-0.0006391087
162	0x3bf8ff1c	0.007598771
163	0xbb4567c9	-0.0030121675
164	0x3b9de1f1	0.004818194
165	0xb90d58da	-0.00013479908
166	0x3b986fd9	0.004652005
167	0x3833dc46	4.288207e-05
168	0xbbf73a5b	-0.0075447983
169	0x3bf8bd7d	0.007590948
170	0xbb275026	-0.002552995
171	0x3ddde5ea	0.10834868
172	0xbbc0c890	-0.005883284
173	0xbb8ea9c4	-0.0043537337
174	0x3ab95ca8	0.0014141994
175	0x3d9ed15d	0.077547766
176	0x3b2e55c8	0.0026601423
177	0x3c0c0275	0.008545508
178	0xba291ceb	-0.00064511475
179	0x38389563	4.4008146e-05
180	0x3da0b952	0.07847847
181	0xbb89c287	-0.0042040977
182	0xbbb58304	-0.0055393
183	0xbbcab66c	-0.006186297
184	0xbab65a8f	-0.0013912487
185	0x3c07de76	0.008292785
186	0x3bd594cb	0.0065179816
187	0xba5d2536	-0.0008436026
188	0x3a47f985	0.0007628429
189	0xb9bbadb9	-0.00035796853
190	0x3b2324cc	0.0024893759
191	0x3b75319e	0.0037413607
192	0x3b0b1f41	0.0021228346
193	0xbc0445d0	-0.008073285
194	0xbb599aee	-0.0033203918
195	0xba893a97	-0.0010469732
196	0x3c01c7db	0.007921184
197	0xb8d46557	-0.00010127824
198	0xb7c2d162	-2.3224104e-05
199	0xbc792c08	-0.015208252
200	0xbd9324c3	-0.07184746
201	0xb9dfbc14	-0.00042674004
202	0xbaf07005	-0.0018343931
203	0xb9e933ab	-0.0004447972
204	0xbaea1a4c	-0.001786062
205	0x3cb8f7b6	0.022579055
206	0xbbdd0c7f	-0.0067458744
207	0xbb1ec7d5	-0.0024227996
208	0x3bcac62e	0.0061881756
209	0xba5ed0db	-0.000849975
210	0xbd2d083b	-0.042244177
211	0x3c0a1eb1	0.008430169
212	0xb6628d44	-3.3758852e-06
213	0x398e2e62	0.00027118908
214	0x3747613b	1.18839625e-05
215	0xbbadf1d6	-0.00530837
216	0x3b9ca160	0.0047799796
217	0xbb4b0a3a	-0.0030981437
218	0x3c1a2b95	0.009409805
219	0x3c05d615	0.008168717
220	0x3c07b290	0.008282319
221	0xbbddec49	-0.006772552
222	0xba9daa59	-0.0012028917
223	0xbc2f22ba	-0.010689432
224	0x3a93e3f8	0.001128315
225	0xb940ccfe	-0.00018386912
226	0x38381ea0	4.389754e-05
227	0xbaaba03a	-0.0013094016
228	0xbc87405d	-0.016510183
229	0x3bb73dc6	0.0055920808
230	0x3a9f3628	0.0012146877
231	0xb9f616ce	-0.00046937767
232	0xbabb4b40	-0.0014289394
233	0x3b966e36	0.004590775
234	0xbb5f0de5	-0.0034035381
235	0xbb36f696	-0.0027917973
236	0x3afd0d78	0.0019306382
237	0x3a6ce9f5	0.0009037548
238	0xb7fb6bca	-2.9971725e-05
239	0x3b86437d	0.0040974007
240	0x3aff0e06	0.0019459135
241	0x3b80c1b5	0.0039293417
242	0x3a9ceb3d	0.0011971962
243	0x3c316466	0.0108271595
244	0xbab8698f	-0.0014069545
245	0x3c41dd1f	0.0118325045
246	0xbc620d7d	-0.013797161
247	0xb72dafb4	-1.0352513e-05
248	0xbb965176	-0.0045873476
249	0x3b6c3634	0.003604305
250	0xbc4fd872	-0.012685882
251	0x3dd973f8	0.106178224
252	0x3bc3755c	0.005964918
253	0xba144826	-0.0005656503
254	0xbc602719	-0.013681197
255	0x3954a944	0.00020280952
