cv_steps/tabnet_raw_step1_fold4_1/network.pt (torch, 682379 bytes, 56 tensors)

embedder.embeddings.0.weight f4 [3, 1]
000000 76 59 a9 3c 65 05 cb 3d 2d 7a 06 be
       0.020672541 0.09913138 -0.13132544

embedder.embeddings.1.weight f4 [2, 1]
000000 11 67 e0 3c 0b 54 e0 bc
       0.027392896 -0.027383825

tabnet.initial_bn.weight f4 [1038]
000000 4a 2c f8 3d c9 08 04 be 26 ac 56 3b ea 36 cb 36
       0.121178225 -0.12893976 0.0032756417 6.0562643e-06
000010 19 9f 9a bd c8 c4 f4 3d db c2 0e 3a 5b c3 43 3b
       -0.07549877 0.119515955 0.0005445906 0.002987108
000020 62 2e 84 b8 11 e7 bc 3c c4 68 80 3e 96 5a 08 bb
       -6.30289e-05 0.0230594 0.2507993 -0.0020805947
000030 6f 57 90 3b 0f 5d 88 3d 6e 1f db 3d fc c6 fb 3d
       0.004404954 0.066583745 0.10699354 0.12293813
000040 aa 00 4e 3e 85 bc 19 3e 6e 99 0f 36 46 ea b4 37
       0.20117441 0.1501332 2.1397968e-06 2.1566764e-05
000050 e4 bc a2 bc f2 88 24 3e 6a f5 84 3e fc fa 74 3c
       -0.01986546 0.16067865 0.25968486 0.014952417
000060 23 01 3f 3e 92 8b 19 3e cc 2e 23 3e 2c a9 05 3e
       0.18652777 0.14994648 0.1593582 0.13052815
000070 5c 42 46 3d 69 a7 1d 3e c3 a5 15 3e d0 ff 82 3e
       0.04840313 0.15395893 0.14614014 0.25585794
000080 dd 13 80 3e 07 d9 be 3d 8a 3c 09 3c c3 a1 45 3e
       0.25015154 0.093187384 0.00837625 0.19299988
000090 98 2e 9a 3c 87 29 92 3d 11 38 d3 3d c6 db 75 3d
       0.018821046 0.07136827 0.10313428 0.060024045
0000a0 28 90 f7 3d 6b c2 01 3e 5d ff 3d 3e 9a 6e 54 bb
       0.120880425 0.12671821 0.18554445 -0.0032414556
0000b0 b7 7c 61 3c 27 1e b6 3d 16 28 c9 3d 0d d7 13 3e
       0.0137626445 0.0889247 0.09822099 0.14437504
0000c0 4c da 54 ba f2 7b 33 3e 62 1b 6d 3e 87 7d 16 3e
       -0.0008119687 0.1752775 0.23154977 0.14696322
0000d0 ba a2 83 3d 85 69 4a 3e d5 79 21 3e 3b ad dc 3d
       0.06427522 0.19766815 0.15769131 0.107752286
0000e0 c3 58 6e 3e 75 dc 24 3d d1 5a 2f 3e 43 8e 73 3e
       0.23276047 0.040249307 0.17124487 0.23784737
0000f0 4e 01 1b 3e 68 f8 dc 37 aa c1 4e 3e 44 ef 1a 3d
       0.15137216 2.6341717e-05 0.20191064 0.037825838
000100 23 e5 5b 3e d0 52 59 3e 09 87 39 3d d8 f1 1f 3e
       0.21474127 0.21222997 0.045294795 0.156196
000110 c7 04 8c 3c 58 20 ad 3a 53 3c 5a 3e 40 18 3b 3e
       0.017092122 0.0013208492 0.21312074 0.1827097
000120 aa e6 a2 3d f6 b1 47 3e f4 40 af 3d 63 19 05 3e
       0.07954152 0.1950148 0.08557311 0.12997966
000130 75 52 eb 3d 34 32 dc 3e 6c f7 1f 38 15 27 a9 3d
       0.11490337 0.43007052 3.8138984e-05 0.082594074
000140 11 c9 ff 3d 86 72 2c 3b 88 f0 95 34 37 7a a9 3d
       0.12489522 0.0026313378 2.7928422e-07 0.08275264
000150 c1 ff bd 3d 21 03 37 3d 10 3f 18 3e 8b da 55 3d
       0.09277297 0.04468072 0.14867806 0.052210372
000160 58 c5 04 3e 85 d7 b2 38 04 ae 1e 3e a7 b5 f2 3d
       0.12965906 8.527845e-05 0.15496069 0.11851054
000170 d2 82 38 3e 76 c0 88 3e 84 e0 06 3e 4c 66 20 3e
       0.18018654 0.26709336 0.13171583 0.15664023
000180 ec b8 0a 3e 91 8f 66 3c 31 c3 80 3d b2 35 0d 39
       0.13547105 0.014072315 0.0628723 0.00013466811
000190 c7 d8 a0 3d 79 1d 1d 3e 0f b8 a1 3e 47 16 c0 3d
       0.07853847 0.15343274 0.31585738 0.09379249
0001a0 f6 ca 35 3e 0f 1e 3d 3e bf 9f c8 3d f8 fc 0b 3e
       0.17753205 0.18468498 0.09796094 0.13670719
0001b0 5c d4 50 3e af f2 bf 3d ac c7 ca 3d 78 71 c1 3c
       0.20393509 0.0937246 0.09901366 0.023613676
0001c0 9d e1 76 3a 9f 1c e8 3d 73 5f 86 3d 2c 40 7f 3d
       0.0009417774 0.11333584 0.06561174 0.06231706
0001d0 3a 92 0e 3e b5 f6 00 3c 36 88 08 3e c1 f5 82 3e
       0.13922969 0.00787132 0.1333321 0.2557812
0001e0 7b 4f 46 3e 27 cf 99 bd 39 6a e4 3d 31 23 08 b9
       0.19366257 -0.07510214 0.11153073 -0.0001298308
0001f0 cf a2 7b 3e 16 0c 34 3e 42 6e 10 3e 0d f5 c1 3d
       0.24573825 0.17582735 0.1410456 0.09470568
000200 25 b8 20 bb 08 28 03 3e 13 dc 1c 3e 85 75 39 3d
       -0.0024523821 0.1280824 0.15318327 0.04527809
000210 cb 58 45 3e 55 f4 cd 38 13 59 96 3c 1c 82 27 3e
       0.19272153 9.820672e-05 0.01835302 0.16358227
000220 7e 7e 8f 3d 42 6c f1 3d c4 8e 40 3e 10 d7 2a 3e
       0.07006548 0.11788227 0.18804461 0.16683602
000230 2a db 78 39 34 b8 2c 3e b2 e5 15 3e b4 c1 71 3d
       0.00023732768 0.16867143 0.14638403 0.05902262
000240 82 89 35 3e 53 93 f7 3d 40 d2 16 3e 19 fa e9 3d
       0.17728236 0.12088647 0.14728642 0.114246555
000250 f3 9f cf 3d 6f 8c 3e 3e d7 ca 2c 3e cf 48 3b 3e
       0.1013793 0.18608259 0.16874252 0.18289493
000260 d8 8b e5 3b 1e 04 10 3e 52 58 0b 3e 07 16 b1 3d
       0.007005196 0.1406407 0.1360791 0.086467795
000270 04 54 d3 3d 59 0a 23 3d 2a 31 44 3e 77 d0 8d 3e
       0.10318759 0.03980479 0.1915938 0.2769811
000280 d4 3e 93 3e 8f 7c de 3d 7d 67 1a 3e c0 88 06 3e
       0.28758872 0.108636014 0.1507854 0.13138103
000290 f3 ba 13 3e 6b 44 31 3d 4d e6 8b 3e 9f 1b 0b 3e
       0.14426784 0.04327814 0.27324143 0.13584755
0002a0 b6 9d 47 3e d7 7b 01 3e 60 dc 02 3e 0d 2b 57 3e
       0.19493756 0.12644897 0.12779379 0.21012516
0002b0 e6 32 f5 3d 30 c1 19 3d e9 d1 9e bd 97 38 74 3e
       0.11972599 0.037537754 -0.07754881 0.23849712
0002c0 b4 05 1b 3e cd fd bd 3e dc 55 9b 3b d5 42 53 3b
       0.15138894 0.37107697 0.00474046 0.003223588
0002d0 ba fa a8 3e fa 36 3f b8 7e 33 8e 3d 90 66 05 3e
       0.3300379 -4.558915e-05 0.06943415 0.13027406
0002e0 f6 0b e3 3c e1 af 58 3e af e5 29 bb 29 00 b5 3d
       0.027715664 0.21160842 -0.0025924256 0.08837921
0002f0 b4 2d c0 3c 18 4a 36 3e 9e 8d e3 3d e7 81 a5 3d
       0.023459293 0.17801702 0.11110996 0.080814175
000300 68 67 0c 3e 91 be da 3d f4 55 fc 3d 8b 6b c2 ba
       0.13711321 0.10680879 0.12321082 -0.0014833076
000310 26 be f6 3a 47 97 78 3d 68 ec 5f ba c6 c4 de 3d
       0.0018824979 0.060691144 -0.0008542002 0.10877375
000320 b0 ff 99 3c 48 c7 1a 31 ab f4 76 3d c9 fa 5c 3e
       0.01879868 2.2523228e-09 0.060291927 0.21580042
000330 fb e0 91 3e ed 26 65 3e 3f 7d 2b 3d 8b 48 04 3e
       0.2849196 0.2237813 0.04186749 0.12918298
000340 5d bf a0 3c e3 ac 9a 3e 49 64 d8 3d 94 f7 47 3e
       0.0196225 0.30210027 0.10566003 0.19528037
000350 0f 1a 2c 3e 22 cd f6 3d 18 01 1f 3e b3 6d 1c 3e
       0.16806816 0.12050845 0.15527761 0.15276222
000360 40 3a d4 3d 89 59 5f 3e 25 6d 4c 3e 4e fb 51 3e
       0.10362673 0.21811499 0.1996351 0.20506021
000370 1d 43 8e 3d 55 05 1b 3e ec 59 27 3e 57 25 42 3e
       0.069463946 0.15138753 0.16342896 0.18959557
000380 7f af 0c 3e cf 16 8e b4 54 19 8d 3b 71 20 70 3e
       0.13738821 -2.6466157e-07 0.004305998 0.23449875
000390 c4 29 20 3c cf 16 13 3e 70 ec 1b b9 f3 d4 24 33
       0.009775583 0.1436417 -0.00014870032 3.83779e-08
0003a0 55 98 5e 3d ca a4 89 3e f4 2f 57 bc 25 97 7f 3e
       0.054344494 0.26883537 -0.0131339915 0.24960001
0003b0 9f 57 fb bc 98 2d 53 3e 5f 33 2d bd e5 52 2f 3e
       -0.03068143 0.20622861 -0.04228532 0.17121466
0003c0 0e cd 5b 3b 20 4c 3e 3e b5 c5 b4 b9 26 aa 62 3e
       0.003353897 0.18583727 -0.0003447958 0.22135219
0003d0 6d 0e 44 3e eb 10 ac 37 d5 aa 41 3e 2f 2c 8a 3d
       0.19146128 2.0511876e-05 0.18912823 0.067467086
0003e0 88 61 83 3d e2 71 aa 3d 6c 69 3f 3e 8f b3 7b ba
       0.06415087 0.08322503 0.18692559 -0.00096016465
0003f0 7c f4 81 3d 0e 1c 7f b7 ce 71 25 3e e0 50 1b bc
       0.0634546 -1.5205716e-05 0.16156694 -0.009479731

tabnet.initial_bn.bias f4 [1038]
000000 7a 4e 9a ba 2b da b2 b8 9e fb 93 3e a7 f0 ae 31
       -0.0011772655 -8.5283384e-05 0.28902906 5.0914255e-09
000010 de 60 d1 b7 47 05 03 b9 53 f1 d5 35 23 95 8c 34
       -2.4959849e-05 -0.000124951 1.5939971e-06 2.6185543e-07
000020 86 43 8f b3 89 ae 9d b6 72 65 84 b9 5f 6f 5e 36
       -6.671239e-08 -4.699283e-06 -0.00025252585 3.3145404e-06
000030 9e 4a 04 b7 f7 5a 39 38 f0 5c 07 39 b3 5e 03 b8
       -7.885186e-06 4.4192155e-05 0.00012909225 -3.132103e-05
000040 08 62 d3 b7 7a 62 be b9 e7 00 90 30 af 69 9a 33
       -2.519881e-05 -0.00036312995 1.0477635e-09 7.1904076e-08
000050 88 21 97 3e 15 51 8f b9 22 39 18 b9 0c f2 90 37
       0.2951777 -0.00027335496 -0.00014517133 1.727885e-05
000060 6b d7 79 38 9a e1 5a 38 8f e8 4e b8 1e c9 0d b7
       5.956685e-05 5.2185358e-05 -4.9330814e-05 -8.451081e-06
000070 fb fe c9 b7 8d 27 90 b8 b3 a6 b0 b7 f4 93 5c b9
       -2.4079802e-05 -6.873822e-05 -2.105846e-05 -0.00021035952
000080 eb 00 a2 b8 ba da 2f 38 77 10 b0 37 4e 1c 21 38
       -7.724933e-05 4.1926956e-05 2.0988502e-05 3.8411752e-05
000090 9c 93 83 3e 43 a6 2f 36 47 a8 be 3e 6c ea bf 3e
       0.25698555 2.617381e-06 0.3723776 0.37483537
0000a0 d3 67 0c 36 d0 df 8a b8 c8 53 84 38 30 75 6d be
       2.092206e-06 -6.622041e-05 6.309856e-05 -0.23189235
0000b0 6e 5d f7 36 26 19 2d 39 73 90 b5 37 12 c4 48 b8
       7.3720503e-06 0.00016507934 2.1644146e-05 -4.786632e-05
0000c0 f2 ca c1 35 96 86 ad b7 ae fa 00 39 98 15 ba 38
       1.4438685e-06 -2.0685879e-05 0.00012300417 8.873193e-05
0000d0 f6 32 1d 38 c1 c1 eb b4 c1 7c cd 36 11 3a fe b8
       3.7479178e-05 -4.3913136e-07 6.1239994e-06 -0.000121224795
0000e0 7b 3d 4c b9 06 04 9a b7 f2 3e aa 37 73 73 de 35
       -0.0001947786 -1.8360104e-05 2.029489e-05 1.6573889e-06
0000f0 63 aa 30 38 4a f2 e2 30 f1 58 6a b7 93 f5 ce 38
       4.2120355e-05 1.6512527e-09 -1.3968195e-05 9.868587e-05
000100 5d 90 28 38 0e e6 c7 39 30 2b 95 b8 4c 88 19 ba
       4.018877e-05 0.00038127642 -7.112918e-05 -0.00058567966
000110 57 ff 8a b6 86 42 d2 b5 bd a7 ec 37 5b c9 f1 3d
       -4.142446e-06 -1.566558e-06 2.8211502e-05 0.11805984
000120 84 b4 00 3f 69 30 19 3e 4e 78 cb 38 f1 a9 78 38
       0.50275445 0.14959873 9.702203e-05 5.9286078e-05
000130 32 49 38 be a8 0a 94 39 38 ec 8f 34 a4 30 90 b7
       -0.17996672 0.000282367 2.6807697e-07 -1.7188788e-05
000140 7c 6a 05 b9 77 56 9e b7 bf 19 15 af 37 89 04 3a
       -0.00012723537 -1.8875331e-05 -1.3560618e-10 0.0005055847
000150 26 b8 9e b6 3d 79 27 b8 76 85 92 b6 b9 04 65 38
       -4.7302046e-06 -3.9928815e-05 -4.366676e-06 5.4602253e-05
000160 58 e2 9e b7 25 e1 6f 34 c2 9f 05 b9 52 56 15 36
       -1.8940467e-05 2.2340517e-07 -0.00012743383 2.2252975e-06
000170 41 28 b1 b8 ed 3c a7 b9 87 f6 53 b8 bb e7 1b 3b
       -8.4475156e-05 -0.00031898115 -5.0535917e-05 0.0023789245
000180 77 f4 27 37 ce ac b7 b7 cb 62 bf b7 bd 95 0a 32
       1.0010895e-05 -2.1895768e-05 -2.2814978e-05 8.066704e-09
000190 19 7e a0 38 82 2f f6 b7 35 1f e2 38 ca 85 ab b7
       7.652882e-05 -2.9347608e-05 0.000107823325 -2.0447089e-05
0001a0 73 dd f2 b8 31 78 b2 38 2f 77 85 b6 18 c8 cf b8
       -0.00011580707 8.510089e-05 -3.9775837e-06 -9.9077995e-05
0001b0 b0 ae 8f b8 d6 e1 81 b8 1c 27 1c b8 e6 38 b3 3e
       -6.8513094e-05 -6.1932646e-05 -3.722972e-05 0.35004348
0001c0 02 5e a6 b5 af 5b 6b be 9e 09 59 38 5b 4b b3 38
       -1.2395324e-06 -0.22984193 5.174579e-05 8.549421e-05
0001d0 53 f7 48 38 fc 3f 18 b7 c1 64 d9 37 d0 3d 8a 3e
       4.7914054e-05 -9.0748035e-06 2.5915333e-05 0.27000284
0001e0 b5 f0 af 37 96 ea 46 37 46 4e 90 38 5d 6f 1b b4
       2.0973714e-05 1.18563385e-05 6.881035e-05 -1.4476014e-07
0001f0 65 c4 3d 38 e2 2e 0c b8 78 78 45 b8 f7 42 29 38
       4.5244018e-05 -3.3422264e-05 -4.7080655e-05 4.0355106e-05
000200 3c 4b 27 37 cb 77 a9 be ad 70 06 37 cf 4e 39 b8
       9.971493e-06 -0.33099207 8.013257e-06 -4.4180833e-05
000210 de e8 02 3a e4 c0 6a 34 3c a4 77 37 fc 24 0e 38
       0.00049938064 2.1863121e-07 1.4760586e-05 3.3889883e-05
000220 b7 2b a9 37 e6 ad d4 38 a5 5a 50 ba dc a8 99 38
       2.0166726e-05 0.00010141339 -0.00079480774 7.327061e-05
000230 52 37 de 35 9a fe e9 b7 7e 3f 93 bc ef 74 10 b8
       1.6556389e-06 -2.7894323e-05 -0.017974611 -3.444118e-05
000240 56 7b 26 3c c1 6e b2 b7 66 ab 9e 3c 17 ee b0 35
       0.0101612415 -2.1270827e-05 0.019368839 1.3182315e-06
000250 4b cd c4 36 07 52 ad 36 6b 7d 9e 38 68 72 7d b9
       5.8651544e-06 5.165351e-06 7.557388e-05 -0.0002417058
000260 5c ad 16 b8 65 63 9c b8 3b 3d fe 37 ea d4 1f 38
       -3.592424e-05 -7.457173e-05 3.0307672e-05 3.8106846e-05
000270 fc 3f 48 38 28 4c 26 ba 31 45 36 3d bc 57 a8 3d
       4.7743306e-05 -0.00063437456 0.04449958 0.08219859
000280 38 3a 38 b9 a8 6e c7 b7 51 8f b6 b7 61 20 ca b7
       -0.00017569296 -2.3774177e-05 -2.1762828e-05 -2.4095354e-05
000290 b7 7e a5 b7 80 ca 9a 36 6f 6a e5 b8 6b 1e a9 37
       -1.9728539e-05 4.6131318e-06 -0.00010939396 2.0160534e-05
0002a0 7b 27 31 38 fd f4 ff be 30 f3 27 b8 97 9c 07 37
       4.2236858e-05 -0.499916 -4.004239e-05 8.083086e-06
0002b0 86 0d e5 39 4c d9 39 b8 45 f9 20 36 e1 cf 8f 38
       0.0004368836 -4.430981e-05 2.3986952e-06 6.857492e-05
0002c0 96 7c c8 b7 71 9f 57 38 45 33 73 37 9a 8e c4 35
       -2.3899873e-05 5.1408486e-05 1.4495866e-05 1.464464e-06
0002d0 61 e2 7a 39 b3 5b d6 31 7c ef 08 38 a3 8e 85 35
       0.0002392619 6.2386447e-09 3.2647964e-05 9.950785e-07
0002e0 3a 42 03 b8 9f 10 bf bd e9 f7 3c 36 a0 4c 19 39
       -3.1294512e-05 -0.09329342 2.8158486e-06 0.00014619762
0002f0 df 21 f6 36 4c 32 77 b8 e7 7d c2 37 0c f8 1a 37
       7.3353144e-06 -5.893623e-05 2.318523e-05 9.236868e-06
000300 fc 5f 38 3a a0 b8 5a b8 7f 6f ab b7 a4 b3 2d b5
       0.0007033346 -5.2147196e-05 -2.0436708e-05 -6.4708934e-07
000310 79 f3 27 33 71 3a 3d 37 c0 dd 41 38 99 01 a3 38
       3.9104155e-08 1.1278885e-05 4.6221307e-05 7.772743e-05
000320 97 e5 5a 35 84 ac 10 2c ef 8e 17 b9 50 52 26 b8
       8.1545426e-07 2.0559396e-12 -0.00014453729 -3.9654144e-05
000330 65 da 1e 3e 1f 35 25 38 2b 83 99 b7 2d 21 f0 38
       0.15512998 3.938854e-05 -1.8300101e-05 0.00011450271
000340 50 80 b5 36 81 e4 2c 39 c9 ad 69 b8 e5 5b a7 b8
       5.409158e-06 0.00016488323 -5.571338e-05 -7.980297e-05
000350 e6 77 8e b8 b6 85 3b 38 3a 85 2f 38 6a d4 aa 37
       -6.7934205e-05 4.4708802e-05 4.184733e-05 2.0364492e-05
000360 c0 90 6b b9 35 9e 1d b9 40 06 74 b8 98 25 fa 38
       -0.0002246527 -0.00015031623 -5.8179954e-05 0.00011927931
000370 d6 19 d6 37 a0 1b 1d 37 7e ae 15 b8 78 bb 2f b8
       2.5522819e-05 9.364361e-06 -3.5686877e-05 -4.1897845e-05
000380 c9 86 e4 37 9d b6 3e b0 ee c0 88 36 15 a4 08 b7
       2.7242482e-05 -6.9381106e-10 4.075576e-06 -8.144435e-06
000390 d0 31 86 be d3 2f aa bd 2a 80 1e b6 b1 63 3d 2e
       -0.2620988 -0.08309903 -2.3618436e-06 4.306217e-11
0003a0 a0 1b 95 38 8c 28 fc 39 aa da 4e 37 c6 16 90 b8
       7.110019e-05 0.00048095395 1.23294685e-05 -6.870697e-05
0003b0 e6 bb e1 3e ab 98 71 38 4c fd af 3e a3 a6 e8 b8
       0.44088668 5.760106e-05 0.34372938 -0.000110936606
0003c0 13 75 c9 34 8d 8a a3 38 cc 36 19 b4 c6 3c 26 b9
       3.752435e-07 7.798253e-05 -1.426917e-07 -0.00015853634
0003d0 ec a9 9c 38 96 2b 01 b2 4f 97 82 b8 32 37 b4 36
       7.47031e-05 -7.5186986e-09 -6.2270665e-05 5.3708436e-06
0003e0 be 18 f0 b7 ae 1e 1b b8 a9 b3 b9 b9 2e 3c a8 b3
       -2.8621751e-05 -3.6983452e-05 -0.00035419807 -7.834056e-08
0003f0 33 c7 41 37 2c 55 13 b2 81 e7 b2 38 09 14 94 3e
       1.1550076e-05 -8.575892e-09 8.5308224e-05 0.28921536

tabnet.initial_bn.running_mean f4 [1038]
000000 df 9f 9b ba 45 68 3e 3a fd b4 03 39 71 99 d3 b9
       -0.0011873207 0.0007263462 0.00012560557 -0.0004035938
000010 f0 4d d5 3a 85 12 aa ba 8c 42 a1 3a bf 7b 92 bb
       0.0016273838 -0.001297549 0.0012303158 -0.004470318
000020 45 a4 01 3b b0 4a ed ba 49 3f 4a bc 90 22 ad 39
       0.001978175 -0.0018103924 -0.01234419 0.00033022882
000030 f2 21 df 3a fe 28 af 3b 62 86 87 3b 87 a8 94 3b
       0.0017023666 0.005345463 0.0041358927 0.0045366916
000040 41 ec c3 3b 9f 90 4f bb a0 ec ad 3a 92 7d af ba
       0.0059790914 -0.0031671894 0.0013269372 -0.0013388863
000050 2a 31 08 3b a2 80 b9 bb 1c 40 3b ba b2 72 b8 bb
       0.0020781257 -0.005661086 -0.0007143037 -0.005628907
000060 fe 25 6c 3b e6 db 3e ba af 39 05 3b 2d 80 aa 39
       0.0036033387 -0.0007280692 0.0020328572 0.00032520425
000070 1d a1 99 38 f3 8f b9 3a 03 4d d1 ba 58 c9 cf 3a
       7.325618e-05 0.001415728 -0.0015968386 0.0015852852
000080 14 e7 9f 39 9d 40 63 3c d4 62 5d bb e7 96 a1 3b
       0.0003049901 0.0138703855 -0.003378083 0.004931319
000090 10 69 84 3b 5f 43 12 3b f5 fb 14 bb f4 71 2f bd
       0.0040408447 0.0022317988 -0.0022733186 -0.042833284
0000a0 97 25 e5 3c 47 d8 46 3b 20 9a 1c bc 4c 02 cb b9
       0.027972026 0.0030341314 -0.009558231 -0.0003872089
0000b0 9a bb 10 bb 9a 30 c1 ba 36 f2 03 3b 18 b8 cc 3a
       -0.0022084475 -0.0014739216 0.0020133383 0.0015618829
0000c0 5f d3 16 3a c0 e0 3a bb db 7b b9 3b ab 3f 2f ba
       0.00057535426 -0.002851531 0.0056605167 -0.00066852075
0000d0 eb 42 3e bd 7b 82 55 ba 1d 7b bd 3a 44 96 cb 3a
       -0.046450537 -0.0008144748 0.0014456246 0.0015532454
0000e0 9c 95 55 3b fb f2 40 ba a0 0b 0b bb 86 cb 87 3b
       0.0032590395 -0.00073604257 -0.0021216646 0.004144135
0000f0 ee 5d ad bc cf d4 38 bb 77 8e 5b bb 6a 44 2e bb
       -0.021162953 -0.0028203016 -0.0033501664 -0.002659107
000100 e3 fb 1f bc a1 64 30 bc 55 5d a1 3a 5f 06 7f 3b
       -0.009764644 -0.010766179 0.001231114 0.003891371
000110 64 5b 3e bb 97 11 5d bd 0f 8b 48 ba 70 62 f5 ba
       -0.0029046172 -0.053971853 -0.0007650116 -0.0018721353
000120 3e 94 82 bb 7a 72 f7 39 0f 45 91 bc 3b d6 b8 39
       -0.003984957 0.00047196803 -0.017733125 0.0003525483
000130 54 3f 03 3c 90 2a 3a bd 42 e7 59 bb c4 d4 7f 3b
       0.008010704 -0.045450747 -0.0033249413 0.003903673
000140 90 b9 a0 bb 74 d3 34 3a 50 e3 12 3a 4a 4c b5 3b
       -0.0049049333 0.0006897964 0.000560333 0.005532776
000150 37 c7 9b bb 67 46 79 3a 05 49 eb 3a 76 af aa ba
       -0.004753973 0.0009509087 0.0017950839 -0.0013022262
000160 e1 63 78 3b 8e 48 a3 3a 44 1c bf bb 25 f6 e1 3a
       0.003790133 0.0012457536 -0.005832227 0.0017239494
000170 e8 4d 2f 3a b3 83 d2 3b 27 ab ca ba 53 65 b4 bb
       0.0006687329 0.006424391 -0.0015462384 -0.005505243
000180 60 fe 68 3b 59 72 d6 3a 37 f6 10 bc ed ce a8 3b
       0.003555201 0.0016360983 -0.008847765 0.0051516206
000190 f2 6a e1 bb 20 06 82 3a 83 f2 65 3c 1d c8 f8 ba
       -0.006879204 0.0009920038 0.01403487 -0.0018980537
0001a0 08 81 63 ba 81 0f cd bb 08 30 da b8 24 4e 12 bb
       -0.000867859 -0.0062579517 -0.000104039966 -0.0022324407
0001b0 36 49 9f 3b 0e 24 fb 39 5a ab 1b bb c0 4f 0a 3b
       0.0048610223 0.00047901314 -0.0023753257 0.0021104664
0001c0 d1 12 37 ba cf 8e 60 3b b5 06 36 39 a7 29 95 bc
       -0.00069837 0.0034264808 0.00017359371 -0.018208338
0001d0 a5 6c 01 3b ac f2 48 ba 0c d1 7d bb b2 cd 09 ba
       0.0019748595 -0.00076655555 -0.0038729338 -0.0005256786
0001e0 4c bc 5b bb b1 f2 d1 ba 0b 8b a1 3b c9 01 3f bb
       -0.0033528982 -0.0016017762 0.0049299053 -0.002914535
0001f0 cf 03 af ba e9 25 d5 3c 25 84 b1 38 13 7c 31 3b
       -0.0013352575 0.026019054 8.4646315e-05 0.002708201
000200 53 20 ff 39 68 dd c4 b8 47 d7 83 bc d6 e2 53 3b
       0.00048661474 -9.3872484e-05 -0.016093863 0.003233125
000210 2d 17 01 3c d3 40 f6 3c c0 56 9e 3b c2 29 24 bb
       0.007879061 0.030060207 0.0048321187 -0.0025049304
000220 c0 71 f4 b9 92 80 c3 ba 19 c4 36 bb 61 00 a0 3b
       -0.00046624057 -0.0014915636 -0.002788788 0.0048828577
000230 73 26 3c bb fc 63 da 3a ac 5f 92 39 27 03 68 3b
       -0.002870944 0.0016661878 0.0002791857 0.003540227
000240 9d 67 c0 3a 72 e2 63 3b 3f 9d d6 3b fd 35 65 3b
       0.0014679317 0.0034772423 0.006549507 0.0034974806
000250 f8 a3 65 3b 16 99 4d 3c ea 93 55 3b 3a 72 ca ba
       0.003504036 0.012548706 0.0032589384 -0.0015445419
000260 7c b4 5e 3b 89 b0 6e ba 58 aa e7 bb 6a 74 dd 3b
       0.0033982089 -0.0009105285 -0.007069867 0.0067582624
000270 44 4f 78 3b cf c7 6c 3b 90 3a 01 bb c0 37 f0 3b
       0.0037889043 0.0036129837 -0.0019718744 0.0073308647
000280 81 6d b0 3c 8c c8 31 bb d7 15 68 bb a0 d1 0a bb
       0.02153659 -0.0027127592 -0.0035413408 -0.0021182075
000290 f2 cb e9 3b c1 46 15 3c 79 9a fc 3b 42 94 1f ba
       0.007134908 0.009111107 0.0077088443 -0.0006087461
0002a0 f8 cb b8 ba c3 a1 53 ba 83 5e ed 3b d3 de 30 3b
       -0.0014098873 -0.00080731156 0.0072439327 0.0026988282
0002b0 53 84 c7 3b 41 9d f5 b9 b1 78 4b 3b f9 79 5b 3b
       0.0060887723 -0.00046847205 0.003104728 0.003348945
0002c0 59 9f 92 bb 6e 8c a3 39 e4 93 33 bb 37 68 a4 3b
       -0.004474562 0.0003119441 -0.0027401382 0.005017306
0002d0 7d 3a f2 ba e6 9a 9c 3a 51 0e 24 bb 9c 32 3f 3b
       -0.0018480566 0.0011948019 -0.0025032947 0.0029174453
0002e0 19 a1 dd 39 1a 40 04 bc 18 aa b8 ba 95 5b ca bc
       0.00042272432 -0.008071924 -0.0014088778 -0.024701873
0002f0 8c d2 01 39 20 14 1f 3b 73 a2 9e 39 99 e9 88 bb
       0.00012380834 0.002427347 0.00030257142 -0.0041782376
000300 e7 3c 8c bb 45 b4 54 bb 7a 10 94 b8 a1 e7 e6 ba
       -0.004279721 -0.0032456082 -7.060259e-05 -0.0017616638
000310 a3 0c 6b ba 72 c0 8c bc 4f 3d 83 bb 2c c6 d6 3b
       -0.00089664216 -0.017181609 -0.0040051113 0.0065543856
000320 4f de 2f ba 2c fc e2 ba e3 cb 93 ba 63 1f 3e 3c
       -0.0006708847 -0.0017317585 -0.0011275973 0.011604163
000330 57 67 48 bc 86 1a 86 3b 50 8e d7 b9 cd 73 a6 ba
       -0.012231669 0.0040925173 -0.00041114027 -0.0012699306
000340 49 d3 5c 3a 66 6a 28 3b 0e ce 3e 3c 58 2b 87 3b
       0.0008423818 0.0025698184 0.011645807 0.00412504
000350 f3 63 a5 3a b8 ef 90 bb 84 92 77 3b f5 4f 06 b9
       0.0012618288 -0.004423108 0.003777654 -0.00012809022
000360 cc f7 94 ba af 76 04 3c e7 b3 bf b9 66 2f 82 3b
       -0.0011365353 0.008084937 -0.00036564397 0.0039729355
000370 0b c2 b2 39 26 c0 9b 3a 86 3a 0c 3b b2 a7 03 3a
       0.0003409538 0.0011882826 0.0021397187 0.0005022242
000380 6b 91 fa 3a 59 18 9d ba 67 34 97 ba b5 1d 92 ba
       0.0019116824 -0.0011985406 -0.0011536003 -0.0011147769
000390 7b f8 21 3c 3e 09 26 bb 13 c6 88 bd 6c 9b 01 bb
       0.0098859025 -0.0025335099 -0.06678405 -0.0019776477
0003a0 d0 c6 a1 ba bb 58 6e bb 63 72 c7 3b 22 49 67 3a
       -0.0012342576 -0.0036368805 0.006086634 0.00088228483
0003b0 e2 9a a9 ba d5 01 04 3c fc 2a 10 bb be 0d 7e bb
       -0.0012939835 0.008057077 -0.0021998277 -0.0038765515
0003c0 4f 82 88 3a 06 aa 0e bb 59 31 db ba f0 53 91 bb
       0.0010414812 -0.0021768822 -0.0016723081 -0.004435055
0003d0 3b 13 99 3b 77 29 14 3a bd 65 ca ba 40 9a c7 3a
       0.004671482 0.00056519307 -0.0015441697 0.0015228465
0003e0 d3 bb 2c bb 9d 99 29 bb ae 32 bc 3c a3 df 48 3b
       -0.002635707 -0.0025878914 0.022973385 0.0030650876
0003f0 31 b3 0e bc 55 4a 4f 3b f3 04 01 39 a1 89 b0 3a
       -0.008709715 0.0031629999 0.00012304242 0.0013468751

tabnet.initial_bn.running_var f4 [1038]
000000 f8 64 49 3c 5d 62 1b 3b b9 44 7b 3f 7c 9e 79 3f
       0.012292139 0.0023709752 0.9815174 0.9750745
000010 ca 93 78 3f 0e e3 79 3f 30 91 79 3f f5 93 78 3f
       0.9710051 0.9761208 0.97487164 0.97100765
000020 f0 4e 75 3f 56 c9 77 3f a4 62 88 3f ce de 79 3f
       0.95823574 0.9679159 1.0655103 0.976056
000030 91 41 77 3f e5 4a 7a 3f b1 b9 79 3f 84 3b 7e 3f
       0.9658442 0.9777053 0.9754897 0.99309564
000040 17 2f 7c 3f aa d8 75 3f 47 80 7b 3f f8 75 7a 3f
       0.98509353 0.9603373 0.9824261 0.97836256
000050 38 39 79 3f 65 de 77 3f aa 2d 79 3f 17 eb 76 3f
       0.97352934 0.9682372 0.973353 0.9645247
000060 39 61 77 3f b5 74 77 3f 9b 60 78 3f da ae 78 3f
       0.96632725 0.96662456 0.9702241 0.971418
000070 13 8f 78 3f b0 ab 77 3f 16 eb 77 3f 47 5f 79 3f
       0.97093314 0.9674635 0.9684309 0.97411007
000080 a8 f6 78 3f ff c4 85 3f f4 4e 79 3f dc 82 7a 3f
       0.9725137 1.0450743 0.973861 0.97855926
000090 84 42 79 3f ba 07 78 3f 4c ba 7d 3f fc 89 a5 3f
       0.9736712 0.9688679 0.9911239 1.2932734
0000a0 17 16 98 3f f8 0d 77 3f d8 2b 80 3f ea 2e 79 3f
       1.1881741 0.9650569 1.001338 0.9733721
0000b0 7d 1d 79 3f ba 3f 78 3f 27 86 77 3f 30 c6 78 3f
       0.9731062 0.9697224 0.96689075 0.9717741
0000c0 8b d3 80 3f 0e 66 78 3f c9 73 7e 3f 1c 5b 7a 3f
       1.0064558 0.97030723 0.99395424 0.9779527
0000d0 48 c7 a8 3f 4c 62 77 3f b9 8f 77 3f 21 89 7b 3f
       1.3185816 0.96634364 0.9670368 0.9825612
0000e0 57 22 7b 3f b6 89 7e 3f b6 c9 79 3f 60 bc 7c 3f
       0.98099273 0.9942888 0.9757341 0.9872494
0000f0 e6 9a 8f 3f 68 29 7a 3f 13 cf 77 3f 1c de 79 3f
       1.1219146 0.9771943 0.96800345 0.97604537
000100 01 3a 82 3f 11 fe 84 3f f5 ca 75 3f 6b b8 7a 3f
       1.0173951 1.0390035 0.9601281 0.9793765
000110 51 32 78 3f 4e 9e b0 3f 35 57 78 3f a0 6c 77 3f
       0.96951777 1.3798311 0.9700807 0.96650124
000120 c3 ae 76 3f 99 55 79 3f 4b f6 8e 3f 0e a8 79 3f
       0.96360415 0.97396237 1.1168913 0.97522056
000130 5a e6 85 3f c7 ff a6 3f a9 20 76 3f eb 32 79 3f
       1.0460923 1.3046807 0.96143585 0.9734332
000140 30 00 77 3f b6 f3 76 3f 2d e0 77 3f 99 3d 77 3f
       0.9648466 0.96465623 0.9682644 0.96578366
000150 10 ec 77 3f 1e 59 78 3f f3 42 7a 3f 50 ad 78 3f
       0.9684458 0.9701098 0.97758406 0.97139454
000160 df 01 83 3f 73 2e 7a 3f f7 54 77 3f 88 f3 77 3f
       1.0234946 0.97727126 0.9661402 0.96855974
000170 c8 c3 79 3f 20 a5 80 3f 44 72 78 3f 81 b4 78 3f
       0.97564363 1.0050392 0.97049356 0.9715043
000180 d3 4a 78 3f 7c 40 79 3f f7 3c 80 3f 02 29 81 3f
       0.9698917 0.9736402 1.0018605 1.009064
000190 53 b2 7e 3f a5 70 77 3f ca 4b 8b 3f d5 23 77 3f
       0.9949085 0.96656257 1.0882504 0.9653905
0001a0 60 3d 7c 3f 66 d6 79 3f 6b 2f 76 3f b7 04 77 3f
       0.9853115 0.9759277 0.96166104 0.9649157
0001b0 5b e7 7e 3f 4c 6c 7a 3f cc 5d 78 3f 8f 3d 78 3f
       0.9957177 0.978215 0.9701812 0.9696893
0001c0 e0 1d 79 3f db 97 7b 3f 6a 92 78 3f 56 ce 8c 3f
       0.9731121 0.9827859 0.9709841 1.1000469
0001d0 58 ba 79 3f e9 29 79 3f b0 df 78 3f d9 5b 78 3f
       0.97549963 0.97329575 0.9721632 0.9701515
0001e0 4a 30 77 3f 80 f2 76 3f 88 ce 76 3f 0d d4 80 3f
       0.9655806 0.96463776 0.9640889 1.0064713
0001f0 8c 2d 77 3f 4f 3c 96 3f 91 af 78 3f 5b e0 78 3f
       0.96553874 1.1737155 0.97142893 0.9721734
000200 22 50 7a 3f a0 4b 77 3f a0 06 8d 3f 85 3b 79 3f
       0.9777852 0.9659977 1.1017647 0.97356445
000210 42 5e 80 3f 0a 52 9a 3f 92 c2 7f 3f f4 80 7b 3f
       1.0028765 1.2056286 0.99906266 0.9824364
000220 7e e6 78 3f 9e 82 78 3f 94 d6 76 3f 13 3e 77 3f
       0.97226703 0.97074306 0.9642117 0.9657909
000230 4d 40 7a 3f ed 53 7a 3f f0 4e 78 3f 59 68 76 3f
       0.97754365 0.9778431 0.9699545 0.9625297
000240 e3 ab 7a 3f 68 56 77 3f 0c d7 80 3f 32 9a 7a 3f
       0.9791853 0.9661622 1.0065627 0.97891533
000250 85 8b 7f 3f 29 ec 82 3f 06 d5 7d 3f 3c 15 78 3f
       0.99822265 1.022832 0.9915317 0.969074
000260 8a 86 78 3f 90 77 78 3f d6 31 82 3f 5c 82 76 3f
       0.9708029 0.9705744 1.0171459 0.9629266
000270 ca c0 78 3f 8d dc 81 3f 74 ac 78 3f 19 05 7b 3f
       0.9716917 1.0145432 0.9713814 0.98054653
000280 5e 75 90 3f 8e bc 78 3f a1 81 7e 3f 6c 5c 79 3f
       1.1285818 0.9716271 0.9941655 0.9740665
000290 83 bd 78 3f 38 8c 82 3f be 7b 81 3f 5a 9e 79 3f
       0.9716417 1.0199041 1.0115888 0.9750725
0002a0 ce e8 79 3f 60 08 7a 3f 59 74 78 3f 85 23 79 3f
       0.97620857 0.9766903 0.9705253 0.97319824
0002b0 f8 14 84 3f 33 25 79 3f ff d4 7a 3f 14 38 77 3f
       1.0318899 0.97322387 0.97981256 0.96569943
0002c0 4d bd 78 3f 17 15 78 3f a3 86 76 3f 6b fe 7c 3f
       0.9716385 0.9690718 0.9629919 0.9882571
0002d0 3b b7 8a 3f 37 a7 76 3f c8 ac 77 3f 25 74 7e 3f
       1.0837168 0.963489 0.9674802 0.9939597
0002e0 d6 ca 7a 3f 78 7e 80 3f de 31 76 3f 88 7c 90 3f
       0.97965753 1.0038595 0.9616984 1.1288004
0002f0 02 e3 7a 3f 8e 32 77 3f 35 e5 78 3f a3 a0 80 3f
       0.98002636 0.96561515 0.9722474 1.0049022
000300 10 f4 77 3f db 1b 77 3f 7d 83 79 3f 64 84 78 3f
       0.96856785 0.9652688 0.9746626 0.9707701
000310 18 ae 7a 3f ee 78 8a 3f 88 18 7a 3f 5d b7 81 3f
       0.97921896 1.0818155 0.9769368 1.0134083
000320 db b5 7b 3f 53 c9 79 3f 8d 28 79 3f 72 47 88 3f
       0.98324364 0.9757282 0.973275 1.0646803
000330 00 26 8a 3f d4 79 77 3f 6e a3 7a 3f bf 84 77 3f
       1.0792847 0.9667027 0.97905624 0.9668693
000340 79 c3 77 3f 59 25 78 3f d6 ea 88 3f 48 d6 78 3f
       0.9678264 0.9693199 1.0696666 0.9720197
000350 be de 7b 3f b2 9a 77 3f 28 cf 78 3f 8c 98 7b 3f
       0.9838675 0.9672042 0.97191095 0.98279643
000360 3f 15 79 3f 9d 42 81 3f e0 bc 78 3f 32 d6 78 3f
       0.97298044 1.0098454 0.971632 0.97201836
000370 9b 45 79 3f 90 d7 76 3f d8 0c 78 3f b2 ba 77 3f
       0.97371835 0.9642267 0.968946 0.9676925
000380 cd 94 78 3f a8 07 79 3f bb bd 79 3f a3 1f 79 3f
       0.9710205 0.9727731 0.9755513 0.973139
000390 cd d7 83 3f f9 c4 76 3f 86 45 b9 3f 37 26 7a 3f
       1.0300232 0.96394306 1.4474342 0.9771456
0003a0 fb 0f 7b 3f fd 19 80 3f e1 cd 7b 3f 39 f4 76 3f
       0.9807126 1.0007931 0.9836102 0.96466404
0003b0 3b 71 7a 3f 79 bd 7b 3f f0 c1 76 3f 01 53 79 3f
       0.97829026 0.9833599 0.96389675 0.9739228
0003c0 52 33 7a 3f 70 e6 78 3f 80 62 77 3f 33 5e 78 3f
       0.9773456 0.9722662 0.96634674 0.97018737
0003d0 df 25 79 3f af 06 81 3f e3 e5 7c 3f cc d4 7b 3f
       0.9732341 1.0080165 0.9878828 0.9837158
0003e0 38 88 77 3f 50 a4 77 3f 8a 14 90 3f 72 db 7b 3f
       0.9669223 0.96735096 1.1256268 0.9838172
0003f0 97 d6 86 3f ea 6f 80 3f 71 cc 77 3f a9 0c 78 3f
       1.0534238 1.0034153 0.9679633 0.9689432

tabnet.initial_splitter.shared.shared_layers.0.weight f4 [96, 1038]
000000 d7 04 26 3b 62 a2 9f b9 9d 21 5b ba b4 fc 8f 32
       0.0025332475 -0.00030447828 -0.0008359196 1.6762307e-08
000010 d4 03 db b7 f0 f8 ff b9 83 6f 36 36 b3 9c fe 36
       -2.6108617e-05 -0.00048822863 2.7185022e-06 7.588032e-06
000020 96 12 18 34 76 8a 89 37 8b d7 5f b9 bd 34 95 b6
       1.4162865e-07 1.6396149e-05 -0.00021347233 -4.4466856e-06
000030 3c 53 21 b8 62 93 27 b9 99 64 1a 39 db 56 87 b9
       -3.846291e-05 -0.00015981265 0.0001472406 -0.0002581392
000040 ea d2 11 3a 89 ad de 38 ef 18 7f 30 8d de 50 34
       0.00055627397 0.00010618108 9.280389e-10 1.9452473e-07
000050 65 29 b2 bd d2 36 e8 b9 86 82 2e b9 99 b4 0e 37
       -0.08699302 -0.00044291333 -0.00016642557 8.505908e-06
000060 32 14 20 b9 3a 8a 97 39 5a 0d 8a b9 74 1e cc b9
       -0.00015266312 0.0002890395 -0.0002633136 -0.00038932601
000070 cb 75 8e 38 cb 58 ab b8 01 c2 20 3a 7b 01 79 b6
       6.793028e-05 -8.1704544e-05 0.00061324245 -3.7104753e-06
000080 aa f1 5a 39 81 ec ec 37 13 7a e8 38 f8 c6 d4 39
       0.00020880127 2.8243523e-05 0.0001108536 0.00040584034
000090 6c 56 07 3c b6 80 41 38 88 e7 a7 bd c3 02 81 3c
       0.008260351 4.6134657e-05 -0.08198458 0.015748387
0000a0 e5 9f b7 37 0d 2c ef b6 4c 38 83 b9 8b 5c c6 bb
       2.1889757e-05 -7.1278832e-06 -0.00025028212 -0.0060535125
0000b0 29 7f e7 37 79 34 c0 38 03 15 4d b9 51 14 72 b8
       2.759656e-05 9.165047e-05 -0.00019558151 -5.7716217e-05
0000c0 9c 67 7d b5 55 4c 8f b9 db 51 ba 39 5e 51 ad 38
       -9.4400616e-07 -0.00027331957 0.00035537672 8.264439e-05
0000d0 28 fb 2e 39 f1 3e 0a ba 88 ec 08 3a 70 a3 9d b9
       0.00016687496 -0.0005273661 0.0005223234 -0.00030067144
0000e0 53 18 84 b9 58 04 eb b8 9b 09 40 b6 ca ee 10 ba
       -0.00025195125 -0.00011206482 -2.861582e-06 -0.00055287464
0000f0 97 30 2b 38 96 b7 9e b2 46 bb 21 37 63 b3 1c 39
       4.081483e-05 -1.8477106e-08 9.639951e-06 0.00014944146
000100 7f f6 16 39 31 69 53 b9 51 a9 80 38 09 23 03 39
       0.00014396942 -0.00020161715 6.135053e-05 0.00012506185
000110 d8 bd bc b7 d4 7e 89 36 45 e3 85 38 b1 ef 6b 3b
       -2.249975e-05 4.097683e-06 6.3842665e-05 0.0036001022
000120 81 27 92 3c 35 b9 a8 bb c5 8c 19 39 c9 89 c9 38
       0.017841103 -0.0051490315 0.00014643658 9.6100914e-05
000130 51 48 93 bd 2b ba df b9 05 6f 0b 33 10 08 7e b9
       -0.07191528 -0.0004267258 3.246443e-08 -0.00024226331
000140 e2 ab ba b9 4f 2c 1e b8 69 41 f7 ad 71 50 16 39
       -0.00035604747 -3.77114e-05 -2.8109697e-11 0.00014335082
000150 11 bc 4b 39 57 97 26 b9 f1 87 db 38 45 2d 8d 37
       0.00019429649 -0.00015887372 0.00010468055 1.682959e-05
000160 85 b1 27 39 d2 29 1c b4 5a a1 c1 37 5c 00 a8 39
       0.00015992492 -1.4543846e-07 2.3082528e-05 0.00032043725
000170 16 15 91 b8 e9 b9 5b ba 9b 57 cb b5 78 08 9e bb
       -6.918066e-05 -0.000838189 -1.5150175e-06 -0.004822787
000180 29 2f 89 b9 91 12 2e b8 70 24 3d 38 a0 4a 86 33
       -0.00026165813 -4.1502124e-05 4.5095047e-05 6.2534355e-08
000190 f5 d9 14 3a e3 a1 ba 38 75 e9 4c 39 f5 ef 98 38
       0.000567823 8.899325e-05 0.00019541926 7.29262e-05
0001a0 81 97 94 b7 c1 b3 b1 38 c7 a5 c7 38 9f 08 8a b8
       -1.7713524e-05 8.4734995e-05 9.519938e-05 -6.5819586e-05
0001b0 4f d5 0f ba 07 7a b1 b9 d4 0e 63 39 06 21 80 3e
       -0.00054868025 -0.00033850988 0.00021653931 0.25025195
0001c0 07 56 f3 b5 52 5a 8b 3d cb 26 5c 39 84 38 17 b9
       -1.8129948e-06 0.068043366 0.00020995286 -0.00014421536
0001d0 6f 65 e0 b8 9a ec 95 35 45 39 1e 39 53 9b 52 bd
       -0.00010700046 1.1170225e-06 0.00015089389 -0.05141766
0001e0 ae ed bf 39 b2 72 62 38 04 05 8d b9 ea a8 a9 b2
       0.00036607444 5.3989417e-05 -0.00026897353 -1.9751003e-08
0001f0 35 10 0d 3a cc 49 f6 38 ce 86 ac 38 9b ac 7b b9
       0.0005381138 0.0001174394 8.2267085e-05 -0.00024001526
000200 15 5a 81 b5 8d 13 a6 3c 50 a5 0e b7 bc 61 d2 38
       -9.637466e-07 0.020272994 -8.502349e-06 0.00010031785
000210 4e 64 0c b9 c2 2c 35 35 df 0a 80 b8 2e 6f d0 39
       -0.00013388807 6.7492886e-07 -6.1055405e-05 0.00039755687
000220 3b 7f 84 38 c7 2f 14 39 f8 f3 86 ba 6b 16 80 b8
       6.317949e-05 0.00014132178 -0.0010296097 -6.107691e-05
000230 f4 52 43 b6 ab 2f db b9 1c ab 80 3c dd dc 93 38
       -2.910555e-06 -0.0004180645 0.015706591 7.050645e-05
000240 9c 0d c8 bc 2f 98 52 b9 bb 87 31 3c 4b 40 d3 b9
       -0.024420552 -0.00020083853 0.010835583 -0.00040292958
000250 88 87 e9 38 85 83 b4 b9 a0 46 33 38 ab e6 5a b9
       0.000111355504 -0.00034430265 4.27427e-05 -0.0002087603
000260 50 a3 14 b9 b5 08 25 3a 67 44 53 39 81 1f f4 38
       -0.00014175219 0.0006295548 0.0002014801 0.00011640695
000270 0f d6 99 38 37 8f d4 39 e6 d8 70 3d f8 58 b3 bb
       7.33548e-05 0.00040542494 0.0588006 -0.0054732524
000280 5a 60 d8 b9 db b8 77 b9 43 83 f0 38 9e 8a 73 b9
       -0.00041270518 -0.0002362462 0.00011468541 -0.00023225925
000290 f6 69 65 39 4e 13 18 b8 b6 5c 0d b9 19 92 1f b9
       0.00021878615 -3.6257603e-05 -0.00013481345 -0.00015217847
0002a0 f6 cf 7f b9 74 db c9 3d 41 b9 73 b9 33 df bd b7
       -0.00024396167 0.098563105 -0.00023243298 -2.2634491e-05
0002b0 68 4f 04 b8 58 7b cc b8 ba af 79 36 a5 2f b3 39
       -3.1545205e-05 -9.7504526e-05 3.7206178e-06 0.00034177038
0002c0 40 98 40 b9 6b 49 23 ba 49 b9 93 38 99 96 8b b6
       -0.00018367264 -0.00062288967 7.044018e-05 -4.1600547e-06
0002d0 98 00 0a 39 2e a0 8b b1 50 d2 80 b9 d1 17 d0 b7
       0.00013160927 -4.0636428e-09 -0.00024570758 -2.4806623e-05
0002e0 d4 97 19 b9 82 a2 14 bd ba ff c4 38 88 1f 99 39
       -0.00014647777 -0.036287792 9.393641e-05 0.00029205927
0002f0 96 c5 20 38 bb d1 da b8 1d 25 97 b9 50 a8 40 38
       3.833099e-05 -0.000104341154 -0.00028828616 4.593312e-05
000300 e1 47 65 b8 ea 76 0a 39 ba d6 1c b5 a0 ac 05 b6
       -5.4664797e-05 0.00013205005 -5.8426997e-07 -1.9919025e-06
000310 e0 02 f8 33 8a 6a 34 38 21 39 33 38 83 45 8b 39
       1.1548923e-07 4.3014566e-05 4.273013e-05 0.00026563936
000320 67 3a b7 37 6d 6f 93 ac f9 73 3a b8 06 5c 41 39
       2.1842496e-05 -4.190362e-12 -4.4453864e-05 0.00018440196
000330 b7 e1 88 bd dd 13 84 b8 0d 13 32 38 4c 09 a0 39
       -0.06683677 -6.29795e-05 4.245625e-05 0.00030524505
000340 10 5a 27 38 24 a3 f5 b9 9f 3c c8 b9 52 6e fb b9
       3.989978e-05 -0.0004685159 -0.0003819214 -0.00047956646
000350 52 99 d5 b9 22 54 f0 37 7a 20 07 ba 29 c2 8c b9
       -0.00040740758 2.8649407e-05 -0.00051546807 -0.0002684754
000360 9a 27 c5 b9 1f ff c2 b9 e0 9b 0d 39 15 4b 51 b9
       -0.00037604274 -0.00037192644 0.00013504876 -0.00019959763
000370 b4 13 17 39 ad d0 f8 b8 26 21 1b 38 2c 3d 9a b9
       0.00014407822 -0.000118644304 3.698575e-05 -0.00029418746
000380 d2 7f 53 37 91 13 cf b0 31 7e 10 37 05 9f 08 b9
       1.26063405e-05 -1.5066793e-09 8.61245e-06 -0.0001302921
000390 84 4b 27 bd c0 f0 c6 3c 48 f0 ea 35 3f a5 8c 2e
       -0.0408435 0.02428472 1.750429e-06 6.3958165e-11
0003a0 79 4c ba 39 47 0e 26 ba 2e 79 16 38 8f b5 3e 3a
       0.0003553366 -0.0006334525 3.5875644e-05 0.0007274979
0003b0 1a c0 7d bd 4a ad 67 b9 3b 6a 89 3e 94 f8 83 39
       -0.06195078 -0.00022094432 0.2683886 0.00025171472
0003c0 5f cb 80 b5 fe 34 e3 b8 82 68 2c b4 a3 15 bf b9
       -9.595932e-07 -0.00010834074 -1.6056768e-07 -0.0003644648
0003d0 9b d6 20 b9 f0 19 a0 b2 91 46 b6 38 96 93 41 b8
       -0.00015338736 -1.8638247e-08 8.69158e-05 -4.6152236e-05
0003e0 0d 41 ad b9 a0 ff 5d 39 0e d5 06 b7 4d 70 53 b6
       -0.00033045598 0.0002117143 -8.036628e-06 -3.1506818e-06
0003f0 ec 64 d7 38 f5 15 85 31 d3 73 c3 37 2e 4f 21 3b
       0.00010270797 3.8733057e-09 2.3299746e-05 0.0024613845

tabnet.initial_splitter.shared.shared_layers.1.weight f4 [96, 48]
000000 9c a0 4f 3e 97 15 3a bd 0b ec 8e bd e4 90 eb bd
       0.20276111 -0.045430746 -0.069786154 -0.11502245
000010 66 41 04 3c 1b ab 42 bd 9c 47 03 3d 3b 4b f8 3c
       0.008072233 -0.04752646 0.032050714 0.03030931
000020 71 94 82 bd 36 66 af 3c 08 81 00 bd 74 c1 11 bd
       -0.06375969 0.021411043 -0.031373054 -0.035584882
000030 0d 10 28 bd 12 34 6c bb 9a 6a 4f 3c 46 07 20 bd
       -0.041030932 -0.0036041779 0.012659693 -0.039069436
000040 0b 89 62 bd ea 15 b6 bc f4 cb 59 bc b5 10 93 bd
       -0.055306476 -0.022227246 -0.013293255 -0.07180921
000050 6b 69 8c bd 59 37 3f 3d 9f 1d 71 3d 1b bd c9 bc
       -0.068560444 0.046683643 0.05886614 -0.024626305
000060 e0 f7 48 3a 27 7c a3 39 30 92 74 b8 0c ff c2 b7
       0.0007666331 0.00031182283 -5.831028e-05 -2.3245368e-05
000070 c3 f4 93 b9 a3 81 33 b8 80 ac 79 38 31 5b 52 38
       -0.00028220387 -4.279766e-05 5.952688e-05 5.015283e-05
000080 95 78 9d b8 54 e5 23 39 7d 14 d2 b9 c8 1d 0b 3b
       -7.5088035e-05 0.00015630323 -0.00040069586 0.0021227468
000090 d7 99 54 b8 61 5d 51 3a 86 ab 26 ba 12 30 3c b9
       -5.0688013e-05 0.0007986632 -0.00063579564 -0.00017946985
0000a0 6a af be 39 d4 7e 09 3b 40 97 4c 39 04 32 8d 39
       0.00036370318 0.0020980136 0.00019511301 0.0002693088
0000b0 ae e9 7f 39 0f 04 7f b9 6b 16 6d 39 64 0e 6d 3a
       0.00024405748 -0.00024320207 0.00022610433 0.0009042977
0000c0 e5 32 6d bb ae c3 da 3e 7c bf 03 3d b4 5f 3b bd
       -0.0036193666 0.42727417 0.032165036 -0.045745566
0000d0 29 ee ec 3a e0 fd d6 3b ba d8 3e bd 4e e5 d3 bc
       0.0018076348 0.006561026 -0.046593405 -0.025866177
0000e0 83 f9 43 bd ca 2b 09 3d 20 11 de bc 6d 37 49 3c
       -0.047845375 0.033489026 -0.027107775 0.012281281
0000f0 b2 cc e3 bc 4b e7 2a 3a fd 4c e4 bb 5a a0 95 bd
       -0.027807567 0.00065194507 -0.0069671855 -0.07305975
000100 c7 43 b7 ba 1d 1a e4 bc b9 10 4a 3d eb 45 67 bd
       -0.0013981991 -0.027844483 0.049332354 -0.056463163
000110 26 bb f6 bc 37 e1 a2 bc af 50 ec 3c 46 d6 82 3c
       -0.030118536 -0.019882781 0.028847067 0.015971314
000120 54 2f 46 3b 4f 6d 85 3b 6e 79 a4 ba 5d bd c2 39
       0.0030240612 0.0040718685 -0.0012548396 0.0003714365
000130 27 be 2f bb 02 80 f8 b9 f9 1f 10 3b ad 63 6a 3a
       -0.002681622 -0.0004739762 0.0021991713 0.00089412445
000140 6f 7e 10 3b 4e d6 66 bb 67 70 b0 3a d2 c4 12 3a
       0.0022048017 -0.003522295 0.0013461233 0.00055987865
000150 1b af 25 3a 15 c5 84 bb 10 74 2a bb 13 9f 74 bb
       0.0006320343 -0.0040518143 -0.002600912 -0.003732626
000160 b2 ce 35 3c 92 5e ce b9 36 ef e1 ba ea 57 0e bb
       0.011096643 -0.00039361842 -0.0017237428 -0.0021719881
000170 24 e1 13 39 0b 0a a6 3a 16 71 b2 bb a1 ba a5 bb
       0.00014102884 0.0012667788 -0.00544561 -0.0050576483
000180 72 c7 32 3b 4d 94 95 3b 98 6c 83 3e b8 65 07 3d
       0.0027279523 0.004564798 0.25668788 0.03305599
000190 c3 b5 33 bc 17 a4 0d bd 0b bf 03 bd 0b 6e 45 3c
       -0.010968628 -0.034580316 -0.032164615 0.012050162
0001a0 1b 45 48 bb 32 82 de ba 0c 74 d4 ba 23 cd 05 bb
       -0.0030558768 -0.0016976057 -0.0016208901 -0.002041646
0001b0 dc 2b 9c 3c bb 0a 3b 38 50 3d 90 b9 f4 7e 83 bb
       0.019063883 4.4594268e-05 -0.00027511502 -0.0040129367
0001c0 6f 87 1f 3d 3c 54 ea bc 4c 1b 20 bd 4e 43 1a bc
       0.03894752 -0.02860462 -0.039088532 -0.009415461
0001d0 5c 3b 70 3b 69 62 5f bd fe bb e1 bc 7d b8 76 bb
       0.0036656475 -0.05453721 -0.027555462 -0.0037646585
0001e0 22 03 df bb 62 3b 4b 3b a0 87 b5 39 a9 d9 21 38
       -0.0068057934 0.0031010737 0.0003462406 3.8588103e-05
0001f0 ee bc 6b 3b af 1a 52 ba 5b 2f fe 3b f8 f7 3e 3b
       0.0035970765 -0.00080148404 0.00775711 0.00291395
000200 6c 11 0b 3b f0 84 17 bc 72 6d a7 3a 12 3f 3f bb
       0.00212201 -0.009248003 0.0012773706 -0.002918188
000210 76 74 f1 3b 5d 32 8f ba 19 72 c4 b9 f7 f0 5c 3a
       0.0073686196 -0.0010925044 -0.00037469043 0.00084282405
000220 e9 11 44 3c d9 b8 d7 bb 09 2d 1a 3b 4b a9 27 bb
       0.011967161 -0.006583315 0.0023525378 -0.0025583084
000230 e1 8a 9f 3b ae 43 ab b9 19 e5 c0 39 bd ff ab ba
       0.0048688506 -0.00032666087 0.00036791785 -0.0013122481
000240 f5 e3 9f bd c3 a1 0a bd a2 03 37 3d ee f9 5f 3e
       -0.07807151 -0.033845674 0.0446812 0.21872684
000250 b4 31 c8 bc 45 45 32 bc 78 ca 5e 3c 73 6b 5c 3d
       -0.024437763 -0.010880773 0.013598077 0.05381341
000260 30 4d 1e 3b dc 84 e7 bb 72 af d6 3c a5 bb fc 3c
       0.0024154894 -0.0070653986 0.026206706 0.030851195
000270 da 4e 75 bd 98 05 17 3b 94 14 67 bc 15 5a bc bb
       -0.05988965 0.0023044106 -0.014104027 -0.0057480433
000280 6d c1 03 bd 69 c6 80 bc 0d 2a 95 bd 5b e1 4a bd
       -0.032166887 -0.01571961 -0.07283411 -0.049531322
000290 01 c8 9f bd d6 19 de bc 77 6c 1c bd 02 8e 2d 3d
       -0.078018196 -0.027111929 -0.038189378 0.042371757
0002a0 46 0e 74 bb 49 78 81 ba 1f 81 46 39 6a ad 25 3a
       -0.0037239953 -0.0009877767 0.00018930853 0.0006320091
0002b0 90 a4 42 3b 0e ae 22 39 f6 94 0c 3a 3f c8 54 3a
       0.0029700138 0.00015514364 0.0005362773 0.0008116997
0002c0 a5 6d 4b 39 34 94 b7 ba b7 5d 01 3b 60 24 b9 39
       0.00019400434 -0.001400596 0.0019739696 0.0003531305
0002d0 fc 7a ed 38 03 52 b6 3a c4 8f 22 3b 3a f8 c9 3a
       0.00011323948 0.001390994 0.002480493 0.001540906
0002e0 f4 f2 94 3b 57 dc 34 bb f6 d8 fd b9 de 8d ff b5
       0.004545564 -0.0027597153 -0.0004841757 -1.9040269e-06
0002f0 f2 82 f4 39 b8 0d ed b7 3b e6 02 3b 2d 90 17 bb
       0.00046636869 -2.825899e-05 0.0019973654 -0.0023126707
000300 c9 f9 13 3c 7f f0 3b bd cf b4 90 bc af e1 2d bd
       0.009031721 -0.04588365 -0.017664341 -0.042451557
000310 89 84 a7 3e 29 78 ef 3c c3 ff bb bb 61 3b 3a bc
       0.32718304 0.029232102 -0.0057372763 -0.011366696
000320 47 77 e9 bc 06 4d bf bb bc 28 ca bc 67 b5 89 bc
       -0.028499259 -0.0058380393 -0.024677627 -0.016810132
000330 5a 2a 8a bd 5f 4d 6d bb 8b 72 28 3d ca 4c 1c bd
       -0.06746359 -0.0036209447 0.04112486 -0.03815917
000340 3b 97 1f 3d 89 fa 11 3d 67 dd 86 bc 3d 49 66 3c
       0.038962584 0.03563932 -0.016462995 0.014055547
000350 d5 7a 14 3d 93 50 23 3d 23 36 c3 3b f4 b6 d3 3c
       0.036249954 0.039871763 0.0059573813 0.025844075
000360 3a 92 5e bc 7b 16 1c 3c a6 86 c8 39 0a b8 12 bc
       -0.013584668 0.009526844 0.00038247294 -0.008955011
000370 e8 19 30 bc 5e 56 34 bb 58 8d f1 3a 53 f2 d2 3b
       -0.010748364 -0.00275173 0.0018428965 0.0064375787
000380 fc f8 21 bc df b1 04 bc b1 f2 1e 3b e2 f7 34 3c
       -0.009886023 -0.008099048 0.0024253542 0.011045428
000390 e5 91 f3 3b a2 e2 86 bb 66 0f cc bb c2 71 29 3c
       0.0074331635 -0.004116372 -0.0062274216 0.010342063
0003a0 12 93 0d 3d 38 4c 5d bb 69 9f eb b9 35 46 a7 3a
       0.034564085 -0.0033767354 -0.00044941463 0.0012762012
0003b0 ca 28 3a 3c 33 11 94 3b 0e 90 0a 3c 1d a0 f2 39
       0.011362264 0.004518652 0.008457197 0.0004627713
0003c0 1a d7 08 bc 9c c4 29 bc 62 c0 5a bd ea f2 e8 bc
       -0.008352065 -0.010361817 -0.053406127 -0.028436143
0003d0 ed 14 39 3d e6 51 c4 3e d8 71 2c be 5d 60 3e 3d
       0.045185972 0.38343734 -0.16840303 0.046478618
0003e0 6a 49 7d bd 5b f1 c7 bb d8 5a 9e bc 99 fc 02 bd
       -0.06183759 -0.00610177 -0.019330427 -0.031979177
0003f0 f8 5b 0d bd 86 ed 4a 3b 2e 91 30 bd ad f3 9e bd
       -0.034511536 0.003096433 -0.043107204 -0.07761321
