cv_steps/tabnet_raw_step1_fold0_4/network.pt (torch, 682379 bytes, 56 tensors)

embedder.embeddings.0.weight f4 [3, 1]
0.021215474 0.09263671 -0.10941015
00000000: 13cc ad3c 51b8 bd3d 6e12 e0bd

embedder.embeddings.1.weight f4 [2, 1]
0.027555864 -0.027558958
00000000: d6bc e13c 53c3 e1bc

tabnet.initial_bn.weight f4 [1038]
0.12540725 -0.13050924 0.094208874 0.16696785 0.08635864 0.1041216 0.06840111 0.100800745
0.06435228 0.006599675 0.32951596 0.057855774 0.00032938496 0.14610042 0.15146326 0.0706
0.18568541 0.13688792 0.03164854 -0.00014223914 0.10260109 0.09684486 0.1676557 0.038635
0.19194123 0.1726728 0.008564493 0.09316042 0.09753758 0.16494092 0.18758963 0.2229443
0.1956416 0.12464431 0.18705809 0.16353591 0.15295729 3.422218e-05 0.14084817 0.18736337
0.098961964 0.24577413 0.15850332 0.18397379 -6.9702264e-07 0.079878904 0.12355333 0.1641671
-4.8737424e-05 0.15216713 0.18699506 0.0025889222 0.14840052 0.17095616 0.0989044 0.075678565
0.104958594 0.12680463 0.04768681 0.1649062 0.15754873 -3.2301952e-07 0.20725064 0.004880386
0.100198194 0.15508375 -0.0005607869 0.06356919 0.00029313538 0.05832771 0.1323406 0.10213376
0.13436024 0.22738889 0.17414369 7.5096905e-06 0.077238955 0.35442576 -7.1017416e-07 0.10563142
0.11728569 0.0002693052 -7.607802e-10 0.15717143 0.11553462 0.111284874 0.14805913 0.060258612
0.1293523 0.026900237 0.1107483 0.048637517 0.24483925 0.20017724 0.14507937 0.20155643
0.05834919 0.165558 0.16611941 0.049186848 0.12841967 0.18925238 0.2567599 0.09174083
0.16869059 0.24110289 -0.083629504 0.13248743 0.058588926 0.15912393 0.041966423 0.120638244
0.15907252 0.14758062 -0.0077936826 0.121759154 0.11918781 0.0019125056 0.17532589 0.16615582
0.17412612 0.027079346 0.019730048 4.492646e-05 0.2372958 0.1769559 0.15242814 0.116437085
0.012224088 0.10848699 0.18418048 0.1146313 0.17414531 0.10634898 -4.3486543e-06 0.17906626
0.13882111 0.12064386 0.114029184 0.045584243 0.13162763 0.06855537 0.082959846 0.008315548
0.13272178 0.12610309 0.12457074 -0.015640533 0.15978155 0.06850302 0.069348566 0.17590575
0.1288065 0.06679162 0.17991352 0.13765815 0.20672074 0.002715672 0.20001642 0.38308474
0.27275935 0.14542928 0.032200053 0.11283563 0.2450363 0.014998421 0.24405569 0.056885626
0.1403563 0.2723558 0.038530666 0.18657713 0.18470895 -0.05385937 0.11587884 0.22425464
0.10759593 0.31511453 0.042046264 0.098567404 0.3424873 0.020271458 0.17032915 0.21509261
0.031378124 0.23379956 0.04206665 0.0836291 0.15415247 0.1891519 0.12639421 0.12421382
0.17841463 0.07191328 0.08351271 0.22736926 0.08141826 -0.00029918505 -3.7797843e-06 0.09377688
0.11230896 0.06954251 0.11052829 0.12699896 0.26772448 0.22670992 0.03856429 0.13259108
0.10337735 0.21568961 0.034448974 0.22177356 0.16205022 0.14356725 0.103074156 0.17155296
0.0007600891 0.1992261 0.09077629 0.18107513 0.087512895 0.10526308 0.0027182424 0.18959539
0.1483994 -0.008512231 0.0010600133 0.14807078 0.10933477 0.09043612 0.012473462 0.12798065
-0.0015313799 0.25773033 0.082905345 0.19183888 0.16426533 0.19266108 0.046880472 0.17377508
0.14715521 0.15617855 0.18231137 0.18850979 0.16096032 0.067148514 -0.007471481 0.09584062
0.13433284 -0.0035182098 0.11017003 0.0015181486 0.05565329 -0.0019683542 0.07760178 3.0192818e-06
00000000: c26a 003e 37a4 05be 95f0 c03d 9ff9 2a3e
00000010: ccdc b03d b53d d53d e215 8c3d 9f70 ce3d
00000020: 21cb 833d 1642 d83b 51b6 a83e 2dfa 6c3d
00000030: 4db1 ac39 599b 153e 2f19 1b3e bc96 903d
00000040: 5124 3e3e 592c 0c3e e6a1 013d 0726 15b9
00000050: 8520 d23d 9956 c63d f0ad 2b3e bc3f 1e3d
00000060: 3e8c 443e 23d1 303e 1652 0c3c e4ca be3d
00000070: c8c1 c73d 46e6 283e 7f17 403e 834b 643e
00000080: 4656 483e 8445 ff3d 288c 3f3e f575 273e
00000090: d6a0 1c3e c989 0f38 813a 103e 2fdc 3f3e
000000a0: 92ac ca3d 37ac 7b3e b24e 223e a063 3c3e
000000b0: 081b 3bb5 8d97 a33d 8709 fd3d 6c1b 283e
000000c0: 696b 4cb8 b3d1 1b3e a27b 3f3e e8aa 293b
000000d0: 4ef6 173e 220f 2f3e 648e ca3d 5dfd 9a3d
000000e0: 88f4 d63d 13d9 013e 3f53 433d 2cdd 283e
000000f0: 7454 213e 776b adb4 8339 543e a5eb 9f3b
00000100: b634 cd3d 46ce 1e3e c601 13ba 9030 823d
00000110: f7af 9939 09e9 6e3d 4b84 073e 812b d13d
00000120: bb95 093e a2d8 683e b952 323e c0fb fb36
00000130: 752f 9e3d 4b77 b53e cca2 3eb5 4955 d83d
00000140: 7b33 f03d 8831 8d39 261f 51b0 8cf1 203e
00000150: 6a9d ec3d 53e9 e33d d09c 173e bcd1 763d
00000160: ee74 043e e35d dc3c 01d0 e23d 2238 473d
00000170: 24b7 7a3e 43fb 4c3e b08f 143e cf64 4e3e
00000180: 8fff 6e3d 0988 293e 351b 2a3e 2678 493d
00000190: 7280 033e 60cb 413e 0976 833e 9ee2 bb3d
000001a0: 3abd 2c3e ade3 763e f245 abbd c9aa 073e
000001b0: f1fa 6f3d 62f1 223e fce4 2b3d 2f11 f73d
000001c0: e8e3 223e 601f 173e 2662 ffbb dd5c f93d
000001d0: bd18 f43d 0aad fa3a a188 333e c024 2a3e
000001e0: 1e4e 323e 81d5 dd3c e9a0 a13c 6b6f 3c38
000001f0: acfd 723e ed33 353e 1f16 1c3e 9176 ee3d
00000200: 8b47 483c 6d2e de3d cf99 3c3e d1c3 ea3d
00000210: 2653 323e 7ecd d93d a8ea 91b6 255d 373e
00000220: 1f27 0e3e 2114 f73d 2288 e93d 8bb6 3a3d
00000230: 65c9 063e c266 8c3d dae6 a93d f03d 083c
00000240: 38e8 073e 2b21 013e f21e ff3d 9320 80bc
00000250: c69d 233e 504b 8c3d 9f06 8e3d a320 343e
00000260: dae5 033e 0bca 883d 403b 383e 42f6 0c3e
00000270: 9aae 533e 6af9 313b 1bd1 4c3e af23 c43e
00000280: 1da7 8b3e 6aeb 143e 34e4 033d 5e16 e73d
00000290: ccea 7a3e f0bb 753c bce9 793e e700 693d
000002a0: 90b9 0f3e 3872 8b3e 55d2 1d3d 130e 3f3e
000002b0: 5824 3d3e a59b 5cbd e351 ed3d 02a3 653e
000002c0: 415b dc3d b156 a13e b438 2c3d b5dd c93d
000002d0: 7f5a af3e 5410 a63c c46a 2e3e 3d41 5c3e
000002e0: 5986 003d 2769 6f3e 144e 2c3d bc45 ab3d
000002f0: 25da 1d3e 09b1 413e 7c6d 013e d163 fe3d
00000300: 53b2 363e 4547 933d b608 ab3d 7dd3 683e
00000310: 9ebe a63d f0db 9cb9 33a8 7db6 180e c03d
00000320: 3d02 e63d 4e6c 8e3d a85c e23d 040c 023e
00000330: 2f13 893e a526 683e 97f5 1d3d f5c5 073e
00000340: 81b7 d33d bddd 5c3e 5e1a 0d3d 9c18 633e
00000350: 7ef0 253e 4b03 133e 8b18 d33d 94ab 2f3e
00000360: b740 473a ed01 4c3e ebe8 b93d c26b 393e
00000370: f639 b33d 2b94 d73d 8a24 323b 4b25 423e
00000380: 03f6 173e e276 0bbc 25f0 8a3a de9f 173e
00000390: e8ea df3d 9336 b93d 7e5d 4c3c 5c0d 033e
000003a0: 95b8 c8ba 3bf5 833e 47ca a93d 6971 443e
000003b0: 2c35 283e f248 453e bd05 403d 18f2 313e
000003c0: dbaf 163e 45ed 1f3e d5af 3a3e b608 413e
000003d0: c8d2 243e 2985 893d 53d3 f4bb 1648 c43d
000003e0: 8c8e 093e c491 66bb d3a0 e13d 9dfc c63a
000003f0: b4f4 633d 81ff 00bb afed 9e3d de9e 4a36

tabnet.initial_bn.bias f4 [1038]
-0.00014795158 -0.0008414919 0.0010458562 -0.00044051124 0.000111526206 -9.22604e-05 -7.1806855e-05 -0.0027432344
-8.750604e-05 -2.2337861e-05 0.0009497928 0.00015712206 9.018641e-07 0.00024705598 -0.00021714963 0.0010819031
-0.00034851418 0.0006656453 -1.5986274e-05 8.521395e-08 -0.00024076458 -0.00030265 0.0007396874 -0.0013418572
0.002306737 0.006949759 -3.1855576e-05 -0.00020594601 0.0004116433 0.15591368 -0.00012002084 -0.00022188641
0.00017760739 -0.0002138633 0.00027601994 0.0007168974 0.0006005296 -2.0706098e-08 -0.000713627 -0.00012298538
-0.0001860828 -0.10068806 -0.000275104 0.00021940068 -7.085701e-08 -0.000104971 -0.0002140563 -0.06335721
-2.2101224e-07 0.00011955451 0.00012632585 -1.0368412e-06 -8.283208e-05 -0.00020120374 -8.1026425e-05 4.6186924e-05
-1.6959683e-06 2.6415642e-05 0.3568548 -0.0003084322 2.7379749e-05 -3.3488912e-10 -5.908427e-05 3.8046467e-06
0.0004530568 0.15955114 2.0501918e-07 0.33011624 5.2067335e-06 0.00024121981 0.00046352006 -7.436346e-05
0.24691156 0.16242555 0.00027241203 -2.7846633e-07 -0.060564365 0.35250214 -1.4628769e-09 -4.0299277e-05
0.00025576135 -4.6119166e-07 1.6933819e-12 4.7515292e-05 -0.00012973235 -0.18230696 -0.00047570775 -0.0002856694
-5.1859734e-05 9.466372e-06 -0.006955044 -0.00011945962 -0.02062629 0.0004941626 0.00020806136 -0.0001009068
7.716872e-05 -0.00022614123 0.00017644792 -5.381685e-05 -0.00012714652 9.985044e-05 -0.00034090914 -0.0006768196
-0.00029165333 -0.00043519877 0.00027757089 -0.00011443896 5.2082618e-05 6.406846e-05 -0.00071548414 -0.0007470503
-0.0011591491 -0.010768116 -4.972183e-07 0.0005011306 -2.5110063e-05 1.6649986e-06 -0.00026496552 1.4599948e-05
-0.00032222175 -6.3708125e-05 0.2967146 4.4939817e-08 -0.00089816476 0.00018108582 0.0008880794 -2.1854708e-05
0.30810547 -0.00022864541 0.0002794325 -0.0020601104 -6.005569e-05 -0.0009626815 6.6574337e-09 -5.833326e-05
-0.0003782493 7.441608e-05 8.600944e-05 -0.0013011079 0.00015768308 8.103497e-05 -4.8792637e-05 5.6968092e-05
0.0003728134 0.00092868315 -0.00017161809 -6.322966e-05 -0.00016540686 0.2228382 -0.00014312385 -0.00021224817
-0.00011189178 -0.00042239018 -0.00062284886 0.00027168597 -0.00045401676 8.823532e-07 -0.0006531519 -0.00021873756
0.011787012 0.00010443264 -0.0001439499 5.4044576e-05 0.042769074 0.32650122 3.9357546e-05 -1.2432623e-05
0.00056094036 0.00034315523 2.6784908e-05 -0.00067445467 9.170057e-06 6.523055e-05 0.48890346 -0.0001452332
0.00055686326 -0.00059494044 -2.4504014e-05 0.000603959 0.0004458525 2.624601e-05 -0.000111718415 0.061632592
0.00020780833 -0.00051534 -9.978763e-05 0.00013660197 0.00016382395 -0.0124101415 0.00018583372 7.838434e-05
-0.0002497164 -0.0004491152 -9.369049e-05 0.06798573 0.00028664828 -1.7654605e-06 -1.19792e-08 5.7050485e-05
9.411513e-05 -9.630659e-05 2.616592e-05 0.00022309345 0.0001952421 0.00036584743 -6.0856055e-05 0.00019424452
-9.229185e-05 0.00081973965 -0.4529734 0.0014380042 5.0674487e-05 0.00039978576 -5.8601698e-05 0.00041940025
1.3793205e-05 -0.00030675493 0.00013476508 -0.00056897925 0.00017264932 -2.3586457e-05 -7.717957e-06 0.00039739275
4.6382083e-05 0.32413122 4.3927303e-05 0.0003635401 0.0002847105 -0.00010295827 -3.7890917e-05 -0.00050976913
2.1519866e-06 -0.0004915941 0.00014573436 -0.001013676 -0.00043970378 -0.0005794957 -0.37264025 -0.00029978735
0.0002594186 0.00018743353 0.010828665 -0.000556689 0.00019263338 0.04108179 -0.36249924 -0.0014993858
0.00014530863 -1.9808991e-05 0.00026761432 -2.7575834e-07 -0.0001652084 2.083927e-05 0.00038229342 -1.1319582e-08
00000000: 7323 1bb9 9197 5cba 1c15 893a 6bf4 e6b9
00000010: 2de3 e938 ed7b c1b8 0397 96b8 d6c7 33bb
00000020: 7383 b7b8 3162 bbb7 84fb 783a 22c1 2439
00000030: a117 7235 4b87 8139 a9b2 63b9 a5ce 8d3a
00000040: c8b8 b6b9 b37e 2e3a 431a 86b7 ddfe b633
00000050: c075 7cb9 ffac 9eb9 95e7 413a 42e1 afba
00000060: a02c 173b ceba e33b aa9c 05b8 36f3 57b9
00000070: d4d1 d739 d6a7 1f3e b3b3 fbb8 2eaa 68b9
00000080: 1f3c 3a39 7e40 60b9 c5b6 9039 2cee 3b3a
00000090: dc6c 1d3a 31dd b1b2 b312 3bba a3f5 00b9
000000a0: 391f 43b9 8b35 cebd d53b 90b9 ec0e 6639
000000b0: 0e2a 98b3 e023 dcb8 4d74 60b9 6dc1 81bd
000000c0: 624f 6db4 57b9 fa38 5676 0439 9829 8bb5
000000d0: 22b6 adb8 38fa 52b9 bbec a9b8 d5b8 4138
000000e0: 07a1 e3b5 2997 dd37 acb5 b63e 12b5 a1b9
000000f0: 90ad e537 741b b8af 40d1 77b8 5553 7f36
00000100: 4188 ed39 6061 233e 3e23 5c34 ff04 a93e
00000110: 80b5 ae36 f3ef 7c39 9c04 f339 94f3 9bb8
00000120: 62d6 7c3e e252 263e 86d2 8e39 1f80 95b4
00000130: 5712 78bd 297b b43e 680e c9b0 0507 29b8
00000140: b517 8639 b399 f7b4 8352 ee2b 284b 4738
00000150: c308 08b9 adae 3abe 6a68 f9b9 e6c5 95b9
00000160: f783 59b8 c2d1 1e37 23e7 e3bb 6586 fab8
00000170: 77f8 a8bc b18a 013a 0c2b 5a39 ed9d d3b8
00000180: a4d5 a138 5320 6db9 e104 3939 67b9 61b8
00000190: a252 05b9 cc66 d138 0dbc b2b9 986c 31ba
000001a0: 0ce9 98b9 642b e4b9 ef86 9139 f3fe efb8
000001b0: 4973 5a38 7e5c 8638 548f 3bba b2d5 43ba
000001c0: 97ee 97ba c16c 30bc 9578 05b5 4e5e 033a
000001d0: 73a3 d2b7 eb78 df35 12eb 8ab9 4df2 7437
000001e0: dfef a8b9 0a9b 85b8 faea 973e da03 4133
000001f0: d172 6bba dbe1 3d39 00ce 683a a154 b7b7
00000200: 00c0 9d3e 89c0 6fb9 cc80 9239 eb02 07bb
00000210: 4ee4 7bb8 765c 7cba 68bf e431 dcaa 74b8
00000220: c34f c6b9 d40f 9c38 f75f b438 f089 aaba
00000230: bb57 2539 51f1 a938 b2a6 4cb8 06f1 6e38
00000240: 2b76 c339 df72 733a 61f4 33b9 2a9a 84b8
00000250: 1171 2db9 b22f 643e 8413 16b9 ef8e 5eb9
00000260: 71a7 eab8 4074 ddb9 ae46 23ba 1371 8e39
00000270: 1909 eeb9 dada 6c35 4838 2bba eb5c 65b9
00000280: 501e 413c d902 db38 42f1 16b9 ecad 6238
00000290: a02e 2f3d 2b2b a73e d813 2538 b695 50b7
000002a0: 120c 133a 84e9 b339 27b0 e037 e3cd 30ba
000002b0: 18d9 1937 63cc 8838 8e51 fa3e be49 18b9
000002c0: 76fa 113a c7f5 1bba f88d cdb7 0153 1e3a
000002d0: 4fc1 e939 e12a dc37 5e4a eab8 7572 7c3d
000002e0: 20e7 5939 e217 07ba 1345 d1b8 d03c 0f39
000002f0: 28c8 2b39 e853 4bbc 5cdc 4239 4662 a438
00000300: 5eec 82b9 3977 ebb9 b37b c4b8 1a3c 8b3d
00000310: 4849 9639 c3f4 ecb5 14cd 4db2 7e49 6f38
00000320: ad5f c538 35f8 c9b8 e37e db37 31ee 6939
00000330: e7b9 4c39 36cf bf39 b13f 7fb8 1eae 4b39
00000340: cf8c c1b8 cce3 563a 21ec e7be 6a7b bc3a
00000350: 518b 5438 569a d139 18cb 75b8 f3e2 db39
00000360: 5d69 6737 f3d3 a0b9 ba4f 0d39 8d27 15ba
00000370: 3309 3539 88db c5b7 5f7c 01b7 2759 d039
00000380: 628a 4238 87f4 a53e 953e 3838 8799 be39
00000390: 3245 9539 4deb d7b8 10ed 1eb8 07a2 05ba
000003a0: d96a 1036 52de 00ba 45d0 1839 53dd 84ba
000003b0: 0b88 e6b9 4ce9 17ba b4ca bebe c72c 9db9
000003c0: 9302 8839 ce89 4439 b76a 313c c4ee 11ba
000003d0: a1fd 4939 6145 283d 8099 b9be 0a87 c4ba
000003e0: fd5d 1839 7c2b a6b7 964e 8c39 f00b 94b4
000003f0: cb3b 2db9 fecf ae37 8e6e c839 0c78 42b2

tabnet.initial_bn.running_mean f4 [1038]
0.00021875216 0.00046219648 -0.00035880457 -0.0019609525 3.648487e-05 0.0006700529 0.003348529 0.00090189994
0.0072243116 0.0037307946 -0.014164525 -0.00010623701 -0.0024287247 0.004198457 0.001999119 -0.002617939
-0.0051454618 0.009660412 0.0037985302 -0.008747037 0.008246571 0.006047589 0.002386543 -0.0015329508
-0.0028382826 -0.0051270956 -0.002365201 0.00065028353 -0.0059522903 -0.008796036 -0.0020547675 0.0020243512
-0.0004830113 0.01511123 0.0038135538 0.0029304374 0.00437312 -0.0043076887 -0.0007328598 -0.04192373
0.028956324 -0.00062836113 -0.0042500114 0.0014259776 0.00024229012 -0.0008476495 -0.0045605507 0.0043892525
0.0047643795 -0.006426711 -0.00064906053 -0.0035584043 -0.046828955 -0.0014174348 0.0042523993 -0.0017483681
0.0029525058 -0.0010434465 -0.005126606 -0.0012870211 -0.017216796 -0.003468475 0.0023848873 -0.003835435
-0.007999933 -0.004274312 -0.00047403623 -0.0010975051 0.00010380809 -0.054033775 0.00067422114 0.00061596395
-0.0011686789 0.00063184154 -0.011630323 0.002710379 0.0130144805 -0.045647074 0.0028683 -0.008903107
0.0019775012 0.0023973258 -0.0002079697 0.0025186487 -0.0023741596 0.0027046208 -0.0034868156 -0.00150695
0.0087206215 -0.00074348255 0.003131084 0.00921434 -0.00022957702 -0.00015964244 0.0008978045 0.0031398544
-0.0012685197 0.0011049055 -0.007124839 0.0015749305 -0.009533665 -0.0015485939 0.013783631 -0.0033164835
0.0053774044 0.0050805355 -0.0015838868 -0.0058645974 0.0011565256 -0.0019764204 -0.0023909695 -0.0016178745
-0.0037456232 -0.002381134 -0.003562042 -0.016567912 -0.0015686891 -0.0041508954 0.0016562842 -0.0023762458
-0.0058813174 0.0012539371 -0.00030338787 -0.00792824 0.0031564822 0.026291644 -0.0018306834 0.0026082913
0.0013383492 0.005553129 -0.011695819 0.0033151403 0.005976208 0.027622947 0.0029344468 -0.003603423
0.0042383447 -0.0024867218 0.002389485 0.0029086808 -0.00018472751 0.0010509795 -0.0019577057 -0.004598851
0.004461495 0.0028595713 0.0012996347 0.00679114 0.00015298453 0.011734396 0.00088243635 -0.0043330765
-0.0068559377 -0.007129621 -0.006574823 0.0028676963 -0.00022811357 -0.0007175734 0.004914363 -0.0034532698
0.02477703 0.0060046455 -0.00074155384 0.001355732 -0.0011544775 0.0036123965 0.00553304 -0.0043412517
0.004567145 -0.0014854034 0.0071087903 -0.0017554509 0.010275816 -0.0046801525 0.00045174832 -0.0044052103
-0.0041493033 0.0055933096 0.0020530322 0.0014814454 -0.007839197 0.00017909169 0.006863988 0.0022845191
-0.0013132421 -0.005435217 5.3641143e-06 -0.020239828 -0.008854963 -0.0027392618 0.00288477 -0.005713992
0.0074700727 -0.0016658385 -0.0035440638 0.00017228223 0.0019523235 -0.013986944 0.005022189 0.000823747
-0.002908622 -0.00064024894 -0.0029540816 0.01035571 -0.011403096 0.0032178734 -0.001376435 -0.0020115173
0.0032078107 0.00074177835 0.0092948 -0.008444204 0.008021843 -0.003568791 -0.0021671413 0.0037129933
-0.005962266 -0.002752901 -0.00039183398 -0.0022130315 -0.005669085 -0.0033349132 -9.13546e-05 0.0032027962
0.0010476678 0.0030306394 0.0071146423 0.004207813 0.0030724183 0.002990664 -0.06590394 0.005181153
-0.0020741113 0.0037559934 0.0049398243 -0.0042982483 0.00073009584 -0.0039191907 0.0037164558 0.0070928237
-0.0007502077 0.0013870888 0.002533781 0.0036308256 -0.0026701037 0.009847597 -0.002237467 0.00721732
0.0043610996 -0.00120331 0.0208327 -0.0026195585 -0.01336022 0.0036230923 0.0027147026 0.0032677546
00000000: d660 6539 f652 f239 ef1d bcb9 5383 00bb
00000010: 5507 1938 7da6 2f3a ff72 5b3b 7b6d 6c3a
00000020: ebb9 ec3b 5980 743b 5312 68bc 8fcb deb8
00000030: 3d2b 1fbb 3693 893b a703 033b ba91 2bbb
00000040: 439b a8bb b446 1e3c c3f0 783b bb4f 0fbc
00000050: a01c 073c da2a c63b 8c67 1c3b 4bed c8ba
00000060: 7b02 3abb 3201 a8bb 7d01 1bbb ca77 2a3a
00000070: 6e0b c3bb 401d 10bc 47a9 06bb faaa 043b
00000080: ae3c fdb9 1895 773c d1ec 793b 950c 403b
00000090: 644c 8f3b 8327 8dbb 631d 40ba 38b8 2bbd
000000a0: d035 ed3c 9ab8 24ba ae43 8bbb dee7 ba3a
000000b0: 420f 7e39 cc34 5eba ac70 95bb b8d3 8f3b
000000c0: 831e 9c3b 2997 d2bb b725 2aba 1e34 69bb
000000d0: b8cf 3fbd 38c9 b9ba b657 8b3b 8029 e5ba
000000e0: d47e 413b 41c4 88ba 17fd a7bb 43b1 a8ba
000000f0: 3d0a 8dbc 5b4f 63bb c54b 1c3b ec5b 7bbb
00000100: 2712 03bc 870f 8cbb 1188 f8b9 29da 8fba
00000110: 8bb3 d938 8552 5dbd 37be 303a a478 213a
00000120: 5b2e 99ba 2ba2 253a 1c8d 3ebc 9da0 313b
00000130: b03a 553c 6df8 3abd 17fa 3b3b 56de 11bc
00000140: f798 013b 741c 1d3b 7112 5ab9 ea0f 253b
00000150: ca97 1bbb 0240 313b 0f83 64bb da84 c5ba
00000160: f0e0 0e3c 45e6 42ba df32 4d3b bef7 163c
00000170: 9dba 70b9 b165 27b9 a45a 6b3a 04c6 4d3b
00000180: 7544 a6ba 7ad2 903a 7b77 e9bb e66d ce3a
00000190: 1733 1cbc 30fa caba bdd4 613c 5c59 59bb
000001a0: f034 b03b 9f7a a63b 6c9a cfba cf2b c0bb
000001b0: 8f96 973a d586 01bb d0b1 1cbb dc0e d4ba
000001c0: 2179 75bb cd0c 1cbb 2671 69bb 6eb9 87bc
000001d0: 799c cdba 3c04 88bb ad17 d93a caba 1bbb
000001e0: 11b8 c0bb 265b a43a 0810 9fb9 73e5 01bc
000001f0: fcdc 4e3b 9361 d73c 8bf3 efba deef 2a3b
00000200: 8c6b af3a 06f7 b53b d29f 3fbc d342 593b
00000210: 11d4 c33b 8549 e23c d94f 403b 6827 6cbb
00000220: d0e1 8a3b 45f8 22bb e898 1c3b 919f 3e3b
00000230: 6ab3 41b9 05c1 893a da4c 00bb f5b1 96bb
00000240: bc31 923b a567 3b3b 8158 aa3a 3688 de3b
00000250: 796a 2039 a041 403c 4d53 673a 7bfc 8dbb
00000260: c6a7 e0bb 999f e9bb 9d71 d7bb f6ef 3b3b
00000270: c531 6fb9 891b 3cba aa08 a13b 4150 62bb
00000280: 33f9 ca3c 9ec2 c43b d664 42ba d1b2 b13a
00000290: d651 97ba f5bd 6c3b 814e b53b 0f41 8ebb
000002a0: fda7 953b deb1 c2ba dbf0 e83b 2817 e6ba
000002b0: e55b 283c f75b 99bb a2d8 ec39 9559 90bb
000002c0: e1f6 87bb 1548 b73b 2a8c 063b 0f2d c23a
000002d0: fa6f 00bc 8fca 3b39 4eeb e03b dfb7 153b
000002e0: 1821 acba e819 b2bb 64fd b336 ffcd a5bc
000002f0: 6814 11bc 3085 33bb 690e 3d3b 703c bbbb
00000300: 83c7 f43b 4458 daba 8643 68bb a9a6 3439
00000310: 1be5 ff3a 7f29 65bc 2d91 a43b baf0 573a
00000320: 949e 3ebb 61d6 27ba 4499 41bb ffaa 293c
00000330: 0dd4 3abc f5e2 523b 7f69 b4ba a9d3 03bb
00000340: 223a 523b e773 423a 3849 183c 8f59 0abc
00000350: 0c6e 033c 61e2 69bb 9906 0ebb b155 733b
00000360: 1d5f c3bb 046a 34bb 116f cdb9 8208 11bb
00000370: bbc3 b9bb 8f8e 5abb a195 bfb8 01e6 513b
00000380: e651 893a b19d 463b f221 e93b b2e1 893b
00000390: a05a 493b 04ff 433b a5f8 86bd a9c6 a93b
000003a0: d0ed 07bb 1d27 763b 40de a13b 52d8 8cbb
000003b0: e763 3f3a 8e6c 80bb c88f 733b eb6a e83b
000003c0: 96a9 44ba face b53a cb0d 263b 25f3 6d3b
000003d0: e8fc 2ebb d157 213c 78a2 12bb 457f ec3b
000003e0: 8ee7 8e3b 62b8 9dba 57a9 aa3c e6ac 2bbb
000003f0: d3e4 5abc 6771 6d3b 27e9 313b d327 563b

tabnet.initial_bn.running_var f4 [1038]
0.0070993872 0.0011208141 0.9864607 0.9673257 0.96456504 0.9665432 0.9777573 0.9754322
0.96677196 0.9729609 1.0637182 0.9696886 0.969595 0.9751695 0.9711798 0.9867696
0.9783057 0.96128327 0.98366785 0.97311175 0.9638584 0.9785863 0.9690522 0.9642296
0.9599232 0.9538338 0.97445154 0.9635081 0.965495 0.96345973 0.96341586 0.9681107
0.98065615 1.0558561 0.9654544 0.97828954 0.97707874 0.96554494 0.9885165 1.2617261
1.1887345 0.96603614 1.0032104 0.9817635 0.96674144 0.9733483 0.97335255 0.96655035
1.0137881 0.9634828 0.9875493 0.9694477 1.2997884 0.9701897 0.96795326 0.9840805
0.972793 0.9869901 0.9729961 0.98669297 1.121616 0.9770796 0.95829844 0.9782767
1.0279114 1.0327129 0.9594482 0.980726 0.9650251 1.3685477 0.9620768 0.9648595
0.968373 0.9690047 1.1132239 0.9738599 1.0483401 1.3116617 0.961149 0.9674922
0.96685153 0.96554035 0.9692872 0.97603506 0.9641535 0.9769084 0.9709586 0.9703122
1.0211887 0.9607689 0.9655688 0.96325636 0.9739988 1.0115966 0.9649146 0.96841675
0.96359926 0.97393465 1.0028769 1.0182095 1.0015253 0.96611226 1.0755646 0.96346974
0.981015 0.96195126 0.9652795 0.9710354 0.99414843 0.97494626 0.96766627 0.96341395
0.9613616 0.97972554 0.9717229 1.1053158 0.9714361 0.96559876 0.9685181 0.97150075
0.9639879 0.9679597 0.966559 0.9964741 0.96126103 1.1610415 0.9615767 0.9663387
0.9778388 0.96773016 1.0965226 0.9755129 1.009102 1.2025844 1.0042386 0.9874725
0.9674863 0.9635381 0.9694163 0.97320914 0.9753572 0.9762291 0.96401817 0.9696086
0.97582203 0.96737295 1.0097148 0.9785939 0.98979974 1.0243698 0.98696107 0.96043587
0.9655152 0.9684575 1.0134085 0.9614572 0.9689297 1.0078559 0.9718026 0.97373015
1.1370925 0.9585457 0.99349195 0.97117555 0.97154087 1.0171698 0.9994039 0.9653056
0.9676233 0.973929 0.96968603 0.973057 1.0338957 0.97488767 0.972624 0.97289985
0.97249454 0.96616167 0.96693516 0.98903763 1.0831814 0.9677007 0.9668298 0.9849372
0.9744097 1.0099139 0.9669988 1.1193106 0.9701058 0.97394955 0.9636404 0.9972204
0.9692607 0.972532 0.9647177 0.9638907 0.97345734 1.0776519 0.9734123 1.0061795
0.9805954 0.9626119 0.96882045 1.0501465 1.0630624 0.96942514 0.97949594 0.9641628
0.9658838 0.9655105 1.0660608 0.97099304 0.97545254 0.9685517 0.9676162 0.9828899
0.9629588 1.0089208 0.9707839 0.97155625 0.9657298 0.9751988 0.9829828 0.9732557
0.9676443 0.96967626 0.97071546 0.9745227 1.0208117 0.9681999 1.4586657 0.9694668
0.9628266 0.9931146 0.97564226 0.9690426 0.9703168 0.9855065 0.9632077 0.96888626
0.9606258 0.97850996 0.9652823 0.9678665 0.9607203 1.0024927 0.97450405 0.9683549
0.9644315 0.9672983 1.1464536 0.9795023 1.0438033 1.0025724 0.96988887 0.97338927
00000000: faa1 e83b 48e8 923a b088 7c3f a8a2 773f
00000010: bced 763f 606f 773f 4d4e 7a3f edb5 793f
00000020: 5e7e 773f f713 793f eb27 883f 833d 783f
00000030: 6137 783f b5a4 793f 3d9f 783f ef9c 7c3f
00000040: 3e72 7a3f a916 763f a8d1 7b3f da1d 793f
00000050: 6dbf 763f a284 7a3f ce13 783f c0d7 763f
00000060: 87bd 753f 742e 743f a875 793f 78a8 763f
00000070: ae2a 773f 4ca5 763f 6ca2 763f 1ad6 773f
00000080: 480c 7b3f 4b26 873f 0528 773f 2f71 7a3f
00000090: d521 7a3f f42d 773f 6b0f 7d3f 3e80 a13f
000000a0: 7428 983f 254e 773f 3369 803f da54 7b3f
000000b0: 5e7c 773f 5b2d 793f a22d 793f d86f 773f
000000c0: cfc3 813f cfa6 763f 08d0 7c3f b92d 783f
000000d0: 775f a63f 5a5e 783f c9cb 773f b3ec 7b3f
000000e0: f608 793f 62ab 7c3f 4616 793f e997 7c3f
000000f0: 1d91 8f3f e321 7a3f 0c53 753f 5870 7a3f
00000100: 9a92 833f f02f 843f 669e 753f dc10 7b3f
00000110: e30b 773f 922c af3f aa4a 763f 0801 773f
00000120: 4be7 773f b110 783f 1f7e 8e3f e24e 793f
00000130: 0230 863f 88e4 a73f dc0d 763f 92ad 773f
00000140: 9583 773f a72d 773f 3523 783f 6fdd 793f
00000150: c4d2 763f ab16 7a3f be90 783f 6166 783f
00000160: 50b6 823f f3f4 753f 842f 773f f897 763f
00000170: fc57 793f ff7b 813f a504 773f 29ea 773f
00000180: 71ae 763f c853 793f 455e 803f b054 823f
00000190: fb31 803f 2253 773f 1aac 893f f4a5 763f
000001a0: cd23 7b3f 7042 763f 8f1c 773f c795 783f
000001b0: 8380 7e3f 1496 793f fab8 773f 4ca2 763f
000001c0: cb1b 763f 4bcf 7a3f d5c2 783f fd7a 8d3f
000001d0: 09b0 783f 7b31 773f cdf0 773f 46b4 783f
000001e0: e9c7 763f 35cc 773f 6970 773f ed18 7f3f
000001f0: 3415 763f 029d 943f e429 763f f961 773f
00000200: a553 7a3f 2abd 773f da5a 8c3f 37bb 793f
00000210: 412a 813f 49ee 993f e48a 803f ffca 7c3f
00000220: 2fad 773f 6faa 763f ab2b 783f 3c24 793f
00000230: 02b1 793f 26ea 793f e5c9 763f 4538 783f
00000240: 79cf 793f c1a5 773f 563e 813f 2185 7a3f
00000250: 8463 7d3f 8d1e 833f 7ba9 7c3f 20df 753f
00000260: 012c 773f d5ec 773f 5fb7 813f 0f22 763f
00000270: c70b 783f 6c01 813f 0ec8 783f 6146 793f
00000280: 3f8c 913f 4063 753f 7d55 7e3f f69e 783f
00000290: e7b6 783f 9f32 823f efd8 7f3f 451e 773f
000002a0: 29b6 773f 6953 793f 583d 783f 431a 793f
000002b0: b256 843f 3d92 793f e3fd 783f f70f 793f
000002c0: 67f5 783f 5f56 773f 1089 773f 9231 7d3f
000002d0: b0a5 8a3f 3cbb 773f 2882 773f d824 7c3f
000002e0: ea72 793f dc44 813f 3c8d 773f 9245 8f3f
000002f0: db58 783f c254 793f 23b1 763f d649 7f3f
00000300: 7821 783f dbf7 783f bdf7 763f 8ac1 763f
00000310: 8034 793f 7ff0 893f 8c31 793f 7dca 803f
00000320: 4d08 7b3f bc6d 763f 9e04 783f 336b 863f
00000330: 6e12 883f 3f2c 783f 3fc0 7a3f 60d3 763f
00000340: 2944 773f b22b 773f ae74 883f 0093 783f
00000350: 42b7 793f 01f3 773f b2b5 773f ac9e 7b3f
00000360: 7884 763f 5124 813f 4b85 783f e9b7 783f
00000370: 113a 773f a1a6 793f c3a4 7b3f 4927 793f
00000380: 89b7 773f b43c 783f cf80 783f 527a 793f
00000390: f5a9 823f f3db 773f 8fb5 ba3f fa2e 783f
000003a0: ce7b 763f c23c 7e3f b1c3 793f 2d13 783f
000003b0: af66 783f 274a 7c3f c894 763f ee08 783f
000003c0: 93eb 753f a17f 7a3f be1c 773f 19c6 773f
000003d0: c4f1 753f ae51 803f 1979 793f 1be6 773f
000003e0: fce4 763f dda0 773f febe 923f aac0 7a3f
000003f0: 599b 853f 4b54 803f a34a 783f 0a30 793f

tabnet.initial_splitter.shared.shared_layers.0.weight f4 [96, 1038]
0.000875316 0.011155474 -0.00013461988 0.013632759 -0.009570195 -0.019864412 0.002140751 0.006120685
0.014635568 0.0015814855 -0.0063921274 0.002914049 4.1202784e-05 -0.008873087 0.015356684 -0.0037944485
0.021679904 -0.022804864 0.0011200986 -2.3127008e-05 0.011070552 0.011770093 -0.003684703 0.0059946617
-0.04007725 0.0015088454 0.0004258088 0.0063439873 -0.015786594 -0.01076719 0.0322779 0.019254502
0.00389527 0.0015811718 -0.0023647198 -0.0047680745 -0.008420584 -2.534476e-06 0.023152214 0.02383947
-0.0012250282 -0.02675289 0.021397289 0.004599323 -9.1799564e-07 0.009462668 -0.0021728917 0.1062452
-4.805195e-06 -0.013823885 -0.013236241 -2.8890516e-05 0.017859658 -7.4063326e-05 0.00265038 -0.0041106446
-0.009401153 0.0021572902 0.077727705 -0.014760385 0.0100408355 1.6349166e-08 -0.007158551 0.00047784016
-0.010540494 -0.048103902 -7.807513e-06 -0.07329785 -0.00021618116 0.0003507773 -0.016321585 -0.0071570245
0.093936935 -0.048531216 0.0013248929 6.936632e-07 0.054688048 -0.05256395 -1.1314897e-07 0.004549765
0.001052818 4.9579376e-06 -4.1220946e-12 -0.015859623 0.007062019 0.02662369 -0.011090994 -0.0068178116
0.010489294 -0.0027995645 0.010712713 -0.0022073847 -0.01186699 -0.007196443 -0.013498164 -0.006789553
-0.008088802 -0.0062890253 0.001166815 -5.6913363e-05 0.01372333 0.0014497932 -0.0033813715 0.004436445
-0.007850788 0.0150329415 -0.0052768807 -0.015509438 -0.020906279 -0.004823842 -0.0024902748 0.019221274
0.021890229 0.004940085 0.00018141331 0.011122521 0.004513257 3.6091955e-05 0.00842718 0.015214086
-0.010291485 0.0016168024 -0.090166785 8.5874086e-07 0.01495164 -0.013330098 -0.027736349 0.009790038
-0.054370034 0.0040931283 -0.0038042965 0.009737545 -0.015060593 -0.007332118 -2.4970213e-08 0.012666916
0.03148782 -0.010898476 -7.3267224e-06 0.008307248 0.013693159 -0.013152293 -0.007762686 -0.0013126482
0.0025715525 -0.0180968 0.002508261 0.0032061157 -0.002852208 -0.08462306 -0.007935149 -0.00368517
0.0050075147 0.0019794146 0.015249615 -0.013916711 0.011397012 0.00010851895 0.011607678 -0.026065158
0.03840004 0.0057235467 -0.0003491483 0.003264419 -0.014356668 -0.08577154 -0.022056337 0.0010618218
-0.0023633055 0.00026873348 -0.0021853545 0.013276227 0.0015846017 0.00035403945 0.085067295 -0.0007041494
-0.0077766506 0.014303236 0.0012662945 -0.003749685 -0.008458898 0.0005825547 -0.0034518943 -0.0384325
-0.010077216 0.013041106 0.0012646648 0.010056375 0.003761562 -0.016005911 0.006787865 -3.6142756e-05
0.011301884 0.0064573693 0.004236065 0.040420588 0.0006319418 8.441059e-05 -1.626411e-06 0.003045609
0.00060133426 0.0034949963 0.007859167 -0.004664701 0.006612058 0.0058800797 0.0051565645 -0.016750986
0.0074863797 -0.015726637 -0.2799459 -0.0025043143 -0.0029205116 -0.010460933 0.0035613645 -0.017715873
-0.0007657774 -0.017687945 -0.004838914 0.007791447 0.0022596396 -0.005495033 0.00062737643 0.007005971
-0.014121564 -0.02565745 -0.000116302304 -0.0003616469 -0.011228792 0.0031923424 0.0008303413 0.0011866301
0.00019388013 0.017732086 -0.0006061805 -0.00689022 0.00864513 -0.010802027 0.014376048 0.02428726
0.0034736947 -0.005848267 0.011012356 0.009220611 0.00056367135 0.0032118661 -0.009239516 -0.0013122777
-0.005053396 0.0005537911 -0.005209475 -6.103095e-06 0.006217621 0.0014618341 -0.013795916 -7.28889e-08
00000000: 7675 653a 73c5 363c c028 0db9 f05b 5f3c
00000010: 4fcc 1cbc b1ba a2bc d84b 0c3b 0790 c83b
00000020: 05ca 6f3c d949 cf3a 0d75 d1bb a1f9 3e3b
00000030: 27d1 2c38 6d60 11bc 9a9a 7b3c 48ac 78bb
00000040: 0e9a b13c 44d1 babc 46d0 923a df00 c2b7
00000050: 4361 353c 59d7 403c 0f7b 71bb de6e c43b
00000060: 0b28 24bd 73c4 c53a 173f df39 39e1 cf3b
00000070: e352 81bc de68 30bc d535 043d 9ebb 9d3c
00000080: c947 7f3b 523f cf3a 6af9 1abb 823d 9cbb
00000090: 7df6 09bc f715 2ab6 b6a9 bd3c fe4a c33c
000000a0: 2091 a0ba e028 dbbc 5e49 af3c ebb5 963b
000000b0: 2e6c 76b5 4e09 1b3c 1367 0ebb 1597 d93d
000000c0: 503c a1b6 937d 62bc d2dc 58bc e959 f2b7
000000d0: 6b4e 923c 7252 9bb8 ffb1 2d3b 96b2 86bb
000000e0: 4b07 1abc 5361 0d3b b42f 9f3d 8bd5 71bc
000000f0: 5182 243c 3270 8c32 4792 eabb 9f86 fa39
00000100: 09b2 2cbc 9908 45bd 03fd 02b7 2f1d 96bd
00000110: b0ae 62b9 88e8 b739 d8b4 85bc 7985 eabb
00000120: 0262 c03d abc8 46bd 07a8 ad3a 2c34 3a35
00000130: 9300 603d 4c4d 57bd 4efc f2b3 3216 953b
00000140: b6fe 893a 5c5c a636 8708 91ac 0aec 81bc
00000150: 8268 e73b ed19 da3c 00b7 35bc f367 dfbb
00000160: 4adb 2b3c e678 37bb 6084 2f3c c5a9 10bb
00000170: c36d 42bc 24d0 ebbb 6727 5dbc e67a debb
00000180: e586 04bc 2b14 cebb d1ef 983a 42b6 6eb8
00000190: d1d7 603c fd06 be3a 009a 5dbb 995f 913b
000001a0: 97a0 00bc ba4c 763c afe9 acbb 4c1b 7ebc
000001b0: a543 abbc 5211 9ebb e133 23bb ef75 9d3c
000001c0: 2353 b33c 70e0 a13b c439 3e39 3c3b 363c
000001d0: f2e3 933b 7161 1738 2812 0a3c 8044 793c
000001e0: 9e9d 28bc e3ea d33a 5da9 b8bd 3984 6635
000001f0: b9f7 743c 7c66 5abc 5737 e3bc 6566 203c
00000200: 1db3 5ebd a61f 863b 8151 79bb 398a 1f3c
00000210: b5c0 76bc 4442 f0bb 147e d6b2 e588 4f3c
00000220: 5ff9 003d 858f 32bc 11d8 f5b6 201b 083c
00000230: 4659 603c b77c 57bc 215e febb 2a0d acba
00000240: 7e87 283b be3f 94bc a361 243b b21d 523b
00000250: 1cec 3abb db4e adbd 6d02 02bc e582 71bb
00000260: 1416 a43b 11b9 013b 85d9 793c eb02 64bc
00000270: 88ba 3a3c ab94 e338 212e 3e3c 9986 d5bc
00000280: 5c49 1d3d 978c bb3b e40d b7b9 ddef 553b
00000290: 3b38 6bbc fda8 afbd 7eaf b4bc d42c 8b3a
000002a0: b0e1 1abb cce4 8c39 2a38 0fbb 8884 593c
000002b0: 69b2 cf3a 5f9e b939 c337 ae3d ab96 38ba
000002c0: 46d3 febb 1f58 6a3c cbf9 a53a 46bd 75bb
000002d0: 3197 0abc 96b6 183a 2d39 62bb 666b 1dbd
000002e0: e81a 25bc 5daa 553c 1cc3 a53a 7ec3 243c
000002f0: 8a84 763b d41e 83bc bd6c de3b fd97 17b8
00000300: 8a2b 393c 5798 d33b b0ce 8a3b 0f90 253d
00000310: e5a8 253a 9705 b138 0e4b dab5 d798 473b
00000320: dca2 1d3a 4f0c 653b bcc3 003c 59da 98bb
00000330: f6a9 d83b afad c03b 66f8 a83b 5d39 89bc
00000340: 4e50 f53b 26d5 80bc 1255 8fbe 6c1f 24bb
00000350: 0e66 3fbb 5564 2bbc c865 693b e120 91bc
00000360: 74be 48ba 4fe6 90bc c18f 9ebb 654f ff3b
00000370: 7616 143b ae0f b4bb 8576 243a 5892 e53b
00000380: 225e 67bc 932f d2bc 53e7 f3b8 6d9b bdb9
00000390: f8f8 37bc 9e36 513b 43ab 593a b388 9b3a
000003a0: 4d4c 4b39 e142 913c 16e8 1eba 5bc7 e1bb
000003b0: 4ea4 0d3c fcfa 30bc 8489 6b3c 13f6 c63c
000003c0: eda6 633b d2a2 bfbb 2b6d 343c 0c12 173c
000003d0: 58c3 133a 2c7e 523b 5761 17bc bc00 acba
000003e0: f596 a5bb 4b2c 113a 3eb4 aabb 30c9 ccb6
000003f0: 2fbd cb3b 039b bf3a 4408 62bc 1987 9cb3

tabnet.initial_splitter.shared.shared_layers.1.weight f4 [96, 48]
0.26261318 -0.05607431 0.034119252 0.01677137 -0.03351419 -0.008039037 0.034694776 -0.046059642
0.06341942 -0.0018953542 -0.05219415 -0.04640495 0.09748606 -0.0111935465 0.022129415 0.019836681
0.013459939 -0.00036463258 0.05368448 0.008518482 -0.08877824 0.06670703 -0.08501442 0.047032353
-0.00011849969 -0.020271122 -0.002929098 8.924808e-05 -0.018045815 0.0054074298 0.0005532454 0.009336399
-0.010836829 0.0090433 0.00086872245 0.00010641075 -0.0006833856 -0.0055414457 -0.00047776342 -0.008061612
-0.0130555285 -0.0057091527 0.0057040625 -0.0011017481 0.0010814044 0.004061321 -0.004192772 -0.016145773
-0.0282565 0.38234323 -0.015856333 -0.002712375 -0.06130918 -0.009738004 -0.023997912 -0.05073092
-0.019526275 0.039628156 -0.07507833 -0.038640052 -0.0032393557 -0.03088683 -0.05424946 -0.011241425
-0.00085005636 -0.06883683 -0.0030347758 -0.056720246 -0.034862876 -0.005584262 0.07709434 0.033115834
-0.003908419 0.0029337099 -0.0009978605 -0.0056659575 -4.230026e-05 0.00022384914 0.00024003019 0.007185224
0.0008861499 0.008038413 0.010029864 0.022955816 0.0010458267 0.0017835586 0.002519754 0.006388954
-0.0038767788 0.0080839135 9.611408e-05 9.203001e-05 0.00069535046 0.0011030214 -0.00027944523 0.014378597
0.016181746 -0.031123733 0.15844783 0.051764864 0.006985124 0.028320422 0.06987299 0.095136404
0.043687098 0.05630847 -0.019137897 -0.03476049 0.07629007 -0.0036113698 -0.03149911 -0.087649524
-0.037342016 0.013367917 -0.040358923 -0.0041061826 -0.009266691 0.03866703 0.0361537 -0.06628132
-0.012270237 0.0013304405 0.0064293123 -0.0014704425 0.008069255 0.000690024 0.0043353285 -0.0013766983
-0.0043624626 0.0050860723 0.0040997746 -0.006258474 -0.0031599805 0.0019041206 0.004481972 0.0027955177
-0.010943924 0.006434062 0.005269302 0.0011237022 0.0054516913 0.00055425393 -0.0031010362 -0.011574966
-0.010620229 -0.01289392 0.032288622 0.15190405 -0.119763836 -0.09846864 0.060957074 -0.026099764
-0.04354737 0.08434656 0.024530696 -0.08730917 -0.10344584 0.010872035 0.005482027 -0.08107787
-0.022828309 -0.036402695 0.012632974 -0.06725294 0.00045937506 0.017590804 0.011092193 -0.032892797
4.4353743e-05 -0.005252959 0.0012094327 0.010436132 -0.01195276 -0.0038473352 -0.0035645224 0.0034405475
-0.0054016104 0.005016238 -0.0037682124 -0.0042426507 0.003340428 -0.0006348139 -0.0024218347 -0.014477549
-0.0048979423 -0.014041439 0.0022589858 -0.00041845083 -0.0025062126 0.007140143 -0.00165611 0.0034581993
-0.09765929 -0.07058574 -0.043187097 -0.066661455 0.2567961 -0.057868976 -0.008553005 -0.02816599
0.014657943 0.03465492 -0.075344644 -0.014383844 -0.062053397 -0.036524516 -0.042022195 -0.026097102
-0.05123981 -0.03941482 0.09968344 -0.039711323 -0.023945853 0.032411624 -0.0066360612 -0.064991295
0.007806388 -0.017423568 -0.00042200627 -0.0035444954 -0.015727278 0.003931588 0.0036783237 0.0071456986
-0.0030920664 0.0060463906 -0.0036523985 0.0034653866 0.003411067 -0.0028681126 0.0037670154 0.0017021303
-0.0033915301 -0.0022692701 0.0065855053 -0.0008843303 0.0003337375 0.0019198469 -0.008830003 0.0020571586
0.02508482 0.0057746284 -0.015637556 -0.040145572 -0.023207784 0.37802634 0.056710266 0.012153229
-0.13116628 0.051350236 -0.101816304 0.037784036 -0.05517551 0.00019663549 0.031097658 0.074226886
00000000: 3c75 863e 2dae 65bd a1c0 0b3d 1d64 893c
00000010: 2d46 09bd 2ab6 03bc 1c1c 0e3d 09a9 3cbd
00000020: 0ae2 813d 896d f8ba 88c9 55bd 1e13 3ebd
00000030: c5a6 c73d 2365 37bc bf48 b53c 8980 a23c
00000040: 1387 5c3c 282c bfb9 42e4 5b3d 1a91 0b3c
00000050: 5ed1 b5bd b29d 883d 0a1c aebd ffa4 403d
00000060: 0983 f8b8 a00f a6bc 1cf6 3fbb b32a bb38
00000070: d1d4 93bc cf30 b13b ac07 113a b2f7 183c
00000080: f58c 31bc 592a 143c faba 633a d628 df38
00000090: 3b25 33ba 0495 b5bb 527c fab9 da14 04bc
000000a0: dbe6 55bc d813 bbbb 25e9 ba3b 8868 90ba
000000b0: e9bd 8d3a d414 853b 8563 89bb 2444 84bc
000000c0: 2d7a e7bc 7ec2 c33e 24e5 81bc 1ac2 31bb
000000d0: 561f 7bbd 268c 1fbc 4597 c4bc 3acb 4fbd
000000e0: 91f5 9fbc 2251 223d abc2 99bd 0845 1ebd
000000f0: 5f4b 54bb 6106 fdbc af34 5ebd f42d 38bc
00000100: 51d6 5eba 53fa 8cbd 17e3 46bb 7d53 68bd
00000110: 60cc 0ebd 2ffc b6bb a3e3 9d3d 78a4 073d
00000120: 3212 80bb 7c43 403b a4ca 82ba 7fa9 b9bb
00000130: 8f6b 31b8 0cb9 6a39 9db0 7b39 0772 eb3b
00000140: 834c 683a 8cb3 033c 4c54 243c d60d bc3c
00000150: 1f14 893a 4cc6 e93a 7522 253b 6e5a d13b
00000160: 8e11 7ebb 6472 043c db90 c938 3c00 c138
00000170: 2e48 363a 4293 903a 8182 92b9 3594 6b3c
00000180: 958f 843c 33f7 febc 2640 223e 6507 543d
00000190: 78e3 e43b 3b00 e83c 9219 8f3d e0d6 c23d
000001a0: 3ef1 323d b6a3 663d 14c7 9cbc 0461 0ebd
000001b0: f83d 9c3d bbac 6cbb 3605 01bd 9881 b3bd
000001c0: f1f3 18bd 1c05 5b3c 664f 25bd 288d 86bb
000001d0: 52d3 17bc 5261 1e3d e715 143d 80be 87bd
000001e0: 1b09 49bc 2d62 ae3a fbac d23b ddbb c0ba
000001f0: e934 043c bae2 343a 5f0f 8e3b 5472 b4ba
00000200: fdf2 8ebb 11a9 a63b 6757 863b e313 cdbb
00000210: ad17 4fbb af93 f93a 82dd 923b 0135 373b
00000220: 254e 33bc d3d4 d23b 1caa ac3b 3049 933a
00000230: 1aa4 b23b 5a4b 113a c13a 4bbb eda4 3dbc
00000240: 7800 2ebc 0541 53bc 1341 043d bc8c 1b3e
00000250: be46 f5bd eda9 c9bd 20ae 793d 2ccf d5bc
00000260: ba5e 32bd e4bd ac3d 99f4 c83c 26cf b2bd
00000270: 6adb d3bd 9f20 323c 93a2 b33b 280c a6bd
00000280: 6f02 bbbc fe1a 15bd 89fa 4e3c e9bb 89bd
00000290: 47d8 f039 971a 903c 08bc 353c 99ba 06bd
000002a0: 7808 3a38 0421 acbb d485 9e3a 4ffc 2a3c
000002b0: 82d5 43bc 9323 7cbb c39a 69bb cf7a 613b
000002c0: feff b0bb 415f a43b 1df4 76bb ef05 8bbb
000002d0: 15eb 5a3b a469 26ba a5b7 1ebb 3e33 6dbc
000002e0: eb7e a0bb 100e 66bc 7e0b 143b 8563 dbb9
000002f0: 453f 24bb dcf7 e93b d511 d9ba f5a2 623b
00000300: 9801 c8bd 428f 90bd f4e4 30bd cd85 88bd
00000310: c77a 833e 0508 6dbd e721 0cbc 5dbc e6bc
00000320: de27 703c 51f2 0d3d 4b4e 9abd 37aa 6bbc
00000330: b42b 7ebd bb9a 15bd 771f 2cbd 97c9 d5bc
00000340: d6e0 51bd 6f71 21bd d526 cc3d 57a8 22bd
00000350: 182a c4bc 0dc2 043d 5173 d9bb 281a 85bd
00000360: bbcc ff3b dfbb 8ebc b940 ddb9 c44a 68bb
00000370: 7ed6 80bc 8dd4 803b 0810 713b 7726 ea3b
00000380: 44a4 4abb cd20 c63b 145d 6fbb 8a1b 633b
00000390: 358c 5f3b f2f6 3bbb 08e0 763b 041a df3a
000003a0: 6f44 5ebb 09b8 14bb 39cb d73b 67d2 67ba
000003b0: 7df9 ae39 5fa3 fb3a b8ab 10bc 65d1 063b
000003c0: ae7e cd3c 1839 bd3b 551a 80bc af6f 24bd
000003d0: 401e bebc ab8c c13e 0649 683d 561e 473c
000003e0: 7450 06be a054 523d 1185 d0bd 6fc3 1a3d
000003f0: b7ff 61bd f02f 4e39 84c0 fe3c 4404 983d

tabnet.initial_splitter.shared.glu_layers.0.fc.weight f4 [96, 1038]
0.000875316 0.011155474 -0.00013461988 0.013632759 -0.009570195 -0.019864412 0.002140751 0.006120685
0.014635568 0.0015814855 -0.0063921274 0.002914049 4.1202784e-05 -0.008873087 0.015356684 -0.0037944485
0.021679904 -0.022804864 0.0011200986 -2.3127008e-05 0.011070552 0.011770093 -0.003684703 0.0059946617
-0.04007725 0.0015088454 0.0004258088 0.0063439873 -0.015786594 -0.01076719 0.0322779 0.019254502
0.00389527 0.0015811718 -0.0023647198 -0.0047680745 -0.008420584 -2.534476e-06 0.023152214 0.02383947
-0.0012250282 -0.02675289 0.021397289 0.004599323 -9.1799564e-07 0.009462668 -0.0021728917 0.1062452
-4.805195e-06 -0.013823885 -0.013236241 -2.8890516e-05 0.017859658 -7.4063326e-05 0.00265038 -0.0041106446
-0.009401153 0.0021572902 0.077727705 -0.014760385 0.0100408355 1.6349166e-08 -0.007158551 0.00047784016
-0.010540494 -0.048103902 -7.807513e-06 -0.07329785 -0.00021618116 0.0003507773 -0.016321585 -0.0071570245
0.093936935 -0.048531216 0.0013248929 6.936632e-07 0.054688048 -0.05256395 -1.1314897e-07 0.004549765
0.001052818 4.9579376e-06 -4.1220946e-12 -0.015859623 0.007062019 0.02662369 -0.011090994 -0.0068178116
0.010489294 -0.0027995645 0.010712713 -0.0022073847 -0.01186699 -0.007196443 -0.013498164 -0.006789553
-0.008088802 -0.0062890253 0.001166815 -5.6913363e-05 0.01372333 0.0014497932 -0.0033813715 0.004436445
-0.007850788 0.0150329415 -0.0052768807 -0.015509438 -0.020906279 -0.004823842 -0.0024902748 0.019221274
0.021890229 0.004940085 0.00018141331 0.011122521 0.004513257 3.6091955e-05 0.00842718 0.015214086
-0.010291485 0.0016168024 -0.090166785 8.5874086e-07 0.01495164 -0.013330098 -0.027736349 0.009790038
-0.054370034 0.0040931283 -0.0038042965 0.009737545 -0.015060593 -0.007332118 -2.4970213e-08 0.012666916
0.03148782 -0.010898476 -7.3267224e-06 0.008307248 0.013693159 -0.013152293 -0.007762686 -0.0013126482
0.0025715525 -0.0180968 0.002508261 0.0032061157 -0.002852208 -0.08462306 -0.007935149 -0.00368517
0.0050075147 0.0019794146 0.015249615 -0.013916711 0.011397012 0.00010851895 0.011607678 -0.026065158
0.03840004 0.0057235467 -0.0003491483 0.003264419 -0.014356668 -0.08577154 -0.022056337 0.0010618218
-0.0023633055 0.00026873348 -0.0021853545 0.013276227 0.0015846017 0.00035403945 0.085067295 -0.0007041494
-0.0077766506 0.014303236 0.0012662945 -0.003749685 -0.008458898 0.0005825547 -0.0034518943 -0.0384325
-0.010077216 0.013041106 0.0012646648 0.010056375 0.003761562 -0.016005911 0.006787865 -3.6142756e-05
0.011301884 0.0064573693 0.004236065 0.040420588 0.0006319418 8.441059e-05 -1.626411e-06 0.003045609
0.00060133426 0.0034949963 0.007859167 -0.004664701 0.006612058 0.0058800797 0.0051565645 -0.016750986
0.0074863797 -0.015726637 -0.2799459 -0.0025043143 -0.0029205116 -0.010460933 0.0035613645 -0.017715873
-0.0007657774 -0.017687945 -0.004838914 0.007791447 0.0022596396 -0.005495033 0.00062737643 0.007005971
-0.014121564 -0.02565745 -0.000116302304 -0.0003616469 -0.011228792 0.0031923424 0.0008303413 0.0011866301
0.00019388013 0.017732086 -0.0006061805 -0.00689022 0.00864513 -0.010802027 0.014376048 0.02428726
0.0034736947 -0.005848267 0.011012356 0.009220611 0.00056367135 0.0032118661 -0.009239516 -0.0013122777
-0.005053396 0.0005537911 -0.005209475 -6.103095e-06 0.006217621 0.0014618341 -0.013795916 -7.28889e-08
00000000: 7675 653a 73c5 363c c028 0db9 f05b 5f3c
00000010: 4fcc 1cbc b1ba a2bc d84b 0c3b 0790 c83b
00000020: 05ca 6f3c d949 cf3a 0d75 d1bb a1f9 3e3b
00000030: 27d1 2c38 6d60 11bc 9a9a 7b3c 48ac 78bb
00000040: 0e9a b13c 44d1 babc 46d0 923a df00 c2b7
00000050: 4361 353c 59d7 403c 0f7b 71bb de6e c43b
00000060: 0b28 24bd 73c4 c53a 173f df39 39e1 cf3b
00000070: e352 81bc de68 30bc d535 043d 9ebb 9d3c
00000080: c947 7f3b 523f cf3a 6af9 1abb 823d 9cbb
00000090: 7df6 09bc f715 2ab6 b6a9 bd3c fe4a c33c
000000a0: 2091 a0ba e028 dbbc 5e49 af3c ebb5 963b
000000b0: 2e6c 76b5 4e09 1b3c 1367 0ebb 1597 d93d
000000c0: 503c a1b6 937d 62bc d2dc 58bc e959 f2b7
000000d0: 6b4e 923c 7252 9bb8 ffb1 2d3b 96b2 86bb
000000e0: 4b07 1abc 5361 0d3b b42f 9f3d 8bd5 71bc
000000f0: 5182 243c 3270 8c32 4792 eabb 9f86 fa39
00000100: 09b2 2cbc 9908 45bd 03fd 02b7 2f1d 96bd
00000110: b0ae 62b9 88e8 b739 d8b4 85bc 7985 eabb
00000120: 0262 c03d abc8 46bd 07a8 ad3a 2c34 3a35
00000130: 9300 603d 4c4d 57bd 4efc f2b3 3216 953b
00000140: b6fe 893a 5c5c a636 8708 91ac 0aec 81bc
00000150: 8268 e73b ed19 da3c 00b7 35bc f367 dfbb
00000160: 4adb 2b3c e678 37bb 6084 2f3c c5a9 10bb
00000170: c36d 42bc 24d0 ebbb 6727 5dbc e67a debb
00000180: e586 04bc 2b14 cebb d1ef 983a 42b6 6eb8
00000190: d1d7 603c fd06 be3a 009a 5dbb 995f 913b
000001a0: 97a0 00bc ba4c 763c afe9 acbb 4c1b 7ebc
000001b0: a543 abbc 5211 9ebb e133 23bb ef75 9d3c
000001c0: 2353 b33c 70e0 a13b c439 3e39 3c3b 363c
000001d0: f2e3 933b 7161 1738 2812 0a3c 8044 793c
000001e0: 9e9d 28bc e3ea d33a 5da9 b8bd 3984 6635
000001f0: b9f7 743c 7c66 5abc 5737 e3bc 6566 203c
00000200: 1db3 5ebd a61f 863b 8151 79bb 398a 1f3c
00000210: b5c0 76bc 4442 f0bb 147e d6b2 e588 4f3c
00000220: 5ff9 003d 858f 32bc 11d8 f5b6 201b 083c
00000230: 4659 603c b77c 57bc 215e febb 2a0d acba
00000240: 7e87 283b be3f 94bc a361 243b b21d 523b
00000250: 1cec 3abb db4e adbd 6d02 02bc e582 71bb
00000260: 1416 a43b 11b9 013b 85d9 793c eb02 64bc
00000270: 88ba 3a3c ab94 e338 212e 3e3c 9986 d5bc
00000280: 5c49 1d3d 978c bb3b e40d b7b9 ddef 553b
00000290: 3b38 6bbc fda8 afbd 7eaf b4bc d42c 8b3a
000002a0: b0e1 1abb cce4 8c39 2a38 0fbb 8884 593c
000002b0: 69b2 cf3a 5f9e b939 c337 ae3d ab96 38ba
000002c0: 46d3 febb 1f58 6a3c cbf9 a53a 46bd 75bb
000002d0: 3197 0abc 96b6 183a 2d39 62bb 666b 1dbd
000002e0: e81a 25bc 5daa 553c 1cc3 a53a 7ec3 243c
000002f0: 8a84 763b d41e 83bc bd6c de3b fd97 17b8
00000300: 8a2b 393c 5798 d33b b0ce 8a3b 0f90 253d
00000310: e5a8 253a 9705 b138 0e4b dab5 d798 473b
00000320: dca2 1d3a 4f0c 653b bcc3 003c 59da 98bb
00000330: f6a9 d83b afad c03b 66f8 a83b 5d39 89bc
00000340: 4e50 f53b 26d5 80bc 1255 8fbe 6c1f 24bb
00000350: 0e66 3fbb 5564 2bbc c865 693b e120 91bc
00000360: 74be 48ba 4fe6 90bc c18f 9ebb 654f ff3b
00000370: 7616 143b ae0f b4bb 8576 243a 5892 e53b
00000380: 225e 67bc 932f d2bc 53e7 f3b8 6d9b bdb9
00000390: f8f8 37bc 9e36 513b 43ab 593a b388 9b3a
000003a0: 4d4c 4b39 e142 913c 16e8 1eba 5bc7 e1bb
000003b0: 4ea4 0d3c fcfa 30bc 8489 6b3c 13f6 c63c
000003c0: eda6 633b d2a2 bfbb 2b6d 343c 0c12 173c
000003d0: 58c3 133a 2c7e 523b 5761 17bc bc00 acba
000003e0: f596 a5bb 4b2c 113a 3eb4 aabb 30c9 ccb6
000003f0: 2fbd cb3b 039b bf3a 4408 62bc 1987 9cb3

tabnet.initial_splitter.shared.glu_layers.0.bn.bn.weight f4 [96]
0.2377193 0.039465636 0.26597527 0.092323884 0.20007111 0.014653352 0.04725855 0.040379718
0.15338185 0.39034107 0.034482777 0.49562854 0.07111689 0.0076635107 0.37427026 0.040357426
0.024800817 0.45663497 0.39158028 0.0217626 0.014649566 0.054108292 0.3985891 0.018476255
0.43211505 0.45230377 0.44312483 0.28096613 0.54423314 0.5108782 0.4372893 0.32708442
0.49215874 0.48911443 0.4539614 0.4439755 0.39118624 0.5504879 0.5063372 0.38407937
0.49135813 0.39617497 0.40889204 0.03475897 0.37208664 0.33301464 0.44483474 0.3060933
0.040076874 0.00032616523 0.08130509 -0.011936246 0.03842858 -0.00015336068 0.0029465747 0.010478259
0.013751266 0.1748518 0.002238543 0.18441834 0.009501052 9.6581876e-05 0.14119065 -0.00054336136
-0.0002821941 0.23356698 0.19286516 0.0001694513 0.00018839761 -0.0020896245 0.19740877 0.00028020798
0.19130251 0.109625615 -0.29210785 0.033284828 0.19612038 -0.13565375 0.23185913 0.13890538
0.5641995 0.28419277 0.15700398 0.097553834 0.27190024 0.061193496 0.23918939 -0.12540294
0.11339519 0.3961071 0.383786 0.008322536 0.26523802 0.077374026 0.2783438 -0.09415035
00000000: b06c 733e b8a6 213d e92d 883e 4e14 bd3d
00000010: 71df 4c3e 9d14 703c 2e92 413d 3465 253d
00000020: 2210 1d3e c9da c73e d03d 0d3d 06c3 fd3e
00000030: bba5 913d 301e fb3b 5aa0 bf3e d44d 253d
00000040: 152b cb3c 0fcc e93e 367d c83e 7b47 b23c
00000050: bc04 703c a8a0 5d3d df13 cc3e 845b 973c
00000060: 2f3e dd3e 5c94 e73e 42e1 e23e cbda 8f3e
00000070: dd52 0b3f eac8 023f 62e4 df3e 9c77 a73e
00000080: 3bfc fb3e 356d fa3e a16d e83e c250 e33e
00000090: 9049 c83e c6ec 0c3f 519f 013f 0da6 c43e
000000a0: 4b93 fb3e 72d7 ca3e 4c5a d13e 6c5f 0e3d
000000b0: 2482 be3e e580 aa3e 61c1 e33e 43b8 9c3e
000000c0: a627 243d 2801 ab39 4883 a63d 3f90 43bc
000000d0: 4967 1d3d 72cf 20b9 521b 413b 01ad 2b3c
000000e0: fd4c 613c 5a0c 333e 85b4 123b 29d8 3c3e
000000f0: 4daa 1b3c 008c ca38 4894 103e 5d70 0eba
00000100: 73f3 93b9 2f2c 6f3e 727e 453e bdae 3139
00000110: 998c 4539 15f2 08bb 8625 4a3e e1e8 9239
00000120: cee4 433e 6583 e03d 298f 95be ac55 083d
00000130: c8d3 483e d1e8 0abe 7b6c 6d3e 363d 0e3e
00000140: 616f 103f b781 913e a7c5 203e 4eca c73d
00000150: 8236 8b3e 08a6 7a3d 10ee 743e a169 00be
00000160: bd3b e83d 8dce ca3e 997f c43e 3f5b 083c
00000170: 47cd 873e 4676 9e3d 1483 8e3e e6d1 c0bd

tabnet.initial_splitter.shared.glu_layers.0.bn.bn.bias f4 [96]
-0.0013272007 2.8123359e-05 0.0026758146 -6.4113025e-05 0.0011570877 6.961466e-06 -0.00015203751 0.00012861467
-0.00023630407 -0.01591974 5.8158283e-05 -0.039417867 0.00029345122 3.0898557e-06 0.0050370987 3.341262e-05
9.408262e-06 0.012524047 -0.008521924 -1.1456575e-05 -0.00012954936 1.9309353e-05 0.016609186 -2.600499e-05
0.06021089 -0.0047643706 -0.0023821576 0.017850464 -0.07332659 -0.065263905 0.0255231 0.034439053
0.116001554 -0.2253259 0.0054032337 0.02378878 0.013960441 -0.09074819 0.07579916 -0.0026591562
0.042614136 -0.029838925 -0.006202943 -0.0003026568 0.02490872 -0.017677924 -0.0026663095 0.013370086
0.0028958512 0.00037286658 0.018455554 0.0016671226 0.0027658779 -0.0001797683 -0.0014031434 -0.0016373978
0.0049868342 0.010051233 0.0004735838 0.07567176 0.0019296209 -7.2066425e-05 0.011114941 0.00060010736
0.0002473157 0.06390777 0.026610242 0.00020300949 1.3266663e-05 0.000410936 0.054886583 -0.0003863449
0.06236317 0.07824686 0.051638294 0.040036574 0.056682736 0.10129801 0.0640036 0.032430213
0.0028107553 0.09415511 0.08121044 0.08386848 0.008174922 0.1366479 0.117705286 0.051701713
0.09390295 -0.01393857 0.018934181 -0.011444422 0.02119817 0.003783971 0.058735196 0.011251764
00000000: 77f5 adba 74ea eb37 b85c 2f3b 6b74 86b8
00000010: 6ca9 973a 8a96 e936 426c 1fb9 bddc 0639
00000020: 64c8 77b9 1d6a 82bc fbee 7338 a174 21bd
00000030: 5bda 9939 515b 4f36 3f0e a53b 8724 0c38
00000040: 2dd8 1d37 a931 4d3c 8a9f 0bbc 9d35 40b7
00000050: a4d7 07b9 85fa a137 fd0f 883c 4a25 dab7
00000060: b29f 763d 701e 9cbb f91d 1cbb 233b 923c
00000070: 402c 96bd 15a9 85bd d215 d13c f70f 0d3d
00000080: 3992 ed3d d5bb 66be 9c0d b13b b0e0 c23c
00000090: 55ba 643c 30da b9bd 973c 9b3d 3d45 2ebb
000000a0: 298c 2e3d c370 f4bc 0f42 cbbb e8ad 9eb9
000000b0: 5f0d cc3c 4bd1 90bc 40bd 2ebb 350e 5b3c
000000c0: 52c8 3d3b 4e7d c339 1a30 973c 5a83 da3a
000000d0: bb43 353b 3080 3cb9 aee9 b7ba f49d d6ba
000000e0: 9968 a33b edad 243c 574b f839 ccf9 9a3d
000000f0: 55eb fc3a 5e22 97b8 711b 363c 8650 1d3a
00000100: 27aa 8139 14e2 823d b9fd d93c f2de 5439
00000110: e293 5e37 e572 d739 c1d0 603d 568e cab9
00000120: 8670 7f3d e43f a03d ad82 533d 64fd 233d
00000130: 282c 683d 5575 cf3d 5214 833d 8bd5 043d
00000140: a634 383b 65d4 c03d a951 a63d 3dc3 ab3d
00000150: 1cf0 053c 6ded 0b3e 780f f13d 2dc5 533d
00000160: 3150 c03d 9a5e 64bc db1b 9b3c 6381 3bbc
00000170: c9a7 ad3c 80fc 773b 5194 703d 5259 383c
