cv_steps/tabnet_raw_step1_fold0_3/network.pt (torch, 682379 bytes, 56 tensors)

embedder.embeddings.0.weight f4 [3, 1]
00000000: d85f 11bb c7c2 67bd a76c 413d
-0.0022182371 -0.05658224 0.04722276

embedder.embeddings.1.weight f4 [2, 1]
00000000: 9177 b0bc c38f b03c
-0.021541389 0.021552926

tabnet.initial_bn.weight f4 [1038]
00000000: e160 aa3c 8df7 1d3e 993d 0ebd 859e 853c
00000010: 7994 953d 190f 0e3e 7256 3637 f192 4b3e
00000020: 8426 ab3d 1efe eb38 2642 8b3e 2587 063a
00000030: 02db f7bd f8e9 be3d e1dd 883c ccd4 8f3d
00000040: d1b1 473e 46e1 343e 744f ceb5 028e 0e35
00000050: 4f49 1d3e 5d1c bb3d 23e4 893e 6277 173e
00000060: 381b 703e e2b4 243e 8973 2f3e 7fb4 2a3e
00000070: 57e6 243e 4736 0b3e 52c5 343e 24ef a03e
00000080: cd8f a03e 2f82 0b3d 40cb ebb3 d8ea 4f3e
00000090: b881 953e 9e84 f23d c6a9 743e 1381 133e
000000a0: 4c1a c7bb c02e 623e 0c42 213e 9b27 0c3e
000000b0: ccf7 31bc fc2e 223e 7596 f13a 77df 053e
000000c0: 1e20 b2bc 7d8c 5e3e 1d47 513e a856 633d
000000d0: e54b 643b 3208 2d3e b939 b43d 087b 0e3e
000000e0: 6f72 e63d 9028 2fbd c240 8fb9 301e 313e
000000f0: 88e1 e93b 6db6 9e3d 2d4a 5e3e 27b6 e9b0
00000100: 18f2 553e fe6f 5d3e e1d1 28bc b7c9 3a3e
00000110: 2eae c03d 622c 863c ea07 1b3e 160d 1b3e
00000120: 7dcf 82ba 4b84 133e 64b8 883d 7177 47bd
00000130: 2d9e 88b9 5cb0 bb3e 8235 c7b3 75ff 4f3e
00000140: 3488 4c3e 6ed1 ce39 c54c f33a 6934 ae3a
00000150: fc8d 0238 539e 973d 7543 223e 7156 6d3e
00000160: 0e33 a63d ce37 4d3b 6f41 f43d fd3d c13c
00000170: 2de3 0b3e 1488 6f3e 828a 363e bab1 263e
00000180: 788e 783d d99f fa3d cc9a d53c 6f48 2bb5
00000190: d100 8d3d 7d53 123e 941d 913e f10f 14bc
000001a0: c46d 253d 0872 5b3e dd2e 673d d27e c53d
000001b0: 8e12 253d 5f9b 203e c69e cf3c f1eb 0f3e
000001c0: c0f4 c23d f5d5 9a3d 60a0 a43d 3973 0a3d
000001d0: 849a ef3d 2dfb 17bd 0627 503e 6545 503e
000001e0: 4feb a83d ea5e 963c b788 5f3e 228c a23b
000001f0: 855a 743e 6445 5c3e ca23 763e 5e53 643d
00000200: 7b00 9c3d 048e ea3d 810e 253e 95f3 03ba
00000210: d417 4d3e 343b 003b 36c5 123e 8903 393e
00000220: 6e11 333e 62c4 7c3d c467 5f3d 4cdb 933d
00000230: 18a1 a33d 7dbc ba3c 40d6 203e 9939 91b4
00000240: cc85 043d 2ac0 e83d bd2c 553e 86d8 2a3d
00000250: 01cb fa3d 8661 213e 6ba6 383e 23db 463e
00000260: 23d9 ac3c da8e 1c3d f4b7 193e e776 f6b9
00000270: 1a2e 093e 80b9 fcbc 88ef 1a3e 076b a23e
00000280: 21d1 993e 41cc ca3d 9b6e ec3d 1dae 7b3d
00000290: 7e73 3c3d 6745 51b8 ca32 5b3e 10c9 e83c
000002a0: a85e 4b3e 898a a63b 1109 c23d b247 613e
000002b0: 4512 403e 2c4a dfb8 1024 143e 3fef 7c3e
000002c0: 643c ed3d fa5f b83e 0e25 cc3d 8d5f 293e
000002d0: 709a a33e afe4 1d3b 0729 1d3e c546 313e
000002e0: 41ac 0838 513b 493e 615a a43d 1036 103d
000002f0: 9beb 263d 0638 0c3e e966 e8bc e4d4 113e
00000300: 5546 183e efb7 123c 4cef ba3d 0650 413d
00000310: f196 513e ec14 523d 8e4a b8b4 bb2e 173e
00000320: f936 a33d 006f 703b 15d7 45b1 e445 a03d
00000330: 2fe4 973e 5e15 9d3e 22d2 a4bc 5a5d 53bd
00000340: 78b7 98bd e2cd 923e 4ab3 583e 1edc b43d
00000350: 6375 653e 010e a63d 5f36 123e add0 d23d
00000360: 47b2 123d b1bc 023e 650d b53d d0de 663e
00000370: 373c de3d e1e9 203e 6156 c33d 49d7 6a3e
00000380: a622 043e adf5 993c 20cc 933d a102 2d3e
00000390: e67c ff3d bb17 7ebd 3c95 c13d 4b74 2a3e
000003a0: 525d 013d 523b 4b3e 17f9 1f3d 0265 0f3e
000003b0: d283 5b3c ceb2 473e d152 0c3e dca2 083e
000003c0: 2a67 b93d 3725 fc3d e536 c83d d910 303e
000003d0: 011e 1f3e a167 1234 65e5 a03d a605 11bd
000003e0: eee7 3c3e 6fb1 1439 e4f0 3a3e 3af3 3eb7
000003f0: 2d2d cab7 64b1 b33c 7596 f73d 1464 dc3b
0.020798149 0.15426464 -0.034726713 0.01631094 0.073037095 0.13872947 1.08681725e-05 0.19880272
0.08356956 0.00011253006 0.27198905 0.00051318324 -0.12102319 0.0932197 0.016707363 0.0702301
0.19501425 0.1766406 -1.537132e-06 5.310577e-07 0.15359996 0.09136269 0.26931867 0.14791635
0.23447883 0.16084626 0.17133917 0.16670416 0.16103493 0.13594924 0.17653397 0.3143245
0.3135971 0.0340597 -1.0980011e-07 0.2030443 0.2920053 0.11841701 0.23892888 0.14404707
-0.006076133 0.22088146 0.15747851 0.13686983 -0.010862302 0.15838236 0.001843168 0.13073526
-0.02174383 0.2173328 0.20437284 0.055502564 0.0034835276 0.16897658 0.08800072 0.1391412
0.11252295 -0.042763293 -0.00027323334 0.17296672 0.007137481 0.07749639 0.21707983 -1.7004752e-09
0.20893133 0.21624753 -0.010303945 0.1824101 0.09408222 0.016378585 0.15139738 0.1514171
-0.0009980049 0.14405935 0.06675795 -0.048697893 -0.00026057792 0.3665799 -9.2763926e-08 0.20312293
0.19973832 0.0003944742 0.0018562308 0.0013290766 3.112665e-05 0.07403245 0.15846045 0.23177506
0.08115207 0.003131378 0.11926543 0.023589129 0.1366088 0.23391753 0.17826274 0.16278735
0.060682744 0.1223752 0.02607479 -6.380787e-07 0.06884921 0.14289661 0.2834288 -0.009037004
0.040387884 0.21430218 0.056441177 0.0964333 0.0403009 0.1568427 0.025344264 0.14054848
0.095193386 0.0756034 0.080384016 0.03380129 0.116993934 -0.037104774 0.20327386 0.20338972
0.082480066 0.018355805 0.21829496 0.004960553 0.23862655 0.21510845 0.2403709 0.055743568
0.07617279 0.114528686 0.16118814 -0.000503355 0.20028621 0.0019566538 0.14333043 0.18067755
0.17487118 0.061710723 0.054542318 0.07219562 0.079897106 0.022794956 0.1570673 -2.7050262e-07
0.03235416 0.113647774 0.20817848 0.0417104 0.12245751 0.15759858 0.18032233 0.19419532
0.021099633 0.03822217 0.15011579 -0.00047009366 0.13396493 -0.030850172 0.15130436 0.3172228
0.30042365 0.099022396 0.11544534 0.061445344 0.04600858 -4.989412e-05 0.21406093 0.028416187
0.19860327 0.0050824326 0.094743855 0.22000006 0.1875697 -0.00010647284 0.14466882 0.2470064
0.11583784 0.36010724 0.09968005 0.16540356 0.31953764 0.0024092605 0.15347682 0.17312153
3.258535e-05 0.19651534 0.08025051 0.035207808 0.040752035 0.13693246 -0.028369384 0.14241368
0.1487058 0.008954986 0.091276735 0.047195457 0.20467736 0.051289484 -3.4326916e-07 0.1476392
0.079694696 0.0036687255 -2.8789533e-09 0.078258306 0.29666278 0.30680364 -0.02011973 -0.0516027
-0.07456869 0.286727 0.21162143 0.088310465 0.2240806 0.0810814 0.14278553 0.10293708
0.03581455 0.12767293 0.088404454 0.22545934 0.10851329 0.15714218 0.0953796 0.22933687
0.12903842 0.018793905 0.07216668 0.16895534 0.12474994 -0.06203435 0.09452292 0.16645925
0.031583138 0.19846848 0.03905591 0.14003375 0.013398128 0.19501802 0.13703467 0.13343376
0.0905288 0.12311786 0.09776095 0.17193927 0.1553879 1.363501e-07 0.078562535 -0.035405777
0.18447849 0.00014180479 0.18255955 -1.1381513e-05 -2.4101313e-05 0.021935172 0.12089244 0.0067257974

tabnet.initial_bn.bias f4 [1038]
00000000: aedd 56b8 8a90 0d3a 8ebf 2f37 b75b ba37
00000010: 752c 5739 978f 8f38 728d b8b2 a1e3 c137
00000020: 74cb c137 0809 cdb3 adae 3638 9207 6eb6
00000030: e43d 43b8 d6fe 0a39 bbbe 90b6 fbc4 a2b8
00000040: 3e54 8f39 4b7d a1b9 b6d1 90b0 474b 2930
00000050: 2105 72b9 d37d 31b9 1952 62ba 097f 493e
00000060: a5b6 c0b9 e2de 7a37 8baa 8b38 27ab 33bb
00000070: 1873 093b 613d b037 9d6b fab9 4386 f93d
00000080: b2c9 c9b7 96e5 3238 9177 5431 56cf aeb4
00000090: 0a63 d639 131d 9c38 19da fc39 d6b4 3039
000000a0: e43b 80b7 e353 9637 58ff 62b7 a5c4 04b7
000000b0: 9c51 fdb7 feec 5fba e4d4 f436 0428 6e39
000000c0: acea 4db8 c94d 4639 b97d c437 2a8a db37
000000d0: 6e3b 0db6 dd63 8e39 94a0 9138 8c15 ed37
000000e0: 2142 ba38 0f16 c8b5 c60c 3235 f809 b438
000000f0: 3dfb 2c37 ce75 e838 3b0c 423a 5624 5cac
00000100: e022 c7b9 f893 0439 170d f537 dd3a 34b7
00000110: 4265 0cb9 4ef7 26b7 915b 1f39 7cd2 c339
00000120: 1245 b534 a98c 3938 c661 c9b8 89c2 47b8
00000130: 9e6f 9cb4 c3eb a2b9 9f8b ce2c 957d 72b9
00000140: 7ba9 a5b7 d3af e0b5 fe16 bdb5 3d28 08b7
00000150: 348e 1033 672f dcb7 f117 34b9 8cfc 7638
00000160: b689 8439 b20c af36 fddb 0c38 fbfd 79b7
00000170: 4286 83b8 5236 59b8 b8b2 9538 ed3e 9338
00000180: 8cd1 9ab7 7488 1bb9 4798 2fb7 6854 4731
00000190: 88a2 b7b8 6f75 be39 98eb 5939 7bd5 0936
000001a0: aa03 b93e 1068 5639 5534 abb9 7bbc 72b7
000001b0: e32b aa3e 3e6d 58b9 b627 e337 e657 43b8
000001c0: 22a0 e1b7 bef8 2038 0b79 40b8 8e51 b7b7
000001d0: b28c f3b8 f777 4438 ae55 95b8 78f1 7639
000001e0: 95f4 ac38 4fed 72be 0047 7bba 6d35 81b7
000001f0: 0e53 9a38 7671 9e3b 457d 9b3a 1821 93be
00000200: 8fab d33e be03 c438 20e2 93b9 0e0e 1835
00000210: ae4f aa38 99f4 d634 3170 3839 b682 41b9
00000220: 824a 6eb9 5c25 bbb4 343d 9d38 f058 d437
00000230: 7044 54b7 ecd2 2837 657a 0f39 6ee7 162e
00000240: af39 963e ac56 c838 1198 ec38 58a6 cb33
00000250: be90 83b8 ec36 ac3b 399e 1939 523b 2839
00000260: 7d16 cfb8 cce9 9737 b320 0238 cb2f 1db4
00000270: 5b2f 94b6 95f9 70b7 4500 6db8 3a99 c1b9
00000280: e778 fe39 b7a7 c938 dfb3 5c34 429d f338
00000290: 04df b938 641c e532 72c7 a439 0437 6938
000002a0: e9b5 2238 1522 623e 54c9 0f39 5189 16b9
000002b0: a5db 273a 7af9 49b4 bb37 2739 76e8 a3b9
000002c0: b3e2 5eb7 1e4b 2fba 8d8a 0039 4d23 f1b8
000002d0: e66a 7fbc 0375 2bb5 c5c4 f0b8 bc56 af39
000002e0: a2f8 9532 c595 85b9 19a4 59b9 71c5 6ab8
000002f0: 7123 a5b7 42fe 0439 5373 6b38 225c 9cb8
00000300: b003 37b9 c95f 1eb9 e859 c738 e6f9 0d35
00000310: 08e7 4bb9 346d 06b9 01ba 1830 5330 7739
00000320: 9007 3637 2509 3f35 833e 76ae e184 803e
00000330: 649e 86b8 2654 26b9 428c 3336 2de2 7337
00000340: 7082 c439 ab31 9f38 2258 503d 7525 2339
00000350: 6792 c5b8 a2b6 d438 ebae 2839 e5e3 2639
00000360: 7954 9136 1fec 98b9 5377 e7b4 b013 82b9
00000370: 900c acb9 45b9 1839 d1a2 a339 666a f139
00000380: 98c6 08b9 9d42 d6b8 3d09 5c35 a78f 6338
00000390: d787 063a eb1c 19b7 49e2 beb8 316a 99b8
000003a0: 3c0d a03e 6037 93b8 2cab 7638 6ac9 9139
000003b0: 59f3 ca3e e6fb bd3e 4ab3 a134 ab6b 173a
000003c0: 6ff1 a4be 9bee 1fba 194c a538 11d6 c8b9
000003d0: 08b6 00b8 9042 b0b0 15a4 0038 7c20 dcb7
000003e0: b004 e838 be3b 0433 537c 4a38 74f5 2936
000003f0: d5fb 6b33 571e 4237 f05f 99b9 e1fe 65b7
-5.122803e-05 0.0005400261 1.0475413e-05 2.2215636e-05 0.0002052056 6.845517e-05 -2.1484741e-08 2.311339e-05
2.3102133e-05 -9.547699e-08 4.355486e-05 -3.546917e-06 -4.6549263e-05 0.0001325564 -4.3137384e-06 -7.7614524e-05
0.0002733785 -0.00030801664 -1.0536982e-09 6.158882e-10 -0.00023080829 -0.00016926909 -0.00086334493 0.19677366
-0.00036757175 1.4953055e-05 6.6598026e-05 -0.0027415247 0.0020973142 2.1009417e-05 -0.00047763894 0.121838115
-2.4054989e-05 4.2652326e-05 3.0918026e-09 -3.2560882e-07 0.0004089105 7.444075e-05 0.0004822768 0.00016852035
-1.5286678e-05 1.7920456e-05 -1.3530102e-05 -7.913598e-06 -3.0197953e-05 -0.00085420895 7.2965504e-06 0.00022712356
-4.9094364e-05 0.00018911729 2.3423565e-05 2.6171172e-05 -2.104523e-06 0.00027158755 6.944049e-05 2.8262635e-05
8.8814886e-05 -1.4907581e-06 6.6328755e-07 8.584926e-05 1.0310495e-05 0.00011084565 0.0007402335 -3.128405e-12
-0.00037982222 0.00012643624 2.9212371e-05 -1.0742541e-05 -0.00013389162 -9.951951e-06 0.00015197533 0.0003735012
3.3764132e-07 4.4238437e-05 -9.6026386e-05 -4.7626472e-05 -2.9138477e-07 -0.00031074704 5.870373e-12 -0.00023125701
-1.9748453e-05 -1.6740472e-06 -1.4088289e-06 -8.1156e-06 3.3656946e-08 -2.6248117e-05 -0.00017175057 5.8886173e-05
0.00025279605 5.2168843e-06 3.358348e-05 -1.4900691e-05 -6.271574e-05 -5.178742e-05 7.1381626e-05 7.021227e-05
-1.8455808e-05 -0.00014832785 -1.0466268e-05 2.900629e-09 -8.756394e-05 0.0003632712 0.00020782498 2.0538853e-06
0.36135608 0.00020447397 -0.00032654652 -1.4468208e-05 0.33236608 -0.00020640061 2.7079e-05 -4.6573485e-05
-2.6896658e-05 3.8378632e-05 -4.5889097e-05 -2.1853277e-05 -0.000116133495 4.6841767e-05 -7.120833e-05 0.00023550342
8.247156e-05 -0.23723339 -0.000958547 -1.5402877e-05 7.3587624e-05 0.004835303 0.0011862895 -0.28736186
0.41341826 9.346705e-05 -0.000282065 5.6644865e-07 8.121073e-05 4.0038574e-07 0.00017589402 -0.00018454608
-0.00022725205 -3.4858647e-07 7.497743e-05 2.5313784e-05 -1.2652119e-05 1.0062689e-05 0.00013683138 3.4311602e-11
0.29340884 9.552887e-05 0.000112816815 9.483182e-08 -6.273527e-05 0.0052555706 0.0001465016 0.00016043827
-9.874718e-05 1.8109473e-05 3.102487e-05 -1.4639151e-07 -4.4162566e-06 -1.4363225e-05 -5.6505454e-05 -0.0003692599
0.00048536735 9.615666e-05 2.0554533e-07 0.000116164345 8.863027e-05 2.667202e-08 0.00031429116 5.5602766e-05
3.8793227e-05 0.22083314 0.00013712543 -0.00014356269 0.0006403274 -1.8810343e-07 0.00015947122 -0.0003126298
-1.3285014e-05 -0.00066869135 0.00012258645 -0.00011498351 -0.015589451 -6.387274e-07 -0.00011480743 0.00033443223
1.7458948e-08 -0.00025479324 -0.00020755864 -5.597383e-05 -1.9686036e-05 0.0001268322 5.613577e-05 -7.455821e-05
-0.00017453614 -0.00015103737 9.505806e-05 5.2890243e-07 -0.00019445654 -0.00012819917 5.5561605e-10 0.00023573758
1.0849806e-05 7.116635e-07 -5.5989446e-11 0.2510138 -6.4191205e-05 -0.00015862341 2.675472e-06 1.4536589e-05
0.00037481217 7.590962e-05 0.0508653 0.00015558845 -9.4209616e-05 0.00010142966 0.0001608689 0.00015915891
4.3311707e-06 -0.00029167623 -4.3113923e-07 -0.000248102 -0.00032815756 0.00014564868 0.0003121109 0.00046046375
-0.00013043953 -0.00010216723 8.196983e-07 5.4254804e-05 0.0005131936 -9.126244e-06 -9.102055e-05 -7.315388e-05
0.31260097 -7.0198206e-05 5.8810387e-05 0.0002780662 0.39638785 0.37106246 3.0119037e-07 0.00057762366
-0.3221545 -0.00061009236 7.8819874e-05 -0.00038306465 -3.0687108e-05 -1.2824604e-09 3.067039e-05 -2.624117e-05
0.00011063495 3.078798e-08 4.827634e-05 2.5325835e-06 5.494424e-08 1.1570365e-05 -0.00029253913 -1.3708807e-05

tabnet.initial_bn.running_mean f4 [1038]
00000000: fb8a b3ba ba33 2aba 6c61 0f3b 3a34 d63a
00000010: 0a76 37b8 0584 8c39 8cfb 75bb 2371 703b
00000020: 33a0 7dbb 201f 62bb eb4e e1bb ff88 b0b9
00000030: e221 ac3b 2845 673b 8f5d a23a 185d 2037
00000040: 04fd 533b fd79 d1ba 5ca3 ce37 056e c53a
00000050: ab34 44bb 03c5 24ba 5a7e 4739 7c9d 3ebb
00000060: 924c 5d3b 5d67 3f3b 9056 ccbb b436 143b
00000070: 1f61 0cba 47f2 81bb d0bf 6539 fb59 573b
00000080: 660e 233a fac2 293c 842a 393b f676 8cba
00000090: e36d 2b3b 41e9 e1ba 1cd3 85bb 7f79 11bd
000000a0: 2e6b 043d 5fe1 86ba bbcf 74bb 2fa9 15ba
000000b0: 5ed8 03ba e895 6b3b e5bf 3dbc 468b a23a
000000c0: 2e5a 073c cf24 483b 30a1 ac3b 5123 84ba
000000d0: e8e6 33bd 4198 41bb 1ef5 f2b9 0ab6 28ba
000000e0: 6e49 8d3a 458f bdba f03b 723b 027e e7ba
000000f0: 0853 c4bc 4727 80b9 6791 67bb e624 1dbb
00000100: 5634 a3bb 8d2a c0bb 47f3 9839 3bee 963b
00000110: d98d d13a e0e7 5cbd c389 dc3a 07bc 24bb
00000120: a5f8 243a 2b0f 1cbb 6fb0 b5bc ab10 99ba
00000130: 47c3 1a3c 4bbd 3cbd 265f 1fbb 5ff1 c9b9
00000140: 1cab b0b9 200b 8a3b d403 7e3a 5637 b0b8
00000150: 1529 8bbb fe95 e2b9 86da 1ebb adcb 2fb9
00000160: 3ac2 ed3b 4761 cd3a 34d2 6dbb d831 dfba
00000170: 25df 5cbb 13bd 213c b1b2 f339 e3e9 0f3b
00000180: 588c abba d53a ef3a b153 d5ba c831 7a3b
00000190: a8eb 90ba 42b1 8239 1df1 343c 2432 8b3a
000001a0: 2d27 a83b 1ffe cebb 8cc7 4bba 081e 3fbb
000001b0: fb2a 7c3b c15b bcb9 6d87 c83a d831 dcb9
000001c0: b5ac 21bb 2e31 d43b 0336 b83b 9ce0 94bc
000001d0: 010f bb3b 4a9c 14bb c100 00bc 302c 113b
000001e0: fd56 d9ba 656d 013b 8741 d93a e533 e2ba
000001f0: cec9 99ba 9f3c be3c 4001 a93b 3420 9ebb
00000200: ee28 6fba 4bf1 81bb 433e 19bc e1b2 8aba
00000210: 3ef1 cc3b efbd d33c e099 733b a087 ab3a
00000220: 477a 35bb 249e 0dbb ddcc bc39 75ef e2b9
00000230: 8624 7bbb 97e2 5f39 28bf 18ba 8d37 a53a
00000240: c42c f03a 2d27 d33a 633c 0b3b 0b65 0c3b
00000250: d3b6 583b 3630 263c 0d4e 753a 29a9 6cbb
00000260: 7800 b239 528f b4b9 c556 d9bb f813 89ba
00000270: 5438 f9ba 5f22 3b3b a5e9 85b8 4be9 f83a
00000280: 49c3 a33c 6966 0cba 249f 7bbb 469c 9f3a
00000290: bf99 6638 1615 113c d32c 1a3c c532 2f3a
000002a0: 7283 08bb aa92 3cb8 86af 9d39 2e76 8abb
000002b0: c984 fa3b 1972 8239 0249 6e3a d076 393b
000002c0: d392 233b 07e6 df3a 7a59 0fbb fc9f ceba
000002d0: a043 46bc 88aa 07bb 2ddc 463b 8d02 3d3a
000002e0: 458f 49ba a6be e6bb e8d3 1b3b d73e 8ebc
000002f0: 5014 b73b 644f 1fbb c115 9abb bd76 d2ba
00000300: f078 00ba 9380 babb bc8d 2fbb ef17 8b3b
00000310: 9d1e ab3a 5064 66bc 2a02 d3ba 7885 d83b
00000320: 44c9 703b 2020 913b 09b3 5ab9 006e 223c
00000330: 8ab1 18bc 15d8 3e3b dc5e 6fba f962 46b9
00000340: c2d8 2cba ac27 0f3b 8f65 2a3c c18a 2c3b
00000350: a518 683b 5777 11bb d288 81bb 1b66 47ba
00000360: 48c4 5dba cab1 ec38 bbe8 9539 9a79 f23a
00000370: 6e8a b8ba e160 2ebb dcd6 00bb 607e 06bb
00000380: a0b0 713b e12d b03a aa75 a03a 75c6 5139
00000390: 9b6d 583c 326f 3dbb ec05 8abd b724 0bb9
000003a0: 3f35 43bb 2a27 883b 0c85 4bba e8cc 13ba
000003b0: 9895 5cbb 1d66 dfba fa13 a239 161a 41bb
000003c0: 8a1b 203b 9138 56ba 3836 9ebb e3a6 84ba
000003d0: 0ae7 2cbb bb7a 493b 523f 9a3b c37a b73a
000003e0: 3a1a 4839 efee b7ba d3a9 ad3c 5e55 0db6
000003f0: 7a52 62bc 4569 a63a d082 dab9 ae0a bfba
-0.0013698036 -0.0006492693 0.0021878136 0.0016342469 -4.3740532e-05 0.00026801243 -0.0037533967 0.0036688528
-0.0038700223 -0.0034503415 -0.006875863 -0.00033671406 0.0052530626 0.0035289023 0.0012387502 9.558418e-06
0.0032346854 -0.001598179 2.4633184e-05 0.0015062696 -0.002993862 -0.00062854605 0.00019025189 -0.0029085567
0.0033767563 0.0029205896 -0.006235905 0.0022615613 -0.00053550483 -0.0039656493 0.00021910598 0.003286003
0.0006220102 0.010361427 0.00282541 -0.0010716605 0.0026158027 -0.0017235653 -0.004084004 -0.03551626
0.032328777 -0.0010290554 -0.0037355262 -0.0005709109 -0.00050294946 0.0035947505 -0.011581396 0.0012401126
0.008261247 0.0030539518 0.0052682385 -0.0010081326 -0.04392138 -0.0029540213 -0.00046340463 -0.00064358173
0.001077933 -0.0014462253 0.0036961995 -0.0017661455 -0.023965374 -0.00024443326 -0.003533447 -0.0023978292
-0.004980604 -0.0058644474 0.00029172955 0.004606036 0.0015987708 -0.05393207 0.0016825724 -0.0025136487
0.00062931544 -0.0023812752 -0.022178857 -0.0011677941 0.009445972 -0.04607896 -0.0024318187 -0.00038517543
-0.00033696822 0.004212752 0.00096899015 -8.402641e-05 -0.0042468407 -0.00043217832 -0.0024239137 -0.00016765176
0.0072558196 0.001566925 -0.003628862 -0.0017028404 -0.003370234 0.009871739 0.00046481707 0.0021959476
-0.001308809 0.0018251786 -0.0016275552 0.0038176645 -0.0011056559 0.000249276 0.011043814 0.0010619801
0.0051316232 -0.0063169147 -0.000777357 -0.0029162187 0.0038477767 -0.00035926516 0.0015299149 -0.00041998806
-0.0024669592 0.0064755892 0.005621673 -0.018173508 0.0057085757 -0.0022676163 -0.00781268 0.0022151582
-0.0016581711 0.0019749042 0.0016575315 -0.0017257897 -0.0011733116 0.023222266 0.0051576197 -0.0048256163
-0.00091232255 -0.003965532 -0.009353223 -0.0010581875 0.0062543442 0.025847403 0.0037170574 0.0013086684
-0.0027691291 -0.0021609152 0.0003601079 -0.00043284488 -0.003832133 0.00021351349 -0.00058268243 0.0012605056
0.0018323888 0.0016109698 0.002124571 0.002142253 0.0033067956 0.01014333 0.0009357639 -0.003611157
0.00033951155 -0.00034439057 -0.006632658 -0.0010458222 -0.001901398 0.0028554422 -6.385454e-05 0.0018990425
0.01999058 -0.00053558365 -0.0038394416 0.001217731 5.497946e-05 0.008855125 0.009410101 0.00066832855
-0.00208303 -4.4959284e-05 0.0003007615 -0.004225514 0.0076452238 0.00024880542 0.00090898585 0.0028299578
0.002495934 0.0017082103 -0.00218734 -0.0015764232 -0.012101084 -0.002070101 0.0030343637 0.0007210158
-0.00076888903 -0.00704177 0.002377743 -0.017363949 0.0055871382 -0.0024308795 -0.0047023003 -0.0016057115
-0.00049008336 -0.005691597 -0.002678736 0.0042447965 0.0013055388 -0.014062002 -0.0016098667 0.0066077076
0.0036741057 0.0044288784 -0.00020856796 0.009913921 -0.009319672 0.0029120494 -0.00091312616 -0.00018919622
-0.0006593579 0.0021843715 0.01040019 0.002632782 0.003541508 -0.0022196376 -0.003953078 -0.00076064625
-0.0008459729 0.00011286473 0.00028592892 0.0018499375 -0.0014079341 -0.0026608037 -0.0019659316 -0.0020522103
0.0036878958 0.0013441407 0.0012242098 0.00020005724 0.013209726 -0.002890539 -0.06739411 -0.0001326975
-0.0029786376 0.0041550593 -0.0007763661 -0.00056381384 -0.00336585 -0.0017043982 0.00030913932 -0.0029465011
0.0024430477 -0.0008171881 -0.0048282407 -0.0010120537 -0.0026382827 0.003074332 0.0047072554 0.0013998378
0.00019083256 -0.0014033 0.021199143 -2.1060328e-06 -0.013813609 0.0012696168 -0.00041677663 -0.0014575326

tabnet.initial_bn.running_var f4 [1038]
00000000: 4559 193b 021d 043b 8cbb 7a3f b829 793f
00000010: 8441 773f ae60 783f 4dc1 783f 3329 793f
00000020: 6f41 763f 7288 783f 2124 883f 7bea 773f
00000030: 2615 793f d15c 7a3f 7f68 783f c2aa 7f3f
00000040: 3578 7a3f 4ca9 763f 502f 793f b925 7a3f
00000050: ff31 7a3f e825 763f acfe 793f 011b 783f
00000060: 7dfb 783f 3cfd 763f 031b 7a3f 9039 763f
00000070: cdbc 783f 28c6 763f 6199 783f 18cb 793f
00000080: 9f69 7a3f 8853 873f 4a22 783f f23f 783f
00000090: 66f9 7a3f a204 763f ad72 7d3f 272f a13f
000000a0: cb66 973f d4aa 783f d5c8 7f3f 9a6b 783f
000000b0: f5f9 763f 2876 773f 2f0a 773f 7de4 763f
000000c0: ad0c 813f edb2 773f ba24 7e3f da1b 783f
000000d0: 1d0d a63f c2a1 763f ab1e 783f 44c0 7a3f
000000e0: dffb 793f d75d 7b3f 159e 7a3f 5324 7c3f
000000f0: e2d7 8f3f 8537 7c3f af44 773f bf4e 793f
00000100: b90a 833f e513 853f 1c11 763f cd08 7a3f
00000110: b489 763f 73cc b13f ade3 783f 91f7 763f
00000120: 9e71 783f e5a8 763f eef9 8a3f 7fdc 763f
00000130: d11b 843f b925 a73f 1ded 773f 2ce4 763f
00000140: ea70 773f 8110 783f 5046 783f 8bd4 773f
00000150: 4103 7a3f 2f65 7b3f e299 783f 0982 773f
00000160: 1ec7 833f e563 783f c993 773f 82bc 783f
00000170: 6e65 7b3f a009 803f 2cb3 773f 2bfc 793f
00000180: f334 773f 1d21 7b3f 107a 803f c93e 823f
00000190: 0770 803f 63b8 783f 99cf 893f 6d2f 793f
000001a0: 5a95 7a3f 5edc 793f 77b7 793f f117 793f
000001b0: 990d 813f 9242 783f 699f 783f 5ab5 773f
000001c0: 006c 783f ee89 7a3f 978d 793f a9ac 8e3f
000001d0: 548a 793f 646e 773f 95be 7b3f bd52 7a3f
000001e0: 76e5 773f 3176 763f 233d 773f 8b02 7f3f
000001f0: b129 773f 27c8 943f 5f8f 773f 017d 783f
00000200: cc48 7c3f 19fd 773f 91ae 8b3f 293d 783f
00000210: db7f 813f d625 983f 6eb5 803f d653 7c3f
00000220: df02 773f 9d82 773f a6de 783f fb21 763f
00000230: 4c97 7b3f 1e09 793f e818 783f e47d 793f
00000240: 804b 7c3f f2d6 783f a344 813f 0463 783f
00000250: d500 7e3f cb9c 833f ab98 7d3f ee65 783f
00000260: eb9e 773f d9e1 753f 53c7 813f 5bb1 783f
00000270: 4651 773f 6d38 813f 3c09 783f e3f0 783f
00000280: 23b5 913f 54bf 773f 3e90 7a3f 1735 7a3f
00000290: 1788 793f dc36 823f 2c0e 803f 5751 763f
000002a0: 6e79 783f 8ccd 773f a60a 783f a49e 773f
000002b0: 5470 853f 5edb 783f 75b3 783f 0139 783f
000002c0: 2049 783f bc74 793f 1bdd 763f d367 7a3f
000002d0: fb38 8b3f 7158 763f 6cfa 763f 30ac 7d3f
000002e0: e222 783f 05c9 803f 6901 773f 5315 8e3f
000002f0: 33d4 7b3f 3197 783f df3a 783f 665a 813f
00000300: 16d3 783f f798 783f cac1 773f c0ff 763f
00000310: 4845 7a3f 576f 8b3f cf31 783f 8f17 803f
00000320: a469 7b3f 058a 773f c1f2 763f 07d8 883f
00000330: de37 893f 6e72 783f aa67 7d3f 1ab8 773f
00000340: 4037 773f 1e98 783f 8e7c 8a3f dd2c 793f
00000350: df2a 793f 3bd6 763f cbb1 773f bfb8 7e3f
00000360: de64 783f e4a1 803f 56b3 763f 16a9 783f
00000370: fdef 783f fbcc 793f 58df 793f 9d34 793f
00000380: 2e2a 773f 1c5e 773f 00f4 773f eca3 773f
00000390: 6c59 833f 1f5e 793f e770 bb3f d9c1 793f
000003a0: 2b95 773f 5867 7f3f c22b 7b3f 1340 7a3f
000003b0: 528a 783f 6777 7d3f 394b 773f e4ac 763f
000003c0: 24cc 763f 6f62 793f dc3f 783f db22 7a3f
000003d0: bc67 783f 705d 7f3f 6b33 7b3f 4255 7c3f
000003e0: 4c3b 783f 52ba 773f ef33 923f cb1d 7a3f
000003f0: 33dc 853f 623d 813f 228b 793f ee86 793f
0.0023399156 0.0020158892 0.97942424 0.9732928 0.96584344 0.9702252 0.97169954 0.9732849
0.96193594 0.970832 1.0636026 0.96842164 0.97297895 0.97797877 0.9703445 0.9986993
0.9783967 0.96352077 0.9733782 0.9771381 0.9773254 0.9615159 0.97654223 0.96916205
0.9725874 0.96480155 0.97697467 0.96181583 0.9716309 0.9639611 0.9710904 0.9757552
0.97817415 1.0572367 0.9692732 0.9697257 0.980368 0.9610082 0.99003106 1.2592515
1.1828245 0.97135663 0.9991582 0.97039187 0.96475154 0.9666467 0.96499914 0.96442395
1.0081993 0.96757394 0.9927479 0.969175 1.2972752 0.9634057 0.96921796 0.97949624
0.9764995 0.98190063 0.97897464 0.98492926 1.1237757 0.98522216 0.9658918 0.9738578
1.0237647 1.0396696 0.96119857 0.9766968 0.9630387 1.3890518 0.97222406 0.96471506
0.97048366 0.9635146 1.0857522 0.964302 1.0320989 1.3058387 0.9684618 0.9644191
0.9665667 0.9690018 0.9698229 0.9680869 0.97661215 0.9820127 0.97109807 0.9668279
1.0295141 0.97027427 0.9670988 0.9716264 0.98201644 1.0002937 0.9675777 0.976504
0.9656517 0.980974 1.003725 1.017541 1.0034188 0.9715635 1.0766479 0.9733799
0.9788414 0.9760188 0.9754557 0.97302157 1.0082275 0.9697658 0.9711824 0.96761096
0.97039795 0.97866714 0.97481674 1.1146442 0.97476697 0.9665282 0.9833768 0.977825
0.96834505 0.96274096 0.9657766 0.99613255 0.9654799 1.1623582 0.9670314 0.9706574
0.9854858 0.9687057 1.0912648 0.96968323 1.0117143 1.1886547 1.0055368 0.98565423
0.96488756 0.96683675 0.97214735 0.961456 0.98277736 0.97279537 0.96913004 0.9745772
0.98552704 0.9720298 1.0099071 0.97026086 0.9922002 1.0282224 0.9906108 0.9703053
0.96726865 0.9604774 1.0138954 0.9714562 0.9660839 1.0095345 0.9688909 0.97242564
1.1383404 0.9677632 0.97876346 0.9773726 0.9747328 1.0172992 1.0004325 0.96217865
0.97060287 0.96798015 0.9689125 0.9672644 1.0424905 0.9720973 0.9714883 0.9696198
0.9698658 0.9744375 0.9643113 0.97814673 1.0876764 0.962287 0.96475863 0.9909086
0.96928227 1.0061346 0.96486527 1.1100258 0.98370665 0.971057 0.9696483 1.0105712
0.9719709 0.97108406 0.96780074 0.96483994 0.97761965 1.0893353 0.96951 1.000719
0.9820807 0.96694976 0.96464163 1.0690926 1.0720174 0.97049606 0.98986304 0.9676529
0.9656868 0.9710711 1.0819261 0.9733408 0.9733104 0.9642064 0.96755666 0.9950065
0.9702891 1.0049405 0.96367395 0.97133005 0.97241193 0.975784 0.9760642 0.97345906
0.96548736 0.96627975 0.9685669 0.967345 1.0261664 0.9740924 1.464383 0.97561413
0.9671199 0.99767065 0.98113644 0.9775402 0.9708606 0.9901032 0.96599156 0.9635756
0.96405244 0.9741582 0.9697244 0.97709435 0.97033286 0.9975195 0.9812533 0.98567593
0.9696548 0.9676868 1.1422099 0.9770171 1.0457824 1.0096858 0.97477925 0.9747151

tabnet.initial_splitter.shared.shared_layers.0.weight f4 [96, 1038]
00000000: e3b0 59ba 20eb e138 fef9 583a bfd2 16b7
00000010: afc5 2b3a 5166 093a 3fda 01b4 6189 c4ba
00000020: baf7 1bba d7fb 93b6 c40c 3c3b affe d137
00000030: 302e 96b9 7aff 2b3a 291f b137 8534 72ba
00000040: 6807 4c3b 5f48 84bb a56f af32 4af2 96b1
00000050: 8736 d4ba 94d5 ccba 247d b7b9 63ce 45bd
00000060: d47a 53b9 9479 9c3a 0cc5 b339 a7e0 91ba
00000070: 925a 1f3c 9027 90ba dd9a 773b feeb 8abd
00000080: 8538 d03a 07e0 0a38 d04a 9433 8b69 64b9
00000090: 536e ea3a 2d16 8a3a 1623 b83b 2594 573b
000000a0: 5d90 b936 fa9e b1ba b931 773a 3d66 1cbb
000000b0: 8027 eab9 a62e 2b3b 3f35 8037 c890 fe3a
000000c0: 5421 6236 d1bf 8d3a 8780 d23a c8e1 113a
000000d0: c2b6 1239 8472 5139 020d f639 8be8 60ba
000000e0: 7380 9bb8 8456 15b9 f911 9036 cefa 31ba
000000f0: 60d5 2e39 30a5 1e3a c6a7 693a ed18 24ae
00000100: c8be 2fba 0487 a43b 9b81 9b39 1cd8 a3b9
00000110: 7a6d d4ba 89ce b638 e138 e2b9 c48d 2239
00000120: 9395 3e34 3687 573a ce02 f9b9 4635 bbb9
00000130: d9b3 1135 7f8d 49b9 d46e aab0 2167 72bb
00000140: 1888 1cbb 9fd8 5ab6 150d 2d39 06aa 36b8
00000150: 7b67 b335 47cb 94ba 992a d5ba eaaa 833a
00000160: ab2d 07b9 cfa4 7437 1d7b 8939 fc9d cb39
00000170: 4638 96ba 2066 9aba d2fd 9839 192e b5b8
00000180: 6701 f6b8 7f1a 16bb 62ef 8239 5ae3 e632
00000190: 5a3c 3c3b 06a0 963a 3722 8b3a 20ed 0f37
000001a0: 536d debd a380 b3ba 39a9 67b9 432f e239
000001b0: 1e14 e93d 0baf 30bb 8173 2539 3d06 24ba
000001c0: 5767 703a 66f8 87b9 55cf b039 4a0a 8139
000001d0: 9734 b739 f2bc 0c3a 6582 8bba 3fbf 803b
000001e0: 2a94 2f39 7fc5 953d 8991 8eb6 3b97 c339
000001f0: 6309 2a3b 3836 963c 5741 9dbb c674 a2be
00000200: 130c 7b3e faa6 e03a a638 fcba c753 a936
00000210: a58a 27bb 1d35 83b8 9d59 d1b9 7cc5 8bba
00000220: e3fd a23a 1e95 e139 6067 033a e01e b93a
00000230: 5b0e 283a bce9 3638 f2c4 2a3b 83e5 4c31
00000240: f1b6 57bd 8841 da3a 7f26 a839 0501 f837
00000250: fc69 2ab9 407c 69bc 7a23 b539 2ea8 4db9
00000260: 2429 3a3a 670f 34ba 46e3 813b 3772 ca36
00000270: fcc3 803a 4b61 89b8 a068 f53a 0a74 56bb
00000280: 176f bd3b 65e2 6e39 2f05 8939 ff65 213a
00000290: 8ce0 093a d7c0 0335 fb43 1ab9 21bc 8f38
000002a0: 4776 6dbb 857e febc 4f95 8cba bb3a 773a
000002b0: 2267 223b dfda 81b5 ca4b dcba 621a 29bb
000002c0: 28b0 ee39 94dc faba fc2e 833a fcb8 b2ba
000002d0: c229 4e3a 8381 6cb3 2c7e 73ba 6a42 70b8
000002e0: c0a6 85b4 a414 3dbb e82b 03bb 0553 273b
000002f0: 1899 be39 5797 10ba dc3f 9b39 712d 453b
00000300: 9dc3 aa39 a9b9 63bb c5d3 003a b1c0 a537
00000310: e003 aaba 6462 deb9 1237 ac31 265d c63a
00000320: 554e 1db9 8bf1 ab37 33b0 11b0 8d1c 9abd
00000330: a0ca 8fbb 34d6 ca3a 249f 79b9 2ad8 8039
00000340: 8c30 bfb9 9439 08bc b207 03be b06c 113b
00000350: a387 a8bb ebe1 ac3a e29a 5939 3a89 c03a
00000360: 9c43 4539 17e9 0d3b ba69 67ba 08b7 d6ba
00000370: 4e7f 7cba 12e3 94ba c06c b73a e3d5 033b
00000380: 8842 94ba f022 f8ba 3c1b 3939 987f 9dba
00000390: 08c4 413a 1a7d 80b9 b217 913a 091b 90b9
000003a0: e49e 883c 20c2 f1b9 fe78 83b9 bbf0 0039
000003b0: fd98 2ebd 4c0b 2c3c 41bf 1539 48fc 4f39
000003c0: 2d38 dbbb e15d ac3b 882f 7d3a dcf9 563a
000003d0: f8ef 05ba 5084 c730 c818 883a d773 ec37
000003e0: 7c80 033a c02d 5736 8efb 0339 ee16 9137
000003f0: e5b5 0eb5 096d bbb7 4daa 16bb 8ab8 b438
-0.0008304251 0.000107726315 0.0008276998 -8.989765e-06 0.00065525895 0.00052413816 -1.2093459e-07 -0.0014994555
-0.0005949695 -4.4102594e-06 0.0028694132 2.5033338e-05 -0.00028644642 0.00065612013 2.1114554e-05 -0.00092393934
0.0031132344 -0.0040369476 2.0423451e-08 -4.3931196e-09 -0.0016190567 -0.0015627616 -0.00034997717 -0.04829253
-0.00020168285 0.0011938089 0.00034288352 -0.0011129574 0.0097261835 -0.0010998119 0.0037781515 -0.06783293
0.0015885985 3.3110406e-05 6.9053954e-08 -0.00021783092 0.0017885662 0.0010535173 0.005619417 0.0032894698
5.5302357e-06 -0.0013551407 0.00094297115 -0.002386465 -0.00044661388 0.0026120334 1.5283584e-05 0.001942181
3.3696024e-06 0.0010814612 0.0016060033 0.0005564955 0.00013991728 0.00019974454 0.00046930468 -0.00085795735
-7.4149015e-05 -0.00014241977 4.2936267e-06 -0.0006789387 0.00016673421 0.00060518365 0.0008913245 -3.731142e-11
-0.0006704149 0.005020978 0.00029660467 -0.00031250797 -0.0016206943 8.7169064e-05 -0.00043148457 0.00015502336
1.7749544e-07 0.0008221747 -0.0004749507 -0.0003570711 5.427842e-07 -0.00019221565 -1.2400627e-09 -0.003698774
-0.002388483 -3.2610621e-06 0.00016503439 -4.3550528e-05 1.3366656e-06 -0.0011352085 -0.0016263305 0.0010045443
-0.00012891616 1.4581906e-05 0.00026222403 0.00038836885 -0.0011460863 -0.0011779703 0.0002918081 -8.639339e-05
-0.00011730455 -0.0022903976 0.00024973886 2.6878912e-08 0.0028722496 0.0011491782 0.0010615055 8.578674e-06
-0.10860696 -0.0013694953 -0.00022092917 0.00043141292 0.1138079 -0.0026959802 0.00015778655 -0.0006257033
0.0009170672 -0.00025934278 0.0003372381 0.00024612463 0.00034943662 0.0005368731 -0.0010643719 0.0039290483
0.00016744496 0.0731306 -4.2488723e-06 0.00037305974 0.0025945536 0.0183364 -0.004799049 -0.31729716
0.24516325 0.0017139607 -0.0019242957 5.0463454e-06 -0.0025564816 -6.25646e-05 -0.00039930354 -0.0010663713
0.0012435283 0.00043026445 0.00050126575 0.0014123581 0.00064108305 4.3609863e-05 0.002605733 2.981637e-09
-0.0526647 0.001665161 0.0003207214 2.9564379e-05 -0.00016251946 -0.014250815 0.00034549442 -0.00019612975
0.00071014673 -0.000686875 0.0039638607 6.0333655e-06 0.0009824033 -6.550791e-05 0.0018723197 -0.0032722973
0.005781065 0.00022781787 0.00026134538 0.0006156861 0.00052595953 4.908192e-07 -0.00014711909 6.853813e-05
-0.003623383 -0.031066189 -0.001072565 0.0009431054 0.002478071 -9.674949e-07 -0.0016807255 -0.002580308
0.00045526144 -0.0019139224 0.0010008509 -0.0013635452 0.0007864499 -5.5065822e-08 -0.00092885154 -5.7282312e-05
-2.4894507e-07 -0.0028851414 -0.0020015184 0.0025531661 0.00036353688 -0.00055157155 0.00029611483 0.00300869
0.0003257067 -0.0034748113 0.00049143686 1.9759262e-05 -0.0012971126 -0.00042416446 5.0121196e-09 0.0015133962
-0.00015001868 2.0497266e-05 -5.3001087e-10 -0.07524977 -0.0043881685 0.0015475214 -0.00023805775 0.00024575117
-0.0003646653 -0.008314509 -0.12795904 0.0022190027 -0.0051431223 0.0013189887 0.00020752431 0.0014689334
0.0001881257 0.0021653825 -0.0008827705 -0.0016381452 -0.0009632007 -0.0011359176 0.0013994202 0.00201165
-0.0011311332 -0.0018931311 0.0001765312 -0.0012016175 0.00073915767 -0.0002450727 0.0011069684 -0.00027485963
0.016677327 -0.00046111736 -0.00025076413 0.0001229671 -0.04262637 0.01050074 0.00014280995 0.0001983504
-0.0066900463 0.0052602147 0.0009658267 0.0008200684 -0.00051093055 1.4516761e-09 0.0010383362 2.8187334e-05
0.0005016399 3.2064127e-06 0.00012586845 1.7296024e-05 -5.3163814e-07 -2.234291e-05 -0.002298969 8.617442e-05

tabnet.initial_splitter.shared.shared_layers.1.weight f4 [96, 48]
00000000: 0cd9 953e a2e8 173c 81db d53c 82e3 2dbc
00000010: 206c 023d 3ca9 07bd 2296 063d 393d b03c
00000020: 6778 02bb 14a6 bcbc 159d 9fbc a38a f8bc
00000030: 5ed6 c63c aad7 a735 61f2 54bd e196 023c
00000040: b793 bf3b 6517 d83c 94ea 18bc bacd 91bc
00000050: 98d4 bb3c 8e80 5f3b 1e61 40bb 02da 763c
00000060: 0f2b 1937 40a2 bab7 50f8 c339 677a 3fb9
00000070: d8de a638 87ff ecb8 45a2 7939 8879 5938
00000080: c164 ba39 7d09 7e38 c385 08ba d3c5 623a
00000090: 8c35 9c39 2c26 1fba d15f eeb9 fed5 4439
000000a0: cee1 8a38 8448 b0b9 3a3f 073a 1c1c 14b7
000000b0: 082d 17b9 12c7 a5ba 076c 58b9 4834 bcb8
000000c0: 05db 153d 547e bb3e 81ac ac3b d56e aabb
000000d0: 13a8 9fbd 038f 27bc b7bb c5bc 5172 a3bc
000000e0: d712 18bd 0300 be3c 0fb0 1dbd a061 c1bc
000000f0: 768c c43c 16a0 58b4 4bd3 f6bc 8474 483c
00000100: 72e2 fa3a 07ac 53bd b1a3 ba3b a324 44bd
00000110: 8c3e 7cbd 3741 a2bb 21f2 b3ba 366e 11bc
00000120: 1d3a c937 4876 cc38 1771 043a bb74 0339
00000130: a295 1639 c372 2839 67aa 1db9 c692 5539
00000140: 7ac5 52b7 5df4 7b38 7d15 0f3b da8c 3339
00000150: d34f b4b7 b4d5 f93a 972e 443a 23ef b8b7
00000160: 3f0f 1bb9 f1cf a439 ab2f 11b9 fa7e 13b4
00000170: 31cd be38 bd42 9939 ab57 ec37 51a9 8c39
00000180: 89da 263d f09f d33c 7212 4e3c bc64 93ba
00000190: 0d71 a0bc 03c5 9ebc 8a8d 0d3a 26ec 693c
000001a0: e3a8 b8bc 6edb e73b 790b d8bc 96c1 c43c
000001b0: f770 0abb efb4 41b4 e689 eabb c467 bab9
000001c0: 22e3 82bc 2d44 d43a 63a7 f73b e2f9 823c
000001d0: 2bae 0f3d e1c3 bbbb 267e 493c 6e3c 803c
000001e0: 9de5 aeb3 fcc8 96b8 dd20 3138 5b18 25b7
000001f0: 0e3c 0238 3485 c1b6 6d95 a237 c207 f4b7
00000200: a03e 06b7 f830 4d37 1345 e9b8 209b 4839
00000210: 30e7 0bb7 8958 1739 85f2 74b9 dcd1 78b6
00000220: 5b8a 1437 6f21 c3b9 5f30 0a39 58cc b2b5
00000230: 8c30 b736 411d a7b8 9e75 81b6 f8a5 3c38
00000240: 3b15 55bd 9622 b5bc 82ca e5ba 5c88 ad3b
00000250: 1b11 d4bb af05 41bc a446 14bd 8bca 9fbc
00000260: 9f3c 99bb 5a26 3cbc 2803 b7bc 0b40 c23b
00000270: f73a cd3c 12cc b133 11c7 92bc c7b2 eebc
00000280: db7d fd3b 52b3 e2bc f4d1 293b cb31 21bc
00000290: 7dc2 623c 780b d53c e6f4 11bc c4e6 d0bb
000002a0: d270 4736 9d21 6eb9 9b27 e2b7 cbeb 4836
000002b0: 1c2d b1b6 11b0 04b8 32e0 bd35 9e82 fab7
000002c0: fced 48b7 418c 3eb7 fe0a 3d39 d131 17b9
000002d0: a232 6134 921f 93b9 63cb e236 59ad 9c37
000002e0: 31e7 84b7 a246 373a aec1 99b8 a873 2e35
000002f0: bb3e 8db5 c8f7 f7b7 4d08 f8b4 3fad 99b8
00000300: 412c fb3c bfeb 63bd 1415 b3bb ec8d 213a
00000310: 51f2 973e 9e19 8abc 772d ffbc bc7b 00bd
00000320: ecba a73c 0b41 db3c a7ab 4bbd 88f1 15bd
00000330: 2321 c43b 1de2 9bb4 2313 9d3c 8b2c e7bc
00000340: ee33 083c 3960 ac3c 7c2e a33c 0d65 a33a
00000350: 1cbc b83b 27ac 14bd 4073 363c 2d1b 50bd
00000360: 397c 52b8 5263 763a 25de 2439 7ab3 2db9
00000370: 0efc 8939 a1a0 35b9 8231 40b9 9a59 c939
00000380: 83ad b139 c416 7eb9 da93 fcba b59d f539
00000390: c9fb eb39 49fe 73ba c190 963a df14 103a
000003a0: 9bce 8838 f779 18bb 2dac d1b9 67da 6339
000003b0: da26 283a dc99 e7b8 582c ac38 4a95 0e3a
000003c0: 478c 313d 8f11 24bd db5e 05bc 831d 06bc
000003d0: 105b ebbc f1b5 b63e 936f d8bc 1c34 a4bb
000003e0: f79e 97bc 59fb c13c da80 0bbd 6867 93bd
000003f0: b471 24bd d4d7 66b5 f7c0 0ebd da74 4abd
0.29267156 0.009271773 0.026105644 -0.010613324 0.031841397 -0.03312038 0.03285802 0.021513568
-0.0019908191 -0.023028411 -0.019484082 -0.030339545 0.02427214 1.2505236e-06 -0.051988963 0.007970543
0.0058464664 0.026378343 -0.0093332715 -0.017798293 0.022928521 0.0034103724 -0.0029354761 0.015066626
9.129536e-06 -2.2248481e-05 0.00037378306 -0.00018260778 7.957005e-05 -0.000113009526 0.0002380694 5.1850016e-05
0.00035551752 6.0567156e-05 -0.00052079203 0.0008650694 0.00029794534 -0.00060710567 -0.00045466286 0.00018771735
6.622412e-05 -0.00033623364 0.0005159263 -8.828032e-06 -0.00014417258 -0.0012647829 -0.00020639609 -8.974277e-05
0.036585826 0.36619818 0.0052695875 -0.0052012005 -0.077957295 -0.010226968 -0.024137361 -0.019951971
-0.037127342 0.023193365 -0.03849798 -0.023606122 0.023992758 -2.0174807e-07 -0.03013005 0.012234811
0.0019140972 -0.05167773 0.005695783 -0.047886502 -0.061583087 -0.004951622 -0.0013728776 -0.008876374
2.3988128e-05 9.7495096e-05 0.0005052252 0.00012536619 0.00014360857 0.0001606448 -0.00015036167 0.0002036794
-1.2562954e-05 6.0070644e-05 0.0021832876 0.00017123242 -2.1494843e-05 0.0019060881 0.0007483749 -2.2045866e-05
-0.00014787632 0.00031435446 -0.00013846035 -1.3736636e-07 9.098126e-05 0.00029232158 2.8174216e-05 0.0002682903
0.040735755 0.0258331 0.01257764 -0.0011245231 -0.019585157 -0.019381052 0.0005399814 0.014277494
-0.022541469 0.0070757186 -0.026372658 0.02401809 -0.0021124461 -1.8040349e-07 -0.007157552 -0.00035553996
-0.015977446 0.0016194634 0.007557796 0.015988294 0.03507821 -0.0057301377 0.012298143 0.015653815
-8.144273e-08 -7.1899936e-05 4.2230695e-05 -9.840437e-06 3.1050346e-05 -5.767355e-06 1.9381487e-05 -2.909068e-05
-8.001603e-06 1.2230354e-05 -0.00011123172 0.00019131275 -8.338873e-06 0.00014433464 -0.00023359999 -3.7077034e-06
8.853701e-06 -0.00037218208 0.00013178725 -1.3321505e-06 5.4594766e-06 -7.9686295e-05 -3.858192e-06 4.4977263e-05
-0.0520222 -0.022111218 -0.0017531666 0.0052957963 -0.0064717657 -0.01178114 -0.03620018 -0.01950576
-0.004676416 -0.011483753 -0.022340372 0.0059280447 0.02505253 8.279325e-08 -0.017917188 -0.029137982
0.0077359504 -0.027673397 0.0025912495 -0.009838532 0.013840315 0.026006445 -0.008908486 -0.0063751657
2.971898e-06 -0.0002270997 -2.6959742e-05 2.9939572e-06 -5.2802625e-06 -3.1635227e-05 1.4146847e-06 -2.9863146e-05
-1.1976339e-05 -1.1357538e-05 0.0001802854 -0.0001441904 2.0973178e-07 -0.00028061547 6.759002e-06 1.867737e-05
-1.5843283e-05 0.0006991421 -7.331684e-05 6.4988353e-07 -1.0523576e-06 -2.9560077e-05 -4.619964e-07 -7.327878e-05
0.03066075 -0.055644747 -0.005465159 0.00061628106 0.2967706 -0.016857918 -0.031149609 -0.031368002
0.020474873 0.026764413 -0.049724247 -0.036607295 0.0059853955 -2.903552e-07 0.019174164 -0.028219482
0.008313162 0.021041976 0.019919626 0.0012466029 0.0056376588 -0.03629699 0.011135876 -0.050807167
-5.0183593e-05 0.0009398955 0.00015723014 -0.00016565426 0.00026318472 -0.00017321344 -0.0001832899 0.00038404466
0.00033889347 -0.00024231808 -0.0019270137 0.00046847542 0.00045010287 -0.0009307606 0.0011487232 0.0005496274
6.5234686e-05 -0.0023266056 -0.00039991867 0.00021729768 0.0006414481 -0.00011043597 8.209859e-05 0.0005439116
0.04334667 -0.040055808 -0.008140291 -0.008185747 -0.028729945 0.35685685 -0.02642039 -0.0050110947
-0.018508418 0.023679422 -0.03405843 -0.071974576 -0.0401475 -8.599575e-07 -0.034851994 -0.049427845

tabnet.initial_splitter.shared.glu_layers.0.fc.weight f4 [96, 1038]
00000000: e3b0 59ba 20eb e138 fef9 583a bfd2 16b7
00000010: afc5 2b3a 5166 093a 3fda 01b4 6189 c4ba
00000020: baf7 1bba d7fb 93b6 c40c 3c3b affe d137
00000030: 302e 96b9 7aff 2b3a 291f b137 8534 72ba
00000040: 6807 4c3b 5f48 84bb a56f af32 4af2 96b1
00000050: 8736 d4ba 94d5 ccba 247d b7b9 63ce 45bd
00000060: d47a 53b9 9479 9c3a 0cc5 b339 a7e0 91ba
00000070: 925a 1f3c 9027 90ba dd9a 773b feeb 8abd
00000080: 8538 d03a 07e0 0a38 d04a 9433 8b69 64b9
00000090: 536e ea3a 2d16 8a3a 1623 b83b 2594 573b
000000a0: 5d90 b936 fa9e b1ba b931 773a 3d66 1cbb
000000b0: 8027 eab9 a62e 2b3b 3f35 8037 c890 fe3a
000000c0: 5421 6236 d1bf 8d3a 8780 d23a c8e1 113a
000000d0: c2b6 1239 8472 5139 020d f639 8be8 60ba
000000e0: 7380 9bb8 8456 15b9 f911 9036 cefa 31ba
000000f0: 60d5 2e39 30a5 1e3a c6a7 693a ed18 24ae
00000100: c8be 2fba 0487 a43b 9b81 9b39 1cd8 a3b9
00000110: 7a6d d4ba 89ce b638 e138 e2b9 c48d 2239
00000120: 9395 3e34 3687 573a ce02 f9b9 4635 bbb9
00000130: d9b3 1135 7f8d 49b9 d46e aab0 2167 72bb
00000140: 1888 1cbb 9fd8 5ab6 150d 2d39 06aa 36b8
00000150: 7b67 b335 47cb 94ba 992a d5ba eaaa 833a
00000160: ab2d 07b9 cfa4 7437 1d7b 8939 fc9d cb39
00000170: 4638 96ba 2066 9aba d2fd 9839 192e b5b8
00000180: 6701 f6b8 7f1a 16bb 62ef 8239 5ae3 e632
00000190: 5a3c 3c3b 06a0 963a 3722 8b3a 20ed 0f37
000001a0: 536d debd a380 b3ba 39a9 67b9 432f e239
000001b0: 1e14 e93d 0baf 30bb 8173 2539 3d06 24ba
000001c0: 5767 703a 66f8 87b9 55cf b039 4a0a 8139
000001d0: 9734 b739 f2bc 0c3a 6582 8bba 3fbf 803b
000001e0: 2a94 2f39 7fc5 953d 8991 8eb6 3b97 c339
000001f0: 6309 2a3b 3836 963c 5741 9dbb c674 a2be
00000200: 130c 7b3e faa6 e03a a638 fcba c753 a936
00000210: a58a 27bb 1d35 83b8 9d59 d1b9 7cc5 8bba
00000220: e3fd a23a 1e95 e139 6067 033a e01e b93a
00000230: 5b0e 283a bce9 3638 f2c4 2a3b 83e5 4c31
00000240: f1b6 57bd 8841 da3a 7f26 a839 0501 f837
00000250: fc69 2ab9 407c 69bc 7a23 b539 2ea8 4db9
00000260: 2429 3a3a 670f 34ba 46e3 813b 3772 ca36
00000270: fcc3 803a 4b61 89b8 a068 f53a 0a74 56bb
00000280: 176f bd3b 65e2 6e39 2f05 8939 ff65 213a
00000290: 8ce0 093a d7c0 0335 fb43 1ab9 21bc 8f38
000002a0: 4776 6dbb 857e febc 4f95 8cba bb3a 773a
000002b0: 2267 223b dfda 81b5 ca4b dcba 621a 29bb
000002c0: 28b0 ee39 94dc faba fc2e 833a fcb8 b2ba
000002d0: c229 4e3a 8381 6cb3 2c7e 73ba 6a42 70b8
000002e0: c0a6 85b4 a414 3dbb e82b 03bb 0553 273b
000002f0: 1899 be39 5797 10ba dc3f 9b39 712d 453b
00000300: 9dc3 aa39 a9b9 63bb c5d3 003a b1c0 a537
00000310: e003 aaba 6462 deb9 1237 ac31 265d c63a
00000320: 554e 1db9 8bf1 ab37 33b0 11b0 8d1c 9abd
00000330: a0ca 8fbb 34d6 ca3a 249f 79b9 2ad8 8039
00000340: 8c30 bfb9 9439 08bc b207 03be b06c 113b
00000350: a387 a8bb ebe1 ac3a e29a 5939 3a89 c03a
00000360: 9c43 4539 17e9 0d3b ba69 67ba 08b7 d6ba
00000370: 4e7f 7cba 12e3 94ba c06c b73a e3d5 033b
00000380: 8842 94ba f022 f8ba 3c1b 3939 987f 9dba
00000390: 08c4 413a 1a7d 80b9 b217 913a 091b 90b9
000003a0: e49e 883c 20c2 f1b9 fe78 83b9 bbf0 0039
000003b0: fd98 2ebd 4c0b 2c3c 41bf 1539 48fc 4f39
000003c0: 2d38 dbbb e15d ac3b 882f 7d3a dcf9 563a
000003d0: f8ef 05ba 5084 c730 c818 883a d773 ec37
000003e0: 7c80 033a c02d 5736 8efb 0339 ee16 9137
000003f0: e5b5 0eb5 096d bbb7 4daa 16bb 8ab8 b438
-0.0008304251 0.000107726315 0.0008276998 -8.989765e-06 0.00065525895 0.00052413816 -1.2093459e-07 -0.0014994555
-0.0005949695 -4.4102594e-06 0.0028694132 2.5033338e-05 -0.00028644642 0.00065612013 2.1114554e-05 -0.00092393934
0.0031132344 -0.0040369476 2.0423451e-08 -4.3931196e-09 -0.0016190567 -0.0015627616 -0.00034997717 -0.04829253
-0.00020168285 0.0011938089 0.00034288352 -0.0011129574 0.0097261835 -0.0010998119 0.0037781515 -0.06783293
0.0015885985 3.3110406e-05 6.9053954e-08 -0.00021783092 0.0017885662 0.0010535173 0.005619417 0.0032894698
5.5302357e-06 -0.0013551407 0.00094297115 -0.002386465 -0.00044661388 0.0026120334 1.5283584e-05 0.001942181
3.3696024e-06 0.0010814612 0.0016060033 0.0005564955 0.00013991728 0.00019974454 0.00046930468 -0.00085795735
-7.4149015e-05 -0.00014241977 4.2936267e-06 -0.0006789387 0.00016673421 0.00060518365 0.0008913245 -3.731142e-11
-0.0006704149 0.005020978 0.00029660467 -0.00031250797 -0.0016206943 8.7169064e-05 -0.00043148457 0.00015502336
1.7749544e-07 0.0008221747 -0.0004749507 -0.0003570711 5.427842e-07 -0.00019221565 -1.2400627e-09 -0.003698774
-0.002388483 -3.2610621e-06 0.00016503439 -4.3550528e-05 1.3366656e-06 -0.0011352085 -0.0016263305 0.0010045443
-0.00012891616 1.4581906e-05 0.00026222403 0.00038836885 -0.0011460863 -0.0011779703 0.0002918081 -8.639339e-05
-0.00011730455 -0.0022903976 0.00024973886 2.6878912e-08 0.0028722496 0.0011491782 0.0010615055 8.578674e-06
-0.10860696 -0.0013694953 -0.00022092917 0.00043141292 0.1138079 -0.0026959802 0.00015778655 -0.0006257033
0.0009170672 -0.00025934278 0.0003372381 0.00024612463 0.00034943662 0.0005368731 -0.0010643719 0.0039290483
0.00016744496 0.0731306 -4.2488723e-06 0.00037305974 0.0025945536 0.0183364 -0.004799049 -0.31729716
0.24516325 0.0017139607 -0.0019242957 5.0463454e-06 -0.0025564816 -6.25646e-05 -0.00039930354 -0.0010663713
0.0012435283 0.00043026445 0.00050126575 0.0014123581 0.00064108305 4.3609863e-05 0.002605733 2.981637e-09
-0.0526647 0.001665161 0.0003207214 2.9564379e-05 -0.00016251946 -0.014250815 0.00034549442 -0.00019612975
0.00071014673 -0.000686875 0.0039638607 6.0333655e-06 0.0009824033 -6.550791e-05 0.0018723197 -0.0032722973
0.005781065 0.00022781787 0.00026134538 0.0006156861 0.00052595953 4.908192e-07 -0.00014711909 6.853813e-05
-0.003623383 -0.031066189 -0.001072565 0.0009431054 0.002478071 -9.674949e-07 -0.0016807255 -0.002580308
0.00045526144 -0.0019139224 0.0010008509 -0.0013635452 0.0007864499 -5.5065822e-08 -0.00092885154 -5.7282312e-05
-2.4894507e-07 -0.0028851414 -0.0020015184 0.0025531661 0.00036353688 -0.00055157155 0.00029611483 0.00300869
0.0003257067 -0.0034748113 0.00049143686 1.9759262e-05 -0.0012971126 -0.00042416446 5.0121196e-09 0.0015133962
-0.00015001868 2.0497266e-05 -5.3001087e-10 -0.07524977 -0.0043881685 0.0015475214 -0.00023805775 0.00024575117
-0.0003646653 -0.008314509 -0.12795904 0.0022190027 -0.0051431223 0.0013189887 0.00020752431 0.0014689334
0.0001881257 0.0021653825 -0.0008827705 -0.0016381452 -0.0009632007 -0.0011359176 0.0013994202 0.00201165
-0.0011311332 -0.0018931311 0.0001765312 -0.0012016175 0.00073915767 -0.0002450727 0.0011069684 -0.00027485963
0.016677327 -0.00046111736 -0.00025076413 0.0001229671 -0.04262637 0.01050074 0.00014280995 0.0001983504
-0.0066900463 0.0052602147 0.0009658267 0.0008200684 -0.00051093055 1.4516761e-09 0.0010383362 2.8187334e-05
0.0005016399 3.2064127e-06 0.00012586845 1.7296024e-05 -5.3163814e-07 -2.234291e-05 -0.002298969 8.617442e-05

tabnet.initial_splitter.shared.glu_layers.0.bn.bn.weight f4 [96]
00000000: a22e 643d 7183 203b 2200 4ab9 a073 3f3a
00000010: 2947 2c3d 7218 d0ba b996 4d3a 1c20 1dbb
00000020: 6457 cdbb 6a42 163e a416 b43a 355a 3e3b
00000030: 0a94 253c 28cd 193b 5969 4d3b 73e6 49ba
00000040: 5c43 9e3c 7e6f d43c 599b b43c 07f4 7e3d
00000050: 46fb 663c e7e6 603c d931 52bb f5a0 4a3f
00000060: 6e90 ed3e e177 cc3e 6090 973e b0ed a83e
00000070: 9c11 c03e 5a60 c43e 6f43 f43e 7c8d e33e
00000080: d072 e63e 1af3 003f 36d0 e23e af86 eb3e
00000090: 13f5 b13e 32e1 f93e c6f0 d13e cef1 ee3e
000000a0: 563a cf3e dbca 0a3f 8280 ef3e ef3b 8c3d
000000b0: 59c1 d03e 368e 093f 38bd d93e 3c38 d03e
000000c0: a5bb 35b9 23fb 9635 2d27 bd33 71cc 2f35
000000d0: f27a bfb9 68cf 0c38 157d 89b7 e0a6 9636
000000e0: b888 a6b6 c197 223c 2711 ffb4 6553 beb6
000000f0: 12e1 a8b8 932e a935 2921 9ab7 a831 eab6
00000100: c518 fb38 3ad1 aaba ac4e c3b8 fa1a c73a
00000110: 1a6a 1cb9 767b 51b8 2d5e a437 b056 e33e
00000120: 3fe0 3c3e 9afc 443e c114 8fbd 238e 5b3d
00000130: c783 de3d 08f5 133e 4346 003f 86e5 d93e
00000140: 1da8 2e3f c916 9c3e d04a e23d 4ce6 2d3e
00000150: 1e2b 09be 8526 443e dd67 a63e 2419 b23e
00000160: 762a 49be 9d04 a6bb 1d36 563e 6d87 0d3d
00000170: 92c2 263e bf3d d9bd 953a 0d3f 2e95 393d
0.055708535 0.0024492408 -0.0001926427 0.0007303301 0.04206005 -0.0015876426 0.0007842589 -0.0023975438
-0.0062665213 0.14673772 0.0013739658 0.0029045467 0.010106096 0.002346823 0.003134331 -0.0007701881
0.019319229 0.02593207 0.022046732 0.06224444 0.014097994 0.013726926 -0.0032073169 0.7915185
0.46399254 0.3993521 0.29602337 0.3299384 0.37513435 0.3835476 0.47707698 0.44443882
0.4500947 0.50370944 0.44299477 0.46001193 0.3475729 0.48804623 0.41004008 0.46668857
0.40474194 0.5421578 0.4677773 0.06847369 0.40772513 0.5373262 0.42527175 0.40667903
-0.00017331408 1.1248961e-06 8.8081244e-08 6.549008e-07 -0.0003652196 3.3571763e-05 -1.6389919e-05 4.489775e-06
-4.9631017e-06 0.009923876 -4.750993e-07 -5.6721497e-06 -8.052787e-05 1.2605036e-06 -1.8373672e-05 -6.979524e-06
0.00011973226 -0.0013032325 -9.312978e-05 0.0015190535 -0.00014916845 -4.9944465e-05 1.9594178e-05 0.44402075
0.18444918 0.19236985 -0.0698638 0.05360235 0.10864978 0.14448941 0.5010721 0.42557925
0.6822527 0.30486134 0.110494256 0.16982383 -0.13395354 0.19155319 0.32501116 0.34784806
-0.19645104 -0.005066468 0.2091908 0.03455298 0.1628516 -0.1060748 0.55167514 0.045308284
