cv_steps/tabnet_raw_step1_fold1_3/network.pt (torch, 682379 bytes, 56 tensors)

embedder.embeddings.0.weight f4 [3, 1]
-0.0081276 0.0013212906 0.009077271
00000000: a029 05bc 282f ad3a d6b8 143c

embedder.embeddings.1.weight f4 [2, 1]
-0.026184 0.026183201
00000000: d47f d6bc 277e d63c

tabnet.initial_bn.weight f4 [1038]
-0.015347178 0.16378324 0.071977295 0.11771126 0.07168776 0.061882064 0.005531285 -1.8222365e-05
0.10124876 -7.086219e-06 0.2884894 -0.0004005332 -0.0010533932 0.15653424 0.14028855 0.19361539
0.24048391 0.09453178 0.08723109 0.0003398643 0.11717025 0.14959246 0.2548133 0.1260296
0.20960584 0.23500359 0.17812376 0.18998282 0.09774694 0.14974399 0.2099664 0.29944232
0.2395883 0.034405384 0.086128145 0.1828778 0.1959029 0.08141264 0.20431511 0.1471575
-3.989964e-05 0.10343496 0.109500855 0.0966245 0.0732458 0.15996377 0.022208294 0.1338373
0.11264453 0.04961863 0.24195267 0.043154106 0.06414139 0.20610219 0.14862446 0.1999893
0.12577993 0.070377454 0.13051574 0.12802565 0.13813819 0.00011529342 0.15595508 0.0073634028
0.24787652 0.14635369 0.0032593666 0.05680993 0.16536257 0.014847358 0.13440877 0.20199953
0.22710963 0.15823779 0.16489854 0.1523549 -0.05273698 0.37123165 -0.098807774 0.09109881
0.03963603 0.00029268392 0.0076191514 0.12224775 -0.024285562 0.09210576 0.20752354 0.042866495
0.17728074 0.12804954 0.1745515 0.124749444 0.2164871 0.21864523 0.12689795 0.18176909
0.02573275 0.055130336 0.20367417 0.0008757406 0.17478842 0.20672043 0.2519992 0.00015195097
0.1974853 0.19141288 0.07098749 0.1596449 0.021408394 0.09005388 0.11569831 0.06557125
0.009246831 -0.010766161 0.0035113518 -0.0014978244 0.108759336 -0.00014135256 0.015564462 0.09472693
0.26425043 0.13000065 0.16215424 -8.98124e-07 0.17967272 0.1587721 0.15698841 0.13870932
3.5173393e-08 0.13309616 0.24456646 0.12197495 0.20845382 0.09191545 0.09282557 0.10574685
-0.015227423 -0.016775206 0.004916094 0.21189195 0.0018126589 0.11935603 0.06069568 -0.02133267
3.2204865e-05 0.13812247 0.09934902 0.14953014 0.07456315 0.00020709883 0.17338195 0.14041775
0.011783938 0.024687579 0.13004865 0.08863569 0.11065477 0.19326025 0.17650269 0.39882767
0.3592389 0.086679116 0.18274347 0.024119588 0.14455158 -3.0460233e-05 0.22064821 -0.00022614423
0.19531922 0.21290164 0.06476633 0.24613647 0.10994749 0.0012888775 0.14363748 0.23085825
0.11379474 0.3875493 0.1816647 0.07609205 0.31512174 0.034783497 0.12612954 0.16402951
0.14562802 0.08429747 -5.820894e-06 0.13376696 0.057198808 0.1373243 0.121672936 0.015510678
0.14161886 0.0030860675 0.13773397 -0.0044053365 0.1730495 0.096466996 -2.7614385e-06 0.19488694
0.05955627 0.002444205 0.07448419 0.0076321815 0.339267 0.1839479 0.042262364 0.0283125
0.0629158 0.3119655 0.21350726 0.15931913 0.11642935 -0.038022067 0.14533734 0.110376224
-0.00011827655 0.1928948 0.15495686 0.2979847 0.04438942 0.043840665 0.057293884 0.20452923
0.07208458 0.0041114236 0.010555195 0.19645971 0.15055613 1.9680035e-06 0.006019475 -0.010216135
0.006615859 0.26678583 0.17429529 0.21481371 0.13838616 0.22685617 0.026580565 0.146586
-6.31199e-07 0.1135668 0.10777468 0.23479484 0.17326286 6.630719e-08 0.104702875 0.048392955
0.10844796 0.06139359 0.07806899 5.6018227e-08 0.08237871 -0.008984406 5.758622e-06 0.1573445
00000000: bb72 7bbc cbb6 273e d568 933d 9a12 f13d
00000010: 08d1 923d 0c78 7d3d c83f b53b 3bdc 98b7
00000020: 835b cf3d 28c6 edb6 e2b4 933e a8fe d1b9
00000030: 0312 8aba 834a 203e cda7 0f3e 1d43 463e
00000040: 6a41 763e e199 c13d 37a6 b23d d02f b239
00000050: f5f6 ef3d c42e 193e e476 823e e70d 013e
00000060: eaa2 563e c8a4 703e 1366 363e db8a 423e
00000070: 8c2f c83d 7d56 193e 6f01 573e 8150 993e
00000080: a356 753e a9ec 0c3d f463 b03d 5144 3b3e
00000090: c59a 483e acbb a63d fb37 513e 75b0 163e
000000a0: ea59 27b8 b5d5 d33d fc41 e03d 11e3 c53d
000000b0: e501 963d 8bcd 233e 2bee b53c a50c 093e
000000c0: 2db2 e63d e83c 4b3d 71c2 773e 5cc2 303d
000000d0: 905c 833d 740c 533e 0331 183e ffc9 4c3e
000000e0: 74cc 003e 0e22 903d eba5 053e 2819 033e
000000f0: 1974 0d3e afc9 f138 b0b2 1f3e b348 f13b
00000100: 58d3 7d3e bedd 153e 199b 553b 87b1 683d
00000110: ce54 293e 5542 733c 74a2 093e f7d8 4e3e
00000120: 6d8f 683e 1609 223e 2adb 283e ec02 1c3e
00000130: bb02 58bd 1312 be3e bb5b cabd 0392 ba3d
00000140: 6459 223d 5f73 9939 13aa f93b 075d fa3d
00000150: 84f2 c6bc f2a1 bc3d 0d81 543e c794 2f3d
00000160: 1589 353e 6b1f 033e a1bd 323e a37c ff3d
00000170: cbae 5d3e 89e4 5f3e 89f1 013e ad21 3a3e
00000180: 7dcd d23c 59d0 613d f68f 503e f591 653a
00000190: bcfb 323e 85ae 533e 0a06 813e 0755 1f39
000001a0: 9639 4a3e bd01 443e e461 913d f479 233e
000001b0: a860 af3c 2b6e b83d 3cf3 ec3d 384a 863d
000001c0: 0580 173c 8d64 30bc b51e 663b a652 c4ba
000001d0: 37bd de3d 0a38 14b9 1602 7f3c 3100 c23d
000001e0: d54b 873e e41e 053e c30b 263e 9c16 71b5
000001f0: 20fc 373e 2795 223e 92c1 203e d109 0e3e
00000200: 8e11 1733 5c4a 083e a16f 7a3e 01ce f93d
00000210: eb74 553e 2b3e bc3d 551b be3d ce91 d83d
00000220: 717c 79bc 286c 89bc 2f17 a13b 34fa 583e
00000230: bd96 ed3a ef70 f43d 099c 783d dac1 aebc
00000240: b613 0738 fa6f 0d3e 8077 cb3d 6e1e 193e
00000250: 91b4 983d ab28 5939 0a8b 313e acc9 0f3e
00000260: 6b11 413c 9b3d ca3c 792b 053e a186 b53d
00000270: f89e e23d 04e6 453e 1fbd 343e 2433 cc3e
00000280: 29ee b73e d284 b13d 1b21 3b3e 7196 c53c
00000290: 5405 143e da84 ffb7 9bf1 613e 2121 6db9
000002a0: c301 483e e302 5a3e 36a4 843d 330b 7c3e
000002b0: 262c e13d 8def a83a b415 133e 1b66 6c3e
000002c0: 370d e93d dd6c c63e 5006 3a3e 26d6 9b3d
000002d0: a357 a13e 2479 0e3d 1a28 013e 5af7 273e
000002e0: 831f 153e 27a4 ac3d 1951 c3b6 35fa 083e
000002f0: 4c49 6a3d be9e 0c3e a92f f93d 8020 7e3c
00000300: 8904 113e 9f3f 4a3b 220a 0d3e a45a 90bb
00000310: e333 313e 7d90 c53d 2751 39b6 7190 473e
00000320: 46f1 733d f52e 203b 2b8b 983d 6117 fa3b
00000330: 67b4 ad3e d75c 3c3e 4d1b 2d3d 9eef e73c
00000340: 00da 803d f1b9 9f3e a6a1 5a3e 8e24 233e
00000350: 8372 ee3d 07bd 1bbd 50d3 143e ee0c e23d
00000360: 3d0b f8b8 3786 453e 03ad 1e3e 7391 983e
00000370: aed1 353d 4592 333d feac 6a3d 1c70 513e
00000380: 15a1 933d 1fb9 863b b2ef 2c3c bc2c 493e
00000390: 632b 1a3e 0b12 0436 043f c53b 9361 27bc
000003a0: d9c9 d83b 2798 883e 777a 323e 20f8 5b3e
000003b0: 1ab5 0d3e fc4c 683e 7cbf d93c a41a 163e
000003c0: aa6f 29b5 b695 e83d f9b8 dc3d 0f6e 703e
000003d0: d26b 313e c364 8e33 766e d63d b137 463d
000003e0: f719 de3d d877 7b3d a2e2 9f3d b198 7033
000003f0: 2bb6 a83d 5433 13bc 303a c136 eb1e 213e

tabnet.initial_bn.bias f4 [1038]
1.9317347e-06 -4.0617997e-06 4.8661106e-05 -0.0001966751 -0.00037147963 -7.092736e-05 2.3317632e-06 -7.5603516e-08
-0.00030861967 2.237816e-09 -6.882736e-05 2.611363e-06 -3.8351283e-07 0.00039645677 0.00041595814 -3.0504816e-05
-0.00023573748 -0.00041042146 6.603428e-05 7.467562e-07 0.00027451303 -0.00022438995 3.5308276e-05 -0.00010072707
-0.00033049274 -0.00033309046 0.00013884994 0.1191782 -0.00014787252 -0.00025793875 -5.306648e-05 -0.084618405
-0.00020488017 5.1294784e-05 0.00027858553 -0.00046838837 -0.00020769988 -6.3397434e-05 3.1364348e-06 7.500873e-05
-1.7756993e-06 3.3420063e-05 4.8559243e-05 0.00042462075 -2.7279211e-06 4.235655e-05 -1.0702335e-05 0.00016439422
0.00013568104 0.26510015 -0.00028522956 -6.307997e-05 0.48477393 7.950652e-05 -0.21647067 0.13923566
-7.506776e-05 -0.0002090546 -2.316153e-05 2.6445987e-05 -0.00017853492 3.4563925e-07 -0.0002921261 0.00032686006
0.09288379 0.00021603802 5.752398e-06 -0.00011270091 -8.389859e-05 -6.8021905e-06 0.00021402324 -2.4415318e-05
0.30880842 0.095294714 -0.059694488 0.0012341499 -0.00013967523 -0.000202149 6.398661e-05 -0.0004551107
-4.301967e-05 2.688153e-07 1.8187593e-05 -0.34249762 7.728622e-05 0.05958394 -0.00017344969 7.373596e-05
-0.0004467194 0.00011785447 -0.00091187 -4.558106e-05 -0.000323511 8.1568825e-05 5.048056e-06 -1.3690676e-05
-1.3935366e-05 6.235963e-06 0.0004747187 -1.0203228e-07 -0.00063733256 1.1297449e-05 -0.000596697 -6.8778468e-06
-0.00013704936 -0.00023411603 -0.00016781912 0.00021701073 1.1426781e-05 -0.0001592072 6.89943e-05 0.0004929949
8.3606064e-05 4.9908722e-05 -0.00015381875 -0.26621246 -0.00033666252 3.719272e-07 0.00025603807 0.22304948
2.121141e-05 0.00025189834 -0.00022959326 -9.780424e-07 -0.0006902929 0.0002294521 4.605159e-05 0.00031436482
-3.8356488e-11 0.00020592306 -0.0003285698 2.681507e-05 0.00031871977 -0.00020251206 0.00012886865 -7.19284e-05
0.39237717 0.43418592 5.807912e-06 2.1632395e-05 -2.173009e-06 -0.00022542547 -1.5605852e-05 -0.000102899285
-1.126247e-05 -2.372145e-05 0.00016642845 -0.00025281188 3.0171503e-05 -5.14959e-07 -0.0005942239 0.00017881098
-4.043586e-06 5.4162488e-06 -0.01233906 4.2838812e-05 -0.00037763704 8.190214e-05 0.00031000914 -1.909217e-05
-0.0013912147 8.505736e-07 0.00016103002 -0.00010806766 -0.00053134793 8.8158555e-07 0.0012162698 -6.1797596e-07
0.00044973378 -0.22075996 0.00021660734 0.06923382 0.00031121657 4.0274076e-06 -0.2951924 -0.00022834406
4.6970094e-05 0.15113504 0.00039629248 0.00014982151 -0.07632654 -3.0257246e-05 3.171578e-05 -0.00082742894
0.0003978754 0.00016848787 7.5195844e-10 -2.7577713e-05 0.00021295325 0.00010011313 0.00016324915 -0.3380666
0.0001781588 -5.816762e-05 8.952636e-05 1.5700321e-05 0.104583435 4.652857e-05 -1.3070817e-09 0.00029958086
0.00012064537 8.594491e-06 0.0004127902 0.005633193 0.0015509756 -0.00016378808 -0.0001651415 0.00046313796
-2.9630964e-05 -0.00032261453 -0.4585972 8.814964e-05 0.0001106255 -0.00040229264 0.0028252401 0.00017769678
-2.7010213e-08 0.03157068 -0.00013316519 -0.0007614262 -1.5836591e-05 -9.104364e-05 0.054564774 0.00026633035
0.0001398825 -4.6015357e-06 3.084641e-05 -0.0006358759 8.2924125e-05 -1.6728332e-09 9.059287e-06 -1.2699672e-05
0.00013748003 -0.00028807737 0.0007209789 0.0002691141 0.000115168354 0.09927925 -0.00016367203 -8.326606e-05
-1.0337509e-09 1.9661642e-05 -0.00037328835 -9.7116805e-05 7.910109e-05 9.2731817e-10 2.8971717e-05 -0.0001443866
-0.0003759913 7.323201e-05 -0.00017539888 -2.9979833e-10 2.2478337e-06 1.8779765e-05 -9.57071e-08 0.03877505
00000000: f3a2 0136 984a 88b6 7719 4c38 923a 4eb9
00000010: 27c3 c2b9 d6be 94b8 637b 1c36 795b a2b3
00000020: 3bce a1b9 13c8 1931 6857 90b8 e03e 2f36
00000030: 9ae5 cdb4 87db cf39 f514 da39 98e4 ffb7
00000040: 4c30 77b9 d62d d7b9 e27b 8a38 b274 4835
00000050: 84ec 8f39 384a 6bb9 f917 1438 6f3d d3b8
00000060: fc45 adb9 a5a2 aeb9 3f98 1139 b313 f43d
00000070: 3a0e 1bb9 f43b 87b9 b393 5eb8 6a4c adbd
00000080: 1ad5 56b9 5b25 5738 1e0f 9239 0692 f5b9
00000090: 03ca 59b9 3df4 84b8 8a7b 5236 014e 9d38
000000a0: 9054 eeb5 852c 0c38 17ac 4b38 a29f de39
000000b0: 5411 37b6 00a8 3138 2e8e 33b7 3d61 2c39
000000c0: 9a45 0e39 35bb 873e dd8a 95b9 cd49 84b8
000000d0: 4a34 f83e bdbc a638 7daa 5dbe cb93 0e3e
000000e0: b26d 9db8 ab35 5bb9 024b c2b7 53d8 dd37
000000f0: 1a35 3bb9 4c90 b934 8028 99b9 6a5e ab39
00000100: db39 be3d 4488 6239 b904 c136 d759 ecb8
00000110: b6f2 afb8 5f3e e4b6 6d6b 6039 7fcf ccb7
00000120: 231c 9e3e e029 c33d 3582 74bd 33c3 a13a
00000130: c975 12b9 f6f7 53b9 8d30 8638 ed9b eeb9
00000140: 0570 34b8 b251 9034 8f91 9837 d95b afbe
00000150: b914 a238 4a0e 743d 0ce0 35b9 b1a2 9a38
00000160: aa35 eab9 a328 f738 8f0a 6fba 4a2e 3fb8
00000170: e99c a9b9 ee0f ab38 7962 a936 01b1 65b7
00000180: f1cb 69b7 843e d136 aae3 f839 d71c dbb3
00000190: aa12 27ba 2d8a 3d37 a86b 1cba 41c8 e6b6
000001a0: e8b4 0fb9 0b7d 75b9 9af8 2fb9 608d 6339
000001b0: a7b5 3f37 dbf0 26b9 08b1 9038 543c 013a
000001c0: aa55 af38 1555 5138 684a 21b9 004d 88be
000001d0: 1482 b0b9 49ad c734 d93c 8639 1567 643e
000001e0: 28ef b137 3911 8439 f9be 70b9 4845 83b5
000001f0: c6f4 34ba 1499 7039 8527 4138 55d1 a439
00000200: 91b1 28ae 0ded 5739 e443 acb9 edf0 e037
00000210: d819 a739 6b59 54b9 ea20 0739 44d8 96b8
00000220: a9e5 c83e 9e4d de3e 96e1 c236 3777 b537
00000230: 03d4 11b6 3060 6cb9 50e9 82b7 a2cb d7b8
00000240: f1f3 3cb7 6dfd c6b7 4c83 2e39 d68b 84b9
00000250: cf18 fd37 b73b 0ab5 b1c5 1bba 357f 3b39
00000260: 24ae 87b6 39bd b536 c529 4abc d3ad 3338
00000270: 96fd c5b9 e0c2 ab38 b988 a239 1f28 a0b7
00000280: 6b59 b6ba f952 6435 2bda 2839 62a2 e2b8
00000290: 284a 0bba 19a6 6c35 3e6b 9f3a fce2 25b5
000002a0: 3fca eb39 e60e 62be 1721 6339 76ca 8d3d
000002b0: c82a a339 2b23 8736 7523 97be a46f 6fb9
000002c0: c101 4538 25c3 1a3e 7ac5 cf39 6819 1d39
000002d0: 1751 9cbd f1d0 fdb7 8f06 0538 d1e7 58ba
000002e0: ef99 d039 1eac 3039 5fb2 4e30 b056 e7b7
000002f0: 344c 5f39 d4f3 d138 dc2d 2b39 1117 adbe
00000300: 24d0 3a39 02f9 73b8 19c0 bb38 2fb4 8337
00000310: d72f d63d ac27 4338 d9a4 b3b0 1011 9d39
00000320: fd02 fd38 0f31 1037 c36b d839 a696 b83b
00000330: 1b4a cb3a 87be 2bb9 d529 2db9 53d1 f239
00000340: 0390 f8b7 9724 a9b9 41cd eabe fadc b838
00000350: 9dff e738 ceea d2b9 aa27 393b 1e54 3a39
00000360: 1604 e8b2 4250 013d 42a2 0bb9 739a 47ba
00000370: d2d8 84b7 afee beb8 507f 5f3d 41a2 8b39
00000380: 6cad 1239 e466 9ab6 1561 0138 e9b0 26ba
00000390: 8de7 ad38 96e9 e5b0 57fd 1737 ad10 55b7
000003a0: 8428 1039 1709 97b9 1300 3d3a e217 8d39
000003b0: 8a86 f138 eb52 cb3d 609f 2bb9 209f aeb8
000003c0: e013 8eb0 0eef a437 eab5 c3b9 30ab cbb8
000003d0: 13e3 a538 37e6 7e30 4a08 f337 7c66 17b9
000003e0: b320 c5b9 2394 9938 47eb 37b9 ddd0 a4af
000003f0: 7dd9 1636 3d89 9d37 8987 cdb3 96d2 1e3d

tabnet.initial_bn.running_mean f4 [1038]
-0.0003226642 -0.000584384 -0.0031703138 0.0008820976 0.0028189337 -0.004064078 0.0013531492 0.0025804911
-0.0027395994 0.001604843 -0.008559272 0.0018687868 -0.00040446976 -0.002891026 0.00011194492 0.00018323633
-0.0021480352 0.0020776608 -0.0013205732 -0.0020462296 0.0036917357 -0.0015315871 -0.00080888584 0.002992743
-0.0003905759 0.0041828007 -0.0005297185 -0.006091436 7.4356176e-05 0.0022808488 0.0011800323 -0.0016814824
0.0024131292 0.008323216 -0.0010984102 0.003311737 -0.00068977155 0.0064022103 -0.0030766053 -0.045592654
0.026248612 0.0045690285 -0.0073301955 -0.0009777419 -0.000367991 0.0006734925 0.00393502 0.0011813506
0.0042541125 -0.000524632 0.0021317303 0.0020892995 -0.04713022 0.0023799029 0.0053496435 0.0016603116
0.00020780564 0.0006384118 -0.006399938 0.0024316118 -0.02195293 -0.0001725819 0.0014555138 -0.0019146322
-0.006143915 -0.011661292 -0.0032558315 0.0021189947 -0.00039923526 -0.058077443 0.00029274923 -0.00052441005
0.0010042326 0.002592265 -0.017870147 -0.0048643877 0.0113555845 -0.045222662 -0.0006515535 -0.0009485444
-0.001413676 2.1615862e-05 -0.003286456 0.005048719 0.0025816686 0.0020668705 0.0012425064 0.0010176565
0.0072026774 -0.0024865519 -0.0034967388 0.0019135315 0.0032501789 0.0038043384 -0.0027493606 -0.0034270738
0.0047889547 0.00012412685 -0.0019323915 0.0098819975 -0.00444929 0.003312924 0.012297 -0.00038282183
-0.00015317801 0.0011578526 -0.00195792 -0.0016306352 0.0043651373 -0.0018477559 0.0009341422 0.004751434
-0.0015601079 0.0019185004 0.0018348163 -0.022270544 -0.0021839833 0.0023676914 0.0036332244 -0.00010762719
0.0016390702 0.00048881373 -0.0011294805 -0.0043279175 0.005833014 0.03006142 -0.0004364767 -0.0014667659
-0.0002056049 0.0053618946 -0.013224437 0.0011259584 0.0022376617 0.03188447 0.0020014509 -0.0004747924
0.0021902223 0.0023714988 -0.008739156 0.0018201453 0.0060473206 0.0025813614 -0.0018969942 0.0017811679
-0.0033925045 -0.0016819538 0.0073500825 -0.0055437973 0.0028241854 0.00033639788 -0.0008721892 -0.0015197992
-0.004529309 -0.0029315285 -0.007820709 0.0003670402 0.001653167 0.0038729487 -0.00293643 -0.0019473978
0.018028725 -0.0012895562 -0.0035802901 0.001901249 0.004163012 0.008005856 0.005137608 -0.0031636185
0.000117292955 9.466841e-05 0.0011824609 0.003835006 0.0049199853 0.0056349356 -0.003265713 0.0008852798
0.0010599773 0.0021818979 -0.00037594262 0.003519043 -0.007721859 0.0038602548 -0.0024330195 0.007143264
-0.0012820356 -0.0061297994 0.004792492 -0.02054425 -0.00092241797 0.0030012412 0.0027378597 0.00014992275
0.00092277885 -0.0011772715 -3.7055685e-05 0.0012291485 -0.0018717767 -0.016478192 0.00088215474 0.0034932015
-0.001608101 -0.00055005896 0.0020971324 0.01216489 -0.015689503 0.004213515 -0.0030182176 0.0047747795
0.0024337072 0.0051602502 0.012797511 0.00049593445 -0.0024428442 0.00096614583 -4.7342728e-05 0.0073048836
-0.003924529 0.0023891265 0.005140943 0.0028612362 0.0057716225 0.0019743696 4.9682785e-05 0.0013635295
-0.0025785447 -0.0038938941 -0.0034273695 -0.0023257069 0.0030030825 0.0071928147 -0.063376576 7.099776e-05
0.0032869482 -0.0032292565 0.002596018 0.0024439339 0.00069144706 -0.00038972867 -0.003007563 0.0016486475
-0.00031673166 -0.00026202266 -0.0006300575 -0.0024329962 -0.0026257562 0.004602185 0.0034868538 0.00040773264
-0.0047146105 0.0009960597 0.018634979 0.0052379128 -0.012095103 0.0067677805 0.0029805226 0.0033478376
00000000: 412b a9b9 5931 19ba 0ac5 4fbb 913c 673a
00000010: dcbd 383b f52b 85bb 275c b13a 751d 293b
00000020: da8a 33bb 9859 d23a 303c 0cbc 14f2 f43a
00000030: 030f d4b9 5e77 3dbb f9c3 ea38 2123 4039
00000040: 0dc6 0cbb 5d29 083b 1517 adba 091a 06bb
00000050: 0cf1 713b 89bf c8ba 690b 54ba e521 443b
00000060: 36c6 ccb9 e00f 893b cfdc 0aba ab9a c7bb
00000070: abef 9b38 4b7a 153b 50ab 9a3a 3065 dcba
00000080: 9725 1e3b 195e 083c 88f8 8fba ba09 593b
00000090: c9d1 34ba a2c9 d13b dfa0 49bb 5dbf 3abd
000000a0: 5407 d73c cab7 953b 2332 f0bb 9327 80ba
000000b0: eaee c0b9 518d 303a 57f1 803b 8cd7 9a3a
000000c0: 1566 8b3b 7587 09ba 80b4 0b3b a1ec 083b
000000d0: 9e0b 41bd 25f8 1b3b 104c af3b d09e d93a
000000e0: 67e6 5939 175b 273a 92b6 d1bb ad5b 1f3b
000000f0: a2d6 b3bc 1af7 34b9 f0c6 be3a 65f4 faba
00000100: e552 c9bb 010f 3fbc ca5f 55bb d5de 0a3b
00000110: 7350 d1b9 9de2 6dbd 237c 9939 9078 09ba
00000120: 74a0 833a fde2 293b 6a64 92bc 7165 9fbb
00000130: c60c 3a3c 663b 39bd 04cd 2aba bda7 78ba
00000140: 184b b9ba b653 b537 9561 57bb b96f a53b
00000150: 3631 293b 5574 073b 99db a23a e362 853a
00000160: 7004 ec3b 6bf5 22bb 8b29 65bb 76cf fa3a
00000170: f400 553b 3552 793b 9e2e 34bb c298 60bb
00000180: aaec 9c3b 0c28 0239 4d48 fdba 1ae8 213c
00000190: 5acb 91bb a41d 593b 5b79 493c 7ab5 c8b9
000001a0: 699e 20b9 16c3 973a 7250 00bb 0abb d5ba
000001b0: 6d09 8f3b 6630 f2ba 39e1 743a ebb1 9b3b
000001c0: 897c ccba 3176 fb3a 387e f03a b770 b6bc
000001d0: 2921 0fbb 452b 1b3b 641b 6e3b e8b5 e1b8
000001e0: 12d6 d63a bc23 003a 140b 94ba 34d1 8dbb
000001f0: de22 bf3b 5e43 f63c e9d6 e4b9 7f40 c0ba
00000200: a597 57b9 d5b2 af3b 4fab 58bc e594 933a
00000210: bca5 123b 4a99 023d c62a 033b 8fed f8b9
00000220: d589 0f3b 266b 1b3b ad2e 0fbc f191 ee3a
00000230: 9a28 c63b 0f2c 293b 90a4 f8ba 1476 e93a
00000240: c854 5ebb 0175 dcba f6d8 f03b bea8 b5bb
00000250: f815 393b 8f5e b039 a0a3 64ba 0034 c7ba
00000260: 996a 94bb e31e 40bb 6e22 00bc 4d6f c039
00000270: 14af d83a 4cd1 7d3b 1f71 40bb d43f ffba
00000280: fab0 933c 5306 a9ba 4da3 6abb 5533 f93a
00000290: e069 883b fe2a 033c 6159 a83b b654 4fbb
000002a0: 2dfb f538 b788 c638 cefc 9a3a b954 7b3b
000002b0: d437 a13b 44a5 b83b 9305 56bb 1f12 683a
000002c0: f0ee 8a3a 2cfe 0e3b 2a1a c5b9 bf9f 663b
000002d0: a607 fdbb 54fc 7c3b 4b73 1fbb 0b12 ea3b
000002e0: fa09 a8ba 7cdc c8bb 560a 9d3b 6a4c a8bc
000002f0: 6cce 71ba 79b0 443b aa6d 333b 9534 1d39
00000300: a4e6 713a ad4e 9aba 3d6c 1bb8 611b a13a
00000310: 6756 f5ba 46fd 86bc 6740 673a 32ee 643b
00000320: eac6 d2ba d531 10ba 0b70 093b 3f4f 473c
00000330: 4687 80bc 8711 8a3b 4acd 45bb c175 9c3b
00000340: d57e 1f3b 5117 a93b a7ac 513c 9901 023a
00000350: 2018 20bb f344 7d3a de91 46b8 ce5d ef3b
00000360: 5699 80bb e492 1c3b 5b75 a83b 9483 3b3b
00000370: e11f bd3b 6d64 013b 7c62 5038 75b8 b23a
00000380: cdfc 28bb b430 7fbb b89d 60bb e36a 18bb
00000390: 5dcf 443b b4b1 eb3b 94cb 81bd a2e4 9438
000003a0: d769 573b efa1 53bb f421 2a3b 682a 203b
000003b0: 3a42 353a 7f54 ccb9 891a 45bb 6e17 d83a
000003c0: 010f a6b9 1660 89b9 712a 25ba e772 1fbb
000003d0: e114 2cbb edcd 963b b383 643b f3c4 d539
000003e0: 057d 9abb 388e 823a 62a8 983c cca2 ab3b
000003f0: 8a2a 46bc 42c4 dd3b df54 433b 6567 5b3b

tabnet.initial_bn.running_var f4 [1038]
0.00017855705 0.0007898963 0.98725426 0.9632438 0.96925926 0.9676767 0.9733241 0.978985
0.9611573 0.96626174 1.066334 0.96806806 0.96802056 0.97861534 0.97348726 0.975987
0.9774359 0.9647738 0.9839591 0.97595376 0.96817905 0.970696 0.9744034 0.9626364
0.966872 0.9616706 0.9751876 0.96866065 0.9662956 0.9694423 0.96481013 0.96963894
0.9732164 1.0463903 0.9697854 0.9704664 0.9736061 0.9667169 0.98929197 1.2625355
1.1723787 0.9669985 0.9945274 0.9725364 0.97105914 0.9656459 0.9679191 0.9677197
1.0130786 0.97018564 0.98914516 0.96945536 1.3178363 0.96729225 0.97146547 0.9772554
0.9734557 0.98637867 0.9844598 0.98436445 1.1281023 0.9819838 0.9619896 0.97988683
1.0352862 1.0383502 0.96894044 0.97725683 0.96684664 1.3760102 0.969478 0.9691818
0.97371376 0.9669916 1.1036304 0.9711868 1.0335249 1.3126421 0.9660234 0.96750486
0.9716747 0.96990687 0.96469855 0.97188103 0.9639115 0.9656599 0.969441 0.9742894
1.0196979 0.9676395 0.9706765 0.96845925 0.973497 1.005162 0.974384 0.97980857
0.96726567 0.9770928 1.0089837 1.0131211 1.0072733 0.96012175 1.0833657 0.9675844
0.9946973 0.9741603 0.9592084 0.96668494 0.99286914 0.97096425 0.9722463 0.9696763
0.9623836 0.9797495 0.97161114 1.1207772 0.973479 0.9723839 0.97502697 0.9746931
0.9642965 0.96927834 0.9703637 1.004407 0.9679773 1.1623245 0.9664208 0.9560802
0.9778573 0.9610996 1.1027013 0.96550846 1.0049317 1.1885712 1.0019917 0.98355526
0.96494937 0.9725029 0.9666762 0.9681839 0.9876891 0.9735825 0.9734717 0.9696514
0.98326683 0.96354085 0.9998101 0.9849784 0.9954278 1.0292848 0.99142605 0.9748396
0.974355 0.9663413 1.012315 0.9651484 0.97150755 1.0028983 0.9709994 0.96523327
1.1122736 0.9690366 0.9910045 0.96726817 0.9657318 1.0193584 0.99892586 0.96786547
0.96901965 0.96976656 0.97315085 0.97527575 1.0324225 0.9735759 0.9740717 0.9698724
0.9669869 0.9687844 0.9690303 0.99094844 1.0747757 0.9650741 0.9679549 0.984032
0.9751848 1.0088574 0.95944285 1.1223396 0.97570497 0.96624 0.95872724 1.0043496
0.97226715 0.97774655 0.96594584 0.9704237 0.96635765 1.0867207 0.97203547 1.0073558
0.97662127 0.96584076 0.9716888 1.0566957 1.0781358 0.9679723 0.986684 0.9730408
0.96534264 0.9632145 1.0752257 0.96864605 0.97751373 0.96516305 0.96648586 0.980943
0.9724757 1.0046424 0.9681109 0.9741602 0.9665849 0.96513605 0.9722816 0.97239476
0.9694103 0.9624626 0.96916276 0.9639169 1.0361304 0.9678633 1.4646056 0.97633255
0.9703084 1.0019172 0.9789704 0.96806705 0.9756416 0.98785543 0.961703 0.9601345
0.9740814 0.97225314 0.9617847 0.9653679 0.96555996 0.99834687 0.97538394 0.9819962
0.96665573 0.96799886 1.1332569 0.979849 1.050331 1.0025498 0.96736026 0.9791534
00000000: 0b3b 3b39 0b11 4f3a b2bc 7c3f 2597 763f
00000010: 6021 783f a9b9 773f c52b 793f c39e 7a3f
00000020: 680e 763f ee5c 773f a27d 883f 4fd3 773f
00000030: 32d0 773f 8986 7a3f 7636 793f 49da 793f
00000040: 3d39 7a3f 6afb 763f bee4 7b3f 1bd8 793f
00000050: 95da 773f 887f 783f 8072 793f 576f 763f
00000060: ec84 773f 0b30 763f e5a5 793f 25fa 773f
00000070: 265f 773f 5f2d 783f ccfd 763f 423a 783f
00000080: b624 793f 1ef0 853f db43 783f 7c70 783f
00000090: 403e 793f c27a 773f 3d42 7d3f c39a a13f
000000a0: 8110 963f 378d 773f 5999 7e3f 25f8 783f
000000b0: 5597 783f 9234 773f 8cc9 773f 7abc 773f
000000c0: 8fac 813f 165e 783f 9e38 7d3f 3a2e 783f
000000d0: dcae a83f 77a0 773f f6b1 783f 692d 7a3f
000000e0: 6534 793f 5083 7c3f 8f05 7c3f 4fff 7b3f
000000f0: a865 903f 4a63 7b3f f344 763f ddd9 7a3f
00000100: 4284 843f a9e8 843f 7b0c 783f 812d 7a3f
00000110: 4383 773f 1a21 b03f b62f 783f 4c1c 783f
00000120: 4e45 793f c38c 773f c343 8d3f b39f 783f
00000130: 8b4a 843f a804 a83f 4f4d 773f 66ae 773f
00000140: acbf 783f d14b 783f 7cf6 763f 32cd 783f
00000150: e7c2 763f 7d35 773f 492d 783f 086b 793f
00000160: 7685 823f 39b7 773f 417e 783f f2ec 773f
00000170: 1937 793f 26a9 803f 3b71 793f bcd4 7a3f
00000180: b99e 773f c122 7a3f 6126 813f f4ad 813f
00000190: 55ee 803f 8aca 753f baab 8a3f 9cb3 773f
000001a0: 7ba4 7e3f 9262 793f af8e 753f aa78 773f
000001b0: ac2c 7e3f 1d91 783f 22e5 783f b53c 783f
000001c0: c65e 763f ddd0 7a3f 82bb 783f a175 8f3f
000001d0: eb35 793f 27ee 783f 5e9b 793f 7d85 793f
000001e0: 23dc 763f a022 783f c169 783f 6990 803f
000001f0: 5ccd 773f 0dc7 943f 5b67 773f acc1 743f
00000200: db54 7a3f a00a 763f 5125 8d3f 902b 773f
00000210: 9aa1 803f 1a23 983f 4441 803f 47ca 7b3f
00000220: ec06 773f f3f5 783f 1778 773f e6da 773f
00000230: 31d9 7c3f b43c 793f 7135 793f 133b 783f
00000240: 60b7 7b3f 9daa 763f 8ef3 7f3f 8b27 7c3f
00000250: 5bd4 7e3f 9bbf 833f 19ce 7d3f 178f 793f
00000260: 546f 793f 2562 773f 8a93 813f f713 773f
00000270: b8b4 783f f95e 803f 6b93 783f 8719 773f
00000280: fb5e 8e3f c812 783f 79b2 7d3f e39e 773f
00000290: 333a 773f 567a 823f 9bb9 7f3f 08c6 773f
000002a0: ac11 783f 9f42 783f 6a20 793f acab 793f
000002b0: 6c26 843f 453c 793f c35c 793f 8f49 783f
000002c0: 748c 773f 4102 783f 5f12 783f ccae 7d3f
000002d0: 4092 893f 190f 773f e4cb 773f 85e9 7b3f
000002e0: b6a5 793f 3d22 813f 0c9e 753f d3a8 8f3f
000002f0: cdc7 793f 815b 773f 266f 753f 878e 803f
00000300: 80e6 783f 994d 7a3f 3a48 773f b06d 783f
00000310: 3763 773f aa19 8b3f 51d7 783f 09f1 803f
00000320: da03 7a3f 5741 773f 99c0 783f ce41 873f
00000330: 5b00 8a3f 08cd 773f 5397 7c3f 3419 793f
00000340: b220 773f 3a95 763f ffa0 893f 30f9 773f
00000350: 573e 7a3f ed14 773f 9e6b 773f 151f 7b3f
00000360: 2bf4 783f 1f98 803f 1ed6 773f 9062 793f
00000370: 1c72 773f 2813 773f 72e7 783f ddee 783f
00000380: 462b 783f f363 763f 0d1b 783f 42c3 763f
00000390: ec9f 843f e4c5 773f 3278 bb3f eef0 793f
000003a0: 2266 783f d33e 803f ce9d 7a3f 3ed3 773f
000003b0: a6c3 793f 18e4 7c3f 2b32 763f 60cb 753f
000003c0: 665d 793f 95e5 783f 8637 763f 5a22 773f
000003d0: f02e 773f a993 7f3f c3b2 793f 1a64 7b3f
000003e0: c076 773f c6ce 773f 900e 913f 62d7 7a3f
000003f0: 3f71 863f 8d53 803f eca4 773f cca9 7a3f

tabnet.initial_splitter.shared.shared_layers.0.weight f4 [96, 1038]
-2.120571e-05 0.00022680096 3.3067787e-05 0.00010221429 0.0008109087 -0.00016976523 -3.3611586e-06 -9.141113e-08
6.6108325e-05 1.2010064e-08 0.00068302546 1.0941323e-05 3.7634086e-07 0.00030422135 6.6565284e-05 -0.00013535356
-0.000802079 -1.9494644e-05 -9.9588915e-06 2.1549379e-06 -5.890758e-05 0.00052031706 -0.00041531445 0.000205072
-0.00084467063 0.0004990439 0.00026970057 -0.09435559 2.114719e-05 -0.00035298424 -0.000258563 0.0031835765
-0.00029927675 0.00010150533 -1.6288346e-05 -0.0002752834 -0.00025503704 0.0004294488 -1.1563956e-05 -0.00032478865
-2.8863266e-08 7.566225e-05 -8.014163e-05 -0.00013514851 -5.5063952e-05 0.00013984578 -1.1800858e-05 -3.6221452e-05
0.00028082327 0.032442983 0.00045108935 -4.299021e-05 -0.07365127 -0.00016946865 0.0813744 0.0034819846
1.4640972e-05 0.00015962704 1.1098339e-05 -0.00026519015 -1.2012282e-05 -1.6626894e-08 -0.00019253802 -4.0462342e-05
-0.060774967 0.0002531826 -4.485835e-06 0.00032357255 -0.0002536983 -2.56746e-05 -1.1596355e-05 0.00028186606
0.038276028 0.04969516 0.095716774 -0.0002514178 -7.0709466e-05 -0.0003280058 0.00029015058 0.00021074362
-0.00022106829 -3.737606e-07 2.5181027e-05 0.06877483 3.949426e-05 -0.037615195 0.0005573971 -1.032235e-05
0.00078518427 -0.0007324727 -0.00033108573 -7.476059e-05 -0.00010887248 0.00022367074 -5.1290026e-05 -0.00027253566
9.6279895e-05 -0.00035296363 -1.7028867e-06 -1.1235638e-06 -0.00012031639 0.00033684875 0.0008096133 1.3430269e-05
-0.0011236193 0.0001443993 -0.00014931422 0.00026172816 4.899473e-06 -0.00014774612 0.00022123213 0.0003039302
6.6774087e-06 0.0001949735 6.213854e-05 -0.061724044 -0.00013394117 3.0538666e-07 1.166652e-06 -0.004137113
2.6010259e-05 0.00035323293 0.00040857194 -3.2099982e-07 -0.00044917077 0.000336321 -0.00043152305 7.566222e-05
7.314389e-12 -5.758177e-05 -9.8092896e-05 6.851363e-05 0.00050471246 0.00013780966 9.110479e-05 0.00027347435
-0.07265669 -0.041952744 6.1509277e-06 -0.00039829907 1.236643e-06 -0.00017860612 0.00019885848 -3.9975555e-05
-5.75809e-06 0.0005084725 -0.0001247618 -7.089613e-05 -2.7894104e-05 2.147023e-08 0.00040238712 0.00039293678
1.3110271e-05 2.6462128e-06 0.0007665182 4.9703717e-06 0.00019772345 0.00021941753 9.804301e-05 -0.0003750387
0.00025896664 3.6783007e-05 0.00037436746 -0.00018067326 4.0817922e-05 3.5877022e-07 2.1999254e-05 1.4459756e-07
0.00018889182 -0.024129532 -0.00033356473 -0.025309684 -0.00024935752 8.5062e-06 0.065682575 -0.00032304905
-0.00014492002 0.08051525 -2.9511575e-05 -6.387987e-05 -0.046010636 7.236493e-05 -0.0001494382 -6.880878e-05
9.148211e-05 -0.00021737155 5.9540226e-09 -0.00022321985 -0.00014998656 -0.00014355374 8.996684e-05 0.06615433
-0.00032310336 -2.1115522e-05 -4.347711e-05 -1.3331079e-06 -0.0171419 -0.00010859293 1.0064234e-09 0.00040006015
5.548491e-05 7.1325258e-06 1.00569305e-05 -0.005233848 0.00087267294 -0.0004888945 8.449901e-05 -7.0062975e-05
2.3717368e-05 -0.00011965661 -0.35129198 0.0002646145 -5.536267e-05 -4.099459e-05 0.005240247 7.5191274e-05
5.924583e-08 -0.033119824 0.0004868842 0.0006706561 -7.797735e-05 5.780463e-05 0.05793654 -0.00027932003
-0.00021549097 1.7329813e-06 7.348889e-05 -0.00037487564 0.00032895978 1.0629059e-09 7.98033e-06 5.608773e-05
6.4338696e-05 0.00050591043 0.00044564635 -0.0007321705 -0.00012710856 -0.049178034 -7.958564e-05 -0.0007357687
-8.82317e-10 5.9914524e-05 9.485569e-05 -0.0001376279 0.00025416302 2.1194801e-10 0.0003381926 2.6406295e-05
-0.00021784747 3.296502e-05 0.00010985715 3.3660635e-10 -0.00012785164 2.3689597e-06 2.1491937e-08 0.011875664
00000000: eae2 b1b7 6bd1 6d39 44b2 0a38 e15b d638
00000010: 2993 543a 0203 32b9 4490 61b6 cd4d c4b3
00000020: a3a3 8a38 d254 4e32 100d 333a a090 3737
00000030: e50b ca34 e67f 9f39 f798 8b38 b2ed 0db9
00000040: 9c42 52ba 6e88 a3b7 1d15 27b7 8d9d 1036
00000050: 8813 77b8 e365 083a 90be d9b9 9908 5739
00000060: e36c 5dba 45d2 023a 9966 8d39 813d c1bd
00000070: 3f65 b137 be10 b9b9 bd8f 87b9 8da3 503b
00000080: 3fe8 9cb9 42df d438 f5a2 88b7 ea53 90b9
00000090: 7eb6 85b9 a427 e139 d002 42b7 6548 aab9
000000a0: feee f7b2 dcac 9e38 b611 a8b8 a7b6 0db9
000000b0: 78f4 66b8 91a3 1239 4dfc 45b7 7dec 17b8
000000c0: 763b 9339 efe2 043d 3080 ec39 6350 34b8
000000d0: 7ad6 96bd 65b3 31b9 9fa7 a63d 0232 643b
000000e0: 7fa2 7537 8f61 2739 0133 3a37 3809 8bb9
000000f0: 5c88 49b7 edd2 8eb2 08e4 49b9 1cb6 29b8
00000100: 2cef 78bd 98bd 8439 0785 96b6 2ca5 a939
00000110: cf02 85b9 c95f d7b7 f78d 42b7 6cc7 9339
00000120: 53c7 1c3d 278d 4b3d 2807 c43d bad0 83b9
00000130: db49 94b8 31f8 abb9 5a1f 9839 0ffb 5c39
00000140: 91ce 67b9 44a9 c8b4 d83b d337 d1d9 8c3d
00000150: a4a6 2538 6412 1abd 491e 123a 282e 2db7
00000160: d3d4 4d3a 6903 40ba 9395 adb9 c9c8 9cb8
00000170: 7852 e4b8 2889 6a39 3f20 57b8 1ee3 8eb9
00000180: e0e9 c938 fa0d b9b9 be8e e4b5 5ccd 96b5
00000190: 5f52 fcb8 139b b039 3b3c 543a 9152 6137
000001a0: 6846 93ba e469 1739 3b91 1cb9 8f38 8939
000001b0: 2766 a436 4cec 1ab9 8cfa 6739 d258 9f39
000001c0: 810e e036 cd71 4c39 6050 8238 5ad2 7cbd
000001d0: 8f72 0cb9 06f4 a334 dc95 9c35 9f90 87bb
000001e0: 9b30 da37 1f32 b939 9935 d639 e155 acb4
000001f0: ae7e ebb9 3e54 b039 0b3e e2b9 d8ac 9e38
00000200: 14ad 002d f483 71b8 39b7 cdb8 faae 8f38
00000210: ae4e 043a 0081 1039 830f bf38 1b61 8f39
00000220: 08cd 94bd a4d6 2bbd 1164 ce36 ccd2 d0b9
00000230: bbfa a535 3748 3bb9 ab84 5039 6dab 27b8
00000240: 9e35 c1b6 034b 053a 7ed2 02b9 12ae 94b8
00000250: 22fe e9b7 896d b832 7cf7 d239 1503 ce39
00000260: 2ff4 5b37 9795 3136 2af0 483a 2bc7 a636
00000270: fc53 4f39 7213 6639 719c cd38 d8a0 c4b9
00000280: eac5 8739 7447 1a38 c046 c439 1c73 3db9
00000290: e933 2b38 019d c034 0a8b b837 ad42 1b34
000002a0: 4311 4639 4cab c5bc 4de2 aeb9 4156 cfbc
000002b0: 33bc 82b9 dab5 0e37 9684 863d e95e a9b9
000002c0: acf5 17b9 2ee5 a43d a08f f7b7 3ef7 85b8
000002d0: a675 3cbd a0c2 9738 83b2 1cb9 6f4d 90b8
000002e0: 15da bf38 3bee 63b9 2394 cc31 1f10 6ab9
000002f0: b645 1db9 ea86 16b9 94ac bc38 ec7b 873d
00000300: 3366 a9b9 3d21 b1b7 315b 36b8 3ded b2b5
00000310: 2b6d 8cbc 63bc e3b8 6052 8a30 2abf d139
00000320: 78b8 6838 ee53 ef36 30ba 2837 b380 abbb
00000330: 17c4 643a 2829 00ba 1035 b138 c6ee 92b8
00000340: a9f4 c637 27f0 fab8 8bdc b3be f5bb 8a39
00000350: 3735 68b8 9bf1 2bb8 61b6 ab3b 02b0 9d38
00000360: 7b75 7e33 a7a8 07bd 7e44 ff39 f8ce 2f3a
00000370: c587 a3b8 4073 7238 de4e 6d3d b371 92b9
00000380: 6bf5 61b9 c998 e835 0c1e 9a38 f58a c4b9
00000390: 3c78 ac39 ad15 9230 42e3 0537 be3f 6b38
000003a0: 93ed 8638 139f 043a a4a5 e939 21ef 3fba
000003b0: 7248 05b9 e86e 49bd 37e7 a6b8 9ae0 40ba
000003c0: 8a87 72b0 bb4c 7b38 43ed c638 3550 10b9
000003d0: 2f41 8539 100a 692f 714f b139 1683 dd37
000003e0: fc6d 64b9 ec43 0a38 1c63 e638 220d b92f
000003f0: ea0f 06b9 6bfa 1e36 459d b832 2592 423c

tabnet.initial_splitter.shared.shared_layers.1.weight f4 [96, 48]
0.30730748 -0.045051873 -0.0039566807 -0.0002991756 0.04735495 -0.02775986 0.006196633 -0.021358276
0.03374294 -0.037808664 -0.027402725 -0.049416997 0.010242297 -2.4865854e-05 -0.10879114 -0.020669037
-0.0069132596 -0.007727962 -0.061170086 -0.0202736 0.024706371 -0.022819541 -0.004204965 0.04594836
2.0222811e-05 0.00036417658 4.7672533e-05 -0.00015781808 -7.242045e-05 5.9463973e-06 0.0001649515 9.493111e-05
-0.000120760466 -6.010885e-06 1.2463144e-05 -7.690453e-05 -3.6061134e-05 -0.0001389679 -7.727199e-05 -0.00018115835
3.3669094e-05 0.00016997787 0.00025615966 3.790405e-06 -2.9150022e-05 -8.736383e-05 -3.614004e-05 0.0002570426
-0.034138553 0.3696558 0.015086014 0.020693088 0.006859925 -0.035217185 -0.09666889 0.031264108
-0.034553885 -0.006312289 -0.009049199 0.0007644412 -0.047707543 -0.0010897701 -0.01751957 0.008550905
0.03758313 -0.03257265 -0.013730803 -0.058578655 -0.039666533 -0.021016236 -0.00030019614 -0.05025056
0.0016272749 0.0014329664 0.0019221875 0.00061289605 0.00056335895 0.00051049155 -0.00036001328 -0.0020239297
-0.00074742653 -0.0005182242 0.00025533253 -0.0001113333 -0.00029551887 -0.0015698151 0.0024306395 0.0030139242
-0.00031082125 -0.0027446195 -0.0007709225 -0.00087355176 -0.0023315484 -0.0011094752 0.0025828192 -3.164759e-05
-0.0138688395 -0.0055101686 0.08082374 0.11471186 -0.067834616 -0.017251702 -0.022872059 -0.012756764
-0.018407403 -0.062073994 -0.06426186 -0.07888423 -0.0722378 -0.0004936819 0.04817203 -0.031868074
-0.03504603 -0.0140026 -0.053089075 -0.013942763 -0.05785719 -0.038204234 0.004721039 -0.034891777
-2.3806238e-05 0.0010364443 4.9729315e-05 0.0002300731 0.00019407418 0.00019559145 2.3214918e-05 2.2527674e-05
-8.607061e-05 -1.6460335e-05 7.565025e-05 8.824719e-05 -4.6975594e-05 -3.8622795e-05 8.828818e-05 0.00017751052
-0.00015075723 -0.0010516675 -6.096971e-06 -7.604914e-05 -1.5392348e-05 0.0002809478 0.000113234986 -0.000741366
0.006676378 -0.009474807 0.06702442 0.13839795 -0.07408669 0.006425915 -0.05508612 -0.062506564
-0.06703363 -0.05528702 -0.04214299 -0.03228008 -0.06595831 -0.00031824983 -0.076614305 -0.039804384
-0.06706086 -0.07079364 -0.012208917 -0.006986664 -0.081050806 0.013197734 0.0055506723 -0.09429769
-8.303876e-05 0.00083786226 -3.9932256e-05 0.0003193748 0.00015900587 0.00022580309 0.00024258519 -2.6895377e-05
-0.0002584599 8.055709e-07 3.097085e-05 4.7233763e-05 0.000122177 -0.000332782 -3.337807e-05 0.00027585184
-3.3924298e-05 -0.0013559067 6.007332e-05 -1.1648712e-05 -1.7250153e-05 0.00017799468 8.186588e-05 -0.0005833964
0.042347644 0.010190684 -0.016692482 -0.007317114 0.2793622 -0.025031887 0.055447087 0.0038551544
-0.068848975 0.028794495 0.019327821 0.043870293 -0.052009396 -0.0010440288 0.047414083 0.011487945
0.037643492 -0.01815263 0.06838954 -0.03325652 -0.036150638 0.02662111 0.0040175286 -0.03609164
5.0722432e-05 0.0019310707 -0.00018497968 0.00010878119 0.00015277271 -4.052473e-05 -0.00052173604 -0.00010460007
7.701453e-05 6.8736124e-05 -6.496045e-05 -2.9086134e-05 -0.00013810558 0.0008497423 8.481842e-05 0.00040757662
-0.00023479808 -0.00020830086 0.00034089948 3.7909517e-06 6.007555e-05 0.00044197054 2.4571504e-05 0.00021855511
-0.0077784937 -0.018471198 -0.018822102 0.0070067593 -0.020969393 0.4021334 -0.039337702 0.016390616
-0.039828733 -0.052041292 -0.03245188 0.0024703536 0.023510862 4.446575e-05 -0.0005656379 -0.026913183
00000000: 6857 9d3e 5088 38bd 0ba7 81bb abda 9cb9
00000010: 44f7 413d a568 e3bc 200d cb3b 8df7 aebc
00000020: 0936 0a3d 42dd 1abd ae7b e0bc 7a69 4abd
00000030: 4fcf 273c 0497 d0b7 e4cd debd 1d52 a9bc
00000040: a088 e2bb d83a fdbb 7c8d 7abd d214 a6bc
00000050: 0465 ca3c 0cf0 babc cec9 89bb 5934 3c3d
00000060: 28a4 a937 f4ee be39 fef3 4738 f87b 25b9
00000070: 6fe0 97b8 2a87 c736 d5f6 2c39 c015 c738
00000080: c840 fdb8 1cb1 c9b6 cc18 5137 ce47 a1b8
00000090: 5940 17b8 e9b7 11b9 150d a2b8 53f5 3db9
000000a0: ea37 0d38 163c 3239 2b4d 8639 a95e 7e36
000000b0: 3287 f4b7 1937 b7b8 1395 17b8 acc3 8639
000000c0: ded4 0bbd 8643 bd3e 542b 773c 8d84 a93c
000000d0: 39c9 e03b e53f 10bd 57fa c5bd cb0e 003d
000000e0: 6088 0dbd 51d7 cebb 1743 14bc c864 483a
000000f0: fc68 43bd 9ed6 8eba 3485 8fbc 1819 0c3c
00000100: c5f0 193d e66a 05bd 29f7 60bc 2cf0 6fbd
00000110: 6079 22bd 3e2a acbc a563 9db9 88d3 4dbd
00000120: 494a d53a 60d2 bb3a e9f1 fb3a c2aa 203a
00000130: 61ae 133a 82d2 053a 2ac0 bcb9 e8a3 04bb
00000140: f2ee 43ba 70d9 07ba 27de 8539 9c7b e9b8
00000150: dfef 9ab9 41c2 cdba 5d4b 1f3b 4285 453b
00000160: b9f5 a2b9 13df 33bb bc17 4aba 11ff 64ba
00000170: e4cc 18bb cf6b 91ba 8444 293b 57bd 04b8
00000180: 213a 63bc a58e b4bb eb86 a53d 0dee ea3d
00000190: e0ec 8abd 7153 8dbc 2f5e bbbc bf01 51bc
000001a0: 1fcb 96bc 4d41 7ebd b99b 83bd 0e8e a1bd
000001b0: 69f1 93bd 6e6a 01ba 0950 453d 1988 02bd
000001c0: 6d8c 0fbd 296b 65bc ee73 59bd 3070 64bc
000001d0: a9fb 6cbd 0b7c 1cbd f2b2 9a3b aeea 0ebd
000001e0: 82b3 c7b7 4dd9 873a 7294 5038 c73f 7139
000001f0: 6480 4b39 ae17 4d39 a8bd c237 d0f9 bc37
00000200: cf80 b4b8 4d14 8ab7 6ba6 9e38 5911 b938
00000210: a907 45b8 e9fe 21b8 5b27 b938 1e22 3a39
00000220: 9614 1eb9 1bd8 89ba 9594 ccb6 927c 9fb8
00000230: d11e 81b7 2d4c 9339 9278 ed38 3b58 42ba
00000240: 85c5 da3b 393c 1bbc 1944 893d 31b8 0d3e
00000250: c3ba 97bd 7b90 d23b fca1 61bd 7103 80bd
00000260: ee48 89bd a474 62bd 219e 2cbd 1e38 04bd
00000270: 2715 87bd c5da a6b9 f6e7 9cbd ec09 23bd
00000280: 3457 89bd 42fc 90bd e907 48bc 63f0 e4bb
00000290: f7fd a5bd 4f3b 583c 6ae2 b53b 261f c1bd
000002a0: 1825 aeb8 fca3 5b3a ef7c 27b8 c371 a739
000002b0: d0ba 2639 8ec5 6c39 775e 7e39 629d e1b7
000002c0: e781 87b9 693e 5835 b2e6 0138 de1c 4638
000002d0: a41c 0039 3e79 aeb9 6eff 0bb8 35a0 9039
000002e0: f049 0eb8 aeb8 b1ba 3cf7 7b38 d66e 43b7
000002f0: 6cb4 90b7 15a4 3a39 69af ab38 12ef 18ba
00000300: b974 2d3d d4f6 263c acbe 88bc 67c4 efbb
00000310: 9008 8f3e ac0f cdbc 7c1c 633d c2a6 7c3b
00000320: b100 8dbd 6fe2 eb3c 6155 9e3c 56b1 333d
00000330: ce07 55bd cbd7 88ba 4535 423d ef37 3c3c
00000340: 1030 1a3d d3b4 94bc d10f 8c3d fd37 08bd
00000350: b112 14bd 8414 da3c 79a5 833b d4d4 13bd
00000360: ccbe 5438 fb1b fd3a 1bf7 41b9 7521 e438
00000370: 9d31 2039 19f9 29b8 1dc5 08ba bc5c dbb8
00000380: dc82 a138 6d26 9038 603b 88b8 fffd f3b7
00000390: 6fd0 10b9 3ec1 5e3a 8be0 b138 02b0 d539
000003a0: 2134 76b9 566b 5ab9 c1ba b239 0e68 7e36
000003b0: a1f9 7b38 48b8 e739 e71e ce37 f12b 6539
000003c0: bce2 febb e950 97bc cf30 9abc f598 e53b
000003d0: 01c8 abbc 6ee4 cd3e 9220 21bd 9d45 863c
000003e0: 7423 23bd 4029 55bd 43ec 04bd a8e5 213b
000003f0: da99 c03c bc80 3a38 5147 14ba 0979 dcbc

tabnet.initial_splitter.shared.glu_layers.0.fc.weight f4 [96, 1038]
-2.120571e-05 0.00022680096 3.3067787e-05 0.00010221429 0.0008109087 -0.00016976523 -3.3611586e-06 -9.141113e-08
6.6108325e-05 1.2010064e-08 0.00068302546 1.0941323e-05 3.7634086e-07 0.00030422135 6.6565284e-05 -0.00013535356
-0.000802079 -1.9494644e-05 -9.9588915e-06 2.1549379e-06 -5.890758e-05 0.00052031706 -0.00041531445 0.000205072
-0.00084467063 0.0004990439 0.00026970057 -0.09435559 2.114719e-05 -0.00035298424 -0.000258563 0.0031835765
-0.00029927675 0.00010150533 -1.6288346e-05 -0.0002752834 -0.00025503704 0.0004294488 -1.1563956e-05 -0.00032478865
-2.8863266e-08 7.566225e-05 -8.014163e-05 -0.00013514851 -5.5063952e-05 0.00013984578 -1.1800858e-05 -3.6221452e-05
0.00028082327 0.032442983 0.00045108935 -4.299021e-05 -0.07365127 -0.00016946865 0.0813744 0.0034819846
1.4640972e-05 0.00015962704 1.1098339e-05 -0.00026519015 -1.2012282e-05 -1.6626894e-08 -0.00019253802 -4.0462342e-05
-0.060774967 0.0002531826 -4.485835e-06 0.00032357255 -0.0002536983 -2.56746e-05 -1.1596355e-05 0.00028186606
0.038276028 0.04969516 0.095716774 -0.0002514178 -7.0709466e-05 -0.0003280058 0.00029015058 0.00021074362
-0.00022106829 -3.737606e-07 2.5181027e-05 0.06877483 3.949426e-05 -0.037615195 0.0005573971 -1.032235e-05
0.00078518427 -0.0007324727 -0.00033108573 -7.476059e-05 -0.00010887248 0.00022367074 -5.1290026e-05 -0.00027253566
9.6279895e-05 -0.00035296363 -1.7028867e-06 -1.1235638e-06 -0.00012031639 0.00033684875 0.0008096133 1.3430269e-05
-0.0011236193 0.0001443993 -0.00014931422 0.00026172816 4.899473e-06 -0.00014774612 0.00022123213 0.0003039302
6.6774087e-06 0.0001949735 6.213854e-05 -0.061724044 -0.00013394117 3.0538666e-07 1.166652e-06 -0.004137113
2.6010259e-05 0.00035323293 0.00040857194 -3.2099982e-07 -0.00044917077 0.000336321 -0.00043152305 7.566222e-05
7.314389e-12 -5.758177e-05 -9.8092896e-05 6.851363e-05 0.00050471246 0.00013780966 9.110479e-05 0.00027347435
-0.07265669 -0.041952744 6.1509277e-06 -0.00039829907 1.236643e-06 -0.00017860612 0.00019885848 -3.9975555e-05
-5.75809e-06 0.0005084725 -0.0001247618 -7.089613e-05 -2.7894104e-05 2.147023e-08 0.00040238712 0.00039293678
1.3110271e-05 2.6462128e-06 0.0007665182 4.9703717e-06 0.00019772345 0.00021941753 9.804301e-05 -0.0003750387
0.00025896664 3.6783007e-05 0.00037436746 -0.00018067326 4.0817922e-05 3.5877022e-07 2.1999254e-05 1.4459756e-07
0.00018889182 -0.024129532 -0.00033356473 -0.025309684 -0.00024935752 8.5062e-06 0.065682575 -0.00032304905
-0.00014492002 0.08051525 -2.9511575e-05 -6.387987e-05 -0.046010636 7.236493e-05 -0.0001494382 -6.880878e-05
9.148211e-05 -0.00021737155 5.9540226e-09 -0.00022321985 -0.00014998656 -0.00014355374 8.996684e-05 0.06615433
-0.00032310336 -2.1115522e-05 -4.347711e-05 -1.3331079e-06 -0.0171419 -0.00010859293 1.0064234e-09 0.00040006015
5.548491e-05 7.1325258e-06 1.00569305e-05 -0.005233848 0.00087267294 -0.0004888945 8.449901e-05 -7.0062975e-05
2.3717368e-05 -0.00011965661 -0.35129198 0.0002646145 -5.536267e-05 -4.099459e-05 0.005240247 7.5191274e-05
5.924583e-08 -0.033119824 0.0004868842 0.0006706561 -7.797735e-05 5.780463e-05 0.05793654 -0.00027932003
-0.00021549097 1.7329813e-06 7.348889e-05 -0.00037487564 0.00032895978 1.0629059e-09 7.98033e-06 5.608773e-05
6.4338696e-05 0.00050591043 0.00044564635 -0.0007321705 -0.00012710856 -0.049178034 -7.958564e-05 -0.0007357687
-8.82317e-10 5.9914524e-05 9.485569e-05 -0.0001376279 0.00025416302 2.1194801e-10 0.0003381926 2.6406295e-05
-0.00021784747 3.296502e-05 0.00010985715 3.3660635e-10 -0.00012785164 2.3689597e-06 2.1491937e-08 0.011875664
00000000: eae2 b1b7 6bd1 6d39 44b2 0a38 e15b d638
00000010: 2993 543a 0203 32b9 4490 61b6 cd4d c4b3
00000020: a3a3 8a38 d254 4e32 100d 333a a090 3737
00000030: e50b ca34 e67f 9f39 f798 8b38 b2ed 0db9
00000040: 9c42 52ba 6e88 a3b7 1d15 27b7 8d9d 1036
00000050: 8813 77b8 e365 083a 90be d9b9 9908 5739
00000060: e36c 5dba 45d2 023a 9966 8d39 813d c1bd
00000070: 3f65 b137 be10 b9b9 bd8f 87b9 8da3 503b
00000080: 3fe8 9cb9 42df d438 f5a2 88b7 ea53 90b9
00000090: 7eb6 85b9 a427 e139 d002 42b7 6548 aab9
000000a0: feee f7b2 dcac 9e38 b611 a8b8 a7b6 0db9
000000b0: 78f4 66b8 91a3 1239 4dfc 45b7 7dec 17b8
000000c0: 763b 9339 efe2 043d 3080 ec39 6350 34b8
000000d0: 7ad6 96bd 65b3 31b9 9fa7 a63d 0232 643b
000000e0: 7fa2 7537 8f61 2739 0133 3a37 3809 8bb9
000000f0: 5c88 49b7 edd2 8eb2 08e4 49b9 1cb6 29b8
00000100: 2cef 78bd 98bd 8439 0785 96b6 2ca5 a939
00000110: cf02 85b9 c95f d7b7 f78d 42b7 6cc7 9339
00000120: 53c7 1c3d 278d 4b3d 2807 c43d bad0 83b9
00000130: db49 94b8 31f8 abb9 5a1f 9839 0ffb 5c39
00000140: 91ce 67b9 44a9 c8b4 d83b d337 d1d9 8c3d
00000150: a4a6 2538 6412 1abd 491e 123a 282e 2db7
00000160: d3d4 4d3a 6903 40ba 9395 adb9 c9c8 9cb8
00000170: 7852 e4b8 2889 6a39 3f20 57b8 1ee3 8eb9
00000180: e0e9 c938 fa0d b9b9 be8e e4b5 5ccd 96b5
00000190: 5f52 fcb8 139b b039 3b3c 543a 9152 6137
000001a0: 6846 93ba e469 1739 3b91 1cb9 8f38 8939
000001b0: 2766 a436 4cec 1ab9 8cfa 6739 d258 9f39
000001c0: 810e e036 cd71 4c39 6050 8238 5ad2 7cbd
000001d0: 8f72 0cb9 06f4 a334 dc95 9c35 9f90 87bb
000001e0: 9b30 da37 1f32 b939 9935 d639 e155 acb4
000001f0: ae7e ebb9 3e54 b039 0b3e e2b9 d8ac 9e38
00000200: 14ad 002d f483 71b8 39b7 cdb8 faae 8f38
00000210: ae4e 043a 0081 1039 830f bf38 1b61 8f39
00000220: 08cd 94bd a4d6 2bbd 1164 ce36 ccd2 d0b9
00000230: bbfa a535 3748 3bb9 ab84 5039 6dab 27b8
00000240: 9e35 c1b6 034b 053a 7ed2 02b9 12ae 94b8
00000250: 22fe e9b7 896d b832 7cf7 d239 1503 ce39
00000260: 2ff4 5b37 9795 3136 2af0 483a 2bc7 a636
00000270: fc53 4f39 7213 6639 719c cd38 d8a0 c4b9
00000280: eac5 8739 7447 1a38 c046 c439 1c73 3db9
00000290: e933 2b38 019d c034 0a8b b837 ad42 1b34
000002a0: 4311 4639 4cab c5bc 4de2 aeb9 4156 cfbc
000002b0: 33bc 82b9 dab5 0e37 9684 863d e95e a9b9
000002c0: acf5 17b9 2ee5 a43d a08f f7b7 3ef7 85b8
000002d0: a675 3cbd a0c2 9738 83b2 1cb9 6f4d 90b8
000002e0: 15da bf38 3bee 63b9 2394 cc31 1f10 6ab9
000002f0: b645 1db9 ea86 16b9 94ac bc38 ec7b 873d
00000300: 3366 a9b9 3d21 b1b7 315b 36b8 3ded b2b5
00000310: 2b6d 8cbc 63bc e3b8 6052 8a30 2abf d139
00000320: 78b8 6838 ee53 ef36 30ba 2837 b380 abbb
00000330: 17c4 643a 2829 00ba 1035 b138 c6ee 92b8
00000340: a9f4 c637 27f0 fab8 8bdc b3be f5bb 8a39
00000350: 3735 68b8 9bf1 2bb8 61b6 ab3b 02b0 9d38
00000360: 7b75 7e33 a7a8 07bd 7e44 ff39 f8ce 2f3a
00000370: c587 a3b8 4073 7238 de4e 6d3d b371 92b9
00000380: 6bf5 61b9 c998 e835 0c1e 9a38 f58a c4b9
00000390: 3c78 ac39 ad15 9230 42e3 0537 be3f 6b38
000003a0: 93ed 8638 139f 043a a4a5 e939 21ef 3fba
000003b0: 7248 05b9 e86e 49bd 37e7 a6b8 9ae0 40ba
000003c0: 8a87 72b0 bb4c 7b38 43ed c638 3550 10b9
000003d0: 2f41 8539 100a 692f 714f b139 1683 dd37
000003e0: fc6d 64b9 ec43 0a38 1c63 e638 220d b92f
000003f0: ea0f 06b9 6bfa 1e36 459d b832 2592 423c

tabnet.initial_splitter.shared.glu_layers.0.bn.bn.weight f4 [96]
0.0006694295 0.057355575 0.00057068066 -0.0037202144 0.0074429014 -0.019386584 0.869592 0.02024878
0.06590116 3.1907504e-05 0.0042510014 -0.00054778764 0.08210806 0.10568362 0.007366425 0.019289218
0.037029665 0.039521817 0.0030935798 0.0079364665 0.05507807 0.007511066 0.003626536 0.4930763
0.46560186 0.44761384 0.41744083 0.42696288 0.4422891 0.40741396 0.35950693 0.3918824
0.35933813 0.10723326 0.38600892 0.16559902 0.28536525 0.42973468 0.48340562 0.33430064
0.57661694 0.53480774 0.57024986 0.43670222 0.47444925 0.36720362 0.28887525 0.21271527
7.576666e-07 -0.0002899053 -6.007247e-06 1.6733802e-05 -0.00017643318 -0.0006280598 0.51733863 0.00018485198
-0.0075591262 1.5707834e-05 -5.9531663e-05 1.771763e-05 -0.00052534055 0.0004451874 -1.3587258e-05 0.00028494126
-0.0011874866 0.00010341728 4.469325e-06 0.00024824217 0.0018064751 3.30377e-05 7.4536456e-06 0.04148717
0.4095641 -0.28109285 0.20267165 0.26556423 0.3665719 0.08544725 0.35129678 0.15010145
-0.092034794 0.050902084 0.22455998 0.008630475 0.0131063135 0.11244972 0.4341155 -0.11218549
0.40149093 0.1691164 0.46499404 0.4229899 0.2780273 0.09934798 0.2039323 -0.082018636
00000000: a77c 2f3a aeed 6a3d bb99 153a d7ce 73bb
00000010: 95e3 f33b 9dd0 9ebc 959d 5e3f c5e0 a53c
00000020: 30f7 863d 6cd4 0538 fc4b 8b3b 6899 0fba
00000030: 4528 a83d a770 d83d 0d62 f13b 6c04 9e3c
00000040: 6bac 173d a1e1 213d a8bd 4a3b f407 023c
00000050: 8b99 613d 631f f63b 2eab 6d3b 7f74 fc3e
00000060: 5e63 ee3e a42d e53e ceba d53e e19a da3e
00000070: b873 e23e 9098 d03e 4b11 b83e cfa4 c83e
00000080: 2bfb b73e 1d9d db3d f6a2 c53e ca92 293e
00000090: 651b 923e 2f06 dc3e f180 f73e 7429 ab3e
000000a0: 2b9d 133f 29e9 083f e5fb 113f 6f97 df3e
000000b0: 03eb f23e 1d02 bc3e 75e7 933e 08d2 593e
000000c0: 7462 4b35 6efe 97b9 dc91 c9b6 915f 8c37
000000d0: ec00 39b9 61a4 24ba 4e70 043f d3d4 4139
000000e0: 8cb2 f7bb 51c4 8337 a3b1 79b8 52a0 9437
000000f0: 02b7 09ba 0b68 e939 d4f4 63b7 2b64 9539
00000100: 70a5 9bba bbe1 d838 36f7 9536 8026 8239
00000110: 3fc7 ec3a f691 0a38 541a fa36 73ee 293d
00000120: 63b2 d13e 67eb 8fbe 2889 4f3e 09f8 873e
00000130: 50af bb3e f8fe ae3d 2cdd b33e 32b4 193e
00000140: bd7c bcbd b47e 503d 0df3 653e d666 0d3c
00000150: ddbb 563c 0a4c e63d 6344 de3e 82c1 e5bd
00000160: 3890 cd3e d92c 2d3e b313 ee3e 2292 d83e
00000170: 9859 8e3e f476 cb3d a1d3 503e 63f9 a7bd
