cv_steps/tabnet_raw_step1_fold1_4/network.pt (torch, 682379 bytes, 56 tensors)

embedder.embeddings.0.weight f4 [3, 1]
0.12652712 0.014506498 -0.14730646
00000000: 5390 013e aaac 6d3c 81d7 16be

embedder.embeddings.1.weight f4 [2, 1]
-0.02233092 0.022337578
00000000: 55ef b6bc 4cfd b63c

tabnet.initial_bn.weight f4 [1038]
0.13175105 0.1014736 -0.0031405508 0.10776688 0.21741869 -0.08709327 0.11830918 0.02558276
0.18333791 0.066699766 0.2723744 0.019655058 0.0016050021 0.11074957 0.08705788 0.13642667
0.30555746 0.06300593 0.02252478 -0.1279528 0.12245281 0.1453646 0.2861596 0.11636972
0.1894132 0.14221182 0.013929668 0.03217291 0.11188697 0.10986126 0.07765577 0.15503483
0.1640125 0.07800855 0.06293488 0.20058066 0.28678915 0.00025106777 0.24942052 0.20775537
0.06290482 0.25237387 0.15389745 0.15177308 -0.046135545 0.11089201 -1.4859631e-05 -0.10557809
0.103087306 0.18479751 0.13485335 -5.6406284e-06 0.11938893 0.21015622 0.011912734 0.05416201
0.17109849 -0.0003074262 0.106686816 0.13143992 0.009416085 0.009736461 0.19856364 -7.697746e-06
0.2922969 0.15898238 6.390639e-06 0.15112478 0.042291325 0.064030245 0.25648993 0.22376688
-0.026590506 0.037542462 0.09285455 0.040832695 0.100331254 0.41889647 -0.058926944 0.12042095
0.07262701 -0.09567499 -0.046239678 0.17786959 -0.09755914 0.009280155 0.08339083 0.09238377
0.11664204 0.08942041 0.1853428 0.07577265 0.18495554 0.24562842 0.21777213 0.13046281
0.18192448 -0.091211244 0.13162233 -6.275506e-07 0.13614716 0.21489428 0.30132183 0.09112621
0.19518872 0.18393888 0.15621707 0.11709372 0.03820756 0.072391346 0.20430864 0.14291961
0.12254659 0.16095564 0.00049810985 0.06947254 0.15501818 -0.02535895 0.12005886 0.20640133
0.15672515 -0.0056298566 0.16223566 0.01024187 0.13516688 0.13300526 0.15126179 0.12709175
0.0008438809 0.11410886 0.18550298 0.11401214 0.245871 0.15373114 0.059853528 0.09763037
0.17812924 0.14467616 0.14949253 0.085285015 0.13150024 0.11221745 -0.00017264439 0.08967093
0.17932071 0.17313802 0.18352309 0.06893006 -0.0014198651 0.18478617 0.18979429 0.23760417
0.09361945 0.09932302 0.07464091 0.1449836 0.040774364 -0.010697885 0.25093925 0.3356177
0.41907534 0.19621392 0.03401621 0.11880008 0.2121001 -0.018188741 0.1820313 0.13157754
0.11975787 0.14743312 0.02947278 0.16677055 0.0807624 -5.4655334e-07 0.121432304 0.24365485
0.1426901 0.37131453 0.1866184 -0.0013195523 0.35121354 0.0002444086 0.19942166 0.17083296
-0.026903711 0.0761895 -0.011958824 0.15060882 0.0060358383 0.07203655 0.038532954 0.1563122
0.24506328 -0.13379033 0.15726449 0.12306884 0.115395784 0.0649878 1.6061402e-05 0.13501124
0.18431084 -0.0019064443 -0.009164114 0.0010514639 0.29225287 0.31429935 0.09006518 0.0891034
-0.067333944 0.25885782 0.15667033 0.23070891 0.20658351 0.12837069 0.015944507 0.14825168
1.527037e-06 0.14543046 0.09301818 0.23144352 0.16401635 0.060018715 0.12239871 0.18590508
0.04266047 -0.010739709 0.046806823 0.13227026 -0.056925654 -6.604649e-09 0.00794324 0.039323583
0.0005186343 0.22736272 7.6719356e-05 0.18755178 0.10888692 0.21804503 2.2120223e-05 0.17164677
0.08216667 0.1331697 0.15987197 0.25570533 0.143236 0.00018322232 0.12936927 -4.658683e-06
0.0067799515 -0.13864315 0.26858488 0.04006013 0.0065069054 0.004603131 0.10981919 1.712204e-05
00000000: bfe9 063e 64d1 cf3d b3d1 4dbb e2b4 dc3d
00000010: 01a3 5e3e f55d b2bd 154c f23d f092 d13c
00000020: efbc 3b3e e399 883d a874 8b3e a503 a13c
00000030: ef5e d23a acd0 e23d 674b b23d 6fb3 0b3e
00000040: 0772 9c3e 4109 813d e385 b83c 0f06 03be
00000050: 8ac8 fa3d 75da 143e 8383 923e 3f53 ee3d
00000060: 89f5 413e fa9f 113e 4339 643c bec7 033d
00000070: ff24 e53d f1fe e03d fd09 9f3d 73c1 1e3e
00000080: e5f2 273e f2c2 9f3d 01e4 803d 0465 4d3e
00000090: 07d6 923e bfa1 8339 1868 7f3e d3bd 543e
000000a0: 3ed4 803d 2637 813e 4b97 1d3e 676a 1b3e
000000b0: a0f8 3cbd 5a1b e33d a14d 79b7 5339 d8bd
000000c0: 701f d33d 8f3b 3d3e ff16 0a3e a144 bdb6
000000d0: 2f82 f43d 3133 573e a12d 433c fcd8 5d3d
000000e0: 7134 2f3e 0c2e a1b9 9e7e da3d 3098 063e
000000f0: ec45 1a3c ad85 1f3c 4454 4b3e 9125 01b7
00000100: f0a7 953e 47cc 223e 2c6f d636 74c0 1a3e
00000110: ab39 2d3d 4a22 833d a652 833e 2523 653e
00000120: 55d4 d9bc 20c6 193d 872a be3d 2f40 273d
00000130: 797a cd3d 9979 d63e 615d 71bd 429f f63d
00000140: 78bd 943d 40f1 c3bd d165 3dbd 7223 363e
00000150: 16cd c7bd cb0b 183c d0c8 aa3d b433 bd3d
00000160: 06e2 ee3d 0c22 b73d 81ca 3d3e b12e 9b3d
00000170: fc64 3d3e 0486 7b3e a8ff 5e3e 0b98 053e
00000180: 694a 3a3e f6cc babd 01c8 063e f374 28b5
00000190: 296a 0b3e 3f0d 5c3e db46 9a3e 61a0 ba3d
000001a0: 8ddf 473e 795a 3c3e 5ef7 1f3e d5ce ef3d
000001b0: 887f 1c3d ea41 943d 4936 513e 8559 123e
000001c0: b5f9 fa3d 8ed1 243e 9693 023a 9e47 8e3d
000001d0: 16bd 1e3e 93bd cfbc 6be1 f53d df5a 533e
000001e0: 8f7c 203e a97a b8bb 1b21 263e 84cd 273c
000001f0: 3069 0a3e 8832 083e 5fe4 1a3e 5724 023e
00000200: e337 5d3a e8b1 e93d 7ef4 3d3e 327f e93d
00000210: 9cc5 7b3e b26b 1d3e f928 753d 6ef2 c73d
00000220: 8367 363e fd25 143e 9214 193e e9a9 ae3d
00000230: 00a8 063e 43d2 e53d e007 35b9 64a5 b73d
00000240: d99f 373e 184b 313e 7aed 3b3e 342b 8d3d
00000250: c41a baba 9638 3d3e 6f59 423e 824e 733e
00000260: 8ebb bf3d de69 cb3d 55dd 983d 9576 143e
00000270: 0503 273d 2f46 2fbc 1c7b 803e 15d6 ab3e
00000280: 0b91 d63e 4dec 483e 9554 0b3d 754d f33d
00000290: c530 593e 8e00 95bc 6a66 3a3e 43bc 063e
000002a0: 9d43 f53d b5f8 163e e670 f13c e6c5 2a3e
000002b0: c266 a53d dcb6 12b5 80b1 f83d a880 793e
000002c0: 5b1d 123e f01c be3e e518 3f3e d4f4 acba
000002d0: 43d2 b33e f823 8039 3135 4c3e d6ee 2e3e
000002e0: 2c65 dcbc 3e09 9c3d f1ee 43bc 3339 1a3e
000002f0: 48c8 c53b e687 933d bbd4 1d3d 4e10 203e
00000300: def1 7a3e 5500 09be f109 213e 840b fc3d
00000310: a054 ec3d 5318 853d 99bb 8637 6340 0a3e
00000320: fbbb 3c3e a8e1 f9ba 1425 16bc 46d1 893a
00000330: 2ba2 953e d8eb a03e 1874 b83d d87b b63d
00000340: 61e6 89bd 0389 843e 306e 203e f53e 6c3e
00000350: a18a 533e 9b73 033e 0e9e 823c 4acf 173e
00000360: 98f4 cc35 b9eb 143e 5180 be3d 88ff 6c3e
00000370: e7f3 273e 2fd6 753d 2dac fa3d e75d 3e3e
00000380: bfbc 2e3d 9bf5 2fbc 83b8 3f3d db71 073e
00000390: e02a 69bd 1bef e2b1 5d24 023c c411 213d
000003a0: f5f4 073a c6d1 683e 64e4 a038 930d 403e
000003b0: 1b00 df3d 3247 5f3e d18e b937 2cc4 2f3e
000003c0: 0047 a83d a35d 083e 7ab5 233e cfeb 823e
000003d0: 75ac 123e 5e1f 4039 6179 043e c851 9cb6
000003e0: 5b2a de3b 78f8 0dbe f583 893e 1716 243d
000003f0: e137 d53b ddd5 963b e2e8 e03d 4da1 8f37

tabnet.initial_bn.bias f4 [1038]
8.418834e-05 4.0388528e-05 -9.385723e-07 6.142185e-05 -0.17151086 0.3916372 -5.978534e-05 8.380767e-05
-0.00027743774 -5.9650047e-06 -0.10100742 -8.305854e-05 -6.665248e-07 8.437449e-05 -3.3196513e-05 3.351153e-05
-0.038865883 5.795077e-06 -0.26736727 -5.030759e-05 -2.3376719e-05 6.253696e-05 1.6137423e-05 -7.499502e-05
1.4889705e-05 -1.706448e-05 -9.25408e-06 -4.4863675e-05 -3.6094152e-05 0.00051382446 4.008405e-06 0.00010073654
-3.267501e-05 -7.805397e-06 -5.4261756e-05 -4.5391034e-06 0.00076401257 -4.9499104e-06 7.837162e-05 -1.08585455e-05
3.411257e-06 -6.1681753e-06 1.2600404e-05 -8.641777e-05 3.167976e-05 -4.9249313e-05 3.6688599e-09 -4.808737e-05
6.352855e-05 0.00047999647 7.631645e-06 -6.529369e-10 -1.1357238e-05 0.00017148058 -1.9465733e-06 2.2524855e-05
0.0002129875 6.573761e-08 1.1138368e-06 0.38049465 -2.8852962e-06 -1.8883196e-05 -3.3530865e-05 -5.193843e-08
-2.2547109e-05 -3.219531e-05 2.380129e-07 -5.1186908e-05 -9.84917e-05 0.42091602 -0.00013187742 -0.00010041403
0.728912 0.2895071 0.00010015444 1.6315758e-05 -7.63518e-05 0.00014026473 4.7280205e-06 -1.9937215e-05
0.00010133396 7.8382596e-05 2.755365e-07 8.337412e-05 2.4306126e-05 6.625465e-06 -2.1624935e-05 0.000107725806
-1.0711688e-05 -2.5269088e-05 2.018732e-05 -9.975488e-05 -0.00045461478 -4.3725973e-05 7.1412825e-05 -2.2363847e-06
0.25906512 0.0001465048 5.7378726e-05 -3.1287137e-10 -9.3076065e-05 -0.012118006 -5.7249123e-05 -0.29793224
3.9119648e-05 4.3257205e-05 1.843215e-05 -3.7672096e-05 8.914097e-06 4.5110944e-05 2.1867414e-05 3.7941718e-05
0.00025439207 8.102384e-06 -7.720725e-07 -5.357057e-06 1.6013873e-05 -6.604604e-06 -1.9174015e-05 0.012563303
2.9353141e-05 7.0032825e-06 -1.5705564e-05 -9.28067e-06 1.4932098e-05 0.00011913881 2.0326339e-05 3.986785e-05
-1.413498e-05 3.5844878e-06 -7.546441e-05 0.32478645 0.00012259986 4.170061e-05 -4.1414783e-05 -8.587005e-06
2.6588214e-05 7.944466e-05 -1.2724996e-05 -0.00029351094 8.989125e-06 -0.00011671849 -1.5444979e-06 -1.20611485e-05
8.660418e-06 3.921603e-05 -3.943772e-05 0.00018551893 -4.3215772e-05 -7.566883e-05 0.00020020595 4.0541872e-05
-0.36316034 -0.00025413727 -0.00014018612 4.7379668e-05 -2.6266125e-05 0.23237522 5.472614e-05 0.00020013959
1.4687254e-06 -7.8028104e-05 -0.00021281984 3.3922355e-05 -0.20894927 1.4136524e-05 -4.4240383e-05 -0.013645574
4.8293064e-06 2.679927e-06 1.103799e-05 -0.0002763758 -0.00014840883 3.832727e-10 8.8556604e-05 0.07461081
2.4025887e-05 0.00030338205 0.00028974016 -3.2596272e-06 4.515151e-05 -5.235086e-08 -5.3056407e-05 0.00018462639
-3.170924e-05 9.419917e-06 -2.3537648e-05 -3.197124e-05 -2.5739948e-07 -2.811645e-06 -0.00011582492 4.197617e-05
0.032415662 9.3617324e-05 0.00011160389 -9.3371746e-05 3.0656709e-06 -7.4382674e-06 -1.1082376e-10 4.2849053e-05
0.01671705 -2.2137592e-06 2.1100972e-05 0.26843286 -0.13927205 5.6677552e-05 5.4981218e-05 -3.2488915e-05
2.2636354e-05 9.1421694e-05 0.0039184517 0.00015311853 8.8663786e-05 -1.209813e-05 -9.322814e-06 -4.072527e-05
-5.7854777e-10 -5.132947e-05 -3.219623e-05 0.031661972 -5.522444e-05 -8.630866e-05 0.31841713 5.4679895e-06
0.004777725 2.3113838e-05 6.711997e-06 -8.279614e-05 1.1812463e-05 1.3422855e-12 0.30189785 -5.3965206e-05
1.9605011e-05 -5.125374e-05 6.2057154e-08 5.219784e-07 -2.0667558e-05 -0.00011739284 -3.3646106e-09 -1.5357733e-05
-8.730481e-07 -0.00016825084 -0.00014795348 -3.9012146e-05 -0.00061707606 3.725314e-08 2.2216705e-05 1.5138242e-09
-0.34313673 -7.410468e-05 0.00011498225 -1.2913852e-05 -1.7802082e-06 2.0835643e-07 9.037178e-06 1.5063074e-08
00000000: 458e b038 da66 2938 33f2 7bb5 9bcf 8038
00000010: 8ba0 2fbe ac84 c83e 05c2 7ab8 e6c1 af38
00000020: 1075 91b9 0027 c8b6 fadc cebd b72f aeb8
00000030: 3ceb 32b5 36f2 b038 7c3c 0bb8 bb8e 0c38
00000040: d531 1fbd 5573 c236 5de4 88be 5d01 53b8
00000050: 1f19 c4b7 4626 8338 da5e 8737 a546 9db8
00000060: ccce 7937 b125 8fb7 f941 1bb7 012c 3cb8
00000070: cd63 17b8 2db2 063a f07f 8636 8542 d338
00000080: 860c 09b8 edf3 02b7 1e97 63b8 9a4e 98b6
00000090: 0448 483a 6817 a6b6 715b a438 192d 36b7
000000a0: f3ec 6436 39f8 ceb6 5366 5337 303b b5b8
000000b0: e2df 0438 0c91 4eb8 441f 7c31 6cb1 49b8
000000c0: a13a 8538 09a8 fb39 aa09 0037 5a7a 33b0
000000d0: f78a 3eb7 78cf 3339 e0a1 02b6 c2f3 bc37
000000e0: 6655 5f39 a22b 8d33 247f 9535 32d0 c23e
000000f0: 03a1 41b6 5b67 9eb7 7ea3 0cb8 e812 5fb3
00000100: 8c23 bdb7 7309 07b8 7d90 7f34 86b1 56b8
00000110: 548d ceb8 4e82 d73e 9348 0ab9 5f95 d2b8
00000120: fa99 3a3f 463a 943e 010a d238 d3dd 8837
00000130: 0f1f a0b8 0714 1339 63a5 9e36 d83e a7b7
00000140: 4183 d438 5661 a438 73ed 9334 24d9 ae38
00000150: 02e5 cb37 5050 de36 3267 b5b7 daea e138
00000160: 5ab6 33b7 f4f8 d3b7 f157 a937 7e33 d1b8
00000170: 5d59 eeb9 6866 37b8 78c3 9538 cc14 16b6
00000180: 2fa4 843e 159f 1939 f0a9 7038 bb00 acaf
00000190: d531 c3b8 9a8a 46bc c71e 70b8 938a 98be
000001a0: 6714 2438 126f 3538 be9e 9a37 1b02 1eb8
000001b0: c18d 1537 8235 3d38 ea6f b737 9c23 1f38
000001c0: ed5f 8539 79ef 0737 6b40 4fb5 c5c0 b3b6
000001d0: 8855 8637 1e9d ddb6 e2d7 a0b7 50d6 4d3c
000001e0: 643b f637 bdfd ea36 71bf 83b7 2db4 1bb7
000001f0: df84 7a37 29da f938 7b82 aa37 c737 2738
00000200: 4725 6db7 088d 7036 a642 9eb8 694a a63e
00000210: 268e 0039 b0e7 2e38 c9b4 2db8 e810 10b7
00000220: c109 df37 879b a638 717d 55b7 5fe2 99b9
00000230: ffcf 1637 c3c6 f4b8 8b4c cfb5 3d5a 4ab7
00000240: 364c 1137 e47b 2438 ee69 25b8 dc87 4239
00000250: 9542 35b8 65b0 9eb8 60ee 5139 810b 2a38
00000260: 27f0 b9be ba3d 85b9 edfe 12b9 88b9 4638
00000270: 1356 dcb7 c5f3 6d3e bf89 6538 90dc 5139
00000280: 0521 c535 05a3 a3b8 6428 5fb9 da47 0e38
00000290: ccf6 55be e92b 6d37 c08e 39b8 b091 5fbc
000002a0: 6d0b a236 ccd8 3336 ce2f 3937 88e6 90b9
000002b0: 319e 1bb9 d6b4 d22f 77b7 b938 8dcd 983d
000002c0: 338b c937 400f 9f39 44e8 9739 f8bf 5ab6
000002d0: 1161 3d38 61d8 60b3 e288 5eb8 4598 4139
000002e0: 8aff 04b8 3c0a 1e37 b772 c5b7 dc18 06b8
000002f0: b730 8ab4 b1af 3cb6 08e7 f2b8 920f 3038
00000300: 49c6 043d 6b54 c438 e20c ea38 93d0 c3b8
00000310: d3bb 4d36 3b96 f9b6 3bb4 f3ae d2b8 3338
00000320: 32f2 883c 1890 14b6 fe01 b137 0870 893e
00000330: 559d 0ebe 0fb9 6d38 a29b 6638 b544 08b8
00000340: 33e3 bd37 a6b9 bf38 5b66 803b 718e 2039
00000350: 02f1 b938 13f9 4ab7 2e69 1cb7 6dd0 2ab8
00000360: ae07 1fb0 994a 57b8 700a 07b8 fcaf 013d
00000370: caa0 67b8 9c00 b5b8 9207 a33e ac79 b736
00000380: 768e 9c3b 97e4 c137 9d37 e136 d7a2 adb8
00000390: 242e 4637 efe8 bc2b 5b92 9a3e b358 62b8
000003a0: 7175 a437 49f9 56b8 4844 8533 151e 0c35
000003b0: 3e5f adb7 cd30 f6b8 db36 67b1 7bd4 80b7
000003c0: 695b 6ab5 7e6c 30b9 f623 1bb9 f9a0 23b8
000003d0: 46c3 21ba 4300 2033 035e ba37 f40e d030
000003e0: 9eaf afbe a668 9bb8 a022 f138 92a8 58b7
000003f0: 7def eeb5 94b8 5f34 629e 1737 0d64 8132

tabnet.initial_bn.running_mean f4 [1038]
0.0017943677 -0.00060020667 0.0060566594 -0.0030422492 0.0010232053 -0.0010696684 -0.00780982 0.0036525987
-0.006537426 -0.0037961781 -0.007936836 0.0037228772 0.0017500237 -0.000722187 0.00336147 0.005918546
0.0017808022 -0.0070381253 -0.0011493597 0.0039541493 -0.0065514306 -0.0007707737 -0.0038064644 -0.001123243
0.0046413913 0.00046043814 -0.0010490696 0.0037566961 0.0024087334 -0.002645559 0.004993367 -0.0008363976
0.001592874 0.01022579 -0.007405064 0.0026183368 -0.0009033354 0.0006740356 -0.004218567 -0.044857334
0.033830814 -0.002660834 -0.005223278 -0.0017217685 0.0028217102 -0.0019270049 0.004455215 -0.0010163985
0.0030318885 0.0020250808 0.01132619 0.002616737 -0.05150941 -0.00028008313 -0.0026994776 -4.9935945e-05
-0.0006153382 -0.0053464747 0.0021843107 0.00722636 -0.02218023 -0.0030419235 -0.008862576 -0.005283497
-0.00569781 -0.013777994 -0.00030329588 0.0072379825 -0.0026390457 -0.05374233 -0.00096097455 0.00033778796
0.0016733352 0.0011810275 -0.022102542 -0.0024246941 0.012873226 -0.04600499 -0.0033613266 0.0006528745
-0.008905358 -0.0047834786 -0.00182425 0.004429604 0.0042452184 -0.0033118934 0.0028603317 0.0048477203
0.008261609 0.0037966126 -0.0017905649 -0.0045581707 0.0018269403 0.0073135607 -0.003994762 -0.0042826314
-0.0014483645 0.003538963 -0.0033964284 0.0064400253 -0.004046852 0.0055653304 0.018680437 0.0037209673
0.0016590382 -0.0017568608 -0.0009241296 0.00040336276 0.008386747 -0.0015383809 0.00026585153 0.0015933313
0.001297865 0.0026725617 0.005775621 -0.01932959 0.0020017554 -0.0036309236 -0.0031858848 0.00242446
0.0021002863 -0.0032239857 0.0021216813 -0.0027245863 -0.0054454375 0.027507795 -0.0018057466 0.0002800157
0.001270356 -0.0054917815 -0.021868948 -0.006851354 0.0078057325 0.031376623 0.005026021 0.005356531
-0.0014964854 0.0006471591 -0.006708992 -0.00022109607 0.0045906003 0.0008972574 0.005798969 0.0051124324
0.0026487464 0.0010153722 0.008940688 -0.0016135654 0.0081391055 0.0056821583 0.0011694519 -0.0021976482
-0.005090436 0.0015858404 -0.01043762 -0.0015781218 0.0038140554 0.0049501276 0.0021725483 0.009027296
0.023131672 -0.00090548873 -0.006442512 0.0030606196 -0.00054439425 0.009972585 0.005577283 7.147098e-05
-0.003461999 0.00024998398 -0.0062582055 0.0041543264 0.0077755367 0.0054432396 -0.0029370552 0.006563906
0.002340602 -0.00061027537 -0.0050320723 0.0022345698 -0.0060385377 -0.00036096518 -0.0040627825 0.004222534
0.0007607459 -0.007955778 0.0036184995 -0.016161067 -0.0011757376 0.008959424 -0.0026618198 -0.0032517328
0.0045124004 -0.007008338 0.004914664 -0.0006691976 -0.0018183116 -0.016390989 -0.009377919 0.006829378
0.0047499295 0.001577212 -0.0030525713 0.0146610625 -0.012609349 0.0011727841 -0.0025959993 -0.0033734972
-0.0048472476 0.00054715294 0.014481149 0.003688509 -0.001853981 0.008048157 -0.0012757572 0.0033261336
0.0010142329 0.011378096 0.0015071996 0.0020577714 0.0012868635 0.0034570508 -0.0012092455 -0.0042354884
0.0058794594 -5.417915e-05 -0.0015642942 -0.0027231416 0.008757997 -0.0032308558 -0.06648449 0.00091414567
-0.00020995169 -0.0051458124 -0.0025367881 0.0004946755 0.00020104965 0.0068671773 0.0035024146 -0.00026824814
-0.0031300152 -0.0041184635 -0.00081974274 -0.0022340883 0.0027031675 0.005578187 0.010040362 -0.0018602493
-0.0046426808 0.00014195518 0.025353314 0.0049948045 -0.0134688765 0.0059622764 -0.00497551 -0.0017765798
00000000: fd30 eb3a 3057 1dba f176 c63b 7960 47bb
00000010: 131d 863a 1e34 8cba 85e9 ffbb 7060 6f3b
00000020: e737 d6bb 4dc9 78bb 8109 02bc 84fb 733b
00000030: 0d61 e53a 2651 3dba 1c4c 5c3b 5df0 c13b
00000040: ce69 e93a 13a0 e6bb 1da6 96ba cf91 813b
00000050: 62ad d6bb bf0d 4aba e075 79bb c839 93ba
00000060: d016 983b f666 f139 ef80 89ba e732 763b
00000070: d7db 1d3b 1d61 2dbb 669f a33b b141 5bba
00000080: fbc7 d03a 128a 273c 2ea6 f2bb 6798 2b3b
00000090: d0cd 6cba c3b1 303a e83b 8abb 53bc 37bd
000000a0: 2e92 0a3d 6361 2ebb 0828 abbb f7ac e1ba
000000b0: 71ec 383b 8e93 fcba 0dfd 913b ad38 85ba
000000c0: a6b2 463b 38b7 043b 7c91 393c 907d 2b3b
000000d0: 88fb 52bd 1fd8 92b9 b8e9 30bb 5072 51b8
000000e0: a64e 21ba 7b31 afbb a726 0f3b 1acb ec3b
000000f0: 50b3 b5bc 025b 47bb 5734 11bc 2f21 adbb
00000100: b2b4 babb 18bd 61bc af03 9fb9 992c ed3b
00000110: d7f3 2cbb eb20 5cbd e9e9 7bba 2219 b139
00000120: d053 db3a b5cc 9a3a 6410 b5bc 9ee7 1ebb
00000130: 39ea 523c ba6f 3cbd b449 5cbb ab25 2b3a
00000140: c7e7 11bc babe 9cbb ac1b efba 3626 913b
00000150: 791b 8b3b 5a0c 59bb 6774 3b3b a0d9 9e3b
00000160: b35b 073c 97d0 783b 63b1 eaba b55c 95bb
00000170: f275 ef3a 98a6 ef3b 7ee6 82bb 5155 8cbb
00000180: 0cd7 bdba f2ed 673b 9d96 5ebb d906 d33b
00000190: 749b 84bb 605d b63b b707 993c 79db 733b
000001a0: 1674 d93a 7746 e6ba 4a41 72ba 6f7a d339
000001b0: 9168 093c 7fa3 c9ba fd61 8b39 54d7 d03a
000001c0: 1f1d aa3a 2526 2f3b 6c41 bd3b 1759 9ebc
000001d0: e22f 033b caf4 6dbb 47ca 50bb b0e3 1e3b
000001e0: f5a4 093b 8149 53bb e80b 0b3b f98e 32bb
000001f0: a46f b2bb 0758 e13c cdae ecba 12cf 9239
00000200: 1382 a63a 67f4 b3bb 8226 b3bc 5381 e0bb
00000210: 3bc7 ff3b c684 003d 52b1 a43b d785 af3b
00000220: b825 c4ba 1da6 293a 1bd7 dbbb 06d6 67b9
00000230: bf6c 963b ed35 6b3a 4705 be3b 3186 a73b
00000240: 9796 2d3b 3d16 853a f77b 123c 457e d3ba
00000250: e259 053c 6631 ba3b 4b48 993a 6b06 10bb
00000260: accd a6bb f9db cf3a 8d02 2bbc fbd8 ceba
00000270: 3bf5 793b ae34 a23b 5061 0e3b 39e7 133c
00000280: a27e bd3c 525e 6dba b51b d3bb ad94 483b
00000290: aeb5 0eba 0e64 233c a4c1 b63b b1e2 9538
000002a0: b4e2 62bb 4810 8339 a211 cdbb 0421 883b
000002b0: eec9 fe3b 345d b23b 9c7b 40bb 0916 d73b
000002c0: c964 193b e3fa 1fba 15e4 a4bb dc71 123b
000002d0: edde c5bb ed3f bdb9 1721 85bb 2f5d 8a3b
000002e0: cb6c 473a f458 02bc 5924 6d3b 3764 84bc
000002f0: 351b 9aba 8cca 123c ed71 2ebb 061b 55bb
00000300: c2dc 933b 33a6 e5bb 310b a13b 176d 2fba
00000310: 6a54 eeba 6546 86bc d8a5 19bc fac8 df3b
00000320: 4ca5 9b3b 74ba ce3a a60d 48bb f434 703c
00000330: 7197 4ebc 1bb8 993a a421 2abb e415 5dbb
00000340: a9d5 9ebb d06e 0f3a 5742 6d3c eaba 713b
00000350: 4801 f3ba 6bdc 033c 4f37 a7ba 43fb 593b
00000360: 02f0 843a 326b 3a3c 3a8d c53a addb 063b
00000370: f9ab a83a b08f 623b 8c7f 9eba dac9 8abb
00000380: 7ba8 c03b 6b3e 63b8 0109 cdba bc76 32bb
00000390: b47d 0f3c c4bc 53bb 0529 88bd 47a3 6f3a
000003a0: 7a26 5cb9 349e a8bb 3e40 26bb 1cad 013a
000003b0: dbd0 5239 0f06 e13b c488 653b a8a3 8cb9
000003c0: f120 4dbb 2df4 86bb 01e4 56ba c869 12bb
000003d0: a027 313b 39c9 b63b 5580 243c 9cd3 f3ba
000003e0: a121 98bb ced9 1439 c1b1 cf3c 75ab a33b
000003f0: 90ac 5cbc 335f c33b 9a09 a3bb 20dc e8ba

tabnet.initial_bn.running_var f4 [1038]
0.012164305 0.0008309113 0.9819978 0.97174084 0.97423905 0.9767014 0.9696983 0.97008944
0.96858853 0.97522223 1.080362 0.97714335 0.9778586 0.9799705 0.9799695 0.9955458
0.9764197 0.9653596 0.9849824 0.9802384 0.9819569 0.97058535 0.97717905 0.97511154
0.9769006 0.96779656 0.9796676 0.96953464 0.9843583 0.9774697 0.9800847 0.9792475
0.97772914 1.0544554 0.9730988 0.97475535 0.98847055 0.9670037 0.9989776 1.3074383
1.1879407 0.9805507 0.99661803 0.97754514 0.9790529 0.98328066 0.9655878 0.97509795
1.0081818 0.980391 0.9930775 0.97887844 1.3300583 0.9693047 0.97533524 0.98056513
0.98206425 0.9955291 0.98333997 0.997321 1.1391757 0.9889916 0.97167027 0.98387426
1.0296932 1.0422007 0.97637516 0.9815062 0.97736627 1.3852789 0.98004586 0.97161007
0.9750196 0.9745237 1.1207222 0.97774714 1.0385809 1.3010962 0.969517 0.9744549
0.9728571 0.97401583 0.9725385 0.9802961 0.9685169 0.97814566 0.9757741 0.9732348
1.030723 0.9771084 0.97035915 0.97641116 0.9743625 1.0095667 0.97608745 0.97269726
0.9764665 0.9780763 1.0153666 1.0187149 1.0120955 0.9710843 1.0903608 0.965623
0.9840342 0.9756347 0.976827 0.9722905 1.00428 0.972298 0.9737891 0.9727201
0.974961 0.97972924 0.97346324 1.1088636 0.9735973 0.9840492 0.9850259 0.97868747
0.97819483 0.97449416 0.96901673 1.0032985 0.97500354 1.1592321 0.9710282 0.97259665
0.9861315 0.96415097 1.1045698 0.9684521 1.0134907 1.2132224 0.9989313 0.99500525
0.97408366 0.97838384 0.9763529 0.9739352 0.9776618 0.9834695 0.9697524 0.9702651
0.9858392 0.9714816 1.01062 0.98001546 1.0039554 1.0275004 1.005076 0.9775921
0.98265266 0.9697185 1.0224233 0.9668708 0.98152894 1.0050938 0.9742463 0.9820149
1.1409978 0.97722995 0.98595446 0.9757242 0.9733955 1.0255265 1.0052593 0.98184437
0.9812767 0.98100847 0.9764005 0.9737685 1.047719 0.97155523 0.96962625 0.9728058
0.9683406 0.97621447 0.97120774 0.98825943 1.0894208 0.9700158 0.9722127 0.99290735
0.9768931 1.0047648 0.97064525 1.1357268 0.98275447 0.9692341 0.97408634 1.0110332
0.97204375 0.9697082 0.98266745 0.9744414 0.97627455 1.0912186 0.97526294 1.0164791
0.97955793 0.96949905 0.9750803 1.0772538 1.0900769 0.9763183 0.9927444 0.96988475
0.9735174 0.9742867 1.0764673 0.9756883 0.98393065 0.97801477 0.97953284 0.98862517
0.9712817 1.0149424 0.96780235 0.97644895 0.9732457 0.97045344 0.973497 0.9771221
0.9724746 0.9655481 0.97625166 0.97476894 1.0303504 0.97004837 1.4665092 0.97268915
0.97749734 1.012463 0.98474514 0.97283465 0.98401093 0.9911722 0.97034115 0.9761427
0.9743724 0.97778726 0.9755948 0.97983205 0.96569026 1.0096455 0.97957474 0.98439324
0.97369796 0.9768985 1.1487263 0.98830473 1.0544759 1.005629 0.9745709 0.9765145
00000000: cb4c 473c 83d1 593a 3564 7b3f 02c4 783f
00000010: bb67 793f 1a09 7a3f 263e 783f c857 783f
00000020: 6bf5 773f 2aa8 793f 4d49 8a3f 1126 7a3f
00000030: f154 7a3f 59df 7a3f 48df 7a3f 17dc 7e3f
00000040: a4f6 793f cf21 773f ce27 7c3f e7f0 7a3f
00000050: 8761 7b3f 4878 783f 6828 7a3f e9a0 793f
00000060: 2816 7a3f 84c1 773f 7fcb 7a3f 6c33 783f
00000070: e8fe 7b3f 743b 7a3f d5e6 7a3f f7af 7a3f
00000080: 754c 7a3f 65f8 863f 011d 793f 9189 793f
00000090: 680c 7d3f 8e8d 773f ffbc 7f3f 235a a73f
000000a0: 710e 983f 5f05 7b3f 5c22 7f3f 6640 7a3f
000000b0: 36a3 7a3f 48b8 7b3f c330 773f 05a0 793f
000000c0: 1a0c 813f e8fa 7a3f 543a 7e3f c797 7a3f
000000d0: 5a3f aa3f 5a24 783f 92af 793f 5106 7b3f
000000e0: 9068 7b3f ffda 7e3f 2bbc 7b3f 6e50 7f3f
000000f0: 82d0 913f 8e2e 7d3f 62bf 783f 2fdf 7b3f
00000100: fdcc 833f d566 853f b9f3 793f fe43 7b3f
00000110: ad34 7a3f d250 b13f 49e4 7a3f 70bb 783f
00000120: e29a 793f 637a 793f d373 8f3f a34d 7a3f
00000130: 38f0 843f 528a a63f 4432 783f e075 793f
00000140: 2a0d 793f 1a59 793f 48f8 783f aff4 7a3f
00000150: b9f0 773f c167 7a3f 55cc 793f ea25 793f
00000160: bbee 833f c723 7a3f 7569 783f 15f6 793f
00000170: d26f 793f 7b39 813f dee0 793f b002 793f
00000180: b5f9 793f 3563 7a3f 88f7 813f 4065 823f
00000190: 588c 813f fb98 783f f190 8b3f 1233 773f
000001a0: aae9 7b3f 32c3 793f 5611 7a3f 08e8 783f
000001b0: 3f8c 803f 86e8 783f 3e4a 793f 2f04 793f
000001c0: 0b97 793f 89cf 7a3f e334 793f 3eef 8d3f
000001d0: ac3d 793f a6ea 7b3f a82a 7c3f 438b 7a3f
000001e0: fa6a 7a3f 7378 793f 7b11 783f 166c 803f
000001f0: d599 793f b861 943f 4e95 783f 18fc 783f
00000200: 1d73 7c3f 99d2 763f 8b62 8d3f 7aec 773f
00000210: 10ba 813f df4a 9b3f f6b9 7f3f aab8 7e3f
00000220: 8c5d 793f 5d77 7a3f 43f2 793f d153 793f
00000230: 0b48 7a3f a8c4 7b3f b141 783f 4b63 783f
00000240: f55f 7c3f 05b3 783f ff5b 813f 4be2 7a3f
00000250: 9c81 803f 2285 833f 55a6 803f 7a43 7a3f
00000260: 208f 7b3f 793f 783f c4de 823f d884 773f
00000270: 7b45 7b3f eaa6 803f 3568 793f 5465 7b3f
00000280: 370c 923f be2b 7a3f 8367 7c3f 10c9 793f
00000290: 7330 793f 7444 833f 56ac 803f 275a 7b3f
000002a0: f334 7b3f 5f23 7b3f 62f5 793f e448 793f
000002b0: a81b 863f d8b7 783f 6d39 783f cd09 793f
000002c0: 2be5 773f 31e9 793f 12a1 783f 92fe 7c3f
000002d0: 2472 8b3f f552 783f eee2 783f 2d2f 7e3f
000002e0: ab15 7a3f 229c 803f 357c 783f 7f5f 913f
000002f0: cc95 7b3f ba1f 783f b95d 793f 8969 813f
00000300: dcd7 783f cc3e 783f 1890 7b3f fe74 793f
00000310: 21ed 793f 0dad 8b3f d5aa 793f fd1b 823f
00000320: 4fc4 7a3f 1731 783f dd9e 793f 74e3 893f
00000330: a487 8b3f ffef 793f 7f24 7e3f 5e4a 783f
00000340: 7038 793f da6a 793f aec9 893f b5c6 793f
00000350: e1e2 7b3f 2d5f 7a3f aac2 7a3f 8a16 7d3f
00000360: eba5 783f a2e9 813f e5c1 773f 8ff8 793f
00000370: a126 793f a36f 783f 1937 793f ad24 7a3f
00000380: 18f4 783f 292e 773f a1eb 793f 758a 793f
00000390: 86e2 833f 1755 783f 93b6 bb3f 2802 793f
000003a0: 443d 7a3f 6398 813f 4218 7c3f b10b 793f
000003b0: 24e8 7b3f 76bd 7d3f 4768 783f 7de4 793f
000003c0: 7870 793f 4450 7a3f 95c0 793f 46d6 7a3f
000003d0: 7a37 773f 103c 813f 69c5 7a3f 3201 7c3f
000003e0: 4544 793f 0516 7a3f 7709 933f 8a01 7d3f
000003f0: 11f9 863f 73b8 803f 7a7d 793f dbfc 793f

tabnet.initial_splitter.shared.shared_layers.0.weight f4 [96, 1038]
-0.00021197763 8.298806e-05 -9.193803e-06 5.426883e-06 -0.0038297242 0.03074801 1.376173e-05 -0.00010654061
-0.00046458887 9.4158175e-05 0.024242386 -7.3801275e-05 -5.3051673e-07 -0.00030067464 -1.8999385e-06 0.000104385974
0.09707014 -0.00013965214 0.09112862 3.0517844e-05 6.712419e-05 -0.00019030452 0.00055413076 -1.8128121e-05
-0.00034629967 -6.095936e-05 1.2665637e-05 -0.00021470094 0.00011881361 0.00036217534 -7.171464e-05 -9.500365e-05
-0.0002660388 -0.00017866997 -0.0001024742 0.0005939749 -0.0003032745 1.3470158e-06 -0.00046119402 5.5049037e-05
3.1630443e-05 -4.6547502e-05 -0.00015301826 -0.000102935075 -2.263218e-05 0.0003173003 5.5034346e-09 5.2376217e-05
8.9715395e-05 6.410401e-05 -0.00017926894 -9.477904e-10 -8.4859246e-05 0.00052466185 -1.4952052e-06 2.4477218e-05
5.470045e-05 1.8246841e-07 8.914578e-05 -7.176336e-05 -5.507779e-06 -1.5667523e-05 0.00013380108 -3.1430993e-08
-0.00030763916 -6.500261e-05 -1.8924686e-07 -5.7715508e-05 6.977754e-05 -0.07668662 0.00024870946 0.0003133083
0.07800838 -0.07383127 0.00015556187 -3.4364988e-05 3.2486867e-05 -0.00010273979 -5.1260004e-06 0.00017438829
6.5787695e-05 -3.437179e-05 -9.552795e-06 9.056051e-06 -0.00012049395 -2.277407e-06 -2.37007e-05 -6.810401e-05
6.89217e-05 -0.00014597584 -0.00017526216 5.847719e-06 0.00026037928 -0.00027676008 0.000379863 -0.0001853555
-0.0899082 -2.4624998e-05 -7.9376005e-05 4.3071222e-10 7.8060206e-05 -0.019410692 0.00012532379 0.026922612
0.00021517435 2.6816493e-05 -2.883825e-06 0.0004503861 1.1114961e-05 2.647213e-05 0.0001334174 0.00041569228
9.040814e-05 0.00025197916 -6.2120344e-06 0.00020095057 0.00018077865 6.0499435e-05 -0.00019344286 -0.011121407
3.914926e-05 6.755801e-06 0.00017929864 4.175606e-05 8.338208e-05 7.4765057e-06 -6.77464e-05 -0.00022304505
-5.554352e-05 0.00014438108 5.741237e-05 -0.037604794 -7.2236995e-05 -1.6478753e-05 -0.000121412035 4.0355404e-05
-6.6227236e-05 -0.00036143875 3.642558e-05 0.0003022761 -3.844366e-05 3.7583897e-05 6.0177274e-07 0.00012288667
0.00014055544 -0.00010249124 0.00020199241 -0.00026493316 2.5386773e-05 -0.00016048427 -0.0001287489 -0.00013437367
0.040020354 0.00042091092 -0.00010286924 -0.0001296834 -3.1693588e-05 -0.05616702 5.9381873e-06 -0.00047482149
0.00046433468 -0.00019402582 -6.402e-05 -5.2886644e-05 -0.08899149 1.0739739e-05 0.00018298884 0.009027317
-0.00016817343 -3.0069616e-05 6.2829613e-06 0.00011976725 0.00027617306 -2.625975e-10 0.00018558148 0.0782397
-1.3765929e-05 -0.00018084137 -0.0001881703 6.160751e-06 -0.00040527497 2.045161e-07 -0.00040354492 0.00043011468
4.5722645e-05 5.082674e-06 0.00013954421 0.0001165307 -9.2904116e-07 5.9686474e-05 5.0130086e-05 -0.0004189237
-0.06416057 0.00014469994 7.660498e-05 -5.1674364e-05 -0.00013389671 0.000113747854 -2.012172e-09 0.000266131
-0.023888491 3.215615e-07 -7.044753e-06 -0.051855356 0.064277284 -0.00017693467 -0.00016310198 2.9071884e-06
5.933916e-05 0.00042529404 0.0063104355 5.820114e-07 -0.00028650914 7.5581214e-05 -6.8051386e-06 -6.01227e-05
3.0510726e-08 5.2995638e-05 9.083033e-05 0.010036033 -0.0004386284 -0.000121038465 0.02776447 5.36321e-05
-0.0001617841 -0.00010328635 -2.1643807e-06 -9.344185e-05 2.6707858e-05 2.4637735e-11 -0.0637076 -3.7135982e-05
-5.355593e-06 0.000118168915 2.5814943e-08 0.0001635445 8.2411316e-05 -2.6565318e-05 8.252125e-09 9.2068316e-05
0.000107101325 -0.00011064856 -0.0001534679 -0.00016025835 0.00066278625 8.4088585e-09 0.00021408984 -6.207467e-09
-0.11034379 -9.999449e-05 -0.0004994775 -0.00011982654 -9.597496e-06 5.208864e-07 4.2675285e-05 -6.447429e-09
00000000: 5046 5eb9 e009 ae38 153f 1ab7 9218 b636
00000010: 1cfc 7abb 40e3 fb3c 2ee2 6637 8e6e dfb8
00000020: 1094 f3b9 c976 c538 f897 c63c c2c5 9ab8
00000030: d568 0eb5 dea3 9db9 6401 ffb5 cbe9 da38
00000040: b6cc c63d 966f 12b9 a4a1 ba3d 4900 0038
00000050: 06c5 8c38 7b8c 47b9 1643 113a d811 98b7
00000060: 8e8f b5b9 9dae 7fb8 7f7e 5437 5821 61b9
00000070: 922b f938 5ae2 bd39 8165 96b8 b23c c7b8
00000080: 207b 8bb9 5b59 3bb9 6be7 d6b8 fbb4 1b3a
00000090: d000 9fb9 1ccb b435 6acc f1b9 74e4 6638
000000a0: eeaa 0438 003c 43b8 8773 20b9 d9de d7b8
000000b0: 3dda bdb7 535b a639 b918 bd31 89ae 5b38
000000c0: 9625 bc38 946f 8638 24fa 3bb9 6943 82b0
000000d0: 76f6 b1b8 7689 093a dcae c8b5 6d54 cd37
000000e0: 296e 6538 89ec 4334 c7f3 ba38 a97f 96b8
000000f0: 76cf b8b6 c06d 83b7 f44c 0c39 befe 06b3
00000100: a14a a1b9 0352 88b8 c833 4bb4 8e13 72b8
00000110: 8855 9238 e00d 9dbd 3865 8239 8743 a439
00000120: dcc2 9f3d d934 97bd 521e 2339 2023 10b8
00000130: 8242 0838 0176 d7b8 0200 acb6 00dc 3639
00000140: 80f7 8938 6e2a 10b8 f144 20b7 71ef 1737
00000150: b2b1 fcb8 8ed5 18b6 ded0 c6b7 10d3 8eb8
00000160: 0e8a 9038 1711 19b9 94c6 37b9 8637 c436
00000170: 8483 8839 1c1a 91b9 5928 c739 fd5b 42b9
00000180: ca21 b8bd c891 ceb7 ab76 a6b8 5bc9 ec2f
00000190: 41b4 a338 2c03 9fbc 5969 0339 cf8c dc3c
000001a0: 6da0 6139 fbf3 e037 bc87 41b6 cd21 ec39
000001b0: 657a 3a37 7710 de37 f6e5 0b39 46f1 d939
000001c0: 8099 bd38 121c 8439 f870 d0b6 42b6 5239
000001d0: 668f 3d39 c6c0 7d38 ecd6 4ab9 9036 36bc
000001e0: 3334 2438 e4af e236 1d02 3c39 3a23 2f38
000001f0: 6add ae38 b2de fa36 1213 8eb8 33e1 69b9
00000200: 67f7 68b8 0065 1739 10ce 7038 7c07 1abd
00000210: f17d 97b8 da3b 8ab7 979e feb8 4943 2938
00000220: 7ae3 8ab8 7d7f bdb9 abc7 1838 d07a 9e39
00000230: 913e 21b8 67a3 1d38 8289 2135 24db 0039
00000240: 1062 1339 91f0 d6b8 edcd 5339 bae6 8ab9
00000250: aef5 d437 ab47 28b9 c500 07b9 a8e6 0cb9
00000260: 62ec 233d b5ad dc39 81bb d7b8 9ffb 07b9
00000270: bbee 04b8 640f 66bd a440 c736 76f1 f8b9
00000280: f271 f339 6973 4bb9 7a42 86b8 9ad2 5db8
00000290: 2c41 b6bd d42e 3437 b1e0 3f39 50e7 133c
000002a0: b657 30b9 023e fcb7 3ad2 d236 8e2b fb38
000002b0: 52cb 9039 505d 90af a698 4239 233c a03d
000002c0: 37f4 66b7 3ca0 3db9 954f 45b9 73b8 ce36
000002d0: 167b d4b9 f598 5b34 e292 d3b9 0481 e139
000002e0: 51c6 3f38 d68b aa36 9d52 1239 f161 f438
000002f0: 3963 79b5 dd57 7a38 c542 5238 fda2 dbb9
00000300: 9e66 83bd 98ba 1739 fca6 a038 edbc 58b8
00000310: a066 0cb9 ea8b ee38 8146 0ab1 8087 8b39
00000320: ccb1 c3bc 13a3 ac34 f861 ecb6 4866 54bd
00000330: cfa3 833d 8a87 39b9 5b06 2bb9 1e19 4336
00000340: f0e2 7838 00fa de39 c5c7 ce3b 853b 1c35
00000350: 9b36 96b9 5b81 9e38 b257 e4b6 422c 7cb8
00000360: e60a 0333 a247 5e38 297c be38 2c6e 243c
00000370: b5f7 e5b9 08d6 fdb8 5072 e33c 07f3 6038
00000380: 97a4 29b9 709b d8b8 c73f 11b6 36f6 c3b8
00000390: b00a e037 3fb7 d82d 2179 82bd 75c2 1bb8
000003a0: 32b4 b3b6 74d1 f738 a9bf dd32 247d 2b39
000003b0: 3dd4 ac38 96d8 deb7 3bc5 0d32 cd14 c138
000003c0: 969b e038 fe0b e8b8 3aec 20b9 060b 28b9
000003d0: d5be 2d3a 8d76 1032 4e7d 6039 7549 d5b1
000003e0: edfb e1bd 22b4 d1b8 5eef 02ba 624b fbb8
000003f0: ee04 21b7 0ad3 0b35 3dfe 3238 2f88 ddb1

tabnet.initial_splitter.shared.shared_layers.1.weight f4 [96, 48]
0.19729076 -0.02299312 0.022069857 0.029988581 0.014608944 -0.04234809 -0.019367043 0.0227076
-0.050902136 -0.020958574 -0.052300498 -0.017105494 -0.018507631 0.00040803355 -0.25290173 -0.0056654885
-0.053573605 -0.024935244 -0.04843682 -0.056410115 -0.052313637 -0.07168679 -0.024504455 0.0346639
-8.809423e-06 -5.5147204e-05 9.178319e-06 1.592181e-05 -7.6222254e-06 -0.0001285593 2.154383e-05 2.0948398e-06
-2.8360202e-05 3.9911854e-05 1.1865215e-05 -5.3889366e-05 -0.00010093478 -5.5388307e-05 -2.3012635e-05 -3.1434836e-05
1.4381731e-05 -5.3740172e-05 7.078073e-05 -7.486742e-05 9.678189e-05 -7.297109e-05 2.5132742e-06 4.5172837e-06
-0.0015383095 0.37934518 0.04636603 0.007787436 -0.0088238735 0.0018242692 0.012581744 0.008631868
0.057828926 -0.023832662 -0.066461526 -0.04605812 0.0028970495 0.00179493 0.030259518 -0.026393889
-0.0034488211 0.008691307 0.05116023 0.037501648 -0.02450825 -0.03632936 -0.006613547 -0.0060587823
-2.4444975e-05 4.3517386e-05 0.00012326414 -1.4441167e-05 -7.7089906e-05 -8.903586e-05 -7.2461626e-05 7.4138945e-05
2.612204e-05 -5.243354e-05 -0.00014020246 -0.00016870222 4.9213363e-06 0.00015139132 -0.00013937704 -2.5050707e-05
6.479133e-05 0.001264841 -1.1058101e-05 7.5250726e-05 0.00013236531 -0.00015877845 -4.1354513e-05 -4.3798354e-07
0.041989 0.019405384 0.27200574 -0.045174785 0.004528784 0.026092945 -0.0041137477 -0.04370912
-0.03910131 -0.0074015306 -0.029565865 -0.024920566 -0.018984 -0.001879795 -0.017463412 -0.0136514
-0.009178266 -0.022201747 0.004402992 -0.01696131 0.046883594 0.041978076 0.008482224 -0.06870149
-0.0052618403 -0.0012282784 0.0020519362 0.00019599921 0.000627922 -0.0012755156 -0.0020290113 0.0026311614
-0.0022148488 0.0013748569 0.0011956795 0.0012000232 0.00089117984 -0.0020097126 -0.001002491 0.0024061308
0.0030693822 0.0008543907 -0.0026795864 0.0028198806 0.0013569865 0.0010756382 -0.004120554 -0.0009987679
0.024526052 -0.019176891 -0.0324589 0.16743745 0.010989567 -0.0258931 0.056115802 0.0054555233
-0.0135771 -0.00885437 -0.006138976 -0.0067893057 -0.0016584145 -8.570221e-05 -0.02143169 -0.006386702
0.047872577 -0.0043087574 -0.07645317 0.0030957945 -0.02811301 -0.021737954 -0.0722617 -0.0027889493
-0.00036229574 -0.0003566179 -0.0004364817 0.00021089158 0.000534605 0.00028476052 0.00016603293 0.00021599377
-0.000623894 0.00036661152 -0.00014583238 0.000313206 -0.00028359354 0.00018043592 0.00031161567 4.868129e-05
-0.00017235667 -0.00023783928 -0.0002587842 0.0003932042 0.00027161572 -0.0002708218 0.00037360046 -3.717471e-05
0.032790873 -0.042219363 -0.039209645 -0.021676911 0.2468473 -0.06302017 -0.14252888 -0.023875767
-0.030733803 -0.058136627 -0.09649738 -0.013874891 -0.063099936 -8.710791e-05 0.023214465 -0.082084894
-0.07337888 -0.059550658 -0.052061446 -0.02817177 -0.023089996 -0.014335307 -0.026941197 -0.03607886
-2.7548456e-06 8.825456e-05 -7.176498e-05 -1.406828e-05 -3.9991846e-05 5.2246e-05 -7.876236e-05 -6.865656e-05
-0.00017966684 1.5155767e-05 8.931873e-05 2.3916786e-05 -5.3505486e-05 -0.00025137854 7.32616e-05 4.8967624e-05
5.0999315e-05 -0.0011368984 0.00022672572 2.4909545e-05 4.4610813e-05 -0.00010341621 -6.9105874e-05 -2.5114057e-06
-0.0487761 -0.053205617 -0.0013950918 -0.049129266 -0.06353489 0.3469213 -0.034209162 0.016325498
-0.042017024 -0.048586443 -0.11061475 -0.04960387 -0.051568333 0.00015116415 -0.011001603 -0.039296303
00000000: 9706 4a3e 115c bcbc d8cb b43c 9daa f53c
00000010: 5a5a 6f3c 3175 2dbd a2a7 9ebc 4a05 ba3c
00000020: c27e 50bd 51b1 abbc 0c39 56bd d220 8cbc
00000030: 519d 97bc 56ed d539 567c 81be 90a5 b9bb
00000040: ff6f 5bbd ff44 ccbc b065 46bd 4b0e 67bd
00000050: d346 56bd 86d0 92bd 91bd c8bc bcfb 0d3d
00000060: 2fcc 13b7 dc4d 67b8 94fc 1937 d48f 8537
00000070: 6bc2 ffb6 e0cd 06b9 06b9 b437 1395 0c36
00000080: 12e7 edb7 0767 2738 b610 4737 4407 62b8
00000090: f3ac d3b8 be50 68b8 420b c1b7 e6d8 03b8
000000a0: 1049 7137 1267 61b8 1d70 9438 2402 9db8
000000b0: 62f7 ca38 0e08 99b8 b9a9 2836 2c93 9736
000000c0: 1aa1 c9ba 8839 c23e 4eea 3d3d bf2d ff3b
000000d0: 0292 10bc 511c ef3a a923 4e3c ae6c 0d3c
000000e0: 06de 6c3d b73c c3bc fb1c 88bd 70a7 3cbd
000000f0: 6ddc 3d3b db43 eb3a cfe2 f73c ff37 d8bc
00000100: 9e05 62bb fc65 0e3c 648d 513d 549b 193d
00000110: 87c5 c8bc 18ce 14bd 74b6 d8bb c088 c6bb
00000120: 2f0f cdb7 7086 3638 7740 0139 5748 72b7
00000130: 54ab a1b8 c3b8 bab8 8af6 97b8 0b7b 9b38
00000140: a720 db37 16ec 5bb8 5003 13b9 a8e5 30b9
00000150: f521 a536 ccbe 1e39 bd25 12b9 fc23 d2b7
00000160: 95e0 8738 05c9 a53a 2f86 39b7 edcf 9d38
00000170: 8bcb 0a39 c47d 26b9 1274 2db8 0024 ebb4
00000180: a8fc 2b3d 0af8 9e3c 5644 8b3e 3209 39bd
00000190: 3266 943b dfc0 d53c 9ecc 86bb 5608 33bd
000001a0: b228 20bd 8a88 f2bb 1d34 f2bc 3726 ccbc
000001b0: 5584 9bbc 7463 f6ba 6e0f 8fbc 1faa 5fbc
000001c0: 7060 16bc 70e0 b5bc f946 903b 72f2 8abc
000001d0: 0309 403d 34f1 2b3d 07f9 0a3c 5eb3 8cbd
000001e0: 846b acbb 2ffe a0ba c779 063b 2385 4d39
000001f0: 229b 243a 342f a7ba 29f9 04bb 906f 2c3b
00000200: ff26 11bb 8b34 b43a 59b8 9c3a 194a 9d3a
00000210: 119e 693a 62b5 03bb 0466 83ba 2db0 1d3b
00000220: b027 493b 30f9 5f3a 009c 2fbb bfcd 383b
00000230: e9dc b13a 6efc 8c3a b605 87bb 17e9 82ba
00000240: dcea c83c db18 9dbc a0f3 04bd b974 2b3e
00000250: 960d 343c c41d d4bc afd9 653d 3fc4 b23b
00000260: 7c72 5ebc eb11 11bc 7729 c9bb d378 debb
00000270: 285f d9ba 06bb b3b8 8391 afbc 8a47 d1bb
00000280: 0916 443d 7a30 8dbb 7b93 9cbd d0e2 4a3b
00000290: 414d e6bc cb13 b2bc f1fd 93bd cec6 36bb
000002a0: 83f2 bdb9 72f8 bab9 95d7 e4b9 c722 5d39
000002b0: bc24 0c3a e94b 9539 2019 2e39 637c 6239
000002c0: d18c 23ba c435 c039 95ea 18b9 cc35 a439
000002d0: 48af 94b9 6633 3d39 5960 a339 232f 4c38
000002e0: a4ba 34b9 7f64 79b9 6dad 87b9 f926 ce39
000002f0: a567 8e39 16fd 8db9 cedf c339 0aec 1bb8
00000300: b94f 063d 36ee 2cbd 4b9a 20bd c793 b1bc
00000310: 8ac5 7c3e b810 81bd 17f3 11be 1d97 c3bc
00000320: 75c5 fbbc ac20 6ebd 6ba0 c5bd 8353 63bc
00000330: 8a3a 81bd b4ad b6b8 432c be3c 201c a8bd
00000340: ab47 96bd 64eb 73bd 623e 55bd 7cc8 e6bc
00000350: 3b27 bdbc a3de 6abc c9b3 dcbc 6dc7 13bd
00000360: e3df 38b6 4e15 b938 8880 96b8 cd06 6cb7
00000370: ebbc 27b8 b722 5b38 382d a5b8 b6fb 8fb8
00000380: f364 3cb9 8645 7e37 a150 bb38 e8a0 c837
00000390: 146b 60b8 75cb 83b9 06a4 9938 9662 4d38
000003a0: 19e8 5538 fb03 95ba 39bd 6d39 d7f4 d037
000003b0: 7f1c 3b38 28e1 d8b8 efec 90b8 9f89 28b6
000003c0: 73c9 47bd 22ee 59bd 83db b6ba c53b 49bd
000003d0: 951e 82bd ab9f b13e e81e 0cbd 0dbd 853c
000003e0: 0b1a 2cbd 9402 47bd fc89 e2bd 6d2d 4bbd
000003f0: 5139 53bd d181 1e39 1140 34bc 29f5 20bd

tabnet.initial_splitter.shared.glu_layers.0.fc.weight f4 [96, 1038]
-0.00021197763 8.298806e-05 -9.193803e-06 5.426883e-06 -0.0038297242 0.03074801 1.376173e-05 -0.00010654061
-0.00046458887 9.4158175e-05 0.024242386 -7.3801275e-05 -5.3051673e-07 -0.00030067464 -1.8999385e-06 0.000104385974
0.09707014 -0.00013965214 0.09112862 3.0517844e-05 6.712419e-05 -0.00019030452 0.00055413076 -1.8128121e-05
-0.00034629967 -6.095936e-05 1.2665637e-05 -0.00021470094 0.00011881361 0.00036217534 -7.171464e-05 -9.500365e-05
-0.0002660388 -0.00017866997 -0.0001024742 0.0005939749 -0.0003032745 1.3470158e-06 -0.00046119402 5.5049037e-05
3.1630443e-05 -4.6547502e-05 -0.00015301826 -0.000102935075 -2.263218e-05 0.0003173003 5.5034346e-09 5.2376217e-05
8.9715395e-05 6.410401e-05 -0.00017926894 -9.477904e-10 -8.4859246e-05 0.00052466185 -1.4952052e-06 2.4477218e-05
5.470045e-05 1.8246841e-07 8.914578e-05 -7.176336e-05 -5.507779e-06 -1.5667523e-05 0.00013380108 -3.1430993e-08
-0.00030763916 -6.500261e-05 -1.8924686e-07 -5.7715508e-05 6.977754e-05 -0.07668662 0.00024870946 0.0003133083
0.07800838 -0.07383127 0.00015556187 -3.4364988e-05 3.2486867e-05 -0.00010273979 -5.1260004e-06 0.00017438829
6.5787695e-05 -3.437179e-05 -9.552795e-06 9.056051e-06 -0.00012049395 -2.277407e-06 -2.37007e-05 -6.810401e-05
6.89217e-05 -0.00014597584 -0.00017526216 5.847719e-06 0.00026037928 -0.00027676008 0.000379863 -0.0001853555
-0.0899082 -2.4624998e-05 -7.9376005e-05 4.3071222e-10 7.8060206e-05 -0.019410692 0.00012532379 0.026922612
0.00021517435 2.6816493e-05 -2.883825e-06 0.0004503861 1.1114961e-05 2.647213e-05 0.0001334174 0.00041569228
9.040814e-05 0.00025197916 -6.2120344e-06 0.00020095057 0.00018077865 6.0499435e-05 -0.00019344286 -0.011121407
3.914926e-05 6.755801e-06 0.00017929864 4.175606e-05 8.338208e-05 7.4765057e-06 -6.77464e-05 -0.00022304505
-5.554352e-05 0.00014438108 5.741237e-05 -0.037604794 -7.2236995e-05 -1.6478753e-05 -0.000121412035 4.0355404e-05
-6.6227236e-05 -0.00036143875 3.642558e-05 0.0003022761 -3.844366e-05 3.7583897e-05 6.0177274e-07 0.00012288667
0.00014055544 -0.00010249124 0.00020199241 -0.00026493316 2.5386773e-05 -0.00016048427 -0.0001287489 -0.00013437367
0.040020354 0.00042091092 -0.00010286924 -0.0001296834 -3.1693588e-05 -0.05616702 5.9381873e-06 -0.00047482149
0.00046433468 -0.00019402582 -6.402e-05 -5.2886644e-05 -0.08899149 1.0739739e-05 0.00018298884 0.009027317
-0.00016817343 -3.0069616e-05 6.2829613e-06 0.00011976725 0.00027617306 -2.625975e-10 0.00018558148 0.0782397
-1.3765929e-05 -0.00018084137 -0.0001881703 6.160751e-06 -0.00040527497 2.045161e-07 -0.00040354492 0.00043011468
4.5722645e-05 5.082674e-06 0.00013954421 0.0001165307 -9.2904116e-07 5.9686474e-05 5.0130086e-05 -0.0004189237
-0.06416057 0.00014469994 7.660498e-05 -5.1674364e-05 -0.00013389671 0.000113747854 -2.012172e-09 0.000266131
-0.023888491 3.215615e-07 -7.044753e-06 -0.051855356 0.064277284 -0.00017693467 -0.00016310198 2.9071884e-06
5.933916e-05 0.00042529404 0.0063104355 5.820114e-07 -0.00028650914 7.5581214e-05 -6.8051386e-06 -6.01227e-05
3.0510726e-08 5.2995638e-05 9.083033e-05 0.010036033 -0.0004386284 -0.000121038465 0.02776447 5.36321e-05
-0.0001617841 -0.00010328635 -2.1643807e-06 -9.344185e-05 2.6707858e-05 2.4637735e-11 -0.0637076 -3.7135982e-05
-5.355593e-06 0.000118168915 2.5814943e-08 0.0001635445 8.2411316e-05 -2.6565318e-05 8.252125e-09 9.2068316e-05
0.000107101325 -0.00011064856 -0.0001534679 -0.00016025835 0.00066278625 8.4088585e-09 0.00021408984 -6.207467e-09
-0.11034379 -9.999449e-05 -0.0004994775 -0.00011982654 -9.597496e-06 5.208864e-07 4.2675285e-05 -6.447429e-09
00000000: 5046 5eb9 e009 ae38 153f 1ab7 9218 b636
00000010: 1cfc 7abb 40e3 fb3c 2ee2 6637 8e6e dfb8
00000020: 1094 f3b9 c976 c538 f897 c63c c2c5 9ab8
00000030: d568 0eb5 dea3 9db9 6401 ffb5 cbe9 da38
00000040: b6cc c63d 966f 12b9 a4a1 ba3d 4900 0038
00000050: 06c5 8c38 7b8c 47b9 1643 113a d811 98b7
00000060: 8e8f b5b9 9dae 7fb8 7f7e 5437 5821 61b9
00000070: 922b f938 5ae2 bd39 8165 96b8 b23c c7b8
00000080: 207b 8bb9 5b59 3bb9 6be7 d6b8 fbb4 1b3a
00000090: d000 9fb9 1ccb b435 6acc f1b9 74e4 6638
000000a0: eeaa 0438 003c 43b8 8773 20b9 d9de d7b8
000000b0: 3dda bdb7 535b a639 b918 bd31 89ae 5b38
000000c0: 9625 bc38 946f 8638 24fa 3bb9 6943 82b0
000000d0: 76f6 b1b8 7689 093a dcae c8b5 6d54 cd37
000000e0: 296e 6538 89ec 4334 c7f3 ba38 a97f 96b8
000000f0: 76cf b8b6 c06d 83b7 f44c 0c39 befe 06b3
00000100: a14a a1b9 0352 88b8 c833 4bb4 8e13 72b8
00000110: 8855 9238 e00d 9dbd 3865 8239 8743 a439
00000120: dcc2 9f3d d934 97bd 521e 2339 2023 10b8
00000130: 8242 0838 0176 d7b8 0200 acb6 00dc 3639
00000140: 80f7 8938 6e2a 10b8 f144 20b7 71ef 1737
00000150: b2b1 fcb8 8ed5 18b6 ded0 c6b7 10d3 8eb8
00000160: 0e8a 9038 1711 19b9 94c6 37b9 8637 c436
00000170: 8483 8839 1c1a 91b9 5928 c739 fd5b 42b9
00000180: ca21 b8bd c891 ceb7 ab76 a6b8 5bc9 ec2f
00000190: 41b4 a338 2c03 9fbc 5969 0339 cf8c dc3c
000001a0: 6da0 6139 fbf3 e037 bc87 41b6 cd21 ec39
000001b0: 657a 3a37 7710 de37 f6e5 0b39 46f1 d939
000001c0: 8099 bd38 121c 8439 f870 d0b6 42b6 5239
000001d0: 668f 3d39 c6c0 7d38 ecd6 4ab9 9036 36bc
000001e0: 3334 2438 e4af e236 1d02 3c39 3a23 2f38
000001f0: 6add ae38 b2de fa36 1213 8eb8 33e1 69b9
00000200: 67f7 68b8 0065 1739 10ce 7038 7c07 1abd
00000210: f17d 97b8 da3b 8ab7 979e feb8 4943 2938
00000220: 7ae3 8ab8 7d7f bdb9 abc7 1838 d07a 9e39
00000230: 913e 21b8 67a3 1d38 8289 2135 24db 0039
00000240: 1062 1339 91f0 d6b8 edcd 5339 bae6 8ab9
00000250: aef5 d437 ab47 28b9 c500 07b9 a8e6 0cb9
00000260: 62ec 233d b5ad dc39 81bb d7b8 9ffb 07b9
00000270: bbee 04b8 640f 66bd a440 c736 76f1 f8b9
00000280: f271 f339 6973 4bb9 7a42 86b8 9ad2 5db8
00000290: 2c41 b6bd d42e 3437 b1e0 3f39 50e7 133c
000002a0: b657 30b9 023e fcb7 3ad2 d236 8e2b fb38
000002b0: 52cb 9039 505d 90af a698 4239 233c a03d
000002c0: 37f4 66b7 3ca0 3db9 954f 45b9 73b8 ce36
000002d0: 167b d4b9 f598 5b34 e292 d3b9 0481 e139
000002e0: 51c6 3f38 d68b aa36 9d52 1239 f161 f438
000002f0: 3963 79b5 dd57 7a38 c542 5238 fda2 dbb9
00000300: 9e66 83bd 98ba 1739 fca6 a038 edbc 58b8
00000310: a066 0cb9 ea8b ee38 8146 0ab1 8087 8b39
00000320: ccb1 c3bc 13a3 ac34 f861 ecb6 4866 54bd
00000330: cfa3 833d 8a87 39b9 5b06 2bb9 1e19 4336
00000340: f0e2 7838 00fa de39 c5c7 ce3b 853b 1c35
00000350: 9b36 96b9 5b81 9e38 b257 e4b6 422c 7cb8
00000360: e60a 0333 a247 5e38 297c be38 2c6e 243c
00000370: b5f7 e5b9 08d6 fdb8 5072 e33c 07f3 6038
00000380: 97a4 29b9 709b d8b8 c73f 11b6 36f6 c3b8
00000390: b00a e037 3fb7 d82d 2179 82bd 75c2 1bb8
000003a0: 32b4 b3b6 74d1 f738 a9bf dd32 247d 2b39
000003b0: 3dd4 ac38 96d8 deb7 3bc5 0d32 cd14 c138
000003c0: 969b e038 fe0b e8b8 3aec 20b9 060b 28b9
000003d0: d5be 2d3a 8d76 1032 4e7d 6039 7549 d5b1
000003e0: edfb e1bd 22b4 d1b8 5eef 02ba 624b fbb8
000003f0: ee04 21b7 0ad3 0b35 3dfe 3238 2f88 ddb1

tabnet.initial_splitter.shared.glu_layers.0.bn.bn.weight f4 [96]
-0.0017639216 0.0040332344 0.079639964 0.019990709 -0.00245378 -0.0032564949 0.00039655878 -0.004536593
0.0012171031 0.0024088589 0.5983373 0.009597531 0.0018850854 0.5579722 0.0024284937 -0.0074498206
0.0041154902 0.012230337 0.022861427 -0.004850127 -0.0007526372 0.017488295 -0.0014868346 0.0045589725
0.53585684 0.4433672 0.46375108 0.42012724 0.4686507 0.49284518 0.5384796 0.3242075
0.53554124 0.32824966 0.38380143 0.48790106 0.28470585 0.4759664 0.467341 0.40102676
0.47463086 0.49482056 0.44592428 0.41445547 0.42399338 0.2959768 0.49645528 -0.010013936
7.5145786e-06 -1.2449778e-05 -0.0020794922 2.7976605e-05 7.140978e-07 2.8226594e-05 1.3573741e-06 3.15757e-05
1.8614858e-06 2.1013337e-05 -0.03527595 5.1823856e-05 -1.8216286e-06 0.39384854 -2.4386475e-06 -8.132414e-05
-3.583269e-05 -0.000117054864 -0.00056937383 -2.3318798e-05 1.1030337e-06 0.0005026542 1.4252482e-05 -1.4125714e-06
0.30185488 0.08944995 0.42432025 0.34296536 -0.012967923 0.46039587 -0.25256324 0.0011318356
0.36506337 0.030065479 0.4324457 0.3998338 0.16467915 0.3607443 0.3817791 -0.18202917
0.18094575 -0.26655087 0.3513922 0.1262469 0.18153563 -0.12586007 0.01683759 -0.0087583475
00000000: 6333 e7ba 3929 843b 471a a33d 8ec3 a33c
00000010: 99cf 20bb eb6a 55bb 38e9 cf39 b3a7 94bb
00000020: 3487 9f3a f2dd 1d3b a22c 193f f63e 1d3c
00000030: f814 f73a 44d7 0e3f 5d27 1f3b a01d f4bb
00000040: 3cdb 863b c061 483c e347 bb3c d0ed 9ebb
00000050: a14c 45ba 9d43 8f3c e4e1 c2ba 6f63 953b
00000060: ea2d 093f 0701 e33e c870 ed3e eb1a d73e
00000070: fcf2 ef3e 3456 fc3e cdd9 093f 87fe a53e
00000080: 3b19 093f 5710 a83e 9f81 c43e 2bce f93e
00000090: f7c4 913e deb1 f33e 5247 ef3e 6153 cd3e
000000a0: d102 f33e 1f59 fd3e 3050 e43e 8233 d43e
000000b0: a915 d93e 458a 973e 632f fe3e 7e11 24bc
000000c0: bd25 fc36 64df 50b7 1748 08bb 4daf ea37
000000d0: 6db0 3f35 26c8 ec37 052f b635 2670 0438
000000e0: 2ad8 f935 cc45 b037 847d 10bd 715d 5938
000000f0: af7e f4b5 84a6 c93e a5a7 23b6 918c aab8
00000100: 0f4b 16b8 5a7b f5b8 0842 15ba bd9c c3b7
00000110: f30b 9435 8dc4 033a f21d 6f37 9597 bdb5
00000120: b98c 9a3e 8931 b73d 8140 d93e 2899 af3e
00000130: 6977 54bc 02b9 eb3e f84f 81be 1a5a 943a
00000140: 96e9 ba3e e14b f63c 8669 dd3e 04b7 cc3e
00000150: a7a1 283e 7ab3 b83e 8d78 c33e db65 3abe
00000160: d849 393e 5b79 88be aee9 b33e de46 013e
00000170: 7ae4 393e 76e1 00be fcee 893c 2c7f 0fbc
