cv_steps/tabnet_raw_step1_fold1_1/network.pt (torch, 682315 bytes, 56 tensors)

embedder.embeddings.0.weight f4 [3, 1]
1.0674077e-13 -4.0094072e-19 1.0292628e-19
00000000: dd5b f029 73ac eca0 1e07 f31f

embedder.embeddings.1.weight f4 [2, 1]
-0.02325923 0.023259807
00000000: 248a bebc 5a8b be3c

tabnet.initial_bn.weight f4 [1038]
-1.497546e-07 -0.17278938 -0.018646993 0.13278866 0.097195454 0.12445392 0.12533677 0.072418265
-0.022157593 -0.059831146 0.29587394 -0.018075215 -0.006710588 0.11327357 0.09813419 0.19066048
0.18878533 0.122506596 0.1897036 8.026371e-06 0.15452115 0.101712316 0.2601664 -0.0022879597
0.20041153 0.16484712 0.17269881 0.045053527 0.17935733 0.18367575 0.174541 0.23607683
0.21575321 0.104696006 0.10432669 0.2571755 0.21498631 -0.009344433 0.044167984 0.004540298
-0.026716335 0.22199175 0.1628349 0.12395303 0.10515084 -0.13265944 -0.008747259 0.19005628
0.123975456 0.180559 0.2386745 -0.06612239 6.12264e-08 0.18426605 0.04911631 0.1283607
0.093233496 0.1077155 0.080883905 0.29657757 0.083964534 -0.01775507 0.21489635 0.15561973
0.2582518 0.2336745 0.001362129 0.17513558 -5.8680067e-05 0.11170785 0.22328174 0.15093105
-0.07066926 0.12927978 0.100288376 0.0007195749 -0.0060665323 0.08318925 -1.3451609e-05 0.17768934
0.12751476 -0.0045631956 -0.0022880891 0.24111675 0.14528258 0.057825036 0.11823652 0.22143227
0.0497181 0.013298069 0.1516054 0.058879636 0.23885614 0.21888617 0.19078381 0.20544083
0.15441783 0.16006735 0.06480747 -1.8582625e-06 0.09900001 0.20052539 0.2931713 0.03960101
0.1873515 0.2067983 -0.02100268 0.18245217 0.15944138 0.16324449 0.020080322 0.12763825
0.08026135 0.23092364 0.016162015 0.10138921 0.19309683 0.0032781698 0.19577108 0.24681333
0.15041664 0.00028310544 0.17126746 0.012582643 0.14635256 0.16407575 0.15909787 0.15739459
-5.0557436e-10 0.022427943 0.19212715 0.048981804 0.17413634 0.10605113 0.121909775 0.14968818
0.055679377 0.11651719 0.12426171 0.1091057 0.11921719 0.023697406 0.0003215455 0.08482165
0.21349312 0.14820144 0.17445762 0.043019976 0.10685896 0.1864902 0.16387129 0.17054564
-0.008343734 -0.03472341 0.20616338 0.08481701 0.07396229 0.00034880548 0.07457578 0.37032062
0.3138077 0.17962167 0.21367872 0.13948402 0.10028663 0.0004095357 0.23851013 -1.4934039e-05
0.21713322 0.2420733 0.095997825 0.18612646 0.1746742 0.0112063745 0.12056835 0.22059762
0.17910783 0.34828156 0.17084225 0.14189911 0.32685453 -0.08678755 0.18292728 0.23403196
0.17503028 0.25734112 -0.0022456066 0.0021055806 0.115471005 0.14285049 0.15307955 0.13736607
0.07829948 0.042077575 0.20318404 -0.040171307 0.08695799 0.018667264 -0.011487025 0.1575865
0.073338225 -0.04058856 0.08753477 0.060405362 0.26284868 0.2447579 0.122536555 0.13382992
-0.00087914895 0.25389662 0.2078933 0.1942983 0.20834978 0.1566601 0.114625804 -0.011629372
-2.1407852e-05 0.10245562 0.019229077 0.22408924 0.14135522 0.11552901 0.006094554 0.15492463
0.19573802 -2.4352548e-08 0.11211559 0.13843432 0.102099165 -0.0005027468 0.010737992 -0.07084822
0.116504714 0.21583365 -0.13713653 0.20627365 0.20018825 0.25347918 0.056900617 0.22819567
0.09201916 0.1831931 0.11927914 0.2232326 0.13431835 0.00088789855 0.06954119 0.12081178
0.12162536 0.11473271 0.21521775 0.08277169 0.042460743 -0.047131274 0.14068533 0.031844374
00000000: 3bcc 20b4 b3ef 30be 94c1 98bc c0f9 073e
00000010: 690e c73d b2e1 fe3d 4858 003e 0750 943d
00000020: d783 b5bc 8111 75bd ca7c 973e 7912 94bc
00000030: 7ee4 dbbb f9fb e73d 94fa c83d 803c 433e
00000040: f150 413e bde4 fa3d a941 423e 00a9 0637
00000050: cb3a 1e3e 8c4e d03d 8834 853e 98f1 15bb
00000060: ae38 4d3e afcd 283e f5d7 303e 0c8a 383d
00000070: 73a9 373e 7f15 3c3e e0ba 323e 20be 713e
00000080: 69ee 5c3e dc6a d63d 3ba9 d53d 82ac 833e
00000090: 5f25 5c3e 6519 19bc 7de9 343d c8c6 943b
000000a0: 37dc dabc ce51 633e 31be 263e 16db fd3d
000000b0: 5359 d73d e0d7 07be aa50 0fbc 1d9e 423e
000000c0: d8e6 fd3d 75e4 383e 1767 743e 2d6b 87bd
000000d0: 927b 8333 3db0 3c3e 2f2e 493d fd70 033e
000000e0: 34f1 be3d f299 dc3d 76a6 a53d 04d9 973e
000000f0: 99f5 ab3d 1573 91bc ca0d 5c3e c75a 1f3e
00000100: 9439 843e 5e48 6f3e 7789 b23a be56 333e
00000110: 3e1f 76b8 16c7 e43d f8a3 643e ab8d 1a3e
00000120: 0cbb 90bd eb61 043e fe63 cd3d dba1 3c3a
00000130: c3c9 c6bb 205f aa3d 39ae 61b7 32f4 353e
00000140: 3b93 023e dc86 95bb c4f3 15bb 4fe7 763e
00000150: f5c4 143e f2d9 6c3d fd25 f23d 24bf 623e
00000160: 35a5 4b3d 25e0 593c 723e 1b3e c62b 713d
00000170: b496 743e b223 603e d55c 433e 155f 523e
00000180: b51f 1e3e b2e8 233e c7b9 843d 6a69 f9b5
00000190: 84c0 ca3d 8756 4d3e 8c1a 963e ab34 223d
000001a0: 12d9 3f3e efc2 533e d00d acbc bed4 3a3e
000001b0: 9a44 233e 9029 273e 7d7f a43c 9ab3 023e
000001c0: 1060 a43d 3f77 6c3e 3466 843c 25a5 cf3d
000001d0: 2dbb 453e 90d6 563b 3778 483e a2bc 7c3e
000001e0: d206 1a3e c56d 9439 bd60 2f3e 6e27 4e3c
000001f0: 72dd 153e 7903 283e 8dea 223e 0c2c 213e
00000200: a2f8 0ab0 ceba b73c fbbc 443e 25a1 483d
00000210: cc50 323e 5631 d93d d5ab f93d dc47 193e
00000220: 0f10 643d 91a0 ee3d ec7c fe3d cf72 df3d
00000230: 2428 f43d 1021 c23c 1b95 a839 f9b6 ad3d
00000240: f19d 5a3e 1ec2 173e 05a5 323e b735 303d
00000250: dfd8 da3d 49f7 3e3e e0cd 273e 84a3 2e3e
00000260: 28b4 08bc 223a 0ebd 7e1c 533e 8ab4 ad3d
00000270: 8b79 973d e1df b639 30bb 983d aa9a bd3e
00000280: 67ab a03e beee 373e 98ce 5a3e e6d4 0e3e
00000290: 1463 cd3d f4b6 d639 003c 743e 368d 7ab7
000002a0: 2c58 5e3e 10e2 773e 829a c43d ef97 3e3e
000002b0: cbdd 323e f19a 373c 8aec f63d 58e4 613e
000002c0: 0b68 373e f651 b23e 45f1 2e3e 004e 113e
000002d0: 7a59 a73e acbd b1bd 4a51 3b3e 13a6 6f3e
000002e0: 233b 333e 37c2 833e 072b 13bb c8fd 093b
000002f0: 107c ec3d 6647 123e e3c0 1c3e b1a9 0c3e
00000300: 7a5b a03d 8959 2c3d 7a0f 503e ab8a 24bd
00000310: 0817 b23d 17ec 983c 1334 3cbc 5b5e 213e
00000320: 5a32 963d 3140 26bd 6e45 b33d 9d6b 773d
00000330: 1a94 863e d1a1 7a3e 72f4 fa3d b60a 093e
00000340: b076 66ba bdfe 813e fbe1 543e 22f6 463e
00000350: a559 553e 816b 203e efc0 ea3d 1f89 3ebc
00000360: 0395 b3b7 41d4 d13d 4c86 9d3c a677 653e
00000370: 6cbf 103e 799a ec3d d3b4 c73b 90a4 1e3e
00000380: 8c6f 483e d22f d1b2 dc9c e53d bac1 0d3e
00000390: 5e19 d13d c4ca 03ba 67ee 2f3c df18 91bd
000003a0: 069a ee3d 7f03 5d3e 856d 0cbe 6639 533e
000003b0: 26fe 4c3e 06c8 813e 9f10 693d 20ac 693e
000003c0: 8b74 bc3d f996 3b3e 9f48 f43d 1697 643e
000003d0: c08a 093e ddc1 683a 9d6b 8e3d 2b6c f73d
000003e0: b716 f93d fcf8 ea3d 0b62 5c3e 3484 a93d
000003f0: 51eb 2d3d b90c 41bd d10f 103e 3f6f 023d

tabnet.initial_bn.bias f4 [1038]
-5.670047e-19 0.00066533865 -0.00043398407 -0.00039648233 0.0006898476 0.2065603 2.0328454e-05 -0.00015466083
0.0006491577 5.190432e-05 -0.01062919 -0.00035110072 1.1882505e-05 0.00017125467 -8.29711e-05 -0.39842027
0.00062277546 0.00041535747 0.0005886206 1.5836946e-09 -0.00032758302 -5.42816e-05 4.3555847e-05 2.9610306e-05
0.00352614 -0.0016798557 -0.00014761658 -0.28770015 0.00026946585 0.0097503485 0.00024367147 0.00032877864
-0.00036974248 0.30789506 -0.001977672 0.0042116893 -0.000768345 -9.640319e-06 -0.2194139 0.00071180775
-0.00042145737 -0.00076275144 -0.22802585 -0.0008772762 0.0031118868 -0.00038826762 -3.458842e-05 -0.0015400818
-0.0007010631 -0.00092170504 0.0003162995 7.22214e-05 -1.8215462e-10 -8.8807516e-05 -4.8314167e-05 0.00043912022
0.0020595056 -0.004927331 -0.00041275495 0.07473024 -0.00026392858 -0.00023087133 -0.00042614707 8.663745e-05
0.00017732786 -0.0021234814 -9.667849e-06 -0.0015928738 -4.3529852e-07 -0.00072128826 7.082908e-05 -0.0004053475
0.00079024717 -0.0012000882 0.0027595998 2.845143e-05 0.00012542371 0.37100717 2.5684141e-09 -0.009149849
-0.0038822282 -3.9418348e-05 3.0518677e-05 -0.005136577 0.0007477842 0.00014374233 -0.0019396866 0.0010449956
0.34165108 4.6891957e-05 1.6243675e-05 -0.0016965277 0.08595697 -0.0001617451 0.00013000681 -0.13074386
0.00071617035 0.003030405 -0.0014579514 -1.2946505e-09 0.0008775048 -0.00038153995 -0.0005992105 -0.0012348123
-0.00090324116 -5.592985e-05 6.5907276e-05 -0.008744899 -0.00017931926 0.002706233 0.00086605677 0.00021512852
0.00034481456 -0.1873195 -9.157073e-05 -0.0005178292 -0.00026872443 -0.0003074785 -0.00022565147 -0.00044083726
-0.00080389966 -4.712931e-05 3.27863e-05 -2.3119732e-05 0.00014506423 0.00020065723 -0.004253859 0.00019566485
-1.4747234e-13 0.29036775 -0.0004781928 -0.1598193 -0.007803 -0.0018227588 -0.0010448206 0.00026190546
-0.00057034276 0.00016118378 0.00040101924 -0.0001881949 -0.00054048025 0.4336741 7.135076e-08 -0.00010482996
0.03530021 -0.0004841922 0.00028521832 0.0007885284 -0.00069479895 -0.41703194 0.003283594 0.0012718261
6.076752e-06 0.00056041643 -9.941637e-06 -0.00018362499 -0.00063730014 3.452926e-05 0.37922546 -0.0056647467
0.00015061104 0.0012148962 0.0003408494 -4.658442e-05 0.0010182725 2.9572261e-06 0.0015526477 1.5697029e-07
-0.020981548 0.038408693 0.0002527676 0.0018359175 1.6431406e-05 -0.00010856873 0.47103786 0.003941218
-0.0020660688 -0.22573823 0.0006462844 -0.00051473273 -0.12269647 2.580416e-05 0.00059702166 0.0026971162
-0.06030658 0.00030163085 -1.2944e-05 6.9415735e-05 0.32610327 0.0007124421 0.005706931 0.0005602281
-8.912568e-05 9.722779e-05 -5.3143125e-05 0.001244646 0.0003414882 -0.00025872045 0.000986098 -0.00020838772
-0.0038926401 -0.00079415046 0.0011374011 0.2959679 2.2016082e-05 0.0014738793 7.4562035e-05 0.0007703085
7.7105025e-05 -0.0014060008 0.001123342 -0.00057835283 -0.007857356 -0.00066925626 0.0003533349 0.00030109432
-1.0643073e-06 1.2176101e-05 -0.000102022364 0.0017984023 0.0005249754 0.0018159776 -5.88298e-06 -0.00011599172
3.614548e-05 -2.1954678e-10 -0.0002646905 -0.00021718741 9.5809686e-05 -5.0165e-06 0.00028366043 -0.00010546627
0.00012376804 -0.0005570756 0.0022278677 -0.0005992516 -0.00014993291 -0.0043497016 -0.00036027282 -0.00039194568
-0.00010120043 -0.000395658 0.0006817714 -0.0028197167 -0.00016256761 -6.3042617e-06 0.00012542449 -0.050378144
0.00018085988 0.00022802703 -0.00020190189 -9.448598e-05 8.233484e-05 -9.006371e-06 -0.0020017275 0.0030947302
00000000: aa59 27a1 1f6a 2e3a 5b88 e3b9 f5de cfb9
00000010: e4d6 343a 8b84 533e 0687 aa37 732c 22b9
00000020: 3c2c 2a3a d7b3 5938 0e26 2ebc f113 b8b9
00000030: f85a 4737 d392 3339 c500 aeb8 befd cbbe
00000040: c141 233a 56c4 d939 a94d 1a3a 4da9 d930
00000050: 73bf abb9 6dac 63b8 bcaf 3638 a663 f837
00000060: d016 673b 9b2e dcba 86c9 1ab9 6f4d 93be
00000070: 1847 8d39 edbf 1f3c 1082 7f39 ec5f ac39
00000080: ffd9 c1b9 6ca4 9d3e d59b 01bb 3602 8a3b
00000090: c36a 49ba dbbc 21b7 0aae 60be 9c98 3a3a
000000a0: 0df7 dcb9 62f3 47ba 9c7f 69be 02f9 65ba
000000b0: ccf0 4b3b 6690 cbb9 0813 11b8 92dc c9ba
000000c0: 8cc7 37ba 949e 71ba 00d5 a539 9275 9738
000000d0: f847 48af 2c3e bab8 f1a4 4ab8 b839 e639
000000e0: c5f8 063b 7375 a1bb 0867 d8b9 2b0c 993d
000000f0: e55f 8ab9 0d16 72b9 7e6c dfb9 20b1 b538
00000100: 16f1 3939 1b2a 0bbb 1833 22b7 fac7 d0ba
00000110: f9b2 e9b4 d614 3dba 138a 9438 d284 d4b9
00000120: 9728 4f3a 474c 9dba 67da 343b fbaa ee37
00000130: 2c84 0339 a7f4 bd3e 0580 3031 40e9 15bc
00000140: fb6c 7ebb 2155 25b8 2e01 0038 bb50 a8bb
00000150: f306 443a 8ab9 1639 153d feba 3cf8 883a
00000160: e4ec ae3e dbad 4438 0743 8837 065e deba
00000170: 350a b03d 1f9a 29b9 7052 0839 b8e1 05be
00000180: 61bd 3b3a c299 463b bb18 bfba 77ef b1b0
00000190: 5a08 663a 6d09 c8b9 5614 1dba 6dd9 a1ba
000001a0: 7dc7 6cba 3896 6ab8 b337 8a38 c446 0fbc
000001b0: a607 3cb9 0e5b 313b 1608 633a 1f94 6139
000001c0: 3ac8 b439 afd0 3fbe a909 c0b8 eebe 07ba
000001d0: 95e3 8cb9 1135 a1b9 db9c 6cb9 2d20 e7b9
000001e0: cbbc 52ba b6ac 45b8 0684 0938 3ff1 c1b7
000001f0: 621c 1839 8467 5239 f563 8bbb 622b 4d39
00000200: 020a 26aa 15ab 943e f3b5 fab9 aca7 23be
00000210: 4fb0 ffbb a3e9 eeba 5df2 88ba 5b50 8939
00000220: 0e83 15ba 7103 2939 e43f d239 2f56 45b9
00000230: 04af 0dba 880a de3e 7f39 9933 28d8 dbb8
00000240: f496 103d 2ddb fdb9 5b89 9539 3fb5 4e3a
00000250: 2b23 36ba 3685 d5be 9131 573b 67b3 a63a
00000260: e7e6 cb36 e9e8 123a 01cb 26b7 758b 40b9
00000270: 7d10 27ba 83d3 1038 d729 c23e 579f b9bb
00000280: 58ed 1d39 273d 9f3a 08b4 b239 a463 43b8
00000290: 8e77 853a c274 4636 3682 cb3a aa8b 2834
000002a0: 7fe1 abbc 6f52 1d3d e585 8439 2ba3 f03a
000002b0: 2dd6 8937 65af e3b8 e02b f13e 5525 813b
000002c0: e266 07bb ec27 67be 696b 293a 21ef 06ba
000002d0: 4948 fbbd 0376 d837 7281 1c3a 1ac2 303b
000002e0: 0804 77bd 3524 9e39 0f2a 59b7 4a93 9138
000002f0: 02f7 a63e 2ec3 3a3a 3501 bb3b 45dc 123a
00000300: fce8 bab8 c6e6 cb38 ffe5 5eb8 6423 a33a
00000310: c509 b339 dfa4 87b9 f53f 813a a782 5ab9
00000320: aa1b 7fbb 892e 50ba d914 953a 1b89 973e
00000330: 2daf b837 2f2f c13a 305e 9c38 87ee 493a
00000340: 72b3 a138 8f49 b8ba 1a3d 933a 9a9c 17ba
00000350: 24bc 00bc 0771 2fba cf3f b939 32dc 9d39
00000360: 52d9 8eb5 f547 4c37 d7f4 d5b8 5eb8 eb3a
00000370: 819e 093a 1906 ee3a 6a66 c5b6 9540 f3b8
00000380: ea9a 1738 ed64 71af 28c6 8ab9 cdbc 63b9
00000390: 6fed c838 6853 a8b6 42b8 9439 c62d ddb8
000003a0: bbc7 0139 b608 12ba 6b01 123b 1817 1dba
000003b0: 4f37 1db9 f187 8ebb 00e3 bcb9 0f7e cdb9
000003c0: 913b d4b8 5170 cfb9 e7b8 323a ffca 38bb
000003d0: e976 2ab9 3289 d3b6 6184 0339 5059 4ebd
000003e0: 34a5 3d39 8a1a 6f39 a0b5 53b9 c626 c6b8
000003f0: 2eab ac38 121a 17b7 6a2f 03bb f5d0 4a3b

tabnet.initial_bn.running_mean f4 [1038]
4.6230872e-07 -0.00038805418 0.005404089 -0.001472899 0.0030937218 0.0014268442 0.00022672406 0.004114247
-0.0012622903 -0.0028122258 -0.015714083 -0.0033611755 0.0013508028 0.0002314685 -0.0041644075 0.0027545828
-0.0017680527 0.0054313364 -0.00082428876 0.00017483546 -0.0027398006 0.0006896565 -0.001966974 0.004073408
-0.0032133781 0.0011829862 -0.0058487053 -0.004481763 0.0006927118 0.005724514 1.0456398e-05 0.0027891984
0.00096613215 0.010893945 -0.0012154349 0.0008558985 0.0046345643 0.0094728945 -0.002899477 -0.038112845
0.032679435 0.0045204265 -0.004473959 -0.00079161173 -0.00097235496 -0.0004730243 -0.001862245 0.0053818296
0.0075538484 -0.00019078319 0.008174271 0.0032199044 -0.042491708 0.0018665049 -0.00064584776 -0.001052414
-0.0012725951 -0.0051007923 -0.002125493 -0.0033975584 -0.0197719 -0.0046507 -5.6797337e-05 -0.001101982
-0.008495794 -0.009559385 -0.0002586794 0.0019232505 0.001647557 -0.061233915 -0.0027117343 -0.00020823094
0.0028685455 -0.0031966611 -0.017382922 -0.0010982245 0.0144995665 -0.043159887 0.003841339 -0.0011154247
0.0039752573 -0.00015713534 0.00010840176 -0.0046357447 -0.0046254527 0.0011876608 -0.006382542 -0.00038883893
0.0051874346 -0.0007467687 0.002991289 -0.0035238224 -0.00079974544 0.0040588663 -0.0005606017 0.0041576386
0.0021841067 0.00011449287 -0.0032116803 0.008522737 -0.0037115111 -0.0010380361 0.014327149 -0.0001685864
-0.0014517653 0.0005315489 0.0006667521 -0.0010772032 0.0055941204 0.0012682063 0.0046359976 -0.0017574878
0.00035038235 0.004808816 -0.0012083482 -0.014893469 -0.0022518293 0.00019400325 5.307861e-05 0.0019774872
0.0017475198 0.0026825324 0.0028102887 -0.0028585475 -0.0013567647 0.024733268 -0.0033228465 0.0001942997
0.0005122442 -0.0012074421 -0.01888513 -0.002908925 0.004156978 0.027782055 0.0026944478 0.0009970699
-0.0027385508 -0.00059623085 0.002936347 -0.000925982 -0.0014893971 0.0028814094 -0.00027178833 -0.0022302659
0.0003848742 -0.0001570459 0.009080063 4.55942e-05 -0.0006164528 0.010188761 0.0021236972 -0.0020758316
0.0023959924 0.0009588173 -0.010054197 -0.002602564 -0.00442936 0.0035246266 0.0052930284 0.0018458641
0.02177112 2.7042486e-05 -0.0022573194 0.004477209 -0.003263518 0.006405613 0.0031744582 -0.0010672368
0.0005121518 0.0019346508 -0.0039254725 -0.0018444856 0.0129812285 0.0065902784 -0.0031554569 -0.00047190848
0.003839317 -0.005758406 -0.00018050581 -8.241429e-05 -0.007570404 0.0036743865 0.0014886411 0.0020111243
0.004227808 -0.005534591 0.0022788509 -0.018517187 0.0015864943 0.0008532502 0.00445209 -0.004354252
-0.00083352136 0.003591227 -3.026509e-05 8.010346e-05 -0.0011984216 -0.01657298 -0.0010558726 0.0070400275
0.0022448485 0.0027628548 -0.003642865 0.016507238 -0.019705035 -0.0013469264 0.0025510096 -0.0030404313
-0.0017151956 -0.0029146557 0.016110785 -0.0015981399 0.0023622783 0.001206509 0.0018399997 -0.0009819064
-0.00023110604 0.008418878 0.0017286458 0.003961922 -1.6890066e-05 0.000964087 -0.00019066993 -0.0024554862
-0.004696651 -0.0016733578 0.00014376968 0.0020143527 0.011904238 -0.0009228951 -0.0691717 0.0026846146
0.0013309264 -0.0029978422 0.0037980953 0.0008850372 -0.0020799055 0.0032170203 0.0020321966 -0.0028414626
-0.0012691091 0.00142503 -0.0031979785 0.0013768433 0.0010767791 0.0035271046 0.006868476 0.0010144863
0.0011501339 -0.0011087814 0.029932465 0.00068086525 -0.012062825 0.005372813 -0.0013540091 -0.0009861429
00000000: 3a33 f834 c073 cbb9 c914 b13b 4a0e c1ba
00000010: 0ac0 4a3b f204 bb3a c7bc 6d39 ced0 863b
00000020: 6f73 a5ba 524d 38bb d2ba 80bc 2b47 5cbb
00000030: 6c0d b13a 5ab6 7239 9575 88bb 3b86 343b
00000040: 01be e7ba 5af9 b13b 1515 58ba 0954 3739
00000050: 3a8e 33bb 10ca 343a 59e8 00bb 397a 853b
00000060: 8a97 52bb 6e0e 9b3a 7fa6 bfbb c1db 92bb
00000070: 1a97 353a b494 bb3b e36d 2f37 fcca 363b
00000080: 0844 7d3a 847c 323c 3a4f 9fba 605e 603a
00000090: 8bdd 973b 3334 1b3c 2705 3ebb 371c 1cbd
000000a0: dfda 053d 1620 943b 4a9a 92bb 2a84 4fba
000000b0: a3e5 7eba 3f00 f8b9 9316 f4ba 0f5a b03b
000000c0: 4686 f73b f90c 48b9 61ed 053c 0805 533b
000000d0: c90b 2ebd 83a5 f43a 1c4e 29ba 27f1 89ba
000000e0: 35cd a6ba 8c24 a7bb db4b 0bbb 92a9 5ebb
000000f0: aef8 a1bc e664 98bb ad39 6eb8 6170 90ba
00000100: f131 0bbc f79e 1cbc 5d9f 87b9 9415 fc3a
00000110: d7f2 d73a 6ad0 7abd 5ab7 31bb 9158 5ab9
00000120: 35fe 3b3b 137f 51bb a166 8ebc 4df2 8fba
00000130: 978f 6d3c 6cc8 30bd f9be 7b3b 7133 92ba
00000140: e042 823b b2c4 24b9 c055 e338 72e7 97bb
00000150: 1c91 97bb 49ab 9b3a a524 d1bb 14dd cbb9
00000160: 5bfb a93b cdc2 43ba 8009 443b eeef 66bb
00000170: 02a6 51ba 3d00 853b 58f5 12ba cd3c 883b
00000180: 3b23 0f3b e41b f038 0e7b 52bb f3a2 0b3c
00000190: d33c 73bb b60e 88ba 6bbc 6a3c 91c6 30b9
000001a0: 2949 beba a557 0b3a fac8 2e3a f130 8dba
000001b0: e24e b73b f139 a63a 91e9 973b 815b e6ba
000001c0: 86b3 b739 4693 9d3b 7061 9eba bd03 74bc
000001d0: 6d93 13bb 5a6d 4b39 b9a0 5e38 bb98 013b
000001e0: 090d e53a 6dcd 2f3b d22c 383b 7856 3bbb
000001f0: 78d5 b1ba 6c9d ca3c 1dc4 59bb eebc 4b39
00000200: 2048 063a 0943 9eba fdb4 9abc aaa3 3ebb
00000210: 4237 883b 3197 e33c 5595 303b 1db0 823a
00000220: 4279 33bb 604c 1cba ba6f 403b 9abd 72ba
00000230: e037 c3ba 07d6 3c3b d07e 8eb9 a729 12bb
00000240: f1c8 c939 b0ac 24b9 8bc4 143c 663c 3f38
00000250: 7299 21ba c3ee 263c ba2d 0b3b ad0a 08bb
00000260: 1506 1d3b 2459 7b3a 5cba 24bc c78f 2abb
00000270: 2a24 91bb 6cfd 663b 2471 ad3b ecf0 f13a
00000280: 5959 b23c 4cd9 e237 89ef 13bb 8db5 923b
00000290: bfe0 55bb 2de6 d13b 920a 503b 86e2 8bba
000002a0: ed41 063a 1c94 fd3a 40a1 80bb abc2 f1ba
000002b0: 38af 543c 43f3 d73b c8cb 4ebb 7c6a f7b9
000002c0: 0d9d 7b3b 03b1 bcbb 2946 3db9 d6d5 acb8
000002d0: 2711 f8bb facd 703b 821e c33a 11cd 033b
000002e0: 6d89 8a3b 845b b5bb c658 153b 5bb1 97bc
000002f0: eaf1 cf3a a7ac 5f3a d6e2 913b 1dae 8ebb
00000300: ac80 5aba cb5a 6b3b c9e1 fdb7 38fd a738
00000310: 5b14 9dba 0fc4 87bc 3565 8aba 08b0 e63b
00000320: 4f1e 133b 0311 353b 22bd 6ebb 303a 873c
00000330: 746c a1bc 5a8b b0ba d72e 273b f941 47bb
00000340: 6ad0 e0ba cf03 3fbb c4fa 833c ad78 d1ba
00000350: 74d0 1a3b b923 9e3a 252c f13a 50b3 80ba
00000360: 0e55 72b9 55ef 093c ba93 e23a 03d3 813b
00000370: 24af 8db7 c9ba 7c3a 92ee 47b9 39ec 20bb
00000380: 5de6 99bb 9254 dbba e1c0 1639 3b03 043b
00000390: fe09 433c 71ee 71ba e4a9 8dbd 5cf0 2f3b
000003a0: 7b72 ae3a 7277 44bb 77e9 783b d701 683a
000003b0: 064f 08bb a5d4 523b 9a2e 053b d537 3abb
000003c0: 3c58 a6ba 12c8 ba3a 2d95 51bb 3277 b43a
000003d0: b622 8d3a ff26 673b f410 e13b 83f8 843a
000003e0: 17c0 963a 8854 91ba ee34 f53c 187c 323a
000003f0: 28a3 45bc 6c0e b03b 0279 b1ba 7741 81ba

tabnet.initial_bn.running_var f4 [1038]
3.6016536e-07 0.0006660862 0.98497933 0.96991915 0.9675378 0.97076327 0.9686738 0.9723821
0.9688756 0.96532667 1.0763247 0.9672482 0.97792363 0.9716311 0.95978785 0.9890174
0.9746337 0.9638883 0.98705196 0.9786455 0.9690426 0.96682686 0.9788116 0.96731436
0.9690877 0.9711481 0.97872156 0.9709518 0.9724106 0.96993035 0.96984845 0.9821991
0.98140705 1.0705276 0.9629836 0.9732446 0.9790667 0.96543944 0.99178475 1.2849839
1.1985573 0.97604823 1.0009795 0.97840047 0.9689816 0.96563286 0.9694553 0.9650735
1.0146496 0.97185713 0.9850616 0.9693766 1.3239459 0.97827053 0.97579855 0.97970194
0.98503876 0.98695165 0.9801624 0.9868432 1.1366913 0.9839564 0.969529 0.98318905
1.0355653 1.0375992 0.96863174 0.9704306 0.9722662 1.3975644 0.97674215 0.9688047
0.9751785 0.97028714 1.1132821 0.97556955 1.0293108 1.3071878 0.970676 0.97175497
0.9751674 0.97436875 0.9686411 0.9715403 0.97539693 0.9807939 0.9684155 0.9742522
1.0298685 0.9736822 0.974522 0.9666539 0.9779261 1.0016141 0.97342825 0.9729896
0.970619 0.98061854 1.0126634 1.0183134 1.0039302 0.9744307 1.0845422 0.9754764
0.98784184 0.9735872 0.97136927 0.97617507 1.0066288 0.9745449 0.96778613 0.9715078
0.9727618 0.98437995 0.977069 1.1147144 0.97129446 0.9728481 0.9847515 0.982994
0.97197545 0.9624291 0.975571 1.0070567 0.96683985 1.1712972 0.97095793 0.9722638
0.9943556 0.9642352 1.1039882 0.9725208 1.0135919 1.2035828 1.0088964 0.99185514
0.97076577 0.97273487 0.9733093 0.96716756 0.98533916 0.9803376 0.9752414 0.9739796
0.9943463 0.97342515 1.0118651 0.98432744 0.99842155 1.0338047 0.9907961 0.96900713
0.9721077 0.96191853 1.0070951 0.9711206 0.9667956 1.0114937 0.97158146 0.96914357
1.1352482 0.9708378 0.9875969 0.9782252 0.96499544 1.0251547 1.0058488 0.9646273
0.9695356 0.97196 0.97220254 0.9811106 1.0339874 0.97702605 0.9708196 0.9751986
0.97209805 0.9716786 0.9717891 0.9873223 1.0921289 0.9598855 0.9708453 0.9876534
0.9642492 1.006941 0.96500087 1.1198391 0.9777944 0.9664754 0.9656918 1.0036912
0.9716331 0.9774962 0.9706703 0.96843594 0.9696241 1.0863018 0.9744179 1.0089406
0.9830596 0.96839744 0.9590655 1.0643951 1.0702716 0.9653494 0.9926341 0.9703903
0.9651783 0.9700772 1.0757105 0.9710953 0.97665495 0.9656016 0.9635051 0.9967502
0.97482806 1.0022719 0.9726741 0.9757524 0.97272944 0.96819675 0.9868857 0.9708091
0.97023094 0.97171986 0.97389436 0.9745055 1.030129 0.9696415 1.4754846 0.9804794
0.97358596 0.9945122 0.97755474 0.96790546 0.9784315 0.98887026 0.96777344 0.97033346
0.96975374 0.9739071 0.96458346 0.97050816 0.9712449 1.0087707 0.9890448 0.98941064
0.9696264 0.9791212 1.1499602 0.9821077 1.040224 1.0096623 0.97003603 0.9767164
00000000: c05c c134 4a9c 2e3a 9b27 7c3f 9f4c 783f
00000010: 8fb0 773f f183 783f 02fb 773f 09ee 783f
00000020: 3b08 783f a61f 773f 02c5 893f 949d 773f
00000030: 3459 7a3f d1bc 783f a8b4 753f 3f30 7d3f
00000040: 9881 793f 62c1 763f 70af 7c3f 8388 7a3f
00000050: 2d13 783f f781 773f 6693 7a3f eaa1 773f
00000060: 2216 783f 299d 783f 7f8d 7a3f 4c90 783f
00000070: e7ef 783f 5b4d 783f fd47 783f 6671 7b3f
00000080: 7e3d 7b3f 0c07 893f 1886 763f 8f26 793f
00000090: 1ea4 7a3f 0a27 773f 9be5 7d3f 5a7a a43f
000000a0: 536a 993f 4cde 793f 1920 803f 7478 7a3f
000000b0: 2e0f 783f b733 773f 392e 783f 0f0f 773f
000000c0: 0ae0 813f a1cb 783f ff2c 7c3f 1129 783f
000000d0: 0f77 a93f f06f 7a3f efcd 793f bfcd 7a3f
000000e0: 802b 7c3f dda8 7c3f eceb 7a3f c2a1 7c3f
000000f0: 1a7f 913f 91e4 7b3f 0d33 783f 47b2 7b3f
00000100: 678d 843f 0dd0 843f 40f8 773f 246e 783f
00000110: 70e6 783f 64e3 b23f c60b 7a3f 9603 783f
00000120: 4ca5 793f bd64 783f 0780 8e3f edbe 793f
00000130: 75c0 833f ee51 a73f 397e 783f efc4 783f
00000140: 92a4 793f 3b70 793f ddf8 773f ddb6 783f
00000150: 9db3 793f 4f15 7b3f 14ea 773f 9868 793f
00000160: bbd2 833f 3d43 793f 467a 793f a176 773f
00000170: 5d59 7a3f e434 803f 9832 793f d915 793f
00000180: 7d7a 783f d109 7b3f f49e 813f 1858 823f
00000190: c980 803f 4a74 793f 47d2 8a3f d2b8 793f
000001a0: 34e3 7c3f 033d 793f a8ab 783f 9ce6 793f
000001b0: 36d9 803f c67b 793f d5c0 773f bcb4 783f
000001c0: eb06 793f 5300 7c3f 3221 7a3f f6ae 8e3f
000001d0: c1a6 783f 930c 793f ad18 7c3f 7fa5 7b3f
000001e0: 62d3 783f c161 763f 05bf 793f 3ce7 803f
000001f0: d182 773f 11ed 953f b390 783f 48e6 783f
00000200: 178e 7e3f 1ed8 763f 7c4f 8d3f 20f7 783f
00000210: 61bd 813f 000f 9a3f 8423 813f 38ea 7d3f
00000220: 1b84 783f 2705 793f cc2a 793f 4b98 773f
00000230: 303f 7c3f 68f7 7a3f 6ca9 793f ba56 793f
00000240: 7b8d 7e3f 6432 793f cc84 813f e2fc 7b3f
00000250: 8e98 7f3f b653 843f d0a4 7d3f da10 783f
00000260: 0ddc 783f 4b40 763f 7ee8 803f 5c9b 783f
00000270: eb7f 773f a078 813f 90b9 783f cb19 783f
00000280: d04f 913f d388 783f 27d3 7c3f f76c 7a3f
00000290: f109 773f 4538 833f a7bf 803f d1f1 763f
000002a0: 7c33 783f 5fd2 783f 44e2 783f 102a 7b3f
000002b0: b359 843f 611e 7a3f a287 783f 9ea6 793f
000002c0: 6bdb 783f eebf 783f 2cc7 783f 27c1 7c3f
000002d0: e1ca 8b3f 0ebb 753f 5189 783f dad6 7c3f
000002e0: 09d9 763f 71e3 803f 4c0a 773f e356 8f3f
000002f0: bc50 7a3f ef6a 773f 9437 773f f478 803f
00000300: f2bc 783f 313d 7a3f d97d 783f 6beb 773f
00000310: 4939 783f f00b 8b3f 7473 793f f724 813f
00000320: cba9 7b3f e5e8 773f 5185 753f 193e 883f
00000330: a9fe 883f 2321 773f 451d 7e3f 806b 783f
00000340: ed15 773f fb56 783f e2b0 893f b499 783f
00000350: 0f06 7a3f ab31 773f 45a8 763f 052b 7f3f
00000360: 558e 793f 724a 803f 2b01 793f e9ca 793f
00000370: cc04 793f bedb 773f 8ba4 7c3f f286 783f
00000380: 0e61 783f a2c2 783f 2451 793f 3179 793f
00000390: 44db 833f 6d3a 783f aedc bc3f b300 7b3f
000003a0: ee3c 793f 5a98 7e3f 0741 7a3f a7c8 773f
000003b0: 7d7a 7a3f 9a26 7d3f 00c0 773f c667 783f
000003c0: c841 783f fa51 793f f1ee 763f 3973 783f
000003d0: 81a3 783f 661f 813f 0a32 7d3f 044a 7d3f
000003e0: 7039 783f b0a7 7a3f e531 933f 696b 7b3f
000003f0: 0f26 853f 9d3c 813f 4854 783f 160a 7a3f

tabnet.initial_splitter.shared.shared_layers.0.weight f4 [96, 1038]
8.363648e-21 -8.134449e-05 -6.2454856e-06 -2.4730807e-05 -7.9477366e-05 -0.041531537 -4.317408e-05 4.0527107e-06
4.411365e-06 -4.7112604e-05 0.006944497 -4.6105674e-06 5.819174e-07 0.00010306304 -0.000120176526 -0.0012055525
0.00014940444 -0.00047632414 -0.00021690321 -7.718795e-09 -3.8370035e-05 -0.0003728379 -8.5535896e-05 3.5611706e-07
-0.0003530925 -3.694784e-05 0.00013649411 -0.03452863 0.00027445162 0.0003759736 0.00039310375 -0.0002785903
0.00034053114 -0.054940533 -5.541184e-06 0.00032142605 -0.00055953267 -6.595215e-06 -0.16451912 -1.6475335e-05
-2.0219997e-05 0.00034381045 -0.0832621 -0.00036614633 -0.00041621758 0.00029816516 -2.580064e-05 0.00059145305
0.00036297576 7.010483e-05 0.0010397563 -0.00028202176 2.2916852e-11 -0.00033482118 -0.00035390648 -0.00019661152
3.7417238e-05 -0.0001693104 0.0001075904 0.019081386 5.4407126e-05 2.3436134e-05 -0.0004052594 -0.00024218122
-0.00067286455 -0.00023391095 -2.9777204e-06 3.6327157e-05 -2.1608653e-08 -0.00010869983 0.0003128473 0.0007220081
5.202788e-05 -0.00017127207 8.36392e-05 -2.1225956e-06 8.215749e-06 0.018264143 -2.0908793e-08 0.00015836397
-0.00019121815 -7.919635e-06 -1.6232261e-06 0.00095470843 0.00042036033 -2.5686759e-05 0.00033573437 -0.0005963933
0.2339119 2.5305948e-05 0.0006088134 -0.00012179416 -0.12177007 -0.0001115261 0.00025734445 0.017683366
0.00018435679 2.5262992e-05 -0.0003072619 3.3856573e-09 -0.00028016977 -0.00021495884 7.421149e-05 4.4347653e-05
-0.00017592295 -0.0007661559 -4.30012e-05 0.00076352083 0.00041196105 -0.00031525 2.2534516e-05 6.3438994e-05
5.0579616e-05 -0.069536746 -6.907404e-05 0.00016563015 -0.00015875025 8.643468e-06 -0.0003603526 0.00013633436
0.0005062437 -4.9649498e-06 -0.00030924246 6.4805804e-06 -0.00019677644 -1.835772e-05 0.00017254338 -0.00025652265
2.0845516e-13 -0.07095885 -0.00041921067 0.014121187 0.00020438539 0.00031982138 -0.0001465126 -2.0725502e-05
-5.779409e-05 4.2860025e-05 0.000120857374 0.0005546655 0.00057576026 -0.028705701 5.37301e-07 0.00015882024
-0.0025773018 4.3285407e-05 -0.00013244942 -6.294966e-05 6.0477956e-05 0.11191107 0.000101796766 0.0008734528
-1.0907663e-05 -0.00019152033 -0.00025027167 -0.00013465503 -0.00021439235 3.8115186e-07 -0.10638124 0.0104450425
-0.00029607207 -2.2231403e-05 -0.00016711885 0.00021399818 -0.00017422544 -3.828845e-07 -0.010559413 -2.5676743e-09
-0.00043659608 0.00010613673 -7.260509e-05 -0.0010452756 0.0002594188 -7.3656342e-06 -0.0163808 8.367004e-05
-0.0003865766 0.000688165 -0.0001001499 0.0009714633 -0.049484488 2.2342661e-05 -0.00023767205 -1.8137309e-05
0.0014503819 0.00022650982 -2.1595702e-06 2.442152e-06 0.16461526 0.00052733475 -0.0003560733 0.00054764346
-0.00023409264 1.907475e-05 0.0005379791 -1.1552177e-05 -0.00019492944 -4.7589356e-06 -0.00011525731 0.00047018664
-4.3137607e-05 2.5394324e-06 -0.00018622806 0.13444385 0.0002815685 -0.00045374883 -0.00071164145 -0.00010992694
-4.5028748e-05 0.00046894132 0.00037572635 0.0007683613 -0.0009364889 0.00017720711 -0.00012547836 4.7889764e-05
1.6082399e-07 1.8585346e-05 2.24498e-05 -0.0002002118 3.089578e-05 1.3003593e-05 -6.395111e-06 6.0502876e-05
0.00074120145 2.5240302e-10 0.0002438817 -0.00041202895 0.00025901882 -8.671625e-07 -1.701761e-05 0.000112892754
0.00022137274 0.001255162 -0.0003304775 0.0007636517 4.5444795e-05 0.053564496 -0.0001778406 -0.0006171439
0.00015362738 0.00012268427 0.00014594114 -0.00093325233 8.2038525e-05 -8.415768e-07 0.00011523844 0.035360727
5.923403e-05 4.6165245e-05 0.0002760881 -0.000105856336 -5.617929e-05 -2.0420005e-06 0.00016871566 0.00012414415
00000000: 1ffc 1d1e 7e97 aab8 5090 d1b6 0175 cfb7
00000010: 16ad a6b8 f91c 2abd d115 35b8 85fc 8736
00000020: 5605 9436 c69a 45b8 aa8e e33b 79b4 9ab6
00000030: 0f35 1c35 8c23 d838 4807 fcb8 a103 9eba
00000040: 73a9 1c39 25bb f9b9 8370 63b9 9f9b 04b2
00000050: 83ef 20b8 7579 c3b9 bc61 b3b8 5b30 bf34
00000060: 461f b9b9 71f8 1ab8 dc1f 0f39 e56d 0dbd
00000070: 46e4 8f39 531e c539 7e19 ce39 c20f 92b9
00000080: 5189 b239 5309 61bd 68ee b9b6 1385 a839
00000090: 9aad 12ba 774c ddb6 b377 28be 8334 8ab7
000000a0: 1d9e a9b7 7541 b439 5285 aabd 54f7 bfb9
000000b0: c737 dab9 0d53 9c39 746e d8b7 be0b 1b3a
000000c0: c84d be39 3e05 9338 6f48 883a 52dc 93b9
000000d0: 2a94 c92d f08a afb9 868c b9b9 8129 4eb9
000000e0: 74f0 1c38 ea88 31b9 28a2 e138 9150 9c3c
000000f0: 3533 6438 b798 c437 ff78 d4b9 07f2 7db9
00000100: 2d63 30ba fe45 75b9 d9d4 47b6 fd5d 1838
00000110: ee9d b9b2 c7f5 e3b8 a705 a439 2545 3d3a
00000120: 8338 5a38 7f97 33b9 7467 af38 ea71 0eb6
00000130: 60d6 0937 af9e 953c ec9a b3b2 810e 2639
00000140: bb81 48b9 93de 04b7 a0dd d9b5 6645 7a3a
00000150: cf63 dc39 e579 d7b7 8105 b039 4757 1cba
00000160: 9a86 6f3e 1c48 d437 c798 1f3a be6b ffb8
00000170: 9662 f9bd 1ee3 e9b8 30ec 8639 b5dc 903c
00000180: e64f 4139 ddeb d337 fe17 a1b9 1da9 6831
00000190: c0e3 92b9 9366 61b9 fea1 9b38 ee01 3a38
000001a0: f577 38b9 dad7 48ba 305c 34b8 0427 483a
000001b0: 7afc d739 2448 a5b9 8108 bd37 8d0a 8538
000001c0: 7325 5438 4869 8ebd d8db 90b8 01ad 2d39
000001d0: 3276 26b9 6a03 1137 b5ed bcb9 faf4 0e39
000001e0: 71b5 043a 9898 a6b6 d221 a2b9 c373 d936
000001f0: c655 4eb9 e7fe 99b7 c3ec 3439 e37d 86b9
00000200: 1cb3 6a2a e052 91bd 81c9 dbb9 8d5c 673c
00000210: 4950 5639 b3ad a739 2da1 19b9 addb adb7
00000220: ee67 72b8 9ac4 3338 cf74 fd38 f966 113a
00000230: 9eee 163a 3828 ebbc 0b3b 1035 fc88 2639
00000240: f3e7 28bb 5a8d 3538 1fe2 0ab9 d703 84b8
00000250: b6a9 7d38 a231 e53d b97b d538 6df8 643a
00000260: 0e00 37b7 d9d2 48b9 e536 83b9 2f32 0db9
00000270: 82ce 60b9 1da1 cc34 68de d9bd af21 2b3c
00000280: 1f3a 9bb9 937d bab7 a03c 2fb9 b364 6039
00000290: 49b0 36b9 3f8f cdb4 6301 2dbc 0173 30b1
000002a0: efe6 e4b9 b995 de38 9043 98b8 a101 89ba
000002b0: 9a02 8839 5126 f7b6 0731 86bc 0378 af38
000002c0: 6fad cab9 f965 343a 9107 d2b8 cca9 7e3a
000002d0: 3fb0 4abd 806c bb37 9b37 79b9 9325 98b7
000002e0: be1a be3a 4483 6d39 22ed 10b6 dae3 2336
000002f0: e790 283e d63c 0a3a 59af bab9 bb8f 0f3a
00000300: c476 75b9 b702 a037 2b07 0d3a 39d0 41b7
00000310: f965 4cb9 f2ae 9fb6 4cb6 f1b8 6283 f639
00000320: a7ee 34b8 1e6b 2a36 3746 43b9 a6ab 093e
00000330: 7c9f 9339 23e5 edb9 738d 3aba 9488 e6b8
00000340: 40dd 3cb8 3ddc f539 23fd c439 db6b 493a
00000350: b57e 75ba acd0 3939 d792 03b9 3edd 4838
00000360: f6ae 2c34 bae7 9b37 9452 bc37 f2ef 51b9
00000370: 1796 0138 022a 5a37 9695 d6b6 78c4 7d38
00000380: 304d 423a 91c2 8a2f 7fba 7f39 9705 d8b9
00000390: ebcc 8739 f4c6 68b5 0ac1 8eb7 d6c0 ec38
000003a0: 4b20 6839 3f84 a43a f043 adb9 cc2f 483a
000003b0: fa9b 3e38 7266 5b3d b97a 3ab9 d3c7 21ba
000003c0: 0917 2139 cfa4 0039 c707 1939 81a5 74ba
000003d0: 190c ac38 b8e8 61b5 2bac f138 69d6 103d
000003e0: 0e72 7838 8ea1 4138 ebbf 9039 30ff ddb8
000003f0: 0ea2 6bb8 4d09 09b6 44e9 3039 b12c 0239

tabnet.initial_splitter.shared.shared_layers.1.weight f4 [96, 48]
0.14914759 -0.031178372 -5.9510023e-07 0.046533316 0.012026505 -0.05104291 -0.016606942 -0.059419442
-0.08721119 0.014849409 0.014737098 -0.010754596 -0.018540757 -2.9369557e-10 0.017698545 -0.033842817
0.018436005 -0.006641647 -0.017746583 -0.018483642 0.017710054 0.07451093 -0.03630014 -0.005093544
0.00035083483 3.7879523e-05 -1.0596683e-05 6.1650855e-05 -2.0266973e-05 0.00010751443 0.00044803577 -5.486178e-06
2.6201727e-05 4.7938487e-05 -1.982394e-06 -0.00022872744 -1.4695313e-05 -3.8861253e-05 -8.923672e-08 5.0314047e-05
5.7499168e-05 -7.2658075e-08 2.0969903e-05 -5.9415655e-05 6.47914e-06 -0.00012981758 1.9200796e-05 4.053338e-05
-0.033646632 0.34458658 -1.519888e-06 0.0037483287 0.003476779 -0.02014136 -0.024499808 -0.010502998
-0.035870016 0.024043597 -0.015297606 -0.022227602 -0.0034312175 -1.3838111e-10 -0.023650097 -0.039616242
-0.01980632 0.0018004675 0.002959218 0.0009677582 0.021454684 0.027504684 0.011596941 0.04188377
-0.00044207353 0.00025295158 -2.512262e-06 -0.00016200724 0.00012642446 -0.0002257667 -0.00019862191 -0.00011470402
0.0005708297 -2.1580687e-05 1.1185107e-06 0.0004250755 -8.527046e-07 8.744835e-05 4.4088705e-05 2.6808424e-05
1.7428296e-05 1.4270254e-06 9.646268e-05 0.00040704364 -8.274798e-06 0.00020995163 6.5683766e-05 3.4928104e-05
0.00029324196 0.00013783453 3.6157138e-07 0.001445827 -0.004542105 0.00087747496 -0.0011442456 0.0011445326
0.0017108002 0.0016250584 0.0006295476 -0.0021180967 0.0010184404 2.521287e-12 0.0009960623 0.0016170335
0.001179679 -0.0004400203 0.00022881919 -0.00525657 0.0024173444 0.002391991 -1.590456e-05 -0.0019901118
-3.5900146e-06 -2.4172152e-06 2.7980926e-07 -1.8022458e-06 2.664769e-06 -1.8761111e-06 -4.730162e-06 -6.637347e-07
-7.860555e-06 6.408414e-07 -2.5681027e-08 1.5328831e-06 1.8557475e-06 -8.8509444e-07 -3.5447948e-07 4.6725013e-06
-1.9770093e-06 8.1942325e-08 -2.9484875e-06 -3.1329498e-06 4.7303064e-07 1.4444291e-06 6.582586e-07 -2.493647e-06
0.02088886 0.00042599265 1.031483e-06 0.118892975 -0.008583246 0.028327785 -0.028851066 -0.001373431
0.0017910514 0.015592896 0.022919565 0.019893782 0.020447133 3.1999603e-10 0.020555204 0.0010773403
0.0035102938 0.010071662 -0.015282509 0.0022026591 0.032078244 0.01764496 -0.016809594 0.018683475
-3.3985034e-05 5.8144167e-05 7.451004e-08 -2.5390525e-05 -4.283716e-06 1.3394544e-05 -6.54995e-07 7.11001e-05
-0.00020619475 3.0915448e-06 7.211692e-08 0.00019178732 -8.751802e-05 -2.6665746e-06 -1.0596856e-05 4.7631333e-05
3.468676e-05 7.9158644e-07 -9.055583e-05 -0.00020883075 -3.0611332e-06 1.4655636e-05 2.8068056e-05 6.6287004e-07
0.03418073 0.01568932 -5.1026777e-06 0.020306185 0.30785403 -0.03409994 0.032351203 -0.048804685
0.025259452 -0.024075788 0.03212201 -0.012431682 -0.012797684 9.269252e-08 0.013311167 -0.026705585
-0.020710101 -0.0059046405 -0.0083252955 -0.08391046 -0.028053757 -0.09861354 -0.03386852 -0.06289596
-0.0017910808 0.006933378 0.0036666035 0.0072013233 0.0055021006 -0.0054815323 -0.0154096065 -0.015141996
-0.0026707759 -0.0044162455 0.001358839 -0.015972441 0.004990356 0.004588429 0.0021689013 -0.0020694716
0.010959674 0.00064370205 -0.0037866437 0.0031226615 -0.0037025025 0.010304449 -0.0066503035 -0.008080115
-0.01757618 -0.058549833 3.0363963e-06 0.00852362 0.033188198 0.32334024 -0.043859247 0.021377685
-0.060604766 -0.015581946 -0.06651776 -0.0030600538 -0.021766456 4.1367418e-10 0.002293224 -0.042940523
00000000: 25ba 183e c969 ffbc fabe 1fb5 b899 3e3d
00000010: d10a 453c 5f12 51bd 480b 88bc cd61 73bd
00000020: c89b b2bd f04a 733c de73 713c 0c34 30bc
00000030: c9e2 97bc fa75 a1af 8afc 903c c49e 0abd
00000040: 1b07 973c 2ca2 d9bb 4861 91bc 026b 97bc
00000050: ad14 913c 3099 983d 75af 14bd bee7 a6bb
00000060: 41f0 b739 d4e0 1e38 68c8 31b7 8d4a 8138
00000070: fe02 aab7 5f79 e138 58e6 ea39 e915 b8b6
00000080: c8cb db37 8f11 4938 4509 05b6 8ed6 6fb9
00000090: e48b 76b7 f4fe 22b8 68a2 bfb3 4c08 5338
000000a0: 432b 7138 3308 9cb3 86e8 af37 1335 79b8
000000b0: 6467 d936 a41f 08b9 6511 a137 6302 2a38
000000c0: 0dd1 09bd a76d b03e f4fe cbb5 85a6 753b
000000d0: acda 633b 7eff a4bc d2b3 c8bc c414 2cbc
000000e0: 70ec 12bd 14f7 c43c cfa2 7abc a916 b6bc
000000f0: 47de 60bb d226 18af d9bd c1bc a444 22bd
00000100: dd40 a2bc aafd eb3a 71ef 413b 27b1 7d3a
00000110: bcc1 af3c 8151 e13c 1901 3e3c 518e 2b3d
00000120: 1bc6 e7b9 969e 8439 5598 28b6 7de0 29b9
00000130: cf90 0439 c9bb 6cb9 2a45 50b9 408d f0b8
00000140: bca3 153a 2c08 b5b7 bc1f 9635 abdc de39
00000150: 6ae5 64b5 7a64 b738 e3eb 3838 a7e2 e037
00000160: fb32 9237 3888 bf35 024c ca38 7968 d539
00000170: fdd3 0ab7 7626 5c39 b4bf 8938 c47f 1238
00000180: 45be 9939 ad87 1039 fe1d c234 e781 bd3a
00000190: f0d5 94bb 5906 663a 83fa 95ba 2404 963a
000001a0: ee3c e03a e9ff d43a 3908 253a c4cf 0abb
000001b0: 307d 853a 786b 312c 4e8e 823a a4f2 d33a
000001c0: 759f 9a3a 86b2 e6b9 2fef 6f39 4e3f acbb
000001d0: 4f6c 1e3b f3c2 1c3b c86a 85b7 896c 02bb
000001e0: fbeb 70b6 7137 22b6 b138 9634 b2e4 f1b5
000001f0: 62d4 3236 b0ce fbb5 c8b7 9eb6 802b 32b5
00000200: d4e0 03b7 4906 2c35 2d99 dcb2 76bd cd35
00000210: 0013 f935 3a97 6db5 4a4f beb4 7bc8 9c36
00000220: c3ac 04b6 45f8 af33 a1de 45b6 ab3f 52b6
00000230: d6f4 fd34 35de c135 30b3 3035 8758 27b6
00000240: 1d1f ab3c c457 df39 7c71 8a35 297e f33d
00000250: bea0 0cbc ac0f e83c 1259 ecbc b204 b4ba
00000260: b6c1 ea3a 5979 7f3c d0c1 bb3c 49f8 a23c
00000270: bf80 a73c 70eb af2f 6363 a83c 8b35 8d3a
00000280: f50c 663b 9d03 253c 7d63 7abc 7d5a 103b
00000290: 7a64 033d 2a8c 903c 46b4 89bc 160e 993c
000002a0: 278b 0eb8 d3df 7338 5402 a033 bdfd d4b7
000002b0: d7bc 8fb6 21b9 6037 ead2 2fb5 931b 9538
000002c0: fb35 58b9 5678 4f36 b2de 9a33 841a 4939
000002d0: e189 b7b8 67f3 32b6 26c9 31b7 c1c7 4738
000002e0: a07c 1138 687d 5435 cbe8 bdb8 94f9 5ab9
000002f0: de6d 4db6 7ae1 7537 b173 eb37 15f0 3135
00000300: 1801 0c3d e486 803c ab37 abb6 2859 a63c
00000310: 0b9f 9d3e 61ac 0bbd b282 043d 6ce7 47bd
00000320: e9ec ce3c 963a c5bc 5e92 033d 41ae 4bbc
00000330: 61ad 51bc 400e c733 1517 5a3c acc5 dabc
00000340: 3ba8 a9bc b77b c1bb d266 08bc 3fd9 abbd
00000350: fed0 e5bc e5f5 c9bd b8b9 0abd 99cf 80bd
00000360: b3c2 eaba 6431 e33b 664b 703b 14f9 eb3b
00000370: f74a b43b 6d9e b3bb 9378 7cbc 2216 78bc
00000380: 2f08 2fbb 27b6 90bb 121b b23a a3d8 82bc
00000390: 2486 a33b 885a 963b 2024 0e3b f99f 07bb
000003a0: 3490 333c 1dbe 283a 5729 78bb 91a5 4c3b
000003b0: afa5 72bb fed3 283c caea d9bb 7562 04bc
000003c0: ecfb 8fbc f3d1 6fbd e4c4 4b36 a7a6 0b3c
000003d0: 59f0 073d da8c a53e c1a5 33bd 4120 af3c
000003e0: b43c 78bd 6b4b 7fbc 773a 88bd 2f8b 48bb
000003f0: 914f b2bc 776b e32f ea49 163b 67e2 2fbd

tabnet.initial_splitter.shared.glu_layers.0.fc.weight f4 [96, 1038]
8.363648e-21 -8.134449e-05 -6.2454856e-06 -2.4730807e-05 -7.9477366e-05 -0.041531537 -4.317408e-05 4.0527107e-06
4.411365e-06 -4.7112604e-05 0.006944497 -4.6105674e-06 5.819174e-07 0.00010306304 -0.000120176526 -0.0012055525
0.00014940444 -0.00047632414 -0.00021690321 -7.718795e-09 -3.8370035e-05 -0.0003728379 -8.5535896e-05 3.5611706e-07
-0.0003530925 -3.694784e-05 0.00013649411 -0.03452863 0.00027445162 0.0003759736 0.00039310375 -0.0002785903
0.00034053114 -0.054940533 -5.541184e-06 0.00032142605 -0.00055953267 -6.595215e-06 -0.16451912 -1.6475335e-05
-2.0219997e-05 0.00034381045 -0.0832621 -0.00036614633 -0.00041621758 0.00029816516 -2.580064e-05 0.00059145305
0.00036297576 7.010483e-05 0.0010397563 -0.00028202176 2.2916852e-11 -0.00033482118 -0.00035390648 -0.00019661152
3.7417238e-05 -0.0001693104 0.0001075904 0.019081386 5.4407126e-05 2.3436134e-05 -0.0004052594 -0.00024218122
-0.00067286455 -0.00023391095 -2.9777204e-06 3.6327157e-05 -2.1608653e-08 -0.00010869983 0.0003128473 0.0007220081
5.202788e-05 -0.00017127207 8.36392e-05 -2.1225956e-06 8.215749e-06 0.018264143 -2.0908793e-08 0.00015836397
-0.00019121815 -7.919635e-06 -1.6232261e-06 0.00095470843 0.00042036033 -2.5686759e-05 0.00033573437 -0.0005963933
0.2339119 2.5305948e-05 0.0006088134 -0.00012179416 -0.12177007 -0.0001115261 0.00025734445 0.017683366
0.00018435679 2.5262992e-05 -0.0003072619 3.3856573e-09 -0.00028016977 -0.00021495884 7.421149e-05 4.4347653e-05
-0.00017592295 -0.0007661559 -4.30012e-05 0.00076352083 0.00041196105 -0.00031525 2.2534516e-05 6.3438994e-05
5.0579616e-05 -0.069536746 -6.907404e-05 0.00016563015 -0.00015875025 8.643468e-06 -0.0003603526 0.00013633436
0.0005062437 -4.9649498e-06 -0.00030924246 6.4805804e-06 -0.00019677644 -1.835772e-05 0.00017254338 -0.00025652265
2.0845516e-13 -0.07095885 -0.00041921067 0.014121187 0.00020438539 0.00031982138 -0.0001465126 -2.0725502e-05
-5.779409e-05 4.2860025e-05 0.000120857374 0.0005546655 0.00057576026 -0.028705701 5.37301e-07 0.00015882024
-0.0025773018 4.3285407e-05 -0.00013244942 -6.294966e-05 6.0477956e-05 0.11191107 0.000101796766 0.0008734528
-1.0907663e-05 -0.00019152033 -0.00025027167 -0.00013465503 -0.00021439235 3.8115186e-07 -0.10638124 0.0104450425
-0.00029607207 -2.2231403e-05 -0.00016711885 0.00021399818 -0.00017422544 -3.828845e-07 -0.010559413 -2.5676743e-09
-0.00043659608 0.00010613673 -7.260509e-05 -0.0010452756 0.0002594188 -7.3656342e-06 -0.0163808 8.367004e-05
-0.0003865766 0.000688165 -0.0001001499 0.0009714633 -0.049484488 2.2342661e-05 -0.00023767205 -1.8137309e-05
0.0014503819 0.00022650982 -2.1595702e-06 2.442152e-06 0.16461526 0.00052733475 -0.0003560733 0.00054764346
-0.00023409264 1.907475e-05 0.0005379791 -1.1552177e-05 -0.00019492944 -4.7589356e-06 -0.00011525731 0.00047018664
-4.3137607e-05 2.5394324e-06 -0.00018622806 0.13444385 0.0002815685 -0.00045374883 -0.00071164145 -0.00010992694
-4.5028748e-05 0.00046894132 0.00037572635 0.0007683613 -0.0009364889 0.00017720711 -0.00012547836 4.7889764e-05
1.6082399e-07 1.8585346e-05 2.24498e-05 -0.0002002118 3.089578e-05 1.3003593e-05 -6.395111e-06 6.0502876e-05
0.00074120145 2.5240302e-10 0.0002438817 -0.00041202895 0.00025901882 -8.671625e-07 -1.701761e-05 0.000112892754
0.00022137274 0.001255162 -0.0003304775 0.0007636517 4.5444795e-05 0.053564496 -0.0001778406 -0.0006171439
0.00015362738 0.00012268427 0.00014594114 -0.00093325233 8.2038525e-05 -8.415768e-07 0.00011523844 0.035360727
5.923403e-05 4.6165245e-05 0.0002760881 -0.000105856336 -5.617929e-05 -2.0420005e-06 0.00016871566 0.00012414415
00000000: 1ffc 1d1e 7e97 aab8 5090 d1b6 0175 cfb7
00000010: 16ad a6b8 f91c 2abd d115 35b8 85fc 8736
00000020: 5605 9436 c69a 45b8 aa8e e33b 79b4 9ab6
00000030: 0f35 1c35 8c23 d838 4807 fcb8 a103 9eba
00000040: 73a9 1c39 25bb f9b9 8370 63b9 9f9b 04b2
00000050: 83ef 20b8 7579 c3b9 bc61 b3b8 5b30 bf34
00000060: 461f b9b9 71f8 1ab8 dc1f 0f39 e56d 0dbd
00000070: 46e4 8f39 531e c539 7e19 ce39 c20f 92b9
00000080: 5189 b239 5309 61bd 68ee b9b6 1385 a839
00000090: 9aad 12ba 774c ddb6 b377 28be 8334 8ab7
000000a0: 1d9e a9b7 7541 b439 5285 aabd 54f7 bfb9
000000b0: c737 dab9 0d53 9c39 746e d8b7 be0b 1b3a
000000c0: c84d be39 3e05 9338 6f48 883a 52dc 93b9
000000d0: 2a94 c92d f08a afb9 868c b9b9 8129 4eb9
000000e0: 74f0 1c38 ea88 31b9 28a2 e138 9150 9c3c
000000f0: 3533 6438 b798 c437 ff78 d4b9 07f2 7db9
00000100: 2d63 30ba fe45 75b9 d9d4 47b6 fd5d 1838
00000110: ee9d b9b2 c7f5 e3b8 a705 a439 2545 3d3a
00000120: 8338 5a38 7f97 33b9 7467 af38 ea71 0eb6
00000130: 60d6 0937 af9e 953c ec9a b3b2 810e 2639
00000140: bb81 48b9 93de 04b7 a0dd d9b5 6645 7a3a
00000150: cf63 dc39 e579 d7b7 8105 b039 4757 1cba
00000160: 9a86 6f3e 1c48 d437 c798 1f3a be6b ffb8
00000170: 9662 f9bd 1ee3 e9b8 30ec 8639 b5dc 903c
00000180: e64f 4139 ddeb d337 fe17 a1b9 1da9 6831
00000190: c0e3 92b9 9366 61b9 fea1 9b38 ee01 3a38
000001a0: f577 38b9 dad7 48ba 305c 34b8 0427 483a
000001b0: 7afc d739 2448 a5b9 8108 bd37 8d0a 8538
000001c0: 7325 5438 4869 8ebd d8db 90b8 01ad 2d39
000001d0: 3276 26b9 6a03 1137 b5ed bcb9 faf4 0e39
000001e0: 71b5 043a 9898 a6b6 d221 a2b9 c373 d936
000001f0: c655 4eb9 e7fe 99b7 c3ec 3439 e37d 86b9
00000200: 1cb3 6a2a e052 91bd 81c9 dbb9 8d5c 673c
00000210: 4950 5639 b3ad a739 2da1 19b9 addb adb7
00000220: ee67 72b8 9ac4 3338 cf74 fd38 f966 113a
00000230: 9eee 163a 3828 ebbc 0b3b 1035 fc88 2639
00000240: f3e7 28bb 5a8d 3538 1fe2 0ab9 d703 84b8
00000250: b6a9 7d38 a231 e53d b97b d538 6df8 643a
00000260: 0e00 37b7 d9d2 48b9 e536 83b9 2f32 0db9
00000270: 82ce 60b9 1da1 cc34 68de d9bd af21 2b3c
00000280: 1f3a 9bb9 937d bab7 a03c 2fb9 b364 6039
00000290: 49b0 36b9 3f8f cdb4 6301 2dbc 0173 30b1
000002a0: efe6 e4b9 b995 de38 9043 98b8 a101 89ba
000002b0: 9a02 8839 5126 f7b6 0731 86bc 0378 af38
000002c0: 6fad cab9 f965 343a 9107 d2b8 cca9 7e3a
000002d0: 3fb0 4abd 806c bb37 9b37 79b9 9325 98b7
000002e0: be1a be3a 4483 6d39 22ed 10b6 dae3 2336
000002f0: e790 283e d63c 0a3a 59af bab9 bb8f 0f3a
00000300: c476 75b9 b702 a037 2b07 0d3a 39d0 41b7
00000310: f965 4cb9 f2ae 9fb6 4cb6 f1b8 6283 f639
00000320: a7ee 34b8 1e6b 2a36 3746 43b9 a6ab 093e
00000330: 7c9f 9339 23e5 edb9 738d 3aba 9488 e6b8
00000340: 40dd 3cb8 3ddc f539 23fd c439 db6b 493a
00000350: b57e 75ba acd0 3939 d792 03b9 3edd 4838
00000360: f6ae 2c34 bae7 9b37 9452 bc37 f2ef 51b9
00000370: 1796 0138 022a 5a37 9695 d6b6 78c4 7d38
00000380: 304d 423a 91c2 8a2f 7fba 7f39 9705 d8b9
00000390: ebcc 8739 f4c6 68b5 0ac1 8eb7 d6c0 ec38
000003a0: 4b20 6839 3f84 a43a f043 adb9 cc2f 483a
000003b0: fa9b 3e38 7266 5b3d b97a 3ab9 d3c7 21ba
000003c0: 0917 2139 cfa4 0039 c707 1939 81a5 74ba
000003d0: 190c ac38 b8e8 61b5 2bac f138 69d6 103d
000003e0: 0e72 7838 8ea1 4138 ebbf 9039 30ff ddb8
000003f0: 0ea2 6bb8 4d09 09b6 44e9 3039 b12c 0239

tabnet.initial_splitter.shared.glu_layers.0.bn.bn.weight f4 [96]
0.006428396 -0.0026627267 0.00050157635 -0.00041610128 0.52005494 -0.015012243 -0.013599123 0.37672532
0.0033249299 -0.02170645 -0.0033154406 0.0013529662 0.001610693 0.00033316956 0.022690725 0.057763584
0.001885317 0.6046649 0.00845527 0.004314408 -0.009265879 -0.022856034 0.0018498988 0.9241746
0.5006848 0.41781926 -0.024823004 0.34505624 0.40361407 0.33481896 0.44799638 0.38271692
0.5654088 0.43911335 0.009776161 0.5516422 0.35546866 0.43986708 0.46653646 0.39104906
0.34200758 0.005123732 0.1855162 0.49104792 0.028563822 0.29183105 0.4141305 0.33712304
4.00504e-05 3.4353387e-05 6.886839e-13 4.6282807e-06 0.08830763 0.000100928526 8.694822e-05 0.05167545
-3.732127e-06 -2.0182142e-05 4.8752914e-05 -2.7596938e-05 -4.0084433e-07 -8.988783e-26 -1.9197278e-05 0.0014283058
1.2953553e-06 0.1858214 1.23530845e-05 2.4575773e-05 -0.00016602525 -0.00028202115 -4.452892e-05 0.4932277
0.26884142 0.0844931 0.031386826 0.16922517 0.5449984 0.11605184 -0.13127862 0.057707507
0.55548036 0.5514387 0.0009763572 0.39493814 -0.23760766 -0.060088176 0.42662367 0.2590191
0.36221752 -0.03234642 0.036151495 0.04431761 -0.006687772 0.07702775 -0.034185287 0.18916848
00000000: 4ba5 d23b 2481 2ebb 387c 033a 2b28 dab9
00000010: 5222 053f e9f5 75bc dbce 5ebc 24e2 c03e
00000020: 11e7 593b bad1 b1bc dd47 59bb 0356 b13a
00000030: e41d d33a 43ad ae39 e6e1 b93c 8299 6c3d
00000040: be1c f73a 52cb 1a3f f987 0a3c e15f 8d3b
00000050: eacf 17bc 943c bbbc 4e78 f23a b596 6c3f
00000060: e12c 003f 68ec d53e 9d59 cbbc 36ab b03e
00000070: 81a6 ce3e 646d ab3e c85f e53e 79f3 c33e
00000080: a2be 103f 77d3 e03e 312c 203c 6c38 0d3f
00000090: fdff b53e 4236 e13e dedd ee3e 9537 c83e
000000a0: 9e1b af3e fbe4 a73b f5f7 3d3e a26a fb3e
000000b0: adfe e93c e16a 953e ea08 d43e 649b ac3e
000000c0: cafb 2738 ab16 1038 e8d8 412b a14c 9b36
000000d0: a1da b43d 97a9 d338 f857 b638 a3a9 533d
000000e0: 7475 7ab6 d24c a9b7 0b7c 4c38 f97f e7b7
000000f0: a033 d7b4 2e8d de95 d709 a1b7 fd35 bb3a
00000100: 12dc ad35 f747 3e3e 1840 4f37 1228 ce37
00000110: 1017 2eb9 3ddc 93b9 90c4 3ab8 5788 fc3e
00000120: 95a5 893e b80a ad3d 798f 003d 5d49 2d3e
00000130: 0485 0b3f 96ac ed3d e76d 06be b55e 6c3d
00000140: f633 0e3f 162b 0d3f 39f2 7f3a 5535 ca3e
00000150: 6c4f 73be 051f 76bd 6b6e da3e 279e 843e
00000160: 9374 b93e ae7d 04bd 9713 143d 6286 353d
00000170: 1925 dbbb bac0 9d3d df05 0cbd 62b5 413e
