cv_steps/tabnet_raw_step1_fold2_0/network.pt (torch, 682379 bytes, 56 tensors)

embedder.embeddings.0.weight f4 [3, 1]
0	0xbd1dce71	-0.038526956
1	0xbe291f2f	-0.16515802
2	0x3e699342	0.2281008

embedder.embeddings.1.weight f4 [2, 1]
0	0x3e083aa9	0.13303627
1	0xbe0836e4	-0.13302189

tabnet.initial_bn.weight f4 [1038]
0	0x3e2c9b78	0.16856182
1	0xbe218f39	-0.15777291
2	0xbd19bf79	-0.03753612
3	0x3c2ff23f	0.010738908
4	0xbc31b3cc	-0.01084609
5	0x3e398b8b	0.18119638
6	0xba168eb4	-0.00057433103
7	0x3d7788f8	0.060433358
8	0x3e322e99	0.17400588
9	0x3d03b020	0.032150388
10	0x3e86f85c	0.26361358
11	0xba70c70a	-0.00091849326
12	0x3ccd129a	0.025033284
13	0x3dc4086a	0.09571917
14	0x3c6762bf	0.014122664
15	0x3d676e8b	0.056501906
16	0x3df94693	0.12171664
17	0x3dc88be1	0.09792305
18	0x3a93a9db	0.0011265831
19	0x3e6dfc18	0.23240697
20	0x3c8a68a5	0.016895602
21	0x3e20bd47	0.15697204
22	0x3e90a1cd	0.28248444
23	0x3dba488a	0.09095867
24	0x3e692d7d	0.22771259
25	0x3e288772	0.16457918
26	0x3decfe28	0.11571914
27	0x3db2f01d	0.08737204
28	0x3e18c207	0.14917766
29	0x3e02e609	0.12783064
30	0x3e64abc4	0.22331148
31	0x3e80151c	0.25016105
32	0x3e86110f	0.2618489
33	0x3df59f7b	0.11993309
34	0x3da5e76d	0.081007816
35	0x3e349e22	0.17638448
36	0x3e78b3f5	0.24287398
37	0xbb9f37a0	-0.004858926
38	0x3e40c99d	0.1882691
39	0x3e799c91	0.24376132
40	0x3c7933f1	0.015210138
41	0x3e4b3c05	0.19847114
42	0x3b9c11f7	0.0047628838
43	0x3d8a76c3	0.06760933
44	0x3e009b2e	0.12559196
45	0xb8e052c6	-0.0001069657
46	0x3e19cfc5	0.15020664
47	0x3d8d5e67	0.069027714
48	0x36c376d7	5.8252876e-06
49	0x3e3e94ca	0.18611446
50	0x3e65596d	0.22397394
51	0x367e418e	3.7887107e-06
52	0x3586920d	1.0026284e-06
53	0x3e77cbaa	0.24198785
54	0x3dbb122a	0.09134324
55	0x3d1d768a	0.038443126
56	0x3debb008	0.11508185
57	0xba4a3cb2	-0.0007714733
58	0x3db2b19b	0.08725282
59	0x3e20d515	0.15706284
60	0x3e6cab56	0.23112234
61	0x36714407	3.5951396e-06
62	0x3e798956	0.24368796
63	0xb6068a90	-2.004821e-06
64	0x3e703611	0.23458125
65	0x3e52e84d	0.20596428
66	0xb8b0e432	-8.434839e-05
67	0x3e434d79	0.19072522
68	0x3e0a749b	0.13521044
69	0x3c4410c8	0.011966892
70	0x3df2bf6e	0.118529186
71	0x3da955e7	0.08268338
72	0x3d5fd251	0.054643933
73	0x3d8084df	0.06275343
74	0x3512f491	5.474513e-07
75	0xbc6d2cd5	-0.014476021
76	0x3d22e310	0.039767325
77	0x3ebf7289	0.3739207
78	0x3bacc8fb	0.005272982
79	0x3daff529	0.085916825
80	0x3da61e02	0.08111192
81	0xbbfab6e0	-0.007651195
82	0x371611b1	8.944816e-06
83	0x3e04d20b	0.1297075
84	0xbcaeb5f1	-0.02132699
85	0x3d80e478	0.06293577
86	0x3d9a1d18	0.075250804
87	0x3e1a583c	0.15072721
88	0x3dccc5a8	0.099986374
89	0x3af07cec	0.0018347776
90	0x3dec7ff4	0.115478426
91	0x3d7f538c	0.062335536
92	0x3e54aea0	0.20769739
93	0x3e6686aa	0.22512308
94	0x3e2fad02	0.17155841
95	0x3dd52f39	0.10409398
96	0x3e302fb8	0.17205703
97	0x3dd22973	0.10261812
98	0x3a1e229e	0.000603238
99	0x36abc8b7	5.1195634e-06
100	0x3db673e1	0.08908821
101	0x3dd12668	0.102124035
102	0x3e695493	0.22786169
103	0x3d1825f6	0.037145577
104	0x3e0878ef	0.13327383
105	0x3e6ad496	0.22932658
106	0x3da7d825	0.08195523
107	0x3d87a5ca	0.06623419
108	0x3be2d182	0.006921948
109	0x3b6feaf1	0.0036608542
110	0x3def3701	0.11680413
111	0x3df164ea	0.11786826
112	0xbb64cc22	-0.0034911712
113	0x3c19c64e	0.009385658
114	0x3baa0154	0.0051881466
115	0x3dc8074e	0.09767018
116	0x3e13c3b8	0.1443013
117	0x3d46d8f4	0.048546746
118	0x3e57ef0b	0.21087281
119	0x3e588508	0.21144497
120	0x3e4b12ae	0.19831344
121	0x3bcee204	0.0063135643
122	0x3e2d6844	0.16934305
123	0x3c6019cf	0.013678028
124	0x3e7db22d	0.24775
125	0x3e3c82d8	0.18409288
126	0x3e8aa46c	0.2707857
127	0x3e4362b2	0.19080618
128	0x3d06dfda	0.032928325
129	0x3dea4aa4	0.11440018
130	0x3e520c02	0.20512393
131	0x3e018774	0.12649328
132	0x3e42b0cf	0.1901276
133	0x3df6a70d	0.12043581
134	0x3df4408e	0.11926375
135	0x3e3779c1	0.17917539
136	0x3de7d345	0.11319593
137	0x3e16a977	0.14713083
138	0x3e0204a0	0.12697077
139	0x3e063e0e	0.1310961
140	0x3e3fc644	0.18727976
141	0x3e22d952	0.15903214
142	0x3cdaec5e	0.026724037
143	0x3e006d1c	0.12541622
144	0x3c7fec31	0.015620277
145	0x3e05d07d	0.13067813
146	0x3e37a6d6	0.17934737
147	0x3b8a9248	0.004228864
148	0x3dd75100	0.105134964
149	0x3ddff631	0.10935629
150	0x3e40a3c0	0.18812466
151	0x3e38c1d0	0.18042684
152	0x3b6fe6bb	0.0036606032
153	0x3e308c12	0.17240933
154	0x3e5a9b7c	0.21348375
155	0x3d3725ca	0.044713773
156	0x3c536692	0.012902873
157	0xb8a018dd	-7.634026e-05
158	0x3db7e3de	0.08979009
159	0x3eb93bb1	0.36178353
160	0x3e822c95	0.25424638
161	0x3de382ac	0.11108908
162	0x3e347b95	0.17625268
163	0x3a378a85	0.0007001537
164	0x3e3868f1	0.18008782
165	0xb2b4bc87	-2.104049e-08
166	0x3df114df	0.11771559
167	0xb9d670d0	-0.00040901313
168	0x3e8b389f	0.27191636
169	0x3e52817e	0.2055721
170	0xb89ee12d	-7.575969e-05
171	0x3e2903c8	0.16505349
172	0x3daf1b2e	0.08550106
173	0xb9a7576c	-0.00031917857
174	0x3e01e5aa	0.12685266
175	0x3e84bba8	0.2592442
176	0x3db3aa9f	0.08772778
177	0x3eaeefd6	0.34167355
178	0x3dbb4cd9	0.09145517
179	0x3e2e0b24	0.16996437
180	0x3e9ce2c5	0.3064176
181	0x3e334833	0.1750801
182	0x3e29e171	0.16589905
183	0x3e27f6eb	0.16402785
184	0x3a06a809	0.00051367335
185	0x3e1c301e	0.1525273
186	0xbacc5851	-0.0015590285
187	0x3e03c9f8	0.12870014
188	0x3d0a19bf	0.03371596
189	0x3d7f7719	0.06236944
190	0x3dbd0ce6	0.09230976
191	0x3e310078	0.17285335
192	0x3dbf3fcd	0.09338341
193	0xbdde0d61	-0.108423956
194	0x3e14720f	0.14496635
195	0x3da63a61	0.08116604
196	0x3d3a4256	0.04547342
197	0x3dba5e6d	0.091000415
198	0x33d5ddff	9.958966e-08
199	0x3e34ac45	0.1764384
200	0x3e0475d4	0.12935573
201	0x3d025160	0.031815886
202	0x3e029ded	0.12755556
203	0x3e22d1e2	0.15900376
204	0x3e895239	0.26820543
205	0x3e9193e9	0.2843316
206	0x3d0ae0ae	0.033905677
207	0x3e7978c9	0.24362482
208	0x3e112cdc	0.14177269
209	0x3e5f4434	0.21803361
210	0x3e5234b4	0.20527917
211	0x3e2c1133	0.16803436
212	0x3e0da720	0.13833284
213	0x3aefbac7	0.0018289917
214	0xbcea276a	-0.028583247
215	0x3dc91401	0.098182686
216	0x3dc97ce2	0.09838273
217	0x3e139804	0.14413458
218	0x3d1c225c	0.038118705
219	0x3e3797fb	0.1792907
220	0x3e056133	0.1302536
221	0x3e18a25f	0.1490569
222	0xbc1119fa	-0.008856291
223	0x3e5b6c46	0.21428022
224	0x3e068091	0.13134982
225	0x3e0b21d0	0.13587117
226	0x3ba0011e	0.0048829457
227	0x3e1a40c2	0.15063766
228	0x3df03898	0.117295444
229	0x3be18c6c	0.0068831947
230	0x35d68767	1.598365e-06
231	0x3d94e7b9	0.0727076
232	0x3d232b90	0.039836466
233	0x3e608af5	0.21928008
234	0x3d3177d7	0.04332718
235	0x3e46013a	0.19336405
236	0x3e280d3a	0.16411296
237	0x3e5c7337	0.21528326
238	0x3b51f2e0	0.0032035634
239	0x3e37c555	0.1794637
240	0xba528c3a	-0.00080317596
241	0x3e522efc	0.20525736
242	0x3e25a7fe	0.16177365
243	0x3e7725ab	0.24135463
244	0x3e661907	0.22470485
245	0xb951aaf7	-0.00019995483
246	0x3d1958db	0.037438255
247	0xbb0c6d64	-0.0021427507
248	0x3dab2ff3	0.08358755
249	0x3df5e4ea	0.120065525
250	0x3d1a6d3a	0.037701823
251	0x3dd762c4	0.10516885
252	0x3d221ba7	0.039577153
253	0x37fdb480	3.0244002e-05
254	0x392e25ac	0.00016607967
255	0x3c524227	0.012833155

tabnet.initial_bn.bias f4 [1038]
0	0xb9221252	-0.00015456349
1	0x37a8e70d	2.0134752e-05
2	0x385d0de0	5.2703428e-05
3	0x35eff199	1.7877202e-06
4	0x3882530e	6.214353e-05
5	0x394575bd	0.00018831245
6	0x36012cd6	1.9248596e-06
7	0x388c6c82	6.6959314e-05
8	0xb77b8bbc	-1.49933e-05
9	0x38b2d6cf	8.5277126e-05
10	0xbdb127c4	-0.08650163
11	0x38175760	3.608258e-05
12	0xb71646da	-8.957193e-06
13	0x39147ee7	0.00014161655
14	0xb7665a5f	-1.37301095e-05
15	0x38ec5420	0.000112690264
16	0x3957f326	0.00020594578
17	0xb8993f2c	-7.307375e-05
18	0xb76f056c	-1.42467725e-05
19	0xbda1218b	-0.07867726
20	0x393a59a9	0.00017771743
21	0x3974ac63	0.00023333872
22	0xb874abf5	-5.833428e-05
23	0x393a37e4	0.00017759163
24	0xba052848	-0.000507955
25	0xb9117ac7	-0.00013874016
26	0x39e394e9	0.0004340776
27	0xb8bf07f8	-9.109074e-05
28	0xba4b8fae	-0.00077652454
29	0xb978dd6d	-0.0002373361
30	0x376c46aa	1.4083149e-05
31	0xbdb81b05	-0.089895286
32	0x3899c5f5	7.332481e-05
33	0xb94dce57	-0.00019627191
34	0xb89b2364	-7.397568e-05
35	0x39c86322	0.00038220832
36	0x390676f9	0.00012823557
37	0xb648c74b	-2.9918326e-06
38	0x3a8e125e	0.0010839214
39	0x394d6213	0.00019586859
40	0xba0be7e0	-0.0005336981
41	0xb9d60a7a	-0.00040825066
42	0x350b52a6	5.1901804e-07
43	0xb7024c64	-7.76639e-06
44	0xba061581	-0.00051148987
45	0xb4480bfe	-1.8630814e-07
46	0x38db9557	0.000104705505
47	0x38c96f84	9.605198e-05
48	0x30d6c912	1.5627697e-09
49	0x39fffbdc	0.0004882504
50	0xb8cb5ff9	-9.6976706e-05
51	0xb2a3bded	-1.9062066e-08
52	0xb04c6665	-7.436028e-10
53	0x385da3d4	5.2843083e-05
54	0x39019fa4	0.0001236187
55	0x39e7243d	0.00044086753
56	0x389b1633	7.395111e-05
57	0x36c9bb51	6.0120733e-06
58	0xb7e0a033	-2.677748e-05
59	0xb7349c0e	-1.076517e-05
60	0x3988fe71	0.00026129515
61	0xb240d223	-1.12236505e-08
62	0xb628d93f	-2.5160405e-06
63	0xb2b5c10c	-2.115896e-08
64	0x392d696f	0.00016537843
65	0xb852fe21	-5.0304578e-05
66	0xb4193ea9	-1.4272031e-07
67	0xb934e96f	-0.00017253098
68	0xbea2f6c9	-0.31828907
69	0x35a173be	1.202912e-06
70	0x3a353c08	0.00069135474
71	0xb7e231ea	-2.6964542e-05
72	0xbe8072a4	-0.25087464
73	0x3f0183e1	0.50591856
74	0x341051d8	1.344082e-07
75	0xb76a5681	-1.3967628e-05
76	0xb6e9d97f	-6.969261e-06
77	0x38b0a68a	8.423354e-05
78	0x3738913c	1.100107e-05
79	0x34be0be1	3.53989e-07
80	0x38ca8fda	9.658905e-05
81	0x370b19d1	8.2910565e-06
82	0xb3dcfc26	-1.0290414e-07
83	0xb8de53ff	-0.000106014304
84	0x37782b79	1.4792074e-05
85	0x3802c34d	3.1176303e-05
86	0x36358f0d	2.7054368e-06
87	0xb94ae7e3	-0.00019350606
88	0x38631d3e	5.414825e-05
89	0x363394cf	2.6759697e-06
90	0xb9e30378	-0.00043299398
91	0xb80ca8fc	-3.353598e-05
92	0xb96724bf	-0.00022043566
93	0xb9408912	-0.0001836161
94	0x3f03df78	0.5151286
95	0x37eea7d4	2.8449962e-05
96	0x376e17c9	1.4191443e-05
97	0xb9a30c3a	-0.00031098892
98	0xb8a231c2	-7.73403e-05
99	0xb293b01c	-1.7193138e-08
100	0x39cacf21	0.00038682765
101	0x3a5fe90a	0.00085415004
102	0x393fb2e1	0.00018281817
103	0x389c13f5	7.442377e-05
104	0xb943c7e3	-0.00018671113
105	0x38364e3c	4.3465043e-05
106	0x3917f52b	0.00014491814
107	0xb82569e0	-3.943767e-05
108	0x37772ea1	1.4733204e-05
109	0x3eb95663	0.3619872
110	0x3961b9ea	0.0002152693
111	0xb8f7758c	-0.000117997726
112	0xb71987d8	-9.151139e-06
113	0x37301823	1.0496037e-05
114	0xb79eec8c	-1.8945218e-05
115	0x3855b0f3	5.0947954e-05
116	0x38ae8490	8.321658e-05
117	0x3947cf2c	0.00019055296
118	0xb9861bc2	-0.00025579153
119	0xb99c534d	-0.00029816703
120	0x383506a4	4.3159947e-05
121	0xb7136a6a	-8.786659e-06
122	0xb8c10acc	-9.204968e-05
123	0xb7ca6758	-2.41284e-05
124	0x399309cc	0.00028045324
125	0xb9643187	-0.00021762225
126	0xb9c52a4f	-0.0003760629
127	0x3af1c364	0.0018445072
128	0xb52ad7d8	-6.364403e-07
129	0xb7e5b31b	-2.738233e-05
130	0x390ae7e8	0.00013247097
131	0xb88f0431	-6.819552e-05
132	0x389b3927	7.4016214e-05
133	0x399008be	0.00027472334
134	0xb8da3f07	-0.0001040679
135	0xb817886e	-3.6128265e-05
136	0x3eb79e71	0.3586307
137	0xb89bde62	-7.432398e-05
138	0xb9c987af	-0.000384388
139	0xb8017070	-3.0860712e-05
140	0x395bec4a	0.00020973492
141	0xb9302744	-0.00016799296
142	0xb87a9695	-5.9744885e-05
143	0x37c07c3d	2.2946037e-05
144	0xb8a257a0	-7.7410834e-05
145	0x3a2fd456	0.0006707361
146	0x389348a3	7.023036e-05
147	0x379288ec	1.7468315e-05
148	0x393dcea6	0.00018101427
149	0xb610343a	-2.1488072e-06
150	0x37825095	1.5534732e-05
151	0x39a2acf2	0.00031027902
152	0xb5e409f0	-1.6990216e-06
153	0x398e1754	0.0002710173
154	0x39a3f9f6	0.00031276018
155	0x391ea50d	0.0001512954
156	0x38b042c6	8.4047715e-05
157	0xb58d22a9	-1.0515406e-06
158	0x3e2660a4	0.16247803
159	0xb8467ef6	-4.732512e-05
160	0xbe1f73af	-0.15571474
161	0x388d630b	6.741852e-05
162	0xb996185a	-0.00028628373
163	0x38c31212	9.3016904e-05
164	0x3ba2d506	0.004969242
165	0x2dc34576	2.219978e-11
166	0xb828d3c9	-4.025156e-05
167	0x318f8221	4.1766417e-09
168	0xb9c083c3	-0.00036719264
169	0xbee0a42a	-0.43875247
170	0xb415e1e6	-1.3958888e-07
171	0x39dbf13f	0.00041950677
172	0x394b71bb	0.00019401957
173	0x37833819	1.564254e-05
174	0xb82777a2	-3.992732e-05
175	0xb93da474	-0.00018085708
176	0x39a161bd	0.00030781134
177	0x3da487fc	0.080337495
178	0x3708605e	8.128669e-06
179	0xba8e2a66	-0.0010846376
180	0xbd312ff2	-0.043258615
181	0x3a364b04	0.0006953927
182	0x39838325	0.00025083977
183	0xb8e61d3b	-0.00010972699
184	0x374b446d	1.21156745e-05
185	0x38bcf581	9.010267e-05
186	0x33d95411	1.01201415e-07
187	0x39965b3a	0.000286782
188	0xbe937b2d	-0.28804913
189	0xb8881199	-6.488263e-05
190	0x3a3d6bb4	0.0007225827
191	0x39218caf	0.00015406565
192	0xb5f3b6fc	-1.8158166e-06
193	0xb8b45ee6	-8.600745e-05
194	0xba188aba	-0.0005819012
195	0x38bdd04a	9.051019e-05
196	0x37b3996b	2.1409904e-05
197	0x3a058a22	0.0005094131
198	0x301bccb7	5.667959e-10
199	0xb92d1925	-0.00016507933
200	0xb9fbbb9f	-0.0004801424
201	0xb96ca7a5	-0.00022569166
202	0x38c5c626	9.4306e-05
203	0x374d6334	1.224205e-05
204	0xb90fb1fb	-0.00013703846
205	0xb9e2f02e	-0.00043285027
206	0xb7d81e75	-2.576339e-05
207	0x39117f7b	0.00013875768
208	0xbd89ccb9	-0.06728501
209	0x3a2adfc5	0.00065183296
210	0xb96872b8	-0.0002216798
211	0xb94dd3a3	-0.00019629164
212	0x3a3f81f9	0.0007305439
213	0x38ac9dc6	8.230987e-05
214	0x389a8c21	7.369393e-05
215	0x37bd8b80	2.2595515e-05
216	0xb920316f	-0.00015277205
217	0xba0cabf8	-0.00053662015
218	0xb9105f58	-0.00013768428
219	0x3917ea81	0.00014487842
220	0xb8a1ff82	-7.72467e-05
221	0xb90a058c	-0.00013162772
222	0xb95182db	-0.0001998054
223	0x39004b51	0.00012235089
224	0xb9671342	-0.00022037051
225	0xbe5a2f69	-0.21307148
226	0xb6e05f84	-6.6868397e-06
227	0xb92e3ce9	-0.00016616624
228	0x3928b987	0.00016090843
229	0xbebb330f	-0.36562392
230	0x3183e3e9	3.838512e-09
231	0x385849aa	5.1567018e-05
232	0x37fd91ac	3.0227784e-05
233	0x39db67ab	0.00041848174
234	0x375d79cb	1.3200984e-05
235	0xb8e54aba	-0.0001093349
236	0xbabcdb1d	-0.0014408563
237	0x3ccb272d	0.024798954
238	0x37ec28fe	2.815248e-05
239	0xbe6d69c0	-0.23184872
240	0x35ece2de	1.7649397e-06
241	0x395fd75a	0.00021347162
242	0xb8c884c0	-9.56147e-05
243	0x3a1e00ed	0.00060273596
244	0xbe6a787e	-0.22897527
245	0x35177901	5.642797e-07
246	0xbe9e0f72	-0.3087116
247	0x385b62a1	5.2305524e-05
248	0xb9602d81	-0.00021379256
249	0x36349341	2.6907803e-06
250	0xb81d6ec8	-3.753489e-05
251	0x39920461	0.00027850553
252	0x37439ce6	1.16594365e-05
253	0x30c01df5	1.3978353e-09
254	0xb445aff1	-1.8411062e-07
255	0x38a429a8	7.8278885e-05

tabnet.initial_bn.running_mean f4 [1038]
0	0x3a92c684	0.0011198078
1	0x3ae830b3	0.0017714709
2	0x3baaa01f	0.005207076
3	0x3c2b27cd	0.010446501
4	0xb9940d1c	-0.00028238527
5	0x3b5ccd3c	0.0033691665
6	0x3b72689d	0.0036988624
7	0xb9a8d658	-0.00032203156
8	0x3b84d597	0.004053782
9	0x3a43ff85	0.0007476735
10	0xbc8ce717	-0.017200036
11	0xbafa1aec	-0.001908151
12	0xb789b4c1	-1.6415843e-05
13	0xbafcf8cd	-0.0019300223
14	0x3bae3533	0.0053164004
15	0x3ae9654a	0.0017806676
16	0x3b177b08	0.0023114104
17	0xbb574386	-0.0032846644
18	0x393b39d1	0.00017855248
19	0x39eb4239	0.00044872033
20	0xbb077a65	-0.0020672318
21	0xba163c05	-0.00057309895
22	0xbb094b7f	-0.002094954
23	0x3b922c4e	0.004460848
24	0x39fff331	0.00048818582
25	0xb88aac84	-6.612486e-05
26	0x3b9fb9dc	0.004874451
27	0xb9a38c4e	-0.00031194318
28	0x3b2ccd06	0.002636732
29	0x3baaecf1	0.005216234
30	0xbb3885c0	-0.0028155893
31	0xbb4724e2	-0.0030386974
32	0xba5d7e4b	-0.00084493
33	0x3ba840ec	0.0051346924
34	0x3b6fe94c	0.0036607562
35	0xbbbd5214	-0.0057776067
36	0x3b378e2c	0.0028008325
37	0x3bb17ebd	0.0054167197
38	0xbb15d6fa	-0.0022863732
39	0xbd1789bb	-0.036996584
40	0x3cce4ca4	0.02518303
41	0xbacb5325	-0.001551245
42	0xbb8ed9e7	-0.004359472
43	0xbad96710	-0.0016586501
44	0xbaf6e862	-0.0018837566
45	0x3a332bc4	0.00068348297
46	0xb95b0e91	-0.00020890894
47	0x3ac6ac87	0.0015157618
48	0x3b93a799	0.004506063
49	0x3bab40d3	0.0052262335
50	0x3b8c5e0e	0.004283673
51	0x3a0e421b	0.00054267206
52	0xbd356d2b	-0.044293564
53	0x3b0314ce	0.0020001414
54	0x3aee6dd7	0.0018190694
55	0xbaa05f55	-0.0012235442
56	0xbb0106a7	-0.0019687803
57	0xbbcb6424	-0.006207006
58	0xbb1bd878	-0.0023780148
59	0xba557b39	-0.0008143667
60	0xbca57f55	-0.020202318
61	0x38fdf4a1	0.00012109546
62	0xba743530	-0.0009315787
63	0x3a93b4a4	0.0011269045
64	0xbc23fe24	-0.010009322
65	0xbbd15114	-0.006387839
66	0x3acb1a09	0.001549543
67	0xbabf267b	-0.0014583612
68	0xbb1db555	-0.002406438
69	0xbd78124a	-0.060564317
70	0x3b141584	0.0022595832
71	0xbaf44f30	-0.0018639322
72	0x3a71b0ae	0.0009219748
73	0x3bb07742	0.0053853104
74	0xbc7396a5	-0.014867459
75	0xbaee99b1	-0.0018203763
76	0x3c23d997	0.010000608
77	0xbd29d785	-0.0414653
78	0x3ac5368c	0.0015046163
79	0x3b22ec2a	0.0024860003
80	0x3b88084e	0.0041513806
81	0x3acc7faf	0.0015602018
82	0x3b50e678	0.0031875651
83	0xbb8b9489	-0.00425965
84	0x3bbedaaf	0.005824409
85	0xbb9d3340	-0.0047973692
86	0x3ad37179	0.001613184
87	0x3af6a172	0.0018816425
88	0x3baeae93	0.0053308695
89	0x3a6635ff	0.000878185
90	0xbb161e5c	-0.002290628
91	0x3b57e206	0.0032941117
92	0x3acc2337	0.001557446
93	0x3b86bed9	0.0041121063
94	0x3a7db1ea	0.00096776953
95	0x3ac1b291	0.0014777948
96	0x3c04323d	0.008068618
97	0x3ab1d35c	0.0013567018
98	0xbb7c410f	-0.0038490926
99	0x3c02182e	0.007940335
100	0xbb563481	-0.0032685103
101	0xbb98730e	-0.0046523875
102	0x3c985d67	0.018599225
103	0x3b9a7aee	0.0047143614
104	0x3b946b62	0.0045294026
105	0x3b68f8b7	0.0035548636
106	0xbac24dc4	-0.0014824201
107	0xba28bfd0	-0.00064372737
108	0x3b91bf5e	0.0044478616
109	0xbad4e17c	-0.0016241516
110	0xba959132	-0.001141107
111	0xb8d88ac3	-0.00010325529
112	0x3b7a6942	0.0038209711
113	0xbb8cc753	-0.0042962222
114	0x3aefceee	0.0018295923
115	0xbca6b5f9	-0.020350443
116	0xbb20d93d	-0.0024543547
117	0x3a58e06a	0.00082731864
118	0x3aa930ed	0.0012908258
119	0xbaebac69	-0.0017980459
120	0x3af6438c	0.0018788441
121	0x3a94b536	0.0011345509
122	0x3b010d32	0.0019691703
123	0xbb3b6a98	-0.002859747
124	0xba8a9782	-0.0010573717
125	0x3cdf9c54	0.027296223
126	0xbabf4377	-0.001459225
127	0x3a8b7d95	0.0010642285
128	0x3b019e1e	0.0019778083
129	0x3ae32a42	0.0017331319
130	0xbc993c28	-0.018705443
131	0x3b6ef023	0.003645905
132	0x3a3704c8	0.00069816085
133	0x3ced40ed	0.028961623
134	0x3af6790d	0.0018804386
135	0xbad85fa6	-0.0016507998
136	0x3ad16e2e	0.0015978271
137	0x3b61336e	0.003436293
138	0x39fc89a0	0.00048167724
139	0x3a20aecb	0.0006129562
140	0xbbaab81b	-0.0052099354
141	0x3a8d4bc7	0.001078003
142	0x3b1a0b37	0.002350522
143	0xbbaf6aec	-0.0053533223
144	0x3bbf728a	0.0058425115
145	0xbb8fa09f	-0.004383161
146	0x3b9e6c2b	0.004834672
147	0xb99c642a	-0.00029829267
148	0xbb584125	-0.0032997814
149	0x3b25a6d4	0.002527644
150	0x3af65778	0.0018794378
151	0x3a875da5	0.0010327591
152	0x38f996c3	0.00011901327
153	0xba402a70	-0.00073305424
154	0xbc091c4a	-0.008368561
155	0x3bb92e32	0.005651259
156	0xba8f5429	-0.0010935116
157	0x3b7df576	0.0038751042
158	0x3a97d5b8	0.0011584079
159	0x3b73e4ec	0.0037215305
160	0x3cb0970b	0.021556398
161	0xba9f8a53	-0.0012171961
162	0xbbb77011	-0.005598076
163	0xbac17281	-0.0014758856
164	0xbbba2756	-0.0056809587
165	0x3b5c50e4	0.003361755
166	0x3b51efbc	0.0032033762
167	0x3b289604	0.0025724182
168	0xbb5d730d	-0.00337905
169	0xbb327963	-0.0027232997
170	0xbb4c2320	-0.0031148866
171	0x3b146580	0.0022643507
172	0x3c4c723f	0.01247841
173	0x3b55e79a	0.0032639266
174	0x3b836358	0.0040096454
175	0xbb06289a	-0.0020470978
176	0x3a53ba03	0.0008076729
177	0xbb886606	-0.0041625528
178	0xb8346189	-4.300618e-05
179	0x3a48e48d	0.0007663451
180	0xbbede80c	-0.007260328
181	0x3b11c4ed	0.002224262
182	0xbaf1dcb9	-0.0018452621
183	0x3b4a1336	0.0030834205
184	0xbc260741	-0.010133565
185	0xbb5edc4b	-0.0034005817
186	0xbb3857d5	-0.0028128524
187	0xbc8ed28c	-0.017434381
188	0xbb18afa1	-0.0023298042
189	0x3a2bd4d0	0.0006554844
190	0x3b51f997	0.0032039636
191	0xbb579122	-0.0032892902
192	0x3a2e5cc7	0.0006651398
193	0xbaabe7ac	-0.0013115308
194	0x3a640586	0.0008698333
195	0x3ab68a15	0.001392665
196	0xba3daae0	-0.000723524
197	0xbc5cccf0	-0.013476595
198	0xbb041efe	-0.0020160074
199	0x3bee228e	0.007267303
200	0xbab585d2	-0.0013849086
201	0x3a5a91bf	0.0008337758
202	0x3bae2634	0.0053146128
203	0x3c6fb31f	0.014630108
204	0xbc8bca36	-0.017064195
205	0xbb801449	-0.003908668
206	0xbbec4df1	-0.00721144
207	0xbacaaa2d	-0.0015462093
208	0xb981432c	-0.00024654844
209	0xbb15bbf2	-0.002284762
210	0x3c21d74c	0.009877991
211	0x3b229fc5	0.0024814468
212	0xbaf6ce0f	-0.0018829721
213	0xba9d0be5	-0.0011981694
214	0x3b3e4a6e	0.0029036063
215	0xba4310f1	-0.0007441184
216	0xbb26399b	-0.0025363925
217	0x3b2e8f25	0.0026635614
218	0xb9385f75	-0.00017583168
219	0x3b7d46f7	0.0038647035
220	0xbbab1760	-0.0052212924
221	0xbac356fb	-0.0014903242
222	0xb885d948	-6.382406e-05
223	0x3ab6a54c	0.001393476
224	0xbb8b0fd6	-0.004243831
225	0x3baa482a	0.005196591
226	0xba501695	-0.00079379353
227	0xbb3c8b3b	-0.0028769511
228	0x3c1d528c	0.0096022
229	0x3ac14810	0.0014746208
230	0xbd8bc540	-0.06824732
231	0x3b7383ff	0.0037157533
232	0x38f5a8ea	0.00011713973
233	0xbbaee3a5	-0.005337196
234	0x39c67d4e	0.00037858862
235	0x3b62b9fe	0.0034595723
236	0x3b2281c5	0.0024796587
237	0x3bf428ed	0.007451168
238	0x3aa7f1da	0.0012813166
239	0x3b43e462	0.0029890765
240	0x3aa81ae1	0.0012825393
241	0x3a915f63	0.001109105
242	0xbb49757f	-0.00307402
243	0x3ad97fdd	0.0016593892
244	0x3a9bf6ed	0.0011899151
245	0x3b65ba10	0.003505353
246	0xba1cd206	-0.00059822237
247	0x3b93052a	0.0044866996
248	0xb9fd7aa0	-0.00048347283
249	0xba150aaf	-0.0005685491
250	0x3cc53aa1	0.024075808
251	0x3b47942b	0.0030453305
252	0xbbe4247c	-0.006962357
253	0x3b59e67a	0.0033248947
254	0xbb13b209	-0.0022536537
255	0xbaa89303	-0.0012861196

tabnet.initial_bn.running_var f4 [1038]
0	0x3c682e7d	0.01417124
1	0x3c1ddfb6	0.009635856
2	0x3f7d17a8	0.9886422
3	0x3f783653	0.9695789
4	0x3f777cfd	0.9667509
5	0x3f7910c5	0.97291213
6	0x3f796659	0.97421795
7	0x3f78af93	0.97142905
8	0x3f76de0b	0.9643256
9	0x3f78fdb5	0.97262126
10	0x3f88fee1	1.0702783
11	0x3f783784	0.9695971
12	0x3f782fc8	0.9694791
13	0x3f7a6c58	0.9782157
14	0x3f788fb7	0.9709429
15	0x3f7cb454	0.9871266
16	0x3f7a377a	0.977409
17	0x3f784041	0.96973044
18	0x3f7bbfdc	0.9833963
19	0x3f7abe2a	0.9794642
20	0x3f787ba1	0.9706364
21	0x3f7909c2	0.97280514
22	0x3f7823ba	0.96929514
23	0x3f79e844	0.97620034
24	0x3f78e57c	0.97225165
25	0x3f768c4c	0.96307826
26	0x3f7a96c9	0.9788633
27	0x3f792ffb	0.9733884
28	0x3f7816e7	0.96909946
29	0x3f7872cd	0.9705017
30	0x3f77c7b0	0.96789074
31	0x3f7a4cea	0.9777361
32	0x3f7bb2e5	0.98319846
33	0x3f87c89b	1.0608095
34	0x3f796101	0.9741364
35	0x3f7967f2	0.9742423
36	0x3f79dfc3	0.9760706
37	0x3f774f7e	0.9660567
38	0x3f7e5995	0.9935544
39	0x3fa2f2e5	1.2730376
40	0x3f9a4eeb	1.2055334
41	0x3f79b396	0.9753965
42	0x3f809797	1.0046262
43	0x3f7917c8	0.9730191
44	0x3f7897ea	0.971068
45	0x3f79f1a6	0.9763435
46	0x3f77b7b1	0.96764666
47	0x3f772cd2	0.96552765
48	0x3f819221	1.012272
49	0x3f78313a	0.96950114
50	0x3f7f5cac	0.9975078
51	0x3f7bcee9	0.98362595
52	0x3fa8e068	1.3193483
53	0x3f78ca23	0.97183436
54	0x3f774b01	0.9659882
55	0x3f7b6f4f	0.9821672
56	0x3f7b3cd8	0.98139715
57	0x3f7f4c7d	0.99726087
58	0x3f7a8f35	0.97874767
59	0x3f7d3a06	0.9891666
60	0x3f90b1bb	1.1304239
61	0x3f7db1e3	0.9909956
62	0x3f789a29	0.9711023
63	0x3f7c8bdf	0.98650926
64	0x3f855011	1.0415059
65	0x3f8578b1	1.0427457
66	0x3f7a80ed	0.97852975
67	0x3f78850e	0.97078025
68	0x3f7a9e66	0.97897947
69	0x3fb222c1	1.3916856
70	0x3f79ddd7	0.97604126
71	0x3f779199	0.9670654
72	0x3f792782	0.9732591
73	0x3f781a3d	0.96915036
74	0x3f8dbff2	1.1074202
75	0x3f77b5db	0.96761864
76	0x3f847999	1.0349609
77	0x3fa7eb05	1.3118597
78	0x3f76c44c	0.96393275
79	0x3f7831f1	0.96951205
80	0x3f781c29	0.9691797
81	0x3f7ab020	0.97924995
82	0x3f79f8c6	0.97645223
83	0x3f797aae	0.9745282
84	0x3f7817a1	0.96911055
85	0x3f7b64c4	0.9820063
86	0x3f780e1e	0.9689654
87	0x3f78ed2e	0.9723691
88	0x3f82d5ec	1.0221534
89	0x3f792497	0.97321457
90	0x3f7953de	0.97393596
91	0x3f7823cc	0.9692962
92	0x3f7d71a5	0.9900153
93	0x3f81229c	1.0088687
94	0x3f79ab0b	0.97526616
95	0x3f791361	0.97295195
96	0x3f7901b0	0.972682
97	0x3f7a7732	0.9783813
98	0x3f7f833b	0.99809617
99	0x3f82f264	1.0230222
100	0x3f80bd33	1.0057739
101	0x3f78acd4	0.97138715
102	0x3f8b5114	1.0884118
103	0x3f774440	0.96588516
104	0x3f7c1805	0.9847415
105	0x3f786831	0.97033983
106	0x3f7855d7	0.9700598
107	0x3f79a0aa	0.9751078
108	0x3f819b56	1.012553
109	0x3f798316	0.97465646
110	0x3f7960c5	0.97413284
111	0x3f78af98	0.97142935
112	0x3f780166	0.96877134
113	0x3f7a97d2	0.9788791
114	0x3f7819fc	0.9691465
115	0x3f8d8db6	1.1058872
116	0x3f7a375f	0.9774074
117	0x3f7ab6f3	0.9793541
118	0x3f7a59ef	0.9779348
119	0x3f7abd9a	0.9794556
120	0x3f788ceb	0.97090024
121	0x3f7a74d8	0.9783454
122	0x3f786356	0.97026575
123	0x3f8081ee	1.0039651
124	0x3f78218d	0.96926194
125	0x3f94ef6b	1.1635565
126	0x3f777514	0.9666302
127	0x3f7842da	0.9697701
128	0x3f7d1026	0.98852766
129	0x3f783e50	0.9697008
130	0x3f8c41a3	1.0957531
131	0x3f77c825	0.9678977
132	0x3f810452	1.0079443
133	0x3f99d7fe	1.201904
134	0x3f7f5536	0.99739397
135	0x3f7e7c74	0.9940865
136	0x3f77b0e8	0.9675431
137	0x3f7966bd	0.9742239
138	0x3f7780af	0.9668073
139	0x3f786d12	0.9704143
140	0x3f7b4889	0.98157555
141	0x3f7be590	0.9839716
142	0x3f7a2ab1	0.9772139
143	0x3f78504e	0.96997535
144	0x3f7deb00	0.99186707
145	0x3f76a4df	0.96345323
146	0x3f80ad28	1.0052843
147	0x3f7c70e5	0.98609763
148	0x3f7f6851	0.9976855
149	0x3f854f0b	1.0414747
150	0x3f7eb8ff	0.9950103
151	0x3f795700	0.97398376
152	0x3f7a50f0	0.9777975
153	0x3f78bbca	0.97161543
154	0x3f820704	1.0158391
155	0x3f77374e	0.96568763
156	0x3f7846f5	0.9698327
157	0x3f7ffe8f	0.999978
158	0x3f794f41	0.97386557
159	0x3f77c604	0.9678652
160	0x3f92669f	1.1437567
161	0x3f7814b1	0.9690657
162	0x3f7d396d	0.9891575
163	0x3f7a6275	0.97806484
164	0x3f78a384	0.97124505
165	0x3f82ccb1	1.0218717
166	0x3f8074ee	1.0035684
167	0x3f79640f	0.974183
168	0x3f79e14e	0.9760941
169	0x3f7a16f1	0.97691256
170	0x3f78839a	0.9707581
171	0x3f7a6a5a	0.9781853
172	0x3f84dbe3	1.0379604
173	0x3f79e468	0.97614145
174	0x3f786f14	0.9704449
175	0x3f78806b	0.9707095
176	0x3f77ed20	0.968462
177	0x3f7964c2	0.9741937
178	0x3f7769d8	0.9664588
179	0x3f7d2c76	0.98895967
180	0x3f8ab580	1.083664
181	0x3f77e67f	0.96836084
182	0x3f790f4a	0.97288954
183	0x3f7ccb8e	0.987481
184	0x3f7a164e	0.97690284
185	0x3f80ca03	1.0061649
186	0x3f78adea	0.9714037
187	0x3f8eeabc	1.1165385
188	0x3f78fd0b	0.9726111
189	0x3f7900e8	0.9726701
190	0x3f788bfb	0.97088593
191	0x3f80e4d1	1.0069829
192	0x3f79ed79	0.9762798
193	0x3f796931	0.97426134
194	0x3f77951a	0.96711886
195	0x3f76fef3	0.9648277
196	0x3f782105	0.96925384
197	0x3f8bba61	1.0916253
198	0x3f78894c	0.970845
199	0x3f80f9d7	1.0076245
200	0x3f79e96e	0.9762181
201	0x3f791a58	0.9730582
202	0x3f796122	0.9741384
203	0x3f87894d	1.0588776
204	0x3f8a4f44	1.080544
205	0x3f78d4b9	0.9719959
206	0x3f7d34f6	0.98908937
207	0x3f79b013	0.9753429
208	0x3f772f88	0.965569
209	0x3f770401	0.96490484
210	0x3f8a3cbc	1.0799785
211	0x3f786d41	0.9704171
212	0x3f7af565	0.9803069
213	0x3f793c3d	0.9735754
214	0x3f770ec2	0.96506894
215	0x3f7d812a	0.99025214
216	0x3f78c479	0.97174793
217	0x3f8040d4	1.0019784
218	0x3f7a6fd5	0.9782689
219	0x3f7b2a39	0.981113
220	0x3f781c37	0.9691805
221	0x3f77453f	0.96590036
222	0x3f7a9ba6	0.9789375
223	0x3f79376f	0.9735021
224	0x3f7a4815	0.9776624
225	0x3f774a39	0.9659763
226	0x3f7970e2	0.9743787
227	0x3f784fd3	0.969968
228	0x3f845e1d	1.0341221
229	0x3f79bbf6	0.9755243
230	0x3fbc3da3	1.470631
231	0x3f79c94b	0.97572774
232	0x3f787fb7	0.9706988
233	0x3f80d4ab	1.0064901
234	0x3f7c0f9a	0.98461306
235	0x3f788d59	0.9709068
236	0x3f7abeba	0.97947276
237	0x3f7cdb64	0.98772264
238	0x3f790823	0.9727804
239	0x3f79acf7	0.9752955
240	0x3f791d74	0.97310567
241	0x3f7a322c	0.97732806
242	0x3f790460	0.972723
243	0x3f784633	0.96982116
244	0x3f78cc31	0.9718657
245	0x3f803bc5	1.001824
246	0x3f7c76ea	0.9861895
247	0x3f7b4366	0.98149717
248	0x3f779e05	0.96725494
249	0x3f783c7e	0.96967304
250	0x3f91ea17	1.1399564
251	0x3f7a6c33	0.9782135
252	0x3f85309d	1.0405461
253	0x3f817092	1.0112479
254	0x3f7a567a	0.977882
255	0x3f7851c4	0.96999764

tabnet.initial_splitter.shared.shared_layers.0.weight f4 [96, 1038]
0	0x374e251f	1.22872e-05
1	0xb84f5bcc	-4.943814e-05
2	0xb70b830f	-8.31556e-06
3	0x37249d24	9.811749e-06
4	0xb74e7181	-1.2304984e-05
5	0x38efe129	0.000114383474
6	0xb4c9c73f	-3.7584138e-07
7	0xb87d4496	-6.0383776e-05
8	0x38183efc	3.6298283e-05
9	0x36ded84d	6.6412963e-06
10	0xbd8b0afa	-0.06789203
11	0xb66b060e	-3.5021253e-06
12	0x3642e81a	2.9043354e-06
13	0xb96879f3	-0.00022170674
14	0xb6411102	-2.876914e-06
15	0xb8733bf7	-5.799156e-05
16	0x38b07cd0	8.415582e-05
17	0xb79b9fd0	-1.8551858e-05
18	0xb5a73673	-1.2458316e-06
19	0xbd43a97d	-0.04776906
20	0x389e1a70	7.5389515e-05
21	0xb9888872	-0.000260416
22	0xb794e642	-1.7750197e-05
23	0x388652da	6.40505e-05
24	0x397a5ca1	0.00023876365
25	0xb7f79f7d	-2.9518962e-05
26	0xb84159c4	-4.6098387e-05
27	0x369ee838	4.7358008e-06
28	0x38fb9a4c	0.00011997353
29	0x380355ab	3.131262e-05
30	0x38f0b8a7	0.00011478486
31	0xbd88511f	-0.066560976
32	0xb9a7d6de	-0.0003201281
33	0x38d233c5	0.00010023223
34	0x35af4368	1.3058134e-06
35	0xb94ea7e4	-0.00019708235
36	0x398843e6	0.0002599053
37	0xb65c0790	-3.2786957e-06
38	0xb991296f	-0.00027687426
39	0x39582e01	0.00020616503
40	0xb8c20c5c	-9.252943e-05
41	0xb9a8929c	-0.0003215269
42	0x365e1b06	3.3096308e-06
43	0x3848c8ce	4.787073e-05
44	0x39c9071f	0.00038343013
45	0xb39d8c3c	-7.336391e-08
46	0xb9850d00	-0.00025377423
47	0xb83ce134	-4.503243e-05
48	0xb09e2794	-1.1507262e-09
49	0xb97c5655	-0.00024064754
50	0x38ed3a61	0.000113119146
51	0xb1c0867a	-5.6032237e-09
52	0x306cc489	8.6135593e-10
53	0xb9cd7cc1	-0.00039193596
54	0xb62cc61f	-2.574532e-06
55	0xb8e8f662	-0.000111085144
56	0x3906adb1	0.00012843941
57	0xb5a3322d	-1.215905e-06
58	0x380f9f67	3.424231e-05
59	0xb81062ad	-3.4424174e-05
60	0xb90763ab	-0.00012911732
61	0x301bbbc5	5.665551e-10
62	0xb95d9d6f	-0.00021134851
63	0x32a43acd	1.9118852e-08
64	0x390f8add	0.00013689273
65	0x359cb76a	1.1676286e-06
66	0x33749d5f	5.6953805e-08
67	0x3868d3c9	5.551035e-05
68	0x3d44ae34	0.048017696
69	0x360fe3cb	2.1441253e-06
70	0xb69885d8	-4.5455345e-06
71	0xb83fbc65	-4.5713405e-05
72	0x3b4f9f25	0.003168055
73	0x3db4a93c	0.088213414
74	0xb333e945	-4.1888843e-08
75	0x368a9bfc	4.1308795e-06
76	0x37b2af28	2.1300817e-05
77	0xb9624709	-0.00021579502
78	0xb770ba74	-1.4348527e-05
79	0x38e02396	0.00010687781
80	0xb8c1df28	-9.244523e-05
81	0x36ee8f30	7.109622e-06
82	0xb225a46b	-9.641648e-09
83	0x3934c7ae	0.00017240524
84	0xb844ea9c	-4.694854e-05
85	0xb9097d2b	-0.00013111967
86	0xb7f9ca03	-2.9777182e-05
87	0xb84ec163	-4.9294333e-05
88	0xb965b6a1	-0.00021907176
89	0xb5e506d8	-1.7063821e-06
90	0xb4ca5bf1	-3.7692328e-07
91	0xb8b12265	-8.446424e-05
92	0xb780dace	-1.5360678e-05
93	0x39bdf95a	0.0003623467
94	0x3cd033cc	0.025415324
95	0x39469762	0.00018939146
96	0x37573b61	1.2828824e-05
97	0x39006d34	0.00012247713
98	0x37bf3e53	2.2797996e-05
99	0x335d6902	5.1551076e-08
100	0x37cb16d3	2.4210114e-05
101	0xb9f51a6f	-0.00046749736
102	0x39056384	0.00012720941
103	0x37ea151c	2.7904804e-05
104	0x38d32369	0.0001006786
105	0xb99a061a	-0.00029377715
106	0x37b05039	2.1018192e-05
107	0x37a5c650	1.976188e-05
108	0x34835cab	2.4468076e-07
109	0xbdaa71cc	-0.08322486
110	0x370e1295	8.468186e-06
111	0x392db0d9	0.00016564447
112	0x35de9eb5	1.6586479e-06
113	0x3781eda4	1.5488658e-05
114	0x39064626	0.00012805368
115	0x388d0070	6.7234854e-05
116	0x395b404b	0.00020909419
117	0x37942507	1.7660217e-05
118	0xb9c4e9c2	-0.00037558196
119	0xb99f35a0	-0.00030366797
120	0xb96e6329	-0.00022734389
121	0x36d5d499	6.3726443e-06
122	0x395bb9b5	0.00020954649
123	0x37e6dca6	2.7520884e-05
124	0xb9c1d959	-0.00036973765
125	0xb9338e53	-0.0001712379
126	0xb8de95d0	-0.0001061369
127	0x3a717668	0.00092110643
128	0x37c08bbf	2.2953258e-05
129	0xb85c5823	-5.253417e-05
130	0x37b97ef0	2.2112828e-05
131	0x39117408	0.00013871503
132	0x39f6c564	0.00047067844
133	0x38b39b6f	8.564337e-05
134	0xb920c1a9	-0.00015330933
135	0xb94700cf	-0.0001897842
136	0x3da01231	0.0781597
137	0xb85552fa	-5.0860435e-05
138	0x39305b69	0.00016818721
139	0xb89dd941	-7.52681e-05
140	0x38903ebe	6.878142e-05
141	0x3861421e	5.3705757e-05
142	0x36024948	1.9414165e-06
143	0x3892b0f4	6.9947826e-05
144	0xb823fdd6	-3.909863e-05
145	0x38e09dfc	0.00010710579
146	0xb8263c45	-3.9633615e-05
147	0xb6d8b1fa	-6.458021e-06
148	0x390e6919	0.00013581327
149	0xb8ba7e16	-8.8926565e-05
150	0xb8912e17	-6.922724e-05
151	0x38ee0193	0.000113490176
152	0x36964951	4.4788835e-06
153	0xb7d3b2c6	-2.5236408e-05
154	0x39a32067	0.00031113924
155	0xb986bf21	-0.00025700874
156	0x37963a59	1.7908564e-05
157	0x34db8d14	4.0894577e-07
158	0xbd3f2866	-0.046669386
159	0xb898f5f9	-7.293741e-05
160	0x3a7d9c26	0.0009674452
161	0xb96007a4	-0.00021365151
162	0xb8fb85cb	-0.000119935336
163	0xb8161132	-3.57788e-05
164	0xbc2407e9	-0.010011652
165	0xae8a0de9	-6.2779844e-11
166	0xb949c5c3	-0.00019242526
167	0xb43c83e3	-1.7556845e-07
168	0xb85ec0ce	-5.3108488e-05
169	0x3d6fa007	0.058502223
170	0xb51ba646	-5.798396e-07
171	0xb89e3dc0	-7.545529e-05
172	0xb9055a8c	-0.000127176
173	0xb77f0618	-1.5200603e-05
174	0x38a1def5	7.718607e-05
175	0xb7cc1c07	-2.4331746e-05
176	0xb9297b1b	-0.00016162956
177	0xbce5d74b	-0.028056761
178	0xb91fc015	-0.00015234978
179	0x390271e4	0.00012440194
180	0xbd8427c8	-0.064529
181	0xb82e0598	-4.1490042e-05
182	0x3906554b	0.0001281101
183	0xb9973a09	-0.00028844204
184	0x35f731b8	1.8417404e-06
185	0xb89bfd65	-7.438174e-05
186	0x35265fe5	6.1979364e-07
187	0xb89e92aa	-7.5613454e-05
188	0x3e023868	0.1271683
189	0x3843a680	4.6646688e-05
190	0xb95664ef	-0.00020446231
191	0x397df629	0.00024219662
192	0xb95783d9	-0.00020553115
193	0x378697cc	1.604473e-05
194	0x392d209e	0.00016510717
195	0xb8ed8d5f	-0.00011327373
196	0xb708f06e	-8.162211e-06
197	0x379e8968	1.8899053e-05
198	0x32892fb3	1.597059e-08
199	0x39191ec1	0.00014602674
200	0x389610a1	7.155655e-05
201	0x37452c4b	1.1752428e-05
202	0xb783086e	-1.5620342e-05
203	0xb9d00c6f	-0.00039682115
204	0x39a97393	0.000323203
205	0x38f4d74b	0.00011674928
206	0x3325ce3e	3.8604632e-08
207	0xb8e7e9ad	-0.00011058464
208	0xbcac7ace	-0.021054652
209	0x39834bfb	0.00025042877
210	0x39513db7	0.00019954784
211	0x39a08d06	0.0003062265
212	0xb8225680	-3.870437e-05
213	0xb664b8cb	-3.4082211e-06
214	0xb85a911f	-5.2110405e-05
215	0xb956761d	-0.00020452631
216	0x37b6e51d	2.180278e-05
217	0x381768e7	3.6098903e-05
218	0xb7b0ba49	-2.106758e-05
219	0xb8511d4b	-4.9856764e-05
220	0x38c09406	9.182845e-05
221	0xb8da7243	-0.00010416333
222	0xb817091f	-3.60097e-05
223	0x38a35903	7.7890254e-05
224	0x38279979	3.9958835e-05
225	0x3d107699	0.035269354
226	0xb6924b9a	-4.3599402e-06
227	0xb6bb5e48	-5.58401e-06
228	0xb831eb79	-4.241939e-05
229	0x3d898223	0.06714275
230	0xb10f52d9	-2.0856332e-09
231	0x3915f395	0.00014300489
232	0xb7a5dcff	-1.9772442e-05
233	0xb9008dd7	-0.0001225987
234	0x380e13cd	3.387388e-05
235	0x37e88a96	2.772109e-05
236	0x390adf83	0.0001324397
237	0x3d0248ca	0.0318077
238	0xb687be45	-4.045464e-06
239	0xbd546b3c	-0.05186008
240	0xb5659528	-8.55262e-07
241	0xb8037975	-3.134595e-05
242	0xb996cab7	-0.00028761264
243	0xb988e2a2	-0.00026108796
244	0xbd0d59a2	-0.03450931
245	0xb3070f63	-3.144613e-08
246	0xbe1f1e7f	-0.15538977
247	0x3729ac67	1.01133255e-05
248	0xb8041fa7	-3.150073e-05
249	0xb744e707	-1.1736301e-05
250	0x38516d70	4.9931405e-05
251	0xb8ef3c11	-0.00011407596
252	0xb7d58c07	-2.5456784e-05
253	0x32ea728d	2.7293277e-08
254	0x33a0d88f	7.4899724e-08
255	0xb79f82d9	-1.9015208e-05

tabnet.initial_splitter.shared.shared_layers.1.weight f4 [96, 48]
0	0x3de8a29c	0.1135914
1	0x3cbb3911	0.02285436
2	0xbd854ec9	-0.06509168
3	0x3bedbe05	0.007255318
4	0x3cbdf4a1	0.023187937
5	0xbd036b1f	-0.03208458
6	0xbdbdfe77	-0.09277051
7	0x3cc6c688	0.024264589
8	0xbbae9920	-0.0053283125
9	0x3c9b3a18	0.0189486
10	0xbca9c622	-0.02072436
11	0xbd52ce34	-0.051466182
12	0xbd015c7f	-0.03158235
13	0xb955b346	-0.00020380047
14	0x3a2fd067	0.00067067746
15	0xbc97930a	-0.01850273
16	0x3dadb451	0.08481658
17	0xbe2b4c03	-0.16728215
18	0xbd3d0dfc	-0.046155915
19	0xbc5d42dd	-0.013504711
20	0xbd9e4912	-0.07728781
21	0xbdcd4a12	-0.100238934
22	0x3d4ac59a	0.049504854
23	0x3d371aeb	0.044703405
24	0xb7c03055	-2.291069e-05
25	0x399951f7	0.00029243503
26	0xb9c305bd	-0.00037197574
27	0x372b2718	1.02014965e-05
28	0x3a2a7b7c	0.0006503386
29	0x39aa706e	0.00032508693
30	0x37dc42df	2.6257183e-05
31	0x385b7670	5.2323972e-05
32	0x36b3abc9	5.354614e-06
33	0x3767608c	1.3791152e-05
34	0x38ddfc36	0.00010585079
35	0xb800d939	-3.0719882e-05
36	0x395bb3e9	0.0002095249
37	0xb93ef8ec	-0.00018212543
38	0x3a9147d6	0.0011084031
39	0xba435053	-0.0007450629
40	0xb7897ea5	-1.6390646e-05
41	0x3be21bfb	0.006900308
42	0x399629b4	0.000286413
43	0x3a3dfddf	0.00072476076
44	0xb8d2b007	-0.00010046368
45	0xb7927210	-1.745767e-05
46	0xba0fc3df	-0.0005484204
47	0x39706e53	0.00022929283
48	0x3c0ea7a8	0.008706965
49	0x3ecb455a	0.3970135
50	0x3d30fe3e	0.043211214
51	0x3a9c9ef8	0.0011949232
52	0xbc55e850	-0.013055876
53	0xbbc318ae	-0.00595387
54	0xbd864fe4	-0.06558207
55	0xbb3fb767	-0.0029253603
56	0xbcebdce2	-0.028791849
57	0x3c8107d4	0.015750803
58	0xbde72fde	-0.11288427
59	0xbd7c0d4a	-0.06153611
60	0xbcc34706	-0.023837578
61	0xb9eccf2d	-0.00045167786
62	0x3c334610	0.010941997
63	0xbb9a653f	-0.0047117765
64	0xbb013d63	-0.0019720427
65	0xbd163567	-0.036672022
66	0xbccc0cfa	-0.024908531
67	0xbdc36948	-0.09541565
68	0xbd5cbeae	-0.053892784
69	0xbc7b7402	-0.015347483
70	0xbc94c7e9	-0.01816173
71	0xbcc589f0	-0.024113625
72	0xb8d87997	-0.000103223305
73	0xbadde45d	-0.001692902
74	0xbb128e95	-0.0022362818
75	0xb8dd2527	-0.00010545021
76	0x38d6d023	0.00010243084
77	0xbb644805	-0.0034832966
78	0xbb33cc1e	-0.0027434896
79	0x3a54da29	0.00081196666
80	0x3a9c487c	0.0011923457
81	0x3a22e934	0.00062145595
82	0x39bb2811	0.0003569727
83	0x392d1486	0.00016506211
84	0xbb5d5bb6	-0.0033776588
85	0xbb2e4405	-0.0026590836
86	0xbb372107	-0.002794327
87	0x3b7b6079	0.0038357063
88	0xbb2d9c55	-0.0026490886
89	0xb96806eb	-0.00022127821
90	0xbae64f0d	-0.0017571166
91	0xbba5fe1a	-0.0050656917
92	0xbba63294	-0.0050719474
93	0x3a49162b	0.0007670845
94	0xb9899d9d	-0.00026248107
95	0xbb1ce0c8	-0.002393769
96	0xbcd15a26	-0.025555681
97	0x3d06f185	0.032945175
98	0x3e71dbbb	0.23618977
99	0xbbfb154d	-0.0076624514
100	0xbd2e7c6e	-0.042599134
101	0xbd395119	-0.045243356
102	0x3cdd215a	0.026993442
103	0xbd8589f1	-0.06520451
104	0xbcef22d9	-0.029191421
105	0x3ca3435e	0.019929584
106	0x3d026e0b	0.031843226
107	0xbd3ec80f	-0.04657751
108	0x3cc1872f	0.02362403
109	0x3a262819	0.00063383725
110	0x3cf4f991	0.029904159
111	0x3acb0631	0.0015489516
112	0xbdac01ca	-0.08398779
113	0x3c02eab6	0.00799053
114	0xbd1f6d82	-0.038922794
115	0xbcf2fdf9	-0.02966212
116	0x3ce80e27	0.02832706
117	0xbcbf7902	-0.02337313
118	0x3d199724	0.037497655
119	0x3d5adf3f	0.05343556
120	0xb8ec2808	-0.00011260813
121	0x393de694	0.00018110342
122	0x399ae890	0.00029546442
123	0x37759ccb	1.4639644e-05
124	0x3a2a5965	0.0006498306
125	0xb98c9327	-0.00026812518
126	0x380a12e7	3.2919368e-05
127	0xba189183	-0.0005820023
128	0xb945d31e	-0.00018866031
129	0x37113477	8.654889e-06
130	0xba10b6ed	-0.0005520422
131	0xb989e881	-0.00026303905
132	0xba0f16b6	-0.0005458401
133	0xbad76d1e	-0.0016435718
134	0xb91d1525	-0.00014980564
135	0xb9546ae4	-0.00020257715
136	0xb730a266	-1.0528229e-05
137	0x3bd9966c	0.006640246
138	0x39e9f850	0.0004462623
139	0xb995d3d2	-0.00028577313
140	0x3891ea20	6.957748e-05
141	0x39b8bfbc	0.00035238068
142	0x393801a7	0.00017548223
143	0xb7aaac0f	-2.03457e-05
144	0x3ab872ec	0.0014072335
145	0xb78b4803	-1.6603624e-05
146	0xbb50c786	-0.0031857206
147	0x3e67498d	0.22586651
148	0xbdbe9e11	-0.093074925
149	0x3d3ca496	0.0460554
150	0x3d005df7	0.03133961
151	0xbd78d6c6	-0.0607517
152	0xbba3a00c	-0.0049934443
153	0x3b52b405	0.0032150757
154	0x384b99cd	4.854221e-05
155	0x3bc088a1	0.0058756624
156	0xbb8b6c41	-0.004254848
157	0xb9a09c7b	-0.00030634165
158	0xbc48ef21	-0.012264044
159	0xbc9d1489	-0.019174831
160	0x3d7d172f	0.061789688
161	0xbd167d8b	-0.03674082
162	0x3d037096	0.032089792
163	0x3d284103	0.041077625
164	0xbd0f5944	-0.03499724
165	0xbd53ed77	-0.051740136
166	0x3d29a8c8	0.041420728
167	0xbd9a53ff	-0.07535552
168	0x39409ae6	0.00018368251
169	0xb9006452	-0.00012244403
170	0x39788eba	0.00023704293
171	0x361a3309	2.2977495e-06
172	0x398c7649	0.0002679101
173	0x3999473d	0.0002923551
174	0x39484ff3	0.0001910327
175	0x3915759d	0.00014253562
176	0x38b87739	8.796011e-05
177	0xb810605b	-3.4422013e-05
178	0xb9e47ba1	-0.0004357966
179	0xb8c804a6	-9.537609e-05
180	0xb9b5e3da	-0.00034692773
181	0xbacce7f4	-0.0015633092
182	0xb891b2c7	-6.947439e-05
183	0xb92af916	-0.00016305255
184	0x3856ed26	5.1242438e-05
185	0x3d18ed6a	0.03733579
186	0x3972a251	0.00023139386
187	0xb94ae83d	-0.00019350737
188	0xb72e5c2d	-1.03926695e-05
189	0xb9a6e860	-0.0003183512
190	0x390316ea	0.0001250167
191	0x39c45d66	0.0003745362
192	0x3bae1150	0.0053121224
193	0xbcfccc4d	-0.030859137
194	0xbcc18909	-0.023624914
195	0xbdd00897	-0.101578884
196	0x3e923347	0.28554747
197	0xbd84a693	-0.06477084
198	0xbd3eb90a	-0.046563186
199	0xbdb31599	-0.08744354
200	0xbc091774	-0.008367408
201	0x3c23000e	0.0099487435
202	0xbcd1913a	-0.025581945
203	0xbd2efb09	-0.042719875
204	0xbcb95b98	-0.022626683
205	0xb980e020	-0.0002458105
206	0xbb7e9629	-0.0038846827
207	0x3a7eedf8	0.0009724791
208	0x3c5770ad	0.013149423
209	0xbd3564ef	-0.04428571
210	0xbd1f26f4	-0.038855508
211	0xbc8f76fb	-0.017512789
212	0xbbb7cdfc	-0.005609272
213	0xbd01bbd9	-0.031673286
214	0xbcdb3021	-0.026756348
215	0xbda829be	-0.08211087
216	0x3b1d2e4a	0.002398389
217	0xbb07fc20	-0.0020749643
218	0xbacc5205	-0.0015588409
219	0x3abd3736	0.001443601
220	0xba823d31	-0.0009936449
221	0xbbcf4246	-0.006325039
222	0x3907d09b	0.00012952315
223	0xba5ea27d	-0.00084928406
224	0x3a1beba1	0.0005947892
225	0x3a01db2a	0.00049536175
226	0x3aa28c48	0.0012401426
227	0x3a193829	0.00058448553
228	0xbb17fdc3	-0.0023192025
229	0xbc1b5214	-0.009480018
230	0xbafc3bcc	-0.0019243895
231	0x3a1de3a6	0.0006022997
232	0xbbcc32de	-0.00623165
233	0xbcae6ab5	-0.021291116
234	0xbb117641	-0.002219573
235	0xbb0f558f	-0.0021871065
236	0xba2fffc6	-0.00067138334
237	0x3b127b87	0.002235146
238	0x3b2a7a58	0.0026012864
239	0xbab2e393	-0.0013648145
240	0xbc855db5	-0.016280035
241	0xbc668d1d	-0.01407173
242	0xbdaec50c	-0.085336775
243	0x3db7aa29	0.08968002
244	0x3d35590f	0.044274386
245	0x3e9243fd	0.28567496
246	0xbdb79b49	-0.08965165
247	0xbd97fccd	-0.07421265
248	0x3d103f38	0.03521654
249	0x3c9e3697	0.01931314
250	0xbd2e594f	-0.04256564
251	0xbd81d822	-0.06340052
252	0xbc8ddfb7	-0.01731859
253	0x39297137	0.00016159272
254	0xbccdc583	-0.025118595
255	0xbd670e32	-0.056410022

tabnet.initial_splitter.shared.glu_layers.0.fc.weight f4 [96, 1038]
0	0x374e251f	1.22872e-05
1	0xb84f5bcc	-4.943814e-05
2	0xb70b830f	-8.31556e-06
3	0x37249d24	9.811749e-06
4	0xb74e7181	-1.2304984e-05
5	0x38efe129	0.000114383474
6	0xb4c9c73f	-3.7584138e-07
7	0xb87d4496	-6.0383776e-05
8	0x38183efc	3.6298283e-05
9	0x36ded84d	6.6412963e-06
10	0xbd8b0afa	-0.06789203
11	0xb66b060e	-3.5021253e-06
12	0x3642e81a	2.9043354e-06
13	0xb96879f3	-0.00022170674
14	0xb6411102	-2.876914e-06
15	0xb8733bf7	-5.799156e-05
16	0x38b07cd0	8.415582e-05
17	0xb79b9fd0	-1.8551858e-05
18	0xb5a73673	-1.2458316e-06
19	0xbd43a97d	-0.04776906
20	0x389e1a70	7.5389515e-05
21	0xb9888872	-0.000260416
22	0xb794e642	-1.7750197e-05
23	0x388652da	6.40505e-05
24	0x397a5ca1	0.00023876365
25	0xb7f79f7d	-2.9518962e-05
26	0xb84159c4	-4.6098387e-05
27	0x369ee838	4.7358008e-06
28	0x38fb9a4c	0.00011997353
29	0x380355ab	3.131262e-05
30	0x38f0b8a7	0.00011478486
31	0xbd88511f	-0.066560976
32	0xb9a7d6de	-0.0003201281
33	0x38d233c5	0.00010023223
34	0x35af4368	1.3058134e-06
35	0xb94ea7e4	-0.00019708235
36	0x398843e6	0.0002599053
37	0xb65c0790	-3.2786957e-06
38	0xb991296f	-0.00027687426
39	0x39582e01	0.00020616503
40	0xb8c20c5c	-9.252943e-05
41	0xb9a8929c	-0.0003215269
42	0x365e1b06	3.3096308e-06
43	0x3848c8ce	4.787073e-05
44	0x39c9071f	0.00038343013
45	0xb39d8c3c	-7.336391e-08
46	0xb9850d00	-0.00025377423
47	0xb83ce134	-4.503243e-05
48	0xb09e2794	-1.1507262e-09
49	0xb97c5655	-0.00024064754
50	0x38ed3a61	0.000113119146
51	0xb1c0867a	-5.6032237e-09
52	0x306cc489	8.6135593e-10
53	0xb9cd7cc1	-0.00039193596
54	0xb62cc61f	-2.574532e-06
55	0xb8e8f662	-0.000111085144
56	0x3906adb1	0.00012843941
57	0xb5a3322d	-1.215905e-06
58	0x380f9f67	3.424231e-05
59	0xb81062ad	-3.4424174e-05
60	0xb90763ab	-0.00012911732
61	0x301bbbc5	5.665551e-10
62	0xb95d9d6f	-0.00021134851
63	0x32a43acd	1.9118852e-08
64	0x390f8add	0.00013689273
65	0x359cb76a	1.1676286e-06
66	0x33749d5f	5.6953805e-08
67	0x3868d3c9	5.551035e-05
68	0x3d44ae34	0.048017696
69	0x360fe3cb	2.1441253e-06
70	0xb69885d8	-4.5455345e-06
71	0xb83fbc65	-4.5713405e-05
72	0x3b4f9f25	0.003168055
73	0x3db4a93c	0.088213414
74	0xb333e945	-4.1888843e-08
75	0x368a9bfc	4.1308795e-06
76	0x37b2af28	2.1300817e-05
77	0xb9624709	-0.00021579502
78	0xb770ba74	-1.4348527e-05
79	0x38e02396	0.00010687781
80	0xb8c1df28	-9.244523e-05
81	0x36ee8f30	7.109622e-06
82	0xb225a46b	-9.641648e-09
83	0x3934c7ae	0.00017240524
84	0xb844ea9c	-4.694854e-05
85	0xb9097d2b	-0.00013111967
86	0xb7f9ca03	-2.9777182e-05
87	0xb84ec163	-4.9294333e-05
88	0xb965b6a1	-0.00021907176
89	0xb5e506d8	-1.7063821e-06
90	0xb4ca5bf1	-3.7692328e-07
91	0xb8b12265	-8.446424e-05
92	0xb780dace	-1.5360678e-05
93	0x39bdf95a	0.0003623467
94	0x3cd033cc	0.025415324
95	0x39469762	0.00018939146
96	0x37573b61	1.2828824e-05
97	0x39006d34	0.00012247713
98	0x37bf3e53	2.2797996e-05
99	0x335d6902	5.1551076e-08
100	0x37cb16d3	2.4210114e-05
101	0xb9f51a6f	-0.00046749736
102	0x39056384	0.00012720941
103	0x37ea151c	2.7904804e-05
104	0x38d32369	0.0001006786
105	0xb99a061a	-0.00029377715
106	0x37b05039	2.1018192e-05
107	0x37a5c650	1.976188e-05
108	0x34835cab	2.4468076e-07
109	0xbdaa71cc	-0.08322486
110	0x370e1295	8.468186e-06
111	0x392db0d9	0.00016564447
112	0x35de9eb5	1.6586479e-06
113	0x3781eda4	1.5488658e-05
114	0x39064626	0.00012805368
115	0x388d0070	6.7234854e-05
116	0x395b404b	0.00020909419
117	0x37942507	1.7660217e-05
118	0xb9c4e9c2	-0.00037558196
119	0xb99f35a0	-0.00030366797
120	0xb96e6329	-0.00022734389
121	0x36d5d499	6.3726443e-06
122	0x395bb9b5	0.00020954649
123	0x37e6dca6	2.7520884e-05
124	0xb9c1d959	-0.00036973765
125	0xb9338e53	-0.0001712379
126	0xb8de95d0	-0.0001061369
127	0x3a717668	0.00092110643
128	0x37c08bbf	2.2953258e-05
129	0xb85c5823	-5.253417e-05
130	0x37b97ef0	2.2112828e-05
131	0x39117408	0.00013871503
132	0x39f6c564	0.00047067844
133	0x38b39b6f	8.564337e-05
134	0xb920c1a9	-0.00015330933
135	0xb94700cf	-0.0001897842
136	0x3da01231	0.0781597
137	0xb85552fa	-5.0860435e-05
138	0x39305b69	0.00016818721
139	0xb89dd941	-7.52681e-05
140	0x38903ebe	6.878142e-05
141	0x3861421e	5.3705757e-05
142	0x36024948	1.9414165e-06
143	0x3892b0f4	6.9947826e-05
144	0xb823fdd6	-3.909863e-05
145	0x38e09dfc	0.00010710579
146	0xb8263c45	-3.9633615e-05
147	0xb6d8b1fa	-6.458021e-06
148	0x390e6919	0.00013581327
149	0xb8ba7e16	-8.8926565e-05
150	0xb8912e17	-6.922724e-05
151	0x38ee0193	0.000113490176
152	0x36964951	4.4788835e-06
153	0xb7d3b2c6	-2.5236408e-05
154	0x39a32067	0.00031113924
155	0xb986bf21	-0.00025700874
156	0x37963a59	1.7908564e-05
157	0x34db8d14	4.0894577e-07
158	0xbd3f2866	-0.046669386
159	0xb898f5f9	-7.293741e-05
160	0x3a7d9c26	0.0009674452
161	0xb96007a4	-0.00021365151
162	0xb8fb85cb	-0.000119935336
163	0xb8161132	-3.57788e-05
164	0xbc2407e9	-0.010011652
165	0xae8a0de9	-6.2779844e-11
166	0xb949c5c3	-0.00019242526
167	0xb43c83e3	-1.7556845e-07
168	0xb85ec0ce	-5.3108488e-05
169	0x3d6fa007	0.058502223
170	0xb51ba646	-5.798396e-07
171	0xb89e3dc0	-7.545529e-05
172	0xb9055a8c	-0.000127176
173	0xb77f0618	-1.5200603e-05
174	0x38a1def5	7.718607e-05
175	0xb7cc1c07	-2.4331746e-05
176	0xb9297b1b	-0.00016162956
177	0xbce5d74b	-0.028056761
178	0xb91fc015	-0.00015234978
179	0x390271e4	0.00012440194
180	0xbd8427c8	-0.064529
181	0xb82e0598	-4.1490042e-05
182	0x3906554b	0.0001281101
183	0xb9973a09	-0.00028844204
184	0x35f731b8	1.8417404e-06
185	0xb89bfd65	-7.438174e-05
186	0x35265fe5	6.1979364e-07
187	0xb89e92aa	-7.5613454e-05
188	0x3e023868	0.1271683
189	0x3843a680	4.6646688e-05
190	0xb95664ef	-0.00020446231
191	0x397df629	0.00024219662
192	0xb95783d9	-0.00020553115
193	0x378697cc	1.604473e-05
194	0x392d209e	0.00016510717
195	0xb8ed8d5f	-0.00011327373
196	0xb708f06e	-8.162211e-06
197	0x379e8968	1.8899053e-05
198	0x32892fb3	1.597059e-08
199	0x39191ec1	0.00014602674
200	0x389610a1	7.155655e-05
201	0x37452c4b	1.1752428e-05
202	0xb783086e	-1.5620342e-05
203	0xb9d00c6f	-0.00039682115
204	0x39a97393	0.000323203
205	0x38f4d74b	0.00011674928
206	0x3325ce3e	3.8604632e-08
207	0xb8e7e9ad	-0.00011058464
208	0xbcac7ace	-0.021054652
209	0x39834bfb	0.00025042877
210	0x39513db7	0.00019954784
211	0x39a08d06	0.0003062265
212	0xb8225680	-3.870437e-05
213	0xb664b8cb	-3.4082211e-06
214	0xb85a911f	-5.2110405e-05
215	0xb956761d	-0.00020452631
216	0x37b6e51d	2.180278e-05
217	0x381768e7	3.6098903e-05
218	0xb7b0ba49	-2.106758e-05
219	0xb8511d4b	-4.9856764e-05
220	0x38c09406	9.182845e-05
221	0xb8da7243	-0.00010416333
222	0xb817091f	-3.60097e-05
223	0x38a35903	7.7890254e-05
224	0x38279979	3.9958835e-05
225	0x3d107699	0.035269354
226	0xb6924b9a	-4.3599402e-06
227	0xb6bb5e48	-5.58401e-06
228	0xb831eb79	-4.241939e-05
229	0x3d898223	0.06714275
230	0xb10f52d9	-2.0856332e-09
231	0x3915f395	0.00014300489
232	0xb7a5dcff	-1.9772442e-05
233	0xb9008dd7	-0.0001225987
234	0x380e13cd	3.387388e-05
235	0x37e88a96	2.772109e-05
236	0x390adf83	0.0001324397
237	0x3d0248ca	0.0318077
238	0xb687be45	-4.045464e-06
239	0xbd546b3c	-0.05186008
240	0xb5659528	-8.55262e-07
241	0xb8037975	-3.134595e-05
242	0xb996cab7	-0.00028761264
243	0xb988e2a2	-0.00026108796
244	0xbd0d59a2	-0.03450931
245	0xb3070f63	-3.144613e-08
246	0xbe1f1e7f	-0.15538977
247	0x3729ac67	1.01133255e-05
248	0xb8041fa7	-3.150073e-05
249	0xb744e707	-1.1736301e-05
250	0x38516d70	4.9931405e-05
251	0xb8ef3c11	-0.00011407596
252	0xb7d58c07	-2.5456784e-05
253	0x32ea728d	2.7293277e-08
254	0x33a0d88f	7.4899724e-08
255	0xb79f82d9	-1.9015208e-05
