cv_steps/tabnet_raw_step1_fold0_0/network.pt (torch, 682379 bytes, 56 tensors)

embedder.embeddings.0.weight f4 [3, 1]
00000000: 040c a33b 7534 9f3d ea2b ccbd
0.0049757976 0.07773677 -0.099693134

embedder.embeddings.1.weight f4 [2, 1]
00000000: 1722 9cbc f61d 9c3c
-0.019059224 0.019057255

tabnet.initial_bn.weight f4 [1038]
00000000: ec41 493e 2362 d4bd c4c4 f83d beb3 603e
00000010: 7e57 033e a918 103e b224 4d3c 3d73 da3d
00000020: 979c 27b7 0ae3 ab3d cc82 833e a298 8435
00000030: e4ee ab3d 443b 153e 2229 643d d3d4 073e
00000040: 69ba fc3d 2db4 b03d d5b8 6b3d ea6f 063e
00000050: 5fe2 ec3c b49a 85bb b20c 7f3e c039 1d3e
00000060: 1bf3 713e eebf 423e cc63 0f3e e892 e83d
00000070: 3b53 b43c 2246 0b3e f63d a33d 6dac 273e
00000080: 8f64 543e 3aaf ca3d 0062 b63c e238 3b3e
00000090: 1653 423e 15c5 683a 1881 4c3e 4425 bb3c
000000a0: 4e44 793a de3e 873e c8d8 143e 14ea 303d
000000b0: 4cb6 0b3c 2f80 0a3e 5563 703b ba90 943c
000000c0: 1791 9d3d 45a0 3f3e 4d51 4b3e 4b46 45ba
000000d0: c37f 233e 76f9 653e f275 823d aea3 8e3d
000000e0: bebb 163e 63fa 623d f2a1 b23d 0236 723e
000000f0: b780 283e 4f32 0739 800e 763e b5c2 c43d
00000100: c84f 843e 5cab 313e 914c 9bb6 8ad6 d03c
00000110: a564 ad3b 2fe8 013d 3182 2a3e 3217 1a3e
00000120: cd33 5c3b fdb5 183e 7a05 153e 1cd4 853d
00000130: eda9 903d d8a0 c53e dbcd bf39 ae5a b13c
00000140: d749 443e 3e25 ba38 8d39 43bc 9ec4 103e
00000150: 687b 263a 0a83 b63d f3fe 3c3e 6dff 343e
00000160: fa32 5c3e c4d1 9d3d a35a b83d c3b8 a93d
00000170: 927d 313e 26ad 7d3e 025a d33d e609 c73d
00000180: 365f 193e e6ff db3d 5062 c93d abac 0f3b
00000190: 8844 3c3e 9ca5 593e 94a3 a83e 444b 7a3d
000001a0: 63a0 8f3e 766e 1c3e e85b 9c3d ee60 1e3e
000001b0: 3e03 9f3d f64c 1d3d 84ee 093e b382 cf3d
000001c0: f0d3 45bb 99c5 d43d 2045 033d 8b26 0c3e
000001d0: 7a69 bc3d 3e64 42bb e97d 2b3e 0fa6 2e3e
000001e0: db88 bf3d 5947 d239 019d 063e f883 a0ba
000001f0: 455a 3a3e 9b4a 803e bf15 7f3e 0181 413e
00000200: 636c e1b8 4a90 22bb 1c2a 233e 1600 b83c
00000210: 28b9 473e da5e 113e 03e2 1e3e 84fa 493e
00000220: c3d6 2d3e 5956 0a3e fcb9 c03d a35f f23d
00000230: fa9a db3b 7b58 33b9 f426 e53d cb81 02bb
00000240: 1fa2 e33d d9ee 033e 6795 443e 0fc4 fd3d
00000250: 4318 d13d b039 183e 02cc 3f3e 6d73 7c3e
00000260: 4ac3 083e 2d74 a9bb ae5d f73d 3de4 313d
00000270: 2fa3 033e 6bb1 e3bc eabb 4d3e da0c 993e
00000280: d578 bd3e 633e f93d 31f1 013e f4e5 7b3d
00000290: fb5b 2a3e ad62 dab9 504b 3d3e f4db 94bc
000002a0: f456 843e d555 433e 9266 183e 23a6 733e
000002b0: f2c5 023e ecb2 0d3e e8b6 ee3d ec8a 7a3e
000002c0: 8253 b53d 81dc ba3e 975e 9d3d a9b5 d436
000002d0: 7788 b53e 9da1 c63d e6a1 0e3e db42 1f3e
000002e0: dea1 b43d 7fba 163e d31d c13c bb67 0b3e
000002f0: 83d9 d43d 0d8b ac3d 31e5 d93c deab a33c
00000300: 6b8b 233e e256 e93d 91b2 ca3d 196c 793b
00000310: 0fae 2e3e 9654 153e 6dbb c33a b3b5 f93d
00000320: 50f4 833d 33e1 6e38 42cf 2cbb a2ac bf3b
00000330: 1388 9a3e 4f25 843e 609f 0c3e f5cc e63d
00000340: 8d9f 243e d367 833e 8eb4 743e 5981 0e3e
00000350: d8b7 2e3d d4f7 da3d 1c26 2f3c 77d1 033e
00000360: 537b b93c b30c d63d 8344 bd3d 4edb 643e
00000370: b66c ae3d 621c 4b3d 12ad 28b8 f1ea 2b3e
00000380: b0f8 393e fe67 d13c 880c 7dbb 80d6 353e
00000390: 1de8 a53d 9c56 c53d 34a4 24bd 3ce2 ea3d
000003a0: 4899 b63c 2498 883e 8e8d 493b 8e2b 523e
000003b0: 18d2 d73d b9a9 213e 1e6d cebd a09b 183e
000003c0: 99e8 ae3d 9739 2c3e 698d d23d 8365 4b3e
000003d0: 76a6 e23a f682 8f35 3247 973d cba3 ef3b
000003e0: e367 a93c 131a ff3d a093 8d3e 5f83 693c
000003f0: a52d 59b5 2535 10b8 c022 4b3d 4d23 d1b6
0.19654053 -0.103702806 0.12146905 0.21943566 0.12826344 0.14071907 0.012520956 0.10666511
-9.990435e-06 0.08392914 0.25685728 9.879188e-07 0.08395174 0.1457339 0.05570329 0.1326478
0.123402424 0.08628116 0.057549316 0.1312863 0.028916536 -0.00407728 0.24907187 0.15354061
0.23627894 0.19018528 0.14002913 0.11356145 0.022012344 0.13600972 0.079708025 0.16374369
0.20741485 0.09896703 0.022263527 0.18283418 0.18977007 0.0008879465 0.1997112 0.022844918
0.00095087744 0.2641515 0.1453582 0.043191984 0.00852735 0.1352546 0.00366803 0.018135417
0.07693689 0.18713482 0.19855233 -0.0007525428 0.15966706 0.22458443 0.063701525 0.06964813
0.14720055 0.05541457 0.08722295 0.23653415 0.16455351 0.00012893345 0.24028969 0.0960745
0.25842118 0.17350525 -4.6282735e-06 0.025492925 0.005291539 0.03171557 0.16651227 0.15047911
0.0033600212 0.14913173 0.1455287 0.06534597 0.07063661 0.38599277 0.00036583733 0.021649685
0.19168793 8.876108e-05 -0.011915577 0.14137504 0.00063507864 0.089117125 0.1845663 0.17675562
0.21503821 0.07706025 0.090016626 0.082871936 0.17333058 0.24773082 0.10319902 0.09718685
0.14977726 0.10742168 0.09833205 0.0021922986 0.18385518 0.21254581 0.329373 0.061106935
0.28052053 0.15276513 0.07634717 0.15466663 0.0776429 0.038403474 0.13469893 0.10132351
-0.003018614 0.10389251 0.032048345 0.13686578 0.091998056 -0.00296618 0.1674725 0.17055534
0.09352275 0.0004010748 0.1314583 -0.0012246361 0.18198498 0.2505692 0.24910639 0.18896867
-0.00010749025 -0.0024805241 0.15934032 0.022460978 0.19504225 0.14196339 0.15515904 0.1972447
0.16976456 0.13509502 0.09410474 0.118346475 0.0067018243 -0.00017103732 0.1118907 -0.0019913788
0.111149065 0.12884082 0.19197617 0.12390911 0.10209706 0.14865756 0.18730167 0.24653406
0.13355747 -0.00517132 0.12078415 0.043430556 0.12855218 -0.02779456 0.20091215 0.29892617
0.3700625 0.121701024 0.12689663 0.061498597 0.1663665 -0.0004165372 0.1848576 -0.018171288
0.2584759 0.19075711 0.14882877 0.23793845 0.12770823 0.13837785 0.1165598 0.24467057
0.088538185 0.36496356 0.07684057 6.3392404e-06 0.35455677 0.09698794 0.13928947 0.15552847
0.08819936 0.1471958 0.023573792 0.13613789 0.103930496 0.08424959 0.026598545 0.019979414
0.15971152 0.11393525 0.0989734 0.0038058816 0.17058586 0.14583048 0.0014933177 0.121928595
0.06443083 5.6953355e-05 -0.0026368652 0.005849437 0.3018194 0.25809714 0.13732672 0.11269561
0.16076489 0.2566515 0.23897001 0.1391653 0.042655796 0.10691801 0.010690238 0.12872873
0.022641813 0.10451641 0.09241583 0.22349283 0.08516829 0.049587615 -4.0215506e-05 0.16788842
0.18161273 0.025562283 -0.0038612206 0.17757607 0.08100913 0.0963566 -0.04019566 0.11468932
0.022289887 0.26678574 0.003075454 0.20524427 0.10538119 0.157874 -0.10079406 0.14903116
0.08540458 0.16818844 0.10280878 0.19862942 0.0017292041 1.0692445e-06 0.07386626 0.007313227
0.02067942 0.12456145 0.2765169 0.014252513 -8.090522e-07 -3.438177e-05 0.049593687 -6.232795e-06

tabnet.initial_bn.bias f4 [1038]
00000000: 3b70 08b9 17d5 e438 1834 22b8 3001 99b8
00000010: 1ec7 a6b8 73f0 88b8 20e3 89b7 64f8 9eb6
00000020: 8988 0cb0 6173 35be 8e04 fd39 3a04 3e2f
00000030: 0cf9 55b8 5f1d 5a37 61e0 c2b7 1aa3 85b6
00000040: 9d64 69b7 6031 3336 2074 5e39 722a 2ebd
00000050: 9fd5 28b9 bf75 7738 fd36 c2b7 0a58 8237
00000060: 7cbe 3eb9 200a 78b7 a571 a838 adc9 873e
00000070: a3b1 43b6 80a9 4938 1d39 9639 995b c1b7
00000080: b99d b338 5a5d f4b7 9a4c 25b7 ffba d838
00000090: 3851 9837 7921 9eb3 b35e 4bb8 eeb8 8537
000000a0: 22d4 1f36 c3a4 44ba 4e63 0038 4fc5 8738
000000b0: 7498 b936 a05f 8c38 8878 b037 22bb 8436
000000c0: 27f4 46b9 8df4 1b3e e3b8 07b8 e36b f534
000000d0: 8b8f 1f38 ec81 1939 b696 a6b8 c63d a8be
000000e0: c6ff 4437 3091 9e39 607d eb39 cf07 0139
000000f0: d806 8f39 8e49 efb3 7c0b 4fb9 fe1e 1f39
00000100: f6af 2a39 5a8d cfb8 4a84 3032 6825 9c3e
00000110: 0aa5 5cb6 ce79 9039 2683 cab9 7377 2bb9
00000120: 4929 d3b5 8186 d0b8 52b8 0db8 e8e3 48b8
00000130: 9de1 21b7 42aa 1539 430b 60b4 af5c da36
00000140: 1bff 3238 8245 62b5 32a5 e835 eebe 2a37
00000150: ca9a a1b4 d876 1137 d743 bdb8 2332 813e
00000160: 8fc3 9eb9 a59b 1fb7 8139 b1b9 bfa2 a2b7
00000170: 855c 8fb7 13dc 9c37 c791 b937 6e8b a3b8
00000180: 95f1 0bb8 e3c6 9638 e778 3b38 dbc0 5036
00000190: 87b6 b038 bb14 7338 2892 03b9 adb0 0539
000001a0: 2372 1cb9 7407 3fb8 fbe9 ae37 3411 1ab9
000001b0: 1ba4 3b38 e56c 7238 5022 7637 1921 6038
000001c0: 9925 43b7 968a ccbe c4a3 a438 4f2e 76b7
000001d0: d1b1 7338 5998 8236 f31a 5abd 20b1 a4b8
000001e0: 849e cd37 cd54 b0b5 e2d7 5738 184e 51b5
000001f0: a40d 5737 82f3 0738 66fb 983e 76b6 abb9
00000200: c162 9fb3 87dc dcb4 6a40 6138 d933 89be
00000210: 298e 0238 a780 ec38 363a a8b8 14dc bcb7
00000220: 98f6 a4b9 3fec 0ab9 6390 2a37 5124 df37
00000230: 6f59 9937 24cf 61b6 b9bc ff37 90ba 00b8
00000240: a870 38b8 e595 3739 943d 36b8 c2ed 09b9
00000250: 169c 07b9 6383 dcb8 2b21 8b38 ba41 2b38
00000260: 2227 5038 c510 ba37 e381 3538 08fe deb8
00000270: 6293 86b9 2cca a8b7 988f 33b9 8bf3 4e3d
00000280: 5d27 abb9 2986 e0b5 6467 27b7 0a03 dd36
00000290: 34d7 923c 87c7 97b5 ea99 95b8 d7ca 0d38
000002a0: e27f 06b9 e60a 11b9 078a 01b9 b3b2 1438
000002b0: 6a3f d938 77b5 30b8 41d4 563e 6ad1 c238
000002c0: 0366 0638 333c 9b3d 659e 41b8 4987 ba32
000002d0: bfbb deb8 498d 3838 d7b9 9538 0537 be38
000002e0: 2a0f a1b7 3eca 9a3d 0784 9737 7f8c 7cb8
000002f0: 4910 dd38 7b01 8836 dbb0 e537 d002 90b5
00000300: 41a4 d937 f376 b5b8 ab53 8c38 dc9f 77b4
00000310: c948 0f39 2e78 1739 6d85 7cb6 ae67 18be
00000320: 55b1 4938 d799 8e33 dcb3 cb37 7b4d d2b7
00000330: 65a2 18be 14cc d439 6509 29b9 f925 8438
00000340: 9be5 dfb8 da44 91b9 d8a4 e638 3c73 6038
00000350: deea 453e 4804 bd38 41cf f7b7 9dca 0fb9
00000360: 79e7 f537 1aad b1b7 a2ea 9f3e a237 df39
00000370: df2e 4a39 7347 2cb8 1991 7932 09cd feb7
00000380: 4aba 1338 55d6 9c3e 6281 ecb6 49b0 c5b8
00000390: e916 d5b8 9bd4 0ab9 2dd8 233f 1900 98b9
000003a0: 71fd 08b8 9b7b 8639 99d4 4d38 6ec8 42b9
000003b0: 17cf e537 ab3a bfb7 d02b 0238 f0c5 2337
000003c0: b0f1 5038 92f0 bf38 69f0 9438 be7f 44b9
000003d0: bfec d9b6 32a9 edb0 b66d c93e b400 ffb6
000003e0: 3caf 7cb7 44d9 ebb5 e869 8a38 f721 1035
000003f0: a19b 582f a9ad 1331 492e c3b6 b3b1 42af
-0.0001301178 0.00010911578 -3.8672326e-05 -7.29583e-05 -7.952585e-05 -6.5297725e-05 -1.6437436e-05 -4.7376834e-06
-5.112573e-10 -0.17719795 0.00048259314 1.7281901e-10 -5.10151e-05 1.3000651e-05 -2.3231087e-05 -3.9826964e-06
-1.3911308e-05 2.6701819e-06 0.0002121483 -0.042520948 -0.00016101309 5.899905e-05 -2.3152208e-05 1.5538204e-05
-0.00018190773 -1.4784309e-05 8.032032e-05 0.26521054 -2.9160663e-06 4.8079994e-05 0.00028652782 -2.3050046e-05
8.564763e-05 -2.9130537e-05 -9.852602e-06 0.00010334513 1.8157632e-05 -7.363537e-08 -4.8487167e-05 1.594095e-05
2.3816324e-06 -0.0007501358 3.0610063e-05 6.474053e-05 5.5311775e-06 6.693532e-05 2.1036962e-05 3.9556917e-06
-0.00018973705 0.15230007 -3.2358697e-05 4.5713304e-07 3.804224e-05 0.00014639617 -7.943569e-05 -0.3285963
1.1742062e-05 0.00030244282 0.00044916105 0.00012305308 0.00027280184 -1.1142684e-07 -0.00019745337 0.00015174967
0.00016278014 -9.896858e-05 1.0274627e-08 0.3049729 -3.287862e-06 0.00027556572 -0.00038626156 -0.00016352329
-1.5732741e-06 -9.943266e-05 -3.378868e-05 -4.789597e-05 -9.6488775e-06 0.00014273173 -2.0865723e-07 6.507696e-06
4.2676093e-05 -8.429271e-07 1.7333425e-06 1.0177244e-05 -3.010121e-07 8.670344e-06 -9.0248584e-05 0.25233564
-0.0003028181 -9.513377e-06 -0.00033802915 -1.938769e-05 -1.7090011e-05 1.869913e-05 2.2121601e-05 -7.7984165e-05
-3.3365173e-05 7.189603e-05 4.4696873e-05 3.1106672e-06 8.426332e-05 5.795502e-05 -0.00012547581 0.00012749685
-0.00014919839 -4.554489e-05 2.0851372e-05 -0.00014692993 4.473711e-05 5.7798712e-05 1.4670732e-05 5.3436586e-05
-1.163166e-05 -0.39949483 7.850633e-05 -1.4673525e-05 5.810132e-05 3.8920375e-06 -0.053248357 -7.8531215e-05
2.4511719e-05 -1.3137702e-06 5.146105e-05 -7.797221e-07 1.2818175e-05 3.2413293e-05 0.29879302 -0.00032751606
-7.421978e-08 -4.1138648e-07 5.370417e-05 -0.2679737 3.1126812e-05 0.0001127732 -8.021707e-05 -2.2513828e-05
-0.00031464244 -0.00013248714 1.0166407e-05 2.6600583e-05 1.8280667e-05 -3.3648184e-06 3.048625e-05 -3.0691328e-05
-4.3973938e-05 0.0001750808 -4.344953e-05 -0.0001315391 -0.0001293275 -0.0001051489 6.6342145e-05 4.083079e-05
4.962751e-05 2.2180737e-05 4.327473e-05 -0.00010633102 -0.0002566828 -2.0121304e-05 -0.00017124263 0.05052523
-0.0003264499 -1.6728346e-06 -9.978048e-06 6.586667e-06 0.017924882 -1.1308447e-06 -7.1335424e-05 3.380593e-05
-0.00012826876 -0.00013832338 -0.00012353818 3.5452376e-05 0.00010359178 -4.2130672e-05 0.20979406 9.289647e-05
3.2043095e-05 0.075798415 -4.6162302e-05 2.171477e-08 -0.00010620755 4.40006e-05 7.139489e-05 9.070154e-05
-1.9199757e-05 0.07558106 1.8062083e-05 -6.021233e-05 0.000105411345 4.053288e-06 2.7381282e-05 -1.0729655e-06
2.5944903e-05 -8.6529086e-05 6.6913046e-05 -2.3061824e-07 0.00013664657 0.00014445253 -3.762859e-06 -0.148833
4.8087288e-05 6.6403736e-08 2.428324e-05 -2.507003e-05 -0.14905699 0.0004058784 -0.00016120596 6.3013234e-05
-0.00010676236 -0.00027707854 0.00010997959 5.3513082e-05 0.19327876 9.01302e-05 -2.9541205e-05 -0.00013713022
2.9314064e-05 -2.1180651e-05 0.31233698 0.00042575324 0.00019281682 -4.1074538e-05 1.4526699e-08 -3.0374636e-05
3.5221026e-05 0.30632272 -7.04841e-06 -9.426528e-05 -0.00010160899 -0.00013239907 0.64001733 -0.00028991772
-3.2660962e-05 0.00025650565 4.9073806e-05 -0.00018575948 2.7395361e-05 -2.2796294e-05 3.103522e-05 9.761643e-06
4.9816153e-05 9.1523994e-05 7.10197e-05 -0.00018739604 -6.494665e-06 -1.7292108e-09 0.39341515 -7.599674e-06
-1.506117e-05 -1.7572097e-06 6.600079e-05 5.3693606e-07 1.9700376e-10 2.149003e-09 -5.816841e-06 -1.7707329e-10

tabnet.initial_bn.running_mean f4 [1038]
00000000: 7706 abba e6b2 a4b9 35b0 af3b c0f5 89bb
00000010: 3097 a93b d76f 8137 3f20 6bbb ad19 913a
00000020: 626e 833b 2326 28ba 3969 54bc 3f63 5f3b
00000030: 0e08 ac3a 7b3f 553a 156b aab8 1168 ff39
00000040: 0eeb 9737 3289 523b f6ab 97ba adb0 51ba
00000050: 1aa7 0e3b d37d 223a e2c8 2cbb f370 e8ba
00000060: bd9f eb38 c2f1 a1ba 3634 d6bb db11 f23a
00000070: ce1f 9b3b 19ee a93a 1c71 a73b ee0c c33b
00000080: f68a 32ba 71d2 283c 3192 1bbb a5be d23a
00000090: e8fc d23a 859d 273b fdbe 7b3b 1eba 23bd
000000a0: 6f4d fe3c 3f06 813a f1fb 25bb dbdb f23a
000000b0: d2b9 bb3a 0b1b 363a 5a9f 223b f294 92bb
000000c0: e871 703b e62e 8e3a 8382 d23b e98b 883b
000000d0: f633 3cbd 1ecc d3ba 93dd 4439 1c16 1aba
000000e0: bfa3 773b ad2b 98bb abce e9ba 9dc8 9a3b
000000f0: d9f0 a3bc fe45 d3ba d481 91ba 84e0 3cbb
00000100: 659b cdbb 0eda 2dbc a2c9 5ebb 8546 163a
00000110: 43f0 10bb 2f2d 52bd cbfc 313a 40be 973a
00000120: edfa d63a e447 cbba 4830 b7bc c023 133b
00000130: e89a 963b e2d8 3abd 4b7b 8eba 52ac e7ba
00000140: a9f5 6eba 900f b03a 0cc6 173b 56a9 a93a
00000150: 5ffe 953a 5e2f 0b3a d607 9b3b 20c5 a5b9
00000160: 61f8 343c 1fc7 253a fb5f 2d3b 47dd 883b
00000170: a1d9 5cba 3550 863b 4a12 3fbb 16e9 b33b
00000180: d817 8939 99f2 5aba 4762 a0bb 0e0a b13b
00000190: 579d 0abb fc93 b13b 57b7 8f3c d1b1 2abb
000001a0: dca3 4bbb 3c5a 8ebb b8b6 833b 905a b7ba
000001b0: 0f11 bd3b 8573 6cba 452c 723b 2602 163b
000001c0: 451b 063a 1f8e 18ba fcf8 01bb 4316 63bc
000001d0: 776d 96ba 5400 2f3b a20a 083b 363c 523a
000001e0: 75cc 49bb ced5 8f3b f8ab 373b 983f 58bb
000001f0: 8d19 f73a 1d4e d63c 62f2 843a dbf0 3d3a
00000200: 6288 433b b529 173b 58e7 a9bc 1498 5bbb
00000210: 50f4 bd3b 2c09 d33c c53f 693b 8263 c83a
00000220: 076d 243b 3ca3 eeba a213 883b 0032 643a
00000230: 0e32 4d3b 5a95 543b a216 81ba d529 8939
00000240: b601 9b39 a302 483a 9bd6 c33b 29cc 2b3a
00000250: 6e7c 9a3b dddf f63b f66a a53a 3854 ac3a
00000260: 189f beba 4501 e03b f20e b4bb b9b9 0a3b
00000270: e3c6 df3b e806 8e3b f2da 7e3a 91a0 183b
00000280: e1b6 b93c 041c 823a 2825 933b 028f 80bb
00000290: fa47 ff3a 3bec ca3b 62a3 713b cfd4 2abb
000002a0: 328f 623b 8209 93ba 6d2a 3e3a a512 78ba
000002b0: 8585 2d3c 6fdc 2abb e7cb 203a 9288 a93a
000002c0: 4470 a0bb 4796 74bb 3428 d2ba 5947 bb3a
000002d0: fc97 0fbc 7115 303b 5e08 043b e6cb 2438
000002e0: f9e5 493b 756a 08bb 9931 db3a 645f b3bc
000002f0: 4794 763b 1692 7a3b e977 1abb bbad b2ba
00000300: 78f5 863a db1e c1ba ebc7 26bb fcdb 343a
00000310: c724 4d3a effc 5abc 82ea 16bb 48c8 643b
00000320: bd9b 683a a54d ef3b 1465 e6bb f98a 423c
00000330: 7de8 65bc 0fa1 d03a b9a7 9436 acac d43a
00000340: df30 8b3a a1ce d6b9 fe8c 7c3c 3684 783b
00000350: 9a86 fdb9 7e92 ceba 34a9 d43b 754b 3f3b
00000360: 84e2 063a cc27 ac3b 3a13 9fbb 9c07 cfba
00000370: b896 c0b9 5d95 fc3a f867 5dbb 4538 aa3b
00000380: a05a a3b9 2ba5 393a 03b8 2bb9 f89f 9539
00000390: f103 513b 7400 89bb 4729 8bbd fd7d 823a
000003a0: 401d fe39 018c 19bb 8b54 6e3b f0d1 6bbb
000003b0: bc3b 27bb a628 763b f931 963b f7f2 d03a
000003c0: e5cb 3d3a e30b 54bb 3d3b 093a e7b1 f43a
000003d0: b2ee dfba 793a 553a 71ba a93b a293 713b
000003e0: 17d5 0a3a 5eb3 c93a ea8f ba3c b3c1 5fbb
000003f0: bab8 5fbc 0bcb 823b f5e3 f73a b746 f139
-0.0013048191 -0.00031413807 0.0053615817 -0.004210204 0.0051754937 1.5430078e-05 -0.0035877374 0.0011070274
0.0040109614 -0.0006414374 -0.01296454 0.0034086255 0.0013124959 0.00081347645 -8.126177e-05 0.00048714926
1.8110059e-05 0.0032125232 -0.0011571634 -0.0007999044 0.002176708 0.0006198559 -0.0026364853 -0.0017733857
0.00011235427 -0.0012355375 -0.0065369857 0.0018468456 0.004734016 0.0012964635 0.0051099192 0.005952469
-0.0006810868 0.010304079 -0.002373826 0.0016078545 0.00160971 0.0025576067 0.0038413398 -0.039972417
0.031042783 0.000984378 -0.002532717 0.0018528657 0.0014322347 0.0006946779 0.002481422 -0.004473322
0.0036688987 0.0010847717 0.0064242496 0.004167069 -0.04594799 -0.0016158854 0.0001877456 -0.00058779283
0.003778681 -0.0046438784 -0.0017838081 0.004723622 -0.020012306 -0.0016118882 -0.0011101314 -0.0028820345
-0.006274628 -0.01061107 -0.0033994694 0.0005732554 -0.0022115863 -0.05131262 0.0006789683 0.0011577085
0.0016401686 -0.0015509096 -0.02236189 0.0022451729 0.004596103 -0.04561699 -0.0010870484 -0.0017675257
-0.00091155857 0.0013432372 0.0023158817 0.0012944143 0.0011443606 0.00053094875 0.0047311587 -0.00031618122
0.011045546 0.0006323922 0.0026454914 0.004176769 -0.0008424763 0.004098917 -0.0029155188 0.0054904325
0.0002614844 -0.000835219 -0.004894528 0.00540281 -0.002115091 0.0054192524 0.017543478 -0.0026045928
-0.003107301 -0.004344253 0.0040195845 -0.0013988782 0.005769856 -0.00090198993 0.0036952656 0.0022889464
0.0005115758 -0.00058195175 -0.0019832244 -0.013860288 -0.0011476715 0.0026703076 0.002075829 0.00080198364
-0.0030792032 0.004389501 0.0028026085 -0.003299689 0.0018852219 0.026160294 0.0010143036 0.0007245668
0.002983593 0.002306563 -0.020740196 -0.0033507394 0.0057969466 0.02576121 0.0035590988 0.0015288445
0.00250894 -0.0018206607 0.004152731 0.00087049603 0.0031310352 0.0032437653 -0.0009848664 0.00026161844
0.0002956518 0.00076297874 0.0059765107 0.00065535546 0.00471454 0.007534011 0.0012620378 0.0013147658
-0.0014543263 0.006836089 -0.0054949457 0.0021167828 0.006829129 0.0043343194 0.00097219564 0.0023289064
0.022670211 0.0009926562 0.0044905134 -0.003923298 0.0019476407 0.0061927116 0.0036871065 -0.0026066785
0.0034570214 -0.0011218044 0.0007254247 -0.00094632275 0.010590916 -0.002607133 0.00061338994 0.0012934378
-0.0048961956 -0.0037321018 -0.001603371 0.0014288231 -0.008764263 0.0026868249 0.0020146589 3.9290542e-05
0.003080724 -0.0020815406 0.0016723155 -0.021896072 0.0037625001 0.0038234047 -0.0023570007 -0.0013632098
0.0010296544 -0.0014733927 -0.002544875 0.00068992353 0.00078256096 -0.013365968 -0.002302796 0.0034909416
0.00088733045 0.007302957 -0.0070310924 0.011873954 -0.01403248 0.001591714 4.430269e-06 0.0016225777
0.0010619423 -0.0004097121 0.0154144745 0.00379206 -0.00048356206 -0.0015760211 0.006489897 0.0029189263
0.0005145448 0.0052537676 -0.004854587 -0.0015795114 -0.00036733388 0.0019270588 -0.0033783894 0.005194696
-0.00031157304 0.0007081802 -0.0001637638 0.0002853868 0.0031893218 -0.004180962 -0.067949824 0.000995576
0.00048468448 -0.0023429396 0.003636631 -0.0035983287 -0.0025517782 0.003756085 0.004583594 0.001594155
0.00072401605 -0.0032355718 0.00052349624 0.0018668742 -0.0017084687 0.0008134018 0.0051796963 0.0036861678
0.0005296035 0.0015388539 0.022773702 -0.0034142553 -0.013654882 0.0039914898 0.0018912541 0.0004601979

tabnet.initial_bn.running_var f4 [1038]
00000000: ba06 e83b 1da1 9039 83e3 7b3f fafb 783f
00000010: 3330 783f 9ef2 783f d98b 793f 0b39 793f
00000020: 77c5 783f 7e57 793f 6751 893f 712f 783f
00000030: 3b23 793f bff2 793f 8674 783f 159d 7d3f
00000040: b3a5 7c3f fda8 783f 8ff4 793f b009 7b3f
00000050: 52f6 783f 32a9 783f a146 793f a582 783f
00000060: 10ae 783f 0569 773f 310f 783f 4c4e 793f
00000070: 53fa 773f 50c3 773f 0580 793f ef0e 7a3f
00000080: d14b 793f 61a7 863f a029 783f 2aa7 783f
00000090: 8dda 7a3f 79cf 773f 6b4a 7e3f 4efc a53f
000000a0: e671 973f e6bc 783f 1626 803f 9d3a 7a3f
000000b0: 5658 793f d6f8 7a3f aefc 773f d412 793f
000000c0: 1233 813f cf38 793f 5c1c 7d3f 4a76 773f
000000d0: 7caf aa3f b6de 773f 7165 793f 20f4 7b3f
000000e0: 826d 7d3f 087c 7d3f e362 7b3f 863d 7d3f
000000f0: ff36 913f 2640 7c3f f27c 783f d4a5 7b3f
00000100: 15c2 843f 0d83 843f 5045 773f 5304 7c3f
00000110: 69de 783f 6dc7 b03f c9b5 783f a1bb 773f
00000120: 9013 783f faa6 773f adbe 8d3f 1b64 783f
00000130: e4ca 853f 73c3 a73f 2392 783f 37b4 793f
00000140: b404 7a3f 10b0 773f 8d3b 793f feee 783f
00000150: ec90 793f 6f52 7a3f 1cda 783f 4713 793f
00000160: 90eb 833f c3dc 793f b212 773f 089d 773f
00000170: d615 7a3f 18e2 7e3f 20bc 7a3f 6d8c 783f
00000180: a2b3 783f 5272 7a3f b4e2 813f 155d 813f
00000190: b7a2 803f ae53 763f 8a40 8a3f ae1f 793f
000001a0: 5d9d 7c3f 7a7f 793f b790 773f ed91 763f
000001b0: 599c 803f 4feb 793f 34c3 793f e722 783f
000001c0: 29c0 793f d488 7a3f f5df 783f e1ca 8e3f
000001d0: cb30 773f 2da6 783f e8f0 7b3f 6ee6 7b3f
000001e0: 03c7 783f 4c68 793f bae8 773f 34c6 803f
000001f0: 587a 773f 3c44 963f f811 783f 6e14 783f
00000200: 56be 7c3f 4f5b 763f bbe3 8d3f 46e6 773f
00000210: 10b6 813f ba0b 9a3f ee3f 813f 42e9 7c3f
00000220: ee34 773f 4ffe 783f d4d2 783f 08fc 763f
00000230: 91f9 793f a8bd 793f b24b 783f 7ed5 783f
00000240: 1b39 7b3f 2d01 793f accf 813f f58b 793f
00000250: d17f 7e3f 465c 823f 168e 7d3f 311f 773f
00000260: 2633 783f 14a4 793f f4d3 813f a566 793f
00000270: 690a 783f f9f0 803f 0bc4 773f 89df 783f
00000280: 42cc 923f f923 793f e0e7 7c3f 2aab 783f
00000290: 4e6f 783f e1f4 823f 2c63 813f b903 783f
000002a0: 624d 793f acbc 793f d33c 7b3f 0170 783f
000002b0: de2f 843f 18a6 7a3f fbc9 793f 137f 793f
000002c0: cc1d 7a3f f57e 773f e781 793f 3ce9 7e3f
000002d0: 0073 8a3f 2fb3 753f d6fc 783f 384c 7d3f
000002e0: a0e5 773f 1840 813f 5f1c 783f f05b 903f
000002f0: 46a2 7a3f 237d 783f 4f28 783f 8c97 803f
00000300: b1cd 773f 3dce 793f 5687 7a3f b330 7a3f
00000310: de01 7a3f b54b 8c3f 7475 7a3f c0ca 803f
00000320: b320 7b3f e509 793f bcb4 783f e98f 883f
00000330: 3007 883f 8b3f 783f 6aee 7a3f 8c13 773f
00000340: b496 773f 97d2 783f e424 8a3f c623 783f
00000350: b88a 7a3f 47be 773f 38ee 793f e57a 7c3f
00000360: 5294 773f 0350 813f 3b5f 783f 3c20 793f
00000370: f212 7a3f bd46 793f af0d 7a3f 7251 793f
00000380: 78cd 773f 8730 793f 5ede 773f 889b 773f
00000390: 309d 833f 0a86 773f cc1c ba3f 6d16 793f
000003a0: 27b4 793f d260 7f3f 53e8 793f 26f8 773f
000003b0: 6aa7 7b3f bc03 7e3f b8c9 783f 281e 773f
000003c0: 6006 783f 4cdb 793f 4d23 783f 21b1 793f
000003d0: 84cf 7a3f 9663 813f 7b45 7c3f 8610 7b3f
000003e0: ccb0 783f 064e 763f a9c5 923f 3044 7c3f
000003f0: cb62 873f e753 813f b49f 773f 5858 7a3f
0.00708088 0.0002758586 0.9839403 0.97259486 0.96948546 0.97245204 0.97479016 0.97352666
0.9717631 0.9739913 1.0727967 0.9694739 0.9731938 0.97636026 0.970528 0.99067813
0.98690337 0.97132856 0.9763879 0.98061657 0.97250855 0.9713317 0.97373396 0.9707435
0.971406 0.9664462 0.9689818 0.97385097 0.9686634 0.967824 0.9746097 0.97679037
0.9738131 1.051983 0.96938515 0.9713007 0.9798973 0.96800953 0.993323 1.2967622
1.1831634 0.97163236 1.0011623 0.97745687 0.97400415 0.98035944 0.96869934 0.97294354
1.009371 0.9735231 0.988714 0.9666487 1.3334804 0.96824205 0.9742041 0.9841938
0.9899522 0.9901738 0.98197764 0.98922 1.1344908 0.9853538 0.9706565 0.9829991
1.0371729 1.0352494 0.9659014 0.984441 0.9721437 1.381086 0.9715238 0.96770674
0.9690485 0.9673916 1.1073815 0.9702775 1.0452542 1.3106521 0.97097987 0.9754061
0.97663426 0.96753025 0.9735649 0.97239673 0.9748676 0.97782034 0.9720781 0.9729504
1.0306263 0.9760248 0.965129 0.96723986 0.9768957 0.9956374 0.97943306 0.9708927
0.971491 0.9783069 1.0147309 1.0106531 1.0049657 0.96221435 1.0800946 0.97313964
0.9867762 0.9746014 0.9670519 0.96316415 1.0047714 0.9762468 0.9756348 0.96928257
0.9755884 0.97865033 0.9721673 1.1155664 0.9655883 0.97128564 0.9841447 0.9839848
0.9717867 0.9742477 0.9683949 1.0060487 0.96671057 1.1739573 0.9690242 0.96906173
0.9872793 0.96233076 1.1085123 0.96835744 1.0133686 1.2034829 1.0097635 0.98793423
0.9656514 0.97263044 0.971967 0.9647832 0.97646433 0.9755502 0.969905 0.97200763
0.9813401 0.9726742 1.0141501 0.9747918 0.9941378 1.018441 0.9904493 0.9653197
0.96953046 0.9751599 1.0142808 0.9742225 0.96890885 1.0073539 0.9678351 0.9721609
1.1468585 0.97320515 0.98791313 0.97136176 0.9704484 1.0230981 1.010839 0.9688068
0.973837 0.97553515 0.98139685 0.97045904 1.0327108 0.9790969 0.9757382 0.97459525
0.97701716 0.96678096 0.9746384 0.9957464 1.0816345 0.9597654 0.972608 0.98944426
0.96834755 1.0097685 0.9691829 1.1278057 0.9790386 0.97065943 0.96936506 1.0046248
0.96798235 0.9758032 0.97862756 0.9773056 0.976591 1.0960604 0.9783547 1.0061874
0.9809677 0.9728072 0.9715078 1.0668918 1.0627193 0.9697196 0.9802004 0.965142
0.9671433 0.97196335 1.0792508 0.96929586 0.9786792 0.96774715 0.9762912 0.9862502
0.96710694 1.0102543 0.9702031 0.9731481 0.9768516 0.97373563 0.9767713 0.973899
0.96797895 0.9733967 0.9682368 0.96721697 1.0282345 0.966889 1.4540038 0.97299844
0.97540516 0.9975711 0.97620124 0.9686302 0.9830233 0.9922445 0.971828 0.9653039
0.9688473 0.97600245 0.96928865 0.975359 0.97972894 1.0108516 0.9854352 0.9807209
0.9714477 0.96212804 1.1466571 0.98541546 1.0577024 1.010373 0.9672806 0.9779105

tabnet.initial_splitter.shared.shared_layers.0.weight f4 [96, 1038]
00000000: d285 5fb9 4e83 81b8 69d0 9eb8 6c3e f2b9
00000010: 2d66 4cb8 e879 4db9 1d1b 82b8 b58d a5b8
00000020: 5e07 7c33 a5b4 5e3d 4aef 863a cc1b 8eac
00000030: 4798 7239 393d e2b8 9a4b 6439 012b 6fb7
00000040: 81b9 7cb7 6db5 b2b9 4ece 3538 930b e73b
00000050: c9bc a1b7 680c bb38 d895 19b9 69a4 ddb9
00000060: 96b2 22ba 165d c2b9 bcfe 0e3a 742f da3c
00000070: 4fc2 d838 d712 f1b9 6c7a 8c38 1c93 86b9
00000080: 7b01 153a 8729 f8b8 e8f4 0ab8 e299 2c3a
00000090: 6131 2bba 4f4c 98b5 4a48 a4b8 100b 67b4
000000a0: 5daa 5437 9eea 3cba d2c7 58b9 406c a238
000000b0: 10e5 8eb7 8721 8cb9 7acc 6138 5884 8536
000000c0: 18d9 16ba 0995 2bbe e480 bfb9 c274 b335
000000d0: 0b11 d5b8 14f4 c5b7 bbae 2839 0659 35be
000000e0: de4a 0239 e719 ad39 f43c 7739 13d9 263a
000000f0: e425 393a a9b3 eb33 8760 53b8 3dcd b0b9
00000100: 6406 ca39 21ce 04ba ce90 6e32 7378 28bd
00000110: 25fe 9cb6 15c6 a539 5130 a7b9 959d a2b9
00000120: 5719 2db6 f61b 0e39 3e7c 1cba 67f1 0b39
00000130: 9028 2637 e3ab cc3a 57ec 9fb7 e0ff bdb7
00000140: 5756 8eba cf43 b535 e766 5436 a924 e739
00000150: af70 bdb5 07ec 76b8 8855 203a 6e49 bbbd
00000160: 3a61 74ba e1f2 5f39 2e67 c1b9 dc5e 9936
00000170: 9044 f839 0705 8138 ba9e 98b9 ef14 1dba
00000180: 612c 82b8 a97a dfb8 ce08 8339 ea93 7036
00000190: 880d 3a3a b283 0339 1704 2bba b4d6 5039
000001a0: 43d8 27ba cbb9 84b9 872d 06b9 380a 1bba
000001b0: 7fbd 5ab8 7cbb 11b8 0740 9b39 a76b d4b6
000001c0: 3de1 0737 d5d5 afbd 1736 e537 8f9b db39
000001d0: c3ae cf39 0cf5 3d37 39a4 f6bd 372b 5039
000001e0: a98a 6739 41ee 6434 fe47 0eb9 73b9 53b4
000001f0: bc59 1a39 4f78 8438 1079 84bd b8af 49ba
00000200: 2a81 87b3 2421 1e34 7026 323a 08b6 69be
00000210: b730 8c39 34c6 03b9 c5ec 5fb9 0697 3239
00000220: 4386 9d39 f958 99b9 8eaf aeb9 0ed3 7f39
00000230: 8405 1d38 84d3 80b7 0509 0238 b23f 0938
00000240: db3f bcb9 dd5d a13a e28c ad38 9f8d b5b9
00000250: 0943 e239 5521 eab9 de69 12ba 9777 0539
00000260: 6e36 4139 1fd9 8338 3469 54b9 cb1f cdb8
00000270: 149a c439 4114 eb37 2e69 a6b7 2389 0c3d
00000280: b987 88ba e555 22b9 6b4c 80b9 c17c 1e39
00000290: 9c8f 583c 3ec7 8036 b46e a239 3455 feb9
000002a0: c18a a6b4 563e 4cb9 d693 31b9 9fd3 4c3a
000002b0: 71ac cc38 4842 e7b9 ee3e 77bd ac14 9e3a
000002c0: e1f4 a437 e32b 2b3e 1f24 88b9 c9c6 47b2
000002d0: 8754 12ba ee5c 81b9 1764 b1b9 efd5 5db9
000002e0: 17da d7b9 ebfd 3c3d 79ae 1738 1ddb 8cb8
000002f0: e921 1039 c264 1539 dcc6 68b9 f065 01b7
00000300: 5d37 9c39 d512 503a e337 29b8 8903 c7b5
00000310: 1163 2b3a d374 8f38 99e4 02b5 03ae ba3d
00000320: b0b7 4137 06ca bbb4 b373 b338 1094 63b8
00000330: 2af2 283d 0593 c538 fedf 44b9 8c8e b238
00000340: 95c0 163a 94a8 c5b9 aa7c 78b8 9d64 0db9
00000350: 7255 123e ac50 7439 fd56 ae37 657e 5eb9
00000360: 93fe 2a38 c399 80b8 1a67 0ebe 527a 3c39
00000370: b459 4a39 5efa b338 b5f8 2eb2 36ff fbb9
00000380: 7e93 c5b9 11e6 acbd fd21 0d37 eb8f c339
00000390: 69ad 0eba 435a 20ba 03f6 26be cf8f 2eba
000003a0: 0aff ef38 05c5 9838 2187 80b9 297a 7db8
000003b0: b717 8b39 d227 d639 b610 bcb8 c64e 1ab8
000003c0: b894 0639 2bdd 2139 0a37 073a 7f0d c5b9
000003d0: c828 33b7 9e9d 0bb2 a4f0 14be 39ff 5bb7
000003e0: c43b c1b9 039a ac39 1902 5dba 713a e436
000003f0: 375b b6af 02b6 9634 f80d 96b8 40c1 84b2
-0.00021316789 -6.175657e-05 -7.5728465e-05 -0.00046204345 -4.873255e-05 -0.00019595737 -6.203933e-05 -7.894208e-05
5.8680023e-08 0.054371495 0.0010294702 -4.038969e-12 0.00023135646 -0.000107879234 0.00021771938 -1.4255523e-05
-1.50635615e-05 -0.00034085978 4.33459e-05 0.0070509403 -1.9280606e-05 8.919166e-05 -0.00014647038 -0.000422749
-0.0006206421 -0.00037071918 0.00054548285 0.026633956 0.000103358754 -0.0004598114 6.698523e-05 -0.00025668077
0.00056841195 -0.000118332966 -3.312985e-05 0.00065842096 -0.00065304904 -1.1347091e-06 -7.833594e-05 -2.1517576e-07
1.26758505e-05 -0.00072065915 -0.00020673804 7.744925e-05 -1.7034385e-05 -0.0002672786 5.3834614e-05 3.9791157e-06
-0.00057543954 -0.16756071 -0.0003652639 1.337052e-06 -0.00010159806 -2.3597888e-05 0.0001608682 -0.17709741
0.00012425656 0.0003301643 0.00023578462 0.0006364744 0.0007062836 1.097572e-07 -5.039622e-05 -0.0003372225
0.00038533204 -0.0005066116 1.3886348e-08 -0.041130494 -4.6787486e-06 0.00031618835 -0.0003188872 -0.00031016456
-2.5793759e-06 0.00013552592 -0.0005969441 0.00013346002 9.903815e-06 0.0015615191 -1.9064331e-05 -2.2649707e-05
-0.0010859472 1.3505286e-06 3.1650359e-06 0.00044087067 -1.4114393e-06 -5.8870788e-05 0.0006116261 -0.09144865
-0.0009322349 0.00021357417 -0.00036888703 4.5707984e-06 0.0004735333 6.152136e-05 -0.0002910996 -0.0005992194
-6.207149e-05 -0.00010656316 0.00024992827 3.5848884e-06 0.0007097353 0.00012542194 -0.0006523742 0.00019916409
-0.000640277 -0.00025315429 -0.00012796196 -0.00059143035 -5.2151732e-05 -3.4745302e-05 0.00029611608 -6.3306247e-06
8.099069e-06 -0.08585707 2.7324115e-05 0.00041886835 0.00039612324 1.1322332e-05 -0.12043042 0.00019852525
0.00022081532 2.1320831e-07 -0.00013568994 -1.9718372e-07 0.00014720013 6.31666e-05 -0.06468403 -0.00076937256
-6.309922e-08 1.4726953e-07 0.0006795889 -0.22823346 0.00026739176 -0.0001256697 -0.00021355141 0.00017031663
0.00030045406 -0.00029248724 -0.00033318665 0.00024397319 3.7436854e-05 -1.5357284e-05 3.1002815e-05 3.2722666e-05
-0.0003590573 0.0012311299 8.275524e-05 -0.00034628526 0.00043156024 -0.00044656792 -0.00055852334 0.00012728419
0.00018426191 6.287009e-05 -0.00020257087 -9.781084e-05 0.0003749883 2.8023615e-05 -1.983772e-05 0.03431047
-0.0010416425 -0.00015481522 -0.00024470998 0.00015114529 0.013217833 3.837892e-06 0.00030981528 -0.00048510137
-3.1020866e-07 -0.00019478178 -0.00016935109 0.00078135164 9.759598e-05 -0.00044109137 -0.06036275 0.0012060604
1.9664354e-05 0.1671596 -0.00025966854 -1.1628523e-08 -0.00055820536 -0.00024674035 -0.00033834644 -0.00021155899
-0.00041170485 0.046140593 3.6163696e-05 -6.716533e-05 0.00013745543 0.00014247283 -0.00022199325 -7.712733e-06
0.00029795888 0.00079373765 -4.034479e-05 -1.4827684e-06 0.00065378944 6.8405316e-05 -4.876143e-07 0.09115221
1.15464645e-05 -3.4978456e-07 8.556936e-05 -5.425891e-05 0.04124657 9.4210765e-05 -0.0001877546 8.514253e-05
0.0005750743 -0.0003770037 -5.924391e-05 -0.00013484289 0.14290407 0.00023299706 2.0782923e-05 -0.00021218655
4.076825e-05 -6.132156e-05 -0.13906518 0.00017974645 0.00019297638 8.58202e-05 -1.0184682e-08 -0.00048064598
-0.00037684658 -0.08442319 8.412168e-06 0.00037300526 -0.000544271 -0.00061169657 -0.16304784 -0.00066590024
0.00011443913 7.2846226e-05 -0.0002451474 -6.043367e-05 0.00026529815 0.0004084693 -8.967651e-05 -3.6789825e-05
0.00012834638 0.00015436548 0.0005158043 -0.00037584823 -1.06787265e-05 -8.126703e-09 -0.14544922 -1.3112841e-05
-0.00036856357 0.00032921144 -0.00084307935 6.801733e-06 -3.317042e-10 2.8072105e-07 -7.155159e-05 -1.5454702e-08

tabnet.initial_splitter.shared.shared_layers.1.weight f4 [96, 48]
00000000: cef7 af3e 828c 0ebc 0d53 473d 0fbc 303b
00000010: aea0 c83c 70b9 25b9 9992 c33c 6041 603c
00000020: 62af 09bd 70f5 debb e412 5dbd a8ce bdbc
00000030: 0452 483c ece4 0cbb eab4 cbbc 36b5 c3bc
00000040: a109 833a 4ed0 94bb 6d33 f13c 0a43 1b3c
00000050: 6ea5 6c3c 696e 70bc 90c0 ad3c 37d8 e3bc
00000060: 43f4 05ba d702 91ba 7fd3 d53a 8998 e0bb
00000070: d48d 84bb 7b4e 93bb 2a26 9539 a8e7 8a3b
00000080: 4092 1e3a 5d87 41bb 9d45 79bb 0de0 153a
00000090: 75b7 9d3b 8319 b33b b0ee 763b cfa8 b4bb
000000a0: a68e 0f3c 4e7d b4bc 5701 e73a 8534 723a
000000b0: dca9 c33a 2bb3 8cba a848 4fba dee9 89b9
000000c0: c1a3 5fbd 5013 c53e 3470 33bd d0e2 3dba
000000d0: ccd8 9bba fe71 8bbd a296 2abd 5a50 57bb
000000e0: 4311 86bd 3fde ac3b 0cc5 b3bc 1dea 46bc
000000f0: 6588 c53c e3df ba3a a3de 73bc ac23 cdbc
00000100: 0dbb 12bc 00ef 08bc 931b 7cba 658b f33a
00000110: 087b a8bc 2afb 053d 2c99 c1bc 6313 78bc
00000120: 429a 05bd e7cf c0bc 73a2 7a3a 9fad bdbd
00000130: cf4f 43bd 9236 5ebd 2182 c5bc 500e c13c
00000140: f50a 173d 8706 94bc ca4f e4bc 19bf 243d
00000150: ced3 d73d 059c 143d b616 403d 19ba 1cbd
00000160: a377 013e 26eb 9ebe a33e 3b3c 99ad abbc
00000170: 61e7 203d 3332 2cbd d054 863c 880e 62bc
00000180: d255 1b3d c779 36bd 2877 4d3e aeb6 90bb
00000190: a227 813b 09d6 1f3c 778f 0dbd 8677 97bb
000001a0: 3383 31bd f83d 6f3d b608 e4bc 5825 8e3c
000001b0: d92b aabc f043 d8ba 1992 c9bc f324 2bbd
000001c0: 7874 d5bd f74e f83b c04f febd 74e7 e13c
000001d0: 60b0 a3bc 8cd4 ae3b 3a76 6abd 915d 303c
000001e0: 91b3 ddb9 b5f8 59ba 3fec 113a fbc4 46b9
000001f0: 5603 23bb afca 3abb 0eab 923a 4e14 af39
00000200: 75ef 793a 7e1d 0a3a a257 9fb9 b1cc bdba
00000210: 3df9 dbb9 eead 6bba a4f5 2dba f851 d0bb
00000220: c72c 963a 21bb 37bc 0457 d23b dd01 5cba
00000230: 07b7 e1b9 c87c 583a 6af8 97ba 542a f839
00000240: 715a a63b 6ec8 27bc 8c6a f7bc 5f04 333b
00000250: e8a3 873c c68f b1bc 95cc 803c fa56 123b
00000260: 79a5 82bc ff78 77bc 49eb 8abc 0d7f 51bc
00000270: 38b5 aa3c a2e3 e5b8 d312 46bd d838 1fbd
00000280: 3605 723c 85f6 b0bc 43d9 a53c 4aeb 0f3c
00000290: be61 fe3b d993 42bc d7a5 b93c 3f33 8fbc
000002a0: 6833 27b7 9da9 3f38 ea4d 3138 a010 1db8
000002b0: bc07 ea39 31a6 78b8 025d 3838 4aa1 40b7
000002c0: 6a58 ec37 fcca 30b8 66f0 83b8 2eb7 2bb8
000002d0: eb1e 5d38 7d1c 28ba 5c8d 92b8 2736 2fb9
000002e0: d302 10ba fed4 3eba 97cc 6d39 089f c937
000002f0: 5751 d437 9146 cb37 9a0a 98b8 a46a 4138
00000300: c991 27bc f547 473c 34b6 29bd 4b84 3b3b
00000310: a3d7 a13e 3a5a 68bc 2168 223d a26d 8e3a
00000320: a7d2 7ebc 5a97 75bd e1ab 10bb 042b edbc
00000330: d776 50bc 2b5b 23ba 4051 a9bc 9ef6 82bd
00000340: b015 fabc bfd7 29bc c816 633c 2665 6abc
00000350: 173d 6abc 0ac2 a3bc 50f8 2a3d a6a5 9abb
00000360: 2674 06bb 7399 cebc 2ff9 773c 96e5 c1bc
00000370: 0982 44bb 082a 63bc fd28 95bb 7f5b ee3b
00000380: 3689 88b9 994c fb3a 5ff3 74bb f6b6 cb3b
00000390: 9c3f ff3c 96a6 db3c 4eeb f53b 7e8a 0fbd
000003a0: f0e2 273d c374 bebd 70cf 943c d0ef 70bb
000003b0: 5603 133c 6773 a03b 53fb 253c 8ab1 9cbc
000003c0: 8ba7 393b adec 43bd c69e 0eba 4f0e 7e3a
000003d0: 7d64 82bc c06a a83e a6f0 bfbc 9301 54bb
000003e0: c541 5bbc bc5c 88bc 59ad 16bd 2808 12bd
000003f0: 725d 1ebd c4f0 a6b9 723e b4bc 8406 32bd
0.34368747 -0.008700492 0.048663188 0.002696756 0.02449068 -0.00015804707 0.023873614 0.013687462
-0.033614524 -0.006804161 -0.053973094 -0.02316983 0.012226585 -0.0021498753 -0.02486654 -0.023890119
0.0009997376 -0.0045414334 0.029443467 0.009476433 0.014443738 -0.014674761 0.021209985 -0.02781306
-0.0005109945 -0.0011063468 0.0016313641 -0.006854121 -0.0040452275 -0.0044954396 0.0002844793 0.0042390414
0.00060490146 -0.0029530146 -0.0038035878 0.0005717285 0.0048131295 0.0054656877 0.003767889 -0.0055132876
0.008762037 -0.022032406 0.0017624301 0.00092393934 0.0014927941 -0.0010734549 -0.000790725 -0.0002630492
-0.054599527 0.38491297 -0.043808177 -0.00072435755 -0.0011890172 -0.06808852 -0.04164756 -0.003285429
-0.06546261 0.0052755172 -0.021944545 -0.012140778 0.02411289 0.0014257397 -0.014884624 -0.025041424
-0.008955729 -0.008357763 -0.0009617146 0.0018580972 -0.020566478 0.03271023 -0.023632608 -0.015141341
-0.032617815 -0.023536636 0.000956095 -0.09261631 -0.047683533 -0.05425126 -0.024109902 0.023566395
0.036875684 -0.018069519 -0.027870078 0.040221307 0.105384454 0.036281604 0.04689666 -0.038263414
0.12643294 -0.3103878 0.011428508 -0.020956801 0.03928316 -0.04204006 0.016397864 -0.01379741
0.03792364 -0.04454973 0.20064986 -0.0044163084 0.003941492 0.00975562 -0.034560647 -0.0046224026
-0.043338012 0.058408707 -0.027836185 0.017351791 -0.020772861 -0.0016499739 -0.024605798 -0.041783284
-0.10422605 0.0075777727 -0.12417555 0.027576186 -0.019981563 0.005335396 -0.057241656 0.0107644955
-0.00042286192 -0.00083149533 0.00055665144 -0.00018956132 -0.0024873815 -0.0028502156 0.0011189894 0.0003339373
0.0009534278 0.0005268677 -0.00030392135 -0.0014480558 -0.00041956632 -0.0008990456 -0.00066360296 -0.0063574277
0.0011457436 -0.011214049 0.0064190645 -0.00083926116 -0.0004305171 0.000825834 -0.0011594419 0.00047333783
0.0050766994 -0.010240657 -0.030202173 0.0027315838 0.016557649 -0.021675002 0.015722552 0.0022329674
-0.015948044 -0.015104531 -0.016957896 -0.012786639 0.020838365 -0.00010961971 -0.048357796 -0.03887257
0.01477175 -0.021601925 0.0202452 0.008784125 0.0077631166 -0.01187607 0.022662086 -0.01748049
-9.965945e-06 4.5695913e-05 4.227265e-05 -3.74472e-05 0.0004463772 -5.9282585e-05 4.395564e-05 -1.1481645e-05
2.8174563e-05 -4.2150714e-05 -6.2913445e-05 -4.0940176e-05 5.27193e-05 -0.00064129365 -6.988153e-05 -0.00016709474
-0.0005493585 -0.0007279663 0.00022678297 2.4035122e-05 2.5310246e-05 2.4232346e-05 -7.2498995e-05 4.6114103e-05
-0.010227629 0.012163152 -0.041433528 0.0028612788 0.3160983 -0.014181668 0.039650086 0.0010866413
-0.015553153 -0.059958793 -0.0022075104 -0.028951176 -0.012723646 -0.00062315416 -0.020668626 -0.06394695
-0.03052792 -0.010366379 0.013860412 -0.014306342 -0.0142967915 -0.019989986 0.041740716 -0.004719454
-0.0020516007 -0.025219655 0.015135094 -0.023669045 -0.0029984734 -0.0138650015 -0.0045520053 0.007274091
-0.00026042172 0.0019172608 -0.0037376506 0.006216879 0.031158261 0.026812833 0.007504857 -0.035044186
0.04098791 -0.09299614 0.01816532 -0.0036764033 0.008972963 0.0048965695 0.010130721 -0.019127626
0.0028328623 -0.047833133 -0.0005440529 0.0009691463 -0.015917057 0.32893944 -0.02343018 -0.003234957
-0.01338238 -0.016645782 -0.03678641 -0.03565231 -0.038663335 -0.00031841372 -0.022002432 -0.043463245

tabnet.initial_splitter.shared.glu_layers.0.fc.weight f4 [96, 1038]
00000000: d285 5fb9 4e83 81b8 69d0 9eb8 6c3e f2b9
00000010: 2d66 4cb8 e879 4db9 1d1b 82b8 b58d a5b8
00000020: 5e07 7c33 a5b4 5e3d 4aef 863a cc1b 8eac
00000030: 4798 7239 393d e2b8 9a4b 6439 012b 6fb7
00000040: 81b9 7cb7 6db5 b2b9 4ece 3538 930b e73b
00000050: c9bc a1b7 680c bb38 d895 19b9 69a4 ddb9
00000060: 96b2 22ba 165d c2b9 bcfe 0e3a 742f da3c
00000070: 4fc2 d838 d712 f1b9 6c7a 8c38 1c93 86b9
00000080: 7b01 153a 8729 f8b8 e8f4 0ab8 e299 2c3a
00000090: 6131 2bba 4f4c 98b5 4a48 a4b8 100b 67b4
000000a0: 5daa 5437 9eea 3cba d2c7 58b9 406c a238
000000b0: 10e5 8eb7 8721 8cb9 7acc 6138 5884 8536
000000c0: 18d9 16ba 0995 2bbe e480 bfb9 c274 b335
000000d0: 0b11 d5b8 14f4 c5b7 bbae 2839 0659 35be
000000e0: de4a 0239 e719 ad39 f43c 7739 13d9 263a
000000f0: e425 393a a9b3 eb33 8760 53b8 3dcd b0b9
00000100: 6406 ca39 21ce 04ba ce90 6e32 7378 28bd
00000110: 25fe 9cb6 15c6 a539 5130 a7b9 959d a2b9
00000120: 5719 2db6 f61b 0e39 3e7c 1cba 67f1 0b39
00000130: 9028 2637 e3ab cc3a 57ec 9fb7 e0ff bdb7
00000140: 5756 8eba cf43 b535 e766 5436 a924 e739
00000150: af70 bdb5 07ec 76b8 8855 203a 6e49 bbbd
00000160: 3a61 74ba e1f2 5f39 2e67 c1b9 dc5e 9936
00000170: 9044 f839 0705 8138 ba9e 98b9 ef14 1dba
00000180: 612c 82b8 a97a dfb8 ce08 8339 ea93 7036
00000190: 880d 3a3a b283 0339 1704 2bba b4d6 5039
000001a0: 43d8 27ba cbb9 84b9 872d 06b9 380a 1bba
000001b0: 7fbd 5ab8 7cbb 11b8 0740 9b39 a76b d4b6
000001c0: 3de1 0737 d5d5 afbd 1736 e537 8f9b db39
000001d0: c3ae cf39 0cf5 3d37 39a4 f6bd 372b 5039
000001e0: a98a 6739 41ee 6434 fe47 0eb9 73b9 53b4
000001f0: bc59 1a39 4f78 8438 1079 84bd b8af 49ba
00000200: 2a81 87b3 2421 1e34 7026 323a 08b6 69be
00000210: b730 8c39 34c6 03b9 c5ec 5fb9 0697 3239
00000220: 4386 9d39 f958 99b9 8eaf aeb9 0ed3 7f39
00000230: 8405 1d38 84d3 80b7 0509 0238 b23f 0938
00000240: db3f bcb9 dd5d a13a e28c ad38 9f8d b5b9
00000250: 0943 e239 5521 eab9 de69 12ba 9777 0539
00000260: 6e36 4139 1fd9 8338 3469 54b9 cb1f cdb8
00000270: 149a c439 4114 eb37 2e69 a6b7 2389 0c3d
00000280: b987 88ba e555 22b9 6b4c 80b9 c17c 1e39
00000290: 9c8f 583c 3ec7 8036 b46e a239 3455 feb9
000002a0: c18a a6b4 563e 4cb9 d693 31b9 9fd3 4c3a
000002b0: 71ac cc38 4842 e7b9 ee3e 77bd ac14 9e3a
000002c0: e1f4 a437 e32b 2b3e 1f24 88b9 c9c6 47b2
000002d0: 8754 12ba ee5c 81b9 1764 b1b9 efd5 5db9
000002e0: 17da d7b9 ebfd 3c3d 79ae 1738 1ddb 8cb8
000002f0: e921 1039 c264 1539 dcc6 68b9 f065 01b7
00000300: 5d37 9c39 d512 503a e337 29b8 8903 c7b5
00000310: 1163 2b3a d374 8f38 99e4 02b5 03ae ba3d
00000320: b0b7 4137 06ca bbb4 b373 b338 1094 63b8
00000330: 2af2 283d 0593 c538 fedf 44b9 8c8e b238
00000340: 95c0 163a 94a8 c5b9 aa7c 78b8 9d64 0db9
00000350: 7255 123e ac50 7439 fd56 ae37 657e 5eb9
00000360: 93fe 2a38 c399 80b8 1a67 0ebe 527a 3c39
00000370: b459 4a39 5efa b338 b5f8 2eb2 36ff fbb9
00000380: 7e93 c5b9 11e6 acbd fd21 0d37 eb8f c339
00000390: 69ad 0eba 435a 20ba 03f6 26be cf8f 2eba
000003a0: 0aff ef38 05c5 9838 2187 80b9 297a 7db8
000003b0: b717 8b39 d227 d639 b610 bcb8 c64e 1ab8
000003c0: b894 0639 2bdd 2139 0a37 073a 7f0d c5b9
000003d0: c828 33b7 9e9d 0bb2 a4f0 14be 39ff 5bb7
000003e0: c43b c1b9 039a ac39 1902 5dba 713a e436
000003f0: 375b b6af 02b6 9634 f80d 96b8 40c1 84b2
-0.00021316789 -6.175657e-05 -7.5728465e-05 -0.00046204345 -4.873255e-05 -0.00019595737 -6.203933e-05 -7.894208e-05
5.8680023e-08 0.054371495 0.0010294702 -4.038969e-12 0.00023135646 -0.000107879234 0.00021771938 -1.4255523e-05
-1.50635615e-05 -0.00034085978 4.33459e-05 0.0070509403 -1.9280606e-05 8.919166e-05 -0.00014647038 -0.000422749
-0.0006206421 -0.00037071918 0.00054548285 0.026633956 0.000103358754 -0.0004598114 6.698523e-05 -0.00025668077
0.00056841195 -0.000118332966 -3.312985e-05 0.00065842096 -0.00065304904 -1.1347091e-06 -7.833594e-05 -2.1517576e-07
1.26758505e-05 -0.00072065915 -0.00020673804 7.744925e-05 -1.7034385e-05 -0.0002672786 5.3834614e-05 3.9791157e-06
-0.00057543954 -0.16756071 -0.0003652639 1.337052e-06 -0.00010159806 -2.3597888e-05 0.0001608682 -0.17709741
0.00012425656 0.0003301643 0.00023578462 0.0006364744 0.0007062836 1.097572e-07 -5.039622e-05 -0.0003372225
0.00038533204 -0.0005066116 1.3886348e-08 -0.041130494 -4.6787486e-06 0.00031618835 -0.0003188872 -0.00031016456
-2.5793759e-06 0.00013552592 -0.0005969441 0.00013346002 9.903815e-06 0.0015615191 -1.9064331e-05 -2.2649707e-05
-0.0010859472 1.3505286e-06 3.1650359e-06 0.00044087067 -1.4114393e-06 -5.8870788e-05 0.0006116261 -0.09144865
-0.0009322349 0.00021357417 -0.00036888703 4.5707984e-06 0.0004735333 6.152136e-05 -0.0002910996 -0.0005992194
-6.207149e-05 -0.00010656316 0.00024992827 3.5848884e-06 0.0007097353 0.00012542194 -0.0006523742 0.00019916409
-0.000640277 -0.00025315429 -0.00012796196 -0.00059143035 -5.2151732e-05 -3.4745302e-05 0.00029611608 -6.3306247e-06
8.099069e-06 -0.08585707 2.7324115e-05 0.00041886835 0.00039612324 1.1322332e-05 -0.12043042 0.00019852525
0.00022081532 2.1320831e-07 -0.00013568994 -1.9718372e-07 0.00014720013 6.31666e-05 -0.06468403 -0.00076937256
-6.309922e-08 1.4726953e-07 0.0006795889 -0.22823346 0.00026739176 -0.0001256697 -0.00021355141 0.00017031663
0.00030045406 -0.00029248724 -0.00033318665 0.00024397319 3.7436854e-05 -1.5357284e-05 3.1002815e-05 3.2722666e-05
-0.0003590573 0.0012311299 8.275524e-05 -0.00034628526 0.00043156024 -0.00044656792 -0.00055852334 0.00012728419
0.00018426191 6.287009e-05 -0.00020257087 -9.781084e-05 0.0003749883 2.8023615e-05 -1.983772e-05 0.03431047
-0.0010416425 -0.00015481522 -0.00024470998 0.00015114529 0.013217833 3.837892e-06 0.00030981528 -0.00048510137
-3.1020866e-07 -0.00019478178 -0.00016935109 0.00078135164 9.759598e-05 -0.00044109137 -0.06036275 0.0012060604
1.9664354e-05 0.1671596 -0.00025966854 -1.1628523e-08 -0.00055820536 -0.00024674035 -0.00033834644 -0.00021155899
-0.00041170485 0.046140593 3.6163696e-05 -6.716533e-05 0.00013745543 0.00014247283 -0.00022199325 -7.712733e-06
0.00029795888 0.00079373765 -4.034479e-05 -1.4827684e-06 0.00065378944 6.8405316e-05 -4.876143e-07 0.09115221
1.15464645e-05 -3.4978456e-07 8.556936e-05 -5.425891e-05 0.04124657 9.4210765e-05 -0.0001877546 8.514253e-05
0.0005750743 -0.0003770037 -5.924391e-05 -0.00013484289 0.14290407 0.00023299706 2.0782923e-05 -0.00021218655
4.076825e-05 -6.132156e-05 -0.13906518 0.00017974645 0.00019297638 8.58202e-05 -1.0184682e-08 -0.00048064598
-0.00037684658 -0.08442319 8.412168e-06 0.00037300526 -0.000544271 -0.00061169657 -0.16304784 -0.00066590024
0.00011443913 7.2846226e-05 -0.0002451474 -6.043367e-05 0.00026529815 0.0004084693 -8.967651e-05 -3.6789825e-05
0.00012834638 0.00015436548 0.0005158043 -0.00037584823 -1.06787265e-05 -8.126703e-09 -0.14544922 -1.3112841e-05
-0.00036856357 0.00032921144 -0.00084307935 6.801733e-06 -3.317042e-10 2.8072105e-07 -7.155159e-05 -1.5454702e-08

tabnet.initial_splitter.shared.glu_layers.0.bn.bn.weight f4 [96]
00000000: 636e 973c 9a79 9b3e 376a 21bc 6a7b 47ba
00000010: 6085 9e3d a9d1 e43c e09b 7abb e063 ea3a
00000020: 5b3d 9939 ba58 c63c 833f 62b9 455a ff3b
00000030: 3d43 093c d1d3 443c d596 f63c 5137 4b3d
00000040: 0e10 9c3c ce47 d43d 06c3 043e 68c4 db3c
00000050: a318 773c d220 b13d 8909 453d 0b23 82b9
00000060: 34d2 e83e 2358 f03e a81e 053f 83d8 b93e
00000070: d6af 0a3f da7b 023f 0f8e d13e b7d8 f43e
00000080: 6942 d53e 5247 fb3e 23d7 ed3e e513 ef3e
00000090: a702 b83e 15b2 e23e ebf6 f43e eb29 e43e
000000a0: 34aa cf3e f0c2 1e3f c2cf 173f b1d8 003f
000000b0: 3634 c73e 4bfa d53e cde7 e13e 2ba7 8c3e
000000c0: 3002 f0b9 4eb4 7d3e 2ba5 19b7 2935 87b3
000000d0: 1063 543c 53fa c139 d1de 01b8 38e6 5b35
000000e0: 70cf cd38 71f0 3fb8 dec9 4337 6623 3539
000000f0: 8e36 9038 e5f1 4638 151a c5b8 2152 923a
00000100: 9caf ce37 e871 c8bb 50c8 fb3b c881 b439
00000110: 1663 6538 0e61 413b 40ea 583b 14cc 4337
00000120: 2406 5a3d f32b 9e3e fc35 f93e 8510 833c
00000130: e918 3c3f 45c8 45bd 7fcf a9bd 2e5f df3e
00000140: 36fe 5b3e 82ca b93e daa7 11be 48a4 663e
00000150: 7bed 83be 0685 8ebe 36f7 49be 0d68 0f3e
00000160: f9a9 983e c10b ea3e 8724 f63c 01b8 e53e
00000170: 59f9 ad3e c1e8 c43d f81b 6a3e f398 413e
0.018485254 0.30366212 -0.009851984 -0.00076096377 0.07740283 0.027932005 -0.0038239881 0.0017882548
0.00029228147 0.02421223 -0.000215767 0.0077927434 0.008377847 0.012013392 0.03010122 0.0496133
0.019050624 0.10365258 0.1296502 0.026827052 0.015081557 0.08648838 0.048104797 -0.0002482164
0.45472872 0.46942243 0.519999 0.36297998 0.54174554 0.5097023 0.40928695 0.4782159
0.4165223 0.4907785 0.464532 0.46694866 0.35939524 0.4427649 0.47844633 0.4456323
0.40559542 0.620162 0.5930139 0.50330645 0.3890702 0.4179252 0.44122162 0.2747129
-0.00045777997 0.24775812 -9.157967e-06 -6.296097e-08 0.012963071 0.00036998335 -3.096351e-05 8.191887e-07
9.8138e-05 -4.5761877e-05 1.1669907e-05 0.00017274692 6.876617e-05 4.743216e-05 -9.39855e-05 0.0011163392
2.4638888e-05 -0.0061170943 0.007683791 0.0003442897 5.4690136e-05 0.0029507312 0.0033098608 1.1670421e-05
0.053228512 0.30892906 0.48674 0.015999088 0.7347551 -0.048286695 -0.0829153 0.43627304
0.21483693 0.36287314 -0.14224187 0.22523606 -0.2576712 -0.27835864 -0.1972321 0.14004536
0.2981718 0.45712093 0.030046714 0.44866946 0.339793 0.09614707 0.22862232 0.18906002
