cv_steps/tabnet_raw_step1_fold1_6/network.pt (torch, 682379 bytes, 56 tensors)

embedder.embeddings.0.weight f4 [3, 1]
0.13106173 -0.036641717 -0.09288624
00000000: 0c35 063e a015 16bd 243b bebd

embedder.embeddings.1.weight f4 [2, 1]
0.020738104 -0.020755205
00000000: f5e2 a93c d206 aabc

tabnet.initial_bn.weight f4 [1038]
0.15513894 -0.1365352 0.0020748184 0.005447271 0.051550414 0.09655522 0.12533312 0.03864886
0.021959392 -2.2230436e-06 0.33392358 1.5632374e-06 0.05168871 0.07903048 0.18793306 0.3058567
0.12565233 0.17595156 0.023273569 0.05944664 0.14552103 0.18855071 0.23119318 0.008570206
0.20436694 0.14531922 0.1010501 0.094244905 0.12160218 0.10193693 0.17096813 0.17422213
0.08028178 0.13186535 0.12685408 0.13369778 0.23633124 0.1756125 0.27802396 0.1609498
-0.00030573268 0.26629585 0.15515752 0.13546947 -0.0004680609 0.024942663 0.042150166 0.13485472
0.09196837 0.2181416 0.26143748 -0.0001163583 0.073663704 0.09422996 7.4151585e-06 0.048075903
0.079742536 0.047918983 0.15895137 0.18075988 0.1668691 6.151342e-08 0.22947145 0.00013837792
0.045361754 0.16443717 0.005791469 0.17826003 0.00077186053 0.074659035 0.15281805 0.12300611
-0.053008948 0.0020240238 0.047228437 -0.0317125 0.10402481 0.36744916 0.00018522987 0.068632334
0.12065424 2.4263448e-08 0.095354505 0.002049248 0.13546798 0.11810613 0.085322954 0.09518881
0.12311982 0.058337085 0.15733202 0.080630094 0.19517727 0.23131809 0.1613573 0.14679055
-0.00015594928 0.091481335 -0.050437026 0.09390052 0.11767845 0.11203496 0.102567926 -0.0018876076
0.1970105 0.26855886 0.082519144 0.1552145 -0.0003962769 0.11650236 0.10768372 0.17566624
-0.0110887345 0.105626725 0.0007433721 0.04889535 0.21128286 0.052158568 0.16822788 0.25272658
0.21812703 0.038409352 0.081668116 3.965582e-07 0.14901693 0.14573863 0.16256413 0.15561932
0.07719999 0.12243907 0.26395938 0.07492695 0.18865098 0.16500925 0.12200578 0.15467805
0.14695196 0.15166302 0.040331557 0.12394166 0.17632248 0.15168977 0.10937345 0.015566303
0.040041544 0.15165076 0.1397303 0.019831749 0.11551581 0.12607709 0.16634423 0.22405878
0.08118451 0.09192051 0.101143695 0.15215269 0.07456393 0.13377544 0.20111538 0.35004678
0.3440537 0.0016310522 0.16980867 0.07545408 0.073588856 0.01741248 0.17849429 0.03697886
0.22797447 0.17656824 0.10441259 0.1883095 0.09940506 0.10639648 0.051720332 0.18946187
0.015812721 0.34617358 0.15803666 0.06475527 0.29754537 0.114589594 0.16620514 0.022947455
0.103039905 0.1671534 0.11306557 0.10614682 0.021560717 0.106264435 0.13148078 0.14659306
0.123931095 0.0074221687 0.09616183 0.077081464 0.21157983 0.15334521 -0.0014697034 0.15262616
0.061269507 1.1797178e-05 0.0005185021 -0.12913656 0.28078696 0.26098055 0.0010791832 0.08634234
0.17015748 0.3028988 -0.014880541 0.1849879 0.0872219 -0.0049309786 0.10931681 0.14225163
0.14948972 0.14941421 0.25677603 0.15454039 0.19812372 0.034768857 0.10779966 0.28025484
0.14863198 0.12735923 2.040624e-06 0.15278639 -0.00013501722 0.08529366 0.15681827 0.22441573
-0.0034366832 0.24981585 0.062086605 0.11629097 0.17374948 0.1722386 -0.020984132 0.14499934
0.10733257 0.19276862 0.12264113 0.23294601 0.14825544 4.2896806e-10 0.14076765 0.0033130064
0.08018304 -0.059287608 0.16399314 0.044942107 0.055431303 0.07703427 0.07572075 0.0029103807
00000000: bedc 1e3e e2cf 0bbe adf9 073b 057f b23b
00000010: 8726 533d bebe c53d 5357 003e 444e 1e3d
00000020: 2fe4 b33c 992f 15b6 08f8 aa3e 6ed0 d135
00000030: 8ab7 533d bbda a13d 8671 403e 4099 9c3e
00000040: 01ab 003e a52c 343e 36a8 be3c 527e 733d
00000050: 7703 153e 7013 413e e8bd 6c3e 0d6a 0c3c
00000060: 9145 513e 90ce 143e 5bf3 ce3d 7903 c13d
00000070: 900a f93d 4fc4 d03d 4512 2f3e 4967 323e
00000080: c66a a43d b607 073e 09e6 013e 12e8 083e
00000090: d100 723e c3d3 333e 2859 8e3e 06d0 243e
000000a0: bf4a a0b9 ee57 883e 9de1 1e3e 82b8 0a3e
000000b0: 1266 f5b9 8e54 cc3c a7a5 2c3d 5b17 0a3e
000000c0: ea59 bc3d 8360 5f3e 22db 853e 6305 f4b8
000000d0: ffdc 963d a3fb c03d bacf f836 3deb 443d
000000e0: 0e50 a33d b246 443d 26c4 223e 1e19 393e
000000f0: bcdf 2a3e 5c19 8433 90fa 6a3e 8a19 1139
00000100: 3fcd 393d 3862 283e 5dc6 bd3b cc89 363e
00000110: af56 4a3a d6e6 983d 567c 1c3e a1ea fb3d
00000120: e91f 59bd 7ca5 043b 9b72 413d f7e4 01bd
00000130: f60a d53d 4c22 bc3e 443a 4239 1c8f 8c3d
00000140: 9219 f73d e36b d032 3949 c33d ad4c 063b
00000150: 1eb8 0a3e a0e1 f13d cdbd ae3d 5af2 c23d
00000160: 3f26 fc3d def2 6e3d a51b 213e 6421 a53d
00000170: 8ddc 473e a6de 6c3e d93a 253e 4350 163e
00000180: 5186 23b9 915a bb3d 0e97 4ebd ea4e c03d
00000190: 6601 f13d 9672 e53d 220f d23d 9a69 f7ba
000001a0: 1fbd 493e 8c80 893e ccff a83d 8df0 1e3e
000001b0: 63c3 cfb9 ca98 ee3d 4889 dc3d dae1 333e
000001c0: 86ad 35bc d352 d83d dbde 423a 7e46 483d
000001d0: 895a 583e 39a4 553d ee43 2c3e 6165 813e
000001e0: b15c 5f3e 2053 1d3d 9d41 a73d 8be6 d434
000001f0: e597 183e 823c 153e 3677 263e ac5a 1f3e
00000200: 071b 9e3d 56c1 fa3d af25 873e 4d73 993d
00000210: b92d 413e 2ff8 283e 2bde f93d ec63 1e3e
00000220: 937a 163e 8d4d 1b3e b432 253d 20d5 fd3d
00000230: e18d 343e 9054 1b3e 30ff df3d cf09 7f3c
00000240: 9a02 243d 564a 1b3e 7615 0f3e 3176 a23c
00000250: 8e93 ec3d 5a1a 013e 2456 2a3e aa6f 653e
00000260: 1044 a63d d240 bc3d 6d24 cf3d eacd 1b3e
00000270: f9b4 983d 6efc 083e 31f1 4d3e 5539 b33e
00000280: ce27 b03e 08c9 d53a 53e2 2d3e ab87 9a3d
00000290: c1b5 963d 9ea4 8e3c 35c7 363e 2577 173d
000002a0: 2472 693e 4ece 343e 45d6 d53d 35d4 403e
000002b0: e194 cb3d 66e6 d93d b3d8 533d 4b02 423e
000002c0: ae89 813c aa3d b13e 5dd4 213e 699e 843d
000002d0: de57 983e f3ad ea3d ae31 2a3e 4dfc bb3c
000002e0: 9606 d33d 432a 2b3e ec8e e73d 8163 d93d
000002f0: 1aa0 b03c 2ba1 d93d e6a2 063e 7e1c 163e
00000300: 96cf fd3d aa35 f33b 7ef0 c43d e3dc 9d3d
00000310: 62a8 583e 8706 1d3e 10a3 c0ba 084a 1c3e
00000320: bcf5 7a3d 7eec 4537 16ec 073a 603c 04be
00000330: 4fc3 8f3e 3e9f 853e 6173 8d3a 41d4 b03d
00000340: c33d 2e3e 8d15 9b3e 83cd 73bc 786d 3d3e
00000350: 65a1 b23d 0c94 a1bb 7ee1 df3d 69aa 113e
00000360: d513 193e 0a00 193e 2678 833e d63f 1e3e
00000370: f2e0 4a3e ca69 0e3d 11c6 dc3d 907d 8f3e
00000380: fb32 183e 756a 023e a7f1 0836 0974 1c3e
00000390: 6993 0db9 71ae ae3d f894 203e 3dcd 653e
000003a0: fa39 61bb bacf 7f3e 864e 7e3d f629 ee3d
000003b0: 62eb 313e 515f 303e eae6 abbc b57a 143e
000003c0: 2ed1 db3d 2365 453e 462b fb3d 6689 6e3e
000003d0: 46d0 173e e3d3 eb2f 6525 103e 061f 593b
000003e0: 0137 a43d 90d7 72bd d1ed 273e 3715 383d
000003f0: ef0b 633d 25c4 9d3d 7b13 9b3d 16bc 3e3b

tabnet.initial_bn.bias f4 [1038]
-3.137892e-05 8.11421e-06 9.9486435e-08 2.9845298e-06 1.9211408e-05 -0.00012207235 -5.9655307e-05 -1.4489163e-05
6.2856443e-06 4.152387e-11 -0.02517384 5.501211e-09 -0.00013216265 9.3231785e-05 0.00023384497 0.06402263
0.0002106412 0.00011189662 2.1185258e-05 9.31748e-05 0.00020457797 3.434492e-05 0.00016323522 7.67815e-06
0.00010567725 -4.4865374e-05 7.049902e-06 5.9288657e-05 7.35161e-05 0.0001000932 9.196386e-05 0.0001798871
0.38051528 0.008420432 7.0250506e-05 0.00033964514 4.4679866e-05 0.21896356 -4.1889936e-05 0.323671
-2.6287674e-07 2.7013244e-05 -8.371679e-06 0.00014319886 2.8871734e-06 -1.6239328e-05 0.3073749 -5.105036e-05
-0.00040795526 -7.770469e-06 -3.6240705e-05 -4.154886e-08 0.0001005272 0.3317152 1.1528023e-08 3.935064e-05
-2.316449e-05 2.4131412e-05 5.417611e-05 -0.00011749954 0.00020106955 9.441425e-12 -0.00024987242 2.8584603e-07
-0.3211768 -0.0003267112 -4.2422388e-07 0.00019398745 2.7760013e-06 0.00016678493 -0.00013176842 -3.1519827e-05
-2.8277711e-05 0.656848 -1.4473303e-05 -1.800435e-05 8.4548126e-05 0.0005761475 -1.3187526e-08 -0.00017328406
-3.0489626e-05 -2.5083859e-11 -0.00014013187 5.3635796e-07 7.030065e-06 -0.0001656186 9.74987e-05 7.943078e-05
0.00011895262 0.00012711687 -6.125698e-05 -8.2099476e-05 -2.0308848e-06 2.0449721e-05 -5.1011262e-05 -0.00021268576
-9.1209057e-07 -6.337205e-05 -0.00026198826 -0.00014007177 0.000120876444 0.00015674926 0.25613156 2.3310852e-06
-0.000113986396 -0.00018364 -7.3275434e-05 1.76564e-05 3.9780954e-07 -3.4614225e-06 0.00015309146 -5.751699e-05
8.93591e-07 0.00019290582 2.4735943e-08 4.745583e-05 -1.39674e-05 0.00014671026 -0.09648396 3.5357814e-05
5.8312024e-05 -2.692608e-05 2.2195627e-05 3.334126e-10 8.4449195e-05 -1.9074903e-05 5.5036406e-05 -9.7270495e-05
-2.5972809e-06 -1.6487265e-05 -0.00012384291 -0.00010035637 -0.0002231052 2.9151748e-05 -0.00012850268 0.00042463167
4.0251434e-05 -3.2138014e-05 -0.01837133 -2.8058246e-05 -0.0013749517 -0.00024371663 -2.1118688e-06 -5.535577e-06
3.329499e-05 9.48244e-06 -3.7145375e-05 1.325918e-07 4.806442e-05 -3.7655438e-05 -0.00015994611 -0.001080718
-0.00020191117 0.00012333521 6.470256e-05 4.0722807e-05 1.0084162e-05 -2.7415679e-06 -8.794304e-05 -0.0004793423
-2.908167e-05 4.6348232e-05 3.7240687e-05 -0.000110145935 -0.00028958384 3.0600565e-06 -0.00019712836 -6.584169e-05
-0.00050780835 -5.544476e-05 -1.9874717e-06 0.00018304255 0.00027117098 -0.00011163341 0.34741634 8.680965e-05
-0.38073274 0.37049404 -0.0002168463 9.0691196e-05 -0.4899435 5.1287425e-05 9.260755e-05 0.30968276
-7.8397265e-05 0.00026713213 1.6171562e-05 0.00032119936 0.4132989 2.2849526e-05 6.911939e-05 0.0002558172
0.00023434887 -4.0493433e-06 1.5932728e-05 -9.680389e-06 -0.16983783 -0.00019796469 -4.956497e-07 0.093614005
4.1563428e-05 -5.3979414e-07 2.1081367e-05 0.00012143942 -8.191811e-05 8.328082e-05 9.174903e-07 1.7014941e-05
0.00022641307 -0.00035466417 0.34704372 5.975875e-05 -6.1891355e-05 5.6169924e-06 -0.00010210208 7.519264e-05
-2.3254523e-05 -0.00015737106 0.08063183 4.5357756e-05 -8.399046e-05 9.5780866e-05 1.5863225e-05 -0.00028708746
-3.85768e-05 0.32790023 -1.275066e-09 -0.14845179 -1.0070779e-06 -4.0452607e-05 0.00023484763 -0.15301095
-5.4180373e-07 0.00025454586 2.3016943e-05 5.748741e-05 0.00012978708 4.0559462e-05 9.927145e-05 0.00028333504
-9.98314e-06 6.801786e-05 0.00019642507 -0.00013374956 -3.3978173e-05 1.195835e-12 -0.00019610951 4.4181888e-07
-0.00019057428 -4.9649357e-06 -0.00011422169 2.3300152e-05 0.00011598031 7.685157e-05 -3.4533918e-05 3.835231e-07
00000000: dc9c 03b8 4422 0837 3fa5 d533 d549 4836
00000010: 2f28 a137 8c00 00b9 6636 7ab8 7b16 73b7
00000020: 46e9 d236 b99f 362e 5e39 cebc 2a05 bd31
00000030: 2495 0ab9 6f85 c338 4834 7539 4c1e 833d
00000040: 91df 5c39 0aaa ea38 ffb6 b137 d766 c338
00000050: fb83 5639 940d 1038 1f2a 2b39 67d1 0037
00000060: 0b9f dd38 d42d 3cb8 328e ec36 b6ac 7838
00000070: a82c 9a38 21e9 d138 b9dc c038 13a0 3c39
00000080: e6d2 c23e daf5 093c 7453 9338 6612 b239
00000090: a466 3b38 fc37 603e fab2 2fb8 35b8 a53e
000000a0: 8121 8db4 809a e237 1674 0cb7 a727 1639
000000b0: 43c1 4136 b139 88b7 3e60 9d3e e81e 56b8
000000c0: d4e2 d5b9 e95d 02b7 2901 18b8 7473 32b3
000000d0: 21d2 d238 93d6 a93e c80c 4632 6e0c 2538
000000e0: 5d51 c2b7 d06d ca37 283b 6338 166a f6b8
000000f0: 32d6 5239 6618 262d 4f01 83b9 6176 9934
00000100: 4971 a4be 6f4a abb9 e3c0 e3b4 1c69 4b39
00000110: 574b 3a36 fde2 2e39 512b 0ab9 2834 04b8
00000120: ec35 edb7 3127 283f 5dd2 72b7 0c08 97b7
00000130: 6e4f b138 9b08 173a 5a8f 62b2 96b3 35b9
00000140: f9c3 ffb7 d4a3 dcad 5df0 12b9 3dfa 0f35
00000150: cce3 eb36 e8a9 2db9 3778 cc38 1394 a638
00000160: 3476 f938 ad4a 0539 1777 80b8 d22c acb8
00000170: 564a 08b6 718b ab37 edf4 55b8 6604 5fb9
00000180: 63d6 74b5 9ce6 84b8 785b 89b9 3be0 12b9
00000190: 0c7f fd38 0f5d 2439 ad23 833e bd6f 1c36
000001a0: fb0b efb8 7d8f 40b9 73ab 99b8 d51c 9437
000001b0: 8792 d534 c94a 68b6 2d87 2039 663e 71b8
000001c0: 1bdf 6f35 c346 4a39 ea7a d432 4f0b 4738
000001d0: 8755 6ab7 3cd6 1939 6299 c5bd 2a4d 1438
000001e0: 0f94 7438 51df e1b7 bf30 ba37 a74b b72f
000001f0: 511a b138 0b03 a0b7 e4d6 6638 b3fd cbb8
00000200: f24c 2eb6 224e 8ab7 d4db 01b9 6a76 d2b8
00000210: 59f1 69b9 e78a f437 adbe 06b9 19a1 de39
00000220: a6d3 2838 eecb 06b8 797f 96bc a05e ebb7
00000230: b937 b4ba 2f8e 7fb9 a1b9 0db6 3fbe b9b6
00000240: 39a6 0b38 c516 1f37 8bcc 1bb8 8e5e 0e34
00000250: c798 4938 38f0 1db8 35b7 27b9 e1a6 8dba
00000260: 1eb8 53b9 8b53 0139 ecb0 8738 c8cd 2a38
00000270: 252f 2937 c7fb 37b6 0f6e b8b8 3c50 fbb9
00000280: 69f4 f3b7 0966 4238 e232 1c38 26fe e6b8
00000290: 49d3 97b9 5f5b 4d36 3eb4 4eb9 7d14 8ab8
000002a0: 711e 05ba 5c8d 68b8 8160 05b6 1cef 3f39
000002b0: f42b 8e39 bb1c eab8 8ee0 b13e 930d b638
000002c0: 67ef c2be 65b1 bd3e 3c61 63b9 7731 be38
000002d0: e0d9 fabe 741d 5738 4d36 c238 bd8e 9e3e
000002e0: 3669 a4b8 de0d 8c39 2aa8 8737 a666 a839
000002f0: ea9b d33e fcac bf37 31f4 9038 341f 8639
00000300: 8cbb 7539 98df 87b6 46a7 8537 f468 22b7
00000310: f8e9 2dbe be94 4fb9 ca0c 05b5 b3b8 bf3d
00000320: 6454 2e38 5fe6 10b5 e4d7 b037 4bad fe38
00000330: 73cb abb8 0da7 ae38 7449 7635 4fbb 8e37
00000340: 4c69 6d39 38f2 b9b9 b7af b13e 78a5 7a38
00000350: abcb 81b8 9979 bc36 a31f d6b8 beb0 9d38
00000360: b512 c3b7 f903 25b9 4d22 a53d 853e 3e38
00000370: 0924 b0b8 f6dd c838 0412 8537 3a84 96b9
00000380: 86cd 21b8 8ae2 a73e 663e afb0 bf03 18be
00000390: ef2a 87b5 a8ab 29b8 6e41 7639 e7ae 1cbe
000003a0: 7870 11b5 9174 8539 8214 c137 a31e 7138
000003b0: 7417 0839 641e 2a38 f42f d038 968c 9439
000003c0: 437d 27b7 cfa4 8e38 74f7 4d39 203f 0cb9
000003d0: c983 0eb8 7f4c a82b bfa2 4db9 2033 ed34
000003e0: e5d4 47b9 7998 a6b6 4e8a efb8 b274 c337
000003f0: 743a f338 5f2b a138 83d8 10b8 03e7 cd34

tabnet.initial_bn.running_mean f4 [1038]
0.0007188085 0.0006663973 0.003244897 0.0039025433 0.005340003 0.00056284963 0.002553217 -0.00089211774
0.0032622267 0.0040306384 -0.014296117 0.0012764924 0.0010738391 -0.002723623 0.004036982 0.0068597593
0.0023532687 -0.0031460756 -0.0018935947 -0.004442484 -0.001003428 0.0022104848 -0.007998257 0.0030843834
-0.0052720294 8.565336e-05 -6.5997476e-05 -0.0041599586 0.004017227 0.0019345145 -0.0009638147 -0.0002743463
-0.001292487 0.014081782 -0.00081276783 0.003909643 -0.0037079589 0.003080638 -0.0007891306 -0.047299758
0.031055508 -0.0018650987 -0.0038339451 0.0026805073 0.00087100227 -0.0021384805 0.004851496 -0.00061461725
0.0035073922 0.004155106 -0.001232728 -0.0006297305 -0.04793695 0.0012939081 0.0057140067 0.002341054
0.0028633238 -0.007222993 -0.0002712599 -0.0011607611 -0.020083034 -0.0023515807 -0.000110569075 -0.0015439626
-0.008960793 -0.009747884 -0.007664723 0.0021581934 0.00016023894 -0.057231776 -0.0035772035 0.0038033242
-0.0034512172 -0.0005496714 -0.02216307 0.0027641954 0.016215416 -0.04465426 -0.0025192695 -0.0016021908
-0.0029652305 0.0028772326 -0.0010220986 -0.0024368737 0.0038376783 5.399332e-05 0.0038705529 -5.8226655e-05
0.009171086 0.0037809075 0.0038867395 0.00066965417 0.0007535555 0.0078095845 0.0011567125 -0.005827946
-0.0047198837 0.003264709 -0.0035391068 0.008390524 -0.0012276146 -0.0021393667 0.01220939 -0.0060574445
0.003871563 0.0027576904 -6.3676016e-05 0.0018181484 0.0044238074 -0.002923935 0.0012932551 -0.0009577895
-0.006301715 0.0015897921 -0.002401818 -0.019678403 0.0027964718 0.0042421916 0.00050012954 -0.0035204517
0.0009938931 -0.0038503986 0.0035861 -0.0067886556 0.0048705437 0.023125108 0.002983925 0.0047621415
0.002230866 5.4529115e-05 -0.020463385 0.0010064221 -4.8071972e-05 0.0324715 0.0045719105 -0.0024940798
0.0028539724 0.0016480864 0.0018981101 -0.0019208739 0.001610457 -0.0022254544 -0.0009252275 -0.00047454235
0.00082247343 1.378957e-06 0.00948944 0.005466111 0.006439709 0.0088147875 0.007458069 0.0030427936
-0.0033454224 9.841622e-05 -0.008474268 0.00044606527 0.0020664136 0.006719369 0.004162525 -0.00027974157
0.018701775 -0.0013566383 -0.0032845954 -5.2519976e-05 -0.00599164 0.00814372 0.002734885 -0.0018695061
0.0012099072 0.00043580972 5.9752823e-05 -0.00040232504 0.0045023905 -0.0043735104 -0.0018518062 0.0019384866
-0.0022640224 -0.0005494881 0.00088389736 0.005089056 -0.0074824416 0.0014401703 -8.150491e-05 0.0006666356
0.0020199195 -0.009893226 -0.0008086683 -0.021995535 -0.00033997963 -0.003942308 -0.0036000314 -0.0056519755
0.0060447427 0.0037069034 0.004660089 0.004500691 -0.0044329064 -0.01263319 -0.0034261844 0.0018815149
0.0014127844 0.0003509801 -0.0010304498 0.010990617 -0.015307864 -0.002808736 -0.0070416527 0.0009350053
-0.0021163845 -0.0073617687 0.014764275 -0.000113759306 0.0025801058 -0.012697048 -0.0009852921 -0.00017762466
0.0012025217 0.003939496 -0.0029674035 -4.473274e-05 0.000245432 -0.0025310332 0.005341178 -0.00016574323
-0.0010019308 0.001479126 -0.0070931474 0.002089849 0.007107833 0.00012328701 -0.06947893 -8.907128e-05
-0.00053582457 -0.0037972326 0.0044121486 -0.006768131 0.0002373642 1.8736133e-05 -0.0010884252 0.0016759734
7.189441e-05 -2.103291e-05 -0.0005743824 -0.0015027432 -0.0028227693 0.0074447026 0.00156296 0.0013313938
-0.0006320472 0.0014522268 0.02255746 0.005236167 -0.00921784 0.00910374 -0.005824781 0.0007266322
00000000: 6c6e 3c3a 2ab1 2e3a 56a8 543b d0c1 7f3b
00000010: 31fb ae3b 338c 133a e053 273b 02dd 69ba
00000020: 15cb 553b 7213 843b 433a 6abc fa4f a73a
00000030: 10c0 8c3a d07e 32bb a948 843b d5c7 e03b
00000040: 4c39 1a3b 642e 4ebb 7f32 f8ba 4292 91bb
00000050: 7585 83ba c8dd 103b 1f0b 03bc 5e23 4a3b
00000060: fdc0 acbb cca0 b338 2068 8ab8 4350 88bb
00000070: f1a2 833b 898f fd3a 82a8 7cba 23d6 8fb9
00000080: ab68 a9ba 46b7 663c ed0f 55ba 761c 803b
00000090: 3a01 73bb 87e4 493b a8dd 4eba 64bd 41bd
000000a0: 1f68 fe3c 5476 f4ba ed42 7bbb 73ab 2f3b
000000b0: f953 643a c025 0cbb 4cf9 9e3b 441e 21ba
000000c0: 47dc 653b 8e27 883b 7d93 a1ba 8014 25ba
000000d0: 8959 44bd 5a98 a93a 903c bb3b 5e6c 193b
000000e0: 9aa6 3b3b dbae ecbb e337 8eb9 ae24 98ba
000000f0: 2d85 a4bc fa1c 1abb 52e1 e7b8 ca5e caba
00000100: 4ad0 12bc 97b5 1fbc 5b28 fbbb 7a70 0d3b
00000110: d005 2839 de6b 6abd 846f 6abb 3141 793b
00000120: d12d 62bb d317 10ba 548f b5bc 8127 353b
00000130: 31d6 843c 63e7 36bd 541a 25bb 9a00 d2ba
00000140: 5054 42bb f48f 3c3b f0f7 85ba f5b3 1fbb
00000150: 8f81 7b3b e376 6238 1aa9 7d3b 6538 74b8
00000160: 5342 163c 1ac9 773b abb8 7e3b bb8b 2f3a
00000170: 418a 453a 8be7 ff3b d59c 973a 5bf8 bebb
00000180: 41a9 9abb baf4 553b 5cf0 67bb 6978 093c
00000190: e9e7 a0ba 9e34 0cbb e509 483c 877d c6bb
000001a0: 0cba 7d3b 5eba 343b cd89 85b8 f04e ee3a
000001b0: 96f5 903b 7d9f 3fbb 7182 a93a 2a14 7bba
000001c0: 9e7e cebb 9260 d03a d267 1dbb 9a34 a1bc
000001d0: 0345 373b 1502 8b3b 201b 033a 61b7 66bb
000001e0: 8545 823a f856 7cbb c604 6b3b 5f73 debb
000001f0: 1599 9f3b de70 bd3c f48d 433b bd0b 9c3b
00000200: b933 123b 31b6 6438 d4a2 a7bc ece9 833a
00000210: e3a0 49b8 d600 053d f7cf 953b b773 23bb
00000220: b609 3b3b 9a04 d83a 02ca f83a d5c5 fbba
00000230: f815 d33a eed8 11bb f78a 72ba ffcb f8b9
00000240: 429b 573a 9a14 b935 9979 1b3c 101d b33b
00000250: 3204 d33b e66b 103c d162 f43b 9b69 473b
00000260: e03e 5bbb ce64 ce38 a8d7 0abc dedd e939
00000270: ab6c 073b 272e dc3b ca65 883b 47aa 92b9
00000280: 7734 993c 3ad1 b1ba 5e42 57bb e548 5cb8
00000290: 8555 c4bb 3d6d 053c c23b 333b 370a f5ba
000002a0: c095 9e3a 647d e439 1b9f 7a38 27ef d2b9
000002b0: ca88 933b aa4f 8fbb 4eb8 f2ba d114 fe3a
000002c0: fe5f 14bb 860b 10ba 59b5 673a 19c2 a63b
000002d0: 452f f5bb 19c4 bc3a 9eed aab8 28c1 2e3a
000002e0: a060 043b 3317 22bc d0fc 53ba fb2f b4bc
000002f0: 4b3f b2b9 7a2e 81bb 81ee 6bbb 3534 b9bb
00000300: fa12 c63b 85ef 723b a9b3 983b 887a 933b
00000310: ea41 91bb 70fb 4ebc d689 60bb 2a9d f63a
00000320: 2e2d b93a c003 b839 2810 87ba fd11 343c
00000330: d6cd 7abc c512 38bb aabd e6bb 251b 753a
00000340: 0ab3 0abb fe3a f1bb dce5 713c 1092 eeb8
00000350: fe16 293b 4707 50bc eb24 81ba c240 3ab9
00000360: ef9d 9d3a e316 813b c578 42bb 6a9f 3bb8
00000370: 53ad 8039 b1df 25bb 0c05 af3b 5ccb 2db9
00000380: 3853 83ba 3cdf c13a a26d e8bb d9f5 083b
00000390: d3e8 e83b 9b46 0139 f84a 8ebd c8cb bab8
000003a0: 9476 0cba feda 78bb c993 903b 33c7 ddbb
000003b0: f8e4 7839 8a2b 9d37 7da9 8eba 56ac db3a
000003c0: 04c6 9638 d56f b0b7 2692 16ba b2f7 c4ba
000003d0: 36fe 38bb b1f2 f33b 3cdc cc3a 2a82 ae3a
000003e0: f8af 25ba a558 be3a 6cca b83c 2794 ab3b
000003f0: 6c06 17bc da27 153c cedd bebb 767b 3e3a

tabnet.initial_bn.running_var f4 [1038]
0.0085370345 0.0011834393 0.9884514 0.97473395 0.96817815 0.97252494 0.97534895 0.974152
0.9690133 0.97134495 1.0802358 0.9726524 0.9684373 0.9765271 0.9771752 0.9932617
0.9810935 0.9721502 0.9857282 0.9825242 0.96859294 0.9765743 0.9797381 0.96753585
0.9745939 0.9740978 0.97456676 0.969027 0.9714515 0.9758302 0.95943534 0.9769087
0.9740601 1.0594031 0.96211123 0.9808239 0.9773387 0.9739408 0.9944398 1.2746152
1.1917925 0.9717515 1.0020769 0.9771174 0.9761959 0.9774512 0.9735239 0.97089934
1.0123765 0.9689085 0.99455667 0.9804982 1.3222266 0.97435176 0.97637963 0.984689
0.9788002 0.9895078 0.9826231 0.9940005 1.1225411 0.98941666 0.97214234 0.9738173
1.0347868 1.0408577 0.9701331 0.97801465 0.96642214 1.3830119 0.97254276 0.9707874
0.9686358 0.97199243 1.1091397 0.97399133 1.0405569 1.3049494 0.9721998 0.9687137
0.9680671 0.9696655 0.96866536 0.97808045 0.9691215 0.9746454 0.96791035 0.9776864
1.0218736 0.9744233 0.9731981 0.9717314 0.9808897 1.0060439 0.97339463 0.97403723
0.96778136 0.9789709 1.0033962 1.0157382 1.0058508 0.9707495 1.0836619 0.97744113
0.9906475 0.97314495 0.96381813 0.9721945 1.0140009 0.9789923 0.9708011 0.97047645
0.9700182 0.9790288 0.9695973 1.1014352 0.97333354 0.9788896 0.9803635 0.9810802
0.9686155 0.9733655 0.9719694 1.0023917 0.9660334 1.1612786 0.97431505 0.9789527
0.9901889 0.96011084 1.1004806 0.9746421 1.0056636 1.2090529 1.0059099 0.9935446
0.96848667 0.97357345 0.9731449 0.97054154 0.987036 0.9792019 0.977967 0.9750059
0.99553514 0.97557116 1.0153301 0.98565453 0.99596035 1.0310056 0.994783 0.96563655
0.9719311 0.96379507 1.010214 0.9635326 0.97024417 0.9986235 0.97342634 0.97484237
1.1404288 0.9778235 0.98757726 0.97366965 0.9771252 1.0164918 1.0011569 0.9713545
0.9716091 0.97600824 0.9738286 0.9827191 1.0470853 0.98329717 0.9767234 0.97680986
0.97437453 0.9764096 0.97511 0.99719036 1.0887331 0.9734899 0.97140163 0.9882863
0.96421725 0.9926209 0.9698843 1.122739 0.97852355 0.9614837 0.9742501 1.0019158
0.97744364 0.9791185 0.96634614 0.96791756 0.9799647 1.0852273 0.97062653 1.0178291
0.97099006 0.9725458 0.97474027 1.0599564 1.0804721 0.97040874 0.9910458 0.9750433
0.96903384 0.9703007 1.0788372 0.97174174 0.98467195 0.9708164 0.96963185 0.9832133
0.9729943 1.0047059 0.9737701 0.96980506 0.97706383 0.9720995 0.9756255 0.96693146
0.9642336 0.96318793 0.9739148 0.97410446 1.0291401 0.97498715 1.4632058 0.975762
0.9716383 0.9977389 0.98374027 0.9754242 0.9819894 0.99235755 0.9750912 0.97571456
0.9768783 0.9803536 0.97260445 0.97294176 0.9714292 1.0024375 0.9856701 0.9873557
0.97212875 0.9745646 1.1511741 0.98008543 1.0411557 1.0048866 0.9816587 0.97664446
00000000: ebde 0b3c a21d 9b3a 270b 7d3f 2a88 793f
00000010: 86da 773f 65f7 783f 78b0 793f 0762 793f
00000020: 4111 783f 10aa 783f 2b45 8a3f bfff 783f
00000030: 82eb 773f aefd 793f 2728 7a3f 6646 7e3f
00000040: f228 7b3f d6de 783f af58 7c3f b586 7b3f
00000050: b5f5 773f c600 7a3f 1ed0 7a3f 6eb0 773f
00000060: fc7e 793f 795e 793f 357d 793f 2712 783f
00000070: 0cb1 783f 02d0 793f 8e9d 753f b016 7a3f
00000080: 015c 793f 859a 873f ec4c 763f 4617 7b3f
00000090: de32 7a3f 2f54 793f 9b93 7e3f 9726 a33f
000000a0: a88c 983f b5c4 783f 0e44 803f 5e24 7a3f
000000b0: f9e7 793f 3e3a 7a3f dd38 793f dc8c 783f
000000c0: 8e95 813f 630a 783f 449b 7e3f ee01 7b3f
000000d0: b93e a93f 1e6f 793f 04f4 793f 9414 7c3f
000000e0: a692 7a3f 6250 7d3f 308d 7b3f d176 7e3f
000000f0: 6daf 8f3f 694a 7d3f 52de 783f 174c 793f
00000100: e573 843f d33a 853f a55a 783f 2b5f 7a3f
00000110: 7167 773f 8906 b13f 90f8 783f 8685 783f
00000120: 84f8 773f 7fd4 783f 4af8 8d3f 7f57 793f
00000130: f830 853f 9508 a73f 16e2 783f 9ffd 773f
00000140: 3fd3 773f 003c 783f 74fa 773f 7b63 7a3f
00000150: 5918 783f 5c82 793f f9c8 773f a849 7a3f
00000160: c1cc 823f ce73 793f 8323 793f 64c3 783f
00000170: 961b 7b3f 0cc6 803f 6430 793f 815a 793f
00000180: 85c0 773f d69d 7a3f 496f 803f b603 823f
00000190: b8bf 803f 0a83 783f 6fb5 8a3f 9539 7a3f
000001a0: 139b 7d3f 0720 793f c9bc 763f bde1 783f
000001b0: c8ca 813f 3d9f 7a3f 6c86 783f 2571 783f
000001c0: 1d53 783f a2a1 7a3f 8737 783f d4fb 8c3f
000001d0: 632c 793f 8298 7a3f 1af9 7a3f 1228 7b3f
000001e0: 2ff7 773f 7b2e 793f fdd2 783f 5f4e 803f
000001f0: f74d 773f c7a4 943f b66c 793f a59c 7a3f
00000200: 057d 7d3f d3c9 753f 8cdc 8c3f 2582 793f
00000210: 96b9 803f 3fc2 9a3f a8c1 803f f058 7e3f
00000220: beee 773f 1c3c 793f 0620 793f 6975 783f
00000230: 64ae 7c3f faac 7a3f 0c5c 7a3f fd99 793f
00000240: 64db 7e3f 08bf 793f 56f6 813f db53 7c3f
00000250: 42f7 7e3f fef7 833f 19aa 7e3f f533 773f
00000260: 7ad0 783f 46bb 763f b14e 813f 13aa 763f
00000270: ec61 783f caa5 7f3f 7832 793f 458f 793f
00000280: 92f9 913f a452 7a3f ddd1 7c3f 6a42 793f
00000290: e124 7a3f 671c 823f e925 803f b0aa 783f
000002a0: 60bb 783f addb 793f d54c 793f 7b93 7b3f
000002b0: e406 863f 5db9 7b3f 8b0a 7a3f 3610 7a3f
000002c0: 9c70 793f fbf5 793f cfa0 793f de47 7f3f
000002d0: 9b5b 8b3f a236 793f c7ad 783f 5500 7d3f
000002e0: f1d6 763f 671c 7e3f 564a 783f e9b5 8f3f
000002f0: 8580 7a3f cc23 763f 7468 793f c73e 803f
00000300: bf39 7a3f 83a7 7a3f 7662 773f 72c9 773f
00000310: f7de 7a3f bae8 8a3f fb7a 783f 3948 823f
00000320: ce92 783f c3f8 783f 9488 793f a7ac 873f
00000330: e94c 8a3f b56c 783f 2db5 7d3f 709c 793f
00000340: 9a12 783f a065 783f 5617 8a3f 11c4 783f
00000350: 7613 7c3f 6c87 783f cb39 783f deb3 7b3f
00000360: 2816 793f 349a 803f ff48 793f 2545 783f
00000370: db20 7a3f 83db 783f 98c2 793f d288 773f
00000380: 03d8 763f 7c93 763f 7b52 793f e95e 793f
00000390: ddba 833f c298 793f 544a bb3f 8acb 793f
000003a0: 4abd 783f d16b 7f3f 67d6 7b3f 66b5 793f
000003b0: a863 7b3f 250b 7e3f 949f 793f 6ec8 793f
000003c0: b214 7a3f 74f8 7a3f 9bfc 783f b612 793f
000003d0: 96af 783f df4f 803f e054 7c3f 58c3 7c3f
000003e0: 6edd 783f 117d 793f ac59 933f e1e6 7a3f
000003f0: 9744 853f 20a0 803f fc4d 7b3f 5f05 7a3f

tabnet.initial_splitter.shared.shared_layers.0.weight f4 [96, 1038]
-2.8122854e-06 4.967886e-06 2.567174e-06 -1.0657726e-05 -9.1152e-06 -1.891928e-06 -0.00016992335 -0.00020660483
4.466765e-06 3.7562726e-09 0.09248431 6.7205943e-09 2.2448317e-05 -3.404516e-06 -1.814058e-05 -0.13281076
-8.058946e-05 0.0002546175 -1.0749256e-05 -8.946346e-05 -0.00025120575 -9.87639e-05 0.00037050093 -2.2263794e-07
-0.00016367332 -0.00010197923 -0.00011386439 2.0953152e-05 -0.00019193896 6.70597e-05 -0.00016928253 0.0006309014
0.07163272 0.05599223 -7.977493e-05 3.0753654e-05 -8.8668814e-05 0.014787077 1.427655e-06 0.052430663
-2.6758752e-07 0.0001051166 -0.00022742129 -0.00021946717 1.0010063e-07 3.7857775e-05 0.049477383 -8.454303e-05
-2.4560799e-05 -0.00011319419 -0.00048246182 -1.6176791e-08 3.315967e-05 0.059525173 5.4481997e-09 5.5495584e-05
-8.325555e-05 -5.115138e-05 -0.00018663231 -4.6101097e-05 -1.6317319e-05 -1.0843513e-11 0.0004415033 3.664092e-08
0.121386416 0.0006942849 -7.707064e-06 -0.00023506964 -7.5184744e-07 4.6283923e-05 0.000120851946 -0.00013479292
-0.00011045044 0.024631403 7.795971e-05 -2.3190627e-05 2.128819e-05 0.0004699914 1.2350165e-07 4.8204956e-06
3.5023048e-05 -2.4302078e-11 -0.00012040528 -3.2226844e-06 0.00023009966 0.0007697475 6.146113e-05 5.0866547e-05
-8.932347e-05 0.00015555393 0.00014393264 1.1867007e-05 0.0002974465 6.1505714e-05 0.00018448164 0.00012970906
-5.1709895e-07 -3.3831268e-05 -0.00012415631 -0.00026147725 -2.0372076e-05 -0.00019171055 -0.004229578 4.294934e-07
-5.0487e-06 5.5290773e-05 0.00023101609 -0.00019807353 1.935787e-07 6.486622e-05 -0.00019109916 -0.00020141373
9.349798e-06 0.00019504172 -2.6896177e-07 0.00022972551 -0.00015389227 -2.4144483e-05 -0.05808499 0.00032933688
0.00017178342 -1.5518477e-05 -0.00021403632 -1.827564e-11 0.00014814324 4.568633e-05 0.00040509514 -2.5175805e-05
9.463418e-05 0.00014579466 0.00025115797 -9.341615e-05 0.00018330818 4.4890017e-05 1.7014418e-05 0.00022277031
0.00029583016 -4.8882208e-05 -0.0018938943 -1.2018829e-05 0.0013141324 8.05127e-05 1.1423226e-05 1.0009584e-05
-2.070914e-05 -0.00015977828 -0.00011392293 -8.426774e-07 -0.00024406996 0.0004623304 0.00015744005 -0.00051675225
-0.00016873091 0.00015214739 -1.9899291e-05 9.297847e-05 -8.2642815e-05 -0.00019415736 -0.0004835821 0.00026895193
0.00045199838 -2.3285847e-05 -6.651098e-05 -5.3609758e-05 -8.561315e-05 -2.3074781e-05 0.00013302665 -6.713678e-05
-0.00091526925 -0.0002078602 0.0001403929 -0.00039738294 0.0002960811 -0.00014625001 -0.039350826 -2.0091107e-05
0.1761952 -0.07177224 0.0002270056 0.00017535334 0.20870627 -0.00023869285 0.00022611847 0.030065322
-0.0003412973 8.570985e-05 -1.1734445e-05 0.00023235864 -0.069786325 -5.5802528e-05 6.678022e-05 0.00022101756
9.2158414e-05 3.403782e-06 -3.963567e-05 -3.074474e-05 0.03950616 6.1779625e-05 8.917612e-07 -0.054606963
-3.575299e-05 -8.5947335e-07 -5.831999e-06 -4.554918e-05 0.00066511275 0.00020668351 1.1858615e-05 -4.7545902e-05
3.4086192e-06 -6.843403e-05 0.2002622 7.8375866e-05 4.780237e-05 3.3914034e-06 -0.00015169579 5.348019e-05
-0.00036076357 -0.00021153675 0.01983711 0.0003640436 -0.00029018483 0.00010917992 -0.00031527693 7.828169e-05
6.4938824e-05 0.030563442 8.7105985e-09 0.025756866 -5.41287e-07 9.427137e-05 0.00037386655 0.05102672
1.9918829e-05 6.993847e-05 -3.93826e-06 0.00018776303 6.43074e-05 -0.00044012646 -5.2485166e-06 0.00023980401
-0.00013856865 0.00025549164 6.171998e-05 0.00043471224 -0.00022439794 8.6816616e-13 -2.3031182e-05 4.8558286e-07
-6.719293e-05 5.8858386e-05 8.2165854e-05 -9.11918e-05 -1.796016e-05 4.7225345e-05 7.891369e-05 6.5900804e-06
00000000: b2ba 3cb6 d1b1 a636 b747 2c36 96ce 32b7
00000010: 7ced 18b7 27ee fdb5 742d 32b9 10a4 58b9
00000020: 38e1 9536 8610 8131 6a68 bd3d f9ea e631
00000030: 654f bc37 2479 64b6 992c 98b7 8bff 07be
00000040: 2302 a9b8 2f7e 8539 b457 34b7 549e bbb8
00000050: 44b4 83b9 771f cfb8 cb3f c239 400e 6fb4
00000060: b99f 2bb9 afdd d5b8 7bca eeb8 8dc4 af37
00000070: 3943 49b9 67a2 8c38 6f81 31b9 1463 253a
00000080: 2db4 923d 1c58 653d d74c a7b8 7cfd 0038
00000090: b5f3 b9b8 7f45 723c da9d bf35 89c1 563d
000000a0: f3a8 8fb4 0b72 dc38 f077 6eb9 c520 66b9
000000b0: e7f6 d633 7ac9 1e38 cca8 4a3d b24c b1b8
000000c0: ea07 ceb7 ab62 edb8 eef2 fcb9 24f5 8ab2
000000d0: ed14 0b38 abd0 733d df32 bb31 eec3 6838
000000e0: 7c99 aeb8 608b 56b8 bbb2 43b9 ad5c 41b8
000000f0: 2de1 88b7 d7c2 3ead 9279 e739 1e5f 1d33
00000100: 7199 f83d ac00 363a 964d 01b7 077d 76b9
00000110: 90d2 49b5 fc20 4238 e571 fd38 3357 0db9
00000120: a1a1 e7b8 ccc7 c93c 4d7e a338 7e89 c2b7
00000130: 0a94 b237 2e69 f639 e09b 0434 bebf a136
00000140: b6e5 1238 6ac3 d5ad 1882 fcb8 4c45 58b6
00000150: e846 7139 e1c8 493a b1e4 8038 8a59 5538
00000160: 2c53 bbb8 311c 2339 a0ec 1639 6818 4737
00000170: 98f2 9b39 a1fc 8038 6a71 4139 8302 0839
00000180: c5ce 0ab5 0ce6 0db8 f52f 02b9 e216 89b9
00000190: b3e4 aab7 e905 49b9 4698 8abb 2095 e634
000001a0: 0168 a9b6 04e8 6738 e93c 7239 f5b1 4fb9
000001b0: 82da 4f34 c908 8838 ca61 48b9 9632 53b9
000001c0: 14dd 1c37 1d84 4c39 d365 90b4 79e2 7039
000001d0: 245e 21b9 e289 cab7 87ea 6dbd d9aa ac39
000001e0: c320 3439 ad2d 82b7 f06e 60b9 15c1 a0ad
000001f0: e656 1b39 539f 3f38 f362 d439 a130 d3b7
00000200: 5776 c638 75e0 1839 daad 8339 6ae8 c3b8
00000210: 6a36 4039 4a48 3c38 2fba 8e37 7397 6939
00000220: a719 9b39 df06 4db8 8c3c f8ba 7aa4 49b7
00000230: f73e ac3a edd8 a838 62a6 3f37 d6ee 2737
00000240: 8ab8 adb7 288a 27b9 e8e9 eeb8 5a34 62b5
00000250: 08ed 7fb9 f064 f239 7e16 2539 a876 07ba
00000260: 5ced 30b9 c189 1f39 67ed a6b7 70fd c238
00000270: 8650 adb8 b896 4bb9 4a89 fdb9 1e02 8d39
00000280: 32fa ec39 fa55 c3b7 cf7b 8bb8 0adb 60b8
00000290: 368b b3b8 b790 c1b7 127d 0b39 c9cb 8cb8
000002a0: aeee 6fba 0cf5 59b9 6f36 1339 d657 d0b9
000002b0: 553b 9b39 b05a 19b9 552e 21bd 5389 a8b7
000002c0: 846c 343e 53fd 92bd 5a08 6e39 0edf 3739
000002d0: 19b7 553e a049 7ab9 371a 6d39 8d4b f63c
000002e0: 26f0 b2b9 20bf b338 0fdf 44b7 4ca5 7339
000002f0: 22ec 8ebd 820d 6ab8 5c0c 8c38 f3c0 6739
00000300: 2c45 c138 886c 6436 7a3e 26b8 eaf3 00b8
00000310: 36d1 213d af8f 8138 5d61 6f35 8dab 5fbd
00000320: 7bf5 15b8 8fb6 66b5 7db0 c3b6 0f0c 3fb8
00000330: f65a 2e3a 2fb9 5839 5df4 4637 066c 47b8
00000340: a2bf 6436 3d84 8fb8 8911 4d3e b95d a438
00000350: 677f 4838 de97 6336 8710 1fb9 eb4f 6038
00000360: de24 bdb9 f7cf 5db9 6f81 a23c 1bdd be39
00000370: f323 98b9 86f7 e438 c14b a5b9 2a2b a438
00000380: c42f 8838 2f60 fa3c 9ea5 1532 1000 d33c
00000390: f64c 11b5 8eb3 c538 8503 c439 6501 513d
000003a0: 5c17 a737 eeab 9238 6525 84b6 41e2 4439
000003b0: c6dc 8638 c6c0 e6b9 6a1c b0b6 e673 7b39
000003c0: bd4c 11b9 82f3 8539 a96f 8138 17ea e339
000003d0: 5d4c 6bb9 f75d 742b 1633 c1b7 0059 0235
000003e0: eee9 8cb8 b6de 7638 7550 ac38 3a3e bfb8
000003f0: 26a9 96b7 d413 4638 777e a538 5c20 dd36

tabnet.initial_splitter.shared.shared_layers.1.weight f4 [96, 48]
0.38505647 0.009925069 0.010563725 -0.04107008 -0.024930902 0.05253562 0.019393684 0.00873341
0.0015924659 -0.027640896 -0.021974133 -0.06866111 -0.0389684 -0.0010030109 0.004896132 -0.013436173
0.021283507 -0.033349935 0.00035056067 -0.008677918 -0.011641913 -0.02601 0.041032862 0.0074310293
-0.00011116373 -0.0047930833 1.3181851e-06 -0.0001337788 -0.00042507963 0.00032083364 -2.9618863e-05 -4.7861054e-06
-0.00032376123 0.00016877736 0.00011983797 -0.00022175846 0.00016392235 0.00018070289 -0.00039726746 -4.01256e-05
0.00012741068 0.00036394625 0.0001126132 -0.0006664998 -4.0331688e-05 7.9517486e-05 -6.3558626e-05 0.00058834895
-0.027146315 0.40649125 0.002260971 -0.027421573 0.029133948 0.022492502 -0.038441464 -0.03242588
-0.007088221 0.023236617 -0.039379388 0.004678734 -0.027905654 -9.615652e-05 -0.000348277 -0.011514917
0.026628708 -0.009240742 -0.0038798193 0.015215803 -0.06473063 -0.0010623289 -0.016200226 -0.006303005
-0.0003010871 -0.010554884 0.00018256655 -4.4483233e-05 -0.000467003 -0.0011215415 -0.000339415 0.00038314975
-0.0004921067 0.0012259833 -0.0005390891 -0.0001674806 -0.00054891553 -0.00011877735 -0.0007349892 -1.4052773e-05
-0.000115164024 0.00019581869 0.00022831037 -0.0017846691 0.00026256204 -0.00042489587 -0.00019140985 0.0015585461
0.021611731 -0.010405101 0.010076841 -0.030214125 0.005257622 -0.009880863 -0.021545816 0.041368593
-0.006349407 -0.0004661652 -0.044508312 -0.031409632 -0.011244049 0.00022796643 0.038785074 0.007813726
-0.007916766 -0.011740827 -0.02609688 -0.0074546095 -0.018714199 0.022835255 0.03359029 0.028812537
4.103945e-05 -0.0012400439 -1.1889578e-05 -4.3001687e-06 5.024642e-05 2.1281838e-05 4.8283888e-05 -3.104819e-05
-0.00014718623 -0.00010438814 8.483619e-08 2.7396516e-05 -4.7248333e-05 8.5459105e-05 0.00038655073 -0.00020246665
5.1023235e-05 -0.00013554933 6.35721e-06 -0.00015453661 -0.00014974011 -2.8304605e-06 3.2068143e-05 0.00037327153
-0.02723264 -0.052416522 -0.011958147 0.13077874 -0.039461374 0.005077811 0.026265405 -0.044440463
0.0041906056 0.004779343 -0.037351433 0.011927852 0.033594083 -0.0009004801 -0.09965901 -0.0058358824
0.032248925 -0.021595014 -0.055471513 0.030225381 0.0047081956 0.0024054775 -0.033332985 -0.008845225
-0.0002951908 -0.0021640041 7.09739e-05 -1.383311e-05 0.00037798277 0.00027350945 0.00011290002 1.0495712e-05
0.0004264324 -4.6422476e-05 3.9136998e-05 -4.3388227e-05 9.65509e-05 7.6576864e-05 0.0003806274 -0.00016023492
5.1622126e-05 0.000447682 3.7762748e-05 0.00011475701 0.00040287263 -7.2463146e-05 8.202074e-06 0.0009225738
-0.03753796 -0.03203677 -0.0028668814 -0.0336316 0.22790357 -0.087916076 0.031828914 -0.019659335
0.0036842136 -0.033096142 -0.014506406 -0.033676844 0.026320245 -0.0003616572 0.07687185 -0.08728955
0.060919754 -0.07428773 -2.7964943e-05 0.013655242 0.014245356 -0.05610951 0.027840784 -0.11530101
-0.00033796814 0.0061774245 0.0001078797 7.29408e-05 0.00012254108 -0.00016814038 -4.3773834e-05 9.02316e-05
0.000634976 0.00048250656 -0.00013293153 8.888875e-05 7.21402e-05 0.0004575537 0.0006032048 5.110062e-05
0.00019845561 0.00024053302 6.3778944e-06 0.00026816392 0.000101565165 -4.7099446e-05 4.466744e-05 -0.0015591407
-0.04919993 -0.008453642 -0.0020929528 0.023135139 -0.035194337 0.36930853 0.027279079 -0.0068536354
0.027956834 -0.024301639 -0.06712546 -0.01675861 -0.04379116 -0.0013355967 0.047875214 -0.0042107147
00000000: 1f26 c53e c29c 223c 7913 2d3c 1a39 28bd
00000010: e43b ccbc 972f 573d 81df 9e3c 9416 0f3c
00000020: 4aba d03a 296f e2bc 1903 b4bc 329e 8cbd
00000030: 549d 1fbd 7677 83ba bb6f a03b 6523 5cbc
00000040: c05a ae3c f199 08bd 75cb b739 d42d 0ebc
00000050: b9bd 3ebc ec12 d5bc 1312 283d fe7f f33b
00000060: 9320 e9b8 4c0f 9dbb 7fec b035 f946 0cb9
00000070: 39dd deb9 9035 a839 0676 f8b7 5598 a0b6
00000080: 7fbe a9b9 d4f9 3039 8551 fb38 d587 68b9
00000090: 92e2 2b39 107b 3d39 5648 d0b9 894c 28b8
000000a0: 8b99 0539 0ad0 be39 c02a ec38 0bb8 2eba
000000b0: d229 29b8 a0c2 a638 c74a 85b8 6e3b 1a3a
000000c0: f361 debc 9f1f d03e cd2c 143b 35a3 e0bc
000000d0: 51aa ee3c 3242 b83c cc74 1dbd 00d1 04bd
000000e0: 4f44 e8bb b85a be3c 484c 21bd 1150 993b
000000f0: 669a e4bc a3a7 c9b8 f398 b6b9 10a9 3cbc
00000100: 7324 da3c 7b66 17bc 9144 7ebb b44b 793c
00000110: 7e91 84bd d83d 8bba 56b6 84bc 7089 cebb
00000120: 3adb 9db9 64ee 2cbc 566f 3f39 8293 3ab8
00000130: 15d8 f4b9 b000 93ba 83f3 b1b9 7de1 c839
00000140: b900 01ba 2cb1 a03a a851 0dba bb9d 2fb9
00000150: 19e5 0fba 1b18 f9b8 4aac 40ba 33c4 6bb7
00000160: 3784 f1b8 ae54 4d39 9966 6f39 8feb e9ba
00000170: 7ba8 8939 8fc4 deb9 31b5 48b9 2148 cc3a
00000180: 160b b13c 287a 2abc 5619 253c 9d83 f7bc
00000190: 2148 ac3b 58e3 21bc da80 b0bc 1d72 293d
000001a0: b00e d0bb a267 f4b9 594e 36bd 63a7 00bd
000001b0: f638 38bc 460a 6f39 19dd 1e3d 2405 003c
000001c0: 53b5 01bc 995c 40bc 20c9 d5bc cc45 f4bb
000001d0: 854e 99bc 0011 bb3c f995 093d 4508 ec3c
000001e0: c621 2c38 f888 a2ba 5979 47b7 2b4a 90b6
000001f0: afbf 5238 6686 b237 6e84 4a38 bd39 02b8
00000200: 0156 1ab9 f5ea dab8 302f b633 92d1 e537
00000210: 832c 46b8 8238 b338 f6a9 ca39 3a4d 54b9
00000220: c801 5638 3f22 0eb9 0550 d536 1b0b 22b9
00000230: 8e03 1db9 f1f2 3db6 e880 0638 a8b3 c339
00000240: fc16 dfbc b5b2 56bd 1bec 43bc ddea 053e
00000250: 40a2 21bd c463 a63b 8c2a d73c 3407 36bd
00000260: 5951 893b 099c 9c3b d1fd 18bd 0a6d 433c
00000270: f399 093d 320e 6cba 061a ccbd ee3a bfbb
00000280: 7317 043d 07e8 b0bc 1936 63bd 389b f73c
00000290: 3547 9a3b 37a5 1d3b 2b88 08bd 90eb 10bc
000002a0: d7c3 9ab9 f7d1 0dbb d3d7 9438 c114 68b7
000002b0: fd2b c639 d165 8f39 bdc4 ec38 bd16 3037
000002c0: ca92 df39 c1b5 42b8 0827 2438 c1fb 35b8
000002d0: 5f7b ca38 e497 a038 f28e c739 bc04 28b9
000002e0: d684 5838 dcb6 ea39 7163 1e38 b3a9 f038
000002f0: a638 d339 5bf7 97b8 a49b 0937 e1d8 713a
00000300: 67c1 19bd fd38 03bd 4ae2 3bbb 4ac1 09bd
00000310: 8e5f 693e 580d b4bd 095f 023d 9d0c a1bc
00000320: d972 713b d28f 07bd 47ac 6dbc bbf0 09bd
00000330: 8e9d d73c cf9c bdb9 fd6e 9d3d ddc4 b2bd
00000340: fe86 793d 2a24 98bd 4296 eab7 3cba 5f3c
00000350: 5b65 693c 16d3 65bd 5b12 e43c f022 ecbd
00000360: 5131 b1b9 fe6b ca3b 793d e238 cbf7 9838
00000370: 5f7e 0039 d74e 30b9 cc99 37b8 b93a bd38
00000380: 8574 263a eff8 fc39 8963 0bb9 c969 ba38
00000390: fa49 9738 d1e3 ef39 6420 1e3a df54 5638
000003a0: 8618 5039 9737 7c39 b201 d636 5a98 8c39
000003b0: 62ff d438 a58c 45b8 4c59 3b38 155c ccba
000003c0: de85 49bd 2581 0abc ec29 09bb e785 bd3c
000003d0: f027 10bd 0216 bd3e 6078 df3c 7694 e0bb
000003e0: bb05 e53c 3b14 c7bc 1379 89bd 5a49 89bc
000003f0: 5c5e 33bd 300f afba cd18 443d 09fa 89bb

tabnet.initial_splitter.shared.glu_layers.0.fc.weight f4 [96, 1038]
-2.8122854e-06 4.967886e-06 2.567174e-06 -1.0657726e-05 -9.1152e-06 -1.891928e-06 -0.00016992335 -0.00020660483
4.466765e-06 3.7562726e-09 0.09248431 6.7205943e-09 2.2448317e-05 -3.404516e-06 -1.814058e-05 -0.13281076
-8.058946e-05 0.0002546175 -1.0749256e-05 -8.946346e-05 -0.00025120575 -9.87639e-05 0.00037050093 -2.2263794e-07
-0.00016367332 -0.00010197923 -0.00011386439 2.0953152e-05 -0.00019193896 6.70597e-05 -0.00016928253 0.0006309014
0.07163272 0.05599223 -7.977493e-05 3.0753654e-05 -8.8668814e-05 0.014787077 1.427655e-06 0.052430663
-2.6758752e-07 0.0001051166 -0.00022742129 -0.00021946717 1.0010063e-07 3.7857775e-05 0.049477383 -8.454303e-05
-2.4560799e-05 -0.00011319419 -0.00048246182 -1.6176791e-08 3.315967e-05 0.059525173 5.4481997e-09 5.5495584e-05
-8.325555e-05 -5.115138e-05 -0.00018663231 -4.6101097e-05 -1.6317319e-05 -1.0843513e-11 0.0004415033 3.664092e-08
0.121386416 0.0006942849 -7.707064e-06 -0.00023506964 -7.5184744e-07 4.6283923e-05 0.000120851946 -0.00013479292
-0.00011045044 0.024631403 7.795971e-05 -2.3190627e-05 2.128819e-05 0.0004699914 1.2350165e-07 4.8204956e-06
3.5023048e-05 -2.4302078e-11 -0.00012040528 -3.2226844e-06 0.00023009966 0.0007697475 6.146113e-05 5.0866547e-05
-8.932347e-05 0.00015555393 0.00014393264 1.1867007e-05 0.0002974465 6.1505714e-05 0.00018448164 0.00012970906
-5.1709895e-07 -3.3831268e-05 -0.00012415631 -0.00026147725 -2.0372076e-05 -0.00019171055 -0.004229578 4.294934e-07
-5.0487e-06 5.5290773e-05 0.00023101609 -0.00019807353 1.935787e-07 6.486622e-05 -0.00019109916 -0.00020141373
9.349798e-06 0.00019504172 -2.6896177e-07 0.00022972551 -0.00015389227 -2.4144483e-05 -0.05808499 0.00032933688
0.00017178342 -1.5518477e-05 -0.00021403632 -1.827564e-11 0.00014814324 4.568633e-05 0.00040509514 -2.5175805e-05
9.463418e-05 0.00014579466 0.00025115797 -9.341615e-05 0.00018330818 4.4890017e-05 1.7014418e-05 0.00022277031
0.00029583016 -4.8882208e-05 -0.0018938943 -1.2018829e-05 0.0013141324 8.05127e-05 1.1423226e-05 1.0009584e-05
-2.070914e-05 -0.00015977828 -0.00011392293 -8.426774e-07 -0.00024406996 0.0004623304 0.00015744005 -0.00051675225
-0.00016873091 0.00015214739 -1.9899291e-05 9.297847e-05 -8.2642815e-05 -0.00019415736 -0.0004835821 0.00026895193
0.00045199838 -2.3285847e-05 -6.651098e-05 -5.3609758e-05 -8.561315e-05 -2.3074781e-05 0.00013302665 -6.713678e-05
-0.00091526925 -0.0002078602 0.0001403929 -0.00039738294 0.0002960811 -0.00014625001 -0.039350826 -2.0091107e-05
0.1761952 -0.07177224 0.0002270056 0.00017535334 0.20870627 -0.00023869285 0.00022611847 0.030065322
-0.0003412973 8.570985e-05 -1.1734445e-05 0.00023235864 -0.069786325 -5.5802528e-05 6.678022e-05 0.00022101756
9.2158414e-05 3.403782e-06 -3.963567e-05 -3.074474e-05 0.03950616 6.1779625e-05 8.917612e-07 -0.054606963
-3.575299e-05 -8.5947335e-07 -5.831999e-06 -4.554918e-05 0.00066511275 0.00020668351 1.1858615e-05 -4.7545902e-05
3.4086192e-06 -6.843403e-05 0.2002622 7.8375866e-05 4.780237e-05 3.3914034e-06 -0.00015169579 5.348019e-05
-0.00036076357 -0.00021153675 0.01983711 0.0003640436 -0.00029018483 0.00010917992 -0.00031527693 7.828169e-05
6.4938824e-05 0.030563442 8.7105985e-09 0.025756866 -5.41287e-07 9.427137e-05 0.00037386655 0.05102672
1.9918829e-05 6.993847e-05 -3.93826e-06 0.00018776303 6.43074e-05 -0.00044012646 -5.2485166e-06 0.00023980401
-0.00013856865 0.00025549164 6.171998e-05 0.00043471224 -0.00022439794 8.6816616e-13 -2.3031182e-05 4.8558286e-07
-6.719293e-05 5.8858386e-05 8.2165854e-05 -9.11918e-05 -1.796016e-05 4.7225345e-05 7.891369e-05 6.5900804e-06
00000000: b2ba 3cb6 d1b1 a636 b747 2c36 96ce 32b7
00000010: 7ced 18b7 27ee fdb5 742d 32b9 10a4 58b9
00000020: 38e1 9536 8610 8131 6a68 bd3d f9ea e631
00000030: 654f bc37 2479 64b6 992c 98b7 8bff 07be
00000040: 2302 a9b8 2f7e 8539 b457 34b7 549e bbb8
00000050: 44b4 83b9 771f cfb8 cb3f c239 400e 6fb4
00000060: b99f 2bb9 afdd d5b8 7bca eeb8 8dc4 af37
00000070: 3943 49b9 67a2 8c38 6f81 31b9 1463 253a
00000080: 2db4 923d 1c58 653d d74c a7b8 7cfd 0038
00000090: b5f3 b9b8 7f45 723c da9d bf35 89c1 563d
000000a0: f3a8 8fb4 0b72 dc38 f077 6eb9 c520 66b9
000000b0: e7f6 d633 7ac9 1e38 cca8 4a3d b24c b1b8
000000c0: ea07 ceb7 ab62 edb8 eef2 fcb9 24f5 8ab2
000000d0: ed14 0b38 abd0 733d df32 bb31 eec3 6838
000000e0: 7c99 aeb8 608b 56b8 bbb2 43b9 ad5c 41b8
000000f0: 2de1 88b7 d7c2 3ead 9279 e739 1e5f 1d33
00000100: 7199 f83d ac00 363a 964d 01b7 077d 76b9
00000110: 90d2 49b5 fc20 4238 e571 fd38 3357 0db9
00000120: a1a1 e7b8 ccc7 c93c 4d7e a338 7e89 c2b7
00000130: 0a94 b237 2e69 f639 e09b 0434 bebf a136
00000140: b6e5 1238 6ac3 d5ad 1882 fcb8 4c45 58b6
00000150: e846 7139 e1c8 493a b1e4 8038 8a59 5538
00000160: 2c53 bbb8 311c 2339 a0ec 1639 6818 4737
00000170: 98f2 9b39 a1fc 8038 6a71 4139 8302 0839
00000180: c5ce 0ab5 0ce6 0db8 f52f 02b9 e216 89b9
00000190: b3e4 aab7 e905 49b9 4698 8abb 2095 e634
000001a0: 0168 a9b6 04e8 6738 e93c 7239 f5b1 4fb9
000001b0: 82da 4f34 c908 8838 ca61 48b9 9632 53b9
000001c0: 14dd 1c37 1d84 4c39 d365 90b4 79e2 7039
000001d0: 245e 21b9 e289 cab7 87ea 6dbd d9aa ac39
000001e0: c320 3439 ad2d 82b7 f06e 60b9 15c1 a0ad
000001f0: e656 1b39 539f 3f38 f362 d439 a130 d3b7
00000200: 5776 c638 75e0 1839 daad 8339 6ae8 c3b8
00000210: 6a36 4039 4a48 3c38 2fba 8e37 7397 6939
00000220: a719 9b39 df06 4db8 8c3c f8ba 7aa4 49b7
00000230: f73e ac3a edd8 a838 62a6 3f37 d6ee 2737
00000240: 8ab8 adb7 288a 27b9 e8e9 eeb8 5a34 62b5
00000250: 08ed 7fb9 f064 f239 7e16 2539 a876 07ba
00000260: 5ced 30b9 c189 1f39 67ed a6b7 70fd c238
00000270: 8650 adb8 b896 4bb9 4a89 fdb9 1e02 8d39
00000280: 32fa ec39 fa55 c3b7 cf7b 8bb8 0adb 60b8
00000290: 368b b3b8 b790 c1b7 127d 0b39 c9cb 8cb8
000002a0: aeee 6fba 0cf5 59b9 6f36 1339 d657 d0b9
000002b0: 553b 9b39 b05a 19b9 552e 21bd 5389 a8b7
000002c0: 846c 343e 53fd 92bd 5a08 6e39 0edf 3739
000002d0: 19b7 553e a049 7ab9 371a 6d39 8d4b f63c
000002e0: 26f0 b2b9 20bf b338 0fdf 44b7 4ca5 7339
000002f0: 22ec 8ebd 820d 6ab8 5c0c 8c38 f3c0 6739
00000300: 2c45 c138 886c 6436 7a3e 26b8 eaf3 00b8
00000310: 36d1 213d af8f 8138 5d61 6f35 8dab 5fbd
00000320: 7bf5 15b8 8fb6 66b5 7db0 c3b6 0f0c 3fb8
00000330: f65a 2e3a 2fb9 5839 5df4 4637 066c 47b8
00000340: a2bf 6436 3d84 8fb8 8911 4d3e b95d a438
00000350: 677f 4838 de97 6336 8710 1fb9 eb4f 6038
00000360: de24 bdb9 f7cf 5db9 6f81 a23c 1bdd be39
00000370: f323 98b9 86f7 e438 c14b a5b9 2a2b a438
00000380: c42f 8838 2f60 fa3c 9ea5 1532 1000 d33c
00000390: f64c 11b5 8eb3 c538 8503 c439 6501 513d
000003a0: 5c17 a737 eeab 9238 6525 84b6 41e2 4439
000003b0: c6dc 8638 c6c0 e6b9 6a1c b0b6 e673 7b39
000003c0: bd4c 11b9 82f3 8539 a96f 8138 17ea e339
000003d0: 5d4c 6bb9 f75d 742b 1633 c1b7 0059 0235
000003e0: eee9 8cb8 b6de 7638 7550 ac38 3a3e bfb8
000003f0: 26a9 96b7 d413 4638 777e a538 5c20 dd36

tabnet.initial_splitter.shared.glu_layers.0.bn.bn.weight f4 [96]
0.0028883931 0.06011106 0.0020903621 0.0011690359 0.010222183 0.003976559 0.0013015084 0.08711738
0.006224893 0.02474397 0.0033180194 0.5728984 0.0023842591 0.009605645 0.011926577 0.02836704
0.0059990217 0.00047106747 0.03962758 -0.005205824 0.02287786 0.055921305 0.00029382523 0.08375804
0.4255404 0.4865454 0.45059523 0.43235 0.5036333 0.5739802 0.39614093 0.5252555
0.4303238 0.3821523 0.49013734 0.58667076 0.37073722 0.53451926 0.36914423 0.47706893
0.41117296 0.4713786 0.50208586 0.35818806 0.2938603 0.47439042 0.30168825 0.34545955
1.8099989e-05 -0.00020356983 4.895285e-07 8.754224e-06 3.9982282e-05 5.373666e-05 1.476196e-06 0.0026957581
-5.7841837e-05 -8.323751e-05 1.8458792e-05 0.35942492 2.1091713e-05 0.0002373879 0.0003432195 0.00022108312
8.450427e-05 5.1766124e-06 -0.00042115257 1.3767718e-06 3.7012156e-05 0.00044135432 4.012938e-06 -0.00032492194
0.055224705 0.30406567 0.3226114 0.14235826 0.4643845 -0.10106032 -0.1676665 0.39901105
0.12554237 0.11569876 0.22754826 0.43008772 0.124786906 0.45065168 0.10155597 0.28846675
0.17753574 0.3007827 0.5990056 0.29209474 -0.085812606 0.38750085 0.10418152 -0.0508607
00000000: 324b 3d3b 0437 763d 75fe 083b 563a 993a
00000010: f17a 273c cb4d 823b 6097 aa3a 996a b23d
00000020: 30fa cb3b deb3 ca3c 2173 593b 78a9 123f
00000030: 3b41 1c3b ff60 1d3c b167 433c ff61 e83c
00000040: 7193 c43b 9bf9 f639 8850 223d 9e95 aabb
00000050: 5a6a bb3c bd0d 653d 8e0c 9a39 5689 ab3d
00000060: 6ee0 d93e 7b1c f93e 6bb4 e63e fb5c dd3e
00000070: 1dee 003f 5ef0 123f fcd2 ca3e 2577 063f
00000080: 6753 dc3e 77a9 c33e 48f3 fa3e 0e30 163f
00000090: 45d1 bd3e 41d6 083f 7900 bd3e 6142 f43e
000000a0: 4385 d23e 8958 f13e b388 003f 6d64 b73e
000000b0: db74 963e 4de3 f23e e276 9a3e 13e0 b03e
000000c0: 6ed5 9737 5c75 55b9 2468 0335 1bdf 1237
000000d0: a6b2 2738 4d63 6138 b521 c635 51ab 303b
000000e0: 339b 72b8 cc8f aeb8 f4d7 9a37 8b06 b83e
000000f0: 1cee b037 54eb 7839 24f2 b339 8cd2 6739
00000100: e237 b138 c3b2 ad36 24ce dcb9 85c9 b835
00000110: 803d 1b38 9365 e739 e0a6 8636 495a aab9
00000120: 4d33 623d 7fae 9b3e 522d a53e 5dc6 113e
00000130: cec3 ed3e b7f8 cebd c4b0 2bbe 2d4b cc3e
00000140: 2e8e 003e 79f3 ec3d 6902 693e 7534 dc3e
00000150: 4790 ff3d d1bb e63e 94fc cf3d eab1 933e
00000160: eecb 353e 3100 9a3e 6e58 193f 718d 953e
00000170: 85be afbd 8366 c63e 1f5d d53d 4f53 50bd
