cv_steps/tabnet_raw_step1_fold2_4/network.pt (torch, 682379 bytes, 56 tensors)

embedder.embeddings.0.weight f4 [3, 1]
00000000: b7a7 6986 ed3b 0c05 f1b9 f404
-4.3945647e-35 6.593775e-36 5.7534885e-36

embedder.embeddings.1.weight f4 [2, 1]
00000000: 8f1a b93c 9038 babc
0.022595672 -0.02273205

tabnet.initial_bn.weight f4 [1038]
00000000: ec41 0309 4e4d 1fbe aef8 0c3d e920 253e
00000010: 815c 8f3d 43a9 553e 36fa 1a3e f5b3 94ba
00000020: 04eb 663d 9de3 813d 7664 813e d122 b737
00000030: feb6 d43c 2ab5 3e3e b216 eb3d 9b9c 483e
00000040: 9d5e 243d 0f45 503e 683a c23d f556 b03d
00000050: 6a90 023e 1168 f73d bf02 663e b2e7 bebb
00000060: 17be 823e 30dd 033e 5d05 233e 517f ca3d
00000070: f696 1c3e 6cba 2f3e bd3e 413e e46c 733e
00000080: 879e 493e 2ebe e73c 535c f13d d614 3b3e
00000090: 6c5d 593e 7b19 643b 8d64 7c3e f3db 143e
000000a0: 3cb8 1338 e9d1 453e 7043 3c3e fe41 623d
000000b0: c095 2e3d 226f 183d e15e 103e bd5e 363e
000000c0: 24d0 9ab9 6a65 603e be3c 4b3e 294e 85b7
000000d0: ff88 0c3e bb89 b53d 6001 c93d 41e3 083e
000000e0: d51a d13d 80ed 8ebd ee79 623e a720 363e
000000f0: c248 143e f24c ea39 575d 3f3e d7f9 ec36
00000100: 2d09 943e 0d9c 6e3e b714 263d 31fd 213e
00000110: 54ae 443e ff8c 743d 94f5 373e 5e25 3d3e
00000120: 5fc4 08b5 d74b c03d 7f18 893a 5732 d13d
00000130: 5661 733b 6bee c33e 64e0 cdb9 64e6 123e
00000140: 5962 893d a445 f839 cdd1 463d b90a 473e
00000150: 9f3f 823d 5eee 173e 1ca1 b83d 1ead 023e
00000160: 6d5a 653d c6c1 053e 69e0 a63d e9cb fb3d
00000170: 8439 593e 2ef1 723e 5a03 013d c9c2 2b3e
00000180: 6ed1 1f3e bad1 ac3c e6c4 173e 1044 403d
00000190: b14b 5d3d f318 4e3e 2dc3 993e 437f 353e
000001a0: d729 0e3e da24 683e 1852 443e 0c0c d33d
000001b0: eb02 c33d 0548 c83d 8a13 de3d bd43 653e
000001c0: f955 8334 372d f63d 64ee 2a3d 5b37 ee3c
000001d0: 00db fe3d affb 45bc a25f 2b3e 3182 6d3e
000001e0: e88e 583e fbdb b7b8 6e92 e73d 1c9c 9f39
000001f0: 58ad 0d3e 7d31 773e b833 363e edc4 1a3e
00000200: 0838 eeb5 2460 963d 23da 683e 316b 7e3d
00000210: 769c 403e 1693 803d a0db 803d 5101 6f3e
00000220: 96ef ff3c 8954 0d3e 79e0 9e3d 861a 5f3e
00000230: 7f51 bc3d 95eb 853d 7ff6 fe3a 1306 0438
00000240: 3d28 0c3e 24e4 b73d 70c9 123e a580 1e3b
00000250: 350c cbbb aa9f 473e 1d58 2a3e 7477 2e3e
00000260: 8dca 8e3b 7187 91bd 4f4e 073e 97af ec3d
00000270: fcc5 013e baf7 ac3b b1bf 7c3e e74f 8f3e
00000280: 00a9 983e 539c 4b3d 8845 183e 19b1 523d
00000290: 8129 9d3d f69c dbb9 ea91 353e 5dac 8c37
000002a0: fb0c 5f3e 9e65 973e be29 043e 1c3e 323e
000002b0: c50a 133e 9d74 d13d c91a 3d3d f42b 643e
000002c0: fda6 e23d 33f7 bc3e 43fd 183e 6a3a b5bc
000002d0: 7100 ac3e 48a0 7e3d 9fb3 7f3e 388e 053e
000002e0: ed8b 483d daeb 133e 239d 9a3d 00d9 d33d
000002f0: 76ed 343e a0a9 4d3e f136 5b3d 1484 623e
00000300: 9f0e e03d c1b5 243c 059a 9b3d 2c83 753d
00000310: b2ad 713d 7eac 94b6 c480 9ab9 d146 153e
00000320: ac98 9e3d 5380 083d 660a 883a 3da1 493e
00000330: bef4 923e 35f8 a33e ee38 adbb 4b2a f43d
00000340: bb17 f93d 3fb7 643e 45cc f33d 2f28 4e3e
00000350: 3eee 3f3e 64db 173e 56bf c03d 2781 0f3e
00000360: acf6 1e3a bb42 da3c c88c a73d c7c6 593e
00000370: 9d8f fc3d 67c8 b6bd 0252 ac3d 361c 0e3e
00000380: a91a 093e 0b62 cd3d 5524 7cb9 38f9 173e
00000390: 8ae7 9e3d f677 13b9 aea0 8f3d 4a32 373a
000003a0: 6a18 dd3d 57a0 243e a816 d2bb 7d4f c83d
000003b0: 186a 1d3e 6f7f 3a3e feb1 f13d 447e 253e
000003c0: cdb9 f53d 0e8b 2a3e a89d c0bc ddda 853e
000003d0: e625 233e 227c e637 6845 ce3d 6a8d 203e
000003e0: 6ad8 903d e275 b4ba c586 683e 5812 513d
000003f0: 6bb6 a3b7 cf84 953d 76ae 983d 2bc5 5039
1.5799548e-33 -0.15556833 0.034416847 0.16125835 0.070000656 0.2086535 0.1513451 -0.0011345135
0.056376472 0.06342242 0.25271958 2.1831513e-05 0.025966164 0.18623796 0.11478938 0.1959099
0.040129293 0.20338844 0.09483796 0.08610336 0.12750402 0.12080396 0.22461985 -0.00582596
0.25535652 0.12877345 0.15920015 0.09887565 0.15291962 0.17160958 0.18871589 0.23772007
0.1968938 0.028288927 0.117851876 0.18269667 0.21227044 0.0034805227 0.24647732 0.14537029
3.5219113e-05 0.19318356 0.183851 0.055238716 0.04262328 0.03721536 0.14098693 0.17809577
-0.00029528246 0.21913686 0.1984739 -1.5891232e-05 0.13724135 0.088641606 0.098147154 0.1336794
0.10210196 -0.06978893 0.22116825 0.17785893 0.1448088 0.00044689287 0.1868795 7.0624333e-06
0.2891325 0.23301716 0.0405471 0.15819241 0.19207126 0.059704777 0.17964774 0.18471286
-5.0949706e-07 0.09389465 0.0010459571 0.1021468 0.0037136874 0.38267836 -0.0003926783 0.143457
0.067082115 0.00047354132 0.048539925 0.19437684 0.06359791 0.14837024 0.09015104 0.12761351
0.05599444 0.130622 0.081482716 0.12294752 0.21213347 0.23724815 0.031497337 0.16773523
0.15607235 0.0210961 0.14821205 0.04693991 0.054027263 0.20126705 0.3003172 0.17724328
0.13883148 0.22670308 0.19171941 0.10305032 0.09522041 0.09779362 0.108435705 0.22389121
2.4463205e-07 0.12020343 0.041731253 0.02907913 0.12444115 -0.012083932 0.167357 0.23194195
0.21148264 -8.7670946e-05 0.11307226 0.00030443154 0.13835657 0.24139972 0.17793167 0.15114184
-1.7748689e-06 0.07342556 0.22739463 0.062113944 0.18809685 0.062780544 0.0629189 0.23340346
0.031242173 0.13801779 0.077576585 0.21787462 0.09195232 0.06539074 0.0019452124 3.147691e-05
0.13687225 0.08979061 0.14334655 0.0024185565 -0.0061965236 0.19494501 0.16635175 0.17037755
0.004357642 -0.071059115 0.13213466 0.115569286 0.12673181 0.0052785547 0.246825 0.27990648
0.29816437 0.04970963 0.14870274 0.051438425 0.07673932 -0.0004188788 0.17731443 1.6769563e-05
0.21782295 0.29569715 0.12906548 0.17406505 0.14359577 0.1022732 0.046168122 0.22282392
0.11067007 0.36907348 0.14940362 -0.02212258 0.33594087 0.062164575 0.24970864 0.13042533
0.04896157 0.14445439 0.07549503 0.10344124 0.17668709 0.20084238 0.053519193 0.22120696
0.10940289 0.010053099 0.07597736 0.05993955 0.05900354 -4.4308244e-06 -0.00029469107 0.14577796
0.077439636 0.033325505 0.0010379076 0.19690414 0.28702348 0.32025304 -0.0052863276 0.11922129
0.12162729 0.22335528 0.11904196 0.20132516 0.18743226 0.14829785 0.094114944 0.14014111
0.00060639787 0.026643148 0.08181149 0.21267234 0.123320796 -0.089249425 0.08414079 0.13877949
0.13389076 0.10028466 -0.00024046128 0.14841163 0.07759006 -0.00014063701 0.07013069 0.00069883897
0.10795672 0.1607679 -0.0064113922 0.09780786 0.15372503 0.18212675 0.118015274 0.16161448
0.11998329 0.16654608 -0.023512676 0.26143542 0.15932426 2.747594e-05 0.10071832 0.15678945
0.07072528 -0.0013768042 0.2270766 0.051042885 -1.951606e-05 0.07300722 0.07455151 0.00019909877

tabnet.initial_bn.bias f4 [1038]
00000000: ee5d 930f 4046 3d39 a0da a73e d638 50b9
00000010: 8006 18b8 739b b6b9 564a d839 f96d 80b6
00000020: c5cc 34ba 2923 34b8 1949 8ebe e7b7 c8b4
00000030: a245 c4b8 8734 b1bd ea81 f6ba 7159 bd3c
00000040: e4cd 643e 74f8 e7b8 11e3 7cb9 9309 94be
00000050: 0582 f7b8 dabe 7f3a 22f5 9f38 967d c3b7
00000060: 5c29 173b 6d7e 28b9 1af0 04ba 3469 c5b9
00000070: ff8f 27bb ce88 8e3b 36f5 85ba 7aac 093e
00000080: 2d5c a3ba 8bf0 d1b9 2ea1 fcba d5cb e7b9
00000090: 191d ef3a f32b 403a 0ec3 523a c2f1 c8b9
000000a0: 6947 46b4 b4e5 1739 8bc0 b3b9 2c13 0239
000000b0: 1c15 fc39 7324 4c3a d9a0 4bbe f3a3 53ba
000000c0: b274 1a37 5080 4c3a a999 87ba e8b7 ceb5
000000d0: b54b cbba d448 6eb9 d8a1 88b9 1c0e 91bb
000000e0: 95f7 96b9 38c1 32ba 3cfa 2239 0679 46bb
000000f0: 0940 afb8 92fb 2735 aec9 ee3a da01 6c34
00000100: 0c78 6639 630f 9a3c 9f5a ce3a 1cdc 973a
00000110: 7184 933a adfb 9d39 04f6 06ba bb8f 113a
00000120: 3617 0633 b2b8 8ab9 8357 ceb7 de32 a43e
00000130: 0175 153a d3dc 0839 434b ebb3 2dd4 ce39
00000140: 5358 4139 b68a a6b5 e8cd 97b8 f21a e038
00000150: df1c d236 2f52 863d 9072 f838 0766 b4b8
00000160: 0f02 3238 bc19 91b9 3aac 453a 2b0e e63a
00000170: 697c 0aba ee80 313e 2681 083a b5f4 5939
00000180: cf3b c639 e3a9 4538 5c6d 293a e85a ff39
00000190: 8730 d139 c015 523b 57e5 d23a 3eb4 70b9
000001a0: b690 d839 c8da 2fba 31a6 67b8 b784 12b9
000001b0: d1fc c939 0af2 b3b7 11f5 f639 9fc7 cab8
000001c0: 53ca bf31 d7ed 17ba 9bbe c138 526f a0be
000001d0: 1eb8 e438 8a74 57b9 721e 2bba 4385 7aba
000001e0: 41ab 073a a1f1 dbb5 5ba1 9db9 1b47 68b6
000001f0: 532a 1938 b9a4 a3ba 2464 da39 ff6a 53b9
00000200: df81 1931 7215 08b9 3552 ef3a 40ee b0b7
00000210: 11d5 2dbc d888 fa39 8e5c 1db9 6e2f a3bd
00000220: 9978 4bb8 0850 db3a 03ca b0ba 8bb8 6cb4
00000230: 5e02 0cb9 a9e4 27b9 530f b1b8 44a3 e4b2
00000240: 0c22 2939 189a cb3a 934b d4b9 e356 0c38
00000250: 1f89 e0b6 d577 78be 2e3f 973a b4a0 91bb
00000260: a8bd 3737 7c27 01b9 7ac2 ebb9 f71c 0d3a
00000270: f7e2 7b38 b6f5 3eb8 3883 b4ba 28b8 b33d
00000280: d564 8b3a e8a1 1a39 464a bc39 b6ce 8236
00000290: 4523 a139 1edf 2236 60e1 d8ba 1d47 1d33
000002a0: de1b 8cbb 26bd 1fbb 8cb6 59b9 1da4 bdba
000002b0: 8b8f 4d39 f36d 7cb9 582f 253f 3f35 ae39
000002c0: f961 1d3a 32bd a33a 27c3 f83a ddb9 cfb9
000002d0: 4887 1eba b446 79b9 4833 c8b8 ba3f a1b9
000002e0: 6a5a 85b7 7dd3 44b7 c0f9 a5b8 4d86 abba
000002f0: c6d2 7db9 697d ac3b b232 6e3e 0322 083e
00000300: e2cc db37 2bc3 a139 86fc c3b9 32db 1a39
00000310: 76b0 58be f068 8232 c77c 75b5 2dd7 1fb9
00000320: 28fc 24ba bc43 6639 e06a fe37 cd90 e33a
00000330: 8c9a 8337 ae39 1b39 b381 49ba 4be8 8838
00000340: 0762 5439 f4da d43a d66d 98be db9e 9aba
00000350: 2e10 07bb bdac 30ba 0620 c9ba a6ab 2239
00000360: d7cf be35 e0ab 21b9 3542 d4b8 5d7b c83b
00000370: beae 50b7 a365 4939 34c6 85b7 8a6d 28bb
00000380: 8f4b a339 6b9e 8b3e 1fe8 2f35 562b 17b9
00000390: a0d2 fd38 cb9c f436 8147 ddb9 a55f 0d37
000003a0: e8c9 80ba 8aed 1c3a 6a48 87b8 56da 6bba
000003b0: 3b47 49b7 ba63 f6ba 2a2a a639 f3f1 4639
000003c0: d02b 7c39 9e9f afba 606d aeb9 d39a 813b
000003d0: 6b5f 0d3b c1a1 0734 5355 2fbb 5566 d238
000003e0: 5b02 8ab9 a86e 7638 9c8d aab9 2ccc 5e39
000003f0: 65ad 0fb4 1f8e 9338 2e5a 98ba 3429 2db6
1.45315e-29 0.00018050615 0.32783985 -0.00019857599 -3.6245678e-05 -0.00034829564 0.00041254115 -3.8274998e-06
-0.0006896968 -4.294809e-05 -0.27790144 -3.738671e-07 -9.3589784e-05 -0.08652597 -0.0018807028 0.023113938
0.22344166 -0.00011061216 -0.00024117182 -0.28913555 -0.00011802096 0.0009755917 7.62737e-05 -2.3304292e-05
0.0023065424 -0.00016068826 -0.00050711783 -0.0003765315 -0.0025568006 0.0043498045 -0.0010220173 0.13444701
-0.0012463384 -0.00040042805 -0.001927411 -0.0004421162 0.0018242925 0.00073307677 0.00080399297 -0.00038327096
-1.8466166e-07 0.00014486053 -0.00034284996 0.00012404908 0.00048080913 0.0007787414 -0.19885577 -0.00080734416
9.2062855e-06 0.00078011025 -0.0010345477 -1.540172e-06 -0.0015510233 -0.0002272458 -0.00026060524 -0.004426731
-0.00028794692 -0.0006818953 0.00015542743 -0.0030284538 -8.356578e-05 6.257843e-07 0.0018218064 2.1979886e-07
0.0002197923 0.018806165 0.001574356 0.0011585983 0.001125468 0.00030132887 -0.00051483535 0.00055527285
3.1220416e-08 -0.0002645902 -2.4597864e-05 0.3207006 0.0005701334 0.00013052234 -1.095673e-07 0.00039449465
0.00018438818 -1.2408334e-06 -7.238594e-05 0.00010686171 6.2618487e-06 0.06558644 0.000118469005 -8.602073e-05
4.2440424e-05 -0.0002767573 0.00075406174 0.001755183 -0.0005282821 0.17334339 0.0005207233 0.00020785893
0.00037810064 4.712668e-05 0.0006463134 0.0004870512 0.00039899742 0.003205642 0.0016090077 -0.00022955329
0.00041306549 -0.0006708321 -5.522947e-05 -0.00013973085 0.0003852607 -2.1451171e-05 0.00047103365 -9.669293e-05
5.581833e-09 -0.0005795634 9.23846e-05 -0.3133493 0.00010906182 -0.00020547412 -0.0006527669 -0.00095566007
0.000517536 -1.6387095e-06 -0.00030065593 -3.4612083e-06 3.651746e-05 -0.0012485004 0.0004165481 -0.00020162387
2.2338253e-09 -0.0001297796 0.0018258753 -2.1091779e-05 -0.010609881 0.00047785672 -0.00015007166 -0.07968031
-4.8511287e-05 0.0016732225 -0.0013487939 -2.2046349e-07 -0.00013352322 -0.00016011544 -8.442872e-05 -2.6616938e-08
0.0001612978 0.0015533594 -0.00040492098 3.345952e-05 -6.691683e-06 -0.24264462 0.0011539215 -0.004444206
1.0951808e-05 -0.00012317108 -0.0004496759 0.0005383039 6.005444e-05 -4.5528366e-05 -0.0013772016 0.087753594
0.0010634909 0.00014746899 0.00035913492 3.8983662e-06 0.0003073459 2.4269752e-06 -0.0016546659 3.6619088e-08
-0.004275783 -0.0024374216 -0.00020762737 -0.0014468465 0.00019603797 -0.00024073552 0.64525366 0.00033227538
0.0006003674 0.0012492298 0.0018979058 -0.00039620596 -0.000604738 -0.0002377283 -9.546295e-05 -0.00030755793
-1.5896938e-05 -1.1731751e-05 -7.914333e-05 -0.0013086289 -0.0002420648 0.0052639735 0.23261526 0.13294224
2.620224e-05 0.00030853724 -0.00037381443 0.00014768241 -0.21161065 1.5181712e-08 -9.145119e-07 -0.00015243581
-0.0006293678 0.00021959742 3.0328927e-05 0.001736188 1.5688383e-05 0.00014803439 -0.0007686868 6.528253e-05
0.00020254414 0.001623957 -0.29771298 -0.001179661 -0.002060901 -0.0006739607 -0.0015344627 0.00015513468
1.4216592e-06 -0.00015418185 -0.0001012128 0.0061182217 -1.2438451e-05 0.00019206716 -1.5947131e-05 -0.0025700056
0.00031146078 0.272693 6.553036e-07 -0.00014416626 0.00012103212 7.2900198e-06 -0.0004220568 8.426524e-06
-0.0009825798 0.0005986324 -6.45079e-05 -0.0008997073 -1.1997118e-05 -0.0018798031 0.00031693402 0.00018972885
0.00024048914 -0.001339901 -0.00033269357 0.003955224 0.0021571766 1.26317e-07 -0.0026753738 0.00010032641
-0.00026323166 5.8754027e-05 -0.00032530434 0.0002124763 -1.3380993e-07 7.035978e-05 -0.0011623555 -2.5802992e-06

tabnet.initial_bn.running_mean f4 [1038]
00000000: 04a4 07b0 2eec 483a c0d0 a23a c03a 493a
00000010: 16f2 b03b 71b7 c8b9 fa4b eb3a 7b21 d63b
00000020: aee0 d63a ac59 6cbb 0991 86bc 7957 a2bb
00000030: e2ef 9bba e739 96b9 2181 e4b7 e6d1 953b
00000040: 093a 8d3b bd54 a43a 881b 2abb 5814 85bb
00000050: e4cc da3a bbd6 9c3a 406a fa39 3109 22bb
00000060: a109 9137 5827 3d3b 1574 45bb 9a17 053b
00000070: 343f ffb9 f9fd e03a d439 f7ba 7757 0d3b
00000080: 4db1 3cbb 8eec 373c 89a0 e63a 9d2a 493a
00000090: d8a2 ff3b 4ba8 d2b8 8b87 e2bb 4bc8 24bd
000000a0: eb21 fa3c ed2b 353b e694 9cbb 91d0 7a3b
000000b0: 17ca 09bb 5533 223b f435 5e3b 0ea5 f9b9
000000c0: bff9 b73b 076b f83a 1583 243a 2e76 7e3b
000000d0: 96f5 35bd d981 893b b352 2b3b 0f53 273a
000000e0: 29b5 373b 0532 a2bb 6f24 2cbb 2a52 dab8
000000f0: 5301 c4bc cfdf 41bb 9ed3 8238 025d 493a
00000100: 636a 57bc 03ca 04bc 9c4a 9cb9 bdae 6ebb
00000110: 2034 693b 16a6 72bd e186 3f3b 05eb d43a
00000120: 1708 033a e88f 8b39 7e85 a3bc b1e8 22bb
00000130: c271 0d3c 172c 38bd 3965 c93b 89ef 093b
00000140: a540 033b 9719 2c3b 9546 3d3b d711 c5bb
00000150: 0f04 a53a fe6e 2a3a 4a08 cbba a229 ebba
00000160: 1333 1c3c ccd7 3539 4460 b23b c8d0 25b9
00000170: ae8e e039 eaa5 573b 68af 833b cbfe ce3a
00000180: b762 23bb 2f5e 163a 1202 1fbb 6383 123c
00000190: fece a2bb 025c 04bb 2b42 443c 4c1d 0dbb
000001a0: 6618 bfba b46b 933a ec5e 593a cf10 c13b
000001b0: 3be0 ed3b cc9e 223b f0b3 1fb9 c596 c4ba
000001c0: 0ead e13a 4643 3e3b 1ac8 1fbb a725 98bc
000001d0: d4bf 3fba 7257 173b d6ea 8337 8b84 62bb
000001e0: d540 a83a 26a0 69bb 0746 28ba 826d 53bb
000001f0: a086 3f3b d302 e33c a191 a63b 150f b1b9
00000200: 6d2f 9a3b d145 813b d7a9 b2bc 5139 d5ba
00000210: 3660 8c3b 32df 0a3d 4ef2 f63b 6ae7 e3ba
00000220: fa07 fa3a 876e 5e3b a450 c63b 6e38 82bb
00000230: c01c 8fba 4e62 da3b fbb7 5ebb 88d7 11ba
00000240: 6788 103c e90a 82ba 8c88 f33b a4e2 af3b
00000250: 2f1e c9ba 3d22 753c 41f0 813a dd89 d939
00000260: fc70 d73b 6ed3 c5b9 837d dfbb f451 8fbb
00000270: 9f74 7d39 e430 1c3b dbc9 93ba 1268 f03a
00000280: d216 a83c 2313 27bb 4829 2fb8 dabf d2b9
00000290: 6eed 353a 3a5f 333c 8c6f 883b 94ea a83a
000002a0: 6d7c ef39 0c04 3e3b 4a5d de3a 1acf dabb
000002b0: dac0 383c 1e6a ca3a 6c2c 8b3a eb75 37bb
000002c0: 39ad 693a 3adb f3bb 7305 11bb 78b1 013c
000002d0: c871 d6bb 47a0 f5ba 7d15 a43a d1ec 563b
000002e0: ffd4 3aba 7567 4fbb be92 713a 0ef7 c5bc
000002f0: 6224 873b fdfc 42bb 0b77 263a 756e 46bb
00000300: 35e9 7bba c5ec 7b3b 5941 403b 5d51 3cbb
00000310: 1124 5ebb efd1 adbc 7215 8c3b 1a11 163c
00000320: 9344 5dbb 979f 4f39 ee4a 843b 144d 903c
00000330: 03b4 91bc b430 5bbb cfa7 76bb 894f da3a
00000340: 37d2 c339 5e4f 99bb 848d 8a3c b9ca 39bb
00000350: d96c 0c3b a2c7 b3bb 1dd6 11bb 993c 8d3b
00000360: 4300 e03a 90e4 f23b 47c4 b7ba f34d 2cba
00000370: 7ce0 26bb 04e4 dcba 5907 a93a 63a2 8bba
00000380: 41b4 a8bb 7554 a83a a662 393b a0de 11ba
00000390: 3bc9 153c 168f 0ebb 195b 8fbd 4bc2 af3a
000003a0: ab5d 683b a540 1dba 1ba6 363a 322e d6ba
000003b0: a2ce 8ebb 5c24 203b 5781 ad3b 6594 953b
000003c0: 566d 6c3a 4704 8db9 20d4 c03a b693 8e3a
000003d0: fdad 14b9 c0b0 ed3b c273 c73a 812d bab9
000003e0: cc33 313b f77c 383b d6e9 d73c aff1 5eb7
000003f0: b3d5 acbb cc82 9d3a a38a ff39 a5de cfb9
-4.9345794e-10 0.0007664588 0.0012421831 0.0007676296 0.0053999526 -0.00038283647 0.001795172 0.006534753
0.0016393864 -0.003606419 -0.01642658 -0.004954275 -0.0011897052 -0.0002865337 -2.7239848e-05 0.004572141
0.004309897 0.0012537461 -0.0025956351 -0.004061263 0.0016693142 0.001196585 0.00047762878 -0.0024724717
1.728983e-05 0.0028862562 -0.0030129005 0.0020308257 -0.0004868448 0.0017165533 -0.0018861839 0.0021567026
-0.0028792203 0.011225833 0.0017595451 0.00076738914 0.007801395 -0.00010044927 -0.0069131306 -0.040230077
0.030533751 0.002764459 -0.0047784923 0.0038271288 -0.0021024996 0.0024749835 0.003390667 -0.00047615956
0.005614489 0.0018952795 0.0006275636 0.0038827765 -0.044423662 0.0041963872 0.0026141822 0.0006382921
0.0028031564 -0.0049498104 -0.0026266833 -0.00010410354 -0.023926413 -0.0029582863 6.2383e-05 0.0007681401
-0.013147923 -0.008104804 -0.00029810227 -0.003642007 0.0035584047 -0.059240423 0.0029224681 0.0016244358
0.0004998459 0.00026619365 -0.019961115 -0.0024857933 0.008633079 -0.044963922 0.0061461 0.0021047315
0.0020027545 0.002626037 0.0028881181 -0.0060140896 0.001258971 0.00065015245 -0.0015490141 -0.0017941485
0.009533661 0.00017341896 0.0054436047 -0.00015813403 0.00042830914 0.003290529 0.004018713 0.0015792487
-0.0024930665 0.00057360803 -0.0024262709 0.008942458 -0.004968523 -0.0020196442 0.011978666 -0.0021532355
-0.0014579415 0.0011247308 0.00082920375 0.0058918963 0.0072593964 0.0024813889 -0.00015230454 -0.0014998546
0.0017217712 0.0029031797 -0.0024380744 -0.018572642 -0.00073146564 0.0023092893 1.5725771e-05 -0.0034563865
0.0012836704 -0.0035648434 -0.00064191263 -0.0032261317 0.002922453 0.027711308 0.0050832783 -0.00033771308
0.0047053606 0.0039450903 -0.021809502 -0.0016267692 0.00428393 0.033904262 0.007536209 -0.0017387692
0.0019075864 0.003394039 0.0060520936 -0.003974012 -0.0010918602 0.006664551 -0.0033984173 -0.00055634277
0.008821583 -0.0009921464 0.007432049 0.005367594 -0.0015344078 0.014961776 0.000991352 0.00041492181
0.006574748 -0.00037732295 -0.006820382 -0.0043737832 0.00024171405 0.0023832852 -0.0011275368 0.0018341562
0.020518694 -0.0025493584 -4.1761698e-05 -0.00040197262 0.0006939982 0.010947997 0.004163688 0.0012887293
0.00045678337 0.0028994111 0.0016965058 -0.0066775205 0.011276448 0.0015443002 0.0010618097 -0.0027993869
0.0008914057 -0.0074419053 -0.0022128492 0.007915847 -0.0065443255 -0.0018739783 0.0012518611 0.0032794962
-0.0007127076 -0.0031647359 0.00092152867 -0.024165656 0.00412421 -0.0029752844 0.0006350136 -0.003027824
-0.00096096407 0.0038440686 0.0029335825 -0.002873502 -0.003389601 -0.021218268 0.0042750174 0.009159351
-0.0033762797 0.0001980051 0.0040372526 0.017614879 -0.017786032 -0.0033445777 -0.0037636643 0.0016655783
0.0003734992 -0.0046786508 0.016913183 -0.0028349592 0.0021427183 -0.0054864446 -0.0022252866 0.0043102023
0.0017089922 0.0074125007 -0.0014020287 -0.00065728946 -0.0025463393 -0.0016852622 0.0012895867 -0.0010653253
-0.005148441 0.0012842553 0.0028287559 -0.0005564485 0.009142215 -0.0021752766 -0.069997974 0.0013409344
0.003545622 -0.00059987075 0.00069675007 -0.0016340672 -0.0043581286 0.0024435734 0.0052949595 0.004564809
0.0009018978 -0.00026896803 0.0014711656 0.0010877762 -0.00014179196 0.0072537363 0.0015216994 -0.00035510588
0.002703893 0.0028150657 0.026356619 -1.32885025e-05 -0.0052744984 0.001201713 0.00048740683 -0.00039648

tabnet.initial_bn.running_var f4 [1038]
00000000: 10c5 0f31 324f fc3a bac0 7d3f 7789 793f
00000010: 30c4 783f 5048 7a3f 53cf 783f 0e9a 783f
00000020: 9360 783f 5735 793f 92d3 8a3f c1ee 773f
00000030: 213b 783f 6f96 7a3f b7e0 793f 07b1 7b3f
00000040: d65b 7a3f 6879 783f 042f 7c3f e54d 7a3f
00000050: e293 783f 1432 783f 0ac9 793f b0d8 783f
00000060: 0b70 783f 29eb 783f 19f0 7b3f a3dd 783f
00000070: 7e17 783f fb2a 763f 3354 783f 7709 7b3f
00000080: c406 7a3f e381 873f d469 783f 829b 7a3f
00000090: 55c9 7a3f 552c 7a3f 200e 7e3f 0e9a a23f
000000a0: 4703 9a3f 9123 773f f653 803f 736b 7a3f
000000b0: e1ae 793f f988 783f a873 763f 7c94 793f
000000c0: 8aa8 813f df1e 793f 7832 7f3f acef 783f
000000d0: 18cb a93f 0ab5 783f 1ce3 783f 7138 7c3f
000000e0: 1773 7a3f 3e45 7f3f 73b5 793f c42f 7d3f
000000f0: cfe4 913f 5521 7d3f 0b14 783f 1d63 7b3f
00000100: 2019 853f 82fa 853f 1530 793f b9bd 7b3f
00000110: c41c 793f 81c0 b33f 17c6 7a3f 2fe3 793f
00000120: 0217 7b3f f3b3 783f 1de8 8e3f becd 753f
00000130: 6285 863f 8e52 a93f 653a 793f 00fb 783f
00000140: d9b5 793f a78e 783f 3409 7a3f 27af 783f
00000150: e20d 7a3f 6139 783f 7974 783f a761 793f
00000160: 2602 843f a2fe 793f 206d 7a3f 0acd 783f
00000170: b25e 7c3f a02d 823f c773 793f e3cd 7a3f
00000180: d279 783f c8e6 793f de23 813f 994f 823f
00000190: a323 803f f386 783f 5b51 8b3f 5d4f 793f
000001a0: 9934 7e3f 671b 7a3f 9a38 783f e2d5 773f
000001b0: 4f63 803f 2eb7 783f 82ee 783f bc25 7b3f
000001c0: 7d37 773f 6013 7a3f b43c 793f 2306 8f3f
000001d0: cac8 7a3f aa7c 793f d4eb 7a3f 90db 7b3f
000001e0: dd34 7a3f 570c 783f 192f 783f 61a9 813f
000001f0: 5433 773f 3ec9 953f 8599 773f 2c97 793f
00000200: 40c7 7b3f 53eb 783f e49c 8e3f be32 773f
00000210: 4461 813f 5bd1 9a3f f70a 813f 93fc 7c3f
00000220: f7e3 783f 264c 793f 07a0 773f eec3 763f
00000230: d3c2 7c3f fdff 793f 6c13 7c3f 8e8b 783f
00000240: 58dd 7e3f a2b1 793f 0ab7 813f 9b99 7a3f
00000250: 57ba 7f3f 62cb 843f 8cb5 7f3f 9342 793f
00000260: de83 763f fdf8 763f 5e5c 823f bdd2 783f
00000270: 841c 793f 23b7 803f 7f23 7a3f 3eb9 773f
00000280: 1df9 903f ac27 7a3f a032 7e3f 1eeb 793f
00000290: 488e 793f d923 833f fde1 803f ac8d 793f
000002a0: 6e8a 783f 3bd0 783f 76d5 7a3f eda1 7b3f
000002b0: b12c 843f b53c 793f 77e4 773f c650 7a3f
000002c0: 7c29 793f a91a 793f 6a44 793f 3fe5 7d3f
000002d0: db36 8c3f 02e2 773f 1442 773f 3778 7e3f
000002e0: 81f4 783f 359d 803f 72aa 753f 12ff 8f3f
000002f0: 2913 7d3f d400 783f 12ae 793f 6954 813f
00000300: 8209 7a3f 2e93 773f 3b58 773f fc42 793f
00000310: 9251 793f 9db3 8b3f 6443 7b3f e74a 803f
00000320: d472 793f 9c36 793f 64ac 783f 9284 873f
00000330: 1603 8a3f 822f 783f f451 7f3f 8b77 793f
00000340: ce0d 783f 43e9 773f 5264 893f 92cc 793f
00000350: ef3f 7b3f e6aa 763f f4f3 763f f265 7c3f
00000360: 6081 793f a0a2 803f 5bc2 7a3f 455d 7a3f
00000370: bc73 7a3f 7603 783f e1e2 793f 881c 793f
00000380: 83de 793f 3d12 783f 8221 7a3f ce4f 793f
00000390: 836d 853f d3b9 783f 4d9b bd3f 6c44 7c3f
000003a0: 99bb 793f 51cb 803f 6516 7c3f 862c 7a3f
000003b0: b310 7c3f e24e 7f3f 5096 793f 21a9 783f
000003c0: fa1b 793f bcc8 7a3f 07dd 773f 729d 7a3f
000003d0: 79a5 793f 9a0a 813f 7bf3 7b3f 41b1 7c3f
000003e0: e882 783f c82f 773f f9bb 913f 6ea0 7b3f
000003f0: 56ca 853f 0c09 823f a524 793f 4cfd 783f
2.0921256e-09 0.0019249676 0.991222 0.9747538 0.9717436 0.9776659 0.9719135 0.9711007
0.9702236 0.97347015 1.0845816 0.96848685 0.96965224 0.97885793 0.9760851 0.98317
0.9779638 0.9706025 0.9850924 0.9777511 0.9710065 0.96951413 0.97572386 0.9720564
0.97045964 0.97233826 0.98413235 0.9721319 0.96910846 0.96159333 0.9700348 0.9806132
0.97666574 1.0586513 0.9703648 0.97893536 0.9796346 0.97723895 0.99240303 1.2703264
1.203225 0.96538645 1.0025623 0.97820204 0.9753247 0.97084004 0.9627023 0.97492194
1.0129559 0.9731273 0.99686384 0.9724071 1.3265104 0.97151244 0.9722154 0.9852362
0.97831863 0.9971503 0.97542495 0.9890101 1.1397952 0.98878986 0.96905583 0.9819811
1.0398293 1.0467074 0.9733899 0.9833637 0.9730952 1.4043123 0.9795851 0.9761228
0.9808198 0.9714958 1.1164585 0.9601706 1.0509455 1.3228319 0.9735473 0.97257996
0.975431 0.9709267 0.9767029 0.9714226 0.97677433 0.96962553 0.97052723 0.9741463
1.0313156 0.97654164 0.9782276 0.97187865 0.98581994 1.0170174 0.9744229 0.9797041
0.97060883 0.9761777 1.0089071 1.0180541 1.0010875 0.97080916 1.0884203 0.97386724
0.9929901 0.9769806 0.9696137 0.96810734 1.0030307 0.9715451 0.97238934 0.98104453
0.96569043 0.97685814 0.9735825 1.1173748 0.9796263 0.9745585 0.98016095 0.983819
0.9773691 0.9689383 0.96946865 1.0129815 0.96562696 1.1702039 0.9671863 0.97496295
0.98350906 0.97234076 1.1141629 0.965618 1.0107808 1.209514 1.0081471 0.988229
0.97222847 0.9738182 0.9672856 0.96392715 0.9873478 0.9765623 0.98467135 0.97087944
0.99556494 0.9753667 1.0133984 0.97890633 0.9989371 1.0374568 0.99886394 0.9736721
0.96294963 0.96473676 1.0184438 0.9719656 0.97309136 1.0055889 0.9771041 0.9676703
1.1326023 0.97716784 0.99296 0.97624385 0.9748273 1.0245315 1.0068966 0.974818
0.97086227 0.97192734 0.97981966 0.98293954 1.0326139 0.97358257 0.96832985 0.977795
0.97328925 0.97306305 0.97370017 0.99177927 1.095424 0.96829236 0.965852 0.99402183
0.97248083 1.0047976 0.95963204 1.1249716 0.9885736 0.96876264 0.97531235 1.0103885
0.9767076 0.96708953 0.96619004 0.97367835 0.9739009 1.0914189 0.98149705 1.0022858
0.9744084 0.9734895 0.9713805 1.0587332 1.0782192 0.9694749 0.99734426 0.97448033
0.96896064 0.96840304 1.073374 0.97577775 0.9814443 0.9635452 0.9646599 0.98593056
0.97463036 1.0049629 0.9795281 0.9779857 0.97832847 0.9688028 0.97611815 0.9730916
0.9760515 0.9690283 0.9770738 0.973874 1.0424045 0.97158545 1.4813019 0.98541903
0.97551876 1.0062047 0.9847167 0.9772419 0.9846298 0.9972974 0.97494984 0.9713307
0.97308314 0.97962546 0.96821636 0.9789649 0.97518116 1.008136 0.98418397 0.9870797
0.9707475 0.96557283 1.138549 0.9829167 1.0452373 1.0159011 0.9732154 0.972615

tabnet.initial_splitter.shared.shared_layers.0.weight f4 [96, 1038]
00000000: dafd 490c a81b 003a 705a 5ebd 9431 8e39
00000010: 76a3 4f37 22d1 8ab7 2474 d2b9 299f 2eb6
00000020: 8019 6138 2dcd b7b8 aec6 3b3d 4931 4f33
00000030: 47ed 12b8 a919 f1bb 0e37 a439 3e10 2abe
00000040: 1612 84bd d5a5 54ba 7d8d 04b9 0115 ca3c
00000050: dff8 0c39 b7ad a0b8 c2d7 0f39 1b6f 79b6
00000060: 4b0c 94b9 506d 3db9 3b63 e4b9 9683 62b9
00000070: dfdb feb9 8e83 9b38 0f61 81b8 32fc 643d
00000080: f6ba 6e38 7898 7b39 69eb 4339 b519 c9b9
00000090: b5e5 dfb9 66b9 15b9 ff0f 133a eb72 14b9
000000a0: 804b 11b1 d371 d7b7 0402 e038 f9db 30b9
000000b0: fb50 1038 fcab e938 5d3e b23d 5f93 be39
000000c0: dc20 e536 c786 d6b9 d950 5b3a 89f3 a0b4
000000d0: 21bd a9bb e886 d836 82b0 4aba 6559 90b9
000000e0: 4be2 8639 fb94 44b9 610f 253a 9675 a4b8
000000f0: b812 dc38 b414 b8b4 6c5c c4b9 2678 8032
00000100: 2624 1cba fdd3 113d fc2f d2ba 517f a239
00000110: b3ae d9b9 6ad7 abb7 740c 81b8 065c 3639
00000120: 95a6 0fb1 1e11 7837 a371 9db6 217e bd3d
00000130: 1577 e7b6 454a 7ab9 c5f0 4035 32d4 7339
00000140: 141b 2338 19ff a8b4 ae95 3d38 6bca 2a39
00000150: d168 11b9 7c30 ae38 2e04 9738 f227 c3b8
00000160: 0930 4039 7e7a 9fb9 c926 a238 2336 5bba
00000170: 45d9 a7bb dc88 7f3d 61ca f8b7 4f56 5cb9
00000180: c124 e538 5cd7 f6b7 00a9 8ab9 a7bb 1639
00000190: 5e5b 1dba ea1d f539 661d b73a c385 7738
000001a0: a903 8139 db2d 59b9 0edc 07b8 a54b 8439
000001b0: a67e ae39 f0a5 cfb8 bdbb 0f39 b6bc 023a
000001c0: 3dfd 9c31 4afb ac39 2c19 4ab7 c8fc e63d
000001d0: de9f 39b9 21d2 0db5 bb70 5538 8497 173a
000001e0: 16b4 9838 27a9 6e33 d77d c939 c96e ceb4
000001f0: 3cd4 ffb9 0ebb 333a 371e 1dba a926 e236
00000200: d200 61b1 5d52 dfb8 7eb1 2eba 6fc7 aab9
00000210: bc2d 6a3a a30c a339 dbdf 6c39 fc4f 6fbc
00000220: af16 89b8 e19e 26b8 cedf ae38 72d4 4eba
00000230: 272a a438 9f4c 9238 ea65 5b37 d632 9c32
00000240: d7e2 0639 059f 63b7 7fe1 1db9 af6e 7e36
00000250: 3c5e cbb6 4b0c 8b3c b80d cdb9 99d9 4d39
00000260: 9e4f a9b5 227b deb7 7d0c 76b9 137f 9a39
00000270: 079e 63b9 5435 2cb8 3420 9f39 5796 77bd
00000280: 070b 6fb9 5867 c737 c118 4a39 72a3 a537
00000290: 4ef6 8337 e2dc 22b4 4e1d 91b9 d6e5 8cb2
000002a0: 22aa 83b8 dbad 37ba eb90 0cba 257d d838
000002b0: d205 2eb7 22e0 8539 bdd6 5cbd f59a c9b8
000002c0: d963 8cb9 dea3 ceb8 41b1 c939 43e4 81b8
000002d0: b23f 10b6 efb1 2539 aa66 afbb 2118 8039
000002e0: 965c b838 bdf0 9bb9 9f13 d4b8 1754 48b9
000002f0: 7772 31b8 3447 6339 05b3 d33d dc05 ffbc
00000300: 49f6 bbb9 4dc2 0939 fca1 a939 8ebf 0ab8
00000310: 954b 9b3b 4ba8 a533 1c5e e333 c069 c839
00000320: 4891 8539 4fd0 7638 9384 83b6 2c38 48b8
00000330: 5d58 7eb9 57e3 01b9 6ebb b3b8 1aa7 b139
00000340: 0930 e9b8 aa61 afb9 329e d33d 57fb 6539
00000350: b55a ecb9 e6c7 0339 1528 c8b7 0e8c 04b9
00000360: 06e3 03b5 75b1 4138 39d0 32b9 0bd7 c9ba
00000370: d3cf b438 f7f6 29b9 aa07 2d39 778e 5239
00000380: 5347 8b39 ff46 16bc c3a0 bd34 9d5e 6ab9
00000390: 3cdf 223a 429a cab5 79ce f437 42a0 23b5
000003a0: 9f0c 36b8 b458 f137 0eaf c2b7 83c1 0338
000003b0: 6778 2637 31fb 4e3a 582d c9b8 fadb 87b8
000003c0: fa10 c839 e542 81b9 9494 2db7 f833 59ba
000003d0: 3106 4a39 8839 b832 89f3 303a e4d5 dd37
000003e0: a43f 10b9 6919 e736 951d 3a3a 45bc 7438
000003f0: b955 b4b1 6d7b 1f39 1656 7f39 7931 0a34
1.5560867e-31 0.00048869336 -0.054285467 0.0002712129 1.237622e-05 -1.6548267e-05 -0.00040140853 -2.6020664e-06
5.366793e-05 -8.764337e-05 0.045843773 4.8240768e-08 -3.5030094e-05 -0.0073577953 0.00031321537 -0.16607758
-0.06448762 -0.0008111869 -0.0001264121 0.024668219 0.00013444152 -7.6617514e-05 0.00013717919 -3.7168563e-06
-0.0002823792 -0.00018065167 -0.0004356148 -0.00021602059 -0.00048610472 7.41548e-05 -6.169278e-05 0.055904575
5.6917743e-05 0.00023994024 0.00018684346 -0.0003835686 -0.0004270502 -0.00014278814 0.00056099886 -0.0001415719
-2.1143194e-09 -2.5683e-05 0.00010681528 -0.00016866614 3.4407694e-05 0.000111423404 0.08703301 0.00036349424
6.828557e-06 -0.00040917678 0.0008366234 -2.9979518e-07 -0.0051800166 6.453007e-06 -0.000773199 -0.00027532424
0.00025727073 -0.00018747516 0.0006296542 -7.8420315e-05 0.00010493904 -3.4287734e-07 -0.00037452893 1.4955798e-08
-0.0005956314 0.03560256 -0.0016036029 0.00030993906 -0.00041519626 -2.0485099e-05 -6.153519e-05 0.00017391154
-2.090393e-09 1.4785937e-05 -4.6921937e-06 0.09252573 -6.8981994e-06 -0.00023869525 7.187594e-07 0.00023253335
3.8887447e-05 -3.1478046e-07 4.520051e-05 0.0001628787 -0.00013867325 8.3059975e-05 7.2010196e-05 -9.305765e-05
0.00018328441 -0.00030418107 7.731986e-05 -0.0008362254 -0.005122336 0.06238638 -2.9658144e-05 -0.00021012987
0.00010926417 -2.942577e-05 -0.00026447326 0.0001437502 -0.00060026895 0.0004675233 0.0013970553 5.9013964e-05
0.00024607524 -0.00020711815 -3.239145e-05 0.00025233362 0.00033282227 -9.9014374e-05 0.0001370748 0.00049872266
4.5689874e-09 0.0003299362 -1.2045999e-05 0.11278683 -0.0001770253 -5.283237e-07 5.0888146e-05 0.00057827705
7.2814684e-05 5.5567536e-08 0.00038431466 -3.8451097e-07 -0.00048795517 0.00068561814 -0.0005993577 6.7398255e-06
-3.2742276e-09 -0.0001064881 -0.00066640216 -0.00032573516 0.00089332066 0.00031099198 0.00022590107 -0.014606472
-6.536894e-05 -3.972545e-05 8.3386534e-05 -0.0007889933 7.827981e-05 6.976094e-05 1.3077146e-05 1.8183908e-08
0.0001286374 -1.3567279e-05 -0.0001505669 3.7913376e-06 -6.0608418e-06 0.016973635 -0.00039110868 0.00019631385
-1.2614653e-06 -2.65218e-05 -0.0002346504 0.00029467847 -0.00021707277 -4.105766e-05 0.00030350836 -0.06044611
-0.00022796924 2.3770772e-05 0.00019273443 1.9745643e-05 1.5731111e-05 -1.5167782e-07 -0.0002767839 -1.6402662e-08
-6.2782565e-05 -0.00070068025 -0.00053621706 0.000103229926 -1.0372563e-05 0.0002553473 -0.053915728 -9.61329e-05
-0.00026777273 -9.853368e-05 0.00038469772 -6.1937164e-05 -2.1494748e-06 0.00015801912 -0.0053528147 0.0002443204
8.791049e-05 -0.00029743268 -0.000101126025 -0.00019104812 -4.2306692e-05 0.00021674932 0.1033688 -0.031130724
-0.00035850916 0.00013137721 0.0003235488 -3.3080163e-05 0.0047392347 7.7140236e-08 1.05876296e-07 0.00038225763
0.0002547598 5.8844973e-05 -3.919538e-06 -4.773603e-05 -0.00024256246 -0.0001238709 -8.5702966e-05 0.0003388457
-0.00011119253 -0.00033451366 0.10332908 0.00021932773 -0.0004508101 0.00012567602 -2.3860523e-05 -0.00012640675
-4.9131665e-07 4.6180056e-05 -0.00017052972 -0.0015399171 8.621779e-05 -0.00016209098 0.00016501421 0.00020080233
0.00026565287 -0.0091722 3.5320963e-07 -0.00022351225 0.0006213074 -1.5095068e-06 2.9183213e-05 -6.095544e-07
-4.3403936e-05 2.8770744e-05 -2.3208118e-05 3.1413056e-05 9.922404e-06 0.0007895707 -9.592873e-05 -6.4782755e-05
0.0003815962 -0.00024654638 -1.0346197e-05 -0.0008285637 0.00019266528 2.1446581e-08 0.0006750157 2.6444854e-05
-0.00013756618 6.8872946e-06 0.0007099745 5.8349473e-05 -5.248435e-09 0.00015209401 0.00024350765 1.287025e-07

tabnet.initial_splitter.shared.shared_layers.1.weight f4 [96, 48]
00000000: 8f3b 823e 7afd 4f3b e7c1 c5bc 71af cb3c
00000010: 1b80 283d 3f52 5dbc 3b15 2c3d dfe7 53bd
00000020: 8916 033d 80ae 20bd 5dfe 91bd 9aab 73bd
00000030: a1a9 4cbb a095 a2ba 5610 99bd b05b 8cbd
00000040: 6d42 ed3b 0e3e bc3c ef71 1b3d 498d 47bc
00000050: 2b65 273d 02b7 e23c 60d6 483d dbe3 97bd
00000060: 05ab ac38 0680 20ba ba09 9638 724a 7aba
00000070: 7cb2 61ba 3fab bfb8 4297 1439 399f bd39
00000080: 5c25 fab7 4405 13b9 03e2 98b9 44e5 1dba
00000090: f67b 4cb8 83c2 d539 a717 1ebb 49e1 5238
000000a0: 78df 42b9 0cc7 f236 bbca 9037 66f2 8d39
000000b0: e932 1d3a 0491 203a 37d7 193b 30ab cab6
000000c0: c7e0 4f3b 1ffd be3e 836b 36bc 94a8 87bc
000000d0: 4038 d03c d275 913c 9151 90bd 3f82 12bd
000000e0: 411e 403d 82dd a8bc f51b 08be 5011 023d
000000f0: 446e 1abd bfd2 78ba 620d d0bb 52d9 dbbc
00000100: f477 26bc 995c 58bc 4edf 29bd 1a9b fcbc
00000110: 5c20 e0bb a497 2ebd 530e 5abd eb55 f93b
00000120: 6941 22bb 7c74 f53a fa51 97b9 0873 88ba
00000130: 81f0 613a 82c2 283b 9e4a c83a ec9c 123b
00000140: 3460 22b9 c3bf caba 0106 b4bb a601 c739
00000150: 352a b73a 85b1 9dba b074 b23a ad46 4b3b
00000160: 1bf1 ebba 9c47 49b9 5e45 21b7 4a68 1a3b
00000170: ab1a c23b 840f 89ba cd90 babb 3ab0 133b
00000180: 1e6a a7bc 9dc3 3dbd bcc1 8f3d 59f9 503d
00000190: d461 92bb 33c2 a13a 128d 5bbd c361 8fbc
000001a0: 54c8 29bc 17ce 8cbc 0403 06bd 844b fb3b
000001b0: 8bdc 6c3d 523b d83a fc6a d2bb 54cb e5bb
000001c0: cec2 9cbd c033 5dbd 1032 a83a e478 903b
000001d0: 9cef 733c bb85 49bd 7a69 a1ba 1393 063d
000001e0: d72c 89b7 7ab9 c7b7 5b26 bc39 29a4 f5ba
000001f0: cf76 14ba 027c 6bb8 ebd8 9a39 5623 9e38
00000200: 486b cfb7 a969 64b9 6b0b 33b9 111a b43b
00000210: badc f3b6 c915 5c36 f44b f33a cf33 5436
00000220: 6f1f 82b9 12bb 5eb9 dfa4 b0b2 5d41 b639
00000230: 4d99 3439 4065 1e38 fcf0 2d3a 0a6a 2439
00000240: 7655 183d 7225 49bd 2790 9b3d 8ce1 da3d
00000250: 315f 81bc 3262 8cbb 9232 64bd 9004 7cbd
00000260: 79d7 98bc c3a7 b1bc 4d8a 48bd a5ad 01bd
00000270: e042 8d3d 4efd a53b 74b5 413c 63e2 c4bc
00000280: 540b 6fbd 9b93 fabd 3c9b 30bd 7e48 7ebd
00000290: 0aba 40bd bcc6 50bd 2984 b63d 17d0 44bc
000002a0: 4b2a 1737 514e cfb8 99c9 503a 79d8 3bbb
000002b0: 04b9 dbba a382 9bb8 491a 463a 3107 1939
000002c0: 7752 03b8 0251 bcb8 9a3d d4b9 fad8 8e3b
000002d0: 010b 0fb7 0c4a 0bb9 cc0d 383b 8e73 34b7
000002e0: d345 b0b9 c1bb 8fb9 f04f 20b7 dd9d 283a
000002f0: aa12 af39 1f34 94b7 420b ef3a 764c 94b8
00000300: f5a9 fe3c 4c41 e83a 9d7b 023a daf7 933c
00000310: 7191 9c3e 1313 853c 56b6 44bc eff9 e0bc
00000320: a9ad 65bd f770 833c aee8 d53b 809a 453c
00000330: 84af 32bd 4502 e339 7eeb 9e38 a5d8 37bc
00000340: e642 d1bc de48 bcbb ca8e 793b bfef 94bb
00000350: 76e8 07bc 2cc4 76bd a000 fa3a 354b f33c
00000360: a2c1 29b9 de64 f638 f179 cdb9 78ee 0e3b
00000370: c657 d839 2339 1e38 572e efb9 c93b fd38
00000380: 741d 37b9 eeb8 8838 279d b5b9 2884 563a
00000390: 66b4 e7b7 20b1 c7ba 0168 c9ba f574 7938
000003a0: 509e 7939 7f24 c836 81f8 a7b7 532e e538
000003b0: 90a2 48b8 099e 1339 e57a 12b9 3359 ee35
000003c0: ccdf a33c f90a 24bd d1de adbb 2cd0 84bc
000003d0: b0c7 f63b 3b17 d13e 53f3 3b3c 692a 303a
000003e0: 08a9 7a3d e48e a1bc 9afd debd 7a7e ad3b
000003f0: 7b35 7dbc 2cc5 a439 11f1 22bc d602 a1bc
0.25436065 0.0031736777 -0.024140311 0.02486393 0.041137796 -0.0135083785 0.042012434 -0.0517348
0.032003913 -0.039228916 -0.07128594 -0.059489824 -0.0031229036 -0.0012404211 -0.07473819 -0.068534255
0.0072405846 0.022978809 0.037950452 -0.012179681 0.040867966 0.027675156 0.04903257 -0.07416507
8.233454e-05 -0.00061225926 7.154369e-05 -0.00095478364 -0.0008609665 -9.139487e-05 0.00014170728 0.0003616752
-2.981972e-05 -0.00014020974 -0.0002916009 -0.0006023238 -4.8752838e-05 0.00040771448 -0.0024122985 5.0277715e-05
-0.0001858453 7.235334e-06 1.7260541e-05 0.00027074217 0.0005996661 0.00061251246 0.0023474225 -6.039998e-06
0.003171967 0.3730249 -0.011134031 -0.016559877 0.025417447 0.017756376 -0.070468076 -0.035768744
0.046903852 -0.020613436 -0.13291915 0.03175479 -0.037702814 -0.0009491853 -0.0063492516 -0.026837025
-0.010160435 -0.013205671 -0.041472726 -0.030835677 -0.006839795 -0.042625085 -0.053236317 0.007609119
-0.0024758226 0.0018726732 -0.00028862042 -0.0010410259 0.0008618907 0.0025750701 0.0015281027 0.0022371365
-0.00015485362 -0.0015468526 -0.00549388 0.00037957466 0.0013974371 -0.0012031054 0.0013615098 0.0031017468
-0.0018000932 -0.0001919553 -9.612499e-06 0.0023560696 0.005923589 -0.0010456895 -0.005693531 0.002253546
-0.020436343 -0.04632913 0.07019374 0.051019046 -0.0044672284 0.0012341201 -0.053601332 -0.017502671
-0.010362703 -0.017188115 -0.03271772 0.0076689143 0.057827514 0.0016497171 -0.006421445 -0.007012764
-0.076543435 -0.05400443 0.0012832303 0.0044089425 0.01488867 -0.0491998 -0.001231476 0.032855105
-1.6352553e-05 -2.3809018e-05 0.0003588673 -0.001874094 -0.0005663456 -5.6143857e-05 0.00029534785 7.540609e-05
-2.472628e-05 -0.00021783136 -0.00017075024 0.0054962714 -7.2676603e-06 3.2795235e-06 0.0018562065 3.1620618e-06
-0.00024818952 -0.00021241259 -2.0564071e-08 0.00034762445 0.00017223247 3.7764432e-05 0.0006635336 0.00015679761
0.037190877 -0.049107976 0.07595854 0.10687551 -0.015792461 -0.0042841667 -0.05571229 -0.06152779
-0.018657433 -0.02168644 -0.04896002 -0.03165974 0.06897521 0.0050655967 0.011823047 -0.02403373
-0.058360413 -0.12235185 -0.043116793 -0.062080853 -0.04705242 -0.050970778 0.08911926 -0.012012503
9.0101485e-06 -9.885117e-05 0.00079646107 -0.0028662963 -0.0016763513 -7.415309e-05 0.00075570174 0.00014593896
-3.1309635e-05 -8.9796275e-05 -0.00040481688 0.0043593617 -8.526026e-06 -0.00013283658 0.0028084395 -1.0755741e-05
-0.0003362136 -0.00027414973 -9.555355e-06 0.0006432215 0.00033392507 -1.7667246e-05 0.0018237608 -7.071432e-05
0.031086901 0.0017719655 0.0004977526 0.01806252 0.30579713 0.016244447 -0.012006363 -0.027462928
-0.05607382 0.016045077 0.0065279817 0.012060761 -0.043624416 0.00043298505 7.577891e-05 -0.011221086
-0.025544595 -0.005745991 0.0038079494 -0.0045451815 -0.008295169 -0.060245678 0.0019073673 0.029698947
-0.0001618923 0.00011748982 -0.000391915 0.002180962 0.00041264127 3.772335e-05 -0.00045620158 0.00012075116
-0.00017463212 6.519431e-05 -0.00034640098 0.0008183145 -2.762135e-05 -0.0015235282 -0.0015366079 5.947515e-05
0.00023805466 5.964713e-06 -2.002367e-05 0.000109281995 -4.7835114e-05 0.00014077885 -0.00013969427 1.7758342e-06
0.020004176 -0.040049527 -0.005306103 -0.016212545 0.007531129 0.40838036 0.011471587 0.0006720187
0.061196357 -0.019721456 -0.108882144 0.005294618 -0.015454645 0.00031427422 -0.00994517 -0.019654673

tabnet.initial_splitter.shared.glu_layers.0.fc.weight f4 [96, 1038]
00000000: dafd 490c a81b 003a 705a 5ebd 9431 8e39
00000010: 76a3 4f37 22d1 8ab7 2474 d2b9 299f 2eb6
00000020: 8019 6138 2dcd b7b8 aec6 3b3d 4931 4f33
00000030: 47ed 12b8 a919 f1bb 0e37 a439 3e10 2abe
00000040: 1612 84bd d5a5 54ba 7d8d 04b9 0115 ca3c
00000050: dff8 0c39 b7ad a0b8 c2d7 0f39 1b6f 79b6
00000060: 4b0c 94b9 506d 3db9 3b63 e4b9 9683 62b9
00000070: dfdb feb9 8e83 9b38 0f61 81b8 32fc 643d
00000080: f6ba 6e38 7898 7b39 69eb 4339 b519 c9b9
00000090: b5e5 dfb9 66b9 15b9 ff0f 133a eb72 14b9
000000a0: 804b 11b1 d371 d7b7 0402 e038 f9db 30b9
000000b0: fb50 1038 fcab e938 5d3e b23d 5f93 be39
000000c0: dc20 e536 c786 d6b9 d950 5b3a 89f3 a0b4
000000d0: 21bd a9bb e886 d836 82b0 4aba 6559 90b9
000000e0: 4be2 8639 fb94 44b9 610f 253a 9675 a4b8
000000f0: b812 dc38 b414 b8b4 6c5c c4b9 2678 8032
00000100: 2624 1cba fdd3 113d fc2f d2ba 517f a239
00000110: b3ae d9b9 6ad7 abb7 740c 81b8 065c 3639
00000120: 95a6 0fb1 1e11 7837 a371 9db6 217e bd3d
00000130: 1577 e7b6 454a 7ab9 c5f0 4035 32d4 7339
00000140: 141b 2338 19ff a8b4 ae95 3d38 6bca 2a39
00000150: d168 11b9 7c30 ae38 2e04 9738 f227 c3b8
00000160: 0930 4039 7e7a 9fb9 c926 a238 2336 5bba
00000170: 45d9 a7bb dc88 7f3d 61ca f8b7 4f56 5cb9
00000180: c124 e538 5cd7 f6b7 00a9 8ab9 a7bb 1639
00000190: 5e5b 1dba ea1d f539 661d b73a c385 7738
000001a0: a903 8139 db2d 59b9 0edc 07b8 a54b 8439
000001b0: a67e ae39 f0a5 cfb8 bdbb 0f39 b6bc 023a
000001c0: 3dfd 9c31 4afb ac39 2c19 4ab7 c8fc e63d
000001d0: de9f 39b9 21d2 0db5 bb70 5538 8497 173a
000001e0: 16b4 9838 27a9 6e33 d77d c939 c96e ceb4
000001f0: 3cd4 ffb9 0ebb 333a 371e 1dba a926 e236
00000200: d200 61b1 5d52 dfb8 7eb1 2eba 6fc7 aab9
00000210: bc2d 6a3a a30c a339 dbdf 6c39 fc4f 6fbc
00000220: af16 89b8 e19e 26b8 cedf ae38 72d4 4eba
00000230: 272a a438 9f4c 9238 ea65 5b37 d632 9c32
00000240: d7e2 0639 059f 63b7 7fe1 1db9 af6e 7e36
00000250: 3c5e cbb6 4b0c 8b3c b80d cdb9 99d9 4d39
00000260: 9e4f a9b5 227b deb7 7d0c 76b9 137f 9a39
00000270: 079e 63b9 5435 2cb8 3420 9f39 5796 77bd
00000280: 070b 6fb9 5867 c737 c118 4a39 72a3 a537
00000290: 4ef6 8337 e2dc 22b4 4e1d 91b9 d6e5 8cb2
000002a0: 22aa 83b8 dbad 37ba eb90 0cba 257d d838
000002b0: d205 2eb7 22e0 8539 bdd6 5cbd f59a c9b8
000002c0: d963 8cb9 dea3 ceb8 41b1 c939 43e4 81b8
000002d0: b23f 10b6 efb1 2539 aa66 afbb 2118 8039
000002e0: 965c b838 bdf0 9bb9 9f13 d4b8 1754 48b9
000002f0: 7772 31b8 3447 6339 05b3 d33d dc05 ffbc
00000300: 49f6 bbb9 4dc2 0939 fca1 a939 8ebf 0ab8
00000310: 954b 9b3b 4ba8 a533 1c5e e333 c069 c839
00000320: 4891 8539 4fd0 7638 9384 83b6 2c38 48b8
00000330: 5d58 7eb9 57e3 01b9 6ebb b3b8 1aa7 b139
00000340: 0930 e9b8 aa61 afb9 329e d33d 57fb 6539
00000350: b55a ecb9 e6c7 0339 1528 c8b7 0e8c 04b9
00000360: 06e3 03b5 75b1 4138 39d0 32b9 0bd7 c9ba
00000370: d3cf b438 f7f6 29b9 aa07 2d39 778e 5239
00000380: 5347 8b39 ff46 16bc c3a0 bd34 9d5e 6ab9
00000390: 3cdf 223a 429a cab5 79ce f437 42a0 23b5
000003a0: 9f0c 36b8 b458 f137 0eaf c2b7 83c1 0338
000003b0: 6778 2637 31fb 4e3a 582d c9b8 fadb 87b8
000003c0: fa10 c839 e542 81b9 9494 2db7 f833 59ba
000003d0: 3106 4a39 8839 b832 89f3 303a e4d5 dd37
000003e0: a43f 10b9 6919 e736 951d 3a3a 45bc 7438
000003f0: b955 b4b1 6d7b 1f39 1656 7f39 7931 0a34
1.5560867e-31 0.00048869336 -0.054285467 0.0002712129 1.237622e-05 -1.6548267e-05 -0.00040140853 -2.6020664e-06
5.366793e-05 -8.764337e-05 0.045843773 4.8240768e-08 -3.5030094e-05 -0.0073577953 0.00031321537 -0.16607758
-0.06448762 -0.0008111869 -0.0001264121 0.024668219 0.00013444152 -7.6617514e-05 0.00013717919 -3.7168563e-06
-0.0002823792 -0.00018065167 -0.0004356148 -0.00021602059 -0.00048610472 7.41548e-05 -6.169278e-05 0.055904575
5.6917743e-05 0.00023994024 0.00018684346 -0.0003835686 -0.0004270502 -0.00014278814 0.00056099886 -0.0001415719
-2.1143194e-09 -2.5683e-05 0.00010681528 -0.00016866614 3.4407694e-05 0.000111423404 0.08703301 0.00036349424
6.828557e-06 -0.00040917678 0.0008366234 -2.9979518e-07 -0.0051800166 6.453007e-06 -0.000773199 -0.00027532424
0.00025727073 -0.00018747516 0.0006296542 -7.8420315e-05 0.00010493904 -3.4287734e-07 -0.00037452893 1.4955798e-08
-0.0005956314 0.03560256 -0.0016036029 0.00030993906 -0.00041519626 -2.0485099e-05 -6.153519e-05 0.00017391154
-2.090393e-09 1.4785937e-05 -4.6921937e-06 0.09252573 -6.8981994e-06 -0.00023869525 7.187594e-07 0.00023253335
3.8887447e-05 -3.1478046e-07 4.520051e-05 0.0001628787 -0.00013867325 8.3059975e-05 7.2010196e-05 -9.305765e-05
0.00018328441 -0.00030418107 7.731986e-05 -0.0008362254 -0.005122336 0.06238638 -2.9658144e-05 -0.00021012987
0.00010926417 -2.942577e-05 -0.00026447326 0.0001437502 -0.00060026895 0.0004675233 0.0013970553 5.9013964e-05
0.00024607524 -0.00020711815 -3.239145e-05 0.00025233362 0.00033282227 -9.9014374e-05 0.0001370748 0.00049872266
4.5689874e-09 0.0003299362 -1.2045999e-05 0.11278683 -0.0001770253 -5.283237e-07 5.0888146e-05 0.00057827705
7.2814684e-05 5.5567536e-08 0.00038431466 -3.8451097e-07 -0.00048795517 0.00068561814 -0.0005993577 6.7398255e-06
-3.2742276e-09 -0.0001064881 -0.00066640216 -0.00032573516 0.00089332066 0.00031099198 0.00022590107 -0.014606472
-6.536894e-05 -3.972545e-05 8.3386534e-05 -0.0007889933 7.827981e-05 6.976094e-05 1.3077146e-05 1.8183908e-08
0.0001286374 -1.3567279e-05 -0.0001505669 3.7913376e-06 -6.0608418e-06 0.016973635 -0.00039110868 0.00019631385
-1.2614653e-06 -2.65218e-05 -0.0002346504 0.00029467847 -0.00021707277 -4.105766e-05 0.00030350836 -0.06044611
-0.00022796924 2.3770772e-05 0.00019273443 1.9745643e-05 1.5731111e-05 -1.5167782e-07 -0.0002767839 -1.6402662e-08
-6.2782565e-05 -0.00070068025 -0.00053621706 0.000103229926 -1.0372563e-05 0.0002553473 -0.053915728 -9.61329e-05
-0.00026777273 -9.853368e-05 0.00038469772 -6.1937164e-05 -2.1494748e-06 0.00015801912 -0.0053528147 0.0002443204
8.791049e-05 -0.00029743268 -0.000101126025 -0.00019104812 -4.2306692e-05 0.00021674932 0.1033688 -0.031130724
-0.00035850916 0.00013137721 0.0003235488 -3.3080163e-05 0.0047392347 7.7140236e-08 1.05876296e-07 0.00038225763
0.0002547598 5.8844973e-05 -3.919538e-06 -4.773603e-05 -0.00024256246 -0.0001238709 -8.5702966e-05 0.0003388457
-0.00011119253 -0.00033451366 0.10332908 0.00021932773 -0.0004508101 0.00012567602 -2.3860523e-05 -0.00012640675
-4.9131665e-07 4.6180056e-05 -0.00017052972 -0.0015399171 8.621779e-05 -0.00016209098 0.00016501421 0.00020080233
0.00026565287 -0.0091722 3.5320963e-07 -0.00022351225 0.0006213074 -1.5095068e-06 2.9183213e-05 -6.095544e-07
-4.3403936e-05 2.8770744e-05 -2.3208118e-05 3.1413056e-05 9.922404e-06 0.0007895707 -9.592873e-05 -6.4782755e-05
0.0003815962 -0.00024654638 -1.0346197e-05 -0.0008285637 0.00019266528 2.1446581e-08 0.0006750157 2.6444854e-05
-0.00013756618 6.8872946e-06 0.0007099745 5.8349473e-05 -5.248435e-09 0.00015209401 0.00024350765 1.287025e-07

tabnet.initial_splitter.shared.glu_layers.0.bn.bn.weight f4 [96]
00000000: 3096 cfb9 9cc4 203e d672 a3bb fc80 a9bb
00000010: fa2e b3bb 9c5e 98ba 7a1d b439 7d96 9a39
00000020: 326e 6c3d f21b 973d 803e 073f 1697 e63e
00000030: 8b57 823c 8902 083d 4c2f 843c d6ff d73d
00000040: 7ce2 c7bb dc28 583f 9b92 dc3d 2aa1 fa3b
00000050: 5533 3f3d 9cb8 073d 17f0 af3a f2a5 2c3e
00000060: f1ae 0f3f 9867 ae3e cf4a d43e 31d6 b63e
00000070: fd28 c93e c959 f13e e3f5 b33e 3751 cf3e
00000080: 8d2a d33e 3ad0 d83e d596 083f c4ee c53e
00000090: 7ece 2cb9 0b0b f03e ff75 c23e 35d1 c23e
000000a0: 81f3 f13e faa5 a23d d62e 133e a6e4 d33e
000000b0: 256d d03e 3b51 c93e 7a10 f33e 4d77 e13e
000000c0: 58a7 7335 2dc4 0c3c ac7b bab7 e6fc 70b8
000000d0: 7263 08b8 977a f0b6 289a bdb8 9234 5035
000000e0: 26e5 8bbb 1a37 ee3a 29a0 89bd 3d17 903e
000000f0: fc3c ce39 477f da34 4b94 2c3a fc53 f73b
00000100: 176d a239 93f1 f13e 6d26 9fbb b1d6 ea38
00000110: 52d4 353a f29c a03a 2943 b637 61e6 7e3d
00000120: e668 c7bb f94f 13be c516 7cbe 12e2 313e
00000130: 05c7 763e 9a82 b73e ed2f e0bd 534b 1e3e
00000140: 746d 433e 4ecf 8abe 62ff b13e 86e6 c73d
00000150: 505c 21bd 9a4b 623e 641c a73e c7bd 013e
00000160: 6471 8b3e e7b3 143c 5b00 c13d b3b8 023e
00000170: 0e11 893e 83c6 583d 48d9 e53e eff8 7d3d
-0.00039594015 0.157 -0.0049880547 -0.005172847 -0.0054682465 -0.0011624875 0.00034354237 0.0002948529
0.057722278 0.07378377 0.5282974 0.45037144 0.015910884 0.033205543 0.016135834 0.10546844
-0.006099997 0.84437346 0.1077015 0.007648607 0.046679813 0.03313504 0.0013422993 0.16860178
0.56126314 0.3406341 0.41463324 0.3571029 0.39289084 0.47138813 0.35148534 0.4049165
0.412434 0.42346364 0.5335515 0.38658726 -0.00016480123 0.46883425 0.3798065 0.38050237
0.4725609 0.07941814 0.14373335 0.41385382 0.4070827 0.39319786 0.47473508 0.44036332
9.076807e-07 0.008591694 -2.2230517e-05 -5.745599e-05 -3.2517542e-05 -7.1668287e-06 -9.040936e-05 7.756254e-07
-0.00426926 0.001817438 -0.06720001 0.2814273 0.0003933682 4.069827e-07 0.00065833767 0.0075478535
0.00030980326 0.4725462 -0.0048568756 0.00011197979 0.000693624 0.0012253805 2.1727365e-05 0.062231425
-0.006085503 -0.14385976 -0.24618061 0.17371395 0.24099357 0.3584183 -0.10946641 0.15458421
0.19084722 -0.27111286 0.34765154 0.09760766 -0.039394677 0.22099152 0.32638848 0.1267005
0.27234948 0.009076095 0.09423896 0.1276577 0.26770824 0.05292369 0.44892335 0.06200498
