cv_steps/tabnet_raw_step1_fold2_6/network.pt (torch, 682379 bytes, 56 tensors)

embedder.embeddings.0.weight f4 [3, 1]
0	0x2bf554fc	1.7431885e-12
1	0xac32051d	-2.529816e-12
2	0x2c33822e	2.5509694e-12

embedder.embeddings.1.weight f4 [2, 1]
0	0xbcd6f7d0	-0.026241213
1	0x3cd7e321	0.02635342

tabnet.initial_bn.weight f4 [1038]
0	0xb58d602a	-1.0533306e-06
1	0xbe40f48d	-0.18843289
2	0x3d1b574d	0.037925053
3	0x3d2f3db7	0.042783465
4	0xbd5e1189	-0.05421594
5	0x3e06a09c	0.13147205
6	0x3d327476	0.043568097
7	0x3a37ddc7	0.00070139434
8	0xbb766f73	-0.003760305
9	0xbe007d9f	-0.1254792
10	0x3eb2632d	0.3484129
11	0xbc1c2740	-0.009530842
12	0x3a962b1c	0.0011456939
13	0x3de58e2c	0.11208758
14	0x3dd006cd	0.10157547
15	0x3d1db5e1	0.03850353
16	0x3e2e852b	0.17042987
17	0x3d90783c	0.07054183
18	0x3ddedca3	0.10881927
19	0x3cace405	0.021104822
20	0x3e380d6e	0.17973873
21	0x3dc9ebfd	0.09859464
22	0x3e5b4905	0.21414573
23	0x3e0aa244	0.13538462
24	0x3e5dae88	0.2164861
25	0x3e236964	0.15958172
26	0x3dec055f	0.11524462
27	0x3e197330	0.14985347
28	0x3e297332	0.1654785
29	0x3dedb735	0.116072096
30	0x3e2b6dad	0.16741057
31	0x3e8e6e06	0.27818316
32	0x3e5dd1aa	0.21662012
33	0x3dc33220	0.09531045
34	0x3cd32db7	0.025778634
35	0x3e78796f	0.24265073
36	0x3e5aff8e	0.21386549
37	0x3e158c86	0.14604387
38	0x3e468b82	0.19389156
39	0x3c9fd654	0.01951138
40	0x39ac10c7	0.00032818897
41	0x3e3b7529	0.18306412
42	0xb9eec31d	-0.00045540268
43	0x3ddcaf45	0.107756175
44	0xb8fe93ef	-0.000121392186
45	0x3e28d0db	0.16485922
46	0x3d20283c	0.03910087
47	0x3dd9e6cd	0.10639725
48	0x38a0cbbe	7.6673445e-05
49	0x3e9a7096	0.3016402
50	0x3e96be74	0.2944218
51	0x3c9500f8	0.018188938
52	0x3e01ec74	0.12687856
53	0x3e580da1	0.21098949
54	0x3cac1e2d	0.021010483
55	0x3d3dc57b	0.04633091
56	0x3df8cf06	0.121488616
57	0x3d89f163	0.06735494
58	0x3e8f849c	0.2803086
59	0x3e310c13	0.17289762
60	0x3d848b43	0.064718746
61	0x36c58317	5.8863184e-06
62	0x3e2a338c	0.16621226
63	0x3cf8a772	0.030353282
64	0x3e6e5376	0.23274025
65	0x3e57893b	0.21048443
66	0xb37be4d9	-5.8648627e-08
67	0x3dd849b4	0.10560933
68	0x3d5d1b44	0.05398108
69	0x3e1d5f54	0.15368396
70	0x3e0ace4f	0.13555263
71	0x3e19639b	0.14979403
72	0x3dd506a3	0.104016565
73	0x3e2b0d03	0.16704182
74	0x3bd50092	0.006500312
75	0xbb6ccd9f	-0.0036133302
76	0x3cc5e1a5	0.024155447
77	0x3eb4b648	0.3529532
78	0xb8930080	-7.009599e-05
79	0x3e276671	0.16347672
80	0x3e44d208	0.19220746
81	0xba163cfd	-0.0005731134
82	0xb806dde9	-3.215476e-05
83	0x3e24bc59	0.16087474
84	0x3c0343e0	0.008011788
85	0x3dfa977c	0.122359246
86	0x3e02baf2	0.12766626
87	0x3e149152	0.1450856
88	0x3e3a0e88	0.18169606
89	0x3dcd985b	0.10038825
90	0x3e4abcf9	0.1979865
91	0x3e4320e1	0.19055511
92	0x3e4e996c	0.20175713
93	0x3e7ab023	0.24481253
94	0x3e1f8ace	0.15580294
95	0x3e1e3c3d	0.15452667
96	0x3e133612	0.14376095
97	0x3e288906	0.1645852
98	0x3dd14bfa	0.102195695
99	0xb8d15d5c	-9.983286e-05
100	0x3d9770f6	0.073945925
101	0x3e6c469d	0.23073812
102	0x3e90b80b	0.28265414
103	0x38dde9ad	0.00010581627
104	0x3df79858	0.12089604
105	0x3dc18ba9	0.09450466
106	0x3df83c80	0.121209145
107	0x3dd6ad38	0.104822576
108	0x3e23b3a6	0.15986499
109	0x3e0c7bab	0.1371905
110	0x3db69c0c	0.08916482
111	0x3e1ae36f	0.15125822
112	0x3dd79500	0.10526466
113	0x3de5f1d3	0.11227765
114	0x3c48676b	0.012231688
115	0x3d9f8fe7	0.07791119
116	0x3e09a890	0.13443208
117	0x3d25dfbc	0.040496573
118	0x3d5a6af7	0.053324666
119	0x3e3276ee	0.1742818
120	0x3e3b7ede	0.18310115
121	0x3d4d402b	0.050110023
122	0x3de7a958	0.11311597
123	0x34ca87fc	3.7724374e-07
124	0x3e684c38	0.22685325
125	0x3e680865	0.22659452
126	0x3e214eb8	0.15752685
127	0x3e2c77e1	0.16842605
128	0xba38ca89	-0.0007049223
129	0x3e16c066	0.14721832
130	0x3e268386	0.1626111
131	0x3e5bd2f9	0.21467198
132	0x3dac303c	0.084076375
133	0x3e1718d2	0.14755562
134	0x3d503a10	0.050836623
135	0x3e107b84	0.14109617
136	0x3dfbfb22	0.12303759
137	0xbd50c1b7	-0.05096599
138	0x3e0a471e	0.13503692
139	0x3e03ff40	0.12890339
140	0x3e3379be	0.1752691
141	0x3df17dcb	0.11791571
142	0x3c53892d	0.012911123
143	0x3d2d7a78	0.042353123
144	0x3dfcce03	0.12343981
145	0x3e06a964	0.13150555
146	0x3e405af0	0.1878469
147	0x3db74a93	0.08949771
148	0x3e521dcc	0.20519179
149	0x3e35c448	0.17750657
150	0x3e23c810	0.15994287
151	0x3e400eec	0.18755692
152	0xb8b702e2	-8.726657e-05
153	0x3d81f0f8	0.06344789
154	0x3e2d7a68	0.16941226
155	0x3e1138fe	0.14181897
156	0x3e13eab4	0.14445001
157	0x3de247b5	0.11048833
158	0x3e186f83	0.14886288
159	0x3ebf534e	0.37368244
160	0x3e745186	0.23859224
161	0xbd8acd0e	-0.06777392
162	0x3e07c7f2	0.13259867
163	0x3dc80ad4	0.0976769
164	0x3d277ffe	0.040893547
165	0x3bdb4548	0.0066916086
166	0x3e4cbe20	0.19994402
167	0x3dc1ea1a	0.094684795
168	0x3e4e8beb	0.20170562
169	0x3e8dc48d	0.2768902
170	0x3e4204fb	0.18947212
171	0x3e9adac5	0.30245033
172	0x3e11b8b8	0.14230621
173	0xb682ac45	-3.8943567e-06
174	0x3e57ff76	0.21093544
175	0x3e39483e	0.18093964
176	0x3e076816	0.132233
177	0x3eb151de	0.34632772
178	0x3da308c4	0.07960656
179	0x3db40901	0.0879078
180	0x3eb1c15e	0.3471784
181	0xb905855f	-0.00012733553
182	0x3e07ebd5	0.13273557
183	0x3e1178de	0.14206263
184	0x3d104b82	0.03522826
185	0x3e0444e9	0.12916912
186	0x3e6d2f21	0.2316251
187	0x3d83b8a7	0.06431704
188	0x3d2b8c88	0.041882068
189	0x3e0c8d31	0.13725735
190	0x3e0d6c46	0.13810834
191	0x3e0de1ee	0.13855717
192	0x3e3f31ca	0.18671337
193	0x3db34128	0.08752662
194	0x3dd2d7f4	0.10295096
195	0xbc491e0e	-0.012275232
196	0x3dab733f	0.08371591
197	0xba1238e3	-0.0005577935
198	0x39a5bc67	0.00031611623
199	0x3d0fb7e6	0.03508749
200	0x3d51ee8b	0.051252883
201	0x3b9bab61	0.0047506546
202	0x3e018346	0.12647733
203	0xb8ce23b6	-9.829497e-05
204	0x3e813a80	0.25239944
205	0x3e9013ac	0.28140008
206	0x3db66c82	0.08907415
207	0x3d9be7ed	0.07612596
208	0x3c30583e	0.010763226
209	0x3e8fac93	0.2806135
210	0x3e0db2a5	0.13837679
211	0x3ddc6786	0.10761933
212	0x3df79cbb	0.12090441
213	0x3e09469c	0.13405842
214	0x3ddccf04	0.107816726
215	0x3e217540	0.15767384
216	0x3e04d8b8	0.12973297
217	0x3e4a7109	0.19769682
218	0x3e87bfc4	0.26513493
219	0x3e6e65f2	0.23281077
220	0x3d4eb8e5	0.050469298
221	0x3dda1892	0.10649218
222	0x3dba1950	0.09086859
223	0x3d24125f	0.040056583
224	0x3deac39e	0.11463092
225	0x366a4998	3.4911554e-06
226	0x3cceb583	0.025233036
227	0x3e1abf52	0.15112045
228	0x3aa2d5ae	0.0012423301
229	0x3e175c16	0.14781222
230	0x3cb890f8	0.022530064
231	0x3e139849	0.14413561
232	0x387f05c6	6.0802115e-05
233	0x3e866310	0.26247454
234	0x3e1890eb	0.14899032
235	0x3da59f8a	0.0808707
236	0x3dfa53c8	0.12223011
237	0x3e7056e8	0.23470652
238	0xba81be1e	-0.0009898578
239	0x3e42346a	0.18965307
240	0x3d0f7a99	0.035029028
241	0x3e27213b	0.1632127
242	0x3df9b40f	0.121925466
243	0x3e3503fd	0.17677303
244	0x39a1277d	0.00030737734
245	0x3a5d4614	0.00084409234
246	0x3d81ccac	0.06337866
247	0x3de4dcbb	0.111749135
248	0xbaab5ed0	-0.0013074521
249	0x394557a1	0.00018820028
250	0x3deef1eb	0.11667236
251	0x3de4890f	0.11158954
252	0x3d1cb5ec	0.03825943
253	0xb845bfa0	-4.7146925e-05
254	0x3e4ba1ab	0.1988589
255	0x3ce02625	0.027361939

tabnet.initial_bn.bias f4 [1038]
0	0xaf191b03	-1.3924865e-10
1	0x39798a5e	0.00023798036
2	0xb84553d0	-4.7046517e-05
3	0xb8e28465	-0.0001080118
4	0xb8d5e2ae	-0.00010198854
5	0xb9042541	-0.00012602379
6	0xb9b363d5	-0.0003421592
7	0xb68698db	-4.011306e-06
8	0xb794237a	-1.7659495e-05
9	0x38d3c376	0.000100976715
10	0xbdbf7e35	-0.09350244
11	0x343bd3c2	1.7492769e-07
12	0x3618c5ed	2.2764973e-06
13	0xb930dd6d	-0.00016867156
14	0x376855b5	1.3848233e-05
15	0xb8acbcea	-8.236787e-05
16	0x3960ff5b	0.00021457432
17	0x3887ad5a	6.469591e-05
18	0x3a129120	0.00055910833
19	0xb9e7d63b	-0.00044219368
20	0x3a17782a	0.0005778099
21	0x39dbce4a	0.00041924632
22	0x3bb1d579	0.0054270593
23	0x3a3c060a	0.0007172531
24	0xbae8b02b	-0.0017752697
25	0xb8b370cd	-8.556396e-05
26	0x39136d55	0.00014059742
27	0xb898475e	-7.261218e-05
28	0xba4d5119	-0.0007832214
29	0x3a355eda	0.0006918736
30	0x39a03636	0.00030557968
31	0xbcb7cc78	-0.022436365
32	0x3796800b	1.7941018e-05
33	0xbd54d372	-0.051959462
34	0xb939203e	-0.00017654986
35	0x3a66b134	0.0008800209
36	0x38ac5dfc	8.219105e-05
37	0x3902c342	0.00012470505
38	0xb9c0a742	-0.0003674571
39	0xb8d6b667	-0.0001023829
40	0x36645eb4	3.4029772e-06
41	0x38414c3e	4.6085792e-05
42	0xb6dfb4f8	-6.6669854e-06
43	0x3e0d7f3a	0.13818064
44	0x37200472	9.537778e-06
45	0x39b61d88	0.00034735748
46	0xbea36d6a	-0.31919414
47	0xb81a8f70	-3.6850048e-05
48	0xb3fc2c71	-1.1742748e-07
49	0x3d1943d8	0.037418216
50	0x3a5ddf01	0.0008463711
51	0xb8004f89	-3.059165e-05
52	0xb92ee8b1	-0.00016680617
53	0x39aa6286	0.00032498332
54	0x38ff7070	0.00012180291
55	0x37d92d50	2.5889516e-05
56	0xba1b6b3d	-0.00059287605
57	0x3a02cdb5	0.0004989759
58	0x3de09aa2	0.10966994
59	0xba4fc308	-0.0007925485
60	0x38a1ae51	7.709547e-05
61	0x35206d31	5.976354e-07
62	0x3a37fccf	0.00070185674
63	0x38e9d22f	0.000111494555
64	0x3eff60ed	0.49878636
65	0xbc1ef050	-0.00970085
66	0xb287a4b0	-1.579096e-08
67	0x3a8503a1	0.0010148176
68	0xb9186462	-0.00014533245
69	0x39f766ad	0.0004718801
70	0x3ae772c8	0.0017658109
71	0xb89602a5	-7.15305e-05
72	0x3a363a4c	0.0006951436
73	0xb95795f0	-0.00020559854
74	0x37a599ce	1.9741154e-05
75	0x3876c674	5.8835794e-05
76	0xb89c2e95	-7.447336e-05
77	0xb8845426	-6.309924e-05
78	0x2f198717	1.3963262e-10
79	0x3a3a504b	0.00071073015
80	0x3cbca5f8	0.023028359
81	0x3558556a	8.0590564e-07
82	0x33828af4	6.078872e-08
83	0xb93a02bc	-0.00017739361
84	0xb8981af2	-7.252944e-05
85	0xb91689cb	-0.00014356447
86	0x3a0f4b15	0.0005466205
87	0x389240e0	6.9739064e-05
88	0xb9831cbc	-0.00025007676
89	0xba1fe931	-0.0006100117
90	0x38dc6537	0.0001050927
91	0x3a351cc6	0.00069088896
92	0xb9fbf18f	-0.00048054426
93	0x388b904d	6.6549146e-05
94	0x3dd3e94b	0.103472315
95	0xb97c0c35	-0.0002403714
96	0xb93d5537	-0.0001805619
97	0x3aba1e22	0.0014199654
98	0x3a76e26e	0.0009417896
99	0x354e206e	7.678817e-07
100	0xba374da7	-0.0006992467
101	0x39c8ed95	0.00038323985
102	0x3ecdf77a	0.40227872
103	0xb504a7cb	-4.9418003e-07
104	0xb9df6fd8	-0.00042617205
105	0x378443e1	1.5767235e-05
106	0x39ae5acb	0.00033255512
107	0x3ecc708b	0.39929613
108	0xba3bd60a	-0.0007165378
109	0x3a055b71	0.0005087173
110	0x39b06046	0.00033641065
111	0xb7a4f91a	-1.966632e-05
112	0x3879002f	5.9366397e-05
113	0xb9c855d2	-0.00038210914
114	0x3783e53e	1.5723166e-05
115	0xb99dab74	-0.00030073116
116	0xb9ad64b6	-0.00033072167
117	0xb9564605	-0.00020434715
118	0xbea3409d	-0.31885234
119	0x390c43e9	0.00013376739
120	0x385b1a44	5.223813e-05
121	0x39b60784	0.00034719345
122	0xb9d1b5a1	-0.0003999891
123	0x32283f99	9.7933475e-09
124	0xba0d0738	-0.0005379799
125	0xbd2b7033	-0.04185505
126	0x39f98d6b	0.00047598346
127	0xb9c6b515	-0.0003790042
128	0x3501a74b	4.829969e-07
129	0xbb000b29	-0.0019537902
130	0x3a1bc655	0.00059423345
131	0x3e80a817	0.25128242
132	0xba571d74	-0.0008205988
133	0xb859f50d	-5.1965053e-05
134	0xb96de7c7	-0.00022688425
135	0xb9a30d90	-0.00031099888
136	0xba3da010	-0.0007233629
137	0x3eaaad6b	0.33335432
138	0xbdbffb4d	-0.09374104
139	0xb9a0ad9a	-0.0003064692
140	0xb984e916	-0.00025350665
141	0x39d06c97	0.00039753757
142	0x38c13224	9.2122966e-05
143	0xb82c6b45	-4.1107898e-05
144	0x3ab7ce15	0.0014023209
145	0x397ea996	0.00024286503
146	0xbd3684ff	-0.04456043
147	0xb8a1d97e	-7.717589e-05
148	0xbe8c0300	-0.2734604
149	0xb9a74c5d	-0.00031909617
150	0x39d04629	0.00039725125
151	0xba65855a	-0.00087555277
152	0xb55480a5	-7.9163357e-07
153	0xb90a910b	-0.00013214738
154	0xb919c9b6	-0.0001466636
155	0x38905622	6.8824986e-05
156	0xb9a80250	-0.0003204518
157	0xb9693544	-0.00022240455
158	0xbadcc75e	-0.0016844084
159	0xb978d18d	-0.00023729187
160	0xbdb5bfa3	-0.088744424
161	0x3a47f03c	0.0007627045
162	0xb9caf2a4	-0.00038709224
163	0x38fc7bae	0.000120393335
164	0x39b42edf	0.00034367197
165	0xb79e3184	-1.8858125e-05
166	0xbadad722	-0.0016696195
167	0xb9402f6e	-0.00018328216
168	0xbb1070b8	-0.0022039842
169	0x39164d61	0.0001433394
170	0xba2d9c95	-0.0006622759
171	0xbe1e3661	-0.15450431
172	0x380aa684	3.3056844e-05
173	0xb3caf835	-9.4515066e-08
174	0x3dc9e538	0.09858173
175	0xb9f725b0	-0.0004713959
176	0x386dae60	5.6667603e-05
177	0x3a7b2962	0.00095810567
178	0x39ddcfa4	0.0004230711
179	0x39c0c0d5	0.00036764765
180	0xbda47f63	-0.080321096
181	0x35aced4b	1.288406e-06
182	0x3ea69105	0.32532516
183	0xb9d9147c	-0.00041404727
184	0xb99fa92f	-0.00030452895
185	0x38e02fc5	0.0001069005
186	0xbe1e171f	-0.15438507
187	0xba0e2baa	-0.00054233766
188	0xb8d112e1	-9.969413e-05
189	0x39fe10ce	0.00048459176
190	0xb9a3df62	-0.00031256216
191	0xba80d04a	-0.00098277
192	0xbaa6f503	-0.0012737814
193	0xb9b21984	-0.00033969816
194	0xba00acbb	-0.00049085513
195	0x36c0152e	5.7245115e-06
196	0x3a149af3	0.0005668841
197	0x359a96a2	1.1517734e-06
198	0x3757d5f3	1.2864813e-05
199	0x3e53c1f3	0.20679455
200	0xba6877c2	-0.0008867943
201	0x36c28179	5.796723e-06
202	0x38afea49	8.388289e-05
203	0xb5a75723	-1.246783e-06
204	0xbbbf33aa	-0.0058350163
205	0xba5c9965	-0.00084151916
206	0x3974c8e3	0.0002334449
207	0x3897a473	7.230872e-05
208	0x375dc2da	1.3217994e-05
209	0xbb2cbe4b	-0.002635854
210	0xb98ea4a7	-0.00027207026
211	0xba0b506a	-0.0005314412
212	0xba07d40e	-0.000518144
213	0xba3b53c6	-0.0007145967
214	0xb969f2a3	-0.00022311001
215	0x39aa9c99	0.000325416
216	0xb8fbcfae	-0.00012007296
217	0xba3e1100	-0.0007250458
218	0xbd879574	-0.06620303
219	0xbdb3d11a	-0.08780117
220	0xb88e4786	-6.78441e-05
221	0x3d95228d	0.07281981
222	0x3949d72c	0.00019249012
223	0xbedfce4f	-0.43712088
224	0xb9e253ff	-0.0004316866
225	0xb4e2db7d	-4.225548e-07
226	0xb99c7e76	-0.0002984886
227	0x3e7812e7	0.2422596
228	0xb7ccacc8	-2.4399153e-05
229	0x3a192b0f	0.0005842903
230	0xb8954570	-7.1178074e-05
231	0x3a0e343f	0.00054246554
232	0x376e6295	1.4208858e-05
233	0x3af5a4e7	0.0018741161
234	0x3995cb36	0.000285709
235	0xb9884458	-0.00025990861
236	0x397b621b	0.00023973772
237	0xb93e7f1d	-0.00018167165
238	0x362efbaf	2.607452e-06
239	0x3987ebae	0.00025924802
240	0x393fb500	0.00018282607
241	0xb7aed7c8	-2.0842897e-05
242	0x3a3758a4	0.00069941045
243	0x39ac2ca9	0.0003283967
244	0xb613cbbf	-2.2023303e-06
245	0x35921146	1.0882875e-06
246	0x37cc7cfa	2.4376892e-05
247	0x3859c6c1	5.1921936e-05
248	0xb70076cd	-7.657055e-06
249	0x34c18e55	3.6052612e-07
250	0xba1fa93e	-0.00060905877
251	0xb80fc7de	-3.4279998e-05
252	0x388947ea	6.546064e-05
253	0x3599f3ec	1.1470379e-06
254	0x3e0c9dc9	0.13732065
255	0xbea81aa9	-0.3283284

tabnet.initial_bn.running_mean f4 [1038]
0	0xb62a5fa0	-2.5387635e-06
1	0xbaf726d8	-0.0018856181
2	0x3a604dee	0.00085565343
3	0x3aec0fc4	0.001801007
4	0x3ad5ac88	0.0016302029
5	0x3adb326e	0.0016723403
6	0xbb5c2621	-0.0033592063
7	0x3b2d292a	0.002642224
8	0xbb71210b	-0.0036793377
9	0xbb28238f	-0.002565596
10	0xbc589d0d	-0.013221038
11	0xba13a9b1	-0.0005632891
12	0x3a9c134f	0.001190761
13	0x3af879d5	0.0018957207
14	0xbb15a015	-0.0022831012
15	0x3b19f713	0.0023493215
16	0x3b373c79	0.0027959628
17	0x3b8e6317	0.0043453085
18	0xbb3f207e	-0.0029163654
19	0x3b3e1896	0.0029006354
20	0x3b64e2a9	0.003492514
21	0xbab7d95b	-0.0014026569
22	0xba67302e	-0.000881913
23	0xb99c2383	-0.00029781097
24	0x3b573b1b	0.0032841626
25	0xbac3e705	-0.0014946169
26	0xbbda76e3	-0.0066670044
27	0x3b5ca12d	0.0033665404
28	0x3ae17080	0.0017199665
29	0xbb94fac4	-0.004546495
30	0xbb71302b	-0.0036802392
31	0xbaf51c8a	-0.0018700522
32	0xbab91ced	-0.0014123
33	0x3c5d8b24	0.013521943
34	0x3ba8463b	0.0051353252
35	0x3b972718	0.0046128146
36	0x3aeba9a9	0.001797964
37	0x3a5d0c8f	0.00084323523
38	0xbbd675d8	-0.00654481
39	0xbd2615b0	-0.040548027
40	0x3cf6211c	0.030045085
41	0xba7c2aab	-0.0009619395
42	0xbad5309c	-0.0016265097
43	0x3b2df672	0.0026544598
44	0x3b964b5a	0.0045866193
45	0xbb0bcb44	-0.0021330873
46	0xbbd0681a	-0.006360066
47	0x39fe3d71	0.00048492433
48	0x3c0d6f28	0.008632459
49	0xbb8122b7	-0.003940906
50	0x3bf127b1	0.007359468
51	0xb8ec83c1	-0.00011277898
52	0xbd44e6ce	-0.048071675
53	0xba086e36	-0.0005204411
54	0xb97a6e41	-0.0002388293
55	0xbba10749	-0.0049141985
56	0xba5d4415	-0.0008440626
57	0x3ad3056b	0.0016099637
58	0xbae9fd32	-0.0017851947
59	0x3a8f8445	0.0010949454
60	0xbcd8a17f	-0.026444195
61	0x3a1cb905	0.0005978498
62	0x3ad788e9	0.0016444001
63	0xba933185	-0.0011229968
64	0xbbd3582b	-0.0064497194
65	0xbc154235	-0.009110023
66	0x3b5ae823	0.0033402524
67	0x3b12ed72	0.002241936
68	0x3a8c0e04	0.0010685329
69	0xbd5942c5	-0.053042192
70	0x3a83a5f2	0.0010043962
71	0x3919fb85	0.00014684915
72	0x3b0b7356	0.0021278462
73	0xba8ea18e	-0.0010881887
74	0xbc8bf85d	-0.017086202
75	0x383512f8	4.317143e-05
76	0x3c236401	0.009972573
77	0xbd2c5502	-0.042073257
78	0x3b07f3f9	0.0020744784
79	0xb9f13b22	-0.0004601116
80	0x3b14f435	0.0022728567
81	0xbb089172	-0.0020838645
82	0x3b113895	0.002215897
83	0x3baecb98	0.005334329
84	0x3ade7af1	0.0016973895
85	0xbaef1e83	-0.0018243346
86	0xbbc273ec	-0.005934229
87	0x3b0710fb	0.0020609486
88	0x3ba2c0c5	0.0049668276
89	0xba943652	-0.0011307693
90	0x38dc3896	0.000105009574
91	0x3aeb6dfc	0.0017961855
92	0xbad75b78	-0.0016430458
93	0x3bbae490	0.0057035163
94	0xb98f1254	-0.0002728874
95	0x3b96c6af	0.0046013216
96	0x3b4c9cce	0.0031221393
97	0xba2092a5	-0.00061253674
98	0xbbf46af0	-0.007459037
99	0x3c15b48f	0.009137287
100	0xba613bab	-0.000859196
101	0x3a4e5e71	0.0007872349
102	0x3c72bc19	0.014815354
103	0xb86a4f60	-5.586387e-05
104	0x3b1aba8e	0.002360973
105	0xbb43c1e5	-0.0029870209
106	0xbb62eec9	-0.003462719
107	0xbb265e07	-0.0025385635
108	0x3badf79a	0.0053090574
109	0x3b9b8747	0.004746351
110	0xbaccd674	-0.0015627877
111	0xb9217aaa	-0.00015399852
112	0x3ae2e9b5	0.0017312082
113	0x3af3605d	0.0018568147
114	0xb9c8397a	-0.00038189796
115	0xbcb05c31	-0.021528335
116	0x3afd7b0f	0.0019339042
117	0xbb99e288	-0.004696194
118	0x3a25c053	0.0006322909
119	0x3bdf574d	0.006815827
120	0xbac1f0e6	-0.0014796525
121	0x3b9d2382	0.0047954926
122	0x3aa6ebfb	0.0012735123
123	0xbaa46bb5	-0.0012544306
124	0xbbcc6f26	-0.006238836
125	0x3cdebc7c	0.027189486
126	0x3aedfc7d	0.0018156912
127	0x3a0ad870	0.0005296534
128	0x398abdbc	0.00026462774
129	0x3b0dbc3a	0.0021627084
130	0xbc55c24c	-0.013046812
131	0x3a3a91df	0.00071170734
132	0x3c4ae7dc	0.012384381
133	0x3cd50c20	0.026006758
134	0x3bf16e7c	0.007367907
135	0x3b26b016	0.0025434545
136	0xbb894d50	-0.0041901246
137	0xbb10b4e7	-0.0022080482
138	0x3adb1ae1	0.0016716385
139	0xbb0b687b	-0.0021271992
140	0x3b2e0764	0.0026554698
141	0x3b2c36c2	0.0026277755
142	0x3b45468f	0.003010187
143	0xbb0ccaaa	-0.0021483102
144	0x3a86c544	0.0010282178
145	0xbaae1b7c	-0.0013283337
146	0x3bcb6b23	0.00620784
147	0x3ac4a3ea	0.0015002463
148	0xbafa590e	-0.0019100027
149	0x3bfa2884	0.0076342244
150	0x3aca7f98	0.0015449403
151	0xbba8d362	-0.005152152
152	0x3bc7ce8c	0.0060976204
153	0x3b949283	0.004534067
154	0xbbb6cf4e	-0.005578912
155	0xbadddd9d	-0.0016927008
156	0xba3918a0	-0.00070608594
157	0x39baf505	0.00035659238
158	0xbb007305	-0.0019599807
159	0xba75bddb	-0.0009374299
160	0x3cdeb4a4	0.027185746
161	0xbb67ceb5	-0.003537101
162	0xbb536e52	-0.00322618
163	0xbaced4f3	-0.0015780017
164	0x3b60a13f	0.0034275798
165	0x3b9abf67	0.004722524
166	0xba0df5e6	-0.0005415365
167	0x3b8888ef	0.0041667144
168	0xbaded6ac	-0.0017001233
169	0x3b850c8f	0.004060335
170	0xbaddd864	-0.0016925451
171	0xba8ebd2c	-0.0010890118
172	0x3c465c26	0.012106931
173	0x3bbf4974	0.0058376137
174	0x39fa56bf	0.00047748347
175	0x3aaf0323	0.0013352375
176	0x3a9b0784	0.0011827801
177	0x38d9b539	0.00010381122
178	0xba258d44	-0.00063153007
179	0xba2478e5	-0.0006274118
180	0xbc38d44c	-0.011281084
181	0xb8e5d4aa	-0.00010959183
182	0xba14bf05	-0.0005674216
183	0x3b106a62	0.0022036065
184	0x3ad4ed10	0.0016244967
185	0xbbdc56ff	-0.006724238
186	0x3bcf9a6a	0.0063355463
187	0xbcba3265	-0.022729108
188	0xba5162be	-0.0007987431
189	0x3b7632d5	0.003756692
190	0x3c2da63c	0.010598715
191	0xba2a2daa	-0.000649179
192	0xbabd1b85	-0.0014427757
193	0x3ade89ca	0.001697832
194	0x398e61f4	0.0002715733
195	0xbac60787	-0.0015108444
196	0x3b3e2af3	0.00290173
197	0xbc8be5ba	-0.017077316
198	0x394ef1fc	0.00019735837
199	0x3be5082b	0.006989499
200	0xbab7cf9b	-0.0014023663
201	0xbb1f0fd1	-0.0024270902
202	0x3b1f059f	0.0024264825
203	0x3c59d822	0.013296159
204	0xbc702ca8	-0.014659084
205	0x3a24fe53	0.0006294001
206	0xbb6f6750	-0.0036530085
207	0xbb94b7ba	-0.0045385035
208	0xbb95785a	-0.004561466
209	0x3ba7deda	0.0051230015
210	0x3c94336d	0.018090928
211	0xba92869d	-0.0011179034
212	0x3b5ed469	0.0034001118
213	0x3b4ee669	0.003157044
214	0x3a7cf9f0	0.00096502807
215	0x3bc5f00e	0.0060405796
216	0x3a04b8b0	0.0005062921
217	0x3ba3545f	0.004984423
218	0x3aab4ecd	0.0013069749
219	0x3ad0e41b	0.0015937121
220	0xbae73475	-0.0017639535
221	0xbad100ef	-0.0015945713
222	0x3b5d0085	0.0033722233
223	0x3b0de9f3	0.0021654337
224	0x3a5a57da	0.0008329131
225	0xba968b17	-0.0011485544
226	0xbac911ff	-0.0015340446
227	0x3aefb776	0.0018288929
228	0x3ba55a4a	0.0050461637
229	0xbae4cfab	-0.0017456909
230	0xbd84dc6b	-0.06487354
231	0xb9f68676	-0.00047020958
232	0xba8fdd2b	-0.0010975947
233	0x3afb2998	0.0019162176
234	0x3b80b196	0.00392742
235	0x394ff628	0.00019832759
236	0xbbae6746	-0.0053223697
237	0x3c00fe0b	0.007873069
238	0xba896f81	-0.0010485501
239	0xbad7f145	-0.0016475102
240	0x3b2696fc	0.0025419584
241	0x3aae8f54	0.0013317862
242	0x3a933d1f	0.0011233425
243	0xbacf22de	-0.0015803238
244	0xb9ed8626	-0.0004530411
245	0x3a2336c1	0.00062261155
246	0x3a2cb5a4	0.0006588346
247	0x3b0ddda8	0.002164701
248	0x3bc45c54	0.0059924517
249	0xba70eda7	-0.00091906864
250	0x3cd1224c	0.02552905
251	0xbb44f588	-0.0030053575
252	0xbc944cf6	-0.018103104
253	0x3b0ed66d	0.0021795288
254	0xbaa83e22	-0.00128359
255	0x3ac470d7	0.0014987242

tabnet.initial_bn.running_var f4 [1038]
0	0x3668cb8f	3.468918e-06
1	0x3c92ebe3	0.017934745
2	0x3f7b215a	0.98097765
3	0x3f77ebee	0.96844375
4	0x3f77ced9	0.968
5	0x3f78dd85	0.9721301
6	0x3f78687f	0.9703445
7	0x3f776293	0.9663479
8	0x3f77a866	0.9674133
9	0x3f76f24f	0.96463484
10	0x3f88b0b9	1.0678931
11	0x3f77fb1a	0.96867526
12	0x3f795344	0.9739268
13	0x3f7a1c4b	0.9769942
14	0x3f799a00	0.9750061
15	0x3f7d3066	0.98901975
16	0x3f7b7d98	0.98238516
17	0x3f77869a	0.9668976
18	0x3f7b6365	0.9819854
19	0x3f7aa40d	0.9790657
20	0x3f771407	0.96514934
21	0x3f76f24a	0.96463454
22	0x3f79a710	0.9752054
23	0x3f7836ce	0.96958625
24	0x3f78a955	0.9713338
25	0x3f764d1f	0.9621143
26	0x3f7a9115	0.9787763
27	0x3f77c43b	0.967838
28	0x3f792fcd	0.97338563
29	0x3f778521	0.96687514
30	0x3f77eb00	0.96842957
31	0x3f78cb81	0.9718552
32	0x3f7bfdb6	0.9843401
33	0x3f868bcb	1.0511411
34	0x3f79243f	0.9732093
35	0x3f7a3d8a	0.9775015
36	0x3f78f95f	0.9725551
37	0x3f7841a3	0.96975154
38	0x3f7c3233	0.985141
39	0x3fa4b560	1.2867851
40	0x3f994794	1.1974969
41	0x3f78e5d0	0.97225666
42	0x3f7e3fbd	0.99316007
43	0x3f7a64f9	0.9781032
44	0x3f7961e8	0.9741502
45	0x3f799732	0.9749633
46	0x3f763e1f	0.9618854
47	0x3f797ccd	0.97456056
48	0x3f818ad7	1.0120496
49	0x3f77ffff	0.96874994
50	0x3f7ddfd9	0.9916969
51	0x3f792f5f	0.9733791
52	0x3fa884b8	1.3165503
53	0x3f7804ca	0.9688231
54	0x3f7a80fa	0.9785305
55	0x3f7c14f8	0.98469496
56	0x3f7c790f	0.9862222
57	0x3f7e839a	0.9941956
58	0x3f7b91dc	0.9826944
59	0x3f7c84fe	0.9864043
60	0x3f913cfd	1.1346737
61	0x3f7c8143	0.9863474
62	0x3f78ddce	0.9721345
63	0x3f7b3433	0.98126525
64	0x3f84038f	1.0313586
65	0x3f846ba3	1.0345348
66	0x3f77057d	0.9649275
67	0x3f7a928a	0.9787985
68	0x3f7b33fa	0.98126185
69	0x3fb1ee9c	1.3900943
70	0x3f789e1e	0.9711627
71	0x3f7879f3	0.9706108
72	0x3f78ad40	0.9713936
73	0x3f771b59	0.96526104
74	0x3f8d75ab	1.1051534
75	0x3f782344	0.9692881
76	0x3f845717	1.0339078
77	0x3fa7b691	1.310259
78	0x3f779fab	0.9672801
79	0x3f78701a	0.97046053
80	0x3f7a16d8	0.97691107
81	0x3f7784ac	0.96686816
82	0x3f7960d0	0.9741335
83	0x3f789398	0.9710021
84	0x3f793c33	0.9735748
85	0x3f79ab72	0.9752723
86	0x3f79e285	0.97611266
87	0x3f7742b5	0.9658616
88	0x3f839465	1.0279661
89	0x3f79f3eb	0.97637814
90	0x3f78d027	0.97192615
91	0x3f784937	0.96986717
92	0x3f7af8f5	0.9803613
93	0x3f805d13	1.0028404
94	0x3f782ea1	0.9694615
95	0x3f77e439	0.96832615
96	0x3f7753f9	0.9661251
97	0x3f7a9318	0.978807
98	0x3f810010	1.0078144
99	0x3f80dfc0	1.0068283
100	0x3f7eff21	0.99608046
101	0x3f796344	0.9741709
102	0x3f8b371e	1.0876195
103	0x3f764935	0.96205455
104	0x3f7b7545	0.98225814
105	0x3f7aaae3	0.97917
106	0x3f78127f	0.9690322
107	0x3f780137	0.96876854
108	0x3f807193	1.003466
109	0x3f77221d	0.9653643
110	0x3f77ee13	0.9684765
111	0x3f77edba	0.96847117
112	0x3f788f92	0.9709407
113	0x3f79dfc5	0.9760707
114	0x3f7a0054	0.9765675
115	0x3f8d9984	1.1062474
116	0x3f793308	0.9734349
117	0x3f775804	0.96618676
118	0x3f7bd3de	0.9837016
119	0x3f7ae347	0.9800305
120	0x3f795df1	0.9740897
121	0x3f77e768	0.9683747
122	0x3f76d27d	0.9641493
123	0x3f80a201	1.004944
124	0x3f7886eb	0.9708087
125	0x3f94e562	1.1632502
126	0x3f77f2df	0.96854967
127	0x3f77cffb	0.9680173
128	0x3f7b648c	0.982003
129	0x3f784938	0.9698672
130	0x3f8bd98d	1.0925766
131	0x3f770584	0.9649279
132	0x3f812b8d	1.0091416
133	0x3f983d2d	1.1893669
134	0x3f804a93	1.0022758
135	0x3f7e1b4a	0.9926039
136	0x3f774c58	0.96600866
137	0x3f78c766	0.9717926
138	0x3f7a632a	0.9780756
139	0x3f776604	0.9664004
140	0x3f7a5f8d	0.9780205
141	0x3f796c86	0.9743122
142	0x3f7858c5	0.9701045
143	0x3f77c841	0.9678994
144	0x3f7cd60b	0.98764104
145	0x3f7a75a2	0.97835743
146	0x3f80e2f7	1.0069264
147	0x3f78d7ac	0.9720409
148	0x3f7d1b9a	0.9887024
149	0x3f848603	1.0353397
150	0x3f7c2ef8	0.9850917
151	0x3f78623d	0.970249
152	0x3f7a37fa	0.97741663
153	0x3f787b45	0.97063094
154	0x3f825043	1.0180744
155	0x3f77a4ba	0.9673573
156	0x3f7887b7	0.97082084
157	0x3f81188f	1.008562
158	0x3f796819	0.97424465
159	0x3f79a3db	0.9751565
160	0x3f914b4a	1.1351101
161	0x3f77411e	0.96583736
162	0x3f7d1ae5	0.9886916
163	0x3f7996fa	0.97495997
164	0x3f78b2e5	0.9714797
165	0x3f8228d7	1.0168713
166	0x3f8185b7	1.0118932
167	0x3f795abb	0.9740407
168	0x3f79e965	0.97621757
169	0x3f7760c9	0.9663206
170	0x3f7a9763	0.9788725
171	0x3f78e2a0	0.972208
172	0x3f84d8e0	1.0378685
173	0x3f789b1b	0.9711167
174	0x3f779d83	0.9672472
175	0x3f79d300	0.97587585
176	0x3f7785b2	0.9668838
177	0x3f7817d4	0.9691136
178	0x3f77570d	0.96617204
179	0x3f7db0d1	0.99097925
180	0x3f8b3076	1.0874164
181	0x3f77428b	0.9658591
182	0x3f79907e	0.974861
183	0x3f7e5323	0.99345607
184	0x3f78fe01	0.9726258
185	0x3f80de5d	1.006786
186	0x3f77e674	0.9683602
187	0x3f9037a5	1.1266981
188	0x3f7a4405	0.9776004
189	0x3f792715	0.9732526
190	0x3f7a1255	0.9768422
191	0x3f8266df	1.0187644
192	0x3f77b795	0.967645
193	0x3f7813ed	0.96905404
194	0x3f7978cd	0.9744995
195	0x3f78e45f	0.97223467
196	0x3f79d99b	0.97597665
197	0x3f8a7bc4	1.081902
198	0x3f7ab870	0.9793768
199	0x3f80291f	1.0012549
200	0x3f7948ac	0.97376513
201	0x3f791231	0.9729338
202	0x3f77e391	0.96831614
203	0x3f8821a0	1.0635262
204	0x3f88e112	1.0693686
205	0x3f7a38aa	0.9774271
206	0x3f7e6192	0.9936763
207	0x3f77ca71	0.96793276
208	0x3f778de6	0.96700895
209	0x3f799be2	0.97503483
210	0x3f89a76d	1.0754219
211	0x3f77ebdc	0.9684427
212	0x3f79468c	0.9737327
213	0x3f77232a	0.9653803
214	0x3f77d3d0	0.96807575
215	0x3f7d8561	0.99031645
216	0x3f79e73a	0.9761845
217	0x3f810509	1.0079662
218	0x3f7a86d6	0.97861993
219	0x3f7a5bc4	0.97796273
220	0x3f77b6c1	0.96763235
221	0x3f78de6a	0.97214377
222	0x3f77cf91	0.96801096
223	0x3f79ff8b	0.9765555
224	0x3f78bb5d	0.97160894
225	0x3f78c7f9	0.97180134
226	0x3f79ebdb	0.9762551
227	0x3f777e82	0.9667741
228	0x3f84a478	1.0362692
229	0x3f78b81b	0.9715592
230	0x3fbaf029	1.4604541
231	0x3f7a67be	0.9781455
232	0x3f78786c	0.9705875
233	0x3f805c6f	1.0028208
234	0x3f7932c4	0.9734309
235	0x3f7956e2	0.973982
236	0x3f788de9	0.9709154
237	0x3f7c8283	0.98636645
238	0x3f75e6c3	0.9605524
239	0x3f777bcf	0.9667329
240	0x3f779f00	0.9672699
241	0x3f7c2c11	0.9850474
242	0x3f7764cc	0.9663818
243	0x3f7a9571	0.9788428
244	0x3f77e6d8	0.96836615
245	0x3f80c8a7	1.0061234
246	0x3f7b2938	0.9810977
247	0x3f7bad31	0.98311144
248	0x3f78032b	0.96879834
249	0x3f79ceea	0.9758135
250	0x3f9285c7	1.1447076
251	0x3f79d5d3	0.97591895
252	0x3f87adc7	1.0599908
253	0x3f809fcd	1.0048767
254	0x3f78a541	0.9712716
255	0x3f7a26e2	0.9771558

tabnet.initial_splitter.shared.shared_layers.0.weight f4 [96, 1038]
0	0xafa9d94a	-3.0895314e-10
1	0xbd8635ae	-0.06553207
2	0x3d63131d	0.05543815
3	0x3c99db5c	0.018781357
4	0x3d81549f	0.06314968
5	0xbe0b7dba	-0.1362218
6	0xbce9b375	-0.028527955
7	0x3973c8bb	0.00023249064
8	0x3a65fa7e	0.0008772983
9	0xbb4ff68c	-0.0031732647
10	0x3e072b2c	0.13200063
11	0xbbae001f	-0.005310073
12	0xb9a43936	-0.00031323143
13	0x3c80aaa3	0.015706366
14	0xbbc1ce5a	-0.0059144916
15	0xbc9aadce	-0.018881705
16	0x3db2cf39	0.08730931
17	0xbbee3935	-0.007270003
18	0xbd328ad9	-0.043589447
19	0x3c71b507	0.014752633
20	0x3e2593bc	0.16169637
21	0xbdf57880	-0.11985874
22	0xbda2767f	-0.079327576
23	0x3df8e3c6	0.12152819
24	0x3e2903da	0.16505376
25	0x3d8e3a27	0.069446854
26	0x3d116f59	0.03550658
27	0x3df4106a	0.11917193
28	0x3c9173e9	0.017755466
29	0xbd891f25	-0.066953935
30	0x3d8b6556	0.06806438
31	0x3d1c752b	0.038197678
32	0x3dbf6b7a	0.093466714
33	0xbc9bd4f5	-0.019022444
34	0xbcccd39b	-0.025003245
35	0xbe2a3c9d	-0.16624685
36	0x3d5f675f	0.05454194
37	0x3d264b48	0.040599138
38	0xbd96e614	-0.07368103
39	0x3cd7f3ee	0.026361432
40	0x3946e99c	0.00018969778
41	0xbbab1ff1	-0.0052223136
42	0xba9e3eea	-0.0012073193
43	0x3cb9ca0a	0.022679348
44	0xbac515cc	-0.0015036403
45	0x3d87ee4e	0.0663725
46	0x3d6a4573	0.05719514
47	0x3d7ebb9b	0.062190633
48	0x381ac088	3.689577e-05
49	0x3c4d9cd1	0.012549595
50	0xbd186a1e	-0.037210576
51	0x3bb61b1f	0.0055574323
52	0xbcea78b6	-0.028622013
53	0x3d271180	0.040788174
54	0xbb6dd08a	-0.003628763
55	0x3dab7638	0.08372158
56	0x3d5d8c85	0.054089088
57	0xbc8874a8	-0.016657189
58	0x3d5dd7fa	0.05416105
59	0x3e23ff23	0.16015296
60	0x3cffdaa3	0.031232184
61	0xb706ec23	-8.042002e-06
62	0xbe0715e7	-0.13191949
63	0xbc8140d5	-0.015777985
64	0xbd87305e	-0.06601022
65	0xbd2c996a	-0.042138495
66	0x353c4aca	7.014429e-07
67	0x3d0ba25a	0.034090377
68	0x3aaaab81	0.0013021083
69	0xbd18d464	-0.037311926
70	0x3d4d3f25	0.050109047
71	0xbdbb1e53	-0.09136643
72	0x3cf36019	0.029708909
73	0xbd76b027	-0.060226586
74	0x3a20a687	0.000612833
75	0x3b240e53	0.0025032952
76	0x3c97ec31	0.018545242
77	0xbe28f909	-0.1650125
78	0x37abc1c8	2.0475025e-05
79	0xbc8616c8	-0.016368285
80	0xbcf3698d	-0.029713416
81	0xb9b8c368	-0.00035240804
82	0x36808e08	3.831232e-06
83	0xbd1cedc8	-0.038312703
84	0xbbdf9b02	-0.0068238983
85	0x3d43cfb5	0.047805507
86	0xbc0d0247	-0.0086065
87	0xbd0ab4c3	-0.033863794
88	0x3dc194b7	0.09452193
89	0x3d81dfe9	0.063415356
90	0x3e11c3dd	0.14234872
91	0xbe140da0	-0.14458323
92	0xbd2d4c32	-0.042308994
93	0xbcbdd460	-0.023172557
94	0x3c9a86e5	0.01886315
95	0x3d202978	0.039102048
96	0x3d1bcb7d	0.03803586
97	0xbd3da7f8	-0.046302766
98	0xbd4d797f	-0.050164696
99	0x3906b580	0.0001284685
100	0xbd9efb2a	-0.077627495
101	0xbe1a2c79	-0.15056027
102	0x3e6c805b	0.23095839
103	0xb7bfd3c5	-2.2867587e-05
104	0xbd3a4771	-0.045478288
105	0xbdce9a36	-0.10088007
106	0x3d91f62f	0.07127034
107	0xbd534085	-0.051575202
108	0xbd1081ff	-0.035280224
109	0xbdd7b192	-0.10531916
110	0xbd9020a7	-0.07037478
111	0xbcb1540b	-0.02164652
112	0xbd86168d	-0.0654727
113	0xbcf8cd08	-0.030371204
114	0x3c2ee079	0.010673636
115	0xbcfccc4c	-0.030859135
116	0x3d160d6f	0.036633905
117	0xbd0c4f09	-0.03425506
118	0xbcc194c5	-0.02363051
119	0x3d5ae285	0.053438682
120	0xbe0e81d6	-0.13916716
121	0x3ceea486	0.029131185
122	0x3d1cedf1	0.038312856
123	0xb52a7296	-6.349668e-07
124	0x3df59af4	0.119924456
125	0xbe53619f	-0.20642708
126	0xbca71331	-0.020394893
127	0xbd3e4168	-0.046449095
128	0xb9beac5a	-0.00036368036
129	0x3bbeba5f	0.005820557
130	0xbdf6c5c8	-0.120494425
131	0xbdeb7983	-0.11497786
132	0xbca0e0f0	-0.019638509
133	0xbdf972c0	-0.1218009
134	0x3ba7b773	0.0051183044
135	0x3da1eac3	0.07906105
136	0x3d5accbc	0.053417906
137	0x3e4075fe	0.1879501
138	0x3c3356ed	0.010946018
139	0x3ddb50ee	0.107087955
140	0xbdd4faa8	-0.103993714
141	0x3b5731a9	0.0032835996
142	0x3c807591	0.01568106
143	0x3c042fd2	0.008068042
144	0xbd67c77b	-0.056586724
145	0xbe013247	-0.12616836
146	0xbe5be5ba	-0.21474352
147	0xbc6cbac1	-0.0144488225
148	0x3d6b648d	0.05746894
149	0xbcfef5e1	-0.031123104
150	0x3d243b6d	0.040095735
151	0xbe2ac83e	-0.16677949
152	0x35909acf	1.0773891e-06
153	0x3cef7b0d	0.02923348
154	0xbd16e261	-0.036836985
155	0xbd0c099c	-0.03418885
156	0xbc08a8b7	-0.008341006
157	0xbc80fb01	-0.015744688
158	0xbdc1ea5c	-0.09468529
159	0xbe3d378b	-0.18478219
160	0x3d514211	0.051088396
161	0x3e1a125c	0.15046066
162	0xbd1cb28f	-0.038256224
163	0xba0a8685	-0.0005284327
164	0xbd15e3b3	-0.036594104
165	0xbb51e51e	-0.0032027434
166	0xbd45300a	-0.048141517
167	0xbd0beb68	-0.034160048
168	0xbdf240be	-0.11828755
169	0x3dd982a8	0.10620624
170	0x3a812c9c	0.0009855214
171	0x3e67d7c0	0.22640896
172	0x3c0034de	0.0078251045
173	0x3711cf01	8.69087e-06
174	0xbae9d57a	-0.001784011
175	0x3e300263	0.1718841
176	0x3d4e0a28	0.050302655
177	0xbd72b01c	-0.059249982
178	0x3d061eb8	0.03274414
179	0xbb01384a	-0.0019717389
180	0x3d3feb30	0.04685515
181	0xb774f4fd	-1.4600574e-05
182	0xbd1a4e89	-0.037672553
183	0xbdbcefe6	-0.092254445
184	0xbbaa9d20	-0.005206719
185	0x3cfe3912	0.031033073
186	0xbd8ec497	-0.0697109
187	0x3c964116	0.018341582
188	0xbaae1b7f	-0.0013283341
189	0x3a90afed	0.0011038758
190	0x3d1364bf	0.03598475
191	0x3dc6d506	0.097086
192	0x3df76f64	0.12081793
193	0x3c5358c2	0.0128995795
194	0x3da9f407	0.08298498
195	0x3b80df88	0.003932897
196	0x3b83745b	0.0040116734
197	0xb8d50f30	-0.0001015946
198	0x39966d55	0.00028691688
199	0xb997c370	-0.00028946577
200	0xbc21ffe4	-0.009887669
201	0xb9cceded	-0.0003908718
202	0x3b767a7e	0.0037609632
203	0x376c7a5a	1.4095183e-05
204	0x3ca2bf2f	0.019866554
205	0xbbcbb844	-0.0062170345
206	0x3cbe6461	0.023241224
207	0xbc3a0a6e	-0.011355026
208	0x39b167e6	0.0003383748
209	0x3d970a0e	0.07374965
210	0x3e19abdb	0.15006964
211	0x3cf8bf75	0.030364731
212	0xbda924e4	-0.082589895
213	0xbb595e44	-0.003316776
214	0x3c67d2ab	0.014149348
215	0xbbae5842	-0.0053205797
216	0x3e02bb2f	0.12766717
217	0x3d9776f2	0.07395734
218	0x3de2899b	0.110614024
219	0x3e336b9f	0.17521523
220	0xbd4f0e66	-0.05055084
221	0x3d3842d5	0.04498561
222	0xbb58b76e	-0.0033068317
223	0xbd701649	-0.058615003
224	0xbdace8cc	-0.0844284
225	0xb8932286	-7.015937e-05
226	0xbb804e28	-0.003915567
227	0xbc6999e7	-0.014257885
228	0xb9bce26e	-0.00036026858
229	0xbdc946e3	-0.09827974
230	0x3b7d200f	0.0038623845
231	0x3cac2685	0.021014461
232	0x390421ad	0.00012601046
233	0xbd537403	-0.05162431
234	0x3d825a13	0.063648365
235	0x3d5c591f	0.05379593
236	0x3df96ab0	0.12178552
237	0x3dd6ef93	0.10494914
238	0x3b022ad4	0.0019861953
239	0x3d2e40ff	0.042542454
240	0x3ab5d461	0.0013872498
241	0x3d9e1e94	0.07720676
242	0x3dcbba3f	0.09947633
243	0xbd8cc396	-0.068732426
244	0x38a978bd	8.081037e-05
245	0x39b2be1e	0.00034092454
246	0xb926fabc	-0.000159244
247	0x3d4ac515	0.04950436
248	0x38a045f9	7.642428e-05
249	0x38a50e14	7.8704354e-05
250	0x3e184515	0.14870103
251	0xbced2233	-0.028946972
252	0x3ae1f330	0.0017238613
253	0xb857faf1	-5.1493702e-05
254	0x3d9b2e46	0.07577185
255	0xbd8d493b	-0.06898733

tabnet.initial_splitter.shared.shared_layers.1.weight f4 [96, 48]
0	0x3e94e36f	0.29079768
1	0x3d370b9e	0.044688813
2	0x3d3280a8	0.043579727
3	0x3db800b4	0.08984509
4	0x3c6c2359	0.014412724
5	0x3ccb55cf	0.02482119
6	0xbb82ab64	-0.0039877165
7	0xbc5c06f9	-0.013429397
8	0x3d632605	0.05545618
9	0x3bad0355	0.005279938
10	0x3d426c24	0.047466412
11	0x3d1e0e7b	0.03858803
12	0x3d8bce58	0.06826466
13	0x3d05fafd	0.032710064
14	0xbe1278e5	-0.1430393
15	0xbb2f8222	-0.0026780446
16	0xbcf9c56e	-0.03048965
17	0xbbc64514	-0.006050715
18	0x3d1b3b5d	0.03789841
19	0xbd64905f	-0.055801746
20	0x3d0ee20d	0.034883548
21	0x3a27674f	0.00063859386
22	0xbdb7bb52	-0.089712754
23	0xbbe7b9ab	-0.007071694
24	0xbc03b03b	-0.008037622
25	0xbcd0a546	-0.025469434
26	0xbbb8843a	-0.005630997
27	0x3bb2f703	0.005461575
28	0x3b39ce12	0.0028351587
29	0x3bc351a6	0.005960661
30	0xbb1872e6	-0.0023261844
31	0x3ca9f4f0	0.020746678
32	0xbc6a82b1	-0.014313386
33	0xbc4c38a4	-0.012464676
34	0x3c939008	0.018013015
35	0x3c0a0217	0.00842335
36	0x3c42d859	0.011892402
37	0xbbb229a6	-0.005437094
38	0xbb2c4f9e	-0.0026292573
39	0x3c33f509	0.010983714
40	0xba4610a0	-0.0007555578
41	0xbb8134a5	-0.0039430433
42	0xbb036a23	-0.0020052276
43	0x3b2265a6	0.0024779825
44	0x3b0c0915	0.0021367718
45	0x3c4ed0e1	0.012623043
46	0xbb85c4c9	-0.0040822965
47	0x3c613ec3	0.013747874
48	0xbcb1be0e	-0.02169707
49	0x3ee8a79d	0.4544038
50	0xbc832740	-0.016009927
51	0xbc857e56	-0.016295593
52	0x3cdd3660	0.027003467
53	0xbd210060	-0.039307
54	0x3c6257c9	0.013814875
55	0xbb9d2a0f	-0.0047962735
56	0x3c27f85f	0.010252087
57	0x3c9b8b91	0.018987449
58	0xbe0e8501	-0.13917924
59	0xbd242b18	-0.04008016
60	0xba06fcd5	-0.0005149369
61	0x3ca490ca	0.020088572
62	0x3ba15d84	0.004924478
63	0xbd77661e	-0.06040012
64	0x3ca1f965	0.01977224
65	0xbb68becf	-0.0035514121
66	0x3c35d59f	0.0110982945
67	0xbd51c195	-0.051210005
68	0xbd6277a4	-0.05528988
69	0xbd9a6d05	-0.07540325
70	0x3c4352ed	0.0119216265
71	0xbd21ec95	-0.039532263
72	0x3b9173ba	0.0044388445
73	0x3b1f233c	0.0024282476
74	0xbd0baeea	-0.034102358
75	0xbcb80166	-0.022461604
76	0xbbf57e73	-0.0074918806
77	0x3c95d89d	0.018291766
78	0x3c7dc01b	0.015487696
79	0x3d56ee2c	0.052473232
80	0xbcf7a401	-0.03022957
81	0x3b6ff577	0.0036614814
82	0x3d2b1302	0.041766174
83	0x3bc9c94a	0.0061580287
84	0x3c87616d	0.016525948
85	0xbc9e37ea	-0.019313771
86	0x3d97d152	0.074129716
87	0xbc0b5f52	-0.008506613
88	0xbd28dcba	-0.041226126
89	0x3cd71b8f	0.026258258
90	0x3c0c43dc	0.008561101
91	0x3c454daf	0.012042447
92	0x3c6973c2	0.01424879
93	0xbcea5c43	-0.028608447
94	0x39854594	0.00025419577
95	0x3bad51dd	0.0052893
96	0x3cd5564a	0.026042122
97	0xbd423b40	-0.047419786
98	0x3df4bbcf	0.11949884
99	0x3bc2634d	0.0059322477
100	0xbcefcac5	-0.029271493
101	0xbd9d8c4e	-0.076927766
102	0xbd5c4043	-0.053772222
103	0xbd083730	-0.033255756
104	0xbba1102d	-0.0049152584
105	0xbd341523	-0.04396547
106	0xbd747c63	-0.059688937
107	0xbced98dc	-0.029003553
108	0xbc3b9742	-0.011449637
109	0x3b4aeb87	0.003096314
110	0xbc84a371	-0.016191216
111	0xbd06be4c	-0.032896325
112	0xbc2adb0e	-0.010428203
113	0xbd962561	-0.07331348
114	0xbe0edcbe	-0.13951394
115	0x39c7c457	0.00038102522
116	0xbd52dd63	-0.051480662
117	0x3ba1b945	0.004935416
118	0xbb2d79ff	-0.002647042
119	0xbd2074a8	-0.039173752
120	0xbbcab9c9	-0.006186698
121	0xbb5571c0	-0.003256902
122	0x3aa9ccb8	0.0012954688
123	0x3be972eb	0.007124295
124	0x3ab8188e	0.0014045404
125	0xbb93b545	-0.004507693
126	0x3b9ea3eb	0.004841318
127	0xbb93b493	-0.00450761
128	0x3bbb6607	0.0057189497
129	0xbb9914bd	-0.0046716616
130	0x3baf0e35	0.00534227
131	0x3a5ad04e	0.000834708
132	0x3b6f6243	0.0036527074
133	0xba9715e0	-0.0011526905
134	0xbb986d3b	-0.004651693
135	0xbae3dc01	-0.0017384292
136	0x3a5bd157	0.0008385381
137	0x3ba2a768	0.004963804
138	0x381536bb	3.557534e-05
139	0x39a48b9a	0.0003138453
140	0x3b57d055	0.0032930572
141	0x3ab3ad5b	0.001370828
142	0x3adb925e	0.0016751995
143	0xbba73577	-0.005102809
144	0x3d240805	0.04004671
145	0xbd5f920a	-0.054582633
146	0x3ab5d56f	0.0013872812
147	0x3e115928	0.14194167
148	0x3c347182	0.0110133905
149	0x3d882529	0.06647713
150	0xbe03f70f	-0.12887214
151	0x3d0be56e	0.034154348
152	0x3cebada5	0.028769324
153	0xbd1430ba	-0.03617928
154	0xbcbfb5fa	-0.023402203
155	0xbc574779	-0.013139599
156	0xbc80f12a	-0.015739996
157	0x3ade35d5	0.0016953299
158	0x3daba7fe	0.08381651
159	0x3d28267a	0.04105232
160	0x3c926661	0.017871084
161	0xbc0af65b	-0.008481587
162	0xbcacd062	-0.021095458
163	0xbddf762b	-0.109112106
164	0xbc2de856	-0.010614475
165	0xbd3463a9	-0.044040356
166	0xbddab47a	-0.106789544
167	0x3cf25599	0.029581832
168	0x397ec246	0.000242957
169	0xbb0e0bfc	-0.0021674624
170	0x3b68d105	0.0035524976
171	0x3ac8f166	0.0015330731
172	0xbb6506cc	-0.0034946678
173	0xba53d1c0	-0.00080802664
174	0x3b2f31c9	0.0026732555
175	0xbb1b610e	-0.0023708972
176	0xbbafe0cc	-0.005367374
177	0xba072184	-0.00051548355
178	0xb8969b7d	-7.181519e-05
179	0xb886b6f5	-6.423696e-05
180	0xb98ea6b7	-0.00027208563
181	0xb96b3e17	-0.00022434477
182	0xba2b27f6	-0.0006529087
183	0xb9ecc04d	-0.00045156703
184	0x39994f1f	0.00029241384
185	0xbbaf6ce7	-0.0053535583
186	0xb92acc2f	-0.00016288528
187	0x392d4edf	0.00016527947
188	0xbaa6e18f	-0.0012732017
189	0x3a600002	0.0008544923
190	0xb876a2a2	-5.8802434e-05
191	0x3bb4e21c	0.0055201184
192	0x3b0c5183	0.002141089
193	0x3c7112de	0.014713971
194	0x3b2988bf	0.002586886
195	0xbb15f18f	-0.0022879576
196	0x3ecc444b	0.39895853
197	0xbc5a44fb	-0.01332211
198	0xbd35dc6e	-0.04439967
199	0xbcce54ff	-0.025187014
200	0xbcd8151d	-0.026377255
201	0xbd06868d	-0.03284316
202	0xbc846dc4	-0.016165622
203	0xbd5400f9	-0.05175874
204	0xbd801487	-0.06253915
205	0x3c69c638	0.01426845
206	0x3c4072ab	0.011746089
207	0xbd8a0898	-0.067399204
208	0xbd3325d7	-0.04373726
209	0xbd2e3dc6	-0.04253938
210	0xbcb97d82	-0.022642855
211	0x3d440dd6	0.047864757
212	0xbd0591a3	-0.032609593
213	0x3d343b5a	0.044001915
214	0xbcc6772e	-0.024226751
215	0x3c8eb20e	0.017418887
216	0x3ca31370	0.01990673
217	0x3cfacc0c	0.030614875
218	0x3c2532be	0.010082899
219	0x3995fbd6	0.00028607127
220	0xbca009bd	-0.019535894
221	0xbc555642	-0.013021054
222	0xbcb1cf90	-0.021705419
223	0x3d4647f1	0.048408452
224	0xbc4b5923	-0.012411389
225	0x3cb96d0a	0.022635002
226	0xbc016ddc	-0.007899728
227	0xbc03a5eb	-0.008035163
228	0xbd21bc28	-0.03948608
229	0x3c03a8e9	0.008035877
230	0x3b1946cf	0.0023388152
231	0xbd1643fc	-0.03668593
232	0xbabdca6c	-0.0014479882
233	0xbc4bc201	-0.012436391
234	0xbb63e17e	-0.0034771855
235	0xbc26526d	-0.010151488
236	0xbc4e75b3	-0.012601304
237	0xbb8ba1c1	-0.004261226
238	0x3beae46d	0.0071683438
239	0xbc100633	-0.0087905405
240	0x3c29cce2	0.010363789
241	0x3d012be2	0.03153599
242	0xbcb2e684	-0.021838434
243	0x3d72d1d5	0.059282143
244	0x3b3f73e1	0.0029213356
245	0x3ecb72f0	0.39736128
246	0x3b5cf98b	0.0033718075
247	0xbb84c1ad	-0.0040514083
248	0xbd8568f2	-0.06514157
249	0x3d2eb94d	0.042657185
250	0xbb74e348	-0.0037366915
251	0x3d0a47ed	0.03376
252	0x3d65b963	0.056085
253	0x3c44ab2d	0.012003702
254	0x3d3faa16	0.046793066
255	0xbe0603aa	-0.13087335

tabnet.initial_splitter.shared.glu_layers.0.fc.weight f4 [96, 1038]
0	0xafa9d94a	-3.0895314e-10
1	0xbd8635ae	-0.06553207
2	0x3d63131d	0.05543815
3	0x3c99db5c	0.018781357
4	0x3d81549f	0.06314968
5	0xbe0b7dba	-0.1362218
6	0xbce9b375	-0.028527955
7	0x3973c8bb	0.00023249064
8	0x3a65fa7e	0.0008772983
9	0xbb4ff68c	-0.0031732647
10	0x3e072b2c	0.13200063
11	0xbbae001f	-0.005310073
12	0xb9a43936	-0.00031323143
13	0x3c80aaa3	0.015706366
14	0xbbc1ce5a	-0.0059144916
15	0xbc9aadce	-0.018881705
16	0x3db2cf39	0.08730931
17	0xbbee3935	-0.007270003
18	0xbd328ad9	-0.043589447
19	0x3c71b507	0.014752633
20	0x3e2593bc	0.16169637
21	0xbdf57880	-0.11985874
22	0xbda2767f	-0.079327576
23	0x3df8e3c6	0.12152819
24	0x3e2903da	0.16505376
25	0x3d8e3a27	0.069446854
26	0x3d116f59	0.03550658
27	0x3df4106a	0.11917193
28	0x3c9173e9	0.017755466
29	0xbd891f25	-0.066953935
30	0x3d8b6556	0.06806438
31	0x3d1c752b	0.038197678
32	0x3dbf6b7a	0.093466714
33	0xbc9bd4f5	-0.019022444
34	0xbcccd39b	-0.025003245
35	0xbe2a3c9d	-0.16624685
36	0x3d5f675f	0.05454194
37	0x3d264b48	0.040599138
38	0xbd96e614	-0.07368103
39	0x3cd7f3ee	0.026361432
40	0x3946e99c	0.00018969778
41	0xbbab1ff1	-0.0052223136
42	0xba9e3eea	-0.0012073193
43	0x3cb9ca0a	0.022679348
44	0xbac515cc	-0.0015036403
45	0x3d87ee4e	0.0663725
46	0x3d6a4573	0.05719514
47	0x3d7ebb9b	0.062190633
48	0x381ac088	3.689577e-05
49	0x3c4d9cd1	0.012549595
50	0xbd186a1e	-0.037210576
51	0x3bb61b1f	0.0055574323
52	0xbcea78b6	-0.028622013
53	0x3d271180	0.040788174
54	0xbb6dd08a	-0.003628763
55	0x3dab7638	0.08372158
56	0x3d5d8c85	0.054089088
57	0xbc8874a8	-0.016657189
58	0x3d5dd7fa	0.05416105
59	0x3e23ff23	0.16015296
60	0x3cffdaa3	0.031232184
61	0xb706ec23	-8.042002e-06
62	0xbe0715e7	-0.13191949
63	0xbc8140d5	-0.015777985
64	0xbd87305e	-0.06601022
65	0xbd2c996a	-0.042138495
66	0x353c4aca	7.014429e-07
67	0x3d0ba25a	0.034090377
68	0x3aaaab81	0.0013021083
69	0xbd18d464	-0.037311926
70	0x3d4d3f25	0.050109047
71	0xbdbb1e53	-0.09136643
72	0x3cf36019	0.029708909
73	0xbd76b027	-0.060226586
74	0x3a20a687	0.000612833
75	0x3b240e53	0.0025032952
76	0x3c97ec31	0.018545242
77	0xbe28f909	-0.1650125
78	0x37abc1c8	2.0475025e-05
79	0xbc8616c8	-0.016368285
80	0xbcf3698d	-0.029713416
81	0xb9b8c368	-0.00035240804
82	0x36808e08	3.831232e-06
83	0xbd1cedc8	-0.038312703
84	0xbbdf9b02	-0.0068238983
85	0x3d43cfb5	0.047805507
86	0xbc0d0247	-0.0086065
87	0xbd0ab4c3	-0.033863794
88	0x3dc194b7	0.09452193
89	0x3d81dfe9	0.063415356
90	0x3e11c3dd	0.14234872
91	0xbe140da0	-0.14458323
92	0xbd2d4c32	-0.042308994
93	0xbcbdd460	-0.023172557
94	0x3c9a86e5	0.01886315
95	0x3d202978	0.039102048
96	0x3d1bcb7d	0.03803586
97	0xbd3da7f8	-0.046302766
98	0xbd4d797f	-0.050164696
99	0x3906b580	0.0001284685
100	0xbd9efb2a	-0.077627495
101	0xbe1a2c79	-0.15056027
102	0x3e6c805b	0.23095839
103	0xb7bfd3c5	-2.2867587e-05
104	0xbd3a4771	-0.045478288
105	0xbdce9a36	-0.10088007
106	0x3d91f62f	0.07127034
107	0xbd534085	-0.051575202
108	0xbd1081ff	-0.035280224
109	0xbdd7b192	-0.10531916
110	0xbd9020a7	-0.07037478
111	0xbcb1540b	-0.02164652
112	0xbd86168d	-0.0654727
113	0xbcf8cd08	-0.030371204
114	0x3c2ee079	0.010673636
115	0xbcfccc4c	-0.030859135
116	0x3d160d6f	0.036633905
117	0xbd0c4f09	-0.03425506
118	0xbcc194c5	-0.02363051
119	0x3d5ae285	0.053438682
120	0xbe0e81d6	-0.13916716
121	0x3ceea486	0.029131185
122	0x3d1cedf1	0.038312856
123	0xb52a7296	-6.349668e-07
124	0x3df59af4	0.119924456
125	0xbe53619f	-0.20642708
126	0xbca71331	-0.020394893
127	0xbd3e4168	-0.046449095
128	0xb9beac5a	-0.00036368036
129	0x3bbeba5f	0.005820557
130	0xbdf6c5c8	-0.120494425
131	0xbdeb7983	-0.11497786
132	0xbca0e0f0	-0.019638509
133	0xbdf972c0	-0.1218009
134	0x3ba7b773	0.0051183044
135	0x3da1eac3	0.07906105
136	0x3d5accbc	0.053417906
137	0x3e4075fe	0.1879501
138	0x3c3356ed	0.010946018
139	0x3ddb50ee	0.107087955
140	0xbdd4faa8	-0.103993714
141	0x3b5731a9	0.0032835996
142	0x3c807591	0.01568106
143	0x3c042fd2	0.008068042
144	0xbd67c77b	-0.056586724
145	0xbe013247	-0.12616836
146	0xbe5be5ba	-0.21474352
147	0xbc6cbac1	-0.0144488225
148	0x3d6b648d	0.05746894
149	0xbcfef5e1	-0.031123104
150	0x3d243b6d	0.040095735
151	0xbe2ac83e	-0.16677949
152	0x35909acf	1.0773891e-06
153	0x3cef7b0d	0.02923348
154	0xbd16e261	-0.036836985
155	0xbd0c099c	-0.03418885
156	0xbc08a8b7	-0.008341006
157	0xbc80fb01	-0.015744688
158	0xbdc1ea5c	-0.09468529
159	0xbe3d378b	-0.18478219
160	0x3d514211	0.051088396
161	0x3e1a125c	0.15046066
162	0xbd1cb28f	-0.038256224
163	0xba0a8685	-0.0005284327
164	0xbd15e3b3	-0.036594104
165	0xbb51e51e	-0.0032027434
166	0xbd45300a	-0.048141517
167	0xbd0beb68	-0.034160048
168	0xbdf240be	-0.11828755
169	0x3dd982a8	0.10620624
170	0x3a812c9c	0.0009855214
171	0x3e67d7c0	0.22640896
172	0x3c0034de	0.0078251045
173	0x3711cf01	8.69087e-06
174	0xbae9d57a	-0.001784011
175	0x3e300263	0.1718841
176	0x3d4e0a28	0.050302655
177	0xbd72b01c	-0.059249982
178	0x3d061eb8	0.03274414
179	0xbb01384a	-0.0019717389
180	0x3d3feb30	0.04685515
181	0xb774f4fd	-1.4600574e-05
182	0xbd1a4e89	-0.037672553
183	0xbdbcefe6	-0.092254445
184	0xbbaa9d20	-0.005206719
185	0x3cfe3912	0.031033073
186	0xbd8ec497	-0.0697109
187	0x3c964116	0.018341582
188	0xbaae1b7f	-0.0013283341
189	0x3a90afed	0.0011038758
190	0x3d1364bf	0.03598475
191	0x3dc6d506	0.097086
192	0x3df76f64	0.12081793
193	0x3c5358c2	0.0128995795
194	0x3da9f407	0.08298498
195	0x3b80df88	0.003932897
196	0x3b83745b	0.0040116734
197	0xb8d50f30	-0.0001015946
198	0x39966d55	0.00028691688
199	0xb997c370	-0.00028946577
200	0xbc21ffe4	-0.009887669
201	0xb9cceded	-0.0003908718
202	0x3b767a7e	0.0037609632
203	0x376c7a5a	1.4095183e-05
204	0x3ca2bf2f	0.019866554
205	0xbbcbb844	-0.0062170345
206	0x3cbe6461	0.023241224
207	0xbc3a0a6e	-0.011355026
208	0x39b167e6	0.0003383748
209	0x3d970a0e	0.07374965
210	0x3e19abdb	0.15006964
211	0x3cf8bf75	0.030364731
212	0xbda924e4	-0.082589895
213	0xbb595e44	-0.003316776
214	0x3c67d2ab	0.014149348
215	0xbbae5842	-0.0053205797
216	0x3e02bb2f	0.12766717
217	0x3d9776f2	0.07395734
218	0x3de2899b	0.110614024
219	0x3e336b9f	0.17521523
220	0xbd4f0e66	-0.05055084
221	0x3d3842d5	0.04498561
222	0xbb58b76e	-0.0033068317
223	0xbd701649	-0.058615003
224	0xbdace8cc	-0.0844284
225	0xb8932286	-7.015937e-05
226	0xbb804e28	-0.003915567
227	0xbc6999e7	-0.014257885
228	0xb9bce26e	-0.00036026858
229	0xbdc946e3	-0.09827974
230	0x3b7d200f	0.0038623845
231	0x3cac2685	0.021014461
232	0x390421ad	0.00012601046
233	0xbd537403	-0.05162431
234	0x3d825a13	0.063648365
235	0x3d5c591f	0.05379593
236	0x3df96ab0	0.12178552
237	0x3dd6ef93	0.10494914
238	0x3b022ad4	0.0019861953
239	0x3d2e40ff	0.042542454
240	0x3ab5d461	0.0013872498
241	0x3d9e1e94	0.07720676
242	0x3dcbba3f	0.09947633
243	0xbd8cc396	-0.068732426
244	0x38a978bd	8.081037e-05
245	0x39b2be1e	0.00034092454
246	0xb926fabc	-0.000159244
247	0x3d4ac515	0.04950436
248	0x38a045f9	7.642428e-05
249	0x38a50e14	7.8704354e-05
250	0x3e184515	0.14870103
251	0xbced2233	-0.028946972
252	0x3ae1f330	0.0017238613
253	0xb857faf1	-5.1493702e-05
254	0x3d9b2e46	0.07577185
255	0xbd8d493b	-0.06898733
